Cancer-senn/trial3/models/cancer/grad3_Hinput_Thdummy_Reg1e-02_LR0.001/checkpoint.pth.tar (torch_old, 36110 bytes, 34 tensors)

parametrizer.linear1.weight f4 [10, 30]
00000000: 8fd6 403d 8633 3fbd f6f0 f3bd e416 ab3d
00000010: 811e 1b3c 88c8 fe3c ad53 3f3e 050c 173e
00000020: 1a0c 1a3e fa7c 9dbd 6293 fe3c b3cd 0ebe
00000030: a9a7 823d 9ad1 50bd ad02 32bd ebce 40bd
00000040: d4a3 ed3d 96d0 4a3d 5610 263b 45de 46bd
00000050: 1f16 0dbe bb71 723d e2ea b4bd a0ff 03be
00000060: b770 953d f640 143e 8993 31bd 85a3 5bbb
00000070: 4389 093e 4916 fb3c 1cdc febd b44a c4bc
00000080: f663 d13d 6b55 8fbd 1cd8 6c3d 358b 5b3d
00000090: cb79 32be 06fc 44bc 93a6 37be bc53 403d
000000a0: ee33 a5bd ce35 48be d181 b33d fda2 033e
000000b0: 36c0 9b3d aa33 373d f9c0 7a3d cb97 533d
000000c0: 51f2 fcbd da42 aabd e8c2 c8ba 51c8 49bd
000000d0: e880 18bd 869a a33d 9ea4 20be b3bc 113e
000000e0: 6b12 c0bc e7d3 b13d 6fa5 8f3c d4a4 9cbd
000000f0: 735e 66bc ab19 05be 9232 d33d ffc2 763d
00000100: 9a76 ab3c 9f40 e2bd 90d8 b0bd 5bd2 a63d
00000110: a4cd a1bd e979 24bd 80d4 953c 7631 0c3e
00000120: e5ab aebd 632a 893d 1ba8 8f3d effe 1e3e
00000130: 51b9 7cbc 374a f63d 13d6 1abe 7602 0e3e
00000140: 3a53 3f3d ee18 c5bb 294e db3d dbfb ffbd
00000150: 1347 3f3b 2ae4 2b3e 4901 833d a5c0 0e3e
00000160: 674a 92bd cfe2 913d 4c39 ecbd 947f f8bd
00000170: b774 6d3d 5d61 943d 3206 e63d fe87 f2bc
00000180: 585b 5ebc 49d5 f6bd cdce 67bc 5c7f 8b3d
00000190: b694 89bd 9662 9ebd 328a 3abe d13c fdbd
000001a0: 55c4 b93c fdc6 7d3d e467 113e ffe2 04be
000001b0: d96e 34be 30a5 1abe 73d7 4e3d 8450 a3bc
000001c0: 153a 93bc a801 afbc 1c21 313d 4eb6 8e3c
000001d0: e29d 083c 1719 f1bd 13d1 b43c ef41 21be
000001e0: 6929 0b3e e86d ab3d 710e 8d3d 10c0 07be
000001f0: 07a3 133c 60aa 0abd bb1c 03be 3442 143e
00000200: 44c2 84bd 2fa4 8ebc 2668 ddbb 7e82 8b3c
00000210: af78 34be 133b 1b3e ccdb 443d b6c0 4abe
00000220: 7cf0 8f3d bd85 0f3e 6bea dd3d 82ee 973d
00000230: 1d1e fc3d 58f8 b1bd 2154 203c ccac 9a3d
00000240: 1446 48be 54ea a0bd da57 44be 28ee 113e
00000250: d975 dfbd 14c0 a1bc 22f5 b7bd 2db0 833d
00000260: e1fe 1dbe c270 59bd 15a0 bd3d 5c43 bb3d
00000270: b422 c1bd 785c 82bd f5c2 29be f800 ec3d
00000280: e86c 1cbe 58a8 30bc 6e22 333d 74b7 57bd
00000290: 9b47 e5bd 880f a93c 0fbe 6c3d a6fc 2f3e
000002a0: 395d 5d3c f980 de3d 340d d83d bbc5 4f3e
000002b0: f830 453e 7139 0fbe 1a1a f33d 952b 30be
000002c0: 9b5b 2d3e 66e4 4a3e 066d 14be 05e9 0dbe
000002d0: eefb c63a 7404 183e 9a83 04be f2ee 543e
000002e0: 1e69 ac3d 498c 95bd bda7 f93d b631 573e
000002f0: 4478 21be 9ca5 983d 3dfe 4c3e 2d28 f53d
00000300: 08bd 4a3e 56c8 303d 4146 00be 22c8 f9bd
00000310: 9a12 a7bd 5763 1cbc 83fb 0a3c 0280 183d
00000320: 3f2b 00be a505 eebd ba17 c4bd e4c1 aa3d
00000330: 2abd babd 46b3 1d3e 8318 313e af58 033e
00000340: f621 d43d e332 4b3e 7f2b 77bd 2e71 09bd
00000350: 688d 163e 6ff3 563d e23a 30bb 7939 09be
00000360: 91cf 2abe 622f 9d3d ca9c 07be 4a6f edbd
00000370: 4a2f 41be 453f 363e 22e5 22bd c3be 8f3d
00000380: 1ef2 79bc 2bf6 98bd 68f4 32be 6e2b 973d
00000390: 0cf7 f3bd f3c2 333e 0652 85bd 498a fd3c
000003a0: e04f 43be 6414 21bc 9c49 6c3d dbca 66bd
000003b0: 4f36 0f3d a256 8e3c 672c 2f3d ca8d 47bd
000003c0: 72ae f6bd 2b37 08be aa50 d33d c29a 24be
000003d0: bce6 213d 9d1c 313e b60b f3bd 0e53 35bc
000003e0: 7256 2e3d c144 febd ced7 41bd f11b 703d
000003f0: 9b3d 45be 0a61 553d ceba fa3d 8b40 eabd
0.04707962 -0.046679996 -0.11911194 0.083539754 0.009467722 0.03110148 0.18684264 0.14750679
0.15043679 -0.07689853 0.031076137 -0.13945656 0.06379635 -0.05098114 -0.043459583 -0.047072332
0.11603513 0.04951533 0.0025339327 -0.048551816 -0.1377797 0.059190493 -0.08833863 -0.12890482
0.07296889 0.14477906 -0.04335359 -0.0033514213 0.13431267 0.030650275 -0.12444326 -0.023961402
0.10224144 -0.06998714 0.057823285 0.053599555 -0.17429273 -0.012022978 -0.17934637 0.046954855
-0.080665454 -0.19551775 0.08764995 0.12855144 0.07605021 0.044727005 0.06121919 0.051658433
-0.12350906 -0.08313532 -0.0015316876 -0.049263302 -0.03723231 0.079884574 -0.15687796 0.1423214
-0.023446282 0.08682995 0.01753494 -0.07648626 -0.014060604 -0.12998073 0.1031238 0.060244557
0.020930577 -0.11047482 -0.08635056 0.08145591 -0.07900551 -0.040155325 0.018289804 0.13690743
-0.0852888 0.06697538 0.070144854 0.15526937 -0.015425042 0.12025874 -0.15120725 0.13868126
0.04671023 -0.0060149347 0.10708267 -0.124992095 0.002918665 0.16786256 0.063967295 0.13940676
-0.07143097 0.071233384 -0.11534366 -0.121337086 0.057972636 0.07245133 0.112316504 -0.029605862
-0.013571583 -0.120524 -0.014148426 0.06811401 -0.067178175 -0.077336475 -0.1821678 -0.123651154
0.022676626 0.06195735 0.14199787 -0.12977217 -0.1762041 -0.15102077 0.050498437 -0.019935854
-0.017972032 -0.021363094 0.043244466 0.017420914 0.008338423 -0.11772364 0.02207235 -0.15747808
0.13590015 0.08370572 0.0688752 -0.1325686 0.009011037 -0.03385389 -0.12803929 0.1447838
-0.06482366 -0.017412273 -0.0067568 0.017029997 -0.17624162 0.15159254 0.048061177 -0.19800076
0.07028291 0.14015861 0.10835727 0.07418539 0.12310431 -0.08689946 0.009785683 0.0755249
-0.19557983 -0.078571945 -0.19174138 0.14251006 -0.109111495 -0.01974491 -0.08982302 0.06430087
-0.1542926 -0.05308605 0.09259049 0.09143707 -0.09430447 -0.06365293 -0.16578276 0.11523622
-0.1527592 -0.010782324 0.043734007 -0.05266519 -0.11195298 0.020637289 0.05779844 0.17186221
0.013510996 0.10864443 0.10549393 0.20290272 0.19256961 -0.13986756 0.11870213 -0.17204125
0.16929476 0.1981369 -0.14494714 -0.13858421 0.0015181282 0.14845449 -0.12940827 0.20794275
0.08418487 -0.07302148 0.12190197 0.21015057 -0.15768534 0.074534625 0.20018859 0.119705535
0.19798672 0.043159805 -0.125268 -0.121963754 -0.08157845 -0.009545169 0.008482817 0.037231453
-0.12516497 -0.1162217 -0.09574838 0.08337763 -0.091181114 0.15400419 0.17294507 0.12826799
0.1035804 0.1984363 -0.060344215 -0.033555202 0.1470238 0.05247825 -0.0026890566 -0.1340083
-0.16680743 0.07675053 -0.13243404 -0.11593492 -0.18865696 0.17797573 -0.0397693 0.07018807
-0.015255479 -0.07468828 -0.17476046 0.073813304 -0.11912355 0.17554836 -0.06509785 0.030949729
-0.19073439 -0.009831522 0.057687387 -0.0563458 0.034963902 0.017375294 0.042766955 -0.048719205
-0.120449916 -0.13302295 0.1031812 -0.1607466 0.039526686 0.17296071 -0.11867468 -0.011067165
0.04256291 -0.124154575 -0.047324948 0.058620397 -0.19261782 0.052094497 0.122426614 -0.11438092

parametrizer.linear1.bias f4 [10]
00000000: 5b18 cf3d c9d1 433e 35a1 263b 4136 23bd
00000010: 2b29 aebc 95cf 24be da74 1bbe 297a fdbd
00000020: b50c 56be 7886 753d
0.10112067 0.19122995 0.0025425677 -0.039846662 -0.021259865 -0.16094811 -0.15181294 -0.12376816
-0.20903285 0.059942693

parametrizer.linear2.weight f4 [10, 10]
00000000: 38df 423e 30ee 03be 03eb 67be 2545 ad3d
00000010: 6454 fabc a132 f3bd 8143 70be 154a e73d
00000020: 6288 70be 3411 03be c5dc 85be 4720 183d
00000030: 4dbe 9abe 3ea1 09bb 3577 1cbe c5fa a0be
00000040: 8931 88bc 263c 153e 0e0f 19be e858 293e
00000050: 8daa 583e 6f58 ef3c c2f7 c8bd bb1d 843e
00000060: cf7a 953e cb7f 06be e360 163e e977 33be
00000070: 148f 033e 678f a93d d568 a93a 8ebf cb3d
00000080: 4440 9c3e a6cc 58be 0c41 023e 3c3f 7f3e
00000090: a32e 1abe b943 93be c482 ed3d 3518 01bd
000000a0: 241b 73be 1dff b43c cbb6 7b3d 4c8c fd3d
000000b0: ea7a d63c 3d23 b8bd 46dc 73bd d124 9b3c
000000c0: 3096 14bb 3c7c 2f3e 1633 673e 834b 8abe
000000d0: 23f2 bd3c 2db3 25be 9f54 94be ee5d a73c
000000e0: ed48 733e ede0 bd3c f6d4 28be dc17 90be
000000f0: d6c9 cf3b a8cc 6cbe 52e8 91bd 86b2 013e
00000100: 0da2 713d d063 2f3d 1d05 763e ae5a febd
00000110: 48e4 0abe 74c9 9dbe 4619 a03e eafb 8d3e
00000120: 56b1 143d b3f1 f2bd a79a ae3d 7c29 593d
00000130: 05e1 863e bed8 86be bc6f 9dbe 79d7 7dbe
00000140: 7206 c5bd 5668 2b3b 5caf 5b3e f850 dd3d
00000150: 995d e5bd 41a5 7b3e ba27 d9bd 69ca 85bd
00000160: 60ab 863e a752 823e 9df9 09be 7c05 9e3e
00000170: bd16 873e 90f1 863e 3c81 5e3e 3ff0 c43d
00000180: c0fe 6abe b058 0bbe fdb6 35be 9d77 c2bd
0.19030464 -0.1288383 -0.22648244 0.08460454 -0.030557819 -0.11874891 -0.2346325 0.11293427
-0.23489526 -0.12799531 -0.26144996 0.037140157 -0.30223313 -0.002100065 -0.15279849 -0.31441322
-0.016625183 0.14573726 -0.14947149 0.16537821 0.2115881 0.029216973 -0.09812881 0.25803933
0.29195258 -0.13134687 0.14685397 -0.17526211 0.12847549 0.08279305 0.0012924919 0.099486455
0.3051778 -0.21171817 0.12720126 0.24926466 -0.15056853 -0.28762606 0.11597207 -0.031517226
-0.23740822 0.022094304 0.06145362 0.12380275 0.026181657 -0.08991096 -0.05953624 0.018938454
-0.0022672527 0.17137235 0.22578081 -0.27010736 0.023186749 -0.16181631 -0.2897081 0.020430531
0.23758288 0.023178542 -0.16487488 -0.28143203 0.0063411994 -0.23124945 -0.0712439 0.12665758
0.058992434 0.042819798 0.24025388 -0.124196395 -0.13563645 -0.3081776 0.31269282 0.27731258
0.036301933 -0.11862507 0.08525591 0.05301808 0.2634355 -0.26337236 -0.3074931 -0.24789228
-0.0962037 0.0026154718 0.21453613 0.10806459 -0.11199493 0.24574758 -0.1060328 -0.06532747
0.26302624 0.25453684 -0.13474126 0.3086356 0.26384535 0.26356173 0.21728987 0.09616136
-0.22948742 -0.1360805 -0.17745586 -0.09495471

parametrizer.linear2.bias f4 [10]
00000000: 1686 72be 9fdc 973e 71dc 92be 30d3 48be
00000010: feaf d23b 1c88 3c3d 3c0d be3c 2f7c 693e
00000020: dbc2 ae3d b85f 6d3e
-0.23683962 0.29660508 -0.28683808 -0.19611812 0.0064296713 0.04602824 0.02319967 0.22801279
0.085332595 0.23181045

parametrizer.linear3.weight f4 [5, 10]
00000000: c8ff c33d 6a02 4a3d 8744 e03c fd34 e23d
00000010: 20c5 1cbe 2a1d 5bbd 2c79 8d3e 8ba2 4e3e
00000020: f4a5 adbc a996 813e c9b6 8bbd 98c4 793e
00000030: 4f79 dc3c a712 acbe 9d55 503e 1f5b 38b9
00000040: 0477 acbd 4239 70be 5d7c d33d d04e 833e
00000050: bfc7 15be e820 d1bc 60cf 013e e80b 383e
00000060: 442f 31be 710e f03c 14b8 8fbd 4b8d 053e
00000070: d757 febd 59ff 523e 088e f43b 40ff 3f3e
00000080: 3e12 273e cd07 35bd 9d24 93be 4a0f 553e
00000090: 87bf 4abe ecd0 7c3e d050 6bbe ab67 823e
000000a0: 1024 a1bd f8b6 b3be 469f 663e 4dc7 1ebe
000000b0: 8687 81bd 0681 983e 535e 07be 1311 9abe
000000c0: 857b 013e 5b6f 1abe
0.09570271 0.04931871 0.027376426 0.11045263 -0.15309572 -0.05349461 0.2763151 0.20179193
-0.021197297 0.25310257 -0.06821973 0.24391401 0.026913313 -0.3360798 0.20345159 -0.00017581553
-0.08421138 -0.23459342 0.10326455 0.25646067 -0.14626978 -0.025528386 0.12676764 0.17973292
-0.17303187 0.029303761 -0.07017532 0.1304218 -0.12419098 0.2060522 0.0074632205 0.18749714
0.16315553 -0.044196893 -0.2873887 0.20806614 -0.19799624 0.24689072 -0.22980046 0.25469717
-0.078682065 -0.35100532 0.22521695 -0.15505715 -0.06324677 0.29785937 -0.13219576 -0.30091152
0.12644775 -0.15081541

parametrizer.linear3.bias f4 [5]
00000000: 7fb5 3bbe a0f7 32bd a1aa 903d 1bc5 b83e
00000010: d789 44be
-0.18330954 -0.043693185 0.07063795 0.3608788 -0.19193207

parametrizer.linear4.weight f4 [31, 5]
00000000: ac05 bbbe b506 c0bd 6e4e 5b3e 5891 b83e
00000010: b119 fcbe c52b 0bbe 649c 953e fc9f 1fbd
00000020: 2ab2 ba3e d76d 47bd 6a85 b5be 949c 25be
00000030: 33e5 fdbd 7a0a b1be 5652 813e 9985 54be
00000040: 2bcb 97be edac d23e 0765 b73e 3203 c8be
00000050: 8f77 b8be 09e1 d33e 209d 8e3e d094 c03e
00000060: cc4c 1fbe 696d c13e e737 afbd aa4c 8fbe
00000070: 69aa 7c3e 9d95 3a3e 9a3e d0bd 077d 593e
00000080: 020b 653e 1989 33bb 24b1 f6be 77b9 29be
00000090: 9bed 153e c4ee fc3d c5a6 3f3d 5465 eabc
000000a0: f8f5 bdbd 4a8f 67be 5596 923e 5072 56bd
000000b0: cb64 ddbd 06f8 39bd b422 b23e 1a1f 4e3e
000000c0: 2424 a03c 4bfa 613d 8a56 46be f2c9 9abe
000000d0: f319 26be 5df2 fb3e acf4 88be 3401 b73e
000000e0: 9ca4 c1bc 07cb a0bd aae9 87bd 8ca1 d2be
000000f0: 46df a43e 3ad7 e7bd f02a 96be 1b69 babe
00000100: 88e6 f33c 9ab6 103e b4cb 1e3e d7f4 b4bd
00000110: 40bc a63d f8b6 fdbe 83b6 bf3d d110 c23d
00000120: c7b6 923e fe9e c3be 1716 c8bb c861 d5bc
00000130: aa1a e73d d840 633e 2f01 4e3e a0ab 91be
00000140: 930d 8dbe 8b5b fd3d 81ae 8f3d 3f50 963e
00000150: 21bc a73d d2f3 dbbd f06c 92bd 4888 973e
00000160: 6379 8ebe ca13 6dbe 8248 833e dc26 d3be
00000170: 1ea8 a0be d58a 42be ba04 b33e ef7f 823e
00000180: 670f d43e 10af f9bd 6f59 9f3d a228 aabe
00000190: bab6 a23e 63f4 cebd 6c50 4cbe 6178 f63d
000001a0: 3ef3 34be 8835 f5bc bc3a 5ebe f955 4d3e
000001b0: 912e f53e 28a8 97be 7e78 d5be 83c5 9f3e
000001c0: 7e90 d33e b559 18be 2f6e b7be 3f51 fabd
000001d0: 9cb9 ae3e ac10 7c3e 299e db3e 4dbb 02be
000001e0: 400e d33d a4ed f9bd 74e1 ac3e ef81 e93e
000001f0: 60c3 0abe 22da 40be 86e9 11be f6b6 89be
00000200: ce8a 19bc 1444 a53e a541 c2be 0685 f03e
00000210: dab9 203e afcb 2c3e 01f4 913e c867 b73e
00000220: a906 623e d253 b33e d5a2 88bb 6bc8 4e3c
00000230: b369 293e a7db 99be d8f1 fcbd 7dd7 8fbe
00000240: 24ff b13d 8eaf a1be 3165 0cbe 62ec c2be
00000250: 4517 cfbe 6d7c 513e 90e8 cc3d 6f9e abbe
00000260: 2454 adbd ca2c 203e 27fd 5a3e
-0.36527765 -0.09376279 0.21416637 0.36048388 -0.4923835 -0.13590916 0.2922088 -0.038970932
0.36464053 -0.048688736 -0.3545335 -0.16173011 -0.12397232 -0.34578305 0.2525813 -0.20754088
-0.29647192 0.41147557 0.35819265 -0.39064938 -0.36028716 0.41382626 0.27854252 0.37613535
-0.1555664 0.37778786 -0.085555844 -0.27988178 0.24674381 0.18221135 -0.1016819 0.212391
0.2236748 -0.002739495 -0.48182023 -0.16574655 0.1464142 0.123502284 0.046789903 -0.02861277
-0.092754304 -0.22613254 0.2863032 -0.05235511 -0.1081024 -0.04540255 0.347921 0.20129052
0.019548483 0.05517034 -0.1936895 -0.30232197 -0.16220836 0.49208346 -0.2674917 0.35743105
-0.023638062 -0.078512244 -0.06636365 -0.41138875 0.32201594 -0.11320348 -0.29329634 -0.36408314
0.029773012 0.14132157 0.15507394 -0.08835762 0.081413746 -0.49553657 0.09360983 0.09475864
0.28655073 -0.3820724 -0.006106149 -0.026047602 0.11284383 0.22192705 0.20117639 -0.28451252
-0.2754942 0.12370976 0.07015706 0.29358098 0.081901796 -0.107398644 -0.071496844 0.29596162
-0.27826986 -0.2315208 0.25641257 -0.41240585 -0.31378263 -0.18998273 0.34964544 0.2548823
0.41418 -0.12191594 0.0778073 -0.33234125 0.31780034 -0.10105207 -0.19952554 0.12034679
-0.17670915 -0.029932752 -0.21702093 0.20052327 0.4788709 -0.2962048 -0.4169349 0.31205377
0.41321176 -0.1487797 -0.3582625 -0.12222528 0.34125984 0.24615735 0.42894104 -0.12766762
0.10305452 -0.122035295 0.33765757 0.45606944 -0.13551092 -0.18833211 -0.14249238 -0.268974
-0.0093714725 0.32278502 -0.37940708 0.4697649 0.15695897 0.16874574 0.28506473 0.35821366
0.22072853 0.35024887 -0.0041698017 0.012621026 0.16544227 -0.30050394 -0.123508155 -0.28094092
0.08691242 -0.3157925 -0.13710476 -0.3807097 -0.4044744 0.20457621 0.10005295 -0.33519313
-0.08463314 0.15642086 0.21385632

parametrizer.linear4.bias f4 [31]
00000000: 13d9 133d 0293 01be ae21 c3be c71d ca3e
00000010: a54a c63e 41d6 9b3d d802 b33e 738c f1bd
00000020: 6e54 783e 349b 3d3e 9295 acbe 7696 333e
00000030: 5af7 bdbe 6cab 2a3d d0a4 50be 58cd c7be
00000040: acf7 a1bd 6441 e63b c5a4 243e cdd4 573c
00000050: 7542 d43e c9cf a6be d3e9 9c3e fcaf 6f3e
00000060: 99d8 89be 53c9 a63e a2f7 bb3d 9e08 aabe
00000070: a7a6 bd3e 79d8 af3d a21a b5bd
0.03609569 -0.12653735 -0.38111633 0.39475843 0.38728824 0.07609225 0.34963107 -0.11794367
0.24250957 0.18516237 -0.33707863 0.17537865 -0.37102777 0.041667387 -0.20375371 -0.39023852
-0.07908568 0.007026838 0.1607848 0.013173294 0.41456953 -0.32580402 0.30647144 0.23406976
-0.26923063 0.32575473 0.091780916 -0.332097 0.37041208 0.08586211 -0.088429704

exp_avg f4 [10, 30]
00000000: b90c 1bbb 322f 47bb 9f73 f3ba 143a 19bb
00000010: 3989 bb3b 409d 3b3a 910f e3ba bae8 92ba
00000020: d992 193b c5f1 843a ca37 abba 3cfb 5c3a
00000030: 79cc 51b9 0854 82ba 0137 d83b d7b4 f1ba
00000040: 3bd2 9dba 25ca bf3a 7957 8fba d131 b3bb
00000050: 4464 5fbb 0382 8bbb b60a 4fbb 4dfc 4dbb
00000060: e572 d33a b940 f2ba 56ec 5fbb 81a6 1ebb
00000070: b0f0 4cbb 7f9f 3dbb 67dc b538 22de bf3a
00000080: abcf 75b9 da9b 243a fba9 eebb b79d 10ba
00000090: e381 ca3a 1009 133a 1ee2 8eba 9c46 e5ba
000000a0: 304d a43a dddd eb3a 4f53 e5b9 814a a93a
000000b0: 9cea e7ba de37 853b 21e1 4c3b 4a3c 933a
000000c0: 82fe 303b e023 d93b 08d9 263a f7d5 1a3a
000000d0: 10da d339 969c b73a 3eb5 aebb 82d2 f738
000000e0: cdf2 d539 4138 53b8 eca9 6d3a cd20 deba
000000f0: 61ff 1bba dd9b 22bb f4f6 1aba 62f1 1bba
00000100: a602 833b c3b3 69b9 ddd2 b9ba a9f5 73b9
00000110: 9bcd e33a e6b7 843a cf43 8439 34f5 afba
00000120: 391a c338 888b 19b9 0694 133b bd35 92ba
00000130: 415f b7ba 7e4f 183a 037c e3ba 6e2b 3eba
00000140: bd9d 24ba 2282 37bb 660b 3fba cb67 1dba
00000150: 0cc4 243b a311 9dba ca79 ddba b4ac efb9
00000160: c339 7eba d175 01ba e809 90ba bebe 7b39
00000170: 7d3a a5ba 4d65 49ba 48ae d63a 71b4 7239
00000180: 15cc 0a39 3023 b1ba 45fd e4b9 11b6 963b
00000190: 7573 14b9 4028 af3a 4cd1 03ba 74fd 3bba
000001a0: e525 033b 73ca 263b 88e1 8b3b e562 223b
000001b0: f1eb 213a e866 b23b a021 5fba 4b16 223a
000001c0: 74ab 83ba 4c55 2eba fc96 de3a c535 6238
000001d0: 5dff b93a 336d e6b9 e944 0e3a ec92 743b
000001e0: e344 14ba 0ae8 633a 9922 1fba 2474 1fb9
000001f0: 3e5c 4d39 aa49 5a3a c321 933a 4938 543a
00000200: 5a02 003b 0f02 7d3a 2b87 a539 c58f e03a
00000210: 33c6 84b9 4550 9439 4376 6f3b e006 0d3b
00000220: b6db bf3a 673d bb3a 5b27 803a b7a9 2d3b
00000230: 854b 69b9 3403 1f3a 1e2b 7bb9 3bd2 7239
00000240: f070 813a d398 f839 1ebf 3639 7128 3a39
00000250: 0bdc 123a 22dd 3d37 d470 77b9 8580 61ba
00000260: e4d1 0238 20f3 b1b9 b032 c23b 1eb3 073b
00000270: 0d95 e439 26ec 933a b0dc 0d3b 49d5 093b
00000280: 648d f3b9 56b8 34ba 6450 cab8 aaa3 d7b9
00000290: 5cd2 b93b 1452 ba39 3970 06ba 02d1 b13a
000002a0: a9d1 edba 0e30 acba 5fe0 54b9 a801 59ba
000002b0: 5676 21b9 5101 cbb9 dbfb a13b b766 933a
000002c0: 304c 8238 488f 673a 7879 27ba a3a6 b33a
000002d0: e56d 8cba 1ac6 e6ba 072c 6aba 42d2 82ba
000002e0: 09e9 013b 0c03 46b8 2f5c 8eba cfb7 0fba
000002f0: 3ee0 243a 881b 4a38 3ade f5b9 741d 91b9
00000300: 901a 88b8 5215 b0b9 d869 803a 9335 d0ba
00000310: 7b89 c4ba 9330 03ba 41bd aeb9 433b 6bbb
00000320: 3f94 beba b759 0ebb 5a33 b3ba 2ebc a6ba
00000330: 53b0 de39 d77e 3eba f876 b1ba 9ac5 85ba
00000340: ab11 a1ba 3f94 beba 042b bf3a 9621 7c39
00000350: 8e90 a73a 2956 943a c101 35bb f39c aeba
00000360: ea93 acb9 9998 55ba 3c5c 4abb db19 83ba
00000370: 8316 8a39 437b a1ba 7426 143a 4448 3f39
00000380: 0ade 9fbb 8263 3bba 7afc 5e3a 1578 dab9
00000390: 29ca 48ba ae76 0f3a d769 863a fe52 d639
000003a0: da7b 843a aa18 203a c3d8 2ebb 05ee eeb8
000003b0: c955 a23a f06a 3f38 fdea 39b9 1a01 913a
000003c0: cb94 0c39 463b a6bb bb83 9d39 8191 9ab9
000003d0: b5ff 063c d498 253a ed5c 60ba 499e a5b9
000003e0: 5f19 113b 7d6e 4e3b 60a1 60ba daec 93bb
000003f0: b20b 383a 0533 5bba 56e6 5a3b 7e39 12bb
-0.0023658706 -0.003039312 -0.0018573886 -0.0023380565 0.0057231453 0.0007156916 -0.0017323365 -0.0011208274
0.0023433475 0.0010142854 -0.0013062891 0.0008429771 -0.00020007965 -0.0009943256 0.006598354 -0.0018440735
-0.0012040803 0.0014632387 -0.0010936103 -0.005468585 -0.0034086863 -0.004257442 -0.0031592078 -0.00314309
0.0016132264 -0.0018482424 -0.0034167967 -0.002420813 -0.003127139 -0.0028934178 8.671806e-05 0.0014638344
-0.00023442383 0.0006279327 -0.007283447 -0.00055166654 0.0015450086 0.00056089554 -0.0010901128 -0.0017492357
0.0012535211 0.0017995198 -0.00043740353 0.0012915881 -0.001769382 0.004065498 0.0031262117 0.0011233178
0.0027007167 0.006626591 0.00063647376 0.0005906517 0.00040407525 0.0014008458 -0.0053316643 0.00011817088
0.00040807427 -5.035871e-05 0.0009066153 -0.0016947031 -0.0005950835 -0.002481214 -0.00059114327 -0.00059487496
0.0039981185 -0.00022287578 -0.0014177222 -0.00023265801 0.0017380001 0.0010125607 0.00025227523 -0.0013424517
9.303209e-05 -0.00014643196 0.0022518649 -0.0011154931 -0.001399018 0.0005810185 -0.0017355684 -0.00072543963
-0.00062796084 -0.002800115 -0.000728777 -0.0006004541 0.0025141267 -0.0011983406 -0.0016897258 -0.00045714306
-0.0009697938 -0.00049385155 -0.001098928 0.00024008282 -0.0012605932 -0.00076826365 0.0016378844 0.00023146138
0.00013236732 -0.0013514515 -0.0004367625 0.0045993407 -0.00014157391 0.0013363436 -0.0005028441 -0.00071712513
0.00200116 0.002545026 0.004268829 0.0024778184 0.00061768206 0.0054443963 -0.00085117854 0.00061831315
-0.0010045604 -0.00066502835 0.0016982253 5.3932676e-05 0.0014190484 -0.00043950378 0.00054271385 0.0037319018
-0.0005656017 0.00086939393 -0.0006070524 -0.00015206687 0.00019584686 0.0008327017 0.0011225272 0.00080955453
0.0019532652 0.0009651491 0.0003157196 0.001713269 -0.00025324672 0.00028288565 0.0036538995 0.002151899
0.0014637623 0.0014285267 0.0009777354 0.0026498863 -0.00022248745 0.0006065846 -0.00023953288 0.00023157235
0.0009875577 0.0004741611 0.00017428069 0.00017753408 0.0005602247 1.1316764e-05 -0.00023597787 -0.000860222
3.118989e-05 -0.00033941213 0.0059264526 0.0020706127 0.000435986 0.0011285588 0.0021646433 0.002103167
-0.00046453916 -0.0006893923 -9.6470845e-05 -0.00041129935 0.0056708287 0.00035537838 -0.0005128417 0.0013566318
-0.0018144149 -0.001313688 -0.0002030148 -0.000827814 -0.0001539824 -0.00038720158 0.0049433536 0.0011245821
6.213074e-05 0.0008833301 -0.00063886447 0.0013706278 -0.0010713903 -0.0017606646 -0.0008932952 -0.0009980875
0.0019822738 -4.7209716e-05 -0.0010861213 -0.00054824067 0.0006289518 4.8186193e-05 -0.00046895613 -0.000276785
-6.489933e-05 -0.0003358522 0.0009797169 -0.0015885107 -0.0014994586 -0.00050044915 -0.0003332887 -0.0035893477
-0.001454003 -0.0021720955 -0.001367192 -0.0012720877 0.0004247451 -0.00072668254 -0.0013539484 -0.0010205985
-0.0012288591 -0.001454003 0.0014584963 0.00024045105 0.001278417 0.0011317182 -0.0027619454 -0.0013321921
-0.000329166 -0.0008148044 -0.003087773 -0.0010002212 0.00026338184 -0.001232006 0.0005651482 0.000182421
-0.004878764 -0.00071483117 0.000850625 -0.00041669668 -0.0007659519 0.0005472702 0.0010254931 0.00040879095
0.0010107711 0.0006107191 -0.0026679493 -0.00011393059 0.0012385185 4.5637542e-05 -0.00017730515 0.001106295
0.0001340687 -0.005072984 0.0003004352 -0.00029481578 0.008239676 0.00063170237 -0.0008558769 -0.00031589184
0.0022140366 0.0031498962 -0.00085689686 -0.004514319 0.00070207857 -0.00083617895 0.003340145 -0.00223121

exp_avg_sq f4 [10, 30]
00000000: c8ca d236 81ce c636 7ab7 bb36 bb92 b736
00000010: 74ae b236 a8f5 6736 48fc a636 a404 9636
00000020: 7b8a 3936 08b2 ec36 9aa7 8d36 c348 2b36
00000030: 0b2d 3a36 029b 3436 5915 0738 1d00 8c37
00000040: 12c8 2337 a36e 3437 e549 f335 7573 c937
00000050: ca6d f836 405a f036 911b de36 46c5 c836
00000060: d85d 8936 9680 8936 53e2 af36 3217 b136
00000070: b08a 4937 80ae a236 c5f4 3d36 22b5 dc36
00000080: 803e 1b36 dcfe 3936 773a 2237 eb03 2237
00000090: ce0e f836 40e4 8436 b204 2037 c294 7b37
000000a0: ef0d 3436 a543 5d37 722a 0836 c138 a935
000000b0: cedc 3237 844f d237 29da d037 bb66 8337
000000c0: 0f19 d936 e60f 1638 8cbd 5836 7277 ef36
000000d0: 15bc 4536 64ee 4b36 2a49 ed36 442c c736
000000e0: 0864 da36 5f63 b836 756d 0b37 6b79 f936
000000f0: 3f6c 5d35 7444 2a36 54de 5f35 5df2 5435
00000100: b3d1 d236 744c 2035 f79d d535 78cd 5c35
00000110: b3f4 9135 2fa8 6035 4ba7 e235 0109 2036
00000120: 5a74 ca35 6944 ac35 fef0 a736 6636 0336
00000130: 2314 e735 441e 2d35 7f84 2f36 1804 9535
00000140: 3e43 5435 1696 e535 bb5d 4e35 72bf 7f35
00000150: 5ad6 ca36 7445 6435 3590 c635 f998 0835
00000160: 28d1 b735 9d15 c534 d746 4b36 2803 7f35
00000170: 00ae 2a36 3a72 3a36 88b4 de36 71e4 2136
00000180: 1e65 f835 4409 4a35 5191 ea35 3f32 3037
00000190: 4353 e835 e44c 7835 c9f6 a235 0a43 8b35
000001a0: 3412 b536 f704 c036 69c3 6b37 a543 0637
000001b0: a00e 5736 664f 4837 1e4f 4936 5570 0f36
000001c0: d2e0 2536 1efa 2e36 3129 a136 861a 5335
000001d0: b25a 9535 aa78 2035 d5c5 5c36 b8c6 9736
000001e0: a0df b435 f5d8 1b36 64b4 9435 cf8f a935
000001f0: 81a8 a736 01a3 8736 e567 0b36 bb09 c835
00000200: 897f e036 1295 cd36 399b 4c35 80c9 ea36
00000210: 576e 5735 4b56 f734 4e5b 0c37 08cc c736
00000220: bb72 7836 b833 9d36 8e54 a436 62c4 a936
00000230: d339 e935 f03e 5936 332f c835 a3dd e335
00000240: 6521 7736 9fab 2536 edb4 0636 6a64 0c36
00000250: 14a8 2336 40ac 1e36 4a9a b535 b897 0636
00000260: e37f af35 d562 8035 ce61 dd36 2488 b535
00000270: 9f23 ca35 4cdb 9a35 e9ff 5636 fbfb b135
00000280: b0d0 8f35 78d6 b035 401f 2435 4a18 4635
00000290: a7b7 2437 ef53 3536 cefa 1336 d47a 1336
000002a0: 22bd 6836 a1fd 8c36 89d2 8d35 06e0 f735
000002b0: 46a0 8235 9748 5035 8668 e336 b1c5 4636
000002c0: 3d7b 1c36 37ea ae35 604c a036 6a9c 2536
000002d0: 817b 0a36 99ff b635 4bc4 f435 1132 f535
000002e0: 42a1 ac35 faab a034 e5ca 4635 f9a1 4e35
000002f0: cabd 9035 a970 1836 4a35 3035 36f4 e134
00000300: 4a87 0535 e39a 1d35 1741 df35 3ad1 9835
00000310: 7c72 f735 6b40 b335 6a53 9135 300b 6a36
00000320: 4e31 2436 59f2 ed35 c033 1536 41f7 1536
00000330: 8848 3235 3115 d934 fb8e 3535 c936 7c35
00000340: 3478 0936 7f77 4635 c022 7636 2efa 9735
00000350: a4b0 5536 c433 5836 83a4 8b36 b456 8e35
00000360: f4bc 7e34 3643 3e35 9f49 d836 8530 c136
00000370: eb55 7b35 c07e 4436 977e 9335 81a0 8b35
00000380: d567 1537 214a de35 91e7 9a35 65f0 2c36
00000390: 2972 b436 45b9 7835 9eba 5836 360f 0936
000003a0: ba57 3f36 366c 3f36 21b9 4c36 9b42 9735
000003b0: 63e3 8335 c067 6535 0a57 2b36 c022 1936
000003c0: a39e 1e36 273e f536 3813 0036 0af5 2c36
000003d0: 91d4 c036 00f1 ee36 6cd0 6b36 48ca eb35
000003e0: ee46 cb36 08ea 2d37 5322 3336 70db 9b37
000003f0: 1999 3d36 53e2 d635 06d7 4437 8f0a e237
6.2820945e-06 5.9249e-06 5.5943938e-06 5.4709067e-06 5.3251224e-06 3.4564673e-06 4.976555e-06 4.4708886e-06
2.7647754e-06 7.0540736e-06 4.221639e-06 2.5523339e-06 2.7742378e-06 2.6912317e-06 3.220639e-05 1.6689353e-05
9.76214e-06 1.0754596e-05 1.8126417e-06 2.4014831e-05 7.403757e-06 7.163064e-06 6.6193247e-06 5.98343e-06
4.093843e-06 4.0978875e-06 5.241754e-06 5.2777114e-06 1.2012824e-05 4.8482907e-06 2.830567e-06 6.5775976e-06
2.313318e-06 2.7715496e-06 9.669565e-06 9.656865e-06 7.3926994e-06 3.9604784e-06 9.537836e-06 1.4995401e-05
2.68302e-06 1.3188376e-05 2.0290286e-06 1.2607999e-06 1.0661037e-05 2.5070978e-05 2.4897121e-05 1.5664255e-05
6.470021e-06 3.5777593e-05 3.229684e-06 7.1366603e-06 2.9464766e-06 3.0388119e-06 7.071668e-06 5.9358154e-06
6.5085515e-06 5.4951956e-06 8.310531e-06 7.434913e-06 8.2486434e-07 2.537182e-06 8.3397504e-07 7.932884e-07
6.2829e-06 5.97159e-07 1.591571e-06 8.2255383e-07 1.0874559e-06 8.369124e-07 1.6887001e-06 2.38471e-06
1.5084036e-06 1.2834909e-06 5.005043e-06 1.9552185e-06 1.7216702e-06 6.4491564e-07 2.6154155e-06 1.1102557e-06
7.9074005e-07 1.710551e-06 7.6877376e-07 9.527349e-07 6.045023e-06 8.5037686e-07 1.4794119e-06 5.088655e-07
1.3695435e-06 3.6709835e-07 3.0290591e-06 9.4999496e-07 2.5433255e-06 2.7782648e-06 6.637132e-06 2.412384e-06
1.8506869e-06 7.526435e-07 1.7476651e-06 1.0502116e-05 1.7309579e-06 9.249909e-07 1.2141765e-06 1.0375818e-06
5.3963395e-06 5.722624e-06 1.4052589e-05 8.002772e-06 3.204601e-06 1.1939415e-05 2.9997386e-06 2.1374046e-06
2.4717779e-06 2.6073608e-06 4.802969e-06 7.864222e-07 1.1127761e-06 5.9780234e-07 3.2897708e-06 4.5232846e-06
1.3476129e-06 2.3223085e-06 1.107936e-06 1.2633335e-06 4.9966043e-06 4.0422897e-06 2.0773089e-06 1.4903993e-06
6.6905673e-06 6.12683e-06 7.62218e-07 6.997201e-06 8.0254307e-07 4.6070122e-07 8.365909e-06 5.9544145e-06
3.7021662e-06 4.6849855e-06 4.8974243e-06 5.0594545e-06 1.7376682e-06 3.2372154e-06 1.4914898e-06 1.6977323e-06
3.6825306e-06 2.4686813e-06 2.0072869e-06 2.0920074e-06 2.4386727e-06 2.3644097e-06 1.3530455e-06 2.0055868e-06
1.3075736e-06 9.565507e-07 6.597699e-06 1.3525173e-06 1.506054e-06 1.1537718e-06 3.2037444e-06 1.3260864e-06
1.0715066e-06 1.317544e-06 6.1140236e-07 7.3796093e-07 9.817922e-06 2.7019958e-06 2.2050694e-06 2.1976202e-06
3.4680784e-06 4.2018514e-06 1.0566592e-06 1.8468133e-06 9.7324e-07 7.759167e-07 6.7772953e-06 2.961937e-06
2.3317546e-06 1.3032176e-06 4.777263e-06 2.467796e-06 2.0635491e-06 1.3634445e-06 1.8236545e-06 1.8268494e-06
1.2861931e-06 2.9927452e-07 7.4056e-07 7.697668e-07 1.0784072e-06 2.2715342e-06 6.5642655e-07 4.2087203e-07
4.974323e-07 5.871245e-07 1.6633738e-06 1.1385775e-06 1.8436253e-06 1.3355287e-06 1.0827619e-06 3.487523e-06
2.4466603e-06 1.7728408e-06 2.2232853e-06 2.234665e-06 6.6415714e-07 4.0434819e-07 6.763582e-07 9.395704e-07
2.0484558e-06 7.393464e-07 3.6677084e-06 1.1323189e-06 3.1842292e-06 3.221664e-06 4.1616745e-06 1.0605058e-06
2.3724334e-07 7.087832e-07 6.4458723e-06 5.7574966e-06 9.3629814e-07 2.9280054e-06 1.0989196e-06 1.040302e-06
8.905267e-06 1.6561863e-06 1.1541289e-06 2.5769925e-06 5.377708e-06 9.26568e-07 3.2295134e-06 2.0423445e-06
2.8512281e-06 2.8524205e-06 3.0506128e-06 1.1269761e-06 9.826439e-07 8.5460124e-07 2.553165e-06 2.2819004e-06
2.3636173e-06 7.3088045e-06 1.9084673e-06 2.5772629e-06 5.746792e-06 7.121009e-06 3.5139046e-06 1.7567736e-06
6.0581287e-06 1.0366093e-05 2.6693058e-06 1.8579623e-05 2.825231e-06 1.6010111e-06 1.1732574e-05 2.6946216e-05

exp_avg f4 [10]
00000000: 6a39 243a 6b88 7ebc 8c7f 573b cfd2 eb3b
00000010: 2c6c 99bb a882 c23b 0f2d 06ba 6d19 933b
00000020: c79c 603c 5954 d93b
0.0006264659 -0.015535454 0.003288242 0.007196761 -0.0046820845 0.0059359856 -0.00051184086 0.004489115
0.013709254 0.0066323695

exp_avg_sq f4 [10]
00000000: b327 4037 cee5 8538 3c4a 4837 b106 9237
00000010: 85f6 0938 9912 2a37 fabb 3e36 d9ee 7737
00000020: f650 3a38 7ea3 0738
1.1453335e-05 6.384739e-05 1.1938213e-05 1.7407672e-05 3.2892935e-05 1.013712e-05 2.8421623e-06 1.4777958e-05
4.4421256e-05 3.2338772e-05

exp_avg f4 [10, 10]
00000000: 11a9 2dba 5bfc 8aba 644f 15b9 4705 b3ba
00000010: fd0e d7b9 2e08 5f3a 256b b8b9 11c9 b839
00000020: 063d 993a 615d 6c3a 7ab7 7cbb 26d3 f1bb
00000030: 7b86 c6b9 00ab 86bb 99a1 b93a a79e 373b
00000040: e2e2 dd3b bedd 543b 0c80 fb3b 2235 163b
00000050: 7947 b539 1d29 4d3b 46aa 92ba b0c4 673b
00000060: 702a d339 1245 12bb 8f56 88bb bb3a 4fb9
00000070: c5c3 7abb c6a7 0b3a 6a51 8fb9 db35 4abb
00000080: abb2 0cbb 282e b93a 7864 daba 5679 0cba
00000090: 97f6 a339 9f20 023b 5214 5d3b 2d25 27ba
000000a0: 0aa6 c93a 2f74 9439 0616 293b 4662 68bb
000000b0: 2aa8 40b8 9f9b c13a cd9e 7d3b bbfc 16bb
000000c0: 1e4c 3e38 7f6c 4fba 2741 6839 c033 aa3b
000000d0: 5839 aaba d248 8e3b 5b9a 273a 857d 41bb
000000e0: 75bc b8bb b2aa 19b9 536a b7bb c596 a738
000000f0: e4ef 203b 4e72 86ba 066b 063b ef1f 2ebb
00000100: 34b8 50bb f6c1 e73a 134d 3eba bbe5 0dbb
00000110: e794 833a 7e6f bd3a 9289 1cbb 796e dcbb
00000120: dc4a 01ba ec41 3fbb 3c17 263a 47f0 3d3b
00000130: a858 913b 074a 0a3b 46d8 d83b 9e54 1f39
00000140: 344c 393b 3a4c 963b 789b 093b 0453 aab9
00000150: 7a01 97ba e43b 3cba 98df 3bbb 236a 5abb
00000160: 16da a3bb 4339 b839 620d 2abb 25d8 4cbb
00000170: c93d 153b 1d3d 17bb bcb7 173b efc2 343b
00000180: 8ded ca3a e529 c43a 797e 913b 0a03 213a
-0.0006624619 -0.0010603772 -0.00014239323 -0.0013658189 -0.00041019163 0.0008507994 -0.00035175044 0.0003524502
0.001169116 0.00090166 -0.003856151 -0.007379907 -0.000378657 -0.0041097403 0.001416254 0.0028018148
0.0067714313 0.0032480801 0.0076751765 0.0022919853 0.00034576262 0.0031305023 -0.0011189661 0.0035365038
0.00040276675 -0.0022319 -0.004160709 -0.00019762937 -0.003826366 0.00053274294 -0.00027335744 -0.0030854854
-0.00214688 0.0014128136 -0.0016662022 -0.00053586566 0.00031273506 0.001985587 0.0033734036 -0.0006376084
0.0015384567 0.00028315323 0.002580048 -0.0035458966 -4.5932982e-05 0.001477111 0.003869939 -0.0023038823
4.537042e-05 -0.00079125905 0.00022149515 0.0051941574 -0.001298706 0.004342177 0.0006393545 -0.0029524278
-0.0056377 -0.00014654806 -0.0055973916 7.9912636e-05 0.0024557048 -0.0010257454 0.0020510568 -0.0026569327
-0.0031848075 0.0017681706 -0.000725941 -0.0021651823 0.0010038883 0.0014452783 -0.002388571 -0.0067270366
-0.00049321144 -0.002918358 0.00063358597 0.0028982328 0.0044356175 0.0021101253 0.0066175787 0.00015194944
0.002827418 0.0045867236 0.0020997208 -0.00032486778 -0.0011520826 -0.0007180555 -0.0028667208 -0.0033327423
-0.005000363 0.00035137878 -0.0025947918 -0.0031256762 0.0022772423 -0.0023077198 0.0023150286 0.002758201
0.0015482173 0.0014966099 0.0044401255 0.00061421155

exp_avg_sq f4 [10, 10]
00000000: 26a5 1336 85f7 3936 f717 4036 9e63 1f36
00000010: 34ce c535 19c3 9935 92be f135 738c 5c36
00000020: ccb4 8535 547b 2436 89b2 0537 c245 3237
00000030: 2dd5 2c37 e4ed 4e37 9572 0437 11a7 6537
00000040: 8ec5 9037 12bb 1b36 1a73 4b37 d39c aa36
00000050: 10fc 3436 502f 2336 fc30 1136 1852 d936
00000060: 8b1f 0336 ab04 cf35 1036 4736 34cf 1e36
00000070: bba7 0a36 3c8c 2736 b5e7 8936 cabd 7337
00000080: b623 0637 8d07 a236 7123 ba36 5315 0037
00000090: 4c00 ac36 afa9 1437 6266 1337 5082 ab36
000000a0: 4be9 7b36 917b 9536 f869 7736 d5ef 9036
000000b0: 9691 2036 a313 9936 5bb2 3536 4f9f 5f36
000000c0: 287e 0736 3d62 6f36 417c 1736 c01e 0d37
000000d0: 5748 b236 1035 2a37 d9b1 5836 5204 9b36
000000e0: 6114 2437 f383 3c36 983a 1037 57bf 7836
000000f0: 746f 6b36 a431 8536 ebdf 9036 3984 d136
00000100: d2f9 6436 058c 1336 b0ca 8036 864d 9736
00000110: 1125 5936 fad3 cf36 5204 1f36 1674 7437
00000120: f64e 8736 022c b336 2619 e635 2611 3837
00000130: b7f9 1f37 44fd b236 2eeb 2137 d9f1 7936
00000140: 08c9 8836 8c80 4337 9b9f 8136 d7b5 1536
00000150: 8862 2736 85e8 5937 bb0c 4c37 0eb3 b136
00000160: b337 6637 30f8 9c36 3fdf 9136 4288 8e36
00000170: 4c73 4b37 2bdb d436 a53b ec36 88ca 9637
00000180: 4820 1c37 4656 d836 a865 0237 8d7f 8536
2.2000836e-06 2.7711224e-06 2.862418e-06 2.375083e-06 1.4737657e-06 1.1456169e-06 1.8011362e-06 3.2864307e-06
9.961891e-07 2.450969e-06 7.968986e-06 1.06258685e-05 1.0301633e-05 1.2333945e-05 7.894491e-06 1.3688362e-05
1.7258131e-05 2.320569e-06 1.2126542e-05 5.0846515e-06 2.696881e-06 2.4316432e-06 2.1635196e-06 6.476661e-06
1.9538882e-06 1.542406e-06 2.968478e-06 2.3664443e-06 2.0661234e-06 2.4966566e-06 4.1098924e-06 1.4528117e-05
7.995337e-06 4.8288553e-06 5.547358e-06 7.6343595e-06 5.126034e-06 8.860995e-06 8.785721e-06 5.1113675e-06
3.753771e-06 4.454931e-06 3.686755e-06 4.3194545e-06 2.39266e-06 4.5620413e-06 2.7074918e-06 3.332232e-06
2.019e-06 3.5670957e-06 2.2573079e-06 8.4114145e-06 5.313235e-06 1.0145144e-05 3.229003e-06 4.619863e-06
9.779907e-06 2.8090988e-06 8.596711e-06 3.7066254e-06 3.5082603e-06 3.969488e-06 4.317602e-06 6.244078e-06
3.4120062e-06 2.198621e-06 3.838293e-06 4.5091756e-06 3.2357095e-06 6.193758e-06 2.369536e-06 1.4570562e-05
4.032506e-06 5.339739e-06 1.7143655e-06 1.0971247e-05 9.53528e-06 5.3342974e-06 9.651105e-06 3.7244665e-06
4.076519e-06 1.1652835e-05 3.86308e-06 2.2308575e-06 2.4942292e-06 1.2988346e-05 1.2162312e-05 5.2958558e-06
1.3722037e-05 4.678055e-06 4.347326e-06 4.2477923e-06 1.21265875e-05 6.343607e-06 7.0402916e-06 1.7975704e-05
9.305841e-06 6.447345e-06 7.7722725e-06 3.9785577e-06

exp_avg f4 [10]
00000000: b561 abb8 2c3c c8bc ccd6 fd3b d2ad 86bc
00000010: fd70 093c 38a5 4e3c 516c 483c 1f1f e1bc
00000020: 0e86 d83c 86ca 1bbc
-8.172115e-05 -0.024442755 0.007746553 -0.016440306 0.008388755 0.012612633 0.012232856 -0.02748066
0.02643111 -0.009508735

exp_avg_sq f4 [10]
00000000: aff4 1b37 4313 4439 ea72 6537 f8ca 5739
00000010: 7acd e038 6cd8 a438 6f17 5938 7ced 7e39
00000020: 3271 d939 08f3 9d38
9.29569e-06 0.00018699192 1.3676219e-05 0.0002057961 0.00010719425 7.860441e-05 5.1758656e-05 0.00024311797
0.00041473802 7.5316115e-05

exp_avg f4 [5, 10]
00000000: a917 2bbc fb19 483c c644 8cbc ddfc bdbb
00000010: 0702 673a b39a 983a 5a38 77bb 8072 103c
00000020: 0369 113c 7722 5b3c 6d48 12bc 040d 633a
00000030: 5288 85bb 9e2d ac3a 7101 89ba 1c0c 6f3b
00000040: 31dc c93a 71ed e93b bd57 373b 05ab 313b
00000050: 5990 0d3c d234 c3bb a69c 413c c67c 963a
00000060: fc5e 08ba 6d1c 493a 05ae 023b aa2d f9bb
00000070: 22ae 95bb 35a4 10bc bc31 133c 3088 10bc
00000080: 2b74 493c 5afc b73b 2d38 073b 833e c3bb
00000090: 4218 b5ba bd72 82bc 1f9a 55bb 0957 38bc
000000a0: fa9a 0cbc d3b1 dd3c 7971 b3bc 2198 8cbc
000000b0: 8d46 743b 56e5 78bb b528 6abb ede4 c43c
000000c0: a00e 5a3b 9cbb 0b3d
-0.010442653 0.0122132255 -0.017122637 -0.005797966 0.0008812253 0.0011642784 -0.0037722797 0.008816361
0.008875134 0.013374916 -0.0089284 0.0008661302 -0.0040750885 0.0013136154 -0.00104527 0.0036475724
0.0015400705 0.007138901 0.002797588 0.0027109992 0.008640372 -0.0059572244 0.011817133 0.0011481277
-0.0005202142 0.0007671777 0.001994015 -0.0076043205 -0.0045678774 -0.0088282125 0.008984026 -0.008821532
0.012295763 0.0056147994 0.0020632849 -0.0059583797 -0.0013816433 -0.015923852 -0.0032593084 -0.01125122
-0.008581871 0.027062332 -0.021904694 -0.017162384 0.0037273497 -0.0037978492 -0.003572983 0.024034942
0.0033272877 0.034114465

exp_avg_sq f4 [5, 10]
00000000: 6532 0c38 7a34 8738 3508 9438 09a3 1b38
00000010: fbd2 c336 7beb 5836 c1cc 0236 bc3f b537
00000020: 583a ae37 a7e9 3938 65ae 9338 23ed 5f38
00000030: f85d a937 4e24 3038 94a1 bf36 bb6a 8337
00000040: 2fcf 1537 803a b238 7faf 7537 f7d3 b738
00000050: 38c6 b637 b65b 4539 a46e 1239 6a6c 0239
00000060: a818 a837 d937 0437 f46c dc36 7bc3 3d37
00000070: e369 8b37 2627 4538 0326 5138 743a 8138
00000080: cb27 8b38 1cb7 1138 429c d936 e35b e936
00000090: 1222 b535 3f6f 4c38 2c39 3b37 d226 7138
000000a0: f6e3 7a38 7170 7339 004f 2339 e668 4e39
000000b0: 5696 8537 5dfb 8637 26bd 9836 72a8 0539
000000c0: d090 c137 78db 9639
3.3425535e-05 6.447076e-05 7.0587186e-05 3.7106718e-05 5.836014e-06 3.2323576e-06 1.9490692e-06 2.160656e-05
2.0769585e-05 4.4325043e-05 7.04199e-05 5.3388194e-05 2.0190128e-05 4.199548e-05 5.7110537e-06 1.5666117e-05
8.929331e-06 8.498598e-05 1.4643999e-05 8.7656015e-05 2.1788393e-05 0.00018821549 0.00013964862 0.00012438153
2.0038642e-05 7.880816e-06 6.5691947e-06 1.1310792e-05 1.6619399e-05 4.700492e-05 4.9864884e-05 6.162087e-05
6.6354485e-05 3.4741228e-05 6.4852948e-06 6.954638e-06 1.3495467e-06 4.8740996e-05 1.115938e-05 5.749503e-05
5.981695e-05 0.00023216174 0.00015574321 0.00019684769 1.5924841e-05 1.6091095e-05 4.551973e-06 0.00012746619
2.3074826e-05 0.00028773746

exp_avg f4 [5]
00000000: 8ed9 5b3d 9265 7d3c 146c 08bd 6835 3abd
00000010: b43b b03d
0.053674273 0.015466111 -0.033306196 -0.04546109 0.086051375

exp_avg_sq f4 [5]
00000000: 15a1 4d3a 1d9b 9439 648e 933a 5e5b 5a3a
00000010: 3dc3 2d3b
0.00078441325 0.00028344328 0.0011257646 0.0008329655 0.0026514076

exp_avg f4 [31, 5]
00000000: 8a9f 993b c596 b6bb c3be bbbb 0570 cbbc
00000010: 9cf6 a83c 626d b43a adb0 d0bb a9ff 26bc
00000020: d6d2 11bd f8bb ec3c ecc4 f33b 9c96 2bbc
00000030: c69e 1dbc 65be 2ebd 9995 133d 48ac 803b
00000040: 8613 cabb f761 6abb 2601 94bc fcf2 823c
00000050: 8077 a0bb 4d5a 593c 9463 ff3a aef7 a83c
00000060: 5499 9cbc b97a 913a ed53 9738 3b4d 2bbb
00000070: bd29 3dbc 1b62 013c aebc 473b 334d 8cbb
00000080: 8193 3dbb c026 85bc f255 573c f3d1 a33b
00000090: fa58 b9bb c1a5 eabb ee86 00bd b1a4 cd3c
000000a0: 1abd 87ba d872 393a cea4 353b 748f 163c
000000b0: 06e6 e1bb 31de 8bbb c7ab ac3b c0e6 df3b
000000c0: 6860 ca3c 3db7 a9bc 4169 8c3b 3a25 28bc
000000d0: a9db e3bb c574 03bd dca9 ed3c 8d8b a6bb
000000e0: 6844 073a 03fc 25bb f49f 84bb 2850 433b
000000f0: fed4 b73b b360 37bc a566 1bbc a41d 27bd
00000100: 043e 133d 63ae 263b a740 b7bb c602 a8bb
00000110: 4998 acbc 6535 973c 8fbf 74bb 64cf d83a
00000120: e548 d4bb 7b2c 0fbc a1ff 303c 63e3 193a
00000130: 61a7 a5bb daf6 30ba 54a3 1abc e59f 183c
00000140: cb0b 3e3b 41aa 18bc 2377 f53a a786 a3bb
00000150: 042e 123c 3ecd 223b 3019 cebb 3817 5bbb
00000160: 9ec6 8ebc 2be7 8f3c 40de 79ba eb24 11bb
00000170: 55f0 4039 1a00 baba caa3 033b d30f edba
00000180: fed4 81bb 7029 973b 5324 ec3b b3a2 82bb
00000190: 8ebd b23b 2f32 ecbb d69f b6bb c681 dabc
000001a0: 539d b63c dd88 653b 0bbe 0dbc bbe7 07bc
000001b0: f67b 11bd b9ba e93c 8507 973b cb9e a9bb
000001c0: 2f3a d4bb b196 dcbc 34d6 b03c 8c52 8c3b
000001d0: 8594 cdbb 7441 9dbb e8d2 b5bc b59c 993c
000001e0: b0bc ec3a 2ad2 173b cafd 8aba 0e58 7ebb
000001f0: 3ecd e73a 6f4f 423b 40cf f5ba b575 32bb
00000200: 6b61 73bc eaba 263c 2714 b33b 6914 e0bb
00000210: f7fc 2fbb 9e46 a5bc cb92 883c 6886 043c
00000220: fa0f 08bc b174 ccbb 827f 0dbd 179a e23c
00000230: 2ce8 923b 32f8 8bbb 32ac 983a dee2 b5bb
00000240: b527 7f3b b11a 243b ba2f 4cbb 2391 663a
00000250: 917e b9bb 4ff8 803b 3ecb 02bc 48dd b73c
00000260: c1c5 a9bb 93c2 543c 11c4 83bc
0.004688208 -0.0055721723 -0.0057295277 -0.024833689 0.020625405 0.0013765509 -0.0063687176 -0.01019279
-0.03560146 0.028898224 0.0074392464 -0.01047292 -0.009620374 -0.042662043 0.03603134 0.0039267875
-0.006166878 -0.0035763958 -0.018066954 0.015985005 -0.004897058 0.013266158 0.0019484633 0.020625915
-0.019116081 0.0011099196 7.2158735e-05 -0.0026138562 -0.011545596 0.007896925 0.0030477452 -0.004281664
-0.002892703 -0.016253829 0.01314305 0.004999393 -0.005656359 -0.0071608727 -0.03137868 0.025102945
-0.0010356039 0.0007074303 0.002771664 0.009189475 -0.006893876 -0.0042684306 0.005269501 0.0068329275
0.024704173 -0.020717258 0.004285008 -0.010262782 -0.0069536758 -0.032093782 0.02901166 -0.0050825537
0.00051600346 -0.0025327213 -0.004047388 0.0029802416 0.0056101074 -0.0111924885 -0.009484922 -0.040799752
0.035947815 0.0025433532 -0.005592424 -0.0051272837 -0.021068709 0.018458078 -0.0037345623 0.0016541299
-0.0064784163 -0.008738632 0.010803134 0.000587037 -0.0050553535 -0.0006750651 -0.0094383545 0.009315466
0.0028998728 -0.009317935 0.0018727522 -0.004990417 0.008922104 0.0024841572 -0.0062896237 -0.0033430588
-0.017428692 0.017566284 -0.0009531714 -0.002214725 0.00018400078 -0.0014190704 0.002008664 -0.0018086381
-0.003962158 0.004613094 0.0072064786 -0.0039866804 0.0054547256 -0.007208131 -0.005573253 -0.026673209
0.022291815 0.0035024204 -0.008651267 -0.008294995 -0.03551861 0.02853142 0.0046090507 -0.0051764003
-0.0064766626 -0.026927324 0.021586515 0.0042823013 -0.0062738084 -0.0047990624 -0.022195294 0.018751482
0.0018061604 0.002316604 -0.00106042 -0.003880981 0.0017685068 0.0029649397 -0.0018753782 -0.0027230803
-0.014854769 0.0101764 0.005465049 -0.0068383706 -0.002685366 -0.020175274 0.016671559 0.008088686
-0.00830459 -0.0062394966 -0.03454543 0.027661366 0.0044832435 -0.0042715305 0.0011647998 -0.0055507263
0.003893358 0.0025040323 -0.0031156377 0.0008795431 -0.00566084 0.0039358507 -0.007983027 0.022444382
-0.005181045 0.012985843 -0.016084703

exp_avg_sq f4 [31, 5]
00000000: 22b8 8736 0e66 1c38 c420 c136 43f4 3539
00000010: b8d7 d038 8300 c035 4b3f 0538 895f 2637
00000020: 3ffe 6139 5b07 d638 10d2 bf36 8e9c 5d38
00000030: 79da 1337 dd3d 9439 6a25 2c39 6cef 6a36
00000040: 0ef6 1238 a223 8c36 c17f 0739 3d07 a838
00000050: 648d 7736 d3fb 4a37 1360 ff36 78d2 9738
00000060: 4cf2 1138 e251 8d36 6764 9b37 76e9 9836
00000070: e864 8538 f2f7 0c38 9747 d036 23f9 1138
00000080: 6975 d936 a213 ce38 5cc7 5e38 2158 a836
00000090: 7d15 3438 8757 b236 7f13 4839 81be dc38
000000a0: 9ea7 6536 20a5 f036 2873 ba36 02ba 8637
000000b0: 25e9 1b37 63ce ea36 a561 cd36 0c3a 7f37
000000c0: 0305 af38 458e 3038 940a 4a36 5733 2138
000000d0: 4f50 0537 87cd 4e39 5ed3 0039 7d8d 0f37
000000e0: fc7b 4137 6c76 2737 1bda ca37 e0e9 7437
000000f0: 901b 5036 cd7c 2c38 ea42 0137 173a 7639
00000100: a1ed 1839 f9ff 1836 a0f8 b937 fa1c ad36
00000110: 0174 ea38 fa83 8d38 2a08 3736 9c51 0437
00000120: d3f5 8337 e604 2e38 c51a 4338 75c6 e336
00000130: d851 e137 1510 f536 70ce 2138 66c5 f337
00000140: 5952 a937 04e6 4338 0257 0f38 b17d 1838
00000150: 6ba1 aa37 7ab4 3337 d173 4038 2b3a 7237
00000160: d8d3 b438 a5bc 9138 7a03 1736 6759 8a36
00000170: 6d24 b136 da7d 4d37 1b08 9736 8da1 0f37
00000180: f66f 8d37 95e7 8d37 fa4d 2137 876c f136
00000190: 2eee 9a36 17d7 3438 ab52 ba36 d07e 3a39
000001a0: 3359 d838 b964 3c36 72ab 1d38 12a7 0b37
000001b0: fedc 7139 b964 dc38 ffb4 8336 e786 2b38
000001c0: eec3 bf36 f39c 4039 50d8 d738 d335 7036
000001d0: 8585 2338 7e6f 9736 0e47 1439 1d68 b338
000001e0: eead aa36 6699 2637 7e5c b436 2495 c237
000001f0: 8835 5d37 e4da 9e36 50d5 9537 7aab 9d36
00000200: a949 a338 ce18 1238 ded4 1837 b28a 1b38
00000210: c67c e036 e400 d638 d5de 6938 d10c 3137
00000220: 0925 6938 29d1 e436 6d2b 5e39 e99a f738
00000230: ad9c fa36 77dc 3237 376e 5b36 e95e a237
00000240: ca40 2c37 3c79 b936 768b 1e37 9d16 b036
00000250: c69b a437 15f0 1d37 3459 2c37 e31c 9938
00000260: 364d 6937 daca 7538 f0e8 e437
4.0447494e-06 3.7288344e-05 5.7556626e-06 0.000173525 9.958394e-05 1.4305264e-06 3.1768617e-05 9.9166145e-06
0.00021552386 0.00010205685 5.716698e-06 5.283631e-05 8.81275e-06 0.00028274852 0.00016417136 3.500808e-06
3.503827e-05 4.1764733e-06 0.00012922195 8.0122125e-05 3.6888168e-06 1.2098771e-05 7.6107767e-06 7.239444e-05
3.479635e-05 4.21166e-06 1.8524193e-05 4.5571314e-06 6.3607295e-05 3.3609518e-05 6.207217e-06 3.480272e-05
6.4807723e-06 9.826502e-05 5.3114592e-05 5.0170497e-06 4.2935357e-05 5.315003e-06 0.00019080749 0.000105259016
3.4221225e-06 7.1717805e-06 5.556638e-06 1.6060661e-05 9.293003e-06 6.99777e-06 6.1208434e-06 1.52126995e-05
8.345584e-05 4.209417e-05 3.0106503e-06 3.8433205e-05 7.946116e-06 0.00019722256 0.00012285772 8.556407e-06
1.1532564e-05 9.981548e-06 2.418184e-05 1.4597987e-05 3.1010459e-06 4.1124225e-05 7.704579e-06 0.00023482028
0.00014584373 2.279876e-06 2.2169494e-05 5.159175e-06 0.00011179597 6.7479865e-05 2.7273877e-06 7.886814e-06
1.5730888e-05 4.1489395e-05 4.6516554e-05 6.7882306e-06 2.6860202e-05 7.303441e-06 3.857765e-05 2.9059778e-05
2.0184716e-05 4.670584e-05 3.417489e-05 3.6356683e-05 2.0340745e-05 1.0711252e-05 4.588423e-05 1.4437867e-05
8.622528e-05 6.9492766e-05 2.2502777e-06 4.1231283e-06 5.2792516e-06 1.2248254e-05 4.5010943e-06 8.561078e-06
1.6860646e-05 1.6916349e-05 9.614503e-06 7.194994e-06 4.6172854e-06 4.3115662e-05 5.552856e-06 0.00017785584
0.00010316297 2.8072811e-06 3.7591388e-05 8.323945e-06 0.00023065877 0.000105091785 3.925175e-06 4.0895215e-05
5.715053e-06 0.00018369015 0.0001029229 3.5794117e-06 3.8986578e-05 4.51313e-06 0.0001414085 8.554778e-05
5.086643e-06 9.930087e-06 5.3751855e-06 2.3196051e-05 1.318509e-05 4.734249e-06 1.7861516e-05 4.698927e-06
7.786166e-05 3.4832214e-05 9.109468e-06 3.708405e-05 6.6902458e-06 0.00010204481 5.5759057e-05 1.0553006e-05
5.558602e-05 6.819279e-06 0.00021187747 0.00011806732 7.46882e-06 1.0660958e-05 3.2697696e-06 1.93561e-05
1.0267084e-05 5.527543e-06 9.450005e-06 5.2478413e-06 1.9622861e-05 9.413828e-06 1.0272768e-05 7.300989e-05
1.3905859e-05 5.8601472e-05 2.7288188e-05

exp_avg f4 [31]
00000000: cbd8 6cbd 2843 94bd 6e4a c5bd f8b0 30bd
00000010: fb1f 413d d811 c4bc 1d0c 14bd 6bbd 8ebd
00000020: 2b73 a23c ec2a 6d3d 69ec 8abd a01d 5d3b
00000030: 07e4 b2bd dffb 38bd bd9c 70bc dd39 8dbc
00000040: 230a 32bc 8c9e 14bd 94a9 803a bae4 ad3c
00000050: 50c4 7ebd 0324 99bd fd91 7cbd e465 53bd
00000060: 078c 31bc ec1b 0abd 25e6 3fbd 9cfd a3bd
00000070: fa35 8bbc a58e 56bc e31e 153d
-0.057823937 -0.072393715 -0.09633337 -0.04313752 0.04714964 -0.02393429 -0.036144365 -0.06969722
0.019830307 0.05790226 -0.06783373 0.0033739582 -0.08734899 -0.045162078 -0.014685807 -0.017239505
-0.010866675 -0.036284015 0.0009816163 0.02122723 -0.062198937 -0.07477572 -0.061662663 -0.051610842
-0.010836608 -0.033718035 -0.046850342 -0.080073565 -0.016993511 -0.013095533 0.03640641

exp_avg_sq f4 [31]
00000000: f364 b73a c7b3 b73a 6fa1 0b3b 41fe 8c3a
00000010: e7a2 f839 9692 053a bc11 523a c6e3 c23a
00000020: b0bf fa38 0018 123a 353d a93a 351a ec38
00000030: 3de9 c93a 98a2 4a3a 50b2 bc39 ab1a a239
00000040: 0994 7c39 09a5 333a 0160 9838 a6ba a638
00000050: 9403 bf3a 1c7f ce3a 7727 c33a 33a2 9a3a
00000060: efda 6d39 09d0 283a a7db 693a 8d16 e83a
00000070: d228 4c39 869b 3e39 09da ff39
0.0013991877 0.001401537 0.0021305939 0.0010756926 0.00047423618 0.00050953904 0.0008013507 0.0014868907
0.000119566335 0.0005573034 0.0012911918 0.000112582384 0.0015404593 0.0007729917 0.00035991007 0.00030918917
0.0002408774 0.00068529 7.265807e-05 7.950263e-05 0.001457321 0.0015754434 0.0014889081 0.0011797607
0.0002268364 0.0006439691 0.00089209754 0.0017706916 0.00019470163 0.00018177749 0.0004879984
