Cancer-senn/trial3/models/cancer/grad3_Hinput_Thdummy_Reg1e-02_LR0.001/model_best.pth.tar (torch_old, 36110 bytes, 34 tensors)

parametrizer.linear1.weight f4 [10, 30]
0.043706752 -0.051254705 -0.12177554 0.080057256 0.019079559 0.033676203 0.18484324 0.14617443
0.15468685 -0.07442121 0.03020329 -0.13580848 0.06493123 -0.051934097 -0.038465295 -0.047283445
0.11577299 0.052538026 -0.00047111564 -0.051068984 -0.14253017 0.052589625 -0.092950895 -0.13366412
0.07531577 0.14113188 -0.048928183 -0.0074719903 0.12902878 0.026246525 -0.123821706 -0.022237983
0.10195862 -0.06833424 0.04960843 0.052421123 -0.17307283 -0.01176824 -0.1801082 0.04498292
-0.07939419 -0.19521688 0.08531359 0.13133839 0.072559945 0.046213552 0.062796086 0.051362306
-0.12036688 -0.08047507 0.00019195948 -0.04846142 -0.035889003 0.08302364 -0.16390513 0.14283153
-0.022792237 0.0867263 0.021057263 -0.07849764 -0.016719533 -0.13603404 0.100528695 0.057723105
0.0273099 -0.111072876 -0.09009388 0.08081727 -0.072384566 -0.034832492 0.01893007 0.13305858
-0.08521779 0.06650892 0.07396948 0.15255506 -0.019228352 0.122013845 -0.15517531 0.13680564
0.04418378 -0.014199945 0.104037 -0.1270664 0.007053348 0.16346247 0.059255593 0.13708258
-0.07429783 0.06934742 -0.11783506 -0.1223788 0.054902036 0.07061257 0.11494898 -0.028248416
-0.013190687 -0.12607762 -0.014129277 0.07379948 -0.06785269 -0.074028395 -0.18397102 -0.12674586
0.025584592 0.06655678 0.14646971 -0.12589893 -0.17355055 -0.14485168 0.048488174 -0.020092035
-0.020480175 -0.02307268 0.045470446 0.017925166 0.012995668 -0.11980886 0.024472503 -0.15118381
0.13476461 0.08557556 0.067294374 -0.1324797 0.009259586 -0.03288997 -0.1256536 0.14691475
-0.06227935 -0.016500317 -0.005797741 0.018602584 -0.17793465 0.15294401 0.0517825 -0.19598976
0.07229053 0.14135933 0.10924111 0.077379584 0.12310095 -0.08576176 0.009627947 0.07665947
-0.19406492 -0.07737674 -0.19123195 0.14288439 -0.10682661 -0.019833466 -0.0905903 0.06231748
-0.15419987 -0.054123938 0.101153515 0.09804924 -0.09209887 -0.059296895 -0.1621433 0.12272182
-0.15261339 -0.011348076 0.044520132 -0.05300303 -0.10486261 0.022431016 0.057096668 0.17538746
0.009539683 0.107858114 0.10504692 0.20073207 0.19206886 -0.14087759 0.12561417 -0.16970721
0.16970636 0.20066875 -0.14733745 -0.13489781 -0.0011895505 0.14311215 -0.13175185 0.20532414
0.0903389 -0.07270638 0.11766294 0.20823316 -0.15634505 0.07477478 0.1990243 0.11969619
0.19839916 0.04228198 -0.12184343 -0.12596935 -0.085300036 -0.010645077 0.007192434 0.03127829
-0.12864067 -0.12245553 -0.09917013 0.08027146 -0.089855045 0.14897376 0.16646457 0.12406229
0.09839363 0.19176894 -0.057527468 -0.03262208 0.1497149 0.05481257 -0.007818585 -0.13769072
-0.1683925 0.07381232 -0.13620782 -0.11751728 -0.18789177 0.17565915 -0.03767292 0.07071411
-0.020733174 -0.074801855 -0.1705617 0.07458558 -0.118735865 0.17903177 -0.06302093 0.032139216
-0.18850295 -0.008525405 0.052224495 -0.05666025 0.03952446 0.018359056 0.043402355 -0.046637792
-0.120247275 -0.13933341 0.10412782 -0.16143532 0.05268436 0.17531171 -0.11847887 -0.009986011
0.046154533 -0.11946415 -0.047197144 0.055905525 -0.18935163 0.051337555 0.12767409 -0.11404106
00000000: da05 333d 74f0 51bd 7465 f9bd 0ff5 a33d
00000010: bc4c 9c3c 0ff0 093d 8c47 3d3e c0ae 153e
00000020: 3b66 1e3e 266a 98bd e46c f73c 6111 0bbe
00000030: aafa 843d d9b8 54bd c98d 1dbd 49ac 41bd
00000040: 641a ed3d 1d32 573d 1200 f7b9 b62d 51bd
00000050: 6ef3 11be 3868 573d 0a5d bebd 3fdf 08be
00000060: 283f 9a3d e084 103e eb68 48bd 99d7 f4bb
00000070: 1f20 043e f402 d73c 3c96 fdbd 6e2c b6bc
00000080: aecf d03d d2f2 8bbd 3632 4b3d 88b7 563d
00000090: 013a 31be 93cf 40bc 496e 38be 0340 383d
000000a0: 6c99 a2bd efe6 47be e4b8 ae3d 927d 063e
000000b0: 4f9a 943d 6c4a 3d3d 3c9b 803d 4861 523d
000000c0: e982 f6bd 1dd0 a4bd bb48 4939 7b7f 46bd
000000d0: 5900 13bd 4c08 aa3d bfd6 27be 6e42 123e
000000e0: c9b6 babc 8f9d b13d 4880 ac3c 5fc3 a0bd
000000f0: 67f7 88bc 824c 0bbe fde1 cd3d 106f 6c3d
00000100: 03b9 df3c 2d7a e3bd 2483 b8bd 8683 a53d
00000110: 5c3e 94bd 84ac 0ebd 3c13 9b3c 8240 083e
00000120: aa86 aebd d435 883d 507d 973d 6537 1c3e
00000130: c784 9dbc 65e2 f93d 47e6 1ebe c716 0c3e
00000140: 0dfa 343d e3a6 68bc 5a11 d53d b21d 02be
00000150: c51f e73b b562 273e feb5 723d 605f 0c3e
00000160: 7629 98bd 0506 8e3d 8253 f1bd bca1 fabd
00000170: f5e0 603d 539d 903d 5f6a eb3d 3969 e7bc
00000180: c01d 58bc 7e1a 01be 7c7e 67bc 2f24 973d
00000190: 5af6 8abd 339c 97bd e662 3cbe abc9 01be
000001a0: c796 d13c ec4e 883d 28fc 153e a6eb 00be
000001b0: 3cb7 31be 0054 14be 899b 463d 0d98 a4bc
000001c0: 0ac6 a7bc eb02 bdbc 383f 3a3d ccd7 923c
000001d0: c8eb 543c 595e f5bd 8f7a c83c eecf 1abe
000001e0: bcff 093e 3d42 af3d a2d1 893d c2a8 07be
000001f0: 85b5 173c a2b7 06bd 56ab 00be d270 163e
00000200: a218 7fbd ac2b 87bc fafa bdbb 7264 983c
00000210: 8034 36be 5b9d 1c3e e319 543d 8ab1 48be
00000220: 0f0d 943d 80c0 103e ceb9 df3d 3079 9e3d
00000230: 5a1c fc3d dda3 afbd 89be 1d3c a4ff 9c3d
00000240: f4b8 46be b277 9ebd 4fd2 43be 4950 123e
00000250: e9c7 dabd cb79 a2bc 6887 b9bd 9d40 7f3d
00000260: 92e6 1dbe 10b1 5dbd 9329 cf3d 0ace c83d
00000270: 559e bcbd 4de1 72bd e508 26be 9455 fb3d
00000280: af46 1cbe 48ed 39bc be5a 363d b519 59bd
00000290: 35c2 d6bd 40c1 b73c 32de 693d c598 333e
000002a0: 554c 1c3c b7e4 dc3d d722 d73d b58c 4d3e
000002b0: b3ad 443e 3742 10be 00a1 003e bac7 2dbe
000002c0: 81c7 2d3e 1c7c 4d3e a1df 16be a722 0abe
000002d0: b1ea 9bba fe8b 123e f5e9 06be 7e40 523e
000002e0: 9a03 b93d 15e7 94bd 44f9 f03d 133b 553e
000002f0: eb18 20be 8523 993d 07cd 4b3e 4723 f53d
00000300: 2629 4b3e df2f 2d3d 0c89 f9bd 1cfe 00be
00000310: c9b1 aebd b068 2ebc 82ae eb3b aa1d 003d
00000320: 61ba 03be f7c9 fabd b619 cbbd 5d65 a43d
00000330: ec05 b8bd 948c 183e b075 2a3e 5f14 fe3d
00000340: 9982 c93d 145f 443e eca1 6bbd bb9e 05bd
00000350: dd4e 193e 2583 603d 8619 00bc ccfe 0cbe
00000360: 156f 2cbe ea2a 973d 107a 0bbe e6ac f0bd
00000370: b366 40be fedf 333e eb4e 1abd 8fd2 903d
00000380: 9ed8 a9bc b731 99bd baa7 2ebe 53c0 983d
00000390: ca2b f3bd 1b54 373e 1e11 81bd 69a4 033d
000003a0: eb06 41be 24ae 0bbc 5ae9 553d 9414 68bd
000003b0: 66e4 213d bb65 963c abc6 313d 4507 3fbd
000003c0: 3444 f6bd 6bad 0ebe f740 d53d 4d4f 25be
000003d0: 8ecb 573d ea84 333e 0da5 f2bd 5e9c 23bc
000003e0: 890c 3d3d 9fa9 f4bd cb51 41bd 31fd 643d
000003f0: 65e5 41be 5447 523d ffbc 023e 5c8e e9bd

parametrizer.linear1.bias f4 [10]
0.101118885 0.18375657 0.0066661476 -0.032660943 -0.024832942 -0.15377127 -0.15380532 -0.11905558
-0.20088154 0.06498821
00000000: 6b17 cf3d af2a 3c3e b36f da3b 7bc7 05bd
00000010: 746e cbbc 3776 1dbe 247f 1dbe 69d3 f3bd
00000020: e4b3 4dbe 8a18 853d

parametrizer.linear2.weight f4 [10, 10]
0.18672083 -0.13159467 -0.22706892 0.08101918 -0.030898836 -0.1159876 -0.23498535 0.11522991
-0.23123366 -0.12576427 -0.2661283 0.028923657 -0.30478784 -0.005642374 -0.15159711 -0.31294927
-0.010767744 0.15467104 -0.14132558 0.1694239 0.21349648 0.03666704 -0.09981405 0.2631356
0.293612 -0.13719617 0.13779554 -0.17751087 0.11909105 0.08353374 -0.00069365924 0.09604376
0.30215022 -0.20902395 0.12450005 0.24879639 -0.14864813 -0.28407267 0.12039816 -0.0330278
-0.23403822 0.02294462 0.06630003 0.11733229 0.025159935 -0.08748081 -0.051655542 0.014179487
-0.0026137587 0.17064768 0.22762951 -0.26336688 0.022588028 -0.15710773 -0.2878239 0.01618379
0.23061731 0.020877205 -0.1718982 -0.2816197 0.009646685 -0.23333502 -0.06782242 0.12288183
0.052605424 0.046694368 0.23979971 -0.12645444 -0.13420594 -0.3060812 0.3054071 0.27081606
0.03371676 -0.12282976 0.0872786 0.055626232 0.2693444 -0.25875643 -0.29975465 -0.2479241
-0.09077904 0.007843289 0.2198245 0.10651163 -0.11461368 0.24526688 -0.10942295 -0.07119992
0.25767633 0.2554256 -0.13770223 0.30402678 0.26497713 0.2613277 0.2201156 0.0975157
-0.22788385 -0.13486625 -0.1712302 -0.09426878
00000000: bf33 3f3e c1c0 06be c184 68be 62ed a53d
00000010: 8e1f fdbc e88a edbd 00a0 70be a9fd eb3d
00000020: 84c8 6cbe 59c8 00be f841 88be 4ef1 ec3c
00000030: 270d 9cbe aae3 b8bb 463c 1bbe e33a a0be
00000040: 316b 30bc 1662 1e3e a7b7 10be 757d 2d3e
00000050: d29e 5a3e 2e30 163d 4f6b ccbd b6b9 863e
00000060: 5054 963e 277d 0cbe 461a 0d3e 69c5 35be
00000070: 02e6 f33d bd13 ab3d afd6 35ba 97b2 c43d
00000080: 6fb3 9a3e 600a 56be e2f9 fe3d 7bc4 7e3e
00000090: 3737 18be f971 91be 4f93 f63d 2948 07bd
000000a0: b7a7 6fbe 5bf6 bb3c 4fc8 873d e94b f03d
000000b0: 351c ce3c 2429 b3bd c394 53bd 1451 683c
000000c0: 984b 2bbb 44be 2e3e b617 693e 06d8 86be
000000d0: 870a b93c d9e0 20be a75d 93be de93 843c
000000e0: f226 6c3e ac06 ab3c 1506 30be 7530 90be
000000f0: 210d 1e3c 60ef 6ebe 7be6 8abd 78a9 fb3d
00000100: c978 573d 9842 3f3d 0e8e 753e 467d 01be
00000110: 486d 09be adb6 9cbe 525e 9c3e 67a8 8a3e
00000120: 961a 0a3d 2b8e fbbd 1fbf b23d 55d8 633d
00000130: 82e7 893e b97b 84be 7179 99be d1df 7dbe
00000140: 5cea b9bd 2381 003c ac19 613e c522 da3d
00000150: 94ba eabd 3e27 7b3e 2419 e0bd 43d1 91bd
00000160: 27ee 833e 25c7 823e d001 0dbe 66a9 9b3e
00000170: 15ab 873e bfcc 853e fc65 613e 50b6 c73d
00000180: 625a 69be 611a 0abe f856 2fbe fd0f c1bd

parametrizer.linear2.bias f4 [10]
-0.23810072 0.2896159 -0.27941224 -0.20098242 0.010176805 0.051701445 0.029797297 0.22099051
0.0906825 0.22768979
00000000: add0 73be 8948 943e 1f0f 8fbe 56ce 4dbe
00000010: 9dbc 263c e5c4 533d 7619 f43c 564b 623e
00000020: bfb7 b93d 8327 693e

parametrizer.linear3.weight f4 [5, 10]
0.08862407 0.0553281 0.019645827 0.10618757 -0.1511741 -0.050488338 0.2676681 0.2093265
-0.014106164 0.26098177 -0.07218953 0.24494174 0.023737524 -0.3358709 0.20137267 0.003361538
-0.08253466 -0.23105171 0.106001325 0.25786707 -0.1389565 -0.027472377 0.13099933 0.18038851
-0.17419228 0.031118793 -0.06664354 0.122383304 -0.12855338 0.20071968 0.013076891 0.18316297
0.1694866 -0.040350124 -0.28471544 0.19836457 -0.20340091 0.23794812 -0.23485516 0.24871248
-0.08396096 -0.34482452 0.21838975 -0.15921971 -0.059961 0.2954423 -0.13763143 -0.2924108
0.13064821 -0.14286618
00000000: 8980 b53d b89f 623d 49f0 a03c de78 d93d
00000010: 62cd 1abe dccc 4ebd cb0b 893e b059 563e
00000020: 8a1d 67bc 679f 853e 1bd8 93bd 02d2 7a3e
00000030: 3275 c23c 45f7 abbe a334 4e3e 404d 5c3b
00000040: ef07 a9bd d298 6cbe 3917 d93d 2707 843e
00000050: 9d4a 0ebe c00d e1bc b024 063e c4b7 383e
00000060: 765f 32be d7ec fe3c 697c 88bd 19a4 fa3d
00000070: 7fa3 03be 7689 4d3e 7540 563c 138f 3b3e
00000080: e58d 2d3e 2c46 25bd 39c6 91be 1520 4b3e
00000090: 5448 50be aca8 733e df7d 70be 7cae 7e3e
000000a0: b9f3 abbd d78c b0be 90a1 5f3e 7e0a 23be
000000b0: aa99 75bd 3744 973e 41ef 0cbe deb6 95be
000000c0: a5c8 053e 834b 12be

parametrizer.linear3.bias f4 [5]
-0.17582944 -0.039428394 0.06668899 0.35440543 -0.1853397
00000000: a20c 34be ab7f 21bd 3d94 883d a174 b53e
00000010: b1c9 3dbe

parametrizer.linear4.weight f4 [31, 5]
-0.35694686 -0.097606145 0.20459612 0.35283467 -0.48412427 -0.13104536 0.28778616 -0.051070184
0.3553779 -0.038036574 -0.34357435 -0.16732553 -0.13631657 -0.35554412 0.26322383 -0.2001111
-0.30069825 0.4040999 0.35156974 -0.3833832 -0.36908138 0.42838025 0.28213745 0.38606158
-0.1684765 0.3805529 -0.08604588 -0.28344634 0.2414751 0.18719834 -0.09678248 0.20932785
0.21969698 -0.009122595 -0.474899 -0.1576757 0.14295596 0.11233783 0.038254008 -0.019565076
-0.0939855 -0.22491775 0.2910477 -0.043445885 -0.11680172 -0.05032181 0.35623276 0.20831001
0.030335799 0.042619366 -0.18576007 -0.30813706 -0.17151421 0.48359725 -0.25799116 0.35079548
-0.0215975 -0.081978194 -0.06924798 -0.40940583 0.332616 -0.11947641 -0.30562305 -0.37377605
0.040422577 0.14657015 0.1507947 -0.097095124 0.07382121 -0.4871941 0.08482585 0.09751979
0.28054714 -0.3864885 -0.0004936963 -0.024434654 0.109139845 0.22090459 0.19528593 -0.27774185
-0.27278718 0.118495636 0.07144291 0.29039967 0.089426205 -0.104383275 -0.07508407 0.2929772
-0.28516507 -0.22368774 0.25470546 -0.4159894 -0.3129082 -0.19020207 0.35147324 0.25319675
0.41126776 -0.11823296 0.08636569 -0.33729905 0.32698008 -0.10552277 -0.2089439 0.1122622
-0.16800544 -0.020944057 -0.22264779 0.18957984 0.46959 -0.285481 -0.40841618 0.3085219
0.40268424 -0.1567667 -0.34982273 -0.1141723 0.33719137 0.23707153 0.4213504 -0.1195979
0.10677848 -0.119755074 0.33652958 0.4525804 -0.13320264 -0.18237916 -0.14467706 -0.27340725
-0.01623758 0.32965532 -0.37219018 0.46518686 0.15337771 0.16076985 0.2937348 0.3676222
0.21615641 0.34166908 -0.01340826 0.02236792 0.17291474 -0.30630368 -0.12070043 -0.28743312
0.0929741 -0.31123614 -0.14050658 -0.37924808 -0.41003987 0.20960653 0.09149297 -0.3254462
-0.090244785 0.162311 0.20337243
00000000: bdc1 b6be bbe5 c7bd a581 513e bfa6 b43e
00000010: 23df f7be c130 06be b558 933e f82e 51bd
00000020: 18f4 b53e 3dcc 1bbd fae8 afbe 6257 2bbe
00000030: 9296 0bbe e109 b6be 46c5 863e ede9 4cbe
00000040: 1ff5 99be 2fe6 ce3e f300 b43e ce4a c4be
00000050: 3cf8 bcbe a854 db3e 5274 903e dda9 c53e
00000060: 1b85 2cbe d4d7 c23e d338 b0bd e11f 91be
00000070: 4045 773e ecb0 3f3e e535 c6bd 0a5a 563e
00000080: 3ff8 603e f076 15bc f625 f3be bd75 21be
00000090: 0c63 123e 6011 e63d 3cb0 1c3d f046 a0bc
000000a0: 787b c0bd d750 66be 3404 953e 50f4 31bd
000000b0: bd35 efbd 3e1e 4ebd 2464 b63e 384f 553e
000000c0: c882 f83c a591 2e3d e337 3ebe 24c4 9dbe
000000d0: 6ca1 2fbe 0f9a f73e 6b17 84be 779b b33e
000000e0: 3eed b0bc 2fe4 a7bd e3d1 8dbd a49d d1be
000000f0: a54c aa3e 0cb0 f4bd a07a 9cbe 935f bfbe
00000100: 2592 253d 7c16 163e ed69 1a3e cfd9 c6bd
00000110: 932f 973d 8171 f9be 2db9 ad3d 75b8 c73d
00000120: e0a3 8f3e d2e1 c5be 666b 01ba 2f2b c8bc
00000130: b684 df3d d034 623e 09f9 473e 2e34 8ebe
00000140: c3aa 8bbe d7ad f23d a950 923d 44af 943e
00000150: 1625 b73d e6c6 d5bd adc5 99bd 1c01 963e
00000160: 2801 92be 660e 65be c168 823e 90fc d4be
00000170: 8135 a0be 55c4 42be 4df4 b33e 01a3 813e
00000180: b091 d23e 1f24 f2bd 7fe0 b03d 76b2 acbe
00000190: ef69 a73e 521c d8bd 64f5 55be b9e9 e53d
000001a0: 9e09 2cbe df92 abbc c8fd 63be 3821 423e
000001b0: 1a6e f03e 912a 92be ed1b d1be 95f6 9d3e
000001c0: a12c ce3e 7387 20be f71b b3be 2bd3 e9bd
000001d0: 59a4 ac3e e1c2 723e 3dbb d73e beef f4bd
000001e0: adae da3d 2642 f5bd 9b4d ac3e 9eb8 e73e
000001f0: 4666 08be 9ac1 3abe 3926 14be 09fc 8bbe
00000200: ac04 85bc 95c8 a83e b68f bebe f92c ee3e
00000210: 0c0f 1d3e daa0 243e 6864 963e fa38 bc3e
00000220: 1b58 5d3e 40ef ae3e 52ae 5bbc ee3c b73c
00000230: 9010 313e d6d3 9cbe c931 f7bd 6f2a 93be
00000240: 3469 be3d 585a 9fbe f5e0 0fbe ce2c c2be
00000250: bff0 d1be 18a3 563e ab60 bb3d e2a0 a6be
00000260: 42d2 b8bd db34 263e dd40 503e

parametrizer.linear4.bias f4 [31]
0.029755969 -0.13414277 -0.3892421 0.38925418 0.39605683 0.07202117 0.34446913 -0.124890596
0.24956398 0.1949162 -0.34421027 0.17659858 -0.3792598 0.03536062 -0.20633674 -0.39440802
-0.08201314 0.0017116705 0.16236466 0.021745048 0.4079235 -0.33349437 0.29995638 0.22790885
-0.27240384 0.3201929 0.08537205 -0.33962643 0.36464444 0.08161622 -0.08265014
00000000: cac2 f33c b95c 09be be4a c7be 534c c73e
00000010: f6c7 ca3e d67f 933d 425e b03e a4c6 ffbd
00000020: b38d 7f3e 1d98 473e 543c b0be 42d6 343e
00000030: 572e c2be 4cd6 103d f049 53be d9ef c9be
00000040: 81f6 a7bd 225a e03a ec42 263e ac22 b23c
00000050: 59db d03e c6bf aabe e293 993e f060 693e
00000060: 8478 8bbe 53f0 a33e 8bd7 ae3d 84e3 adbe
00000070: adb2 ba3e 6826 a73d 7a44 a9bd

exp_avg f4 [10, 30]
-0.0031828075 -0.0041375086 -0.0026344135 -0.0030928564 0.0065586306 3.932554e-05 -0.0027560317 -0.0020219353
0.0025591503 0.0008895414 -0.0015198682 0.00030960684 -0.00030407813 -0.0011429584 0.0065930663 -0.0032822026
-0.002122654 0.00090341194 -0.001492793 -0.007096007 -0.0043290243 -0.0053855167 -0.004067817 -0.003989454
0.001833107 -0.0029888977 -0.0045896852 -0.0034244584 -0.0034165601 -0.00384379 -7.1638875e-05 0.0022192155
-0.00037701728 0.00032768425 -0.0070928787 0.00015494818 0.0020856033 0.0006587687 -0.0005729582 -0.0011082042
0.0010484307 0.0026196807 -0.0006640578 0.0009782824 -0.0013125408 0.0055593518 0.0047284607 0.002293215
0.0033935455 0.0082571935 0.00021452566 0.0011798514 1.7833481e-05 0.0008520941 -0.005693324 0.00083856913
0.0011225167 0.00019055582 0.0011104918 -0.00095996575 -0.0009591467 -0.0030302478 -0.0009455383 -0.0008333757
0.0057111066 -0.00018414854 -0.0017870432 -0.00037582184 0.0022690792 0.0018176995 0.00033700716 -0.0019896096
0.00012252918 -0.0001525926 0.003499555 -0.0014667477 -0.001735626 0.0007172898 -0.0013795441 -0.00096409593
-0.0007996137 -0.0033677106 -0.0009295118 -0.00065866025 0.004117283 -0.0013823106 -0.0020209919 -0.00054060004
-0.0006131666 -0.00023555015 -0.0011073333 -0.00022555569 -0.0012715596 -0.000670649 0.0019862326 0.00035865812
0.00032102255 -0.0012806613 -0.00061321375 0.0054622144 8.45885e-05 0.0016123477 -0.00037460096 -0.0006052341
0.0028789018 0.0033012931 0.005202944 0.0032819456 0.000752456 0.0069668214 -0.0008711788 9.304493e-05
-0.0010370767 -0.00057887874 0.0019245042 -8.943013e-06 0.0014741308 -0.0003809292 7.282278e-05 0.0042472547
-0.0008759708 0.0014142167 -0.00091781246 -0.00038599272 0.0007246775 0.001141031 0.0014057481 0.00088914786
0.0026715624 0.0014524551 0.00026678335 0.002457343 -0.00035859138 0.00019375936 0.0046590883 0.002705728
0.0020274948 0.0019131845 0.0017929539 0.003207197 -0.0005582207 0.0010996546 -0.0005607605 -2.5211264e-05
0.0013544917 0.00078136695 0.00046036893 0.00019429935 0.0010295631 0.00023622866 -0.00063994597 -0.0012147505
-0.00035022604 -0.0005338951 0.0074774986 0.0020998952 0.00018632071 0.0010626712 0.0028430629 0.0028122754
-0.00028661513 -0.0009909784 -5.5818506e-05 -0.00031078095 0.0067666573 -0.00037304085 -0.0013396888 0.00093559385
-0.0014768699 -0.0019902943 -0.00025020886 -0.0011359659 -0.00024968787 -0.0002334593 0.006546082 0.00093600655
-0.00032888242 0.00069630455 -0.00023171386 0.0014622736 -0.0013426064 -0.0019133638 -0.0011620463 -0.0012497583
0.002060052 -0.00030869793 -0.0015049771 -0.0008107487 0.0006599149 -0.00019531022 -0.00056954584 -0.00042248936
-0.00018354313 -0.00043339757 0.0009314503 -0.0020696817 -0.0022324007 -0.0009863279 -0.0002211155 -0.0042509735
-0.0017066005 -0.0023196123 -0.0016252277 -0.001515853 0.00051583734 -0.001100769 -0.0018134381 -0.0013344649
-0.0011681081 -0.0019217238 0.002202829 1.1352391e-05 0.001988537 0.0017958498 -0.0037492365 -0.0013286832
-7.251813e-05 -0.0004667241 -0.003916871 -0.001561393 0.00031283035 -0.0017595628 0.00070059806 0.00040602707
-0.006009468 -0.00038043538 0.0011642969 -0.00021435494 -0.0012468066 0.000952795 0.001678063 0.00021629565
0.0016755952 0.0011807262 -0.0033981972 0.00012520734 0.0015908895 0.00053810177 -0.00049331243 0.00119637
0.0005967699 -0.0060699466 0.00077675114 0.00025708927 0.009142496 0.0010581204 -0.0005104847 0.0003429857
0.0024196429 0.0035229647 -0.00016487559 -0.0059082136 0.0014282118 -0.00014440191 0.003148846 -0.0027132249
00000000: a696 50bb f093 87bb 20a6 2cbb 85b1 4abb
00000010: c8e9 d63b 7af1 2438 8a9e 34bb 7282 04bb
00000020: 6bb7 273b 1d30 693a 5036 c7ba ba52 a239
00000030: ad6c 9fb9 52cf 95ba a60a d83b 391a 57bb
00000040: 3a1c 0bbb f3d2 6c3a d2a9 c3ba 9f85 e8bb
00000050: 7dda 8dbb fd78 b0bb 524b 85bb f7b9 82bb
00000060: dd44 f03a 62e1 43bb 1265 96bb e16c 60bb
00000070: 5ee8 5fbb 18e8 7bbb d43c 96b8 4270 113b
00000080: 67aa c5b9 09cd ab39 616b e8bb 9679 2239
00000090: 9eae 083b 38b1 2c3a 9332 16ba 2a41 91ba
000000a0: 7f6b 893a f3ae 2b3b 2a14 2eba b639 803a
000000b0: 9009 acba 392b b63b 34f1 9a3b c349 163b
000000c0: 3f66 5e3b 2e49 073c 4bf2 6039 3ea5 9a3a
000000d0: 1c99 9537 115f 5f3a 108f babb 6cd3 5b3a
000000e0: 6921 933a f0cf 4739 ec8d 913a 36a6 7bba
000000f0: 3f6f 7bba 1f97 46bb 00de 77ba e676 5aba
00000100: 3c24 bb3b ff17 41b9 383b eaba f409 c5b9
00000110: d5b4 143b e03f ee3a 56b0 b039 1c64 02bb
00000120: 2d7b 0039 4401 20b9 ca58 653b e33f c0ba
00000130: f27d e3ba 8108 3c3a d2d1 b4ba 62bb 7cba
00000140: 2b9d 51ba cfb4 5cbb 7baa 73ba f1a9 2cba
00000150: 46ea 863b a62e b5ba 9e72 04bb 0eb7 0dba
00000160: eabc 20ba 03fe 76b9 f123 91ba 2583 6cb9
00000170: 76aa a6ba 7ece 2fba 742b 023b 470a bc39
00000180: eb4e a839 dddb a7ba 14c0 20ba 60fc b23b
00000190: 1b65 b138 6955 d33a 1766 c4b9 93a8 1eba
000001a0: f5ab 3c3b 825a 583b 757d aa3b e915 573b
000001b0: 7840 453a ef49 e43b d25f 64ba 1e21 c338
000001c0: 85ee 87ba e5bf 17ba a53f fc3a f309 16b7
000001d0: 9f37 c13a 74b7 c7b9 6fb8 9838 8e2c 8b3b
000001e0: 68a1 65ba 3d5d b93a 5a99 70ba 115f cab9
000001f0: 49f8 3d3a a68e 953a 1441 b83a b415 693a
00000200: 6115 2f3b 4e60 be3a 0edf 8b39 600b 213b
00000210: 5201 bcb9 e22b 4b39 44ab 983b 9552 313b
00000220: b8df 043b d2c3 fa3a 8d01 eb3a d62f 523b
00000230: 8f55 12ba 4922 903a 0000 13ba c77c d3b7
00000240: 3389 b13a a6d4 4c3a ac5d f139 d6bc 4b39
00000250: 68f2 863a 26b4 7739 0cc2 27ba 4338 9fba
00000260: 8b9e b7b9 18f5 0bba ce05 f53b 659e 093b
00000270: 165f 4339 5449 8b3a ae52 3a3b 274e 383b
00000280: d544 96b9 b8e3 81ba aa1e 6ab8 50f0 a2b9
00000290: d6ba dd3b b294 c3b9 7f98 afba a442 753a
000002a0: 8893 c1ba 996f 02bb 772e 83b9 b1e4 94ba
000002b0: 8ae8 82b9 c1cc 74b9 8480 d63b 565e 753a
000002c0: da6d acb9 3588 363a 37f8 72b9 c3a9 bf3a
000002d0: 65fa afba d6c9 faba ce4f 98ba eece a3ba
000002e0: f001 073b bcd8 a1b9 a742 c5ba 6d88 54ba
000002f0: 24fe 2c3a 30cc 4cb9 934d 15ba 9081 ddb9
00000300: 7c75 40b9 a339 e3b9 922c 743a 7fa3 07bb
00000310: 784d 12bb ac47 81ba 3ddb 67b9 c04b 8bbb
00000320: 03b0 dfba a304 18bb 9805 d5ba 96af c6ba
00000330: 4239 073a ae47 90ba e3b0 edba 36e9 aeba
00000340: 341b 99ba 5ae2 fbba 575d 103b 2676 3e37
00000350: 1d52 023b b862 eb3a c0b5 75bb 3627 aeba
00000360: e014 98b8 a6b2 f4b9 1859 80bb a8a7 ccba
00000370: 6103 a439 21a1 e6ba 57a8 373a 08e0 d439
00000380: 12eb c4bb 2c75 c7b9 529b 983a 77c4 60b9
00000390: e36b a3ba fdc4 793a 73f2 db3a 6ccd 6239
000003a0: a59f db3a 99c2 9a3a 4ab4 5ebb 174a 0339
000003b0: 6585 d03a 660f 0d3a a351 01ba 84cf 9c3a
000003c0: 8d70 1c3a 67e6 c6bb e39e 4b3a f0c9 8639
000003d0: 68ca 153c a1b0 8a3a 0cd2 05ba c3d2 b339
000003e0: df92 1e3b 8ae1 663b 74e2 2cb9 b099 c1bb
000003f0: d632 bb3a 986a 17b9 df5c 4e3b 5cd0 31bb

exp_avg_sq f4 [10, 30]
5.96335e-06 5.79163e-06 5.3293447e-06 5.225646e-06 4.577798e-06 3.1375287e-06 4.760318e-06 4.3492955e-06
2.4353294e-06 6.1892106e-06 3.934008e-06 2.1318965e-06 2.6037792e-06 2.5578202e-06 2.5979529e-05 1.4536915e-05
8.470143e-06 9.006297e-06 1.6609483e-06 2.0973479e-05 7.129489e-06 6.8008667e-06 6.421602e-06 5.7957423e-06
3.4718025e-06 3.9914703e-06 5.13014e-06 5.1982743e-06 1.0133027e-05 4.4751514e-06 2.6778646e-06 6.137759e-06
2.2275542e-06 2.6156508e-06 8.63369e-06 9.137916e-06 7.2093962e-06 3.9414604e-06 8.953796e-06 1.4038236e-05
2.5144655e-06 1.15663415e-05 1.9340218e-06 1.2143611e-06 8.277105e-06 2.2077937e-05 2.3757677e-05 1.4263034e-05
5.9352446e-06 3.1821357e-05 3.03562e-06 6.6006232e-06 2.791974e-06 2.8474253e-06 6.449763e-06 5.7739117e-06
6.478049e-06 5.512611e-06 6.7012083e-06 6.9747316e-06 8.192568e-07 2.3334205e-06 8.288975e-07 7.9052916e-07
6.088508e-06 5.862467e-07 1.565258e-06 8.1756457e-07 9.785593e-07 8.044974e-07 1.6481159e-06 2.3090206e-06
1.4809742e-06 1.2726507e-06 4.9144596e-06 1.9129802e-06 1.6788965e-06 5.9232707e-07 2.4687185e-06 1.0850533e-06
7.904044e-07 1.5612478e-06 7.669816e-07 9.566472e-07 5.9461727e-06 8.1603446e-07 1.4417127e-06 5.0145394e-07
1.262151e-06 3.2664485e-07 2.6869864e-06 7.647742e-07 2.2671102e-06 2.5182164e-06 5.223052e-06 1.9861625e-06
1.7446415e-06 7.2843443e-07 1.5955626e-06 8.666034e-06 1.6575689e-06 7.52634e-07 1.1558086e-06 9.59939e-07
4.7151943e-06 5.2196365e-06 1.3040107e-05 7.44459e-06 2.862274e-06 1.1017567e-05 2.7095368e-06 1.7838663e-06
2.2388122e-06 2.4087547e-06 4.0840055e-06 7.2464627e-07 9.679904e-07 5.9081077e-07 2.7446263e-06 3.8505327e-06
1.3042419e-06 2.290807e-06 1.0787024e-06 1.2264328e-06 4.980125e-06 3.9957445e-06 2.0422046e-06 1.4884862e-06
6.557829e-06 5.997887e-06 7.35868e-07 6.6578536e-06 7.672033e-07 4.533174e-07 7.894871e-06 5.6000285e-06
3.4577156e-06 4.3663886e-06 4.624553e-06 4.7096646e-06 1.6931824e-06 3.1955449e-06 1.459562e-06 1.6612995e-06
3.681411e-06 2.4607366e-06 1.9960114e-06 2.0872794e-06 2.3333557e-06 2.3305831e-06 1.2655419e-06 1.8003428e-06
1.2238336e-06 8.7059e-07 6.121619e-06 1.1856342e-06 1.4143646e-06 1.06242e-06 2.871045e-06 1.2119433e-06
9.3985904e-07 1.1590761e-06 5.593662e-07 6.4247394e-07 8.408599e-06 2.3437506e-06 1.948889e-06 1.8698549e-06
3.2641742e-06 3.6693984e-06 9.5288806e-07 1.6127219e-06 8.8990356e-07 6.797258e-07 6.450467e-06 2.6530342e-06
2.203734e-06 1.2265751e-06 4.113305e-06 2.225703e-06 2.0209104e-06 1.2981288e-06 1.7908974e-06 1.79852e-06
1.182846e-06 2.6571803e-07 7.162444e-07 7.611088e-07 1.0703508e-06 2.1350145e-06 6.2925585e-07 3.733426e-07
4.8301615e-07 5.764294e-07 1.4942684e-06 9.3446346e-07 1.7643538e-06 1.2539526e-06 1.0459416e-06 3.0746216e-06
2.4132403e-06 1.6661355e-06 2.197811e-06 2.2231595e-06 5.514916e-07 3.954724e-07 6.595964e-07 9.291231e-07
1.6672963e-06 6.695236e-07 3.4923564e-06 1.0610216e-06 3.0449082e-06 3.0717722e-06 3.9765487e-06 9.589004e-07
2.3460099e-07 6.52209e-07 6.0880257e-06 5.388212e-06 8.574923e-07 2.7641165e-06 1.0399989e-06 9.922943e-07
8.434861e-06 1.4397953e-06 1.0289338e-06 2.35735e-06 4.7862327e-06 8.2550895e-07 3.070302e-06 1.9203583e-06
2.7367887e-06 2.7259243e-06 2.8761278e-06 9.809145e-07 8.9378744e-07 7.7987505e-07 2.315302e-06 1.9948322e-06
2.245059e-06 6.557968e-06 1.8408326e-06 2.472361e-06 4.6203713e-06 6.356007e-06 3.1703798e-06 1.6555118e-06
5.5697637e-06 9.140888e-06 2.3618666e-06 1.6738653e-05 2.5098068e-06 1.5166996e-06 8.301715e-06 2.2987098e-05
00000000: c918 c836 b955 c236 b9d2 b236 f557 af36
00000010: fc9a 9936 558e 5236 d2ba 9f36 2af0 9136
00000020: a46e 2336 eaac cf36 df00 8436 b411 0f36
00000030: 96bc 2e36 04a7 2b36 9dee d937 93e3 7337
00000040: fd1a 0e37 c019 1737 c0ed de35 34f0 af37
00000050: d839 ef36 0033 e436 2479 d736 0c79 c236
00000060: 1dfd 6836 78ee 8536 9123 ac36 d66c ae36
00000070: 0501 2a37 4229 9636 5db5 3336 f3f2 cd36
00000080: 177d 1536 8a88 2f36 6bd9 1037 0d4f 1937
00000090: 3ee8 f136 e340 8436 4338 1637 c485 6b37
000000a0: 30be 2836 0f0d 4237 3eca 0136 21fd a235
000000b0: e5dd 0a37 0234 b937 394b c737 444b 6f37
000000c0: 5d27 c736 ec77 0538 8eb7 4b36 ec7a dd36
000000d0: c05d 3b36 6516 3f36 0b6b d836 86bd c136
000000e0: 045e d936 f8f8 b836 f1da e036 7d08 ea36
000000f0: e6ea 5b35 dc97 1c36 6781 5e35 c034 5435
00000100: e34b cc36 915e 1d35 db15 d235 9c76 5b35
00000110: 0b57 8335 a4f4 5735 d534 dd35 acf4 1a36
00000120: e3c5 c635 f2cf aa35 e3e6 a436 c060 0036
00000130: 7256 e135 6800 1f35 43ac 2536 26a2 9135
00000140: 2d2c 5435 118c d135 93e2 4d35 2666 8035
00000150: 3c85 c736 760d 5b35 df80 c135 a79b 0635
00000160: 2e67 a935 ba5d af34 1352 3436 e24a 4d35
00000170: a824 1836 a1fe 2836 ad41 af36 034a 0536
00000180: 6d29 ea35 a289 4335 1d27 d635 5564 1137
00000190: a279 de35 9d08 4a35 4821 9b35 41d7 8035
000001a0: 3637 9e36 5624 af36 d5c6 5a37 8bcc f936
000001b0: 7e15 4036 17d8 3837 7dd5 3536 2e6d ef35
000001c0: 803e 1636 17a6 2136 5709 8936 5085 4235
000001d0: e6eb 8135 3598 1e35 5230 3836 d333 8136
000001e0: 690d af35 c4bb 1936 efc7 9035 e99b a435
000001f0: f31a a736 2f13 8636 cf0c 0936 ffc7 c735
00000200: 520b dc36 7541 c936 7788 4535 8766 df36
00000210: cff1 4d35 785f f334 3674 0437 e1e7 bb36
00000220: 1a0b 6836 fe82 9236 9c2c 9b36 b607 9e36
00000230: 4e41 e335 0b73 5636 2be6 c335 d1f9 de35
00000240: 290e 7736 2223 2536 37f3 0536 3013 0c36
00000250: bf96 1c36 1d67 1c36 b0db a935 4fa3 f135
00000260: 9a42 a435 7db2 6935 4f68 cd36 1522 9f35
00000270: 33d5 bd35 7998 8e35 2dac 4036 0eaa a235
00000280: 9f4a 7c35 8d91 9b35 5a27 1635 7976 2c35
00000290: a812 0d37 5449 1d36 a8c9 0236 baf7 fa35
000002a0: 160e 5b36 c93f 7636 f8c9 7f35 b474 d835
000002b0: b5e1 6e35 6776 3635 1771 d836 c80a 3236
000002c0: dde3 1336 cda0 a435 0505 8a36 495d 1536
000002d0: fa9e 0736 5e3b ae35 c45e f035 ad64 f135
000002e0: 47c2 9e35 02a8 8e34 f143 4035 004f 4c35
000002f0: f9a8 8f35 4547 0f36 22ea 2835 d16f c834
00000300: 9ea8 0135 edbb 1a35 ac8e c835 d7d7 7a35
00000310: bcce ec35 7c4d a835 4862 8c35 9955 4e36
00000320: 27f3 2136 fb9f df35 1b7e 1336 9731 1536
00000330: 370a 1435 5051 d434 1f0f 3135 da68 7935
00000340: ddc7 df35 50b9 3335 3a5e 6a36 6d68 8e35
00000350: 2057 4c36 a524 4e36 4b6e 8536 91b3 8035
00000360: a1e6 7b34 7613 2f35 be47 cc36 63cc b436
00000370: 6c2e 6635 297f 3936 1796 8b35 f92e 8535
00000380: 7483 0d37 fd3e c135 e519 8a35 f732 1e36
00000390: 6d99 a036 8b98 5d35 630b 4e36 81df 0036
000003a0: aca9 3736 06ef 3636 8003 4136 f7a7 8335
000003b0: 9bec 6f35 9b58 5135 9660 1b36 f5de 0536
000003c0: d2a9 1636 840c dc36 8712 f735 d7ea 2536
000003d0: b008 9b36 af45 d536 b6c2 5436 f432 de35
000003e0: e8e3 ba36 d15b 1937 8f80 1e36 fc69 8c37
000003f0: 276e 2836 6791 cb35 9847 0b37 6bd4 c037

exp_avg f4 [10]
0.001574415 -0.020974977 0.0061511314 0.008750029 -0.008229545 0.008717026 -0.0005471925 0.0054403576
0.018804723 0.009090593
00000000: 9a5c ce3a b7d3 abbc 6e8f c93b 485c 0f3c
00000010: 37d5 06bc dbd1 0e3c 7871 0fba 0745 b23b
00000020: 5d0c 9a3c b6f0 143c

exp_avg_sq f4 [10]
1.0882458e-05 6.169215e-05 1.1950514e-05 1.6369184e-05 3.3045173e-05 9.566571e-06 2.7458877e-06 1.44861315e-05
4.268517e-05 3.1777938e-05
00000000: cd93 3637 b960 8138 117f 4837 8e50 8937
00000010: fc99 0a38 1c80 2037 fe45 3836 7609 7337
00000020: da08 3338 4d49 0538

exp_avg f4 [10, 10]
-0.0017010039 -0.0017236471 -0.0011222162 -0.0016663041 -0.0001072606 0.00048481845 -0.00043642253 0.0012752571
0.0011610237 0.0016268911 -0.0057957964 -0.009091078 -0.0003489904 -0.005617515 0.0023620252 0.0043014972
0.008239807 0.004723098 0.009462312 0.002718436 0.0013539589 0.0036047571 -0.00077309256 0.004763386
0.0001431604 -0.0022598854 -0.0046139467 -0.0006561147 -0.004001497 2.7135002e-05 -0.0006904909 -0.004785251
-0.0037860088 0.001697233 -0.0022082834 -0.00030172296 0.0005832679 0.0028305105 0.004568587 -8.9343564e-05
0.001290799 0.0012089419 0.003656616 -0.0048266533 0.00039498968 0.0013889828 0.0044243517 -0.002917458
-0.00046195887 -0.0011755507 0.0015137229 0.0066831294 -0.0009769051 0.0060256193 0.0001221553 -0.0037679088
-0.0070627844 -0.00070804835 -0.0070408466 -0.00021965847 0.0018426813 -0.0016997101 0.0013280454 -0.0031715424
-0.003169431 0.0012958915 -0.0012199288 -0.0020606357 0.000965256 0.0025398673 -0.00331435 -0.008727185
-0.0014202001 -0.0041425354 0.0010512007 0.0039015834 0.0057522943 0.0027919621 0.008153648 0.0007564222
0.0035202904 0.0065137404 0.0028985217 -0.00030072813 -0.0012369539 -0.001965401 -0.0041579474 -0.004462832
-0.0069853454 0.00041398394 -0.002882994 -0.0042078355 0.0032078873 -0.0026597842 0.0028779765 0.0044218292
0.0022750779 0.0015256375 0.00614127 0.00054129324
00000000: 38f4 deba 00ec e1ba 5417 93ba e367 daba
00000010: 19f1 e0b8 3b2f fe39 a4cf e4b9 8726 a73a
00000020: 7e2d 983a 683d d53a aaea bdbb bff2 14bc
00000030: b3f8 b6b9 2213 b8bb 35cc 1a3b 93f3 8c3b
00000040: 4100 073c 38c4 9a3b d007 1b3c ca27 323b
00000050: 5277 b13a ca3d 6c3b 5da9 4aba 2e16 9c3b
00000060: 541d 1639 961a 14bb 9730 97bb 1dff 2bba
00000070: fd1e 83bb f99f e337 0f02 35ba 98cd 9cbb
00000080: b01e 78bb b075 de3a d9b8 10bb 9230 9eb9
00000090: 72e6 183a 1680 393b 16b4 953b f65d bbb8
000000a0: 0730 a93a 5c75 9e3a d6a3 6f3b e728 9ebb
000000b0: 9e16 cf39 870e b63a 27fa 903b d332 3fbb
000000c0: 1233 f2b9 f014 9aba 1d68 c63a 27fe da3b
000000d0: 7f0b 80ba 8f72 c53b d016 0039 05ef 76bb
000000e0: ee6e e7bb 529c 39ba e7b6 e6bb 1f54 66b9
000000f0: 2086 f13a cfc8 deba cf11 ae3a a7d9 4fbb
00000100: 3ab6 4fbb e7da a93a 05e6 9fba bb0b 07bb
00000110: 3c09 7d3a e773 263b 9135 59bb 78fc 0ebc
00000120: 0226 baba 1bbe 87bb 71c8 893a b5b1 7f3b
00000130: be7d bc3b 5af9 363b e196 053c a24a 463a
00000140: acb4 663b 3771 d53b 20f5 3d3b 0cab 9db9
00000150: 4921 a2ba f5cd 00bb 643f 88bb f33c 92bb
00000160: 53e5 e4bb fc0b d939 9df0 3cbb e2e1 89bb
00000170: 6b3b 523b c64f 2ebb 6f9c 3c3b fee4 903b
00000180: 7919 153b e6f7 c73a b53c c93b 93e5 0d3a

exp_avg_sq f4 [10, 10]
2.056539e-06 2.7436602e-06 2.8354389e-06 2.1953435e-06 1.2719202e-06 1.022262e-06 1.6036373e-06 3.1881327e-06
8.436731e-07 2.3588996e-06 7.467047e-06 9.385572e-06 8.583547e-06 1.1701153e-05 7.1604e-06 1.230072e-05
1.5986483e-05 2.056042e-06 1.1403094e-05 4.2486186e-06 2.6634755e-06 2.266717e-06 2.017709e-06 6.1162264e-06
1.8046562e-06 1.3960514e-06 2.654651e-06 2.2210331e-06 1.7935788e-06 2.4129142e-06 3.7820864e-06 1.44044125e-05
7.914717e-06 4.3781943e-06 5.2229657e-06 7.1713507e-06 4.7477856e-06 8.469898e-06 8.625439e-06 4.873309e-06
3.6218141e-06 4.4831263e-06 3.539273e-06 4.172385e-06 2.1671785e-06 4.402153e-06 2.427451e-06 3.2306789e-06
2.014455e-06 3.3990516e-06 2.221254e-06 8.015691e-06 4.7757594e-06 9.598943e-06 3.0072842e-06 4.398603e-06
9.309871e-06 2.588443e-06 8.225881e-06 3.4127202e-06 3.2462067e-06 3.7798025e-06 4.071857e-06 5.755036e-06
2.9255941e-06 1.989128e-06 3.5308221e-06 4.241657e-06 2.7921074e-06 6.05715e-06 2.1698452e-06 1.410385e-05
3.8135634e-06 4.7547996e-06 1.4831472e-06 1.0587472e-05 9.074621e-06 4.985143e-06 9.210787e-06 3.4721181e-06
3.8757953e-06 1.1489442e-05 3.70868e-06 2.1501883e-06 2.2991255e-06 1.2902852e-05 1.2017851e-05 5.0302465e-06
1.3575032e-05 4.5873835e-06 3.8996054e-06 3.7802126e-06 1.1199082e-05 6.021627e-06 6.678445e-06 1.6305308e-05
9.0748445e-06 6.097397e-06 7.366706e-06 3.5133935e-06
00000000: 1203 0a36 b91f 3836 7848 3e36 b753 1336
00000010: d8b6 aa35 a834 8935 8f3c d735 b4f3 5536
00000020: c678 6235 964d 1e36 728d fa36 ba76 1d37
00000030: 0e02 1037 1250 4437 5e43 f036 315f 4e37
00000040: b61a 8637 88fa 0936 ea4f 3f37 5b8f 8e36
00000050: 29be 3236 e71d 1836 fa67 0736 fc39 cd36
00000060: 8437 f235 f65f bb35 8f26 3236 0f0d 1536
00000070: e6ba f035 8ded 2136 c0cf 7d36 7baa 7137
00000080: 73c9 0437 67e8 9236 ef40 af36 6fa1 f036
00000090: 2b4f 9f36 ef19 0e37 fab5 1037 6885 a336
000000a0: 4b0e 7336 c36d 9636 3f84 6d36 8400 8c36
000000b0: d86f 1136 35b6 9336 4ae7 2236 a4ce 5836
000000c0: 1330 0736 431b 6436 da10 1536 217b 0637
000000d0: 763f a036 250b 2137 c0d0 4936 b697 9336
000000e0: 9731 1c37 1db5 2d36 e401 0a37 1606 6536
000000f0: 68d9 5936 83a8 7d36 fca0 8836 621b c136
00000100: 5355 4436 f57c 0536 10f3 6c36 8e53 8e36
00000110: 0a60 3b36 863e cb36 a89d 1136 939f 6c37
00000120: 85ec 7f36 6b8b 9f36 8d10 c735 d9a0 3137
00000130: 333f 1837 0d46 a736 0788 1a37 8902 6936
00000140: d40c 8236 c7c2 4037 a3e2 7836 f44b 1036
00000150: ad4a 1a36 5479 5837 47a0 4937 7dc9 a836
00000160: 52c0 6337 53ed 9936 5bd9 8236 8faf 7d36
00000170: b1e3 3b37 620d ca36 6817 e036 62c7 8837
00000180: 2940 1837 3e98 cc36 862f f736 a4c7 6b36

exp_avg f4 [10]
-0.0018165965 -0.03568699 0.008535545 -0.023243632 0.012779704 0.018883932 0.015523305 -0.036841083
0.039109234 -0.015692739
00000000: dd1a eeba 852c 12bd acd8 0b3c 6e69 bebc
00000010: f761 513c 7ab2 9a3c 7655 7e3c ade6 16bd
00000020: 0131 203d 0f8e 80bc

exp_avg_sq f4 [10]
8.542164e-06 0.0001811549 1.2215116e-05 0.00020359222 0.00010720765 7.656175e-05 4.7083453e-05 0.0002370026
0.00041271004 7.225326e-05
00000000: 5150 0f37 66f4 3d39 86ef 4c37 5f7b 5539
00000010: abd4 e038 c78f a038 797b 4538 e783 7839
00000020: 0161 d839 ac86 9738

exp_avg f4 [5, 10]
-0.012862245 0.016440732 -0.020800168 -0.009442162 0.0021935604 0.0011229573 -0.004020981 0.009741111
0.011470895 0.016796695 -0.01182082 -0.002714085 -0.0038947267 0.0046199514 -0.0015422838 0.0045602317
0.0025040556 0.009464294 0.003854919 0.003736183 0.010250884 -0.012636205 0.016611723 0.006129578
-0.002537154 0.0018406451 0.002949884 -0.008716916 -0.0049296645 -0.01269579 0.013570092 -0.012593295
0.016926847 0.008605688 0.00167475 -0.007878879 -0.0022488874 -0.020904424 -0.00531326 -0.01599966
-0.013949673 0.03518269 -0.028808473 -0.025171917 0.0047529116 -0.0012853909 -0.0029127495 0.032302592
0.00665548 0.045441683
00000000: 2abc 52bc b7ae 863c 1d65 aabc 4cb3 1abc
00000010: d6c1 0f3b 3230 933a 6fc2 83bb 2e99 1f3c
00000020: 6cf0 3b3c 3999 893c 1dac 41bc cade 31bb
00000030: ac3e 7fbb f662 973b 7526 caba ff6d 953b
00000040: 151b 243b 2010 1b3c cfa2 7c3b c0da 743b
00000050: 53f3 273c 1608 4fbc 4f15 883c a1da c83b
00000060: 6146 26bb cd41 f13a d752 413b 65d1 0ebc
00000070: 0689 a1bb 0102 50bc 1755 5e3c 1c54 4ebc
00000080: 2caa 8a3c dffe 0c3c 4983 db3a 6a16 01bc
00000090: 1262 13bb c13f abbc db1a aebb b811 83bc
000000a0: 2b8d 64bc b91b 103d bfff ebbc 5635 cebc
000000b0: 50be 9b3b 907a a8ba d4e3 3ebb b94f 043d
000000c0: 3616 da3b 0f21 3a3d

exp_avg_sq f4 [5, 10]
3.135215e-05 6.222447e-05 6.626268e-05 3.6956542e-05 5.730082e-06 2.625448e-06 1.5682676e-06 1.9148672e-05
1.994539e-05 4.089808e-05 6.919452e-05 4.8870286e-05 1.7303411e-05 3.9382398e-05 5.4326065e-06 1.4059201e-05
8.095003e-06 8.254403e-05 1.33918375e-05 8.27187e-05 1.93748e-05 0.00018886178 0.00013680282 0.00012456057
1.9914454e-05 6.5851423e-06 6.00614e-06 9.449243e-06 1.549136e-05 4.2224103e-05 4.9028968e-05 6.1200124e-05
6.452217e-05 3.4667715e-05 6.428013e-06 6.1859037e-06 1.2952362e-06 4.570201e-05 1.0788903e-05 5.589844e-05
5.7910827e-05 0.00022430047 0.00015132834 0.00019238342 1.5782955e-05 1.4833457e-05 4.230021e-06 0.00012002977
2.2523227e-05 0.00027515664
00000000: 1d80 0338 827e 8238 81f6 8a38 c901 1b38
00000010: 0845 c036 da30 3036 447d d235 76a1 a037
00000020: 6650 a737 fb89 2b38 861c 9138 12fa 4c38
00000030: cb26 9137 872e 2538 bc49 b636 cfdf 6b37
00000040: c6cf 0737 7d1b ad38 81ad 6037 4479 ad38
00000050: 1187 a237 3309 4639 ba72 0f39 799c 0239
00000060: f70d a737 f1f5 dc36 5a88 c936 3188 1e37
00000070: 71f3 8137 c919 3138 74a4 4d38 9158 8038
00000080: 1450 8738 2d68 1138 36b0 d736 8290 cf36
00000090: fad7 ad35 29b0 3f38 fc01 3537 7e74 6a38
000000a0: 47e5 7238 3332 6b39 e4ad 1e39 88ba 4939
000000b0: a365 8437 36dd 7837 9bef 8d36 7eb8 fb38
000000c0: 43f0 bc37 e642 9039

exp_avg f4 [5]
0.06960476 0.014695462 -0.04904357 -0.06532727 0.12274765
00000000: f18c 8e3d 3cc5 703c e9e1 48bd 4eca 85bd
00000010: 1f63 fb3d

exp_avg_sq f4 [5]
0.0007466894 0.00025380278 0.0011122128 0.00081620814 0.0025991825
00000000: 7abd 433a d510 8539 abc7 913a cdf6 553a
00000010: 0c57 2a3b

exp_avg f4 [31, 5]
0.0053430963 -0.009064023 -0.006612085 -0.033485763 0.026657924 0.0012538221 -0.009716094 -0.010688165
-0.04247101 0.032828953 0.007598026 -0.014261205 -0.009794659 -0.050379112 0.040690735 0.004592425
-0.009327752 -0.004629805 -0.02647226 0.022036185 -0.0042566243 0.013609586 0.001694385 0.02044796
-0.016902734 0.0018015835 -0.0017887749 -0.0031208533 -0.017279208 0.012161973 0.00408613 -0.0074130204
-0.0034668737 -0.02402364 0.018662713 0.005565994 -0.00914333 -0.007527024 -0.039294206 0.030388545
-0.00083378993 0.00021368294 0.0024811171 0.007572322 -0.004661222 -0.003601122 0.0063367523 0.007117065
0.026480392 -0.02090358 0.003966155 -0.012565197 -0.007874302 -0.03968446 0.03371074 -0.005777325
0.00039344712 -0.0037710473 -0.0071830456 0.0047973064 0.0050617703 -0.013655934 -0.009985145 -0.047528036
0.03977134 0.002545255 -0.0076982495 -0.006046226 -0.027549965 0.02281097 -0.004300942 0.0009593828
-0.0062826183 -0.009031463 0.011634773 0.0014448777 -0.007348877 -0.0007674654 -0.01477627 0.013218142
0.0040754424 -0.011715024 0.002294126 -0.009177172 0.012204469 0.0033152264 -0.009144201 -0.003349473
-0.023607897 0.022332 -0.0014062497 -0.002241282 3.882673e-05 -0.00170327 0.0022677612 -0.0008387779
-0.005222998 0.004995637 0.004893859 -0.0019365863 0.00599375 -0.010566415 -0.006364763 -0.035011835
0.02797607 0.0034083836 -0.011853372 -0.008794548 -0.042493816 0.032430805 0.005277021 -0.008787846
-0.007287199 -0.03555506 0.0276088 0.0048460457 -0.009492831 -0.0056417356 -0.0301304 0.024360735
0.0022200292 0.0014569015 -0.0007559954 -0.0049972534 0.00348552 0.003835628 -0.00414201 -0.0029446995
-0.020186532 0.013878081 0.006571326 -0.010027855 -0.002616563 -0.02655544 0.021023028 0.008832056
-0.012001607 -0.0061374293 -0.041885316 0.03244809 0.0049094376 -0.005487401 0.0015556025 -0.0067766346
0.005013175 0.003281846 -0.004348104 0.0014880642 -0.0072274124 0.0051446226 -0.009394855 0.028079564
-0.0069709835 0.017743928 -0.018521536
00000000: 2415 af3b 4581 14bc 30aa d8bb 5e28 09bd
00000010: b861 da3c 4a57 a43a 4030 1fbc 6a1d 2fbc
00000020: 15f6 2dbd a777 063d ddf8 f83b d4a7 69bc
00000030: c779 20bc 545a 4ebd 54ab 263d 0e7c 963b
00000040: 6dd3 18bc 9fb5 97bb 5adc d8bc 3b85 b43c
00000050: 277b 8bbb befa 5e3c 2016 de3a 7b82 a73c
00000060: 9a77 8abc 1c23 ec3a 5375 eaba 3b87 4cbb
00000070: 208d 8dbc 0343 473c f1e4 853b ece8 f2bb
00000080: 7d34 63bb 3acd c4bc 8ce2 983c f162 b63b
00000090: e8cd 15bc 41a5 f6bb f6f2 20bd 66f1 f83c
000000a0: b292 5aba 1410 6039 3d9a 223b 3e21 f83b
000000b0: 2abd 98bb cd00 6cbb 88a4 cf3b 4536 e93b
000000c0: 68ed d83c fc3d abbc 85f6 813b 42de 4dbc
000000d0: 3703 01bc 2c8c 22bd 4614 0a3d b74f bdbb
000000e0: 9447 ce39 ad23 77bb c15f ebbb b932 9d3b
000000f0: 35dd a53b 23bd 5fbc bc98 23bc c2ac 42bd
00000100: 46e7 223d 4bce 263b 9941 fcbb 6b1f c6bb
00000110: 77b0 e1bc 12de ba3c ebee 8cbb 177f 7b3a
00000120: 6cde cdbb b4f8 13bc c69f 3e3c 0d62 bd3a
00000130: d9ce f0bb bb2f 49ba 2b18 72bc e890 583c
00000140: 4a8b 853b 5ff0 3fbc 0c59 163b d95b 16bc
00000150: 41f5 473c 4544 593b 8fd1 15bc d582 5bbb
00000160: 5965 c1bc 99f1 b63c e951 b8ba 79e2 12bb
00000170: e2d9 2238 4240 dfba b89e 143b 6fe1 5bba
00000180: af25 abbb 71b2 a33b aa5c a03b 0ed5 fdba
00000190: 3867 c43b c21e 2dbc 808f d0bb 9268 0fbd
000001a0: 122e e53c 305f 5f3b a534 42bc 0217 10bc
000001b0: ff0d 2ebd 2ad6 043d dcea ac3b e6fa 0fbc
000001c0: 75c9 eebb 2fa2 11bd da2b e23c 94cb 9e3b
000001d0: d287 1bbc 4fde b8bb 07d4 f6bc 2a90 c73c
000001e0: e97d 113b 81f5 be3a fe2d 46ba 00c0 a3bb
000001f0: 526d 643b 295f 7b3b b3b9 87bb dcfb 40bb
00000200: 3a5e a5bc e460 633c 4754 d73b df4b 24bc
00000210: a57a 2bbb cb8a d9bc 7c38 ac3c 54b4 103c
00000220: 63a2 44bc 7d1c c9bb f08f 2bbd 4ae8 043d
00000230: 59df a03b a8cf b3bb 5ce5 cb3a 880e debb
00000240: 8f45 a43b 3d14 573b 8a7a 8ebb 260b c33a
00000250: eed3 ecbb 3994 a83b e1ec 19bc 1d07 e63c
00000260: d96c e4bb b75b 913c 7aba 97bc

exp_avg_sq f4 [31, 5]
3.7183615e-06 3.7177404e-05 5.1993597e-06 0.00016756413 9.47773e-05 1.2409407e-06 3.1443135e-05 8.119622e-06
0.00019892145 9.088427e-05 4.958549e-06 5.2056723e-05 7.307805e-06 0.0002616088 0.00014813084 3.2771097e-06
3.4884673e-05 3.9448314e-06 0.00012670878 7.751445e-05 3.0459314e-06 9.254637e-06 6.671079e-06 5.599812e-05
2.3084573e-05 4.0777522e-06 1.8641591e-05 4.3252026e-06 6.139123e-05 3.229762e-05 6.020097e-06 3.464291e-05
6.2887775e-06 9.624006e-05 5.142908e-05 4.685662e-06 4.3032243e-05 4.6550836e-06 0.0001814335 9.877403e-05
3.1210154e-06 6.75834e-06 5.1143475e-06 1.2539646e-05 6.9279113e-06 6.4488368e-06 5.4162397e-06 1.40148495e-05
7.076053e-05 3.3156753e-05 2.7335464e-06 3.759502e-05 6.948206e-06 0.00018383683 0.00011157225 8.113526e-06
1.0464849e-05 9.629462e-06 2.1679176e-05 1.2000477e-05 2.6286311e-06 4.0129307e-05 6.423553e-06 0.00021501284
0.00012968383 2.200715e-06 2.202826e-05 4.7062163e-06 0.000107198975 6.380527e-05 2.2702218e-06 6.793917e-06
1.2194204e-05 3.3446275e-05 3.7630754e-05 6.5889512e-06 2.6554291e-05 7.256081e-06 3.7747133e-05 2.7934158e-05
1.9748459e-05 4.3774075e-05 3.306258e-05 3.4156263e-05 1.8969751e-05 1.0400865e-05 4.491046e-05 1.3732665e-05
8.132395e-05 6.441821e-05 2.1251185e-06 3.4828806e-06 4.766375e-06 1.02650465e-05 3.6165839e-06 8.337837e-06
1.5868682e-05 1.6383437e-05 7.47236e-06 5.655952e-06 4.195258e-06 4.273689e-05 5.0320023e-06 0.00017052537
9.734911e-05 2.2800982e-06 3.6799822e-05 6.9781786e-06 0.00021198625 9.318777e-05 3.6228012e-06 4.084665e-05
5.090441e-06 0.00017656003 9.770937e-05 3.3239703e-06 3.8793485e-05 4.1366484e-06 0.00013685062 8.178204e-05
4.8778725e-06 9.801243e-06 5.230289e-06 2.068938e-05 1.2179735e-05 4.5042775e-06 1.7957775e-05 4.259883e-06
7.395491e-05 3.2933913e-05 8.587776e-06 3.6823356e-05 6.505435e-06 9.732623e-05 5.226668e-05 9.664941e-06
5.5436507e-05 6.249434e-06 0.00019858523 0.00010914593 6.487036e-06 1.00930565e-05 3.094671e-06 1.6560189e-05
8.647465e-06 5.2900314e-06 9.321932e-06 5.1304537e-06 1.7322864e-05 8.3638515e-06 9.470547e-06 6.766145e-05
1.366503e-05 5.5640285e-05 2.3262943e-05
00000000: f788 7936 efee 1b38 2976 ae36 27b4 2f39
00000010: 2dc3 c638 668e a635 cfe1 0338 8339 0837
00000020: 9295 5039 1f99 be38 9d61 a636 7b57 5a38
00000030: 9135 f536 8a28 8939 9253 1b39 51ec 5b36
00000040: 2251 1238 d85d 8436 21dd 0439 418f a238
00000050: b468 4c36 5d44 1b37 22d8 df36 86df 6a38
00000060: bea5 c137 a0d3 8836 8360 9c37 3521 9136
00000070: 2abf 8038 4e77 0738 3d00 ca36 8b4d 1138
00000080: 3004 d336 7dd4 c938 8eb5 5738 8839 9d36
00000090: 857d 3438 dd32 9c36 2f3f 3e39 e724 cf38
000000a0: a372 5136 b3c5 e236 e99b ab36 5f61 5237
000000b0: 4e76 e836 1663 d836 25bd b536 5221 6b37
000000c0: 4565 9438 cb11 0b38 f871 3736 58af 1d38
000000d0: a324 e936 53c4 4039 e5fb e938 541f 0837
000000e0: 2f92 2f37 398e 2137 addb b537 a855 4937
000000f0: 8a67 3036 8450 2838 e689 d736 1275 6139
00000100: bdfb 0739 ffaf 1336 54c9 b837 17ea 9d36
00000110: 03d0 e038 32cf 8538 1d5a 1836 4df7 e336
00000120: b595 4c37 aa48 0c38 b7d5 1d38 a916 dd36
00000130: e8c0 de37 4379 f336 ad52 1e38 2654 ea37
00000140: 7ea9 a537 0e9a 3738 adac 0a38 0243 0f38
00000150: 3b21 9f37 607f 2e37 3d5e 3c38 5965 6637
00000160: 778c aa38 4318 8738 429d 0e36 6fbb 6936
00000170: d9ee 9f36 0a38 2c37 70b4 7236 bde2 0b37
00000180: bc1d 8537 2a6f 8937 15bb fa36 42c8 bd36
00000190: fec4 8c36 6340 3338 92d8 a836 0ecf 3239
000001a0: e827 cc38 ca03 1936 8259 1a38 1926 ea36
000001b0: a048 5e39 ce6d c338 401f 7336 c252 2b38
000001c0: 8ece aa36 f922 3939 52e9 cc38 6011 5f36
000001d0: 30b6 2238 8acd 8a36 8f7f 0f39 6682 ab38
000001e0: 9bac a336 0570 2437 d77f af36 1b8e ad37
000001f0: 9057 4c37 7323 9736 07a4 9637 1ef0 8e36
00000200: 3d18 9b38 8522 0a38 3814 1037 c772 1a38
00000210: 4349 da36 9f1b cc38 ec38 5b38 9b26 2237
00000220: 7f84 6838 3bb2 d136 513b 5039 46e5 e438
00000230: 37ab d936 5955 2937 0bae 4f36 bcea 8a37
00000240: 9414 1137 0681 b136 6565 1c37 4326 ac36
00000250: 9150 9137 7852 0c37 b1e3 1e37 77e5 8d38
00000260: db42 6537 4d5f 6938 ca24 c337

exp_avg f4 [31]
-0.081734985 -0.09212047 -0.11989519 -0.065325886 0.049497776 -0.038110513 -0.056356885 -0.09206091
0.017807737 0.06651934 -0.08760157 -0.0011218048 -0.106353454 -0.061985828 -0.014522214 -0.029398574
-0.020510295 -0.051704574 0.0023711831 0.018737342 -0.08551513 -0.09480869 -0.085838765 -0.073307
-0.014204244 -0.048497554 -0.06491632 -0.10211918 -0.021344706 -0.017340995 0.04935802
00000000: ac64 a7bd a8a9 bcbd 9c8b f5bd 94c9 85bd
00000010: 2ebe 4a3d c519 1cbd 7ad6 66bd 6e8a bcbd
00000020: 88e1 913c 4b3b 883d 7468 b3bd 8609 93ba
00000030: d7cf d9bd dae4 7dbd 95ee 6dbc 47d5 f0bc
00000040: 3505 a8bc 2dc8 53bd da65 1b3b 0e7f 993c
00000050: 8e22 afbd 0f2b c2bd 3ccc afbd fb21 96bd
00000060: ebb8 68bc 5fa5 46bd d9f2 84bd dc23 d1bd
00000070: 18db aebc b40e 8ebc a32b 4a3d

exp_avg_sq f4 [31]
0.0013758473 0.0013389188 0.002038084 0.0010674973 0.00039505502 0.0005029643 0.0007970322 0.001450154
0.000103053644 0.00049672305 0.0012414863 0.0001010272 0.0014609314 0.00075744116 0.00031372183 0.0003077883
0.00023282511 0.00066608563 6.479915e-05 6.537788e-05 0.0014271453 0.0014977941 0.0014613308 0.0011628345
0.00021487231 0.0006293411 0.00087249477 0.0017108031 0.00018033179 0.00017098367 0.00047086165
00000000: c655 b43a a97e af3a 6091 053b 44eb 8b3a
00000010: 631f cf39 5dd9 033a edef 503a 1813 be3a
00000020: 811e d838 8536 023a 5eb9 a23a 91de d338
00000030: b97c bf3a 048f 463a 087b a439 a55e a139
00000040: 8422 7439 409c 2e3a c7e4 8738 7b1b 8938
00000050: 0d0f bb3a a151 c43a 208a bf3a 406a 983a
00000060: 594f 6139 5efa 243a 22b8 643a 073d e03a
00000070: 7217 3d39 144a 3339 fbdd f639
