Cancer-senn/self_trial8/models/cancer/grad3_Hinput_Thdummy_Reg1e-02_LR0.001/checkpoint.pth.tar (torch_old, 26436 bytes, 34 tensors)

parametrizer.linear1.weight f4 [10, 30]
00000000: c096 d33d bc1f e63d ec16 61bd bdeb 783d
00000010: ceb4 293e e6f3 28be ff60 e23c fee7 fcbd
00000020: b65e dabb 701e d13d 935d 233e 4b2d 21bc
00000030: b878 1c3e 63ec 063e 6417 8b3d 279b 0dbe
00000040: 5198 103e 1592 533e 7331 eebd 061a 1ebd
00000050: 2148 243e 4b85 173e f21e 68bd 27bd 10be
00000060: 64c2 993d 6cc6 04bd 9f23 113c c157 7fbd
00000070: 495c 303e cac1 aa3d 7997 40be a5f7 a63d
00000080: ac45 96bd fd25 37be 57df d33d 0d67 ac3b
00000090: 1435 18be 6b20 44be b32f bbbc 58c7 0f3c
000000a0: 7fed d63a b8a5 babb a477 bf3d 73f4 6b3d
000000b0: 7e03 e6bd cbe1 d4bd de2e 30bd 16a2 433d
000000c0: 877a d7bc 04fe 003a 9c8d cbbd f9c5 6c3d
000000d0: aacb 16bd b936 073e bbc3 28be 9c44 cd3d
000000e0: 035c 08bd e8d1 c73d 6915 2c3d 20f1 1e3e
000000f0: de92 363e db66 0a3e 1468 2d3e e8d0 22be
00000100: 2fc4 adbc 5bc9 8ebd 6bd3 39bd 4bc1 04be
00000110: 0a44 b4bb c521 103e c7c9 15be ed6b 5d3c
00000120: 07f4 c43c cc8f a63c b04d da3d 0f9b 443e
00000130: 2b91 41bd 22e6 2abd a5c6 363d a338 b7bd
00000140: c9b8 82bd e916 203e cf4c b2bc d5ee 9cbd
00000150: c607 e6bd 4a5a 09be 4cc6 4cbc f071 8f3d
00000160: 69d4 033e 4a0d e23c 403c 043e 03fd eebc
00000170: f139 1fbe 0cf2 1d3e 4ab7 fabd c3e7 183e
00000180: 42b7 8f3d c09f 7abd aa78 c73b e654 cfbd
00000190: 7672 9bbd 1df5 cbbd 1d55 0c3e 295c 18be
000001a0: aecc 38bd 8a19 013e a854 b2bd e6d1 91ba
000001b0: 4cab b1bd c068 cc3d 2d38 0bbe 1dbe d33d
000001c0: fefa 8cbd 28bd b83d 8b0a 87bd a144 12be
000001d0: c4a2 e53d efbd dfbc 8603 213d 3cd0 583d
000001e0: 6b33 febd 77d9 afbb 7b18 f3bd a3f7 b03d
000001f0: e383 dfbd b747 ddbd 634f 403e b239 b2bd
00000200: 5766 083e 7b04 a33b 604d fe3b b091 fd3d
00000210: 42d1 b8bb b0ba b33c a68b f53d 215b 133e
00000220: 2b11 13be 177c 1a3e cba6 07be 0bc7 b7bd
00000230: 919a c53d 64cc 93bd 0e6d 373e 9bd5 dabd
00000240: b427 c6bd 0ed7 373d 64a8 13bd e34c c8bd
00000250: c08f 163e 501d f7bd ee14 87bd cdf2 e23c
00000260: 63eb bbbd 120b 273e e473 fa3b 0daa a93d
00000270: 558a 0d3d 15a7 183d ae4b 243c 7d0f 15bd
00000280: 9c2f 003d 3dc9 9b3a ba9c 383e 77a3 d23d
00000290: 52cd 513e 7342 2639 c154 133e d912 b2bc
000002a0: 1d22 cebb 450d 0f3e 92ba cebc 847a b0bd
000002b0: c2fd 0bbe e29f d43d df97 d93c d5f1 cf3c
000002c0: 6b8c 46bd 0b79 3ebe 2706 12be ee4b cbbd
000002d0: 0e8d a5bd e28b 56be 2a7d 24be fc42 0d3d
000002e0: ca0f 1dbd 8fda dd3d bf9f e6bd 9c3e 2dbe
000002f0: c42b 00be 25aa 303e 9374 243e 2e1b 303e
00000300: 742d 5abd 662a e3bd 72cc 2ebc 9df9 bebd
00000310: ac2e 263d 3122 03bd 3bf6 d53a b170 9c3d
00000320: 3981 c83d ed02 6f3d ab9b 1ebe 7b2b dfbd
00000330: 5d4a 543c 12ba e6bd b8d3 11be 14ab b13d
00000340: 0d40 a53c d2ea 623d 533a 90bb aeb9 c03d
00000350: c9ff 89bd 4980 17be 7da3 653d 9836 54be
00000360: 1e4f a93d 783f 37be 277b ba3c beb9 f9bd
00000370: d4c5 103e d2c8 0ebd 1508 063e cb94 023c
00000380: 3fe3 cebd d07e 4a3d 521c 3d3d 7036 ab3a
00000390: daa3 223e 71ff d73d b528 47be 9611 8fbd
000003a0: 53f0 30be b335 16be 6666 cd3c 27ad afbb
000003b0: 2dde 653d 2228 d8bd 0892 713c 4055 86bd
000003c0: 2770 c23d 3429 12bd 5e7c 7d3d 9bc9 49be
000003d0: 0b8f 3cbd ef71 1a3e 36d0 88bc d579 a73d
000003e0: ed5d b8bc 17c5 f0bd d842 53be 4b69 8e3d
000003f0: 8377 c53d 85fa 48be fded 403e 67b4 ccbd
0.10331488 0.112365216 -0.0549535 0.060771693 0.16572878 -0.1649929 0.027634142 -0.123489365
-0.0066641225 0.102108836 0.15953664 -0.009837459 0.15280426 0.13176112 0.06791571 -0.13828717
0.14120604 0.20661195 -0.116305254 -0.038599037 0.1604314 0.14796941 -0.056670137 -0.14134656
0.0750778 -0.032415792 0.00885859 -0.062339548 0.17222704 0.083377436 -0.18807782 0.08152703
-0.073375076 -0.17885585 0.10345333 0.005261308 -0.14863998 -0.19152991 -0.022849893 0.008775555
0.0016397684 -0.0056960247 0.093489915 0.05760617 -0.11231135 -0.10394629 -0.043013446 0.047762
-0.026303543 0.0004920664 -0.09939119 0.05780599 -0.036815323 0.13204469 -0.16480915 0.10022852
-0.033290874 0.09756833 0.042012606 0.1552167 0.17829463 0.13515799 0.16934234 -0.15900004
-0.021211712 -0.06971999 -0.04536764 -0.1296436 -0.005501275 0.14075382 -0.14627753 0.013514501
0.024042143 0.02033224 0.10659349 0.19199775 -0.047257584 -0.041723378 0.044623036 -0.089463495
-0.06382901 0.1563374 -0.02176514 -0.07662741 -0.112319514 -0.13413349 -0.0124984495 0.07004154
0.12873997 0.027594227 0.12913609 -0.02917338 -0.15549447 0.15424365 -0.12241991 0.1493216
0.070173755 -0.061187506 0.0060873823 -0.10123615 -0.07590191 -0.09958861 0.13704343 -0.14878906
-0.045117073 0.12607399 -0.08707553 -0.0011125177 -0.086752504 0.09980917 -0.13595648 0.103389956
-0.068838105 0.09020454 -0.06593808 -0.14283992 0.11212686 -0.027312247 0.03931 0.052932963
-0.12412151 -0.0053665 -0.11869904 0.08640983 -0.10913827 -0.10804694 0.18780284 -0.08702411
0.1332029 0.0049748993 0.0077606887 0.12381303 -0.00564018 0.021939605 0.119895265 0.14390232
-0.14362018 0.15086399 -0.1324722 -0.08973511 0.09648622 -0.07216719 0.17912695 -0.10685273
-0.096755415 0.044882827 -0.03604926 -0.0978029 0.14703274 -0.12066138 -0.06595789 0.027703667
-0.09175756 0.16312817 0.00764321 0.08284388 0.03455575 0.037268717 0.010027809 -0.036391724
0.031295404 0.0011885535 0.18028536 0.10285085 0.2048848 0.00015855748 0.143878 -0.021737503
-0.0062906877 0.13969906 -0.025235448 -0.08617118 -0.1367102 0.10382058 0.026561676 0.02538387
-0.048473757 -0.18600862 -0.1426016 -0.09926592 -0.08083545 -0.20951799 -0.16063371 0.03448771
-0.038345136 0.10832702 -0.11260938 -0.16918415 -0.12516695 0.17252405 0.16060095 0.17197868
-0.053266004 -0.11092071 -0.010668861 -0.09324954 0.040571854 -0.03201503 0.0016323993 0.07638682
0.09790272 0.0583524 -0.1548907 -0.10896965 0.012957183 -0.11265959 -0.1424092 0.08675209
0.020172143 0.055399723 -0.004401484 0.094104156 -0.0673824 -0.1479503 0.056064118 -0.20723951
0.082670435 -0.17895305 0.022763802 -0.12193631 0.14137965 -0.034859486 0.1308902 0.007970045
-0.101019375 0.049437344 0.046169586 0.0013062488 0.15882817 0.105467685 -0.19449122 -0.06985776
-0.17279176 -0.14668922 0.025073241 -0.0053612175 0.056120086 -0.1055453 0.014744289 -0.06559229
0.094940476 -0.035683826 0.061886184 -0.19705813 -0.046034854 0.15082525 -0.016700845 0.081775345
-0.022505725 -0.11756342 -0.20630968 0.06953677 0.09641936 -0.19626816 0.18840785 -0.099953465

parametrizer.linear1.bias f4 [10]
00000000: 91d5 e3bd c754 6dbd b018 1abe e52d 1a3e
00000010: 9857 c5bd 4734 ddbd f5f9 23bc 0083 14ba
00000020: 0065 43bc db68 0dbe
-0.11124719 -0.057942178 -0.1504848 0.1505657 -0.09635848 -0.10800987 -0.010008325 -0.00056652725
-0.011925936 -0.1380953

parametrizer.linear2.weight f4 [10, 10]
00000000: 3ca0 18be 4596 563e 4b73 a8be 46d2 a53e
00000010: eaf3 553e d9ec c53d 0355 713e 43c6 803e
00000020: 0f2e 863e e853 61be bed9 acbd 6a50 063e
00000030: 6796 813e 3faa 91be e88d 7ebe c8a2 3ebc
00000040: 876c 4c3e d2d1 92bd 65bd 1abe 0aa8 03be
00000050: 5ce9 aebc cf5f 44be 95ef 883d 403a 3fbe
00000060: 8c79 643e 11f0 c83c 044d 68bd 491a 923d
00000070: 45f3 6abd 03f3 cebd 87fe 8bbe 94e4 8ebe
00000080: f6b8 a6be 030f 823d bf2a b3be b90c 593d
00000090: 61fb 4c3e 5f6b 993e b1fc 24be 1211 3dbe
000000a0: 8d76 70be 4942 8dbe b3b7 20be 2645 8f3b
000000b0: d6bb 7bbe 7d4a 3b3e 3e1f 2bbd d973 68bd
000000c0: c64a 80bb a0ad 9ebe 3c97 643e 8dca 5e3e
000000d0: ea9d 403d bb46 7c3e 3724 c4bd 31ff 07bd
000000e0: e86e 163e b062 d43d af58 3bbe 6831 123e
000000f0: 817b 833e 3074 9bbe eeaa bbbd 8bc5 e73d
00000100: 2131 ce3d d852 933e 19d6 e6bd 221d 913e
00000110: c8ee 65bd a51c 8c3e ad70 87be c47d 26be
00000120: 3479 a7be 3597 8e3e 8c9a f0bb bfa4 66be
00000130: 3407 93be 5298 8dbe 3e57 95be 038a 113d
00000140: 9dfb 4a3e 1645 883b 791e 1f3e ccde 4f3e
00000150: d0c4 e43d c037 15be 364e 08bd bb2a 3c3e
00000160: bef0 4a3b 1f7b 6ebe 7e28 73be 12d1 6abc
00000170: 0a16 6d3e 6654 0ebe 1acc 993e 0b39 12bd
00000180: dc59 29bd 96a7 6d3e f2be 193e 777f 78bd
-0.14904875 0.20955761 -0.32900462 0.32386988 0.20893827 0.09664316 0.23567586 0.25151262
0.26207015 -0.22004664 -0.084399685 0.13116613 0.2531006 -0.284502 -0.2485882 -0.01163549
0.19963275 -0.07168926 -0.15111311 -0.1285707 -0.021351509 -0.19177173 0.06686322 -0.18674564
0.22311991 0.024528535 -0.056714073 0.0713392 -0.057360906 -0.101049446 -0.27342626 -0.27908766
-0.3256299 0.063505195 -0.3499355 0.05299065 0.20017768 0.2996473 -0.16112019 -0.18463543
-0.23482724 -0.27589634 -0.15695076 0.004372257 -0.24583372 0.18290134 -0.04177784 -0.056751106
-0.0039151637 -0.3099184 0.22323316 0.21756954 0.0470256 0.24636357 -0.0957722 -0.033202354
0.14690745 0.10370386 -0.18295549 0.1427666 0.25680164 -0.30362082 -0.091634616 0.11316975
0.10067964 0.28774142 -0.11271305 0.2834254 -0.056135923 0.27365604 -0.26453152 -0.16258913
-0.32709658 0.27849737 -0.007342642 -0.22523783 -0.28716433 -0.27655274 -0.29168123 0.03553201
0.19822545 0.0041586263 0.15538968 0.20299834 0.111703515 -0.14572048 -0.033277713 0.18375675
0.0030966247 -0.23289154 -0.23745915 -0.014332073 0.23152938 -0.13899383 0.3003853 -0.03569893
-0.041345462 0.2320846 0.15014246 -0.060668435

parametrizer.linear2.bias f4 [10]
00000000: 2a1b 1f3e db26 21be 4eaa 52bd 7e87 933e
00000010: 0b14 54bd aa1d e5bd 630c abbe a659 19be
00000020: 13d7 af3e f422 6fbe
0.15537706 -0.15737478 -0.051431946 0.2881431 -0.051776927 -0.111872986 -0.33407888 -0.14975604
0.34343776 -0.23353177

parametrizer.linear3.weight f4 [5, 10]
00000000: cc13 a63e 9d74 8abe aad7 12bd 0264 803e
00000010: c5c9 a53e 202f e0bc 1d63 adbd 0be2 9dbd
00000020: b44f 343e f179 52be 894e 813e a050 80bc
00000030: 1ee2 bc3d 1094 323e 703f 87be 9e59 63be
00000040: b4d1 5cbe 4cb9 7b3e a310 a93e b7a5 afbd
00000050: e91b 343d f6ac 253e 5025 0bbe 5dcb bf3d
00000060: 74aa 5a3e d768 2fbd fb05 03be 4b4c 27bd
00000070: 1bc1 54be 5cb2 883e 1cd1 563e dc88 d6bd
00000080: 1abe 65be 3747 c53d 3ae0 33be a887 013e
00000090: 98bb ec3c 2e74 25be f5d3 833e 880d d63b
000000a0: 6608 2fbe 1dcc a93c e642 81be 00d6 80be
000000b0: 0746 f0bd 6950 31be c975 253e d744 8cbd
000000c0: ea19 a53c 69e8 6fbd
0.3243698 -0.27042094 -0.035850205 0.250763 0.323805 -0.027366221 -0.0846617 -0.0770913
0.1760853 -0.2055433 0.2525523 -0.015663445 0.09222816 0.17439294 -0.26415586 -0.22202155
-0.2156437 0.24582404 0.33020505 -0.085765295 0.04397193 0.1617926 -0.13588452 0.0936496
0.21354085 -0.042824592 -0.1279525 -0.040844243 -0.20776789 0.26698577 0.20978206 -0.104753226
-0.22435799 0.09632724 -0.17566004 0.12649405 0.028898045 -0.161576 0.25747648 0.006532375
-0.17093047 0.020727212 -0.25246352 -0.2516327 -0.11732107 -0.1731583 0.16158213 -0.06849068
0.020153958 -0.058571253

parametrizer.linear3.bias f4 [5]
00000000: 2f8f a03d 4f2c 5f3e 6e0d 32be 504a 393e
00000010: 0e3a c43d
0.0783981 0.21794246 -0.17387936 0.18094754 0.095813856

parametrizer.linear4.weight f4 [31, 5]
00000000: 5a60 553e d688 933e 1af8 68be 4728 903d
00000010: 1971 863d fd7f 51bd 9678 21be fb5f ec3c
00000020: efc7 c23c 08f2 9dbe 8497 b93e f1d7 e9bd
00000030: 4925 e23d 61e2 a5be be22 97be 5bc8 86be
00000040: 7f23 8cbd c758 7bbe 36b7 293d d1d9 8a3e
00000050: 5c61 213e a82d 29be 69dc 863e 2929 c53e
00000060: 3adb 6ebe a429 a13e 076e a63e 9af3 88be
00000070: 049b e9bc 5a99 833e 9dc6 9d3e 7c18 ea3e
00000080: 3402 253e 6adc bdbe f8bb 9dbe 9ba2 c6bc
00000090: ae67 393e 841f ecbd 2776 e53e 3ebe 82be
000000a0: 353a 50be 916e a93e 0b34 063e 2d6c 253e
000000b0: f077 163e 297c 1a3e c902 563e f0e7 73be
000000c0: 4b2e 0cbe cbd5 c83d 5923 56be 4258 af3d
000000d0: 0b41 973b 1b48 05be efae 2d3c 1b22 b13e
000000e0: 4e4d 9e3e 822b a83a 76e1 8fbe 113d a23e
000000f0: cff8 c03e 6dcf 22be d810 883c a8e2 7f3e
00000100: 5d27 a7be 3ddd 1f3e 0ef2 b23e 011f f2be
00000110: c6de a43e d66e 933c a680 34be f216 68be
00000120: c4fb 35be 4c56 9fbe 500d 453d 3c38 65be
00000130: 071c f5bd a754 563e 4e4d 9fbe 1565 ff3d
00000140: 127c 5e3c 88ed 98be ac15 1fbe e834 9dbe
00000150: 37c7 d3bc ca89 363e 0a9f 663e 338e e7bd
00000160: 2ae6 c1be 98c4 fa3d 4374 94bb ae07 0ebd
00000170: bbe6 74bd a339 0bbe 7e0f 8f3e ac42 30be
00000180: d57c 9a3e 50f3 a53d ddbc d7bd 0146 b0be
00000190: 3484 ca3e fcb9 633e 48f0 95be f3b9 553c
000001a0: 0de9 95bd f925 e13e b224 88be 72eb a53e
000001b0: c328 963b 47b0 483e a213 7c3e 9c82 2a3e
000001c0: e40b 4fbe 4ad1 353e 74d1 86bd f00d eb3d
000001d0: aacf 8abe f13c 333e 54fd cf3e 4b9c bebe
000001e0: 958f 9bbe 79e6 763e 4ce1 edbd 928a 043d
000001f0: 0df3 7abd 4d5c 213c bbb9 da3d 2cd5 ab3e
00000200: e234 ad3e 77a5 e73e f7ad aebd 5150 f23c
00000210: d25c 84be 7e44 b63e d6de e43e cecb 643e
00000220: 34cd e73d 532d 99be 0271 b0be b401 61be
00000230: 881f 803e d7fb eb3e 6f20 843e 7432 f43e
00000240: e270 f7bd 6da0 9dbe 8d12 95be 81fa eabe
00000250: 533c 9fbe e18c c5bc 4293 42be 1c4a f4bd
00000260: 044a 9dbe 1f4b cabe a965 cc3d
0.20837536 0.28815335 -0.22750893 0.07038932 0.065645404 -0.05114745 -0.15768656 0.02885436
0.023776976 -0.30848718 0.3624841 -0.11418141 0.11042268 -0.32399276 -0.29518694 -0.26324734
-0.06842708 -0.24545585 0.04143449 0.27119306 0.15759796 -0.16521323 0.26340035 0.38507965
-0.23325816 0.31477082 0.3250582 -0.26748353 -0.0285163 0.25702935 0.30815592 0.45721805
0.16114122 -0.37082225 -0.3080747 -0.024247458 0.18105957 -0.11529449 0.44816706 -0.25535768
-0.20334704 0.33092168 0.1310579 0.16154547 0.1469419 0.15086426 0.208995 -0.23818946
-0.13689534 0.09806403 -0.20911922 0.08561756 0.004615908 -0.13015787 0.010600789 0.34596333
0.30918354 0.0012830349 -0.281017 0.31687215 0.37689826 -0.15899439 0.016609594 0.24988806
-0.3264722 0.1561174 0.34950298 -0.4728928 0.32201213 0.017997187 -0.176272 -0.22665003
-0.17771822 -0.31120527 0.0481084 -0.22384733 -0.119682364 0.2093073 -0.31113666 0.12470452
0.013579385 -0.29868722 -0.15535611 -0.30704427 -0.025851829 0.17826 0.22521606 -0.11306419
-0.37870914 0.122445285 -0.004530461 -0.034675293 -0.059790354 -0.13596205 0.27941507 -0.17212933
0.30173364 0.08103049 -0.1053407 -0.3442841 0.39553988 0.22238916 -0.29284883 0.013044822
-0.073198415 0.43974283 -0.26590496 0.32406193 0.004582496 0.19598494 0.24616864 0.16651386
-0.2021938 0.17755619 -0.06582919 0.11477268 -0.2711156 0.17503716 0.40622962 -0.37228617
-0.30382982 0.24111356 -0.116152376 0.032358713 -0.061266948 0.009848666 0.106799565 0.33561075
0.3382941 0.45243427 -0.08529275 0.029579313 -0.25852066 0.3559913 0.4470126 0.2234337
0.11318436 -0.29917392 -0.34461218 -0.21973306 0.25024056 0.46090576 0.25805995 0.47694743
-0.120820776 -0.30786458 -0.29115716 -0.45894244 -0.3110071 -0.024115028 -0.19001487 -0.11928198
-0.30720532 -0.39510438 0.09980328

parametrizer.linear4.bias f4 [31]
00000000: 9147 aabe af88 4ebe a5ec 23be 4ef3 813d
00000010: 8f9f 8abe 0466 423d 1269 bf3e f95a 853e
00000020: 5c34 60be d893 4ebe 7627 1e3e 6ae8 99bd
00000030: 0e99 a1be d5f3 7abd 0a7e 583e 33fb 76be
00000040: 9c5f e03e 140a babe 4885 713e 538a ed3e
00000050: fc6f 1ebe 5624 193e 0930 8abe 9af2 bc3e
00000060: cbab b03e 6922 c1be 0630 67be 429f a43e
00000070: 430b c63d 1b7b 8fbe 586d a83d
-0.33257726 -0.20169328 -0.16008241 0.06345235 -0.2707486 0.04746057 0.3738485 0.2604597
-0.21894974 -0.20173585 0.1544474 -0.075150326 -0.31562084 -0.061267693 0.2114183 -0.24119262
0.43822944 -0.36335814 0.23585999 0.46394596 -0.15472406 0.14955267 -0.26989773 0.3690384
0.34506068 -0.37721565 -0.22576913 0.32152754 0.09670117 -0.2802361 0.08223981

exp_avg f4 [10, 30]
00000000: 9388 a93a 92b7 1e3a 73f3 aa3a d984 d33a
00000010: c892 4db9 89a7 253a 5dab 9e3a f907 853a
00000020: 0888 5139 4a34 d23a 0cb4 e139 eb1b e4b9
00000030: 8e93 ba3a c4d8 333a 4f06 3b3b db2a 9e3a
00000040: 79d2 033b 3887 b93a 6706 e33a 45b8 9b39
00000050: 44f7 f739 ca54 16ba 2558 123a 910a 323a
00000060: 5dcd 9638 b0aa 05bb 4caf 40ba 260a 40ba
00000070: 04d7 9d38 fbfc f0ba 706b 513b b181 063b
00000080: 6079 433b af3d 473b fa1e dfba 2ed3 23bb
00000090: 999d 5dbb 703c e6b9 3414 2eb9 e29c babb
000000a0: 802d af3a b4b1 41bb bc5f 0e3b 8609 f23a
000000b0: 9293 ffba 174a 90bb 3a54 0abc fc19 88bb
000000c0: e834 5dba c3ac ddbb 185f 303b 1a89 973a
000000d0: d116 2b3b 375e 223b 4ecf 8cba e344 66bb
000000e0: 5c04 9dbb 902f 94ba a7cb 33ba ee9f aebb
000000f0: 79d1 0c38 2172 3a3c 94f0 44b9 ca00 ed3a
00000100: d7c7 deba 1536 71bb 4b67 e3ba 4ca0 d1ba
00000110: 5184 7c3b 2137 6c3a d8c2 1e39 6d9a 313b
00000120: d6da 413a ccaf 73b9 c555 e938 2dc8 c5ba
00000130: 2db3 8e3a f970 83bb 2d5e d63b a7fc 14bb
00000140: 32f9 0c3b 8ae7 2f3c 32dd dd3a f4f3 6f3b
00000150: 73ee 333b 264b caba 3e4e c8b8 c3cd 02bb
00000160: b970 1f3c d490 8e3a aa73 a03b e76b 24bc
00000170: 0131 a33b 7bce 1a3b fd04 2cba a7b7 303b
00000180: fa40 22bb 3ab7 803a a93a d3bb aa8b 02bc
00000190: dc75 18bb 6fc4 afbb 8282 6039 dffd c138
000001a0: 05ec 6b3b 9d98 c53a be10 29bc a111 2f3b
000001b0: 72af a3bb 1bb8 b1bb 7567 02ba af3b 30bc
000001c0: 5baa f239 0eda 3fbb dc57 cbbb 296d 9bba
000001d0: a337 a3bb b789 6437 c93d 35bc f2fd 0abc
000001e0: 4434 f33a 5779 14bb 38f0 e23a 6aa1 ff3a
000001f0: ac0a b03a 0388 713a dd38 7d3b a7ee e93a
00000200: 3f3d 3d3b 5abb 083b 399f a43a 2d9d 19bb
00000210: 2f4f a03a a1eb 143a 6c04 8e3b 5584 913b
00000220: 2791 403c 8276 153c 9864 143b d994 fd3b
00000230: d3a1 373a 98ac 7bbb 73f7 283a 4c87 2a3a
00000240: ad95 77b8 6580 35bb 9ab4 013b dcdf a23a
00000250: b3db 18ba cc85 0dbb 9b3b 4cbb 1004 ed3a
00000260: b919 38bb fbcd 4fbb e445 c0ba d4ed 533a
00000270: 593a feb8 98e8 a5ba 3e63 f5ba bd2d d73a
00000280: 8bbf 94ba 9675 983b a3ed 87ba 55b3 9bba
00000290: 8a0b baba 936b b53a 6758 aeba e4a1 37bb
000002a0: eb99 023a e7a5 1e3a 7a16 40bb 44ab 1e3b
000002b0: ebbd 31bb 8e91 43bb 471e cfba bb28 233b
000002c0: d6f9 a339 1fa2 c3ba d86c 5aba 1e82 533b
000002d0: 9625 393b 2994 c13a f582 3a3b 63d0 133b
000002e0: ec73 a03a e7d8 4b3a 60a5 27bb 81f2 aa3a
000002f0: 2afb 03bb 47b8 81bb 17c2 1f3a bf44 0eb9
00000300: 1d0c 723a df21 cd3a 2977 013b 9004 3dbb
00000310: 84ca 4ebc 1e1e 9cbb b3f6 65bb 0219 75bb
00000320: 6b30 053b d9ee e53a 3b05 133b 5139 ce3a
00000330: b7e4 8e3a a780 8a3a 83ad 9fbb 5488 5e39
00000340: c571 6cbb 337f b7b9 8b71 813b 3291 5238
00000350: 2733 883b 6a60 673b b9a6 b63a e9f3 893b
00000360: 4cc8 a93b 1e9e 5a3b 070a b839 99f4 d7ba
00000370: cfa4 ef3a 5f57 d3b9 4b88 153b f96d 233b
00000380: 64a9 b43b 153f 073c 5c39 d63b f489 dc3b
00000390: 1e87 633b b23e 9c3b dfce 0b3b 7c74 0cba
000003a0: 2cc3 273b 966a fd3a 17fe 3dba af30 853b
000003b0: e638 8d3b eaef 4f3b 39d9 a3ba bca4 2d3a
000003c0: b73d c43a 8c57 9a39 7681 d13a d5d3 a13a
000003d0: 7c99 c6ba 4861 2d3a 2d03 9b3a 60c7 533a
000003e0: 6a96 a9b9 6be3 0ebb 077d dc3a c0f8 023b
000003f0: a93e 073b 2fc5 d43a 0866 e7ba 55d3 8e39
0.0012934379 0.0006054576 0.0013042524 0.0016137614 -0.00019605004 0.0006319215 0.0012105514 0.0010149471
0.00019982469 0.0016037312 0.0004304949 -0.0004350835 0.0014234649 0.00068606087 0.0028537696 0.0012067215
0.0020114465 0.0014154678 0.0017320634 0.00029701195 0.00047295738 -0.00057346805 0.00055825926 0.00067917357
7.190809e-05 -0.0020395927 -0.000735034 -0.0007325731 7.526393e-05 -0.0018385941 0.0031954907 0.002052408
0.0029826984 0.0030401757 -0.0017022782 -0.00249977 -0.003381586 -0.00043914048 -0.0001660146 -0.0056949714
0.0013365 -0.0029555382 0.0021724543 0.0018465973 -0.0019498935 -0.0044033634 -0.008442933 -0.004153488
-0.00084383646 -0.0067649796 0.002691215 0.0011561245 0.002610613 0.0024775395 -0.0010742934 -0.0035136275
-0.0047917794 -0.0011305679 -0.00068586547 -0.0053291237 3.3573688e-05 0.0113797495 -0.00018781639 0.00180819
-0.0016996813 -0.0036805917 -0.0017349509 -0.0015993207 0.0038531015 0.00090109004 0.00015140639 0.0027100102
0.0007394975 -0.00023239775 0.000111262816 -0.0015089564 0.0010887139 -0.00401127 0.0065419883 -0.00227336
0.0021510837 0.010736356 0.0016926883 0.0036613913 0.002745536 -0.0015433773 -9.551317e-05 -0.001995907
0.009731465 0.0010876902 0.0048966007 -0.010035492 0.004980207 0.0023621607 -0.00065620226 0.0026964934
-0.0024757967 0.0009820231 -0.006446202 -0.007967869 -0.002326361 -0.005363993 0.00021410923 9.250244e-05
0.0035998833 0.001507539 -0.010318933 0.0026713389 -0.00499528 -0.0054235584 -0.0004974523 -0.010756417
0.00046284762 -0.0029274258 -0.006205542 -0.0011858094 -0.0049809976 1.3621923e-05 -0.011062094 -0.008483397
0.0018555005 -0.0022655332 0.0017314022 0.0019503061 0.0013430915 0.0009213688 0.003863863 0.0017847613
0.0028875617 0.0020863623 0.0012559659 -0.0023439631 0.001223063 0.00056808634 0.004334023 0.004440824
0.011753357 0.009122493 0.0022642966 0.0077386913 0.00070050097 -0.0038402434 0.0006445564 0.0006505146
-5.9028785e-05 -0.0027694937 0.0019791485 0.0012426334 -0.00058310776 -0.0021594642 -0.0031163457 0.0018082876
-0.0028091504 -0.0031708467 -0.0014669267 0.00080844504 -0.00012122532 -0.0012657819 -0.0018721593 0.0016416829
-0.0011348588 0.004652689 -0.0010370504 -0.0011879007 -0.0014194113 0.0013841264 -0.0013301492 -0.0028020078
0.0004982042 0.0006051943 -0.0029310272 0.002421097 -0.0027121257 -0.0029841396 -0.001580187 0.0024896103
0.00031275925 -0.0014925635 -0.0008332259 0.00322736 0.0028251163 0.0014768887 0.0028459404 0.0022554628
0.0012241579 0.00077761564 -0.002558075 0.0013042242 -0.002013872 -0.003958735 0.00060942903 -0.00013567785
0.00092333724 0.0015650353 0.0019754863 -0.002884183 -0.012621526 -0.0047643324 -0.003508967 -0.003739894
0.0020323049 0.0017542496 0.0022433538 0.0015733634 0.0010901903 0.0010566906 -0.004872979 0.00021222356
-0.0036078554 -0.0003499925 0.003950303 5.0203125e-05 0.0041564885 0.003530527 0.0013935185 0.0042099846
0.005181348 0.0033358405 0.00035102686 -0.0016476094 0.001828337 -0.00040310153 0.0022816833 0.0024937375
0.005513357 0.008254786 0.0065375995 0.0067303125 0.0034717987 0.004768216 0.0021333022 -0.00053579337
0.002559851 0.0019334133 -0.000724764 0.0040646414 0.0043097613 0.0031728693 -0.001250065 0.00066239736
0.0014972006 0.00029438396 0.0015984017 0.0012346456 -0.0015151943 0.00066139223 0.0011826508 0.00080787204
-0.0003234626 -0.0021803032 0.0016821929 0.0019984692 0.0020636714 0.0016233082 -0.0017654309 0.00027241805

exp_avg_sq f4 [10, 30]
00000000: abda f036 51f2 d636 3f5b e936 8c6d eb36
00000010: c633 0337 edbc ce36 b731 a036 1d1a ef36
00000020: 15a0 1237 483c 5037 c75f 3636 5abf cc36
00000030: 4939 5d36 7a7e 2a36 8f61 4537 e769 8136
00000040: 17c3 ac36 7bd1 0837 2b54 8b36 898d 3236
00000050: 3b59 d036 a078 0037 efa4 d136 9425 d936
00000060: 80f6 5d37 a03e fd36 eb67 e236 4d96 0537
00000070: a53f c036 3425 e236 0ff3 3837 498f 4736
00000080: c04a 3a37 b712 6f37 12b0 4436 6454 8536
00000090: 0f57 c136 86d2 c636 e93e c736 7a76 be36
000000a0: f75a cd37 4108 fe36 3b5d da37 9ee9 f237
000000b0: 3003 d336 46c4 d836 5cca 5537 08c3 2437
000000c0: 5995 4536 ed65 1d37 17ce 5f37 00bd 6236
000000d0: 2200 6037 8820 9137 0df6 f536 7d4f 5636
000000e0: 68d5 b536 40fc a236 7513 d035 2e48 a736
000000f0: ffa5 1338 b90e 0438 15dd 0738 92c9 f437
00000100: c16a fb37 1feb b737 90a6 7737 f79c b737
00000110: b543 c737 ac97 2338 e4d7 a837 5275 1538
00000120: 0b61 ac37 5ebb a437 5a19 3838 847d 0738
00000130: 3e89 4038 916a 2e38 42ec dd37 85db 9137
00000140: 71ab 1d38 ed30 0638 6a45 1238 4de6 3038
00000150: 01db 6638 1928 0638 7b0f 0538 16a0 0538
00000160: fcf2 b537 ba64 bb37 0d12 8038 29d1 0b38
00000170: 03a5 7238 ea64 9938 1322 c937 0dbe dc37
00000180: 6daf 4338 5bcf 2d38 5dea 6f38 0762 b938
00000190: 51d3 9738 7017 5838 c985 8538 c026 d438
000001a0: 09cf f738 f3e6 c538 72da 9239 c82d bf38
000001b0: 7647 3438 508b 7639 5d7d ab38 e4d4 2038
000001c0: 4979 a838 8f7d 0539 9e60 2d38 a1d5 0138
000001d0: 2914 0438 0f50 ea37 dbab 1e38 15ac 7a38
000001e0: 31b7 7837 c4bd ac37 73b2 8437 e4da ad37
000001f0: a5cc c036 2678 7637 0d6b dd37 641c b237
00000200: 4d5c 4137 2790 0a37 0d8c 3038 6538 a337
00000210: b82a 2638 2a9a 5b38 4941 c636 22a4 6037
00000220: 1c88 0838 3e94 af37 c406 0e37 b40b b537
00000230: 35e4 9c37 1deb 8e37 8810 a237 0474 dd37
00000240: 4568 7936 3b7b 2e37 f201 8337 65aa 8237
00000250: bf00 d236 8483 0237 de22 b036 7c14 e836
00000260: 14d6 9c36 7fd9 c036 1e85 0536 90d0 b236
00000270: 30bd 8a36 b61f 3936 1fef 8b36 ba09 d836
00000280: 7669 6736 1487 0c37 24e0 2e36 ea47 9736
00000290: c6f6 de35 393c 0237 7ffe 5336 ff2b d135
000002a0: 00d5 de36 2d3d 1536 aeba cc36 7e28 db36
000002b0: 5bc0 af36 bbef 1437 216b 3136 d7d3 2437
000002c0: 79b9 c736 c100 3e36 5e2a e736 77cf 0a37
000002d0: cc83 4f37 59c7 6d36 f4f4 4b37 926b 1337
000002e0: b63e 3136 4116 e836 aaff f036 7aef 9536
000002f0: 3173 a236 1d5c 6537 2694 0036 fd05 c436
00000300: e1aa 4a36 aab1 5836 3acf a537 1f8e ca37
00000310: c885 9e38 263e 8637 aae0 7a37 43bd 1d38
00000320: 0f44 2737 ca28 8636 bd26 3137 208b 0c37
00000330: 646f 6336 cff2 2a37 ab4c 8737 2ec6 a936
00000340: ed47 4037 887e 2f37 ea3e ec37 ee64 8337
00000350: 098d ec37 de1d ec37 c45c 5937 aeb3 9437
00000360: 8bf9 9737 41a4 9837 a677 5637 13ff 9d37
00000370: 94ee 2738 8135 c037 b13e 3238 cf04 7c38
00000380: a0cc b938 cdb9 1938 daa4 0238 93be 3438
00000390: 6c16 6637 3224 b137 189e b437 23c3 3937
000003a0: 30b9 c237 3f49 d637 1831 7237 5654 a437
000003b0: fa61 8b37 b52b b937 955b 8037 0658 4e37
000003c0: 323c 2237 ca3f d036 e49d 1c37 a71a e436
000003d0: a5e3 4936 939e 6336 0522 9636 fe30 9336
000003e0: 60b6 2b36 ac20 7d37 9c5c 4c36 5921 5236
000003f0: c1ff 4636 d327 5536 a1c7 a037 176f bd36
7.1780137e-06 6.4059063e-06 6.9545636e-06 7.0162987e-06 7.820263e-06 6.1612723e-06 4.774159e-06 7.125795e-06
8.73955e-06 1.2411801e-05 2.7175863e-06 6.10195e-06 3.296491e-06 2.5405593e-06 1.176483e-05 3.8568282e-06
5.148711e-06 8.155005e-06 4.1523213e-06 2.6606451e-06 6.209271e-06 7.65748e-06 6.247886e-06 6.4714786e-06
1.3230019e-05 7.547278e-06 6.7474225e-06 7.962412e-06 5.729455e-06 6.739656e-06 1.1023846e-05 2.9736714e-06
1.1103868e-05 1.42498675e-05 2.9308762e-06 3.9735332e-06 5.761983e-06 5.925368e-06 5.937986e-06 5.6762337e-06
2.4480263e-05 7.5707508e-06 2.6031039e-05 2.8957435e-05 6.288661e-06 6.460151e-06 1.2742905e-05 9.820571e-06
2.944222e-06 9.381661e-06 1.333982e-05 3.3786637e-06 1.3351471e-05 1.7300496e-05 7.330213e-06 3.1934753e-06
5.419064e-06 4.857342e-06 1.550287e-06 4.9853907e-06 3.5202127e-05 3.1484964e-05 3.2392407e-05 2.918093e-05
2.9971243e-05 2.1924787e-05 1.4761128e-05 2.1888392e-05 2.3754177e-05 3.9003484e-05 2.0127693e-05 3.563363e-05
2.0549187e-05 1.9637573e-05 4.389263e-05 3.2303404e-05 4.5904184e-05 4.158408e-05 2.645527e-05 1.7387569e-05
3.7591384e-05 3.1993655e-05 3.487376e-05 4.2176154e-05 5.5040236e-05 3.1985433e-05 3.172409e-05 3.1858763e-05
2.169003e-05 2.2339042e-05 6.106878e-05 3.3334978e-05 5.7850975e-05 7.314405e-05 2.3976934e-05 2.6314543e-05
4.6655e-05 4.143953e-05 5.720031e-05 8.8397464e-05 7.239602e-05 5.152024e-05 6.3668536e-05 0.000101161655
0.00011816441 9.43671e-05 0.00028010044 9.116117e-05 4.2981897e-05 0.00023512286 8.177266e-05 3.8345243e-05
8.0334554e-05 0.00012730643 4.1336396e-05 3.0954954e-05 3.1490028e-05 2.7932254e-05 3.783019e-05 5.976491e-05
1.48246045e-05 2.0592364e-05 1.5818723e-05 2.0725136e-05 5.7458697e-06 1.4690717e-05 2.6395102e-05 2.1232474e-05
1.1525187e-05 8.259004e-06 4.2092102e-05 1.9457375e-05 3.961727e-05 5.2357245e-05 5.90846e-06 1.3389656e-05
3.255169e-05 2.0930656e-05 8.465435e-06 2.1582331e-05 1.8702916e-05 1.7037202e-05 1.9319603e-05 2.6399277e-05
3.7164584e-06 1.03999e-05 1.5617323e-05 1.5576554e-05 6.2585746e-06 7.779225e-06 5.249268e-06 6.9165235e-06
4.6740843e-06 5.747366e-06 1.9896029e-06 5.3290933e-06 4.134745e-06 2.7585606e-06 4.17036e-06 6.438434e-06
3.4483069e-06 8.376101e-06 2.6058487e-06 4.5085226e-06 1.661211e-06 7.7626255e-06 3.1589586e-06 1.5584518e-06
6.640912e-06 2.223834e-06 6.101406e-06 6.5314225e-06 5.2377995e-06 8.877304e-06 2.6437413e-06 9.824485e-06
5.952254e-06 2.8312645e-06 6.8892687e-06 8.273745e-06 1.2368848e-05 3.5431788e-06 1.21567755e-05 8.786928e-06
2.6411558e-06 6.9167295e-06 7.1823206e-06 4.468425e-06 4.8413863e-06 1.367091e-05 1.915972e-06 5.8419523e-06
3.019981e-06 3.2289922e-06 1.976603e-05 2.4146457e-05 7.558946e-05 1.6002985e-05 1.495347e-05 3.760798e-05
9.969822e-06 3.9982597e-06 1.0559042e-05 8.377043e-06 3.3890474e-06 1.0189323e-05 1.6128955e-05 5.0596636e-06
1.1460838e-05 1.0460273e-05 2.8162689e-05 1.5663416e-05 2.8199067e-05 2.81473e-05 1.2955807e-05 1.7726645e-05
1.8116805e-05 1.8196299e-05 1.2783252e-05 1.8834637e-05 4.0038096e-05 2.2913098e-05 4.2496893e-05 6.008596e-05
8.859602e-05 3.6651083e-05 3.1147945e-05 4.309283e-05 1.3714289e-05 2.1116899e-05 2.153129e-05 1.1072293e-05
2.3212837e-05 2.5544896e-05 1.4435755e-05 1.9589595e-05 1.6615715e-05 2.2074071e-05 1.5301435e-05 1.2299051e-05
9.669968e-06 6.206309e-06 9.335086e-06 6.7980322e-06 3.008384e-06 3.3917938e-06 4.4743088e-06 4.386645e-06
2.5587142e-06 1.5087582e-05 3.0452275e-06 3.131185e-06 2.9653168e-06 3.1762654e-06 1.9166446e-05 5.6455715e-06

exp_avg f4 [10]
00000000: 919d 9439 7d86 a43b 4305 7b3d d5d8 8bbd
00000010: 322f b4bb 6118 7dba 06eb 36bc 6f2d bcbc
00000020: a5a4 72bc 092a 303d
0.00028346156 0.005020915 0.061284315 -0.06828467 -0.00549879 -0.0009654817 -0.011164432 -0.022970883
-0.014809762 0.043008838

exp_avg_sq f4 [10]
00000000: 015a 3039 aaee 4d38 8a2e 243a 5227 153a
00000010: 53b3 ce37 ed98 9c36 7470 1038 644a 1239
00000020: 6f83 cd37 67cd ed39
0.00016818197 4.9098082e-05 0.00062630384 0.0005689758 2.4640618e-05 4.666965e-06 3.4437006e-05 0.00013951358
2.4499108e-05 0.000453572

exp_avg f4 [10, 10]
00000000: edc0 133b 3013 c03a 0fd3 063c 7f84 3dbc
00000010: 710e 3b3c 0c52 2d3c 0e95 65ba 9f04 b4ba
00000020: a9ab eb3a b53d 133c 9307 8fbb b738 7939
00000030: 54dc bdbb b122 0c3c 9ba5 f5bb 26a3 06bc
00000040: 53b2 2e3b 42fa 5a3b f919 89bb cefc 1bbc
00000050: c011 9f3a ef0d 90ba f969 30bb 8a5c 74ba
00000060: 9a1c 60ba 5714 6d3b 8c1d cd3b 3dd5 a53b
00000070: b727 9c3b 0cf5 983b 9924 fbba dd90 733b
00000080: a136 8a3b 11ae 07bc e00b c83b 8775 973b
00000090: ccca 223b c63c 853a 88ef afb9 1ed7 cc3b
000000a0: 1d50 b2ba 4ac7 0e3c 68eb 3b3b a0ca 16bb
000000b0: 5d79 e638 6075 8fbb cf2a e73a b756 e6b9
000000c0: 3dd2 843a 9402 0a3c 166c c2bb fef7 b63b
000000d0: ff92 683b 5c1f 3739 5e67 d9b9 febb d5bb
000000e0: e3b4 d4ba 9a7e f0b9 98f4 16bb 7edf 5e3b
000000f0: 3c74 00bb 5694 8d3a 9390 4c39 5012 233b
00000100: 7551 0abb 31d2 e8ba dd92 d13a 7c35 143b
00000110: 10b1 b9ba dbde c5ba ad8c 0b3b 88d0 6dbb
00000120: c2e0 2dbb 031a afb9 bdd4 05b9 cadd 453b
00000130: 14c8 8e3a 6b2f 3137 65e1 d33a a407 c0ba
00000140: 6108 b73b 6e2d 6dbb 0257 e23b 216a 3abc
00000150: a864 343c e8a2 543c c833 1abb d798 1cbb
00000160: aae3 d93a 9776 aa3b ddce debb 2c52 4b3b
00000170: f55c 10bb 0130 f63b a406 a3bb bf74 2fbc
00000180: 2047 0cba 43d0 e73a b347 b2bb cfcb eebb
0.0022545413 0.0014654156 0.008229031 -0.011567234 0.011417017 0.0105786435 -0.00087578676 -0.0013734287
0.0017980236 0.00898688 -0.0043649166 0.00023767618 -0.0057940874 0.008553193 -0.0074965484 -0.008217609
0.0026656582 0.0033413325 -0.0041840044 -0.009520723 0.0012136027 -0.0010990481 -0.0026918633 -0.0009321651
-0.0008549184 0.0036175454 0.006259626 0.0050608204 0.0047654766 0.0046678837 -0.0019160687 0.0037165203
0.004217938 -0.008281247 0.0061049312 0.0046221646 0.0024840115 0.0010165207 -0.00033557066 0.00625123
-0.0013604198 0.008714506 0.0028674249 -0.0023008958 0.0001098986 -0.004378006 0.0017636659 -0.00043933626
0.0010133457 0.008423466 -0.005933295 0.005583762 0.0035488007 0.00017463922 -0.0004146648 -0.0065226546
-0.0016228225 -0.00045870693 -0.0023033973 0.0034007723 -0.001960053 0.0010801654 0.00019508814 0.0024882741
-0.002110568 -0.0017762837 0.0015989203 0.0022614887 -0.0014167149 -0.0015096323 0.0021293566 -0.0036287624
-0.0026531671 -0.0003339798 -0.0001276312 0.003019201 0.0010893368 1.05610625e-05 0.0016165195 -0.0014650715
0.0055857156 -0.0036190408 0.006907345 -0.011377842 0.011010326 0.012978293 -0.00235294 -0.002389481
0.0016623635 0.0052021253 -0.0067995624 0.003102432 -0.0022028063 0.0075130467 -0.004975157 -0.010708987
-0.00053511746 0.0017685968 -0.005440676 -0.0072874795

exp_avg_sq f4 [10, 10]
00000000: 7be6 a937 996d b837 11c1 1438 5920 8737
00000010: 9863 6d38 f09b cc37 37e0 0638 cd67 2c38
00000020: 9859 af37 f074 5038 a35b 2c37 ecf5 f636
00000030: be36 5937 ed14 d536 655a 7637 966d e136
00000040: ccd1 4a37 0ed7 8137 4826 e036 b776 bb37
00000050: d928 2f38 33c2 2238 d8fc 9c38 e548 2c37
00000060: ece4 2d38 88b3 eb37 da61 9d38 184c 4b38
00000070: 607c 6a38 8b03 5a38 cba8 7537 c555 3737
00000080: 3cb9 c237 f006 2837 99e5 f637 e901 3e37
00000090: 1bac a037 a658 0238 3d1d 2837 4354 1b38
000000a0: 00d6 5a37 c1ce 0137 4539 2937 6394 a536
000000b0: ab57 bd36 a09c dd36 61b2 1b37 55e1 3b37
000000c0: 3273 f037 ae44 0538 2b1a 1437 8486 e736
000000d0: 29ef 1a37 537f b036 3baf 2636 1a9c 0537
000000e0: c80a 4537 f8f5 cb37 427e fb36 1a1c 6937
000000f0: 3108 8c36 f842 db35 3c1e 2336 c5e7 c535
00000100: bb47 9636 bed9 0d36 1e0f 6236 b50c 3436
00000110: d47c 9536 fc37 1e36 a578 ca36 998b fd36
00000120: d24b 6c37 d633 4f36 eb34 3037 0bb5 a936
00000130: b37f 7937 fbce 3137 9717 2137 75ff a436
00000140: 2396 8737 fd62 8737 7d7f d037 161f 5737
00000150: 876e 0a38 0a72 b037 7f2e a537 e8fc af37
00000160: 4e04 8237 fafb 7537 2daf 3837 5bb3 d136
00000170: cade 2137 f2e6 b236 1054 0237 69a9 0e37
00000180: 2740 3d37 50a9 a336 6826 2437 9bab 2f37
2.0253696e-05 2.1985545e-05 3.5465757e-05 1.6108317e-05 5.6597957e-05 2.439131e-05 3.2156906e-05 4.1104668e-05
2.0903346e-05 4.969997e-05 1.0273335e-05 7.3600004e-06 1.2946954e-05 6.3503308e-06 1.4683789e-05 6.71828e-06
1.2088985e-05 1.5478141e-05 6.6801767e-06 2.2347418e-05 4.1761294e-05 3.8804672e-05 7.4857555e-05 1.0268971e-05
4.1459614e-05 2.8097784e-05 7.50457e-05 4.846984e-05 5.590578e-05 5.197855e-05 1.4642438e-05 1.092762e-05
2.3212859e-05 1.0015196e-05 2.94324e-05 1.1325327e-05 1.915363e-05 3.1076976e-05 1.0020388e-05 3.7033355e-05
1.3043638e-05 7.737138e-06 1.0086519e-05 4.9346577e-06 5.642845e-06 6.604547e-06 9.280252e-06 1.1198533e-05
2.8663871e-05 3.1773634e-05 8.82758e-06 6.899996e-06 9.234799e-06 5.2600312e-06 2.4837925e-06 7.963763e-06
1.1744625e-05 2.4314024e-05 7.4950813e-06 1.3894425e-05 4.1732787e-06 1.6336262e-06 2.4306491e-06 1.4745098e-06
4.478699e-06 2.113738e-06 3.3685424e-06 2.6829487e-06 4.455078e-06 2.3576422e-06 6.034114e-06 7.556239e-06
1.40843495e-05 3.0875576e-06 1.0502738e-05 5.0576687e-06 1.4871289e-05 1.05982135e-05 9.60184e-06 4.91732e-06
1.6163167e-05 1.613935e-05 2.4854899e-05 1.2822236e-05 3.30047e-05 2.1033939e-05 1.9691184e-05 2.0979394e-05
1.5499212e-05 1.4661806e-05 1.1008041e-05 6.249565e-06 9.64822e-06 5.331699e-06 7.768176e-06 8.503303e-06
1.12802145e-05 4.877489e-06 9.784104e-06 1.0470768e-05

exp_avg f4 [10]
00000000: 23eb bebd ee1c 963d b267 5fbc bd9f 7cbd
00000010: e45f 99bc a215 bcbb 6889 b23c 0ba2 c7ba
00000020: db65 b1bd bc43 723d
-0.093221925 0.07329737 -0.013635563 -0.061675776 -0.018722482 -0.0057398835 0.021794036 -0.0015230788
-0.086620055 0.059146628

exp_avg_sq f4 [10]
00000000: 56ab 073b 0b0b 263a 9d29 553a 0e18 a63a
00000010: 9caa b839 8f50 8538 369c 8039 0cbd 4f39
00000020: 9149 6f3a a136 ac39
0.002070149 0.0006334043 0.0008131506 0.0012671964 0.0003522233 6.3569394e-05 0.0002453045 0.00019811484
0.0009128089 0.00032847098

exp_avg f4 [5, 10]
00000000: d2f6 21bd d081 f43c c3fc 8a3c 957e 95bd
00000010: 7688 d2bb cf7d ac3c ea12 923d 961b d23b
00000020: 23f5 95bd 1660 523d 27f2 65bc 6a59 613b
00000030: 72f0 443c 95cb b2bc 9833 1c3c 00d5 01ba
00000040: 5125 173d ea53 923b 1df4 d2bc c429 673c
00000050: e675 313c af40 6dbc 4dae 17bc 99d0 cc3c
00000060: 99f9 64ba e13e 28bc 0af9 25bd 0fa2 9c3b
00000070: 3a97 0e3d 6255 d1bc 07c2 d0bc 4c49 733c
00000080: cf12 323c 5130 1cbd 5f20 843a 1afe 5c3b
00000090: 369b b63c 2d32 813c a7b9 f1bc ab3a cb3c
000000a0: b82d 4a3c 7727 25bc 16ef 03bb 9a6d d33c
000000b0: 4f21 843b 1e9f 0bbc e389 94bc 8c36 eabb
000000c0: db9c ce3c bbbb 8abc
-0.039542027 0.029847056 0.01696623 -0.07299534 -0.006424959 0.021056084 0.07132514 0.00641198
-0.07322147 0.051361166 -0.014034784 0.003438557 0.012020217 -0.021825591 0.009533785 -0.0004952699
0.036900822 0.0044655697 -0.025751168 0.014109079 0.010831332 -0.014480754 -0.009257865 0.02500181
-0.0008734703 -0.010268898 -0.040520705 0.004780061 0.03481219 -0.025553409 -0.025483144 0.014849018
0.010868742 -0.038132016 0.0010080448 0.0033720792 0.022290807 0.015770996 -0.029507471 0.024808249
0.012340002 -0.01008021 -0.002013152 0.025809098 0.004032291 -0.008521823 -0.018132156 -0.007147616
0.025221279 -0.01693522

exp_avg_sq f4 [5, 10]
00000000: a9de 5239 c2d2 9138 f494 a838 75b6 933a
00000010: f8c1 0738 0020 4439 91d0 723a e107 a738
00000020: aaaa 553a 81d7 043a 3b0e 0138 1a04 a037
00000030: 4cfa 6138 c48d 7539 784e bd37 4935 4638
00000040: 5063 a039 7fdd a538 5273 3a39 8e69 0839
00000050: e3b6 2b37 e084 a338 18ef 7737 15c0 6738
00000060: 3d74 6838 1615 fc38 1203 ee38 98d2 2437
00000070: de16 bb38 14f5 ec38 4be1 0539 301d b638
00000080: 902e b637 6834 6039 df79 a637 a26e 4238
00000090: 00de c738 1ed9 4239 5f5d ce38 490d 5f38
000000a0: 878d 5f38 26b2 8938 75a0 9f38 7a86 f739
000000b0: aa25 8c38 58cb 9839 9ed4 213a 0d4c da38
000000c0: 2af6 ce39 8c74 be39
0.00020110108 6.9533955e-05 8.038609e-05 0.0011269586 3.2367156e-05 0.00018703938 0.0009262646 7.964648e-05
0.0008150736 0.0005067513 3.076925e-05 1.9075396e-05 5.3877287e-05 0.00023417833 2.2567096e-05 4.7256504e-05
0.00030591572 7.90907e-05 0.00017781302 0.00013009293 1.0234976e-05 7.7971956e-05 1.4778016e-05 5.5253582e-05
5.5421366e-05 0.00012020224 0.00011349296 9.824194e-06 8.921114e-05 0.00011299006 0.00012767797 8.683873e-05
2.1717773e-05 0.00021381828 1.9845493e-05 4.635624e-05 9.53041e-05 0.00018582164 9.840237e-05 5.3179716e-05
5.329915e-05 6.565852e-05 7.611598e-05 0.00047211704 6.682736e-05 0.00029143202 0.0006173345 0.000104092156
0.00039474788 0.00036326458

exp_avg f4 [5]
00000000: 6fe7 55be 0ff8 9dbd 1726 c73d 4b42 b6bd
00000010: 93f6 8c3d
-0.20889066 -0.07713329 0.09724062 -0.08899363 0.06882968

exp_avg_sq f4 [5]
00000000: 18ff 1c3c 3c10 263b 8e84 693a 2cde 703a
00000010: 47ea c33b
0.009582303 0.0025339266 0.0008907997 0.00091883796 0.005978856

exp_avg f4 [31, 5]
00000000: 546c 53bd fd7e 83bd 0100 e03c d92e 31bd
00000010: ecb8 313a 043f 6cbd 940a 98bd 28c1 fc3c
00000020: 15fa 2cbd 9ee5 343a 2bc4 5dbd 710f 8bbd
00000030: 96b0 ec3c 9646 3cbd 6698 253a 780f 4cbd
00000040: b6d1 79bd 6719 c93c 3d99 21bd 4ec1 083b
00000050: ddc8 36bc fdf6 bbbc 71d4 433c 31f1 8ebc
00000060: 8911 79bb ce48 d6bc dce3 24bd 1a55 7e3c
00000070: 081d e5bc 25c8 39ba 1607 f1bc d815 37bd
00000080: 51fa 743c e182 d9bc 22c8 4f3a 29a7 1abd
00000090: 5d4b 53bd 17a8 ac3c 4ec8 09bd e07b f1b9
000000a0: 6fc4 d4bb 46ac 67bc 9d65 8c3b 7ac4 10bc
000000b0: efdc 93ba 99bf e83b 07b9 8bb7 aed5 78bb
000000c0: 2172 023b 9b40 973a 48cd 07bd 6aeb 27bd
000000d0: e0e3 6c3c 7458 c7bc 29df 4a3b 163b 1bbb
000000e0: 2bf4 96ba b497 10bb 6bc5 7b3b ec34 453b
000000f0: 0aba 18bd ce07 3abd c11b 863c 7847 e3bc
00000100: 8073 523b 654e debc b560 03bd 3933 383c
00000110: 86eb a3bc d454 323b a0e3 a93b 691f 9a3b
00000120: 5945 67bb 4032 b83b c2c4 d03a b4dc d7bc
00000130: a0f0 29bd f2ac 4b3c 852e cbbc ef6c 073b
00000140: 8dfd b2ba de36 70bc 04b6 95bb 8adf e3b5
00000150: 835a 9a3b c666 c2bc b070 19bd 0abe 213c
00000160: c1ab b3bc c402 3b3b f0af a93c 3636 c33c
00000170: 7955 3ebc 6563 973c 2542 1c3a ef0e 183c
00000180: 7648 c4b5 c087 93bb 63a3 c23b 5d19 d939
00000190: 5810 5bbd 9f1d 8cbd 3f63 f13c 191e 38bd
000001a0: e471 fbb8 5a07 5bbd 3dd9 8fbd c37b f63c
000001b0: e77c 26bd 3978 1dba b3d2 68bd fc6a 94bd
000001c0: 7d6e fc3c 5107 43bd c0c9 6539 db80 3cbd
000001d0: cd1d 6ebd 1fd2 c93c a36f 14bd ac3a 7539
000001e0: e45a 8abc 9dc3 fcbc e461 7d3c 3112 adbc
000001f0: 7747 88bb daae 46bd f395 92bd 2f86 f73c
00000200: 7545 44bd 2923 35bb ee0f 3cbd a49d 8cbd
00000210: f6df c53c 5ff0 2bbd 555a 8b3a 2079 3dbd
00000220: ec1f 86bd 13b7 d83c c290 30bd 7c17 64ba
00000230: 64a4 b3bb 5e2b 83bc 1847 123c aa70 20bc
00000240: 7d1c a7bb cefe 11bd 9499 69bd 31a1 b73c
00000250: 39d8 16bd dc28 a6ba c4b2 033d 3f89 f33c
00000260: 00b4 313c cf37 f43c fff8 d1bc
-0.05161698 -0.064207055 0.027343752 -0.043257568 0.00067795697 -0.057677284 -0.074238926 0.030853823
-0.042230684 0.00069006707 -0.05414216 -0.067900546 0.028892796 -0.045965753 0.00063169596 -0.04981944
-0.06099101 0.024548246 -0.03945278 0.0020867172 -0.011156288 -0.022944922 0.011952505 -0.017448993
-0.0038004837 -0.026157763 -0.040256366 0.0155232195 -0.027967945 -0.0007087014 -0.029422324 -0.044698566
0.014952258 -0.026551666 0.00079262455 -0.037757073 -0.051585544 0.021076245 -0.03363829 -0.00046059396
-0.0064931433 -0.014140194 0.004284574 -0.008835906 -0.0011281053 0.0071029183 -1.6656251e-05 -0.003796916
0.0019904452 0.001153964 -0.033154756 -0.040995993 0.0144586265 -0.02433417 0.0030955768 -0.002368634
-0.001151686 -0.0022063078 0.003841723 0.0030091358 -0.037286796 -0.0454176 0.016370656 -0.02774404
0.00321123 -0.02713699 -0.03207465 0.011242681 -0.020009767 0.0027211206 0.0051846057 0.0047034514
-0.0035289137 0.0056212246 0.0015927779 -0.026350357 -0.041489244 0.01243137 -0.024802456 0.0020664295
-0.0013655886 -0.014661519 -0.004568817 -1.6977876e-06 0.004710497 -0.023730647 -0.037460983 0.009871969
-0.021932485 0.0028535584 0.020713776 0.02382956 -0.011617058 0.018480012 0.0005960784 0.009280904
-1.4624227e-06 -0.0045022666 0.0059398874 0.00041408362 -0.053482383 -0.06841587 0.02946627 -0.04495058
-0.000119898265 -0.053473808 -0.07023857 0.030088311 -0.04064646 -0.0006006989 -0.056841563 -0.07246968
0.030814404 -0.0476144 0.000219143 -0.046021324 -0.05813389 0.024636326 -0.036239278 0.00023386878
-0.016889043 -0.030854994 0.0154652335 -0.021126838 -0.00415891 -0.048506595 -0.07157507 0.03021535
-0.047917802 -0.0027639365 -0.04591363 -0.06866005 0.024154644 -0.041977283 0.001063178 -0.046258092
-0.06549057 0.026454484 -0.0431068 -0.0008701009 -0.0054822434 -0.01601189 0.008928083 -0.009792486
-0.0050998316 -0.03564339 -0.05703123 0.02241573 -0.0368273 -0.0012676972 0.032152906 0.02972853
0.010846138 0.029811768 -0.025631426

exp_avg_sq f4 [31, 5]
00000000: 7610 da39 f9ea 663a a7b6 a838 dc6b bc39
00000010: 1b64 b638 ee8c 9d39 3df6 213a 8266 4438
00000020: a3d8 3339 f2b6 ba37 7010 e839 c3fb 773a
00000030: a7d8 b538 aad4 cb39 8cf9 c038 3605 ce39
00000040: d3e7 4d3a 5523 8538 6e49 9639 146f a738
00000050: c74a 9038 0bc1 7f39 7919 b837 43c6 f038
00000060: 245f c737 0cbc 6239 59d5 1f3a 779a 2f38
00000070: c8c9 8539 b954 6938 be1c 8839 baa2 303a
00000080: ce69 2e38 f70a 7b39 27c6 8c38 c0d7 b439
00000090: 4c40 583a 9d89 7538 9ab0 a139 32fb ae38
000000a0: a08b 7d38 82a0 1a39 a23d c436 3aee 6738
000000b0: cb31 8037 ee7d 2a37 c400 8537 664c d736
000000c0: 64a7 8e37 0edb 4d36 4b87 8639 b04a f239
000000d0: 48c8 0738 1ea4 1339 e239 7a38 7ca7 5737
000000e0: 8f89 5e37 dfbf 7236 1f70 8f37 3f3c 9336
000000f0: 47a1 9839 8786 093a c19c 2338 8311 3939
00000100: 6fa4 8338 092a 6439 1401 be39 ca5f e637
00000110: a043 f138 97b5 7738 7701 a937 31cb a537
00000120: bb37 4737 8e3d 8437 1374 dc36 d8c9 fa38
00000130: b294 be39 8971 e937 f7ab 2539 2f83 c937
00000140: 3e04 c638 2173 1c39 f192 e737 4897 b938
00000150: 86b1 5037 db47 1839 aaea db39 c20b 0538
00000160: 4582 4939 841b 0938 2331 3438 f664 9538
00000170: 05c9 4a37 4112 5138 5175 0d37 e12f 8c38
00000180: 142e 5f38 8424 5c37 cbad 5038 540b 6f36
00000190: c5d4 ef39 a62f 843a 75bc b738 3773 c939
000001a0: 4a1d d938 cd89 8d39 faff 1a3a c471 3d38
000001b0: fa25 3539 17ee cf37 dbcb 013a 8fa8 8d3a
000001c0: fc1f c438 11b7 d939 8208 e238 9000 cc39
000001d0: 17ea 543a 8848 8838 bef6 8e39 5512 c638
000001e0: b1e4 9a38 ceb2 9739 7231 d637 38f0 0939
000001f0: f4d6 d937 2bb0 a239 8562 6e3a def3 a338
00000200: ef71 ce39 ad00 9238 e5e5 a239 5830 723a
00000210: 6e99 8338 f68d bb39 9f1f 9138 3f43 c339
00000220: 8ee6 863a 3acc a338 052a e039 eb78 b938
00000230: 1d45 5538 d946 2739 e8b4 6b37 9ac1 9a38
00000240: aee6 bb37 b00e 0339 2392 ef39 e28f 2138
00000250: cede 4639 96d9 fb37 d7db 9338 4c37 2f39
00000260: b551 e337 43c7 4d39 760e 3d38
0.00041592465 0.00088088174 8.044886e-05 0.00035938516 8.6970824e-05 0.00030050374 0.0006178355 4.682551e-05
0.00017151474 2.2258118e-05 0.00044262735 0.00094598177 8.671107e-05 0.00038877624 9.201755e-05 0.00039295264
0.0007854674 6.348515e-05 0.0002866494 7.9838705e-05 6.8803834e-05 0.00024390609 2.194637e-05 0.00011481021
2.3766952e-05 0.00021623092 0.000609716 4.1867108e-05 0.00025518076 5.5630433e-05 0.00025961356 0.00067381153
4.158337e-05 0.0002394131 6.712629e-05 0.00034493022 0.0008249327 5.8540714e-05 0.0003083989 8.343755e-05
6.0449936e-05 0.00014746378 5.84843e-06 5.5296558e-05 1.5281976e-05 1.016211e-05 1.5855192e-05 6.4163933e-06
1.7005666e-05 3.0674887e-06 0.00025659273 0.00046213483 3.2373035e-05 0.00014080151 5.9658552e-05 1.2853994e-05
1.3264259e-05 3.6172494e-06 1.7099139e-05 4.387955e-06 0.0002911186 0.00052461814 3.9008217e-05 0.00017649498
6.277195e-05 0.00021759434 0.00036240427 2.7462742e-05 0.00011504372 5.9058508e-05 2.0147052e-05 1.9764151e-05
1.18743e-05 1.576429e-05 6.5700237e-06 0.00011958525 0.0003635041 2.7828633e-05 0.00015799688 2.4022154e-05
9.442166e-05 0.00014920208 2.760577e-05 8.849666e-05 1.2439099e-05 0.00014522618 0.00041945773 3.172062e-05
0.00019217383 3.268897e-05 4.2961106e-05 7.123679e-05 1.2086942e-05 4.9846483e-05 8.43157e-06 6.684638e-05
5.3210257e-05 1.3121524e-05 4.975292e-05 3.562037e-06 0.00045744158 0.0010085001 8.761223e-05 0.0003842355
0.00010352822 0.00026996285 0.0005912777 4.5167064e-05 0.00017275652 2.4787192e-05 0.00049513363 0.0010807681
9.351966e-05 0.0004152586 0.000107781045 0.0003891033 0.00081220403 6.498495e-05 0.00027268188 9.44479e-05
7.385889e-05 0.00028934184 2.5533813e-05 0.00013154827 2.5968511e-05 0.00031030303 0.000909366 7.8178695e-05
0.0003937627 6.9619484e-05 0.00031070333 0.0009238771 6.275145e-05 0.0003577319 6.920029e-05 0.000372434
0.0010292099 7.810486e-05 0.00042755916 8.84401e-05 5.0847524e-05 0.00015952754 1.4049212e-05 7.379353e-05
2.2399556e-05 0.00012498605 0.00045694513 3.8519393e-05 0.00018965753 3.0022853e-05 7.0504546e-05 0.000167099
2.7098557e-05 0.00019624554 4.507458e-05

exp_avg f4 [31]
00000000: 786b 0dbe c94c 1cbe f53c 15be c020 04be
00000010: bdc2 44bd d85d acbd 6d50 bbbd 20b7 dfbd
00000020: 162f e9bc b254 f03b 37fe aabd fd9b 7e3b
00000030: 7ed6 bebd 4183 88bd bbd5 813c b2bc a8bd
00000040: ed10 9ebc f285 98bd f9a7 5d3d bc80 f23b
00000050: bfb2 15be 4691 14be 2001 1ebe 96eb fbbd
00000060: cfd5 83bd ab13 1abe 3f04 0fbe d3ac 0dbe
00000070: b1d1 0dbd f208 ecbd 213f 503d
-0.13810527 -0.15263666 -0.14574035 -0.12903118 -0.04803728 -0.08416337 -0.091461994 -0.109236
-0.028464835 0.007334315 -0.08349269 0.00388503 -0.09318255 -0.0666566 0.015848985 -0.08239116
-0.01929518 -0.07447423 0.05411527 0.0074006002 -0.14618967 -0.14508542 -0.15430117 -0.12300794
-0.06437265 -0.15046565 -0.13966464 -0.13835458 -0.034623805 -0.11525144 0.050841454

exp_avg_sq f4 [31]
00000000: 6df4 df3b 20dc 673b 959b ef3b 9421 c43b
00000010: f4c8 e63a f77d 973b 3a00 aa3b 388e d03b
00000020: 34d1 993a 252c e038 82e5 6b3b 1700 0639
00000030: a3bc 853b a9b4 483b 8b84 5539 19a8 243b
00000040: 9673 8d3a 5574 4a3b 179a 133a 35a9 c139
00000050: e1c4 fb3b 9107 653b f548 063c b4ef ca3b
00000060: e0f7 023b d8e5 d53b bdd0 d73b 25a3 fc3b
00000070: a0ed ad3a 9534 403b 6ca3 803a
0.0068345577 0.0035379007 0.007312248 0.005985448 0.0017607496 0.0046231705 0.0051880153 0.00636461
0.0011735321 0.00010689375 0.0035994952 0.0001277927 0.004081325 0.003062526 0.00020362639 0.0025124608
0.0010791894 0.0030892093 0.0005630566 0.00036937898 0.007683382 0.0034947137 0.008196105 0.0061931256
0.001998417 0.0065276437 0.006586163 0.007709878 0.001326967 0.0029328216 0.0009814329
