Cancer-senn/trial5/models/cancer/grad3_Hinput_Thdummy_Reg1e-02_LR0.001/checkpoint.pth.tar (torch_old, 36110 bytes, 34 tensors)

parametrizer.linear1.weight f4 [10, 30]
0	0xbe1116fc	-0.14168924
1	0xbdedb409	-0.116066046
2	0x3c85bb0a	0.016324539
3	0x3ddc9ca2	0.10772063
4	0x3e359671	0.1773317
5	0x3e36a7cd	0.17837448
6	0xbe3e225f	-0.18567799
7	0x3ada95b0	0.001667669
8	0xbd7b3eda	-0.061339237
9	0x3d020f39	0.0317528
10	0xbe4deeda	-0.20110646
11	0x3e38abf0	0.18034339
12	0xbe0087a0	-0.12551737
13	0x3dfc1a46	0.12309699
14	0xbe0f7204	-0.14008337
15	0x3d3931ce	0.045213513
16	0xbe45a455	-0.19300969
17	0x3d846ac3	0.06465676
18	0x3dc3f40d	0.09568033
19	0xbe3a05e3	-0.18166308
20	0xbe0893ae	-0.13337585
21	0x3d54ddb3	0.05196924
22	0x3db9d141	0.09073115
23	0x3e0c422c	0.13697118
24	0x3d3e400a	0.04644779
25	0xbe2361e6	-0.15955314
26	0x3e11f7be	0.14254662
27	0xbdbf5bcd	-0.093436815
28	0x3d0c0153	0.03418095
29	0x3e2bc4a6	0.16774234
30	0x3dfe2b51	0.12410606
31	0x3dda9a2d	0.10673938
32	0xbdbac4f0	-0.09119594
33	0xbe5e8256	-0.21729407
34	0x3ca42360	0.0200364
35	0xbd658911	-0.05603892
36	0xbd3c290a	-0.045937575
37	0x3a02425f	0.00049689965
38	0x3e26a63b	0.1627435
39	0xbb22b45f	-0.0024826748
40	0x3c728eb2	0.014804529
41	0xbdea8c4a	-0.11452539
42	0xbdb18b6b	-0.0866917
43	0xbdae32bf	-0.08505773
44	0xbdb50986	-0.08839707
45	0xbe1d96eb	-0.15389602
46	0x3dbce212	0.09222807
47	0xbd744b67	-0.05964222
48	0xbdd7aa3c	-0.105305165
49	0xbde1440d	-0.10999308
50	0x3cafcea5	0.02146084
51	0xbc814d39	-0.015783893
52	0x3d23cb5b	0.039988857
53	0xbd027172	-0.03184647
54	0x3da8fa08	0.08250815
55	0x3de2bef9	0.110715814
56	0x3db2f9f6	0.087390825
57	0x3e285543	0.16438775
58	0xbd3869c0	-0.045022726
59	0xbda882fe	-0.0822811
60	0x3b5b56b7	0.0033468434
61	0x3d050d32	0.032483287
62	0xbd82958c	-0.0637618
63	0xbbc5377c	-0.006018577
64	0x3df18846	0.1179357
65	0x3e05e741	0.13076498
66	0x3c5a73b1	0.013333247
67	0xbe094978	-0.13406932
68	0xbd4a0ef2	-0.04933066
69	0xbe04ef52	-0.12981918
70	0xbdb24473	-0.08704462
71	0xbe22fa21	-0.15915729
72	0xbd344064	-0.04400672
73	0x3d98c126	0.07458715
74	0x3cbd7463	0.023126787
75	0x3c6c3777	0.014417521
76	0xbe2d17c8	-0.16903603
77	0xbdb09807	-0.08622747
78	0xbd93436b	-0.07190593
79	0xbcf56aed	-0.029958213
80	0xbc149e50	-0.009070948
81	0x3d62b8d7	0.05535206
82	0xbe246fd0	-0.16058278
83	0x3d9ae602	0.07563402
84	0xbdd1b9c3	-0.10240509
85	0xbe2572b8	-0.16157043
86	0xbdab1f98	-0.083556354
87	0xbe0366f3	-0.12832241
88	0x3e0e3697	0.13888012
89	0xbdb02b97	-0.08602064
90	0xbd43ab1c	-0.047770604
91	0xbd3869d9	-0.04502282
92	0x3e5676d1	0.20943762
93	0xbd27325b	-0.040819507
94	0xbdb0019c	-0.08594057
95	0x3d46fd9a	0.048581697
96	0xbcf55b37	-0.029950721
97	0x3e335380	0.17512321
98	0xbcd189c3	-0.025578385
99	0xbe598dd8	-0.21245515
100	0x3bd874e9	0.0066057337
101	0x3be1c0b8	0.006889429
102	0xbcf266a4	-0.029589958
103	0x3d97edd6	0.074184105
104	0x3e42086c	0.18948525
105	0xbe16225a	-0.14661542
106	0xbe256718	-0.16152608
107	0xbc86cd44	-0.0164553
108	0xbcfc1d04	-0.030775554
109	0x3dfe125e	0.12405847
110	0x3c1ee0bb	0.009697135
111	0xbc8b022e	-0.016968813
112	0x3e0df74e	0.1386387
113	0x3e144bd9	0.14482059
114	0x3e0b7ca4	0.13621765
115	0xbdd4e5e7	-0.10395413
116	0xbe1da049	-0.15393175
117	0x3d858800	0.065200806
118	0xbd483f13	-0.048888277
119	0xbd7a98e0	-0.06118095
120	0xbddbf802	-0.10740663
121	0x3e5390f0	0.20660758
122	0xbd8748b7	-0.06605666
123	0x3e6299be	0.2212896
124	0xbdf4084b	-0.11915644
125	0x3dd1e810	0.102493405
126	0x3d3f98b8	0.046776503
127	0x3ca809e6	0.020512532
128	0x3e1451b0	0.14484286
129	0xbd6a447c	-0.057194218
130	0x3e4b25c2	0.19838622
131	0x3deb33e3	0.11484506
132	0x3c23bfc3	0.00999445
133	0x3c0d864c	0.008637976
134	0x3e42ab12	0.1901057
135	0x3dc38dd6	0.095485374
136	0x3e275412	0.16340664
137	0x3e53bbc7	0.206771
138	0xbd15cc7d	-0.03657197
139	0xbd2acecb	-0.04170112
140	0xbd45548a	-0.048176326
141	0x3d841a4c	0.06450328
142	0x3dedb070	0.116059184
143	0xbc5b84ce	-0.013398362
144	0xbc53fd5a	-0.012938822
145	0x3cc2d26f	0.023781983
146	0x3e16b1a2	0.14716199
147	0x3db0210f	0.086000554
148	0xbe300645	-0.17189892
149	0x3cd502c2	0.026002292
150	0x3dbf5a11	0.09343351
151	0xbd22759d	-0.039662946
152	0xbd1f0aaf	-0.038828548
153	0xbdb1ae8d	-0.08675871
154	0x3e3e7005	0.1859742
155	0x3cdc6572	0.026903842
156	0xbc5abe26	-0.013350999
157	0xbd974ab6	-0.07387297
158	0xbbabd22b	-0.00524356
159	0xbde7d056	-0.11319034
160	0xbe412c2f	-0.18864511
161	0x3e27986e	0.16366741
162	0xbe310c3e	-0.17289826
163	0xbd68bdd5	-0.056821663
164	0xbe1fe7d8	-0.15615785
165	0x3d8497a2	0.06474234
166	0x3e00769b	0.12545244
167	0x3df63d9d	0.120234706
168	0xbda07eef	-0.07836711
169	0xbd3d01a3	-0.04614414
170	0xbe31b860	-0.1735549
171	0x3dffef0e	0.12496768
172	0x3e01bded	0.12670107
173	0xbdc205b3	-0.09473743
174	0xbd5676d4	-0.052359417
175	0xbd5dcd4c	-0.054150864
176	0x3cabed5b	0.020987203
177	0xbd9d3bee	-0.07677446
178	0xbdb523a0	-0.088446856
179	0x3db9541e	0.09049247
180	0x3da4e9c9	0.080524035
181	0xbe36fc98	-0.17869794
182	0xbcf3f2a1	-0.02977878
183	0x3e2438d8	0.16037309
184	0xbda8d9e0	-0.08244681
185	0x3dcbc62b	0.09949907
186	0x3dcca409	0.09992225
187	0xbcd8428f	-0.026398925
188	0x3e33028e	0.17481443
189	0xbd4cc1b0	-0.049989402
190	0xbe09732d	-0.13422842
191	0x3d78f6d9	0.060782287
192	0xbe316d2a	-0.17326799
193	0xbdba933b	-0.09110113
194	0x3e0bb279	0.136423
195	0xbcef855a	-0.029238392
196	0x3dfdb0f9	0.123872705
197	0x3e3f6124	0.186894
198	0x3d059efd	0.032622326
199	0x3d2ebbea	0.042659678
200	0xbe14bfd2	-0.14526299
201	0x3d0ac06c	0.033874914
202	0xbbee1a58	-0.007266324
203	0xbe00cf13	-0.12578993
204	0x3e3b0d72	0.18266848
205	0x3d85c062	0.06530835
206	0x3c8e50e5	0.017372558
207	0x3df82014	0.121154934
208	0x3d256050	0.040375054
209	0xbd2e2ba8	-0.042522103
210	0xbc1d06e9	-0.009584167
211	0xbb85a6e5	-0.0040787333
212	0x3d6525ae	0.055944137
213	0xbe07a002	-0.13244632
214	0xbd950c56	-0.072777435
215	0xbd3f041d	-0.046634782
216	0x3cd488af	0.025944082
217	0x3d691842	0.0569079
218	0xbc256b21	-0.010096342
219	0x3e1729d5	0.14762051
220	0xbe1122b3	-0.14173393
221	0x3e2b2430	0.16713023
222	0x3d9d1cd6	0.07671516
223	0xbd3a4541	-0.045476202
224	0xbe2102b4	-0.15723687
225	0xbe09e785	-0.13467224
226	0x3ddcded0	0.107846856
227	0xbcc324a2	-0.023821179
228	0x3e09a7fa	0.13442984
229	0x3e4f5065	0.20245512
230	0xbddcddeb	-0.10784515
231	0x3d53a8a4	0.0516745
232	0x3dc64393	0.096808575
233	0xbdb5b5ba	-0.08872552
234	0xbe073a85	-0.13205917
235	0xbc8a510a	-0.016884346
236	0x3e147a51	0.14499785
237	0x3df3ceb3	0.11904659
238	0x3e0244ae	0.12721512
239	0xbdac6b0a	-0.084188536
240	0x3e1a4342	0.1506472
241	0xbd16f95f	-0.036858913
242	0x3e0a3fb6	0.13500866
243	0xbd086a5f	-0.03330457
244	0x3d45a139	0.048249457
245	0xbb4baf14	-0.0031079696
246	0xbda3bbfb	-0.07994839
247	0xbdb03105	-0.086031
248	0x3d0ee168	0.034882933
249	0x3e223cd1	0.15843512
250	0x3d404250	0.04693824
251	0xbc2fab17	-0.010721943
252	0xbd9eb7ff	-0.07749938
253	0x3e405e8b	0.18786065
254	0x3e2d9163	0.16949992
255	0xbb268f6d	-0.0025415078

parametrizer.linear1.bias f4 [10]
0	0xbcc76c5f	-0.024343668
1	0x3e1570e0	0.1459384
2	0x3d2d5e3f	0.04232621
3	0x3bc0b751	0.005881228
4	0x3d8c9835	0.06864969
5	0x3e574db5	0.21025737
6	0x3e51a69e	0.20473716
7	0xbd313379	-0.04326198
8	0x3e1054c9	0.14094843
9	0x3dfe7dda	0.12426348

parametrizer.linear2.weight f4 [10, 10]
0	0x3e06cc0b	0.13163774
1	0xbe5ecd08	-0.217579
2	0x3e7950d1	0.24347235
3	0x3e5a934d	0.21345253
4	0xbcee987b	-0.029125443
5	0x3e10b745	0.14132412
6	0x3ddd4477	0.10804074
7	0x3e053711	0.13009287
8	0x3e0fb582	0.14034083
9	0x3e8bf504	0.2733537
10	0xbdd3fef9	-0.103513665
11	0x3e5c5f5b	0.2152075
12	0xbdd1df1c	-0.10247633
13	0xbe618511	-0.22023417
14	0x3d9c894a	0.07643373
15	0x3dfd6e95	0.123746075
16	0xbdb97a28	-0.090565026
17	0xbdb1e9a0	-0.086871386
18	0x3de66dfd	0.11251447
19	0x3e50efe5	0.20404013
20	0xbd2a8916	-0.04163464
21	0xbe52cff2	-0.20587137
22	0xbd7c73b2	-0.061633773
23	0x3e7550c2	0.23956588
24	0x3e15cd14	0.14629012
25	0xbe733613	-0.23751096
26	0x3e53617f	0.2064266
27	0xbe8d94b1	-0.27652505
28	0x3e3c566a	0.1839234
29	0x3d61cb13	0.055125307
30	0x3e8fe9a4	0.2810794
31	0xbe9c4f02	-0.30529028
32	0xbdd524c5	-0.10407404
33	0x3e028770	0.12746978
34	0x3d459362	0.04823626
35	0xbe56cc39	-0.20976342
36	0xbe6dd9eb	-0.2322766
37	0x3e0b9ff7	0.1363524
38	0xbe9e3bb7	-0.30904934
39	0x3d1e5e80	0.03866434
40	0x3d20c9b5	0.039254863
41	0x3e1dcb46	0.15409574
42	0x3e1b22e3	0.15150027
43	0xbe7353d4	-0.23762447
44	0x3e84b239	0.25917223
45	0xbe6f067e	-0.2334232
46	0x3e4779ad	0.1948001
47	0x3e5d19af	0.21591829
48	0xbda5fec6	-0.08105235
49	0xbd276c5e	-0.04087483
50	0xbdd05a79	-0.10173506
51	0xbeb42cf4	-0.35190547
52	0xbe831946	-0.2560522
53	0xbe1ffe8d	-0.15624447
54	0x3e14dfc5	0.14538486
55	0x3e0b05a5	0.13576372
56	0x3d76903d	0.06019615
57	0xbe8dbb9c	-0.27682197
58	0xbda0ca26	-0.07851057
59	0x3d7200e1	0.05908287
60	0xbe6ca4bf	-0.2310972
61	0x3ccf55d6	0.025309484
62	0xbe731e08	-0.23741925
63	0x3d766b1a	0.060160734
64	0x3e49058d	0.19631024
65	0xbe636964	-0.22208172
66	0xbe5dad48	-0.21648133
67	0x3e645c32	0.22300795
68	0x3da56d79	0.08077521
69	0x3c370acf	0.011172011
70	0x3e00ec01	0.12590028
71	0xbe17cfa4	-0.14825302
72	0xbc7a6565	-0.015282963
73	0x3e1d71d3	0.15375452
74	0xbe9ae628	-0.3025372
75	0x3e93274c	0.2874092
76	0x3d66f4a8	0.056385666
77	0xbe845190	-0.25843477
78	0xbe955c9e	-0.29172224
79	0xbe3267db	-0.1742243
80	0x3bc4d2d3	0.0060065775
81	0x3e67cf81	0.2263775
82	0x3e22728c	0.15864009
83	0xbd9d872c	-0.076917976
84	0xbd337e01	-0.04382134
85	0x3d81d45f	0.06339335
86	0xbe6762b0	-0.2259624
87	0x3e96f7fa	0.29486066
88	0x3e6b1e47	0.22960769
89	0xbd09719f	-0.033555623
90	0x3e9e3eda	0.30907327
91	0x3e327b89	0.17429937
92	0x3d658c94	0.05604227
93	0x3e7a4635	0.24440844
94	0x3d347f5e	0.04406678
95	0xbc631477	-0.01385986
96	0x3e8c88c6	0.274481
97	0xbe95449a	-0.291539
98	0x3e85a173	0.26099738
99	0x3e1b2763	0.15151744

parametrizer.linear2.bias f4 [10]
0	0xbd574c86	-0.052563213
1	0x3ea7ab4a	0.3274787
2	0x3c76eb83	0.015070799
3	0x3e1fbaa2	0.15598539
4	0x3d433a4a	0.04766301
5	0x3d8fd263	0.0702255
6	0x3e123687	0.14278613
7	0xbe7b0338	-0.24512947
8	0x3ead2fff	0.3382568
9	0x3e2b0ce2	0.16704133

parametrizer.linear3.weight f4 [5, 10]
0	0x3e358d1f	0.17729615
1	0x3e1d3db6	0.15355572
2	0xbe200905	-0.1562844
3	0xbe29cb88	-0.16581547
4	0x3e8aeb7c	0.27132785
5	0x3d3d7bd8	0.046260685
6	0xbe44b2d2	-0.1920884
7	0x3c87f175	0.016594628
8	0x3e845808	0.25848413
9	0xbe36bc9d	-0.17845388
10	0xbe833e5c	-0.25633514
11	0x3e956b67	0.29183504
12	0x3ea041aa	0.31300098
13	0xbe666e62	-0.22503045
14	0xbd835630	-0.06412923
15	0xbe06f875	-0.13180716
16	0xbe896682	-0.2683602
17	0xbe12e95e	-0.14346835
18	0x3e9064d2	0.2820192
19	0x3eaacae6	0.33357924
20	0xbe11119c	-0.14166874
21	0xbeaf4e5d	-0.34239474
22	0xbe2f4ed9	-0.17119922
23	0x3e737107	0.23773585
24	0xbdacdb4b	-0.08440264
25	0x3e500e2c	0.20317906
26	0x3e463a0f	0.19358085
27	0x3d5c1e26	0.05373969
28	0xbcc09225	-0.023507187
29	0x3d91427b	0.07092758
30	0x3ca5b873	0.020229554
31	0xbdec3856	-0.11534183
32	0x3e6b1bc3	0.22959809
33	0xbcc54096	-0.024078649
34	0xbe9732c8	-0.2953093
35	0x3e0fe27f	0.14051245
36	0xbe0d9a33	-0.13828354
37	0xbe2090f5	-0.15680297
38	0xbe593a65	-0.21213682
39	0x3d8ba399	0.06818313
40	0xbe0b36d9	-0.13595141
41	0x3e126fc2	0.14300445
42	0xbd362e5e	-0.044477813
43	0xbca5835a	-0.020204235
44	0xbeab1c2a	-0.33419925
45	0xbe37b9ce	-0.17941973
46	0xbe943df1	-0.28953508
47	0x3e790063	0.24316554
48	0xbcc6edd4	-0.024283327
49	0x3e72350d	0.2365305

parametrizer.linear3.bias f4 [5]
0	0x3e1c3563	0.1525474
1	0xbc4ac178	-0.012375228
2	0xbea7d578	-0.3278005
3	0xbe88354b	-0.2660316
4	0x3d9a9d7e	0.075495705

parametrizer.linear4.weight f4 [31, 5]
0	0xbe939744	-0.28826344
1	0xbdaaeef4	-0.08346358
2	0xbcfffb23	-0.031247681
3	0xbe6b58ab	-0.22983043
4	0x3d3c77cd	0.04601269
5	0xbe6e30da	-0.23260823
6	0x3ef3cd98	0.47617793
7	0x3e405bf8	0.18785083
8	0x3e841f4f	0.25805137
9	0xbd278aed	-0.040903974
10	0xbe8081c6	-0.2509901
11	0xbe4537ae	-0.19259521
12	0xbe056db3	-0.13030128
13	0x3dfc47a9	0.123183556
14	0xbe7e4201	-0.24829866
15	0xbe0a2f2c	-0.13494557
16	0xbcbfaf89	-0.023399131
17	0xbe9f7fc8	-0.31152177
18	0xbe1627cd	-0.1466362
19	0xbd8f9713	-0.07011237
20	0x3ef6a007	0.48168966
21	0xbec45d9b	-0.38352665
22	0x3e886343	0.2663823
23	0xbedbbb4b	-0.4291633
24	0xbecc0edf	-0.39855096
25	0xbe143578	-0.14473522
26	0xbe480e68	-0.19536746
27	0xbe554bc9	-0.20829691
28	0xbea2fdbb	-0.31834206
29	0xbe6fe51f	-0.23427247
30	0xbd9a3b33	-0.075308226
31	0xbd888766	-0.0666645
32	0xbeb86d2d	-0.36020795
33	0xbeec2ad4	-0.46126425
34	0xbe81e8fb	-0.25373062
35	0x3ecff628	0.4061749
36	0x3e0e5077	0.13897882
37	0x3e5c3c3e	0.21507356
38	0xbea3f1a3	-0.32020292
39	0xbe575dd9	-0.21031894
40	0xbd53e394	-0.051730707
41	0x3dbb71ab	0.0915254
42	0x3e6290da	0.22125569
43	0xbe1c6487	-0.15272723
44	0x3ed9edfb	0.42564377
45	0xbc748f22	-0.014926704
46	0xbe96b1db	-0.29432568
47	0x3e553c4e	0.20823786
48	0x3e4c25db	0.19936316
49	0xbc9ba5a7	-0.018999888
50	0xbe69316f	-0.22772764
51	0x3eb29bd9	0.34884527
52	0xbee4cfa0	-0.44689655
53	0xbe7c35c7	-0.2462989
54	0x3e2a3005	0.1661988
55	0x3ceb757a	0.02874254
56	0xbdb78eac	-0.089627594
57	0x3e16590c	0.14682406
58	0x3e33238e	0.17494032
59	0x3ea70493	0.32620677
60	0x3ee5d9f0	0.44892836
61	0x3ee9bec2	0.4565335
62	0x3e310ce8	0.1729008
63	0x3e2019da	0.15634862
64	0xbdd8aff1	-0.10580433
65	0x3eb45556	0.35221356
66	0xbd9f8c9a	-0.077904895
67	0xbed42a3a	-0.41438466
68	0x3e80befc	0.2514571
69	0xbec0be7d	-0.3764533
70	0x3dc0e209	0.09418113
71	0xbe96bee1	-0.29442504
72	0x3eb4d217	0.35316536
73	0x3ec390e6	0.38196486
74	0x3ecc73ad	0.39932004
75	0x3dbf0703	0.09327509
76	0xbd85a14f	-0.06524908
77	0xbda01e16	-0.078182384
78	0x3ec20af9	0.37898996
79	0x3e4020d8	0.18762529
80	0xbec8dbdb	-0.39230236
81	0x3cfc3645	0.030787596
82	0xbe1362fe	-0.14393231
83	0xbe3e062a	-0.18557039
84	0x3ef4bd2d	0.4780058
85	0x3ebc9528	0.36832547
86	0x3ba749c2	0.005105228
87	0x3e8d73a4	0.2762729
88	0x3d2d4053	0.042297672
89	0xbe183735	-0.1486481
90	0x3e1a73d5	0.15083249
91	0xbd24b77d	-0.04021405
92	0xbe4e608d	-0.20154019
93	0x3a94ae4a	0.0011343446
94	0xbd1c6e60	-0.0381912
95	0xbe807db0	-0.25095892
96	0x3eb7764a	0.35832435
97	0x3e869da4	0.26292145
98	0xbe988fef	-0.29797313
99	0x3ed0fe30	0.4081893
100	0x3ece5a38	0.40303206
101	0xbe180dd3	-0.14849024
102	0xbea7abf5	-0.3274838
103	0xbeea14a2	-0.45718867
104	0x3d339f1d	0.043852914
105	0xbda4f13e	-0.08053826
106	0x3ec3211d	0.381112
107	0xbecf6734	-0.40508425
108	0x3d7bc9a8	0.06147161
109	0x3ebedb4b	0.37276682
110	0xbe870455	-0.26370493
111	0x3e0434dd	0.1291079
112	0xbe237f13	-0.15966444
113	0xbebaf428	-0.365144
114	0x3e725011	0.23663355
115	0x3d120fb4	0.035659507
116	0x3e8a11af	0.26966617
117	0xbe9db700	-0.3080368
118	0xbeb1f30f	-0.34755751
119	0x3e883c8f	0.26608703
120	0x3dfbb722	0.12290789
121	0x3edb899a	0.4287842
122	0xbee805cb	-0.4531692
123	0x3ea9a6da	0.3313511
124	0x3dc0d089	0.09414775
125	0xbeb730eb	-0.3577951
126	0x3ebdd27b	0.37074646
127	0xbe6167d2	-0.2201226
128	0x3e5eb554	0.21748859
129	0x3eb6d91e	0.35712522
130	0xbc28cd98	-0.010302924
131	0xbd908339	-0.07056279
132	0x3cf6f87d	0.030147785
133	0x3e17e5b2	0.14833716
134	0x3eb9bc5d	0.36276522
135	0x3ee5e307	0.4489977
136	0x3ebe8f46	0.37218684
137	0x3eb501f5	0.35353056
138	0xbeae27b3	-0.34014663
139	0xbe3d0dc5	-0.18462284
140	0xbe8b4735	-0.27202764
141	0xbea0e566	-0.31425017
142	0x3e080b75	0.1328562
143	0xbe933fff	-0.28759763
144	0xbe5a8114	-0.21338302
145	0x3eec6f44	0.4617864
146	0x3def769f	0.11692547
147	0x3ddc97fb	0.107711755
148	0xbe47b01c	-0.19500774
149	0x3ec4f95d	0.384715
150	0xbcf82286	-0.0302899
151	0x3e97ce10	0.296494
152	0x3e41af58	0.18914545
153	0x3ea50ed5	0.32237878
154	0xbe673b73	-0.22581272

parametrizer.linear4.bias f4 [31]
0	0x3ec3d3e3	0.38247594
1	0x3eec4e36	0.4615342
2	0x3dd1fc65	0.102532186
3	0x3edccb96	0.43124074
4	0xbe4a5f88	-0.19763005
5	0xbe4457d8	-0.19174135
6	0x3e134c6f	0.14384626
7	0x3ea074d3	0.3133913
8	0x3d4786c7	0.048712518
9	0x3c514438	0.012772612
10	0x3e069c6c	0.13145608
11	0xbde7ea46	-0.11323981
12	0x3eb47da3	0.35252103
13	0x3ee4e435	0.44705358
14	0xbe6d8a19	-0.23197211
15	0x3e6d9ffb	0.23205559
16	0x3da8cce2	0.08242203
17	0x3de56067	0.11200028
18	0xbe1078c3	-0.14108567
19	0x3e0e8034	0.13916093
20	0x3d4892be	0.04896807
21	0xbe912e8b	-0.28355822
22	0xbded6ce0	-0.11593032
23	0xbe121c09	-0.14268507
24	0xbec71e41	-0.3889027
25	0x3e75d0d5	0.24005444
26	0xbe0f9ada	-0.14023915
27	0xbea7705f	-0.3270292
28	0x3eb30de7	0.34971544
29	0x3e7de952	0.24796036
30	0xbd26bb0d	-0.04070573

exp_avg f4 [10, 30]
0	0xb8de1db5	-0.00010591318
1	0x3a7f041e	0.00097280915
2	0xb8e54a3d	-0.00010933399
3	0x3939a1d2	0.00017703258
4	0xbba01161	-0.004884884
5	0xbaecbb8f	-0.0018061268
6	0x39684283	0.00022150022
7	0xbacd1917	-0.0015647736
8	0xbb7037fa	-0.0036654458
9	0xba610410	-0.0008583674
10	0xb95b9f9b	-0.00020944925
11	0xbb17455c	-0.0023082113
12	0x3a52e850	0.00080454815
13	0xb8ba49a1	-8.8828856e-05
14	0xba50de9e	-0.0007967743
15	0x3a3b4b5a	0.0007144712
16	0x3b0fb03a	0.0021925108
17	0x391d7d48	0.00015019358
18	0xbb346e10	-0.0027531423
19	0x3b1c1dc9	0.0023821464
20	0x38a012f0	7.632922e-05
21	0xba3cf2d6	-0.0007207816
22	0x3a067761	0.0005129483
23	0x39b0061f	0.00033573897
24	0xbb6946a1	-0.0035595077
25	0xba53159d	-0.0008052232
26	0x3abdad7a	0.0014471256
27	0xba8499f4	-0.0010116682
28	0xbb453e2d	-0.0030096874
29	0xb8b059d3	-8.409065e-05
30	0x3ab20e1e	0.001358453
31	0x3b2c8206	0.0026322617
32	0x3aa1285b	0.0012295352
33	0x3b32a542	0.0027259146
34	0xbb497b4f	-0.0030743664
35	0xba886e61	-0.0010408872
36	0x3a97f07a	0.0011592053
37	0x38b27758	8.509931e-05
38	0x3a1011b3	0.00054958015
39	0xbb3ee7d0	-0.002912987
40	0x3abd40af	0.0014438833
41	0xba4d2681	-0.0007825867
42	0x3b171de4	0.0023058588
43	0x3b298b50	0.002587039
44	0x3a83a6fc	0.0010044272
45	0x3ac170d4	0.0014758357
46	0x3b477814	0.0030436562
47	0x3a48dc5c	0.00076622306
48	0x3a14b766	0.00056730804
49	0x3ab8156b	0.0014044469
50	0x3a1e460e	0.00060376606
51	0xba989b25	-0.0011642916
52	0x3a7fdd68	0.000976047
53	0x3b0ba634	0.0021308782
54	0xbbaa2621	-0.0051925336
55	0xbaf7558f	-0.0018870103
56	0x39c0cefb	0.00036775306
57	0xbade13a7	-0.0016943113
58	0xbaab54e3	-0.0013071563
59	0xbb96f869	-0.0046072495
60	0x3a9760ec	0.0011549271
61	0x3a85afbb	0.0010199466
62	0x3a7601d7	0.00093844294
63	0x3acbbebb	0.0015544513
64	0x3a8fee9c	0.0010981145
65	0xba544c90	-0.0008098567
66	0x38aa187d	8.110793e-05
67	0x3a611ec2	0.0008587652
68	0x3a96615f	0.0011473111
69	0xbb1e2a62	-0.002413415
70	0x3a860e9a	0.001022774
71	0x3a9bb15b	0.0011878418
72	0x3a5217b5	0.0008014397
73	0x3aab946d	0.0013090499
74	0x3b1c7880	0.0023875535
75	0xba79dcba	-0.0009531487
76	0x399425f9	0.00028257052
77	0x3a601a20	0.0008548815
78	0x3ab9387d	0.0014131215
79	0xbaec2b59	-0.001801829
80	0x3a1b39cd	0.0005921394
81	0x396f0d0e	0.0002279768
82	0x3993cf41	0.0002819244
83	0x3a800813	0.0009768031
84	0xba589f7f	-0.0008263513
85	0xbb229375	-0.002480713
86	0xbaa6c2e9	-0.0012722883
87	0xba2ed337	-0.00066690467
88	0x39c0d2e0	0.00036778208
89	0xbb99265a	-0.0046737613
90	0xbaa8da7e	-0.0012882499
91	0x3a99206f	0.001168264
92	0xba828e94	-0.0009960704
93	0xbaa3a0ec	-0.0012483872
94	0xbb85e713	-0.004086384
95	0x3a07535e	0.0005162264
96	0x3a930c1a	0.0011218817
97	0xbac17db2	-0.0014762192
98	0xbb58ce1a	-0.003308183
99	0x3b12b655	0.002238651
100	0xbacc1514	-0.0015570247
101	0xbae1a372	-0.0017214848
102	0xba72b90d	-0.0009259142
103	0xba964653	-0.001146505
104	0xbac90cd6	-0.0015338908
105	0x3b02f61a	0.0019983114
106	0x39d69fa2	0.00040936196
107	0xbb2a275e	-0.0025963406
108	0xbb15c34c	-0.0022852002
109	0x3b46a4e2	0.003031068
110	0xb9e30f75	-0.0004330833
111	0x3a9229be	0.0011151356
112	0x395249fc	0.00020054722
113	0xb9c7a5ea	-0.00038079853
114	0x3a01c893	0.00049508474
115	0x3b825d2c	0.003978392
116	0x3b5cca0b	0.0033689763
117	0x397797bc	0.00023612281
118	0xba07338f	-0.0005157524
119	0x3bd0a5ff	0.0063674445
120	0xbaa014ab	-0.0012213191
121	0xbb4f89c0	-0.0031667799
122	0xba8f29fe	-0.0010922549
123	0xbac94816	-0.0015356566
124	0x3ba59506	0.0050531654
125	0x3abf3f26	0.0014590963
126	0xbaa0b87b	-0.0012262011
127	0x3a438564	0.00074585364
128	0x3b822c0d	0.0039725364
129	0x3b0d24f2	0.0021536914
130	0xb844f252	-4.695572e-05
131	0x3a9d550f	0.0012003499
132	0xba329f61	-0.00068139104
133	0xba1ccdb4	-0.000598158
134	0x391c0345	0.00014878537
135	0xbacd7279	-0.0015674374
136	0xbb1241d8	-0.0022317078
137	0x3a3c24db	0.0007177123
138	0x3b17a084	0.0023136446
139	0xbacb24be	-0.0015498621
140	0xbad27660	-0.0016057007
141	0xbb2d4745	-0.0026440185
142	0xbaecb4a5	-0.0018059207
143	0xbae74ce6	-0.0017646819
144	0x3ac240be	0.001482032
145	0xbaa33899	-0.001245278
146	0xbb5cd00f	-0.0033693349
147	0xb9c9fa82	-0.0003852435
148	0x3a5e5371	0.00084810617
149	0xba20d85b	-0.0006135755
150	0x3a900057	0.0010986429
151	0x3adac214	0.001668992
152	0x3a578312	0.000822113
153	0x3aeb7d84	0.0017966484
154	0xbbaee8e7	-0.0053378227
155	0xbb3a8f96	-0.0028466932
156	0xb8d784a2	-0.00010276704
157	0xba27e727	-0.0006404989
158	0xbb076766	-0.0020660996
159	0xbb61815d	-0.0034409382
160	0x39dcbc38	0.00042101904
161	0xbacac40b	-0.0015469802
162	0x3a4939ec	0.00076761725
163	0x3a832196	0.0010004516
164	0xbb9d5730	-0.0048016533
165	0xbb402f4c	-0.0029325066
166	0x38db4144	0.000104548904
167	0xbb1d2946	-0.00239809
168	0xbafd063e	-0.0019304228
169	0xbb00b57f	-0.001963943
170	0x3ab438cf	0.001374984
171	0x3a093407	0.0005233888
172	0x3aa61f8d	0.0012674198
173	0x3b033b94	0.0020024525
174	0xbb8d2628	-0.004307527
175	0xbb31f7c1	-0.002715573
176	0x39e39b57	0.0004341255
177	0xba68a671	-0.00088748994
178	0xba45ddda	-0.0007548012
179	0xbb8578a0	-0.0040732175
180	0xb9b1a2d6	-0.00033881393
181	0x3a990b95	0.0011676425
182	0xb9253a55	-0.00015757357
183	0x395507b7	0.00020316137
184	0xbb39daf8	-0.0028359275
185	0x3a82d8ef	0.0009982864
186	0x3a2c1e15	0.0006565762
187	0xba8a43cb	-0.0010548768
188	0xba67f7a3	-0.00088488514
189	0x3a82063b	0.000992007
190	0xba3b8257	-0.0007152906
191	0xb9efd77d	-0.00045746184
192	0x37baf008	2.2284701e-05
193	0x39195928	0.0001462443
194	0x39b00cd0	0.00033578882
195	0x3b40ce68	0.0029419903
196	0x3a4b600c	0.00077581475
197	0xbabea9fe	-0.0014546511
198	0x3a534df9	0.000806063
199	0x3b2fb3d6	0.0026810071
200	0xb9b6f45a	-0.000348958
201	0xba07466f	-0.0005160337
202	0x394f2638	0.00019755296
203	0x39a44f48	0.00031339587
204	0xbb0504c4	-0.002029703
205	0x3b2cd47c	0.0026371768
206	0x3aaf9ab6	0.0013397548
207	0xbab91134	-0.0014119507
208	0x39cecdcd	0.00039444715
209	0x3b273ddd	0.002551905
210	0x3a79f15f	0.0009534563
211	0xbaa48f96	-0.0012554999
212	0x3a04dbc2	0.0005068147
213	0xb9e00c20	-0.00042733643
214	0x3c5c5fd2	0.01345058
215	0xb948e06a	-0.00019157087
216	0xbb03713a	-0.0020056502
217	0x3b85eee2	0.004087315
218	0x3bd7abf7	0.006581779
219	0xbaecef0a	-0.001807661
220	0x3b213987	0.002460094
221	0x3be5546b	0.006998589
222	0x38904205	6.878752e-05
223	0x3916939f	0.00014360108
224	0x3bbaed44	0.005704554
225	0xbbd247dd	-0.006417258
226	0xbb37075b	-0.0027927968
227	0x3bdbe34c	0.0067104455
228	0x3aaf0cf3	0.00133553
229	0xbc01821e	-0.0079045575
230	0x38f4c483	0.0001167143
231	0x3b6f6ca5	0.0036533263
232	0xbad2e848	-0.0016090954
233	0xbac7f810	-0.0015256424
234	0x3c0ec1e7	0.008713222
235	0xbbe0ea24	-0.0068638492
236	0xbbd69a91	-0.0065491875
237	0x3b51ad37	0.0031994113
238	0x3a39cc8f	0.00070876715
239	0xbc13d1ab	-0.009022157
240	0xba7c2871	-0.00096190633
241	0xbadf9c5d	-0.001706015
242	0xba4954d1	-0.000768018
243	0x3998e3ad	0.0002916133
244	0xbbabf1ff	-0.005247354
245	0xba3c585f	-0.0007184799
246	0xba9832d2	-0.0011611825
247	0xbb475551	-0.0030415843
248	0xbadf6212	-0.0017042777
249	0xba1c480f	-0.00059616653
250	0xbabe6cfa	-0.0014528327
251	0xbb5c06d8	-0.0033573415
252	0xb9f83656	-0.0004734273
253	0x39eb1624	0.0004483919
254	0x39cae24f	0.00038697055
255	0x3ac2eb9e	0.0014871245

exp_avg_sq f4 [10, 30]
0	0x340f68d3	1.3356048e-07
1	0x35c5acd0	1.4727939e-06
2	0x3419ca82	1.4322907e-07
3	0x3403ac73	1.2263062e-07
4	0x3602492b	1.94141e-06
5	0x35a78e50	1.2483888e-06
6	0x3563ec98	8.490838e-07
7	0x34e7ff5e	4.3212907e-07
8	0x360d6a83	2.1072635e-06
9	0x358fa60d	1.0702657e-06
10	0x34b6b084	3.4028574e-07
11	0x35a8c92b	1.2575523e-06
12	0x350ce1da	5.248272e-07
13	0x33f9d0a1	1.16329154e-07
14	0x359e2f53	1.178569e-06
15	0x3675ba64	3.6616339e-06
16	0x36376abd	2.7331255e-06
17	0x35c61bca	1.4760237e-06
18	0x366cbd48	3.5276917e-06
19	0x363547a2	2.7012798e-06
20	0x3407ce56	1.264792e-07
21	0x35a8edbf	1.2586169e-06
22	0x344c7448	1.9041283e-07
23	0x33f6a2db	1.1484891e-07
24	0x3621e29e	2.4122778e-06
25	0x35f4fe59	1.8253442e-06
26	0x3583ab73	9.810159e-07
27	0x34cfc761	3.8701822e-07
28	0x36751e85	3.652561e-06
29	0x35b8b077	1.3760426e-06
30	0x35ca8e75	1.5091633e-06
31	0x369c180f	4.651963e-06
32	0x35c4c12e	1.4659361e-06
33	0x35fb9c5c	1.8746464e-06
34	0x3685c7a7	3.9869515e-06
35	0x36543ce7	3.1625912e-06
36	0x362df306	2.5920467e-06
37	0x362e6d14	2.5991512e-06
38	0x36b4cc04	5.3881686e-06
39	0x368f5b35	4.27235e-06
40	0x364a27e2	3.012356e-06
41	0x3687ef51	4.0511736e-06
42	0x36672e2f	3.4448565e-06
43	0x360af0b2	2.0703706e-06
44	0x36ac3133	5.131727e-06
45	0x36451e38	2.9372877e-06
46	0x36396bcd	2.7629897e-06
47	0x36a7dabf	5.0024532e-06
48	0x3644207e	2.922519e-06
49	0x3612dd25	2.1884418e-06
50	0x35e8208e	1.7294822e-06
51	0x36c05de6	5.732977e-06
52	0x36045e23	1.9724328e-06
53	0x35e0adc0	1.6739868e-06
54	0x378507a0	1.5858386e-05
55	0x36ed8642	7.07878e-06
56	0x369322c0	4.384987e-06
57	0x36a7ad52	4.997165e-06
58	0x370a3ce0	8.2396145e-06
59	0x37451706	1.1747476e-05
60	0x3527e7d0	6.254968e-07
61	0x35c987d0	1.5015194e-06
62	0x35165d49	5.60151e-07
63	0x351fc30e	5.951596e-07
64	0x368f56fc	4.2718584e-06
65	0x356bb125	8.78021e-07
66	0x3538219b	6.8594244e-07
67	0x35d99fb7	1.6214243e-06
68	0x361a2f6a	2.2975387e-06
69	0x35ad2481	1.2900128e-06
70	0x35e5869b	1.7101005e-06
71	0x35f25ce3	1.8057439e-06
72	0x35d1c325	1.5628508e-06
73	0x3530a44d	6.58042e-07
74	0x36ec00df	7.0334495e-06
75	0x35b47ef4	1.3447993e-06
76	0x35d36049	1.5748748e-06
77	0x369597e0	4.4582266e-06
78	0x359ac37b	1.1530786e-06
79	0x3548e598	7.483991e-07
80	0x35052fd8	4.961598e-07
81	0x35825511	9.710512e-07
82	0x350a343b	5.148501e-07
83	0x34d54fae	3.9732316e-07
84	0x365ea4c7	3.317649e-06
85	0x35656054	8.5449324e-07
86	0x352806fe	6.259505e-07
87	0x35eabac0	1.748871e-06
88	0x35cabf9c	1.5105938e-06
89	0x361e17d5	2.3557707e-06
90	0x35597803	8.101344e-07
91	0x36909cc4	4.3097843e-06
92	0x352d007e	6.444824e-07
93	0x354a5446	7.53735e-07
94	0x37183904	9.073181e-06
95	0x35cc871d	1.5238508e-06
96	0x358f3552	1.0669849e-06
97	0x360d248f	2.1031917e-06
98	0x361c1d29	2.3262785e-06
99	0x365f9440	3.3315882e-06
100	0x35fd380a	1.8866278e-06
101	0x35a6475d	1.2388733e-06
102	0x35d18c20	1.5612495e-06
103	0x35021fd6	4.84751e-07
104	0x358e1f4f	1.0588936e-06
105	0x362ef7e1	2.6072305e-06
106	0x3610dd4c	2.1586484e-06
107	0x366df44a	3.5457947e-06
108	0x35878fe7	1.0100165e-06
109	0x36708a79	3.5843389e-06
110	0x35074b5b	5.0401076e-07
111	0x3645d8e6	2.948154e-06
112	0x351dd7d3	5.8801123e-07
113	0x34ea078b	4.3591385e-07
114	0x36188aaf	2.273049e-06
115	0x35bafc4f	1.3931511e-06
116	0x35e36454	1.6942017e-06
117	0x35e566ff	1.7091805e-06
118	0x35ae92bc	1.3006716e-06
119	0x36c52869	5.875762e-06
120	0x351fbc27	5.9505913e-07
121	0x367a62b1	3.731035e-06
122	0x3520403e	5.969813e-07
123	0x35725780	9.0279354e-07
124	0x36733482	3.6240385e-06
125	0x35c82eaa	1.4914742e-06
126	0x35f13a86	1.7972932e-06
127	0x3595f772	1.1173381e-06
128	0x36392208	2.7586957e-06
129	0x35fb6414	1.8730084e-06
130	0x3569df1a	8.712392e-07
131	0x35de1bb7	1.6548355e-06
132	0x35b344e8	1.3356594e-06
133	0x354480b6	7.320299e-07
134	0x364485fc	2.9284265e-06
135	0x368ee662	4.25875e-06
136	0x365296c4	3.1380196e-06
137	0x35d567d6	1.5899957e-06
138	0x360b0ae9	2.0718965e-06
139	0x367b9c3a	3.749285e-06
140	0x3540a615	7.1767255e-07
141	0x3648728e	2.9869002e-06
142	0x35762cef	9.170753e-07
143	0x35717368	8.9947434e-07
144	0x36b028c6	5.2499554e-06
145	0x363f46e7	2.8502488e-06
146	0x3648a60d	2.9898977e-06
147	0x35bcde9f	1.4071883e-06
148	0x3689b6a9	4.1041826e-06
149	0x368c81cf	4.187437e-06
150	0x358de1a0	1.0570984e-06
151	0x36af4b80	5.224196e-06
152	0x3593d091	1.1013054e-06
153	0x35b25382	1.3286337e-06
154	0x36d4c596	6.3410944e-06
155	0x366cc7f7	3.5283135e-06
156	0x36572649	3.2059781e-06
157	0x362db22c	2.5882719e-06
158	0x35fa5a68	1.8652763e-06
159	0x362bc7cc	2.5597283e-06
160	0x360ca373	2.0956766e-06
161	0x36ba9c73	5.561445e-06
162	0x36173b54	2.2535287e-06
163	0x35a06d54	1.1952748e-06
164	0x37fda01d	3.0234509e-05
165	0x37173271	9.012046e-06
166	0x36ce8a44	6.1553746e-06
167	0x37283d3f	1.002784e-05
168	0x36b0775d	5.2591045e-06
169	0x36f759b6	7.3716174e-06
170	0x358ae365	1.0347982e-06
171	0x36b03475	5.2513155e-06
172	0x3592ecac	1.0946728e-06
173	0x35a31f6f	1.2153595e-06
174	0x375330a2	1.2587903e-05
175	0x36864fcd	4.0028012e-06
176	0x3609aa9c	2.0513899e-06
177	0x361a67d6	2.3008229e-06
178	0x364e61dd	3.0753356e-06
179	0x368cc651	4.195412e-06
180	0x3419932b	1.4302775e-07
181	0x35ffd67e	1.9061406e-06
182	0x34012ff8	1.2031512e-07
183	0x341a9fa6	1.4400447e-07
184	0x35d9a628	1.6216118e-06
185	0x34a53fc0	3.078003e-07
186	0x34091ff2	1.2770741e-07
187	0x34a72d56	3.113916e-07
188	0x352810b1	6.2609166e-07
189	0x34ff717a	4.7580016e-07
190	0x33f08593	1.1200168e-07
191	0x34f7cba6	4.615551e-07
192	0x33bd09a2	8.8027505e-08
193	0x3301d5f1	3.022973e-08
194	0x3485a4f4	2.48932e-07
195	0x35cafc67	1.5123632e-06
196	0x34f624f4	4.5847958e-07
197	0x353c7507	7.0205755e-07
198	0x34db3a70	4.0834448e-07
199	0x35aa9391	1.2708934e-06
200	0x3438cae8	1.7210152e-07
201	0x35f45f39	1.820713e-06
202	0x342f0fcc	1.6303892e-07
203	0x344ad81b	1.8891335e-07
204	0x35ce183d	1.535525e-06
205	0x35a0d994	1.1984253e-06
206	0x34ef7c77	4.460778e-07
207	0x34b589e5	3.381421e-07
208	0x3529121d	6.2983764e-07
209	0x35d279bc	1.5681649e-06
210	0x36773658	3.68375e-06
211	0x382225d4	3.865904e-05
212	0x3650988b	3.1083207e-06
213	0x36715512	3.5961316e-06
214	0x38355fe8	4.3243082e-05
215	0x366202fb	3.367836e-06
216	0x363f67f8	2.8521736e-06
217	0x36cb9067	6.066682e-06
218	0x3730206d	1.0497967e-05
219	0x375227e7	1.2526266e-05
220	0x366dde9f	3.5445335e-06
221	0x3711a83f	8.681846e-06
222	0x366e8d68	3.5547073e-06
223	0x3537648c	6.831913e-07
224	0x3751260c	1.2466229e-05
225	0x378caac1	1.6768814e-05
226	0x3739d07c	1.1075401e-05
227	0x37629189	1.3504535e-05
228	0x36782503	3.6976423e-06
229	0x37d1862e	2.4977224e-05
230	0x36354735	2.701255e-06
231	0x380540f5	3.1770167e-05
232	0x366c7710	3.5236044e-06
233	0x3636c5ba	2.7235205e-06
234	0x3810028d	3.433465e-05
235	0x373b7aec	1.1174689e-05
236	0x370020f2	7.637065e-06
237	0x36a94ab0	5.0452873e-06
238	0x375cfa64	1.31713205e-05
239	0x37ef9e3f	2.856471e-05
240	0x35ce4407	1.5367995e-06
241	0x36f98638	7.4364034e-06
242	0x35c1f89a	1.4451973e-06
243	0x35c61d8f	1.4760752e-06
244	0x36fe59b7	7.580234e-06
245	0x3643fef6	2.920567e-06
246	0x371158fb	8.663391e-06
247	0x3637ea7a	2.7405608e-06
248	0x36ac2db9	5.1313223e-06
249	0x3748d308	1.19700635e-05
250	0x36254c9a	2.4631504e-06
251	0x363c9de1	2.810608e-06
252	0x35c14146	1.4398618e-06
253	0x3523e213	6.1051213e-07
254	0x36ed3ccc	7.070228e-06
255	0x36f16f45	7.195313e-06

exp_avg f4 [10]
0	0xba96a0cd	-0.0011492014
1	0xbc7dd7e8	-0.015493371
2	0xbbf67a62	-0.0075219134
3	0x3b81f4a5	0.0039659315
4	0x3acc0b0a	0.0015567255
5	0xbbeb417b	-0.0071794367
6	0xbb7d7906	-0.0038676872
7	0x3bd25f06	0.006420019
8	0xbc4e6b4d	-0.012598825
9	0xbaf917c2	-0.0019004273

exp_avg_sq f4 [10]
0	0x35663173	8.5753635e-07
1	0x38411008	4.6029716e-05
2	0x373319e1	1.0675257e-05
3	0x368fec9d	4.2892775e-06
4	0x370c6e9a	8.370402e-06
5	0x3767273d	1.3777809e-05
6	0x35eac960	1.7492966e-06
7	0x37a85beb	2.0069963e-05
8	0x378dfe7c	1.6927013e-05
9	0x35f39fee	1.8151457e-06

exp_avg f4 [10, 10]
0	0x3bbcc0d6	0.0057602925
1	0x3b7f2e97	0.0038937682
2	0x3ad8de89	0.0016545813
3	0x3b9767b8	0.0046205185
4	0xbaaf4a34	-0.0013373555
5	0x3a90bc6c	0.0011042482
6	0x3b3867cd	0.0028138042
7	0xbb3d9c24	-0.0028932178
8	0x3b200a88	0.002442034
9	0xbb040dad	-0.0020149753
10	0xbb16a69e	-0.0022987495
11	0xbb605181	-0.0034228268
12	0x39c4bf2d	0.0003752647
13	0x3adbc329	0.0016766536
14	0x3ac63258	0.0015121205
15	0xbbd15d89	-0.006389324
16	0xbb9b0537	-0.0047308463
17	0x36b4c93c	5.387845e-06
18	0xbb01295d	-0.0019708492
19	0x38e373e2	0.00010845788
20	0x39e9a4b9	0.0004456395
21	0xbb08e532	-0.0020888564
22	0xb99e3764	-0.00030177378
23	0xbb35d93d	-0.0027747892
24	0xbb29f491	-0.0025933126
25	0xbb5099ec	-0.0031830026
26	0xbb4bbdeb	-0.0031088542
27	0x3a0ee391	0.000545078
28	0xbb1dd4fb	-0.0024083245
29	0xb9b8bfc2	-0.00035238086
30	0x3993bc5f	0.00028178372
31	0x3b567ffe	0.0032730098
32	0xbaf3d105	-0.0018601721
33	0xba93d783	-0.0011279437
34	0x3ad88bbe	0.0016521139
35	0x3bb60f9a	0.005556059
36	0x3b9c7990	0.0047752336
37	0x3943f105	0.00018686436
38	0x3b0afce3	0.002120786
39	0x3a7a1b49	0.0009540809
40	0x3baac241	0.005211145
41	0x3a0db486	0.0005405623
42	0x3b3b753a	0.0028603808
43	0x3bc6323c	0.006048469
44	0xbaa7080c	-0.0012743487
45	0xb924f0d6	-0.00015729977
46	0x3b47f699	0.0030511974
47	0xbb84fa20	-0.0040581375
48	0x3b179f77	0.002313582
49	0xbb065d89	-0.0020502529
50	0x3b3166e0	0.0027069375
51	0x3ac489dc	0.0014994699
52	0x3ac8c9f6	0.0015318978
53	0xba647279	-0.00087145675
54	0xbb6c8187	-0.0036087947
55	0x3b49f373	0.0030815273
56	0x3af4060b	0.0018617524
57	0xb9dbdab3	-0.0004193388
58	0x3a5ac48f	0.00083453296
59	0xba9d4625	-0.0011999054
60	0x3b9d0a9c	0.0047925245
61	0x3baa3612	0.005194434
62	0xbb0beddf	-0.00213515
63	0x3aa69a53	0.0012710787
64	0x3abb8fca	0.001430982
65	0x3bf71774	0.0075406376
66	0x3c140c43	0.009036127
67	0xbb171823	-0.0023055158
68	0x3b8d31d8	0.0043089204
69	0xb91025dc	-0.00013747014
70	0xbb39e51e	-0.0028365324
71	0x3a6f0b31	0.0009118794
72	0xba9793d8	-0.0011564447
73	0x3a62ee86	0.00086567586
74	0x3b6770d9	0.0035315065
75	0xb7dc297e	-2.6245365e-05
76	0xb751d419	-1.2506754e-05
77	0x3a75b4fa	0.0009372976
78	0x3a538913	0.0008069437
79	0x3a8f6dd3	0.0010942764
80	0xbaede189	-0.001814888
81	0xbba55717	-0.0050457823
82	0x3b5a60f5	0.003332195
83	0x39e14d03	0.00042972722
84	0xbb122fc5	-0.0022306305
85	0xbb8f4622	-0.004372374
86	0xbb998d8d	-0.0046860636
87	0x398500c0	0.00025368296
88	0xbb259363	-0.0025264851
89	0xba75b834	-0.00093734567
90	0xbbdfc4f8	-0.0068289004
91	0xbb8d0a20	-0.0043041855
92	0xbaf4a433	-0.0018664658
93	0xbbab6cda	-0.005231482
94	0x3ac89c2a	0.001530533
95	0xbaffd332	-0.0019517897
96	0xbb82d365	-0.0039924853
97	0x3b57dbe1	0.0032937455
98	0xbb5d917c	-0.003380864
99	0x3b22a900	0.002481997

exp_avg_sq f4 [10, 10]
0	0x36efc9d7	7.1462523e-06
1	0x36d47a8b	6.332358e-06
2	0x368e20dd	4.2357556e-06
3	0x366c1718	3.5180183e-06
4	0x36b54a8a	5.402898e-06
5	0x364372c7	2.9124074e-06
6	0x3691855a	4.336861e-06
7	0x36392c7b	2.759304e-06
8	0x36241fc6	2.44564e-06
9	0x35ed83ba	1.7696213e-06
10	0x358b649d	1.0385589e-06
11	0x3632bf16	2.6635294e-06
12	0x364417c1	2.9220103e-06
13	0x3580eebc	9.606224e-07
14	0x36d31622	6.2908666e-06
15	0x36aad58e	5.091256e-06
16	0x36a39b7d	4.8758798e-06
17	0x352362a9	6.08658e-07
18	0x3597272c	1.1261777e-06
19	0x35fc77eb	1.8810364e-06
20	0x359c90e8	1.1665079e-06
21	0x357e62fe	9.4766426e-07
22	0x367b7d9e	3.7475033e-06
23	0x360d7790	2.1080232e-06
24	0x36c5ba7d	5.8927676e-06
25	0x36710d60	3.5919584e-06
26	0x36cbd801	6.0750176e-06
27	0x358f7531	1.0688437e-06
28	0x36146502	2.2112513e-06
29	0x369d23ec	4.6831465e-06
30	0x358e4bfb	1.0601938e-06
31	0x35e29db1	1.6884206e-06
32	0x365653e3	3.1937313e-06
33	0x351ff2f9	5.958569e-07
34	0x36a2c170	4.8504953e-06
35	0x368a10af	4.1146627e-06
36	0x369a1b74	4.5927536e-06
37	0x34afce0e	3.2746215e-07
38	0x357b4ff7	9.362115e-07
39	0x3593a3fd	1.100008e-06
40	0x374658b4	1.18223725e-05
41	0x36ebe55a	7.030246e-06
42	0x3749a7ff	1.2019648e-05
43	0x36ea7fbb	6.988613e-06
44	0x3776f17b	1.4718967e-05
45	0x36beca8b	5.6860204e-06
46	0x373924a0	1.1035387e-05
47	0x367f8234	3.807375e-06
48	0x36ae843e	5.200999e-06
49	0x3712d38a	8.751531e-06
50	0x35b350f6	1.3360102e-06
51	0x35fe4af9	1.8946295e-06
52	0x362e9381	2.601388e-06
53	0x3562fba0	8.4557723e-07
54	0x36c57da4	5.885684e-06
55	0x36324624	2.6564894e-06
56	0x362c63a0	2.5687987e-06
57	0x3553f2aa	7.895675e-07
58	0x357cfb44	9.4242955e-07
59	0x35ed3552	1.7673394e-06
60	0x363203fe	2.652639e-06
61	0x36f3bc46	7.2638823e-06
62	0x371551fd	8.9001815e-06
63	0x35f6dec2	1.8393259e-06
64	0x376006b8	1.3353005e-05
65	0x36f6a72b	7.350832e-06
66	0x3748b9e4	1.196421e-05
67	0x35cab6dc	1.5103392e-06
68	0x36748b4a	3.643991e-06
69	0x36174e9c	2.254651e-06
70	0x368460f3	3.945193e-06
71	0x35d76aed	1.6049868e-06
72	0x36d403c3	6.3185303e-06
73	0x35c4c6e2	1.466102e-06
74	0x373005d1	1.0491772e-05
75	0x363a7abd	2.7787603e-06
76	0x36df073d	6.6467605e-06
77	0x35ea1461	1.744029e-06
78	0x35ffc254	1.9055537e-06
79	0x3647389e	2.9686266e-06
80	0x3588b4f9	1.018546e-06
81	0x366d2622	3.5337948e-06
82	0x36b7d638	5.4787633e-06
83	0x3599dc86	1.1463569e-06
84	0x3652848b	3.1369589e-06
85	0x3653c4bc	3.1555965e-06
86	0x36dd12c6	6.5884988e-06
87	0x352ac8a6	6.3621917e-07
88	0x35e2eced	1.6907267e-06
89	0x361b75cc	2.3165367e-06
90	0x37004945	7.646454e-06
91	0x36e3a757	6.784608e-06
92	0x3688afdd	4.073589e-06
93	0x36660733	3.4276861e-06
94	0x36aeceeb	5.2096925e-06
95	0x36457f92	2.9429543e-06
96	0x368b6b5a	4.15502e-06
97	0x3635a4b8	2.706698e-06
98	0x364325bf	2.9079235e-06
99	0x3688f9e2	4.082206e-06

exp_avg f4 [10]
0	0x3bbac915	0.0057002404
1	0xbcb89f96	-0.022537034
2	0xbbf2db39	-0.0074113873
3	0x3c9379d9	0.018002437
4	0xbafa3cdc	-0.0019091624
5	0x3c4e96ba	0.012609178
6	0x3ccf4220	0.025300086
7	0xbb211e4d	-0.002458471
8	0xbc99039a	-0.018678475
9	0xbc141282	-0.009037616

exp_avg_sq f4 [10]
0	0x380bdb82	3.3344615e-05
1	0x38d63889	0.00010214846
2	0x380e6411	3.3948632e-05
3	0x388285ad	6.223782e-05
4	0x3801b60c	3.092554e-05
5	0x38aea541	8.3277475e-05
6	0x3909f16a	0.00013155272
7	0x38726023	5.778683e-05
8	0x386ce177	5.6476765e-05
9	0x3811fe1e	3.480736e-05

exp_avg f4 [5, 10]
0	0x3b38f107	0.0028219835
1	0xbc7ba7d1	-0.015359835
2	0xba5d4ff3	-0.00084423943
3	0x3a81a9c7	0.0009892517
4	0xbb69df58	-0.0035686102
5	0xbbdfdf31	-0.0068320264
6	0xbbc01be5	-0.0058627003
7	0x3c2dabc0	0.01060003
8	0xbc1208b0	-0.008913204
9	0xbc0cc7ab	-0.008592526
10	0xba0b249d	-0.0005307885
11	0xbc73ddfe	-0.01488447
12	0xbb0bf39d	-0.0021354922
13	0x3b379398	0.0028011557
14	0xbb0257da	-0.001988879
15	0xb931bc55	-0.00016950195
16	0xbaac5ab4	-0.001314959
17	0x3c0afd51	0.008483247
18	0xbc54b9a2	-0.012983711
19	0xbc9d701b	-0.019218495
20	0xba2bee58	-0.00065586483
21	0x3bb9c97c	0.0056697708
22	0xbb94e58a	-0.0045439648
23	0x3a77f87e	0.00094593305
24	0x3a50e0c4	0.0007968063
25	0x3b423ac9	0.002963709
26	0x3aa99aed	0.0012939848
27	0xbb3edbba	-0.0029122666
28	0x3bcd89ac	0.0062725153
29	0xbba890f4	-0.005144233
30	0xbb1329e1	-0.0022455382
31	0x3b1e52d3	0.0024158254
32	0xbbb0180c	-0.0053739604
33	0x3b6b4e07	0.0035904662
34	0xb9857419	-0.00025454236
35	0xbafba29a	-0.0019198239
36	0xba7abd94	-0.00095649925
37	0x39db6d6d	0.00041852464
38	0x3bc25beb	0.0059313676
39	0xbb2b9a3b	-0.0026184458
40	0xbb3d3177	-0.0028868595
41	0xbba9d3d5	-0.005182723
42	0xbaf9a823	-0.0019047301
43	0xbafb885f	-0.0019190422
44	0x3aca41ea	0.0015431021
45	0x3a1fdd78	0.000609837
46	0x3bbf6b24	0.0058416296
47	0xbaca5393	-0.0015436284
48	0xbbbbb613	-0.005728492
49	0xbc80c806	-0.015720379

exp_avg_sq f4 [5, 10]
0	0x35f3e965	1.8172838e-06
1	0x37adf3d5	2.073675e-05
2	0x370a3c91	8.239543e-06
3	0x35ac5163	1.2838685e-06
4	0x3640705f	2.8675638e-06
5	0x371de8d4	9.412139e-06
6	0x36f8f04c	7.41895e-06
7	0x374d6193	1.224167e-05
8	0x373c9d4d	1.1242298e-05
9	0x37331dfd	1.0676214e-05
10	0x3635c7f6	2.7087494e-06
11	0x38097748	3.2774435e-05
12	0x35f18868	1.7995599e-06
13	0x3627f8aa	2.502968e-06
14	0x36a162ff	4.8096986e-06
15	0x37058f05	7.960717e-06
16	0x37227bf6	9.684814e-06
17	0x37b48842	2.1521122e-05
18	0x37b3d262	2.143643e-05
19	0x382074df	3.8255817e-05
20	0x3680378b	3.8211633e-06
21	0x378f4ca9	1.7082626e-05
22	0x3705cc2c	7.974955e-06
23	0x35dc7d56	1.6427755e-06
24	0x3605ec57	1.9956112e-06
25	0x37868610	1.6036473e-05
26	0x371b9b1f	9.274837e-06
27	0x3771bad9	1.4408223e-05
28	0x3710791b	8.611266e-06
29	0x370ce7dd	8.398635e-06
30	0x369c940c	4.666397e-06
31	0x383b9b4a	4.47289e-05
32	0x36ac11ee	5.1280867e-06
33	0x373596b8	1.0823533e-05
34	0x368f5483	4.2715706e-06
35	0x37632813	1.3539585e-05
36	0x3733953f	1.07039805e-05
37	0x37ebb221	2.809713e-05
38	0x3813de09	3.5254317e-05
39	0x376a9a6b	1.398344e-05
40	0x3707d8cc	8.097104e-06
41	0x384ae72e	4.8375856e-05
42	0x37e6389b	2.7444496e-05
43	0x36d4a67c	6.3374737e-06
44	0x369b25cf	4.6237615e-06
45	0x37b69020	2.1763204e-05
46	0x37bcae8a	2.2492623e-05
47	0x381ff714	3.8138664e-05
48	0x3884d00e	6.333004e-05
49	0x38812a3f	6.159068e-05

exp_avg f4 [5]
0	0xbd093957	-0.03350195
1	0xbd27a7ea	-0.04093162
2	0x3c704b5a	0.014666403
3	0x3c284edf	0.010272711
4	0xbcd11381	-0.025521995

exp_avg_sq f4 [5]
0	0x39095116	0.00013095545
1	0x39a6e317	0.00031831182
2	0x3910b4fa	0.00013800329
3	0x39ce4f19	0.00039350314
4	0x3a0fa63c	0.0005479788

exp_avg f4 [31, 5]
0	0xbaa854b8	-0.0012842631
1	0xb9d31079	-0.0004025733
2	0x3b4e9e36	0.0031527407
3	0x3b0d3b43	0.0021550215
4	0x3ab9ce27	0.0014175818
5	0xbc1088c6	-0.008821672
6	0xbc3d7aab	-0.011564891
7	0x3c845ef6	0.016158562
8	0x3c3ce851	0.011529998
9	0xbb92a6e1	-0.00447546
10	0xbbb834f7	-0.0056215483
11	0xbb9dc467	-0.0048146727
12	0x3c2815d3	0.01025911
13	0x3c0526eb	0.008126955
14	0xbab0cb10	-0.0013488252
15	0x3a10d921	0.0005525519
16	0x3b16477f	0.0022930799
17	0xba5763be	-0.0008216462
18	0xba53e072	-0.0008082456
19	0x3acb95e0	0.0015532337
20	0xbc48e656	-0.012261948
21	0xbc30b411	-0.010785119
22	0x3c9f1838	0.019420728
23	0x3c90da74	0.017682292
24	0xba8f4151	-0.00109295
25	0xbba8b2de	-0.0051482758
26	0xbbd48890	-0.006486006
27	0x3c12d8e0	0.00896284
28	0x3c03114a	0.0079997275
29	0xbb761bf5	-0.0037553285
30	0xbb49fde5	-0.00308215
31	0xbbb84fd3	-0.00562475
32	0x3bde43a3	0.0067829653
33	0x3ba3592f	0.0049849967
34	0xbb8fa21a	-0.0043833377
35	0xbba63c3c	-0.0050730985
36	0xbbb38e6d	-0.005479625
37	0x3c158282	0.009125354
38	0x3bfbc3f0	0.0076832697
39	0xba92a910	-0.00111893
40	0xbb706b28	-0.0036684964
41	0x39cb61c7	0.00038792027
42	0x3b35b45d	0.0027725913
43	0x3bb63755	0.0055607953
44	0x3a328ee4	0.00068114535
45	0xba8e8adf	-0.0010875127
46	0xbb690e37	-0.0035561451
47	0x3ab0321b	0.0013442667
48	0x3aff0ca6	0.0019458726
49	0xbba1f3fc	-0.0049424153
50	0x3a374990	0.00069918577
51	0x3aeef506	0.0018230982
52	0xba1b5770	-0.000592581
53	0xba551631	-0.0008128612
54	0x3a13e678	0.00056419475
55	0xbc14d1bc	-0.009083208
56	0xbc357854	-0.011076052
57	0x3c89db1e	0.016828116
58	0x3c488964	0.012239788
59	0xbb6c1187	-0.003602119
60	0x3b30b53f	0.00269635
61	0x3b3186a2	0.0027088304
62	0xbb5005b8	-0.003174169
63	0xbb5a8f3c	-0.0033349534
64	0xba1cad2b	-0.0005976732
65	0x3afdc472	0.0019360913
66	0x3b63e163	0.0034771792
67	0xbb6fb789	-0.0036577901
68	0xbb427e28	-0.0029677246
69	0x3a25481c	0.00063049956
70	0xbc0860fb	-0.008323903
71	0xbc2b1003	-0.010440829
72	0x3c9be1f8	0.019028649
73	0x3c44c221	0.012009175
74	0xba967b7b	-0.0011480892
75	0x3c05098a	0.00811995
76	0x3b9ba794	0.0047502015
77	0xbc22ab47	-0.009928531
78	0xbc1ed0c1	-0.0096933255
79	0xbb2e552f	-0.0026601066
80	0x3ba5f53a	0.0050646337
81	0x389417cd	7.061623e-05
82	0xbb6971f9	-0.0035620912
83	0xbbb45b2b	-0.005504032
84	0xbb9f28e3	-0.004857169
85	0x3a18680c	0.0005813844
86	0xbb9c6d41	-0.0047737663
87	0x3ba7ec87	0.005124632
88	0x3a58aa84	0.0008265155
89	0xbb82d51c	-0.00399269
90	0x3b46910e	0.0030298862
91	0x3b82d47b	0.003992615
92	0xbb9b2572	-0.0047346884
93	0xbb84d18c	-0.0040533002
94	0x3b113953	0.0022159412
95	0x3c27ff57	0.010253749
96	0x3b974c8e	0.0046172803
97	0xbc4c6249	-0.012474605
98	0xbc51ef86	-0.0128134545
99	0xbb8d1887	-0.0043059024
100	0xbb4e1c79	-0.0031450076
101	0xbb777989	-0.003776165
102	0x3be70689	0.0070503396
103	0x3bae8942	0.005326421
104	0x399b7d1d	0.0002965712
105	0xbca0246f	-0.019548623
106	0xbcb98cf8	-0.022650227
107	0x3d0a4a08	0.033762008
108	0x3cdc22e8	0.026872113
109	0xbbe79bce	-0.007068134
110	0xbbcde83c	-0.006283788
111	0xbbc93f32	-0.0061415667
112	0x3c3e4498	0.011613034
113	0x3c1b1123	0.009464535
114	0xbac0c7eb	-0.0014708018
115	0xbb98609f	-0.00465019
116	0xbb6659bc	-0.00351487
117	0x3c055e6c	0.008140188
118	0x3be0fc3d	0.0068660066
119	0xb9f1d40d	-0.00046125092
120	0xbcb2e826	-0.021839213
121	0xbca2dcfa	-0.01988076
122	0x3d0b8296	0.034060083
123	0x3cfa01eb	0.030518493
124	0xbb63b911	-0.003474776
125	0xbb43c436	-0.002987159
126	0xbb5d5ee3	-0.003377848
127	0x3b811c7c	0.003940163
128	0x3ba17f0d	0.0049284757
129	0xbb06dfc8	-0.0020580161
130	0xbc2b9727	-0.010473049
131	0xbc684d0b	-0.014178525
132	0x3ca03073	0.019554352
133	0x3c827067	0.015922738
134	0xbbf9ca9d	-0.0076230303
135	0xbc6e0bca	-0.014529178
136	0xbc8c2145	-0.017105708
137	0x3cd68aa1	0.02618915
138	0x3cb04696	0.021518033
139	0xbbc25a8b	-0.0059312037
140	0xbc0ad6f1	-0.008474098
141	0xbbab3b0b	-0.0052255443
142	0x3c20aa13	0.009806174
143	0x3c42016e	0.011841161
144	0xba5f066d	-0.00085077324
145	0x3a6c7ec7	0.0009021577
146	0xbb60fb68	-0.0034329537
147	0xba0997a1	-0.000524873
148	0x393b0105	0.0001783409
149	0xbb37a917	-0.002802437
150	0x3b3341fb	0.002735256
151	0xbc257382	-0.01009834
152	0x3bb487eb	0.0055093667
153	0x3a1e21a0	0.0006032232
154	0x3ae74a7e	0.0017646102

exp_avg_sq f4 [31, 5]
0	0x35890070	1.0207423e-06
1	0x34f1e811	4.50586e-07
2	0x37319724	1.0585212e-05
3	0x36c6171c	5.90355e-06
4	0x3588f92a	1.0205306e-06
5	0x36e10f47	6.707301e-06
6	0x370df08a	8.46026e-06
7	0x3836d44d	4.3589902e-05
8	0x37d3700e	2.520534e-05
9	0x360f94d3	2.1395288e-06
10	0x364bd6b6	3.0374335e-06
11	0x35f4a908	1.8228611e-06
12	0x37c09f93	2.2962491e-05
13	0x3767c773	1.3815111e-05
14	0x35a6aeb6	1.2418811e-06
15	0x355b4c79	8.169514e-07
16	0x34b6d36f	3.405398e-07
17	0x36d8b2a7	6.4580995e-06
18	0x366f5882	3.5665294e-06
19	0x35236ef1	6.0883673e-07
20	0x379b441d	1.8509158e-05
21	0x377ed6e1	1.518961e-05
22	0x38c8811b	9.560791e-05
23	0x389e8519	7.5588185e-05
24	0x36b4f4ad	5.392902e-06
25	0x36f057a2	7.162759e-06
26	0x372054c8	9.556483e-06
27	0x384e6cd7	4.9215592e-05
28	0x381492f2	3.5422803e-05
29	0x3666e4ee	3.4405925e-06
30	0x36afbddc	5.237509e-06
31	0x36d6546f	6.3875264e-06
32	0x381637fb	3.5814923e-05
33	0x37bff98d	2.288518e-05
34	0x365cb81c	3.288972e-06
35	0x36c7ca84	5.954238e-06
36	0x36a61f46	4.950826e-06
37	0x383155c2	4.2279957e-05
38	0x37f9862b	2.974559e-05
39	0x36130d24	2.1912356e-06
40	0x36d2bd5b	6.2805316e-06
41	0x36bb46aa	5.5812607e-06
42	0x37fed2c7	3.037731e-05
43	0x38028e75	3.112709e-05
44	0x367eee46	3.7987643e-06
45	0x3699c1fe	4.582339e-06
46	0x36cfa567	6.188336e-06
47	0x37a79abe	1.9980009e-05
48	0x37872694	1.6111218e-05
49	0x3646642d	2.956261e-06
50	0x35da52c8	1.6266358e-06
51	0x35a0eec1	1.1990415e-06
52	0x37354608	1.0804746e-05
53	0x36a5b31e	4.938235e-06
54	0x3583caf1	9.819324e-07
55	0x36ef36ef	7.12915e-06
56	0x37161e62	8.947771e-06
57	0x38205eb7	3.8235183e-05
58	0x37a921fc	2.0162195e-05
59	0x36606c04	3.3441474e-06
60	0x35c78002	1.486391e-06
61	0x3594621f	1.1055416e-06
62	0x37110f75	8.646272e-06
63	0x367c9877	3.7639672e-06
64	0x3569fee8	8.71702e-07
65	0x3557347f	8.0170133e-07
66	0x3513913e	5.497312e-07
67	0x36829468	3.8915787e-06
68	0x35f6bd98	1.8383607e-06
69	0x34cfa5d6	3.8677416e-07
70	0x3752b663	1.2559441e-05
71	0x36f5a05c	7.3202373e-06
72	0x3840d946	4.597872e-05
73	0x37b8b0a1	2.2016759e-05
74	0x3689bb03	4.104689e-06
75	0x3690455a	4.299608e-06
76	0x36a23a44	4.8347592e-06
77	0x3766eaa1	1.3763697e-05
78	0x36ce11b6	6.1413402e-06
79	0x368458af	3.9442307e-06
80	0x3693402f	4.3884133e-06
81	0x3699118f	4.5617994e-06
82	0x37378e8e	1.0940841e-05
83	0x3712f0cd	8.758344e-06
84	0x370046ae	7.645851e-06
85	0x36ab7956	5.1103225e-06
86	0x36bb4c05	5.581884e-06
87	0x37e04961	2.673705e-05
88	0x372f54f2	1.0450591e-05
89	0x369143a7	4.3292125e-06
90	0x35aa27f8	1.267762e-06
91	0x3670ff5e	3.591143e-06
92	0x3703d746	7.858331e-06
93	0x36617ce0	3.36003e-06
94	0x3698eadf	4.5572956e-06
95	0x36f4cf95	7.2959324e-06
96	0x3697b2d1	4.5209677e-06
97	0x376ccbf6	1.41141845e-05
98	0x376b5da2	1.4028892e-05
99	0x3701d450	7.738432e-06
100	0x36010c24	1.9229565e-06
101	0x3608a465	2.036127e-06
102	0x37c2bb34	2.3213775e-05
103	0x376dbb58	1.416992e-05
104	0x35a51d9c	1.2302075e-06
105	0x37bb9b71	2.236452e-05
106	0x37d1a0d1	2.4989627e-05
107	0x3903fb32	0.00012586711
108	0x38bb260e	8.923943e-05
109	0x36977e7b	4.514875e-06
110	0x368f1e8b	4.2652878e-06
111	0x365f250a	3.325115e-06
112	0x38130d56	3.505995e-05
113	0x37c2db57	2.322874e-05
114	0x35db9cf1	1.6362447e-06
115	0x364d0422	3.0549786e-06
116	0x35ea807b	1.7471751e-06
117	0x37cd2fef	2.4460225e-05
118	0x3782866b	1.55598e-05
119	0x35778430	9.220703e-07
120	0x3817854f	3.612536e-05
121	0x37dd66d9	2.6393145e-05
122	0x39326986	0.00017014713
123	0x391e4042	0.00015091992
124	0x372e88e9	1.0403085e-05
125	0x36b65e7c	5.435022e-06
126	0x37013010	7.70019e-06
127	0x3816b699	3.5932844e-05
128	0x381630c3	3.58082e-05
129	0x36789c4c	3.7045857e-06
130	0x37359bd0	1.0824719e-05
131	0x37825e1e	1.5541034e-05
132	0x389cf4aa	7.484232e-05
133	0x38653695	5.4648688e-05
134	0x36964762	4.4786584e-06
135	0x3782d034	1.559416e-05
136	0x37973c5e	1.8028713e-05
137	0x38e22250	0.00010782911
138	0x38a629c8	7.923279e-05
139	0x369ce373	4.675641e-06
140	0x371b17a2	9.244222e-06
141	0x36e56a17	6.8370823e-06
142	0x380cd798	3.357939e-05
143	0x383e3cdc	4.535621e-05
144	0x36a2f20d	4.8561546e-06
145	0x368314f6	3.9065444e-06
146	0x37004462	7.645316e-06
147	0x37dc2c4d	2.6246673e-05
148	0x37d17ddf	2.4973355e-05
149	0x36211c5c	2.4007377e-06
150	0x3754089b	1.2638188e-05
151	0x36f53aa9	7.308398e-06
152	0x379d746c	1.8770072e-05
153	0x37451127	1.1746109e-05
154	0x36d54217	6.3555885e-06

exp_avg f4 [31]
0	0xbc14f323	-0.009091171
1	0xbd18f5a5	-0.03734364
2	0xbcd9dbc7	-0.026594056
3	0x3a21d988	0.0006174077
4	0xbd4d2a57	-0.050089207
5	0xbcb99ce8	-0.022657827
6	0xbc885a76	-0.016644698
7	0xbcbfa066	-0.023391914
8	0xbc3106e9	-0.01080487
9	0xbb14aecd	-0.0022687197
10	0x373f6dfd	1.1410096e-05
11	0xbd28aaf6	-0.041178666
12	0x3bddcaa5	0.006768542
13	0x3c0318cc	0.0080015175
14	0xbd46521e	-0.048418157
15	0x3cbeb2d1	0.023278626
16	0x3c14c7d2	0.009080844
17	0xbc481867	-0.012212849
18	0x3c24cb66	0.01005826
19	0x3d007dac	0.03136985
20	0xbc979892	-0.018505368
21	0xbda71ad2	-0.081594124
22	0xbcf5f5bc	-0.030024402
23	0xbcb293c4	-0.021798976
24	0xbdb02001	-0.08599854
25	0xbc311cbb	-0.0108100725
26	0xbd4541ce	-0.04815846
27	0xbd85324c	-0.06503734
28	0xbcd494da	-0.025949884
29	0x3ace84a2	0.001575608
30	0xbc1fc327	-0.009751118
