Cancer-senn/trial5/models/cancer/grad3_Hinput_Thdummy_Reg1e-02_LR0.001/checkpoint.pth.tar (torch_old, 26436 bytes, 34 tensors)

parametrizer.linear1.weight f4 [10, 30]
000000 6b a3 e8 bd ce 80 16 bd 3c ba c6 3d 61 e5 09 3e
       -0.113592945 -0.03674393 0.0970349 0.13466407
000010 6a 9d 02 3e b2 45 2e be d6 59 38 be 10 cf b9 ba
       0.12755361 -0.17018774 -0.1800302 -0.0014176089
000020 7f 21 0d 3e 43 d5 67 bd ee de 2d bd dc 02 0e 3e
       0.13782309 -0.056599867 -0.04244893 0.13868278
000030 73 76 87 bd f0 e2 10 3e 95 c9 de bd c6 0f 16 3e
       -0.06614389 0.1414907 -0.108782925 0.14654455
000040 7f f9 01 3e 98 cd 21 3d 84 f7 90 bd 06 7e 2c 3e
       0.12692831 0.03950271 -0.0707846 0.16844949
000050 b8 75 62 be 1e b1 cb 39 4c d1 0c 3e c5 d9 6b bd
       -0.22115219 0.0003885114 0.13751715 -0.057580728
000060 38 54 86 3b 0a 88 13 be 70 87 c7 bd ed 7f 9c 3d
       0.004099395 -0.14407364 -0.097426295 0.076415874
000070 53 32 19 be 59 6b f7 bd 5c b6 58 3e 0d 2b 19 be
       -0.14960603 -0.12081022 0.21163315 -0.14957829
000080 42 7d 29 3c cc 4a d2 bb 9a c0 39 3e 00 88 49 3d
       0.010344805 -0.006417608 0.18139878 0.049201965
000090 6e ab c1 3d 62 6a 13 3d e7 30 04 3d 2c ae 2f 3e
       0.09456526 0.035990126 0.0322732 0.17156285
0000a0 bb 59 ee 3c 81 c5 e8 bd 50 2f 3c 3e 57 99 08 3d
       0.029095521 -0.11365796 0.18377423 0.03334936
0000b0 36 91 fa bd 7e 48 83 bc 3c 84 1a 3e fa ac 84 bd
       -0.12234728 -0.016025778 0.15089506 -0.06478305
0000c0 a8 30 2b 3e bd 5d 1a 3d 13 c0 c2 3d 51 be 3e bd
       0.1671778 0.037687052 0.095092915 -0.04656822
0000d0 ca fb 27 3e 1f 9e 4e 3e e1 13 3f 3e a9 a4 bb 3d
       0.16404644 0.20177506 0.18659927 0.09162266
0000e0 90 f6 95 bc 8d c7 4a bd 17 ca 26 3e b7 0a 1d 3d
       -0.018306047 -0.049506713 0.16288029 0.038340297
0000f0 cb c9 02 be 6e df e2 bd 59 ad e5 bd 97 44 75 bd
       -0.1277229 -0.11077772 -0.11214704 -0.059879865
000100 5d 63 11 3e 2d 56 db bd d5 8c 32 3e 49 73 ed 3d
       0.1419806 -0.10709796 0.17436536 0.115942545
000110 c3 28 3a 3e bf db 9e 3b 17 d8 52 3e be 23 12 3e
       0.18179612 0.004847973 0.20590244 0.14271447
000120 f7 23 11 be 45 93 f5 bd 22 8c 64 3d 58 7d ae b8
       -0.14173876 -0.1199098 0.055797704 -8.320314e-05
000130 0d c6 93 bd 01 48 42 3e 99 51 ec bc 36 8f 05 3d
       -0.072155096 0.1897278 -0.028847503 0.03260728
000140 79 e5 8d bc 88 1a aa 3c 65 92 82 3d 17 14 04 be
       -0.017321335 0.020764604 0.06375579 -0.12898289
000150 0c 0f 16 3e c2 73 6f 3d cd 82 06 be c2 3e aa bd
       0.14654177 0.058460005 -0.13135834 -0.08312751
000160 0c a7 32 be ad a9 cf bd 31 ca 0e 3d 8d c7 00 3e
       -0.17446536 -0.10139785 0.034860794 0.12576123
000170 24 20 9a 3d 14 2e d4 bd d9 ec 8e bd a1 0f 2c be
       0.075256616 -0.10360351 -0.06978769 -0.16802837
000180 8f 00 10 be 2d 76 61 bd bc e8 f5 bd 1d f2 03 3d
       -0.14062713 -0.05504434 -0.12007281 0.03221332
000190 9f a4 2e be fb d6 31 be 3b c6 42 3e e7 72 18 3e
       -0.17054985 -0.17367165 0.19020931 0.14887582
0001a0 eb 38 58 be 52 09 4e 3d a1 c1 e5 3d 20 af 56 3d
       -0.21115462 0.050301857 0.112185724 0.052413106
0001b0 75 55 97 bd 70 ef 35 3e dd f7 13 be e3 44 13 be
       -0.073893465 0.1776712 -0.14450021 -0.14381747
0001c0 b4 2d 9e bc 2a 04 e6 bd 1c 5e a4 3d ee 12 c1 bc
       -0.019308902 -0.11231263 0.080257624 -0.023568597
0001d0 00 21 31 3e 37 7e 40 be 10 ec e5 3d 47 fc 91 bd
       0.17297745 -0.18798147 0.11226666 -0.07128196
0001e0 79 75 ea bd c8 75 c5 bd 68 23 0b 3e fc a7 8d 3c
       -0.114481874 -0.096416056 0.13587725 0.017292015
0001f0 e6 e2 ec 3d a4 aa 25 3e a6 5c 80 bd c5 b5 f5 bc
       0.11566715 0.16178375 -0.06267671 -0.029993901
000200 a4 d8 28 be f0 b1 62 bd 51 9b 4b 3d bf c5 a7 bd
       -0.16488892 -0.055345476 0.04970867 -0.08192014
000210 b2 42 e6 3d 7b 3e c8 3d 14 71 59 3d b5 e7 58 be
       0.1124319 0.09777542 0.053086355 -0.21182139
000220 2c 1b e8 3d 60 35 b7 bd e8 0f 29 3e 14 07 1d 3d
       0.113333076 -0.08945727 0.16509974 0.03833683
000230 41 04 89 3c e2 98 13 be 0b d3 48 be 8b 66 53 be
       0.016725661 -0.14413789 -0.19611757 -0.20644586
000240 a7 4a a3 3c 8e 04 3e be 5f 16 3a be ce f5 1b 3e
       0.019933058 -0.18556425 -0.18172596 0.15230486
000250 5b 18 01 3e 47 86 08 3e 57 fb b4 3d bd 4b 00 3e
       0.12606947 0.13332473 0.08837002 0.12528892
000260 19 d9 e7 bc 72 11 e9 bd c9 19 0f 3e cc 0e 02 bd
       -0.028301762 -0.113802806 0.1397468 -0.031752393
000270 de 3a b1 bd c9 31 ca bd ed ca 0b 3e c5 dd 81 3d
       -0.08653806 -0.09872777 0.13651629 0.06341127
000280 72 f2 2f be 85 35 01 3c 97 ee 71 bd 65 33 7c bd
       -0.1718233 0.007886295 -0.059065428 -0.06157245
000290 dc 76 ce bd 55 e5 05 be c0 08 e6 bd 0a e3 e2 3d
       -0.100812644 -0.13075764 -0.11232138 0.110784605
0002a0 4a dd 9c 3d b7 da 0c be 52 e4 e7 bd 03 8c 46 3d
       0.07659395 -0.13755308 -0.113228455 0.04847337
0002b0 d2 47 de bc 62 95 ec bd cf 6c 95 3d c9 6a cd 3d
       -0.027133856 -0.1155193 0.07296144 0.10030133
0002c0 a0 fb 89 3d f5 3b 03 be de d0 d3 3d de 00 46 3d
       0.06737447 -0.1281584 0.10342573 0.04834067
0002d0 b4 a3 45 bd b4 d4 5e 3d c0 27 4c bd d6 4c a1 bd
       -0.048251823 0.05440207 -0.049842596 -0.078759834
0002e0 6f 9b c4 3d 0b ad 00 3e ea 66 f1 3c 73 b5 cf 3c
       0.09599959 0.1256601 0.029468019 0.025355076
0002f0 71 1f b2 3d 41 59 45 3e 67 62 38 3e ee 17 a6 bd
       0.08697403 0.19272329 0.18006288 -0.08110033
000300 66 f8 1d bd f6 f9 ab 3d 75 27 22 3d 34 54 b8 bd
       -0.03856697 0.08397286 0.03958841 -0.090004355
000310 66 fd 9f 3d 97 80 0f be d0 dd 3d 3d 0f 75 84 bd
       0.07812004 -0.14013897 0.046354115 -0.0646764
000320 07 5c ca 3d d7 f6 62 3e 9f a8 d9 3c a7 9e 5d 3e
       0.09880834 0.22164474 0.026569663 0.21642552
000330 91 7c 93 bd 0f 4e 44 3e ca cf 94 3c e7 c4 8f 3d
       -0.072014935 0.19170402 0.018165488 0.07019978
000340 60 f4 9a bc b7 82 61 bb 09 de 37 3d 3b 02 13 3d
       -0.018915355 -0.0034410188 0.044889484 0.0358908
000350 a0 5a bd 3d f4 3b 19 3e 24 44 32 bb e6 c1 30 3e
       0.09245801 0.14964277 -0.002720126 0.17261466
000360 d3 7b 7b bd 79 e6 54 3d 87 8d 11 3e 4b c4 3d bd
       -0.061397385 0.05197761 0.14214145 -0.046329778
000370 cf ce 1a 3e b0 63 80 bd 14 4e 56 3e 74 e8 9b bd
       0.15117954 -0.06269014 0.20928222 -0.07612696
000380 b4 5c 96 bd 73 65 45 3e 66 3a 14 be 7f 5c ba bd
       -0.073419005 0.19276981 -0.14475402 -0.090996735
000390 3d 81 2c 3e 99 70 1f bd a0 9a e5 3d cc 0c 23 be
       0.16846175 -0.03892574 0.11211133 -0.1592285
0003a0 cd 19 18 be 50 a0 1c be 86 d7 be bd dd e7 3b bd
       -0.14853592 -0.1529553 -0.093184516 -0.04587542
0003b0 2b 8d aa bd c5 63 d5 3d e1 38 7f bd 6b c1 dd 3d
       -0.08327707 0.1041942 -0.062310103 0.10827907
0003c0 bc 19 e4 3b 5f 94 a6 bc ae e7 b5 bc 6f 2b 30 be
       0.0069610756 -0.02033442 -0.0222052 -0.17204069
0003d0 90 45 48 be a0 cf cf bd 24 70 d3 3d 9f 37 f2 3d
       -0.19557786 -0.10147023 0.103241235 0.11827015
0003e0 b5 5f ac bd 79 51 25 3d c6 93 22 be d2 14 77 bd
       -0.08416692 0.0403609 -0.15876684 -0.06032259
0003f0 be 87 fa 3c 6b 14 39 3d cf 91 25 3e bd 99 2d 3e
       0.030582305 0.045185488 0.16168903 0.16953178

parametrizer.linear1.bias f4 [10]
000000 35 90 34 3e 2d 84 9a 3d a1 62 12 be fd f9 6f bd
       0.17633136 0.07544742 -0.14295436 -0.058588017
000010 a1 84 8c 3d 8c ef 72 3d d7 94 ee 3d 09 60 0b be
       0.068612345 0.05931048 0.11649483 -0.13610853
000020 38 4c 8c 3b d5 ac 0c be
       0.004281547 -0.13737805

parametrizer.linear2.weight f4 [10, 10]
000000 dc 4d 37 be 77 3c 67 3e b1 9d 2b 3e 90 86 26 be
       -0.17900795 0.2258166 0.16759373 -0.16262269
000010 76 1e 01 be cd 75 a9 be 5c 27 7b 3d 16 01 44 be
       -0.12609276 -0.33097687 0.061316833 -0.19141039
000020 59 47 61 3e b8 65 ba 3d 21 5a 94 be 69 c2 9b bb
       0.21999873 0.091014326 -0.28975013 -0.0047534
000030 11 cf 2d 3e cb ee a6 be 37 83 3e bd 07 47 a0 3e
       0.16973521 -0.3260406 -0.046511855 0.3130419
000040 29 dd 8d bd 6b 94 9f be c3 91 3d bd 51 50 3a bc
       -0.069269486 -0.3116792 -0.046281587 -0.011371688
000050 62 10 9c be e0 8f 94 3e f1 ba 14 3e 91 6c 0d 3e
       -0.3048125 0.29016018 0.14524437 0.13810946
000060 37 c1 2e be ea aa 27 bd 1d 0e 95 be 7f 4a af 3e
       -0.17065893 -0.04093448 -0.2911233 0.34236524
000070 ce 71 37 be e8 4b a6 3d df 8b 75 be cc 1f 5b 3e
       -0.17914507 0.08119947 -0.23979138 0.21398848
000080 58 39 8a 3e 99 29 12 3c 23 d6 03 3d 8a dc 17 bd
       0.26996875 0.0089210505 0.03218664 -0.037075557
000090 07 8a c2 39 57 fc e7 bd 70 df 37 be 42 cb 42 3e
       0.00037105402 -0.11327427 -0.17956328 0.19022849
0000a0 53 1a af bd 70 2f 8f 3a be 9a c4 3d 06 a9 86 3e
       -0.08549943 0.0010924172 0.09599827 0.2630083
0000b0 50 ff d7 3c 78 d6 46 be 0c 58 83 3d 8d 8d 0d 3e
       0.02636686 -0.19417751 0.06413278 0.13823529
0000c0 dc 36 aa 3e bf 58 42 bd 34 15 cd 3d bc b7 78 3d
       0.3324498 -0.047447916 0.1001381 0.060722098
0000d0 c6 89 57 3e e1 22 a0 3e 2a 46 79 be 47 e3 0f 3e
       0.2104865 0.3127661 -0.24343172 0.14051543
0000e0 7b 92 72 be 68 e2 18 3e 07 6d 70 3e c3 57 9d 3e
       -0.2368869 0.14930117 0.2347909 0.3073102
0000f0 eb f6 7a be d1 3a 84 3e 12 87 7d 3e 94 b4 9a be
       -0.24508254 0.25826123 0.24758556 -0.30215895
000100 be a9 94 be 65 4a b9 bd 8f 50 55 3e 62 5b 77 be
       -0.29035753 -0.09047393 0.20831512 -0.24155954
000110 51 b1 a8 bd 54 14 93 3e 21 f4 91 3e 85 0a 77 3e
       -0.082369454 0.28726447 0.28506568 0.24125107
000120 88 de 3c be 74 79 a3 be 50 c6 a3 bd 4e 84 69 be
       -0.18444264 -0.319286 -0.079968095 -0.22804376
000130 8f 08 54 be d6 90 9f be ce e1 08 be cf ce 47 3d
       -0.2070639 -0.3116519 -0.13367388 0.048781212
000140 41 d9 1d 3e eb a7 89 bc 2a 3f a2 3d 1b d4 1a 3e
       0.15414907 -0.016803702 0.07922204 0.15119974
000150 28 e4 9e be cc 76 51 be 35 07 4c be 5b 8c 61 3e
       -0.31033444 -0.20455474 -0.19924624 0.22026198
000160 32 8f 7b 3e 4c b7 e1 bd 19 48 94 3e ad 71 79 be
       0.24566343 -0.11021289 0.28961256 -0.2435977
000170 30 b6 25 be e9 5b 9c 3e 3c d0 76 3d 18 30 a3 3c
       -0.1618278 0.30538872 0.06025718 0.019920394
000180 7b 94 2e be 4b df a4 3c b8 c1 49 3c d5 0e a5 bd
       -0.17048828 0.020126006 0.012314253 -0.080594696

parametrizer.linear2.bias f4 [10]
000000 02 dc a8 bd f5 cf 27 3e 2f a2 28 3e f2 47 ac bd
       -0.08245088 0.16387923 0.16468118 -0.0841216
000010 5e 0b 0e 3e 86 11 4e be 83 eb 60 3e 5c 7f f6 bd
       0.13871524 -0.20123872 0.2196484 -0.120360106
000020 f4 ae a0 be d4 30 7a be
       -0.3138348 -0.24432689

parametrizer.linear3.weight f4 [5, 10]
000000 86 63 08 3e 94 73 a9 bd 9e e8 16 3e 67 37 4c 3e
       0.13319215 -0.08273998 0.14737174 0.1994301
000010 4c 15 2f 3b c0 87 f5 bd d0 c7 24 be 02 67 81 3d
       0.0026715575 -0.11988783 -0.16091847 0.06318475
000020 af c4 db bc 21 15 96 bd f9 27 86 3e 2c a3 83 be
       -0.026827184 -0.07328249 0.26202372 -0.25710428
000030 46 de 70 3d 60 45 ed 3d 04 68 05 3e 9a d9 a9 3e
       0.058805726 0.11585498 0.1302796 0.3317383
000040 19 34 d5 bd 9e 23 a6 3c f1 05 12 be 90 55 ac bc
       -0.104103275 0.020280655 -0.14260079 -0.021036893
000050 d6 ac b0 bd 9b 22 90 3e 44 66 b4 3d 21 e1 80 be
       -0.08626716 0.28151402 0.08808568 -0.2517176
000060 6c 66 63 3e c3 66 a0 be 10 4e 5e be 1d f6 7c 3e
       0.2220704 -0.313284 -0.21709466 0.2470326
000070 87 06 dc bd cd 80 86 3e ca bf 8b be 20 e3 64 3d
       -0.107434325 0.26270142 -0.2729476 0.055880666
000080 f2 76 4a 3e 4b 65 86 3e 3c 6b d0 bd 4d a3 ef bd
       0.19771937 0.26249155 -0.10176703 -0.11701069
000090 b4 6b a7 be 4e 3a 9e bd 85 2d 39 3e 4b 45 07 bd
       -0.32699358 -0.077259645 0.1808377 -0.033025067
0000a0 bd bd 8a 3e 94 08 18 be ae 33 48 be 6f 2c 1a be
       0.27097884 -0.14847022 -0.19550964 -0.15056013
0000b0 d2 ec 2c 3e 2a b3 8c 3e 57 87 b4 3d 89 eb 54 be
       0.16887215 0.2748044 0.088148765 -0.20792975
0000c0 c7 6f 90 3e 47 a5 05 be
       0.2821028 -0.1305133

parametrizer.linear3.bias f4 [5]
000000 82 2f f2 ba 05 83 ef 3d 08 ee 39 3e fb 0a a9 be
       -0.0018477293 0.11694912 0.18157208 -0.3301619
000010 03 69 95 be
       -0.2918168

parametrizer.linear4.weight f4 [31, 5]
000000 de c7 25 3e ec 52 bd be 9a 6d 5c be a4 7f 2d bd
       0.16189525 -0.36977327 -0.21526185 -0.042358056
000010 94 ed c2 be 77 2a 41 bd c9 01 c3 3e d7 3c 1b 3e
       -0.38071883 -0.04715964 0.380873 0.15159927
000020 ab 18 dc 3d f5 7d 82 3a 3d 88 bf 3e b5 7f bc 3e
       0.107468925 0.0009955751 0.3740863 0.36816183
000030 b5 24 89 3e 4a 4c c9 be d4 bb 23 3e 51 92 8c 3e
       0.26785818 -0.39316016 0.1598962 0.2745538
000040 9e 7a c7 3e 63 df 85 3e 30 db d6 be 2a 2b 9c 3d
       0.38960737 0.26146993 -0.41964102 0.076254204
000050 29 89 cd be bb c2 9e 3e 37 fa 20 3e 92 92 08 be
       -0.40143707 0.31007943 0.1572045 -0.13337162
000060 89 48 40 bc b9 4c e9 be 7e 40 3c 3e ba 38 df 3d
       -0.011736044 -0.45566347 0.18383977 0.108994916
000070 21 5b d9 3c 2b 88 74 be c4 1b 02 3e 1f 82 d7 be
       0.026532711 -0.23880069 0.12705904 -0.42091462
000080 9d 51 48 3d 50 96 61 3e 8a 10 af 3d 37 75 a8 be
       0.048905957 0.22029996 0.085480765 -0.32901928
000090 65 ce 81 3e 49 a4 d6 3e 60 f0 c9 be 1d 9f 9e be
       0.2535278 0.41922215 -0.39441204 -0.3098077
0000a0 db 4d 72 3e a0 4f 75 be 80 48 1a 3d c0 72 aa 3e
       0.23662512 -0.23956156 0.037666798 0.33290672
0000b0 7b 45 81 be 03 d7 6b be 6a 3a 7e be 3b fe 6f be
       -0.25248322 -0.23031239 -0.2482697 -0.23436825
0000c0 7d 2d 26 3d 2d 94 d1 bd bf 2c 99 bd 9f 2a 4b bb
       0.040570725 -0.102333404 -0.07479238 -0.0031000746
0000d0 2d 36 ea 3b 85 1d a5 be 6f e6 d0 be f3 36 95 3e
       0.0071475715 -0.32249084 -0.40800807 0.29143485
0000e0 1d 68 c7 3e a5 4e 63 3e 8e ea f6 bd 8a ef 14 3e
       0.3894662 0.2219797 -0.120564565 0.14544502
0000f0 dd 32 a9 3e e4 c5 b5 be 4c e6 91 3e 6a 2b b6 be
       0.33046618 -0.3550254 0.28496015 -0.35579997
000100 bc 64 7a 3e d9 8a aa be 44 74 bc 3e 63 6e 33 bd
       0.2445249 -0.33309057 0.36807454 -0.043806445
000110 a0 f1 80 3c 16 67 b3 be ed f4 1a 3e 2a e0 59 3d
       0.015740216 -0.35039586 0.15132494 0.053192295
000120 97 d1 a3 3e a8 95 2b 3e b7 94 4c bc c1 01 32 3d
       0.31995842 0.16756308 -0.012486628 0.043458704
000130 dd b3 82 3e ef ba 1c be 8a 5a a1 be 33 46 ca be
       0.2552785 -0.15305685 -0.31514388 -0.39506683
000140 cc aa cc 3e be 3d f0 be 2e 77 08 bc e1 4f c0 3e
       0.39974058 -0.46922106 -0.008329196 0.37560943
000150 fc 24 ed bb 55 da 9b bc a6 37 94 be 37 32 62 bd
       -0.007237075 -0.019025007 -0.28948706 -0.05522367
000160 72 e5 57 3e 97 26 d8 3d bf d1 d7 bd 77 c6 10 be
       0.2108362 0.105542354 -0.10538053 -0.14138208
000170 e5 9c 99 3e 4a ca d3 bd cd c6 a7 3d 6a c3 85 be
       0.30002514 -0.10341318 0.08192215 -0.26125652
000180 38 5f 0d 3b a1 09 93 3e e4 9c b6 be 73 af 84 3e
       0.0021571647 0.28718284 -0.35666573 0.25915107
000190 00 7d 5b be 81 96 b8 be 58 5e d5 3e 8c 8c cb be
       -0.21434402 -0.36052325 0.4167354 -0.39755666
0001a0 ef a1 22 3d ed e0 40 bc 2e fb 49 3e c8 cb a4 be
       0.039705213 -0.0117723765 0.19724724 -0.32186723
0001b0 c6 33 4e 3d 2d 63 d9 be 65 58 b5 be bc a6 98 be
       0.050342344 -0.42458478 -0.35419002 -0.29814708
0001c0 be da 77 3d 69 68 d0 be 2a 95 aa 3e 84 9d 4a bc
       0.060511343 -0.4070466 0.33316928 -0.012366656
0001d0 2d 5a 99 be 29 39 eb 3e 69 a9 6a be c7 62 c9 bd
       -0.2995161 0.45942047 -0.22916187 -0.098332934
0001e0 aa 5f c4 be 2d 8c 85 3e de 06 98 bd 3d e3 08 3e
       -0.38354236 0.26083508 -0.07423185 0.13367935
0001f0 a5 11 91 3e 8f 9b aa 3d 69 d0 ba bc 9b 5a 7b bd
       0.28333774 0.08330452 -0.022804456 -0.061365705
000200 f1 e8 af 3e 03 13 78 bd 03 07 3d 3e 38 4e 93 be
       0.34357408 -0.060565006 0.18459706 -0.28770614
000210 25 a1 70 3e 13 c6 8a 3e eb 51 8e be a1 18 b7 3e
       0.23498972 0.27104244 -0.27796873 0.35760978
000220 a6 6e 29 3d ec 3f 98 be 7a 33 8b 3c ef 29 1f 3e
       0.04136529 -0.2973627 0.01699232 0.1554334
000230 6c 82 59 3e a5 64 8f be 91 f0 eb 3e 80 02 e9 be
       0.21241158 -0.28006473 0.46081975 -0.4550972
000240 0e fb 91 be bf 85 a1 3e df 70 4f be 19 26 5c 3d
       -0.28511852 0.31547353 -0.202579 0.05374727
000250 d9 81 13 3c b7 2b a6 bd 05 c0 99 3e 7e 6e ee bd
       0.009003126 -0.08113807 0.30029312 -0.116421685
000260 fb 67 f9 be d1 75 9b be 91 b8 28 bd
       -0.48712143 -0.30363324 -0.04119164

parametrizer.linear4.bias f4 [31]
000000 14 bf 8e be 8d e6 32 3e 66 96 09 be e2 57 fa 3e
       -0.27880156 0.1747076 -0.13436279 0.48895174
000010 a2 75 b7 be 83 34 f0 3b b7 f5 f0 3d c7 6b 86 3e
       -0.35831934 0.0073304786 0.117656164 0.26254103
000020 f5 c0 74 be ee 24 31 3d 03 74 cd 3d de 9f 16 3e
       -0.23901732 0.04324811 0.10031893 0.14709422
000030 5f bd 8e 3e fa 6e 67 be e7 46 36 bd a8 7f 02 bd
       0.27878854 -0.22600928 -0.04450121 -0.031860024
000040 49 9d c0 3e 4a a9 41 3e c4 37 b1 be 7c 1a 9b 3d
       0.3762 0.18912235 -0.34612858 0.07573411
000050 15 65 9a 3e 1b 22 bf 3d 4c e3 e1 3e 96 9f 43 be
       0.30155244 0.09332677 0.44118726 -0.19103846
000060 1c bf d3 3d 05 5a dd 3e 34 94 98 be 88 f0 43 3e
       0.103391856 0.43232742 -0.2980057 0.19134724
000070 02 1b f2 bd ea d2 b0 3e 22 91 be 3b
       -0.118215576 0.34535915 0.005815641

exp_avg f4 [10, 30]
000000 04 50 0b 3b e4 65 46 3a 0c 46 02 3b 7b 5f 29 3b
       0.002125741 0.00075682835 0.0019878177 0.0025844264
000010 ac 77 5c 3b f6 10 bf ba 93 7a 8c ba 60 24 fa 3a
       0.0033640666 -0.0014577198 -0.0010717682 0.0019084327
000020 89 37 64 3a e8 b4 40 bb 12 c5 ba 3a e8 d9 60 ba
       0.0008705785 -0.0029404704 0.0014249405 -0.00085773924
000030 27 d7 ce b8 42 95 db 3a 3e f9 d2 39 3d 71 dc bb
       -9.862921e-05 0.0016752856 0.0004024002 -0.0067273662
000040 bd 43 b3 bb e3 45 45 bb e0 2f fc ba 7c 30 95 bb
       -0.0054707215 -0.003010147 -0.0019240342 -0.004552899
000050 12 af 3b 3b 06 fc e9 3a 22 e7 0b 3b fe de 35 3b
       0.0028638286 0.0017851598 0.0021347483 0.0027751322
000060 09 2c 8d 3b b5 84 2f bb 02 bc 37 bb 07 59 4d 3a
       0.004308228 -0.002678198 -0.0028035645 0.00078333955
000070 09 56 bd 3a fc 80 63 bb 51 3b 56 ba 07 1a 05 ba
       0.0014445196 -0.0034714332 -0.0008172291 -0.0005077426
000080 29 d0 4d ba d2 95 99 ba 5f 91 c8 ba bf 5e 2e 39
       -0.00078511477 -0.0011717624 -0.0015302113 0.00016629229
000090 83 d2 87 ba 7f 68 ab ba 13 57 26 ba f7 f3 55 39
       -0.001036242 -0.0013077407 -0.00063453725 0.00020404147
0000a0 ff 77 af ba 70 c3 99 3a 28 5d 22 ba 04 c3 76 ba
       -0.0013387202 0.0011731219 -0.0006193691 -0.0009413215
0000b0 85 24 49 ba 3d 82 ba 3a 47 e3 af 38 ce 85 a2 39
       -0.00076729833 0.0014229488 8.386984e-05 0.0003099874
0000c0 d7 7e 11 3a 80 b4 67 b9 8f 3f c9 ba 4f 42 8a ba
       0.00055502116 -0.00022097118 -0.0015354025 -0.0010548326
0000d0 e4 e6 96 ba d9 d5 b7 ba c1 02 13 bb 83 3b 3a 3a
       -0.0011512903 -0.0014025524 -0.0022432061 0.0007104205
0000e0 99 1c 30 ba c8 ba 6c ba 91 b7 a8 ba a2 57 2e 3a
       -0.00067181286 -0.0009030518 -0.001287209 0.00066506315
0000f0 73 d8 62 ba 08 f7 90 b8 0b ef 58 ba f8 dd e8 ba
       -0.0008653469 -6.912468e-05 -0.0008275366 -0.0017766347
000100 18 20 00 3b 64 e3 f3 3a 6c ea 95 b9 82 23 d1 39
       0.001955038 0.0018607196 -0.00028594153 0.00039890042
000110 0a 09 72 b9 7e 7a 59 3a fd 92 0a bb da b8 1b 39
       -0.00023082286 0.0008296146 -0.002114474 0.00014850814
000120 df 6c d2 ba ca ca fa ba cc 8a d2 3a c1 bc 8e 39
       -0.0016054175 -0.0019133922 0.0016063093 0.00027224983
000130 d9 0f 84 ba 99 e4 9c 3a 54 84 d2 3a 47 b0 69 bb
       -0.0010075524 0.0011969983 0.0016061165 -0.0035658048
000140 72 4a 02 bb 06 d2 18 ba b0 64 c4 ba 49 bd 10 bb
       -0.0019880799 -0.0005829636 -0.001498362 -0.002208548
000150 f6 f2 2c 3a 82 e4 f1 3a 72 d6 af b8 66 26 82 3a
       0.00065974833 0.0018454941 -8.384594e-05 0.0009929657
000160 81 2f 83 b8 51 c8 3b 3a 12 b9 91 3a 7e 0c 7a 3b
       -6.255415e-05 0.00071633334 0.0011117777 0.0038154419
000170 10 c8 95 3a 78 14 29 3a 29 90 cf 3b 2e 47 30 3b
       0.0011427421 0.00064498885 0.006334324 0.0026897895
000180 05 ac 0a 3b 75 34 83 3b 37 ff bf 3a 38 f5 65 ba
       0.002115966 0.004004056 0.0014648204 -0.0008772197
000190 30 60 ce 3a 89 68 ca 3a f0 17 92 3a c6 81 2a 3a
       0.0015745219 0.0015442531 0.001114605 0.0006504323
0001a0 93 e9 b4 3b ce 82 9c ba 82 c2 7f ba ec d1 51 3b
       0.0055210083 -0.0011940838 -0.0009756462 0.0032015992
0001b0 48 da 06 3b 78 18 b1 bb 65 55 9a 3a 23 84 6f 3b
       0.0020576883 -0.005404528 0.0011774717 0.0036547265
0001c0 d0 79 a3 3a 25 2a 44 3a 2b eb da 3b f3 5f 2b 3b
       0.0012472216 0.00074830867 0.0066808662 0.002614972
0001d0 5a 67 fb 3a 94 87 8e 3b f9 41 57 3b 0d 3c 00 39
       0.0019180581 0.0043496583 0.003284572 0.00012229402
0001e0 88 cb dc 38 84 3d c4 3a d3 fe c4 38 1d de 5d 3a
       0.00010528328 0.0014971946 9.393473e-05 0.00084635784
0001f0 00 41 23 bb fe 3f a5 ba 3d c6 dc 3a 6f 71 ef b9
       -0.002491057 -0.0012607572 0.0016843748 -0.00045670147
000200 66 18 f8 39 78 38 55 37 63 19 09 3b 79 4d b6 3a
       0.00047320424 1.2708937e-05 0.0020919673 0.0013908587
000210 c6 ce 20 3b 26 17 c3 3a e8 f0 9b ba 00 7a 51 3a
       0.002453731 0.0014884218 -0.0011897357 0.00079908967
000220 85 c4 84 3b 43 1f 0c 3a 4a e1 93 b8 ef d0 ee 3a
       0.0040517473 0.00053452345 -7.0514696e-05 0.0018220226
000230 c4 81 8f 3a 92 68 f6 3a 02 c9 7b 3a d7 c1 b3 3a
       0.0010948707 0.0018799475 0.00096048426 0.0013714385
000240 12 a1 c2 ba 65 b1 0e ba e1 3b 0f 3b dd 63 03 ba
       -0.0014849028 -0.0005443304 0.002185576 -0.0005012134
000250 6b e2 a1 39 e0 27 c8 39 f9 49 f9 b9 dc 06 32 ba
       0.00030877008 0.00038176682 -0.00047548095 -0.0006791183
000260 35 35 15 ba 42 34 ef 38 3d 32 51 ba b5 5c 7b ba
       -0.00056918274 0.00011406142 -0.00079802034 -0.00095887046
000270 5f 25 16 ba 1f 05 d3 ba 96 f1 34 3a 71 16 b1 3a
       -0.00057276146 -0.0016099549 0.0006902454 0.0013510716
000280 d1 c6 c5 39 b1 f7 2f bb 40 dc 99 3a 0c 38 90 39
       0.00037722898 -0.0026850516 0.0011738613 0.00027507578
000290 e4 48 df 39 69 fa a8 3a 0c d0 2f 3b 71 85 49 3a
       0.00042588182 0.0012892011 0.0026826886 0.0007687426
0002a0 f9 16 6c ba 42 8f aa 3a e0 b4 eb b8 c1 f5 7b ba
       -0.0009006109 0.0013012665 -0.00011239364 -0.00096115103
0002b0 52 70 df b8 43 df 81 39 12 e1 47 b9 25 54 b9 b9
       -0.0001065439 0.0002477114 -0.00019061964 -0.00035348642
0002c0 18 67 67 3a ab 3f 85 ba 6c 4a 22 3a e1 e0 91 39
       0.0008827313 -0.0010166069 0.00061908993 0.00027824103
0002d0 90 7e 1d ba f4 56 42 bb 0d bd 10 ba 2f 0a 8e ba
       -0.0006007934 -0.002965388 -0.0005521335 -0.0010836775
0002e0 f4 fe b9 b9 d2 00 15 3a b5 a7 e6 ba 3d 9f 87 ba
       -0.00035475905 0.0005684021 -0.0017597588 -0.0010347139
0002f0 df 76 b2 ba 20 d1 89 3a 97 1f a3 ba 2a d5 cb ba
       -0.0013615749 0.0010514595 -0.0012445328 -0.0015551199
000300 75 63 c6 ba e4 e3 8d ba be 20 af ba 45 6c b3 3a
       -0.0015135842 -0.0010825363 -0.0013361198 0.0013688883
000310 1a 2a 04 bb 2d 7c 6a ba 9c 80 c4 3a e3 52 35 3b
       -0.0020166696 -0.0008944895 0.0014991942 0.0027667813
000320 7c 36 c1 ba 42 ce 70 bb c2 63 b2 ba c9 cf d2 ba
       -0.0014740969 -0.0036744033 -0.0013610052 -0.0016083653
000330 0d af 1e bb dd ba 41 ba 50 42 23 bb 34 c6 d4 ba
       -0.0024213225 -0.00073902105 -0.0024911352 -0.0016233386
000340 42 13 eb ba 26 9e a5 b9 a9 f7 84 b9 da 92 08 3b
       -0.0017934816 -0.00031589082 -0.00025361523 0.0020839483
000350 8d c9 7a b9 03 55 18 ba d9 b8 d1 3a 7f 0e 8a 3a
       -0.00023916941 -0.00058110076 0.0016000523 0.0010532885
000360 93 6d 7d 3a 0c 90 62 3a 44 ee 51 39 e6 a0 56 b9
       0.0009667512 0.00086426805 0.00020020554 -0.0002046857
000370 d0 2d b7 ba ce 31 ff b7 7f 7f 33 ba bd d4 92 ba
       -0.0013975445 -3.0421561e-05 -0.00068473065 -0.0011202317
000380 f3 ae 62 3b c3 57 51 3a af 99 8f 3a db 33 07 3b
       0.003458914 0.0007985795 0.0010955835 0.0020630274
000390 e7 ad 20 ba 08 76 46 bb 30 72 13 ba 09 2d d1 3a
       -0.0006129429 -0.0030282754 -0.000562462 0.0015958856
0003a0 0e bf 9f b9 a7 09 24 ba 37 fd 1d 3b 7c 0d ff 3a
       -0.0003046919 -0.0006257542 0.0024107227 0.0019458975
0003b0 de 47 f9 3a 69 56 e0 3a 9c 5e 97 3a 9b 52 67 3a
       0.001901861 0.0017115596 0.0011548582 0.000882426
0003c0 c0 75 02 3b 39 4e 8e b9 f6 96 06 3b 36 ce a0 3a
       0.001990661 -0.0002714263 0.0020536757 0.0012268487
0003d0 8c 1e 17 3c 28 5b 56 3b 64 e1 3f 3a 4c 62 b2 3b
       0.009223592 0.0032708142 0.00073196576 0.005443847
0003e0 fa 52 e7 3a 81 3d 43 ba 32 c2 fd 38 03 93 23 39
       0.001764863 -0.00074478245 0.00012100152 0.00015599657
0003f0 c1 85 0b bb 4c 50 ad 39 81 cc 24 3b cd 49 c0 bb
       -0.002128944 0.00033056957 0.0025146308 -0.0058681727

exp_avg_sq f4 [10, 30]
000000 e6 99 81 36 ff f6 f6 35 ea b8 7b 36 8b 56 8a 36
       3.8624157e-06 1.8400314e-06 3.7509549e-06 4.1227954e-06
000010 dc 6d 95 36 f2 e2 aa 35 17 39 94 35 66 be 48 36
       4.4533354e-06 1.2732037e-06 1.1043475e-06 2.991315e-06
000020 02 84 07 36 21 74 14 36 23 d3 8c 36 0e 34 5e 36
       2.0193406e-06 2.2121314e-06 4.1969047e-06 3.3110878e-06
000030 d0 1d 2e 36 93 70 27 36 93 e2 34 36 49 eb c7 36
       2.5945374e-06 2.4950466e-06 2.6953974e-06 5.958053e-06
000040 d2 a9 c7 36 e9 cc 1c 36 23 f6 83 36 e5 d8 9a 36
       5.950432e-06 2.3365085e-06 3.9327583e-06 4.6148075e-06
000050 56 db 9c 36 a1 45 07 36 4a bd 88 36 f3 41 83 36
       4.6746964e-06 2.0157097e-06 4.075152e-06 3.9117817e-06
000060 69 1e 83 36 14 97 87 35 bb 7d c3 35 1e ec 07 36
       3.9076444e-06 1.0102253e-06 1.4565225e-06 2.0254006e-06
000070 97 79 c3 35 07 2a 16 36 da 3b b1 35 27 41 70 35
       1.456402e-06 2.2376205e-06 1.3204947e-06 8.9501776e-07
000080 a8 8e ac 35 38 6e b8 35 69 37 b2 35 2e a8 0c 35
       1.2856517e-06 1.3741146e-06 1.327816e-06 5.23988e-07
000090 fd 23 55 35 f3 e1 9e 35 97 3e 94 35 20 e3 7a 35
       7.9401053e-07 1.1837677e-06 1.1045075e-06 9.346277e-07
0000a0 4d 7e 52 35 4d b8 9d 35 7d b0 07 35 16 6c 29 35
       7.841489e-07 1.175105e-06 5.0548243e-07 6.311469e-07
0000b0 23 57 a2 35 58 dc 03 36 76 f4 4a 35 ac bc a9 34
       1.2095301e-06 1.9648778e-06 7.56066e-07 3.161598e-07
0000c0 27 5d 65 35 bc 4f 2f 36 ff 87 cf 35 b8 80 7e 35
       8.54447e-07 2.6123444e-06 1.5462282e-06 9.4809684e-07
0000d0 7f ae b5 35 6c 50 aa 35 00 d3 e0 35 ca c9 a1 34
       1.3536336e-06 1.2689393e-06 1.675071e-06 3.0135408e-07
0000e0 fb 1d 07 35 43 75 6f 35 b7 de 9f 35 bf 81 d0 34
       5.0335046e-07 8.9205076e-07 1.1911242e-06 3.8837422e-07
0000f0 36 03 1a 36 b9 dc 3f 36 ba b7 29 36 88 ed 3f 36
       2.2949657e-06 2.8589695e-06 2.5289905e-06 2.859948e-06
000100 11 8c 47 36 01 b1 d5 36 7c 26 19 37 78 5b 8d 36
       2.973484e-06 6.3685006e-06 9.128471e-06 4.212776e-06
000110 71 51 17 37 7b 19 94 36 b1 42 da 36 fe 56 9d 36
       9.019263e-06 4.41371e-06 6.50467e-06 4.689092e-06
000120 1f 2e 88 36 a8 a0 43 36 6e 79 0b 36 57 64 64 37
       4.058485e-06 2.9150779e-06 2.0783295e-06 1.3613221e-05
000130 21 be 82 37 03 d1 22 37 84 6b 26 37 89 df cc 37
       1.5585743e-05 9.704617e-06 9.919404e-06 2.4422787e-05
000140 99 3c 52 36 91 f8 1e 36 07 78 52 36 9e c8 42 36
       3.132771e-06 2.368852e-06 3.1362304e-06 2.9025027e-06
000150 30 5b e1 35 ac 40 9b 36 08 91 fa 36 f4 6c 68 36
       1.6790345e-06 4.6268888e-06 7.4674645e-06 3.4634113e-06
000160 1f da 1c 37 97 e1 7a 36 51 f2 7f 35 f7 b8 b9 36
       9.34911e-06 3.7384214e-06 9.534752e-07 5.5349624e-06
000170 07 d1 a2 35 6d 6d 53 35 2c 51 f6 36 c1 4e e4 36
       1.2130776e-06 7.876286e-07 7.340821e-06 6.8040977e-06
000180 9b f6 c7 36 8a c2 64 36 85 1c 86 36 e4 2f 51 36
       5.959371e-06 3.4087884e-06 3.9968313e-06 3.1171303e-06
000190 ac ed c4 36 18 75 3f 37 02 8a 51 36 9c 27 b1 35
       5.868924e-06 1.141175e-05 3.1223758e-06 1.3199056e-06
0001a0 94 65 84 36 36 6d 32 37 f2 a1 f8 36 0e 36 e4 36
       3.945732e-06 1.0635054e-05 7.409829e-06 6.8012223e-06
0001b0 04 e2 21 37 1b 28 9a 37 38 00 97 35 ce c1 cc 36
       9.648971e-06 1.8376906e-05 1.125044e-06 6.1022356e-06
0001c0 1a 34 bd 35 29 27 6e 35 13 a4 21 37 b6 17 95 36
       1.4096761e-06 8.8718895e-07 9.634549e-06 4.4433064e-06
0001d0 ec ba a4 36 f4 91 6c 36 87 bd 4e 37 95 f3 3f 36
       4.9093414e-06 3.5251696e-06 1.2322685e-05 2.8603001e-06
0001e0 2c 59 89 35 7c 6b 85 35 56 c9 9a 35 16 db 95 35
       1.0233248e-06 9.940554e-07 1.1532491e-06 1.1165127e-06
0001f0 b6 5e e2 35 84 f2 aa 36 28 03 01 37 da 68 0e 36
       1.6865877e-06 5.0946273e-06 7.689734e-06 2.122068e-06
000200 34 96 de 36 b0 63 99 36 ee e7 f1 35 6e b7 b3 35
       6.6336015e-06 4.5713605e-06 1.80234e-06 1.3389924e-06
000210 0f e0 16 36 be a9 84 35 a9 e5 22 35 22 2e 1e 37
       2.248216e-06 9.884168e-07 6.06839e-07 9.428275e-06
000220 64 c1 91 37 57 4c b7 36 3e 2e aa 36 d9 2e 11 37
       1.7375402e-05 5.462712e-06 5.071778e-06 8.653581e-06
000230 8b 9f 96 35 5d fc 51 35 91 33 af 35 4e 3a 8b 35
       1.1222304e-06 7.8225804e-07 1.3053524e-06 1.0373276e-06
000240 0e a6 81 35 a5 aa 8d 36 72 11 e8 36 f7 ad 0c 36
       9.659577e-07 4.221993e-06 6.9161697e-06 2.0962887e-06
000250 d6 9f e8 36 bb b6 7f 36 70 08 a1 34 a0 39 11 35
       6.932746e-06 3.8104324e-06 2.9994726e-07 5.4100565e-07
000260 3a 75 8b 34 09 72 4f 34 bb ce ae 35 15 32 f8 35
       2.597606e-07 1.9319863e-07 1.3024177e-06 1.8492016e-06
000270 b1 e0 b4 35 01 b2 19 35 6d 26 f7 35 f4 be 6a 36
       1.3476439e-06 5.725597e-07 1.8414117e-06 3.4979867e-06
000280 00 d5 1e 35 85 e8 41 36 74 5b 07 35 01 56 21 34
       5.916954e-07 2.8894585e-06 5.04245e-07 1.5025581e-07
000290 38 61 94 35 5b 71 59 36 01 e2 8a 36 f6 99 96 35
       1.1055154e-06 3.2401501e-06 4.139031e-06 1.1220679e-06
0002a0 58 cd 99 35 3a d3 57 36 3c d7 69 34 44 55 3a 35
       1.1459151e-06 3.2160447e-06 2.1778118e-07 6.941448e-07
0002b0 fe d9 56 34 1d 88 fe 33 a3 7b 8b 35 9e 99 f3 35
       2.0009608e-07 1.18525556e-07 1.039229e-06 1.8149619e-06
0002c0 ea 94 0f 36 46 bc 81 35 e7 49 cd 35 03 68 49 36
       2.139534e-06 9.666044e-07 1.5295199e-06 3.0011877e-06
0002d0 d0 54 93 35 a5 d6 a2 35 34 11 8a 35 d2 ed 81 35
       1.0977037e-06 1.213241e-06 1.0286808e-06 9.680464e-07
0002e0 18 37 78 35 7a 63 49 36 08 dd 57 37 d7 27 13 36
       9.246737e-07 3.0009237e-06 1.28664615e-05 2.1927897e-06
0002f0 84 45 1c 37 92 4e 48 37 64 b4 12 36 bd 2a 80 36
       9.31451e-06 1.19392225e-05 2.1860697e-06 3.8196727e-06
000300 9d 21 e5 35 82 d7 55 35 35 b5 16 36 58 55 83 37
       1.7071612e-06 7.966229e-07 2.2457218e-06 1.5656158e-05
000310 e0 c1 83 38 a6 43 a9 37 56 a0 92 36 85 40 2e 38
       6.282679e-05 2.0177871e-05 4.3698046e-06 4.154492e-05
000320 21 26 a2 35 59 80 c1 35 f2 af 9c 35 66 78 85 35
       1.2081038e-06 1.4416975e-06 1.1674113e-06 9.944313e-07
000330 ca f7 db 35 c8 97 db 35 3c 22 14 37 22 df 19 36
       1.6388888e-06 1.6360946e-06 8.829458e-06 2.2928657e-06
000340 09 7e 3d 36 7c 8e bd 36 b7 b9 06 35 e0 62 ef 35
       2.8236557e-06 5.6492263e-06 5.018914e-07 1.7835664e-06
000350 75 49 1e 35 70 ca f6 34 0c c4 32 36 67 b5 1a 36
       5.896648e-07 4.5968363e-07 2.6638181e-06 2.3053378e-06
000360 b9 27 0c 36 49 1f 89 35 64 0d 24 35 df 15 f3 35
       2.0884747e-06 1.0216401e-06 6.1114247e-07 1.8111276e-06
000370 50 9a 4d 36 a0 ef 99 36 9d 9f b6 35 50 f7 65 35
       3.0637202e-06 4.5876513e-06 1.360651e-06 8.5669035e-07
000380 19 39 fd 35 6b eb 0d 37 43 26 65 36 40 fa 8a 36
       1.8866587e-06 8.459067e-06 3.414593e-06 4.1418534e-06
000390 69 86 af 36 92 03 9f 37 d9 46 08 35 a5 35 f3 35
       5.231054e-06 1.895594e-05 5.0767045e-07 1.8120523e-06
0003a0 5a 16 1b 35 d3 62 eb 34 61 47 92 36 e6 52 a9 35
       5.7774525e-07 4.3844065e-07 4.3594487e-06 1.2615608e-06
0003b0 8c 26 cc 35 92 f1 b4 35 b9 be 6c 36 b3 d2 70 35
       1.5210403e-06 1.3481351e-06 3.5277756e-06 8.9713575e-07
0003c0 cd 00 25 36 26 e9 06 36 da 10 24 36 01 4b ca 35
       2.4587382e-06 2.0103266e-06 2.4447713e-06 1.5072002e-06
0003d0 cc 56 4d 37 bb 50 4c 37 75 6d 69 37 0d 32 b0 36
       1.2239161e-05 1.2178144e-05 1.3913367e-05 5.2510354e-06
0003e0 f8 b9 76 37 2e 5d 8f 37 2c a3 69 35 0c 92 be 36
       1.4706042e-05 1.7090319e-05 8.703671e-07 5.6794433e-06
0003f0 7f 66 a9 35 66 b6 91 34 26 35 c8 35 f1 06 ec 37
       1.2621311e-06 2.7141067e-07 1.4916629e-06 2.8136625e-05

exp_avg f4 [10]
000000 ff 10 90 bb 42 81 8e 3a 78 c8 06 3c dc d1 b0 3b
       -0.0043965573 0.0010872262 0.008226506 0.005396111
000010 26 aa c2 bb 35 8e 6b bb 3b 3c 1a 3b b9 d7 8e 3b
       -0.0059406934 -0.0035942916 0.0023534435 0.0043592122
000020 1f bf ec 3b b6 d9 c1 3b
       0.007224932 0.0059158457

exp_avg_sq f4 [10]
000000 a7 86 8f 37 9c 55 90 36 3f a4 d8 37 75 ac 78 37
       1.710963e-05 4.3015007e-06 2.582569e-05 1.4822105e-05
000010 01 70 34 37 d2 7e 1d 36 27 7b 7a 36 26 db 09 37
       1.0754914e-05 2.3468642e-06 3.7324587e-06 8.216861e-06
000020 b7 11 3e 37 f8 78 93 37
       1.1329007e-05 1.7580096e-05

exp_avg f4 [10, 10]
000000 8c 6b c0 b9 22 72 bd ba 05 23 d1 b8 c3 4e f0 bb
       -0.00036701222 -0.001445357 -9.9724195e-05 -0.007333608
000010 1a a9 6d 3a 4a 0b 41 3b 13 87 c2 3a 90 e6 62 39
       0.00090660306 0.0029456192 0.0014841281 0.00021638931
000020 68 c9 4e bb 2c 26 4d bb eb 23 d3 b9 ed 78 14 3b
       -0.0031553153 -0.003130327 -0.00040271817 0.0022655085
000030 ec f0 32 3a bf 51 a2 3b 59 09 6c ba f8 dd 20 bb
       0.0006826061 0.0049535926 -0.00090040785 -0.0024546366
000040 84 12 e2 ba 20 0b f1 b9 54 32 44 3a 4c 13 43 3b
       -0.001724795 -0.0004597539 0.0007484306 0.002976614
000050 f3 46 5a ba 7b 88 f4 b9 52 07 7a ba 95 a0 c7 3a
       -0.00083266123 -0.00046640993 -0.0009537834 0.0015230352
000060 f5 bc 73 bb f7 f8 e3 ba 79 15 b9 3a 01 d9 4f ba
       -0.0037191485 -0.0017392923 0.0014120779 -0.00079287594
000070 32 01 09 3b df 04 f3 3a 5f 2a 99 b8 96 d0 23 bb
       0.0020905253 0.001854088 -7.303501e-05 -0.0024996153
000080 66 66 14 bb 1d 1e c7 3a 83 67 30 bb 7f 8f 93 39
       -0.0022644042 0.001519147 -0.0026917167 0.00028144938
000090 97 2a e6 3a 94 04 bd ba 62 1d 66 3b 27 36 2b b7
       0.00175603 -0.001442092 0.0035112728 -1.0205003e-05
0000a0 f3 fd ff ba 65 22 86 3a 7a 9c c3 3a 66 ed b7 bb
       -0.0019530639 0.0010233639 0.0014923953 -0.005613017
0000b0 60 ac 8e 38 23 1e b4 3a 58 dd d1 3a 79 70 2b ba
       6.803195e-05 0.0013741892 0.00160114 -0.0006539892
0000c0 3f a6 66 bb 86 07 ec ba 44 4e e8 b9 6b 45 d6 ba
       -0.0035194305 -0.0018007613 -0.000443088 -0.0016347592
0000d0 c9 63 49 3b 6f a2 33 bc d6 7e 7a 3b aa 85 d1 3b
       0.0030729643 -0.01096402 0.0038222573 0.006394108
0000e0 8a fc 40 3b 98 85 1a 36 36 19 92 bb 8a d3 ce bb
       0.00294474 2.302555e-06 -0.004458572 -0.0063118385
0000f0 68 6d 34 3b 01 9b 11 39 5c 69 bd 38 da ec d8 3a
       0.0027531032 0.00013886021 9.031847e-05 0.001655008
000100 20 ca 8d 3b b1 60 e9 39 14 b4 50 bb 32 55 25 3b
       0.0043270737 0.00044513264 -0.0031845616 0.0025227782
000110 9a 88 62 ba db d4 ab 38 d3 8a 67 ba ba bc 5c 3a
       -0.0008641571 8.193563e-05 -0.0008832637 0.00084204564
000120 3e 55 bd b9 f9 b2 6b 3a 1d 42 2a bb 64 98 1a bb
       -0.000361124 0.00089912076 -0.0025979348 -0.0023589367
000130 d2 21 ad b9 f6 40 7f 3a ef 21 51 ba 9f 56 2d 3b
       -0.0003302233 0.0009737158 -0.0007977774 0.0026449335
000140 30 a1 92 3a 33 6d 00 ba 7f 2a c0 37 a6 70 29 3b
       0.0011186954 -0.00048990845 2.2907972e-05 0.0025854497
000150 65 b8 b5 3a 0c 77 db 39 1a ba 44 ba 89 4d 1b bb
       0.0013864158 0.00041859632 -0.0007504538 -0.0023697338
000160 f3 43 3a 3b d8 d8 d2 ba 7f 16 ce ba 57 c1 7c 3b
       0.0028421849 -0.0016086353 -0.0015723257 0.0038567388
000170 d0 e6 07 3b 84 f4 ad ba fb 7d 4e 39 a4 09 e9 ba
       0.002073694 -0.0013271724 0.00019692622 -0.0017779362
000180 df fa a0 3a 76 56 03 3b 23 9a 3b bb 6b 55 3e 3b
       0.0012281797 0.0020040548 -0.0028625808 0.0029042612

exp_avg_sq f4 [10, 10]
000000 b6 f3 a7 36 e6 cb c4 37 68 36 55 36 70 12 73 37
       5.0053595e-06 2.3459968e-05 3.1771142e-06 1.44882215e-05
000010 ff 0d 0d 36 a5 3f ee 36 1a 07 a4 36 ad 60 5c 36
       2.1018784e-06 7.100362e-06 4.8884076e-06 3.2838827e-06
000020 97 02 4e 36 ae 8a c8 37 90 4b 9b 36 f1 f0 bd 37
       3.06979e-06 2.3906436e-05 4.6281566e-06 2.2642753e-05
000030 24 75 93 36 7c f6 09 37 4e 62 cb 36 cb f1 55 37
       4.3945784e-06 8.223225e-06 6.0613156e-06 1.2752086e-05
000040 78 a6 6a 36 c2 5f 76 36 2d 42 50 36 ee 25 d1 37
       3.4965615e-06 3.6712595e-06 3.1032935e-06 2.4932404e-05
000050 dd 45 72 35 e8 44 34 36 f7 24 40 36 ae 0e 39 36
       9.025369e-07 2.68622e-06 2.8631746e-06 2.7575693e-06
000060 d3 4a b3 35 a4 bb 1e 36 59 c5 62 35 87 4e 20 36
       1.3358316e-06 2.3653056e-06 8.447874e-07 2.3887567e-06
000070 07 be 5d 36 f8 bd 95 36 7c 3b ae 36 12 6f fb 36
       3.3042177e-06 4.4626613e-06 5.192529e-06 7.493313e-06
000080 af b8 7c 36 a3 9e 96 36 46 b5 d5 36 97 b4 0c 37
       3.7658426e-06 4.488816e-06 6.3689977e-06 8.386697e-06
000090 0d cc 02 36 2a 0a 0a 37 6c 52 09 37 ad 89 08 37
       1.9490283e-06 8.2278075e-06 8.185027e-06 8.138287e-06
0000a0 b4 7d af 35 08 03 5a 36 8f 2a 64 35 da 9b 93 36
       1.30751e-06 3.2486296e-06 8.499855e-07 4.399085e-06
0000b0 9c 50 66 35 71 30 be 35 e2 80 b6 35 04 05 6e 35
       8.579898e-07 1.4170201e-06 1.3597567e-06 8.866921e-07
0000c0 e1 92 ab 35 19 4f 0c 36 91 0b 43 37 7b ed 55 38
       1.278324e-06 2.0907667e-06 1.1625599e-05 5.100433e-05
0000d0 50 98 6e 37 8f 0b f6 37 ae 77 2c 37 03 94 14 38
       1.42213685e-05 2.9330868e-05 1.0279864e-05 3.5423796e-05
0000e0 96 d7 25 37 b9 9d fc 36 20 2b e9 36 4d 4a 72 38
       9.884961e-06 7.5285466e-06 6.9489615e-06 5.7766494e-05
0000f0 0c 24 00 36 29 a1 3f 36 1e 74 47 36 be 89 00 36
       1.9094468e-06 2.8555025e-06 2.97209e-06 1.9153663e-06
000100 ee 97 09 36 1b f6 2b 36 de 96 b2 35 0a 99 46 36
       2.0503026e-06 2.5624238e-06 1.3305942e-06 2.959338e-06
000110 92 5e 41 36 82 0b a2 36 2e ee a0 36 27 0c b4 36
       2.8814288e-06 4.829316e-06 4.7960993e-06 5.3658327e-06
000120 6f 07 fe 35 e2 39 f8 35 50 aa 64 36 ac 45 1a 37
       1.8926638e-06 1.8494286e-06 3.4073782e-06 9.195337e-06
000130 34 a5 e1 35 64 7a 02 36 ad de 78 35 e6 7e 1c 37
       1.6811887e-06 1.944275e-06 9.2711235e-07 9.32787e-06
000140 78 8f 4e 36 08 05 67 36 3a 99 dd 35 4d 9f 76 36
       3.0779902e-06 3.442461e-06 1.6510378e-06 3.6749582e-06
000150 17 5d b2 35 e8 52 34 36 46 81 01 35 9f 23 03 36
       1.3289126e-06 2.6870348e-06 4.824436e-07 1.9541255e-06
000160 76 ec b6 35 64 13 40 36 58 0f 87 36 0d b1 40 37
       1.3628876e-06 2.8621516e-06 4.0250998e-06 1.1485315e-05
000170 6c ec df 35 e6 2c fa 35 9b 58 88 36 4b c9 21 37
       1.6683603e-06 1.8639519e-06 4.063431e-06 9.643215e-06
000180 39 08 9b 35 e5 4f 97 36 94 f7 29 36 e7 9a 5f 37
       1.1550793e-06 4.5094516e-06 2.5327072e-06 1.3327902e-05

exp_avg f4 [10]
000000 d9 b4 26 3c 72 2a 67 bc f4 ba 87 bb b8 90 fd 3b
       0.010174953 -0.014109241 -0.0041421596 0.007738199
000010 32 39 73 bb 4a 38 52 3c 48 7e c3 3b 78 d4 4a bc
       -0.0037112948 0.012830803 0.0059659816 -0.012379758
000020 c9 06 17 3c 22 7b 4c bc
       0.009217926 -0.012480529

exp_avg_sq f4 [10]
000000 3f 6e 41 38 03 da b4 38 5c 5e bd 36 a0 69 cd 38
       4.611746e-05 8.623677e-05 5.643624e-06 9.794836e-05
000010 9f db 51 37 dd 34 ca 38 fe 13 0e 37 1c 3d 76 38
       1.2508505e-05 9.641957e-05 8.468514e-06 5.8707883e-05
000020 84 a1 8d 37 ca 58 a6 38
       1.6883721e-05 7.932035e-05

exp_avg f4 [5, 10]
000000 9d 1a ba ba 2a 11 b3 bb 1f 6c 50 3a b4 33 14 bc
       -0.0014198605 -0.0054646926 0.00079506816 -0.00904553
000010 45 98 1f 3c 96 e9 73 3b d6 d4 a0 ba 08 34 37 bb
       0.009740894 0.0037218085 -0.0012270461 -0.0027954597
000020 b4 6e 06 3b 72 10 61 3b e2 ef 9a 3a 15 42 74 3c
       0.0020512762 0.0034342078 0.0011820758 0.014908333
000030 04 9f 94 bb 69 0e 83 3b c4 12 3c bc 2d b6 76 bc
       -0.0045355577 0.0039995206 -0.011479083 -0.0150580825
000040 35 28 07 3c 95 7e 18 3b b9 69 15 bc 3e d6 1f bc
       0.008249332 0.0023268808 -0.0091194445 -0.009755669
000050 d9 e4 e6 3b e9 c7 06 bb 11 18 a8 ba 26 c8 04 3c
       0.0070463237 -0.0020565933 -0.0012824555 0.00810436
000060 f0 8a f5 bb 81 cb b1 3b d1 f7 5e 3a 31 e9 f4 3b
       -0.0074933693 0.005425871 0.00085055555 0.0074740876
000070 d7 b6 09 3c bf ad 0f 3b 78 07 62 3b 9a 9b 3b 3b
       0.008405409 0.002192363 0.0034489315 0.0028626681
000080 a4 72 53 bb 71 24 a2 3a 92 99 ba 3a 16 ad 2d ba
       -0.0032264376 0.001237048 0.0014236441 -0.0006625218
000090 2e e3 97 3b 30 d9 a8 ba a3 02 3f ba ce ae 4b bb
       0.004635236 -0.001288211 -0.00072864647 -0.0031079534
0000a0 84 bc 3f bb 0f eb 14 3c 6a ef d1 b9 d7 81 bd ba
       -0.0029256651 0.009089245 -0.00040041964 -0.0014458251
0000b0 6e 26 3e ba 2e ac 31 bc 2d 26 5f 3b a1 91 b5 ba
       -0.0007253651 -0.0108442735 0.0034049854 -0.0013852605
0000c0 c6 78 33 bc 45 6c c8 bb
       -0.010954088 -0.0061164224

exp_avg_sq f4 [5, 10]
000000 3d b5 ef 36 7c 79 56 37 c2 5a f4 36 d0 0c 1c 37
       7.143854e-06 1.2783679e-05 7.2823323e-06 9.301308e-06
000010 43 29 86 37 bb 85 e9 36 21 03 28 37 78 de 02 37
       1.5993259e-05 6.9595094e-06 1.0014309e-05 7.800401e-06
000020 cc 60 c2 36 65 de d4 36 ce e5 db 37 e0 92 45 38
       5.792919e-06 6.3439825e-06 2.6213846e-05 4.7105248e-05
000030 ac 2e 3b 38 9a b7 13 38 18 57 dc 37 a1 f6 8a 38
       4.462774e-05 3.5218523e-05 2.62666e-05 6.626291e-05
000040 7f ba 32 38 f8 9d ff 37 41 88 3f 38 19 01 48 38
       4.2612195e-05 3.0471929e-05 4.5664845e-05 4.7684738e-05
000050 61 2a b0 37 f1 ab e4 37 75 00 56 36 c2 fd 90 37
       2.100057e-05 2.7259784e-05 3.188875e-06 1.7284303e-05
000060 e8 4f 19 37 6e ac e5 37 2c 8d 0d 37 81 ee 51 38
       9.138115e-06 2.7379221e-05 8.437124e-06 5.0051607e-05
000070 b4 e3 3b 38 e2 ec b1 37 e2 4f 98 36 3a 66 9b 37
       4.479634e-05 2.1210351e-05 4.5392526e-06 1.8525043e-05
000080 68 9e 17 37 31 be 58 36 fe af 63 37 68 fa 56 37
       9.037183e-06 3.2297214e-06 1.3571231e-05 1.2813696e-05
000090 29 99 96 37 a1 fc 10 37 4a ee 6c 37 54 16 85 37
       1.7952714e-05 8.641889e-06 1.4122177e-05 1.5865233e-05
0000a0 62 2b 2d 36 f0 9c 3b 37 95 98 8d 36 d1 4b 9c 36
       2.580426e-06 1.1182608e-05 4.2198903e-06 4.6579885e-06
0000b0 c2 b7 c2 35 13 9b 7c 37 36 9d 2f 37 ca f0 8d 36
       1.4507607e-06 1.50564765e-05 1.0467416e-05 4.230159e-06
0000c0 71 bb 88 37 29 52 56 37
       1.6299748e-05 1.2774523e-05

exp_avg f4 [5]
000000 a6 e9 d6 3c 41 52 c1 bb 0d 12 1d bd 5e 7c a3 ba
       0.02623446 -0.005899698 -0.038347293 -0.0012472977
000010 66 66 bc 3c
       0.022998046

exp_avg_sq f4 [5]
000000 37 ba 39 39 91 3c a5 39 f4 42 19 3a a5 64 5c 39
       0.00017712345 0.00031516378 0.00058464636 0.00021018328
000010 c9 19 86 38
       6.394421e-05

exp_avg f4 [31, 5]
000000 c8 c3 00 3b 71 6a f6 ba f1 84 60 bc 00 ea a0 3c
       0.0019647945 -0.0018800033 -0.013703571 0.01964283
000010 65 08 80 3c 8e 9b d5 ba 3a e2 01 bb 65 a2 57 bb
       0.015629003 -0.0016296969 -0.001981868 -0.0032903191
000020 85 b4 9c 3b 93 52 f1 3b 64 90 f8 3a 14 d3 7f ba
       0.004782262 0.00736458 0.001896393 -0.0009758931
000030 85 e8 38 bc 42 08 7e 3c 66 dc 52 3c 20 92 a1 3a
       -0.011285906 0.0155048985 0.01286993 0.0012326874
000040 fc 73 06 bb 01 76 18 bb 7b 06 9d 3b 67 83 d0 39
       -0.002051591 -0.0023263695 0.0047920323 0.00039770754
000050 bd 8b 7b 3a 88 a0 5c bb 91 5e 4e bc d5 0c 98 3c
       0.0009595713 -0.003366502 -0.012595789 0.018560806
000060 9b 6c 6a 3c c5 15 b6 b9 7a b9 7d 3b 9a 1b 13 ba
       0.01430812 -0.00034729965 0.003871529 -0.0005611718
000070 5c 43 3b bb 6d 8c 68 3b 12 6c 8c 39 91 e8 7d 3b
       -0.0028574085 0.003548409 0.000267834 0.0038743357
000080 97 c7 11 bc 7f 0f fb 3b a1 1f 74 3c 7a 89 cc b8
       -0.008897684 0.0076617594 0.014900119 -9.753085e-05
000090 45 cd 7e ba 15 2e df ba 77 9d a3 3b 23 d4 88 3b
       -0.00097199186 -0.0017027283 0.0049931365 0.0041756793
0000a0 1f e4 0d 3a 13 46 a7 38 b3 65 34 bc 32 f1 47 3c
       0.0005412716 7.976233e-05 -0.011010575 0.012203502
0000b0 33 82 3b 3c 29 8f 33 ba 11 27 fb 3b 65 59 77 3b
       0.011444616 -0.00068496406 0.007664569 0.0037742492
0000c0 ed 1f 8d bc 85 5a 90 bb a9 2f 02 3a 0c 70 1e 39
       -0.017227137 -0.004405322 0.00049662084 0.00015109795
0000d0 35 8b c5 bb da 7a 9a 3b 5c 45 cf 3b d8 1a 0c bb
       -0.0060285577 0.004714352 0.006325407 -0.0021378305
0000e0 fe da d2 39 12 49 bc 3b d8 09 73 bc 14 50 ca bb
       0.00040217483 0.0057460153 -0.01483389 -0.006174097
0000f0 14 02 41 b7 50 1a 97 3a c5 b1 3f bb 60 b8 e0 38
       -1.150418e-05 0.0011528227 -0.0029250246 0.00010715495
000100 27 31 54 3b c2 f0 b4 3a 93 18 eb b9 53 82 43 bc
       0.003237793 0.0013804662 -0.00044841002 -0.011932927
000110 43 68 59 3c fe d3 5a 3c 56 6d ca ba ce a1 fc b8
       0.013269487 0.013356207 -0.0015443962 -0.00012046435
000120 58 e6 fd 3a 06 26 f5 bb ef 8b e0 ba d5 2a a0 ba
       0.0019371016 -0.0074813394 -0.0017131547 -0.0012219796
000130 24 22 79 3c 18 6e 01 3c 7b fc e6 bc 51 be bf bb
       0.015205894 0.007899784 -0.028196564 -0.005851545
000140 ad 1e 87 ba c0 3d 32 3c e1 e6 89 3b be 8f 9b bc
       -0.0010308825 0.01087898 0.004208431 -0.01898944
000150 46 db 08 bb 6c 0c b3 ba 60 7a fa 3b 07 58 3c 3a
       -0.002088265 -0.0013660318 0.007643983 0.0007184748
000160 c3 fd 3c bc 67 66 0a 3b 41 cc aa ba 8c 72 4b 3b
       -0.011535111 0.0021118165 -0.0013030843 0.0031043617
000170 e8 9c b3 3a 13 d8 95 bb 9f 2f fc 39 1f 97 41 ba
       0.0013703378 -0.004572877 0.00048100666 -0.00073848845
000180 af e0 96 3c 8f 4d e8 3b 16 df ff bc 73 0e bc bb
       0.018417684 0.007089324 -0.031234305 -0.005739027
000190 6f cb 22 3a ba 96 43 bb 30 69 8f bb f6 ee 32 3c
       0.00062101235 -0.0029844479 -0.004376553 0.010921231
0001a0 9b 41 b8 3b 77 ec 3c ba a9 c8 1f bb 44 52 01 bc
       0.005623055 -0.0007206867 -0.0024381077 -0.007893149
0001b0 48 15 35 3c c6 18 4d 3c 93 6a 58 3a 20 19 e9 ba
       0.011052437 0.0125181135 0.0008255627 -0.0017783977
0001c0 4f e3 ae bb 4c 70 25 3c 83 9a db 3b a3 e2 a7 3a
       -0.005337156 0.010097574 0.006701769 0.0012808632
0001d0 2b 76 27 bb 19 35 36 bc 89 db 8e 3c 3b a2 5c 3c
       -0.0025552611 -0.011121058 0.017438667 0.013466413
0001e0 b6 0d 7a 3a b6 11 90 bb c2 e4 70 bc f7 24 c7 3c
       0.0009538786 -0.0043966426 -0.014702978 0.024309618
0001f0 2c 39 9a 3c a2 b0 16 ba b8 2e 63 3b 70 93 9c 3a
       0.01882609 -0.0005748366 0.0034665298 0.0011945795
000200 f2 83 d4 ba d5 c1 54 3b 04 b8 83 39 4e b7 8d 3b
       -0.0016213639 0.0032464166 0.0002512337 0.00432483
000210 cc 5c 33 bc dd e6 48 3c 1a 08 9c 3c a6 c0 89 3a
       -0.0109474175 0.012262073 0.019046832 0.0010509684
000220 56 80 ae 3a 71 15 4c bc 57 36 87 3c 8b 3e 96 3c
       0.0013313394 -0.012456284 0.016505403 0.01834037
000230 9c 8c 11 39 cf 0c 10 bb 55 a2 9b bb 9b 45 4d 3c
       0.00013880659 -0.002198029 -0.004749576 0.012528802
000240 2b 99 eb 3b 65 d0 72 ba 59 36 d3 3b a2 4b 89 3b
       0.00718989 -0.00092626206 0.0064456877 0.0041899243
000250 77 bc 1e bc d8 ac 0a ba 66 6b 9b bb 74 d6 7e 3b
       -0.009688488 -0.0005290038 -0.0047430275 0.0038885148
000260 ef 8a 78 3c 0f 73 42 bc cd 01 08 bc
       0.015169843 -0.011868252 -0.008301211
