Cancer-senn/trial5/models/cancer/grad3_Hinput_Thdummy_Reg1e-02_LR0.001/model_best.pth.tar (torch_old, 36110 bytes, 34 tensors)

parametrizer.linear1.weight f4 [10, 30]
0	0xbe13aa86	-0.14420518
1	0xbdec23e3	-0.11530282
2	0x3c614942	0.013750376
3	0x3ddd51e9	0.10806639
4	0x3e295cd2	0.16539314
5	0x3e30948f	0.1724417
6	0xbe3d27cb	-0.18472211
7	0xbbc06239	-0.005871084
8	0xbd923aaa	-0.071400955
9	0x3cf1b088	0.029503122
10	0xbe4cff0b	-0.20019166
11	0x3e324b94	0.17411643
12	0xbdf7a061	-0.12091137
13	0x3dfce781	0.12348843
14	0xbe125129	-0.14288773
15	0x3d3e112d	0.0464031
16	0xbe40369c	-0.18770832
17	0x3d87bce7	0.06627827
18	0x3db77e32	0.08959617
19	0xbe3466c7	-0.17617331
20	0xbe08e2d7	-0.13367783
21	0x3d433bc6	0.047664426
22	0x3dbf511d	0.09341643
23	0x3e0ee086	0.13952836
24	0x3d19af51	0.03752071
25	0xbe271afe	-0.1631889
26	0x3e166808	0.14688122
27	0xbdcb14ea	-0.099160984
28	0x3cd9eecd	0.026603127
29	0x3e2a6253	0.1663907
30	0x3e02770f	0.1274073
31	0x3de369d3	0.11104169
32	0xbdb52119	-0.088442035
33	0xbe578781	-0.21047784
34	0x3c561556	0.01306661
35	0xbd76ae69	-0.060224924
36	0xbd368d95	-0.044568617
37	0xb9f5bae8	-0.00046869298
38	0x3e257c53	0.16160707
39	0xbc0dc301	-0.00865245
40	0x3c99a546	0.018755566
41	0xbde7dd9a	-0.11321564
42	0xbda7553f	-0.08170556
43	0xbd9f9e90	-0.07793915
44	0xbdb0ad33	-0.08626785
45	0xbe1b8ea0	-0.15191126
46	0x3dcbd163	0.09952047
47	0xbd6d2119	-0.057892893
48	0xbdd5985a	-0.104294494
49	0xbddb8133	-0.10718002
50	0x3cb3e091	0.021957668
51	0xbc9228bb	-0.017841687
52	0x3d284ee2	0.041090854
53	0xbcdb23a0	-0.026750386
54	0x3d9c2dc7	0.07625919
55	0x3dd8ad99	0.10579986
56	0x3db09bb2	0.086234465
57	0x3e23fef0	0.1601522
58	0xbd49ef6d	-0.0493006
59	0xbdb60902	-0.08888437
60	0x3c124396	0.008927247
61	0x3d15761e	0.0364896
62	0xbd71a64a	-0.058996476
63	0x3ae31e28	0.0017327713
64	0x3df4ec54	0.119591385
65	0x3e01f9bb	0.12692921
66	0x3c578c56	0.013156017
67	0xbe074f36	-0.1321381
68	0xbd413fb5	-0.047179896
69	0xbe0d55ea	-0.13802305
70	0xbdac033c	-0.083990544
71	0xbe1e849d	-0.15480275
72	0xbd293133	-0.041306686
73	0x3da5bb55	0.080923714
74	0x3cde96f0	0.027171582
75	0x3c398555	0.011323293
76	0xbe2c0eba	-0.16802493
77	0xbdad1aa0	-0.08452344
78	0xbd88fc8a	-0.06688793
79	0xbd19b105	-0.037522335
80	0xbbc040d4	-0.005867103
81	0x3d6adffe	0.05734252
82	0xbe22cf1d	-0.1589932
83	0x3da6da85	0.08147148
84	0xbdd5f27a	-0.10446639
85	0xbe30a6b1	-0.17251088
86	0xbdb8d25d	-0.090244986
87	0xbe05e698	-0.13076246
88	0x3e0eb1f0	0.13935065
89	0xbdc8a404	-0.097969085
90	0xbd5cbf86	-0.05389359
91	0xbd38b772	-0.045096822
92	0x3e50f72b	0.20406787
93	0xbd41c8a8	-0.0473105
94	0xbdb5963d	-0.08866546
95	0x3d57f899	0.052727316
96	0xbcc58597	-0.024111552
97	0x3e320cfe	0.17387769
98	0xbd014f6c	-0.031569883
99	0xbe533bf6	-0.20628342
100	0x3b7cc660	0.003857039
101	0x3ac9469c	0.0015356126
102	0xbd007d50	-0.031369507
103	0x3d8ceae1	0.06880737
104	0x3e3ad04f	0.18243526
105	0xbe109e94	-0.14122993
106	0xbe23550d	-0.15950413
107	0xbca312c7	-0.019906415
108	0xbd221794	-0.039573267
109	0x3e05b913	0.13058881
110	0x3bd9ecae	0.006650529
111	0xbc88e5e6	-0.016711187
112	0x3e0dd0e3	0.13849215
113	0x3e10f94f	0.14157604
114	0x3e0e4721	0.13894321
115	0xbdba0754	-0.09083429
116	0xbe136a74	-0.14396077
117	0x3d8b7f24	0.068113595
118	0xbd50f2c1	-0.05101276
119	0xbd500e65	-0.050794978
120	0xbde72371	-0.11286057
121	0x3e4ec976	0.20194039
122	0xbd911613	-0.070842884
123	0x3e5cd5e3	0.21565966
124	0xbde10231	-0.10986746
125	0x3dda469b	0.10657998
126	0x3d32bbf6	0.043636285
127	0x3cb8f226	0.022576403
128	0x3e1dfdbb	0.15428822
129	0xbd539272	-0.051653333
130	0x3e4962d9	0.19666614
131	0x3df066b8	0.11738342
132	0x3be049af	0.0068447213
133	0x3bb23dee	0.0054395115
134	0x3e4333ab	0.19062679
135	0x3dbc4cc8	0.09194332
136	0x3e21f1e2	0.15814927
137	0x3e542a3b	0.20719235
138	0xbcf77ecf	-0.030211834
139	0xbd3a23e7	-0.045444395
140	0xbd5f8803	-0.05457307
141	0x3d77bc93	0.060482573
142	0x3de0a94c	0.10969791
143	0xbca21087	-0.019783271
144	0xbc1d8403	-0.009613994
145	0x3cb1ed12	0.02171949
146	0x3e101a27	0.14072476
147	0x3dae53a7	0.08512049
148	0xbe2ca16e	-0.16858456
149	0x3cd14f8a	0.025550622
150	0x3dc56966	0.09639244
151	0xbd1bab1e	-0.038004987
152	0xbd1761f0	-0.036958635
153	0xbda77d92	-0.081782475
154	0x3e361504	0.17781454
155	0x3ca9b57d	0.020716423
156	0xbc6af827	-0.014341391
157	0xbd9b272a	-0.07575829
158	0xbc363c1e	-0.0111227315
159	0xbdf7c02b	-0.120972
160	0xbe3f9735	-0.18710025
161	0x3e25a937	0.16177832
162	0xbe2ec6bf	-0.17068003
163	0xbd5ae70e	-0.053443007
164	0xbe243a42	-0.16037849
165	0x3d777ee8	0.06042376
166	0x3e002683	0.12514691
167	0x3defa3ad	0.117011406
168	0xbda76fc4	-0.081756145
169	0xbd49d3ea	-0.049274363
170	0xbe2d5e31	-0.16930462
171	0x3e0035ce	0.12520525
172	0x3e058daa	0.13042322
173	0xbdb56b95	-0.0885841
174	0xbd6bd854	-0.057579353
175	0xbd7658ad	-0.06014316
176	0x3cab65f2	0.020922635
177	0xbda2d8c5	-0.07951502
178	0xbdbb1e5d	-0.09136651
179	0x3da8ba95	0.08238713
180	0x3d9cc291	0.07654298
181	0xbe34eb98	-0.17667997
182	0xbd0472c1	-0.032336
183	0x3e24d8b4	0.1609829
184	0xbdb5b65a	-0.088726714
185	0x3ddabffa	0.10681148
186	0x3ddda320	0.10822129
187	0xbcf913f2	-0.030405018
188	0x3e2f361f	0.1711049
189	0xbd35b8e7	-0.04436579
190	0xbe0d68c6	-0.13809499
191	0x3d7b0151	0.061280552
192	0xbe2e5b03	-0.17026906
193	0xbdb031ee	-0.08603273
194	0x3e100bfc	0.14067072
195	0xbca7d2aa	-0.020486195
196	0x3e046868	0.12930453
197	0x3e3bc8fe	0.18338391
198	0x3d1ad56d	0.037801195
199	0x3d521fd5	0.05129989
200	0xbe19509a	-0.14972153
201	0x3d014fe4	0.03157033
202	0xbbfda577	-0.007740672
203	0xbdffcca5	-0.12490205
204	0x3e34d5cc	0.17659682
205	0x3d964585	0.073374785
206	0x3cc50984	0.024052389
207	0x3de9a744	0.114088565
208	0x3d23aad5	0.03995784
209	0xbd10d30f	-0.03535753
210	0xbbd94c81	-0.0066314344
211	0xbb604157	-0.0034218633
212	0x3d6e70c5	0.058213014
213	0xbe070dca	-0.13188854
214	0xbd8840c2	-0.066529766
215	0xbd45ffa2	-0.048339494
216	0x3ca73ec8	0.020415679
217	0x3d79c55b	0.06097923
218	0xbb577266	-0.0032874583
219	0x3e14761b	0.14498179
220	0xbe0e5f9e	-0.13903663
221	0x3e32d816	0.17465243
222	0x3d9aabcc	0.07552299
223	0xbd3b6742	-0.04575277
224	0xbe19f92b	-0.15036456
225	0xbe0fffea	-0.14062467
226	0x3dd4db70	0.10393417
227	0xbc999dfe	-0.018752094
228	0x3e0ccc32	0.1374977
229	0x3e491c4a	0.19639698
230	0xbdd94d18	-0.106104076
231	0x3d62d004	0.05537416
232	0x3dc33a74	0.095326334
233	0xbdb95ee7	-0.09051304
234	0xbe0196eb	-0.12655227
235	0xbcc4a24a	-0.024003167
236	0x3e0b8df6	0.13628373
237	0x3dfaf7a1	0.12254263
238	0x3e04bf94	0.12963706
239	0xbdb99a28	-0.09062606
240	0x3e17336b	0.14765708
241	0xbd2411b0	-0.04005593
242	0x3e078aaa	0.1323649
243	0xbd06e694	-0.03293474
244	0x3d2c160f	0.042013224
245	0xbbb20d2f	-0.0054337005
246	0xbda7103b	-0.081573926
247	0xbdbc3a6a	-0.09190829
248	0x3d00851a	0.031376936
249	0x3e20cc17	0.15702854
250	0x3d375ea0	0.044767976
251	0xbc834bc2	-0.016027335
252	0xbda02c20	-0.07820916
253	0x3e433f8c	0.1906721
254	0x3e2eecb2	0.1708248
255	0xba9aa780	-0.0011799186

parametrizer.linear1.bias f4 [10]
0	0xbce62b06	-0.028096687
1	0x3e0be947	0.13663207
2	0x3d073198	0.03300628
3	0x3c72862f	0.0148025
4	0x3d90e970	0.07075775
5	0x3e4f9ea9	0.20275368
6	0x3e479243	0.19489388
7	0xbd2032d8	-0.03911099
8	0x3e04c205	0.12964638
9	0x3df4b8e3	0.11949327

parametrizer.linear2.weight f4 [10, 10]
0	0x3e0eed9d	0.1395783
1	0xbe5876a3	-0.21139006
2	0x3e7d0660	0.24709463
3	0x3e645c0e	0.22300741
4	0xbd01406e	-0.031555586
5	0x3e11a028	0.14221251
6	0x3de70d3d	0.11281822
7	0x3dfce443	0.12348225
8	0x3e161f5c	0.146604
9	0x3e88fd7c	0.26755893
10	0xbde5758c	-0.11204061
11	0x3e530aae	0.20609543
12	0xbdcfc852	-0.1014563
13	0xbe5b7c90	-0.21434236
14	0x3da161b4	0.078799635
15	0x3de88f14	0.11355415
16	0xbdcb7e3b	-0.09936186
17	0xbdb1fd53	-0.08690896
18	0x3dd5ead1	0.10445178
19	0x3e52726a	0.20551458
20	0xbd21617d	-0.039399613
21	0xbe5a44d5	-0.2131532
22	0xbd81c676	-0.063366815
23	0x3e6e71f0	0.23285651
24	0x3e12ca88	0.14335072
25	0xbe78c551	-0.2429402
26	0x3e50368a	0.20333305
27	0xbe8d34ef	-0.27579448
28	0x3e379371	0.17927338
29	0x3d61f698	0.05516681
30	0x3e905fd6	0.28198117
31	0xbe972416	-0.2951972
32	0xbddd993f	-0.10820245
33	0x3df8a48f	0.12140762
34	0x3d4f7ad5	0.05065425
35	0xbe4cae4c	-0.19988364
36	0xbe6530f4	-0.22381955
37	0x3e0d8e22	0.1382375
38	0xbe99dcba	-0.30051214
39	0x3d24786b	0.040153902
40	0x3d34c892	0.04413659
41	0x3e1df81f	0.15426682
42	0x3e1f573d	0.15560623
43	0xbe699dbc	-0.22814077
44	0x3e83f1a9	0.2577031
45	0xbe7127ca	-0.23550335
46	0x3e49b078	0.19696224
47	0x3e54cf6a	0.20782247
48	0xbd9f15f7	-0.07767861
49	0xbd2ef92f	-0.04271811
50	0xbdbf5d30	-0.09343946
51	0xbeb137c5	-0.3461286
52	0xbe813115	-0.2523276
53	0xbe2287fc	-0.15872186
54	0x3e0f73a9	0.14008965
55	0x3e1217e8	0.14266932
56	0x3d866db3	0.06563892
57	0xbe8ebb45	-0.2787725
58	0xbd97fc6f	-0.07421195
59	0x3d64f0ad	0.05589359
60	0xbe622afc	-0.2208671
61	0x3d059985	0.03261711
62	0xbe75977c	-0.23983568
63	0x3d842c59	0.06453771
64	0x3e4a42fb	0.19752114
65	0xbe59ef07	-0.21282588
66	0xbe53c16a	-0.2067925
67	0x3e5cf914	0.21579391
68	0x3db761ec	0.08954224
69	0x3c243fbd	0.010024962
70	0x3df7bb16	0.12096231
71	0xbe162fa3	-0.1466661
72	0xbc8add9d	-0.016951377
73	0x3e1ec3b3	0.15504341
74	0xbe991288	-0.2989695
75	0x3e930241	0.28712657
76	0x3d6336f6	0.055472337
77	0xbe8281bc	-0.25489604
78	0xbe94cc37	-0.29062054
79	0xbe30f83d	-0.17282195
80	0xbae800b2	-0.0017700403
81	0x3e5c4c60	0.2151351
82	0x3e2929ba	0.16519824
83	0xbd990c1b	-0.07473012
84	0xbd48bec5	-0.049010057
85	0x3d5efa6c	0.05443804
86	0xbe6fcdc8	-0.23418343
87	0x3e978af9	0.29598215
88	0x3e619c9c	0.22032398
89	0xbd0b3fe2	-0.03399647
90	0x3e99af88	0.30016732
91	0x3e2bd376	0.16779885
92	0x3d53ebb2	0.05173845
93	0x3e6f2e04	0.23357397
94	0x3d3fc0bc	0.046814665
95	0xbc85046f	-0.016237466
96	0x3e890afa	0.26766187
97	0xbe918b84	-0.28426754
98	0x3e81c7e9	0.25347832
99	0x3e1ffced	0.15623827

parametrizer.linear2.bias f4 [10]
0	0xbd4739d9	-0.048639152
1	0x3ea31eb8	0.31859374
2	0x3c37bc4c	0.011214327
3	0x3e28ced1	0.16485144
4	0x3d38f451	0.045154873
5	0x3d9beb3a	0.07613225
6	0x3e1ac7e4	0.15115315
7	0xbe7d1acc	-0.24717253
8	0x3ea7f5e8	0.328048
9	0x3e252974	0.16129094

parametrizer.linear3.weight f4 [5, 10]
0	0x3e3ecff8	0.18634021
1	0x3e0fd07a	0.14044371
2	0xbe2210fa	-0.15826789
3	0xbe271c1e	-0.1631932
4	0x3e86bcdc	0.26315963
5	0x3d16d2e4	0.036822215
6	0xbe4de281	-0.20105936
7	0x3ceab253	0.028649485
8	0x3e7ea7ce	0.248687
9	0xbe41aa81	-0.18912698
10	0xbe832508	-0.2561419
11	0x3e9061e3	0.28199682
12	0x3e9dc954	0.30817664
13	0xbe61056d	-0.21974726
14	0xbd8c4108	-0.06848341
15	0xbe06d648	-0.1316768
16	0xbe8acaaf	-0.2710776
17	0xbe0b53e7	-0.13606225
18	0x3e8ac9ef	0.27107188
19	0x3ea4d1cb	0.3219131
20	0xbe1277e7	-0.14303552
21	0xbeaca32b	-0.33718237
22	0xbe360b6a	-0.17777792
23	0x3e76e489	0.24110617
24	0xbda95290	-0.08267701
25	0x3e529ed2	0.20568398
26	0x3e47a8b0	0.19497943
27	0x3d512ac4	0.051066175
28	0xbc753023	-0.01496509
29	0x3d833e83	0.064084075
30	0x3c81aa43	0.015828257
31	0xbde621a4	-0.11236885
32	0x3e62fca4	0.22166687
33	0xbca8943c	-0.020578496
34	0xbe969170	-0.29407835
35	0x3e0e9681	0.139246
36	0xbe0e019b	-0.138678
37	0xbe21d5bf	-0.15804194
38	0xbe53eb7a	-0.20695296
39	0x3d8cad8e	0.068690404
40	0xbe0fd912	-0.1404765
41	0x3e0f53ca	0.13996807
42	0xbd3ebca0	-0.046566606
43	0xbcbfa7a6	-0.02339537
44	0xbeaa07f0	-0.3320918
45	0xbe374974	-0.17899114
46	0xbe927238	-0.28602767
47	0x3e790d2b	0.2432143
48	0xbcdd814f	-0.027039198
49	0x3e6a1791	0.22860552

parametrizer.linear3.bias f4 [5]
0	0x3e1056e7	0.1409565
1	0xbcaeabba	-0.02132212
2	0xbea55c2b	-0.3229688
3	0xbe867a1f	-0.26265046
4	0x3d9188a2	0.07106139

parametrizer.linear4.weight f4 [31, 5]
0	0xbe967eeb	-0.29393706
1	0xbdb4ded5	-0.08831564
2	0xbcd9f55d	-0.026606256
3	0xbe671497	-0.22566448
4	0x3d522d1e	0.05131256
5	0xbe7af91d	-0.24509092
6	0x3eec4f52	0.46154267
7	0x3e49e58c	0.19716471
8	0x3e88ab67	0.2669327
9	0xbd53cd97	-0.051709738
10	0xbe86adb5	-0.26304403
11	0xbe536ac2	-0.20646194
12	0xbdf98907	-0.12184339
13	0x3e06d958	0.13168848
14	0xbe80d2e3	-0.25160894
15	0xbe0994a3	-0.13435607
16	0xbc406f36	-0.011745265
17	0xbe9f5d4b	-0.31125864
18	0xbe169635	-0.14705737
19	0xbd81a247	-0.0632978
20	0x3ef0c2a6	0.47023505
21	0xbeca9732	-0.39568478
22	0x3e8cb993	0.27485332
23	0xbed75ff4	-0.42065394
24	0xbeccdac3	-0.40010652
25	0xbe1c7a42	-0.15281013
26	0xbe51ef82	-0.20501521
27	0xbe4f45ae	-0.20241424
28	0xbe9ff023	-0.31237897
29	0xbe771ffa	-0.24133292
30	0xbda4c01f	-0.08044457
31	0xbd9c2b19	-0.07625408
32	0xbeb5e06f	-0.35522792
33	0xbee9e811	-0.45684865
34	0xbe8676c0	-0.26262474
35	0x3ecbd30f	0.39809462
36	0x3e036c3a	0.12834254
37	0x3e626bbe	0.22111413
38	0xbea0e803	-0.3142701
39	0xbe5a11e9	-0.21295895
40	0xbd7460ef	-0.059662756
41	0x3db53dc7	0.08849674
42	0x3e6693f7	0.22517382
43	0xbe16e47b	-0.14735596
44	0x3edac0ca	0.4272521
45	0xbc9455d9	-0.018107342
46	0xbe9a6ff1	-0.3016353
47	0x3e57c290	0.21070313
48	0x3e4f42aa	0.20240274
49	0xbcf74930	-0.030186266
50	0xbe692865	-0.22769316
51	0x3eb3f2bd	0.35146132
52	0xbee45188	-0.44593453
53	0xbe7bfbe7	-0.24607812
54	0x3e2a2306	0.16614923
55	0x3c8e027b	0.017335167
56	0xbdd14d92	-0.102198735
57	0x3e2027d5	0.15640195
58	0x3e3cf3ed	0.18452425
59	0x3ea37036	0.31921548
60	0x3ee88f85	0.45421997
61	0x3eeca207	0.46217367
62	0x3e2f225f	0.17102955
63	0x3e1be2ab	0.15223186
64	0xbddfcd6e	-0.109278545
65	0x3eb7676a	0.35821086
66	0xbd8192f9	-0.06326861
67	0xbed6b3e2	-0.41934115
68	0x3e7ab7e9	0.24484219
69	0xbebfec2e	-0.37484878
70	0x3db23b71	0.08702744
71	0xbe9ddf7b	-0.30834565
72	0x3eba25d7	0.36356995
73	0x3ec80915	0.3906943
74	0x3ecc1bd8	0.39864993
75	0x3dda1e37	0.10650294
76	0xbd77c354	-0.060489014
77	0xbdb00030	-0.08593786
78	0x3ebb1f8d	0.3654751
79	0x3e3b3256	0.1828092
80	0xbec405c7	-0.38285658
81	0x3cf12dac	0.029440723
82	0xbe16bfa1	-0.14721538
83	0xbe459473	-0.1929491
84	0x3ef12ced	0.47104588
85	0x3ebd4371	0.36965516
86	0xbb51427b	-0.0031930495
87	0x3e8fa5aa	0.2805608
88	0x3d311eb5	0.043242175
89	0xbe1f4ba7	-0.15556203
90	0x3e22df12	0.15905407
91	0xbd0a3a76	-0.03374716
92	0xbe5358f3	-0.206394
93	0xbbc0647d	-0.005871354
94	0xbd0a19f2	-0.03371615
95	0xbe72efef	-0.2372434
96	0x3eba1467	0.3634369
97	0x3e80ecbf	0.25180623
98	0xbe9efeee	-0.3105387
99	0x3ecdce0f	0.40196273
100	0x3ec98227	0.3935711
101	0xbe23c5ed	-0.15993471
102	0xbea45e8f	-0.32103392
103	0xbee6e128	-0.45093656
104	0x3d37df1e	0.044890516
105	0xbdc40613	-0.09571471
106	0x3eba9776	0.3644368
107	0xbec9a2e8	-0.393821
108	0x3d9423a6	0.07233362
109	0x3eb8fe42	0.36131483
110	0xbe8d1f7f	-0.27563092
111	0x3dec925e	0.11551355
112	0xbe1b3eac	-0.15160626
113	0xbeb6d450	-0.35708857
114	0x3e6ec2b6	0.23316464
115	0x3cce333b	0.025170913
116	0x3e845072	0.25842625
117	0xbe9a2aa4	-0.30110657
118	0xbeae4157	-0.34034225
119	0x3e874c55	0.26425424
120	0x3ddf883a	0.10914655
121	0x3ed3c8da	0.41364175
122	0xbee2c202	-0.4428864
123	0x3eaeb2a2	0.3412066
124	0x3dbae479	0.09125609
125	0xbebaa7dd	-0.36456195
126	0x3eba4848	0.3638327
127	0xbe5d2e18	-0.21599615
128	0x3e635bdf	0.22203015
129	0x3eb5749a	0.35440522
130	0xbcb4c899	-0.022068309
131	0xbdacc042	-0.08435108
132	0x3d1f5bc4	0.038905874
133	0x3e208253	0.15674715
134	0x3eb36df4	0.35044825
135	0x3edef893	0.43549022
136	0x3eb6bd6a	0.35691386
137	0x3eb9f48c	0.36319387
138	0xbea95fae	-0.3308081
139	0xbe45eb9f	-0.19328164
140	0xbe919633	-0.28434905
141	0xbea60365	-0.32424465
142	0x3e105111	0.14093424
143	0xbe8f2552	-0.2795816
144	0xbe5a6b8f	-0.21330093
145	0x3eec0c6c	0.46103227
146	0x3de104ec	0.10987267
147	0x3ddfc9da	0.10927172
148	0xbe45ab34	-0.1930359
149	0x3ec1e8cb	0.3787292
150	0xbcdcba3f	-0.026944278
151	0x3e905cdd	0.2819585
152	0x3e46b243	0.19403939
153	0x3ea596cf	0.3234162
154	0xbe637761	-0.22213508

parametrizer.linear4.bias f4 [31]
0	0x3ec1c371	0.37844422
1	0x3ee87791	0.45403722
2	0x3dc37a37	0.09544795
3	0x3edc5ffb	0.43041977
4	0xbe517519	-0.20454825
5	0xbe494b4b	-0.19657628
6	0x3e0f21ff	0.13977812
7	0x3e9deb49	0.3084357
8	0x3d3866fb	0.045020085
9	0x3c33f453	0.010983544
10	0x3e055224	0.13019615
11	0xbdf9416a	-0.1217068
12	0x3eb518da	0.35370523
13	0x3ee6aa8d	0.45051995
14	0xbe7743c8	-0.2414695
15	0x3e7575a4	0.23970658
16	0x3daf5462	0.085610166
17	0x3ddde84a	0.10835321
18	0xbe0c4dcd	-0.13701554
19	0x3e18046a	0.14845434
20	0x3d32df57	0.043670025
21	0xbe95e7b4	-0.29278338
22	0xbdfb0cff	-0.12258338
23	0xbe181b0c	-0.14854068
24	0xbecb5694	-0.3971449
25	0x3e725cf0	0.23668265
26	0xbe16fe41	-0.14745428
27	0xbeab7b21	-0.33492377
28	0x3eafd009	0.34338406
29	0x3e7ca96f	0.24674009
30	0xbd33d878	-0.043907613

exp_avg f4 [10, 30]
0	0x36dca820	6.5760833e-06
1	0x3a3e5537	0.0007260623
2	0x3611b852	2.1713972e-06
3	0x399e99bb	0.00030250647
4	0xbb98b74e	-0.0046605235
5	0xbace61a1	-0.0015745648
6	0x3a197e2d	0.00058552885
7	0xba947d86	-0.0011328913
8	0xbb6733b7	-0.0035278627
9	0xba10981f	-0.0005515832
10	0x3971f48f	0.00023074656
11	0xbaf644da	-0.001878883
12	0x3a9a3522	0.0011765102
13	0x393d15b2	0.00018032527
14	0xba07b088	-0.00051761465
15	0x3a8e06c1	0.0010835753
16	0x3b34942d	0.002755414
17	0x3a654680	0.0008746162
18	0xbb216d22	-0.0024631699
19	0x3b3d2d88	0.002886625
20	0x395e6f30	0.0002121299
21	0xba7e2963	-0.0009695498
22	0x3a1c1330	0.0005953787
23	0x39fb1f32	0.00047897693
24	0xbb72e28f	-0.003706131
25	0xba87f7b7	-0.0010373507
26	0x3abec80f	0.0014555472
27	0xba44cc97	-0.0007507293
28	0xbb562cc5	-0.0032680493
29	0xb960b292	-0.00021428827
30	0x3af02e87	0.0018324413
31	0x3b653c79	0.0034978671
32	0x3ad084e9	0.0015908751
33	0x3b565e20	0.0032709911
34	0xbb8e6abf	-0.004346221
35	0xbaff05cf	-0.0019456687
36	0x3a564000	0.0008172989
37	0xb8c70ba1	-9.4912255e-05
38	0x392c84db	0.00016452691
39	0xbb999ad4	-0.0046876464
40	0x3b1072e9	0.0022041148
41	0x3a901a8e	0.0010994242
42	0x3b4653c2	0.0030262326
43	0x3b52a2a6	0.0032140403
44	0x3b1cb81c	0.0023913449
45	0x3afd830e	0.0019341426
46	0x3b734598	0.0037120339
47	0x3aea2920	0.0017865039
48	0x3b0df190	0.0021658875
49	0x3ac93d0f	0.001535328
50	0x3a2d727a	0.00066164846
51	0xba0620cc	-0.00051165815
52	0x3a721e55	0.0009236087
53	0x3b12f221	0.0022422152
54	0xbbe3fdb0	-0.006957732
55	0xbb57dfc6	-0.0032939776
56	0xba1e94d9	-0.00060494017
57	0xbb104d4d	-0.002201873
58	0xbb112420	-0.0022146776
59	0xbbe27bd4	-0.006911734
60	0x3ab39d9e	0.001370359
61	0x3aab8db1	0.0013088492
62	0x3a956d77	0.0011400421
63	0x3aeb210a	0.0017938924
64	0x3afb8dfd	0.0019192096
65	0xba03a249	-0.0005021436
66	0x39b5d770	0.00034683524
67	0x3aaf1067	0.0013356329
68	0x3ad3c075	0.0016155379
69	0xbb279653	-0.0025571778
70	0x3ab96c92	0.0014146736
71	0x3afebdb3	0.0019435197
72	0x3a9e49be	0.001207642
73	0x3ad3ae80	0.0016150028
74	0x3b62f852	0.0034632874
75	0xba406e55	-0.00073406595
76	0x3a174c88	0.0005771597
77	0x3ade3b82	0.001695499
78	0x3b0ac194	0.002117251
79	0xbae7a9f6	-0.0017674554
80	0x3a3790e2	0.0007002485
81	0x3a0585a5	0.0005093462
82	0x39ba14c5	0.0003549216
83	0x3a8d7d2e	0.0010794753
84	0xb9dc3f69	-0.00042008914
85	0xbb2c73a0	-0.0026314035
86	0xbaac6247	-0.0013151848
87	0xb9aee0c1	-0.0003335532
88	0x3a04b440	0.000506226
89	0xbba9b04c	-0.005178487
90	0xbaabe096	-0.0013113196
91	0x3a3c7448	0.0007188958
92	0xba804899	-0.0009787261
93	0xbaabb38b	-0.0013099773
94	0xbb7b5795	-0.0038351764
95	0x3a945365	0.0011316357
96	0x3afd3f8f	0.001932131
97	0xba7e9ef3	-0.00097130163
98	0xbb50ff08	-0.0031890292
99	0x3b41deb8	0.0029582214
100	0xbac3cb38	-0.0014937883
101	0xbb07ef2e	-0.0020741927
102	0xba5d5325	-0.00084428705
103	0xba9170af	-0.0011096204
104	0xbaf76c9f	-0.0018876976
105	0x3b2b7076	0.0026159561
106	0x3a93a452	0.0011264181
107	0xbb1df445	-0.0024101895
108	0xbb3017c2	-0.002686963
109	0x3b78288c	0.0037865965
110	0xb99e918b	-0.00030244546
111	0x3a59be62	0.00083062623
112	0x39be960a	0.00036351412
113	0xb99dde1f	-0.00030110867
114	0x3a268840	0.00063527003
115	0x3b9962ac	0.004680952
116	0x3b8f329a	0.004370046
117	0x3a5f8b0e	0.00085274957
118	0xb97cf3cc	-0.00024123414
119	0x3bf8b1c7	0.007589552
120	0xbac76993	-0.0015213959
121	0xbb6372cf	-0.0034705882
122	0xbab66f65	-0.0013918696
123	0xbafe14fd	-0.0019384917
124	0x3bb790ca	0.005601977
125	0x3a9bb7ca	0.0011880335
126	0xbae4f15e	-0.0017466953
127	0x39dcdef7	0.00042127792
128	0x3b876f87	0.004133168
129	0x3b0e927b	0.002175479
130	0xba0b98d0	-0.00053252
131	0x3a52d3b0	0.0008042408
132	0xbaa92704	-0.0012905304
133	0xba885567	-0.0010401428
134	0xb9a06b8a	-0.000305977
135	0xbb340c9d	-0.0027473338
136	0xbb51277c	-0.0031914404
137	0xb881c1a3	-6.187267e-05
138	0x3ae7927b	0.0017667556
139	0xbb2a3ee7	-0.0025977434
140	0xbaf01747	-0.0018317484
141	0xbb29a107	-0.0025883333
142	0xbb073fcf	-0.0020637398
143	0xbb08eb10	-0.0020892061
144	0x3b155712	0.0022787494
145	0xbabbcf85	-0.0014328813
146	0xbb732a2b	-0.0037103991
147	0xba04e78c	-0.00050699036
148	0x3a950c9b	0.0011371555
149	0xba10b0ce	-0.000551951
150	0x3aabf498	0.0013119159
151	0x3af068f1	0.0018341822
152	0x3a84e833	0.0010140002
153	0x3b0b9c38	0.002130283
154	0xbbbf58d7	-0.005839448
155	0xbb42d843	-0.0029730953
156	0x399b6403	0.00029638418
157	0xb9964fe2	-0.00028669747
158	0xbb110121	-0.0022125917
159	0xbb687a2a	-0.0035473206
160	0x3a950318	0.001136872
161	0xba575290	-0.0008213902
162	0x3acccde8	0.001562533
163	0x3ac14507	0.0014745303
164	0xbb8e68b1	-0.0043459763
165	0xbb18ec06	-0.002333404
166	0x3aabd830	0.0013110694
167	0xba9277f4	-0.0011174665
168	0xbaadf672	-0.0013272299
169	0xba713ecc	-0.0009202778
170	0x3ac8a69d	0.0015308444
171	0x399503ad	0.00028422233
172	0x3abadd06	0.0014256544
173	0x3b143d75	0.002261964
174	0xbbaf5782	-0.005351008
175	0xbb5ea5a8	-0.003397325
176	0x39b85974	0.00035161863
177	0xba52d047	-0.00080419
178	0xbac08700	-0.0014688671
179	0xbba0dd3c	-0.0049091857
180	0xb9c25de1	-0.0003707251
181	0x3a92fd55	0.0011214415
182	0xb953fb67	-0.00020216183
183	0x39324404	0.0001700074
184	0xbb3cb4ea	-0.0028794357
185	0x3a730f8a	0.000927203
186	0x3a56ce9c	0.00081942393
187	0xba5e144f	-0.0008471654
188	0xba928248	-0.0011177743
189	0x3a5fa2fa	0.00085310603
190	0xb9e9c941	-0.0004459117
191	0x382a0032	4.053134e-05
192	0x393a2923	0.00017753667
193	0x3999dbd0	0.00029346207
194	0x3a000eaf	0.00048850005
195	0x3b37bfa9	0.0028037822
196	0x3a545e2f	0.00081011927
197	0xbaad9716	-0.001324388
198	0x3a6ca72c	0.0009027596
199	0x3b24c285	0.0025140357
200	0xb9a2827f	-0.00030996275
201	0xb9bb72bf	-0.00035752912
202	0x3928dcc8	0.00016103976
203	0x39ac2903	0.00032836953
204	0xbb095217	-0.002095347
205	0x3b1c88e0	0.0023885295
206	0x3aa917ff	0.0012900828
207	0xbaa7ae8c	-0.0012793108
208	0x395dba13	0.0002114552
209	0x3b17f049	0.0023183993
210	0x3a78af21	0.00094865455
211	0xba27c8df	-0.00064004766
212	0x3a001f7e	0.0004887505
213	0xba206439	-0.000611845
214	0x3c773a98	0.015089653
215	0xb9162341	-0.00014318248
216	0xbb4e5713	-0.0031485006
217	0x3b703e80	0.0036658347
218	0x3bfc1c5f	0.007693812
219	0xbae09fea	-0.0017137502
220	0x3ae8da54	0.0017765262
221	0x3bdff90b	0.006835108
222	0xba429fad	-0.0007424306
223	0xb9e107d2	-0.0004292117
224	0x3bb7bfc2	0.005607576
225	0xbbffbcb8	-0.0078044794
226	0xbb9431d4	-0.0045225415
227	0x3bc6f5be	0.006071775
228	0x3a876055	0.0010328392
229	0xbc1e3f42	-0.0096586365
230	0x38464e0d	4.727957e-05
231	0x3b9d138d	0.0047935904
232	0xbae52cae	-0.0017484629
233	0xbae8603c	-0.0017728875
234	0x3c36889e	0.0111409705
235	0xbbd97fd3	-0.0066375523
236	0xbbf605bc	-0.007508008
237	0x3b4be939	0.0031114353
238	0x3ae399c5	0.0017364552
239	0xbc19f59b	-0.009396936
240	0xba378d3c	-0.00070019416
241	0xbaf955bb	-0.0019022742
242	0xba1abe70	-0.0005903011
243	0x3a05a3a9	0.00050979346
244	0xbbcc224a	-0.0062296735
245	0xbad889c8	-0.0016520554
246	0xbb042ce8	-0.0020168368
247	0xbb5bff19	-0.0033568798
248	0xbb30e57e	-0.0026992257
249	0xbb2773be	-0.0025551165
250	0xbabaca17	-0.0014250901
251	0xbb3c0b41	-0.0028693231
252	0xba16b537	-0.0005749049
253	0x3a1dca5e	0.000601923
254	0x39e4ed7b	0.00043664486
255	0x3a382d41	0.00070257863

exp_avg_sq f4 [10, 30]
0	0x33f01183	1.1179056e-07
1	0x3582ae6b	9.736517e-07
2	0x3400e49d	1.2004098e-07
3	0x33e3a024	1.05996406e-07
4	0x35bf3719	1.4246644e-06
5	0x358337f9	9.776551e-07
6	0x35475e54	7.427054e-07
7	0x34b4cd12	3.367682e-07
8	0x35d54a38	1.5891337e-06
9	0x356e39c0	8.8745946e-07
10	0x34abe633	3.2018724e-07
11	0x358b48c0	1.037748e-06
12	0x35048879	4.9372426e-07
13	0x33f7727a	1.1522657e-07
14	0x3582bf32	9.7414e-07
15	0x364ff1bd	3.0986114e-06
16	0x3626c132	2.4848382e-06
17	0x35bab770	1.3911467e-06
18	0x3637e533	2.7402536e-06
19	0x3623d97c	2.4415485e-06
20	0x33f32e65	1.13240084e-07
21	0x3567589b	8.6183144e-07
22	0x342d2d25	1.6128304e-07
23	0x33e7113a	1.0759909e-07
24	0x35fca8fd	1.8824645e-06
25	0x35c1b111	1.4431154e-06
26	0x3559d9b5	8.1155605e-07
27	0x34ab014f	3.1852184e-07
28	0x36415f19	2.8814595e-06
29	0x358f0a7e	1.0657384e-06
30	0x35b05102	1.3136598e-06
31	0x36747e4f	3.6432355e-06
32	0x35a9cdbf	1.2651361e-06
33	0x35d9f07c	1.623775e-06
34	0x365d3c08	3.296651e-06
35	0x3628e435	2.5166785e-06
36	0x3612e8eb	2.1891271e-06
37	0x361911e4	2.280919e-06
38	0x36973971	4.5068377e-06
39	0x3681cef3	3.8685916e-06
40	0x363314d6	2.6685207e-06
41	0x36658197	3.419909e-06
42	0x364f4b55	3.0889253e-06
43	0x35f5450d	1.8274019e-06
44	0x3698173c	4.532658e-06
45	0x361534f9	2.2233564e-06
46	0x3624d534	2.4562005e-06
47	0x369b2b86	4.6244268e-06
48	0x361fbc1d	2.3802343e-06
49	0x35f21c11	1.8038573e-06
50	0x35c13737	1.439569e-06
51	0x3690a4af	4.310706e-06
52	0x35dd6a62	1.6496745e-06
53	0x35bb776c	1.3967342e-06
54	0x375eb1a6	1.3273593e-05
55	0x36c3d3f2	5.8361265e-06
56	0x367d8db6	3.7782424e-06
57	0x36907d7c	4.3061427e-06
58	0x36d37438	6.3018197e-06
59	0x372abf6c	1.01773585e-05
60	0x351d6c0a	5.8644275e-07
61	0x35bcb97b	1.4061073e-06
62	0x350d9ecb	5.275767e-07
63	0x35105d2d	5.377977e-07
64	0x3687be43	4.045463e-06
65	0x3547f570	7.4490436e-07
66	0x3526609a	6.198039e-07
67	0x35cbabe7	1.5174709e-06
68	0x360ae905	2.0699238e-06
69	0x35914a22	1.0824917e-06
70	0x35d64c6b	1.5966483e-06
71	0x35e3147f	1.6918783e-06
72	0x35c243d1	1.4473864e-06
73	0x352056e6	5.97311e-07
74	0x36e61acf	6.857655e-06
75	0x35acd236	1.2876178e-06
76	0x35cd1c09	1.528185e-06
77	0x368eee3f	4.2596653e-06
78	0x35934585	1.0972586e-06
79	0x353b3b69	6.974938e-07
80	0x34f0e4b4	4.4869887e-07
81	0x356cb437	8.81791e-07
82	0x34fbdd68	4.6913487e-07
83	0x34b7f0a8	3.4261507e-07
84	0x36411426	2.877097e-06
85	0x352c1a64	6.4113397e-07
86	0x350c82fa	5.234466e-07
87	0x35d4c64a	1.5852941e-06
88	0x35b3e29d	1.3402492e-06
89	0x35fb70f0	1.8733826e-06
90	0x353f8f05	7.1361166e-07
91	0x3669d4e2	3.484362e-06
92	0x351923cc	5.7049033e-07
93	0x352fd9b9	6.550941e-07
94	0x36ff860c	7.6151973e-06
95	0x35b66381	1.3589016e-06
96	0x35876254	1.0086901e-06
97	0x35e9af64	1.7410898e-06
98	0x36039c4b	1.9611496e-06
99	0x364a6412	3.0158594e-06
100	0x35d33cf1	1.5738461e-06
101	0x35984279	1.1344229e-06
102	0x35b24b8a	1.3284018e-06
103	0x34d8aeb4	4.0360248e-07
104	0x3565fc27	8.567608e-07
105	0x3621d4a1	2.4114636e-06
106	0x36062a59	1.9992206e-06
107	0x3643a91f	2.9155706e-06
108	0x356b5c51	8.767866e-07
109	0x36651ff1	3.4142251e-06
110	0x34f1be2f	4.5028125e-07
111	0x362027f1	2.3865107e-06
112	0x350c619c	5.2296105e-07
113	0x34cb66ca	3.7886485e-07
114	0x3604296f	1.969365e-06
115	0x359c5e99	1.1650437e-06
116	0x35cf4d75	1.5445245e-06
117	0x35c2cb7e	1.451335e-06
118	0x359dd2e8	1.1758793e-06
119	0x36adf1f7	5.18397e-06
120	0x35163632	5.595822e-07
121	0x36566594	3.1947611e-06
122	0x35177a45	5.642981e-07
123	0x356702de	8.605838e-07
124	0x364d6e6a	3.061165e-06
125	0x35b1a294	1.3234844e-06
126	0x35e7991e	1.7255404e-06
127	0x3588083c	1.0135186e-06
128	0x361a282a	2.2971167e-06
129	0x35daefd6	1.6312067e-06
130	0x3566e56c	8.601553e-07
131	0x35d1c604	1.5629344e-06
132	0x35b23f10	1.3280387e-06
133	0x3544e313	7.3346126e-07
134	0x362f578e	2.6127996e-06
135	0x3688dc95	4.078795e-06
136	0x364c3464	3.0428864e-06
137	0x35ce67c3	1.5378395e-06
138	0x35ed9fe9	1.7704416e-06
139	0x3671a60d	3.6008453e-06
140	0x353629de	6.786121e-07
141	0x362df775	2.5923048e-06
142	0x3566cf78	8.5983584e-07
143	0x3566e348	8.6012415e-07
144	0x36a2e654	4.85479e-06
145	0x362d6fa6	2.5843997e-06
146	0x36362633	2.7142348e-06
147	0x35ab5123	1.2764107e-06
148	0x36754d81	3.6552958e-06
149	0x367a0e31	3.7261163e-06
150	0x357ff45a	9.535048e-07
151	0x3697383a	4.5066963e-06
152	0x35853516	9.924722e-07
153	0x35a3f21e	1.2214912e-06
154	0x36b6f26a	5.4522434e-06
155	0x364d59d6	3.0599672e-06
156	0x363f123b	2.847183e-06
157	0x361dd98e	2.3521457e-06
158	0x35d8c2ed	1.6149985e-06
159	0x360fa4a7	2.14045e-06
160	0x3605f499	1.996092e-06
161	0x36a54b20	4.926129e-06
162	0x360e5a46	2.1212195e-06
163	0x359944a7	1.1419369e-06
164	0x37cb34d8	2.4224093e-05
165	0x36f95c04	7.4314903e-06
166	0x36afb28e	5.236193e-06
167	0x370b4f4c	8.303508e-06
168	0x36986df7	4.5427546e-06
169	0x36cb020d	6.05011e-06
170	0x3582068d	9.687661e-07
171	0x369acd2d	4.6134433e-06
172	0x3587f15d	1.012853e-06
173	0x3599efd5	1.1469189e-06
174	0x37381929	1.0973113e-05
175	0x3671d167	3.6033687e-06
176	0x35fdec8d	1.8918814e-06
177	0x360c86e1	2.0940136e-06
178	0x363be64a	2.7999217e-06
179	0x3672cba3	3.6179342e-06
180	0x3405d269	1.2463137e-07
181	0x35c96139	1.5003963e-06
182	0x33e79cca	1.07852955e-07
183	0x3405b856	1.2453651e-07
184	0x35ba8ee4	1.3899667e-06
185	0x3483b6a9	2.4533554e-07
186	0x33e233dd	1.0533379e-07
187	0x34821a9a	2.4233742e-07
188	0x351cd7e9	5.842872e-07
189	0x34b9e0f7	3.462262e-07
190	0x339bb67a	7.250942e-08
191	0x34d1e4b5	3.909569e-07
192	0x3395e013	6.979112e-08
193	0x32cd6f28	2.3915689e-08
194	0x34502e71	1.9388405e-07
195	0x359c5e0d	1.1650278e-06
196	0x34c73535	3.7105352e-07
197	0x3510d3d1	5.3952414e-07
198	0x34b1ad0c	3.3094727e-07
199	0x35838f68	9.801997e-07
200	0x341bebdd	1.4521306e-07
201	0x35c11426	1.4385485e-06
202	0x34169753	1.402489e-07
203	0x342caac7	1.6080877e-07
204	0x35a7cc6f	1.2501968e-06
205	0x3560dfd1	8.37722e-07
206	0x34abf008	3.2025878e-07
207	0x34962614	2.7967383e-07
208	0x35061b4c	4.995861e-07
209	0x358d64a4	1.0534609e-06
210	0x3660da0e	3.3505526e-06
211	0x380b1bbf	3.3166023e-05
212	0x363f4e58	2.850682e-06
213	0x365b9319	3.2719165e-06
214	0x382296da	3.87643e-05
215	0x3646333c	2.9534121e-06
216	0x362de49b	2.5912075e-06
217	0x36a8b5e8	5.027967e-06
218	0x372255f5	9.675966e-06
219	0x373adcbb	1.1137857e-05
220	0x364bd65c	3.037413e-06
221	0x36fcf4f9	7.538704e-06
222	0x365ab8e2	3.2592147e-06
223	0x352dcf1e	6.474892e-07
224	0x371d0841	9.359851e-06
225	0x3779d5c2	1.4891326e-05
226	0x37273f58	9.968724e-06
227	0x37345092	1.0747595e-05
228	0x365f7738	3.3298984e-06
229	0x37c00961	2.2892551e-05
230	0x362aa48b	2.542775e-06
231	0x37e6d2f8	2.7516377e-05
232	0x365bd046	3.2754774e-06
233	0x36290877	2.518789e-06
234	0x3804dd5f	3.167742e-05
235	0x3715acf4	8.921361e-06
236	0x36d6c105	6.4001674e-06
237	0x3690fc4c	4.3209056e-06
238	0x374b5a24	1.212073e-05
239	0x37c71e19	2.3736664e-05
240	0x35c12a06	1.4391851e-06
241	0x36d348f7	6.2967842e-06
242	0x35b797a4	1.3678696e-06
243	0x35b9bfab	1.3839357e-06
244	0x36ebb45c	7.0245424e-06
245	0x3636467d	2.7161143e-06
246	0x37109d76	8.619731e-06
247	0x362d4942	2.582165e-06
248	0x36a90c6f	5.03804e-06
249	0x374450e9	1.1701349e-05
250	0x361c2d9b	2.3272357e-06
251	0x3623e9d7	2.4425005e-06
252	0x35b498de	1.3455535e-06
253	0x3516aaef	5.6128096e-07
254	0x36e16d6d	6.7182614e-06
255	0x36e3dffd	6.791203e-06

exp_avg f4 [10]
0	0xba96f328	-0.0011516558
1	0xbca70114	-0.020386256
2	0xbc1d851a	-0.009614253
3	0x3badf0be	0.0053082397
4	0x3b47cea4	0.0030488158
5	0xbc0e6c1e	-0.008692769
6	0xbb81f8e7	-0.003966439
7	0x3bebb262	0.0071928957
8	0xbc6355cd	-0.013875437
9	0xbaff4bf9	-0.0019477598

exp_avg_sq f4 [10]
0	0x354f357d	7.7191345e-07
1	0x38344a8a	4.2984764e-05
2	0x3724f934	9.833184e-06
3	0x367c85a9	3.7628727e-06
4	0x37087037	8.132359e-06
5	0x3758d173	1.29233695e-05
6	0x35c42cfc	1.461623e-06
7	0x3797dc72	1.8103256e-05
8	0x37732d11	1.44944215e-05
9	0x35e4ad4e	1.7037762e-06

exp_avg f4 [10, 10]
0	0x3bd6ebd0	0.0065588728
1	0x3baf2f4e	0.0053462153
2	0x3b1b12bb	0.0023662287
3	0x3ba97d8d	0.0051724375
4	0xbae11acb	-0.0017174123
5	0x3a9602bb	0.0011444906
6	0x3b41778b	0.0029520716
7	0xbb595c3f	-0.0033166555
8	0x3b1e23cd	0.0024130226
9	0xbb259279	-0.0025264306
10	0xbb27b142	-0.0025587832
11	0xbb9597d1	-0.004565217
12	0x39b71e96	0.00034927268
13	0x3aed396c	0.0018098778
14	0x3b150478	0.002273826
15	0xbbf26df1	-0.00739836
16	0xbbb77063	-0.0055981143
17	0x39c769ac	0.0003803497
18	0xbb1ab4bf	-0.0023606268
19	0x3a6ccb82	0.00090330106
20	0x3a72675a	0.0009246968
21	0xbb0a35ce	-0.00210892
22	0xb7d4bed2	-2.5361227e-05
23	0xbb194aed	-0.0023390607
24	0xbb62945c	-0.0034573292
25	0xbb6c84b1	-0.0036089832
26	0xbb6ba76e	-0.003595795
27	0xb815f00c	-3.574793e-05
28	0xbb1a1a1d	-0.00235141
29	0x39d8f0ef	0.0004137824
30	0x389e51a8	7.549237e-05
31	0x3b8219d0	0.0039703622
32	0xbb1c5f83	-0.002386064
33	0xbaa4afdd	-0.0012564618
34	0x3adabe98	0.0016688881
35	0x3bcf4680	0.006325543
36	0x3bb8c096	0.0056381924
37	0x392dfc5e	0.0001659258
38	0x3b21e52e	0.0024703252
39	0x399e2bdb	0.00030168783
40	0x3bbfc3ae	0.0058521843
41	0x3ab910c4	0.0014119376
42	0x3b94a71e	0.0045365235
43	0x3bd74c6d	0.00657039
44	0xbae525ba	-0.0017482557
45	0xba23c25a	-0.0006246917
46	0x3b1012a6	0.0021983772
47	0xbb8ffbea	-0.004394044
48	0x3aed9925	0.0018127306
49	0xbb23263c	-0.0024894616
50	0x3b45d1ed	0.003018494
51	0x3b332631	0.0027335996
52	0x3b0c481c	0.0021405285
53	0xba86f70d	-0.0010297016
54	0xbb995112	-0.004678854
55	0x3b89b218	0.0042021386
56	0x3b13a929	0.0022531247
57	0xba6d8d36	-0.00090618746
58	0x3a8ce0ee	0.0010748187
59	0xbabb82fb	-0.0014306003
60	0x3ba28eb3	0.0049608587
61	0x3bdfbdeb	0.00682806
62	0xbadd2584	-0.0016872142
63	0x3ade59e8	0.001696405
64	0x3a409f13	0.00073479227
65	0x3c078ec3	0.008273783
66	0x3c1aec68	0.009455778
67	0xbb34e4d4	-0.0027602213
68	0x3b8c4ecc	0.0042818543
69	0xba8f7f1f	-0.0010947919
70	0xbb65bfb6	-0.0035056896
71	0xb82fc84e	-4.19098e-05
72	0xbb1a7ece	-0.0023574117
73	0x3a219c38	0.0006164941
74	0x3ba6aa50	0.005086221
75	0xba1d94db	-0.0006011256
76	0x39d57aca	0.0004071801
77	0x3ae4018c	0.001739548
78	0x3a78e114	0.00094939885
79	0x3a4938df	0.0007676016
80	0xbb0083ae	-0.0019609737
81	0xbbceb8c5	-0.0063086473
82	0x3b9790d9	0.0046254215
83	0xb8115485	-3.464941e-05
84	0xbb2e98ac	-0.0026641292
85	0xbb98334b	-0.0046447865
86	0xbbc4d5cc	-0.006006932
87	0x3a0dcdfd	0.0005409418
88	0xbb517348	-0.0031959582
89	0xb9d7730e	-0.00041093718
90	0xbbf1b8f9	-0.007376787
91	0xbbbcbfbd	-0.0057601617
92	0xbb3153dd	-0.0027058043
93	0xbbb20df6	-0.005433793
94	0x3aefc18d	0.0018291936
95	0xbb09c303	-0.0021020777
96	0xbb83db03	-0.004023911
97	0x3b64e9fa	0.00349295
98	0xbb4f1da5	-0.0031603363
99	0x3b53cf2f	0.0032319536

exp_avg_sq f4 [10, 10]
0	0x36d79e60	6.4259366e-06
1	0x36cd6fa7	6.122474e-06
2	0x368423d9	3.9380798e-06
3	0x364e9db2	3.0788183e-06
4	0x36a483a6	4.9029068e-06
5	0x36325a29	2.6576547e-06
6	0x367ba8f6	3.7500263e-06
7	0x36245891	2.4489457e-06
8	0x36122094	2.1774658e-06
9	0x35cd82f4	1.5311803e-06
10	0x35743a4a	9.0981905e-07
11	0x361fc983	2.3810142e-06
12	0x36219057	2.4074886e-06
13	0x35659e8e	8.5539875e-07
14	0x36b40297	5.3647195e-06
15	0x36981058	4.5318557e-06
16	0x368be0af	4.1686794e-06
17	0x3502ddd6	4.875159e-07
18	0x3575db97	9.158916e-07
19	0x35e22657	1.684947e-06
20	0x3594ddd1	1.1091416e-06
21	0x354e45bb	7.684245e-07
22	0x366c2157	3.5186147e-06
23	0x35e6dc0f	1.7200381e-06
24	0x36b6f86c	5.452943e-06
25	0x364fe1d8	3.0976862e-06
26	0x36be0f05	5.6641898e-06
27	0x357bb2c6	9.3764936e-07
28	0x36045a01	1.9721922e-06
29	0x369baa31	4.639173e-06
30	0x358968f8	1.0237845e-06
31	0x35c83d39	1.4918979e-06
32	0x363ae99a	2.7852134e-06
33	0x350877ca	5.0838264e-07
34	0x368de3a7	4.2286297e-06
35	0x36784167	3.699295e-06
36	0x368a587c	4.1230214e-06
37	0x349edeed	2.9591993e-07
38	0x355abbb3	8.1484467e-07
39	0x3582a59e	9.733956e-07
40	0x372ee90a	1.0425467e-05
41	0x36d7fc58	6.436876e-06
42	0x373b63d3	1.1169311e-05
43	0x36c95987	6.000689e-06
44	0x375e7c67	1.3261196e-05
45	0x36a7cd74	5.0009057e-06
46	0x37200d57	9.539849e-06
47	0x3660f135	3.3519002e-06
48	0x36994d9a	4.5687893e-06
49	0x36fcb8fe	7.531721e-06
50	0x35968918	1.121577e-06
51	0x35f06230	1.790997e-06
52	0x361e68a8	2.3604753e-06
53	0x354bfce6	7.599141e-07
54	0x36b23764	5.3112617e-06
55	0x3629f3d0	2.532488e-06
56	0x360e4ad1	2.1203198e-06
57	0x352b3edb	6.379393e-07
58	0x355245e5	7.8332806e-07
59	0x35d73fb4	1.6037288e-06
60	0x360a62db	2.0621144e-06
61	0x36e1c1f1	6.7281003e-06
62	0x36fe24da	7.57408e-06
63	0x35dd92ce	1.6508509e-06
64	0x373adb15	1.1137473e-05
65	0x36d9c816	6.490397e-06
66	0x37247910	9.803349e-06
67	0x35b127a6	1.3199067e-06
68	0x3647b72d	2.9759933e-06
69	0x35f6c813	1.8386658e-06
70	0x3678b2a4	3.7058862e-06
71	0x35b79e9d	1.3680725e-06
72	0x36cbfb3d	6.0791194e-06
73	0x35b4d5a2	1.347322e-06
74	0x37269523	9.929095e-06
75	0x363331da	2.6702096e-06
76	0x36cd6c61	6.122093e-06
77	0x35ddc5f2	1.6523393e-06
78	0x35e236ad	1.6854225e-06
79	0x364201a6	2.8909212e-06
80	0x356ca3b8	8.8155093e-07
81	0x364d94ff	3.0634108e-06
82	0x36a79ad3	4.9950117e-06
83	0x358223a0	9.696123e-07
84	0x3637f24b	2.7410158e-06
85	0x36332240	2.6693015e-06
86	0x36c497b2	5.858915e-06
87	0x35215d08	6.011255e-07
88	0x35b96cae	1.3815204e-06
89	0x360e4bba	2.1203728e-06
90	0x36db8af0	6.542883e-06
91	0x36d9500a	6.4764217e-06
92	0x367514ba	3.651991e-06
93	0x363b700c	2.7930391e-06
94	0x3694e993	4.4379353e-06
95	0x362ae6b6	2.5466265e-06
96	0x365ab537	3.2590012e-06
97	0x36170f67	2.2509719e-06
98	0x3625abce	2.468692e-06
99	0x3675f820	3.6652273e-06

exp_avg f4 [10]
0	0x3c0ba6ef	0.008523687
1	0xbcf1f1ed	-0.029534305
2	0xbc0296c0	-0.007970512
3	0x3cbc1c8d	0.022962833
4	0xbb3d1525	-0.0028851714
5	0x3c9de78b	0.019275447
6	0x3d0198d4	0.03163989
7	0xbbd0bd46	-0.0063702194
8	0xbcc33af4	-0.023831822
9	0xbc450352	-0.012024717

exp_avg_sq f4 [10]
0	0x38081f46	3.2454052e-05
1	0x38cab2b5	9.6653974e-05
2	0x38026045	3.1084073e-05
3	0x387534d5	5.8461756e-05
4	0x37e5c6d3	2.7391512e-05
5	0x38ace877	8.244899e-05
6	0x3901fb58	0.00012396032
7	0x3870c948	5.7407917e-05
8	0x385722bc	5.1292343e-05
9	0x380a6bf1	3.3002292e-05

exp_avg f4 [5, 10]
0	0x3b57b55c	0.0032914495
1	0xbc860f20	-0.016364634
2	0xbac49c32	-0.0015000163
3	0xb85c7d96	-5.256905e-05
4	0xbb554344	-0.0032541314
5	0xbc009262	-0.0078474
6	0xbbf8d3d7	-0.0075936127
7	0x3c401769	0.011724331
8	0xbc112ed1	-0.00886126
9	0xbc201e88	-0.009772904
10	0x398a614c	0.00026393903
11	0xbc92634e	-0.017869618
12	0xbaebeffa	-0.0018000596
13	0x3ad8f452	0.0016552305
14	0xbb56627c	-0.003271251
15	0xba9b859d	-0.0011865381
16	0xbb84d106	-0.004053238
17	0x3c3acaaa	0.011400858
18	0xbc7ec118	-0.015548967
19	0xbcb40b79	-0.021978127
20	0xba85142c	-0.0010153106
21	0x3bf5f797	0.0075063216
22	0xbbacc16c	-0.005272081
23	0x3a9b434d	0.0011845619
24	0x3a14b7d8	0.0005673147
25	0x3b88aec8	0.004171226
26	0x3ac52e9b	0.0015043797
27	0xbb77f909	-0.0037837646
28	0x3c03f9d6	0.008055171
29	0xbbacd805	-0.005274775
30	0xbb16bb4d	-0.0022999824
31	0x3be1f283	0.0068953647
32	0xbbbe3bc8	-0.0058054663
33	0x3b915782	0.0044354806
34	0xba2503c8	-0.0006294814
35	0xbaa06bfa	-0.0012239211
36	0xba0d7587	-0.0005396236
37	0xbaddb21d	-0.0016914044
38	0x3c296249	0.010338374
39	0x3a5dc7a4	0.000846023
40	0xbb63ce51	-0.0034760425
41	0xbbf4eae1	-0.007474289
42	0xba0c123c	-0.00053432933
43	0xbb60f96d	-0.0034328357
44	0x3ad44d06	0.0016197271
45	0x3abd8c91	0.0014461448
46	0x3bbc7be9	0.005752076
47	0xba17e5c4	-0.00057944306
48	0xbc19535c	-0.009358253
49	0xbc94b50b	-0.018152734

exp_avg_sq f4 [5, 10]
0	0x35d2fce4	1.571982e-06
1	0x3788f680	1.6327249e-05
2	0x36dc11ef	6.5585987e-06
3	0x3590c4a5	1.0786067e-06
4	0x361833cf	2.2679922e-06
5	0x37077fe6	8.076406e-06
6	0x36d9d836	6.492274e-06
7	0x372686bf	9.925744e-06
8	0x37108fec	8.616578e-06
9	0x370edf3f	8.515838e-06
10	0x3629bc12	2.5292434e-06
11	0x37f1aac0	2.880895e-05
12	0x35dc1567	1.6397506e-06
13	0x361c9fb0	2.3338762e-06
14	0x3690d4b1	4.316295e-06
15	0x36f287b0	7.227958e-06
16	0x371e0833	9.419443e-06
17	0x37a5eba9	1.977927e-05
18	0x379fc123	1.9044213e-05
19	0x380b953a	3.327916e-05
20	0x366f004a	3.5613944e-06
21	0x3782ec62	1.5607282e-05
22	0x36ec6218	7.0447677e-06
23	0x35c3e9fe	1.4596733e-06
24	0x35fbf976	1.877356e-06
25	0x37780d11	1.4784994e-05
26	0x3712f393	8.75899e-06
27	0x376093ff	1.33858985e-05
28	0x3705c4b2	7.973214e-06
29	0x36f9d6dd	7.4457917e-06
30	0x368dbab7	4.223864e-06
31	0x38325088	4.2513508e-05
32	0x3694a1f3	4.429597e-06
33	0x373062ea	1.0513448e-05
34	0x3678f734	3.709877e-06
35	0x3750ef0a	1.2453422e-05
36	0x372ca0b4	1.02894155e-05
37	0x37e1e420	2.692832e-05
38	0x380f05c7	3.4099237e-05
39	0x3754ee4d	1.2691668e-05
40	0x3701b6e5	7.731583e-06
41	0x3841bd46	4.619106e-05
42	0x37c0635e	2.2934455e-05
43	0x36c34a3c	5.820095e-06
44	0x36880583	4.0537575e-06
45	0x379b4729	1.8510576e-05
46	0x37a80895	2.0031157e-05
47	0x38129a15	3.4952613e-05
48	0x38826ef9	6.219553e-05
49	0x386abc72	5.596545e-05

exp_avg f4 [5]
0	0xbd1b594e	-0.037926964
1	0xbd58b17f	-0.05290365
2	0x3ca5369b	0.02016764
3	0x3cc45a7f	0.023968933
4	0xbd15b415	-0.036548693

exp_avg_sq f4 [5]
0	0x38e45882	0.00010888373
1	0x399b6224	0.00029637024
2	0x3908a1d3	0.00013030255
3	0x39c8f9ab	0.0003833299
4	0x3a0d21bf	0.00053837517

exp_avg f4 [31, 5]
0	0xbb1a6f20	-0.002356477
1	0xbaa96069	-0.0012922409
2	0x3bb7f322	0.0056137005
3	0x3b8a197c	0.0042144638
4	0x3a9515e7	0.0011374325
5	0xbc1ecfa0	-0.009693056
6	0xbc438e5b	-0.011935796
7	0x3ca1285c	0.019672565
8	0x3c73ed2c	0.014888089
9	0xbb9308b9	-0.004487124
10	0xbbcc77df	-0.0062398757
11	0xbba5bce4	-0.005057918
12	0x3c4dd7b0	0.012563631
13	0x3c26ca6d	0.010180098
14	0xba960b94	-0.0011447542
15	0xba6366f2	-0.0008674703
16	0x3a809653	0.0009810425
17	0x3adb4109	0.0016727756
18	0x3a984e86	0.0011620081
19	0x3a656b01	0.00087516016
20	0xbc49a610	-0.012307659
21	0xbc382c1c	-0.011240985
22	0x3cc051d2	0.023476515
23	0x3cb12078	0.021621928
24	0xba04bff3	-0.0005064003
25	0xbbd4e5df	-0.0064971293
26	0xbc009528	-0.007848062
27	0x3c576d65	0.01314864
28	0x3c4304af	0.011902972
29	0xbb5f77b9	-0.003409846
30	0xbb95e0f8	-0.0045739375
31	0xbbf2144d	-0.007387674
32	0x3c3490d0	0.011020854
33	0x3c0d54de	0.008626191
34	0xbb9b203c	-0.0047340672
35	0xbbd55bd3	-0.0065111904
36	0xbbeccd6e	-0.0072266376
37	0x3c628155	0.0138247805
38	0x3c415483	0.011799934
39	0xbabb181d	-0.0014274154
40	0xbb937e75	-0.004501159
41	0xba5d5cc8	-0.00084443064
42	0x3bb8b049	0.005636249
43	0x3c06b805	0.008222585
44	0x38e963ea	0.00011128916
45	0xbac9e03b	-0.0015401909
46	0xbb99bc71	-0.0046916534
47	0x3b51acef	0.0031993946
48	0x3b66c08e	0.0035209986
49	0xbba455a8	-0.005015094
50	0xba7e8b60	-0.00097100995
51	0xb99658b7	-0.00028676327
52	0x3b2eb5f8	0.0026658755
53	0x3acb1e5c	0.0015496719
54	0xba512093	-0.0007977571
55	0xbc0cf40c	-0.008603107
56	0xbc2a3cb9	-0.010390454
57	0x3c956af9	0.018239485
58	0x3c5ca0a1	0.013466031
59	0xbb83a472	-0.004017406
60	0x3a39e6d3	0.00070915854
61	0x39fe8349	0.0004854447
62	0x3916c0b8	0.00014376908
63	0xba6c283f	-0.00090086827
64	0xbae2a130	-0.0017290469
65	0x3a089811	0.0005210648
66	0x3aefc9e2	0.0018294419
67	0xbab5b7ff	-0.0013864039
68	0xbab447b9	-0.0013754285
69	0xb9b6ccd7	-0.00034866363
70	0xbbfe6969	-0.0077640307
71	0xbc1d95c7	-0.009618229
72	0x3ca89dbf	0.020583032
73	0x3c5ae448	0.013360091
74	0xbaaa47cb	-0.0012991367
75	0x3bc23e59	0.0059278426
76	0x3b327049	0.0027227572
77	0xbbf36de9	-0.007428874
78	0xbbfb0f2a	-0.00766172
79	0xbb64be7e	-0.0034903581
80	0x3b806e81	0.003919423
81	0xbac095fb	-0.0014693135
82	0xbaf9acd3	-0.0019048698
83	0xbb95cb78	-0.0045713745
84	0xbbcf2740	-0.0063218176
85	0xba03fc04	-0.00050348067
86	0xbbc797f5	-0.0060911127
87	0x3c02eb0d	0.007990611
88	0x3b3e14e6	0.0029004156
89	0xbba71c36	-0.0050997986
90	0x3b1081dd	0.002205006
91	0x3b51374e	0.0031923833
92	0xbb810657	-0.0039375233
93	0xbb6acbfc	-0.003582715
94	0x3aacedc2	0.0013193416
95	0x3c0b6e40	0.008510172
96	0x3b157b9a	0.0022809268
97	0xbc308488	-0.010773785
98	0xbc437686	-0.011930114
99	0xbbc6443f	-0.006050616
100	0xbb8ea60d	-0.004353291
101	0xbba42de3	-0.005010353
102	0x3c2e0457	0.010621152
103	0x3c09b63f	0.008405267
104	0x39061b64	0.0001278944
105	0xbc9d0dec	-0.019171678
106	0xbcb0254b	-0.021502158
107	0x3d1a47ce	0.037666135
108	0x3cff4b48	0.031163827
109	0xbbbfc8a1	-0.0058527743
110	0xbbed5952	-0.007243314
111	0xbbe22a6f	-0.006902031
112	0x3c75def2	0.015006768
113	0x3c4d6be9	0.012537935
114	0xbaae083e	-0.0013277603
115	0xbbbe1c8b	-0.0058017424
116	0xbb99a11e	-0.004688396
117	0x3c3c2f24	0.011485849
118	0x3c1ef97d	0.009703037
119	0xba5fae51	-0.000853275
120	0xbcaf834d	-0.021424914
121	0xbca122c2	-0.019669894
122	0x3d21935a	0.039447166
123	0x3d1468ba	0.036232688
124	0xbaf219ba	-0.0018470802
125	0xbba265bd	-0.004955976
126	0xbbad6266	-0.005291271
127	0x3c0fe628	0.008782901
128	0x3c207ffe	0.009796141
129	0xbab09ae3	-0.0013473894
130	0xbc377b64	-0.011198852
131	0xbc6f9898	-0.0146237835
132	0x3cc24d08	0.023718372
133	0x3ca4b9cc	0.020108126
134	0xbbda6c96	-0.0066657765
135	0xbc74a2af	-0.014931365
136	0xbc8e5efb	-0.017379275
137	0x3cfe64e6	0.031053971
138	0x3cd7978e	0.026317384
139	0xbba1798c	-0.0049278196
140	0xbc119d81	-0.0088876495
141	0xbbb47bd6	-0.0055079265
142	0x3c4be351	0.012444333
143	0x3c746d3c	0.014918622
144	0x37f57dac	2.9264796e-05
145	0xba429f4b	-0.0007424249
146	0xbbb87673	-0.0056293546
147	0x3b7fbb6c	0.0039021624
148	0x3b9268df	0.004468068
149	0xbb1cdf13	-0.0023936674
150	0x3bbd5794	0.0057782624
151	0xbc0ebd7d	-0.00871217
152	0x3b7e9982	0.0038848822
153	0xba2745bc	-0.00063809357
154	0x3b9ced80	0.0047890544

exp_avg_sq f4 [31, 5]
0	0x35829c7e	9.7313e-07
1	0x34ce9e51	3.848568e-07
2	0x37305382	1.0509861e-05
3	0x36c4f179	5.8693663e-06
4	0x357e14fa	9.46529e-07
5	0x36c03d92	5.7292136e-06
6	0x36e170cb	6.7186534e-06
7	0x382b28f8	4.0807732e-05
8	0x37c85e43	2.3885752e-05
9	0x35e61ff0	1.714563e-06
10	0x362fae50	2.6178495e-06
11	0x35c05059	1.4328499e-06
12	0x37b65386	2.1734984e-05
13	0x375bd97a	1.3104052e-05
14	0x359f4b28	1.1868296e-06
15	0x354b6eeb	7.57848e-07
16	0x3458fe97	2.0209187e-07
17	0x36d8031b	6.437663e-06
18	0x3669c11f	3.4832117e-06
19	0x350d1b83	5.256663e-07
20	0x376f325e	1.4257237e-05
21	0x3733edec	1.0724627e-05
22	0x38b58c94	8.656937e-05
23	0x38909593	6.8943154e-05
24	0x369901d9	4.5599704e-06
25	0x36d09d38	6.2171857e-06
26	0x370020a8	7.636998e-06
27	0x384436fd	4.6781253e-05
28	0x380e8211	3.3976572e-05
29	0x36421bd4	2.892445e-06
30	0x369ab061	4.610091e-06
31	0x36bb361f	5.579335e-06
32	0x38122b2d	3.4849323e-05
33	0x37b97bc5	2.2111353e-05
34	0x36348f63	2.6905552e-06
35	0x36b2f813	5.333693e-06
36	0x368e9c2d	4.250111e-06
37	0x382cf12b	4.12326e-05
38	0x37f2c741	2.8941433e-05
39	0x3607186e	2.0130788e-06
40	0x36a594c7	4.934703e-06
41	0x36815cf6	3.8553217e-06
42	0x37ea0e0d	2.7901517e-05
43	0x37f34fb2	2.9004968e-05
44	0x366395eb	3.39129e-06
45	0x367b8d76	3.7484256e-06
46	0x36a2bff4	4.8503225e-06
47	0x37970d5f	1.800683e-05
48	0x3778855b	1.4813001e-05
49	0x361fb066	2.3795524e-06
50	0x35cb969b	1.5168511e-06
51	0x35912b3c	1.0815925e-06
52	0x3734c9ae	1.0775793e-05
53	0x36a1c8d0	4.8215516e-06
54	0x3577bca3	9.2289173e-07
55	0x36b8850e	5.499117e-06
56	0x36e30103	6.765245e-06
57	0x380cab72	3.3538272e-05
58	0x379379e2	1.7580522e-05
59	0x363c84cd	2.8091483e-06
60	0x35a65fbe	1.2395828e-06
61	0x357068af	8.95593e-07
62	0x370c4343	8.360311e-06
63	0x36664120	3.4310578e-06
64	0x35621851	8.4226946e-07
65	0x35306e45	6.572557e-07
66	0x34ab9616	3.1960434e-07
67	0x36727035	3.6126123e-06
68	0x35d422cc	1.5805358e-06
69	0x34ba3618	3.4684558e-07
70	0x373374e0	1.06964435e-05
71	0x36b1b103	5.295618e-06
72	0x382ad312	4.0727733e-05
73	0x379fc11e	1.9044204e-05
74	0x3660dfe8	3.3508932e-06
75	0x363e95f7	2.8399497e-06
76	0x36783ea6	3.6991346e-06
77	0x373987d8	1.1058488e-05
78	0x3688f04e	4.081091e-06
79	0x365d46f1	3.297286e-06
80	0x36564977	3.1931247e-06
81	0x36921c1f	4.354413e-06
82	0x37213fdb	9.611215e-06
83	0x36f1eeba	7.210151e-06
84	0x36e743cb	6.8922286e-06
85	0x369874dd	4.5435577e-06
86	0x36a85568	5.0167328e-06
87	0x37d56e98	2.5443078e-05
88	0x3724455b	9.79131e-06
89	0x3682e832	3.901333e-06
90	0x3581600a	9.6392e-07
91	0x3630dd58	2.6354883e-06
92	0x36dfa426	6.6650273e-06
93	0x363d9929	2.8252346e-06
94	0x367b99b2	3.7491377e-06
95	0x36aa93ce	5.0836015e-06
96	0x36817b66	3.858865e-06
97	0x37347065	1.0755005e-05
98	0x3736619a	1.087077e-05
99	0x36ede9de	7.090376e-06
100	0x35f33ab8	1.8122e-06
101	0x35ed66b1	1.7687763e-06
102	0x37bf45b5	2.2801434e-05
103	0x376af033	1.4003413e-05
104	0x35a25aca	1.2096364e-06
105	0x378f764f	1.710202e-05
106	0x3793795f	1.7580283e-05
107	0x38eac195	0.00011194047
108	0x38a92dea	8.0671e-05
109	0x366a1e2e	3.4886284e-06
110	0x367b6297	3.7459301e-06
111	0x3634718d	2.6888185e-06
112	0x380c9f91	3.352721e-05
113	0x37bb33fb	2.2316342e-05
114	0x35d536e8	1.5885716e-06
115	0x363badd2	2.7966348e-06
116	0x35d169c9	1.5602501e-06
117	0x37c846a2	2.3874749e-05
118	0x377e41e4	1.5154921e-05
119	0x3573551b	9.06484e-07
120	0x37e9f5a7	2.7890155e-05
121	0x379d1e5d	1.8729997e-05
122	0x3920d0a7	0.00015336518
123	0x39109852	0.00013789654
124	0x371da26d	9.395747e-06
125	0x36a3d543	4.8826055e-06
126	0x36d4cc42	6.341871e-06
127	0x38118a37	3.4699417e-05
128	0x38134c7b	3.511876e-05
129	0x366b25ac	3.5039657e-06
130	0x3717b433	9.042257e-06
131	0x374a6e70	1.20658515e-05
132	0x38929c5d	6.9909474e-05
133	0x38583527	5.1547915e-05
134	0x36681d6f	3.4587827e-06
135	0x37552c41	1.2706093e-05
136	0x3763f24a	1.3586667e-05
137	0x38d1791e	9.9884564e-05
138	0x389b70f9	7.412019e-05
139	0x368ab41e	4.133689e-06
140	0x36ebd8b3	7.028773e-06
141	0x36a208ac	4.8289858e-06
142	0x37fe536b	3.0318004e-05
143	0x382f0cc7	4.173515e-05
144	0x369deba3	4.7063963e-06
145	0x3663f0f7	3.3965896e-06
146	0x36d0ec76	6.2264107e-06
147	0x37d0a11f	2.487056e-05
148	0x37cc4f3f	2.4355597e-05
149	0x360e5618	2.1209762e-06
150	0x3745113e	1.17461295e-05
151	0x3699f1f2	4.5879215e-06
152	0x37828276	1.5557958e-05
153	0x37268537	9.9253875e-06
154	0x36c93bda	5.9972344e-06

exp_avg f4 [31]
0	0xbc844d81	-0.016150238
1	0xbd4acafb	-0.049509984
2	0xbd0cb0d3	-0.03434832
3	0xbbbeb9b1	-0.005820476
4	0xbd8704a2	-0.065926805
5	0xbd13d362	-0.036090262
6	0xbcef2e0e	-0.029196765
7	0xbd1baf18	-0.03800878
8	0xbcaa7719	-0.020808743
9	0xbc005a37	-0.007834009
10	0xbc021086	-0.00793851
11	0xbd42926d	-0.047502924
12	0xba5b1d19	-0.0008358523
13	0x3b36a793	0.0027870878
14	0xbd617a21	-0.05504811
15	0x3c99d3a8	0.018777683
16	0x3be266bf	0.006909221
17	0xbc9cfc0b	-0.019163152
18	0x3c121cab	0.008917968
19	0x3cf90e96	0.030402463
20	0xbcf071e3	-0.02935118
21	0xbdca927e	-0.098912224
22	0xbd288475	-0.041141946
23	0xbd035b95	-0.03206976
24	0xbddef9f3	-0.10887518
25	0xbcd6b5b7	-0.026209695
26	0xbd813bf8	-0.06310266
27	0xbdaa6d69	-0.083216496
28	0xbd181db1	-0.03713769
29	0xbc43509e	-0.011921076
30	0xbbddecb2	-0.006772601
