Cancer-senn/self_trial4/models/cancer/grad3_Hinput_Thdummy_Reg1e-02_LR0.001/checkpoint.pth.tar (torch_old, 26436 bytes, 34 tensors)

parametrizer.linear1.weight f4 [10, 30]
000000 ea 6f 10 3d e2 26 49 be 53 1a 11 be 3b 68 d8 3d
       0.03526298 -0.19643739 -0.14170198 0.105667554
000010 6c 7f de 3a 0d 5b 0d 3e ca 92 0c 3e e1 94 86 bd
       0.001697523 0.13804264 0.1372787 -0.06571365
000020 13 85 4f be ba 10 cf 3d cf f7 34 be c7 70 4e 3d
       -0.20265608 0.10110612 -0.17672656 0.05040052
000030 b1 f1 10 3d 97 99 01 3e e4 60 ab bd 87 c9 6d bc
       0.035386745 0.12656246 -0.0836809 -0.01451338
000040 c7 18 fb 3d 7f 64 d8 bd 0c 92 d4 3d 1b 2d a6 3d
       0.12260585 -0.10566043 0.10379419 0.08114072
000050 6b 86 65 3d 18 44 9b 3d f5 c1 1c be 2b 99 1a 3d
       0.056036394 0.07581347 -0.15308364 0.03774373
000060 bb 00 d7 3d 66 fc 96 3d ef c3 c9 bd 46 58 d4 3d
       0.10498186 0.0737236 -0.098518245 0.10368399
000070 cb ee 2d be dc bd 15 3e 46 1b 62 3d da 88 f1 bc
       -0.16985624 0.14623207 0.05520179 -0.029484201
000080 1f 4c 01 3e 52 f2 0d 3e 73 c9 9b 3d 5f 5e 60 be
       0.12626694 0.13861969 0.07606783 -0.21911
000090 f1 e7 2c bc 42 a9 6c bd 90 a1 d2 3d 08 a1 09 3d
       -0.010553346 -0.057778604 0.10284722 0.033600837
0000a0 00 2a 9f 3d ab 4d 3e be 6b 8f 20 3e ac f3 25 be
       0.07771683 -0.18584315 0.1567971 -0.16206235
0000b0 ad 03 7b bd 69 0d e3 3d a9 44 d3 3c ab 2d 48 3e
       -0.061282802 0.11086542 0.025789576 0.19548671
0000c0 92 c0 9f 3b 16 70 93 3d 19 0c c5 3c d6 43 83 bd
       0.004875251 0.07199113 0.02405362 -0.06409423
0000d0 7f 9e fd 3d dd d0 82 bd d9 d8 ba bd a4 2b 2b bd
       0.12383746 -0.06387494 -0.09123392 -0.041789666
0000e0 48 1f 1d 3e e1 4f 4b be 74 24 e8 bd 16 87 e7 bd
       0.15343964 -0.1985469 -0.11335078 -0.113050625
0000f0 76 ae 18 be bf ca b3 bd 80 d0 1d bd 5a fd b3 bd
       -0.14910302 -0.08778905 -0.03852892 -0.08788557
000100 aa fc f4 bd 91 6f f4 bd bb ce e9 bd b9 5e 89 3c
       -0.11962254 -0.11935342 -0.11416384 0.0167688
000110 5d e4 8b bc 7a 93 e5 3d 94 41 c0 3c 46 93 86 bd
       -0.017076666 0.112097695 0.02346877 -0.06571059
000120 29 7f 3b 3e f3 dc 9a bc e8 bd 85 bd 57 be b5 bc
       0.18310227 -0.018904185 -0.06530362 -0.022185488
000130 3c 9e 64 bb d1 47 2a bd 95 18 22 be e4 77 c8 bd
       -0.0034884354 -0.041572396 -0.1582969 -0.09788492
000140 61 0d 1b 3e 5f 48 10 3d 8f 62 e5 3d 24 4e 03 3e
       0.15141822 0.03522527 0.11200439 0.12822777
000150 c2 b4 46 be 00 9d 07 bd 0f 2d 8a bd 2a 5c 00 3c
       -0.19404891 -0.03310871 -0.067468755 0.007834474
000160 07 5c a3 3d b6 a1 5d 3d a1 dd 21 bd 9e bc d6 3c
       0.07976537 0.054109298 -0.039518002 0.026212987
000170 09 2c 95 3d 63 fb 2b 3e 48 36 0c 3e 82 0e 8a bd
       0.0728379 0.16795115 0.13692582 -0.067410484
000180 1c f8 00 bd 56 0a 17 be fb 84 f8 3d 56 4a 38 be
       -0.031486616 -0.14750037 0.12134739 -0.17997107
000190 d7 4d 56 3d c0 a2 2a 3e 5e 76 15 bd a5 7f 05 bd
       0.052320328 0.16663647 -0.036489837 -0.032592434
0001a0 5f e4 1c 3e be e2 5e 3d 6c 94 d2 bd ac f9 c5 bd
       0.15321492 0.054415457 -0.102822155 -0.09666762
0001b0 fb 6f e4 3d 30 f1 10 3e ce b2 42 bd f4 34 b5 3b
       0.11154171 0.14154506 -0.047533803 0.005529994
0001c0 eb 80 1d 3e 39 d4 38 bd 05 bc 1f bc b0 da 9e 3c
       0.1538121 -0.045124266 -0.009749417 0.019391388
0001d0 90 f3 bc 3c 22 26 a8 bd cf 60 52 3d 62 79 f8 bc
       0.023065358 -0.08210398 0.051361855 -0.030331317
0001e0 e8 01 53 bd 23 e2 04 3d 7d 4b 0f be c4 50 50 be
       -0.05151549 0.032442223 -0.1399364 -0.2034331
0001f0 34 24 17 3d 17 63 50 be 74 60 ff 3d 59 93 cb bd
       0.03689976 -0.203503 0.12469569 -0.09940214
000200 91 b8 d4 ba 20 ce e0 bd 04 6c c7 3d 29 e5 0f 3e
       -0.0016229321 -0.10976815 0.09737399 0.14052261
000210 04 a8 b4 3d f7 21 3f bd 63 ba 23 3e 36 1c 1f 3c
       0.08821109 -0.04666325 0.1598907 0.009711316
000220 f8 a6 13 bd f1 c8 06 3e f3 29 8b bd 73 2c 1a 3c
       -0.036047906 0.1316259 -0.067951106 0.009410012
000230 25 7f 41 be 77 4d 4b 3d 6e be ff 3d ba ae a0 3d
       -0.18896158 0.049634423 0.124874935 0.078458264
000240 a2 e6 3e 3b 5e 1d b2 bd f5 ef 25 be 9a f4 58 3d
       0.0029129167 -0.086970076 -0.16204818 0.052967645
000250 73 79 dc bd 12 17 36 be 29 23 f2 bc 8e 4b 03 3e
       -0.10765352 -0.17782238 -0.029557781 0.1282179
000260 a4 a4 38 be ad 03 3c be 59 90 e2 bd e8 16 b3 3d
       -0.18031555 -0.18360777 -0.110626884 0.087446034
000270 b1 43 e4 bd 4c 05 b7 3d 1c b5 b9 bc 7b f7 41 3d
       -0.111457236 0.08936557 -0.022669367 0.047355156
000280 b5 c9 28 bd 41 e6 07 be 06 23 bc 3c d6 7b 2b be
       -0.041207988 -0.13271429 0.02296592 -0.16746458
000290 16 56 14 be f2 53 c8 3d 9d f5 da bd a7 88 8e 3d
       -0.14485964 0.09781636 -0.10691378 0.06959658
0002a0 a1 2c b7 3c 9d b3 3c 3e bc f7 cc 3d e1 8e 4f be
       0.022360148 0.18427892 0.10008189 -0.20269348
0002b0 de e5 4d 3d 5e 12 0d be dd b3 9a 3d 64 ff 24 be
       0.050268047 -0.13776538 0.075538374 -0.16113049
0002c0 f9 fe 30 3d b5 48 94 bd 24 45 18 be 94 0f 11 3c
       0.04321191 -0.0724043 -0.14870125 0.008853812
0002d0 46 84 ac 3d 98 2a 0d be 45 60 f2 bc b2 9a 09 be
       0.08423667 -0.1378578 -0.02958692 -0.13437918
0002e0 ac 8b 78 bd 97 46 f0 bc bb ff 0d 3e cf ce 2d 3d
       -0.060680076 -0.029330535 0.13867085 0.042433556
0002f0 12 b7 14 3e 9e 57 31 3d ed 8a b3 bd 42 35 cc 3d
       0.14522961 0.04329645 -0.08766732 0.099710956
000300 7d 53 6f 3d 15 d7 69 3c cf f0 b7 3b fe 3c 50 3a
       0.05842923 0.014272471 0.0056134234 0.0007943659
000310 43 f9 13 3d 4d c6 83 bc db f2 20 be 0c 0c b1 bd
       0.036126386 -0.016085768 -0.15717642 -0.08644876
000320 4d d0 31 3d a8 8c 08 be 4e 28 a3 3d e0 1f d3 bd
       0.04341154 -0.13334906 0.07966672 -0.10308814
000330 d4 02 93 3c 8c a8 bf 3d 33 82 21 be e1 1b 07 be
       0.017945684 0.0935832 -0.15772323 -0.13194229
000340 9c 7c fa 3d a5 b4 cd 3d 0a 7b 4c bd 01 d8 26 3e
       0.122307986 0.10044221 -0.049922027 0.16293336
000350 b1 e6 f4 bd 75 7d 2e 3e cc 36 f2 bc c4 8b d6 3d
       -0.119580634 0.17040046 -0.029567145 0.10475877
000360 14 ea 54 bd b3 f1 3b 3d 60 f6 f2 bd ab e0 23 bc
       -0.051981047 0.0458848 -0.118633986 -0.0100022955
000370 e5 4d 25 3e 1f c0 4c be fc 77 f5 3d 17 27 f2 bd
       0.16142996 -0.19995163 0.11985776 -0.11823862
000380 c8 e0 24 be 96 33 d0 bd 08 47 43 be 79 7b c0 3d
       -0.16101372 -0.10166089 -0.19070065 0.093985505
000390 9b f5 10 3d f9 3c 31 3d 4a 13 27 3d 65 fc d5 3c
       0.035390478 0.04327104 0.04078988 0.026121328
0003a0 6a b3 09 be ad 41 a3 bc 97 73 05 3e b5 d3 10 bd
       -0.13447347 -0.019928778 0.13032375 -0.03535815
0003b0 15 54 8a 3d 0f d9 95 bc 27 d3 12 bd 91 ea 33 bd
       0.067543186 -0.018291978 -0.0358459 -0.04392487
0003c0 57 09 ca 3d 2f 46 69 3e d6 57 2e 3e 68 fb 07 3c
       0.09865063 0.22780679 0.17025694 0.008299686
0003d0 eb 6c f1 bd ce e9 32 3e f6 12 04 3e b5 32 be bd
       -0.117883526 0.17472002 0.12897858 -0.09287015
0003e0 2a 82 20 be 9c 40 da 3d c7 75 14 3e c4 3b 76 3d
       -0.15674654 0.106568545 0.14498053 0.06011559
0003f0 da 75 b0 bd bc 63 02 3e 76 1f e6 3d 53 22 84 bd
       -0.086162284 0.12733358 0.112364694 -0.06451859

parametrizer.linear1.bias f4 [10]
000000 24 4e e3 bd e6 30 95 3d 82 fb 49 3e 2e 7b 20 3e
       -0.110988885 0.07284717 0.19724849 0.1567199
000010 b8 b3 94 3d 25 c7 1b 3c 0e fa 0c be 84 37 00 bc
       0.07260841 0.009507929 -0.13767263 -0.007825736
000020 11 02 14 3e 65 c0 ce 3c
       0.14453913 0.025238225

parametrizer.linear2.weight f4 [10, 10]
000000 8f 53 94 3e 87 4f a4 be 7e a6 91 3e 61 1c 99 be
       0.2897 -0.32091925 0.28447336 -0.29904464
000010 86 84 94 3e 9b 06 53 3e f8 16 a0 bd a0 6a 22 be
       0.29007357 0.20607989 -0.07816881 -0.15860987
000020 07 2f 16 be 94 93 28 3d eb 6a fb ba b9 59 ac be
       -0.14666377 0.041156366 -0.0019181644 -0.33662203
000030 ae 36 bb 3c 9c 2a 4d 3e 4c 4b 11 be e4 9a 55 3e
       0.022853222 0.20035785 -0.1418888 0.20859867
000040 be ff 4e be 7c a2 a7 3e fa e5 74 be ac 6f 82 3e
       -0.20214745 0.32741153 -0.23915854 0.25475824
000050 8b e2 c2 3d 9b 34 80 be 21 65 50 bd 66 f7 93 3e
       0.09515866 -0.25040135 -0.050877694 0.28899688
000060 08 ca 93 3b 62 4f 8b be 42 f2 81 bd 1d 6e 0c 3e
       0.004510168 -0.27209002 -0.06345035 0.1371388
000070 90 bf 1d be b3 00 af 3d 1c cb 3c be 82 03 d8 bd
       -0.15405107 0.08545055 -0.18436855 -0.10547544
000080 3c bb 33 3e e3 b3 43 be 99 36 8e be e8 44 42 3d
       0.17551893 -0.1911159 -0.2777603 0.047428995
000090 76 5f f5 3d 74 ac 6f be dd e6 e1 3d 9a 21 33 be
       0.11981098 -0.2340563 0.11030362 -0.17493287
0000a0 f9 81 9e 3c ed e9 71 be de f3 b3 be f0 dc 23 be
       0.019349085 -0.23624392 -0.35146993 -0.1600225
0000b0 41 0b 84 39 0f 58 10 be 79 16 04 3e d4 6e 7a be
       0.00025185387 -0.14096092 0.12899198 -0.2445634
0000c0 84 9b 04 3e 6e da 2d bd 77 84 25 3e 65 44 32 be
       0.1294995 -0.04244464 0.16163813 -0.17408903
0000d0 19 52 36 bd eb 38 a4 bd 5e d9 ac bd 25 f4 40 3e
       -0.04451189 -0.08018669 -0.08439897 0.18843134
0000e0 b0 ec 2c be 14 33 dc bc 3b ff a5 3e 13 ad b9 3d
       -0.16887164 -0.026879825 0.32421288 0.090662144
0000f0 90 3c 00 be b1 10 af be 9b 74 1f bd 56 ba 43 3e
       -0.12523103 -0.34192422 -0.038929563 0.1911405
000100 bc 6a 1a bd 41 00 6b be ac 7c 4e bd f1 f7 3f 3e
       -0.037699446 -0.22949316 -0.050411865 0.18746926
000110 16 01 8c 3d 49 87 da 3d 72 0c 1b 3d 6d 52 3d 3e
       0.068361446 0.10670335 0.037853666 0.18488474
000120 9e 5f 3a 3e 20 27 96 3d fc 34 26 be 3a d2 4b be
       0.18200538 0.07331681 -0.1623115 -0.19904414
000130 b7 a2 9d be a1 f6 40 be b2 ba 62 3e 0c a0 81 be
       -0.30788204 -0.18844081 0.22141531 -0.2531742
000140 fa 39 20 be 66 2f c4 3d 01 e4 58 be aa f4 8c be
       -0.15647116 0.09579353 -0.21180727 -0.27530414
000150 9d 54 79 be 80 63 89 3d 7b 0b 1c 3e 28 59 4a be
       -0.24348684 0.06708431 0.15238754 -0.19760573
000160 10 f2 7a 3b 75 7d 5c be 5e 4d 17 3d cb d7 08 be
       0.0038291253 -0.21532233 0.036939017 -0.13363568
000170 57 6f 53 3e 00 c5 69 bb be d9 5c bd 4e 4b 9b be
       0.20647942 -0.00356704 -0.053918593 -0.3033089
000180 f5 26 91 3d 00 fe 17 3e e7 b3 6d 3e b3 c1 29 3d
       0.070875086 0.14842987 0.23213159 0.04144449

parametrizer.linear2.bias f4 [10]
000000 8e 53 b5 be da 48 71 be fd ab 19 3e 0e b5 e2 bd
       -0.3541531 -0.23562947 0.15007015 -0.1106969
000010 60 d2 3b be 5d 27 a8 bd 60 5a eb 3c 50 90 8e 3e
       -0.1834197 -0.08210633 0.028729618 0.27844477
000020 dd e7 77 3e 6d 33 50 be
       0.24209543 -0.20332117

parametrizer.linear3.weight f4 [5, 10]
000000 f6 f2 a0 3e 89 7e 56 be ae 7d 1d bc b0 06 41 3d
       0.31435364 -0.20946707 -0.009612484 0.04712552
000010 18 10 3b bd 76 d7 7a 3e ac d0 80 be cd 78 34 3e
       -0.045669645 0.24496254 -0.25159204 0.17624207
000020 81 dc 9d bd ef 87 46 be 05 68 a9 3e 57 f0 66 bc
       -0.077080734 -0.19387792 0.33087173 -0.014095387
000030 7f b3 29 3d 0a 63 88 3e c7 ec c9 3c f4 20 43 be
       0.041430946 0.2663806 0.024649037 -0.1905554
000040 66 07 5f 3d 6f 3a 94 be e7 21 c9 3d 92 6f 0a be
       0.054450415 -0.2895083 0.098209195 -0.13519123
000050 af 62 be 3d e5 65 88 be 32 f5 0d be d9 31 74 3b
       0.09296166 -0.2664024 -0.13863066 0.0037261157
000060 d5 12 1a be 75 ba 80 3d 3f e8 46 be 55 82 a3 3d
       -0.15046246 0.06285564 -0.19424532 0.07983843
000070 c0 44 4d be 1a 5c 0d 3e 87 ef 00 bd e6 c2 f5 3c
       -0.20045757 0.13804665 -0.03147843 0.030000161
000080 2a e2 23 be 8f 40 7f 3e 05 eb 71 be 0e d8 a1 bd
       -0.16004243 0.24926971 -0.23624809 -0.07902537
000090 6e 63 3a 3d 85 3b f1 3d f3 b9 0b 3e 2f 37 90 3e
       0.04550498 0.117789306 0.13645153 0.28167102
0000a0 2d 52 fd ba 98 db 90 be 83 ef 38 bd 89 cd 9d be
       -0.0019326858 -0.28292537 -0.04515029 -0.30820873
0000b0 00 08 bf be 36 9d 5d bb ab 09 45 be 40 cd fc bc
       -0.3731079 -0.003381563 -0.1924197 -0.03085959
0000c0 d8 e9 58 be 79 e6 a6 3c
       -0.21182954 0.02037357

parametrizer.linear3.bias f4 [5]
000000 0c f2 98 be 82 20 cb ba 2a 2d 06 be 26 a9 08 be
       -0.29872167 -0.0015497359 -0.13103166 -0.13345775
000010 4f 34 12 3e
       0.14277767

parametrizer.linear4.weight f4 [31, 5]
000000 f9 45 9c 3e e2 fb ee be df b2 81 3d 16 d4 c6 be
       0.30522135 -0.46676546 0.06332945 -0.38833684
000010 9e e0 b4 3e 7c 44 16 3e 3b d6 b7 bb 45 ed 99 be
       0.3532762 0.14674562 -0.005610255 -0.30063835
000020 63 37 bf 3d 3f 51 87 3e ef ca c0 be 09 e3 2f be
       0.09336736 0.26429173 -0.37654826 -0.17176451
000030 af 41 b8 3d 79 cc e6 3d e2 84 00 3f 31 46 9f be
       0.08996903 0.11269469 0.50202763 -0.3110824
000040 b3 c6 db bd 8a 3a b1 3e 5e 5c 3f 3e 2a 50 8e bd
       -0.10731258 0.34614974 0.18687579 -0.06948884
000050 70 30 a5 3e 15 a7 29 bd c7 e3 c4 3c 47 a8 9c 3e
       0.32263517 -0.041419107 0.024034394 0.30597135
000060 a1 69 a3 3d 61 94 9d be 58 dd 43 3e 47 74 53 be
       0.079791315 -0.30777267 0.19127405 -0.20649825
000070 7e ec 22 3e 73 53 90 be 68 55 91 be ba 2c a6 3e
       0.15910527 -0.28188667 -0.28385472 0.32456
000080 55 c8 0d be 36 31 2b be 13 6f c5 be 7a 74 81 be
       -0.13845952 -0.16717991 -0.38561305 -0.25284177
000090 15 67 0d bc 28 5b 35 3e 34 4e 86 be cc d5 c1 3e
       -0.008630534 0.17710555 -0.2623154 0.37858427
0000a0 4d cd fb bd 99 46 5c be d1 91 a8 3e 51 57 40 be
       -0.122950174 -0.21511306 0.3292375 -0.18783309
0000b0 cc 04 32 3e 64 1a 31 be 51 98 16 3e 83 9a c3 be
       0.17384642 -0.17295223 0.14706542 -0.3820382
0000c0 ee 7f 39 be aa cb 93 3e 50 c8 94 be eb c9 ac be
       -0.18115208 0.2886632 -0.29059076 -0.337478
0000d0 f5 db 07 3e 88 0e 87 3d 0e 9a ac be 90 56 78 be
       0.132675 0.065945685 -0.33711284 -0.24251771
0000e0 b4 02 00 3e a0 30 d4 3d 16 3f 1b 3e 6f 3c f0 bd
       0.12501031 0.10360837 0.15160784 -0.11730277
0000f0 da 8f c0 3e 5e d9 cb be de c2 0f be 67 72 66 3d
       0.3760975 -0.39814276 -0.1403918 0.056261446
000100 7b 4b 17 3e 75 a4 d9 be 40 cb 92 3e 98 4d 07 be
       0.14774887 -0.42508283 0.28670692 -0.13213193
000110 f8 f9 82 3e 3d 1a 87 be 1f d3 ee bd 41 ef 0f 3e
       0.25581336 -0.26387206 -0.11661362 0.14056112
000120 89 1e df bd 19 5a b5 3e 5a 50 77 3e 7d ab b2 3e
       -0.10894496 0.35420302 0.24151745 0.3489646
000130 e9 6d c0 be 0a c0 71 bd 03 2b ce 3e fc 2b 51 3d
       -0.37583855 -0.059021033 0.4026719 0.051067337
000140 e0 e3 fd be e8 e5 a7 3e 8f aa e3 be 4b ae d1 3e
       -0.49587917 0.32792592 -0.44466063 0.40953287
000150 62 cb f0 3e 54 1d f9 3d 2f 05 1f 3e 8c 32 9b bd
       0.4703017 0.12163797 0.15529321 -0.075780004
000160 13 28 d9 bc 97 af 1a 3e f2 78 9a 3e 3b 9f 39 3e
       -0.026508367 0.15106045 0.301704 0.18127148
000170 53 5e 3c bd 36 e6 43 3c ae ea 07 be d7 91 94 bd
       -0.045988392 0.011956742 -0.13273117 -0.07254379
000180 eb 6e 9b bd 71 0b e1 3d 61 76 cb bc fe 1b b3 be
       -0.07589515 0.109885104 -0.02483672 -0.34982294
000190 b2 a8 ef be c4 88 fa be 7d 5b 4a 3e ac 85 72 be
       -0.46808392 -0.4893247 0.19761463 -0.23683804
0001a0 8e 76 84 3c b1 d0 8b 3e 1a 7c 7b 3e 9a aa 68 3e
       0.016169813 0.27307656 0.2455906 0.2272133
0001b0 cb b6 cb be a1 1c ce 3e 0d 01 c5 be 6b 77 11 be
       -0.39787897 0.40256217 -0.38477364 -0.1420571
0001c0 40 3c bf 3e 86 7c a3 3d e9 85 97 3e 07 b9 c3 3e
       0.37350655 0.07982735 0.29594353 0.38227102
0001d0 6b c0 e8 be a5 24 65 bd a3 ae bb 3d fb 14 f2 3e
       -0.45459303 -0.05594315 0.09164169 0.47281632
0001e0 65 e9 4e bc 5f 67 09 bd 6d bd f8 bb 6b f5 b4 3e
       -0.012628888 -0.033545848 -0.0075909407 0.3534349
0001f0 75 45 71 be 1e 66 6f be 31 0a 02 3e d2 0f 5f 3d
       -0.23561652 -0.23378798 0.126992 0.054458447
000200 be 84 9d be f7 24 df 3d 91 60 35 3e ac 37 94 3e
       -0.30765337 0.10895722 0.17712618 0.28948724
000210 b0 82 77 be 0c fb 21 bd 1a e4 f7 bd 78 ab e9 be
       -0.24170947 -0.039546058 -0.12104054 -0.45638633
000220 7a b6 1b 3e f0 ed ac 3e ee cf b8 bd 30 19 9d 3d
       0.15206328 0.33775282 -0.090240344 0.0767082
000230 2d 77 3b 3d 84 a9 85 be 23 68 dd bd fc 8e 7d 3e
       0.04576795 -0.26105893 -0.10810878 0.24761575
000240 30 f0 7b be 3a 79 ee be a2 20 3f be 9d 3b dc be
       -0.24603343 -0.46576864 -0.18664792 -0.4301423
000250 53 5f 0a bd 0d 0d 1c be fc 83 6f be 30 99 db be
       -0.033782315 -0.15239353 -0.23390192 -0.4289031
000260 0a 9e 8c 3e 7f 30 ac 3e 9d d7 b5 be
       0.27464324 0.3363075 -0.35516062

parametrizer.linear4.bias f4 [31]
000000 db 49 69 be 75 7d 53 be 7b 28 94 3e 80 f4 0d 3e
       -0.2278208 -0.20653327 0.28937134 0.138628
000010 66 64 93 b9 06 17 8a 3e 33 da c8 3e 46 2f 2c 3e
       -0.00028112828 0.2697069 0.39228973 0.16814908
000020 4a bc 7d 3e 1a 3b 16 be 57 0d c3 3e 55 f7 70 be
       0.24778858 -0.14670983 0.38096115 -0.2353185
000030 b5 c4 41 be 45 0d dc 3e 18 c6 73 be 33 41 1b 3e
       -0.18922694 0.42978874 -0.23806036 0.1516159
000040 f5 80 c8 be e5 1d 0f 3e 33 81 06 be 6c fc b8 3e
       -0.39160886 0.13976248 -0.13135223 0.36130083
000050 05 33 b5 3e a9 26 df bb 07 fb c2 be 81 1a 90 be
       0.35390487 -0.0068100286 -0.38082144 -0.2814522
000060 f7 4d 49 be a7 2c a9 bd c7 54 b2 3e a2 9f 68 bc
       -0.19658647 -0.0826047 0.34830305 -0.014198216
000070 98 c0 9b 3c 86 05 cc bd 31 0a cc be
       0.019012734 -0.09961991 -0.39851525

exp_avg f4 [10, 30]
000000 79 12 22 3a 37 ac 62 3b 4a d7 6f 3a ca 32 ee 38
       0.0006182562 0.0034587511 0.0009149207 0.000113581846
000010 80 9b 9a 3b 70 96 f3 3a 79 2b f1 3a 94 0a 41 3b
       0.004718244 0.0018584263 0.0018399797 0.0029455768
000020 2a e0 39 3b c9 aa 0a bb 7b 2d 2f 3b c2 a9 79 3b
       0.0028362372 -0.0021158925 0.002672999 0.0038095568
000030 24 7f 29 3b d4 4a 10 3b e7 92 00 bb 1e 4e 8f bb
       0.0025863135 0.0022017257 -0.001961881 -0.004373326
000040 b0 04 c7 bb fb c8 00 bb 5f 72 31 3b 4b 15 e3 bb
       -0.006073557 -0.0019651044 0.0027076227 -0.0069300286
000050 85 8d d6 3a 9e 07 b7 3b 07 87 f3 3a c7 79 58 3a
       0.001636908 0.005585625 0.001857967 0.00082578923
000060 83 5c d4 3b 5a a7 73 3b da 58 e2 3a e4 b2 76 3b
       0.006480755 0.0037178607 0.0017268911 0.0037643248
000070 89 f3 aa 3b c1 eb 30 3b dc 21 5a 3b a5 05 99 ba
       0.00521702 0.002699599 0.0033284342 -0.0011674656
000080 54 f4 86 3b 12 69 4d 3b a0 11 68 3c e4 c2 10 3c
       0.0041184817 0.0031343144 0.014164358 0.008835528
000090 59 a6 e5 3b 72 3f 13 3c 9d 9f 2b 3c 9b cd 26 3b
       0.0070083556 0.0089872945 0.0104750665 0.002545214
0000a0 6f 05 e9 3b e1 25 aa 3b f7 a0 e7 3b fd de d0 3b
       0.0071112434 0.005192504 0.007068749 0.0063742385
0000b0 43 56 f4 3a e7 22 c6 3a b3 02 35 bb 20 a3 5b 3b
       0.0018641431 0.0015116603 -0.0027620017 0.0033513978
0000c0 13 86 a5 3b dd 9c 9a ba e7 66 7b 3b 63 94 e6 39
       0.0050513833 -0.0011796016 0.0038360895 0.00043979575
0000d0 fe 9d 90 3b a2 65 5c 3b 4d 55 1d 3c 02 42 e2 3b
       0.0044133654 0.0033629914 0.009602857 0.0069048414
0000e0 14 a4 85 3b cd fb f5 3b 15 ed b2 3b 58 6b cd 3b
       0.0040783975 0.0075068236 0.0054603913 0.0062689
0000f0 40 1e 28 bb d3 cf 82 bb 88 bb 22 bb 36 71 15 bb
       -0.0025652796 -0.0039920597 -0.0024831016 -0.0022803075
000100 07 20 e7 3b 61 ef 1e 3a c3 2b 0e bb 2e 76 84 39
       0.0070533785 0.0006062892 -0.0021693564 0.00025265053
000110 87 41 b8 3b 62 51 53 3a e2 94 9e 39 53 07 79 38
       0.005623046 0.0008061138 0.00030247035 5.9373047e-05
000120 7a 90 ac b9 2e a1 c8 39 29 1d e7 b9 26 4c 5c bb
       -0.0003291404 0.0003826706 -0.0004408148 -0.0033614724
000130 19 e4 d6 bb 99 82 0b bb 78 6d bf 38 d1 fa 99 bb
       -0.006557953 -0.002128756 9.12798e-05 -0.004699089
000140 97 3f cd ba 9a b0 36 bb 33 fb be ba 57 39 82 ba
       -0.001565921 -0.0027876259 -0.0014570713 -0.0009935301
000150 ec b6 88 3b 05 95 03 3a 4c b4 3c bb ec 79 7f b9
       0.0041721966 0.0005019459 -0.0028793989 -0.00024364115
000160 a3 00 2a 3b f1 15 c7 3a 30 7c 06 3b 8d b6 f7 ba
       0.002594032 0.0015189034 0.00205208 -0.0018899009
000170 42 e4 09 3b 2b ec 0e 3b 62 ae 8b ba 84 83 01 3a
       0.0021040593 0.0021808248 -0.0010656829 0.0004940557
000180 54 44 bf 3a 3c 42 4d 3a 79 dd ac b9 90 77 2c b9
       0.0014592507 0.0007829999 -0.00032971406 -0.00016447739
000190 27 0a 3e 3b b3 60 e0 3a 08 39 5a 3b 77 ee 31 3b
       0.002899775 0.0017118662 0.0033298153 0.0027150193
0001a0 49 63 00 3b e1 e7 a3 3a 92 b9 6c 3b 0f de 05 3b
       0.0019590429 0.0012505018 0.003612135 0.0020426547
0001b0 4a 5c 2e 3b d9 1c 2b 3b bb 83 4f 3a 1e 32 2d bb
       0.0026605302 0.0026109724 0.0007916053 -0.0026427577
0001c0 4d 12 78 3a f3 03 69 3a bc 0d 60 bb 94 ab 33 bb
       0.0009463176 0.0008888833 -0.0034187874 -0.00274155
0001d0 da e0 60 ba 25 6d 65 ba 94 29 5c bb 35 e9 53 bb
       -0.00085784274 -0.00087519205 -0.0033594118 -0.0032335047
0001e0 47 b2 4f 3b 3c 92 f0 3b 10 bf 62 3b 44 ff 41 3b
       0.0031691955 0.0073416512 0.0034598745 0.0029601613
0001f0 9c 27 22 3b 25 f7 94 39 b6 88 bb 3a c4 68 6d 3b
       0.0024742847 0.00028412897 0.0014307711 0.0036225775
000200 ab fe 1d 39 78 ea fa bb b4 ef 8d 3b 5d 0d f9 3b
       0.00015067558 -0.0076573454 0.0043315534 0.00760047
000210 f3 85 93 3b 42 47 9a 3b 69 37 3f bb 6d 2d 04 bc
       0.004502052 0.0047082016 -0.0029177314 -0.008067471
000220 3e 10 28 bc 42 6d 74 bb 2c f4 33 b9 93 2c 72 bc
       -0.010257779 -0.0037296568 -0.00017161731 -0.014781135
000230 05 a0 8e 3b 60 3c 1c 3c a4 2b 8d 3b 7e 4e 75 3b
       0.004352572 0.009535879 0.004308181 0.0037430818
000240 e3 ef b3 3b 66 28 34 3b 6d 6f aa 3a 5d 9f 82 3b
       0.005491243 0.00274899 0.0013003178 0.0039862827
000250 c3 5a 58 3b c5 e1 6a ba 02 21 de 39 66 32 d1 3b
       0.0033013083 -0.0008960034 0.00042367732 0.006384182
000260 10 0a 22 3a 17 64 93 39 0c ff e2 3a 1d c6 b3 3a
       0.0006181309 0.00028112598 0.0017318442 0.0013715659
000270 b8 70 87 3a d1 38 d9 3a 0d 59 9d 3a 92 65 af b9
       0.0010333275 0.0016572719 0.0012004689 -0.00033454277
000280 36 81 08 3a 6c 31 c9 3a 4f be 8f b7 e9 c2 a7 39
       0.0005207242 0.0015349812 -1.7135548e-05 0.00031997942
000290 ed d0 63 ba 92 6e a8 b9 2b b6 63 bb 27 ee b2 ba
       -0.0008690495 -0.00032125838 -0.0034746032 -0.0013651297
0002a0 5c 04 3a ba 6c 01 43 bb 3f 44 0b 3b d0 48 fe 3b
       -0.00070959865 -0.0029755486 0.0021250395 0.007760145
0002b0 40 2d ec 3a 52 15 cf 3a 05 cd af 3b 52 36 9a 3b
       0.0018018857 0.0015799201 0.0053650164 0.0047061825
0002c0 cf 1d 5a 3b 2e 9f 5e 3b 51 4b b9 3b 1b 04 97 3b
       0.0033281927 0.003396939 0.0056547304 0.0046086437
0002d0 de c6 0c bb e3 4b 49 39 65 c2 07 bb b8 41 b1 ba
       -0.0021480839 0.00019197124 -0.0020715233 -0.0013523614
0002e0 51 9e b8 bb 90 38 f5 39 8a 59 2f 3b 8c 87 d0 ba
       -0.005634107 0.00046772184 0.002675625 -0.0015909537
0002f0 54 e5 25 38 16 a9 b6 3b ad 99 9b 39 69 16 31 3b
       3.9552644e-05 0.005574356 0.000296784 0.0027021414
000300 8b 9d 83 38 d6 da 2e ba 6e 9f 6c 3b 49 a0 eb 3b
       6.2759114e-05 -0.00066701823 0.003610577 0.0071907383
000310 dd f6 5c 3c dd 0a ea 3b 17 2d bb 3a fc 69 46 3c
       0.013486591 0.0071424083 0.0014280406 0.01211023
000320 9b bb 0b bb cf 54 c7 ba d5 03 13 bb 79 c0 b3 ba
       -0.0021321538 -0.001520777 -0.0022432704 -0.0013713978
000330 4d 81 c8 bb d0 38 c4 ba 25 11 f6 3a 75 23 0d bb
       -0.0061189295 -0.0014970545 0.001877342 -0.0021536027
000340 dd 5d bc ba 55 4b 4b 3a 2f 02 de 3a c3 17 92 39
       -0.0014371235 0.0007755061 0.0016937907 0.00027864994
000350 ac e7 da 3a a2 42 0d 3b 25 f4 5a bb a6 16 5d ba
       0.0016701124 0.0021554609 -0.0033409682 -0.0008433856
000360 86 61 99 b6 d7 64 22 ba 06 67 dd b9 86 89 9e ba
       -4.5711085e-06 -0.0006194836 -0.00042229163 -0.0012095429
000370 56 43 43 3b bd 8a 3b 3b 24 62 4c 3b b2 2a 40 3b
       0.0029794774 0.002861663 0.0031186426 0.0029322323
000380 6c 19 01 3b 88 25 75 3a 9d d5 49 3b c3 9a a1 3a
       0.001969899 0.0009351601 0.003079749 0.0012329448
000390 7c 28 8e 3b 94 dc d6 3a 61 e4 36 3a 29 ea 8e ba
       0.004338322 0.0016392642 0.000697678 -0.0010903525
0003a0 0e bb 14 3a cb 15 8c 3a 4d 9a c7 bb c3 fb 83 bb
       0.0005673625 0.0010687647 -0.006091392 -0.004027815
0003b0 9d 16 09 bb 88 16 28 bb b1 3f 16 bb 10 58 9f bb
       -0.002091802 -0.0025648195 -0.0022926147 -0.004862793
0003c0 56 f3 e3 ba 5f 2f 17 bc 08 c9 d4 ba de 1e 04 bb
       -0.0017391245 -0.009227603 -0.0016234228 -0.002016
0003d0 ca dd e4 3b 39 e6 26 3b e1 81 25 ba b0 d7 97 3a
       0.006984447 0.0025466813 -0.0006313604 0.0011584666
0003e0 dd b1 0c 3b 1e b7 3c 3b 2d 2c c3 ba 7b e9 7a bb
       0.002146832 0.002879567 -0.0014890485 -0.0038286138
0003f0 9a c0 4f ba df 54 89 ba 71 ed 98 b9 98 b9 22 b8
       -0.0007925123 -0.0010477564 -0.00029168607 -3.8796657e-05

exp_avg_sq f4 [10, 30]
000000 b2 67 d7 36 dc 3f 80 37 aa a9 de 36 7a b2 93 36
       6.419571e-06 1.5288526e-05 6.635867e-06 4.401719e-06
000010 9c b8 66 37 25 c5 ca 36 04 f2 3b 36 32 cb ea 36
       1.3752051e-05 6.0430198e-06 2.8006043e-06 6.9973985e-06
000020 d2 d9 28 37 04 48 22 38 88 59 57 36 a2 18 19 37
       1.0064296e-05 3.869088e-05 3.208961e-06 9.125246e-06
000030 c0 01 56 36 4c 35 64 36 e3 38 a4 37 1a cc 05 38
       3.1889504e-06 3.400567e-06 1.9576813e-05 3.1899755e-05
000040 3f 84 27 38 f2 9c 3a 37 f0 be aa 36 db 53 d6 38
       3.9939066e-05 1.1123006e-05 5.088623e-06 0.000102199345
000050 9c af e6 36 a0 bc ce 37 12 4c ed 36 c9 ce 81 36
       6.8749778e-06 2.4644949e-05 7.072006e-06 3.8685725e-06
000060 2d bc d9 37 09 88 24 37 84 61 d5 36 33 9e 13 37
       2.5956042e-05 9.806835e-06 6.359247e-06 8.798716e-06
000070 9b 8b b6 37 46 83 8b 37 63 ea 32 37 f6 ad 7c 37
       2.17611e-05 1.663122e-05 1.0664199e-05 1.5060874e-05
000080 2d 99 29 37 2b 2c 2d 37 19 7e b7 37 10 02 12 37
       1.0108849e-05 1.0321887e-05 2.1874019e-05 8.702758e-06
000090 36 14 d7 36 f7 27 0d 37 e8 81 86 37 62 13 a1 37
       6.409852e-06 8.41356e-06 1.6034537e-05 1.9201721e-05
0000a0 14 a3 ab 36 d9 26 62 37 3d 28 9c 36 ed 26 a8 36
       5.115182e-06 1.3479695e-05 4.6538466e-06 5.0113217e-06
0000b0 0e 67 29 37 8d 7d 28 37 bb f0 ee 36 ad 6f de 36
       1.0097179e-05 1.0042812e-05 7.1209774e-06 6.6291163e-06
0000c0 61 ee 3a 37 4f 5b dc 37 10 3d 3b 37 bb 56 8c 37
       1.1141966e-05 2.6268563e-05 1.1160286e-05 1.6729688e-05
0000d0 f6 3f 28 37 65 f3 50 37 5a 95 b1 37 81 5f 5b 37
       1.0028472e-05 1.2454436e-05 2.1169591e-05 1.3075653e-05
0000e0 60 26 14 37 b6 80 34 37 96 7c 73 37 29 84 ae 37
       8.830422e-06 1.0758804e-05 1.4512936e-05 2.0803958e-05
0000f0 c7 e4 a1 37 2a 4b 88 37 46 14 96 37 93 d9 a1 37
       1.9299228e-05 1.6247464e-05 1.7890834e-05 1.9294012e-05
000100 1c 01 39 37 f5 a8 62 35 ae f2 a8 36 c0 a4 dd 36
       1.1027118e-05 8.4437426e-07 5.035042e-06 6.6054927e-06
000110 64 55 d7 36 23 88 70 37 5c b0 03 37 cd 0f 15 37
       6.41744e-06 1.4336812e-05 7.84927e-06 8.884771e-06
000120 b4 58 f0 36 94 3c 04 37 e6 82 75 36 66 ec 5d 36
       7.162884e-06 7.881918e-06 3.6584038e-06 3.3069168e-06
000130 a2 c1 0a 37 37 12 0a 37 7e 6b ec 36 08 0b e7 36
       8.270525e-06 8.229682e-06 7.045862e-06 6.8856207e-06
000140 d6 5d ad 37 58 e3 81 37 8b 7c 9b 37 b7 95 b8 37
       2.0666903e-05 1.5483864e-05 1.8535435e-05 2.2004226e-05
000150 de e7 d3 36 65 fc 98 36 68 66 a2 36 ec 4f 03 37
       6.315283e-06 4.5593356e-06 4.839898e-06 7.826817e-06
000160 ac b3 95 36 7b cc 40 37 70 cf 1f 37 44 93 0b 37
       4.4614626e-06 1.1491701e-05 9.525436e-06 8.319334e-06
000170 e1 75 1d 37 62 8a 19 37 96 7d 41 37 3b 14 60 36
       9.385375e-06 9.15173e-06 1.1532937e-05 3.3390377e-06
000180 20 42 12 36 54 62 c1 36 37 9d a9 36 8e 6f 48 37
       2.1794185e-06 5.763295e-06 5.0548947e-06 1.1946902e-05
000190 7b ef a4 36 3d 48 b1 36 a2 ff 7f 36 ca 15 91 36
       4.91546e-06 5.2834207e-06 3.814676e-06 4.3238733e-06
0001a0 6d 32 9b 36 6d 85 ff 36 69 32 fd 37 6f 9f e9 36
       4.6252303e-06 7.615125e-06 3.0183424e-05 6.9625016e-06
0001b0 d4 35 81 36 c9 d8 d9 37 d4 65 3b 37 3a 28 2d 37
       3.850766e-06 2.5969364e-05 1.1169777e-05 1.03209695e-05
0001c0 0e 7c 22 37 ed 06 2d 37 10 ad 6a 37 0d 9e cf 36
       9.684836e-06 1.0313216e-05 1.3987781e-05 6.1874803e-06
0001d0 ac 99 19 36 61 3b b2 36 d0 ad 0c 37 33 f8 19 37
       2.2888225e-06 5.311726e-06 8.385119e-06 9.177299e-06
0001e0 26 fd 84 37 d4 c3 ce 37 44 d9 8c 37 2e d8 47 37
       1.5853508e-05 2.4648303e-05 1.6790473e-05 1.1911658e-05
0001f0 3e 53 19 37 e0 d4 48 37 75 b0 89 37 ae 0f 6c 37
       9.138892e-06 1.1970493e-05 1.6413842e-05 1.4070347e-05
000200 a9 01 c2 36 b4 c6 40 38 ce aa 06 37 ae 94 29 37
       5.781844e-06 4.5961424e-05 8.026791e-06 1.0107802e-05
000210 90 11 19 37 89 3a 1a 37 d3 26 fc 37 69 4d 2c 38
       9.1236e-06 9.192744e-06 3.005882e-05 4.108009e-05
000220 c9 ec 24 39 26 98 24 38 c6 92 b6 36 af ee 43 39
       0.00015728468 3.9242346e-05 5.4411094e-06 0.00018685566
000230 33 b1 94 37 4a 9f 1a 38 83 8b 99 37 03 34 44 37
       1.772549e-05 3.686481e-05 1.8303987e-05 1.169462e-05
000240 aa b2 c7 37 4a ee 66 37 9d 05 54 37 07 e0 84 37
       2.3805846e-05 1.3764549e-05 1.2637492e-05 1.5839947e-05
000250 4d ce 81 37 f7 d3 72 37 1e 0b 96 37 70 b0 3e 37
       1.5474065e-05 1.4473676e-05 1.788657e-05 1.1365963e-05
000260 36 af 96 37 85 94 93 37 f9 35 b1 36 be d2 cc 36
       1.7962982e-05 1.7592925e-05 5.2812943e-06 6.1042074e-06
000270 f3 46 dc 36 fb 16 56 37 63 c0 24 36 9a 11 09 37
       6.5647705e-06 1.27607445e-05 2.4549888e-06 8.1699345e-06
000280 2e ef 01 37 83 92 58 36 f1 52 d1 36 0f 05 f8 36
       7.7446875e-06 3.227179e-06 6.238341e-06 7.391565e-06
000290 04 4a 29 36 b7 cb a9 36 c7 d7 14 38 09 4f 17 37
       2.5226045e-06 5.060308e-06 3.5486908e-05 9.018703e-06
0002a0 2d b5 90 36 f5 ae d9 37 08 9f c1 37 d1 bc 7e 37
       4.312626e-06 2.5949887e-05 2.3081448e-05 1.5183542e-05
0002b0 48 6a ae 37 13 c3 b8 37 46 de 35 37 e3 62 1d 37
       2.0791907e-05 2.2025348e-05 1.0840193e-05 9.380953e-06
0002c0 6c 01 e2 36 fb 0c 5e 37 c1 56 d9 36 0f 13 b6 36
       6.7354904e-06 1.3235253e-05 6.4772034e-06 5.4262414e-06
0002d0 2e ce c2 36 85 29 23 36 09 fa d4 36 df dc 9f 36
       5.805653e-06 2.431306e-06 6.3472003e-06 4.764282e-06
0002e0 9c c6 52 37 23 6e 02 37 8a 2d 2a 37 9d d5 21 37
       1.2563218e-05 7.774247e-06 1.01433925e-05 9.6460835e-06
0002f0 4e 84 d5 36 17 30 b1 36 37 13 a3 36 c7 49 98 36
       6.363297e-06 5.2806095e-06 4.8600155e-06 4.538542e-06
000300 a8 3d 85 36 42 af 8c 36 49 04 53 37 d5 e0 45 37
       3.9708866e-06 4.192728e-06 1.2577578e-05 1.1794463e-05
000310 e8 49 3a 38 fd ce 5b 37 4c 8e 1b 36 bf 7f 0f 38
       4.4414686e-05 1.310161e-05 2.3179628e-06 3.421283e-05
000320 dd 21 b0 36 33 2d 9b 36 70 9a ba 36 45 06 81 36
       5.249151e-06 4.624622e-06 5.561211e-06 3.8452295e-06
000330 89 15 93 37 c2 28 d7 36 2c 99 df 36 9c 0b ef 36
       1.7533794e-05 6.412244e-06 6.6637494e-06 7.1241066e-06
000340 da 95 16 37 b0 25 9a 36 61 38 16 38 1b 11 5c 37
       8.975587e-06 4.593945e-06 3.5815294e-05 1.31170045e-05
000350 f7 50 12 38 f4 b6 25 38 eb fc 0b 37 5f b6 ec 36
       3.4884517e-05 3.9509454e-05 8.343933e-06 7.054579e-06
000360 88 b2 3e 37 b6 3d ce 37 ea 03 84 36 bb 38 eb 36
       1.136645e-05 2.458585e-05 3.934362e-06 7.01015e-06
000370 fd 05 97 37 c1 17 5d 36 62 45 67 37 6a 24 98 37
       1.8003391e-05 3.2945393e-06 1.3784827e-05 1.8136769e-05
000380 9c c7 51 36 9e 7d 24 36 94 88 77 36 af 41 7b 36
       3.1259615e-06 2.4511023e-06 3.6885367e-06 3.7440147e-06
000390 9c 41 b8 36 f4 9f 98 36 e1 89 30 38 37 1b 7a 37
       5.4912653e-06 4.548574e-06 4.209008e-05 1.4907498e-05
0003a0 4f 1b 1d 38 67 3e 43 38 9a 03 6d 37 e4 85 0e 37
       3.745715e-05 4.654974e-05 1.4127139e-05 8.495033e-06
0003b0 b6 aa 01 37 2e 6b ad 37 03 b5 bd 36 da 14 c9 36
       7.728746e-06 2.0673117e-05 5.6537115e-06 5.9926942e-06
0003c0 27 d4 48 37 da 1d 16 37 de a2 3f 37 cc 59 48 37
       1.19703245e-05 8.947647e-06 1.1422408e-05 1.1941836e-05
0003d0 30 26 94 36 95 01 db 35 90 25 e4 36 f5 ee d7 36
       4.4151893e-06 1.6317232e-06 6.7993024e-06 6.4353176e-06
0003e0 c8 7b a6 35 f5 72 9b 36 56 04 df 36 58 83 03 36
       1.2403989e-06 4.6327427e-06 6.6464227e-06 1.9596973e-06
0003f0 0b 33 a5 36 81 4f af 36 c7 e2 8c 36 4c 99 47 36
       4.9233254e-06 5.224662e-06 4.1987255e-06 2.9742541e-06

exp_avg f4 [10]
000000 99 ae 1b bc 10 bf 15 bd df 3c 7e bc 64 8d 75 bc
       -0.009502077 -0.036559165 -0.0155174425 -0.014987323
000010 41 a4 98 bc aa dd 06 3c 6c 5b c1 3b 76 e1 9f bc
       -0.01863301 0.00823156 0.005900791 -0.019516688
000020 d6 5f 08 bc c8 f4 8a bb
       -0.00832363 -0.004240606

exp_avg_sq f4 [10]
000000 bc b2 67 38 3e 50 25 39 33 a6 9b 38 83 6d 51 37
       5.524115e-05 0.00015765519 7.421933e-05 1.2482868e-05
000010 89 0c 6b 38 2b 21 98 37 9a 9e da 36 d3 92 89 38
       5.604004e-05 1.8135257e-05 6.51537e-06 6.560017e-05
000020 03 96 e0 37 d6 43 f0 35
       2.6772736e-05 1.7901136e-06

exp_avg f4 [10, 10]
000000 94 5f 8d bb f4 df b5 bb fa 7b b5 3b b9 11 2f 3b
       -0.0043143723 -0.005550379 0.005538461 0.0026713444
000010 7e f4 31 3b 9d 0c 20 bb ed 89 7a bb d2 2f 28 3b
       0.0027153785 -0.002442158 -0.0038229183 0.0025663269
000020 a9 60 f8 3a e4 4e 88 3b 29 bf 96 bb ee 12 01 3c
       0.0018949705 0.004159795 -0.004600425 0.007878048
000030 53 11 17 3c 44 8a 2a 3b fa e0 43 3b a9 dd e5 3b
       0.009220439 0.0026022354 0.0029888735 0.0070149493
000040 c8 d1 b3 bb a5 c0 d0 ba 99 85 12 3b 8e 2a 64 3b
       -0.0054876544 -0.0015926553 0.0022357462 0.0034815404
000050 14 23 cf ba 2c ae c9 3a 63 35 7a 3b c1 c7 af 3a
       -0.0015803301 0.001538699 0.0038178794 0.0013410972
000060 3f 27 93 3a 0a ce 2f ba d2 be 97 bb f3 06 03 3a
       0.0011226906 -0.00067064224 -0.004630902 0.0004998289
000070 52 3b bd 3b ad 29 b0 3a f3 f1 87 bb c5 0c 04 3c
       0.005774894 0.0013440155 -0.0041487156 0.008059685
000080 49 41 23 3c ba 6a 44 3b 3d ea 44 3b 0c 42 2d 3c
       0.009964296 0.002997084 0.0030046843 0.010574829
000090 10 11 4c bb ac c2 90 bb 13 45 81 3b 8a 95 d9 37
       -0.00311381 -0.004417738 0.003945002 2.593805e-05
0000a0 4c b3 81 bb 92 46 af 3b d7 67 2a 3c 87 29 1f 3b
       -0.0039581414 0.005348989 0.010400734 0.0024286227
0000b0 88 5b 52 3b 2b ba cb 3b ba 26 e9 bb 47 ae 20 ba
       0.0032098014 0.0062172613 -0.0071152123 -0.0006129485
0000c0 32 40 41 3b 16 84 51 3b 44 08 b3 ba 88 fe f5 bb
       0.0029487726 0.0031969598 -0.001365908 -0.007507149
0000d0 43 77 17 38 77 16 b0 b9 53 a1 dc ba 09 20 7a bb
       3.6112277e-05 -0.00033586074 -0.0016832746 -0.0038166067
0000e0 a5 17 91 b9 03 19 b0 3b db 31 e6 bb f4 e2 fe 3a
       -0.00027674172 0.0053740754 -0.007024986 0.0019446299
0000f0 b1 05 00 bb 7a f2 14 3c 32 28 ba 3b 74 f5 db 3a
       -0.0019534642 0.009091014 0.005681061 0.0016781525
000100 99 82 6b 3b 09 67 eb 3b 13 3b 48 bb 62 33 7d bb
       0.0035935997 0.0071839136 -0.003055279 -0.0038635363
000110 1e 5d 8c 3b be 10 89 3a 08 94 7a b9 3d e2 fe ba
       0.0042835614 0.001045726 -0.00023897004 -0.0019446086
000120 8a 2e ec b9 34 0d c3 ba 92 ab 00 bb 0d d1 c9 3a
       -0.00045048102 -0.0014881254 -0.0019633514 0.0015397385
000130 a0 ad 35 3b 6a f0 16 3b 8d ed 18 bc 14 3f 99 b9
       0.0027721897 0.0023031482 -0.00933398 -0.0002922943
000140 37 d4 83 bb d5 ea 01 3c ca a4 ef 3b b1 f4 7f 3b
       -0.0040231007 0.0079295235 0.0073133456 0.003905576
000150 cd 3b 3c 3b 8c db bd 3b 37 01 ad bb 07 56 3a bb
       0.0028722167 0.0057939943 -0.005279686 -0.0028432624
000160 6e e1 d7 3b 5b 7d 94 3a 67 f6 82 3b 1e 07 ec 3a
       0.0065881526 0.0011328863 0.0039966586 0.0018007492
000170 0a 2f b0 bb 1c 4c 80 bb 78 cd 16 ba 11 17 bf 3b
       -0.0053767012 -0.003915323 -0.0005752663 0.005831607
000180 b9 62 07 3c 80 71 3f bb 7d 17 2c bc 6a ee 22 bb
       0.008263283 -0.0029211938 -0.010503647 -0.0024861344

exp_avg_sq f4 [10, 10]
000000 47 9d a1 37 b2 16 70 37 07 b4 1a 37 65 0d 19 37
       1.9265934e-05 1.4310399e-05 9.221031e-06 9.122629e-06
000010 13 db c8 36 ff 4e 50 37 9f 13 0e 38 21 36 00 37
       5.985968e-06 1.2416159e-05 3.387371e-05 7.641997e-06
000020 07 4e 97 37 16 f3 23 37 40 54 6f 37 09 ea 31 37
       1.8036937e-05 9.772155e-06 1.4265126e-05 1.0604513e-05
000030 7b fa 26 37 a3 4f 35 37 e1 fb 76 37 be 8c af 37
       9.952691e-06 1.0806983e-05 1.4721388e-05 2.0927164e-05
000040 e3 18 02 37 f1 cf 58 36 52 a3 4f 37 59 83 82 37
       7.754398e-06 3.2307546e-06 1.2376187e-05 1.5558371e-05
000050 eb 14 27 37 22 46 e5 37 64 75 35 37 20 c6 c2 36
       9.958846e-06 2.7331585e-05 1.0815773e-05 5.8047153e-06
000060 b1 34 d1 36 45 87 dd 36 7e f1 42 38 e1 13 4b 37
       6.2348195e-06 6.6020607e-06 4.647811e-05 1.2104371e-05
000070 e6 aa 25 38 c1 41 e4 35 5e fd 50 37 5d 34 07 38
       3.9498227e-05 1.7006461e-06 1.2456758e-05 3.2235275e-05
000080 44 5c 5a 37 e4 06 38 37 b7 f3 53 37 41 1c 9d 37
       1.3015295e-05 1.0968859e-05 1.2633324e-05 1.8729015e-05
000090 7f 85 a3 36 24 17 79 37 2f 9d d4 37 2a db 42 37
       4.8733195e-06 1.4846944e-05 2.5345564e-05 1.1614329e-05
0000a0 f7 36 10 37 af 57 1a 37 34 47 96 37 b1 e6 f5 36
       8.595866e-06 9.199531e-06 1.791455e-05 7.328425e-06
0000b0 9f 75 8a 37 5c db 48 37 7d 35 81 37 9e 44 73 36
       1.6505654e-05 1.19720025e-05 1.5402906e-05 3.6249762e-06
0000c0 70 70 49 37 ac 3b fd 36 1e 50 85 37 8e ef f0 37
       1.20067125e-05 7.5469343e-06 1.5892143e-05 2.872178e-05
0000d0 3a 76 6c 37 c8 a8 35 37 b1 c2 d7 36 0b e6 8f 37
       1.4094223e-05 1.0827738e-05 6.4301644e-06 1.715405e-05
0000e0 3b d6 c7 37 83 5c b1 37 fa 9e b3 37 6e d2 b7 37
       2.3822407e-05 2.1143123e-05 2.1412492e-05 2.1913289e-05
0000f0 8d 19 5b 37 bf 45 d0 37 b3 a7 09 37 e7 f6 3a 37
       1.3059366e-05 2.482801e-05 8.204882e-06 1.114395e-05
000100 13 a7 71 37 a3 d5 bf 37 e8 c5 32 37 ca d9 52 37
       1.4403619e-05 2.2868457e-05 1.0655705e-05 1.2567683e-05
000110 fe 87 b9 37 1e 1a aa 37 56 c4 cb 36 25 7d 3a 37
       2.2117045e-05 2.0277741e-05 6.072728e-06 1.1115601e-05
000120 b8 da c3 36 07 de 15 36 6a 37 d7 35 8e 77 73 36
       5.836915e-06 2.2331967e-06 1.6034876e-06 3.6279412e-06
000130 d2 8b 83 36 ad 96 c1 36 c3 dd 98 37 70 95 b9 36
       3.9203815e-06 5.769389e-06 1.8223078e-05 5.5308265e-06
000140 07 fd 35 37 e7 79 f3 37 60 76 07 37 c0 66 06 37
       1.0847353e-05 2.9024623e-05 8.074188e-06 8.010946e-06
000150 c9 11 5b 37 2a b8 63 37 ef e0 9d 37 48 e5 22 37
       1.3057558e-05 1.3573133e-05 1.8820601e-05 9.709336e-06
000160 2c 62 1f 38 f7 6d 31 37 64 9d ee 37 28 29 6c 38
       3.7999984e-05 1.0575625e-05 2.8445102e-05 5.6305114e-05
000170 2b 73 d8 37 6a 3a 92 37 8b d9 30 37 88 9b cf 37
       2.5802836e-05 1.7431757e-05 1.0541068e-05 2.4748748e-05
000180 49 70 06 39 50 73 ec 37 9e c9 c0 38 2d ad c0 36
       0.00012821065 2.8187089e-05 9.1928276e-05 5.742206e-06

exp_avg f4 [10]
000000 55 d4 9c 3c a6 f8 17 3d b8 52 99 3c c8 64 5c 3d
       0.019144217 0.037102364 0.018716201 0.05380705
000010 56 7e 51 3d 65 3b d9 bb 46 d8 dd 3c ab 3e fc bb
       0.051145874 -0.006629395 0.027080666 -0.0076979003
000020 ec 5e 24 3d 20 3a 02 bd
       0.040129587 -0.031793714

exp_avg_sq f4 [10]
000000 1e 12 53 38 e3 64 a1 39 12 d3 b2 39 e6 e9 b8 39
       5.0323193e-05 0.0003078348 0.00034108065 0.00035269483
000010 02 b0 e0 39 bc 5f 7d 38 3c bb 95 39 fa 60 07 38
       0.00042855745 6.040906e-05 0.00028558995 3.2276825e-05
000020 a6 4d 0e 3a 96 bb 33 3a
       0.00054284406 0.00068562606

exp_avg f4 [5, 10]
000000 34 17 49 bc 1b da 79 ba 82 4b 80 3c af 63 90 bb
       -0.012273598 -0.00095310964 0.015661005 -0.0044064145
000010 2c 56 03 bc df 1c eb ba 73 e5 5c 3c 62 a5 2a 3c
       -0.00801615 -0.0017937681 0.013482439 0.010415407
000020 df 85 70 3b ce f2 85 39 91 da b6 bc f0 88 90 bc
       0.0036700887 0.0002554864 -0.022321017 -0.017643422
000030 31 0e ce 3b 68 68 75 bb 89 a0 51 bc ee 87 ce 3a
       0.006288313 -0.0037446264 -0.012794622 0.0015757063
000040 95 f0 a7 3b 7f f9 dd 3c 3b a7 13 3c 36 a0 b9 bb
       0.005125115 0.027096508 0.009012039 -0.0056648506
000050 48 91 f4 3c c5 79 ed 3c 73 50 0b 3b ad 49 03 3b
       0.029854432 0.028988728 0.0021257668 0.0020032928
000060 ce f9 46 3c af 56 c8 bb 28 68 81 3b 86 29 1b bd
       0.012144519 -0.006113849 0.003949184 -0.037881397
000070 31 28 96 bc 83 ec 3f 3c 6d 65 4c ba d1 4e fe bb
       -0.018329712 0.011714104 -0.0007797096 -0.0077608605
000080 b9 e9 3d bc d4 b6 a1 3b 75 37 5f 3b 69 07 d6 39
       -0.011591368 0.004935125 0.0034060155 0.00040822782
000090 3e 32 4f bc bb 3b 27 b8 92 8a 11 3c 38 14 e7 bb
       -0.012646256 -3.987153e-05 0.008883135 -0.007051971
0000a0 57 2f f7 3c 86 66 9a 3c 86 71 32 bc 8c c6 49 3c
       0.03017394 0.018847715 -0.010891324 0.012315404
0000b0 a1 f5 2c 3d 82 2e 6b 3c 83 a2 90 3b a7 dd fe bc
       0.042226437 0.01435435 0.004413904 -0.031111551
0000c0 97 db bb bc 02 97 09 3d
       -0.022931857 0.033591278

exp_avg_sq f4 [5, 10]
000000 d0 0f 8f 38 61 ff 1d 39 7f 8b 45 38 bb c4 b9 37
       6.821717e-05 0.00015067823 4.7098376e-05 2.2145328e-05
000010 33 d2 c5 37 e9 2a 8f 37 50 17 57 38 c5 b0 4b 39
       2.3582112e-05 1.706691e-05 5.1281706e-05 0.0001942544
000020 c1 54 ba 38 1f 53 8d 38 2d 9c 4c 39 0b db 65 39
       8.884958e-05 6.7388864e-05 0.00019513136 0.00021920742
000030 2c 09 55 37 54 8c 9c 37 70 b4 aa 37 48 f4 ed 36
       1.2697925e-05 1.8661995e-05 2.0349602e-05 7.0915885e-06
000040 39 c4 5b 37 eb 62 91 39 4d f5 e3 38 0f 8a 91 38
       1.3099104e-05 0.00027730255 0.00010869894 6.939854e-05
000050 29 21 43 3a 49 66 2c 3a 74 06 5d 38 cb fb 35 38
       0.0007443601 0.0006576521 5.2696516e-05 4.3388263e-05
000060 f4 b3 65 38 ad 7f ac 37 f0 61 3f 38 5a e7 64 3a
       5.476545e-05 2.0563451e-05 4.562916e-05 0.0008731984
000070 53 7a 17 3a 44 e3 bb 39 00 2d d3 38 94 68 e4 38
       0.00057784206 0.00035836746 0.00010069646 0.000108913664
000080 3b ee 2d 38 25 da 0a 38 a1 7e 4f 37 7c b7 e8 36
       4.1468284e-05 3.3104927e-05 1.2367645e-05 6.935499e-06
000090 ab ae 10 38 89 cd bb 38 f2 cf 99 38 8e 77 76 38
       3.4494948e-05 8.955139e-05 7.334341e-05 5.8762314e-05
0000a0 c5 6f 1d 39 c9 5f 00 38 28 2d 57 38 26 a2 9a 37
       0.00015014324 3.0606785e-05 5.130205e-05 1.8433737e-05
0000b0 c6 81 24 39 5e af 33 38 df 30 bf 37 50 f5 00 39
       0.00015688603 4.284025e-05 2.2791732e-05 0.00012298417
0000c0 4a a3 d5 38 d1 27 12 39
       0.000101870464 0.00013938478

exp_avg f4 [5]
000000 3f 3c 23 3d a0 97 82 3d 1e 81 94 bd 71 6f bd bb
       0.039852377 0.063765764 -0.0725119 -0.005781107
000010 fb d8 06 be
       -0.13168709

exp_avg_sq f4 [5]
000000 6f c6 45 3a 94 f9 a1 3a 3d 0b a3 3b 42 f9 f1 39
       0.00075445225 0.0012357705 0.004975705 0.00046152814
000010 44 85 10 3b
       0.0022052089

exp_avg f4 [31, 5]
000000 fb eb a1 3c 4b 4e 20 3c 8c fb 25 3c 93 a7 ed 3b
       0.019765845 0.0097842915 0.010130774 0.0072526424
000010 e7 65 94 bc af ad 08 3d 6f 3d 63 3c fd 93 94 3c
       -0.018114997 0.033368763 0.013869627 0.018136973
000020 39 5e 32 3c 68 e2 d6 bc 47 86 27 3c 33 a3 b2 3b
       0.010886722 -0.026231006 0.010224885 0.005451584
000030 63 b5 b2 3b 7f a4 84 3b 84 83 24 bc ca ea 60 3c
       0.005453752 0.00404793 -0.010041121 0.013727853
000040 09 34 d7 3b d9 c5 e4 3b 8d b8 b5 3b e0 42 6f bc
       0.0065674824 0.006981593 0.005545682 -0.014603347
000050 d4 5f 2d 3c 14 49 96 3b a1 c6 e8 3b a0 d3 a6 3b
       0.010581929 0.0045863483 0.0071037565 0.0050911456
000060 ac 03 03 bc 20 7e f8 3b 83 1f 19 ba 70 0f c1 3b
       -0.007996481 0.0075833946 -0.00058411824 0.005891733
000070 09 71 37 3b 58 ef 63 ba 88 8d 66 3c 14 7c 67 3b
       0.0027990958 -0.0008695028 0.01407183 0.003532176
000080 9d 0b 10 3c 4c c4 9b 3b 50 15 e0 bb 38 a5 69 3c
       0.008791831 0.004753625 -0.006838478 0.014260583
000090 ea 33 b1 3b 12 47 0f 3c 8d 48 a3 3b c0 d0 20 bc
       0.0054078 0.008744972 0.004983014 -0.009815395
0000a0 dc dc 2e 3b 51 36 ad b7 c9 00 6d 3b 5b 6e f0 39
       0.0026681935 -2.06485e-05 0.0036163798 0.00045858588
0000b0 f4 7a 08 3b b9 27 8c bb 7e 1c 08 bc 01 a2 58 ba
       0.002082524 -0.0042771962 -0.008307574 -0.00082638866
0000c0 3a 90 38 bb f0 ec 26 3c c0 57 f0 3b 65 3d 52 3a
       -0.0028162138 0.010188326 0.0073346794 0.0008020013
0000d0 cc cd 61 3b 13 23 4e 3b c7 3a 2f bc 73 c3 51 3c
       0.003445494 0.0031454011 -0.010695166 0.012802946
0000e0 6e 81 f7 3a b1 52 ed 3b 1b 0b 95 3b 38 6c 50 bc
       0.0018883178 0.0072425236 0.004548443 -0.012721114
0000f0 02 75 76 3c 0c 88 71 3b 9c 57 ff 3b 44 9c d3 3b
       0.015042545 0.0036854772 0.0077924263 0.0064578373
000100 2a f5 7e bc 59 1a 7e 3b 11 4e 5e 3a fc 87 d0 3a
       -0.015561381 0.0038773029 0.0008480261 0.0015909667
000110 aa 4a 0c 3b e5 ab 05 bc f8 0e 88 3b 8d 10 54 ba
       0.0021406808 -0.008158659 0.004152175 -0.00080896245
000120 68 59 07 3b 36 d9 d8 3a fd ea c6 bb 23 9c 64 3b
       0.0020652656 0.0016544226 -0.0060704933 0.0034883104
000130 ae ba f6 bb 44 50 88 3b fd 76 9c 3a a4 e8 e9 3b
       -0.007529578 0.004159959 0.0011937317 0.0071383286
000140 c1 61 36 3c 50 f0 f0 ba 2a 46 db 3b a1 5f 52 3b
       0.011131705 -0.0018382166 0.006691714 0.0032100456
000150 a0 e3 8d ba e0 68 ef 3b 67 3f dd ba 4c 1f 91 3b
       -0.0010825284 0.0073062032 -0.0016879857 0.0044287797
000160 7f e5 b1 3a a2 82 bf b8 6e d0 a5 3b f6 92 ae ba
       0.0013572423 -9.131922e-05 0.005060247 -0.0013318944
000170 ab ec 83 3b f4 ac 49 3a 37 d4 9a ba 86 92 8a bb
       0.0040260158 0.00076933135 -0.0011812513 -0.0042288927
000180 07 f2 56 bc 6e b7 74 ba 31 18 7c bb 26 78 57 3c
       -0.013119227 -0.00093351945 -0.0038466568 0.013151204
000190 c4 6d 5f 3c 53 b9 db 3b 5d 6c ef 3b 27 27 99 3b
       0.01363701 0.006705442 0.007306619 0.004673857
0001a0 62 d3 50 bc 33 64 1c 3d a9 1e 8f 3c 96 9d af 3c
       -0.01274571 0.038181495 0.017470675 0.021437448
0001b0 61 d1 43 3c ab 70 db bc 0f 0f ca 3c 49 60 38 3c
       0.011951775 -0.026787123 0.024665384 0.011253425
0001c0 09 a5 5a 3c 4a 3b 16 3c 6b e1 aa bc 06 c7 b4 3c
       0.0133450115 0.009169409 -0.02085944 0.022067558
0001d0 d2 61 1a 3c 46 89 3f 3c 17 6c 02 3c 4c b4 a5 bc
       0.009422736 0.011690443 0.007960341 -0.020227574
0001e0 fa 39 de 3c 92 a7 75 3c c6 1d 85 3c dc dd 34 3c
       0.027127255 0.014993565 0.016249549 0.0110392235
0001f0 ed e3 9a bc e4 b1 90 3c 6f 07 d5 3b 95 b2 3f 3c
       -0.018907512 0.01766295 0.0065011303 0.011700292
000200 f5 7b bb 3b 35 54 9b bb 2b 38 aa 3c 88 17 04 3c
       0.005721564 -0.004740263 0.020778736 0.008062251
000210 b3 14 50 3c 85 f4 e1 3b 63 c7 08 bc ef e6 c2 3c
       0.012700248 0.006895604 -0.008348319 0.023791758
000220 a8 4e 2d 3c 7a 74 6b 3c ce b4 0a 3c ca 18 5f bc
       0.010577835 0.014371032 0.008465959 -0.01361675
000230 ca 1e b8 3c 5a 6b 33 3c 0f a8 66 3c a9 bf bb 3b
       0.022475619 0.010950888 0.014078154 0.005729635
000240 06 e7 22 bc 57 99 29 3c 28 c1 0e 3a f4 b2 05 3c
       -0.009942776 0.0103515005 0.00054456526 0.0081603415
000250 48 b0 4e 3b 4c be ff 3a f8 8d 34 3c 22 e0 8d 3c
       0.0031538177 0.0019511669 0.011020176 0.017318789
000260 2b d3 4b 3b d2 3a 6e bb be 30 0d 3c
       0.0031101208 -0.0036350978 0.008617578
