Cancer-senn/self_trial4/models/cancer/grad3_Hinput_Thdummy_Reg1e-02_LR0.001/model_best.pth.tar (torch_old, 26436 bytes, 34 tensors)

parametrizer.linear1.weight f4 [10, 30]
000000 85 7f 13 3d 20 c8 47 be 1c 1f 10 be 6f 27 d9 3d
       0.036010284 -0.19509935 -0.14074367 0.106032245
000010 76 3a 90 3b 9b 1c 0f 3e 53 09 0f 3e 05 9a 81 bd
       0.0044015003 0.13975756 0.139684 -0.06328205
000020 ed 8c 4d be 24 c5 cd 3d ed 02 32 be ee 24 57 3d
       -0.2007329 0.10047367 -0.17383929 0.052525453
000030 9d be 1c 3d f9 f6 03 3e d5 83 ad bd 4d 20 83 bc
       0.03826772 0.12887181 -0.084724106 -0.016006613
000040 2a 74 f7 3d ef 9e da bd ce c5 d8 3d 59 61 a3 3d
       0.120827034 -0.106748454 0.10584603 0.07977552
000050 d6 45 6b 3d 0e 26 9f 3d 2c 2a 1b be 6a b8 1e 3d
       0.057439648 0.0777093 -0.15152806 0.03875009
000060 43 09 dc 3d 3c 03 9c 3d 73 54 c6 bd 25 e4 d9 3d
       0.10743954 0.076178044 -0.09684076 0.10639218
000070 37 90 2b be 54 18 17 3e 1b e4 69 3d dd a1 fa bc
       -0.16754232 0.14755374 0.057102304 -0.03059476
000080 71 c0 03 3e fb bf 0f 3e 54 29 a7 3d 15 e5 5a be
       0.1286638 0.14038078 0.081621796 -0.2137645
000090 cf 98 be bb 3d e4 55 bd a2 94 dc 3d 4a 42 0d 3d
       -0.005816556 -0.052219618 0.10770537 0.034487046
0000a0 2e 06 ab 3d 97 06 3c be ce c4 26 3e fd a1 20 be
       0.08350788 -0.18361889 0.16286013 -0.15686794
0000b0 1e b0 7a bd ab 6f e3 3d f7 55 bf 3c 60 ee 49 3e
       -0.061203115 0.11105283 0.02335642 0.19719839
0000c0 e1 5f f6 3b 23 d3 91 3d 6f 45 d6 3c aa e5 83 bd
       0.007518754 0.07120349 0.026156155 -0.06440289
0000d0 0e 6e 01 3e 01 a3 7e bd ab 91 b3 bd 0b 3c 1d bd
       0.12639639 -0.06216717 -0.08768018 -0.03838734
0000e0 c6 a0 1f 3e e7 27 47 be 52 55 e2 bd f4 9e e2 bd
       0.15588674 -0.19448815 -0.1105143 -0.11065474
0000f0 6d e8 19 be 1e 20 b8 bd e6 b9 22 bd 0e 36 b6 bd
       -0.1503007 -0.08990501 -0.039728068 -0.08897029
000100 a1 4d ec bd bc d8 f0 bd f3 da ed bd 95 51 8a 3c
       -0.11538244 -0.11760089 -0.11614027 0.016884604
000110 5c 4d 53 bc fc 09 e7 3d e2 5f c0 3c 6f 0e 88 bd
       -0.012896862 0.11281201 0.02348322 -0.06643378
000120 8f 0f 3b 3e c4 d9 99 bc 03 66 88 bd 73 10 d6 bc
       0.18267654 -0.018780597 -0.06660082 -0.02613089
000130 b2 95 04 bc 30 b7 32 bd fe 71 22 be 93 b1 cf bd
       -0.008092331 -0.043631732 -0.15863797 -0.101412915
000140 66 53 1a 3e 52 a6 09 3d 99 f8 e3 3d de d4 02 3e
       0.15070876 0.03360588 0.111314006 0.12776515
000150 bd 48 43 be 21 c3 03 bd 03 bc 8e bd bb cc fb 3b
       -0.19070716 -0.03216851 -0.06969454 0.007684318
000160 5c 5f a9 3d d2 bb 62 3d 99 f5 1d bd 37 a0 c9 3c
       0.082701415 0.0553549 -0.0385643 0.02461253
000170 ff 2a 97 3d 0c 12 2d 3e b1 0a 0b 3e 12 25 8a bd
       0.07381248 0.16901416 0.13578297 -0.06745352
000180 52 2f f7 bc 2e fb 16 be 53 68 f7 3d d4 5d 38 be
       -0.030173931 -0.14744255 0.12080445 -0.18004543
000190 5f 9d 5f 3d 8a 82 2c 3e d3 13 09 bd d2 dc f8 bc
       0.05459344 0.16846672 -0.03346617 -0.030378733
0001a0 46 e8 1e 3e 65 f4 62 3d 22 b7 cf bd 39 8f c2 bd
       0.15518293 0.055408854 -0.10142352 -0.09499974
0001b0 7f 07 eb 3d b4 38 12 3e fe 2c 42 bd 15 1e 6a 3b
       0.11476039 0.14279443 -0.04740619 0.0035723497
0001c0 bc bb 1d 3e c6 d9 37 bd 15 65 46 bc b4 0e 88 3c
       0.15403646 -0.04488542 -0.012109061 0.016608573
0001d0 5e 9b ad 3c f0 15 ab bd 69 a3 47 3d db d2 05 bd
       0.021192249 -0.083537936 0.048739824 -0.03267179
0001e0 f3 f4 4b bd 5b a2 0e 3d 6e 75 0d be 9d 7a 4e be
       -0.04979415 0.034822803 -0.13814327 -0.20163961
0001f0 da 17 1d 3d 29 4e 50 be 64 3a 00 3e 6f d7 c7 bd
       0.038352825 -0.20342316 0.12522274 -0.097578876
000200 18 29 b7 ba bc ad e5 bd a2 37 cd 3d 6f 0a 14 3e
       -0.0013974039 -0.11214778 0.10020377 0.14457105
000210 a8 94 ba 3d 38 31 33 bd 9f 24 22 3e 1e 9b ed 3b
       0.09110385 -0.04374811 0.15834282 0.0072511574
000220 43 60 1a bd f3 7b 05 3e 6d 33 8b bd fa 01 ec 3b
       -0.03768946 0.13035564 -0.06796918 0.007202384
000230 51 60 3f be f9 2c 56 3d 44 f4 01 3e 6b 17 a5 3d
       -0.18689086 0.052288983 0.12690836 0.08061107
000240 88 9b 98 3b 95 3c af bd d1 3a 25 be 0e cc 60 3d
       0.0046572126 -0.08556477 -0.16135718 0.0548821
000250 40 ac d8 bd 43 db 36 be 05 2a ef bc 01 d5 06 3e
       -0.10579729 -0.17857079 -0.029194841 0.13167192
000260 b2 2e 38 be 99 ba 3b be e5 c5 de bd 7f ab b5 3d
       -0.17986563 -0.183329 -0.10877589 0.08870601
000270 98 77 e2 bd 64 47 b9 3d 19 78 ad bc f2 c8 40 3d
       -0.11057967 0.0904682 -0.021175431 0.047066636
000280 d8 99 27 bd 65 06 07 be 35 f4 bb 3c 07 45 2b be
       -0.0409182 -0.13186033 0.022943595 -0.1672555
000290 e4 e6 15 be 11 66 c7 3d 4c 7d dd bd 05 8b 8c 3d
       -0.14638859 0.097362645 -0.10814914 0.06862453
0002a0 57 83 ac 3c df 50 3b 3e 3f f0 ce 3d 2c cb 4b be
       0.021058721 0.18292569 0.10104417 -0.19901723
0002b0 a7 8f 51 3d 70 51 0c be e3 a1 a1 3d 34 bc 21 be
       0.05116239 -0.13702941 0.078922056 -0.1579445
0002c0 4b da 3b 3d 0b 13 90 bd 83 d7 13 be 6c 58 50 3c
       0.045862477 -0.07034882 -0.1443768 0.012716394
0002d0 88 c9 a8 3d 88 16 0d be 01 11 00 bd 4a ef 0a be
       0.08241564 -0.13778126 -0.031266216 -0.13567844
0002e0 38 5a 82 bd 60 81 ed bc 2c 86 0f 3e bf 81 29 3d
       -0.06364864 -0.028992355 0.14016026 0.0413835
0002f0 c2 83 14 3e dc cd 44 3d 2d 3e b3 bd 4a e6 d0 3d
       0.14503387 0.048047885 -0.087520935 0.10200174
000300 57 e9 6e 3d 97 b0 5e 3c 76 13 f8 3b 92 48 9c 3b
       0.058328 0.013591907 0.0075706793 0.0047693932
000310 94 84 23 3d 43 f0 4c bc c4 da 1e be 04 e8 a8 bd
       0.03992136 -0.012508455 -0.1551314 -0.082473785
000320 77 25 2a 3d 01 fe 09 be fc 43 9f 3d fd 15 d6 bd
       0.041539636 -0.13475801 0.07776639 -0.10453413
000330 a1 d1 79 3c 50 5f bd 3d f9 4d 20 be 0c cf 08 be
       0.015247733 0.09246695 -0.15654744 -0.13360232
000340 39 98 f8 3d e4 62 cf 3d 16 1e 4b bd 08 d9 26 3e
       0.12138409 0.10126284 -0.04958924 0.16293728
000350 ef 3b f4 bd f8 f3 2e 3e 5f 45 04 bd b3 aa d4 3d
       -0.11925494 0.17085254 -0.03229272 0.10384121
000360 44 42 56 bd 35 c3 39 3d 00 b9 f4 bd bd e9 30 bc
       -0.05230929 0.04535218 -0.119493484 -0.010797915
000370 be 7f 26 3e 27 6c 49 be 1a 62 f8 3d 33 ce ef bd
       0.16259667 -0.19670163 0.121280864 -0.11709251
000380 b1 c1 22 be cf f1 cd bd 70 3d 40 be af 92 c2 3d
       -0.158942 -0.10055887 -0.18773437 0.09500634
000390 1a 80 20 3d 51 d4 38 3d f1 2b 27 3d 63 08 d0 3c
       0.039184667 0.045124356 0.04081339 0.025394624
0003a0 17 b7 09 be 83 26 a2 bc e5 d3 01 3e b7 5d 1d bd
       -0.1344875 -0.019793754 0.12678488 -0.03841945
0003b0 c7 70 86 3d 95 75 a1 bc 8f 31 1c bd 86 00 44 bd
       0.06564479 -0.019709388 -0.0381332 -0.04785206
0003c0 b1 51 c8 3d 1e ad 63 3e 2a 85 2d 3e f3 a6 ef 3b
       0.097812064 0.22234008 0.1694533 0.007313603
0003d0 32 22 e5 bd 77 62 36 3e c2 93 03 3e 68 88 bc bd
       -0.11188163 0.17810999 0.12849334 -0.09205705
0003e0 4a c2 1c be 83 ad de 3d 07 9a 13 3e b0 03 63 3d
       -0.1530849 0.108729385 0.14414226 0.05542344
0003f0 ba 6c b1 bd 5e bc 01 3e 0b 18 e5 3d 4e 33 85 bd
       -0.08663316 0.12669513 0.111862265 -0.06503926

parametrizer.linear1.bias f4 [10]
000000 27 5d e8 bd a7 28 8a 3d be 8c 46 3e f2 73 18 3e
       -0.113458924 0.06746035 0.19389626 0.1488798
000010 4b ff 8a 3d 5a 07 59 3c f9 ca 08 be 0c 92 4a bc
       0.067869745 0.013246382 -0.13358678 -0.012363922
000020 13 d3 10 3e b1 e3 9d 3c
       0.14143018 0.01927361

parametrizer.linear2.weight f4 [10, 10]
000000 82 70 93 3e da be a5 be 07 65 93 3e f3 7c 98 be
       0.28796774 -0.3237217 0.28788015 -0.2978283
000010 7e 35 95 3e 51 77 51 3e a1 8a a2 bd 1b 79 20 be
       0.29142374 0.20455672 -0.079365976 -0.15671198
000020 0a 6e 15 be ac e6 30 3d 11 1d 88 bb 8f 40 aa be
       -0.14592758 0.043188736 -0.0041538556 -0.3325238
000030 a0 d5 e2 3c b4 0b 4f 3e a2 76 0f be 4b 94 58 3e
       0.027689755 0.20219308 -0.14010099 0.2115032
000040 c0 d0 52 be 09 94 a6 3e 5f 5c 73 be c4 4e 83 3e
       -0.20587444 0.32534817 -0.23765706 0.2564603
000050 2f fa c0 3d b2 c6 7f be 06 57 48 bd fc 91 94 3e
       0.09422719 -0.2497814 -0.048911117 0.29017627
000060 2c e6 b2 3b 3e 94 8b be 77 9f 84 bd 3d 8a 0c 3e
       0.0054595675 -0.27261537 -0.06475728 0.13724609
000070 f2 ed 1b be 2b 93 b2 3d 67 ce 3e be 3c 5b d3 bd
       -0.15227488 0.08719476 -0.18633424 -0.10320136
000080 80 7c 38 3e 03 f5 41 be 22 87 8d be 40 d1 54 3d
       0.18016243 -0.18941121 -0.2764216 0.05195737
000090 f3 9e f0 3d af db 71 be 87 53 e5 3d a3 76 33 be
       0.11749067 -0.23618959 0.11197572 -0.17525725
0000a0 c7 c3 87 3c d1 ba 6e be ca db b1 be 6f 9e 21 be
       0.016572846 -0.23313452 -0.34737998 -0.15783094
0000b0 f1 52 0a 3b 11 45 0d be 22 7c 00 3e 8b 8b 7b be
       0.0021106566 -0.13795878 0.12547353 -0.2456495
0000c0 c6 92 06 3e b7 aa 24 bd 91 a7 24 3e 40 e6 34 be
       0.13141927 -0.04020187 0.16079547 -0.17665958
0000d0 e9 78 35 bd 6d c6 a4 bd e4 6e af bd fe be 3e 3e
       -0.044304762 -0.08045659 -0.085660726 0.18627545
0000e0 21 3d 2d be a5 aa c9 bc 63 90 a4 3e 32 55 bb 3d
       -0.1691785 -0.024617502 0.32141408 0.09147109
0000f0 8b 1e 01 be 8f 6b ad be b8 c3 12 bd 17 07 45 3e
       -0.12609307 -0.33871123 -0.035831183 0.19240986
000100 fa 47 12 bd dd eb 67 be 31 25 55 bd 1e 9f 3d 3e
       -0.035713173 -0.22648568 -0.05203742 0.1851773
000110 74 db 8f 3d ac 6e db 3d 28 eb 18 3d 66 18 3c 3e
       0.07024279 0.10714468 0.037333637 0.18368682
000120 94 56 3a 3e b8 83 92 3d 7c 01 29 be 37 e4 4a be
       0.1819709 0.071540296 -0.16504472 -0.1981362
000130 4a 77 9c be db ef 3e be db 95 5e 3e d0 a0 81 be
       -0.3055976 -0.18646185 0.21736853 -0.25318003
000140 46 75 22 be 43 50 c9 3d 2d 6b 54 be 0e 90 8b be
       -0.15865049 0.09829762 -0.2074401 -0.27258343
000150 34 c6 77 be a6 8d 8f 3d f4 b6 19 3e 8e 20 4c be
       -0.24196702 0.07009439 0.15011197 -0.19934294
000160 1d 14 c3 3b 5e d5 5b be 2b ee 1c 3d 54 87 08 be
       0.0059533254 -0.21468112 0.038313072 -0.13332874
000170 41 89 51 3e 73 8e ac bb ab dd 5d bd 47 1b 9a be
       0.20462514 -0.0052660047 -0.054166477 -0.30098936
000180 58 07 94 3d ef 0f 17 3e 15 94 6b 3e 6d 4e 23 3d
       0.07227963 0.14752172 0.23005708 0.039869715

parametrizer.linear2.bias f4 [10]
000000 8c c5 b2 be 19 34 6d be cd b1 1b 3e 13 b1 d7 bd
       -0.3491634 -0.23164405 0.15204544 -0.10531821
000010 0a 1b 37 be 8f b8 ab bd 0a 46 02 3d 25 3c 8d 3e
       -0.17881408 -0.08384811 0.031805076 0.2758495
000020 21 49 7b 3e c9 98 52 be
       0.24539615 -0.20566095

parametrizer.linear3.weight f4 [5, 10]
000000 9a 77 9f 3e 6c be 56 be 68 38 ab bb 28 f7 3a 3d
       0.31145936 -0.20971078 -0.00522523 0.045645863
000010 b2 cb 47 bd 9b ee 79 3e fe e9 7d be c1 0e 36 3e
       -0.048778243 0.24407427 -0.24796292 0.17779066
000020 a1 ff 9b bd 78 57 46 be 3e dc a7 3e cc 05 86 bc
       -0.07617117 -0.19369304 0.3278522 -0.016360186
000030 7f 74 36 3d f2 bb 87 3e 4a fc 9e 3c a9 fa 41 be
       0.044544693 0.26510578 0.01940741 -0.18943276
000040 86 71 68 3d ab aa 92 be d6 03 cd 3d 7b f1 0b be
       0.05674889 -0.28645834 0.10010497 -0.13666336
000050 b2 d4 c2 3d cd 43 87 be 45 88 0d be 38 eb 8d 3b
       0.09513225 -0.26418915 -0.13821514 0.004331019
000060 0e 11 17 be 7e d8 76 3d a1 b7 45 be 84 76 9e 3d
       -0.147526 0.060265057 -0.1930833 0.07737449
000070 b4 e4 4e be 4b bd 0e 3e 71 83 01 bd 04 40 eb 3c
       -0.20204431 0.13939397 -0.031619493 0.028717048
000080 19 42 27 be 59 85 80 3e 51 e9 6f be fe 63 a0 bd
       -0.16333808 0.25101736 -0.23428847 -0.07831572
000090 27 3f 2a 3d 48 12 f1 3d 1e d0 0d 3e 3c 57 8f 3e
       0.041564133 0.11771065 0.13848922 0.27996242
0000a0 49 19 31 3b 18 aa 8d be 8e f9 45 bd c9 0b 9b be
       0.0027023128 -0.27668834 -0.048333697 -0.3028243
0000b0 0f f0 bb be b8 b6 1c 3a 29 1b 44 be 91 bd 13 bd
       -0.36706588 0.0005978155 -0.19150986 -0.036069456
0000c0 1d 34 5d be 19 d1 d1 3c
       -0.21601911 0.0256124

parametrizer.linear3.bias f4 [5]
000000 36 87 97 be 4a 2e fa 3a c5 48 08 be af 0f 09 be
       -0.29595345 0.0019087282 -0.1330901 -0.13384889
000010 8f dc 0c 3e
       0.13756011

parametrizer.linear4.weight f4 [31, 5]
000000 6e 54 9e 3e 20 3a ec be 2f a7 85 3d 08 b0 c5 be
       0.3092379 -0.46138096 0.06526028 -0.38610864
000010 72 24 b1 3e 53 f9 1b 3e 2c d4 96 3a 8e 58 98 be
       0.34598118 0.15231828 0.0011507324 -0.29755062
000020 f6 1a c6 3d c4 af 82 3e ba 5a bf be d8 2b 2c be
       0.09673111 0.25524724 -0.37373906 -0.168136
000030 48 e9 ba 3d ca d1 e9 3d 65 23 fe 3e ce 7d 9d be
       0.09126526 0.11416967 0.4963638 -0.30760044
000040 70 5a d3 bd dc 0a b2 3e fc 4c 41 3e ef 18 9c bd
       -0.10319984 0.3477391 0.18877023 -0.07621943
000050 b4 69 a7 3e d5 e4 12 bd 90 55 d8 3c fe 02 9e 3e
       0.32697833 -0.035862762 0.026407987 0.30861658
000060 fc 3e 93 3d 20 ae 9b be fb f7 42 3e c5 52 51 be
       0.07189748 -0.30406284 0.1903991 -0.2044173
000070 77 7a 24 3e d0 ef 90 be a0 fb 8e be 19 2d a8 3e
       0.16062342 -0.28307962 -0.2792635 0.32846907
000080 70 63 0b be d9 23 29 be a8 51 c8 be e6 0a 7f be
       -0.13612151 -0.16517581 -0.391248 -0.24906501
000090 33 de 84 bb 59 46 37 3e 4b 64 85 be 74 a7 be 3e
       -0.0040548085 0.17897929 -0.2605308 0.37237132
0000a0 be 72 f7 bd 66 75 5b be 31 67 a9 3e 6b dd 3f be
       -0.12082432 -0.21431503 0.3308654 -0.18736808
0000b0 55 d5 33 3e 24 2e 33 be 86 43 11 3e 7e f4 c3 be
       0.17561848 -0.1749807 0.14185914 -0.3827247
0000c0 cd f4 3b be e3 e4 96 3e 13 66 93 be 2e 89 ac be
       -0.18355103 0.29471502 -0.28788814 -0.3369841
0000d0 72 12 09 3e 50 4f 8a 3d ef b2 af be 9b b6 72 be
       0.13385943 0.06753409 -0.34316203 -0.23702471
0000e0 0b 10 02 3e b0 64 db 3d e8 b5 1e 3e 1a e1 00 be
       0.12701432 0.10712564 0.15499079 -0.1258587
0000f0 9b c2 c2 3e eb cb c9 be fa 85 0d be 0d fb 71 3d
       0.38039097 -0.3941339 -0.13820639 0.05907731
000100 fa b4 0f 3e 7d b2 d8 be ff 26 93 3e 96 9b 06 be
       0.14033881 -0.42323676 0.2874069 -0.13145289
000110 48 95 83 3e fa f3 89 be b9 66 ea bd 94 8f 0f 3e
       0.2569983 -0.26943952 -0.11445374 0.14019614
000120 f9 76 dd bd dd cc b5 3e 35 7f 72 3e 36 e8 b3 3e
       -0.10813708 0.3550786 0.23681338 0.351381
000130 eb 67 c3 be 6f cf 68 bd 6a be ce 3e fb 62 67 3d
       -0.3816522 -0.05683845 0.4037965 0.05649088
000140 5f 11 fb be e5 06 a7 3e ad 28 e2 be f6 bf d2 3e
       -0.4903669 0.32622448 -0.44171658 0.4116208
000150 35 39 f0 3e ee 7b 00 3e 7b 80 1d 3e 74 e0 96 bd
       0.46918646 0.12547275 0.15381043 -0.0736703
000160 eb ac d0 bc c0 06 1a 3e be 8d 9c 3e 1b b7 37 3e
       -0.025473079 0.15041637 0.3057689 0.17940943
000170 58 17 2e bd 6f 55 51 3c aa 16 09 be b1 be 98 bd
       -0.04250273 0.012776717 -0.13387552 -0.074582465
000180 71 f5 a7 bd 58 bc df 3d a1 b0 e9 bc e8 b3 af be
       -0.08201111 0.109245956 -0.028526606 -0.34316945
000190 76 ec ed be 71 48 f8 be ae f9 4b 3e c3 e0 70 be
       -0.46469468 -0.48492768 0.19919464 -0.2352324
0001a0 cd cd 23 3c 0f c3 8e 3e 80 89 81 3e ea f9 6b 3e
       0.009997797 0.27883193 0.25300217 0.23044553
0001b0 7f f6 c9 be 13 7b c9 3e cd ac c2 be 45 2d 0b be
       -0.39445874 0.3935171 -0.38022462 -0.13591488
0001c0 31 68 c0 3e e9 c8 a8 3d c8 a2 93 3e 9f 02 c6 3e
       0.37579492 0.082414456 0.2883513 0.38673875
0001d0 62 d2 e5 be 5f 1c 5c bd 71 a0 c0 3d 9b 46 ee 3e
       -0.44887072 -0.053737994 0.09405602 0.46538243
0001e0 d8 c8 d7 bb 16 63 d2 bc ea 7e 8a bb c8 ea b6 3e
       -0.0065852217 -0.025682013 -0.004226555 0.35726
0001f0 90 85 7a be 3c e9 69 be dc 6d 08 3e 75 61 6b 3d
       -0.24465013 -0.22842878 0.13323158 0.05746599
000200 d6 31 9c be 11 e0 d3 3d 51 f5 3a 3e 80 cf 97 3e
       -0.30506772 0.10345472 0.18257643 0.29650497
000210 dc 78 74 be c2 6d 16 bd 8b be 02 be 4b 31 e7 be
       -0.23874229 -0.036725767 -0.12767999 -0.45154795
000220 83 ba 22 3e 91 41 ae 3e ea 52 b3 bd 54 0b 8e 3d
       0.15891461 0.34034398 -0.08756049 0.069357544
000230 bd 6d 52 3d b8 ad 81 be e1 ae d6 bd 1b 88 80 3e
       0.051374186 -0.2532785 -0.10482574 0.2510384
000240 6c f0 81 be cb 64 eb be c6 29 3e be 82 fa d9 be
       -0.2537874 -0.45975336 -0.18570623 -0.42573935
000250 f4 5f 02 bd d8 cc 19 be a5 3a 6c be 07 f6 d8 be
       -0.03182979 -0.15019548 -0.23069246 -0.42375204
000260 9a 5c 8d 3e a6 4a ab 3e 7d 90 b3 be
       0.27609712 0.3345539 -0.35071173

parametrizer.linear4.bias f4 [31]
000000 d6 87 6c be 36 20 58 be 8c 08 93 3e dc 24 0b 3e
       -0.23098692 -0.21106037 0.28717458 0.1358828
000010 68 95 8e bb ca 1e 89 3e 6b 80 c7 3e 3d 68 29 3e
       -0.0043513067 0.26781303 0.38965163 0.1654367
000020 11 a8 7b 3e 78 18 13 be fa c9 c1 3e 1a 9d 76 be
       0.24575831 -0.14364803 0.37849408 -0.24083367
000030 2e 5f 45 be 6b 06 db 3e 1a f7 75 be 56 56 1d 3e
       -0.1927459 0.42778334 -0.24020043 0.15364966
000040 04 b3 c8 be 84 6d 0e 3e 67 2b 0a be e4 bc ba 3e
       -0.39199078 0.13908964 -0.13493119 0.36472237
000050 2b e1 b3 3e 3e 94 3a bc 5f c2 c4 be ff db 91 be
       0.35132727 -0.011387883 -0.38429543 -0.28488156
000060 47 58 4e be b0 01 b0 bd 42 9f b0 3e 70 96 90 bc
       -0.20150863 -0.08594072 0.34496504 -0.01764986
000070 39 80 6f 3c 44 8a d2 bd cc e8 cb be
       0.014617973 -0.10280278 -0.39826047

exp_avg f4 [10, 30]
000000 0c 43 d7 3a 53 0d 98 3b 95 70 01 3b 45 b7 6f 3a
       0.001642318 0.0046402602 0.0019750942 0.0009144436
000010 4d fa c1 3b eb e4 1d 3b 15 cb 1a 3b 7a 62 83 3b
       0.0059197308 0.0024092745 0.0023619581 0.004009542
000020 30 05 79 3b 41 67 63 bb a2 df 53 3b 4b 17 88 3b
       0.0037997477 -0.0034698995 0.003232934 0.0041531674
000030 7b 3b 4c 3b 15 5f 3b 3b 31 b7 54 bb bc 9d c2 bb
       0.0031163383 0.002859061 -0.0032457823 -0.0059392136
000040 3f 6f fa bb 5c c1 39 bb f7 5d 36 3b ab 54 20 bc
       -0.007642656 -0.002834401 0.0027827004 -0.009785811
000050 a1 7d 3a 3b 29 46 ef 3b 4f c9 48 3b a9 c3 e1 3a
       0.0028456228 0.007302065 0.0030637567 0.0017224449
000060 3c e1 02 3c 74 2d 9c 3b 18 4b 28 3b 85 ee a4 3b
       0.00798827 0.0047661606 0.0025679525 0.0050333166
000070 1c 69 eb 3b f0 5c 35 3b b5 b4 73 3b a1 be 64 b9
       0.007184161 0.0027673803 0.0037186567 -0.00021814789
000080 18 0d 96 3b 20 0a 5c 3b ec 0c 7f 3c 22 0f 21 3c
       0.0045791976 0.003357537 0.015567046 0.009830268
000090 97 43 fd 3b 11 ce 1f 3c 85 cf 42 3c 21 9b 26 3b
       0.0077290046 0.00975372 0.011890297 0.0025422054
0000a0 34 aa ed 3b 0e a8 b1 3b 20 6f ed 3b f7 80 d7 3b
       0.007252956 0.005421645 0.007245913 0.006576653
0000b0 4c e9 95 3a 5b e6 9a 3a 8b e2 44 bb 4d dd 4a 3b
       0.0011437326 0.0011817919 -0.0030042257 0.003095466
0000c0 99 86 b0 3b 9c 75 19 bb fa bd 8e 3b 19 cf e8 3a
       0.005387139 -0.0023416048 0.004356143 0.0017761915
0000d0 60 64 a3 3b fe a2 6c 3b a0 0e 35 3c f6 f7 07 3c
       0.004986331 0.0036107893 0.01105085 0.008298865
0000e0 06 fd ad 3b b3 1e 0d 3c 3d 7a f9 3b f5 3e ef 3b
       0.0053097038 0.008613276 0.007613449 0.0073012062
0000f0 47 45 41 bb f9 0b 80 bb 3f 6a 39 bb f9 53 2e bb
       -0.0029490755 -0.0039076773 -0.0028292087 -0.0026600345
000100 e2 8b 01 3c ca 1b 60 3a df fa 12 bb 80 f3 60 39
       0.007906886 0.0008549063 -0.0022427363 0.00021453016
000110 8c 97 cd 3b d2 ec 91 3a ac 2d 0e 39 88 06 70 39
       0.0062741693 0.00111332 0.0001355919 0.00022890617
000120 07 ec 08 ba 5e 76 82 39 3b ca 09 ba 96 6d 7d bb
       -0.0005223159 0.00024883723 -0.000525627 -0.0038670055
000130 35 c3 e6 bb 47 2e 2d bb fc 68 ba 39 bf 57 af bb
       -0.0070423135 -0.0026425289 0.00035554904 -0.0053510363
000140 95 d3 f0 ba 49 65 29 bb e5 76 df ba 4e bd a4 ba
       -0.0018373603 -0.0025847724 -0.0017048983 -0.0012568624
000150 b6 2b 9c 3b 96 8c 4c 3a 7d e5 39 bb c9 7d 92 b9
       0.004765953 0.00078029314 -0.0028365545 -0.00027941007
000160 61 13 5e 3b 24 bd f9 3a 79 95 ac 3a 1d ac 1c bb
       0.0033886062 0.0019053561 0.0013167105 -0.0023906298
000170 64 82 b5 3a 6a ff b3 3a 8e a6 e3 ba 62 ec 0c 3a
       0.0013848064 0.0013732736 -0.0017368363 0.00053758
000180 af a6 cf 3a 83 49 84 39 69 54 17 ba 7b e1 26 3a
       0.0015842522 0.00025231772 -0.0005772771 0.00063659967
000190 fd f9 14 3b 6b 32 d2 3a 25 bc 3a 3b e8 b0 08 3b
       0.0022732012 0.0016036754 0.002849349 0.0020857397
0001a0 cb 0a 07 3b c7 75 0f 3b ee e4 aa 3b 70 5b 3c 3b
       0.0020605798 0.002189027 0.005215279 0.0028741024
0001b0 fb 45 2d 3b 60 2f 84 3b 95 f7 ab b8 be 91 54 bb
       0.0026439417 0.004033968 -8.200031e-05 -0.0032435502
0001c0 3f b3 27 39 01 1c 3c b8 27 3d 82 bb 85 db 30 bb
       0.00015993135 -4.4848774e-05 -0.003974575 -0.0026986313
0001d0 71 37 35 ba 36 45 94 ba 0d 3c 77 bb 78 3f 3a bb
       -0.00069128635 -0.001131213 -0.0037725002 -0.0028419178
0001e0 b7 d0 a0 3b 9f bb 14 3c 88 d4 a9 3b b1 7e 8d 3b
       0.0049076932 0.0090779355 0.0051828064 0.0043180813
0001f0 d6 cf 3b 3b ff 42 fc 39 5e f4 91 3a c1 df 94 3b
       0.0028657815 0.00048115102 0.0011135449 0.004543275
000200 c5 16 23 b9 4e bd 2f bc 00 96 8c 3b 1a d7 f4 3b
       -0.00015553374 -0.010726286 0.0042903423 0.007471931
000210 ee 88 9e 3b 14 de ad 3b c3 5c aa bb 94 01 33 bc
       0.0048381006 0.005306015 -0.0051990463 -0.010925669
000220 3f c4 6e bc 58 07 c7 bb 77 1c a6 ba 5b 78 ac bc
       -0.014573156 -0.0060738735 -0.0012673278 -0.021053484
000230 82 84 c8 3b bf 6c 41 3c 3e ef c6 3b 4c e6 a5 3b
       0.006119312 0.011805712 0.0060710004 0.005062854
000240 3e 4e d8 3b 65 1f 77 3b 4e 87 e5 3a 67 04 ae 3b
       0.006601124 0.0037707922 0.0017511637 0.0053105834
000250 ec 02 99 3b 87 8b e2 ba 8a 7f b3 3a cd de eb 3b
       0.004669538 -0.0017284014 0.0013694626 0.007198191
000260 19 8c cb 3a 67 83 98 3a e2 de 04 3b 52 49 d6 3a
       0.0015529423 0.0011635841 0.002027445 0.0016348755
000270 1b 59 87 3a bb 1a 16 3b 4b e3 a3 3a df 20 95 ba
       0.0010326238 0.0022904116 0.0012503652 -0.0011377594
000280 d0 1e 58 3a 08 cb a0 3a 60 54 83 39 6b 17 37 3a
       0.00082443375 0.0012267539 0.0002504913 0.00069843855
000290 13 13 a6 ba 5b 3a 54 ba 8f 21 a7 bb f2 db 0a bb
       -0.001267048 -0.0008095854 -0.005100436 -0.0021188227
0002a0 f8 23 88 ba 46 dc 92 bb c8 8e 50 3b 35 5c 0e 3c
       -0.0010386696 -0.004481825 0.0031823386 0.008688976
0002b0 e6 39 36 3b d7 c5 25 3b f7 0c c2 3b 86 73 ab 3b
       0.0027805506 0.0025294924 0.0059219557 0.0052322773
0002c0 01 21 6f 3b 46 88 84 3b 0f d7 cf 3b 50 f8 95 3b
       0.0036488178 0.0040445654 0.0063427757 0.0045767203
0002d0 6d 3e 28 bb b0 77 bd b9 40 47 23 bb 61 90 d3 ba
       -0.0025671974 -0.00036138063 -0.0024914294 -0.0016141051
0002e0 e8 29 cb bb 36 21 bb 39 d7 63 4f 3b 13 65 ec ba
       -0.006200064 0.00035692164 0.0031645203 -0.0018035494
0002f0 85 15 1b b7 18 e6 d4 3b f2 ef 2c 3a 17 03 5f 3b
       -9.24373e-06 0.006497156 0.0006597034 0.0034028941
000300 7f 4b 96 39 72 15 1b ba 48 0d 90 3b 14 25 0a 3c
       0.00028666478 -0.00059159764 0.0043961145 0.008431692
000310 cb 99 85 3c a2 e0 10 3c 05 43 f8 3a c8 f1 73 3c
       0.016308686 0.008842619 0.0018940872 0.014889188
000320 68 46 2d bb 61 28 1c bb 29 fa 34 bb 6d 56 df ba
       -0.002643967 -0.0023827779 -0.0027614927 -0.0017039307
000330 07 2a eb bb 7e aa 0f bb a8 a7 eb 3a ae d8 29 bb
       -0.007176641 -0.002192169 0.0017979043 -0.0025916505
000340 0d a4 1e bb 68 ff 2e 3a db c6 74 3a 19 f1 c2 b8
       -0.0024206669 0.0006675632 0.0009337493 -9.295549e-05
000350 c0 a9 79 3a 09 54 a8 3a e8 0a 6a bb 80 24 26 ba
       0.0009523891 0.0012842427 -0.0035712067 -0.00063378364
000360 f1 1b 11 b8 ae 6e 8d ba 19 d5 11 ba 3f 6b 2d ba
       -3.4596716e-05 -0.0010790431 -0.0005563065 -0.0006615407
000370 cc 18 1d 3b 66 e8 46 3b 00 20 35 3b 25 cd 1e 3b
       0.002397108 0.0030350923 0.0027637482 0.0024231162
000380 0d 59 fd 3a 07 a3 bf 3a a6 cd 70 3b 54 c9 d8 3a
       0.0019328907 0.001462073 0.003674367 0.0016539493
000390 92 0d 95 3b 5e 4b 07 3b c6 d7 2c b9 04 b9 b7 ba
       0.004548737 0.0020644288 -0.0001648358 -0.0014016931
0003a0 98 1f 3d b9 20 80 bd 38 d7 4d cf bb c6 81 75 bb
       -0.00018036214 9.0360874e-05 -0.006326418 -0.0037461384
0003b0 41 5a 03 bb ea 07 2f bb e3 e3 1d bb 9a f6 8f bb
       -0.002004281 -0.0026707598 -0.002409213 -0.004393411
0003c0 81 cb 17 bb 61 2d 1b bc c0 35 0f bb 23 eb 27 bb
       -0.002316207 -0.009471268 -0.0021852106 -0.002562233
0003d0 7d 06 f0 3b d2 a2 19 3b 1d 66 a1 ba a8 d8 30 3a
       0.007324992 0.0023442996 -0.0012313757 0.00067461515
0003e0 a8 28 14 3b 4f 90 47 3b 63 f8 e9 ba 33 2c 82 bb
       0.002260724 0.0030451005 -0.0017850514 -0.003972554
0003f0 20 62 8d ba dd ed aa ba d8 ec 85 b7 49 fb d8 b9
       -0.001078669 -0.001304086 -1.5965124e-05 -0.00041385952

exp_avg_sq f4 [10, 30]
000000 39 70 d8 36 f7 43 7e 37 22 d4 df 36 09 df 93 36
       6.450366e-06 1.5155404e-05 6.6706134e-06 4.406906e-06
000010 7d 20 61 37 2a 5f c7 36 b5 86 3a 36 9a ca e9 36
       1.3418609e-05 5.9417407e-06 2.779457e-06 6.967527e-06
000020 92 19 28 37 bf 45 22 38 d7 a7 53 36 59 93 15 37
       1.0019534e-05 3.8688766e-05 3.1539146e-06 8.915399e-06
000030 14 a2 52 36 79 1e 63 36 71 90 a3 37 ff 1a 06 38
       3.138678e-06 3.3843373e-06 1.9498375e-05 3.197323e-05
000040 89 d8 27 38 47 9a 3a 37 f8 e6 a2 36 04 13 d7 38
       4.0017567e-05 1.1122384e-05 4.8548645e-06 0.00010255541
000050 d1 ec e7 36 18 c9 cc 37 e9 81 ee 36 88 14 82 36
       6.9119055e-06 2.4412337e-05 7.1080763e-06 3.876692e-06
000060 f0 28 d5 37 a9 1e 22 37 8b b7 d2 36 da e3 12 37
       2.5410642e-05 9.663091e-06 6.279855e-06 8.755329e-06
000070 8c d9 b5 37 d6 96 89 37 ba e5 2d 37 75 0c 70 37
       2.1678185e-05 1.6401911e-05 1.0365091e-05 1.4308015e-05
000080 16 6a 24 37 d3 37 29 37 3b 9f ae 37 0c 9c 0a 37
       9.799862e-06 1.0086183e-05 2.0816564e-05 8.2617735e-06
000090 50 bd cc 36 7c a1 05 37 8e 31 81 37 d3 73 9a 37
       6.1017126e-06 7.965016e-06 1.5401074e-05 1.8412165e-05
0000a0 b7 3d 9c 36 de b5 52 37 37 73 8d 36 5f 4e 9e 36
       4.656347e-06 1.255932e-05 4.2155402e-06 4.7178905e-06
0000b0 5f 58 1d 37 4a d1 23 37 91 fb e8 36 50 ae d4 36
       9.378505e-06 9.764286e-06 6.943425e-06 6.338385e-06
0000c0 29 9d 2a 37 f8 36 da 37 96 32 37 37 32 fb 85 37
       1.0169381e-05 2.6013222e-05 1.0919428e-05 1.5971807e-05
0000d0 8f 0b 24 37 f7 c9 4e 37 a3 bb a7 37 35 14 52 37
       9.777853e-06 1.232558e-05 1.9995327e-05 1.252168e-05
0000e0 f4 08 0e 37 e3 e7 2c 37 6a 64 6c 37 48 07 a6 37
       8.465944e-06 1.0305989e-05 1.4090076e-05 1.9792133e-05
0000f0 d1 02 a2 37 44 13 86 37 53 34 96 37 fa 24 a2 37
       1.9313216e-05 1.5983016e-05 1.7905759e-05 1.9329123e-05
000100 e2 7f 32 37 3a ba 5d 35 a9 e4 a5 36 75 69 de 36
       1.0639402e-05 8.259991e-07 4.9440027e-06 6.6283924e-06
000110 b2 6b d0 36 63 a8 6c 37 8f ad 03 37 2d 43 0c 37
       6.2114204e-06 1.4105902e-05 7.848618e-06 8.360291e-06
000120 84 dc ef 36 7b e9 04 37 4e f6 68 36 b8 5d 52 36
       7.1484264e-06 7.9221745e-06 3.4714062e-06 3.134699e-06
000130 f6 92 01 37 08 ae 04 37 fc f7 e2 36 f3 c9 db 36
       7.723216e-06 7.908333e-06 6.764194e-06 6.5502186e-06
000140 4a 2a ae 37 d0 5d 80 37 f9 3a 9c 37 0f a1 b9 37
       2.0762109e-05 1.5302474e-05 1.862411e-05 2.2128717e-05
000150 ad c1 ca 36 17 57 92 36 da 0e 9e 36 a7 4d 03 37
       6.042616e-06 4.3612777e-06 4.710496e-06 7.826288e-06
000160 ad f5 8f 36 88 ff 39 37 45 9d 1e 37 d4 05 06 37
       4.2903325e-06 1.1086355e-05 9.454151e-06 7.988379e-06
000170 2a 55 1c 37 c8 98 18 37 33 6b 3a 37 f8 82 59 36
       9.318153e-06 9.095478e-06 1.1111423e-05 3.2411754e-06
000180 35 4f 0e 36 87 2e c0 36 e7 94 a6 36 db b1 45 37
       2.1205753e-06 5.7274624e-06 4.96452e-06 1.1783525e-05
000190 4a 06 a1 36 bb bb a5 36 2c 3d 77 36 88 b2 8e 36
       4.798906e-06 4.939238e-06 3.6841475e-06 4.2527136e-06
0001a0 32 04 95 36 60 4f fe 36 2f b4 fd 37 1f ca e7 36
       4.4410344e-06 7.5790304e-06 3.0243855e-05 6.9078665e-06
0001b0 c3 fe 6a 36 d7 36 da 37 f1 47 3b 37 01 8e 25 37
       3.5017008e-06 2.6013162e-05 1.1162819e-05 9.867829e-06
0001c0 52 3b 22 37 87 22 2d 37 3c e3 5e 37 89 03 c5 36
       9.669764e-06 1.0319643e-05 1.3285138e-05 5.871469e-06
0001d0 27 54 11 36 17 fe ad 36 2a 3f 08 37 06 dd 13 37
       2.1655667e-06 5.1853817e-06 8.120938e-06 8.813344e-06
0001e0 eb 7d 85 37 ae 00 cb 37 46 69 8d 37 3c 45 48 37
       1.591347e-05 2.4199802e-05 1.6857532e-05 1.1937049e-05
0001f0 67 16 11 37 44 66 45 37 91 5f 8a 37 e1 d6 6b 37
       8.647889e-06 1.1765926e-05 1.6495384e-05 1.4057122e-05
000200 3c b3 c0 36 e7 c9 3d 38 67 d8 04 37 cf 58 20 37
       5.7429115e-06 4.5249148e-05 7.918198e-06 9.5574205e-06
000210 61 22 17 37 9e 18 19 37 86 65 f7 37 48 8b 2b 38
       9.008306e-06 9.125242e-06 2.949197e-05 4.0899293e-05
000220 1f a7 25 39 f0 56 25 38 c8 e1 ac 36 86 bc 43 39
       0.00015797884 3.9420032e-05 5.152284e-06 0.0001866688
000230 c3 29 95 37 ba c2 17 38 f5 06 9a 37 f7 96 44 37
       1.7781631e-05 3.618256e-05 1.836147e-05 1.171766e-05
000240 5a 59 c0 37 21 c3 65 37 ca a5 54 37 80 e6 84 37
       2.2929791e-05 1.3694896e-05 1.26747855e-05 1.5842961e-05
000250 91 a7 80 37 93 35 6c 37 49 ba 96 37 8a ee 38 37
       1.5336818e-05 1.407917e-05 1.796814e-05 1.1022794e-05
000260 ae 65 97 37 c9 5e 94 37 e6 20 a5 36 5e 47 cb 36
       1.8047951e-05 1.7687113e-05 4.921213e-06 6.0581797e-06
000270 4d d9 db 36 de 54 56 37 a5 ab 1f 36 4a 05 07 37
       6.5520057e-06 1.2775154e-05 2.3792757e-06 8.0478585e-06
000280 12 43 02 37 58 4e 4c 36 b9 18 d2 36 03 34 f9 36
       7.76422e-06 3.044397e-06 6.261366e-06 7.4268332e-06
000290 00 c7 20 36 88 21 a9 36 8d 3c 15 38 2f 8a 17 37
       2.3957691e-06 5.040496e-06 3.558076e-05 9.032475e-06
0002a0 da 24 8d 36 c9 e0 d9 37 bd 9e c2 37 36 2e 76 37
       4.2064175e-06 2.597309e-05 2.320052e-05 1.4673502e-05
0002b0 87 53 af 37 2a e0 b9 37 63 6e 2d 37 a9 74 1a 37
       2.0900521e-05 2.2158103e-05 1.0337305e-05 9.206277e-06
0002c0 48 d5 de 36 34 27 5d 37 b6 c7 d2 36 72 f8 ab 36
       6.640945e-06 1.3181754e-05 6.281737e-06 5.12512e-06
0002d0 90 68 c1 36 d6 16 1f 36 22 e7 d3 36 75 16 9f 36
       5.764021e-06 2.3706139e-06 6.3151974e-06 4.7411836e-06
0002e0 c4 ae 4e 37 ae a2 02 37 87 ba 28 37 04 88 22 37
       1.2319248e-05 7.786481e-06 1.005701e-05 9.687621e-06
0002f0 09 57 d4 36 44 95 a8 36 af 29 a2 36 f3 98 94 36
       6.3282246e-06 5.024167e-06 4.832829e-06 4.4285493e-06
000300 b9 83 84 36 c4 b3 8c 36 50 59 4e 37 6d 38 3f 37
       3.949241e-06 4.1932526e-06 1.22993515e-05 1.1397625e-05
000310 37 b1 34 38 8d 17 55 37 f6 22 13 36 b5 28 0b 38
       4.308039e-05 1.2701273e-05 2.1925057e-06 3.3178094e-05
000320 60 73 af 36 02 ce 97 36 7c 05 ba 36 1f bb 80 36
       5.228838e-06 4.524133e-06 5.5438704e-06 3.836481e-06
000330 cb 99 8e 37 92 9c d6 36 a0 b8 d9 36 59 b1 ee 36
       1.6999335e-05 6.395924e-06 6.488597e-06 7.1135987e-06
000340 34 4c 14 37 69 06 96 36 dc d5 16 38 c3 db 58 37
       8.83923e-06 4.4710946e-06 3.596196e-05 1.29257705e-05
000350 51 e4 12 38 a1 62 26 38 d5 d4 00 37 7d 13 e5 36
       3.502175e-05 3.966934e-05 7.678948e-06 6.8270006e-06
000360 a2 0a 3e 37 03 20 ce 37 3a 2d 7c 36 e2 16 e1 36
       1.1327358e-05 2.457202e-05 3.7577252e-06 6.7081864e-06
000370 cd 8e 96 37 49 9f 4f 36 42 9a 66 37 d4 2a 98 37
       1.794789e-05 3.093812e-06 1.3744984e-05 1.8139755e-05
000380 3d e7 43 36 b3 36 1e 36 dd 88 71 36 7b 3a 76 36
       2.9191863e-06 2.3575674e-06 3.5991463e-06 3.6690897e-06
000390 bb d0 ae 36 f5 a5 95 36 35 7a 31 38 c5 b8 75 37
       5.2099035e-06 4.459866e-06 4.2313903e-05 1.4646158e-05
0003a0 af f1 1d 38 b6 50 44 38 c9 cb 5c 37 de 1c 06 37
       3.7656802e-05 4.680521e-05 1.3160469e-05 7.993744e-06
0003b0 b6 a8 fc 36 53 12 ac 37 71 38 b4 36 63 51 b4 36
       7.529826e-06 2.051253e-05 5.3709887e-06 5.3738927e-06
0003c0 9c 43 47 37 43 bd 0b 37 63 7f 3e 37 10 46 47 37
       1.1877066e-05 8.329112e-06 1.1354542e-05 1.1877637e-05
0003d0 07 2e 88 36 a1 8e d1 35 fb 2f e5 36 07 f5 d7 36
       4.058474e-06 1.5613224e-06 6.8303175e-06 6.4360243e-06
0003e0 4b 97 98 35 54 d0 8e 36 f2 d0 db 36 55 f2 e9 35
       1.1368915e-06 4.2561824e-06 6.551033e-06 1.7430381e-06
0003f0 b7 ac a3 36 4c a2 ae 36 17 1d 82 36 7c af 43 36
       4.877885e-06 5.204498e-06 3.8776884e-06 2.915941e-06

exp_avg f4 [10]
000000 20 e3 40 bc 67 88 1d bd 40 b4 8d bc a3 56 6d bc
       -0.011772901 -0.03846016 -0.017297864 -0.014485988
000010 31 36 aa bc 6c ed 1c 3c 31 35 ad 3b 57 a8 b0 bc
       -0.020777794 0.00957809 0.005285882 -0.021564646
000020 57 37 1a bc dd b4 92 bb
       -0.009412608 -0.004477127

exp_avg_sq f4 [10]
000000 e0 b7 66 38 b6 0a 1d 39 16 af 99 38 48 e4 33 37
       5.500752e-05 0.00014976677 7.328221e-05 1.0722382e-05
000010 a1 df 62 38 ab b1 95 37 23 ab cb 36 76 97 85 38
       5.409087e-05 1.7844917e-05 6.0697944e-06 6.370146e-05
000020 00 76 dc 37 75 3b db 35
       2.6280992e-05 1.6334076e-06

exp_avg f4 [10, 10]
000000 45 1e a5 bb 53 b5 c7 bb 8d c4 cb 3b 99 f1 2d 3b
       -0.005039009 -0.0060946136 0.006218499 0.0026541709
000010 ba d0 29 3b 0e e8 7e bb cd a8 a2 bb 9c 16 4e 3b
       0.0025911764 -0.003889564 -0.0049639703 0.0031446582
000020 15 eb 07 3b 07 13 9e 3b 7c af a0 bb 14 44 07 3c
       0.0020739485 0.0048240456 -0.004903732 0.008255977
000030 ab f8 18 3c fb 0d 44 3b 43 dc 64 3b 4e 03 0e 3c
       0.009336631 0.002991556 0.0034921325 0.00866778
000040 35 ee a6 bb 5d db 15 bb 8d 46 16 3b d7 aa 4b 3b
       -0.0050943145 -0.0022866346 0.0022930235 0.003107717
000050 3e 09 f2 ba 6d 65 0d 3b 44 0b 8d 3b 06 f6 c3 3a
       -0.0018465889 0.0021575347 0.0043043215 0.001495064
000060 02 62 96 3a a1 4b 37 ba 5c ac b0 bb ed 91 de 39
       0.00114733 -0.00069921656 -0.0053916406 0.00042451863
000070 4f 49 d9 3b 89 58 b6 3a 7b a0 86 bb 9e cc 17 3c
       0.0066310535 0.0013911884 -0.004108486 0.009265093
000080 84 43 1c 3c c5 46 6f 3b 76 81 7a 3b e9 0d 4b 3c
       0.009537581 0.0036510688 0.0038224137 0.012393453
000090 d8 8c 0c bb a7 c3 c1 bb 06 a2 9a 3b 38 25 75 ba
       -0.0021446254 -0.005913216 0.0047190217 -0.00093515543
0000a0 d7 70 9f bb 81 57 b5 3b 9c f4 36 3c 9e d4 2e 3b
       -0.0048657465 0.005534113 0.011166718 0.0026677023
0000b0 ea d0 77 3b 4b cf ea 3b e3 fa f1 bb 9c be 77 ba
       0.0037813731 0.0071658245 -0.0073846444 -0.0009450705
0000c0 4f 4a 2f 3b 56 d4 66 3b 2a e6 2f bb db 73 17 bc
       0.0026747172 0.0035221777 -0.002684007 -0.009243931
0000d0 ea bb d0 3a 75 e6 07 ba fa f6 01 bb c7 87 b6 bb
       0.0015925143 -0.0005184182 -0.0019831047 -0.005570385
0000e0 f0 a7 fd ba 04 bd e2 3b 29 27 08 bc 23 3e 5b 3b
       -0.0019352417 0.006919505 -0.008310118 0.0033453784
0000f0 0a 2b dc ba 2f 07 28 3c 46 ff ab 3b 94 91 0b 3b
       -0.0016797495 0.010255619 0.005248937 0.0021296488
000100 67 48 8b 3b 24 3b 16 3c ee a1 0d bb ac 54 a4 bb
       0.0042505744 0.009169374 -0.002161141 -0.0050149765
000110 6f 0f a4 3b ce 77 94 39 fc 50 9d ba a4 2e 54 bb
       0.0050067226 0.0002831802 -0.0012002285 -0.0032376433
000120 b2 2c 3a 3a f4 3b b5 ba 09 46 f8 ba 5e 99 a5 3a
       0.0007101997 -0.0013827072 -0.001894177 0.0012634208
000130 ac 53 10 3b f6 45 4a 3b 76 6b 2f bc 6e 6c 07 3a
       0.0022022529 0.0030864454 -0.010706773 0.00051659986
000140 af 09 8c bb 93 1c 16 3c 65 64 f2 3b 12 96 9a 3b
       -0.0042736153 0.009162086 0.007397222 0.004717597
000150 30 69 6c 3b 37 b0 ed 3b 26 c0 aa bb 2c 36 78 bb
       0.0036073439 0.0072536725 -0.005210894 -0.0037874086
000160 c1 fa f7 3b e7 7f 45 3a 37 87 9a 3b 5d 8a 6f 3a
       0.007567734 0.00075340125 0.004715826 0.0009137744
000170 bb ec d5 bb fd bc 87 bb ba ae d2 b9 63 c5 e1 3b
       -0.0065284646 -0.004142402 -0.00040184503 0.0068899854
000180 f5 54 27 3c 1e 0c 51 bb c7 1f 43 bc 46 2d 42 bb
       0.010213126 -0.0031898092 -0.011909432 -0.0029629036

exp_avg_sq f4 [10, 10]
000000 cd d9 a0 37 3c 5b 6c 37 32 e8 14 37 37 15 18 37
       1.9174908e-05 1.4087938e-05 8.87555e-06 9.0648455e-06
000010 4c 28 c0 36 71 54 50 37 1d 70 0e 38 41 1e 00 37
       5.726737e-06 1.2417427e-05 3.3959852e-05 7.636439e-06
000020 3f 7a 97 37 9d cf 20 37 72 60 69 37 9e e0 27 37
       1.8057528e-05 9.585082e-06 1.3910338e-05 1.0006273e-05
000030 7b dd 1c 37 31 9e 32 37 a0 d8 70 37 10 62 ac 37
       9.349892e-06 1.0646459e-05 1.4355552e-05 2.0549662e-05
000040 b0 22 f5 36 4c 4b 56 36 8d d4 4d 37 dd f3 7c 37
       7.305607e-06 3.1932314e-06 1.22684405e-05 1.5077149e-05
000050 c8 92 27 37 df 31 e6 37 17 c9 34 37 6b 51 c2 36
       9.988151e-06 2.744136e-05 1.0775656e-05 5.791129e-06
000060 a4 50 d0 36 3d 08 de 36 1c c8 43 38 40 3c 4c 37
       6.208271e-06 6.6170746e-06 4.667799e-05 1.2173376e-05
000070 a1 e6 25 38 96 bd e0 35 02 4e 4e 37 28 1d 04 38
       3.9553855e-05 1.6744477e-06 1.2296719e-05 3.1498406e-05
000080 ff ce 4c 37 d5 f8 36 37 0b b8 4d 37 80 55 97 37
       1.2207543e-05 1.0905981e-05 1.2261803e-05 1.8040417e-05
000090 2e 1f a0 36 44 11 78 37 ea b7 d2 37 db 20 42 37
       4.7720014e-06 1.4785972e-05 2.5119592e-05 1.1570951e-05
0000a0 62 12 0e 37 eb 7a 15 37 41 ac 90 37 5e 7c ee 36
       8.46814e-06 8.909711e-06 1.724635e-05 7.107431e-06
0000b0 01 2d 87 37 9f b2 43 37 4b 59 7c 37 d4 5c 71 36
       1.611421e-05 1.1664494e-05 1.5041161e-05 3.5965832e-06
0000c0 c8 66 44 37 d6 da f7 36 36 0f 85 37 68 9b ed 37
       1.1706441e-05 7.3866495e-06 1.5861919e-05 2.8324968e-05
0000d0 81 35 6c 37 08 ea 35 37 b6 e0 d3 36 9f 1f 8e 37
       1.40791535e-05 1.084293e-05 6.31445e-06 1.6942444e-05
0000e0 08 3e c8 37 79 33 b1 37 f7 0e b2 37 ce 1a b8 37
       2.3870743e-05 2.1124013e-05 2.1226222e-05 2.1946991e-05
0000f0 dc 44 58 37 ad 89 cb 37 a3 27 05 37 47 c1 39 37
       1.2890636e-05 2.4263596e-05 7.936646e-06 1.107186e-05
000100 1e 1d 6e 37 19 a4 bc 37 68 06 2f 37 c5 46 52 37
       1.4192685e-05 2.248776e-05 1.0432304e-05 1.2533453e-05
000110 d3 ec b8 37 ba 99 a8 37 df f7 c7 36 bb 7c 37 37
       2.204479e-05 2.0098745e-05 5.959518e-06 1.0936691e-05
000120 cb a2 c0 36 d3 1d 12 36 d5 de c8 35 5a 3e 6a 36
       5.7409975e-06 2.1773055e-06 1.4966014e-06 3.490501e-06
000130 e0 a6 7f 36 70 1d c2 36 72 d1 95 37 a1 e8 b8 36
       3.8095095e-06 5.7850775e-06 1.7859715e-05 5.510709e-06
000140 00 4f 32 37 ea ef ee 37 00 72 00 37 17 5a 04 37
       1.062802e-05 2.848353e-05 7.655937e-06 7.888789e-06
000150 75 65 58 37 bf 93 5e 37 f6 8b 9c 37 41 9e 22 37
       1.2898226e-05 1.3266631e-05 1.8661824e-05 9.692799e-06
000160 09 ea 1e 38 a1 f6 2e 37 50 03 ef 37 6d 0b 6d 38
       3.7888098e-05 1.0428631e-05 2.8492563e-05 5.6515844e-05
000170 45 49 d7 37 99 fe 91 37 7f 98 30 37 3a 27 cf 37
       2.5664116e-05 1.7403903e-05 1.0525923e-05 2.469459e-05
000180 03 0c 07 39 d2 61 ed 37 53 a2 c0 38 52 40 bd 36
       0.00012879078 2.8298153e-05 9.185509e-05 5.640127e-06

exp_avg f4 [10]
000000 a4 21 a1 3c db 59 29 3d 21 88 be 3c 84 8e 6d 3d
       0.019669361 0.04134546 0.02325827 0.05799724
000010 cd 07 64 3d 0e 4a 0a bc 1e e5 00 3d d4 e6 09 bc
       0.055671502 -0.008440508 0.031468503 -0.00841685
000020 06 6b 3e 3d e2 fe 1c bd
       0.046488784 -0.038329013

exp_avg_sq f4 [10]
000000 15 07 49 38 c5 00 9e 39 58 35 b3 39 62 e0 af 39
       4.792873e-05 0.00030136682 0.00034181285 0.0003354578
000010 65 e6 d9 39 8f ae 79 38 f1 4e 94 39 f6 d2 02 38
       0.00041561123 5.9528797e-05 0.00028287576 3.1190888e-05
000020 04 d8 0c 3a 4f a9 33 3a
       0.0005372765 0.0006853537

exp_avg f4 [5, 10]
000000 c9 f5 5e bc 44 16 33 ba 7a 11 99 3c d5 cd a6 bb
       -0.013608404 -0.0006831626 0.018685091 -0.005090455
000010 ed 26 2f bc 2c cf 13 bb 8e b8 84 3c a3 a6 53 3c
       -0.010690433 -0.0022553904 0.016201284 0.012918147
000020 5a f4 66 3b da 6e 4f 3a 64 bc d4 bc 27 8b ac bc
       0.003524086 0.00079129415 -0.025968738 -0.021062447
000030 a1 cd c9 3b 41 74 7a bb 8d 5b 52 bc 72 fe b3 3a
       0.006158546 -0.0038216265 -0.01283921 0.0013732447
000040 a8 dc 91 3b eb d8 f8 3c 17 27 41 3c 26 45 fd bb
       0.004451353 0.030376872 0.011789105 -0.0077291904
000050 c4 b8 1e 3d d2 b7 17 3d 7d 9a 2b 3b fd d9 15 3b
       0.038750425 0.03704054 0.0026184611 0.0022865527
000060 0c 01 67 3c 03 6a b8 bb 93 2b d2 3b 6c b8 3b bd
       0.014099371 -0.005627872 0.006413886 -0.045830175
000070 b6 13 d5 bc db fb 93 3c 96 2c ec ba 20 c8 23 bc
       -0.026010375 0.01806443 -0.0018018659 -0.009996444
000080 51 85 65 bc c8 fc b7 3b ef 29 9c 3b 9f 2f 18 3a
       -0.014008836 0.0056148507 0.004765741 0.0005805436
000090 29 6a 7a bc df 4b 14 b9 8c cf 32 3c c3 69 11 bc
       -0.0152841 -0.00014142644 0.010913741 -0.008875313
0000a0 19 e0 fd 3c 42 fe 95 3c a8 f6 4a bc 60 0e 40 3c
       0.030990647 0.018309716 -0.012387909 0.011722177
0000b0 86 e6 35 3d 6f 6d 84 3c cd 04 5f 3b 0a a9 03 bd
       0.044409297 0.016165463 0.003402996 -0.03214363
0000c0 4c 8e cf bc 7a a8 17 3d
       -0.025336407 0.037025906

exp_avg_sq f4 [5, 10]
000000 99 4a 8d 38 f6 79 1e 39 0a 02 41 38 08 e0 b8 37
       6.737299e-05 0.00015113488 4.6016685e-05 2.2038832e-05
000010 83 6c c0 37 d3 e6 8e 37 0a 2c 53 38 85 a5 4b 39
       2.2938713e-05 1.7035205e-05 5.0347335e-05 0.0001942125
000020 0e 3f ba 38 1e 00 8d 38 9c e5 48 39 13 cb 64 39
       8.880916e-05 6.723426e-05 0.00019159022 0.00021819425
000030 98 d4 4e 37 d8 c5 99 37 31 ac 98 37 7c b1 e4 36
       1.2328055e-05 1.833115e-05 1.8199995e-05 6.8155914e-06
000040 54 e5 55 37 4a 27 8f 39 8e 35 e2 38 05 87 91 38
       1.2749184e-05 0.00027304358 0.00010786495 6.939288e-05
000050 6a 08 43 3a bd 5b 2c 3a 7e 8a 5c 38 d2 99 35 38
       0.00074399135 0.00065749494 5.258107e-05 4.329702e-05
000060 69 e4 5f 38 b8 2d a7 37 15 73 3d 38 e5 36 64 3a
       5.3380067e-05 1.992924e-05 4.516829e-05 0.00087056897
000070 5f eb 17 3a 29 aa bc 39 a5 bf d2 38 f4 ee e2 38
       0.0005795266 0.00035984933 0.00010049277 0.00010821028
000080 c0 f8 2b 38 24 e5 09 38 54 02 4d 37 da 10 e8 36
       4.1001244e-05 3.287675e-05 1.2219494e-05 6.9161006e-06
000090 cf b4 0d 38 7d ae bb 38 4a 25 99 38 62 2b 75 38
       3.378541e-05 8.949356e-05 7.302554e-05 5.8452955e-05
0000a0 7e ee 16 39 d8 47 e8 37 d2 cd 53 38 ce 47 8f 37
       0.0001439396 2.769001e-05 5.0498005e-05 1.7080365e-05
0000b0 24 fc 19 39 1a d5 2f 38 04 28 bb 37 32 0c f4 38
       0.00014685147 4.1921718e-05 2.231077e-05 0.00011637098
0000c0 a9 35 cf 38 3a 3b 0c 39
       9.880524e-05 0.00013373504

exp_avg f4 [5]
000000 d5 2d 3c 3d a5 55 92 3d 11 9d c1 bd e9 26 b0 bb
       0.045942146 0.07145242 -0.09453786 -0.005375732
000010 48 e0 10 be
       -0.14148057

exp_avg_sq f4 [5]
000000 8a b9 43 3a 4f fe 9e 3a cd 34 a3 3b 46 70 f1 39
       0.0007466307 0.0012130233 0.0049806596 0.00046050752
000010 0a 1a 0a 3b
       0.002107265

exp_avg f4 [31, 5]
000000 34 4c ba 3c 00 20 25 3c c4 2d 57 3c 8c f8 0d 3c
       0.022741415 0.01007843 0.01313347 0.008665215
000010 9b 26 9a bc ba 25 10 3d 03 51 54 3c c2 9e ad 3c
       -0.018817237 0.03519223 0.012958768 0.021193866
000020 ee 16 41 3c 35 d3 ce bc 7f c9 5b 3c 8b 5b cf 3b
       0.011785252 -0.025247196 0.01341474 0.0063280514
000030 cf d1 03 3c 16 2f b0 3b 81 e7 3c bc f7 68 87 3c
       0.008045628 0.005376707 -0.011529804 0.016529543
000040 05 8c e8 3b ee 15 1c 3c 1c f5 d9 3b 4e 13 7c bc
       0.0070967698 0.009526713 0.006651534 -0.015385462
000050 44 c5 43 3c 92 08 89 3b 7d 8e 10 3c 49 76 b4 3b
       0.011948887 0.00418193 0.008823034 0.0055072648
000060 bf 2e ff bb cb 4f 16 3c 8b aa 04 ba 87 f5 ec 3b
       -0.007787555 0.009174298 -0.0005060813 0.0072314176
000070 61 7d 56 3b 41 5e b1 ba fb e2 82 3c c0 ba 66 3b
       0.003272854 -0.0013532118 0.015977373 0.0035206527
000080 1a 74 2d 3c 26 c4 af 3b 9d 6f e9 bb bc 55 8b 3c
       0.010586763 0.005363959 -0.007123901 0.017008655
000090 a0 29 bc 3b 5a 6f 38 3c 5d 4f c4 3b 68 ba 2f bc
       0.005742267 0.011257017 0.005990906 -0.010725595
0000a0 31 7d 7a 3b a1 25 eb 37 b3 6f 98 3b 52 be 44 3a
       0.0038221593 2.8031705e-05 0.0046519875 0.00075051666
0000b0 fc 78 d7 3a 5c 4d a9 bb 9b 1b 15 bc 32 1c f0 ba
       0.0016439254 -0.0051666927 -0.00910082 -0.001831895
0000c0 fa e7 68 bb 0d fd 2f 3c b6 b3 17 3c a7 6d 4a 3a
       -0.003553866 0.010741484 0.009259155 0.0007722028
0000d0 e3 3a a7 3b e2 63 69 3b ac d2 33 bc 66 54 59 3c
       0.0051034554 0.0035612513 -0.010975521 0.013264751
0000e0 8f 2e 75 3a 62 cb 07 3c 5f c7 8f 3b 1b 07 41 bc
       0.0009352946 0.008288236 0.0043877806 -0.011781479
0000f0 81 53 89 3c 85 b3 52 3b 0e 21 1f 3c 64 50 e7 3b
       0.01676345 0.003215046 0.009712471 0.007059144
000100 73 8c 7c bc 73 cf b4 3b 29 fd 8d 3a 25 47 3f 3b
       -0.015414345 0.005517894 0.0010832894 0.0029186693
000110 d6 eb 25 3b 06 a4 0c bc 8a d1 83 3b 09 ef e0 ba
       0.002531757 -0.008584028 0.0040227817 -0.0017161082
000120 1a 5b 13 3b 31 11 b1 3a 6e 5c ac bb 6c 40 82 3b
       0.002248472 0.0013509152 -0.005260042 0.003974965
000130 7e 9c 01 bc 7b 2d 89 3b b6 a3 a7 3a 16 d0 e3 3b
       -0.007910846 0.00418633 0.0012789879 0.006952296
000140 71 13 41 3c 62 3e 35 bb 44 05 e9 3b 6d 90 58 3b
       0.01178442 -0.0027655591 0.0071112234 0.003304507
000150 90 c5 42 ba da d5 09 3c ea 36 08 bb c5 02 a9 3b
       -0.0007429952 0.008412803 -0.0020784684 0.005157801
000160 ae 27 ef 3a 36 26 24 ba 2b cb a3 3b 8d aa 02 bb
       0.0018246078 -0.00062617974 0.0049985847 -0.0019938082
000170 6d 73 8b 3b ec 9e d0 39 71 f8 8c b9 64 2c 9a bb
       0.004255703 0.00039791258 -0.00026887984 -0.004704999
000180 d6 23 68 bc eb ba 08 bb 13 07 97 bb 4e 3b 5e 3c
       -0.0141687 -0.0020863365 -0.0046089976 0.013563944
000190 ae 71 89 3c 6d a9 f3 3b b7 b2 24 3c b6 57 c1 3b
       0.01677784 0.0074359686 0.010052375 0.0059003485
0001a0 d3 16 64 bc 21 0f 24 3d 75 a9 87 3c be bc ca 3c
       -0.013921457 0.04005349 0.016560296 0.024748202
0001b0 f6 0a 55 3c 87 19 d4 bc df 2b e2 3c 3e e8 39 3c
       0.013003102 -0.025891079 0.02760881 0.011346875
0001c0 86 85 87 3c 06 52 2b 3c 62 9c ad bc 64 fd ca 3c
       0.016543161 0.010456568 -0.021192733 0.02477903
0001d0 b2 c2 1a 3c 92 80 6f 3c e5 a5 14 3c fd c9 a7 bc
       0.009445833 0.014618056 0.009072755 -0.020482058
0001e0 4c 05 ea 3c 72 e0 6b 3c 7d 0b 9a 3c 37 43 40 3c
       0.028566979 0.014396774 0.018804306 0.011734775
0001f0 84 44 93 bc 60 f6 9d 3c 55 56 d6 3b ea 1e 5e 3c
       -0.017977007 0.01928252 0.0065410533 0.013557175
000200 00 b0 d3 3b 30 84 a1 bb c3 b1 b8 3c 72 a8 03 3c
       0.00646019 -0.004929088 0.0225457 0.008035766
000210 36 e7 70 3c c7 ef fd 3b 00 17 0c bc 27 2b d8 3c
       0.0147035625 0.007749531 -0.0085504055 0.026387764
000220 cb 17 2e 3c a9 ee 8c 3c 0e e7 1d 3c 9a e2 66 bc
       0.01062579 0.017203646 0.009637607 -0.014092112
000230 6e 16 c4 3c df 79 30 3c 01 1c 85 3c 9e f8 cb 3b
       0.023936477 0.010771244 0.016248705 0.006224706
000240 eb d3 17 bc 40 67 30 3c 03 01 64 39 f1 5f 0f 3c
       -0.009266834 0.010766804 0.00021744151 0.008750902
000250 e0 e7 4b 3b 69 5c 18 3b d6 ef 1b 3c a4 87 9d 3c
       0.003111355 0.002324844 0.009517631 0.019229718
000260 1a cf de 3a 89 45 64 bb d6 88 02 3c
       0.0016998977 -0.0034831485 0.007967195
