Cancer-senn/trial6/models/cancer/grad3_Hinput_Thdummy_Reg1e-02_LR0.001/checkpoint.pth.tar (torch_old, 26436 bytes, 34 tensors)

parametrizer.linear1.weight f4 [10, 30]
0	0x3dae55f5	0.08512489
1	0x3daa6f6f	0.083220355
2	0x3d0f9ee3	0.035063636
3	0x3e267c37	0.16258322
4	0x3d42ce5d	0.047560085
5	0x3d853a11	0.06505216
6	0xbe0f99d2	-0.14023522
7	0xbe047788	-0.12936223
8	0xbdf37639	-0.118877836
9	0x3cc04d7b	0.023474446
10	0x3dbf62ea	0.09345038
11	0xbd009e4c	-0.031400964
12	0xbe0f1cda	-0.1397585
13	0x3dd93eff	0.10607719
14	0xbd8ce67e	-0.068799004
15	0xbc505299	-0.012715005
16	0xbdded3cb	-0.1088024
17	0xbd32521f	-0.043535348
18	0x3b84d414	0.004053602
19	0x3cca0348	0.024659768
20	0xbd92308c	-0.07138166
21	0x3d74c131	0.059754554
22	0x3d8e2c70	0.069420695
23	0x3de50592	0.11182703
24	0xbbc1b52c	-0.00591149
25	0x3e0a3e53	0.13500337
26	0xbc0e912a	-0.008701602
27	0x3e220d22	0.15825322
28	0x3a019a68	0.0004943968
29	0x3d10ac41	0.035320524
30	0x3df70633	0.12061729
31	0xbde2bd91	-0.11071313
32	0xbda4ad98	-0.08040923
33	0x3d8857de	0.06657384
34	0xbc3233b2	-0.010876583
35	0x3d456689	0.04819349
36	0x3e2f2d8e	0.17107221
37	0x3de7fada	0.11327143
38	0xbe05bb88	-0.13059819
39	0xbe03b24b	-0.12860982
40	0x3d68a9e4	0.056802645
41	0x3e42e190	0.19031358
42	0xbd8b044f	-0.06787931
43	0x3cc8ea5b	0.024525812
44	0x3e24701f	0.16058396
45	0xbdf369db	-0.11885425
46	0x3d949399	0.072547145
47	0xbcd98def	-0.026556937
48	0xbe1209bb	-0.14261524
49	0xbb919f1a	-0.004444015
50	0xbdd18e0d	-0.10232172
51	0x3e586567	0.21132432
52	0xbdecaeee	-0.11556803
53	0xbdb2b969	-0.087267704
54	0xbe59fe51	-0.2128842
55	0xbccde464	-0.02513332
56	0x3e220af5	0.15824492
57	0x3d2e2ccc	0.04252319
58	0x3d29b881	0.041435722
59	0x3dacea36	0.0844311
60	0x3e42432d	0.18970938
61	0x3dc7a221	0.097477205
62	0x3e03b3e9	0.12861599
63	0xbda88e13	-0.082302235
64	0x3e05109b	0.12994616
65	0x3c9d7189	0.019219177
66	0xbd06264e	-0.032751374
67	0x3d368f09	0.044570003
68	0xbe22d62a	-0.1590201
69	0x3d849df4	0.0647544
70	0x3e3a9a2a	0.18222871
71	0x3de919c9	0.11381871
72	0x3e190f3f	0.14947222
73	0xbcde0ad4	-0.027104773
74	0xbdd4a8b0	-0.10383737
75	0xbdb4f474	-0.08835688
76	0xbc0d2bd5	-0.008616407
77	0xbda51873	-0.08061304
78	0x3e24c4ed	0.16090746
79	0x3e1b1e97	0.15148388
80	0xbe011f80	-0.12609673
81	0x3c6eaddc	0.0145678185
82	0xbdd19d14	-0.102350384
83	0xbdd63b0f	-0.10460483
84	0x3e19ce9a	0.15020218
85	0x3dfb625f	0.12274622
86	0xbe2cdee3	-0.168819
87	0x3d143b51	0.03618938
88	0xbe50fdda	-0.20409337
89	0xbe1301c3	-0.14356141
90	0x3d68a3ff	0.056797024
91	0x3d533008	0.051559478
92	0x3d93f84b	0.072250925
93	0x3d19aba8	0.03751722
94	0xbe351263	-0.17682795
95	0xbe1909f7	-0.14945208
96	0xbde1395a	-0.10997267
97	0x3e4968cb	0.19668882
98	0xba2e3376	-0.00066452415
99	0xbe055047	-0.13018905
100	0x3e233f10	0.15942025
101	0xbd034360	-0.032046676
102	0x3d480f99	0.048843
103	0xbdc14929	-0.09437782
104	0x3d713ab5	0.058893878
105	0x3da47e39	0.080318876
106	0xbcf1e59e	-0.029528435
107	0x3c277c58	0.010222517
108	0xbd1af015	-0.037826616
109	0x3e3901ad	0.18067046
110	0xbd330549	-0.043706212
111	0xbde7be91	-0.113156445
112	0x3cd40086	0.025879156
113	0x3e1fb2ef	0.15595601
114	0xbd019120	-0.031632543
115	0xbe11f59d	-0.1425385
116	0x3cfb6207	0.030686392
117	0xbd916c79	-0.07100768
118	0xbdf490e2	-0.11941697
119	0x3dec7a46	0.11546759
120	0xbd4a50b4	-0.04939337
121	0x3d3f6d51	0.04673511
122	0xbd3b3f92	-0.045714922
123	0x3cd6ec56	0.02623574
124	0xbe3244da	-0.17409077
125	0x3cf534b4	0.029932357
126	0x3cc83c1f	0.02444273
127	0x3c5e4cb6	0.013568094
128	0x3ca6353d	0.020289058
129	0x3d8c163a	0.06840177
130	0x3c7d2627	0.015450991
131	0xbd417c35	-0.047237594
132	0xbdb0deb0	-0.08636224
133	0x3dd2a7c5	0.10285906
134	0xbe0cf3f4	-0.13764936
135	0xbb7a26d6	-0.003817012
136	0xbd00461b	-0.031316858
137	0xbd8682b4	-0.065678984
138	0xbe0f5f09	-0.14001097
139	0x3d21f37d	0.03953885
140	0x3e036d73	0.1283472
141	0x3d88a8ff	0.066728584
142	0xbd6cfa39	-0.05785582
143	0xbdae1b57	-0.085013084
144	0x3e0915c1	0.13387205
145	0xbe53c5f8	-0.20680988
146	0x3d221963	0.039574992
147	0xbe30fdce	-0.17284319
148	0xbd968d0f	-0.073511235
149	0xbde89ab7	-0.113576345
150	0x3db943b9	0.0904612
151	0x3c1128be	0.008859811
152	0xbe60f476	-0.21968254
153	0xbe5956f1	-0.21224572
154	0xbdf12485	-0.11774544
155	0xba23314c	-0.00062253023
156	0xbe1c60ef	-0.15271352
157	0x3c67949f	0.014134555
158	0xbb64e8e6	-0.0034928857
159	0x3d9a2f20	0.0752852
160	0xbcf26521	-0.029589238
161	0xbd81aa1f	-0.06331276
162	0x3c5bff4f	0.0134275695
163	0xbca55ddc	-0.020186357
164	0x3daa4eea	0.08315833
165	0xbd94d16d	-0.07266507
166	0x3d86940c	0.065712065
167	0x3d9039be	0.070422634
168	0xbdf226a7	-0.118237786
169	0x3db2189c	0.086961
170	0x3c8ae8ab	0.016956648
171	0xbd1fdf94	-0.03903158
172	0xbe09de43	-0.13463692
173	0xbe26855e	-0.16261813
174	0x3d298d8a	0.041394748
175	0xbd90531d	-0.070471026
176	0x3d735808	0.059410125
177	0xbcea0e3f	-0.028571246
178	0xbe2d6c10	-0.16935754
179	0xbd393c2b	-0.045223396
180	0x3dda4062	0.10656811
181	0x3e2cb3d1	0.1686547
182	0xbc802cf1	-0.01564643
183	0x3ddd65ac	0.10810408
184	0x3d31d887	0.043419387
185	0xbe1f33d0	-0.15547109
186	0x3d2e5b3d	0.04256748
187	0x3e40289b	0.1876549
188	0xbdf3ee59	-0.119106956
189	0xbd1d3f9e	-0.03839075
190	0xbdf3bec8	-0.11901623
191	0xbb47d729	-0.0030493236
192	0x3e2152bb	0.15754215
193	0xbe02e18c	-0.12781352
194	0x3e4cd5f6	0.20003495
195	0xbc90a70a	-0.017657775
196	0x3e0cd4f3	0.13753109
197	0x3ce0e85b	0.027454546
198	0xbd756c32	-0.059917636
199	0xbdda120a	-0.10647972
200	0xbdbab3cf	-0.09116327
201	0xbe0deb1c	-0.13859218
202	0x3e05bb11	0.13059641
203	0xbd950613	-0.07276549
204	0xbdde4470	-0.10852897
205	0xbe23b5db	-0.15987341
206	0xbe3d66bd	-0.18496223
207	0xbe3b7307	-0.18305598
208	0x3e1e2e98	0.15447462
209	0x3e4ff8ee	0.20309803
210	0x3e1eaa45	0.1549464
211	0xbc4c7dae	-0.012481136
212	0x3e25d124	0.16193062
213	0xbd2d173d	-0.04225849
214	0xbd86c523	-0.065805696
215	0x3e16817c	0.14697832
216	0xbd8f998a	-0.07011707
217	0xbe22c53e	-0.15895554
218	0xbe1efbeb	-0.15525787
219	0xbd9e60ff	-0.07733344
220	0x3d968095	0.07348744
221	0x3d09fada	0.033686496
222	0xbe18c0a6	-0.1491724
223	0x3d1a492e	0.037667446
224	0x3c3981b1	0.011322425
225	0x3e09e475	0.13466056
226	0x3d35faea	0.044428743
227	0x3d28c8b3	0.041207027
228	0x3d87c8d4	0.06630102
229	0x3e03518b	0.12824075
230	0xbde7c88e	-0.1131755
231	0xbb70c19e	-0.0036736499
232	0xbbf248cc	-0.007393932
233	0x3d01fd1e	0.031735532
234	0xbc1418d6	-0.0090391245
235	0x3dc405c0	0.09571409
236	0xbd01d5ab	-0.03169791
237	0xbd145878	-0.036217183
238	0xbc0b0efc	-0.008487459
239	0x3db4358a	0.08799274
240	0x3ca69c5b	0.020338228
241	0xbe4e9848	-0.20175278
242	0x3b6daad9	0.0036265163
243	0xbdbc13dd	-0.09183476
244	0x3defe92d	0.117143966
245	0x3e231733	0.15926819
246	0xbe1ab235	-0.15107043
247	0xbe313f56	-0.17309317
248	0xbdf319b1	-0.118701346
249	0xbe0031db	-0.12519018
250	0xbe4ce05a	-0.20007458
251	0x3d2e9678	0.042623967
252	0x3d79b320	0.060961843
253	0xbe555bb0	-0.20835757
254	0x3d819bbf	0.06328534
255	0x3df22ab7	0.118245535

parametrizer.linear1.bias f4 [10]
0	0xbba94382	-0.0051655183
1	0x3ba24ad9	0.00495277
2	0x3d916b04	0.0710049
3	0xbe06df2a	-0.13171068
4	0x3de190bd	0.11013935
5	0x3e6d7629	0.23189606
6	0x3e3c2fe4	0.18377644
7	0x3dbbc36e	0.09168135
8	0x3dfbff61	0.12304569
9	0x3d7968a8	0.060890824

parametrizer.linear2.weight f4 [10, 10]
0	0xbd763973	-0.06011338
1	0x3e8bca34	0.27302706
2	0xbe55efb6	-0.20892224
3	0x3e9c5fbf	0.30541798
4	0x3e7529fd	0.23941799
5	0xbe8f4b52	-0.27987152
6	0x3d894e43	0.0670438
7	0xbe34cc97	-0.1765617
8	0xbe9a3ca6	-0.30124396
9	0xbe84873d	-0.2588443
10	0xbe07759c	-0.13228458
11	0x3e337618	0.17525518
12	0xbe1bf58e	-0.1523039
13	0xbe9b89cd	-0.3037857
14	0x3dfbde93	0.12298312
15	0x3c560735	0.013063242
16	0x3e20e08d	0.1571066
17	0x3e174a6d	0.14774485
18	0xbe9ac64c	-0.30229414
19	0x3d20d48f	0.03926521
20	0x3ea1e28d	0.31618157
21	0xbdb83c08	-0.08995825
22	0xbd3b93ca	-0.04579524
23	0xbc100d16	-0.008792182
24	0x3df67856	0.12034671
25	0x3e883d77	0.26609394
26	0x3d3e6bcc	0.04648952
27	0xbda537ca	-0.080672815
28	0x3c07bc7f	0.008284687
29	0x3e40e976	0.18839058
30	0x3dbc6864	0.091995984
31	0xbd8fd05c	-0.07022163
32	0xbe07de72	-0.1326845
33	0xbe6c4a4c	-0.23075217
34	0xbc6f3eab	-0.014602344
35	0xbe08eb9a	-0.13371125
36	0xbcf4cc32	-0.029882524
37	0xbda8c095	-0.08239857
38	0x3e1a9d02	0.15098956
39	0xbd42ce52	-0.047560044
40	0x3e107f00	0.14110947
41	0xbe96b4ae	-0.29434723
42	0xbd1192e2	-0.03554047
43	0xbd8dd033	-0.069244765
44	0xbce4aecb	-0.027915379
45	0x3e8776dc	0.2645787
46	0x3c8b2376	0.016984683
47	0x3e5c8447	0.21534835
48	0x3e1fab7a	0.15592757
49	0x3e964c7a	0.29355222
50	0xbd5ba8f2	-0.053627916
51	0x3e04f7c1	0.12985136
52	0xbe3f1475	-0.18660147
53	0xbe949ff6	-0.2902829
54	0xbe3e7be9	-0.18601955
55	0xbd742d77	-0.05961367
56	0xbe063e0b	-0.13109605
57	0x3dc983cc	0.098395914
58	0x3ea8fda1	0.33006003
59	0x3e55c1a1	0.20874645
60	0x3e457e8c	0.19286555
61	0x3c884d34	0.016638376
62	0xbc19e0ed	-0.009392005
63	0xbe11f906	-0.14255151
64	0x3e7f2fd5	0.2492059
65	0x3dc7f785	0.097640075
66	0xbd82c78b	-0.06385716
67	0xbd1df478	-0.03856322
68	0xbe05eef2	-0.13079432
69	0x3c656fd6	0.014003715
70	0x3e3f3234	0.18671495
71	0x3e2a94e4	0.1665836
72	0x3eac9c66	0.33713073
73	0x3e701073	0.23443775
74	0x3e8ea886	0.27862948
75	0x3e30c487	0.17262469
76	0x3e6bc088	0.23022664
77	0xbe7899f8	-0.24277484
78	0x3e09be4b	0.13451497
79	0x3d74ea60	0.05979383
80	0x3e5a0233	0.21289901
81	0xbd8c3b81	-0.06847287
82	0x3e1bbd3c	0.15208906
83	0xbdaf3bd6	-0.08556335
84	0x3e42d1d8	0.19025362
85	0x3e36919e	0.17828986
86	0xbdd72cb8	-0.10506576
87	0xbe54fa76	-0.20798668
88	0x3e5df379	0.21674909
89	0x3dccbf76	0.09997456
90	0xbe482129	-0.195439
91	0xbd2c3f71	-0.04205269
92	0xbe43d9c7	-0.19126044
93	0xbe2f0516	-0.17091784
94	0x3e17c7de	0.14822337
95	0xbe3e3054	-0.18573123
96	0xbea33d35	-0.31882635
97	0x3d132fb8	0.03593418
98	0xbd91c975	-0.07118503
99	0x3e1065aa	0.14101282

parametrizer.linear2.bias f4 [10]
0	0xbe049534	-0.12947541
1	0xbe29527d	-0.16535373
2	0xbd464ebb	-0.048414927
3	0x3e801ddc	0.2502278
4	0xbe448daa	-0.19194666
5	0x3e3dfbdb	0.18553106
6	0xbe9c0f52	-0.30480438
7	0x3ea70389	0.32619885
8	0x3e34f4ff	0.17671584
9	0xbe8b3d24	-0.27195084

parametrizer.linear3.weight f4 [5, 10]
0	0xbe6afbe6	-0.22947654
1	0xbe45a079	-0.19299497
2	0x3db1395c	0.086535186
3	0x3ddae746	0.10688643
4	0xbc6b4422	-0.014359506
5	0x3d4e36d4	0.050345257
6	0x3b055095	0.002034222
7	0xbe9767db	-0.29571423
8	0x3d6a81fb	0.057252865
9	0x3eadd538	0.33951735
10	0xbc14bb85	-0.009077911
11	0xbe0c4722	-0.1369901
12	0xbe5736e5	-0.21017034
13	0x3e8d986f	0.2765536
14	0x3e501502	0.20320514
15	0x3d30f3cd	0.043201257
16	0x3e114428	0.14186156
17	0x3e789ff9	0.24279775
18	0x3e650c02	0.22367862
19	0xbe8e9183	-0.27845392
20	0x3e33de9a	0.17565385
21	0xbe609ee6	-0.21935615
22	0xbe079197	-0.13239132
23	0xbdb44a83	-0.088032745
24	0xbe552c4e	-0.20817682
25	0xbe4cc089	-0.19995321
26	0x3e169e21	0.14708759
27	0x3d1138ab	0.035454433
28	0x3d745a4d	0.05965643
29	0x3e9165f0	0.28398085
30	0x3e31c7a0	0.17361307
31	0xbdc5701b	-0.09640523
32	0xbc153871	-0.009107695
33	0xbe8f8744	-0.28032887
34	0x3e332e31	0.1749809
35	0x3e806d08	0.25083184
36	0x3e94cb66	0.2906143
37	0x3e61f80f	0.22067283
38	0xbeaf0f99	-0.34191588
39	0xba45cc7d	-0.0007545425
40	0x3c8ce752	0.017200146
41	0xbddf6896	-0.1090862
42	0x3d261d10	0.04055506
43	0x3d3bb178	0.045823544
44	0x3e5aef85	0.21380432
45	0x3e83d9a7	0.25751993
46	0x3e45a2d6	0.19300398
47	0xbdfa118c	-0.12210378
48	0xbea10524	-0.31449234
49	0x3bb78892	0.0056009972

parametrizer.linear3.bias f4 [5]
0	0xbe3fa648	-0.18715775
1	0x3d8e1291	0.06937135
2	0x3e7b316f	0.24530576
3	0xbe88662c	-0.2664045
4	0x3c74cc7b	0.01494133

parametrizer.linear4.weight f4 [31, 5]
0	0xbef9814e	-0.48731464
1	0x3ea96432	0.33084255
2	0x3ec61683	0.3868905
3	0xbe06de1a	-0.13170663
4	0xbc85cf64	-0.016334243
5	0x3e1daa90	0.15397096
6	0xbe0604ec	-0.13087815
7	0xbdc35bc9	-0.09538991
8	0xbed02135	-0.40650335
9	0xbe366865	-0.17813261
10	0xbd160e72	-0.03663487
11	0x3e7c348b	0.24629419
12	0x3e6930e8	0.22772563
13	0x3e54c5b2	0.2077854
14	0xbe3e2536	-0.18568882
15	0xbeaed748	-0.34148622
16	0xbe581472	-0.2110155
17	0xbea371ae	-0.31922668
18	0x3ddc2db2	0.10750903
19	0xbe876f89	-0.26452282
20	0xbd2cdd66	-0.04220333
21	0xbea28ff7	-0.3175046
22	0x3d927d14	0.07152763
23	0xbe8697f4	-0.26287806
24	0xbe62f780	-0.22164726
25	0xbe8983f2	-0.2685848
26	0x3d7c72b3	0.061632823
27	0x3c9f6ec1	0.019461991
28	0x3e93a927	0.2883999
29	0x3d9fa5cf	0.07795297
30	0xbe4ef103	-0.20209126
31	0x3e5de1fa	0.21668234
32	0x3e918c07	0.28427145
33	0xbed485ae	-0.4150824
34	0x3e93389e	0.28754133
35	0x3dec8a13	0.11549773
36	0x3e8090f0	0.2511058
37	0xbe0165a8	-0.12636435
38	0xbdc38064	-0.09545973
39	0xbe4182b6	-0.18897519
40	0xbec82061	-0.39087203
41	0xbbd17f1d	-0.006393327
42	0xbe2edf23	-0.17077307
43	0x3e9c4929	0.30524567
44	0xbeae599a	-0.34052736
45	0x3cd481e2	0.02594084
46	0xbe985e21	-0.29759315
47	0x3e29a098	0.16565168
48	0x3e927b54	0.28609717
49	0xbe200535	-0.15626986
50	0x3d6958ec	0.056969568
51	0x3ef2f545	0.4745275
52	0xbe14bd4c	-0.14525336
53	0x3e20b50a	0.15694061
54	0xbe8652e2	-0.2623511
55	0x3e9d2b62	0.3069716
56	0x3eb5e815	0.35528627
57	0x3d6a93cf	0.057269868
58	0x3e284bf1	0.1643522
59	0x3e28a0c6	0.1646758
60	0xbeb0981b	-0.34491047
61	0x3ef23750	0.47307825
62	0x3e1b78c1	0.15182783
63	0xbe6effb1	-0.23339726
64	0x3ebfcbe7	0.37460253
65	0x3d50e9aa	0.05100409
66	0xbdcd99e5	-0.10039119
67	0x3e9821c8	0.29713273
68	0xbe420434	-0.18946916
69	0xbdbbfd4c	-0.09179172
70	0xbd991797	-0.074752025
71	0x3ed56646	0.4167959
72	0x3ecd0fa7	0.40051004
73	0x3ef232f5	0.47304502
74	0x3e4e7118	0.2016033
75	0xbe2e0d2d	-0.16997214
76	0xbea7ba20	-0.3275919
77	0xbe8e05bf	-0.2773876
78	0xbd527472	-0.051380582
79	0xbe3a333f	-0.18183611
80	0xbc03fdf8	-0.008056156
81	0x3ef9d881	0.48797992
82	0x3e63742f	0.2221229
83	0xbd0edd89	-0.03487924
84	0xbeadaa49	-0.3391898
85	0xbecabd82	-0.39597708
86	0x3e0ecb23	0.13944678
87	0xbea1ef74	-0.31628
88	0xbeb4bfcc	-0.3530258
89	0x3e8124d0	0.25223398
90	0x3e9e5af0	0.30928755
91	0xbea2e45e	-0.31814855
92	0xbe30b25c	-0.17255539
93	0x3cc61925	0.024181912
94	0x3ec0cafb	0.37654862
95	0x3d8f54d8	0.069986045
96	0xbea1b9af	-0.31586978
97	0x3e239430	0.15974498
98	0xbe5fcf79	-0.21856488
99	0xbead5c35	-0.3385941
100	0x3db1511f	0.08658051
101	0x3e59eec6	0.21282491
102	0xbe7e9479	-0.24861325
103	0xbe63d901	-0.22250749
104	0xbc2345dc	-0.009965386
105	0xbe4ae356	-0.19813284
106	0xbe8658f8	-0.26239753
107	0x3dfe8a03	0.124286674
108	0xbe18a84a	-0.14907947
109	0x3dc03d61	0.09386707
110	0xbb98f365	-0.0046676868
111	0xbe4e0d20	-0.20122194
112	0xbe926e28	-0.28599668
113	0xbeefbefb	-0.46825394
114	0xbecb666c	-0.3972658
115	0xbe4a6d38	-0.19768226
116	0x3effb8f9	0.4994581
117	0x3da449f1	0.08021916
118	0x3e68c428	0.22731078
119	0x3e603746	0.21896085
120	0xbdb68769	-0.08912546
121	0xbea2af3c	-0.31774318
122	0x3e2e7e63	0.170404
123	0xbe634969	-0.22195973
124	0x3ecfcec5	0.4058744
125	0x3e976eec	0.29576814
126	0x3eeea162	0.466075
127	0xbcfdfe80	-0.031005144
128	0xbee6722e	-0.45008987
129	0x3edf9804	0.43670666
130	0x3d3a008f	0.04541069
131	0x3cd3140f	0.0257664
132	0xbe57562c	-0.21028966
133	0x3e4822fd	0.19544597
134	0xbda042ea	-0.07825263
135	0x3e5a8ad6	0.21342024
136	0x3eb4771a	0.35247117
137	0xbd842ce4	-0.06453875
138	0x3dac9c19	0.08428211
139	0xbc88a264	-0.016678996
140	0xbeb96a0c	-0.3621372
141	0xbe64d454	-0.22346622
142	0x3defccd2	0.11708988
143	0x3e06ce3f	0.13164614
144	0x3ea00dcc	0.31260526
145	0x3edd5674	0.4323002
146	0xbbeefac7	-0.0072930786
147	0xbe259733	-0.16170959
148	0xbef0554b	-0.46940073
149	0x3e37f200	0.1796341
150	0x3d58268f	0.052771147
151	0xbea0fce1	-0.3144293
152	0x3e8e6988	0.2781489
153	0xbd636447	-0.055515554
154	0xbe18ebba	-0.14933673

parametrizer.linear4.bias f4 [31]
0	0xbeb74102	-0.35791785
1	0xbe4b309f	-0.19842766
2	0x3ec32b95	0.38119188
3	0x3ecab09c	0.39587867
4	0x3e8ef1eb	0.27918944
5	0x3d5bc89c	0.053658113
6	0xbeb61151	-0.35560086
7	0x3e4887ac	0.19583005
8	0xbe9e1a66	-0.30879515
9	0xbeb7ec89	-0.3592265
10	0xbd006a3f	-0.031351324
11	0xbe4ae468	-0.19813693
12	0x3ecbbda9	0.39793137
13	0xbe665eaa	-0.22497049
14	0x3e8773f2	0.26455647
15	0xbd241d65	-0.040067095
16	0xbec4759c	-0.3837098
17	0x3dbb9ae5	0.09160403
18	0xbd9ee145	-0.077578105
19	0x3e9bdd35	0.30442205
20	0x3ecae1c2	0.39625365
21	0x3ec0a063	0.37622365
22	0x3e935433	0.28775176
23	0x3e5263c4	0.2054587
24	0x3ec734a5	0.38907352
25	0xbdb7a8a5	-0.08967713
26	0xbebbc9f5	-0.36677518
27	0x3e55a168	0.20862353
28	0x3ee5b132	0.44861752
29	0x3eb14dcb	0.34629664
30	0xbe8e3faa	-0.27782947

exp_avg f4 [10, 30]
0	0x394945e8	0.00019194896
1	0xb9ee997f	-0.0004550926
2	0x396f5a08	0.00022826355
3	0x3a264b8d	0.00063436554
4	0xbb026e6b	-0.001990224
5	0xbaf6ec82	-0.0018838795
6	0x3a96631a	0.0011473626
7	0x3a58b28e	0.0008266353
8	0x3abe4e49	0.001451918
9	0xbb15da3b	-0.0022865671
10	0xba5fea05	-0.00085416465
11	0xba9327e8	-0.0011227103
12	0xbac7a01d	-0.0015230213
13	0xb91d9a13	-0.00015030084
14	0xbba1e557	-0.0049406695
15	0xbb4314d4	-0.0029767053
16	0xba69354e	-0.00088961876
17	0xbb59787e	-0.0033183391
18	0x3b293b4a	0.0025822693
19	0xbb5f8db8	-0.003411157
20	0x3b0454f8	0.0020192247
21	0x3b420af3	0.0029608577
22	0x3ad03d1c	0.0015887353
23	0x3b095b80	0.002095908
24	0xba03687a	-0.00050128216
25	0x3adc41a4	0.001680423
26	0x3b2d31e5	0.0026427445
27	0x3b2689ee	0.0025411802
28	0x3bf047ad	0.007332763
29	0x3a831f73	0.001000388
30	0xb709214e	-8.173591e-06
31	0xba873382	-0.0010315033
32	0xb7925043	-1.7441931e-05
33	0xb985eed7	-0.00025545686
34	0x3b666a2f	0.0035158505
35	0x3a5a8b10	0.0008336762
36	0xb9a2c3ef	-0.0003104503
37	0x3a771948	0.00094260694
38	0x3a75d5f0	0.00093778875
39	0x3a408b9c	0.0007345022
40	0xb9b2123d	-0.00033964394
41	0xba65b0c0	-0.00087619945
42	0xba37320d	-0.0006988354
43	0xb9c46309	-0.0003745782
44	0x3a93143e	0.0011221243
45	0xbaeda8df	-0.0018131993
46	0xbb0b86c1	-0.0021290036
47	0xb90a2b8e	-0.00013176931
48	0xbb878b27	-0.0041364613
49	0xbacec628	-0.0015775608
50	0x371f4ac9	9.494551e-06
51	0xba67cdd2	-0.00088426203
52	0xb8a7197c	-7.9679274e-05
53	0xb97a0b91	-0.00023846167
54	0x3b78b803	0.0037951476
55	0x3a06938e	0.00051336817
56	0xb99d095d	-0.0002995235
57	0x3a9fb79f	0.0012185461
58	0xbae404cd	-0.001739645
59	0x3a11de33	0.00055644213
60	0xba60f5f0	-0.00085815694
61	0xb9fee63c	-0.00048618193
62	0xba3c4830	-0.00071823876
63	0xba4811a5	-0.0007632024
64	0x3a7ef992	0.000972652
65	0x399a301d	0.00029409016
66	0x3a0751e2	0.0005162043
67	0x3a38e414	0.0007053029
68	0x3b501b81	0.0031754675
69	0x3a09d0a8	0.00052572275
70	0xba1bc7d5	-0.0005942558
71	0x3a071ed2	0.0005154434
72	0xba41e1b0	-0.0007395996
73	0xb9f4b135	-0.00046671336
74	0xbb90d8be	-0.004420369
75	0xbb2a56e1	-0.0025991725
76	0xbac4e28c	-0.001502113
77	0xba7c4c43	-0.0009624401
78	0x3b8957d4	0.004191378
79	0xbb1ee462	-0.0024245013
80	0x3a113a71	0.00055400195
81	0x3b0c27b1	0.0021385963
82	0x39c947e0	0.0003839126
83	0x39d76f27	0.0004109081
84	0x39ee95c0	0.0004550647
85	0x3b0193f6	0.001977203
86	0x3aacf516	0.00131956
87	0x3b24c4dc	0.0025141751
88	0x3beccaf3	0.007226342
89	0x3ae5177b	0.0017478311
90	0xba2786c0	-0.0006390624
91	0xbb24d6fe	-0.002515256
92	0xba2972f6	-0.0006463969
93	0xba4e3571	-0.000786624
94	0x3b8e2a3a	0.00433853
95	0x3a205845	0.0006116669
96	0xba44dae2	-0.0007509423
97	0x3a616e87	0.00085995387
98	0x3b06a7cf	0.00205468
99	0x3a97a326	0.0011569008
100	0xba467bd8	-0.0007571555
101	0xba01034f	-0.00049214525
102	0xbaa9a936	-0.0012944106
103	0xba4442e9	-0.0007486777
104	0x3acc40b2	0.0015583246
105	0xbb32e03c	-0.0027294299
106	0xbb386648	-0.0028137136
107	0xb9e4dadf	-0.0004365062
108	0xbac07144	-0.0014682193
109	0xbb0d9cc7	-0.002160834
110	0xb9f4d194	-0.00046695455
111	0xbaf4c68d	-0.0018674895
112	0xba31da18	-0.00067845127
113	0xba22378d	-0.0006188087
114	0x3b7ccac7	0.0038573013
115	0xb99b34b1	-0.00029603162
116	0xbaa5d3e4	-0.0012651649
117	0x3a4be5a8	0.0007778057
118	0x39094a9d	0.00013093134
119	0xb8b30040	-8.535432e-05
120	0xbab25d7d	-0.0013608184
121	0xbaf48e08	-0.0018658051
122	0xbaa75e90	-0.0012769271
123	0xbab72997	-0.0013974187
124	0x3b63b7c4	0.0034746984
125	0x3a815e58	0.0009870036
126	0xb96e89d2	-0.00022748791
127	0x39d5b65c	0.00040762394
128	0x3b04cdd1	0.0020264278
129	0x3afa7c7e	0.0019110588
130	0xbab94410	-0.0014134664
131	0xba680905	-0.00088514417
132	0xbacb5cba	-0.0015515306
133	0xba94b4f7	-0.0011345436
134	0xb89fc382	-7.618127e-05
135	0xbb1b554c	-0.0023701964
136	0xbb049f7d	-0.0020236664
137	0xba5e2d25	-0.0008475355
138	0xb90571c0	-0.00012726244
139	0xbac5c607	-0.0015088924
140	0xba41d6c8	-0.00073943706
141	0xba0a432f	-0.00052742934
142	0xba4762fa	-0.0007605996
143	0xba581bd9	-0.0008243896
144	0x3b72d933	0.003705573
145	0x3a89bb8c	0.0010508164
146	0x397417c4	0.00023278507
147	0x3ab1bf4a	0.0013561037
148	0x3b225ec4	0.0024775723
149	0x3ad59c06	0.0016297109
150	0x39af22eb	0.00033404617
151	0x3934360f	0.00017186276
152	0x39c01cf2	0.0003664266
153	0x39ef2725	0.00045614797
154	0xba4d2dbe	-0.00078269455
155	0xba5347bd	-0.0008059701
156	0x3a28546b	0.00064212707
157	0x3a35da13	0.00069370976
158	0x3a21400f	0.0006151208
159	0xba83545b	-0.0010019647
160	0x373ebfdd	1.1369554e-05
161	0xba37845f	-0.0007000621
162	0xb92c0cd3	-0.00016407976
163	0x392b3ddf	0.0001633088
164	0xbb2ce6fa	-0.002638279
165	0xbb084b73	-0.0020796924
166	0xba3a5b6a	-0.00071089587
167	0xbaa80cfe	-0.0012821255
168	0xb93d2e87	-0.00018041777
169	0xbafce339	-0.0019293792
170	0x3aa46675	0.0012542742
171	0x3ae3b578	0.0017372807
172	0x3a8e2fb8	0.0010847962
173	0x3a97c3a9	0.0011578697
174	0x398594ba	0.00025478547
175	0x3a3b756a	0.000715098
176	0x3aa46a74	0.0012543933
177	0x3ae1a5be	0.0017215533
178	0x3b30f7c8	0.0027003158
179	0x3a2eebc5	0.00066727056
180	0x3b13fcbc	0.0022581061
181	0x39be365b	0.00036280122
182	0x3b09ffa8	0.0021056924
183	0x3b0fe8da	0.0021958859
184	0xbac7ba87	-0.0015238085
185	0xbb3e86a3	-0.002907195
186	0xb9abecfc	-0.0003279223
187	0x3a840fe0	0.0010075532
188	0xba45c3b4	-0.00075441157
189	0xbba33ec9	-0.00498185
190	0x3a21bfa0	0.0006170217
191	0xbb320a27	-0.0027166696
192	0xb904e454	-0.0001267356
193	0x3a64e894	0.00087321666
194	0xbba95c6c	-0.0051684882
195	0xbbb58621	-0.005539671
196	0xbb4351b9	-0.002980335
197	0xbb241a7a	-0.0025040195
198	0xbb97aa2e	-0.0046284413
199	0xbbc231e3	-0.005926357
200	0x3b507908	0.0031810421
201	0x3a9fba92	0.001218634
202	0x3b3262ff	0.002721965
203	0x3b3b7741	0.0028605016
204	0xbaac8b12	-0.0013164005
205	0xba519e80	-0.00079963356
206	0x3919f39d	0.0001468197
207	0x3b01624f	0.0019742434
208	0xb95a0cc9	-0.00020794863
209	0xbb17e459	-0.0023176877
210	0x3b02a70d	0.0019935996
211	0x3ac17116	0.0014758434
212	0x3af43bd8	0.0018633557
213	0x3ae84386	0.0017720319
214	0xba8db978	-0.001081272
215	0xb9eeda97	-0.0004555776
216	0x38b77519	8.747931e-05
217	0x39162d13	0.00014321906
218	0xbb84e660	-0.004055783
219	0xbb0098c5	-0.0019622308
220	0x3b0ab101	0.0021162631
221	0x3776269c	1.4671732e-05
222	0x3b0f41ac	0.0021859212
223	0x3abda4b8	0.0014468646
224	0x3b557378	0.0032570045
225	0x3ab2e187	0.0013647535
226	0x3a92e3fb	0.001120686
227	0x3a7ea818	0.0009714379
228	0xbbd5555c	-0.00651042
229	0x3a3f8817	0.0007306351
230	0x3a5ba60e	0.0008378931
231	0xba611f96	-0.00085877755
232	0x3a70ed14	0.0009190601
233	0x3a44e1ca	0.0007510452
234	0xba1d8c7a	-0.00060100073
235	0xbaf1fdbe	-0.0018462462
236	0xba52350e	-0.000801877
237	0xbad44f09	-0.0016197871
238	0xbc0f4b72	-0.008746015
239	0xbb249e90	-0.0025118925
240	0x3a5ff61c	0.0008543448
241	0xb95da543	-0.00021137767
242	0x3a876337	0.0010329251
243	0x3a96847c	0.0011483575
244	0xbb7788a7	-0.003777066
245	0xba0404f3	-0.0005036138
246	0x3b3e7db9	0.0029066636
247	0x3ab80bc0	0.0014041588
248	0x3afa3ee4	0.0019092229
249	0xbb10c2be	-0.0022088732
250	0xb8e6499f	-0.000109809676
251	0xba517085	-0.0007989484
252	0xb6ec5f89	-7.04447e-06
253	0x3a03c23e	0.0005026198
254	0xbbd1d3b9	-0.006403413
255	0xba217f2d	-0.0006160613

exp_avg_sq f4 [10, 30]
0	0x369a26f8	4.594094e-06
1	0x36c25b97	5.792313e-06
2	0x36b5325d	5.4000834e-06
3	0x36a129b8	4.8030306e-06
4	0x36fde295	7.566365e-06
5	0x378b2a7a	1.6589871e-05
6	0x3754cebd	1.268432e-05
7	0x372ddf38	1.0363576e-05
8	0x3732024b	1.0610161e-05
9	0x373e16a1	1.1330151e-05
10	0x372ec29b	1.0416518e-05
11	0x371d3333	9.36985e-06
12	0x375f2e68	1.3302641e-05
13	0x36dd5ae3	6.596894e-06
14	0x3736b2ee	1.0889706e-05
15	0x3733d054	1.0717737e-05
16	0x36b10393	5.275427e-06
17	0x37127658	8.729832e-06
18	0x37bbdfb0	2.23963e-05
19	0x3703ea91	7.862823e-06
20	0x36b3199b	5.3375966e-06
21	0x36cceef0	6.1074898e-06
22	0x36c3f35d	5.839784e-06
23	0x369bac94	4.6394507e-06
24	0x35c38952	1.4568598e-06
25	0x371faeb2	9.517813e-06
26	0x37296556	1.0096779e-05
27	0x3712970b	8.737446e-06
28	0x37b60b3a	2.1701318e-05
29	0x36cbf3ce	6.078254e-06
30	0x364d06d6	3.055136e-06
31	0x36237872	2.4359001e-06
32	0x3658a0a7	3.228002e-06
33	0x3663a5ae	3.3922074e-06
34	0x369bf85c	4.648273e-06
35	0x368da632	4.221475e-06
36	0x369fb353	4.7594453e-06
37	0x367a9c7d	3.7343991e-06
38	0x367ebe73	3.7959805e-06
39	0x35dc3dd5	1.6409273e-06
40	0x366ed870	3.5590747e-06
41	0x367d1551	3.7712346e-06
42	0x3671cee7	3.6032231e-06
43	0x366472d1	3.404148e-06
44	0x36fa7903	7.464668e-06
45	0x3698fc4f	4.5593256e-06
46	0x3667688e	3.4482541e-06
47	0x35c48ca7	1.4644073e-06
48	0x36e96cb9	6.956598e-06
49	0x35e5ff38	1.7136108e-06
50	0x360df032	2.115045e-06
51	0x3609abe8	2.0514653e-06
52	0x3614458a	2.2094196e-06
53	0x360dc1e7	2.1123503e-06
54	0x36b534d6	5.4003713e-06
55	0x35dea06a	1.6586976e-06
56	0x35da44ad	1.6262253e-06
57	0x35ac4296	1.2834378e-06
58	0x3643d5d2	2.9181724e-06
59	0x35bfed32	1.4299642e-06
60	0x3663df79	3.3955714e-06
61	0x365acb3f	3.2602836e-06
62	0x3655f04c	3.1879345e-06
63	0x366c95cd	3.5253936e-06
64	0x360b50d1	2.0759655e-06
65	0x362b92e5	2.556649e-06
66	0x3608bca7	2.037539e-06
67	0x36169834	2.2440336e-06
68	0x3683b4e7	3.925164e-06
69	0x36902728	4.296093e-06
70	0x36784bd8	3.6999027e-06
71	0x35a6b8ad	1.2421712e-06
72	0x364d18c0	3.0561787e-06
73	0x36488817	2.9881537e-06
74	0x36c06b73	5.7345546e-06
75	0x35c17d46	1.441608e-06
76	0x351c9502	5.8331364e-07
77	0x3582ff40	9.760042e-07
78	0x374443e5	1.1698318e-05
79	0x35f2a289	1.8077709e-06
80	0x363cf77d	2.815824e-06
81	0x35c49d22	1.464887e-06
82	0x36337a88	2.67444e-06
83	0x36317063	2.6440473e-06
84	0x35be8289	1.4194094e-06
85	0x364f7048	3.091076e-06
86	0x36000c1e	1.908054e-06
87	0x36040222	1.9670774e-06
88	0x3789c0da	1.6421476e-05
89	0x36705f95	3.5818423e-06
90	0x366a2946	3.4892741e-06
91	0x366045f3	3.3419317e-06
92	0x3678cde8	3.7074733e-06
93	0x3688547f	4.0629525e-06
94	0x3666c3ac	3.4386567e-06
95	0x36596605	3.2394903e-06
96	0x3699677a	4.5718016e-06
97	0x3684e364	3.9603783e-06
98	0x3609130f	2.0425684e-06
99	0x356b6ccd	8.770265e-07
100	0x369a0aca	4.5908137e-06
101	0x363e3f94	2.8349214e-06
102	0x36929466	4.368415e-06
103	0x368d06c8	4.202917e-06
104	0x36c632ea	5.906787e-06
105	0x368ff7ce	4.2905804e-06
106	0x365e398b	3.3114072e-06
107	0x35fd2f39	1.8863713e-06
108	0x3607af82	2.0218727e-06
109	0x35fef4af	1.8995687e-06
110	0x363e991b	2.8401325e-06
111	0x363c4704	2.805552e-06
112	0x364ab15b	3.020358e-06
113	0x364629a2	2.9528533e-06
114	0x366e0e03	3.547292e-06
115	0x35597e32	8.102244e-07
116	0x35d87222	1.6126471e-06
117	0x35f6f1f2	1.8398844e-06
118	0x35912180	1.0813092e-06
119	0x34df1921	4.155527e-07
120	0x360755b2	2.0166449e-06
121	0x35fb3ceb	1.8718687e-06
122	0x35f59f7b	1.8300337e-06
123	0x361122b9	2.1626895e-06
124	0x36585aaf	3.2239293e-06
125	0x35b2fb4e	1.3335173e-06
126	0x351b4f1b	5.7857113e-07
127	0x352467b7	6.1245686e-07
128	0x35d38c26	1.5761514e-06
129	0x3660632f	3.3436334e-06
130	0x36034e2a	1.9566019e-06
131	0x35a3bd0b	1.2199465e-06
132	0x35e60262	1.7137029e-06
133	0x35b8143a	1.3714955e-06
134	0x356a483c	8.727691e-07
135	0x352d8829	6.464566e-07
136	0x352a139b	6.3358465e-07
137	0x351e6e6e	5.9020283e-07
138	0x35655aaf	8.544111e-07
139	0x34f66d0d	4.5900416e-07
140	0x35cf4bb2	1.5444732e-06
141	0x3593344d	1.0967575e-06
142	0x35af67b3	1.3068696e-06
143	0x35d65df3	1.5971585e-06
144	0x368b2975	4.147349e-06
145	0x35cb771c	1.5159344e-06
146	0x3588b8ea	1.0186607e-06
147	0x3522465c	6.045209e-07
148	0x365fcf4d	3.3350254e-06
149	0x365c5760	3.2833414e-06
150	0x35cc7827	1.5234153e-06
151	0x35e8cd05	1.7345016e-06
152	0x35c8a931	1.4950402e-06
153	0x35ad4a4c	1.2911128e-06
154	0x35f5c2e0	1.8310639e-06
155	0x358488d1	9.874585e-07
156	0x3583a29a	9.807584e-07
157	0x3556499e	7.982834e-07
158	0x350366a7	4.895068e-07
159	0x3670840b	3.5839646e-06
160	0x3545415a	7.348332e-07
161	0x3538e5db	6.8879825e-07
162	0x35340069	6.705582e-07
163	0x35062f24	4.998749e-07
164	0x36a577b7	4.93132e-06
165	0x3534a667	6.729737e-07
166	0x348a62a7	2.5776282e-07
167	0x34c70031	3.7066778e-07
168	0x35b2914b	1.3304319e-06
169	0x35e21619	1.6844743e-06
170	0x35ec2691	1.7594595e-06
171	0x35e12ace	1.6776264e-06
172	0x35da3f4b	1.6260686e-06
173	0x35b76ee3	1.3666835e-06
174	0x35a984b0	1.2630098e-06
175	0x3582be56	9.74115e-07
176	0x35baf2c4	1.3928734e-06
177	0x35a658ae	1.2393773e-06
178	0x356c54b6	8.804012e-07
179	0x35b72d2e	1.3647712e-06
180	0x36c8f1f7	5.988633e-06
181	0x36836f59	3.917067e-06
182	0x36e03f7b	6.6831103e-06
183	0x36c1c170	5.7743673e-06
184	0x36b23a7d	5.3116223e-06
185	0x372d3959	1.0324956e-05
186	0x3716f926	8.998706e-06
187	0x3702fcfc	7.807506e-06
188	0x36a12e5b	4.8035704e-06
189	0x3736fc82	1.0906837e-05
190	0x36c93c64	5.997297e-06
191	0x370a6532	8.249002e-06
192	0x3708c171	8.151271e-06
193	0x36a28c73	4.8443267e-06
194	0x37982699	1.8137785e-05
195	0x37249857	9.810631e-06
196	0x36959ab1	4.4585545e-06
197	0x36b22aed	5.3098106e-06
198	0x377b3571	1.4973209e-05
199	0x3726bd46	9.93844e-06
200	0x36b8c418	5.5064556e-06
201	0x3675b209	3.6611475e-06
202	0x36c44408	5.849175e-06
203	0x3696df28	4.496327e-06
204	0x3656119a	3.189873e-06
205	0x3660a1e1	3.3472827e-06
206	0x368c8691	4.1879907e-06
207	0x36a29075	4.8447932e-06
208	0x368d2741	4.206697e-06
209	0x3655c1ad	3.1852207e-06
210	0x362bdb62	2.5608683e-06
211	0x368f2b65	4.266784e-06
212	0x361d2301	2.3415198e-06
213	0x3634645b	2.6880505e-06
214	0x360fee87	2.1447502e-06
215	0x36a26644	4.8398815e-06
216	0x36394f8d	2.7613453e-06
217	0x36226acc	2.4202045e-06
218	0x370f5738	8.543771e-06
219	0x36a4a1ee	4.906432e-06
220	0x36b9846c	5.5288456e-06
221	0x362fc8e7	2.6193973e-06
222	0x36a82d8a	5.0120916e-06
223	0x364b3151	3.0278063e-06
224	0x36bcbf46	5.6251038e-06
225	0x3599d408	1.1461098e-06
226	0x351b7f38	5.792713e-07
227	0x35ff9508	1.9042354e-06
228	0x37a9bce4	2.0234329e-05
229	0x351ce8d9	5.8453367e-07
230	0x3610c928	2.157476e-06
231	0x35f61f11	1.833747e-06
232	0x361394a9	2.1991239e-06
233	0x360e7062	2.1225064e-06
234	0x35a8bbf5	1.2571678e-06
235	0x36999167	4.5766824e-06
236	0x366ba2de	3.511253e-06
237	0x3632e098	2.6654798e-06
238	0x37e44bd0	2.7215021e-05
239	0x369597c3	4.4582134e-06
240	0x367e02a7	3.7850493e-06
241	0x36a85e92	5.0177996e-06
242	0x367c6ac0	3.7613063e-06
243	0x366bdf6a	3.5147773e-06
244	0x371c2bf2	9.308556e-06
245	0x36968852	4.486218e-06
246	0x36a95eac	5.0476137e-06
247	0x3642103f	2.891771e-06
248	0x36d02c3f	6.204034e-06
249	0x372c02be	1.0252637e-05
250	0x3591bc74	1.0858189e-06
251	0x35d0643b	1.5526379e-06
252	0x35b8ce78	1.3769159e-06
253	0x35ace65e	1.2882044e-06
254	0x36f0b667	7.173792e-06
255	0x362815fa	2.5046743e-06

exp_avg f4 [10]
0	0xbc391c25	-0.011298214
1	0x3a57e5b0	0.0008235825
2	0xbc27f56b	-0.010251383
3	0xbaadba95	-0.0013254458
4	0xbb089397	-0.0020839924
5	0xbb9e165c	-0.004824443
6	0xbc338623	-0.010957274
7	0x3bd14ab0	0.0063870773
8	0xbbde8ad9	-0.0067914543
9	0x3b18d881	0.0023322406

exp_avg_sq f4 [10]
0	0x3854b0af	5.070929e-05
1	0x35d0ba85	1.5551492e-06
2	0x37245c66	9.796675e-06
3	0x359949be	1.142085e-06
4	0x355a2acb	8.12736e-07
5	0x3716410e	8.955843e-06
6	0x381ef85e	3.7901445e-05
7	0x3729e86f	1.0127303e-05
8	0x36e12573	6.709882e-06
9	0x3586a8e9	1.0032937e-06

exp_avg f4 [10, 10]
0	0x39d926bf	0.00041418333
1	0x36469a4e	2.9594116e-06
2	0xb947b649	-0.00019046025
3	0xbb02c483	-0.0019953556
4	0xb9b29b5b	-0.00034066555
5	0x399f2969	0.00030357696
6	0xba5e27ad	-0.000847454
7	0xbac16b73	-0.0014756754
8	0xb8ddc82a	-0.00010575385
9	0xb8ab5efc	-8.1716076e-05
10	0x3ac2c441	0.0014859514
11	0xb9cbca51	-0.00038869915
12	0x3991813b	0.0002775284
13	0x3b679d78	0.0035341661
14	0x3ad3b98e	0.0016153322
15	0x3882eb4a	6.242709e-05
16	0xb8ef6a22	-0.00011416177
17	0xba77766b	-0.0009439948
18	0x39a57253	0.0003155643
19	0x39cae195	0.00038696514
20	0xba935303	-0.0011239949
21	0x39701fed	0.00022900077
22	0x3b51f2f6	0.0032035685
23	0x3a8e478f	0.0010855066
24	0x3b52b9ce	0.0032154205
25	0x3bd50d70	0.006501846
26	0x3b8b2f04	0.004247548
27	0x3b571425	0.0032818404
28	0x3b79dc7a	0.00381258
29	0x3b156fb7	0.0022802183
30	0x3aff8886	0.0019495643
31	0x3a0bedf1	0.0005337885
32	0xbb58468d	-0.0033001036
33	0x3b926d81	0.0044686203
34	0xba8c36a9	-0.0010697442
35	0xbbf26c54	-0.0073981676
36	0xbb522ec8	-0.003207134
37	0xbb208585	-0.0024493646
38	0xbb81be01	-0.003959418
39	0xbb2022c5	-0.0024434787
40	0x3b4c275f	0.0031151397
41	0x3b40f26c	0.002944137
42	0xbb3a6346	-0.002844052
43	0x3b2b08ae	0.0026097703
44	0xba2d5ca9	-0.00066132337
45	0xbbcda1c4	-0.0062753875
46	0xbb152251	-0.002275605
47	0xbb2c5038	-0.0026292931
48	0xbba86bee	-0.0051398193
49	0xba9043ad	-0.0011006497
50	0x3aab53fd	0.0013071295
51	0x3b2f2faf	0.0026731302
52	0xb865898d	-5.472596e-05
53	0x3a8358be	0.0010020954
54	0x3aa5f891	0.001266258
55	0xb983d933	-0.00025148093
56	0x3a9b8bc0	0.001186721
57	0x3939b514	0.00017710432
58	0xbacf6f1a	-0.0015825958
59	0x3a427269	0.0007417561
60	0x3a41847f	0.0007382109
61	0x3adcea35	0.0016854467
62	0xbaa166df	-0.0012313983
63	0xbb3ffa1c	-0.0029293364
64	0xba9fe5f6	-0.0012199271
65	0xbaeb50ae	-0.0017953122
66	0xba808836	-0.0009806219
67	0xba95653a	-0.0011397966
68	0xbb184499	-0.0023234247
69	0xb9c46e77	-0.00037466336
70	0x3b35c8cd	0.0027738095
71	0x3989801e	0.0002622613
72	0xbb89d79c	-0.004206611
73	0xbad3021f	-0.0016098655
74	0xbb1bef3b	-0.0023793716
75	0xbbe97ffd	-0.007125853
76	0xbbab978a	-0.0052365707
77	0xbbb311b0	-0.005464755
78	0xbba1823a	-0.0049288543
79	0xbafe16c4	-0.0019385447
80	0xb929206b	-0.00016129173
81	0xbb5a623a	-0.0033322708
82	0xbba16cca	-0.0049262987
83	0xba3a5f32	-0.0007109522
84	0xbb8b519d	-0.0042516724
85	0xbc02550e	-0.007954849
86	0xbbbd616f	-0.0057794373
87	0xbb4a07f4	-0.0030827494
88	0xbb3011cf	-0.0026866083
89	0xbb29b94a	-0.0025897794
90	0xbba2c5e0	-0.004967436
91	0xbaacc769	-0.0013181987
92	0x3baa92f7	0.005205508
93	0xbba28af1	-0.0049604108
94	0x3ad27bc6	0.0016058616
95	0x3c36a179	0.0111468965
96	0x3bbbc2db	0.0057300157
97	0x3bdd3673	0.0067508756
98	0x3be8b000	0.007101059
99	0x3b4a26b9	0.0030845834

exp_avg_sq f4 [10, 10]
0	0x356e8642	8.885728e-07
1	0x3523a5e3	6.096363e-07
2	0x35a1e552	1.2062176e-06
3	0x3660e099	3.3509334e-06
4	0x362f8cb9	2.6158943e-06
5	0x361ec1de	2.365668e-06
6	0x35a6613a	1.239626e-06
7	0x3631303b	2.640313e-06
8	0x36211dda	2.4008245e-06
9	0x3596c237	1.1232395e-06
10	0x36bb80e1	5.5880378e-06
11	0x3630d83d	2.635191e-06
12	0x36238d1b	2.4371027e-06
13	0x37109e12	8.6198725e-06
14	0x36c27efe	5.7964344e-06
15	0x36e3f1d0	6.793278e-06
16	0x3655b948	3.1847321e-06
17	0x36fea62d	7.5891353e-06
18	0x3667d6e1	3.4546758e-06
19	0x363255a2	2.6573912e-06
20	0x36678e05	3.4504349e-06
21	0x35a3cdfa	1.2204393e-06
22	0x36695782	3.4770642e-06
23	0x369bd840	4.644535e-06
24	0x36917f92	4.336188e-06
25	0x3715e999	8.935481e-06
26	0x36be4762	5.6707513e-06
27	0x361eada2	2.3644902e-06
28	0x366612da	3.4283644e-06
29	0x35337fe1	6.6868785e-07
30	0x377408ef	1.4545613e-05
31	0x35a895e6	1.2560602e-06
32	0x361e80a1	2.3618707e-06
33	0x36de02da	6.6164475e-06
34	0x3705c8c3	7.974161e-06
35	0x377a76dc	1.4928835e-05
36	0x36941a38	4.413796e-06
37	0x360a2514	2.0585185e-06
38	0x36de0e3c	6.6177727e-06
39	0x367647af	3.6698582e-06
40	0x377be227	1.5013421e-05
41	0x3641db51	2.88869e-06
42	0x364f9d21	3.0936865e-06
43	0x36cd462c	6.117645e-06
44	0x36f3b37c	7.262859e-06
45	0x37800317	1.5260228e-05
46	0x3655df33	3.1869392e-06
47	0x3689e326	4.1093617e-06
48	0x36f3fd5f	7.2714606e-06
49	0x35ae6052	1.2992043e-06
50	0x361a86f4	2.3026341e-06
51	0x35f6f3a1	1.8399334e-06
52	0x35161e5e	5.5923545e-07
53	0x362ecaf3	2.6046152e-06
54	0x35a151ee	1.201928e-06
55	0x34a1d7f0	3.0145702e-07
56	0x35d401ab	1.5795716e-06
57	0x35fed0e7	1.8985273e-06
58	0x359a8b48	1.151443e-06
59	0x36199e8e	2.2891068e-06
60	0x3603db9c	1.964835e-06
61	0x361c3304	2.3275506e-06
62	0x35bb228e	1.3942642e-06
63	0x36aaf21c	5.09458e-06
64	0x36119f41	2.1699382e-06
65	0x365926f3	3.2358191e-06
66	0x35d9e382	1.6233973e-06
67	0x35eb7be3	1.754492e-06
68	0x36683345	3.4600537e-06
69	0x36380ef3	2.7426838e-06
70	0x36a7a888	4.9966075e-06
71	0x35f2213c	1.8040078e-06
72	0x36a41621	4.890157e-06
73	0x36def759	6.6449106e-06
74	0x368c11e0	4.174406e-06
75	0x371e3b5d	9.4313555e-06
76	0x36b3a499	5.3537774e-06
77	0x36f4559e	7.281734e-06
78	0x36cd2649	6.113933e-06
79	0x35e1f141	1.683402e-06
80	0x3722bac4	9.699437e-06
81	0x36823346	3.880271e-06
82	0x36b671a6	5.437253e-06
83	0x375c90f1	1.3146769e-05
84	0x36ecfe65	7.0629635e-06
85	0x373d87b2	1.1296872e-05
86	0x3730ba6c	1.0533822e-05
87	0x36b125d3	5.2794144e-06
88	0x3674f48f	3.6501185e-06
89	0x36f2d0c7	7.236467e-06
90	0x380a7ef0	3.3019984e-05
91	0x3660f113	3.3518925e-06
92	0x37355d3b	1.0810148e-05
93	0x37a2bf1b	1.9400895e-05
94	0x37808b73	1.5323725e-05
95	0x38143546	3.5335564e-05
96	0x3709fcce	8.224697e-06
97	0x37a4a47e	1.9626921e-05
98	0x3782217f	1.5512805e-05
99	0x36870082	4.0233726e-06

exp_avg f4 [10]
0	0x3ae92afb	0.0017789298
1	0xbc0b8fbe	-0.0085181575
2	0x3c602277	0.013680092
3	0xbcc7c738	-0.024386987
4	0xbc43db3d	-0.011954126
5	0x3baffc5d	0.00537066
6	0x3b9925e5	0.004673707
7	0xbc78060d	-0.015138161
8	0xbcb59611	-0.022166284
9	0x3d06fd9a	0.032956697

exp_avg_sq f4 [10]
0	0x36c14275	5.759585e-06
1	0x390c5e99	0.00013386681
2	0x3853d5bf	5.0505387e-05
3	0x39448bb3	0.00018744059
4	0x391fd0dd	0.00015241229
5	0x37730d9f	1.44871e-05
6	0x3716465b	8.957078e-06
7	0x386532e0	5.4645236e-05
8	0x390b0547	0.00013258039
9	0x39f52806	0.0004675986

exp_avg f4 [5, 10]
0	0xbc27c56f	-0.010239943
1	0xbb1883f4	-0.002327201
2	0xba707adf	-0.00091735827
3	0x3be5e3b2	0.007015669
4	0xbae9c0cd	-0.0017833948
5	0x3c1ff322	0.009762557
6	0xbc2ff57b	-0.010739679
7	0x3c05aaed	0.008158428
8	0x3b8c3f06	0.004279974
9	0xbc129855	-0.008947452
10	0x3cc81dd5	0.024428288
11	0x3c459b0d	0.012060893
12	0xbbdc28b9	-0.0067187217
13	0xbc22f782	-0.009946706
14	0xbb16efd3	-0.002303113
15	0xbc547a68	-0.012968637
16	0x3ca09d77	0.019606335
17	0xbd0af97a	-0.033929326
18	0xbca00942	-0.019535664
19	0x3cdfc4a7	0.02731545
20	0xbc3ec959	-0.011644685
21	0xbb5ce1ec	-0.0033703996
22	0xbaa40704	-0.0012514298
23	0x3bf4ec02	0.0074744234
24	0xbadc066e	-0.0016786584
25	0x3c10470d	0.008806002
26	0xbc11b63d	-0.008893547
27	0x3bcf096e	0.006318263
28	0x3bc165b3	0.005902016
29	0xbbeec1ff	-0.0072863097
30	0xbc0561e5	-0.008141016
31	0xba69889f	-0.0008908603
32	0xba21ada9	-0.000616754
33	0x3c2a6f60	0.01040253
34	0xbba0db92	-0.0049089873
35	0x3c37c718	0.011216901
36	0xbc03c9b0	-0.0080436915
37	0x3bb0734a	0.0053848373
38	0x3bb2255e	0.0054365834
39	0xbbb4e453	-0.0055203824
40	0x3af0813e	0.0018349064
41	0xbb3298c6	-0.0027251705
42	0x3b2808b6	0.0025639958
43	0xbb2e7251	-0.002661843
44	0xbae054ff	-0.0017115175
45	0xbb85ade2	-0.0040795663
46	0xbb0cbe93	-0.0021475896
47	0x3c752f8b	0.014964948
48	0x3b880a9b	0.004151655
49	0xbc21363f	-0.009839593

exp_avg_sq f4 [5, 10]
0	0x3816d13c	3.595765e-05
1	0x36b06a5b	5.25759e-06
2	0x37036a84	7.833009e-06
3	0x376f54a9	1.4265222e-05
4	0x376e38d4	1.4199137e-05
5	0x381955ef	3.6558074e-05
6	0x38299b53	4.0437397e-05
7	0x37d9a8d7	2.5947038e-05
8	0x36b778fb	5.467909e-06
9	0x37b2a763	2.1297199e-05
10	0x3905569d	0.00012716134
11	0x382d59f2	4.1330182e-05
12	0x37d7c63e	2.5722311e-05
13	0x38369936	4.353487e-05
14	0x3899e575	7.338348e-05
15	0x38d41743	0.000101132806
16	0x3933fd85	0.00017165214
17	0x397675a4	0.00023504213
18	0x385c824c	5.2573436e-05
19	0x3904f045	0.00012678008
20	0x3863abf7	5.4281172e-05
21	0x37a756a9	1.9948306e-05
22	0x35fd9a1a	1.8894818e-06
23	0x38074cfb	3.2258202e-05
24	0x3846b45d	4.7374855e-05
25	0x388de7c8	6.7665766e-05
26	0x38a6b087	7.9483776e-05
27	0x387c30ab	6.0126808e-05
28	0x379cf590	1.8710998e-05
29	0x38013a62	3.081037e-05
30	0x3786b4d2	1.6058246e-05
31	0x36cbbd21	6.071889e-06
32	0x3636b2f0	2.7224269e-06
33	0x37afdbba	2.0963944e-05
34	0x37adb28a	2.0706346e-05
35	0x3812abdf	3.496918e-05
36	0x37bcb7b0	2.2496883e-05
37	0x37a5ae15	1.9750596e-05
38	0x370e6ffd	8.489934e-06
39	0x3744d4a1	1.1732017e-05
40	0x36fb7da6	7.4950103e-06
41	0x35e5e9aa	1.7129835e-06
42	0x36dcf36c	6.584849e-06
43	0x3711df08	8.694602e-06
44	0x37193fae	9.134337e-06
45	0x3775529b	1.4622371e-05
46	0x374599dc	1.1777938e-05
47	0x37ea9de4	2.7968497e-05
48	0x358687fa	1.0023352e-06
49	0x3790317d	1.7189182e-05

exp_avg f4 [5]
0	0x3d0d95a9	0.034566555
1	0xbd8c52c9	-0.068517275
2	0x3ce6bc3b	0.028165927
3	0x3d0ba420	0.03409207
4	0x3c1d1178	0.009586684

exp_avg_sq f4 [5]
0	0x39dfa80a	0.00042659073
1	0x3b0114a0	0.0019696131
2	0x3a8e696c	0.0010865158
3	0x39e4a47a	0.00043610093
4	0x38e67360	0.00010988745

exp_avg f4 [31, 5]
0	0x3c2b3a9b	0.010450984
1	0xbc3f253e	-0.011666594
2	0xbb58d108	-0.0033083577
3	0x3c704679	0.0146652395
4	0x3b4dff14	0.0031432556
5	0x3c43c714	0.011949319
6	0xbc9b833a	-0.018983472
7	0xbb5a9c2b	-0.0033357244
8	0x3cb2efa1	0.02184278
9	0x3b506bb6	0.0031802482
10	0x3bbf1bdd	0.005832179
11	0xbbc3c9f4	-0.0059750024
12	0xbaf88901	-0.0018961729
13	0x3c05b512	0.008160846
14	0x3acde6c7	0.0015709036
15	0x3bc18e68	0.0059068687
16	0xbbe85cf1	-0.0070911576
17	0xbabe99cc	-0.0014541685
18	0x3bfe8bb9	0.007768121
19	0x3af11c18	0.0018395213
20	0xbb8cb5f0	-0.0042941496
21	0x3beac9ce	0.0071651703
22	0xb9212f81	-0.00015371853
23	0xbb781aec	-0.0037857844
24	0xbb5364b6	-0.0032256073
25	0x3b473bbe	0.00304006
26	0xbb8f640f	-0.0043759416
27	0xbb624822	-0.0034527858
28	0x3c635e96	0.0138775315
29	0xba78e43f	-0.00094944605
30	0x3c2a4f13	0.010394829
31	0xbc71275a	-0.014718855
32	0xbb97bfee	-0.004631034
33	0x3cc5a3b8	0.024125919
34	0x3afef2b4	0.0019450993
35	0x3befe33f	0.007320791
36	0xbc0e07e0	-0.00866887
37	0xbb6e0367	-0.0036317946
38	0x3c7f2fd3	0.015575367
39	0x3a89d69d	0.001051623
40	0x3bd906cc	0.0066231247
41	0xbc249527	-0.010045326
42	0xbb91350c	-0.0044313725
43	0x3caa3b31	0.020780178
44	0xb9141807	-0.00014123331
45	0x3982aba6	0.0002492342
46	0xbb471f57	-0.003038367
47	0xbb0f00f6	-0.002182064
48	0x3c0ee723	0.0087220995
49	0xba64c15b	-0.0008726322
50	0x3c09ed85	0.0084184455
51	0xbc354abc	-0.011065181
52	0xbb2c42f6	-0.002628503
53	0x3c425399	0.011860752
54	0x3b47834b	0.0030443247
55	0x3b97a97d	0.004628359
56	0xbc1c6c95	-0.009547372
57	0xbac06e1e	-0.0014681255
58	0x3c314641	0.0108199725
59	0x3a58cf92	0.00082706765
60	0x3a9fc162	0.001218837
61	0xbb2f9563	-0.0026791922
62	0xb819a8db	-3.66353e-05
63	0x3b11c581	0.0022242966
64	0x3a12902a	0.000559094
65	0x3c11aab5	0.008890797
66	0xbc4e550e	-0.012593521
67	0xbb0c5aae	-0.0021416354
68	0x3c575c3b	0.013144548
69	0x3b4c49b0	0.003117185
70	0xbb8ad073	-0.004236275
71	0x3b8d560a	0.004313235
72	0x3b04853b	0.0020221013
73	0xbc003fb4	-0.007827688
74	0xbaefc2e0	-0.001829233
75	0x3b4d57bb	0.003133281
76	0xbbb9cec1	-0.005670399
77	0xbb4191b0	-0.00295363
78	0x3c4be6b5	0.012445142
79	0xb70948e7	-8.18281e-06
80	0x3be438d9	0.0069647846
81	0xbc1f2f3f	-0.009715854
82	0xbb5ae5be	-0.0033401097
83	0x3c79ad7b	0.015239115
84	0x3aec1274	0.001801087
85	0x3b5a11ef	0.003327485
86	0xbae161be	-0.0017195267
87	0xbb44ccbb	-0.0030029255
88	0x3bde7384	0.006788673
89	0x39d36ac4	0.00040324603
90	0x3b31a949	0.0027108958
91	0xbbc870db	-0.006116969
92	0xbb583d53	-0.0032995536
93	0x3c88aa78	0.016682848
94	0xba3f5d94	-0.0007300016
95	0xbb9f816d	-0.0048677237
96	0x3b5c4a83	0.0033613748
97	0x39881342	0.0002595429
98	0xbb168fcf	-0.00229739
99	0xbae45d98	-0.0017422913
100	0x3bbe1433	0.005800748
101	0xbbdfbca1	-0.0068279062
102	0xbb068de2	-0.0020531346
103	0x3c0a4d13	0.0084412275
104	0x3aebf2be	0.001800142
105	0x3bb44bed	0.005502215
106	0xbc5b7d9d	-0.013396648
107	0xbaaa2d72	-0.0012983514
108	0x3c8838aa	0.016628582
109	0x3a181599	0.0005801558
110	0x3bcdd771	0.006281786
111	0xbc00da2b	-0.007864515
112	0xbb0ffb1e	-0.0021969746
113	0x3c27a4cc	0.010232162
114	0x3aeffc51	0.0018309449
115	0x3bcd4e18	0.006265413
116	0xbc1294eb	-0.008946638
117	0xbad919b6	-0.0016563449
118	0x3c25d26a	0.010120967
119	0x3afc0d6d	0.0019230075
120	0xbb46eac5	-0.0030352336
121	0x3b6378c2	0.0034709428
122	0xb8afd75c	-8.384764e-05
123	0xba8891b2	-0.0010419397
124	0xbb1c15d0	-0.0023816712
125	0x3b55aaaf	0.0032602956
126	0xbbc536d0	-0.006018497
127	0xbb707a79	-0.0036694093
128	0x3c866c4f	0.016409067
129	0xba42d11d	-0.0007431673
130	0x3c60fad4	0.013731677
131	0xbc9b975f	-0.018993078
132	0xbbdb2af9	-0.0066884723
133	0x3cfd0a17	0.0308886
134	0x3b4ddb82	0.0031411354
135	0x3bfe61d8	0.0077631287
136	0xbc1a9675	-0.009435286
137	0xbb988a6c	-0.004655173
138	0x3c99573f	0.01871836
139	0x3a9722ad	0.001153072
140	0xbacea735	-0.0015766384
141	0xbb3545e8	-0.0027660076
142	0xbb386f07	-0.002814235
143	0x3c818775	0.015811661
144	0xbb3b6794	-0.0028595673
145	0xbb898554	-0.004196802
146	0x3b04599b	0.002019501
147	0xbaa5c797	-0.0012647983
148	0x3b8613ad	0.004091701
149	0xbb172cf9	-0.0023067577
150	0x3a562251	0.00081685657
151	0x3c586121	0.013206751
152	0xbbf43fcb	-0.007453894
153	0xbb8c9669	-0.004290391
154	0xba06a158	-0.00051357364

exp_avg_sq f4 [31, 5]
0	0x377e12e8	1.5143982e-05
1	0x3750ee77	1.2453288e-05
2	0x381e615e	3.7760816e-05
3	0x388a42d5	6.592801e-05
4	0x36102703	2.148038e-06
5	0x3785070c	1.5858117e-05
6	0x37f68d86	2.9391387e-05
7	0x3822c707	3.880917e-05
8	0x38a58cb1	7.894019e-05
9	0x35e85e82	1.7312852e-06
10	0x37211cb9	9.603035e-06
11	0x36d30306	6.288642e-06
12	0x37fd99ab	3.0231507e-05
13	0x384ea8cd	4.9271435e-05
14	0x3606d20d	2.0089822e-06
15	0x3717b7f0	9.043128e-06
16	0x36eff514	7.151286e-06
17	0x37d7681b	2.5678475e-05
18	0x382f3c9b	4.1779695e-05
19	0x35e7768a	1.7245341e-06
20	0x36a5fa31	4.9465093e-06
21	0x3685a0bf	3.982422e-06
22	0x361c78ef	2.3316204e-06
23	0x36b9a98f	5.533169e-06
24	0x35e7e4ce	1.7277432e-06
25	0x372cf362	1.0308666e-05
26	0x37109e10	8.619871e-06
27	0x380be34b	3.3351866e-05
28	0x389302d2	7.0100315e-05
29	0x36a6f3f2	4.9755845e-06
30	0x3775e62c	1.4656729e-05
31	0x379f2191	1.8969908e-05
32	0x3860086d	5.341361e-05
33	0x38f46834	0.00011654236
34	0x368dd0ae	4.226421e-06
35	0x373ec45c	1.1370601e-05
36	0x373e128a	1.1329199e-05
37	0x38290b7a	4.030343e-05
38	0x38a265ee	7.743748e-05
39	0x364ac128	3.0212777e-06
40	0x37305771	1.05107765e-05
41	0x37326274	1.063255e-05
42	0x37c71337	2.3731596e-05
43	0x3890655e	6.885336e-05
44	0x368de26b	4.228486e-06
45	0x36b4c6e2	5.387571e-06
46	0x369ab645	4.6107766e-06
47	0x365cedc5	3.2920955e-06
48	0x372da7bf	1.035066e-05
49	0x35d93c54	1.6185318e-06
50	0x37406d9e	1.1469614e-05
51	0x3751d925	1.2507929e-05
52	0x37f8c781	2.9656805e-05
53	0x386b3ab2	5.608303e-05
54	0x362beeff	2.56201e-06
55	0x369b9062	4.6361683e-06
56	0x371f4bde	9.494803e-06
57	0x377c5115	1.5039249e-05
58	0x381d0d52	3.7444122e-05
59	0x3602e30f	1.9503675e-06
60	0x36d34f1f	6.297501e-06
61	0x369c399c	4.655869e-06
62	0x37b78a4a	2.1879696e-05
63	0x3836e028	4.3600943e-05
64	0x364125d1	2.8781253e-06
65	0x371c291e	9.307898e-06
66	0x373dda9e	1.1316179e-05
67	0x37bbd44a	2.2390992e-05
68	0x38375ae0	4.3715234e-05
69	0x36050a33	1.982448e-06
70	0x36bfefd9	5.7201655e-06
71	0x368a94ec	4.1300573e-06
72	0x37527d46	1.2546143e-05
73	0x379b6f30	1.8529216e-05
74	0x35723503	9.022917e-07
75	0x3716be36	8.984984e-06
76	0x3710e8f3	8.637307e-06
77	0x37c8877e	2.3904951e-05
78	0x3870613f	5.7311026e-05
79	0x36b8ec4a	5.511135e-06
80	0x3704bd3c	7.911873e-06
81	0x3727f4c7	1.0010967e-05
82	0x37c7b649	2.3807532e-05
83	0x385726c7	5.129611e-05
84	0x3603b23a	1.9624263e-06
85	0x3707f73b	8.10419e-06
86	0x36bd57f4	5.642878e-06
87	0x37b7cb5c	2.1909997e-05
88	0x38307ba9	4.2076837e-05
89	0x35fd4abc	1.887172e-06
90	0x37535aee	1.2597751e-05
91	0x36b36b7a	5.3471276e-06
92	0x378f7d53	1.7105287e-05
93	0x3884a962	6.3258005e-05
94	0x36883697	4.059471e-06
95	0x368890fe	4.069995e-06
96	0x365f04ec	3.3232454e-06
97	0x36a6326b	4.953055e-06
98	0x374140fa	1.1518825e-05
99	0x36089305	2.0351156e-06
100	0x371bdfb6	9.290807e-06
101	0x37007cb8	7.658433e-06
102	0x37ffeae4	3.0507748e-05
103	0x3841d620	4.6214205e-05
104	0x35b0e78b	1.318041e-06
105	0x36db29f2	6.5315917e-06
106	0x379474fa	1.7697446e-05
107	0x37d4da5f	2.5374056e-05
108	0x3858a799	5.16545e-05
109	0x35b23ac3	1.3279135e-06
110	0x3724fad3	9.833561e-06
111	0x37123204	8.713923e-06
112	0x380e6f28	3.395896e-05
113	0x3867141b	5.5093416e-05
114	0x35e6a990	1.7185685e-06
115	0x37140dd7	8.82471e-06
116	0x371abb09	9.222663e-06
117	0x37df2677	2.6601583e-05
118	0x38348fda	4.3049316e-05
119	0x35ab8626	1.2779535e-06
120	0x36473d29	2.968891e-06
121	0x35fd9c1c	1.8895403e-06
122	0x35be38f3	1.4172678e-06
123	0x362a9381	2.5417833e-06
124	0x3595d80f	1.1164246e-06
125	0x37027dc7	7.777889e-06
126	0x3709c69b	8.212078e-06
127	0x38016f72	3.085979e-05
128	0x38862d0d	6.398009e-05
129	0x365dff4a	3.3080164e-06
130	0x379a396f	1.8384975e-05
131	0x37d8e2cd	2.5854819e-05
132	0x38736706	5.8031663e-05
133	0x3909f52d	0.00013156673
134	0x36568705	3.1967077e-06
135	0x373ab2ae	1.1128066e-05
136	0x37401e2c	1.1451117e-05
137	0x38315791	4.228164e-05
138	0x38a68d76	7.941846e-05
139	0x35f90904	1.855457e-06
140	0x3741f502	1.1560742e-05
141	0x36397c3b	2.763946e-06
142	0x377461b2	1.456628e-05
143	0x385dbc03	5.2865606e-05
144	0x368d0f44	4.2039046e-06
145	0x368a6dd5	4.1255066e-06
146	0x365282d4	3.136859e-06
147	0x369afbb6	4.6188607e-06
148	0x3711194c	8.648563e-06
149	0x35d9c8bb	1.622618e-06
150	0x37b660c3	2.1741149e-05
151	0x3775f8ce	1.4661067e-05
152	0x37d1b825	2.500049e-05
153	0x3775aee8	1.46438615e-05
154	0x370b0543	8.286271e-06

exp_avg f4 [31]
0	0xbd2e85fd	-0.04260825
1	0xbd79bd14	-0.060971335
2	0xbcc5c73a	-0.02414285
3	0xbcbe5bcf	-0.023237137
4	0x3c14c111	0.009079234
5	0xbd12864d	-0.03577261
6	0xbd83827c	-0.06421372
7	0xbd2f5af0	-0.042811334
8	0xbd5ea0ff	-0.054352757
9	0xbca970fb	-0.020683756
10	0xbd0c518c	-0.034257457
11	0xbcf6722d	-0.03008374
12	0xbbdd5e5f	-0.0067556347
13	0xbd1a2ccd	-0.03764038
14	0x3c9d552f	0.019205658
15	0xbd00bfef	-0.031433042
16	0xbd23c347	-0.039981153
17	0xbc99d9c9	-0.018780606
18	0xbd221ab6	-0.039576255
19	0x3c151530	0.00909929
20	0xbcc7aa8c	-0.024373315
21	0xbd33f95c	-0.04393898
22	0xbced1575	-0.028940896
23	0xbceb429c	-0.028718285
24	0x3b28d927	0.0025764199
25	0xbd27ae55	-0.04093774
26	0xbda6a8f8	-0.08137697
27	0xbd4b05b0	-0.04956597
28	0xbd0dea80	-0.034647465
29	0xbbc5ae14	-0.0060327146
30	0x3c32dafe	0.01091647
