Cancer-senn/trial6/models/cancer/grad3_Hinput_Thdummy_Reg1e-02_LR0.001/checkpoint.pth.tar (torch_old, 36110 bytes, 34 tensors)

parametrizer.linear1.weight f4 [10, 30]
00000000: 3e5a a53c b3aa 50bd 31c8 9abd 8880 a0bd
00000010: a717 5bbd 5193 ebbc e731 dc3d 5228 fa3c
00000020: b097 d83b 74b0 4bbd 30bb 62bd 2ae5 ce3d
00000030: d655 d33d b5f7 20be 6028 173d 179e 1b3e
00000040: f07a a23d 5671 18be 51b9 97bd 5b2e 9dbc
00000050: 2b26 15bd 0e5a 24be 77d8 4e3d 381b c3bd
00000060: 80f4 5dbe cc83 0abe 613f 223d 3f44 263d
00000070: 313e c23d 24f3 ebbd 640f 003e ec4d 2fbd
00000080: 70a4 1c3d e702 d93d f248 4abe 3fd0 dc3d
00000090: bd55 84bd 1bd1 3bbe cb4d edbd ad91 0f3d
000000a0: 80e5 14be 7565 803d d4a0 f4bd 94d6 99bd
000000b0: 2335 b03d 55dd d4bc cd05 c0bd bfd9 183e
000000c0: 45af 75bd 258e 08be 0524 08be 1cd4 27be
000000d0: 4257 a0bd 09f7 23bb 15ba 07be b9bd 92bd
000000e0: 895a 013e cf6b 4b3e c3de e9bd 0a99 a23d
000000f0: 4dd4 a53d 0f88 c93d c770 953b b63f a6bd
00000100: 542b 1dbe e62a 58bc 0db9 6f3c d4a1 133e
00000110: 2c2b 4cbe a207 66bd c45a 44be 1091 b6bd
00000120: 1c90 9b3c 6ab2 20bd 2fc8 09bc 9e23 793d
00000130: 168e 34be eaf0 e73d fe46 4dbd b981 8cbd
00000140: 8814 0c3e 59f4 533e 5aec 9d3c b61b db3c
00000150: 0103 963d 1973 ec3d 140c e53d 23b6 4ebe
00000160: 8781 12be e786 cf3d 8b6d 34be 764d bfbd
00000170: 00c1 57be df6f bdbb 8fb6 443e ec1e be3d
00000180: 2903 11be af13 9dbd d4e7 41bd 1ad8 c3bc
00000190: d80b 5ebe 131e fcbd 460a e43d 2d01 d6bd
000001a0: 7fd6 b43d 9dd8 a8bd 63b5 33be e4eb a83c
000001b0: cf08 c9bd 7e7f 243d 58d2 51bc c733 20be
000001c0: 1767 5fbc ed02 f03d 30f3 0fbe f98a 0ebe
000001d0: 7335 f5bb 478b be3d eb3d a83d 70b1 d4bd
000001e0: 882e 1d3e bbd6 d2ba 79ec acbc c2a6 3fbd
000001f0: bba2 613e 24b1 a1ba f5cd c23c f3d3 1abe
00000200: 3029 55bd ec3a 55be 1cf7 363e 870c f13d
00000210: 571c 083d fb88 c93d 1665 d23d 6203 27be
00000220: 9b3b c9bd 709f 663c 7729 063e e29e 3c3d
00000230: 2ecc 4b3e 50b3 4d3d a965 1abd 938f 413e
00000240: 889f b23d 44d5 e03d 2588 973d a055 a9ba
00000250: f191 bcbd a213 6fbc b844 48bd 39b7 343d
00000260: be47 39be 2d21 eb3d 221c 233e 8e8d a1bd
00000270: 58eb 54bd da92 00be 036a b0bd 6c4f fdbc
00000280: 9890 db3d c41e 6cbd e707 873c b862 963d
00000290: c881 c63d 1e8b 28be 678f 093e 08a5 073e
000002a0: aef9 b63d 267d c8bc 08a9 33be a458 1bbe
000002b0: f827 673d e881 433d 837b 253c a790 0cbe
000002c0: e0e6 c6bd b7ad 3ebe b9ab fb3d 86b1 2f3e
000002d0: a310 97bd 752a 1abd 264f 32be ff88 99bd
000002e0: 5152 4dbd af36 a43c deda 1ebc 08a9 d53c
000002f0: 6cc4 df3c 922b 6bbd a55a 07be 34c2 913d
00000300: 3aea 4cbe 4c3e 753b 3fa4 9f3d cfae 1ebe
00000310: 7d62 d3bd 5743 fb3d 23a9 d93d 1351 0e3c
00000320: 00f5 34be f5ac 253c 69bd be3d c3ab 5abe
00000330: 2d6f 01be c26f 98bc 043a 0ebe 226e 10be
00000340: b335 f03c b347 34be 15ed 133e 557b a7bd
00000350: ecb5 e4bd ddad 06bd 76a1 dfbc d4eb ca3d
00000360: 8fd6 1ebe 5374 10be 3671 5bbd c44c a93d
00000370: dfdc 5f3a 4716 00be e5d9 a0bd 95e4 1dbc
00000380: 9946 1dbd 80e6 dcbd 2a23 3aba 08d9 283e
00000390: 1640 42bc 2f73 3d3e 065c fcbc 3180 52be
000003a0: 1a90 c5bc 5d0f 113e 92b6 4ebe 7ac9 273e
000003b0: 1a8e 163d 1b3a 27be e3c0 6fbd cd97 1e3e
000003c0: 9c00 cfbd 3932 0b3e 8dc5 e4bb 094c ba3d
000003d0: 1854 17be 7d85 4d3e 8623 8dbd 253e bdbc
000003e0: c654 373c e3df e43d 2948 48be 9d03 2fbe
000003f0: 86ea f6bd d706 b8bc 2e19 143e 6b66 203e
0.020184632 -0.05094404 -0.07557715 -0.078370154 -0.053489354 -0.02875677 0.107517056 0.030536804
0.0066098794 -0.049728826 -0.055354297 0.10102303 0.10319106 -0.15719493 0.03690374 0.15197025
0.07933605 -0.14886984 -0.07408393 -0.019187143 -0.036413353 -0.16049978 0.050499406 -0.09526676
-0.216753 -0.13526839 0.039611224 0.04059243 0.09484518 -0.11520985 0.12505871 -0.04279892
0.038242757 0.10596257 -0.19754389 0.10781907 -0.06461666 -0.18341486 -0.115871035 0.035051037
-0.14540672 0.062693514 -0.11944738 -0.07511631 0.08603885 -0.025984446 -0.093761064 0.14926814
-0.059981603 -0.13335474 -0.1329499 -0.16389507 -0.07829143 -0.002501907 -0.13254578 -0.07165093
0.12632193 0.19865344 -0.114194416 0.07939346 0.08097134 0.09840404 0.0045605632 -0.08117621
-0.1534856 -0.013193822 0.014631522 0.14417201 -0.19938344 -0.056159623 -0.1917525 -0.08914387
0.018989615 -0.03923265 -0.008409544 0.060824983 -0.17632326 0.113252476 -0.05011653 -0.0686068
0.13679707 0.2069868 0.01927774 0.026746612 0.07324792 0.11545391 0.11183944 -0.20186667
-0.14307223 0.101331525 -0.17619912 -0.093409464 -0.21069717 -0.0057811583 0.19210266 0.09283242
-0.14161362 -0.0766977 -0.04734023 -0.023906756 -0.21684206 -0.12310424 0.11134772 -0.10449443
0.088299744 -0.08244441 -0.17549662 0.020620294 -0.09816133 0.04016065 -0.0128064975 -0.15644751
-0.013635418 0.11719308 -0.14057612 -0.13920201 -0.0074831783 0.09303909 0.08214935 -0.10385406
0.15349782 -0.0016085723 -0.021108853 -0.046789892 0.22034733 -0.0012336117 0.023779849 -0.15119915
-0.052041233 -0.20823258 0.17867702 0.117699675 0.033230152 0.0984058 0.10273187 -0.16309884
-0.09825822 0.014076099 0.13101755 0.04604996 0.19902107 0.050219834 -0.037694607 0.18902425
0.087218344 0.10978177 0.073990144 -0.0012919195 -0.092075236 -0.014592083 -0.04889366 0.044120047
-0.18093774 0.11480937 0.159287 -0.078883275 -0.051982254 -0.1255602 -0.0861397 -0.03092166
0.107209384 -0.057646528 0.01648326 0.07343048 0.096927226 -0.16459319 0.1343361 0.13246548
0.08934341 -0.024473738 -0.17544949 -0.15170532 0.0564346 0.04773131 0.010100248 -0.13727055
-0.09712005 -0.18620954 0.12288613 0.17157564 -0.0737622 -0.037638146 -0.17413005 -0.07496833
-0.05012733 0.020045606 -0.009695737 0.026081577 0.027315341 -0.0574146 -0.13218172 0.071171194
-0.20011225 0.0037421165 0.07794999 -0.15496372 -0.103215195 0.122687034 0.106279634 0.008686322
-0.17671585 0.010112037 0.09313471 -0.21354584 -0.12640066 -0.018607978 -0.13889319 -0.14104512
0.02932248 -0.17605476 0.14445908 -0.081778206 -0.11167511 -0.032880653 -0.02729867 0.09908262
-0.15511535 -0.14106874 -0.053574763 0.08266595 0.0008539687 -0.12508498 -0.0785406 -0.009637018
-0.038397405 -0.10786152 -0.0007100577 0.16489041 -0.0118561 0.1850097 -0.030805599 -0.20556714
-0.024116565 0.14166017 -0.20186833 0.16385451 0.036756612 -0.16330759 -0.05853356 0.15487595
-0.10107538 0.13593377 -0.0069815577 0.09096534 -0.14778173 0.20070453 -0.06891541 -0.023100922
0.011189645 0.111755155 -0.19558777 -0.17091222 -0.120564505 -0.022464199 0.1446273 0.1566407

parametrizer.linear1.bias f4 [10]
00000000: 8b33 c43d bced 88bc 63d6 023e f4e7 aabc
00000010: 9648 f438 904c 453e cccd 213e 0320 bfbd
00000020: 2d03 10be b154 4a3e
0.095801435 -0.016714923 0.12777095 -0.020862557 0.00011648347 0.19267488 0.15801162 -0.093322776
-0.14063711 0.1975887

parametrizer.linear2.weight f4 [10, 10]
00000000: f638 3abe a79b 79bd 21a3 2f3e bcc8 90be
00000010: 9ef5 7bba 3482 0dbd 94c0 a0be f64d 133e
00000020: c322 c2bd 4e3a 44be 7738 3b3e d31c a0be
00000030: cde7 8abe 1054 f73d d747 113d a2c6 053c
00000040: a67b 5dbe 4140 48be 1be4 60be 466b 383e
00000050: c5d4 5c3e f002 39bc fe19 843d 6eb6 9abb
00000060: 1d15 c83d 542f 35be 3e09 2d3e eb2c 7dbe
00000070: 5986 323e ce61 44be 7ba0 f13d 6b2c 793e
00000080: 06c4 a13d f632 64bc c8cb eebd 475a 953d
00000090: df8d 81be bf70 52be c310 24be 9417 9ebe
000000a0: 8047 12bd b01b 823e 62e5 eebc 82a1 51be
000000b0: 89eb 353e bfb6 2d3e 9801 f7bd c411 483e
000000c0: 2768 243e ec8d 09be 7bc1 b03e 1684 683e
000000d0: 2c0a 463e 2869 2c3d ff84 60be 7017 733e
000000e0: 9e40 68bd 27c1 a53e 2e3d db3c 13cd 683d
000000f0: 81c4 233d 3934 9b3e 231e 3a3d 57f3 a53e
00000100: 4e58 7dbe ab82 853e 90cd b33c 10f2 ae3e
00000110: d917 573e a37e c33d f661 efbd 4bfc 203e
00000120: e65d 7dbe ee5e a1be 8db9 bbbc 42a8 78be
00000130: 17bc 59be 3057 403e f433 91bd 0790 1abe
00000140: 7722 6a3e 20b3 823d e32d 983e a8ef 6f3e
00000150: 3970 f73d ecc5 8c3e 83d2 6a3e cbc8 353e
00000160: 5789 65be 06bb a0bd a2a9 38be a046 f73d
00000170: 5f4e 213e 6c10 53be 2f8c 9c3e 4ad3 0abe
00000180: 1c6a 09be 8ace 55be 1635 73be 820c c93d
-0.18185791 -0.060939457 0.17152072 -0.28278148 -0.000961149 -0.034548 -0.31396925 0.14385208
-0.094792865 -0.19162866 0.18283258 -0.3127199 -0.27129975 0.120765805 0.035468902 0.0081650335
-0.216292 -0.19555761 -0.21962015 0.18009672 0.2156554 -0.011292204 0.0645027 -0.0047214543
0.09769652 -0.17693835 0.16898057 -0.24724166 0.17434062 -0.19177935 0.11798187 0.2433335
0.07898717 -0.013928166 -0.11659962 0.0729261 -0.25303552 -0.20550822 -0.16022019 -0.30877364
-0.03571272 0.2541175 -0.029162113 -0.20471767 0.17765631 0.16964243 -0.12060851 0.19538027
0.16055356 -0.13433045 0.34522614 0.22706637 0.19339818 0.042092472 -0.21925734 0.2373941
-0.05670225 0.32373926 0.026762571 0.0568362 0.039982323 0.3031328 0.045438897 0.32412216
-0.24740717 0.26076254 0.021948606 0.34169054 0.21005191 0.095456384 -0.116886064 0.15721242
-0.2474285 -0.31517738 -0.022915626 -0.24282935 -0.21263157 0.1878326 -0.070899874 -0.15094005
0.2286471 0.06381822 0.2972251 0.23431265 0.12081952 0.27494752 0.22931866 0.17752378
-0.22415672 -0.07848172 -0.1803346 0.120740175 0.15752552 -0.20611733 0.30575702 -0.13557163
-0.13419384 -0.2087957 -0.2375072 0.09816839

parametrizer.linear2.bias f4 [10]
00000000: e5eb 653d fc0d 94be 9ca7 71be 17ab 173e
00000010: 6335 c6bd 169a 2ebe 654c 963e e007 723e
00000020: d516 5abe f306 1e3e
0.05613317 -0.2891692 -0.23599094 0.1481136 -0.096781515 -0.17050967 0.2935516 0.23635817
-0.21297772 0.15432338

parametrizer.linear3.weight f4 [5, 10]
00000000: b0f1 42bc f6f8 79bd bc8d 01be c43d d23d
00000010: c138 853d 1f47 64be c6be 9abe d18e 083e
00000020: 00b9 f73d 9347 423e 951b 74be 0f61 ee3d
00000030: 1057 8c3b be8e a5be 0055 c53d c378 bbbd
00000040: 0601 7d3c e533 99be bdf4 f63c 3f44 63be
00000050: 02a8 99bd 555d d5bd f7a4 aabc 59d1 4cbe
00000060: ee3a 75be 9c27 8f3e 3740 883e e6e4 7bbe
00000070: 6fea f93d 686a 913e 306d ef3d 63f2 44bd
00000080: 92a2 3a3d 4201 75bd ac1c 99be 547a 11be
00000090: b9d8 a7bd 3395 94be 0c3a 683e 5b28 663e
000000a0: 465b 853e feda eebd 91c9 823e 70ee 943e
000000b0: 3bc4 ef3d 36c6 253e fb82 383d b595 f23c
000000c0: 2c75 3a3e 656b 95be
-0.011898443 -0.061028443 -0.12651724 0.10265687 0.065049656 -0.22292756 -0.30223674 0.1333573
0.12095833 0.18972616 -0.23838647 0.11639606 0.0042828396 -0.32335466 0.09635353 -0.09153893
0.015442139 -0.29922405 0.030145997 -0.22194003 -0.07502748 -0.10418192 -0.020830614 -0.20001735
-0.23948261 0.27959907 0.26611492 -0.24599037 0.12202918 0.28401494 0.11690748 -0.04808272
0.045565195 -0.059815653 -0.29904687 -0.1420682 -0.081956334 -0.2902008 0.22678393 0.22476332
0.260462 -0.11662863 0.25544408 0.29088163 0.1170735 0.16188893 0.045046788 0.029612402
0.1820876 -0.29183498

parametrizer.linear3.bias f4 [5]
00000000: 3cd4 94be 376f 82be e3ff 84bd 7fcb 923e
00000010: a68c 99be
-0.29068172 -0.25475475 -0.06494119 0.2867088 -0.2999012

parametrizer.linear4.weight f4 [31, 5]
00000000: 254a 48be 6e23 c8be e981 2abe 1783 833e
00000010: 00e8 10be 751e 9e3e f2e6 d3bd c8e2 3dbd
00000020: e434 83be f559 0fbe e090 913e e76b 963e
00000030: 9b47 86be 3b4a e93e 4f77 9fbd 1e23 c3be
00000040: 89ea abbc 6f91 69be b709 a8be f559 0dbe
00000050: a669 cc3d b62e 98be 4076 653e cea9 2ebe
00000060: 05af ca3e 00b0 453e ca09 a83e 771c 9b3e
00000070: 13fd 66be 1363 cb3e 7f48 af3e 8bf6 1d3d
00000080: dba4 ccbe 5a83 d13e 3cb0 0fbe ef41 8bbe
00000090: 10e5 e5be 5491 3c3d fd09 ba3e 42a2 a23d
000000a0: 057e 893e 20b7 673d 0d30 6bbd c165 bf3c
000000b0: 0ac9 653e f5ff f63e 0089 4fbe 7bf0 8f3e
000000c0: 4d42 983d df58 743e 871a c8be efcd 7ebe
000000d0: 718d 53be c7a7 08be 2b59 0f3e 7963 b3be
000000e0: 2a3a 003e a747 ed3d d81e c7be ff6d 6b3e
000000f0: 2cfd 79be 7f9b 72be 3c70 543d 145b 6bbe
00000100: 4fff 343e b224 b2bc b7d4 013e cea3 9dbe
00000110: b74e a2be 0351 0f3e a053 413e e63c b8be
00000120: da5c 11be fd42 793e 65e7 b13e ca85 9dbe
00000130: 346f 6abe 56e6 88bd 4b48 90be a8a4 78be
00000140: e66e 60be 7a99 b93e d614 d93e 1a7f dd3e
00000150: 96e3 cdbd e0f2 3bbe e9f2 9dbe 9d87 87be
00000160: e2d0 4f3e fe3c 84be 7f06 943e 90a0 083e
00000170: ee99 9fbe a987 30bc 8efc 72be c67d 8a3e
00000180: 301e d33e 94c3 013e 2934 d63e 1528 9b3e
00000190: 61b8 8ebe ea8b d0be fec3 d63e 6a7a 423d
000001a0: 6b3a 853c badd 023d 56e7 87be cfc9 8b3e
000001b0: 5213 a33d 84d8 94be 4bfe 9d3e 6b87 42be
000001c0: f432 a1be cf5e d13e ba0c 44be 45cb 143e
000001d0: 0587 3f3e 369f 8e3e 1944 79be df09 70be
000001e0: fc08 99be afb4 cebe d796 c23e 3040 96be
000001f0: d6e6 9abe 0d0e 8c3d d2de 1bbe e096 123e
00000200: de05 05be 70be c0be 324f 473e 608a 9d3e
00000210: 0f6c 4b3e 6f23 d83e 6bfa a23d 42c3 33be
00000220: 790c ad3c 8e35 4e3e d993 e0bd 37f9 e9be
00000230: cbc1 5ebe 31aa 35be 6382 db3e 5e5c b43e
00000240: 9a52 8e3c fbe6 8fbd b189 80bd 679d 6c3e
00000250: 7a05 f23d 511a 123e d3b8 d93e 6e80 5fbe
00000260: 1bfb f7be 9151 513e 6fc3 03be
-0.19559534 -0.3908953 -0.1665112 0.2568595 -0.14151001 0.30882612 -0.10346784 -0.046358854
-0.2562629 -0.1399916 0.28430843 0.29379198 -0.26226506 0.45564446 -0.07786428 -0.3811273
-0.020985859 -0.22809385 -0.32819912 -0.13803847 0.09981088 -0.29723138 0.2240839 -0.17056963
0.39586654 0.1930542 0.32819968 0.30295154 -0.22557478 0.39724025 0.34234998 0.0385652
-0.39969525 0.40920526 -0.14032072 -0.2719874 -0.44901323 0.046037033 0.36335745 0.079411045
0.26853958 0.056571126 -0.05741887 0.02336395 0.22439972 0.48242155 -0.20267105 0.2811316
0.07434521 0.23862027 -0.3908274 -0.24883245 -0.20659424 -0.13345252 0.13998859 -0.3503683
0.12522188 0.11585932 -0.3889072 0.22991179 -0.24412984 -0.2369213 0.051864848 -0.22983962
0.17675517 -0.021746013 0.126788 -0.30789036 -0.3170068 0.13995747 0.18879557 -0.35983962
-0.14195576 0.2434196 0.34746853 -0.30766135 -0.22893983 -0.06684558 -0.28180155 -0.24281561
-0.21917304 0.36249906 0.4239871 0.43261033 -0.10053174 -0.18354368 -0.30849388 -0.26470652
0.20294526 -0.25827783 0.28911206 0.133425 -0.31172127 -0.010774531 -0.23729154 0.27049083
0.4123397 0.12672263 0.4183667 0.30304018 -0.27875045 -0.40731746 0.41946405 0.047480024
0.016263207 0.031949736 -0.26543683 0.27302405 0.079626694 -0.29071438 0.30858073 -0.1899697
-0.31484187 0.40892646 -0.1914548 0.14530666 0.1870385 0.27855843 -0.24342383 -0.23441266
-0.29889667 -0.40372226 0.38005707 -0.29345846 -0.3025424 0.068386175 -0.15221718 0.14315367
-0.1299052 -0.37645292 0.19463804 0.30769634 0.1986544 0.42214534 0.0795792 -0.17554954
0.021124111 0.20137617 -0.109657 -0.45697948 -0.21753614 -0.17740704 0.42872915 0.3522672
0.017373372 -0.07026478 -0.062762626 0.23106919 0.11817451 0.14267851 0.42523822 -0.21826336
-0.48433766 0.20441271 -0.12867521

parametrizer.linear4.bias f4 [31]
00000000: 9b34 b8be 88cf bf3e 95a6 c7be 4e58 8c3e
00000010: 55dd d83e 79af 9e3e 3203 c9bd 32ba 763e
00000020: da65 7bbd 8108 1cbd d0eb 7e3d ea25 a6be
00000030: f3ed 59be 8bfe f83d 98fc 983e 98b9 b13e
00000040: 7153 aebc 5ee0 c3bb d372 2c3d a2cc a5be
00000050: 97dd cf3e 58c0 b9bd 01e4 b53c 1c6b c5bd
00000060: 1d25 55be 5a3d 8d3e 5f30 4f3e 6cb3 c93e
00000070: 8d32 7e3d f8ad 4cbe 3874 78be
-0.35977635 0.3746302 -0.3899428 0.2741112 0.42356363 0.3099325 -0.098150626 0.24094465
-0.06137643 -0.038094047 0.062236607 -0.324508 -0.21282177 0.12157925 0.29880214 0.3471191
-0.021280022 -0.0059776744 0.042101692 -0.32382685 0.40598747 -0.0906989 0.022203447 -0.0963957
-0.20814939 0.2758587 0.20233296 0.393947 0.062059928 -0.19988239 -0.24263084

exp_avg f4 [10, 30]
00000000: 27e9 853a 48ae 32bb 2a11 163a f427 c63a
00000010: c711 693a 7f11 1cbb 1e7d 8eba c7c0 71b9
00000020: 7239 a73a 5d35 c3ba 7b45 3b3a dbde a6ba
00000030: 09e0 a3b9 2a53 dc39 fbcf 1d3a 5884 5ebb
00000040: 03f1 a6ba 81d2 23bb dd46 3e3a 7426 e5ba
00000050: ae76 f93a 2dc9 84b9 788d 993a 4ac8 de3a
00000060: a361 dc3a c500 1cbb 37bb 79ba 13c1 00ba
00000070: a072 783b 610b 97ba 6994 0b3a 6cf1 673a
00000080: ac11 1f39 c4ba 423a 25cc 843b 4695 8aba
00000090: f3a5 64bb e468 ac38 5727 2bba f2f5 57b6
000000a0: be53 4c39 caf0 133b 934f 35ba 857e cbb9
000000b0: f0dd a93b f334 89bb d145 a3bb 4b01 11ba
000000c0: 7103 1eb9 5a83 3dbb b8dd d939 f9ac b53a
000000d0: 2595 94b9 ee1a 6739 0072 453b e560 8ebb
000000e0: 63c8 c5bb f467 e7ba a1de d3b8 e286 8abb
000000f0: 4b7c de39 3042 b1b9 fc49 1539 a001 433a
00000100: b3be 74ba 4b2f 29b9 4531 acba ebfd 9dba
00000110: 0f4a 3cba ade2 093b 1f9d 093a b3e9 19ba
00000120: 5a23 c939 a043 ea38 5939 363b 78b5 373b
00000130: 102b 4f3b 5e4e 943a 2f16 163a 29a0 603b
00000140: 91e4 2139 d4e0 abba 8970 96b8 e8e5 0137
00000150: a503 acb6 473a 763a c157 c53a de51 30ba
00000160: 6828 883a 42a6 513a 2107 0f3b 5799 04bb
00000170: 750f f33a ea30 223b 9719 9bbb fc34 26bb
00000180: 271e c439 3350 c2ba fc26 abba b529 62bb
00000190: 7ff5 ab3a a9dc 4dbb 6f97 a23a 7aae ce3a
000001a0: 8850 acbb 973e 4fba c15f f43a 7afd 8fbb
000001b0: 6119 26ba a749 6239 82b0 363b 6626 dcb9
000001c0: 3902 2a3b f660 213b dd99 0ebb aa87 c93a
000001d0: 5bca 813b 3bef 3039 33c0 423b 90be a63a
000001e0: fff2 1bba e5e0 a83a 7d35 93b9 1d51 81ba
000001f0: c930 c8ba 4a61 d53a aa06 883a 10b6 95b9
00000200: 24b9 a9ba baab cc3a 3e59 50ba bb94 82ba
00000210: 1ff8 4d38 1215 07ba 22c0 8cba a6d8 713b
00000220: be0c 283b 69b6 f83a ec53 0bbb 6a77 3b3b
00000230: 4043 94ba 7e61 ebb9 6c67 00ba 8a5b 89ba
00000240: 5542 57ba 0a1e 443b e322 323b 5b18 6d3a
00000250: ef23 45bb 467d 333b 8291 073b 7cf7 dab9
00000260: 8222 d33a 0de3 1b3b 550b c5ba 8839 20bb
00000270: 4834 64ba 1ef1 30ba ecb0 aeb8 c882 1cbb
00000280: 4538 a03a 3588 79ba d144 293a d9fd 803a
00000290: 39f0 b1ba 3c66 22bb 6227 b9b9 335b 3fbb
000002a0: b471 163a a500 9aba 944d 293b d6ac 913a
000002b0: 9cde 033b 32fd 0f3b 00c6 a0b9 df92 b9ba
000002c0: ada8 ee38 862d 1eba 23ff 613b dc1d 88ba
000002d0: 7733 2c3a 421f e8b9 ff41 123a 479d 503a
000002e0: f765 90bb 3657 c7ba 49fe 7c3a 3d95 dbba
000002f0: 1e15 3cba fb08 ceba 1334 4038 8252 3ebb
00000300: ac2f 6c39 8cf0 d839 3faa 7dbb 5070 e53a
00000310: 5927 7b3b 1300 f8ba 7d9b 79b9 de52 d13a
00000320: bb90 623a 9ceb bab9 b819 7d3a 7bc1 523a
00000330: c27f 14bb 06f2 0b3b aba0 953b 8be0 3739
00000340: 8abf cf3a 01aa 163b 1815 cf3a e2c1 8e37
00000350: 6c09 973a dd3f 033b 550d 683a cb57 00bb
00000360: 2b8c 00bb 0630 b2b9 892f 15ba 09c0 f4ba
00000370: f118 1c3a 04b0 463a ae45 0139 a0b8 113a
00000380: 6e30 f0b9 05eb 95bb bb9b 7abb 15be 84bb
00000390: 202c 543a c2b6 38bb 215b 063b 6b93 0c3b
000003a0: d346 bc3a 0a82 e73a 8156 653a 00f1 2dbb
000003b0: ad6a 36bb 61d5 9fba 385f 633b a226 13bb
000003c0: 7120 2cba 1c9b f4b9 be50 52ba a2e0 87b9
000003d0: e174 61ba 5675 21bb 2ed8 ecb9 179b 37ba
000003e0: a792 173a 32ec 0ebb ba39 073a d499 eb3a
000003f0: bda2 c5b7 016c c039 e044 52ba 3c7f 53bb
0.001021658 -0.0027264524 0.00057246035 0.0015118108 0.00088908937 -0.002381414 -0.0010871028 -0.00023055366
0.0012758209 -0.0014893223 0.0007143837 -0.0012731211 -0.00031256702 0.00042023632 0.0006020066 -0.0033953395
-0.0012736622 -0.0024997296 0.0007258484 -0.0017482773 0.0019032562 -0.0002532689 0.0011715135 0.0016996947
0.0016813766 -0.002380417 -0.00095264934 -0.0004911583 0.0037910119 -0.0011523777 0.0005324544 0.00088479253
0.00015170005 0.0007428343 0.0040526562 -0.0010573051 -0.0034888953 8.2211365e-05 -0.00065289944 -3.2180656e-06
0.00019486152 0.0022573941 -0.00069164595 -0.00038813442 0.0051839277 -0.0041872202 -0.004982688 -0.00055315037
-0.00015069336 -0.0028917403 0.0004155466 0.0013860754 -0.0002833988 0.00022039909 0.0030127764 -0.004345047
-0.006035851 -0.0017654882 -0.00010102732 -0.004227505 0.00042435745 -0.00033809384 0.00014237309 0.0007438902
-0.0009336278 -0.00016134714 -0.0013137242 -0.0012053823 -0.00071826664 0.002103965 0.0005249548 -0.0005871311
0.00038364046 0.00011170586 0.0027805178 0.0028031748 0.003161136 0.0011314859 0.00057253515 0.003427515
0.00015439304 -0.0013113269 -7.173519e-05 7.742528e-06 -5.1264237e-06 0.0009392839 0.001505606 -0.00067260663
0.0010388019 0.00079974916 0.0021824318 -0.0020233 0.0018544035 0.0024748393 -0.004733275 -0.002536117
0.00037406498 -0.0014824927 -0.0013057883 -0.0034509723 0.0013119428 -0.0031412041 0.001240475 0.0015768551
-0.0052586235 -0.000790575 0.001864426 -0.0043942304 -0.0006336179 0.00021580477 0.0027876203 -0.0004199028
0.0025941266 0.0024624444 -0.002175919 0.0015375514 0.00396089 0.00016873788 0.002971661 0.0012721587
-0.000594899 0.0012884407 -0.00028077877 -0.0009866093 -0.0015273328 0.0016279605 0.0010377963 -0.00028555142
-0.0012948853 0.0015615143 -0.00079478684 -0.0009962538 4.910689e-05 -0.0005152981 -0.0010738412 0.0036902814
0.002564236 0.0018975261 -0.0021259738 0.0028605112 -0.0011311546 -0.0004489533 -0.00048982236 -0.0010479551
-0.00082114834 0.0029925131 0.0027181439 0.0009044462 -0.0030081233 0.0027387901 0.0020686095 -0.0004176459
0.0016108307 0.0023786456 -0.0015033284 -0.0024448354 -0.00087053 -0.00067497964 -8.329921e-05 -0.0023881663
0.0012223801 -0.00095188926 0.0006457093 0.0009841277 -0.001357562 -0.0024780175 -0.00035315292 -0.0029198646
0.0005738989 -0.001174946 0.0025833594 0.0011114131 0.00201217 0.0021970985 -0.000306651 -0.0014158151
0.00011380143 -0.0006034005 0.0034484349 -0.0010384875 0.0006568948 -0.00044273777 0.0005579292 0.00079580065
-0.0044066864 -0.0015208486 0.00096509286 -0.001675285 -0.00071747776 -0.0015719229 4.5824865e-05 -0.0029040878
0.00022524473 0.00041377952 -0.003870621 0.0017504785 0.0038323014 -0.001892092 -0.00023804414 0.0015970131
0.00086427823 -0.00035652227 0.00096550165 0.0008039695 -0.0022659157 0.0021353974 0.0045662723 0.00017535889
0.001584993 0.0022989514 0.0015799133 1.7018003e-05 0.0011523194 0.002002708 0.0008852084 -0.0019583579
-0.0019614797 -0.00033986586 -0.0005690982 -0.0018672954 0.00059546443 0.0007579329 0.00012328356 0.00055588223
-0.0004581245 -0.0045751357 -0.0038239795 -0.00405098 0.00080937333 -0.0028185104 0.0020501094 0.0021450173
0.0014364369 0.0017662656 0.0008748547 -0.0026541352 -0.002783458 -0.0012194329 0.0034694206 -0.0022453447
-0.00065661134 -0.00046654872 -0.0008022896 -0.0002591657 -0.0008600485 -0.0024636588 -0.00045174494 -0.0007004006
0.0005782046 -0.0021808264 0.0005158443 0.0017974922 -2.3560011e-05 0.00036701563 -0.00080211274 -0.0032271883

exp_avg_sq f4 [10, 30]
00000000: 4f45 7b36 4367 ba36 cbae 6436 4654 8f36
00000010: 1b61 b436 4d59 9336 1e2e a436 fd19 b036
00000020: 2153 9736 dbc3 8036 8ed4 b336 8fa3 3136
00000030: 3089 ac36 4f1e 8036 41c1 5836 67ef dc36
00000040: 91f1 6136 2853 c436 35d6 a336 ef59 8a36
00000050: 57ab aa36 79e7 8636 d46d 9636 a8a4 a136
00000060: 38b7 8136 4e63 3d36 6686 4436 88de 6136
00000070: f826 9736 1f59 3736 2e3c a235 b757 cd35
00000080: 1d20 9735 a424 6035 a764 8437 475b cf35
00000090: 366f bb36 21e2 6435 e9ec 4436 e26c a136
000000a0: ee1f e735 ff67 f136 8e33 1736 f573 4135
000000b0: 1b57 a137 6550 0737 b124 b737 afbc 9936
000000c0: 84e4 0c37 5fdc 5036 48e7 6935 e1d7 3335
000000d0: 0cdd 8835 fd8c 0b35 cd1e 3c37 704d 9b36
000000e0: ebc0 8537 4842 e435 0d6c 9536 100f 8436
000000f0: 328b 1637 b1d6 be36 8456 1437 1daf 2937
00000100: cc81 6837 0682 6a37 3536 7937 b159 1537
00000110: abf1 0837 21a9 b037 d364 5437 6368 ed35
00000120: 2eb7 6d37 3089 6237 cff4 1237 1d59 cc37
00000130: a13c 6e38 596b b537 657a 4837 d99a c337
00000140: c637 ed36 9621 ad36 7268 eb36 fc33 e536
00000150: b6c4 5437 350e 2837 7735 d937 0dd2 2837
00000160: ba26 2e37 9474 9437 ffcd 0b37 b401 9f36
00000170: 01be 0237 ff62 0b37 e61f 2736 6208 5536
00000180: 8f1c b236 3ece a036 58c9 4536 ddda 4036
00000190: f332 9a36 2cee 6f36 3828 9136 555a 9936
000001a0: 0d53 0f37 eeeb 8236 27bc a236 6e89 9236
000001b0: db32 4936 0563 ad35 f83d 2337 7687 8136
000001c0: e788 1d37 9c48 0e37 c431 1236 1f3b 8136
000001d0: 9b37 0f37 ed2e c336 a5ab 7d36 5065 e435
000001e0: 4dad 1435 e182 d735 4b9c e734 acdf 1435
000001f0: cff3 4736 6b05 cf35 a91b f435 c445 5a35
00000200: fc2e 1836 8dc7 3536 4f94 8b35 c110 2a36
00000210: c704 5835 81a1 de34 30eb 3036 0f1d e236
00000220: d317 2337 9d86 6736 cdee be36 dfa6 8636
00000230: cf7c 3035 b05a 5935 87be ff34 e4f7 1435
00000240: b99f 1a36 a70b 6b36 c60b a236 b235 e034
00000250: c60f 1336 9667 8b36 69e6 ca36 6c38 9436
00000260: 0ac6 b436 5565 df36 060d 9836 74e3 8e36
00000270: 94d4 9736 cb51 ad36 2598 9636 4139 6336
00000280: 6392 d736 b56a 4036 f0cc d036 9f16 9336
00000290: 4cb2 9236 aeb2 0b37 e471 8b36 d3ab 1137
000002a0: 2aca a936 4309 8536 855c ec36 589c 8436
000002b0: aec6 d236 c6b9 d936 7784 5536 a704 f135
000002c0: a70b 2336 229a 6136 123d 5e36 3b62 b935
000002d0: a2c1 0536 8d42 ed35 c850 0136 25b0 dc35
000002e0: b99a 8136 66b9 9735 60e5 cc36 6512 a335
000002f0: d4ad 8035 0b61 cd35 e714 2c35 61bb 6436
00000300: 96ec 4935 2ef6 1b35 0ef6 9c36 f535 b436
00000310: 8dd0 0d38 8eed 6036 3ce9 5d36 2269 1b36
00000320: 6eee e535 bca5 f535 e310 f635 5c93 ae35
00000330: d2cd 3c36 567f 2a36 622f 9137 2bd7 cf35
00000340: 9d4a 8c36 26e8 2236 b86e a436 d904 ea35
00000350: 27f9 9236 af19 bc36 91ba 9336 dc24 fd35
00000360: 1d1c 5c36 9e90 4e36 5cc6 8036 601f 0c36
00000370: 5831 b636 0a88 6836 01ad a436 2aa1 9336
00000380: 6ab7 9c36 ca5e 1137 86c8 1737 8fc9 0a37
00000390: daca ff36 f40d 5a36 f21e a736 6559 e435
000003a0: 44cf 9436 4b41 9c36 f596 8236 b055 bf35
000003b0: 1b6b 7736 ee55 f635 3e45 7536 c17e d135
000003c0: 932c 1f34 bda3 ae35 049e 1534 1501 1a34
000003d0: 3c9b ad35 7739 e235 5fdf 8035 019a 3135
000003e0: 9a81 b435 370d 1a36 2b95 1535 42d2 fb35
000003f0: 1390 c734 28b4 4a34 38f5 0135 5d98 6536
3.7442258e-06 5.555253e-06 3.407639e-06 4.271543e-06 5.3757226e-06 4.3913374e-06 4.8929496e-06 5.248234e-06
4.509828e-06 3.837498e-06 5.3593603e-06 2.647026e-06 5.14197e-06 3.8182257e-06 3.2298997e-06 6.584381e-06
3.3668223e-06 5.850936e-06 4.8827155e-06 4.12319e-06 5.0863414e-06 4.020458e-06 4.483134e-06 4.8173424e-06
3.865829e-06 2.8220998e-06 2.9284506e-06 3.3657143e-06 4.5046872e-06 2.7321e-06 1.2087455e-06 1.5299219e-06
1.1259723e-06 8.349982e-07 1.5782496e-05 1.5449267e-06 5.585981e-06 8.526568e-07 2.9344176e-06 4.8108495e-06
1.7220134e-06 7.1944664e-06 2.2530762e-06 7.206684e-07 1.9233257e-05 8.065345e-06 2.1832386e-05 4.581721e-06
8.397856e-06 3.1122688e-06 8.713582e-07 6.699684e-07 1.0197123e-06 5.19867e-07 1.1212845e-05 4.628375e-06
1.594467e-05 1.7006614e-06 4.453125e-06 3.93566e-06 8.973106e-06 5.6874346e-06 8.841631e-06 1.0113957e-05
1.3858498e-05 1.397776e-05 1.4854178e-05 8.901975e-06 8.162499e-06 2.1059592e-05 1.265966e-05 1.7688257e-06
1.4168951e-05 1.3502591e-05 8.759277e-06 2.4360192e-05 5.6800087e-05 2.1626869e-05 1.1949426e-05 2.3317918e-05
7.0696433e-06 5.1597117e-06 7.015705e-06 6.8307836e-06 1.2681985e-05 1.0016888e-05 2.5893312e-05 1.0062487e-05
1.0380225e-05 1.769726e-05 8.333008e-06 4.7387675e-06 7.792843e-06 8.308095e-06 2.4903507e-06 3.1744353e-06
5.308138e-06 4.7923813e-06 2.9472485e-06 2.8737625e-06 4.595489e-06 3.575241e-06 4.326019e-06 4.5702714e-06
8.542801e-06 3.9017677e-06 4.84988e-06 4.367138e-06 2.9980936e-06 1.2918323e-06 9.729985e-06 3.8602693e-06
9.389804e-06 8.480765e-06 2.1784663e-06 3.851382e-06 8.536411e-06 5.8169157e-06 3.7799848e-06 1.701681e-06
5.538648e-07 1.6056839e-06 4.314082e-07 5.545978e-07 2.9795226e-06 1.5424279e-06 1.8187467e-06 8.131285e-07
2.2677114e-06 2.7087256e-06 1.039947e-06 2.5341726e-06 8.047322e-07 4.1468232e-07 2.636294e-06 6.7387077e-06
9.721104e-06 3.4500038e-06 5.6902413e-06 4.0129376e-06 6.574673e-07 8.097077e-07 4.7636078e-07 5.5495025e-07
2.304076e-06 3.5024511e-06 4.829347e-06 4.176232e-07 2.1913888e-06 4.154582e-06 6.0468924e-06 4.417312e-06
5.387473e-06 6.6577145e-06 4.531469e-06 4.258409e-06 4.524898e-06 5.1653237e-06 4.4880603e-06 3.3858962e-06
6.424541e-06 2.8672341e-06 6.222741e-06 4.383575e-06 4.3718956e-06 8.326648e-06 4.1557814e-06 8.682679e-06
5.0601275e-06 3.964787e-06 7.044119e-06 3.9521074e-06 6.281617e-06 6.488731e-06 3.1816578e-06 1.7957253e-06
2.4295675e-06 3.361733e-06 3.3116125e-06 1.3812163e-06 1.9931254e-06 1.7677245e-06 1.9269519e-06 1.6442542e-06
3.8625117e-06 1.1304335e-06 6.1063765e-06 1.21498e-06 9.587334e-07 1.5301933e-06 6.410541e-07 3.4083716e-06
7.5222613e-07 5.810024e-07 4.677807e-06 5.3706995e-06 3.3811248e-05 3.3516876e-06 3.3067327e-06 2.3157995e-06
1.7131222e-06 1.8302158e-06 1.8333343e-06 1.3006897e-06 2.8133986e-06 2.5406093e-06 1.7307411e-05 1.5485324e-06
4.1810113e-06 2.427501e-06 4.9004702e-06 1.743577e-06 4.380144e-06 5.6058266e-06 4.4026606e-06 1.8860696e-06
3.2798919e-06 3.078057e-06 3.8377893e-06 2.0879888e-06 5.429767e-06 3.464988e-06 4.907721e-06 4.3997034e-06
4.6705145e-06 8.664743e-06 9.046989e-06 8.27237e-06 7.6232072e-06 3.2492653e-06 4.9805903e-06 1.7013341e-06
4.4348726e-06 4.6567634e-06 3.8918756e-06 1.4255547e-06 3.6868212e-06 1.8353437e-06 3.654815e-06 1.5608604e-06
1.4824245e-07 1.3011664e-06 1.3934192e-07 1.4342761e-07 1.2934684e-06 1.6855037e-06 9.601753e-07 6.6161743e-07
1.3448764e-06 2.295548e-06 5.5723893e-07 1.876215e-06 3.7171466e-07 1.8878256e-07 4.8413085e-07 3.4212346e-06

exp_avg f4 [10]
00000000: 510a 823a 90c2 d33b 6ffd a63a 26f6 56bb
00000010: 8c7b f4b9 b01f 593a ea50 fe38 6214 1b3b
00000020: 74a7 5839 4ae1 a6bb
0.0009921287 0.0064624026 0.0012740324 -0.0032800524 -0.00046631356 0.0008282615 0.00012126735 0.0023663272
0.00020661746 -0.0050927745

exp_avg_sq f4 [10]
00000000: f2e1 cf36 b890 ef36 62fb 1837 32c9 e936
00000010: 4dc4 1636 5367 e736 e376 1e36 fea5 8c36
00000020: 532f 6a35 7efa ef36
6.1953842e-06 7.1396025e-06 9.118436e-06 6.9673633e-06 2.2466004e-06 6.896365e-06 2.3613036e-06 4.191649e-06
8.724066e-07 7.151916e-06

exp_avg f4 [10, 10]
00000000: d693 18b9 912a ef39 ddc2 f6ba 2bdb 2f3b
00000010: de9d 243a bedb 223b 2626 023b d637 53b8
00000020: 343c 063a eb97 2a3b 5649 41ba 9326 59ba
00000030: 89f3 adb7 28a5 98ba ca67 bfb9 d684 f7ba
00000040: 9e8d c6ba 0c8d a8b9 fca7 c3b8 1b5f 2db8
00000050: e383 023a d7b5 8fb6 895b cbba 6a2e 0b3b
00000060: 63aa 313a ec40 0c3b 99a7 963a 7333 e1b9
00000070: 414b c3ba bb68 163b 5176 85ba 85ac d439
00000080: 1df8 d9ba 4994 8f3b eb2d ab3a b3f6 973b
00000090: 77d5 cb3b f5a6 22bb b108 8f3a 4454 de3b
000000a0: 363a a7ba 2c50 53ba a62c 973a fd3b c03a
000000b0: 2c95 773a 8b9e be3a 4206 773b 36d5 7dbb
000000c0: cb94 04bb 2b37 ab3b b176 86ba e87d 32bb
000000d0: 048f 82ba 8d31 8f3a 8a2b 743b fbfc 223b
000000e0: 70e7 cd38 334e 54bb d0eb 84bb 7c2b cd3a
000000f0: de45 6d3a 861b 5bba a5cf 53ba 1f39 5239
00000100: 3642 fd3a 46d9 713a d10c 2cb9 1330 a9ba
00000110: 9a0b 5dbb f22e 1eba 2c8c 03bb 4bc5 deb9
00000120: 2743 e138 8399 343b 99f3 dc3a e25b 183b
00000130: 3cc7 c63b 0240 99bb fd3f 6c38 d981 c93b
00000140: 7004 603a cf0d 373a ded9 7039 0708 ecb9
00000150: 3271 9eba 661b ae3a 93da f4ba 0ca4 3b3b
00000160: b07b e43a b9b3 91ba 20f7 4537 ad47 9d3a
00000170: dc32 0e3b 599c 37bb b62a b3ba b975 20bb
00000180: c1dc 78bb ce0a 5a3b 312f 913b f432 abbb
-0.00014550923 0.00045617347 -0.0018826384 0.0026833515 0.00062796276 0.0024850215 0.0019859164 -5.035832e-05
0.00051206653 0.0026030492 -0.00073732936 -0.0008283641 -2.0736612e-05 -0.00116459 -0.00036507688 -0.0018884193
-0.0015148406 -0.00032148545 -9.329614e-05 -4.1334988e-05 0.0004978759 -4.282901e-06 -0.001551495 0.0021237382
0.0006777404 0.0021401 0.001149404 -0.00042953677 -0.0014899747 0.0022950608 -0.0010182356 0.00040564328
-0.001662973 0.0043816906 0.0013059949 0.004637563 0.0062205154 -0.0024818752 0.0010912624 0.0067849476
-0.0012758437 -0.0008060958 0.0011533692 0.0014666315 0.00094445306 0.0014543099 0.003769294 -0.003873182
-0.002023029 0.0052250824 -0.0010258761 -0.002723569 -0.0009960835 0.0010924801 0.0037257397 0.0024870026
9.81827e-05 -0.0032395243 -0.0040564314 0.0015653218 0.00090512435 -0.00083582883 -0.00080799527 0.0002004844
0.00193221 0.00092257967 -0.00016407973 -0.0012908004 -0.003372884 -0.0006034217 -0.0020072563 -0.00042490134
0.00010741344 0.002755732 0.0016857266 0.0023248126 0.006066231 -0.00467682 5.632638e-05 0.0061495122
0.0008545583 0.00069829536 0.00022969345 -0.0004501941 -0.0012088178 0.0013283312 -0.0018680863 0.0028631715
0.0017431881 -0.0011116184 1.1799653e-05 0.001199951 0.0021697795 -0.0028016774 -0.0013669345 -0.002448423
-0.0037973376 0.00332706 0.0044306745 -0.00522458

exp_avg_sq f4 [10, 10]
00000000: 1fce cb34 f20d 9735 5806 2436 a093 dd35
00000010: 2c53 a135 12a2 9336 d631 2436 5b7a 0e35
00000020: 4da3 2d36 10be 4a36 d201 f034 9fb1 0835
00000030: 18c5 0836 5a0d e834 a343 f634 ef25 1536
00000040: 71b0 8835 bfd8 0035 5900 c435 513b 0735
00000050: 4a62 f534 4f7d 8335 3e86 0236 aaf4 8235
00000060: 4371 6035 f6af e335 e58e 4236 8483 ef34
00000070: 42fa 8635 6351 f935 f9d1 bb36 7c5f 3737
00000080: fa0d 1637 5794 1f37 94d7 e336 1b75 4637
00000090: e622 cd37 0b9d c235 cc3f e636 f63b 6b37
000000a0: 88ca cd36 cdf0 b036 c1a7 0c37 58ae 8336
000000b0: b895 6636 ee34 e436 a8dc 7937 d44e 7536
000000c0: 6e0a 8a36 3313 e436 ef47 0536 c486 4137
000000d0: 22a9 ad36 7af1 aa36 c835 0837 c92c ed35
000000e0: e049 7c37 ecee d835 cd8c 0037 67fc c935
000000f0: 45d3 2b35 281b a436 2abd 4d36 357e 0636
00000100: d838 5e36 73e7 7b35 e3e1 ed36 8ace 1635
00000110: 95f1 9836 63d5 8535 d4b5 2237 e2a8 7c37
00000120: cb47 4f37 a221 1037 aa7d ec36 3937 0537
00000130: 902f 0238 b90b b436 809a cc36 53bc 4a37
00000140: 65b9 ea35 cb5b 2b36 a81f 8c36 4c79 6c35
00000150: f4f9 ab35 b46a 6b36 e7ed c436 3905 5d36
00000160: e75b 3436 100b 0536 05a7 f136 2ab5 f936
00000170: 6244 6137 6d89 0637 d421 7636 9290 3a37
00000180: 48ff d537 40d2 8636 eb33 dc36 d9d9 f736
3.796167e-07 1.1254435e-06 2.4441597e-06 1.6508748e-06 1.2019641e-06 4.399809e-06 2.4466913e-06 5.3077173e-07
2.5874062e-06 3.0210977e-06 4.4704808e-07 5.092242e-07 2.0380303e-06 4.3223082e-07 4.5870283e-07 2.222481e-06
1.0184141e-06 4.7999123e-07 1.4603239e-06 5.0377736e-07 4.570632e-07 9.79673e-07 1.9449649e-06 9.756961e-07
8.361132e-07 1.6964029e-06 2.8991428e-06 4.461291e-07 1.0056613e-06 1.8575632e-06 5.5974783e-06 1.0929882e-05
8.943951e-06 9.511677e-06 6.790224e-06 1.1828985e-05 2.4454155e-05 1.4499832e-06 6.861961e-06 1.4021052e-05
6.133054e-06 5.2732416e-06 8.3837085e-06 3.9244005e-06 3.4359819e-06 6.8010913e-06 1.4892932e-05 3.655373e-06
4.1139347e-06 6.7971646e-06 1.9860415e-06 1.1535074e-05 5.1754914e-06 5.0945064e-06 8.118754e-06 1.767091e-06
1.5037571e-05 1.616279e-06 7.662177e-06 1.5049126e-06 6.40099e-07 4.8907423e-06 3.0657488e-06 2.0041018e-06
3.3113665e-06 9.384159e-07 7.089447e-06 5.617991e-07 4.558077e-06 9.971376e-07 9.698288e-06 1.5059692e-05
1.2354877e-05 8.5909e-06 7.0479773e-06 7.940275e-06 3.103871e-05 5.3657827e-06 6.09766e-06 1.2083986e-05
1.7488316e-06 2.5534416e-06 4.1760104e-06 8.809336e-07 1.2813239e-06 3.5079838e-06 5.8689507e-06 3.2934606e-06
2.6875584e-06 1.9824984e-06 7.2018033e-06 7.4418685e-06 1.3426967e-05 8.019019e-06 3.6676547e-06 1.1120124e-05
2.5510453e-05 4.0179875e-06 6.562555e-06 7.3865344e-06

exp_avg f4 [10]
00000000: 1fa8 4a3b 3e3d 3bbb f96e 0b3b 48b5 193c
00000010: 41a3 173c 0aae 5638 7753 23bb dc63 ee3b
00000020: 68f3 b73b 145a 85bb
0.0030922962 -0.0028570439 0.0021275862 0.0093816 0.009255231 5.1183662e-05 -0.0024921575 0.0072750878
0.005613733 -0.004069576

exp_avg_sq f4 [10]
00000000: 7c2a 3d37 73f0 ab36 f1aa e736 634c c437
00000010: 3896 4537 afe6 ce37 1fd5 3537 8382 b637
00000020: 6845 9737 7705 4737
1.12751695e-05 5.124189e-06 6.9042367e-06 2.3400591e-05 1.1777091e-05 2.4664534e-05 1.0838062e-05 2.1756865e-05
1.8032923e-05 1.1862597e-05

exp_avg f4 [5, 10]
00000000: b3e7 5d3a 6a91 3dbc 144f 87bb 12fc 653b
00000010: 820e 42b8 ebd0 503a 70d4 133c 2145 5b3b
00000020: 3bab 4dbb ad19 2839 0642 a73b 0755 eeba
00000030: 5697 94ba 2902 8f3b 7cc5 7c3a c56d 623b
00000040: 534b 8fba 7858 a13b 9bb2 79b9 2f54 fbb7
00000050: 8143 3e3b 120d da3a 8b22 ef3a 503a d53a
00000060: 8a98 2d3b fbea 8f3a 9015 20bb 9b0a 11ba
00000070: 4c6a dc3a a79f 2b39 b122 8d3b aa67 dfba
00000080: e317 023b ebba ff3a b025 fd3b 6acc 1a3c
00000090: 3b2d 733b 651b c13b d71d 68ba 0965 02bc
000000a0: f15c c9bb df6b 8abb 242a f5bb 8b51 01ba
000000b0: ae43 9cbb bc4c 09bb 8aad e13b 0ce7 34bb
000000c0: d431 cb3a 1b46 393a
0.0008465007 -0.011570314 -0.0041293 0.0035092873 -4.6266716e-05 0.00079657015 0.009022817 0.0033457952
-0.003138258 0.00016031293 0.005104306 -0.0018183299 -0.0011336606 0.004364271 0.00096424646 0.003455029
-0.0010932483 0.0049238764 -0.00023813026 -2.9960733e-05 0.0029031935 0.0016635975 0.0018244548 0.0016267989
0.0026488625 0.0010980064 -0.0024426915 -0.00055328914 0.0016816347 0.00016367306 0.004307114 -0.0017044444
0.0019850663 0.0019510662 0.00772544 0.00944815 0.0037105817 0.0058931583 -0.0008854544 -0.007958659
-0.0061451127 -0.004224285 -0.00748183 -0.00049331103 -0.0047688102 -0.0020950278 0.0068871425 -0.0027603535
0.0015502521 0.00070676365

exp_avg_sq f4 [5, 10]
00000000: 2cba 5f36 7e88 9537 bcae 6636 24d1 8435
00000010: 6954 0236 4c96 cf35 7848 8737 a40c 2f36
00000020: 8f07 1c36 d2c4 6036 2cd6 5137 59de f736
00000030: d306 4636 7be9 c536 186a 9f35 b0f7 8436
00000040: a31c 7437 c0b8 a036 f5c0 1536 51f9 1737
00000050: a90d 8838 5cb2 7b38 e6d0 0237 48b6 5137
00000060: 0bfb b736 7071 6b37 11a4 b238 a5d9 1e37
00000070: c09c 0737 1e5f 6438 758e 3137 2377 9637
00000080: 1961 1c37 95a8 e336 7bea a336 ada2 8d37
00000090: 7030 ea37 d240 2637 96f0 1237 3b1e a237
000000a0: f8aa 2937 4f96 bb37 f9f7 6137 7e40 0c37
000000b0: 4964 cf36 d9f8 0c36 f7d0 0338 68da ab36
000000c0: bcce 8636 9432 0437
3.3337956e-06 1.7825743e-05 3.437438e-06 9.895634e-07 1.9420643e-06 1.5466444e-06 1.6127e-05 2.608439e-06
2.3250211e-06 3.3493166e-06 1.25072365e-05 7.3870583e-06 2.9508271e-06 5.898238e-06 1.18773e-06 3.962741e-06
1.4550201e-05 4.7898793e-06 2.2315046e-06 9.05835e-06 6.48753e-05 6.0009173e-05 7.797242e-06 1.2499811e-05
5.4830502e-06 1.4033503e-05 8.518261e-05 9.468208e-06 8.083123e-06 5.444802e-05 1.05831905e-05 1.793687e-05
9.320932e-06 6.7847527e-06 4.8850757e-06 1.6884262e-05 2.791753e-05 9.909463e-06 8.758294e-06 1.9325982e-05
1.0112992e-05 2.236213e-05 1.3468781e-05 8.359666e-06 6.1807555e-06 2.1006474e-06 3.1427448e-05 5.121623e-06
4.0175782e-06 7.879589e-06

exp_avg f4 [5]
00000000: 3e97 bd3c 8853 7c3b 3b32 f0bb b75e 4abc
00000010: e197 c43c
0.023143407 0.0038501937 -0.0073302067 -0.012351683 0.023998203

exp_avg_sq f4 [5]
00000000: fbe4 8438 0f3a 4238 cc7d 4839 8170 f638
00000010: 7f1b 3439
6.3369014e-05 4.6307276e-05 0.0001912035 0.000117511496 0.00017176381

exp_avg f4 [31, 5]
00000000: a82a 9f3c b47b 8f3c b8b5 a1bb a3aa 89bc
00000010: 4e2d a33c d0d5 843c 243f bb3b fe5b fdbb
00000020: 681f f5bb 103c 203c f444 ba3c 7dad b13c
00000030: f427 b4bb 600c a4bc 79ca c03c cdc3 633c
00000040: 201d 663c 8437 4bbb 5039 4dbc 4a9c 6e3c
00000050: 93be 90bb 4a27 803a 4f5f 643b 1861 8e3b
00000060: 6434 d1bb 643b f13a 2441 a03b 3cee a73a
00000070: bccd c1bb 5ff1 ea3b 1c2e 7b3c a619 033c
00000080: 2100 d7bb 3e9b 3dbc e685 623c cbed 003c
00000090: b363 f13b 7b7c a5ba a685 d5bb d971 043c
000000a0: 0709 053c 6fc1 4e3c bb03 f6ba dac4 0fbc
000000b0: fb0d e43b 89f4 aebb 7ccc e2bb 2892 243a
000000c0: 42ea 8b3b 712f babb b47d 6b3c c738 623c
000000d0: 4edc 77bb 45f3 37bc 0e6f 553c 9031 463c
000000e0: fa1f 673c fd8f 90ba 5071 09bc a6c8 293c
000000f0: 6c75 7c3c 47f4 883c 8f6b 37bb 21e6 69bc
00000100: 8193 8f3c 6c28 7a3c 77b5 5e3c acf2 89bb
00000110: a9f1 3dbc 9e38 613c fefb a5bb 2ff9 ecbb
00000120: f155 c2ba 89c8 f73b 0c37 44bc 7054 2dbc
00000130: 1957 54bc 8b7d 4ab9 ad37 513b c6bc b3bb
00000140: ce33 a1bb 61b5 9aba 46ec 713a afad 5fbb
00000150: 1417 0d3b 782c 91bb f3f9 2abb cbdc 2c3a
00000160: 16fa 02ba 0d60 05bb 4351 bc3b 5e8d 4f3a
00000170: b1bb 59bb 885d b738 3c31 54ba 8f2c 383b
00000180: 0245 5d3b 357a e2ba 7b97 ffbb b697 043c
00000190: bb46 443c 6517 563c 1d10 00bb a3de 38bc
000001a0: e43a 653c ce2e 9d3c 2f3d 623c a5d0 d3bb
000001b0: a1c7 47bc a4ba 7c3c 5f12 a53c 77e5 683c
000001c0: 0b22 e7bb 76de 75bc fc3d 923c c75b a23c
000001d0: ceec b43c 870e 82bb 9442 98bc 6bb4 b13c
000001e0: f27a 2b3a fd42 1c3c a295 3c3b 3980 53bb
000001f0: 104e 1b3b 0225 a93a 7351 afbb abac 4fbb
00000200: 5609 23bb bd48 613b 3696 db3b e2ce 643b
00000210: a06d 76bb 936c 25bc 6f48 413c 3fdd 723b
00000220: d97f bc3b 33c5 b6b8 18ff d7bb 8aee f43b
00000230: a0ab a13b a107 203c eff0 aa39 a341 ccbb
00000240: d05b df3b e2c6 f93a 536c 8e3a 06f4 a2ba
00000250: ab13 ccbb 88e8 063c 14ff 13bd 3d00 3cbb
00000260: fea1 a93c fdd8 e33b 8bdc 1ebc
0.01942952 0.017515041 -0.0049349926 -0.016804999 0.019919064 0.016215235 0.005714314 -0.0077319136
-0.0074805506 0.009779945 0.022737958 0.021689171 -0.005497927 -0.020025432 0.023534046 0.013901663
0.01404503 -0.0031008432 -0.012525871 0.014563629 -0.0044172495 0.0009777334 0.0034846847 0.0043450706
-0.0063844193 0.0018404541 0.004890578 0.0012812088 -0.005914418 0.007169887 0.015330818 0.0080017205
-0.0065612947 -0.011572657 0.013825869 0.007869194 0.0073666214 -0.0012625599 -0.0065161763 0.008083784
0.008119828 0.01261936 -0.0018769422 -0.00877496 0.0069596744 -0.0053392095 -0.006921349 0.00062778825
0.004269869 -0.005681925 0.014373232 0.013807482 -0.003782052 -0.011227434 0.013026966 0.012096778
0.014106745 -0.001102924 -0.008388832 0.01036278 0.015408855 0.016718043 -0.0027987694 -0.014276058
0.01752639 0.015268426 0.013593069 -0.004209837 -0.011593261 0.013746409 -0.00506544 -0.0072318534
-0.0014826638 0.0075617475 -0.011976015 -0.0105792135 -0.012960219 -0.0001931099 0.0031924054 -0.00548515
-0.0049195057 -0.0011803323 0.0009228628 -0.0034130623 0.0021528648 -0.00443035 -0.0026088923 0.000659418
-0.0004996372 -0.002035144 0.005746992 0.00079174887 -0.0033223445 8.7435415e-05 -0.00080944947 0.002810273
0.0033763056 -0.0017278852 -0.0078000403 0.008092811 0.011979754 0.013067101 -0.0019540854 -0.0112835495
0.013991091 0.019187357 0.013808533 -0.0064640814 -0.012193591 0.015425358 0.020150362 0.014214865
-0.007053619 -0.015006652 0.017851822 0.019819153 0.022085574 -0.003969017 -0.018586434 0.021692475
0.00065414526 0.009537456 0.0028775712 -0.0032272472 0.0023697652 0.0012904706 -0.0053502857 -0.0031688611
-0.002487739 0.003437563 0.006701256 0.003491335 -0.0037601963 -0.010096687 0.011797055 0.0037058142
0.0057525453 -8.7151675e-05 -0.006591689 0.007474725 0.0049337894 0.009767444 0.00032604436 -0.0062334104
0.006816365 0.0019056464 0.0010866023 -0.0012432344 -0.0062279305 0.008234151 -0.036131933 -0.0028686665
0.020707127 0.0069533573 -0.009696136

exp_avg_sq f4 [31, 5]
00000000: 529c 3538 f291 f038 cdbd d936 e8ee 9338
00000010: a2bd 8e38 33e2 2138 a393 2938 724e 8b36
00000020: 9f90 0a38 79aa f637 11f0 5c38 c097 0f39
00000030: d3a0 fb36 1500 b238 1a67 ac38 049c db37
00000040: 43e9 c638 386a b636 6b7d 6838 5f1a 4d38
00000050: e47b b936 f8de 8b37 c41e 2d36 5a03 3737
00000060: 5032 3237 6fdb 1237 f186 cc37 468a 9236
00000070: 4058 aa37 688e 8d37 3499 dd37 9b48 5838
00000080: d539 b636 f605 3238 9ef4 1538 3742 7c37
00000090: bec7 6238 4ca5 9a36 3941 1538 50e6 fb37
000000a0: 89ab 5237 f470 4338 6c7a 8a36 3cfc d837
000000b0: 5d21 9837 2db6 0737 af6c a437 ce94 fb35
000000c0: 7075 1337 bfa5 2937 591b a837 a277 c038
000000d0: e308 0237 73b5 5738 e279 2138 a53d a337
000000e0: 17d7 4e38 69ee a636 cf0a cc37 4cd1 a837
000000f0: 3e72 b837 0cc4 e538 97fb 3537 314d 7f38
00000100: faa3 5f38 70a0 a337 d49e b138 eeaa f036
00000110: bc71 4938 2493 1c38 6033 3837 58ce a337
00000120: 4d46 9c35 2dac 3137 b3c5 c637 c426 9237
00000130: 94d2 e137 cb14 6936 5fe1 d936 430b df36
00000140: 4df5 2c37 7dbe 5537 0504 0236 787d f236
00000150: 3649 d736 578d 5d37 94a5 5537 1f20 d836
00000160: 7a26 0f37 8b9a 0237 6b3d 2b37 5bb4 be36
00000170: 9537 5c36 c159 fc36 df3b 5237 fcb0 0137
00000180: 2e71 8a37 3352 5236 8f3a 4937 f256 2137
00000190: 79cf d637 a83c c738 ef9a a336 3353 6c38
000001a0: 9e03 5b38 8105 5d38 af30 9038 7e6a 7636
000001b0: c403 5638 1d51 3a38 4ccf 3738 17d4 db38
000001c0: fff1 e636 951f 8c38 b22f 8238 251c 2738
000001d0: 8aed 1539 be8b dc36 b921 b438 68f4 a038
000001e0: e2e4 6436 e005 d037 7cc2 d035 9c3e 3237
000001f0: 38d1 c836 4538 ef36 668d 5037 fe60 f535
00000200: a231 1237 a8ba 0a37 97f2 7037 30c4 f837
00000210: 34cc 2836 82c9 e937 1279 d137 7869 3137
00000220: 2398 2638 6831 2536 a919 f037 0a6b ce37
00000230: 306b 4137 7785 fa37 df46 ea35 81f2 9837
00000240: 00f7 8c37 695c 9336 53b9 8137 cd33 6835
00000250: 143e 2837 8fe5 3537 c9fd 2339 584c 0b38
00000260: b5c9 f737 c54c c337 63db 8537
4.3299347e-05 0.00011471276 6.4891997e-06 7.054006e-05 6.8064095e-05 3.8596056e-05 4.0430237e-05 4.151655e-06
3.3036453e-05 2.9404868e-05 5.2675667e-05 0.00013694074 7.4991053e-06 8.487717e-05 8.220803e-05 2.6179485e-05
9.484824e-05 5.436388e-06 5.5429915e-05 4.890037e-05 5.5278524e-06 1.667392e-05 2.5796917e-06 1.090843e-05
1.0621341e-05 8.753369e-06 2.4381532e-05 4.367236e-06 2.0306674e-05 1.6874823e-05 2.6416594e-05 5.1566032e-05
5.430755e-06 4.244406e-05 3.5752186e-05 1.5035787e-05 5.4068623e-05 4.6088007e-06 3.558511e-05 3.002878e-05
1.2556914e-05 4.659682e-05 4.1269723e-06 2.5866662e-05 1.8135348e-05 8.089043e-06 1.9600933e-05 1.8744265e-06
8.789226e-06 1.0111776e-05 2.0039895e-05 9.177557e-05 7.750673e-06 5.1428982e-05 3.8498903e-05 1.945982e-05
4.9314545e-05 4.97494e-06 2.4323728e-05 2.0124622e-05 2.1987707e-05 0.000109560875 1.08470185e-05 6.0868628e-05
5.332006e-05 1.9505824e-05 8.469602e-05 7.172456e-06 4.8028058e-05 3.7330334e-05 1.0979216e-05 1.95272e-05
1.1643366e-06 1.059011e-05 2.36955e-05 1.7422608e-05 2.6920148e-05 3.4731809e-06 6.4933406e-06 6.647229e-06
1.0309112e-05 1.2740141e-05 1.937385e-06 7.2267685e-06 6.416022e-06 1.3205535e-05 1.2734341e-05 6.441041e-06
8.532423e-06 7.784586e-06 1.0206694e-05 5.6834374e-06 3.2814908e-06 7.520634e-06 1.2530915e-05 7.730207e-06
1.6503585e-05 3.1340285e-06 1.1994168e-05 9.616591e-06 2.56074e-05 9.5003576e-05 4.875815e-06 5.634427e-05
5.2217038e-05 5.2695632e-05 6.875523e-05 3.6718843e-06 5.1025083e-05 4.44214e-05 4.382366e-05 0.000104822386
6.882706e-06 6.681603e-05 6.207767e-05 3.9842114e-05 0.00014298238 6.572779e-06 8.58935e-05 7.674919e-05
3.4107875e-06 2.4798268e-05 1.555381e-06 1.0624204e-05 5.9848207e-06 7.1293057e-06 1.2430688e-05 1.8282151e-06
8.713834e-06 8.2689e-06 1.4361597e-05 2.965526e-05 2.5152813e-06 2.7869599e-05 2.497112e-05 1.05745785e-05
3.9719172e-05 2.4615674e-06 2.8622178e-05 2.4606958e-05 1.1528653e-05 2.9864472e-05 1.7454985e-06 1.8232737e-05
1.6804319e-05 4.3916993e-06 1.5464297e-05 8.6502115e-07 1.0028034e-05 1.0841889e-05 0.00015639434 3.3211283e-05
2.9538622e-05 2.328156e-05 1.5956995e-05

exp_avg f4 [31]
00000000: 2a7d 86bd d8a4 17bd 60ef 9fbd 0402 49bd
00000010: 4345 303c c969 85bc 7cba 2bbd ab5e dbbc
00000020: ff89 04bd fd84 a73c 73c2 3ebd b7f0 29bd
00000030: d664 65bd b47a 45bd 2ae8 e93c e88d 033d
00000040: 89d1 893b e131 163c b498 cebb 9606 83bc
00000050: bbc5 36bd bb52 62bd 8457 75bd 87bc 93bd
00000060: 7bad 67bc b236 32b9 a0f1 cdbc 192d a4bc
00000070: 0082 c6bc 863a 42bc d86d 5f3d
-0.06566842 -0.03702244 -0.07809329 -0.049074188 0.010758701 -0.016285794 -0.041925892 -0.02677854
-0.032358166 0.020449156 -0.04657216 -0.04148933 -0.056004368 -0.048212722 0.028553087 0.032117754
0.0042058867 0.0091671655 -0.0063048247 -0.015994351 -0.044622164 -0.05525468 -0.059897915 -0.07213693
-0.014140482 -0.00016995778 -0.02513963 -0.020041035 -0.02423191 -0.011854773 0.054548115

exp_avg_sq f4 [31]
00000000: 1dc4 863a e4df f339 fd70 a13a 272a 483a
00000010: 3dba c538 d43f 6739 af79 073a 0093 e739
00000020: b38f 9b39 30e8 1439 7654 233a 62f1 b239
00000030: 3a5d 473a aefd 1a3a b740 6439 f3b4 3939
00000040: 48c0 de38 b3ca d438 6f69 c738 fc38 0239
00000050: 51ca 4b3a ff10 463a 4133 7c3a 9220 963a
00000060: 0466 e038 b2c6 ed38 54b2 a039 90f7 b939
00000070: 5ea5 7339 a3df d438 57f8 373a
0.0010281835 0.00046515383 0.0012316998 0.0007635676 9.4283816e-05 0.00022053655 0.00051679736 0.00044169277
0.00029670968 0.00014200876 0.0006230542 0.0003413065 0.00076051394 0.0005912435 0.00021767883 0.00017710384
0.000106216 0.000101467034 9.508698e-05 0.00012418994 0.0007773983 0.0007555633 0.00096206745 0.0011453799
0.00010700154 0.000113380505 0.00030650443 0.00035470398 0.0002323589 0.00010150603 0.00070179015
