Cancer-senn/trial6/models/cancer/grad3_Hinput_Thdummy_Reg1e-02_LR0.001/model_best.pth.tar (torch_old, 26436 bytes, 34 tensors)

parametrizer.linear1.weight f4 [10, 30]
0	0x3daf862c	0.08570513
1	0x3daadfcf	0.08343469
2	0x3d11879e	0.035529725
3	0x3e276a78	0.16349208
4	0x3d3b06c5	0.045660753
5	0x3d827a2f	0.06370961
6	0xbe0f5fd7	-0.14001404
7	0xbe043bd5	-0.12913449
8	0xbdf320dc	-0.11871502
9	0x3cafb9e5	0.021450946
10	0x3dbe739e	0.09299396
11	0xbd03d61b	-0.03218661
12	0xbe10048f	-0.14064239
13	0x3dd931e3	0.10605218
14	0xbd921e17	-0.071346454
15	0xbc701b38	-0.014654927
16	0xbde0f1e0	-0.10983634
17	0xbd3c318b	-0.045945685
18	0x3b90f70c	0.0044239815
19	0x3cb4cc47	0.022070063
20	0xbd8e4ad0	-0.06947863
21	0x3d7eb5cc	0.062185094
22	0x3d910125	0.070802964
23	0x3de949cf	0.11391031
24	0xbbf18787	-0.0073708924
25	0x3e0ac120	0.13550234
26	0xbbf8f612	-0.0075976932
27	0x3e234b66	0.15946731
28	0x3b2f7dac	0.0026777787
29	0x3d10546f	0.035236772
30	0x3df69185	0.120394744
31	0xbde61064	-0.11233595
32	0xbda51c70	-0.08062065
33	0x3d876971	0.06611908
34	0xbc01d277	-0.007923714
35	0x3d489d77	0.048978295
36	0x3e2ef903	0.17087178
37	0x3de9ba67	0.114125066
38	0xbe04a3f7	-0.12953173
39	0xbe026341	-0.12733175
40	0x3d674c9f	0.056469556
41	0x3e41d914	0.18930465
42	0xbd8c4773	-0.06849565
43	0x3cc57252	0.024102364
44	0x3e25237a	0.16126814
45	0xbdf61365	-0.12015418
46	0x3d90835a	0.07056303
47	0xbcd88006	-0.026428234
48	0xbe14f17a	-0.14545241
49	0xbbce68d0	-0.0062991157
50	0xbdd20279	-0.10254378
51	0x3e56b1d5	0.20966275
52	0xbded392e	-0.11583172
53	0xbdb3c705	-0.08778194
54	0xbe571bca	-0.21006694
55	0xbcc6093e	-0.024174329
56	0x3e21c67c	0.15798372
57	0x3d35fb14	0.0444289
58	0x3d221e51	0.039579693
59	0x3daf390b	0.08555802
60	0x3e421907	0.1895486
61	0x3dc7fdb6	0.097651884
62	0x3e03926f	0.12848829
63	0xbda8d3dc	-0.08243534
64	0x3e0534a6	0.13008365
65	0x3c987c28	0.01861389
66	0xbd056cd6	-0.032574497
67	0x3d3944df	0.045231696
68	0xbe20bf23	-0.15697913
69	0x3d83172b	0.06400903
70	0x3e3a6784	0.1820355
71	0x3deabb81	0.11461545
72	0x3e1889c6	0.14896306
73	0xbcdf0074	-0.027221896
74	0xbddb2bce	-0.107017145
75	0xbdbd3469	-0.09238512
76	0xbc4a1e4b	-0.012336324
77	0xbda90cd9	-0.082544036
78	0x3e26402c	0.16235417
79	0x3e176362	0.14784005
80	0xbdffed98	-0.12496489
81	0x3c922603	0.017840391
82	0xbdcfdc53	-0.101494454
83	0xbdd4547d	-0.10367677
84	0x3e193d5e	0.14964816
85	0x3dfddff0	0.12396228
86	0xbe2be92d	-0.16788168
87	0x3d1e89d8	0.038705677
88	0xbe4e9ac8	-0.20176232
89	0xbe127a40	-0.14304447
90	0x3d65e0f9	0.056122754
91	0x3d481ba1	0.048854474
92	0x3d929998	0.07158202
93	0x3d167b50	0.036738694
94	0xbe30e1f1	-0.1727369
95	0xbe189687	-0.14901172
96	0xbde29264	-0.11063078
97	0x3e4a2187	0.19739352
98	0x3ae87df1	0.0017737729
99	0xbe0353d8	-0.12824953
100	0x3e229119	0.15875663
101	0xbd07104e	-0.032974534
102	0x3d439e4a	0.047758378
103	0xbdc2bb96	-0.095084354
104	0x3d75f3ed	0.06004708
105	0x3d9ff4e0	0.07810378
106	0xbd041cdc	-0.032254085
107	0x3c214b19	0.009844565
108	0xbd24067b	-0.040045243
109	0x3e364364	0.17799145
110	0xbd357b49	-0.044307027
111	0xbdece86d	-0.11567769
112	0x3ccdd086	0.025123846
113	0x3e1eedf4	0.1552046
114	0xbce7523d	-0.028237456
115	0xbe12a3d9	-0.14320315
116	0x3cec6176	0.028855067
117	0xbd8fbdf1	-0.0701865
118	0xbdf5f43c	-0.12009475
119	0x3deb6e79	0.1149568
120	0xbd50d455	-0.050983746
121	0x3d35364e	0.044241242
122	0xbd41bf2e	-0.047301464
123	0x3cc9b972	0.02462456
124	0xbe2eec2b	-0.17082278
125	0x3cff6f6c	0.03118106
126	0x3cc37a80	0.023862123
127	0x3c6c8fb3	0.014438557
128	0x3cbc28d7	0.022968693
129	0x3d8f5b8a	0.069998816
130	0x3c60c39f	0.013718515
131	0xbd486363	-0.048922908
132	0xbdb4fff2	-0.0883788
133	0x3dcf3fd8	0.10119599
134	0xbe0ccab5	-0.13749202
135	0xbc0dc75f	-0.008653491
136	0xbd11e45d	-0.035618175
137	0xbd89d8f1	-0.067308314
138	0xbe103a2f	-0.14084695
139	0x3d12db61	0.035853747
140	0x3e025b29	0.12730087
141	0x3d85dbde	0.06536077
142	0xbd71b83e	-0.059013598
143	0xbdb07ea6	-0.08617906
144	0x3e0c26ae	0.1368663
145	0xbe527314	-0.20551711
146	0x3d22ed28	0.03977695
147	0xbe2e3281	-0.17011453
148	0xbd92f000	-0.071746826
149	0xbde5d4dc	-0.1122224
150	0x3dbb5eed	0.09148965
151	0x3c1d76ef	0.0096108755
152	0xbe5feda0	-0.2186799
153	0xbe580805	-0.21096809
154	0xbdf4f848	-0.119614184
155	0xbb42c9ec	-0.0029722406
156	0xbe1bb88c	-0.15207118
157	0x3c78d41d	0.0151872905
158	0xbb42cdd6	-0.0029724739
159	0x3d96ac64	0.073571
160	0xbcee7323	-0.029107636
161	0xbd84585a	-0.06462164
162	0x3c5a02cd	0.013306332
163	0xbc9d6763	-0.019214338
164	0x3da6052a	0.08106454
165	0xbd9e63e9	-0.077339
166	0x3d80d462	0.06290509
167	0x3d879b39	0.06621403
168	0xbdf4539e	-0.11930011
169	0x3dabfe7c	0.083981484
170	0x3c9bf32b	0.01903685
171	0xbd1550d7	-0.036454048
172	0xbe07ffbc	-0.13281149
173	0xbe2449c2	-0.16043761
174	0x3d27d3c2	0.040973432
175	0xbd8f4e3b	-0.06997343
176	0x3d78ba13	0.06072433
177	0xbcd7f009	-0.026359575
178	0xbe298440	-0.16554356
179	0xbd39a648	-0.045324594
180	0x3dddda9d	0.10832713
181	0x3e2d360a	0.16915146
182	0xbc67b947	-0.014143295
183	0x3de0ec21	0.10982538
184	0x3d2b95b2	0.041890807
185	0xbe214236	-0.15747914
186	0x3d2c6712	0.042090483
187	0x3e40a013	0.18811063
188	0xbdf5b4d5	-0.119973816
189	0xbd2a66af	-0.041601833
190	0xbdf29bc5	-0.11846117
191	0xbb9e57b8	-0.0048322342
192	0x3e21282c	0.1573798
193	0xbe021406	-0.12702951
194	0x3e4a9e4b	0.19786946
195	0xbcab837e	-0.020936724
196	0x3e09fde3	0.13475756
197	0x3ccfd80c	0.025371574
198	0xbd7fef6e	-0.062484197
199	0xbde17ec0	-0.11010504
200	0xbdb58a97	-0.088643245
201	0xbe0cd5ed	-0.13753481
202	0x3e07d032	0.13263014
203	0xbd8fe4b7	-0.07026046
204	0xbde21cff	-0.11040687
205	0xbe24fed5	-0.16112836
206	0xbe3dbbfa	-0.18528739
207	0xbe3a2931	-0.18179776
208	0x3e1d273b	0.15346996
209	0x3e4cb590	0.19991136
210	0x3e206791	0.15664507
211	0xbc3dce67	-0.011584855
212	0x3e279866	0.16366729
213	0xbd271db0	-0.040799797
214	0xbd87bfd3	-0.066283844
215	0x3e16e50e	0.14735815
216	0xbd8e6813	-0.06953444
217	0xbe224dcc	-0.1584999
218	0xbe20b4d7	-0.15693985
219	0xbd9fa465	-0.07795028
220	0x3d99a6c6	0.07502513
221	0x3d0aa02c	0.033844158
222	0xbe16f13c	-0.14740461
223	0x3d1fbdb9	0.038999293
224	0x3c5f3197	0.013622663
225	0x3e0c9cb8	0.13731658
226	0x3d420c13	0.047374796
227	0x3d2fc0f5	0.042908628
228	0x3d83db6e	0.06438337
229	0x3e05a2bf	0.13050364
230	0xbde68ae3	-0.11256959
231	0xbb9eb1c0	-0.004842967
232	0xbbd7953d	-0.00657907
233	0x3d043eae	0.03228634
234	0xbc1606c7	-0.009156889
235	0x3dc20d9e	0.094752535
236	0xbd02ef15	-0.031966288
237	0xbd192acb	-0.037394326
238	0xbc304e4f	-0.010760858
239	0x3db1633a	0.08661504
240	0x3cb217ed	0.021739924
241	0xbe4de5e8	-0.20107234
242	0x3ba76069	0.0051079285
243	0xbdb8a2de	-0.090154395
244	0x3dea5453	0.11441865
245	0x3e21f2f1	0.15815331
246	0xbe18c636	-0.14919361
247	0xbe300644	-0.1718989
248	0xbdf2266a	-0.11823733
249	0xbe023a25	-0.12717493
250	0xbe4cabbb	-0.19987385
251	0x3d2b19cc	0.04177265
252	0x3d7a1b3e	0.061061136
253	0xbe541946	-0.20712766
254	0x3d72e388	0.059299022
255	0x3defe0bd	0.11712787

parametrizer.linear1.bias f4 [10]
0	0xbc074891	-0.008257047
1	0x3bd12a5e	0.0063832244
2	0x3d84ae1e	0.06478523
3	0xbe091e2c	-0.13390416
4	0x3dd8f1e6	0.105930135
5	0x3e6a473b	0.22878735
6	0x3e38bcf4	0.1804083
7	0x3dc410c9	0.09573514
8	0x3df1a642	0.11799289
9	0x3d863e03	0.065547965

parametrizer.linear2.weight f4 [10, 10]
0	0xbd74b6cf	-0.059744652
1	0x3e8ba64d	0.27275315
2	0xbe5692a8	-0.20954382
3	0x3e9b716b	0.3035997
4	0x3e74bc4e	0.23899958
5	0xbe8efb6d	-0.27926198
6	0x3d866760	0.06562686
7	0xbe36767f	-0.1781864
8	0xbe9a3614	-0.30119383
9	0xbe846ac4	-0.25862706
10	0xbe0665ad	-0.13124724
11	0x3e32d6c6	0.17464742
12	0xbe1bc96b	-0.15213554
13	0xbe9a81f2	-0.30177265
14	0x3dfe0476	0.124031946
15	0x3c53fc9f	0.0129386475
16	0x3e209347	0.15681182
17	0x3e167933	0.14694671
18	0xbe9a9577	-0.30192158
19	0x3d2216c4	0.039572492
20	0x3ea126fb	0.31475052
21	0xbdb864a0	-0.09003568
22	0xbd301230	-0.042986095
23	0xbc0f397e	-0.008741735
24	0x3dfb2478	0.12262815
25	0x3e8a2a03	0.26985177
26	0x3d4a5adc	0.049403057
27	0xbd9d2b65	-0.076742925
28	0x3c426485	0.011864786
29	0x3e46017e	0.19336507
30	0x3dbf04ee	0.09327112
31	0xbd8cd983	-0.068774246
32	0xbe0b66d6	-0.13613448
33	0xbe688a4a	-0.22709003
34	0xbc73cbe2	-0.014880152
35	0xbe0c7f58	-0.13720453
36	0xbd04003d	-0.03222679
37	0xbdb00425	-0.085945405
38	0x3e17c2ee	0.14820454
39	0xbd4d797b	-0.05016468
40	0x3e122fb5	0.14276011
41	0xbe951a20	-0.29121494
42	0xbd1d9d9d	-0.03848039
43	0xbd895e68	-0.0670746
44	0xbce8a214	-0.028397597
45	0x3e85ea77	0.26155445
46	0x3c724153	0.014786082
47	0x3e5a0c8d	0.2129385
48	0x3e1c1093	0.15240698
49	0x3e9564ea	0.29178554
50	0xbd55299f	-0.052041646
51	0x3e08583f	0.13314913
52	0xbe3fb55e	-0.1872153
53	0xbe94440e	-0.28958172
54	0xbe3d0e72	-0.18462542
55	0xbd7a85ac	-0.061162636
56	0xbe04bc8b	-0.12962548
57	0x3dca69e0	0.09883475
58	0x3ea785fc	0.3271941
59	0x3e56c6dd	0.20974298
60	0x3e469498	0.19392622
61	0x3c9823cc	0.018571757
62	0xbc3d34ae	-0.011548204
63	0xbe1425a2	-0.14467481
64	0x3e7d9866	0.24765167
65	0x3dc457c3	0.09587052
66	0xbd8596d0	-0.06522906
67	0xbd23759f	-0.039907094
68	0xbe084e13	-0.13311033
69	0x3c628cb9	0.013827496
70	0x3e41b688	0.18917286
71	0x3e2b3551	0.16719557
72	0x3eaaf323	0.33388624
73	0x3e6fcd34	0.23418123
74	0x3e8de159	0.2771099
75	0x3e2cc46d	0.16871805
76	0x3e67eb8c	0.22648448
77	0xbe7c5bcc	-0.24644393
78	0x3e064fba	0.13116351
79	0x3d6b0417	0.057376947
80	0x3e5a517e	0.2132015
81	0xbd915005	-0.07095341
82	0x3e187d3e	0.14891526
83	0xbdae49b8	-0.085101545
84	0x3e40cd65	0.18828352
85	0x3e3281ac	0.17432278
86	0xbddcde03	-0.10784533
87	0xbe57a7ef	-0.21060155
88	0x3e5ba8ba	0.21451083
89	0x3dc8eadc	0.09810421
90	0xbe49f18e	-0.19721052
91	0xbd327772	-0.043570943
92	0xbe411716	-0.18856463
93	0xbe31a989	-0.17349829
94	0x3e182ebb	0.14861576
95	0xbe3ac447	-0.18238936
96	0xbea193e2	-0.31558138
97	0x3d1f1dbb	0.038846713
98	0xbd8b6d5d	-0.06807969
99	0x3e134bba	0.14384356

parametrizer.linear2.bias f4 [10]
0	0xbe030106	-0.12793359
1	0xbe2ac58e	-0.16676924
2	0xbd36f2ba	-0.044665076
3	0x3e7cb03f	0.24676608
4	0xbe46788a	-0.1938192
5	0x3e40eedc	0.18841118
6	0xbe9a8d42	-0.30185896
7	0x3ea4ff0d	0.32225838
8	0x3e310950	0.17288709
9	0xbe89bb5e	-0.26900762

parametrizer.linear3.weight f4 [5, 10]
0	0xbe6e29df	-0.2325816
1	0xbe474f11	-0.19463755
2	0x3daff3e5	0.08591441
3	0x3de1e749	0.11030442
4	0xbc7c79c7	-0.015409893
5	0x3d5a719a	0.053330995
6	0xba87467c	-0.0010320689
7	0xbe95f8a2	-0.29291254
8	0x3d774b71	0.06037468
9	0x3eac0c73	0.33603248
10	0xbb9d01d4	-0.0047914777
11	0xbe08d0eb	-0.13360946
12	0xbe594a8a	-0.2121984
13	0x3e8be502	0.27323157
14	0x3e4fddea	0.20299497
15	0x3d251130	0.040299594
16	0x3e145820	0.14486742
17	0x3e74baaa	0.23899332
18	0x3e6014a3	0.21882872
19	0xbe8c5c47	-0.27414152
20	0x3e30d4ed	0.17268725
21	0xbe6223e4	-0.22084004
22	0xbe08ffde	-0.13378856
23	0xbdaf62db	-0.08563777
24	0xbe55afe2	-0.20867875
25	0xbe4aae6e	-0.19793102
26	0x3e14a7a6	0.14517078
27	0x3d17f085	0.03709461
28	0x3d7ef074	0.062241033
29	0x3e901b5a	0.28145868
30	0x3e2d92c1	0.16950513
31	0xbdc7561d	-0.09733222
32	0xbc20e279	-0.00981962
33	0xbe8d569f	-0.2760515
34	0x3e313474	0.17305166
35	0x3e8254f0	0.25455427
36	0x3e930b57	0.2871959
37	0x3e644674	0.222925
38	0xbead4eb2	-0.33849102
39	0xbb7c4190	-0.0038491227
40	0x3c92bc1b	0.017911961
41	0xbde6b333	-0.11264648
42	0x3d2bd9c5	0.041955728
43	0x3d3818fd	0.044945706
44	0x3e59832a	0.21241441
45	0x3e832d90	0.256207
46	0x3e440bc4	0.19145113
47	0xbdf04e32	-0.117336646
48	0xbe9d501a	-0.30725175
49	0x3ac02e76	0.0014662284

parametrizer.linear3.bias f4 [5]
0	0xbe3c7a08	-0.18405926
1	0x3d87d954	0.06633249
2	0x3e7ce32c	0.24696034
3	0xbe86c48b	-0.26321825
4	0x3c8adddb	0.016951492

parametrizer.linear4.weight f4 [31, 5]
0	0xbef70370	-0.4824481
1	0x3ea63dfe	0.3246917
2	0x3ec5843a	0.38577443
3	0xbe0346cd	-0.12819977
4	0xbc50aafd	-0.012736079
5	0x3e236668	0.15957034
6	0xbe0cdf60	-0.13757086
7	0xbdc5aa08	-0.096515715
8	0xbecdb05f	-0.40173623
9	0xbe31ef2b	-0.17376392
10	0xbd080755	-0.033210117
11	0x3e7794be	0.24177834
12	0x3e686b81	0.2269726
13	0x3e57347f	0.2101612
14	0xbe3c5415	-0.1839145
15	0xbead01b6	-0.33790368
16	0xbe5d391b	-0.21603815
17	0xbea3c7f2	-0.31988484
18	0x3de13e31	0.1099819
19	0xbe863fbc	-0.262205
20	0xbd39cbb9	-0.0453603
21	0xbe9f2215	-0.3108069
22	0x3d925cdb	0.07146617
23	0xbe884e7f	-0.26622388
24	0xbe6745a8	-0.22585166
25	0xbe888a48	-0.26668
26	0x3d711930	0.05886191
27	0x3c95f795	0.018306533
28	0x3e9536d9	0.29143408
29	0x3d9e0791	0.07716287
30	0xbe4a0c08	-0.19731152
31	0x3e57c113	0.21069746
32	0x3e90e8bf	0.2830257
33	0xbed27333	-0.41103515
34	0x3e93ec8b	0.28891405
35	0x3df44bb1	0.119284995
36	0x3e7c8104	0.2465859
37	0xbe028917	-0.12747608
38	0xbdbceb74	-0.092245966
39	0xbe40b21f	-0.18817948
40	0xbec61e58	-0.38695025
41	0xbc435dbb	-0.011924203
42	0xbe309f26	-0.1724821
43	0x3e9e7feb	0.3095697
44	0xbeae5177	-0.34046528
45	0x3cd87c9c	0.026426606
46	0xbe99b130	-0.30017996
47	0x3e276855	0.16348393
48	0x3e94d2c6	0.29067057
49	0xbe2111ee	-0.15729496
50	0x3d7d0641	0.061773542
51	0x3eefe49c	0.46854103
52	0xbe15d679	-0.14632596
53	0x3e23f12c	0.16009969
54	0xbe847bb1	-0.2587562
55	0x3e9f6547	0.31131956
56	0x3eb2caa9	0.34920242
57	0x3d67046c	0.0564007
58	0x3e2bce5a	0.16777936
59	0x3e2a2c79	0.16618527
60	0xbeafe903	-0.3435746
61	0x3ef0d05f	0.47033975
62	0x3e1b40db	0.15161459
63	0xbe6dfe3d	-0.23241515
64	0x3ec02e3b	0.3753527
65	0x3d67223d	0.056429137
66	0xbddbdbea	-0.10735305
67	0x3e979ce5	0.2961189
68	0xbe3e1a16	-0.18564638
69	0xbdb3dc7a	-0.08782287
70	0xbda07524	-0.07834843
71	0x3ed77b7c	0.420864
72	0x3ecdadaf	0.40171573
73	0x3ef082c3	0.46974763
74	0x3e4a6737	0.19765936
75	0xbe2c24c6	-0.16810903
76	0xbea97e31	-0.3310409
77	0xbe8e9ba7	-0.27853128
78	0xbd464257	-0.04840311
79	0xbe3a4c3c	-0.18193144
80	0xbb761f16	-0.003755515
81	0x3ef71308	0.48256707
82	0x3e621919	0.22079886
83	0xbcfe4252	-0.031037483
84	0xbeaca7ef	-0.33721873
85	0xbec9a555	-0.3938395
86	0x3e0d6d70	0.13811278
87	0xbea28f55	-0.3174998
88	0xbeb3befa	-0.3510664
89	0x3e81592f	0.25263354
90	0x3e9f3993	0.31098613
91	0xbea560ea	-0.32300502
92	0xbe325806	-0.17416391
93	0x3ce35e76	0.027755003
94	0x3ec0ac74	0.3763157
95	0x3d86dcd8	0.06585091
96	0xbea02af8	-0.31282783
97	0x3e23d8b2	0.16000631
98	0xbe60f070	-0.2196672
99	0xbeae7522	-0.3407374
100	0x3db8afe2	0.09017922
101	0x3e5508b3	0.208041
102	0xbe7f6a20	-0.24942827
103	0xbe613dea	-0.21996275
104	0xbbec2ea7	-0.00720771
105	0xbe46ae4b	-0.19402425
106	0xbe898117	-0.268563
107	0x3dfd53ec	0.123695225
108	0xbe14262a	-0.14467683
109	0x3dc28d27	0.09499579
110	0xba6bd932	-0.0008996903
111	0xbe534067	-0.20630036
112	0xbe92da9e	-0.28682417
113	0xbeee54ba	-0.46549016
114	0xbeca2d4b	-0.3948768
115	0xbe466386	-0.19373903
116	0x3efcdd81	0.49387744
117	0x3da2c8ca	0.07948454
118	0x3e6be704	0.23037344
119	0x3e634277	0.22193323
120	0xbdbcf5a2	-0.09226538
121	0xbea046ab	-0.31303915
122	0x3e2eb275	0.17060263
123	0xbe64fed1	-0.2236283
124	0x3ecdb11b	0.40174183
125	0x3e988dba	0.2979563
126	0x3eecb196	0.46229237
127	0xbd04125e	-0.03224408
128	0xbee4922e	-0.44642776
129	0x3edf2e0b	0.43589815
130	0x3d5163a8	0.05112043
131	0x3c9c34d0	0.019068152
132	0xbe590e87	-0.21196948
133	0x3e4d19ee	0.20029423
134	0xbd9a86aa	-0.075452164
135	0x3e5ebb53	0.21751146
136	0x3eb1f070	0.34753752
137	0xbd86ee0d	-0.06588373
138	0x3db44b67	0.08803444
139	0xbc7e0622	-0.015504392
140	0xbeb9a136	-0.36255807
141	0xbe680a7e	-0.22660252
142	0x3decfb14	0.11571327
143	0x3e0a61c9	0.13513865
144	0x3e9f07f3	0.31060752
145	0x3edb8861	0.42877486
146	0xbbb012c4	-0.005373331
147	0xbe268b93	-0.16264181
148	0xbeef33a2	-0.4671908
149	0x3e34ab02	0.1764336
150	0x3d59a061	0.053131465
151	0xbe9dc42f	-0.3081374
152	0x3e8d190d	0.27558175
153	0xbd6d424e	-0.05792456
154	0xbe192891	-0.14956881

parametrizer.linear4.bias f4 [31]
0	0xbeb8a952	-0.3606668
1	0xbe4ef9fc	-0.20212549
2	0x3ec23504	0.37931073
3	0x3ec9b1db	0.39393505
4	0x3e90587c	0.28192508
5	0x3d52423d	0.0513327
6	0xbeb7ac9b	-0.35873875
7	0x3e45ff82	0.1933575
8	0xbe9fe780	-0.31231308
9	0xbeb9de1e	-0.36302274
10	0xbd0ab39f	-0.033862706
11	0xbe4dc463	-0.20094447
12	0x3ecb51a9	0.3971074
13	0xbe69764a	-0.2279903
14	0x3e88d000	0.2672119
15	0xbd2d5ea6	-0.042326592
16	0xbec5f994	-0.38666975
17	0x3db877ef	0.090072505
18	0xbda59e3b	-0.08086821
19	0x3e9c82a8	0.30568433
20	0x3ec9e13e	0.3942966
21	0x3ebeec51	0.3728967
22	0x3e923e5f	0.2856321
23	0x3e50023f	0.20313357
24	0x3ec7d4d5	0.39029565
25	0xbdbd41b1	-0.09241045
26	0xbebdb771	-0.37054017
27	0x3e52baf9	0.20579137
28	0x3ee42ee2	0.4456702
29	0x3eb0c621	0.3452616
30	0xbe8d7233	-0.2762619

exp_avg f4 [10, 30]
0	0x3a7d330b	0.000965879
1	0xb9025c1e	-0.00012432082
2	0x3a813bfb	0.0009859795
3	0x3ab3a706	0.0013706393
4	0xbb278d4a	-0.0025566393
5	0xbaf96b56	-0.0019029181
6	0x3ae81adf	0.0017708204
7	0x3ab48a79	0.0013774178
8	0x3ac5f53c	0.0015102993
9	0xbb5662bc	-0.003271266
10	0xba60c12f	-0.00085737085
11	0xbacb526d	-0.0015512236
12	0xbad84c0b	-0.0016502155
13	0x36122b4b	2.1780895e-06
14	0xbbbd4460	-0.005775973
15	0xbb3ed36d	-0.0029117719
16	0xba2176ce	-0.0006159366
17	0xbb67bec0	-0.0035361499
18	0x3b276bcc	0.002554643
19	0xbb7e30b7	-0.003878636
20	0x3b3c7f62	0.002876245
21	0x3b65458d	0.0034984082
22	0x3b1cfb44	0.0023953477
23	0x3b3d056a	0.0028842338
24	0xba6b6550	-0.00089796353
25	0x3b1be80b	0.0023789431
26	0x3b6cdb9f	0.0036141647
27	0x3b584a7a	0.0033003376
28	0x3c034c1b	0.00801375
29	0x3a7f6ce0	0.00097437017
30	0xb9952972	-0.00028450374
31	0xbaa854a1	-0.0012842604
32	0xb99c81f1	-0.00029851453
33	0xba0eb07d	-0.0005443169
34	0x3b7b5bcf	0.0038354283
35	0x3a42b8ce	0.0007428051
36	0xba0bbab1	-0.00053302484
37	0x3a4b5f0f	0.0007758
38	0x3a8bfe31	0.0010680613
39	0x3a672895	0.0008817998
40	0xba28ed0b	-0.00064440136
41	0xba98b5c1	-0.0011650847
42	0xba87dc24	-0.001036529
43	0xba29842a	-0.00064665324
44	0x3aabe4c6	0.0013114444
45	0xbb067469	-0.0020516163
46	0xbb1f0697	-0.0024265402
47	0xb9d3dbbf	-0.0004040878
48	0xbb95e732	-0.00457468
49	0xbadf7d90	-0.001705097
50	0xb96c4c0c	-0.00022535044
51	0xba88ec00	-0.001044631
52	0xb9a71e14	-0.00031875132
53	0xb9fb6d26	-0.00047955773
54	0x3b8b606f	0.004253439
55	0x3a1fdc59	0.0006098203
56	0xb99e7ed5	-0.00030230606
57	0x3a9849f3	0.0011618718
58	0xbae22b8b	-0.0017255408
59	0x3a4ee706	0.00078927015
60	0xb9bc1bd7	-0.00035878897
61	0xb969c281	-0.0002229307
62	0xb9682ee0	-0.00022142706
63	0xb9cf2c3e	-0.0003951508
64	0x3a351d6b	0.00069089857
65	0x39edabaf	0.00045332077
66	0x3a5f597c	0.0008520109
67	0x3a836fb4	0.0010027797
68	0x3b5b4685	0.003345878
69	0xb9249a90	-0.00015697838
70	0xba3976c4	-0.00070748874
71	0x397aebaa	0.0002392965
72	0xba533f5d	-0.0008058453
73	0xba026efe	-0.00049756456
74	0xbbacd702	-0.0052746544
75	0xbb23fa7a	-0.0025021122
76	0xbab4dcb4	-0.0013798685
77	0xba7018c9	-0.0009158967
78	0x3b8cd80a	0.004298215
79	0xbb39c705	-0.0028347385
80	0x3a81af52	0.0009894168
81	0x3b2066a0	0.0024475232
82	0x3a599d1d	0.0008301305
83	0x3a3a594b	0.00071086426
84	0x3877fcfa	5.9124992e-05
85	0x3b26271a	0.0025352896
86	0x3afd9546	0.0019346855
87	0x3b4530bb	0.003008886
88	0x3bfe306e	0.007757238
89	0x3ad9b1da	0.001660879
90	0xba773228	-0.0009429776
91	0xbb3d1a91	-0.0028854946
92	0xba7c86ad	-0.00096331054
93	0xba910821	-0.0011065045
94	0x3b94ee65	0.0045450204
95	0x39c931b0	0.00038374728
96	0xba8ff49b	-0.0010982932
97	0x3a1bf625	0.0005949459
98	0x3b0b8002	0.0021286015
99	0x3a983ee1	0.0011615419
100	0xba98a5ce	-0.0011646093
101	0xba5909ca	-0.0008279352
102	0xbae26c5c	-0.0017274725
103	0xba8f8c8f	-0.0010951924
104	0x3ae8b7b5	0.0017754944
105	0xbb4c0d50	-0.0031135865
106	0xbb5074aa	-0.0031807818
107	0xba4fcb82	-0.00079267484
108	0xbad956b9	-0.0016581631
109	0xbb1f6e6f	-0.0024327298
110	0xba438cca	-0.0007459639
111	0xbb0dd95e	-0.0021644454
112	0xba7e23f0	-0.0009694686
113	0xba6b238e	-0.00089698366
114	0x3b8762e1	0.0041316603
115	0xb9ce0ca0	-0.00039300788
116	0xbabc421d	-0.0014362965
117	0x3a1a01a9	0.0005874881
118	0x392de5c7	0.00016584164
119	0xb8bd07bc	-9.013663e-05
120	0xbaded71d	-0.0017001365
121	0xbb0c85eb	-0.0021442126
122	0xbad20fc0	-0.0016026422
123	0xbae6cf1f	-0.0017609334
124	0x3b7caeb8	0.003855629
125	0x3a90f18d	0.0011058316
126	0xb9b71a58	-0.00034924108
127	0x3992a255	0.00027968237
128	0x3b16b4a1	0.0022995847
129	0x3b132b62	0.0022456278
130	0xbaef83fa	-0.0018273585
131	0xba974ab2	-0.0011542647
132	0xbafcc7fd	-0.0019285675
133	0xbac330ce	-0.0014891864
134	0x388f2ba4	6.8269e-05
135	0xbb233df9	-0.0024908765
136	0xbb0eb4f7	-0.0021775344
137	0xba7e4608	-0.00096997665
138	0xb8e33ee4	-0.00010835918
139	0xbac95239	-0.0015359587
140	0xba88df64	-0.0010442552
141	0xba31c5c0	-0.0006781481
142	0xba87a5c3	-0.0010349083
143	0xba957bbc	-0.0011404674
144	0x3b87ba8f	0.0041421126
145	0x3aa6b8e2	0.0012719894
146	0x39ad74f2	0.00033084262
147	0x3ab6d741	0.0013949649
148	0x3b37b18e	0.0028029415
149	0x3b00c9a6	0.0019651442
150	0x3a7147b1	0.0009204103
151	0x3a07ab89	0.0005175402
152	0x3a783747	0.0009468686
153	0x3a8343c0	0.0010014698
154	0xbab1a82f	-0.0013554151
155	0xba58cb45	-0.00082700356
156	0x3a8317e4	0.0010001627
157	0x3a84634b	0.0010100392
158	0x39e9ad11	0.00044570168
159	0xbadead24	-0.0016988856
160	0x3980f66b	0.00024597658
161	0xba5f96c9	-0.00085292436
162	0x38b8448e	8.786573e-05
163	0x39e254d9	0.00043169296
164	0xbb502b5d	-0.0031764128
165	0xbb03c505	-0.0020106446
166	0xba059c9a	-0.0005096883
167	0xba9f2a77	-0.0012143393
168	0xb9c4c4ab	-0.00037530562
169	0xbb10fe16	-0.0022124103
170	0x3ae9eec2	0.0017847645
171	0x3b014d2b	0.0019729834
172	0x3ad3b049	0.001615056
173	0x3ad70fa1	0.0016407856
174	0xb99cdc85	-0.00029918939
175	0x3a692098	0.00088931015
176	0x3ad5a778	0.001630052
177	0x3b045143	0.0020190037
178	0x3b2c2873	0.0026269227
179	0x39ba80a7	0.00035572538
180	0x3b4d71e4	0.0031348402
181	0x3a5f6178	0.0008521299
182	0x3b408714	0.0029377388
183	0x3b40fe00	0.002944827
184	0xbb0f906e	-0.0021906155
185	0xbb54c0e0	-0.0032463595
186	0xb8c1258e	-9.209952e-05
187	0x3aa749a1	0.0012763032
188	0xba75f734	-0.00093828444
189	0xbbd43267	-0.006475735
190	0x3a3509f4	0.0006906085
191	0xbb611f77	-0.003435103
192	0xb9177abf	-0.00014446209
193	0x3a8852d9	0.0010400667
194	0xbbd510ea	-0.0065022605
195	0xbbc3a173	-0.005970174
196	0xbb4994c9	-0.003075885
197	0xbb3486f6	-0.0027546263
198	0xbbb264b0	-0.005444132
199	0xbbe29707	-0.0069149765
200	0x3b83e368	0.0040249117
201	0x3ad5113c	0.0016255747
202	0x3b669e40	0.003518954
203	0x3b697abf	0.003562614
204	0xbb09d10d	-0.0021029145
205	0xba16e294	-0.00057558087
206	0x3a3046b8	0.0006724405
207	0x3b201423	0.0024426065
208	0xb958767b	-0.00020643503
209	0xbb41ad44	-0.0029552737
210	0x3af2927c	0.001850679
211	0x3ac86725	0.0015289529
212	0x3ae1dd85	0.0017232156
213	0x3adfc701	0.0017072858
214	0xba5de5fc	-0.00084647513
215	0xb9ec0523	-0.00045017255
216	0xb80fae63	-3.4256267e-05
217	0x387417f7	5.8196452e-05
218	0xbb8a36ab	-0.0042179427
219	0xbad09583	-0.0015913699
220	0x3b277b8d	0.002555582
221	0x39ce9022	0.0003939877
222	0x3b2a7881	0.0026011767
223	0x3ae270a0	0.0017275997
224	0x3b80f1f5	0.0039350935
225	0x3ab71d10	0.0013970453
226	0x3a8cd27c	0.0010743882
227	0x3a906ee0	0.0011019371
228	0xbbddb2f5	-0.006765718
229	0x3a7689cc	0.00094046886
230	0x3a2e9561	0.00066598324
231	0xba838217	-0.0010033277
232	0x3a450f74	0.00075172563
233	0x3a2f836b	0.0006695303
234	0xb9d775a5	-0.00041095648
235	0xbb1623f8	-0.0022909623
236	0xbaa55789	-0.0012614588
237	0xbb027b77	-0.0019910017
238	0xbc1a7bda	-0.009428943
239	0xbb2eceeb	-0.0026673626
240	0x3aecc267	0.0018063308
241	0x39abd587	0.00032774752
242	0x3b019484	0.001977236
243	0x3b04bbe2	0.0020253588
244	0xbb9b4b24	-0.004739182
245	0xba0065a6	-0.00048979593
246	0x3b67e8ef	0.0035386642
247	0x3b008972	0.0019613174
248	0x3adbac9f	0.0016759819
249	0xbb60d6cc	-0.0034307716
250	0x39a30fe2	0.00031101616
251	0xba3a7796	-0.00071131566
252	0x39deb7d5	0.00042480105
253	0x3a7edf66	0.000972262
254	0xbbed71cf	-0.007246233
255	0xb9c15fbe	-0.00036883162

exp_avg_sq f4 [10, 30]
0	0x3699218b	4.5636602e-06
1	0x36bc5b6f	5.613481e-06
2	0x36b4978c	5.3820604e-06
3	0x36a0a767	4.78786e-06
4	0x36fa85f3	7.4661743e-06
5	0x37891516	1.6341492e-05
6	0x3752f2bb	1.25734905e-05
7	0x372d1411	1.0316276e-05
8	0x372e9aa8	1.0407217e-05
9	0x373937d4	1.1039858e-05
10	0x372e6ccd	1.039654e-05
11	0x371d9ec4	9.394895e-06
12	0x375f24fc	1.3300447e-05
13	0x36dda665	6.605684e-06
14	0x3734fda4	1.0787891e-05
15	0x3731895e	1.0582005e-05
16	0x36af35fa	5.22169e-06
17	0x3710393c	8.596395e-06
18	0x37b74a74	2.184997e-05
19	0x3701936b	7.723323e-06
20	0x36b234c0	5.3109543e-06
21	0x36c8811c	5.975495e-06
22	0x36c3acda	5.8315754e-06
23	0x369b2717	4.6239106e-06
24	0x35bd1a6a	1.4089285e-06
25	0x371c6d25	9.323737e-06
26	0x3726ba22	9.9377085e-06
27	0x37113135	8.65413e-06
28	0x37aeb646	2.0827294e-05
29	0x36c27a30	5.795875e-06
30	0x364dea85	3.0683889e-06
31	0x36228db7	2.422237e-06
32	0x3659ba6d	3.2444034e-06
33	0x3664d4a5	3.4098423e-06
34	0x369972c7	4.573117e-06
35	0x368c7636	4.1860867e-06
36	0x369faebf	4.7589124e-06
37	0x367a4e0c	3.7298332e-06
38	0x367b8e2f	3.7484676e-06
39	0x35d95e0a	1.6195129e-06
40	0x36703283	3.5792189e-06
41	0x367dfa72	3.7845716e-06
42	0x3673044c	3.6212323e-06
43	0x3665f215	3.426457e-06
44	0x36faf712	7.4793434e-06
45	0x36961ce5	4.473712e-06
46	0x3665ec56	3.4261225e-06
47	0x35be9499	1.4199351e-06
48	0x36e5ecd1	6.852301e-06
49	0x35e07770	1.6724061e-06
50	0x360e8789	2.123854e-06
51	0x3607963d	2.0204018e-06
52	0x36151353	2.2213978e-06
53	0x360e7417	2.1227222e-06
54	0x36b25064	5.314172e-06
55	0x35d934f8	1.6183176e-06
56	0x35d7bf9a	1.6074512e-06
57	0x35a8814f	1.2554609e-06
58	0x363ee5b7	2.8445918e-06
59	0x35be2c1d	1.4168942e-06
60	0x36588d60	3.22688e-06
61	0x364a8eaa	3.0183387e-06
62	0x364c2de3	3.0425078e-06
63	0x36633352	3.3855508e-06
64	0x3601a4f5	1.9318516e-06
65	0x36206f08	2.3906487e-06
66	0x36042ba5	1.9694937e-06
67	0x3612e2d5	2.188773e-06
68	0x3671219d	3.5931364e-06
69	0x36852f6f	3.969231e-06
70	0x3673b903	3.6317513e-06
71	0x35a66765	1.2398056e-06
72	0x364a76dc	3.016953e-06
73	0x3645b3b5	2.945989e-06
74	0x36bd9003	5.649404e-06
75	0x35b58d7e	1.352673e-06
76	0x35106217	5.378692e-07
77	0x35757cd3	9.1451255e-07
78	0x37371c42	1.0914229e-05
79	0x35e72063	1.7220267e-06
80	0x3635e977	2.7106996e-06
81	0x35bbca41	1.3991449e-06
82	0x362dd3fd	2.5902402e-06
83	0x362c9002	2.571382e-06
84	0x35affa61	1.3111386e-06
85	0x36433f4a	2.9094103e-06
86	0x35efc2d3	1.7863589e-06
87	0x35f99db7	1.8597847e-06
88	0x377e1c3c	1.5146154e-05
89	0x365b4ec8	3.26794e-06
90	0x366abaa4	3.4977356e-06
91	0x365df0ee	3.3071806e-06
92	0x36797eac	3.7177624e-06
93	0x3688d834	4.078285e-06
94	0x365d17d2	3.2945431e-06
95	0x3656d43b	3.201202e-06
96	0x36996046	4.570963e-06
97	0x3683fcdf	3.9335423e-06
98	0x3603ff65	1.966918e-06
99	0x35650aa3	8.5324626e-07
100	0x369a68b2	4.601746e-06
101	0x363e6503	2.8371003e-06
102	0x3692e2e9	4.377555e-06
103	0x368db651	4.223352e-06
104	0x36c5c698	5.894177e-06
105	0x368c75f1	4.1860553e-06
106	0x365c043e	3.2785024e-06
107	0x35f5a275	1.8301204e-06
108	0x36067c09	2.0039754e-06
109	0x35f85d81	1.8504653e-06
110	0x363f0800	2.8465874e-06
111	0x36388b28	2.7499136e-06
112	0x364b49dc	3.029235e-06
113	0x3646de27	2.9633609e-06
114	0x3665c21f	3.4236652e-06
115	0x3553d399	7.891154e-07
116	0x35d7432c	1.6038298e-06
117	0x35f2ff5e	1.8104727e-06
118	0x358b05b2	1.0357965e-06
119	0x34d56c4a	3.9753132e-07
120	0x36063f52	2.0004413e-06
121	0x35f73915	1.8419547e-06
122	0x35f3aea6	1.815574e-06
123	0x36106568	2.1516698e-06
124	0x36532e2c	3.1468326e-06
125	0x35b06a67	1.3143989e-06
126	0x3518e2fb	5.695471e-07
127	0x351ec784	5.914992e-07
128	0x35ceabbd	1.5398178e-06
129	0x365e7a5c	3.31518e-06
130	0x36028b86	1.9452723e-06
131	0x35a3b18f	1.2196123e-06
132	0x35e46b8f	1.7018627e-06
133	0x35b78c31	1.3675364e-06
134	0x35696dbe	8.695896e-07
135	0x35204c3b	5.9715575e-07
136	0x3523890f	6.092168e-07
137	0x3516de4b	5.6202833e-07
138	0x355e850d	8.289506e-07
139	0x34e8716a	4.3295887e-07
140	0x35ce7607	1.5382547e-06
141	0x35913cbf	1.0821021e-06
142	0x35aeb499	1.3016571e-06
143	0x35d63628	1.5960004e-06
144	0x36883ab0	4.059948e-06
145	0x35caef9f	1.5119912e-06
146	0x35882a4a	1.0145097e-06
147	0x3519cfcf	5.7299343e-07
148	0x3657ba13	3.2145806e-06
149	0x365ab947	3.2592377e-06
150	0x35cb17ac	1.5131568e-06
151	0x35e29032	1.6880279e-06
152	0x35c79424	1.486977e-06
153	0x35ac407c	1.2833766e-06
154	0x35f2202d	1.8039769e-06
155	0x3575dc3c	9.1590096e-07
156	0x357c9205	9.40898e-07
157	0x354fd846	7.742823e-07
158	0x34f5fb64	4.5817717e-07
159	0x366be189	3.5149008e-06
160	0x3540db37	7.1844573e-07
161	0x3537de23	6.8496064e-07
162	0x353183dd	6.6129525e-07
163	0x350441df	4.9269687e-07
164	0x36a52e4a	4.922772e-06
165	0x3524c93a	6.1387584e-07
166	0x347da8e0	2.3623898e-07
167	0x34b4f763	3.370761e-07
168	0x35a9b7e9	1.2645006e-06
169	0x35dd06a5	1.6467717e-06
170	0x35eaeabb	1.7502674e-06
171	0x35dc3f0c	1.6409626e-06
172	0x35d9c1c0	1.6224149e-06
173	0x35b6b874	1.361374e-06
174	0x35a73352	1.2457406e-06
175	0x3573c20d	9.0806935e-07
176	0x35b3bcc4	1.3391477e-06
177	0x35a10fd3	1.200004e-06
178	0x354307b6	7.265438e-07
179	0x35a9dbf9	1.2655502e-06
180	0x36c7c3d5	5.95346e-06
181	0x367e0858	3.7853806e-06
182	0x36df1a1d	6.648958e-06
183	0x36c0e851	5.749091e-06
184	0x36b20731	5.3056506e-06
185	0x372b08cb	1.01944415e-05
186	0x3715fdde	8.9402e-06
187	0x37022ac9	7.7585655e-06
188	0x369f9db6	4.7569292e-06
189	0x3733fef9	1.0728597e-05
190	0x36c85af7	5.971054e-06
191	0x370aaeed	8.266169e-06
192	0x3708f092	8.162244e-06
193	0x36a28b76	4.8442116e-06
194	0x37979364	1.8069237e-05
195	0x3720bff2	9.581434e-06
196	0x36924799	4.359474e-06
197	0x36ae9a96	5.2036003e-06
198	0x3778f37c	1.48386425e-05
199	0x3722e52b	9.70931e-06
200	0x36b6bd20	5.4460397e-06
201	0x366dc512	3.5430462e-06
202	0x36c2ebdb	5.8091077e-06
203	0x369589fe	4.4566104e-06
204	0x3655890f	3.1819252e-06
205	0x36596099	3.2391747e-06
206	0x3688ed51	4.080743e-06
207	0x369f67e1	4.7506624e-06
208	0x3686d359	4.0181153e-06
209	0x364743d4	2.9692792e-06
210	0x362452a4	2.4486008e-06
211	0x368a6716	4.1247213e-06
212	0x3616d348	2.2474724e-06
213	0x362e70e3	2.599373e-06
214	0x360899a3	2.0355008e-06
215	0x369c7f5c	4.663989e-06
216	0x363490be	2.6906341e-06
217	0x361f9d65	2.3784462e-06
218	0x3705a821	7.966563e-06
219	0x369b9342	4.636503e-06
220	0x36b79487	5.471116e-06
221	0x362fe944	2.621281e-06
222	0x36a66c48	4.959791e-06
223	0x36492fd7	2.997918e-06
224	0x36bb86aa	5.5887112e-06
225	0x3594bc77	1.108171e-06
226	0x3514c950	5.5427245e-07
227	0x35f64e56	1.8351227e-06
228	0x37a04bd0	1.910879e-05
229	0x3517f522	5.66086e-07
230	0x360cd2fe	2.098444e-06
231	0x35f4629e	1.8208118e-06
232	0x361003b2	2.1459823e-06
233	0x360bbb0a	2.0821485e-06
234	0x35a14f80	1.2018572e-06
235	0x3695bac1	4.462287e-06
236	0x3666a6d6	3.4369782e-06
237	0x362da582	2.5875347e-06
238	0x37d60fea	2.5518199e-05
239	0x368f5bbb	4.272411e-06
240	0x367cb458	3.76559e-06
241	0x36a0daad	4.793829e-06
242	0x367c1518	3.7563204e-06
243	0x366b1f19	3.503583e-06
244	0x3719871c	9.150968e-06
245	0x368fe14a	4.287959e-06
246	0x36a4a5f9	4.9069026e-06
247	0x363f0927	2.8466545e-06
248	0x36c16762	5.7638836e-06
249	0x37274c79	9.971781e-06
250	0x358fa9f5	1.0703794e-06
251	0x35ce0516	1.5349676e-06
252	0x35b6e783	1.3627435e-06
253	0x35acdeed	1.2879879e-06
254	0x36e6d0d7	6.8788463e-06
255	0x362314b8	2.4300953e-06

exp_avg f4 [10]
0	0xbc5f4fb2	-0.013629841
1	0x3a929444	0.0011183103
2	0xbc383cb2	-0.01124494
3	0xbab0456c	-0.0013448424
4	0xbaffd172	-0.0019517376
5	0xbbbb6ad9	-0.0057195243
6	0xbc54597f	-0.012960791
7	0x3bf2ec51	0.007413425
8	0xbc013c46	-0.007887905
9	0x3b309b5a	0.0026948065

exp_avg_sq f4 [10]
0	0x38535c04	5.0392016e-05
1	0x35cfb5e1	1.5475636e-06
2	0x371a2d44	9.1896545e-06
3	0x3592e861	1.0945479e-06
4	0x354c70d2	7.61601e-07
5	0x3714fdce	8.880581e-06
6	0x381d704b	3.7536298e-05
7	0x37262755	9.903529e-06
8	0x36d98c83	6.4834617e-06
9	0x35814409	9.63105e-07

exp_avg f4 [10, 10]
0	0x3994ce1b	0.0002838232
1	0x37fa8f0f	2.986894e-05
2	0xb9f144e5	-0.00046018432
3	0xbb1030f3	-0.0022001832
4	0xb9825231	-0.0002485677
5	0x3a0a2463	0.0005269704
6	0xba781e15	-0.0009464932
7	0xbad275b2	-0.0016056804
8	0xb86bd50b	-5.6226778e-05
9	0xb6eb4eef	-7.012735e-06
10	0x3b031f93	0.0020007833
11	0xba0b25af	-0.00053080445
12	0x388abba1	6.6153014e-05
13	0x3b844ea0	0.004037693
14	0x3adda162	0.0016909058
15	0xba01e984	-0.0004955756
16	0xb994a127	-0.00028348828
17	0xbac04e5d	-0.0014671792
18	0x391ec93b	0.00015143018
19	0x39b4f01f	0.0003451118
20	0xbaeaff80	-0.0017928928
21	0x3841fa19	4.6247707e-05
22	0x3b71a046	0.0036869212
23	0x3a76ed77	0.00094195403
24	0x3b73859a	0.003715849
25	0x3bfa0c7e	0.0076308837
26	0x3b9f09d5	0.004853467
27	0x3b6ccedc	0.003613404
28	0x3b901c28	0.0043978877
29	0x3b1c7f19	0.0023879467
30	0x3b56e279	0.0032788797
31	0x3a4e6ce5	0.0007874503
32	0xbb71119b	-0.0036784175
33	0x3baf1b57	0.0053438353
34	0xbaea7d2e	-0.001789009
35	0xbc192503	-0.009347203
36	0xbb7585de	-0.0037463824
37	0xbb3cdd75	-0.0028818522
38	0xbb9fbd7d	-0.0048748837
39	0xbb2e658d	-0.0026610822
40	0x3b8f8afc	0.004380582
41	0x3b6a16bd	0.003571912
42	0xbb50f25b	-0.0031882736
43	0x3b6800e4	0.0035400921
44	0xbaacf82f	-0.0013196523
45	0xbc03155a	-0.008000696
46	0xbb291b13	-0.002580349
47	0xbb3f7d89	-0.0029219112
48	0xbbcb4cc8	-0.0062042214
49	0xba96266f	-0.0011455546
50	0x3ac3272c	0.0014888993
51	0x3b49b11e	0.0030775736
52	0x38ef6a33	0.00011416189
53	0x3aa1a8dd	0.001233365
54	0x3a9582ba	0.0011406757
55	0xb9a5ce88	-0.0003162513
56	0x3ac85b93	0.001528608
57	0x39f54c55	0.00046786913
58	0xbaed3793	-0.0018098227
59	0x3a6e1439	0.0009081993
60	0x3a618297	0.0008602528
61	0x3b05b5cd	0.002040255
62	0xbabe04a8	-0.0014497237
63	0xbb470bde	-0.0030372064
64	0xbac2577b	-0.0014827097
65	0xbb04b970	-0.002025213
66	0xba8f3cd0	-0.0010928158
67	0xba851881	-0.0010154397
68	0xbb2ef3e9	-0.0026695675
69	0xb99454c8	-0.00028291927
70	0x3b700058	0.0036621299
71	0x3a23aeb4	0.00062439893
72	0xbb9bca33	-0.0047543286
73	0xbab10321	-0.0013504961
74	0xbb2a3137	-0.0025969276
75	0xbc0534a0	-0.008130223
76	0xbbb97db6	-0.005660738
77	0xbbc4fa17	-0.0060112583
78	0xbbb2fcb7	-0.005462255
79	0xbafff3cd	-0.0019527614
80	0x3a2118b5	0.0006145344
81	0xbb65967f	-0.003503233
82	0xbbae8f89	-0.0053271693
83	0xb9df8079	-0.00042629594
84	0xbb972741	-0.0046128337
85	0xbc184fa4	-0.009296332
86	0xbbd62fd4	-0.0065364633
87	0xbb6ef03e	-0.0036459113
88	0xbb489a72	-0.0030609635
89	0xbb3c8664	-0.0028766626
90	0xbbe87697	-0.007094215
91	0xbafbe9c4	-0.0019219448
92	0x3bc420f3	0.005985373
93	0xbbd3f4b1	-0.0064683785
94	0x3b161a01	0.0022903683
95	0x3c62629c	0.013817456
96	0x3bcf5625	0.006327408
97	0x3bfbf9f8	0.0076897107
98	0x3c09bcb4	0.008406807
99	0x3b526f3d	0.003210976

exp_avg_sq f4 [10, 10]
0	0x356cbce4	8.8191723e-07
1	0x35230a4d	6.073722e-07
2	0x35a18d78	1.2036608e-06
3	0x365c9687	3.2870173e-06
4	0x362fd9a5	2.6203718e-06
5	0x361f260a	2.3714988e-06
6	0x35a59b56	1.2338667e-06
7	0x363003f7	2.6228352e-06
8	0x3620d898	2.3967932e-06
9	0x35947924	1.1062116e-06
10	0x36bc0719	5.603663e-06
11	0x3630a98a	2.6324728e-06
12	0x36235c39	2.4342573e-06
13	0x371025ce	8.591871e-06
14	0x36c23f3f	5.7890134e-06
15	0x36e23c6b	6.7423584e-06
16	0x3655d423	3.1862953e-06
17	0x36ffcf36	7.6237147e-06
18	0x36654953	3.416634e-06
19	0x3633307d	2.6701302e-06
20	0x366692df	3.435816e-06
21	0x359fdf0b	1.1911337e-06
22	0x3662e547	3.3810081e-06
23	0x3696de79	4.4962476e-06
24	0x368cc71e	4.1955054e-06
25	0x37125985	8.723121e-06
26	0x36ba6ee9	5.5561436e-06
27	0x361b2980	2.3120956e-06
28	0x365e50b1	3.3127546e-06
29	0x35292e88	6.302512e-07
30	0x3774830b	1.4574044e-05
31	0x35a1aab1	1.2045112e-06
32	0x3616db60	2.2479435e-06
33	0x36d6affb	6.398184e-06
34	0x3702bdff	7.792841e-06
35	0x3777b4e3	1.4764463e-05
36	0x368faf87	4.282166e-06
37	0x3603290b	1.9544411e-06
38	0x36d77e08	6.4221713e-06
39	0x36705f77	3.5818355e-06
40	0x377cf430	1.5077225e-05
41	0x363f2f0e	2.8488607e-06
42	0x364c892a	3.0478209e-06
43	0x36cb6e5b	6.0627185e-06
44	0x36f31107	7.2439466e-06
45	0x377ef248	1.519599e-05
46	0x3654f056	3.1730356e-06
47	0x3688c33a	4.075843e-06
48	0x36efc19e	7.145295e-06
49	0x35ab861d	1.2779525e-06
50	0x36195d5d	2.2853121e-06
51	0x35ee64d1	1.7761723e-06
52	0x3510692e	5.3797237e-07
53	0x3623bbdc	2.4398241e-06
54	0x359997b4	1.144354e-06
55	0x349d5aff	2.9309737e-07
56	0x35d089f9	1.5537363e-06
57	0x35f9fe9d	1.8626048e-06
58	0x3597af8b	1.1301466e-06
59	0x36189de5	2.2741672e-06
60	0x36037ff3	1.9594997e-06
61	0x361aceef	2.306824e-06
62	0x35b89aa2	1.3754072e-06
63	0x36a58cdd	4.933782e-06
64	0x3611e7f2	2.1741694e-06
65	0x3657e75a	3.217216e-06
66	0x35d9271c	1.6179142e-06
67	0x35e288cc	1.6878125e-06
68	0x36651ed5	3.4141606e-06
69	0x3636bda5	2.72305e-06
70	0x36a5d09a	4.9416676e-06
71	0x35f07190	1.7914444e-06
72	0x36a01c83	4.771691e-06
73	0x36d7f5ee	6.4361293e-06
74	0x36886da9	4.065882e-06
75	0x37193cea	9.133693e-06
76	0x36ae4403	5.1935217e-06
77	0x36ef87a8	7.1385475e-06
78	0x36c58d1e	5.8874857e-06
79	0x35d9b0ee	1.6219253e-06
80	0x37203193	9.548286e-06
81	0x36740273	3.636026e-06
82	0x36a9b575	5.057717e-06
83	0x374d0560	1.2220204e-05
84	0x36d75ee5	6.4185465e-06
85	0x3736654a	1.0871629e-05
86	0x372ad107	1.0181458e-05
87	0x36ab1fed	5.099914e-06
88	0x366a8bfa	3.4950194e-06
89	0x36eeb2da	7.113774e-06
90	0x380ab816	3.3073207e-05
91	0x365edd61	3.3209437e-06
92	0x3732c61d	1.0655754e-05
93	0x37a1a5f4	1.9269974e-05
94	0x377dbadb	1.5123481e-05
95	0x381254e6	3.488818e-05
96	0x370695a1	8.021861e-06
97	0x37a34c83	1.9466743e-05
98	0x377b947f	1.499534e-05
99	0x36837e62	3.918817e-06

exp_avg f4 [10]
0	0x3b0ccde2	0.002148502
1	0xbc3a6cc3	-0.01137847
2	0x3c83b8c4	0.016079314
3	0xbcf0f767	-0.029414846
4	0xbc81f7aa	-0.015865166
5	0x3bc9dbd0	0.006160237
6	0x3ba988db	0.005173785
7	0xbc8f700a	-0.01750948
8	0xbcd2b12b	-0.025719246
9	0x3d24d83d	0.040245283

exp_avg_sq f4 [10]
0	0x36becc23	5.686206e-06
1	0x390d156f	0.00013454792
2	0x3850910c	4.972615e-05
3	0x3942d6e2	0.00018581332
4	0x39204a0f	0.00015286378
5	0x37705799	1.432551e-05
6	0x37128750	8.733783e-06
7	0x38605801	5.348772e-05
8	0x3908b718	0.00013038178
9	0x39f42aac	0.000465711

exp_avg f4 [5, 10]
0	0xbc470701	-0.012147666
1	0xbb50a0a9	-0.0031834042
2	0xba6be05e	-0.0008997972
3	0x3c010db1	0.007876799
4	0xbb2bd488	-0.0026219208
5	0x3c39bd93	0.011336702
6	0xbc4fc288	-0.012680657
7	0x3c211b66	0.009833192
8	0x3ba5e8a5	0.005063134
9	0xbc2d129c	-0.010563519
10	0x3cf11861	0.02943057
11	0x3c65dde5	0.014029955
12	0xbc031966	-0.008001661
13	0xbc4154fb	-0.011800046
14	0xba9655c1	-0.0011469648
15	0xbc85f319	-0.01635127
16	0x3cc3261c	0.023821883
17	0xbd1e6eb6	-0.0386798
18	0xbcb7914e	-0.022408154
19	0x3cfd69c9	0.030934231
20	0xbc71d656	-0.014760574
21	0xbb8f677b	-0.0043763495
22	0xba99dd71	-0.0011738968
23	0x3c18301c	0.009288814
24	0xbb2dccf3	-0.0026519864
25	0x3c3c6399	0.011498355
26	0xbc3d9dde	-0.011573283
27	0x3c094816	0.008379003
28	0x3bf8462f	0.007576726
29	0xbc143ca1	-0.009047658
30	0xbc20cec5	-0.009814923
31	0xbac8ddf8	-0.0015324941
32	0xb9fb6ade	-0.00047954073
33	0x3c40285b	0.0117283715
34	0xbbbf7ac6	-0.005843493
35	0x3c578ce7	0.013156152
36	0xbc209d21	-0.009803087
37	0x3bf1fdd1	0.0073849936
38	0x3bd7003d	0.0065613077
39	0xbbe9f7fc	-0.0071401577
40	0x3aeec101	0.0018215479
41	0xbb2f49dc	-0.0026746904
42	0x3b2ef005	0.0026693356
43	0xbb4830ac	-0.0030546589
44	0xbb0418e9	-0.002015645
45	0xbb880f36	-0.004152204
46	0xbb2ad600	-0.0026067495
47	0x3c7dd24d	0.015492034
48	0x3b73af95	0.0037183512
49	0xbc2beabd	-0.010492978

exp_avg_sq f4 [5, 10]
0	0x3814ab74	3.5445628e-05
1	0x36ab9f15	5.1147167e-06
2	0x370318a7	7.813948e-06
3	0x376aae62	1.39880885e-05
4	0x376ce165	1.4119175e-05
5	0x3817db00	3.6205165e-05
6	0x3827b831	3.9987444e-05
7	0x37d5288d	2.5410462e-05
8	0x36aed8df	5.210851e-06
9	0x37aed6d1	2.0842448e-05
10	0x3902ccf7	0.00012474121
11	0x382aaf72	4.0694555e-05
12	0x37d34f59	2.519011e-05
13	0x3832a6e3	4.2593932e-05
14	0x389a25db	7.3503434e-05
15	0x38d15ee0	9.9835685e-05
16	0x3932e772	0.00017061623
17	0x396f4baf	0.0002282101
18	0x3853d858	5.0507806e-05
19	0x3900fcf2	0.0001230126
20	0x38630425	5.4124877e-05
21	0x37a80836	2.0030984e-05
22	0x35fb23a3	1.8711329e-06
23	0x38072b83	3.222703e-05
24	0x38480a15	4.7693105e-05
25	0x388e4438	6.7837944e-05
26	0x38a74501	7.9760335e-05
27	0x387cb7b4	6.025257e-05
28	0x379ca854	1.8675033e-05
29	0x3800f667	3.074706e-05
30	0x3783d72a	1.571661e-05
31	0x36c93c4d	5.9972867e-06
32	0x3636a2c3	2.7214853e-06
33	0x37ab0025	2.0384856e-05
34	0x37ad38e9	2.0649708e-05
35	0x38104130	3.4392986e-05
36	0x37ba9cf1	2.224601e-05
37	0x37a4bab7	1.963727e-05
38	0x370c6335	8.367749e-06
39	0x3742ebaf	1.1618175e-05
40	0x36f19492	7.1996556e-06
41	0x35deda66	1.6603851e-06
42	0x36d56379	6.359475e-06
43	0x37085e40	8.128176e-06
44	0x3717ee9b	9.055856e-06
45	0x3769eb21	1.3942627e-05
46	0x3743409d	1.163795e-05
47	0x37daa8f6	2.6066304e-05
48	0x355ce99d	8.229634e-07
49	0x378b526b	1.660847e-05

exp_avg f4 [5]
0	0x3d285457	0.041096058
1	0xbdaa5ed2	-0.08318867
2	0x3d1a3c92	0.03765542
3	0x3d29aff7	0.04142758
4	0x3c2914cf	0.010319903

exp_avg_sq f4 [5]
0	0x39dda592	0.00042275764
1	0x3b005f34	0.0019587995
2	0x3a8f0db7	0.0010914122
3	0x39e2f1b1	0.00043286153
4	0x38e44060	0.00010883878

exp_avg f4 [31, 5]
0	0x3c3b0432	0.011414574
1	0xbc509b11	-0.012732283
2	0xbb963c00	-0.0045847893
3	0x3c8b212c	0.016983591
4	0x3b5029d9	0.0031763224
5	0x3c461f07	0.012092358
6	0xbc9fdaaf	-0.019513456
7	0xbb9596b2	-0.0045650834
8	0x3cc09d6d	0.023512566
9	0x3b34abee	0.0027568298
10	0x3be423a6	0.0069622574
11	0xbbef9615	-0.0073115923
12	0xbb4192c3	-0.002953694
13	0x3c2dded9	0.010612213
14	0x3ae75ecb	0.0017652152
15	0x3be4c8cc	0.0069819447
16	0xbc08a2ae	-0.008339567
17	0xbb2098a6	-0.0024505048
18	0x3c23ee11	0.01000549
19	0x3b04d18c	0.0020266501
20	0xbb7aab5d	-0.0038249113
21	0x3be0d4fa	0.0068613263
22	0xb89ed745	-7.574124e-05
23	0xbb80c12f	-0.0039292793
24	0xbb4bff21	-0.003112741
25	0x3b7c5b29	0.0038506484
26	0xbbb1c964	-0.005425619
27	0xbb9bad83	-0.004750909
28	0x3c830c2b	0.015997013
29	0xba686c91	-0.00088662753
30	0x3c368753	0.011140662
31	0xbc805118	-0.015663669
32	0xbbd2c314	-0.0064319465
33	0x3cda6207	0.026658071
34	0x3af2fe87	0.001853899
35	0x3c086541	0.008324922
36	0xbc2358db	-0.009969915
37	0xbba3fe00	-0.0050046444
38	0x3c93e3e6	0.018053006
39	0x3a93e5eb	0.0011283731
40	0x3be1dc6a	0.0068927305
41	0xbc2e047e	-0.010621188
42	0xbbb8989a	-0.005633426
43	0x3cb664f0	0.022264928
44	0xb9bdafe6	-0.00036179944
45	0x38ffaed1	0.000121919096
46	0xbb2f98ba	-0.0026793913
47	0xbb335bad	-0.0027367875
48	0x3c076210	0.008263126
49	0xba7b28db	-0.0009580978
50	0x3c18a25f	0.009316056
51	0xbc44a019	-0.012001061
52	0xbb751a19	-0.0037399589
53	0x3c61e78b	0.013788114
54	0x3b4b43f1	0.0031015838
55	0x3b94f338	0.0045455955
56	0xbc215aa7	-0.009848273
57	0xbb06f2db	-0.002059153
58	0x3c4001eb	0.011719207
59	0x3a10e01b	0.00055265584
60	0x3b1f01a4	0.0024262452
61	0xbb861125	-0.0040913993
62	0xba6c0707	-0.00090037327
63	0x3b9656a0	0.004587963
64	0x3a62669f	0.00086365076
65	0x3c1b00e5	0.0094606625
66	0xbc55c7d9	-0.013048136
67	0xbb545571	-0.003239956
68	0x3c6e9b77	0.014563433
69	0x3b494126	0.0030708998
70	0xbb918a83	-0.0044415607
71	0x3b8ce4ca	0.0042997347
72	0x3b26f51d	0.0025475689
73	0xbc0ded8e	-0.0086625945
74	0xbaf3912c	-0.0018582693
75	0x3b79647d	0.003805428
76	0xbbdb8108	-0.0066987313
77	0xbb851112	-0.004060873
78	0x3c6e01ec	0.014526825
79	0xb7f639f6	-2.9352475e-05
80	0x3bf85285	0.0075781965
81	0xbc2cfcd5	-0.010558327
82	0xbb92b0b2	-0.00447663
83	0x3c8bc162	0.017059986
84	0x3ae94912	0.0017798266
85	0x3b90ceb3	0.0044191717
86	0xbb4ff774	-0.0031733187
87	0xbb7b2da3	-0.0038326762
88	0x3c13c424	0.009018932
89	0x3a174b91	0.0005771453
90	0x3b10e0db	0.002210668
91	0xbbc679a1	-0.0060569798
92	0xbb8b4d1e	-0.0042511364
93	0x3c9142b7	0.017732007
94	0xba848f75	-0.0010113554
95	0xbb892b8b	-0.004186099
96	0x3b2242bc	0.0024759015
97	0xb8b9e3a1	-8.8638866e-05
98	0xbabe8f95	-0.001453864
99	0xbabdab41	-0.0014470593
100	0x3be3b3a0	0.006948903
101	0xbc076356	-0.00826343
102	0xbb4a0d03	-0.003083051
103	0x3c3206a2	0.010865839
104	0x3b04caac	0.0020262403
105	0x3bb78516	0.005600582
106	0xbc656c74	-0.014002908
107	0xbb17c85d	-0.0023160197
108	0x3c951f01	0.01820326
109	0x39a535b5	0.00031511267
110	0x3bf3626d	0.0074275048
111	0xbc17714d	-0.009243322
112	0xbb5cd6d7	-0.003369739
113	0x3c50baa5	0.012739812
114	0x3b04c5ca	0.0020259493
115	0x3bed376c	0.007239273
116	0xbc25d150	-0.010120705
117	0xbb32097b	-0.0027166295
118	0x3c485cc3	0.012229147
119	0x3b091824	0.002091893
120	0xbb476ba9	-0.003042916
121	0x3b664ede	0.0035142223
122	0x38216f91	3.8489296e-05
123	0xbad9357d	-0.0016571727
124	0xbb1e074f	-0.0024113243
125	0x3b7ff8d6	0.003905823
126	0xbbe93d60	-0.007117912
127	0xbba1afb4	-0.0049342755
128	0x3c988ba1	0.018621268
129	0xba440d9c	-0.00074788346
130	0x3c676b18	0.014124654
131	0xbca088f2	-0.01959655
132	0xbc0c1c7b	-0.008551712
133	0x3d076435	0.03305455
134	0x3b39fd68	0.0028379802
135	0x3c0c9251	0.008579806
136	0xbc2db699	-0.010602617
137	0xbbc5ee45	-0.006040367
138	0x3cac1f5c	0.021011047
139	0x3a9954db	0.0011698263
140	0xbac8d5d9	-0.0015322521
141	0xbb5c1186	-0.003357978
142	0xbb7e1bae	-0.0038773823
143	0x3c8e0c10	0.017339736
144	0xbb3aefac	-0.0028524203
145	0xbb754846	-0.0037427112
146	0x3aabc7d7	0.0013105822
147	0xbaf04afe	-0.0018332896
148	0x3ba01c27	0.0048861685
149	0xbb0a560e	-0.0021108421
150	0x38e882fd	0.000110870205
151	0x3c69bccd	0.014266205
152	0xbbd5ce79	-0.0065248576
153	0xbbc3a2bc	-0.005970327
154	0xba8b619d	-0.001063395

exp_avg_sq f4 [31, 5]
0	0x3774fc34	1.4602254e-05
1	0x374453c6	1.1702015e-05
2	0x381f4cb4	3.797999e-05
3	0x38889ece	6.514565e-05
4	0x360c4127	2.089955e-06
5	0x376f22e3	1.4253633e-05
6	0x37dc5710	2.6266585e-05
7	0x38237641	3.897236e-05
8	0x389e30c1	7.543108e-05
9	0x35caf081	1.5120169e-06
10	0x371f190a	9.482968e-06
11	0x36ce2ce4	6.1445044e-06
12	0x37ff4034	3.0428266e-05
13	0x384ece04	4.9306094e-05
14	0x360619ff	1.9982688e-06
15	0x37159d5e	8.917732e-06
16	0x36e8c3dc	6.93694e-06
17	0x37d8d590	2.5848654e-05
18	0x382f326e	4.1770218e-05
19	0x35e556eb	1.7087126e-06
20	0x369a1a3c	4.5926117e-06
21	0x365f8e43	3.3312397e-06
22	0x361d0a6e	2.3400894e-06
23	0x36b16d5a	5.2877413e-06
24	0x35d8e69c	1.616037e-06
25	0x372a0890	1.0134783e-05
26	0x3707a2d5	8.084539e-06
27	0x380ca19a	3.3529104e-05
28	0x3891a0e1	6.944105e-05
29	0x36a4e265	4.9139367e-06
30	0x376bc814	1.4053676e-05
31	0x3793c914	1.76174e-05
32	0x386143fd	5.37075e-05
33	0x38eefe5c	0.000113961025
34	0x368c0503	4.1729086e-06
35	0x373a301a	1.1097663e-05
36	0x3736cb3c	1.08953645e-05
37	0x3829fddb	4.052916e-05
38	0x38a0e743	7.6724704e-05
39	0x36492c12	2.9976986e-06
40	0x372963b3	1.0096398e-05
41	0x37243358	9.787116e-06
42	0x37c78ab5	2.378724e-05
43	0x388b403e	6.6400025e-05
44	0x368be30d	4.168955e-06
45	0x36abe2ce	5.1226007e-06
46	0x36891c3a	4.086204e-06
47	0x365cb561	3.288813e-06
48	0x3721fcbc	9.655192e-06
49	0x35cf3d97	1.5440627e-06
50	0x373824fe	1.0975868e-05
51	0x3742c645	1.1609464e-05
52	0x37f9f23f	2.9795918e-05
53	0x38682c7c	5.535454e-05
54	0x3625e208	2.4718483e-06
55	0x368a32b6	4.118624e-06
56	0x370e6c4b	8.4890735e-06
57	0x377c99af	1.5056153e-05
58	0x3818662d	3.6334783e-05
59	0x35faa45c	1.8674286e-06
60	0x36d07d37	6.21346e-06
61	0x36966e5a	4.483195e-06
62	0x37b890d7	2.2001956e-05
63	0x3836ff48	4.362993e-05
64	0x3640c1f5	2.8723127e-06
65	0x37142d71	8.832068e-06
66	0x372c5cf2	1.0273639e-05
67	0x37bce709	2.251893e-05
68	0x3833c37d	4.285899e-05
69	0x360068d8	1.9134513e-06
70	0x36b4824e	5.3795875e-06
71	0x366e4f98	3.5511093e-06
72	0x3753744f	1.260366e-05
73	0x3795536d	1.7801032e-05
74	0x3563c7d5	8.4854884e-07
75	0x3713c97d	8.808795e-06
76	0x3707423f	8.062051e-06
77	0x37c98c52	2.4026409e-05
78	0x386d2d39	5.654732e-05
79	0x36b7ecc5	5.4813886e-06
80	0x36fe42ce	7.577567e-06
81	0x371bca84	9.285872e-06
82	0x37c8b5e0	2.392655e-05
83	0x38525b39	5.015286e-05
84	0x3600e993	1.9209444e-06
85	0x3705b1b8	7.968796e-06
86	0x36b34905	5.3431163e-06
87	0x37b88bd6	2.1999625e-05
88	0x382fdb23	4.192734e-05
89	0x35fa89ec	1.8666592e-06
90	0x374ca86b	1.219856e-05
91	0x369ec820	4.7320646e-06
92	0x378f4614	1.7079561e-05
93	0x387ef4f7	6.078646e-05
94	0x3684606e	3.9451324e-06
95	0x367b851e	3.74794e-06
96	0x36446edc	2.9270805e-06
97	0x36a6e34f	4.9736477e-06
98	0x373d6f24	1.1291155e-05
99	0x3604f90e	1.9814502e-06
100	0x371a1170	9.183175e-06
101	0x36fae14c	7.4768086e-06
102	0x3800c94e	3.0705058e-05
103	0x3841bdfd	4.6191726e-05
104	0x35af18fa	1.3045785e-06
105	0x36c8f915	5.9894614e-06
106	0x3785ee96	1.5965936e-05
107	0x37d6042b	2.5512729e-05
108	0x3850725a	4.9697563e-05
109	0x35a82c7e	1.2529924e-06
110	0x3722ac56	9.6960775e-06
111	0x370db414	8.446183e-06
112	0x380f5e2b	3.4181558e-05
113	0x38667f90	5.4955075e-05
114	0x35e4e613	1.7054284e-06
115	0x37117932	8.6708915e-06
116	0x371427e3	8.830774e-06
117	0x37e0a257	2.6778476e-05
118	0x383385c3	4.28015e-05
119	0x35a92475	1.2602092e-06
120	0x363776d4	2.7338292e-06
121	0x35e141c4	1.6782947e-06
122	0x35ba345d	1.387332e-06
123	0x361cfe46	2.3393818e-06
124	0x358c1aa5	1.0438567e-06
125	0x37001e7d	7.636493e-06
126	0x370345dd	7.824475e-06
127	0x380213b2	3.1012758e-05
128	0x3883d4f1	6.28623e-05
129	0x365a8dd0	3.2567077e-06
130	0x3790944b	1.7235192e-05
131	0x37c5576d	2.352494e-05
132	0x38744ddb	5.8246642e-05
133	0x3904aaa4	0.0001265207
134	0x364fe16c	3.0976616e-06
135	0x37355855	1.0809007e-05
136	0x3737f247	1.096406e-05
137	0x38322b1d	4.247866e-05
138	0x38a36c72	7.792645e-05
139	0x35f5b36a	1.8306139e-06
140	0x373c8975	1.1237677e-05
141	0x362e9cad	2.6019218e-06
142	0x3775077e	1.4604882e-05
143	0x38557e43	5.0900748e-05
144	0x368653c1	4.0032614e-06
145	0x367f6fc2	3.8063013e-06
146	0x363fd969	2.8587767e-06
147	0x369ab869	4.611026e-06
148	0x370dec09	8.459211e-06
149	0x35cc9432	1.5242315e-06
150	0x37b533ba	2.1600968e-05
151	0x376400ca	1.3590043e-05
152	0x37ce9251	2.4625248e-05
153	0x37716ff7	1.4390788e-05
154	0x370acd6f	8.273272e-06

exp_avg f4 [31]
0	0xbd507bab	-0.05089919
1	0xbd8bbb69	-0.06822855
2	0xbd0365a4	-0.032079354
3	0xbcfab514	-0.030603923
4	0x3c190bb5	0.00934117
5	0xbd3081e8	-0.04309264
6	0xbd96ee7d	-0.07369707
7	0xbd52b803	-0.05144502
8	0xbd77d581	-0.060506348
9	0xbca6cf64	-0.020362563
10	0xbd28f978	-0.041253537
11	0xbd0a3fae	-0.033752136
12	0xbc641003	-0.013919833
13	0xbd315144	-0.04329039
14	0x3cb3ef2e	0.021964636
15	0xbd1d913f	-0.038468596
16	0xbd3eeb5a	-0.046611167
17	0xbcd442dd	-0.02591079
18	0xbd30c083	-0.043152343
19	0x3bdf14da	0.0068079056
20	0xbd040859	-0.032234523
21	0xbd4cfd33	-0.050046157
22	0xbd1875c5	-0.03722169
23	0xbd131308	-0.03590682
24	0x3b8632af	0.0040953974
25	0xbd46dd17	-0.04855069
26	0xbdb924f6	-0.09040253
27	0xbd6cce3a	-0.05781386
28	0xbd21ec47	-0.039531972
29	0xbc0c0684	-0.008546475
30	0x3c86c5c4	0.016451724
