Cancer-senn/self_trial6/models/cancer/grad3_Hinput_Thdummy_Reg1e-02_LR0.001/checkpoint.pth.tar (torch_old, 26436 bytes, 34 tensors)

parametrizer.linear1.weight f4 [10, 30]
00000000: 5a3b 31be 5596 d0bd f9b6 1fbe 2ef4 58bd
00000010: a983 f6bd 7053 2cbd af27 883d 16be a8bd
00000020: d54d d53d 60a8 23bd 3f81 133e 6a34 c0bd
00000030: fc7b 9b3a 1f36 203d cc92 4a3c ba75 06be
00000040: 7d5b 1a3e 71f1 17be 9be3 493e d2f6 f13d
00000050: aec5 abbc 0123 51bd 29c8 f83d 8899 07be
00000060: b8c8 00be e22e 363e 278c 20bb c30f a83c
00000070: 6e11 f1bc 99e5 173e 718a 253e f46f 0abe
00000080: 0e5f 443d e44c 31be c568 ecbd 47f9 b43d
00000090: 8266 8ebd 7ed3 993d 0cb6 9cbc ca8a ef3d
000000a0: 2354 b7bd e657 24be 3241 63bc 4f54 c03c
000000b0: 2efe 803d d010 063d 8c81 aebd 709d 87bd
000000c0: 9162 a13b a1f3 c83d c76a 2fbe 6e10 a33d
000000d0: e464 ea3d a7c0 143e 9508 77bc b4f1 a4bd
000000e0: bf70 a13d 1e0f e3bc 9cee e33c d727 bebd
000000f0: 08f8 0abd 1182 613d e89f 393e 3a76 03bd
00000100: f27c 233e 7e11 963d 67a5 c73d c88f 7b3d
00000110: 9415 783d 7054 22bd 5385 c83d 85a1 3a3d
00000120: 5aef 15be c829 f9bd 22dc 0abe 0d5a c93d
00000130: c248 89bd 09ea 763d c18f b6bd 3f0c 033e
00000140: 2aeb 17be 8464 ca3c 6ba1 af3d fec4 5c3d
00000150: 829a 453d a4b5 133e 9c85 28be b174 9d3d
00000160: ab7b 09bc c243 323c 1e86 113e f32f 1b3e
00000170: 6fe9 e6bc 3af0 573d 2c3b 1dbe 23b1 0c3e
00000180: 01b4 073e 18c8 033d 7c41 04bd 4618 063e
00000190: 037e e0bc 2d66 293e cac1 d33d c4cc 9e3d
000001a0: 7bfc 15be b86c 9fbd 9318 363d 01e8 7cbd
000001b0: 140f 26be df17 733c f936 32bc 673a 07be
000001c0: 2cf6 b43a 0166 8cbc 2f65 953d c22d 313d
000001d0: 2ab4 b4bd 6cf2 9c3c b9d3 15bd 4d34 15be
000001e0: be32 e53d 83b2 17be f22a 90bd a74d c33d
000001f0: 7e4c 9cbd 95d7 39be 0906 d1bd 8c82 3cbc
00000200: 7432 7cbd c46c 863c 3243 0dbe 920f fb3d
00000210: 0881 023e 2b1c 003e 5d8d 3ebe 37f2 31be
00000220: fd5e 9c3d 18dc 0bbe 9640 c7bd 166f 4cbe
00000230: 1afe c33d e755 a63d 9f58 0ebd d97b 863d
00000240: 3017 2ebb d9a5 1a3e ac8f db3d c856 4f3d
00000250: f46c a2bd 33e2 db3d b83d e7bd 8c48 e8bd
00000260: 140f 08be aca1 683d 1683 323d 12f0 9cbb
00000270: 547c 973d 168d debd 2b7c 93bd fea7 97bd
00000280: 671a 153e b10b babc 7d56 143e f7e7 f7bd
00000290: 988e 553d 3d87 dc3d c7d5 3cbc 46ef b6bd
000002a0: fd07 603e 398f 2f3e f403 e2bd 53e2 3abd
000002b0: 7aae 3bbe 5000 0fbd 67c5 263e c01a b7bd
000002c0: ef3f 6bbd cb0f a23d 56bd c53d 6d8b 0b3e
000002d0: b98a bcbc 61ca eabc 3fe7 2e3e 1e26 813d
000002e0: 91cd d33d 7529 193d e81e 483e d808 013e
000002f0: b2fb 2dbd 21e4 4bbd 1ee2 ad3d ab54 0dbe
00000300: e907 92bd d19c 1b3e b583 8e3c 78a1 9ebd
00000310: 760b cbbd 2003 cf3d 68b5 2b3e f482 e7bd
00000320: e6ec 61bd 40f0 5cbc 2e76 59bd f418 e93d
00000330: 790c 2bbb e338 2cbe b34a 5b3c 9773 bdbd
00000340: 574e cebd 4856 a6bd ca00 c43c 97b8 c93d
00000350: 1306 3dbe 1f60 9ebd 48d7 db3d 734c ad3d
00000360: d8fa 723d 4fce 1fbe 4dab f6bd cab5 8a3d
00000370: 471f bf3d 06df b53d 4b66 27be d937 7a3d
00000380: efa4 153c f825 05bc 9a94 bcbc 9436 f13d
00000390: 577d 0e3b 93d1 2bbc 30c1 4c3c 7100 42be
000003a0: 58ba 1cbe 713c 19be 5de7 7abd 2960 aa3d
000003b0: 821c 46be e4b5 5c3d e1a3 7bbd 70f3 17be
000003c0: 9aad 7b3d 9e8b 063e b3ea 6cbd 531f 8a3d
000003d0: f7d8 0c3e 76e1 883d 80fe a43c 8f81 473e
000003e0: e50e 3b3c 790a 8f3d 7db7 ea3d 0c33 923b
000003f0: d485 c3bd 295a 05be 3c8a fc3d 973e 1c3e
-0.17307797 -0.101849236 -0.15597142 -0.052967243 -0.12036831 -0.04207176 0.06648194 -0.08239381
0.10415236 -0.039955497 0.14404772 -0.09384997 0.0011862512 0.039114114 0.012364101 -0.13130847
0.15073963 -0.14838196 0.19715731 0.11814655 -0.020968284 -0.051058773 0.121475525 -0.13242161
-0.12576568 0.17791322 -0.00244976 0.020515328 -0.029427256 0.14833678 0.16166092 -0.13519269
0.047942214 -0.17314488 -0.11543421 0.088366084 -0.069531456 0.07511042 -0.019129775 0.11696394
-0.08951595 -0.16049156 -0.013870524 0.023477701 0.06298481 0.032730877 -0.08520803 -0.06621826
0.00492508 0.098120935 -0.17130576 0.07962118 0.114450246 0.14526616 -0.01507773 -0.08053914
0.07882833 -0.02771717 0.027823739 -0.092849426 -0.033927947 0.05505568 0.18127406 -0.03209517
0.15965632 0.07327555 0.09748345 0.061416417 0.060567454 -0.039631307 0.097910546 0.045564193
-0.14642087 -0.12166172 -0.13560537 0.09831629 -0.067033306 0.060281787 -0.08914138 0.1279764
-0.14835802 0.024706133 0.0857571 0.053898804 0.048243053 0.14424759 -0.16457218 0.07688273
-0.008391301 0.0108804125 0.14211318 0.1515501 -0.028187482 0.052719332 -0.15354604 0.13739447
0.1325226 0.032173246 -0.032289013 0.13095197 -0.027403837 0.16542883 0.10339697 0.077539
-0.14647095 -0.07784408 0.04445703 -0.061744694 -0.1621669 0.014837234 -0.010877364 -0.13205872
0.0013806275 -0.017138483 0.0729469 0.04325653 -0.08823426 0.019158565 -0.036578868 -0.14570732
0.11191319 -0.1481419 -0.07039441 0.095362954 -0.07631777 -0.18148644 -0.10206229 -0.011505734
-0.061571553 0.016409285 -0.13795164 0.12258829 0.12744534 0.12510745 -0.18608613 -0.17377554
0.07635305 -0.13658178 -0.09729116 -0.19964251 0.095699504 0.08121853 -0.034752484 0.06566591
-0.0026564114 0.15102328 0.107207626 0.05061987 -0.079309374 0.107365035 -0.11291069 -0.11341962
-0.13287002 0.056794807 0.043582045 -0.004789361 0.073967606 -0.10866754 -0.072014175 -0.07405089
0.14560853 -0.022710653 0.14486118 -0.12104791 0.05213794 0.10767982 -0.011525578 -0.089323565
0.21878047 0.17144479 -0.1103591 -0.045625996 -0.18328276 -0.034912407 0.1628624 -0.08940649
-0.05743402 0.079131685 0.096552536 0.13627405 -0.023015367 -0.028660955 0.17080401 0.063060984
0.10341943 0.037393052 0.1954304 0.1260103 -0.042476363 -0.049778108 0.08490394 -0.1380183
-0.07130415 0.1519654 0.017396787 -0.077456415 -0.099142954 0.10108018 0.1676842 -0.11304274
-0.055157565 -0.013485014 -0.05309122 0.113817126 -0.0026099964 -0.16818576 0.013384509 -0.09250563
-0.10073536 -0.081219256 0.023926158 0.09849661 -0.18459348 -0.077331774 0.10734421 0.08461847
0.059321254 -0.15606044 -0.12044392 0.06772955 0.093321376 0.08880429 -0.16347615 0.061088417
0.0091335615 -0.008126728 -0.023020077 0.11777988 0.002174219 -0.010486978 0.012497231 -0.18945481
-0.1530546 -0.14964463 -0.0612558 0.08319122 -0.19346812 0.053884402 -0.061435584 -0.14838958
0.061444856 0.13139197 -0.057841014 0.06744256 0.1375464 0.06683628 0.020140886 0.19483016
0.011417125 0.069844194 0.11460779 0.0044616517 -0.0954701 -0.13022675 0.123310536 0.15258251

parametrizer.linear1.bias f4 [10]
00000000: 7f57 5d3d 9bf1 75bd dd2f 063e a43a 50be
00000010: a2f3 a33d b5bd cb3c c661 c6bc f4fa 05bc
00000020: c437 82bd 8855 6a3e
0.05403852 -0.060044866 0.13104196 -0.2033487 0.08005454 0.024870733 -0.024216544 -0.008177508
-0.06358293 0.2288419

parametrizer.linear2.weight f4 [10, 10]
00000000: 2f93 5dbe 2c6a 35be ad22 ce3d 6f4f 2dbe
00000010: e23e 2b3e f764 8a3e 0a9e 82bd a4b2 7d3d
00000020: c1ce 63be 37ae 9f3e 9e0e 8ebe dee7 523e
00000030: 2bb0 403e fddf 353e fcd3 39be 0b0a 933e
00000040: 64ae cd3d abbe 813e 3fda 2f3e 0853 073e
00000050: 76a9 463e 281e f8bd 064b b8be 2522 81be
00000060: 0264 383d 5c14 fdbd 1b1b 053d 88ff 0fbe
00000070: c2c2 a8be 232f 8a3e ce88 e7bd bca6 9f3e
00000080: 1df9 59be e61a 9d3e ff61 433e d84f 053d
00000090: e834 5a3d 5c38 95bd c6de ac3e 8490 1d3e
000000a0: 078e 01bd 8654 6c3e e74c 893e e2d4 023d
000000b0: be0e 023e 5049 c9bd 00e9 2bbe c51c 913e
000000c0: 073c e5bc bc29 5e3c 4dd2 263e 6f96 9dbd
000000d0: bdf9 a43c a479 953d 26ac a0be 66be 0fbe
000000e0: 3012 aabe 4c89 27be 374e b13e 98da 93be
000000f0: 6bc7 7f3e 280f 28be ce00 cb3c 7926 473c
00000100: 62c7 153e 867e a1bb 553a 593c b73d 70be
00000110: f984 6c3e c784 a63d 3e3c 8f3e 1ce0 ad3c
00000120: 8201 20be 224f e4bd 85f4 13be 1cfb 843e
00000130: 05d4 313d 9721 a73e 2815 733e c3c2 afbd
00000140: 0130 0c3e c51e b6bd ed8d fe3d 538b bbbd
00000150: 6445 b2bd 9ae3 9f3e 753b 863e 6e3e 1d3c
00000160: 197d 2b3e 57cc 7d3d e074 04be b729 8cbe
00000170: 59de 793e 5b6f a33e 4ea5 fd3c fd0b 04be
00000180: 28bf 82bd 04cc 823e 1a8a eebd 458d 7abd
-0.21638177 -0.17716283 0.10065208 -0.16924833 0.16723207 0.27030155 -0.063778 0.061937943
-0.22246839 0.31187603 -0.27745527 0.20596263 0.18817203 0.17761226 -0.18147272 0.287186
0.10043028 0.2534078 0.17173098 0.13215268 0.19400582 -0.12115127 -0.35994738 -0.25221363
0.04501725 -0.12357399 0.032496553 -0.14062321 -0.32961088 0.26989087 -0.1130539 0.31181896
-0.21286435 0.30684584 0.19080351 0.032546848 0.05327311 -0.0728614 0.33763713 0.1538716
-0.03162959 0.23079118 0.26816484 0.031941302 0.12700936 -0.098284364 -0.16788101 0.28342262
-0.027982725 0.013559755 0.16291161 -0.076947086 0.020138616 0.07298592 -0.3138134 -0.14037475
-0.33217 -0.16360968 0.34629986 -0.2887771 0.24978416 -0.16412032 0.024780657 0.012155169
0.1462684 -0.004928413 0.013258536 -0.23461042 0.230976 0.08130794 0.2797565 0.021225028
-0.15625575 -0.11147906 -0.14448746 0.2597283 0.04341509 0.32642815 0.23738539 -0.0858207
0.13690187 -0.088925876 0.12429414 -0.09157433 -0.087046415 0.31228334 0.26217237 0.009597404
0.1674694 0.06196245 -0.1293521 -0.27375576 0.24401225 0.31920895 0.030962612 -0.12895198
-0.063841164 0.25546277 -0.116474345 -0.06116988

parametrizer.linear2.bias f4 [10]
00000000: 2a4e 723e a294 29be 2818 e73d ff23 44be
00000010: 9450 a4be 9b4a 6c3e 8779 61be ff64 5cbc
00000020: cbe5 9f3d 0598 073d
0.2366263 -0.16560605 0.11283904 -0.19154356 -0.32092726 0.23075335 -0.22019015 -0.013451814
0.078075014 0.03310396

parametrizer.linear3.weight f4 [5, 10]
00000000: c006 dfbd 8876 27bd 4c84 ba3e b45b 7ebd
00000010: 2e94 453e 76ca 233e e959 7ebe 0e69 66be
00000020: 5cf1 ccbd 4eda a8bd aa46 d03d 94f8 94be
00000030: b423 8f3e 68b6 f8bb 4b64 61be 55a7 1d3e
00000040: 4752 1e3e fb04 95be c062 4ebe 415b 433e
00000050: 6fb1 3fbe 1bc4 823e 6117 d63d 6324 debc
00000060: fd82 8c3e bb6a 9ebe cc42 303e a09e 8bbe
00000070: 5b2c acbe 5bf3 6d3c 20b4 85be e1e6 2cbe
00000080: 6c0d 0b3e 9fa8 303e 2605 a53d 0619 873e
00000090: 3c76 27be f028 16be fc60 fb3b 07f0 b23d
000000a0: 776e 82be c982 12be ff11 573d 5729 0bbd
000000b0: 98de 873e 2e5e 8dbd bcfa 27be fe09 5e3e
000000c0: e3de 993d d40a 123e
-0.10889959 -0.040884525 0.3642906 -0.062099174 0.19294807 0.15995201 -0.24838986 -0.22501013
-0.10006973 -0.08244763 0.10169728 -0.290959 0.27956927 -0.007590104 -0.22010915 0.15395863
0.15461074 -0.29105362 -0.20154858 0.1907778 -0.1872003 0.25540242 0.10453678 -0.02711696
0.27443686 -0.30940804 0.17212981 -0.2726946 -0.3362759 0.0145233525 -0.26113987 -0.16884948
0.13579339 0.17251824 0.080576226 0.2638628 -0.16353697 -0.14664054 0.0076714735 0.08737188
-0.25474903 -0.14307703 0.052507397 -0.03397497 0.26537013 -0.06902729 -0.16404241 0.21683499
0.075132154 0.14261943

parametrizer.linear3.bias f4 [5]
00000000: f0e8 2e3e 725f 10bd e808 1cbe 2a7b 823e
00000010: 4788 12be
0.17081046 -0.035247274 -0.15237772 0.25484592 -0.14309798

parametrizer.linear4.weight f4 [31, 5]
00000000: 3ae8 cabe 20f1 98be 5043 35be 4cb7 2dbe
00000010: 6bf9 b3bd c5e4 483d 1d6d f7bc b906 9c3e
00000020: 2aa9 cbbe 1f4c 523c 193c aabd c92b e13e
00000030: 4de3 8dbe 879c 13bd 2da1 f4be 2b09 84be
00000040: a844 133e c656 263c e4b8 b8be 896a a2bd
00000050: c758 e33e fc37 b73e db1a 07be cc48 3ebe
00000060: dd23 e0be 1485 813e 8f04 db3e 1ad8 b6bd
00000070: 212c b83d 37f8 b7bd ae2e 383d 5883 0bbc
00000080: 63f6 a3bd ecb9 ed3e c51b 953e 8d79 eb3e
00000090: 5879 c1bd 5e17 8abe d7b1 b5bc d2a7 ae3d
000000a0: d949 57be cf79 fe3d 4865 17bc caeb f03e
000000b0: 5363 973e 1f82 d5be 70ad 4cbe ac19 f93e
000000c0: 6ef0 83be c78f 703d 22c3 923e 51e2 dc3e
000000d0: 698f 893e eb27 bbbe e6e0 9ebe eef4 363e
000000e0: 4f61 ad3e d158 7cbe cf5e 753c e655 113d
000000f0: c0af 87be 4070 91be 0fbd b03e 7bb6 e63e
00000100: b44f ccbe 205a e33c 3dc2 b93e b366 c6be
00000110: 567f 5339 96a8 39bd b4a4 b8bc 4c2d 76be
00000120: d9c5 253e eec0 b23e 69e7 9dbd 354f 9b3e
00000130: 5e03 82bd 0f83 b73e b6bb f2bd b3ef 413e
00000140: 401f cebd b612 96be 6728 acbc 1245 3bbd
00000150: b4da a9be 006b 4c3e d266 153e 6404 a03e
00000160: 9ef9 57be b331 9dbe 5a70 41be 5aea d03e
00000170: 87e7 37be dae9 883e 7dff 22be 6ff2 8d3e
00000180: d339 673e 7bf0 953e a1e5 d9be eefc e83d
00000190: c457 17be e9c2 a9be d3a4 063d e6ca 3cbe
000001a0: 980b b9be 5dc7 013d 3cb5 7ebe 6dee 3dbd
000001b0: ee81 ae3a 4427 983d 7e1b 253e 4790 afbe
000001c0: 219f 723d db59 a03c da00 7cbe 3158 b23e
000001d0: e4bf 26be a2ff 953c 45f0 59be be2d 55be
000001e0: 88ba 88be 0d13 dd3e 7483 053d 33b9 563e
000001f0: 3287 4d3e 18df bd3e 3176 a83e 21e3 b6be
00000200: 43e4 c3be 0f07 723e 23e7 62be ca2f 8d3d
00000210: 2a7e c4bd 5b07 3e3e f9fd 603e 120a 373e
00000220: a6c0 f93d e8e6 4a3d 7664 61be 2f51 bf3e
00000230: 0258 20be 4b82 bd3e cd3e b1be ea78 cf3d
00000240: b5c4 143e 8e30 b3be d367 e33e 423a 9dbe
00000250: a723 243c 8dfc 47bd c78b 8bbe 8679 cd3e
00000260: 34eb 4d3e 8433 b93d c9c2 9ebe
-0.396303 -0.29871464 -0.17701459 -0.16964453 -0.08787807 0.049046297 -0.030203396 0.3047388
-0.397775 0.0128355315 -0.08312244 0.43978718 -0.2771248 -0.036037948 -0.47779217 -0.25788245
0.14381659 0.010152524 -0.3607856 -0.07930476 0.4440367 0.357849 -0.13193838 -0.18582457
-0.43777362 0.25296843 0.42776915 -0.08927937 0.08992792 -0.0898289 0.044966392 -0.0085152015
-0.08005979 0.4643091 0.2912275 0.45991173 -0.094469726 -0.26970953 -0.022179527 0.08528103
-0.21024264 0.12425577 -0.009240456 0.47054893 0.29567966 -0.41700837 -0.19988036 0.486524
-0.2576937 0.058730867 0.286645 0.43141416 0.26867226 -0.36553892 -0.3103096 0.17866871
0.33863303 -0.24643256 0.014976217 0.03548231 -0.26501274 -0.28405952 0.3451924 0.45061097
-0.3990456 0.027752936 0.36281005 -0.38750228 0.00020169964 -0.04532679 -0.022539474 -0.24040717
0.16188754 0.3491282 -0.077101536 0.30333868 -0.063482985 0.35842177 -0.11852209 0.18939094
-0.10064554 -0.2931115 -0.02101536 -0.045720167 -0.3317467 0.19962692 0.14590004 0.3125335
-0.21091315 -0.3070198 -0.18890515 0.40803796 -0.17959414 0.26740915 -0.15917774 0.27724025
0.22580652 0.29285035 -0.42558005 0.113763675 -0.14779574 -0.33156517 0.032872032 -0.18436775
-0.36141658 0.03168427 -0.24873823 -0.04636996 0.0013313869 0.07429364 0.16123769 -0.34289762
0.05923379 0.019574096 -0.246097 0.3483291 -0.16284138 0.018310372 -0.21283062 -0.2081823
-0.26704812 0.43178597 0.032596067 0.20969085 0.20071104 0.3708427 0.32902673 -0.3572016
-0.38260087 0.23635505 -0.22158484 0.06893881 -0.095943764 0.18557493 0.21971883 0.17874935
0.12194948 0.049536616 -0.22010979 0.37366626 -0.15658572 0.37013468 -0.34618226 0.101304844
0.14528163 -0.34997982 0.4441515 -0.3070851 0.010018266 -0.048824836 -0.2725508 0.40131778
0.20109254 0.09043029 -0.31007984

parametrizer.linear4.bias f4 [31]
00000000: e088 d83e 02d1 bc3e addf 5b3e ab6b 85be
00000010: 065c b2be 9416 4b3c 71df cd3e a345 a13e
00000020: 3011 bab9 b196 c13e 3495 043e bc4c 4abe
00000030: be32 8c3c a756 38bc efa9 edbd 4706 c13e
00000040: 48a8 813e 67ff a03d 39c6 38be 85b5 f1bc
00000050: 8644 d9bd fac2 17be ae8e d73d 03b8 5bbe
00000060: 2467 e83d cad7 11be d3b4 ee3e e102 41bd
00000070: b254 973b 88cc c2bd 4fa6 af3e
0.42291927 0.3687821 0.21472044 -0.26058707 -0.34835833 0.01239552 0.40209535 0.3149844
-0.0003548949 0.3781028 0.12947541 -0.19755834 0.01711404 -0.011251128 -0.11604678 0.37700102
0.253237 0.07861214 -0.18044366 -0.0295055 -0.10608773 -0.14820471 0.10525261 -0.21456914
0.113477975 -0.14242473 0.46622333 -0.047121886 0.0046182508 -0.095116675 0.3430657

exp_avg f4 [10, 30]
00000000: 04b9 083b a866 67bb 51fe d43a 781b 2f3b
00000010: 5485 23bb 0c92 b3bb 1f0e 7dbb 6b2f 24bb
00000020: 8bd1 cd39 280b cfbb 3a72 893b 973f c8b9
00000030: 67af 663b 9eec 653b 8435 dfb9 ce10 9abb
00000040: 9620 fcba bb15 84ba b214 3fbb 8989 93bb
00000050: fefb c83a 2f83 7bbb 83b5 913a aeb8 103b
00000060: ac0f 00bb ae7b b4bb 7f92 4bbb ce76 57bb
00000070: 4cff 15bb b445 f2bb 30ff 45ba 4278 f73b
00000080: b9cf 0cb9 fd8f 08bb 970f fcba fc61 0c3c
00000090: ce1c ac3b 859d c33b ce95 88b9 f48b d53b
000000a0: 6b31 81ba a856 4d3a c89f 26b9 c170 d5ba
000000b0: 17c7 313b b517 d73b ce9a d2bb 6156 983a
000000c0: 1a1e 503b 8e3d 113a 6f96 103a a764 fd3b
000000d0: 9b55 803a 7cda 30ba 949e 453b 4d02 203c
000000e0: 034f d73a c282 cb3b 9abf c93b fb9b 343c
000000f0: 2e2c ffba 5336 0c3b 1611 e7ba 942e 28bb
00000100: 0505 a1bb 7851 7c3a e9d4 d0b9 089d 14ba
00000110: ff20 92bb 0d4e c93a 7deb 71bb 36f1 c539
00000120: 4ee4 2abb da7f 38bb 2775 05ba 1d36 a53a
00000130: 591d 8ebb b94e 29bb 4f53 84ba bef6 d13a
00000140: d9ad 1ebb 3871 0b3b 28c5 01bb da58 4abb
00000150: f605 67bb 55e1 de3a ce0a 13bb 12d9 85ba
00000160: 3d19 21bb e11b 313b 7d08 44bb c038 8bba
00000170: 6361 40bb 1fbd 0fbb 2172 c1ba 1e98 69ba
00000180: 4ab1 26ba 9f6f fcba dd83 b83a 1eb3 233b
00000190: c6c2 27bb 2a42 d3ba 12b9 1fbb 784d 02bb
000001a0: 33de 0b3b f507 d03a e92f 053b b0ce 2d38
000001b0: e95a edb9 5d2d c43a df80 08bb d6b2 8aba
000001c0: a343 13bb bdfc 9aba d262 6e3a fdf7 09ba
000001d0: 3350 c6b9 acf3 9bba 8cef d938 a9e2 ab3a
000001e0: ea08 1fbb 75c5 2e39 de4c 15bb 46d4 e6ba
000001f0: b3d4 ccb9 8b41 383a 319e ca38 cd89 e4ba
00000200: 9de9 85ba 3ab8 593b 7a1e 3bbb 9ea8 26b9
00000210: fbf1 06bb 9e7d 0fbb 3676 ac39 b740 8f3b
00000220: 01b9 963b beda d63a 4bce d23a f1d2 943b
00000230: 8167 18bb a0b4 80b9 eabe 07bb 8192 ebba
00000240: 0b02 a0ba 906a 9e3a 0fe7 df3a e921 09ba
00000250: 7af8 33ba 85d5 103b 0447 503b e298 1eba
00000260: bce8 4b3b b4bd a43a 92c1 22ba 62b0 ba3a
00000270: 38ac 513a 44a0 233b 4e80 68bb 800e b2ba
00000280: f4f5 85b8 dbd2 8dbb 88b0 fdb9 e2a0 193a
00000290: cc92 96bb f7b4 ecbb f586 1fbc 9e0e 02bc
000002a0: 3233 1ebb 5be6 9dbb 4b43 1b3b f220 1c39
000002b0: 25cc 1f3b 3f07 143a 76b4 a73a 3891 093b
000002c0: 80af 0abb 1954 893a f3bc d83a e3bf 573b
000002d0: f368 13ba ee5c 98ba ae19 dfb9 5914 c4ba
000002e0: 2eb6 eeb9 e8be ff3a 318d 9a3a 8b59 933a
000002f0: 25a0 42ba 7077 f63a 23f2 b1ba 6a5e e7ba
00000300: e58c 62ba 899f 81ba 19ac a3ba b87b 88ba
00000310: 9062 82bb 41ad 27bb df1f 383a d6e2 57ba
00000320: 8199 acba 28fd 8dba ac76 74ba 574d 19bb
00000330: 498e a839 e8e7 283b ecbc 7ab9 16b3 fb39
00000340: ff36 083b 2172 7f3b 9b02 933a 3426 093c
00000350: 4d73 ba3a 87a8 40b9 5be7 bfbb 8954 a73b
00000360: 122f 113b 928a 503b 8f9c 5ebb 414a 1d3b
00000370: 350d 4139 c30c 1c3b e20a ef3a e7c1 ee39
00000380: 16f1 033b 30b2 603b d419 37bc ddb2 2ebb
00000390: 2c37 f5ba efc0 06bb ccde a13a e684 183c
000003a0: ec19 023b 724f 31b7 bb80 d93a 66aa 0b3c
000003b0: 7797 683a c9ff 783b 1d16 1f3b b193 183c
000003c0: bef0 b4ba aad9 98bb 9567 c9ba cd73 1fbb
000003d0: 1d6e 453b e5e2 20bb 8499 8cbb 6632 cdb9
000003e0: 62f3 263b 6081 14bb d879 5fba 83ee 84bb
000003f0: 8993 15bb d5aa 66ba e0cc 67ba fa08 4bbc
0.002086223 -0.003530899 0.0016250109 0.0026719254 -0.0024951296 -0.0054800566 -0.0038613153 -0.0025052677
0.0003925677 -0.0063184686 0.004194525 -0.0003819435 0.0035199763 0.0035083662 -0.00042573747 -0.0047017103
-0.0019235786 -0.0010077277 -0.0029156622 -0.0045024795 0.0015333889 -0.0038377752 0.0011116717 0.0022082734
-0.0019540591 -0.005507908 -0.003106266 -0.003287721 -0.0022887764 -0.007393563 -0.00075529795 0.0075521776
-0.00013428823 -0.0020837777 -0.001923072 0.008568283 0.005252457 0.0059697055 -0.00026051555 0.006516928
-0.0009856647 0.0007833042 -0.00015890517 -0.0016284214 0.0027126723 0.0065641054 -0.0064271456 0.0011622423
0.0031756223 0.00055404834 0.00055155804 0.007732946 0.0009791137 -0.0006746424 0.0030154334 0.009766174
0.0016426746 0.006210656 0.006156874 0.011023517 -0.0019468123 0.0021394684 -0.0017628993 -0.0025662528
-0.0049139285 0.0009625177 -0.00039831482 -0.00056691514 -0.0044595 0.0015358344 -0.0036914044 0.00037754484
-0.0026076022 -0.0028152377 -0.00050910044 0.0012604628 -0.0043369946 -0.0025834276 -0.0010095629 0.001601897
-0.0024212508 0.00212772 -0.0019801352 -0.0030875714 -0.0035251356 0.001700441 -0.002243686 -0.0010211787
-0.0024581694 0.0027024674 -0.0029912286 -0.0010621771 -0.0029354922 -0.0021932793 -0.0014758745 -0.0008910912
-0.00063588156 -0.001925934 0.0014077384 0.0024978588 -0.0025598272 -0.0016117741 -0.0024371785 -0.00198826
0.0021342158 0.0015871512 0.0020322746 4.1438907e-05 -0.00045271896 0.0014967133 -0.0020828766 -0.0010581862
-0.0022470735 -0.001182459 0.0009093705 -0.00052630884 -0.00037825256 -0.0011898181 0.000103919854 0.0013113815
-0.0024266788 0.00016667492 -0.0022781412 -0.001761087 -0.00039068385 0.00070288096 9.661576e-05 -0.0017436087
-0.0010216717 0.003322138 -0.00285521 -0.00015893808 -0.002059101 -0.0021894942 0.0003289447 0.0043717283
0.004599691 0.0016392095 0.0016083209 0.0045417477 -0.0023255053 -0.0002454864 -0.002071316 -0.0017972739
-0.001220764 0.0012086201 0.0017082411 -0.0005231188 -0.0006865334 0.0022099924 0.003178061 -0.0006050003
0.0031114062 0.0012568743 -0.0006208654 0.001424324 0.000799838 0.0024967352 -0.0035476866 -0.0013584644
-6.3877465e-05 -0.0043281144 -0.00048387446 0.000586046 -0.0045951363 -0.007223721 -0.009736766 -0.007938055
-0.0024139402 -0.0048187203 0.0023691233 0.00014889592 0.0024383154 0.00056468317 0.001279487 0.0020991098
-0.0021161735 0.0010477334 0.0016535803 0.003292077 -0.00056232436 -0.0011624375 -0.00042553007 -0.0014959677
-0.00045530632 0.001951185 0.0011791346 0.0011241896 -0.0007424376 0.0018803906 -0.0013576191 -0.0017652039
-0.0008642211 -0.0009889464 -0.0012487202 -0.0010412848 -0.0039790347 -0.0025585445 0.0007023792 -0.00082354003
-0.0013168306 -0.0010832893 -0.0009325545 -0.0023392045 0.00032149468 0.0025772993 -0.00023912237 0.0004800788
0.0020784733 0.0038977938 0.0011215986 0.008370925 0.0014225036 -0.00018373328 -0.005856437 0.005106513
0.00221533 0.0031820876 -0.0033967828 0.0024000558 0.00018410834 0.0023811318 0.0018237496 0.00045539366
0.0020132712 0.0034285896 -0.0111755915 -0.0026656904 -0.0018708459 -0.0020561775 0.0012349724 0.009309029
0.0019851876 -1.0568519e-05 0.0016594151 0.008524513 0.00088726677 0.0037994257 0.0024274655 0.009312556
-0.0013804657 -0.0046646195 -0.0015365953 -0.0024330497 0.0030125447 -0.0024549302 -0.0042907614 -0.00039138197
0.0025474657 -0.0022660121 -0.0008524931 -0.004056753 -0.0022823534 -0.00087992597 -0.00088424794 -0.012392277

exp_avg_sq f4 [10, 30]
00000000: 7ea6 ab37 fb93 7037 f250 9f37 d9f1 e937
00000010: 8c8d cf36 9cd7 8137 8802 2537 d908 2f37
00000020: 5046 1f37 ee2b df37 d426 3b38 1e7b c736
00000030: 58c6 1e38 b3c6 5a38 3c5c 0b37 308d a337
00000040: 3f25 1137 6bb8 d136 c183 3c37 a9af ad37
00000050: a835 ec37 8c61 ff36 c0f2 e037 1344 2b38
00000060: 2e76 d936 a466 8d37 b575 0237 d037 4437
00000070: 14a3 cd37 a553 e537 3451 3337 3e58 5038
00000080: a70d 3b37 2afb 1337 69b3 1738 2341 6f38
00000090: cffb 4038 5bdf 0c38 f693 5838 c89f f637
000000a0: 7891 8a37 9429 6e37 d65c 4137 7293 4137
000000b0: e4fb 5c38 b452 9a38 a561 8438 c309 1f38
000000c0: 6dc4 4e38 2b14 1938 c482 9b37 9200 3538
000000d0: c7ef 8a37 7233 9337 74b8 1638 468f 8638
000000e0: 0107 2238 1b70 2238 d24f fc38 823b 5b38
000000f0: e0f0 5837 b1aa af37 a5c8 4637 cf21 8637
00000100: 8c4b 9a36 1cd9 e536 d565 e336 b2bb a736
00000110: ff1a c236 dce3 5d37 5de9 ae37 c345 c336
00000120: e876 8337 7264 c737 8128 2c37 db96 9f37
00000130: df23 8837 0c38 1637 7518 e036 f4af 9d37
00000140: 7006 af37 08f2 8b37 7ef3 9c37 7dea f937
00000150: cb6a 9a36 e51c f936 f134 1137 ca03 ca36
00000160: 6d70 0937 dd07 3f37 cb2a a136 1ab4 8735
00000170: 84e9 8f36 89cb 5f36 d36f 0a36 0062 3836
00000180: 182f da35 5cc9 d735 9869 6b36 48f8 5d37
00000190: bfd3 4136 1989 4235 6a66 2436 facd 0936
000001a0: 8a1e 1437 931d 9537 190b 4937 5331 9536
000001b0: f898 3436 ccfc db37 614d 7536 4526 9335
000001c0: 0120 6136 ac8d 2b36 8ed5 2536 35ca 4a36
000001d0: 39f1 cb35 1921 e135 6eeb e036 d7df dc36
000001e0: e1a2 e136 396c 9635 9cc7 d836 97da fc36
000001f0: 193a 1f36 ecf2 2936 0828 6e36 5cda 5b36
00000200: faef fa35 1869 0a37 1290 1737 7ceb c735
00000210: b83c 1237 ec95 4e37 96e6 4436 c263 cd36
00000220: 4d81 1837 d919 5f36 2220 4b36 c812 0137
00000230: 2932 fc36 bb8d 7235 4205 f336 eaca 1c37
00000240: e070 fb35 0620 f735 c537 5a36 b378 1536
00000250: 5f62 1e36 9430 9a36 c504 0937 abda f037
00000260: 0f84 0037 994c c236 9fe6 bf37 103f be37
00000270: 6863 9337 30fd 2937 f491 1038 8e3e 6538
00000280: e6f1 3d37 52e8 0138 0788 4137 2077 0b37
00000290: ee47 3b38 b031 9338 5d03 b438 411f b238
000002a0: 4063 9f37 3925 8538 4c02 c336 2865 bd37
000002b0: 50a3 bd36 c75c b636 f710 9037 2927 4237
000002c0: 19ae 5b37 1312 1d37 62cd a836 4f30 0138
000002d0: 2fb6 9236 d7c9 6037 9fef 8936 c0d7 c536
000002e0: b6d5 fb36 fb5b 6f36 64cf 2336 489a 6136
000002f0: 9684 7d36 ef80 c736 6cc2 c336 9b86 e136
00000300: 51f7 9236 e73f a536 08bd 1437 004f a836
00000310: 4aae 7436 dc60 0c37 b97e 8c36 1e2b 8c36
00000320: a8c0 0037 ee47 5637 2d48 e036 9390 5537
00000330: e6e3 d236 47ce 2036 2eed 2d36 9cc4 8a36
00000340: 11d0 2136 fa0c 8536 7637 9b37 a77f 8138
00000350: 113d a237 f84e 6837 5675 0538 fc79 2238
00000360: b363 2b38 0722 df37 3d32 c837 3925 f837
00000370: cd89 9937 551f 9037 1a3d 9d37 1408 8037
00000380: 66bf cb37 9d3a 2c38 4920 8d38 9ff5 0938
00000390: 53a8 4738 5e1d 2238 2c97 8b37 066f 6438
000003a0: 282b 9937 0403 4c37 0a32 8737 e4b4 5838
000003b0: d513 2238 79b8 0038 fc09 3f38 7b23 2438
000003c0: b600 5d36 461b 3937 be97 6136 5fad 8636
000003d0: 8207 8237 7386 a437 1107 9837 c412 1137
000003e0: 28ff 7137 bfbc ec37 0f34 bc36 8530 8237
000003f0: 587a dc36 eecf 2d36 d80d 5f37 d560 4f38
2.0462317e-05 1.4339569e-05 1.899197e-05 2.7888384e-05 6.185559e-06 1.54784e-05 9.835356e-06 1.0432873e-05
9.493509e-06 2.6604128e-05 4.4620436e-05 5.944995e-06 3.7854858e-05 5.2160303e-05 8.306521e-06 1.949686e-05
8.6513455e-06 6.2501545e-06 1.123635e-05 2.0705005e-05 2.8158378e-05 7.610948e-06 2.681592e-05 4.0832976e-05
6.480862e-06 1.6856306e-05 7.77601e-06 1.1695505e-05 2.4513844e-05 2.7337877e-05 1.0688138e-05 4.9673246e-05
1.1149247e-05 8.8203615e-06 3.6168294e-05 5.7042704e-05 4.6010882e-05 3.3586617e-05 5.1636212e-05 2.939989e-05
1.6518621e-05 1.4195586e-05 1.15253115e-05 1.1538026e-05 5.268668e-05 7.358697e-05 6.312438e-05 3.7917645e-05
4.9297163e-05 3.6496825e-05 1.8538332e-05 4.3154294e-05 1.6562537e-05 1.7547722e-05 3.5934572e-05 6.416305e-05
3.8630333e-05 3.8728216e-05 0.00012031164 5.226909e-05 1.2930686e-05 2.094111e-05 1.1848436e-05 1.5989788e-05
4.5983525e-06 6.8500067e-06 6.776982e-06 4.9988384e-06 5.7847933e-06 1.3225679e-05 2.0851085e-05 5.819574e-06
1.5671787e-05 2.3769422e-05 1.0261429e-05 1.9024525e-05 1.6229167e-05 8.953746e-06 6.6785674e-06 1.8797793e-05
2.0864623e-05 1.6682796e-05 1.8710034e-05 2.9792305e-05 4.60199e-06 7.424142e-06 8.655e-06 6.02051e-06
8.1920125e-06 1.1386318e-05 4.8031557e-06 1.01107e-06 4.288917e-06 3.3348063e-06 2.0628693e-06 2.747518e-06
1.6255972e-06 1.6077352e-06 3.5079192e-06 1.3230434e-05 2.8882494e-06 7.2470135e-07 2.4497517e-06 2.0534485e-06
8.828598e-06 1.7775956e-05 1.19831175e-05 4.446288e-06 2.691113e-06 2.6224552e-05 3.6552885e-06 1.0963491e-06
3.3546241e-06 2.556345e-06 2.4711221e-06 3.0218046e-06 1.5194884e-06 1.6773439e-06 6.703128e-06 6.5825693e-06
6.724484e-06 1.1207368e-06 6.460539e-06 7.5356324e-06 2.3726664e-06 2.5324362e-06 3.5488065e-06 3.2760645e-06
1.8696294e-06 8.24991e-06 9.033845e-06 1.489519e-06 8.716415e-06 1.2313463e-05 2.9340495e-06 6.1210894e-06
9.090011e-06 3.3244635e-06 3.026806e-06 7.693372e-06 7.5160247e-06 9.035827e-07 7.2425764e-06 9.345569e-06
1.8733808e-06 1.8412254e-06 3.2516994e-06 2.2272986e-06 2.3601094e-06 4.595213e-06 8.166947e-06 2.8712055e-05
7.660142e-06 5.7905677e-06 2.2876366e-05 2.267913e-05 1.7570055e-05 1.0132135e-05 3.4468205e-05 5.4656113e-05
1.1321599e-05 3.0972362e-05 1.1535368e-05 8.312782e-06 4.4651264e-05 7.018761e-05 8.583695e-05 8.493523e-05
1.9000494e-05 6.3488675e-05 5.8117203e-06 2.257766e-05 5.651651e-06 5.4348234e-06 1.7174038e-05 1.1572419e-05
1.30939525e-05 9.3621375e-06 5.0307e-06 3.0800988e-05 4.372348e-06 1.3398435e-05 4.1108137e-06 5.896174e-06
7.505262e-06 3.5667315e-06 2.440961e-06 3.3617416e-06 3.7777113e-06 5.945672e-06 5.8340866e-06 6.7211927e-06
4.3799305e-06 4.9248224e-06 8.8655e-06 5.015987e-06 3.6460283e-06 8.367202e-06 4.1870776e-06 4.1773446e-06
7.674251e-06 1.2772141e-05 6.6841226e-06 1.2729451e-05 6.2850186e-06 2.3961927e-06 2.5917066e-06 4.135609e-06
2.411198e-06 3.9652195e-06 1.8503266e-05 6.1749764e-05 1.9340341e-05 1.3846664e-05 3.181895e-05 3.8737417e-05
4.086243e-05 2.6599517e-05 2.3865252e-05 2.9581237e-05 1.830319e-05 1.7180728e-05 1.8744311e-05 1.526255e-05
2.4288613e-05 4.1062583e-05 6.7294175e-05 3.2892098e-05 4.760206e-05 3.865116e-05 1.6640486e-05 5.4462835e-05
1.8259117e-05 1.216005e-05 1.6116555e-05 5.166688e-05 3.864228e-05 3.068938e-05 4.5547247e-05 3.913369e-05
3.293198e-06 1.1033209e-05 3.3615938e-06 4.0136943e-06 1.5500704e-05 1.9612931e-05 1.8123103e-05 8.647043e-06
1.4424128e-05 2.8221284e-05 5.608897e-06 1.5519801e-05 6.5707536e-06 2.590004e-06 1.3295059e-05 4.9442828e-05

exp_avg f4 [10]
00000000: f0e8 9c3b 452f 773c eb02 70ba b901 783c
00000010: 2741 42ba 85b2 17bc 2e0c 41bb 8546 3b3c
00000020: 4405 833b c655 53bc
0.0047885105 0.0150869535 -0.0009155708 0.015137129 -0.0007410221 -0.009258871 -0.0029456723 0.011430387
0.0039984304 -0.012898868

exp_avg_sq f4 [10]
00000000: 1dfd 8137 428d 9d37 f79b f437 8a34 9937
00000010: ad03 b636 678f cc38 4961 e137 ebcf 3f38
00000020: e0a3 ba36 094e 2f38
1.5495863e-05 1.8781637e-05 2.9159693e-05 1.8263487e-05 5.4244506e-06 9.754189e-05 2.6867392e-05 4.5731587e-05
5.5623095e-06 4.1795927e-05

exp_avg f4 [10, 10]
00000000: c0f4 69bb a4e8 113b d808 38bb 99b7 0a3c
00000010: f2e2 21bb a1b8 9fba 03c7 953b 7699 4639
00000020: 797a e2b9 e669 aabb 0efb 9d3b 1dd4 2c3b
00000030: 9d95 ea3b 9eeb 9c39 a70f 0fbc 73cc b43b
00000040: 3611 f9bb ba85 a13a a28c f53b 1a9b 2ebc
00000050: 8af6 a239 bbbc 37bb 5d97 453b f54e 893a
00000060: 7e2c 4dbb f35b f639 9527 4dbb abf6 1c3a
00000070: 2e9a ca3b f39d a5bb ec0d 7db9 d20a bfb9
00000080: f373 39bb b630 a0bb 00f1 6d3b 4aaa d7b8
00000090: 2dfa 2a3b b603 a03a 9871 a6bb 2e8f 033c
000000a0: b122 763b d531 a4ba cfbe ff3b c0d7 67bb
000000b0: 473d 59ba 8f85 773a 2619 14bc ea06 04bb
000000c0: e7a8 c43b 5b40 63bb b21b b0bb 4e00 c7ba
000000d0: 172b 7fbb 3b81 0139 4e27 9a3b 2d21 76bb
000000e0: 435d f93b 887f 81ba dc9b 8fbb 183d 2b3c
000000f0: ec36 063c 2c6e 0a3a 95c7 943a 40f3 daba
00000100: 6d73 15bc 4266 193c 3f88 eabb e3c3 053c
00000110: 9fa8 753b 16cf 39bc 7b73 03bb ba8e ad3a
00000120: 964a 76bb 0d82 8b39 746e 053c a9e9 a3bb
00000130: e2dc 7c3b 9fd5 9bbb d7c7 e3bb fc61 e33b
00000140: 2284 e0bb a2c5 ca3a a350 02bc 47b6 dc3a
00000150: ca1f 353c 60d6 08bc 3854 293c 6a23 95bb
00000160: b616 30bc 362d 4b3c 8cb9 453b e2bd f4ba
00000170: 6f52 c3ba e099 a8bb 4905 183b a08c ea3a
00000180: ad27 03bb d4ce f73a 1d31 36bb 0178 4c3b
-0.003569886 0.0022263909 -0.0028081443 0.008466625 -0.002470192 -0.0012185761 0.004570843 0.0001893992
-0.00043197328 -0.0052006124 0.004821188 0.0026371547 0.0071589486 0.00029930187 -0.008731759 0.0055175363
-0.0076009287 0.0012323179 0.0074935714 -0.010657096 0.00031082734 -0.0028036076 0.0030150034 0.0010475802
-0.0031307037 0.00046989284 -0.003130411 0.0005987684 0.0061829304 -0.0050542294 -0.00024133147 -0.0003643842
-0.002829787 -0.0048886193 0.0036306977 -0.00010283718 0.0026089058 0.0012208137 -0.0050794594 0.008029742
0.0037557299 -0.0012527058 0.0078047286 -0.00353764 -0.0008287024 0.0009442204 -0.009039199 -0.0020145723
0.00600158 -0.003467581 -0.0053743953 -0.0015182586 -0.0038935596 0.00012350541 0.0047043925 -0.0037556395
0.0076099946 -0.0009879926 -0.0043825936 0.010451578 0.008191805 0.0005280699 0.0011350984 -0.0016704574
-0.009121758 0.009362759 -0.007157355 0.008164379 0.003748454 -0.011340877 -0.0020057845 0.0013241388
-0.0037581078 0.0002660904 0.00814401 -0.0050022197 0.0038583805 -0.00475569 -0.006951313 0.006939171
-0.006851689 0.0015470276 -0.007953796 0.0016838991 0.011054942 -0.008351892 0.010335021 -0.004551341
-0.010747602 0.012400916 0.003017041 -0.0018672312 -0.0014901886 -0.0051452965 0.002319651 0.0017894693
-0.0020012662 0.0018906244 -0.002780027 0.0031199458

exp_avg_sq f4 [10, 10]
00000000: 02af 0137 abb8 ed36 8fbf 8037 428e aa36
00000010: 8cee 3c36 181c 9b37 bf14 4e37 41d7 3737
00000020: 7f8c 3d36 9e57 7a37 9a74 8a37 e694 7737
00000030: 1811 0a38 6b99 7437 af6e f037 4462 1938
00000040: bf86 5f38 820c 1338 4b8e 1438 0dab b138
00000050: 8fd4 2337 4fca 9436 658f 6437 fdfd eb35
00000060: 8d21 1a37 1070 8e37 b7e9 dc36 f87b b836
00000070: 6da9 2737 ca28 2e37 fd47 1436 95e6 2435
00000080: 3276 df36 83d2 f536 b286 7436 f4de e535
00000090: 98a0 9736 ed53 1936 90f9 9e36 b5aa 3137
000000a0: d0c8 e736 1d12 5c37 6c32 5838 4f63 2837
000000b0: 8746 eb36 e603 4f37 61d0 c037 44a8 4e37
000000c0: 2156 0e37 ccf0 5637 d774 2c37 9149 b936
000000d0: 8186 9637 b20e b437 c100 6b37 0c84 9837
000000e0: 9e11 f137 2f9a 8837 5ff9 8137 14f7 5238
000000f0: 48b1 6037 0d02 df35 1d9f 0d37 7371 9e36
00000100: f38d e337 3a9d 6f38 5115 d637 fcaa 1238
00000110: b2c8 b637 f6a0 3838 e0d5 8137 61b0 9a36
00000120: c26d ba37 4a53 ee36 60f3 0038 9912 3538
00000130: 61b8 0338 3b03 c337 8743 e737 f3f9 9037
00000140: 5d51 8037 e233 b136 26ab 3b38 f59b 2c37
00000150: c81f 4f38 e989 3838 2902 7638 0c42 f837
00000160: d506 3e38 eb6c 4138 4452 3d37 1fe1 9e36
00000170: 80fa ae36 6afb 4f36 4822 1437 0cd1 8237
00000180: dbfb 7837 8922 2037 8dd0 1237 202d b037
7.729746e-06 7.0846486e-06 1.534799e-05 5.082956e-06 2.8153036e-06 1.8490522e-05 1.2283387e-05 1.0957768e-05
2.8244974e-06 1.4921561e-05 1.6505179e-05 1.4757015e-05 3.2917684e-05 1.4579254e-05 2.866177e-05 3.656956e-05
5.3292835e-05 3.505918e-05 3.541847e-05 8.4718784e-05 9.765047e-06 4.4342955e-06 1.3623246e-05 1.7582785e-06
9.186927e-06 1.6979902e-05 6.583719e-06 5.498059e-06 9.993423e-06 1.0380705e-05 2.2095621e-06 6.14303e-07
6.6596776e-06 7.326076e-06 3.6437236e-06 1.7126717e-06 4.5188463e-06 2.2847628e-06 4.73782e-06 1.0589768e-05
6.907714e-06 1.3117239e-05 5.1545372e-05 1.0036702e-05 7.011756e-06 1.2339069e-05 2.2985218e-05 1.2317734e-05
8.483913e-06 1.2811459e-05 1.0279203e-05 5.521994e-06 1.7944027e-05 2.1464515e-05 1.4007267e-05 1.8181301e-05
2.8737642e-05 1.628426e-05 1.549412e-05 5.029801e-05 1.3392717e-05 1.6615392e-06 8.441301e-06 4.721974e-06
2.7126609e-05 5.712847e-05 2.5520714e-05 3.4968354e-05 2.1789547e-05 4.4018925e-05 1.5477592e-05 4.610091e-06
2.2224038e-05 7.102649e-06 3.074424e-05 4.3171083e-05 3.140455e-05 2.3247316e-05 2.756879e-05 1.728253e-05
1.5296677e-05 5.281051e-06 4.474367e-05 1.02883105e-05 4.9382244e-05 4.3997457e-05 5.8652982e-05 2.959466e-05
4.5305893e-05 4.6116224e-05 1.1284432e-05 4.7349745e-06 5.214766e-06 3.0991746e-06 8.829469e-06 1.5594553e-05
1.4840592e-05 9.544784e-06 8.750835e-06 2.1001848e-05

exp_avg f4 [10]
00000000: df38 54bd ef64 1bbc 3581 c23b b69c 813c
00000010: 394d 1a3d 01fe 1439 9a10 24bc f235 de3b
00000020: 29f8 dfbb 2e7a d53c
-0.05181205 -0.009484514 0.005935813 0.015821796 0.0376713 0.00014209004 -0.010013724 0.006781333
-0.006835003 0.026059236

exp_avg_sq f4 [10]
00000000: 29ed 133a 33f3 6a39 f5c2 4539 30b0 ad38
00000010: b3b1 2939 8c96 b839 0875 6f39 e3a2 c438
00000020: 0fe9 ca37 d2ba 0b39
0.00056429446 0.00022406578 0.00018860011 8.2821e-05 0.00016183294 0.0003520738 0.00022836414 9.376348e-05
2.4188803e-05 0.00013325669

exp_avg f4 [5, 10]
00000000: 34da ddbc 6c6c 8a3c 25d7 e6bc 87cc 923c
00000010: c4ec 943c 084c a63b d979 873c 7510 e2bb
00000020: d39a bebb 7d81 d93b 82af e3bb 0f2c 7f3b
00000030: 3c50 d8bb b350 abba 4515 1d3b 1d28 203b
00000040: 6be1 cb3a c18c 1e3c 9247 4a3b 9f16 323b
00000050: 8315 0d3c 3806 c3bb 9a45 1bbc e2b6 f0bc
00000060: 23ff 7bbc 7022 1a3d 6f22 51bc 8357 ba3c
00000070: 8ec3 7b3c 4721 b63a d965 553d 22c3 ebbc
00000080: 42f9 373d 6360 ddbc 6c29 21bd 0aae 91bb
00000090: db81 e4bc 0c28 f1ba 9781 3a3c 5136 a8bb
000000a0: 18bf b83c ad2a c0bc 8f49 863c dcba 5bbc
000000b0: bc1e c9bc 0af9 353c 97d4 55bc 7e75 06bc
000000c0: d55d c43a 6285 1e3b
-0.027081586 0.016897403 -0.02817876 0.017919792 0.018179305 0.0050749816 0.016537594 -0.0068989345
-0.0058167963 0.0066377507 -0.0069484124 0.0038936173 -0.0066013616 -0.0013070315 0.0023968976 0.0024437972
0.0015554851 0.009677113 0.0030865413 0.0027174128 0.008611086 -0.005951669 -0.0094770435 -0.02938408
-0.015380654 0.0376305 -0.012764557 0.022746807 0.015366448 0.0013895415 0.052099083 -0.02877957
0.044915445 -0.0270235 -0.039346144 -0.004445796 -0.027893951 -0.0018398776 0.011383436 -0.005133428
0.022552058 -0.02345785 0.016392497 -0.01341125 -0.024550788 0.011106739 -0.013051174 -0.008206723
0.0014981577 0.002418839

exp_avg_sq f4 [5, 10]
00000000: a45f 4638 dfa7 5938 afc9 e738 beb9 fa37
00000010: 2642 7838 badd 0c38 4f3c bd37 33ff 4538
00000020: d2ef 8837 96ac 8937 f282 0a38 a08d 2438
00000030: 38fe 5438 5335 0e38 3d41 0238 1cb1 8b38
00000040: 851d ae36 ee88 8038 1089 1c38 79f4 d736
00000050: cdf9 8137 5fef b838 4e6e 3139 83d0 f938
00000060: 2e27 3538 3ceb a439 23cc 7f37 e75c fe38
00000070: be19 bc37 5591 d037 5173 1f3a d20d 1e3a
00000080: 1221 483a 143a 4739 0a45 453a 9a52 0d39
00000090: f640 b339 43c2 8738 100c 0139 1082 3c37
000000a0: 51e5 7538 12a4 1639 4c68 f438 ab7a 0438
000000b0: 2fc4 c238 2c28 9238 0089 3438 826a 3f39
000000c0: 0c59 c937 49a9 fe37
4.729595e-05 5.1893174e-05 0.00011052505 2.9888815e-05 5.9189413e-05 3.35851e-05 2.255864e-05 4.7206133e-05
1.6324138e-05 1.641204e-05 3.3023716e-05 3.9232546e-05 5.07815e-05 3.39051e-05 3.1055173e-05 6.661026e-05
5.1890406e-06 6.129021e-05 3.7320948e-05 6.4359597e-06 1.549432e-05 8.81839e-05 0.00016921127 0.000119120836
4.319025e-05 0.0003145578 1.5246714e-05 0.00012128968 2.2423334e-05 2.4863208e-05 0.0006082552 0.0006029281
0.00076343224 0.00018999755 0.0007525241 0.0001347758 0.0003418994 6.473486e-05 0.00012306892 1.1235956e-05
5.862612e-05 0.00014366236 0.000116542535 3.1585496e-05 9.287183e-05 6.969305e-05 4.3042935e-05 0.00018254857
2.4002533e-05 3.0357989e-05

exp_avg f4 [5]
00000000: c30c 74bd df0e 06bc b0b3 9a3d 4c2d ff3d
00000010: 143a ab3d
-0.059582483 -0.0081822565 0.07553804 0.124598116 0.08360687

exp_avg_sq f4 [5]
00000000: 2ba6 a739 8725 7c39 5e0e 1a3a 11dd ee3b
00000010: 68e5 533a
0.00031976527 0.00024046573 0.00058767747 0.0072895368 0.00080831954

exp_avg f4 [31, 5]
00000000: 5978 98bc 48bf 29bc 395c 1c3d f535 c7bc
00000010: 8353 8a3c e38f a7bc 7778 4dbc 3693 f53c
00000020: dfde 94bc ae8f 8c3c b207 84bc 1e8c ebbb
00000030: 707c 163d 8702 b1bc cb79 713c 8f3f d7bc
00000040: 9ce3 7bbc ca01 4d3d fd0a 06bd db1e c53c
00000050: 061b 50bc 7b82 08bc 7415 bc3c 3fa0 89bc
00000060: f332 ba3b fe4d 0dbc e08f e1bb e3e4 303c
00000070: d53a 8cbb 8adb bb3b 687f 47bc c7f0 2fbc
00000080: 2c1c bc3b 93d9 89bb efbf 073c 1d52 83bc
00000090: 7cce 2cbc 2c0a dc3c 7c9a 8bbc 4938 4f3c
000000a0: 3444 1fbc 2ae6 aabb 717d 413c a4f9 17bc
000000b0: 88af 913b 2cad 333b 3106 babb 7b6a d8bc
000000c0: 8c73 753c 0574 eebb 9d05 99bc 2404 38bc
000000d0: 7b65 f83c f702 a9bc bcb9 703c 857e f5bb
000000e0: cfc1 99bb d1d4 0e3b aa00 05b9 0683 823b
000000f0: e631 95bc f34f 45bc 4624 e13c 527c 98bc
00000100: 2cb8 6b3c 358d 78bc f714 11bc bee4 d83c
00000110: 5c20 94bc fba9 4c3c fb38 b3bb 51b9 13bc
00000120: cccb debb 1f8e e239 1063 8235 b032 af3a
00000130: 7c0d 08bc bf49 02bd 4c16 933c 2419 62bb
00000140: 7e23 70bb 9a01 78bc 314e 37bd ad24 a03c
00000150: 36cf 55bb 95bc 3fbc 8a56 8bbc 8bca 1abc
00000160: c4d4 7d3a 4dd2 ba3b 21ac 87ba 8308 30ba
00000170: 6493 f7bb b43e 653b 866a 62bb f8b2 8abb
00000180: decc 62bc 46a1 f3bc 688d 6c3c 043a a5b9
00000190: ab30 e6bc 1130 8ebc f57f 543d d6a9 0dbd
000001a0: c024 d33c 44eb dcbc 2070 87bc aa78 2b3d
000001b0: 4aa8 d4bc 5e34 c83c 03cf bcbc b7f0 5ebc
000001c0: f076 343d 5b22 eabc 8b48 af3c 0489 dcbc
000001d0: aadd 8cbc a922 433d 7c67 07bd 7bd4 c93c
000001e0: db44 69bc da3e 19bc 1a3c d13c adcf 9cbc
000001f0: 02ce 1b3c fe8a 1dbc 969e cabb 1006 693c
00000200: 64c9 e2bb c904 223c bcde 1abc 169c 0ebc
00000210: 899c 27ba bd87 81ba 74d9 ec3b 0bd1 c2bc
00000220: 2e89 88bc f6a7 183d a155 cbbc 3590 af3c
00000230: 560c 26bc f3b5 2cbb b45a aa3c ac40 5cbc
00000240: 606f f93b fb32 94bb ab76 bbbb 6ff5 5ebb
00000250: 3f57 3c3b 4b24 6f3b 9443 af3c f29e 44bb
00000260: c19d 64bd cc56 c33c a12b afbb
-0.018612074 -0.010360546 0.038173888 -0.02431772 0.016885525 -0.020454353 -0.012540928 0.029977422
-0.01817268 0.017158356 -0.01611695 -0.007188334 0.036739767 -0.02160765 0.01473851 -0.026275424
-0.0153740905 0.050050534 -0.032725323 0.024062565 -0.012701755 -0.00833189 0.022959448 -0.016800044
0.005682343 -0.008624552 -0.0068836063 0.010796758 -0.0042794743 0.005732958 -0.012176372 -0.010738558
0.005740663 -0.004206845 0.008285507 -0.016030366 -0.010547277 0.02686032 -0.017041437 0.012647697
-0.009720851 -0.005215426 0.011809693 -0.009275828 0.004445974 0.002741645 -0.0056770076 -0.026417961
0.014981162 -0.007277014 -0.018679434 -0.011231456 0.030321827 -0.020631297 0.01469272 -0.007491889
-0.0046922932 0.002179433 -0.00012684116 0.0039829044 -0.01821227 -0.012042987 0.027483117 -0.018613968
0.014387172 -0.015170385 -0.008855096 0.02647626 -0.018081836 0.012491698 -0.005469439 -0.009016351
-0.006799197 0.00043211968 9.714586e-07 0.0013366546 -0.008303996 -0.03180861 0.017954968 -0.0034499848
-0.0036642249 -0.015137101 -0.044752304 0.019548738 -0.0032624728 -0.011702676 -0.017009038 -0.009447704
0.00096828886 0.0057013393 -0.0010350981 -0.00067151355 -0.007555412 0.003498 -0.0034548356 -0.0042327605
-0.013842789 -0.029739987 0.014438011 -0.00031514477 -0.028099379 -0.017356904 0.05187984 -0.034585796
0.02577436 -0.026967652 -0.016532958 0.04186312 -0.025959153 0.024439033 -0.02304793 -0.013607196
0.04405874 -0.028580835 0.021396896 -0.026920803 -0.017195541 0.047640476 -0.033057675 0.024637451
-0.014237608 -0.009353364 0.025541354 -0.019141996 0.009509565 -0.009615658 -0.0061834557 0.014222637
-0.0069209803 0.009888836 -0.009452518 -0.008704206 -0.000639387 -0.0009882372 0.007228071 -0.02378132
-0.016666975 0.037269555 -0.024821104 0.021431068 -0.010134777 -0.0026353567 0.020795204 -0.013443153
0.007612154 -0.004522679 -0.0057209334 -0.0034020802 0.0028738526 0.0036490138 0.021394528 -0.0030001965
-0.05581451 0.023845099 -0.005345777

exp_avg_sq f4 [31, 5]
00000000: c957 c538 8acc ac38 759a b439 d5cb f039
00000010: cdb9 2938 e9a0 5a38 b7d2 8138 ac9d 4a39
00000020: bc99 5939 ddea d937 532f b338 cc76 9d38
00000030: d0f2 ae39 0945 e339 5c7b 1938 5411 0939
00000040: 6b99 ea38 9f1f e039 5862 173a 2690 6e38
00000050: ba5b 1138 2dba 0738 e16b d538 f860 0d39
00000060: 4c0a a236 70c7 af37 3a0a 3b38 f291 e738
00000070: 4cdd e838 7b22 3237 6e51 0938 22e8 7738
00000080: 48af 0839 2c47 1939 6a83 9537 ffe4 8f38
00000090: a47d 9c38 668c 7e39 7334 a939 22ff e537
000000a0: e7ca 2337 808f 4e37 6e4b 3338 2912 1f38
000000b0: a906 4736 c4e7 5037 bdeb bb37 4540 d938
000000c0: 8a17 a138 139b 2137 1d45 a338 ebe0 bc38
000000d0: 598c 5a39 124b a439 d2f2 d237 6ae3 0b37
000000e0: a17c 2237 ad0b b537 410e aa37 351c b335
000000f0: d05f 8738 35a9 ab38 5694 3e39 1401 8a39
00000100: 92cd bd37 f0de 9038 3b02 a538 5343 3139
00000110: aef4 9239 fbce b737 f596 c736 6dd1 8537
00000120: 198e 0438 0544 c137 0b52 5136 497a ad36
00000130: 797a 4638 f0ea d838 8fd1 1d38 2d5b 3f36
00000140: eee6 2c37 5899 7138 abbb 5d39 5590 7838
00000150: ad92 b636 308c 9537 b942 9f38 195c c338
00000160: cba4 7038 6f5c fe36 8620 8a36 eb65 d636
00000170: 1623 6438 be4f 0738 f2dc c736 32fb 2637
00000180: 481d 8a38 b3f7 0539 ea7a 5138 1959 0e36
00000190: 1cce 1e39 8766 0839 6c5e fc39 d868 2c3a
000001a0: be1f 8b38 8b91 9b38 a84d 8f38 52f4 9039
000001b0: 1110 9839 25fe 2f38 5345 0239 cf75 e838
000001c0: 5b5c d639 8956 133a 64c1 6138 99dc 2339
000001d0: 805f 1439 6bb0 d939 b0d2 253a e24a 8438
000001e0: 6690 3038 bcc6 0338 7895 c338 f5c7 1a39
000001f0: c7a9 da36 6050 c837 9a63 0f38 8cae 0539
00000200: e35b 0a39 166f 8337 6180 be37 318d 3538
00000210: f761 0139 5daa f638 a46a 7d37 ad36 bf38
00000220: 3679 ca38 2b08 b339 b419 db39 f8dc 3c38
00000230: dc1d 9037 bbd6 d636 acfc 6438 bd80 9038
00000240: 0fb3 df36 18ba b236 d9d8 b137 b6af 3538
00000250: 7a6f d137 813a ae36 e2e9 e837 f496 8837
00000260: d754 e939 92c9 2839 dd29 ae36
9.410043e-05 8.2396975e-05 0.00034447355 0.00045928234 4.046578e-05 5.212511e-05 6.190448e-05 0.00019322959
0.00020752003 2.5977783e-05 8.5442e-05 7.508471e-05 0.00033368776 0.0004334825 3.659293e-05 0.00013071793
0.00011186566 0.0004274817 0.0005774847 5.687787e-05 3.465612e-05 3.2359898e-05 0.000101767255 0.00013482932
4.829175e-06 2.0954496e-05 4.45938e-05 0.00011042123 0.00011103842 1.0617655e-05 3.2739183e-05 5.910558e-05
0.00013035268 0.0001461773 1.7823379e-05 6.861425e-05 7.462062e-05 0.0002427563 0.0003227327 2.7417733e-05
9.762799e-06 1.2311968e-05 4.2747175e-05 3.7925467e-05 2.9657187e-06 1.2451728e-05 2.2401911e-05 0.000103593375
7.681463e-05 9.632454e-06 7.785319e-05 9.006433e-05 0.00020842384 0.0003133645 2.5147023e-05 8.337995e-06
9.68497e-06 2.1582318e-05 2.0272217e-05 1.3344749e-06 6.455148e-05 8.185433e-05 0.00018175071 0.00026322214
2.2626282e-05 6.9079804e-05 7.8682286e-05 0.00016905116 0.0002802959 2.1911683e-05 5.948236e-06 1.5952357e-05
3.160359e-05 2.3039067e-05 3.1191182e-06 5.1700376e-06 4.732094e-05 0.00010343443 3.7626884e-05 2.851429e-06
1.0305766e-05 5.760169e-05 0.00021146114 5.9262227e-05 5.441098e-06 1.7827464e-05 7.594139e-05 9.315479e-05
5.7373934e-05 7.5805506e-06 4.1165067e-06 6.389562e-06 5.4392112e-05 3.2260774e-05 5.9563836e-06 9.952857e-06
6.585807e-05 0.00012776144 4.9943956e-05 2.121151e-06 0.00015144836 0.00013008165 0.00048135535 0.0006576902
6.633949e-05 7.4180854e-05 6.833236e-05 0.00027647853 0.0002900367 4.1959942e-05 0.00012423591 0.000110845656
0.0004088607 0.00056205 5.382429e-05 0.0001562707 0.00014149956 0.00041520907 0.00063256454 6.3081985e-05
4.209615e-05 3.141792e-05 9.326165e-05 0.00014761074 6.516671e-06 2.3879285e-05 3.4186618e-05 0.00012748892
0.00013194936 1.5668145e-05 2.2709546e-05 4.3285258e-05 0.00012338893 0.00011761927 1.5104804e-05 9.117774e-05
9.654688e-05 0.00034147626 0.00041790085 4.5028486e-05 1.7180042e-05 6.402695e-06 5.4594755e-05 6.8904345e-05
6.666763e-06 5.3264775e-06 2.1201022e-05 4.3317406e-05 2.4966652e-05 5.192415e-06 2.7765465e-05 1.6282756e-05
0.00044504434 0.0001609682 5.1904776e-06

exp_avg f4 [31]
00000000: 876b cabd cc84 b7bd a4fa b9bd 93bd 09be
00000010: d6b4 55bd d039 edbc 6e29 f7bc a486 92bd
00000020: dfe3 0bbd 374f 633d 27ae afbd 0666 6abc
00000030: 1a9f a5bd b353 97bd cc08 5b3b ae91 593d
00000040: ab69 883d 943d 68bb dbed 6e3c ab8b 333d
00000050: 19b3 10be 7c4f fbbd 0614 f3bd 0edf 08be
00000060: 4231 84bd 0f43 34bd ba05 a5bc 9b75 dbbd
00000070: 7487 56bd 8da1 59bb 91f5 e83d
-0.098837905 -0.08960876 -0.09081009 -0.13451223 -0.05217441 -0.028958231 -0.030171122 -0.07154587
-0.03415286 0.055495467 -0.08578139 -0.014306551 -0.08086987 -0.07389011 0.0033421991 0.053117447
0.066607796 -0.0035437094 0.014583076 0.04383437 -0.1413082 -0.1227102 -0.118690535 -0.13366339
-0.06454708 -0.044009265 -0.020144332 -0.10715791 -0.052375272 -0.0033207864 0.11374963

exp_avg_sq f4 [31]
00000000: 39d3 593b c69b e23a 4734 4e3b 8c7f 8b3b
00000010: afed 5e3a c363 4d3a 042b 863a 4bbf 143b
00000020: c808 a739 f9ef 443a b94f 0b3b 9ca7 1639
00000030: 8c19 ec3a d4a8 ef3a cf27 7039 72a0 b939
00000040: 5940 333a 1c38 c839 a185 9f39 ea78 163a
00000050: 2519 9f3b 600f 263b e4ee 853b ac37 933b
00000060: d53b 793a d01b 853a d02a 5e3a cdc7 4c3b
00000070: 5c8f 143a 62a1 5439 0011 013b
0.003323747 0.0017288856 0.0031464265 0.004257148 0.00085040455 0.0007834995 0.0010236208 0.0022697027
0.00031859265 0.00075125654 0.0021257235 0.00014367554 0.0018012985 0.0018284568 0.00022903013 0.0003540549
0.00068378967 0.00038188777 0.00030426405 0.00057400635 0.0048552924 0.0025338754 0.004087316 0.0044927206
0.0009507512 0.0010155383 0.00084750075 0.003124702 0.0005667114 0.00020278015 0.001969397
