Cancer-senn/self_trial6/models/cancer/grad3_Hinput_Thdummy_Reg1e-02_LR0.001/model_best.pth.tar (torch_old, 26436 bytes, 34 tensors)

parametrizer.linear1.weight f4 [10, 30]
0	0xbe305e13	-0.17223386
1	0xbdd34a8e	-0.103169546
2	0xbe1f06fc	-0.15530008
3	0xbd55243c	-0.05203651
4	0xbdfae33e	-0.12250374
5	0xbd3748fc	-0.044747338
6	0x3d83488b	0.06410321
7	0xbdabff88	-0.08398348
8	0x3dd51f05	0.10406307
9	0xbd2d61b4	-0.042329505
10	0x3e14d787	0.14535342
11	0xbdbf984f	-0.093552224
12	0x3b1bb825	0.0023760882
13	0x3d24195d	0.04006325
14	0x3c4e0c87	0.012576229
15	0xbe083eb3	-0.13305168
16	0x3e1962b7	0.14979063
17	0xbe182701	-0.14858629
18	0x3e48097f	0.19534872
19	0x3dee7392	0.11643137
20	0xbca79b05	-0.020459661
21	0xbd5ace9b	-0.05341969
22	0x3df9836b	0.12183269
23	0xbe06f711	-0.13180186
24	0xbe02a6fe	-0.12759015
25	0x3e3390fc	0.17535776
26	0xbb97a888	-0.004628245
27	0x3c9841c5	0.018586049
28	0xbcfb625b	-0.030686548
29	0x3e151809	0.1455995
30	0x3e255f15	0.16149552
31	0xbe0892bd	-0.13337226
32	0x3d4502cd	0.048098374
33	0xbe32613b	-0.17419903
34	0xbdee1850	-0.11625731
35	0x3db90842	0.09034778
36	0xbd8bab52	-0.06819786
37	0x3d9dbefe	0.077024445
38	0xbc9c6141	-0.019089343
39	0x3df3a27a	0.11896224
40	0xbdb8c51e	-0.09021972
41	0xbe24d895	-0.16098244
42	0xbc6969d3	-0.014246422
43	0x3cb88fe8	0.022529557
44	0x3d80e135	0.06292955
45	0x3d0a7802	0.033805855
46	0xbdb22291	-0.08697999
47	0xbd87e17f	-0.06634807
48	0x3bb4ce1a	0.0055177333
49	0x3dc8d363	0.09805944
50	0xbe2efc0c	-0.17088336
51	0x3da72ef4	0.081632525
52	0x3debb0a9	0.115083046
53	0x3e149e02	0.145134
54	0xbc6cf5c1	-0.014462889
55	0xbda07a1f	-0.07835793
56	0x3da2208e	0.079163656
57	0xbcd3e5e6	-0.02586646
58	0x3ced47e0	0.028964937
59	0xbdb88ce5	-0.090112485
60	0xbd0f0506	-0.0349169
61	0x3d64d7d4	0.055869892
62	0x3e38aa5d	0.18033738
63	0xbd0852af	-0.03328198
64	0x3e1eb97d	0.15500446
65	0x3d9724ed	0.0738009
66	0x3dc6bb3e	0.09703682
67	0x3d79205c	0.060821876
68	0x3d69d4e2	0.057087786
69	0xbd1fa50a	-0.038975753
70	0x3dc4f6f7	0.09617417
71	0x3d38cf22	0.045119412
72	0xbe1767f9	-0.14785756
73	0xbdfb8c61	-0.122826345
74	0xbe0be0fb	-0.13660042
75	0x3dc9e8c3	0.09858849
76	0xbd8ddee2	-0.06927277
77	0x3d6e05c5	0.05811097
78	0xbdb8c04f	-0.09021055
79	0x3e03af77	0.12859903
80	0xbe18eafe	-0.14933392
81	0x3cd1f0d3	0.02562753
82	0x3dadea9e	0.08492015
83	0x3d5875d6	0.052846752
84	0x3d37aead	0.04484432
85	0x3e14d2be	0.14533517
86	0xbe2a1587	-0.16609775
87	0x3d9bcc92	0.07607378
88	0xbc2171c9	-0.009853789
89	0x3c4a7248	0.012356348
90	0x3e0ebd3f	0.13939379
91	0x3e196571	0.14980103
92	0xbcfde4a2	-0.03099281
93	0x3d4e2ccc	0.05033569
94	0xbe1f725f	-0.15570973
95	0x3e0c173d	0.1368074
96	0x3e0774a9	0.13228096
97	0x3cf079a7	0.029354883
98	0xbcfa01be	-0.030518409
99	0x3e07db69	0.13267292
100	0xbcf7dfc1	-0.030258061
101	0x3e25d366	0.16193923
102	0x3dcdd844	0.10051015
103	0x3d994ae3	0.07484987
104	0xbe147b5c	-0.14500183
105	0xbd9d4609	-0.07679374
106	0x3d3ce767	0.04611912
107	0xbd7a8336	-0.06116029
108	0xbe264283	-0.1623631
109	0x3c80f848	0.01574339
110	0xbc5595f0	-0.013036236
111	0xbe093533	-0.133992
112	0xba847c0b	-0.0010107768
113	0xbc98491b	-0.018589547
114	0x3d96ecb6	0.07369368
115	0x3d3020b8	0.042999953
116	0xbdb4c689	-0.0882693
117	0x3c8fb525	0.017542431
118	0xbd152821	-0.036415223
119	0xbe13c68f	-0.14431213
120	0x3de1800c	0.11010751
121	0xbe172517	-0.14760242
122	0xbd93a82c	-0.072098106
123	0x3dc0b65b	0.094097815
124	0xbd9bfbeb	-0.07616409
125	0xbe384e5a	-0.17998639
126	0xbdcf8ce6	-0.10134296
127	0xbc5461af	-0.012962743
128	0xbd7e4f9a	-0.062087633
129	0x3c9c2b22	0.019063536
130	0xbe0f15cf	-0.13973163
131	0x3dfb3d59	0.122675605
132	0x3e0127ee	0.12612888
133	0x3dfdc950	0.12391913
134	0xbe3d7b00	-0.18503952
135	0xbe2e2514	-0.17006332
136	0x3da2f8ad	0.079575874
137	0xbe09b759	-0.13448848
138	0xbdc2a638	-0.0950436
139	0xbe48dcad	-0.19615431
140	0x3dc0b658	0.09409779
141	0x3da654a8	0.08121616
142	0xbd1447a8	-0.03620115
143	0x3d842aec	0.06453499
144	0xbb57ea96	-0.003294622
145	0x3e1cfe15	0.153313
146	0x3de089fd	0.10963819
147	0x3d4e6eeb	0.05039875
148	0xbda2bc0a	-0.07946022
149	0x3de14eb1	0.11001337
150	0xbde30184	-0.110842735
151	0xbde93550	-0.11387122
152	0xbe05fd11	-0.13084818
153	0x3d6c9592	0.05775983
154	0x3d300d84	0.04298164
155	0xbba2f811	-0.0049734195
156	0x3d9688d1	0.073503144
157	0xbddcd6ec	-0.107831806
158	0xbd96fba7	-0.073722176
159	0xbd998e21	-0.07497812
160	0x3e14b9b9	0.14523973
161	0xbcc9063b	-0.024539104
162	0x3e13b40f	0.14424156
163	0xbdf76a70	-0.12080848
164	0x3d4de486	0.050266765
165	0x3dd7f12f	0.10544049
166	0xbc64ed24	-0.013972554
167	0xbdbb6440	-0.091499805
168	0x3e5e6940	0.21719837
169	0x3e2dceaf	0.16973375
170	0xbdde4a96	-0.1085407
171	0xbd3ad8a1	-0.04561675
172	0xbe39ca17	-0.18143497
173	0xbd0d3919	-0.03447828
174	0x3e26e21c	0.16297191
175	0xbdb62c1e	-0.088951334
176	0xbd72e6c2	-0.0593021
177	0x3da22699	0.07917518
178	0x3dc7a3e1	0.09748054
179	0x3e0c04d3	0.13673715
180	0xbcc1a148	-0.023636475
181	0xbcf1623f	-0.029465793
182	0x3e2e54a1	0.17024471
183	0x3d7d1879	0.061790917
184	0x3dd2654a	0.102732256
185	0x3d1d6519	0.038426492
186	0x3e488792	0.19582966
187	0x3e0198e4	0.1265598
188	0xbd33056e	-0.04370635
189	0xbd490c9f	-0.049084302
190	0x3daae434	0.083443075
191	0xbe0f4a6a	-0.1399323
192	0xbd94a07c	-0.072571725
193	0x3e1a821d	0.15088697
194	0x3c81d6af	0.01584944
195	0xbda2ac6a	-0.079430416
196	0xbdd4ffcd	-0.104003526
197	0x3dc9d0b8	0.09854263
198	0x3e2b8c36	0.16752705
199	0xbdeacecb	-0.11465224
200	0xbd660963	-0.056161296
201	0xbc68a244	-0.014198843
202	0xbd5cd974	-0.053918317
203	0x3de65ddc	0.11248371
204	0xbb3c03e5	-0.0028688845
205	0xbe29d52f	-0.1658523
206	0x3c494a84	0.012285832
207	0xbdbd9359	-0.0925662
208	0xbdc9b985	-0.09849838
209	0xbda06307	-0.07831388
210	0x3cc90340	0.024537683
211	0x3dcdbe2c	0.10046038
212	0xbe3c4eed	-0.18389483
213	0xbd9e42a8	-0.077275574
214	0x3dd6dc3a	0.10491224
215	0x3dafe3c2	0.08588363
216	0x3d74e644	0.05978991
217	0xbe1ecdcf	-0.15508197
218	0xbdf97515	-0.12180535
219	0x3d8b89b6	0.06813376
220	0x3dbeae37	0.093105726
221	0x3db63206	0.0889626
222	0xbe26dda0	-0.1629548
223	0x3d7ac979	0.061227296
224	0x3c12c611	0.0089583555
225	0xbbf3909c	-0.0074330103
226	0xbcd281e5	-0.025696704
227	0x3dee837d	0.11646173
228	0x3aa4dbb4	0.0012577684
229	0xbc37a5d4	-0.01120897
230	0x3c5787c2	0.013154926
231	0xbe3fc937	-0.18729101
232	0xbe1bc5de	-0.15212199
233	0xbe1918e2	-0.14950898
234	0xbd7bcbd1	-0.06147367
235	0x3dae8365	0.08521155
236	0xbe460e1f	-0.19341324
237	0x3d613db2	0.054990478
238	0xbd79936e	-0.060931616
239	0xbe156749	-0.14590181
240	0x3d7533ee	0.059863977
241	0x3e03aa86	0.12858018
242	0xbd744e70	-0.059645116
243	0x3d8535ba	0.06504388
244	0x3e0db9a5	0.13840349
245	0x3d857999	0.065173335
246	0x3c900583	0.017580753
247	0x3e469bf1	0.19395424
248	0x3c421b02	0.0118472595
249	0x3d8c38f9	0.06846804
250	0x3de8d66e	0.11369024
251	0x3b172e8a	0.002306851
252	0xbdc7419f	-0.09729313
253	0xbe06a4b4	-0.13148767
254	0x3dfa6d51	0.12227882
255	0x3e1878ce	0.14889833

parametrizer.linear1.bias f4 [10]
0	0x3d67f0ad	0.05662601
1	0xbd5b99e3	-0.053613555
2	0x3e05ab29	0.13053574
3	0xbe496d5d	-0.19670625
4	0x3da24398	0.07923049
5	0x3cbc66d4	0.022998251
6	0xbcd023f0	-0.025407761
7	0xbba8aff9	-0.0051479307
8	0xbd76ef42	-0.060286768
9	0x3e665b5e	0.22495791

parametrizer.linear2.weight f4 [10, 10]
0	0xbe6060f8	-0.2191199
1	0xbe33e026	-0.17565975
2	0x3dcaa388	0.09894472
3	0xbe2627fd	-0.16226192
4	0x3e28da9d	0.16489644
5	0x3e8a282f	0.26983783
6	0xbd7a539f	-0.061114904
7	0x3d7e9e44	0.062162653
8	0xbe64ce5f	-0.2234435
9	0x3e9e7075	0.30945173
10	0xbe8cec41	-0.27523997
11	0x3e54b14c	0.20770758
12	0x3e42f68d	0.19039364
13	0x3e364d34	0.17802888
14	0xbe3c8636	-0.18410572
15	0x3e93cad9	0.28865698
16	0x3dc9dd44	0.09856656
17	0x3e81db98	0.2536285
18	0x3e31b705	0.17354973
19	0x3e05461d	0.13015027
20	0x3e46d44b	0.19416921
21	0xbdfdc831	-0.12391699
22	0xbeb730a4	-0.35779297
23	0xbe8096c2	-0.2511502
24	0x3d2ced74	0.04221864
25	0xbdfbba6a	-0.12291415
26	0x3cf5d07d	0.030006642
27	0xbe0fd141	-0.14044668
28	0xbea66487	-0.3249857
29	0x3e88b002	0.26696783
30	0xbde81986	-0.11332993
31	0x3e9f0e46	0.31065577
32	0xbe5c422e	-0.2150962
33	0x3e9b58f2	0.30341297
34	0x3e4724bb	0.19447605
35	0x3d047391	0.032336775
36	0x3d6414e7	0.055683997
37	0xbd91aa57	-0.07112568
38	0x3eaaa2cb	0.33327326
39	0x3e223cdb	0.15843527
40	0xbceb5b38	-0.02873002
41	0x3e6bfa6f	0.23044752
42	0x3e8a762f	0.27043292
43	0x3cf72123	0.030167168
44	0x3e01846e	0.12648174
45	0xbdc8f5c2	-0.098124996
46	0xbe2f9b81	-0.17149164
47	0x3e905fba	0.28198034
48	0xbcc6e279	-0.024277912
49	0x3c433394	0.011914153
50	0x3e2377fb	0.15963738
51	0xbda0def1	-0.07855023
52	0x3c96d498	0.01841192
53	0x3d95536c	0.07291302
54	0xbe9f9151	-0.31165555
55	0xbe1144a8	-0.14186347
56	0xbea8ab50	-0.329432
57	0xbe27d28d	-0.16388912
58	0x3eb06ce3	0.34458074
59	0xbe9279ec	-0.28608644
60	0x3e821d8a	0.25413162
61	0xbe2730fc	-0.1632728
62	0x3cd0dcfb	0.025495997
63	0x3c311aab	0.010809581
64	0x3e12228a	0.14270988
65	0xbb1dfcc6	-0.0024106964
66	0x3c2b656b	0.010461192
67	0xbe6d91fa	-0.23200217
68	0x3e6e494d	0.2327015
69	0x3d9fa09b	0.07794305
70	0x3e8eb0d5	0.27869287
71	0x3cb788c6	0.022404086
72	0xbe21ea4a	-0.1581203
73	0xbde361d9	-0.11102647
74	0xbe109d40	-0.14122486
75	0x3e840544	0.25785267
76	0x3d37a107	0.044831302
77	0x3ea63fad	0.32470456
78	0x3e700632	0.23439863
79	0xbda92de0	-0.08260703
80	0x3e0896f5	0.13338836
81	0xbdb400e9	-0.08789236
82	0x3df96ec6	0.121793315
83	0xbdb9b350	-0.09067404
84	0xbdab7bee	-0.08373247
85	0x3e9e8493	0.3096052
86	0x3e8799ba	0.26484472
87	0x3c05ee9a	0.008174563
88	0x3e281b4a	0.1641666
89	0x3d8629e0	0.06550956
90	0xbe028a63	-0.12748103
91	0xbe8d2cc0	-0.27573204
92	0x3e792f03	0.2433434
93	0x3ea08e01	0.3135834
94	0x3d014851	0.031563107
95	0xbe02d3a0	-0.12776041
96	0xbd85505f	-0.0650947
97	0x3e836c70	0.2566867
98	0xbdf00e09	-0.11721427
99	0xbd76f474	-0.060291722

parametrizer.linear2.bias f4 [10]
0	0x3e6e0506	0.23244104
1	0xbe2b1562	-0.16707376
2	0x3de916ec	0.11381325
3	0xbe40c114	-0.18823653
4	0xbea17227	-0.31532404
5	0x3e6c76e8	0.23092234
6	0xbe62f267	-0.22162782
7	0xbc476bd0	-0.012171701
8	0x3d9b2cf4	0.075769335
9	0x3d19913f	0.037492033

parametrizer.linear3.weight f4 [5, 10]
0	0xbdee1967	-0.11625939
1	0xbd1482d6	-0.036257587
2	0x3eb7ed6a	0.3592332
3	0xbd6449ac	-0.05573432
4	0x3e4a3bd5	0.19749387
5	0x3e251c5e	0.16124102
6	0xbe777149	-0.24164309
7	0xbe68a680	-0.22719765
8	0xbdd27a22	-0.10277201
9	0xbda2ceb3	-0.07949581
10	0x3dcb1650	0.09916365
11	0xbe94092e	-0.28913254
12	0x3e8dcb08	0.27693963
13	0xbc082fc3	-0.0083121685
14	0xbe60e035	-0.21960528
15	0x3e1f3b7b	0.15550034
16	0x3e1ffc56	0.15623602
17	0xbe937b5f	-0.28805062
18	0xbe4ca5e9	-0.19985165
19	0x3e453585	0.19258697
20	0xbe3bfcbe	-0.18358132
21	0x3e823ee1	0.25438598
22	0x3dd31247	0.103062205
23	0xbd03d80d	-0.032188464
24	0x3e8a638d	0.27029076
25	0xbe9c56d8	-0.30535007
26	0x3e2a4c6c	0.16630715
27	0xbe899bb2	-0.268766
28	0xbea8fdaa	-0.3300603
29	0x3c753b0a	0.014967689
30	0xbe83a619	-0.2571266
31	0xbe2f3c1d	-0.17112775
32	0x3e0e31cd	0.13886185
33	0x3e2cc53e	0.16872117
34	0x3d9f4e00	0.07778549
35	0x3e86e20a	0.2634433
36	0xbe2a76b7	-0.16646849
37	0xbe164fba	-0.14678851
38	0x3c2000be	0.009765802
39	0x3dad6135	0.084658064
40	0xbe7f57be	-0.24935815
41	0xbe164ef8	-0.14678562
42	0x3d61b900	0.05510807
43	0xbd1eb763	-0.03874911
44	0x3e855f5f	0.26049325
45	0xbd870de8	-0.06594449
46	0xbe2be5b0	-0.16786838
47	0x3e5ce6ae	0.21572372
48	0x3d9b5af8	0.0758571
49	0x3e1339bf	0.14377497

parametrizer.linear3.bias f4 [5]
0	0x3e284fd9	0.1643671
1	0xbd13db10	-0.036097586
2	0xbe1611ee	-0.14655277
3	0x3e83f05a	0.2576931
4	0xbe0ca3aa	-0.13734308

parametrizer.linear4.weight f4 [31, 5]
0	0xbeccbfd2	-0.39990097
1	0xbe9a13a5	-0.30093113
2	0xbe3140c4	-0.17309862
3	0xbe30038d	-0.17188855
4	0xbda9bc48	-0.08287865
5	0x3d340bdd	0.043956626
6	0xbd080062	-0.03320349
7	0x3e9e03a2	0.30862147
8	0xbecce4a8	-0.400182
9	0x3c9a5926	0.018841337
10	0xbdb0fe65	-0.08642272
11	0x3ee04e16	0.43809575
12	0xbe8bed53	-0.27329502
13	0xbd1c18e1	-0.038109664
14	0xbef241d2	-0.47315842
15	0xbe8638f0	-0.26215315
16	0x3e106d33	0.14104156
17	0x3c70cce3	0.014697286
18	0xbeba13de	-0.36343282
19	0xbd964e5d	-0.07339165
20	0x3ee11880	0.43964005
21	0x3eb5b1ab	0.35487112
22	0xbe02a9df	-0.12760113
23	0xbe413d63	-0.18871073
24	0xbeddad1e	-0.4329614
25	0x3e7f2670	0.24917006
26	0x3ed9d71f	0.42546937
27	0xbdb32c8a	-0.087487295
28	0x3db66c9c	0.08907434
29	0xbdb10c48	-0.086449206
30	0x3d27a8b3	0.04093237
31	0xbc398fbb	-0.011325772
32	0xbda24020	-0.07922387
33	0x3eed5d96	0.46360463
34	0x3e96fb7d	0.29488745
35	0x3ee98e86	0.4561655
36	0xbdc68eb3	-0.096951865
37	0xbe886ba0	-0.2664461
38	0xbcc5414a	-0.024078984
39	0x3db806c4	0.089856654
40	0xbe5d55e1	-0.21614791
41	0x3df791c4	0.120883495
42	0xbbd37449	-0.0064530713
43	0x3eef8fea	0.46789485
44	0x3e99ad0a	0.3001483
45	0xbed4fb6f	-0.4159808
46	0xbe4f79fb	-0.20261376
47	0x3ef679c1	0.48139766
48	0xbe823c87	-0.25436804
49	0x3d5f41c8	0.054506093
50	0x3e90b2c1	0.28261378
51	0x3edbadc6	0.42906016
52	0x3e8b9bf7	0.2726743
53	0xbebc5adf	-0.3678808
54	0xbe9c1252	-0.30482727
55	0x3e31761c	0.17330211
56	0x3eab9941	0.3351536
57	0xbe7b371c	-0.24532741
58	0x3c6c2eef	0.014415487
59	0x3d2c41cc	0.042054936
60	0xbe89e469	-0.26932076
61	0xbe92c8c9	-0.28668812
62	0x3eb2b8c7	0.349066
63	0x3ee588f8	0.4483106
64	0xbec96d2e	-0.3934111
65	0x3cc6fdc9	0.024290936
66	0x3eb8bfe9	0.36083916
67	0xbec468f7	-0.38361332
68	0xbb001e44	-0.001954929
69	0xbd2523c2	-0.040317304
70	0xbcdeab1a	-0.027181197
71	0xbe7aa14c	-0.24475592
72	0x3e23724c	0.1596157
73	0x3eb2bc7b	0.34909424
74	0xbd9e485e	-0.07728647
75	0x3e9b934d	0.3038582
76	0xbd873d82	-0.066035286
77	0x3eb474cc	0.3524536
78	0xbde76b1a	-0.11299725
79	0x3e3e8bc5	0.18608005
80	0xbdd2aeae	-0.10287224
81	0xbe980542	-0.2969151
82	0xbcdc27f2	-0.026874516
83	0xbd275270	-0.040850103
84	0xbeab0c1d	-0.3340768
85	0x3e46d84d	0.1941845
86	0x3e117664	0.14205319
87	0x3e9f17ac	0.31072748
88	0xbe57e5dc	-0.21083778
89	0xbe9b3136	-0.30310982
90	0xbe428c64	-0.18998867
91	0x3ed065e9	0.4070275
92	0xbe3a4209	-0.18189253
93	0x3e89929e	0.26869673
94	0xbe25e2d0	-0.16199803
95	0x3e8c9721	0.27459052
96	0x3e63cfa4	0.22247177
97	0x3e935d55	0.28782144
98	0xbed7e30d	-0.42165413
99	0x3de8f237	0.11374324
100	0xbe1bae2c	-0.1520316
101	0xbeab3c6a	-0.3344453
102	0x3d18d413	0.037311625
103	0xbe3f7aa0	-0.18699121
104	0xbeb60cc8	-0.35556626
105	0x3cd55562	0.02604169
106	0xbe8139b0	-0.25239325
107	0xbd2b21fe	-0.041780464
108	0xbacf01bc	-0.0015793364
109	0x3da5e477	0.08100217
110	0x3e212604	0.15737158
111	0xbeb0d63f	-0.34538457
112	0x3d81bc56	0.0633475
113	0x3c8cf3cd	0.017206097
114	0xbe7671ef	-0.240669
115	0x3eb04a44	0.3443166
116	0xbe2991d0	-0.1655953
117	0x3cba018e	0.02270582
118	0xbe5c8f86	-0.21539125
119	0xbe4f49a5	-0.20242937
120	0xbe8af1bc	-0.27137554
121	0x3edb60f4	0.42847407
122	0x3d1981c2	0.037477262
123	0x3e53912b	0.20660846
124	0x3e547995	0.20749505
125	0x3ebbefbf	0.3670635
126	0x3ea753a2	0.32680994
127	0xbeb5bd66	-0.35496062
128	0xbec481b6	-0.38380212
129	0x3e76b90e	0.2409403
130	0xbe66ac48	-0.22526658
131	0x3d87d788	0.06632906
132	0xbdc50689	-0.09620387
133	0x3e3dd7fe	0.18539426
134	0x3e6472c1	0.223094
135	0x3e3249fd	0.17411037
136	0x3df321a5	0.118716516
137	0x3d5a1e9c	0.053251848
138	0xbe63ca6a	-0.22245184
139	0x3ec24bb2	0.37948376
140	0xbe24f35d	-0.1610846
141	0x3ebc5549	0.36783817
142	0xbeaec45d	-0.34134188
143	0x3dc969ee	0.098346576
144	0x3e1a1184	0.15045744
145	0xbeb544a4	-0.3540393
146	0x3ee20046	0.44140834
147	0xbe9de693	-0.30839977
148	0x3c362c3e	0.011118947
149	0xbd3b74b0	-0.04576558
150	0xbe87ad4f	-0.2649941
151	0x3ecccbad	0.39999142
152	0x3e48d67e	0.19613072
153	0x3dc0b106	0.094087645
154	0xbea0d13f	-0.31409642

parametrizer.linear4.bias f4 [31]
0	0x3ed6d86f	0.41962
1	0x3ebacc6f	0.36484095
2	0x3e58aa87	0.21158801
3	0xbe876bd3	-0.2644945
4	0xbeb42f6f	-0.3519244
5	0x3c2a8bfc	0.010409351
6	0x3eccf829	0.4003308
7	0x3e9fc759	0.31206778
8	0xbb70aa54	-0.0036722617
9	0x3ec392e6	0.38198012
10	0x3e00e64b	0.1258785
11	0xbe4ced91	-0.200125
12	0x3c5c6346	0.013451403
13	0xbc6f0475	-0.014588465
14	0xbdece4dd	-0.1156709
15	0x3ec3bf96	0.38232106
16	0x3e84211b	0.25806507
17	0x3da01067	0.078156285
18	0xbe36ebea	-0.17863432
19	0xbcd55bfb	-0.026044836
20	0xbde12334	-0.109930426
21	0xbe1c579b	-0.15267794
22	0x3dd04d90	0.10171044
23	0xbe5f986a	-0.21835485
24	0x3de02ce9	0.10946066
25	0xbe147dc0	-0.14501095
26	0x3eee1367	0.46499178
27	0xbd4fbafc	-0.05071543
28	0x3a30dd67	0.00067468587
29	0xbdc383d6	-0.0954663
30	0x3eb222e6	0.3479225

exp_avg f4 [10, 30]
0	0x3b1cc853	0.0023923113
1	0xbb6bade9	-0.0035961813
2	0x3af3e0ae	0.0018606388
3	0x3b4ceb7e	0.0031268294
4	0xbb3982cb	-0.0028306718
5	0xbbd004a0	-0.0063482076
6	0xbb924ae7	-0.0044644955
7	0xbb38e4d6	-0.0028212569
8	0x395cc976	0.00021055885
9	0xbbefef52	-0.0073222304
10	0x3b9c5a59	0.0047715125
11	0xb9f5efa4	-0.00046908588
12	0x3b7f14fc	0.003892242
13	0x3b86b3e8	0.004110802
14	0xba562f2f	-0.0008170483
15	0xbbbd557e	-0.0057780137
16	0xbb281e4f	-0.002565283
17	0xbad10e4f	-0.0015949699
18	0xbb5b10a7	-0.0033426674
19	0xbbb31eb0	-0.0054663047
20	0x3b016043	0.0019741214
21	0xbb791026	-0.003800401
22	0x3ac0de7a	0.0014714741
23	0x3b3ac2da	0.0028497488
24	0xbb00a2a5	-0.0019628194
25	0xbbccb0f6	-0.0062466813
26	0xbb6a2e81	-0.0035733285
27	0xbb6af9aa	-0.0035854378
28	0xbb260c19	-0.00253368
29	0xbc08274b	-0.008310149
30	0xba257fcd	-0.0006313294
31	0x3c087d65	0.008330678
32	0x37af3dc1	2.0890382e-05
33	0xbb0b5d2f	-0.0021265259
34	0xbb5469fc	-0.0032411804
35	0x3c11e13c	0.008903798
36	0x3bbec776	0.0058221174
37	0x3bce9c44	0.0063052494
38	0xbaa37ce2	-0.0012473131
39	0x3bcc7752	0.00623981
40	0xbaaf5c4b	-0.0013378946
41	0x398d5557	0.000269572
42	0xb9d22e1b	-0.00040088673
43	0xbb029be6	-0.0019929348
44	0x3b3c70ee	0.0028753835
45	0x3bf514e2	0.007479296
46	0xbbbfb494	-0.005850384
47	0x3acd246c	0.0015651113
48	0x3b263e67	0.0025366785
49	0x3a515c54	0.0007986475
50	0x3a0c8b93	0.00053613744
51	0x3c05e7ec	0.00817297
52	0x3a842165	0.0010080753
53	0xba659d67	-0.00087591115
54	0x3ad73d25	0.0016421421
55	0x3c27c6f3	0.010240304
56	0x3af2f994	0.0018537515
57	0x3bcf7121	0.0063306247
58	0x3bb67ba9	0.0055689407
59	0x3c353230	0.011059329
60	0xbb0d7ffe	-0.0021591182
61	0x3b2cd5c5	0.0026372534
62	0xbafd6d8f	-0.0019335019
63	0xbb3c9b91	-0.0028779248
64	0xbbb34d8f	-0.005471892
65	0x3ab50857	0.001381169
66	0x3961abb1	0.00021521632
67	0xb9f466f5	-0.00046616016
68	0xbb98aaa1	-0.0046590124
69	0x3b0a5b57	0.0021111572
70	0xbb875151	-0.0041295667
71	0x3999c6f8	0.00029330677
72	0xbb3fdd18	-0.002927607
73	0xbb57dfd9	-0.003293982
74	0xba0df15f	-0.000541469
75	0x3b189e95	0.0023287882
76	0xbb4bf84b	-0.0031123336
77	0xbb050f8e	-0.002030346
78	0xba8ba656	-0.001065443
79	0x3b2e625f	0.0026608927
80	0xbb37dfd3	-0.0028056994
81	0x3b1f822d	0.0024339065
82	0xbb170869	-0.0023045784
83	0xbb6f420f	-0.003650788
84	0xbb86617e	-0.0041009774
85	0x3b10af47	0.002207713
86	0xbacbd28b	-0.0015550418
87	0xba5cc4d6	-0.0008421665
88	0xbb24c5ad	-0.0025142238
89	0x3b5b45d5	0.0033458371
90	0xbb7704c3	-0.0037692047
91	0xba926cee	-0.001117138
92	0xbb7099e6	-0.0036712824
93	0xbb375588	-0.0027974565
94	0xbae02194	-0.0017099851
95	0xba4cd271	-0.00078133406
96	0xb9940724	-0.0002823408
97	0xbb0d9461	-0.0021603333
98	0x3adff10c	0.0017085387
99	0x3b6a6629	0.0035766459
100	0xbb2cdfa4	-0.0026378417
101	0xbaa2104e	-0.0012364478
102	0xbb27c0eb	-0.0025597166
103	0xbb0f58e6	-0.0021873056
104	0x3b32f141	0.0027304443
105	0x3b287c33	0.0025708794
106	0x3b6a98ba	0.0035796599
107	0x3a4a7d06	0.00077243184
108	0x3910d5bf	0.00013812537
109	0x3b4a490e	0.0030866298
110	0xbb2fa747	-0.0026802586
111	0xba98ce3d	-0.0011658143
112	0xbb39323b	-0.00282587
113	0xbacdba83	-0.0015695844
114	0x3a28ced0	0.0006439509
115	0xba0b2017	-0.0005307211
116	0xb96ba278	-0.00022471871
117	0xbac1c3a3	-0.0014783036
118	0x3906ee61	0.00012868039
119	0x3af279ff	0.0018499492
120	0xbb37c3a8	-0.0028040204
121	0x39330dad	0.00017075865
122	0xbb2af70f	-0.00260872
123	0xbb08ff3d	-0.0020904087
124	0x39817d8a	0.0002469833
125	0x3a9e3e44	0.0012073
126	0x3a0884d2	0.000520778
127	0xbad31a3e	-0.0016105843
128	0xb9fd9f32	-0.0004837453
129	0x3b8f830a	0.0043796347
130	0xbb3971d2	-0.0028296602
131	0x399a11b4	0.0002938636
132	0xbb025454	-0.001988669
133	0xbb150366	-0.0022737621
134	0x3a844c31	0.0010093508
135	0x3ba7c573	0.0051199733
136	0x3bb091d1	0.0053884764
137	0x3b15cfa8	0.0022859368
138	0x3b0421c2	0.0020161723
139	0x3bb1dc6f	0.005427889
140	0xbb3099e5	-0.0026947197
141	0xb98ba8d2	-0.00026637927
142	0xbb1d3ee3	-0.0023993782
143	0xbb0b250d	-0.00212318
144	0xba2dc307	-0.00066284876
145	0x3ac8166c	0.0015265471
146	0x3b0ab811	0.002116684
147	0xb9c76025	-0.0003802787
148	0xba024aa4	-0.0004970229
149	0x3b424f43	0.0029649294
150	0x3b75e960	0.0037523136
151	0xba083c34	-0.0005196959
152	0x3b6c7547	0.0036080645
153	0x3ac5e460	0.0015097968
154	0xbac52712	-0.0015041551
155	0x3a006ee1	0.0004899335
156	0x37bb7bca	2.2349781e-05
157	0x3b0a7810	0.0021128692
158	0xbba26f5b	-0.0049571223
159	0xbb3fde45	-0.002927677
160	0xba6542f1	-0.0008745632
161	0xbbc1a49c	-0.0059095155
162	0xbabb03a0	-0.0014268048
163	0x392d988c	0.00016555394
164	0xbbde98b2	-0.006793105
165	0xbc1e26c5	-0.009652798
166	0xbc4349d3	-0.0119194565
167	0xbc2dc44a	-0.010605881
168	0xbb709896	-0.0036712042
169	0xbbdb3961	-0.0066901897
170	0x3b349010	0.0027551688
171	0x39f1b1e2	0.00046099635
172	0x3b338623	0.0027393184
173	0x3a1c71ca	0.00059678836
174	0x3a21bef6	0.0006170118
175	0x3ae6549e	0.0017572825
176	0xbb32eaa0	-0.0027300492
177	0x3a2d9f99	0.0006623208
178	0x3ae8a5d2	0.0017749614
179	0x3b3175f7	0.002707837
180	0xba1359cb	-0.0005620985
181	0xbab530ab	-0.0013823708
182	0xb9efea70	-0.00045760302
183	0xbadadbe1	-0.0016697609
184	0xba9ad15e	-0.0011811664
185	0x3abbf1d3	0.0014339037
186	0x3a79965b	0.0009521001
187	0x3a50ad28	0.00079603726
188	0xba95fed3	-0.0011443741
189	0x3aa7922c	0.0012784651
190	0xbafe409e	-0.001939792
191	0xbb27c758	-0.0025600996
192	0xbac1677a	-0.001475557
193	0xbaba595f	-0.0014217308
194	0xbb18c2db	-0.0023309502
195	0xbb018ef6	-0.001976905
196	0xbb8f75f0	-0.004378073
197	0xbb6a38ec	-0.0035739494
198	0x368c454e	4.1803933e-06
199	0xbac2916e	-0.0014844367
200	0xbacc0c5f	-0.0015567652
201	0xbaab126b	-0.0013051754
202	0xba9b2f89	-0.0011839728
203	0xbb387e7b	-0.002815156
204	0xb998c44e	-0.00029137958
205	0x3b19deb3	0.0023478686
206	0xb9b35172	-0.00034202222
207	0x391d149f	0.00014980369
208	0x3b0bab4e	0.0021311822
209	0x3b6f8726	0.003654906
210	0x3af2cd71	0.0018524361
211	0x3c1c2579	0.009530419
212	0x3b0970fe	0.002097189
213	0x39f5ad7b	0.00046859295
214	0xbc00ed27	-0.0078690415
215	0x3b933348	0.004492197
216	0x3b086ab0	0.0020815544
217	0x3b4e9dd3	0.0031527176
218	0xbb99e7b7	-0.004696812
219	0x3a6a5c42	0.0008940139
220	0x379dbfa1	1.8805093e-05
221	0x3abf912f	0.0014615412
222	0x3ad3497a	0.001611992
223	0x3a25fb17	0.0006331666
224	0x3a599122	0.00082995195
225	0x3b3bd621	0.0028661566
226	0xbc4258eb	-0.01186202
227	0xbb7a0540	-0.0038150102
228	0xbb582726	-0.0032982319
229	0xbb552024	-0.0032520378
230	0x3afb86a2	0.0019189904
231	0x3c29fb8f	0.010374918
232	0x3b2c1426	0.0026257127
233	0x3a219bc6	0.00061648746
234	0x398b5af0	0.000265799
235	0x3c0be45c	0.008538332
236	0x3a86f958	0.0010297699
237	0x3b795071	0.0038042332
238	0x3af7e40c	0.0018912568
239	0x3c0ecdb1	0.008716033
240	0xbac36591	-0.0014907588
241	0xbba62d75	-0.005071337
242	0xbae0b506	-0.0017143793
243	0xbb32aa0e	-0.0027262005
244	0x3af06399	0.0018340229
245	0xbb714e23	-0.0036820255
246	0xbbb627b7	-0.0055589336
247	0xba9f1af6	-0.0012138772
248	0x3ac19576	0.0014769274
249	0xbb7f18c0	-0.0038924664
250	0xbae52107	-0.0017481156
251	0xbbacdbe2	-0.0052752355
252	0xbb51c7a0	-0.0032009855
253	0xbacb07cb	-0.0015489993
254	0xbb1316ad	-0.0022443936
255	0xbc6b4047	-0.014358587

exp_avg_sq f4 [10, 30]
0	0x37abd9e5	2.0486254e-05
1	0x376842b2	1.3843806e-05
2	0x379f883e	1.901772e-05
3	0x37eaa2a3	2.7970707e-05
4	0x36cc47f0	6.0880484e-06
5	0x377f8462	1.5230007e-05
6	0x37229876	9.69145e-06
7	0x372de395	1.0364592e-05
8	0x371d06a1	9.359473e-06
9	0x37dd74bc	2.6399612e-05
10	0x38399670	4.4247543e-05
11	0x36bc81ac	5.6179324e-06
12	0x381d295e	3.7470243e-05
13	0x385b1634	5.2234347e-05
14	0x37069645	8.02201e-06
15	0x37a19764	1.9263192e-05
16	0x370f5522	8.543286e-06
17	0x36cb2874	6.054581e-06
18	0x373aa19d	1.1124092e-05
19	0x37ac41ce	2.053464e-05
20	0x37ed1839	2.8263881e-05
21	0x36f6dc9e	7.3570545e-06
22	0x37e1dd58	2.6925161e-05
23	0x382c1510	4.102761e-05
24	0x36d1b8ce	6.2501995e-06
25	0x378adaab	1.6552707e-05
26	0x36ff377f	7.606053e-06
27	0x37420d32	1.1566373e-05
28	0x37c9f15d	2.407346e-05
29	0x37e195fe	2.6891936e-05
30	0x3731c29f	1.0595336e-05
31	0x384dd3d2	4.907308e-05
32	0x37391b99	1.1033285e-05
33	0x37134c99	8.779717e-06
34	0x380e2883	3.3893168e-05
35	0x3866125a	5.4853364e-05
36	0x383ac7ac	4.4531815e-05
37	0x38079a6e	3.2330332e-05
38	0x3850c910	4.977832e-05
39	0x37eb5408	2.8053313e-05
40	0x37889165	1.6280168e-05
41	0x37650237	1.3649979e-05
42	0x373f9956	1.14201885e-05
43	0x37416bb2	1.1528771e-05
44	0x38557d81	5.0900042e-05
45	0x3896417c	7.164755e-05
46	0x387afaee	5.983834e-05
47	0x38185a01	3.6323447e-05
48	0x384684cf	4.7330566e-05
49	0x381432e0	3.533333e-05
50	0x379a5d7a	1.8401759e-05
51	0x38323742	4.248997e-05
52	0x378a0513	1.6453245e-05
53	0x3793391b	1.7550357e-05
54	0x380e9991	3.3998458e-05
55	0x3881f3c3	6.1966035e-05
56	0x381c0085	3.7193782e-05
57	0x381c8ce7	3.7324524e-05
58	0x38f0f6da	0.000114900715
59	0x3852b5f1	5.0237348e-05
60	0x375936b6	1.2946946e-05
61	0x37ae064e	2.0745352e-05
62	0x37470718	1.1862976e-05
63	0x37866d56	1.6024958e-05
64	0x368ed2b1	4.2564575e-06
65	0x36e042b3	6.683485e-06
66	0x36da4656	6.5050945e-06
67	0x36a5c3b0	4.940164e-06
68	0x36ba3944	5.5498986e-06
69	0x375bf0a2	1.3109444e-05
70	0x37ad8d41	2.0688984e-05
71	0x36b9d7c7	5.5385494e-06
72	0x3782c6bd	1.5589752e-05
73	0x37c7db79	2.3824849e-05
74	0x37270d9e	9.957146e-06
75	0x379ddc3d	1.8818415e-05
76	0x377076c0	1.4332763e-05
77	0x370d339e	8.416273e-06
78	0x36d8c6af	6.4604315e-06
79	0x379d8aa6	1.8780422e-05
80	0x37af9135	2.0929243e-05
81	0x378abad0	1.6537873e-05
82	0x379d830b	1.877688e-05
83	0x37faed6a	2.9912877e-05
84	0x3694290d	4.4155227e-06
85	0x36f52c69	7.306739e-06
86	0x3706b945	8.030159e-06
87	0x36c82cf6	5.9656986e-06
88	0x37030aac	7.810693e-06
89	0x373caa7d	1.1245368e-05
90	0x369f8c78	4.754922e-06
91	0x3583f362	9.831094e-07
92	0x368e2e1b	4.237297e-06
93	0x365e14d9	3.3092713e-06
94	0x35ff7d95	1.903553e-06
95	0x36362fa9	2.7147855e-06
96	0x35d304fd	1.5722177e-06
97	0x35cd6afe	1.5304829e-06
98	0x3668e340	3.470297e-06
99	0x375cdf2a	1.3164981e-05
100	0x363d5c89	2.8217057e-06
101	0x3533de46	6.7006147e-07
102	0x3620bf00	2.3953035e-06
103	0x36077f7e	2.0190778e-06
104	0x37143f86	8.836278e-06
105	0x37951a95	1.7774562e-05
106	0x3746834f	1.1832292e-05
107	0x3691faf9	4.350554e-06
108	0x3634df44	2.6952048e-06
109	0x37dc9301	2.6294498e-05
110	0x36728305	3.6137073e-06
111	0x358d82d9	1.05434e-06
112	0x365ded59	3.306972e-06
113	0x36298a4e	2.5263466e-06
114	0x361dfda8	2.354247e-06
115	0x3647cf0a	2.9773823e-06
116	0x35c6996f	1.4796805e-06
117	0x35d9cba0	1.6227023e-06
118	0x36df7470	6.659473e-06
119	0x36dc15f3	6.559066e-06
120	0x36e0efda	6.7036426e-06
121	0x359366d1	1.0982277e-06
122	0x36d845b4	6.445416e-06
123	0x36fd0a88	7.5412136e-06
124	0x361b1a97	2.3112277e-06
125	0x36264c0e	2.4780197e-06
126	0x366b8893	3.5097225e-06
127	0x365a5a12	3.253696e-06
128	0x35f33b79	1.812222e-06
129	0x37079796	8.081921e-06
130	0x37166fd0	8.96673e-06
131	0x35c35267	1.4552614e-06
132	0x37112334	8.65087e-06
133	0x374f0492	1.2339226e-05
134	0x3641159d	2.8771822e-06
135	0x36c7793f	5.944777e-06
136	0x3714d67f	8.871429e-06
137	0x365d47aa	3.297328e-06
138	0x36457b4d	2.9427058e-06
139	0x36fb8d01	7.496798e-06
140	0x36fc7b81	7.524563e-06
141	0x3570af62	8.966218e-07
142	0x36f37ac9	7.2562584e-06
143	0x371d5eb7	9.379982e-06
144	0x35ebcb9a	1.756812e-06
145	0x35ecbd84	1.7638527e-06
146	0x36524e43	3.1337993e-06
147	0x36144ae2	2.2097306e-06
148	0x361a4fc7	2.2994225e-06
149	0x369210d6	4.353099e-06
150	0x3708362b	8.118844e-06
151	0x37ebb89c	2.8100148e-05
152	0x36ff692e	7.6118367e-06
153	0x36c1ceb5	5.775912e-06
154	0x37b6dc3e	2.1798649e-05
155	0x37b47d70	2.1516084e-05
156	0x378d6926	1.6857473e-05
157	0x37201b0a	9.543039e-06
158	0x380d173c	3.363866e-05
159	0x385fa3bf	5.3319844e-05
160	0x373df434	1.1322136e-05
161	0x3800a948	3.0675234e-05
162	0x37412929	1.151328e-05
163	0x370c200f	8.3521145e-06
164	0x383972d2	4.4214372e-05
165	0x3890455a	6.879373e-05
166	0x38b1c3cf	8.47649e-05
167	0x38af3dcf	8.356163e-05
168	0x379e8702	1.8897936e-05
169	0x3882f45f	6.244401e-05
170	0x36c2b9bf	5.8032742e-06
171	0x37b93dec	2.2082553e-05
172	0x36bd1347	5.634883e-06
173	0x36b6f5c0	5.4526317e-06
174	0x3788cc15	1.6307496e-05
175	0x37351a3f	1.0794552e-05
176	0x3751bf95	1.2501977e-05
177	0x3714b181	8.862816e-06
178	0x36a0418c	4.7760022e-06
179	0x37f6c656	2.9417843e-05
180	0x36920d3c	4.3526798e-06
181	0x375bd188	1.31022025e-05
182	0x36896628	4.0948107e-06
183	0x36c55064	5.880416e-06
184	0x36efc8a9	7.146115e-06
185	0x36599dc5	3.2427354e-06
186	0x36177df7	2.2574075e-06
187	0x3657122b	3.2048072e-06
188	0x366f6c09	3.567666e-06
189	0x36bcd74a	5.6278996e-06
190	0x36c231cc	5.7874477e-06
191	0x36daf7cb	6.525753e-06
192	0x3691ee61	4.3490877e-06
193	0x36a56e09	4.930193e-06
194	0x37116a62	8.667443e-06
195	0x369edede	4.734712e-06
196	0x365b76fb	3.2702799e-06
197	0x3706d34b	8.036218e-06
198	0x36895a0e	4.093402e-06
199	0x368508f3	3.9647507e-06
200	0x3700a511	7.667827e-06
201	0x3751e2a2	1.2510138e-05
202	0x36e0493d	6.6842463e-06
203	0x3755b660	1.2738252e-05
204	0x36c84fd5	5.969758e-06
205	0x360f9757	2.1396752e-06
206	0x36231706	2.4302294e-06
207	0x368640e2	4.0010646e-06
208	0x360ea537	2.1255817e-06
209	0x3671a6a2	3.6008792e-06
210	0x379b70c2	1.8529947e-05
211	0x387fdf83	6.10049e-05
212	0x37a25abb	1.9354155e-05
213	0x3768df48	1.3880264e-05
214	0x37f7be4a	2.9533305e-05
215	0x381c3d0c	3.7250153e-05
216	0x3824841a	3.9223676e-05
217	0x37d7b595	2.5714553e-05
218	0x37c025dd	2.2905815e-05
219	0x37edcb21	2.834719e-05
220	0x3796ef6c	1.7992883e-05
221	0x37864c8b	1.6009688e-05
222	0x379a77dc	1.8414044e-05
223	0x3780230f	1.5275114e-05
224	0x37bfd638	2.2868728e-05
225	0x3823d4e0	3.9060484e-05
226	0x387f3210	6.0843362e-05
227	0x380086b2	3.0643023e-05
228	0x384272e2	4.6360197e-05
229	0x381833cd	3.6287867e-05
230	0x378bd4f7	1.666926e-05
231	0x3860f5d4	5.3634707e-05
232	0x37995d24	1.8282393e-05
233	0x374cb5de	1.2201692e-05
234	0x37710ebc	1.436815e-05
235	0x38513152	4.9875416e-05
236	0x381a14b7	3.6735753e-05
237	0x37fa6e25	2.9853612e-05
238	0x3832c4d9	4.2621836e-05
239	0x381bef68	3.7177844e-05
240	0x3659c130	3.244797e-06
241	0x3733cae8	1.0716474e-05
242	0x365e0277	3.3082013e-06
243	0x3684eabb	3.961233e-06
244	0x3777f3c0	1.47791e-05
245	0x37a00b39	1.9078712e-05
246	0x37944523	1.767517e-05
247	0x370cc07b	8.389466e-06
248	0x3768f77e	1.3885901e-05
249	0x37e82577	2.7674001e-05
250	0x36ba85e7	5.5588202e-06
251	0x37819529	1.5447456e-05
252	0x36d7edd1	6.435185e-06
253	0x362d7a95	2.585036e-06
254	0x375c3dc5	1.3127404e-05
255	0x384a2baf	4.8201236e-05

exp_avg f4 [10]
0	0x3bb96c0f	0.0056586335
1	0x3c81acb6	0.015829425
2	0xbafa312f	-0.0019088144
3	0x3c831c7f	0.016004799
4	0xbab7fc9b	-0.0014037074
5	0xbc3c67b6	-0.011499336
6	0xbb86f1ef	-0.004118196
7	0x3c2ba01f	0.010475188
8	0x3b976bd1	0.004621007
9	0xbc6ee310	-0.014580503

exp_avg_sq f4 [10]
0	0x3780d275	1.535679e-05
1	0x378ff3e5	1.71605e-05
2	0x37f5e186	2.9311293e-05
3	0x378da284	1.6884187e-05
4	0x36b58387	5.409532e-06
5	0x38ccd9f1	9.768073e-05
6	0x37e2267e	2.6959224e-05
7	0x383b569f	4.4664946e-05
8	0x36b0f267	5.273428e-06
9	0x382c0e5a	4.102136e-05

exp_avg f4 [10, 10]
0	0xbb847f34	-0.004043484
1	0x3b012ba2	0.0019709845
2	0xbb6168a3	-0.0034394644
3	0x3c0ffb79	0.008787983
4	0xbb2b7b93	-0.0026166185
5	0xba7924dd	-0.0009504089
6	0x3ba34348	0.004982386
7	0x39b29459	0.00034061333
8	0xba2d7877	-0.0006617377
9	0xbbb8ed8e	-0.005643553
10	0x3ba03141	0.004888684
11	0x3b57e9c5	0.0032945734
12	0x3bfa3ecf	0.007636882
13	0x3a752ca2	0.0009352659
14	0xbc1ec1ca	-0.009689758
15	0x3bbef385	0.0058273696
16	0xbc0f4132	-0.008743571
17	0x3b193099	0.0023374914
18	0x3c086d54	0.008326847
19	0xbc4ba7d7	-0.012430153
20	0x39629c4c	0.00021611265
21	0xbb4d9665	-0.003137016
22	0x3b8d2bf5	0.0043082186
23	0x3a3546c0	0.00069151446
24	0xbb8a77e0	-0.004225716
25	0x3aaafce8	0.0013045343
26	0xbb699ed3	-0.0035647645
27	0x3a00d933	0.00049151777
28	0x3bf54e4e	0.0074861413
29	0xbba5870c	-0.005051499
30	0x395b85d0	0.00020935317
31	0xb9e41853	-0.00043505672
32	0xbb5eedfa	-0.0034016357
33	0xbbb3325b	-0.0054686493
34	0x3b82275b	0.0039719767
35	0x37ad5724	2.0663785e-05
36	0x3b3e5ae9	0.0029045886
37	0x3abb4627	0.0014287875
38	0xbbb49369	-0.0055107367
39	0x3c0b8853	0.008516389
40	0x3b61c016	0.0034446768
41	0xba24b243	-0.00062826666
42	0x3c175ae5	0.00923798
43	0xbb434248	-0.0029794145
44	0xba82011a	-0.0009918541
45	0x394f2a48	0.0001975681
46	0xbc1f6569	-0.009728768
47	0xbb1e505f	-0.0024156792
48	0x3bdfe6a8	0.0068329163
49	0xbb77404a	-0.0037727528
50	0xbbacb1e4	-0.0052702297
51	0xbb06d5a8	-0.0020574126
52	0xbb92323d	-0.0044615553
53	0xba7207d3	-0.0009232733
54	0x3bb09a04	0.005389454
55	0xbb777329	-0.003775785
56	0x3c096fc1	0.008388461
57	0xba98326c	-0.0011611707
58	0xbba52193	-0.0050394027
59	0x3c412e85	0.011790876
60	0x3c13e80a	0.00902749
61	0x39eff0c4	0.00045765017
62	0x3aa9df1c	0.0012960169
63	0xba8ab119	-0.0010581344
64	0xbc33caa2	-0.010973604
65	0x3c376bed	0.011195165
66	0xbc069a72	-0.008215534
67	0x3c19bc7b	0.009383316
68	0x3ba2f9fb	0.0049736477
69	0xbc59b150	-0.0132869035
70	0xbb3be28e	-0.0028668973
71	0x3aebd223	0.0017991703
72	0xbba9e0d9	-0.0051842746
73	0x3a66c81d	0.0008803623
74	0x3c2c5fde	0.010520903
75	0xbbf1c036	-0.0073776497
76	0x3bac3a4b	0.0052559725
77	0xbbbfa9b1	-0.005849086
78	0xbc13c796	-0.009019753
79	0x3c0588f3	0.008150327
80	0xbbfad9db	-0.007655365
81	0x3ac81920	0.0015266277
82	0xbc1b739e	-0.0094880145
83	0x3aba8a4d	0.0014231891
84	0x3c5f5785	0.013631706
85	0xbc2ae5bc	-0.0104307495
86	0x3c466cbe	0.012110887
87	0xbbba633c	-0.005688099
88	0xbc5559ba	-0.013021881
89	0x3c6bcb13	0.014391678
90	0x3b60517d	0.0034228258
91	0xbb0aa064	-0.002115273
92	0xba9372c3	-0.0011249412
93	0xbba5c428	-0.005058784
94	0x3b1032ef	0.0022003015
95	0x3b08d66d	0.002087976
96	0xbb09b276	-0.0021010912
97	0x3aaff93d	0.0013425719
98	0xbb221222	-0.0024730046
99	0x3b5b40a3	0.0033455275

exp_avg_sq f4 [10, 10]
0	0x36fbcb2e	7.504036e-06
1	0x36ea9d06	6.9920234e-06
2	0x377eedb3	1.5194923e-05
3	0x369ab88d	4.611042e-06
4	0x363401e1	2.6823184e-06
5	0x379af178	1.8470673e-05
6	0x37493615	1.1993126e-05
7	0x37380f5a	1.0970829e-05
8	0x3631a9e6	2.647395e-06
9	0x37764021	1.4677674e-05
10	0x378789cf	1.6157426e-05
11	0x376d34f0	1.4138626e-05
12	0x38075747	3.226779e-05
13	0x3772467d	1.4440736e-05
14	0x37e8525b	2.7694905e-05
15	0x38164d36	3.5834695e-05
16	0x385f346f	5.3216176e-05
17	0x3811737d	3.467825e-05
18	0x38104b0a	3.440216e-05
19	0x38afe00b	8.3863815e-05
20	0x37219d93	9.633036e-06
21	0x368da8d7	4.221783e-06
22	0x3755b1fa	1.2737228e-05
23	0x35d1566d	1.5596867e-06
24	0x370f8b92	8.55596e-06
25	0x378a48bc	1.6484752e-05
26	0x36d91ab7	6.470214e-06
27	0x36b4a9eb	5.384199e-06
28	0x3715c431	8.926771e-06
29	0x3728a025	1.0050867e-05
30	0x36133d40	2.194036e-06
31	0x351ea94c	5.9105946e-07
32	0x36dde7de	6.613306e-06
33	0x36f25004	7.221477e-06
34	0x366ccf64	3.5287458e-06
35	0x35e2e641	1.6905325e-06
36	0x3696d3df	4.4950134e-06
37	0x3616f4cb	2.249423e-06
38	0x369830d6	4.5356383e-06
39	0x372bcea9	1.0240511e-05
40	0x36df4b68	6.6546963e-06
41	0x375ce46a	1.3166204e-05
42	0x38572cd4	5.1301744e-05
43	0x37266ae1	9.919256e-06
44	0x36e847ca	6.922496e-06
45	0x374dbde9	1.2263169e-05
46	0x37bbca15	2.2386239e-05
47	0x3749d3bb	1.2029831e-05
48	0x370a068f	8.226968e-06
49	0x3754280a	1.2645507e-05
50	0x37273c49	9.968012e-06
51	0x36b61cff	5.4273983e-06
52	0x3795dec3	1.7865916e-05
53	0x37b4664f	2.1505313e-05
54	0x376809da	1.3830571e-05
55	0x37978089	1.8060457e-05
56	0x37eee89a	2.8480124e-05
57	0x37878523	1.615525e-05
58	0x37805170	1.5296711e-05
59	0x385113b0	4.984782e-05
60	0x37553dd9	1.2710189e-05
61	0x35d70486	1.6020065e-06
62	0x370a7efe	8.255009e-06
63	0x3696c652	4.493436e-06
64	0x37ddf49f	2.6459164e-05
65	0x386d4c7d	5.657644e-05
66	0x37d3b860	2.5239016e-05
67	0x38120b45	3.4819608e-05
68	0x37b52de3	2.1598249e-05
69	0x38360aed	4.3402357e-05
70	0x377fc224	1.5244386e-05
71	0x36953edd	4.4478643e-06
72	0x37b52c12	2.1597403e-05
73	0x36e0ea18	6.7029723e-06
74	0x37fc0669	3.0043726e-05
75	0x3832ab19	4.2597854e-05
76	0x38036eef	3.133615e-05
77	0x37c28f60	2.3193366e-05
78	0x37e05038	2.6740236e-05
79	0x378ee9d1	1.7036598e-05
80	0x3777fcd1	1.4781211e-05
81	0x36ac23cd	5.130167e-06
82	0x3838d7ea	4.4070104e-05
83	0x37276a72	9.978759e-06
84	0x384b8463	4.8522266e-05
85	0x3835f24c	4.337942e-05
86	0x3873f996	5.816816e-05
87	0x37f864cc	2.9610841e-05
88	0x383a43b6	4.4408916e-05
89	0x383e4bc6	4.53701e-05
90	0x3738d135	1.1015964e-05
91	0x369703f7	4.5006122e-06
92	0x36a75ca1	4.9877713e-06
93	0x363542b7	2.7009935e-06
94	0x370ab856	8.26836e-06
95	0x377d7891	1.5108047e-05
96	0x3774b00d	1.4584523e-05
97	0x371d2240	9.365904e-06
98	0x37084084	8.121253e-06
99	0x37ac8ecf	2.0570498e-05

exp_avg f4 [10]
0	0xbd6c8b41	-0.05774999
1	0xbc51d68d	-0.012807501
2	0x3c141dc5	0.009040301
3	0x3c925ada	0.017865587
4	0x3d252b0f	0.040324267
5	0x3b8a4b44	0.004220398
6	0xbc6fb0e2	-0.0146295745
7	0x3b953e90	0.004554577
8	0xbbd733c5	-0.0065674507
9	0x3ce7a66e	0.028277602

exp_avg_sq f4 [10]
0	0x3a1071bc	0.0005510112
1	0x396a4672	0.00022342222
2	0x394565f4	0.00018825365
3	0x38abcf40	8.192519e-05
4	0x3920aa82	0.00015322308
5	0x39b9bb9c	0.0003542573
6	0x39706147	0.00022924422
7	0x38c2626c	9.2689734e-05
8	0x37c29c7d	2.3199473e-05
9	0x390675f9	0.00012823184

exp_avg f4 [5, 10]
0	0xbce681b5	-0.028138021
1	0x3c9e6e7a	0.019339789
2	0xbcfe8d9b	-0.031073382
3	0x3c96796c	0.018368445
4	0x3ca11d7a	0.019667376
5	0x3bb13b1f	0.005408659
6	0x3c8db0d8	0.01729624
7	0xbc069cc3	-0.008216086
8	0xbbc95617	-0.006144296
9	0x3be3c8ff	0.006951451
10	0xbbf83022	-0.0075740973
11	0x3bc39d16	0.005969654
12	0xbc0f18ff	-0.008733987
13	0xbaeb2ab6	-0.0017941806
14	0x3b1ac76b	0.0023617398
15	0x3b86e990	0.0041171983
16	0x3b3717f4	0.002793786
17	0x3c3dd285	0.011585836
18	0x3b9574e8	0.0045610555
19	0x3b30200b	0.0026874568
20	0x3bf8ebaa	0.0075964527
21	0xbb82ab93	-0.0039877384
22	0xbc4abc32	-0.012373971
23	0xbd030474	-0.03198667
24	0xbc75db81	-0.015005947
25	0x3d2ec7e7	0.04267111
26	0xbc5f049e	-0.013611941
27	0x3cd50dd6	0.026007574
28	0x3c885831	0.016643615
29	0x3b1c68e2	0.0023866226
30	0x3d70768b	0.0587068
31	0xbd0f69c8	-0.03501299
32	0x3d5272f2	0.05137915
33	0xbd014638	-0.031561106
34	0xbd3ed3d3	-0.04658873
35	0xba8662a2	-0.0010252784
36	0xbd083275	-0.033251245
37	0x399b1f43	0.00029587196
38	0x3c6e2ab2	0.014536547
39	0xbbade2d2	-0.00530658
40	0x3cbd81a1	0.023133101
41	0xbcd2cca3	-0.025732344
42	0x3c915e46	0.017745148
43	0xbc42fe6a	-0.011901477
44	0xbccdec53	-0.025137102
45	0x3c3034d0	0.010754779
46	0xbc5b1b99	-0.013373279
47	0xbc458bd5	-0.012057264
48	0x3948db5d	0.00019155206
49	0x3b6d6c5a	0.0036227913

exp_avg_sq f4 [5, 10]
0	0x3832a8ab	4.259559e-05
1	0x38529bd3	5.0213024e-05
2	0x38de3e4f	0.00010597391
3	0x37e19dee	2.6895632e-05
4	0x386f9f23	5.7130248e-05
5	0x38067c75	3.2064e-05
6	0x37ab05b3	2.0387442e-05
7	0x38430392	4.6494948e-05
8	0x37838937	1.5680313e-05
9	0x3786f4f1	1.6088105e-05
10	0x3804e2d9	3.168252e-05
11	0x381fe393	3.81205e-05
12	0x38446ec8	4.6833215e-05
13	0x38051e5d	3.173795e-05
14	0x37f2ff20	2.896745e-05
15	0x387a0507	5.9609327e-05
16	0x36a9294b	5.0413996e-06
17	0x38720441	5.7701258e-05
18	0x380b35f3	3.3190427e-05
19	0x36bd9c0e	5.650806e-06
20	0x37770785	1.4724098e-05
21	0x38b8e63c	8.816688e-05
22	0x39318ec2	0.00016933217
23	0x38ee34fa	0.00011358592
24	0x382e86a1	4.1610216e-05
25	0x39a0e2dd	0.00030686604
26	0x376e26ac	1.4194909e-05
27	0x38f7dd19	0.000118190605
28	0x37ad7c77	2.0681166e-05
29	0x37ce32d3	2.458078e-05
30	0x3a1c7541	0.00059684
31	0x3a1dfa8f	0.0006026411
32	0x3a4684fa	0.00075729156
33	0x3944468b	0.00018718296
34	0x3a446440	0.0007491745
35	0x390cd49f	0.00013430648
36	0x39b25af0	0.0003401856
37	0x3886b30c	6.422968e-05
38	0x3900a168	0.0001226716
39	0x37365cc1	1.0869641e-05
40	0x386536b6	5.4648808e-05
41	0x39128192	0.00013971914
42	0x38f10df3	0.00011494374
43	0x37e9f187	2.7888234e-05
44	0x38b7b530	8.759869e-05
45	0x3887e78e	6.480432e-05
46	0x382f35ad	4.177324e-05
47	0x393f17e6	0.00018224082
48	0x37c3a086	2.3320561e-05
49	0x37f7f53b	2.9558889e-05

exp_avg f4 [5]
0	0xbd813d01	-0.06310464
1	0xbc1f6f4e	-0.009731127
2	0x3da7f91f	0.08201813
3	0x3e18a9d7	0.14908539
4	0x3db24e02	0.08706285

exp_avg_sq f4 [5]
0	0x3999b31a	0.00029315875
1	0x396f2544	0.00022806699
2	0x3a114861	0.00055420963
3	0x3bede2fd	0.007259725
4	0x3a43819b	0.00074579724

exp_avg f4 [31, 5]
0	0xbca68b2d	-0.020330036
1	0xbc44aa76	-0.012003532
2	0x3d30489d	0.043038
3	0xbcf4ea99	-0.029897021
4	0x3c9367ef	0.017993895
5	0xbcace695	-0.021106044
6	0xbc5e1798	-0.01355543
7	0x3d07bb5c	0.033137664
8	0xbcb61a87	-0.022229446
9	0x3c8ebcd6	0.017424028
10	0xbc943a3b	-0.018094173
11	0xbc14faec	-0.009093028
12	0x3d2ae89f	0.04172575
13	0xbcdf0101	-0.027222158
14	0x3c83c971	0.016087266
15	0xbce2c254	-0.027680553
16	0xbc8c72f9	-0.017144667
17	0x3d5e4628	0.054266125
18	0xbd1eeed6	-0.03880199
19	0x3cc9b776	0.024623614
20	0xbc6d1abc	-0.014471706
21	0xbc2445b2	-0.010026382
22	0x3cc9eeb2	0.024649952
23	0xbca32555	-0.019915262
24	0x3bb72002	0.0055885324
25	0xbc25e269	-0.010124781
26	0xbc0cb42d	-0.008587879
27	0x3c5f1b4d	0.013617349
28	0xbbeae5e5	-0.007168519
29	0x3bd7483f	0.0065698917
30	0xbc5d5da7	-0.013511098
31	0xbc454d5e	-0.012042372
32	0x3c134da5	0.00899068
33	0xbbede11e	-0.007259502
34	0x3c17c589	0.009263405
35	0xbc93a230	-0.018021673
36	0xbc4c6a29	-0.012476482
37	0x3cfe5731	0.031047435
38	0xbcb2dc4b	-0.02183356
39	0x3c6168fa	0.0137579385
40	0xbc2598bc	-0.0101072155
41	0xbbb00cf2	-0.005372637
42	0x3c494f89	0.012287029
43	0xbc2e4401	-0.010636331
44	0x3b873749	0.0041264636
45	0x3b364a98	0.0027815457
46	0xbbcb906e	-0.0062122857
47	0xbce6b996	-0.028164666
48	0x3c8ac527	0.016939713
49	0xbbf4c0bf	-0.007469266
50	0xbca70832	-0.02038965
51	0xbc5c4ac9	-0.013445565
52	0x3d084fae	0.033279113
53	0xbccec9bf	-0.025242684
54	0x3c7d7655	0.015470107
55	0xbbfa6589	-0.0076414985
56	0xbba6bd48	-0.005088482
57	0x3b174feb	0.0023088406
58	0xba40bb76	-0.00073521526
59	0x3b81154f	0.0039393078
60	0xbc9e8c43	-0.019353991
61	0xbc622f65	-0.013805245
62	0x3cf627d5	0.03004829
63	0xbcb98e64	-0.022650905
64	0x3c7363e1	0.014855356
65	0xbc888be8	-0.016668275
66	0xbc2f4855	-0.010698398
67	0x3cf0f6d5	0.029414574
68	0xbcb666bc	-0.022265784
69	0x3c5b242a	0.013375321
70	0xbbb7d5ba	-0.005610195
71	0xbc2d5ab6	-0.010580709
72	0xbc1cc833	-0.009569216
73	0x3aab2d79	0.0013059817
74	0xba446bcd	-0.000749287
75	0x3a2d90f4	0.0006621026
76	0xbc1f3134	-0.009716321
77	0xbd00be3d	-0.031431425
78	0x3c995732	0.018718336
79	0xbb2d8ff4	-0.0026483508
80	0xbb8a17f7	-0.0042142826
81	0xbc7e7c4b	-0.015532563
82	0xbd32b32a	-0.043627895
83	0x3ca737ac	0.020412289
84	0xbb232ad6	-0.0024897358
85	0xbc546f64	-0.012966011
86	0xbc99dc82	-0.018781904
87	0xbbfd45f8	-0.007729288
88	0xba1f7caf	-0.0006083948
89	0x3bcc5221	0.0062353765
90	0xba865fbc	-0.001025192
91	0xba51e53d	-0.00080068765
92	0xbc155036	-0.009113362
93	0x3b8bf4ec	0.0042711403
94	0xbb7a858a	-0.0038226568
95	0xbb968c38	-0.004594352
96	0xbc78e731	-0.015191839
97	0xbcf979ef	-0.03045365
98	0x3c7fe16b	0.015617709
99	0xb84a7649	-4.8270715e-05
100	0xbcf3f457	-0.029779596
101	0xbc9e625d	-0.019334013
102	0x3d6815ca	0.056661405
103	0xbd28f552	-0.04124958
104	0x3cd9ad03	0.026571756
105	0xbcdf8181	-0.027283432
106	0xbc8d2feb	-0.017234763
107	0x3d38950a	0.04506401
108	0xbcfb4c23	-0.030675953
109	0x3cc70cc1	0.024298074
110	0xbccbf4e6	-0.02489705
111	0xbc7ff12f	-0.0156214675
112	0x3d4852a7	0.04890695
113	0xbd0e8b74	-0.03480096
114	0x3cb807f7	0.022464735
115	0xbcebc775	-0.028781632
116	0xbc9fb06e	-0.019493308
117	0x3d550e37	0.05201551
118	0xbd21f5fc	-0.03954123
119	0x3cd1bce0	0.025602758
120	0xbc7fe09f	-0.015617519
121	0xbc31b09f	-0.010845332
122	0x3cd9d8a8	0.026592568
123	0xbcb5c74c	-0.022189759
124	0x3c177a7e	0.009245513
125	0xbc30fcd0	-0.010802463
126	0xbbef666a	-0.00730591
127	0x3c8e9dad	0.01740917
128	0xbc239d4c	-0.009986233
129	0x3c2de120	0.010612756
130	0xbc2cd53e	-0.010548888
131	0xbc1a087f	-0.00940144
132	0x3b4729c6	0.003038989
133	0xbb72e17a	-0.0037060664
134	0x3c0663ab	0.008202474
135	0xbcced5eb	-0.025248488
136	0xbc94f653	-0.018183863
137	0x3d29bb85	0.0414386
138	0xbcf68e44	-0.030097134
139	0x3cb319a6	0.021862816
140	0xbc2d8161	-0.010589928
141	0xbb2814f3	-0.0025647252
142	0x3cb56532	0.02214298
143	0xbc804fe3	-0.015663093
144	0x3bf3663b	0.0074279583
145	0xbba51d2c	-0.005038878
146	0xbbd437e7	-0.0064763906
147	0xbb25b4cd	-0.0025284768
148	0x3b06f0d0	0.0020590313
149	0x3b818a27	0.0039532366
150	0x3ca967c1	0.020679357
151	0xbb794ca5	-0.0038040068
152	0xbd7482c0	-0.059695005
153	0x3ce3bd24	0.02780015
154	0xbb7a93ee	-0.0038235146

exp_avg_sq f4 [31, 5]
0	0x38c20558	9.251636e-05
1	0x38ac74fe	8.2233906e-05
2	0x39b0effb	0.00033748135
3	0x39f0d416	0.00045934384
4	0x38225c8b	3.8709997e-05
5	0x384e9e8b	4.9261882e-05
6	0x387c15db	6.0101836e-05
7	0x394642e1	0.00018907666
8	0x3958f725	0.00020691434
9	0x37c8aef5	2.3923329e-05
10	0x38b1147a	8.443832e-05
11	0x389dd0be	7.525225e-05
12	0x39abad1b	0.00032744635
13	0x39e39b15	0.0004341236
14	0x38143aed	3.534083e-05
15	0x39051863	0.00012692953
16	0x38e8f7c5	0.00011108773
17	0x39d9157c	0.00041405472
18	0x3a16ea07	0.00057569187
19	0x385eba1f	5.3102263e-05
20	0x380c3d31	3.343559e-05
21	0x3804e682	3.168593e-05
22	0x38cd8d05	9.801429e-05
23	0x390c6d66	0.00013392195
24	0x3692db1a	4.376646e-06
25	0x37abf70b	2.0499827e-05
26	0x383903b1	4.4110875e-05
27	0x38e70e4c	0.00011017601
28	0x38ea3930	0.000111686415
29	0x372e5280	1.0390417e-05
30	0x3805ad80	3.1871255e-05
31	0x3873c6fa	5.8121026e-05
32	0x39076fbd	0.00012916229
33	0x391a1a12	0.00014696296
34	0x3791ab4f	1.7365119e-05
35	0x388d6157	6.741535e-05
36	0x389bd68a	7.430937e-05
37	0x397be4b2	0.00024022421
38	0x39a9b798	0.0003237098
39	0x37de617c	2.6509857e-05
40	0x3716f64a	8.99804e-06
41	0x373e6e6b	1.1350591e-05
42	0x3828adfb	4.0216353e-05
43	0x381cc625	3.7377835e-05
44	0x363286d4	2.6602547e-06
45	0x3749ebac	1.2035405e-05
46	0x37af3fdf	2.0891368e-05
47	0x38c7b9b4	9.523649e-05
48	0x389de4d7	7.528968e-05
49	0x37140f92	8.825113e-06
50	0x389f222d	7.5880766e-05
51	0x38bc3cf3	8.975891e-05
52	0x39556b7b	0.00020353303
53	0x39a41bdf	0.00031301283
54	0x37c7582d	2.3763709e-05
55	0x36f3d57d	7.2668176e-06
56	0x3713a069	8.799231e-06
57	0x37ac33fd	2.0528207e-05
58	0x37a4c0cc	1.9640102e-05
59	0x3597463f	1.1270821e-06
60	0x3883260e	6.253655e-05
61	0x38aab769	8.1403945e-05
62	0x393a558d	0.00017770212
63	0x3989d49f	0.0002628909
64	0x37b22b60	2.1239452e-05
65	0x388ea252	6.801322e-05
66	0x38a51ee5	7.873568e-05
67	0x392dbf68	0.0001656987
68	0x39930ca1	0.00028047434
69	0x37b0043f	2.0982812e-05
70	0x36afe9c2	5.2426194e-06
71	0x377f20f5	1.5206858e-05
72	0x3803903e	3.136717e-05
73	0x37bfe879	2.2877228e-05
74	0x36500ce2	3.1001914e-06
75	0x369d1df1	4.6824503e-06
76	0x38416729	4.611086e-05
77	0x38c0b07b	9.1881455e-05
78	0x3813be8a	3.5224984e-05
79	0x362c8aa6	2.5710701e-06
80	0x371ebfff	9.462236e-06
81	0x38609a60	5.3549535e-05
82	0x393d9382	0.00018079396
83	0x3868c4e1	5.5496468e-05
84	0x36a1acee	4.8183056e-06
85	0x378ca501	1.6766136e-05
86	0x389a5700	7.359497e-05
87	0x38b940f0	8.833583e-05
88	0x387054a8	5.72993e-05
89	0x36f26d99	7.224921e-06
90	0x36837e7f	3.9188303e-06
91	0x36d1eeed	6.2565e-06
92	0x385725a1	5.129504e-05
93	0x38064725	3.2014348e-05
94	0x36b96331	5.524977e-06
95	0x371ac5a6	9.225134e-06
96	0x38839d14	6.275825e-05
97	0x38ee2e0e	0.00011357303
98	0x38498278	4.8043643e-05
99	0x35fb4350	1.8720548e-06
100	0x391a6209	0.00014723105
101	0x39075202	0.00012905154
102	0x39f51886	0.00046748313
103	0x3a2bf15b	0.0006559097
104	0x38824989	6.21258e-05
105	0x38911c6b	6.919432e-05
106	0x388a1b06	6.585386e-05
107	0x398c50a2	0.00026762957
108	0x399718a0	0.0002881931
109	0x381edca2	3.7875616e-05
110	0x38ff2457	0.00012166116
111	0x38e7ad09	0.00011047169
112	0x39d16d5e	0.0003994507
113	0x3a133f35	0.00056170236
114	0x38561419	5.1040293e-05
115	0x391ffb94	0.00015257142
116	0x39137cb0	0.00014065462
117	0x39d398b6	0.00040358835
118	0x3a2576fe	0.00063119817
119	0x3878b70a	5.9298276e-05
120	0x382a5290	4.060805e-05
121	0x3800acf2	3.0678646e-05
122	0x38ba54ce	8.884967e-05
123	0x39197867	0.0001463607
124	0x36c040d5	5.7295933e-06
125	0x37c35ffd	2.329051e-05
126	0x380e1340	3.3873366e-05
127	0x390500da	0.00012684186
128	0x390b0369	0.00013257343
129	0x377d3b51	1.5093786e-05
130	0x37b8b6df	2.2019665e-05
131	0x3832261a	4.2473992e-05
132	0x38fd6007	0.000120818666
133	0x38f765dd	0.00011796851
134	0x37761126	1.4666735e-05
135	0x38b8c4e6	8.810479e-05
136	0x38c7ccdf	9.52722e-05
137	0x39b038df	0.00033611708
138	0x39db250a	0.0004179853
139	0x383083bc	4.2084357e-05
140	0x378ab487	1.6534947e-05
141	0x36d0304c	6.2045056e-06
142	0x385970f4	5.1842027e-05
143	0x388f5db4	6.836225e-05
144	0x36ca4bef	6.028909e-06
145	0x36a5010c	4.917505e-06
146	0x37aaa98c	2.034453e-05
147	0x382a5241	4.0607763e-05
148	0x37ced0d4	2.4654357e-05
149	0x36a227e7	4.8326215e-06
150	0x37c7ccdb	2.3818042e-05
151	0x378535be	1.5879861e-05
152	0x39df8b69	0.00042637743
153	0x39264968	0.0001585834
154	0x36983aaf	4.5367847e-06

exp_avg f4 [31]
0	0xbdeace26	-0.11465101
1	0xbdcd2104	-0.10016063
2	0xbddb7ee8	-0.10717565
3	0xbe19a1c3	-0.15003113
4	0xbd76235f	-0.060092326
5	0xbd1af311	-0.037829462
6	0xbd220879	-0.03955886
7	0xbdaf4cfe	-0.08559607
8	0xbd19720b	-0.037462275
9	0x3d7a70f9	0.061142895
10	0xbdc8530c	-0.09781465
11	0xbc7d1ec5	-0.015449231
12	0xbdba281b	-0.09089681
13	0xbdae5dd2	-0.085139886
14	0x3c06b0cb	0.008220862
15	0x3d5d7612	0.05406768
16	0x3d8a130d	0.06741915
17	0xbc042a4f	-0.008066728
18	0x3c8fc424	0.017549582
19	0x3d41c73a	0.047309138
20	0xbe227cbe	-0.15867898
21	0xbe0937c9	-0.13400187
22	0xbe0adf97	-0.13561855
23	0xbe1a1bc8	-0.1504966
24	0xbd923460	-0.07138896
25	0xbd5a1ff9	-0.053253148
26	0xbcee4e18	-0.029089972
27	0xbdf80d41	-0.12111903
28	0xbd6df6ed	-0.058096815
29	0xbbbad052	-0.0057011032
30	0x3dfea043	0.12432911

exp_avg_sq f4 [31]
0	0x3b579984	0.00328979
1	0x3adde311	0.0016928633
2	0x3b4c95ad	0.0031217143
3	0x3b88df5e	0.004177018
4	0x3a5ae855	0.000835066
5	0x3a4d925a	0.00078419375
6	0x3a860397	0.0010224459
7	0x3b140637	0.0022586712
8	0x39a1c2c6	0.0003085343
9	0x3a3de00a	0.0007243162
10	0x3b0939ff	0.002093911
11	0x390f60d9	0.00013673621
12	0x3ae82265	0.0017710446
13	0x3aed140e	0.0018087642
14	0x396fbc81	0.0002286304
15	0x39aaf9fa	0.00032611174
16	0x3a22ce11	0.0006210516
17	0x39c3e342	0.0003736262
18	0x399af40a	0.00029554992
19	0x3a0ef19f	0.00054528745
20	0x3b9c5465	0.004770803
21	0x3b214437	0.002460731
22	0x3b843224	0.0040342975
23	0x3b90ca07	0.004418615
24	0x3a737825	0.0009287617
25	0x3a84b20b	0.0010123862
26	0x3a5d89f8	0.000845104
27	0x3b4a1719	0.0030836521
28	0x3a11298f	0.0005537504
29	0x394ed00f	0.00019723199
30	0x3af86223	0.0018950145
