Cancer-senn/trial8/models/cancer/grad3_Hinput_Thdummy_Reg1e-02_LR0.001/model_best.pth.tar (torch_old, 26436 bytes, 34 tensors)

parametrizer.linear1.weight f4 [10, 30]
-0.09510892 0.19135982 -0.007111131 -0.072921015 -0.0068200966 0.115278095 0.07554707 -0.071318924
-0.058945317 0.1759083 0.096026935 0.1865265 -0.11578244 -0.18435232 -0.023401681 -0.01783717
-0.045095887 0.026794305 -0.056420676 0.16890982 0.10885642 0.046473105 0.14758202 -0.10378091
0.025118802 -0.19131102 -0.028191952 -0.16244546 0.057177853 -0.12576851 0.13929766 0.07131395
-0.21240656 -0.11736906 -0.13347775 0.048865963 -0.00024735663 0.026120417 0.17977989 0.08715851
-0.12192625 0.007960755 0.12048823 -0.01611057 -0.093005516 -0.19786106 -0.22180074 -0.16670868
0.08120212 0.027731707 -0.02161912 -0.10959484 0.11890483 0.15994027 0.12471533 -0.08983949
0.1477665 -0.19664545 -0.033287168 -0.11166001 0.07011938 0.015713515 -0.14146245 -0.20680803
-0.054131143 -0.10347933 -0.12385802 0.059590343 0.025652723 -0.18025129 -0.06496943 0.19175664
0.008223726 -0.06853393 -0.014637031 -0.12315132 -0.14184941 -0.021794783 0.07161951 0.109126695
0.049606554 0.114414476 -0.0879554 0.061813984 -0.05904464 0.15073822 -0.1886537 -0.19035585
0.09477732 -0.012699534 -0.0013712128 -0.09574221 0.06384499 0.091970295 0.031180734 0.09899752
0.048831128 0.0949951 -0.1669178 -0.0050389054 -0.11757677 0.07222174 -0.05639128 -0.046612598
-0.18467169 0.112428635 0.042450957 -0.20886204 0.005145985 -0.10371856 0.1450641 0.060868595
-0.13486215 -0.1358469 -0.19450538 0.13763784 0.064845175 -0.08483835 -0.034254726 0.08072873
0.11622841 -0.17161664 -0.035611633 -0.15823196 -0.0613215 -0.122699864 0.06297599 -0.13483268
0.045762815 -0.12565024 0.08705597 0.012424481 -0.16141129 0.033464335 -0.18298548 0.0362407
-0.15636541 -0.04261554 0.15199143 -0.13033438 -0.118791275 -0.12470319 0.069837645 -0.122844204
-0.10314385 0.00081385823 0.10670971 0.15463684 0.073145516 0.029529337 -0.14570808 -0.14446157
-0.036323216 0.08241473 -0.085162655 -0.10793895 0.096708566 0.15069546 0.17553952 0.12264796
-0.085852675 -0.107230626 -0.024365453 -0.06726358 -0.0026357314 -0.06391229 -0.14576572 -0.14270416
0.15364634 0.07216191 0.09634161 0.16661309 0.18921146 -0.01978377 0.11853806 -0.13650522
0.12533009 -0.123836294 -0.0543228 -0.047114413 0.1977087 0.030035986 -0.08178117 -0.10202459
0.11107959 0.054648515 0.031865958 -0.065800086 -0.1575205 -0.0150561845 0.06657562 -0.115057215
0.15767667 -0.08540079 0.10308292 -0.103659935 0.05707207 0.20166314 0.14905147 -0.009188102
-0.066228315 0.049989272 0.045137685 0.20451096 -0.099421784 0.07158293 -0.044063125 -0.036505654
-0.036776096 -0.0006740964 0.10816013 0.1263809 -0.12780724 -0.013255561 0.0104441745 0.064796455
0.005637989 -0.16240431 -0.1274996 0.006250299 0.10427143 0.040884946 -0.00092572835 -0.023098899
0.02894868 0.03501762 0.12533017 -0.024993746 -0.018946914 0.0001863326 0.14137016 -0.14091155
0.0658161 -0.08752394 -0.15537874 0.03372342 -0.03788648 -0.1124043 -0.09376643 -0.047498018
0.034432944 -0.07949788 0.14003457 -0.008961889 0.120747894 -0.100497685 0.13705857 -0.05276662
0.038201082 0.07447733 0.1496963 -0.17340134 0.13657151 -0.12963636 -0.111049466 -0.0917918
00000000: 77c8 c2bd d4f3 433e 7e04 e9bb 9d57 95bd
00000010: 1e7b dfbb ec16 ec3d 6cb8 9a3d a80f 92bd
00000020: a570 71bd 4e21 343e c5a9 c43d ce00 3f3e
00000030: 581f edbd dbc6 3cbe e2b4 bfbc 421f 92bc
00000040: 77b6 38bd bb7f db3c 5e19 67bd b2f6 2c3e
00000050: 1df0 de3d 955a 3e3d be1f 173e 168b d4bd
00000060: f2c5 cd3c 09e7 43be cff2 e6bc 1a58 26be
00000070: 5333 6a3d 76c9 00be 0ca4 0e3e 0c0d 923d
00000080: 1b81 59be 315f f0bd 64ae 08be ad27 483d
00000090: a5af 81b9 7cfa d53c 3818 383e 2980 b23d
000000a0: 78b4 f9bd d46d 023c 88c2 f63d 50fa 83bc
000000b0: ad79 bebd 179c 4abe bc1f 63be aeb5 2abe
000000c0: 4c4d a63d 9b2d e33c 951a b1bc 4273 e0bd
000000d0: 6084 f33d 62c7 233e c06a ff3d c4fd b7bd
000000e0: 1a50 173e 6d5d 49be 2058 08bd 01ae e4bd
000000f0: c09a 8f3d a1b9 803c 88db 10be 7cc5 53be
00000100: 9eb8 5dbd f9ec d3bd 46a9 fdbd 0115 743d
00000110: a925 d23c cb93 38be b10e 85bd da5b 443e
00000120: cfbc 063c 845b 8cbd 28d0 6fbc c236 fcbd
00000130: f940 11be f98a b2bc 40ad 923d d17d df3d
00000140: 3e30 4b3d 2352 ea3d f621 b4bd a930 7d3d
00000150: cbd8 71bd 1f5b 1a3e 6f2e 41be a5ec 42be
00000160: 9d1a c23d b511 50bc 44ba b3ba 7e14 c4bd
00000170: 2ac1 823d ec5a bc3d bd6e ff3c 36bf ca3d
00000180: 2603 483d ca8c c23d 80ec 2abe 671d a5bb
00000190: 17cc f0bd fee8 933d 8bfa 66bd daec 3ebd
000001a0: 931a 3dbe fc40 e63d 0ee1 2d3d eedf 55be
000001b0: a79f a83b 656a d4bd af8b 143e 5951 793d
000001c0: 4e19 0abe 731b 0bbe 6b2c 47be eff0 0c3e
000001d0: 8ccd 843d bbbf adbd af4e 0cbd 1b55 a53d
000001e0: 2909 ee3d 46bc 2fbe 81dd 11bd 8f07 22be
000001f0: 412c 7bbd 114a fbbd 8ef9 803d 9411 0abe
00000200: ca71 3b3d 75aa 00be 674a b23d 0d90 4b3c
00000210: 0049 25be e611 093d 8c60 3bbe 2171 143d
00000220: 411e 20be a28d 2ebd a4a3 1b3e 6076 05be
00000230: d748 f3bd 6364 ffbd 0a07 8f3d be95 fbbd
00000240: 153d d3bd 1a59 553a 9f8a da3d 1f59 1e3e
00000250: 51cd 953d 82e7 f13c 8034 15be bced 13be
00000260: a7c7 14bd 0ec9 a83d c269 aebd 190f ddbd
00000270: 240f c63d e94f 1a3e a2c0 333e db2e fb3d
00000280: 87d3 afbd bb9b dbbd 0f9a c7bc 7dc1 89bd
00000290: 3cbc 2cbb 72e4 82bd 9c43 15be 0a21 12be
000002a0: 7755 1d3e a0c9 933d c04e c53d 9f9c 2a3e
000002b0: a6c0 413e 9311 a2bc 15c4 f23d 06c8 0bbe
000002c0: 8856 003e e29d fdbd 9681 5ebd 0bfb 40bd
000002d0: 2674 4a3e 070e f63c e37c a7bd 45f2 d0bd
000002e0: b27d e33d 1fd7 5f3d e185 023d 32c2 86bd
000002f0: 0e4d 21be 37ae 76bc cc58 883d 1ea3 ebbd
00000300: fe75 213e 9ce6 aebd 231d d33d a94b d4bd
00000310: 67c4 693d c880 4e3e f3a0 183e b189 16bc
00000320: b6a2 87bd 8dc1 4c3d 4be2 383d 526b 513e
00000330: a69d cbbd 129a 923d 897b 34bd f486 15bd
00000340: 88a2 16bd d8b5 30ba 0f83 dd3d ff69 013e
00000350: e7df 02be da2d 59bc 0b1e 2b3c 01b4 843d
00000360: e1be b83b 514d 26be 418f 02be 4fcf cc3b
00000370: 428c d53d f976 273d 94ac 72ba e739 bdbc
00000380: c825 ed3c a36e 0f3d 8d56 003e afbf ccbc
00000390: 8f36 9bbc 4762 4339 57c3 103e 1e4b 10be
000003a0: 97ca 863d c03f b3bd 9b1b 1fbe 9221 0a3d
000003b0: db2e 1bbd 3a34 e6bd 9d08 c0bd 488d 42bd
000003c0: 8f09 0d3d c9cf a2bd 3965 0f3e e3d4 12bc
000003d0: ac4a f73d bbd1 cdbd 1559 0c3e d021 58bd
000003e0: bd78 1c3d 9287 983d fd49 193e 1f90 31be
000003f0: 67d9 0b3e 65bf 04be e76d e3bd 57fd bbbd

parametrizer.linear1.bias f4 [10]
-0.07872016 0.04834345 0.009476156 -0.045787852 -0.02523515 0.10127194 -0.21651596 -0.15483089
-0.25269976 0.15227689
00000000: 0938 a1bd c803 463d e141 1b3c 0b8c 3bbd
00000010: f2b9 cebc aa67 cf3d 5cb6 5dbe fd8b 1ebe
00000020: dd61 81be 79ee 1b3e

parametrizer.linear2.weight f4 [10, 10]
-0.062384345 0.22110997 -0.19181241 -0.31263283 0.18389598 0.27350253 -0.053103343 -0.22137855
-0.21868193 -0.12061694 0.10819055 0.24273041 -0.29908544 0.024106672 0.23036648 0.009139242
0.1714065 -0.28054774 0.2144349 -0.20540422 -0.11046819 -0.23279351 0.1634503 -0.17452404
-0.060206287 -0.24007447 0.032592133 0.2167568 -0.021754289 -0.09550054 -0.06671199 0.19272032
-0.13754053 0.14446047 -0.2615474 0.26787698 -0.14253367 -0.02218334 -0.09178217 -0.16491719
0.28965566 0.27541643 0.047888093 0.13511488 -0.2992226 -0.19429745 0.057870258 0.15237074
0.082224354 -0.27445498 -0.023662873 -0.011541329 0.0043729055 -0.35756227 0.06305295 -0.065178275
0.1258195 -0.27804264 0.048871078 -0.26746675 -0.037132267 0.12755962 0.22135843 0.12571262
0.15022215 0.18462215 -0.12662663 0.12364781 0.10702356 0.15760018 0.31841305 0.14350726
0.15007593 -0.31581983 -0.28982314 -0.09836119 -0.08848883 -0.02680669 0.08490107 0.035763033
0.11212099 0.19684647 -0.084403075 -0.23315372 0.053829312 0.21577294 -0.33608186 0.083049186
-0.13024047 0.08833763 0.02738308 0.042098794 -0.2978973 -0.2917255 -0.13615307 -0.09930294
0.021321168 0.34628478 0.3086464 0.1655567
00000000: ba86 7fbd a76a 623e 796a 44be 6911 a0be
00000010: 3a4f 3c3e 8608 8c3e e482 59bd 0fb1 62be
00000020: 28ee 5fbe 0406 f7bd 0293 dd3d 528e 783e
00000030: ba21 99be 5b7b c53c 31e5 6b3e c2bc 153c
00000040: 2f85 2f3e f4a3 8fbe d394 5b3e 7c55 52be
00000050: 253d e2bd 6c61 6ebe 845f 273e 6eb6 32be
00000060: de9a 76bd 15d6 75be 547f 053d 7ff5 5d3e
00000070: 0d36 b2bc ca95 c3bd 4ca0 88bd 7a58 453e
00000080: 6dd7 0cbe 72ed 133e 8ae9 85be 2c27 893e
00000090: 59f4 11be d6b9 b5bc 4af8 bbbd 0de0 28be
000000a0: bf4d 943e 6203 8d3e 4e26 443d 8e5b 0a3e
000000b0: b433 99be e9f5 46be 5d09 6d3d 1307 1c3e
000000c0: 3e65 a83d 5d85 8cbe a4d8 c1bc d817 3dbc
000000d0: 974a 8f3b 6712 b7be e821 813d 307c 85bd
000000e0: d4d6 003e 9b5b 8ebe 0a2d 483d 67f1 88be
000000f0: 0118 18bd fd9e 023e c9ab 623e cfba 003e
00000100: d6d3 193e 970d 3d3e 69aa 01be 103b fd3d
00000110: 2b2f db3d f161 213e 0907 a33e 91f3 123e
00000120: 81ad 193e 23b3 a1be b363 94be 9771 c9bd
00000130: a239 b5bd b499 dbbc 9de0 ad3d 427c 123d
00000140: b19f e53d 1f92 493e 85db acbd d9bf 6ebe
00000150: 207c 5c3d 95f3 5c3e ec12 acbe b115 aa3d
00000160: c25d 05be 5cea b43d 7b52 e03c c96f 2c3d
00000170: ff85 98be 0b5d 95be b66b 0bbe 575f cbbd
00000180: bba9 ae3c 3d4c b13e e706 9e3e b287 293e

parametrizer.linear2.bias f4 [10]
0.26778132 -0.13533619 -0.09056547 0.27836615 0.11288064 0.04383021 0.18557535 -0.08019471
0.226651 -0.31164116
00000000: a21a 893e 9295 0abe 647a b9bd 0286 8e3e
00000010: f72d e73d 4e87 333d 7707 3e3e 203d a4bd
00000020: 3317 683e 6e8f 9fbe

parametrizer.linear3.weight f4 [5, 10]
-0.11258134 -0.36314362 0.17062426 0.24346983 0.2564565 -0.082440175 0.0043156226 0.21784729
-0.22527333 0.22393735 -0.27361596 -0.047601268 0.14605027 -0.10261998 0.0034952671 0.17622858
-0.003165407 0.08362892 0.12922941 0.3171797 -0.08580596 0.06332574 0.26327673 0.011285455
-0.13569464 0.06105616 0.19136153 0.20368828 0.29416728 0.022761444 0.009288293 0.01864584
0.31909177 0.18451072 0.15902498 0.28191566 -0.13960569 0.17183325 -0.27292594 0.21491484
-0.2849509 0.07947305 0.33515236 0.15589033 0.03599594 -0.23693675 -0.015177118 0.1813066
-0.37033096 0.33968538
00000000: 0c91 e6bd f6ed b9be 20b8 2e3e 2850 793e
00000010: 444e 833e 65d6 a8bd 116a 8d3b 5c13 5f3e
00000020: 0dae 66be d54f 653e 6417 8cbe 8cf9 42bd
00000030: 348e 153e 6d2a d2bd da10 653b 4475 343e
00000040: b872 4fbb a445 ab3d b754 043e 6165 a23e
00000050: 09bb afbd edb0 813d 35cc 863e a1e6 383c
00000060: 89f3 0abe 0616 7a3d 47f4 433e a993 503e
00000070: 189d 963e 3576 ba3c ed2d 183c 29bf 983c
00000080: ff5f a33e 61f0 3c3e 72d7 223e 4057 903e
00000090: cbf4 0ebe 0ef5 2f3e f3bc 8bbe a312 5c3e
000000a0: 16e5 91be c4c2 a23d 1799 ab3e b7a1 1f3e
000000b0: 7b70 133d 8c9f 72be 72a9 78bc 70a8 393e
000000c0: 059c bdbe 3eeb ad3e

parametrizer.linear3.bias f4 [5]
0.08823534 -0.33439255 -0.18943894 0.22716169 -0.04091328
00000000: bbb4 b43d 8035 abbe 48fc 41be 139d 683e
00000010: af94 27bd

parametrizer.linear4.weight f4 [31, 5]
0.11959745 -0.1816858 -0.2786197 0.014979509 -0.3719795 0.10185269 0.20976737 -0.024865707
0.15928814 -0.4322566 0.394919 -0.21731834 -0.4585861 0.082905866 -0.3768485 -0.28845423
0.011394738 0.1115507 0.29640245 -0.3630969 0.4029262 0.29448763 0.2070727 0.19824807
-0.23458686 -0.028619254 -0.4370961 -0.3325806 -0.34552568 -0.23015183 0.2635251 0.31130114
0.14380845 -0.1632567 -0.2028907 -0.17210472 -0.17882875 0.39992005 -0.10258111 0.11112803
0.1953803 0.24915734 0.14020918 -0.4129584 0.19240668 -0.21335839 0.166677 -0.41420168
-0.117766775 -0.30190906 0.3495398 0.32221016 0.33481604 0.17246585 0.21116157 -0.4222743
0.08637972 -0.2591319 0.10457931 0.29340464 0.09989253 -0.14968675 0.17451836 0.1485877
-0.11111431 0.36492267 -0.091555834 0.25443596 0.15296708 0.18463452 0.12540284 -0.32441437
0.17657416 -0.46620917 -0.02454381 -0.41120106 -0.39024314 0.28090537 0.33315817 0.34334284
0.36237225 0.089043885 0.3515941 -0.09943893 0.041955017 -0.19231212 -0.16198587 -0.19540174
-0.22942002 -0.31573796 0.120869696 0.014851315 -0.035057276 -0.42737162 0.2986517 0.08150986
-0.46204722 -0.30017343 -0.29356566 -0.20330754 0.21466269 -0.38533774 -0.21437745 0.30539227
-0.029726647 -0.4545279 -0.28215668 -0.15573677 0.3581635 -0.16276346 0.35026854 -0.3570102
0.053571556 0.25833097 -0.3722245 0.29117677 -0.04287927 -0.2988871 0.2847295 -0.12174465
0.2448484 -0.3728927 -0.2551564 0.36641693 0.117835216 -0.37851405 0.14930277 0.0826767
-0.3805043 -0.17518559 0.20772707 -0.058755215 0.12284823 -0.25382525 -0.024526348 -0.33389214
-0.3592978 0.084441714 -0.25135928 -0.14419726 0.098868504 -0.07820824 -0.061329883 -0.2718286
-0.14968994 -0.35052234 -0.3939149 -0.07452972 -0.36087397 0.3721046 -0.3378137 0.31650758
-0.17659022 0.12373883 0.27667114
00000000: 82ef f43d d80b 3abe 3ea7 8ebe 9d6c 753c
00000010: 1974 bebe 2598 d03d 42cd 563e 2bb3 cbbc
00000020: 6e1c 233e bd50 ddbe d332 ca3e b388 5ebe
00000030: cccb eabe 8dca a93d 49f2 c0be 46b0 93be
00000040: ffb0 3a3c b274 e43d 10c2 973e d6e7 b9be
00000050: 584c ce3e 15c7 963e de0a 543e 8b01 4b3e
00000060: 8a37 70be ed72 eabc 0fcb dfbe 0148 aabe
00000070: bee8 b0be ecac 6bbe c3ec 863e dd62 9f3e
00000080: 8642 133e c42c 27be 94c2 4fbe 383c 30be
00000090: e21e 37be 52c2 cc3e 0c16 d2bd 1897 e33d
000000a0: c611 483e 1a23 7f3e ff92 0f3e 496f d3be
000000b0: 4206 453e 9f7a 5abe 60ad 2a3e 3e12 d4be
000000c0: b52f f1bd d393 9abe e1f6 b23e bbf8 a43e
000000d0: 026d ab3e e39a 303e bd3a 583e 5634 d8be
000000e0: dae7 b03d f0ac 84be ad2d d63d 2239 963e
000000f0: 7494 cc3d 7c47 19be f1b4 323e 6027 183e
00000100: e68f e3bd 25d7 ba3e a081 bbbd 6e45 823e
00000110: 67a3 1c3e d510 3d3e 9a69 003e a419 a6be
00000120: dbcf 343e f8b2 eebe 1a10 c9bc f288 d2be
00000130: f3cd c7be d4d2 8f3e b593 aa3e a2ca af3e
00000140: db88 b93e a45c b63d 2404 b43e a3a6 cbbd
00000150: 06d9 2b3d 78ed 44be a0df 25be 6517 48be
00000160: 15ed 6abe 68a8 a1be 888a f73d ee52 733c
00000170: 3898 0fbd 74d0 dabe e0e8 983e a4ee a63d
00000180: 7491 ecbe 55b0 99be 3d4e 96be da2f 50be
00000190: 89d0 5b3e fd4a c5be c385 5bbe 605c 9c3e
000001a0: 4c85 f3bc e2b7 e8be d776 90be 7679 1fbe
000001b0: 3561 b73e 77ab 26be 6656 b33e 0aca b6be
000001c0: d96d 5b3d f543 843e 3694 bebe 1f15 953e
000001d0: 2ca2 2fbd bb07 99be 11c8 913e 4255 f9bd
000001e0: 8ab9 7a3e cbeb bebe dca3 82be 009b bb3e
000001f0: 9753 f13d 98cc c1be d3e2 183e 6752 a93d
00000200: 76d1 c2be da63 33be 68b6 543e 4fa9 70bd
00000210: da97 fb3d 62f5 81be 7beb c8bc e9f3 aabe
00000220: e2f5 b7be c7ef ac3d 2ab2 80be 72a8 13be
00000230: 927b ca3d a42b a0bd 0b35 7bbd 1e2d 8bbe
00000240: 5248 19be aa77 b3be 37af c9be 0aa3 98bd
00000250: 79c4 b8be 7e84 be3e ebf5 acbe 480d a23e
00000260: 11d4 34be c96a fd3d d7a7 8d3e

parametrizer.linear4.bias f4 [31]
0.077939056 0.21505849 -0.019576183 -0.2840695 0.2885542 0.35243675 -0.04890977 -0.27514976
0.32301676 -0.39662477 -0.31725967 0.33531165 0.42021617 0.34519264 0.025909131 0.18703915
-0.1735292 0.32765824 -0.018559175 -0.2478838 0.048906952 -0.16258721 0.48436147 -0.23629461
0.3508185 -0.09300486 -0.27745217 -0.08956107 -0.32878175 -0.15287314 0.19423965
00000000: 839e 9f3d 4b38 5c3e 3b5e a0bc 8f71 91be
00000010: 60bd 933e 9772 b43e 9c55 48bd 6ee0 8cbe
00000020: 7462 a53e 6712 cbbe dc6f a2be f8ad ab3e
00000030: 9326 d73e 17bd b03e 633f d43c 3187 3f3e
00000040: a3b1 31be d2c2 a73e 6909 98bc 40d5 7dbe
00000050: a852 483d 437d 26be 3afe f73e 37f7 71be
00000060: 7c9e b33e 5579 bebd 360e 8ebe cb6b b7bd
00000070: 1556 a8be c78a 1cbe c2e6 463e

exp_avg f4 [10, 30]
0.0011247245 -0.00026512632 0.001198272 0.0009220317 0.00178687 0.0006262116 0.0014926316 0.0014262589
0.0012150097 -0.00088893645 0.0011710748 -0.00035838925 0.0010551563 0.0010563654 -0.0012203145 -0.0009270166
-0.0004081763 0.00048723593 -0.00019569506 -0.0012023452 0.0012917366 -0.00025712678 0.0013145611 0.0010518929
0.0009653367 0.0009938155 0.0011896116 0.0013842937 0.0010074925 0.00010986433 0.0012433265 0.00046445863
0.0012303024 0.0012045003 -0.0015893148 0.0015533422 0.0012860852 0.00086515886 0.0020162286 0.0012607004
-0.00054486474 -0.005276778 -8.881186e-05 0.0006734608 -0.00046609703 0.0015130211 0.0015418894 -0.00029213156
-0.0014954186 0.0017972249 0.0014497469 0.0005869248 0.00174955 0.0013854495 0.0010740358 0.0019793077
0.0021634493 0.001913666 0.003213267 0.0025371348 0.0015369026 -0.0012961748 0.0015704321 0.0015882591
0.0016856155 0.0003494564 0.0025607515 0.002275974 0.0033482555 -0.0013209796 0.0013943204 -0.0013175958
0.0013642304 0.0016591095 -0.00019107905 -0.0018569139 -0.00042901427 -0.0006745911 -0.00027966927 -0.0021841074
0.0024339028 -9.777516e-05 0.002409727 0.0024043075 0.003023965 0.000962372 0.0025284342 0.002036283
0.0032006868 4.5513796e-05 0.00073186157 -0.0012545122 0.00040007135 0.0018420352 -0.0021302747 -0.0013405889
-0.001521602 -0.0017424653 -0.002740546 0.0026801007 -0.000581343 -0.0033883967 -0.00027393864 0.00025921184
0.01263769 0.0034843648 0.004036622 4.1831943e-05 -0.0051611746 0.0067887018 0.0005750059 -0.002409193
0.00046506972 0.0016914599 0.0029849433 -0.004378382 -0.0015443309 -0.0031678516 -0.007430571 -0.0014755575
-0.00030620067 0.0061016493 -0.00058608747 0.0005213702 -0.013521871 -0.0021874185 -0.0024617563 -0.0038100693
-0.0038855518 -4.9890863e-05 -2.8004537e-05 -0.0019376433 0.00046709718 0.00010658505 0.0040654927 0.010821057
0.0089700185 0.006235473 0.00041608204 0.009092435 -0.0007699493 0.0033286873 -0.0007174764 8.546245e-05
-0.010254736 -0.0028937373 -0.0007977145 -0.0023203397 -0.004451176 -0.0010001245 -0.0016837653 0.0006182427
-0.0019024769 -0.0006110097 -0.005175291 0.0009815114 -0.00104351 -0.002023933 0.004622695 0.0065763495
-0.0029354172 -0.008496699 -0.0018744222 -0.0010289084 0.0070948103 0.0061909426 0.006175379 0.0014086496
-0.0019586382 0.0086941635 -0.00071404915 0.0006253041 -0.00033596845 0.00030101332 0.00248404 -0.00012671684
0.0016759306 0.00022551426 0.004300305 0.0048898207 -0.0006912251 0.0013176281 -0.0005385769 -0.0014168636
0.0026563203 0.0007547411 -0.00039600936 0.0002375014 -0.0041560084 -0.00035287288 -0.0006231867 0.0071981167
-0.0010404508 -0.0013157214 -0.0046332614 -0.0018296273 -0.0028329245 -0.0006481357 0.0032992857 -0.0020370649
-0.0017917649 0.0018686934 -0.0018938105 -0.0024246539 -0.002797493 0.00045812278 -0.0019058735 -0.0006241709
-0.0012664794 -0.0007217554 0.0031024811 -0.00572819 0.0033730876 0.0033561157 0.0063363016 0.00039456264
0.0038573062 0.0037213156 0.0026430045 -0.0026592663 0.0060346546 0.00322197 0.0054566236 0.0042841234
0.0033063516 -0.002003191 -0.0011409855 0.0030695791 -0.00052767864 -0.0026437354 0.003515724 -0.006919328
0.0030679752 0.0037261157 0.0031225586 -0.0012997867 0.0006941323 0.0006068546 -0.004493247 -0.0038861898
0.0021071725 -0.0020156952 0.002151901 0.001628442 0.0022336647 -0.0012476222 0.001131727 0.0012421444
-0.0057843355 -0.004647679 0.0035754242 0.0061676134 0.0023691407 0.0015977335 0.0048100804 0.0013812039
00000000: 7e6b 933a a700 8bb9 560f 9d3a 80b4 713a
00000010: 6835 ea3a 5928 243a 68a4 c33a 4ff1 ba3a
00000020: f640 9f3a 8407 69ba c07e 993a 31e6 bbb9
00000030: 2c4d 8a3a be75 8a3a f6f2 9fba 0803 73ba
00000040: 7f00 d6b9 b373 ff39 7e33 4db9 0398 9dba
00000050: 7d4f a93a f9ce 86b9 5a4d ac3a abdf 893a
00000060: a60e 7d3a ea42 823a beec 9b3a 3071 b53a
00000070: d70d 843a f766 e638 1df7 a23a 9582 f339
00000080: 1942 a13a 53e0 9d3a 8e50 d0ba 8499 cb3a
00000090: dc91 a83a d4cb 623a b422 043b 163e a53a
000000a0: 41d5 0eba d2e8 acbb 8140 bab8 308b 303a
000000b0: 7c5e f4b9 9050 c63a 3919 ca3a 3c29 99b9
000000c0: ec01 c4ba dc90 eb3a 6f05 be3a dbdb 193a
000000d0: 2851 e53a f997 b53a a9c6 8c3a 46b7 013b
000000e0: a8c8 0d3b fad3 fa3a ad95 523b 0f46 263b
000000f0: e571 c93a 69e4 a9ba f5d6 cd3a 222d d03a
00000100: dfef dc3a 3e37 b739 48d2 273b 8228 153b
00000110: 686e 5b3b b824 adba a1c1 b63a 2eb3 acba
00000120: facf b23a 7a76 d93a 645c 48b9 b163 f3ba
00000130: 52ed e0b9 0bd7 30ba 93a0 92b9 3e23 0fbb
00000140: 1d82 1f3b a40c cdb8 83ec 1d3b 9691 1d3b
00000150: b72d 463b b147 7c3a 16b4 253b 2973 053b
00000160: 9dc2 513b 11e6 3e38 66da 3f3a 726e a4ba
00000170: abc0 d139 7270 f13a 149c 0bbb b3b6 afba
00000180: 7e70 c7ba 6f63 e4ba bb9a 33bb a1a4 2f3b
00000190: 4565 18ba dd0f 5ebb 6c9f 8fb9 d3e6 8739
000001a0: 500e 4f3c f159 643b a445 843b b574 2f38
000001b0: 121f a9bb c273 de3b febb 163a 8de3 1dbb
000001c0: 9ad4 f339 fab3 dd3a 0a9f 433b 8878 8fbb
000001d0: 256b caba bb9b 4fbb 267c f3bb 7e67 c1ba
000001e0: 8f89 a0b9 58f0 c73b aaa3 19ba 90ac 083a
000001f0: d68a 5dbc cb5a 0fbb 6b55 21bb 5bb2 79bb
00000200: bea4 7ebb e841 51b8 49eb eab7 85f8 fdba
00000210: b9e4 f439 6a86 df38 d337 853b cd4a 313c
00000220: fcf6 123c f052 cc3b 9625 da39 70f8 143c
00000230: 6cd6 49ba 1b26 5a3b 0715 3cba 4e3a b338
00000240: 7b03 28bc dba4 3dbb b71d 51ba d710 18bb
00000250: 2cdb 91bb 9c16 83ba cab1 dcba 9111 223a
00000260: 885c f9ba 2b2c 20ba 7d95 a9bb 0fa6 803a
00000270: 63c6 88ba f6a3 04bb fa79 973b 6b7e d73b
00000280: 2160 40bb bd35 0bbc 2caf f5ba 70dc 86ba
00000290: 957b e83b 64dd ca3b d55a ca3b 70a2 b83a
000002a0: 7f5c 00bb f771 0e3c 072f 3bba 73eb 233a
000002b0: ec24 b0b9 53d1 9d39 47cb 223b 4bdf 04b9
000002c0: e6aa db3a 0678 6c39 93e9 8c3b ca3a a03b
000002d0: 5533 35ba 43b4 ac3a 492f 0dba 0eb6 b9ba
000002e0: a915 2e3b d1d9 453a 7a9f cfb9 cc09 7939
000002f0: 202f 88bb cc01 b9b9 5a5d 23ba 2ede eb3b
00000300: bc5f 88ba 4974 acba 9dd2 97bb 1bd0 efba
00000310: 96a8 39bb a7e7 29ba d438 583b 4780 05bb
00000320: a7d9 eaba f2ee f43a bc39 f8ba f1e6 1ebb
00000330: 2556 37bb 3330 f039 81ce f9ba 669f 23ba
00000340: ffff a5ba 2f34 3dba ff52 4b3b 8ab3 bbbb
00000350: 050f 5d3b 47f2 5b3b c0a0 cf3b 4ddd ce39
00000360: dcca 7c3b 51e1 733b 4236 2d3b 1647 2ebb
00000370: 5abe c53b b027 533b 7acd b23b d561 8c3b
00000380: 60af 583b f847 03bb 1f8d 95ba fe2a 493b
00000390: ea53 0aba 8542 2dbb 1068 663b 88bb e2bb
000003a0: 1510 493b d931 743b d7a3 4c3b 9b5d aaba
000003b0: 6ef6 353a 5315 1f3a 163c 93bb 72af 7ebb
000003c0: 7d18 0a3b c119 04bb e806 0d3b 7271 d53a
000003d0: ad62 123b 4187 a3ba 7556 943a 73cf a23a
000003e0: 868a bdbb 8f4b 98bb aa51 6a3b b119 ca3b
000003f0: 9643 1b3b 0a6b d13a e19d 9d3b 8309 b53a

exp_avg_sq f4 [10, 30]
1.826673e-06 2.1051835e-06 1.9203776e-06 1.7232992e-06 1.4089909e-06 3.2138732e-06 3.0159804e-06 2.7164292e-06
4.4293856e-06 2.0613475e-06 1.1088379e-06 2.5565923e-06 1.3011595e-06 1.0020361e-06 2.6329567e-06 2.180697e-06
1.9355293e-06 2.583916e-06 1.5574711e-06 1.8195503e-06 1.9785025e-06 2.2134843e-06 2.2244285e-06 1.7106727e-06
1.4394186e-06 3.433945e-06 3.4781506e-06 2.6879136e-06 4.0523587e-06 2.9816301e-06 1.3479388e-06 9.403042e-07
1.3623861e-06 1.112803e-06 7.94566e-07 1.6601841e-06 1.4027792e-06 1.20043e-06 1.5493789e-06 9.318236e-07
5.268205e-07 4.879695e-06 4.2092682e-07 4.7927415e-07 1.9496242e-06 1.3860148e-06 1.1077874e-06 1.0782646e-06
1.9912388e-06 9.259099e-07 1.4361177e-06 1.316675e-06 1.5411298e-06 1.0975027e-06 9.4795564e-07 2.718136e-06
2.7115789e-06 2.0325656e-06 3.2206424e-06 2.3779246e-06 3.0132294e-06 4.9517353e-06 3.1283291e-06 2.4760875e-06
7.800948e-06 6.570384e-06 5.6928106e-06 3.7047398e-06 1.1240197e-05 3.2307462e-06 2.0284963e-06 3.410622e-06
2.3841092e-06 1.2297153e-06 6.531079e-06 9.143602e-06 4.816195e-06 2.2866125e-06 8.71447e-06 1.9042509e-06
3.3242031e-06 5.662394e-06 3.7805646e-06 2.4345495e-06 8.859112e-06 2.0359916e-05 1.8515093e-05 6.791937e-06
1.7938954e-05 1.0417206e-05 7.845131e-06 2.9925128e-05 7.603943e-06 6.6881917e-06 2.6733955e-05 2.4959949e-05
1.048271e-05 9.638143e-06 4.3133925e-05 3.0048173e-05 8.577624e-06 4.5081993e-06 1.17676855e-05 4.9142723e-06
7.427804e-05 1.5597312e-05 1.4300524e-05 1.4884814e-05 6.6821776e-05 3.2150092e-05 7.711268e-06 2.721728e-05
7.932734e-06 5.345907e-06 1.6165213e-05 4.0699226e-05 2.1490785e-05 1.5618205e-05 9.752819e-05 3.0786865e-05
1.5281143e-05 2.5006122e-05 1.5710964e-05 1.0350512e-05 5.2696567e-05 3.754206e-05 2.381406e-05 1.3051275e-05
7.517725e-05 1.13017295e-05 5.5111054e-06 2.086687e-05 5.1314173e-06 2.4496849e-06 3.701684e-05 5.3186253e-05
2.9460016e-05 1.5142217e-05 4.484969e-05 2.1847412e-05 1.5710988e-05 3.0844072e-05 1.8199615e-05 8.804048e-06
5.4846812e-05 0.00011911854 9.5377894e-05 3.1667983e-05 0.0001306017 6.9193724e-05 9.339679e-06 2.8604914e-05
1.0089995e-05 7.148215e-06 2.86598e-05 5.9200363e-05 4.0501774e-05 1.2610942e-05 6.4191714e-05 3.0995394e-05
9.068864e-06 9.486866e-06 9.56812e-06 6.0798757e-06 6.391134e-05 6.949568e-05 4.2800864e-05 2.0283425e-05
5.1104293e-05 3.909296e-05 1.00606785e-05 5.0627397e-05 1.3240275e-05 6.5216386e-06 2.7811273e-05 0.00017279985
0.00014493246 3.2502256e-05 0.00014969838 0.000114832736 1.5161902e-06 1.973987e-05 1.4724438e-06 1.8674765e-06
9.314974e-06 1.6261076e-05 9.661924e-06 4.9320547e-06 2.4001192e-05 1.3973975e-05 2.473333e-06 1.0205664e-05
2.5811776e-06 1.7796649e-06 1.14782415e-05 1.5620468e-05 9.057643e-06 7.580774e-06 1.7003198e-05 8.992473e-06
1.766383e-06 1.8514296e-05 1.912229e-06 2.125746e-06 5.9113286e-06 2.3944769e-05 1.8122068e-05 5.1942848e-06
2.6078675e-05 2.108583e-05 8.760198e-06 4.979503e-05 8.4191415e-06 7.392121e-06 2.8749455e-05 1.1339297e-05
8.7092385e-06 6.2765093e-06 3.956064e-05 3.378234e-05 1.1823595e-05 3.7815516e-05 1.1517937e-05 5.3349954e-06
2.7751956e-05 1.6305019e-05 7.491688e-06 8.004228e-06 5.226895e-05 1.7797742e-05 8.020276e-06 4.66956e-05
8.8113675e-06 6.975339e-06 2.7622256e-05 2.523601e-05 2.5310566e-05 5.404494e-06 3.1424206e-05 2.425156e-05
1.4964687e-06 4.6750415e-06 1.6419328e-06 1.348052e-06 1.1388514e-06 6.5420722e-06 4.77248e-06 3.0049284e-06
1.122783e-05 1.0388404e-05 2.899638e-06 7.2648436e-06 2.7013164e-06 1.6565923e-06 2.4523146e-05 1.4006297e-05
00000000: 022c f535 c746 0d36 d6df 0036 1c4c e735
00000010: 8f1c bd35 ecad 5736 2666 4a36 e64b 3636
00000020: 22a0 9436 ae55 0a36 61d3 9435 ec91 2b36
00000030: 80a3 ae35 b37d 8635 dab1 3036 1758 1236
00000040: 24e4 0136 5767 2d36 4d0a d135 4637 f435
00000050: 6ac6 0436 5f8b 1436 6447 1536 449a e535
00000060: 0c32 c135 ba72 6636 2c6a 6936 0162 3436
00000070: 7ff9 8736 0418 4836 d3ea b435 3669 7c35
00000080: 3bdb b635 9f5b 9535 294a 5535 7ed3 de35
00000090: 2047 bc35 761e a135 41f4 cf35 6e22 7a35
000000a0: d46a 0d35 43bc a336 befb e134 78a7 0035
000000b0: 4ad6 0236 1b07 ba35 49af 9435 e4b8 9035
000000c0: 39a1 0536 0b8c 7835 a1c0 c035 9cb8 b035
000000d0: d1d8 ce35 e84d 9335 0477 7e35 3969 3636
000000e0: 92f8 3536 3667 0836 3722 5836 6f94 1f36
000000f0: e336 4a36 1527 a636 49f0 5136 dc2a 2636
00000100: d1e0 0237 2b77 dc36 df04 bf36 f29e 7836
00000110: 4794 3c37 cccf 5836 4d21 0836 0ae2 6436
00000120: affe 1f36 b20c a535 8b25 db36 7967 1937
00000130: cd9a a136 b473 1936 5d34 1237 9095 ff35
00000140: 6015 5f36 98ff bd36 9bb5 7d36 3e61 2336
00000150: 99a1 1437 96ca aa37 dc50 9b37 4be6 e336
00000160: 9c7b 9637 8fc5 2e37 959e 0337 b907 fb37
00000170: 5f25 ff36 216b e036 bb42 e037 1561 d137
00000180: e6de 2f37 82b3 2137 b3ea 3438 f60f fc37
00000190: 9de8 0f37 2345 9736 d36d 4537 47e5 a436
000001a0: b8c5 9b38 f9d6 8237 48ec 6f37 cab9 7937
000001b0: ab22 8c38 e6d8 0638 a55f 0137 aa50 e437
000001c0: d516 0537 fe60 b336 889a 8737 76b4 2a38
000001d0: 1c47 b437 d703 8337 0c88 cc38 2521 0138
000001e0: 0130 8037 3dc4 d137 0acb 8337 1ca7 2d37
000001f0: 8206 5d38 7b76 1d38 4ec4 c737 cdf6 5a37
00000200: 7ba8 9d38 8f9c 3d37 09ec b836 430b af37
00000210: 8a2e ac36 4465 2436 8842 1b38 4e14 5f38
00000220: e720 f737 540b 7e37 fd1c 3c38 f644 b737
00000230: 17cb 8337 925e 0138 60ab 9837 19b5 1337
00000240: 510b 6638 47cf f938 9e05 c838 3dd3 0438
00000250: 20f2 0839 191c 9138 9eb1 1c37 96f4 ef37
00000260: 3348 2937 b3da ef36 746a f037 e84d 7838
00000270: 73e0 2938 9593 5337 aa9e 8638 0d01 0238
00000280: 7926 1837 c729 1f37 c386 2037 bc01 cc36
00000290: 2408 8638 36be 9138 1485 3338 5326 aa37
000002a0: d158 5638 bff7 2338 49ca 2837 c158 5438
000002b0: 8c22 5e37 73d4 da36 414c e937 9b31 3539
000002c0: 03f9 1739 0853 0838 5af8 1c39 5bd2 f038
000002d0: e67f cb35 0c97 a537 c9a0 c535 01a6 fa35
000002e0: 8247 1c37 6568 8837 a619 2237 077e a536
000002f0: 2b56 c937 c471 6a37 8afb 2536 fe38 2b37
00000300: 4b38 2d36 d2dc ee35 ac92 4037 b308 8337
00000310: 48f6 1737 5a5e fe36 17a2 8e37 61de 1637
00000320: 7514 ed35 264f 9b37 d853 0036 0aa8 0e36
00000330: ed59 c636 00dd c837 d804 9837 914a ae36
00000340: 87c3 da37 7ae1 b037 c4f8 1237 02db 5038
00000350: f03f 0d37 d609 f836 fc2a f137 e93d 3e37
00000360: e51d 1237 ce9a d236 eaed 2538 83b1 0d38
00000370: f45d 4637 1a9c 1e38 2a3d 4137 4303 b336
00000380: dfcc e837 c3c6 8837 1c61 fb36 e649 0637
00000390: 5c3b 5b38 5c4c 9537 d38e 0637 05db 4338
000003a0: 89d4 1337 b50d ea36 58b6 e737 ebb1 d337
000003b0: 0752 d437 4058 b536 7ccd 0338 d46f cb37
000003c0: 46da c835 4dde 9c36 6260 dc35 b7ee b435
000003d0: a3da 9835 f983 db36 4b23 a036 47a8 4936
000003e0: 2a5f 3c37 db49 2e37 6797 4236 88c4 f336
000003f0: 4348 3536 1458 de35 0eb7 cd37 96fc 6a37

exp_avg f4 [10]
-0.0024876548 -0.013997789 -0.008621692 -0.0023091722 0.0070794653 -0.021233624 0.015501764 0.0065345913
0.023080539 0.006376438
00000000: ec07 23bb fb56 65bc ff41 0dbc 7b55 17bb
00000010: dcfa e73b 23f2 adbc 1cfb 7d3c 2020 d63b
00000020: 6613 bd3c 70f1 d03b

exp_avg_sq f4 [10]
3.2321608e-05 2.7953478e-05 3.2875363e-05 3.5119567e-05 4.7481895e-05 6.782659e-05 5.333745e-05 6.044794e-05
5.5314147e-05 1.2269734e-05
00000000: 1091 0738 a37d ea37 a7e3 0938 594d 1338
00000010: 4c27 4738 203e 8e38 a7b6 5f38 7b89 7d38
00000020: 1d01 6838 1bda 4d37

exp_avg f4 [10, 10]
0.00094467343 0.0011555484 7.1810035e-05 0.004737596 0.0025495456 0.0008601376 0.0026616014 0.00071884395
0.0040313597 -0.002939527 0.00061509985 -0.0022857222 0.0041177166 -0.0008104191 -0.000641534 -0.00021024553
-0.0062690307 -0.0015281383 -0.009698317 0.007265882 -0.004777342 0.0028436906 0.0045710597 0.0027408581
0.0066800816 -0.00033452883 -0.0027372167 -0.0012487184 -0.0029003022 0.0040776804 -0.002709679 0.0022150583
-0.0013844782 0.002976784 0.00333316 0.0012569595 0.0021919552 -0.0007476246 0.0038942494 -0.0015046315
-0.0014262365 0.0029577762 8.438166e-05 0.0035631233 0.0033558079 -0.00014887302 0.0028411476 0.0007977835
0.00534738 -0.0028810583 -0.00042072183 0.0024412381 0.007922801 0.007942133 0.009101915 -0.0031059547
-0.0002931293 0.0016761482 -0.00081590994 0.002239484 -0.0012053594 -0.0005548348 -0.003784944 -0.0023575262
-0.0013860258 0.0007862372 0.0018726744 0.00036466558 0.0032900088 -0.0025709935 -0.0040332824 0.0019813227
-0.0009400926 0.001449331 0.0039804126 0.00035118836 0.0013205755 -0.000876573 0.0024505078 -0.0008137211
0.00036585834 -0.0006085677 -0.002403826 -0.0021178622 -0.00045205635 -0.00015940722 0.0026545103 0.0017446842
0.0042632553 -0.0038123669 -0.0033189917 0.0016316925 0.0028986488 -0.00051357 0.0020318583 -0.0009799012
-0.0034996986 -0.0013531287 -0.0030290205 0.002874356
00000000: f6a3 773a c575 973a b898 9638 d63d 9b3b
00000010: 4716 273b db7a 613a 436e 2e3b cd70 3c3a
00000020: 7f19 843b 14a5 40bb a73e 213a 0ecc 15bb
00000030: e9ed 863b 4e72 54ba 9e2c 28ba 5b75 5cb9
00000040: 716c cdbb d04b c8ba b1e5 1ebc a316 ee3b
00000050: 408b 9cbb 365d 3a3b d4c8 953b f89f 333b
00000060: 96e4 da3b b363 afb9 e062 33bb 09ac a3ba
00000070: ff12 3ebb 109e 853b df94 31bb 832a 113b
00000080: 6177 b5ba 2616 433b 2571 5a3b 90c0 a43a
00000090: e8a6 0f3b 3dfc 43ba aa36 7f3b 0e37 c5ba
000000a0: 8ef0 baba 40d7 413b 0ff6 b038 4a83 693b
000000b0: 1ded 5b3b cc1a 1cb9 8c32 3a3b 5822 513a
000000c0: 1339 af3b 23d0 3cbb 5494 dcb9 2efd 1f3b
000000d0: a3ce 013c b81f 023c 3320 153c 468d 4bbb
000000e0: 26af 99b9 33b2 db3a cae2 55ba 4fc4 123b
000000f0: 26fd 9dba 5572 11ba d30c 78bb ba80 1abb
00000100: 4fab b5ba 7c1b 4e3a 8774 f53a 9630 bf39
00000110: 309d 573b 1d7e 28bb a029 84bb 14d9 013b
00000120: 8c70 76ba 7af7 bd3a 1f6e 823b b41f b839
00000130: 2917 ad3a d1c9 65ba b398 203b e64f 55ba
00000140: add0 bf39 4988 1fba 8289 1dbb d5cb 0abb
00000150: fa01 edb9 8d26 27b9 4bf7 2d3b e3ad e43a
00000160: c7b2 8b3b e7d8 79bb 7183 59bb 84de d53a
00000170: 42f7 3d3b 19a1 06ba ed28 053b 0770 80ba
00000180: 335b 65bb 775b b1ba 8882 46bb b15f 3c3b

exp_avg_sq f4 [10, 10]
7.0099436e-06 5.5540745e-06 4.8691427e-06 4.621953e-06 6.2949334e-06 5.607991e-06 5.021531e-06 4.2820297e-06
8.617868e-06 6.6880707e-06 2.6196665e-06 6.736675e-06 3.7457396e-06 9.891251e-06 6.823615e-06 5.0475064e-06
1.0741516e-05 4.4894996e-06 1.7715427e-05 1.520903e-05 1.517862e-05 1.2488599e-05 1.8060104e-05 1.8001507e-05
2.3553257e-05 8.9988025e-06 1.04840765e-05 2.6892882e-05 3.905967e-05 1.936758e-05 3.6484735e-06 4.1873323e-06
3.4056989e-06 8.114969e-06 6.3284433e-06 3.056682e-06 1.7514532e-06 7.127501e-06 9.155934e-06 3.0155265e-06
3.4082038e-06 7.355384e-06 5.2832675e-06 1.6073469e-05 7.256212e-06 4.9443993e-06 3.853948e-06 3.6354982e-06
8.809677e-06 3.4223306e-06 9.029954e-06 7.3870815e-06 4.2046948e-05 2.28909e-05 4.0846193e-05 9.890181e-06
1.5290294e-05 3.095595e-05 5.272824e-05 4.080013e-05 1.4682429e-06 1.2182328e-06 5.4066354e-06 3.0180177e-06
3.5564674e-06 1.2509441e-06 1.1150162e-06 2.9721398e-06 6.9422895e-06 4.473026e-06 7.4826094e-06 5.8969463e-06
5.282799e-06 1.0353419e-05 1.0224922e-05 5.618217e-06 6.429335e-06 6.9410708e-06 9.296855e-06 5.0235967e-06
3.7198322e-06 3.9652896e-06 9.361095e-06 1.016492e-05 9.663424e-06 3.1824306e-06 3.6031113e-06 1.5512578e-05
2.792379e-05 1.521172e-05 1.3313559e-05 1.2953232e-05 1.7844288e-05 8.710115e-06 2.085464e-05 7.7346685e-06
1.392913e-05 2.0770965e-05 2.9090941e-05 1.8972587e-05
00000000: f536 eb36 235d ba36 9e61 a336 4616 9b36
00000010: 1139 d336 472c bc36 9f7e a836 5bae 8f36
00000020: 7695 1037 176a e036 87cd 2f36 990b e236
00000030: 515f 7b36 99f2 2537 68f6 e436 c05d a936
00000040: 7636 3437 82a4 9636 979b 9437 492a 7f37
00000050: ada7 7e37 2086 5137 c77f 9737 f101 9737
00000060: 3c94 c537 90f9 1637 c4e4 2f37 0698 e137
00000070: 00d4 2338 9077 a237 4cd8 7436 e980 8c36
00000080: 768d 6436 8725 0837 ea58 d436 6621 4d36
00000090: 7913 eb35 c428 ef36 709c 1937 5a5e 4a36
000000a0: 7fb8 6436 44ce f636 ec46 b136 83d5 8637
000000b0: 637a f336 11e8 a536 2951 8136 62f9 7336
000000c0: 46cd 1337 31ab 6536 5b7f 1737 8cde f736
000000d0: 915b 3038 d505 c037 4452 2b38 01ee 2537
000000e0: a843 8037 b3d6 0138 8428 5d38 ce20 2b38
000000f0: 7110 c535 2982 a335 a56a b536 2689 4a36
00000100: a5ab 6e36 1de6 a735 aaa7 9535 f974 4736
00000110: d0f1 e836 0017 9636 2013 fb36 62de c536
00000120: e642 b136 99b3 2d37 b58b 2b37 1e84 bc36
00000130: 91bb d736 58e7 e836 b0f9 1b37 5e90 a836
00000140: 3ba2 7936 940d 8536 990d 1d37 008a 2a37
00000150: 1720 2237 be91 5536 fbcc 7136 0221 8237
00000160: e23d ea37 d735 7f37 4d5d 5f37 b551 5937
00000170: 51b0 9537 a921 1237 00f1 ae37 26c4 0137
00000180: 28b1 6937 4f3d ae37 5208 f437 5227 9f37

exp_avg f4 [10]
-0.038673982 0.042791743 0.023521205 -0.016345663 -0.021515187 -0.0040274146 -0.009338792 -0.0051510544
-0.019690529 0.037020054
00000000: 9c68 1ebd 6546 2f3d 8baf c03c 57e7 85bc
00000010: 9e40 b0bc 67f8 83bb bc01 19bc 2dca a8bb
00000020: 084e a1bc 57a2 173d

exp_avg_sq f4 [10]
0.00016568493 0.00040070282 0.00012614898 2.3107334e-05 0.00012369321 0.00043079173 3.0597825e-05 0.00013736893
0.00010806696 0.0003090365
00000000: b6bb 2d39 6c15 d239 dc46 0439 9fd6 c137
00000010: a5b3 0139 e3db e139 2a56 0038 b10a 1039
00000020: 02a2 e238 2d06 a239

exp_avg f4 [5, 10]
-0.03156023 0.037260596 0.0074618626 -0.031756144 -0.006407895 0.0032616712 -0.026208023 0.0040455307
-0.038512528 0.048707105 0.026165746 -0.02042431 -0.0055674976 0.023799608 0.006929759 0.0042186403
0.019368514 -0.002387714 0.027411941 -0.03170832 -0.011661792 0.013710693 0.0032883256 -0.01319684
-0.0066317962 0.00047865263 -0.009218021 -0.0028351694 -0.015570133 0.017883984 -0.006744422 -0.004559299
-0.0025303783 -0.0038430337 -0.0035330688 -0.009989873 0.013080765 -0.011170002 -0.001060422 -0.015448665
0.041702043 -0.030659357 -0.011021931 0.03852996 0.0042075156 0.005053553 0.022325171 -0.0038935149
0.041147362 -0.044057388
00000000: 4d45 01bd 919e 183d a482 f43b bb12 02bd
00000010: 52f9 d1bb c3c1 553b 35b2 d6bc 5f90 843b
00000020: 50bf 1dbd 1a81 473d 8c59 d63c e250 a7bc
00000030: 8e6f b6bb 65f7 c23c 0813 e33b 853c 8a3b
00000040: b8aa 9e3c 327b 1cbb 028f e03c 95e0 01bd
00000050: 1a11 3fbc d1a2 603c f380 573b 8f37 58bc
00000060: 8a4f d9bb abf3 fa39 2f07 17bc 40ce 39bb
00000070: df19 7fbc 6f81 923c 5000 ddbb 2c66 95bb
00000080: b4d4 25bb 68db 7bbb 0f8b 67bb 90ac 23bc
00000090: b450 563c 6202 37bc dcfd 8aba 661c 7dbc
000000a0: c3cf 2a3d 5529 fbbc 5495 34bc 97d1 1d3d
000000b0: 33df 893b 4698 a53b 47e3 b63c 572a 7fbb
000000c0: 238a 283d 8575 34bd

exp_avg_sq f4 [5, 10]
0.00051712483 0.00024324872 2.9324205e-05 0.00039346094 7.2883326e-05 4.2731677e-05 0.0002652887 0.00012560181
0.0005791566 0.0008833647 0.0003094737 8.745382e-05 2.5145115e-05 0.00023301564 4.2316737e-05 2.647127e-05
0.00017399927 5.4169646e-05 0.00028475528 0.00049819716 0.00012330918 4.90254e-05 9.175835e-06 0.0001019553
2.0488467e-05 1.1225435e-05 6.40736e-05 3.011464e-05 0.00013181915 0.00024903487 0.00017885516 0.00010238978
4.2047177e-05 0.0002145339 8.154034e-05 4.038259e-05 0.00011930286 9.6924785e-05 0.000108972956 0.0006100906
0.00040175105 0.00011666247 3.422993e-05 0.00031340736 3.7166614e-05 2.3802328e-05 0.00012522496 3.708977e-05
0.00037667062 0.00041286668
00000000: a98f 073a 9510 7f39 40fd f537 6f49 ce39
00000010: f0d8 9838 ca3a 3338 7216 8b39 fbb3 0339
00000020: 8bd2 173a 9a91 673a db40 a239 6967 b738
00000030: b9ee d237 a955 7439 407d 3138 9f0e de37
00000040: 9373 3639 3734 6338 354b 9539 7299 023a
00000050: 8e4c 0139 9fa0 4d38 e9f1 1937 d6d0 d538
00000060: a6de ab37 e054 3c37 415f 8638 b29e fc37
00000070: ef38 0a39 e590 8239 118b 3b39 18ba d638
00000080: d05b 3038 81f4 6039 a300 ab38 7a60 2938
00000090: 3c32 fa38 1944 cb38 6988 e438 7dee 1f3a
000000a0: 1da2 d239 b0a8 f438 1c92 0f38 d350 a439
000000b0: 59e3 1b38 1cab c737 d24e 0339 d690 1b38
000000c0: e07b c539 0776 d839

exp_avg f4 [5]
-0.13757488 0.102834724 -0.051250868 0.008903363 0.14296041
00000000: 6ee0 0cbe 039b d23d 6eec 51bd 69df 113c
00000010: 3764 123e

exp_avg_sq f4 [5]
0.008991461 0.0043581123 0.0022117598 0.0030671684 0.0046843057
00000000: ec50 133c 7fce 8e3b 2cf3 103b 8c02 493b
00000010: ce7e 993b

exp_avg f4 [31, 5]
-0.001782123 0.033595722 0.011713445 -0.007746158 0.02407436 0.006614902 0.020117192 0.008330736
-0.0028388705 0.01611525 -0.0012089139 0.035045836 0.012148135 -0.0073330947 0.025368694 -0.0017717362
0.042727616 0.01503067 -0.008418445 0.030310994 0.003030243 0.0003636495 0.0021622158 0.008406951
-0.0022495445 0.0021985099 0.010028809 0.0040935283 0.00081832457 0.0065285563 0.0020568126 0.0458043
0.016021296 -0.0045167324 0.033860736 0.0018598617 0.048840787 0.017594486 -0.0042984784 0.03527948
0.0017662914 0.019200921 0.00900215 0.0043327636 0.010113958 0.004421693 -0.00017211598 0.0004337429
0.0064380476 -0.00075664325 0.0021861882 0.040551763 0.01470017 -0.0048244083 0.02937976 0.009539568
-0.015012968 -0.0038408285 0.0057609263 -0.009046048 -0.00012587936 0.014525661 0.005785391 -0.004350016
0.009530901 -0.0004676077 0.02348798 0.008819118 -0.0055691367 0.016122444 -0.0027918655 -0.020817222
-0.0031642504 0.0012862582 -0.022180926 0.0016546338 0.0014694469 0.00032121976 0.00015443102 0.0011802528
0.0010428255 0.018266343 0.005379239 -0.002216535 0.014327956 0.00023675285 -0.003171064 -0.00052200997
0.0018613451 -0.0036678812 0.0071199485 0.009623148 0.003580357 0.0037313309 0.008206791 0.0017603097
-0.00092161866 2.9909486e-06 0.00072184094 -0.001235643 0.00026285546 0.042055298 0.014358557 -0.006563551
0.031267207 0.0074599255 0.030616213 0.0112671945 -0.002468865 0.024763903 -0.0005803838 0.03130482
0.010873595 -0.006359543 0.022912102 0.0003372356 0.04748023 0.016304776 -0.006901849 0.03493485
0.0007732799 0.0072129276 0.0043810494 0.0048547066 0.0021989725 0.0028287263 0.03489493 0.012104396
-0.0024494312 0.026385456 0.0028260713 0.05210806 0.017339692 -0.0043092417 0.039939106 0.0008904346
0.043280825 0.0152693475 -0.0043799863 0.03146508 0.0067704124 0.052128334 0.017625513 0.001971299
0.039546214 0.0050214613 0.025378868 0.008960823 0.0010933342 0.019657768 0.005574666 -0.028798971
-0.0058130883 0.00413511 -0.021838425
00000000: 2096 e9ba ab9b 093d c0e9 3f3c 7cd3 fdbb
00000010: 9837 c53c d2c1 d83b cfcc a43c a47d 083c
00000020: 580c 3abb 2104 843c 6b74 9eba 398c 0f3d
00000030: f908 473c 754a f0bb 02d2 cf3c 9a39 e8ba
00000040: 2703 2f3d 3343 763c 84ed 09bc c34e f83c
00000050: 0b97 463b 36a8 be39 f6b3 0d3b 4fbd 093c
00000060: 186d 13bb e014 103b e04f 243c 0123 863b
00000070: d584 563a 80ed d53b 97cb 063b 4a9d 3b3d
00000080: 183f 833c 1901 94bb 8eb1 0a3d 9ac6 f33a
00000090: 470d 483d 5022 903c 40da 8cbb 3781 103d
000000a0: e882 e73a 404b 9d3c c17d 133c dbf9 8d3b
000000b0: 04b5 253c d9e3 903b 087a 34b9 fd67 e339
000000c0: 42f6 d23b 7859 46ba 2746 0f3b 9b19 263d
000000d0: fbd8 703c 1216 9ebb d3ad f03c d94b 1c3c
000000e0: f4f8 75bc 69b6 7bbb 27c6 bc3b e035 14bc
000000f0: 7cfe 03b9 0afd 6d3c 6193 bd3b 948a 8ebb
00000100: 7f27 1c3c 3e29 f5b9 dd69 c03c 107e 103c
00000110: 4e7d b6bb 3713 843c bbf7 36bb e188 aabc
00000120: 505f 4fbb aa97 a83a c6b4 b5bc 4ce0 d83a
00000130: 759a c03a 6369 a839 c3ee 2139 b6b2 9a3a
00000140: 6baf 883a 4ca3 953c 5444 b03b 4943 11bb
00000150: cebf 6a3c dc40 7839 a0d1 4fbb 7fd7 08ba
00000160: 61f8 f33a d660 70bb 754e e93b 68aa 1d3c
00000170: 6ca4 6a3b 5889 743b c775 063c 31ba e63a
00000180: c898 71ba 1bb8 4836 ed39 3d3a 4df5 a1ba
00000190: ddcf 8939 2d42 2c3d 2740 6b3c 0e13 d7bb
000001a0: 0b12 003d 6472 f43b dace fa3c 0a9a 383c
000001b0: aecc 21bb abdd ca3c e624 18ba 7c39 003d
000001c0: 2a27 323c b763 d0bb 29b2 bb3c ffce b039
000001d0: a17a 423d 9891 853c e828 e2bb d817 0f3d
000001e0: f0b5 4a3a 6c5a ec3b e88e 8f3b 3b14 9f3b
000001f0: a31c 103b 2762 393b fced 0e3d 8451 463c
00000200: a386 20bb 5026 d83c 9c35 393b 436f 553d
00000210: f80b 8e3c 8a34 8dbb 3097 233d 0e6c 693a
00000220: 3c47 313d 492c 7a3c fd85 8fbb 87e1 003d
00000230: 56da dd3b 8584 553d 6163 903c e930 013b
00000240: 36fb 213d 128b a43b 58e7 cf3c 6ad0 123c
00000250: 354e 8f3a 5409 a13c b0ab b63b d2eb ebbc
00000260: b87b bebb d17f 873b 7fe6 b2bc

exp_avg_sq f4 [31, 5]
1.983043e-05 0.0003048021 9.670203e-05 5.202868e-05 0.00011732295 2.7372238e-05 0.00011234144 4.15385e-05
1.7973798e-05 4.355934e-05 2.2178283e-05 0.00033455284 0.000106549174 5.4935033e-05 0.00012912316 1.9076062e-05
0.0003517212 0.00010919135 5.678327e-05 0.00013034063 1.7206532e-05 8.7945096e-05 3.6185564e-05 1.5037526e-05
2.8332566e-05 3.2806267e-05 0.0002871585 0.00011018715 4.033951e-05 9.9999794e-05 4.089677e-05 0.000564937
0.00018957557 7.633024e-05 0.00021379223 3.950661e-05 0.0005772854 0.00018964346 7.467709e-05 0.00021523653
1.3999729e-05 0.0001855983 8.3399646e-05 2.1798758e-05 4.0019855e-05 1.975037e-05 4.248796e-05 1.2932294e-05
8.482949e-06 2.7353764e-05 2.1467855e-05 0.00025943565 7.820266e-05 3.329099e-05 0.00010224489 1.3246647e-05
5.4707536e-05 1.0143792e-05 1.0769182e-05 2.7647637e-05 1.3441013e-05 0.0001242714 4.2898315e-05 2.1761936e-05
4.590387e-05 1.15097055e-05 0.00014600425 4.7746988e-05 2.5188969e-05 5.300499e-05 8.473293e-06 5.13415e-05
8.531274e-06 1.4859606e-05 4.415654e-05 1.7660092e-05 0.000103476676 4.0935527e-05 1.4823249e-05 3.619096e-05
2.1635293e-05 0.00013689179 4.224269e-05 1.7113616e-05 5.976638e-05 2.2086944e-05 7.851617e-05 2.4116287e-05
9.01588e-06 3.6961934e-05 2.0295258e-05 3.3351138e-05 1.0485323e-05 8.113831e-06 2.4144905e-05 1.38252435e-05
3.3504264e-05 1.0987143e-05 4.369843e-06 1.696629e-05 2.4900453e-05 0.00040235737 0.00012548201 6.3327345e-05
0.00015865602 3.099198e-05 0.00015844447 5.5943197e-05 2.4484523e-05 6.746633e-05 2.2292314e-05 0.00034526782
0.00011447192 5.9558282e-05 0.0001305118 2.294932e-05 0.00041499478 0.00012691318 6.2780695e-05 0.00015976676
1.2405529e-05 0.00011679968 4.8850936e-05 1.3587002e-05 3.2048818e-05 3.604582e-05 0.0005310774 0.00019743064
7.352494e-05 0.00018654179 4.6628626e-05 0.00072265614 0.00024576462 9.317965e-05 0.0002742141 4.20982e-05
0.00058673386 0.0001955565 7.776875e-05 0.00022028717 4.2464475e-05 0.0005202213 0.00017089401 6.0562932e-05
0.00020486389 3.395942e-05 0.0003012603 0.00010841567 3.678355e-05 0.00011991998 9.080171e-05 0.00020748719
3.83637e-05 6.8643308e-06 0.00012728416
00000000: 8659 a637 d8cd 9f39 82cc ca38 5f39 5a38
00000010: 470b f638 6f9d e537 da98 eb38 a039 2e38
00000020: 70c6 9637 7cb3 3638 800b ba37 ec66 af39
00000030: 2773 df38 0b6a 6638 3c65 0739 8805 a037
00000040: 3867 b839 a9fd e438 922a 6e38 0cac 0839
00000050: bf56 9037 2a6f b838 f4c5 1738 af49 7c37
00000060: b9ab ed37 7699 0938 c38d 9639 4714 e738
00000070: 3832 2938 fbb6 d138 9388 2b38 4818 143a
00000080: cec8 4639 7c13 a038 6a2d 6039 e6b3 2538
00000090: f854 173a 07db 4639 f59b 9c38 1eb1 6139
000000a0: 61e0 6a37 2a9d 4239 d8e6 ae38 7adc b637
000000b0: feda 2738 99ad a537 1a35 3238 c8f7 5837
000000c0: fd51 0e37 c375 e537 de15 b437 dd04 8839
000000d0: bc00 a438 eea1 0b38 4f6c d638 ea3d 5e37
000000e0: c575 6538 412f 2a37 49ad 3437 d9ec e737
000000f0: b680 6137 da4e 0239 b7ed 3338 678d b637
00000100: e888 4038 cf19 4137 b818 1939 f043 4838
00000110: e64c d337 ad51 5e38 8428 0e37 8457 5738
00000120: 8b21 0f37 864d 7937 b934 3938 c224 9437
00000130: 9e01 d938 30b2 2b38 5fb1 7837 bfcb 1738
00000140: 707d b537 9c8a 0f39 be2d 3138 368f 8f37
00000150: a9ad 7a38 5a47 b937 0ca9 a438 554d ca37
00000160: e942 1737 9307 1b38 bc3f aa37 83e2 0b38
00000170: 1fea 2f37 a420 0837 ca8a ca37 f8f2 6737
00000180: ee86 0c38 6b55 3837 aaa0 9236 d552 8e37
00000190: 51e1 d037 7ef3 d239 d293 0339 9cce 8438
000001a0: e75c 2639 63fd 0138 1d24 2639 8da4 6a38
000001b0: 1d64 cd37 b67c 8d38 6100 bb37 1005 b539
000001c0: a510 f038 38ce 7938 ffd9 0839 4a83 c037
000001d0: a893 d939 ff13 0539 21a9 8338 1087 2739
000001e0: 5721 5037 5af2 f438 4be5 4c38 bbf3 6337
000001f0: 286c 0638 e82f 1738 0038 0b3a 6205 4f39
00000200: 6731 9a38 6e9a 4339 1b93 4338 a270 3d3a
00000210: f8d9 8039 7269 c338 65c4 8f39 9992 3038
00000220: 0bcf 193a 4c0e 4d39 c817 a338 e3fc 6639
00000230: e21b 3238 765f 083a 0332 3339 f404 7e38
00000240: bbd0 5639 a66f 0e38 79f2 9d39 385d e338
00000250: 0948 1a38 8d7d fb38 cc6c be38 eb90 5939
00000260: b6e8 2038 2754 e636 9577 0539

exp_avg f4 [31]
-0.07595667 -0.041465335 -0.07836001 -0.09507158 0.004539808 -0.020648362 -0.0962983 -0.102497086
-0.037115395 0.0054930234 -0.08594069 0.038796347 -0.033713385 -0.05253816 0.03665389 -0.0041322685
-0.0407299 0.0051627196 -0.016600752 0.0009983488 -0.091032565 -0.062000047 -0.06930091 -0.10216596
-0.0122070685 -0.07179723 -0.10817345 -0.09155016 -0.10450293 -0.048920896 0.06519231
00000000: 2c8f 9bbd 8ed7 29bd 377b a0bd e3b4 c2bd
00000010: abc2 943b c126 a9bc 0b38 c5bd fee9 d1bd
00000020: 5006 18bd d2fe b33b ac01 b0bd ebe8 1e3d
00000030: 0c17 0abd 4132 57bd 6422 163d fb67 87bb
00000040: 65d4 26bd 082c a93b 4dfe 87bc 07db 823a
00000050: 486f babd c3f3 7dbd a3ed 8dbd 633c d1bd
00000060: 2800 48bc 6d0a 93bd 0b8a ddbd a67e bbbd
00000070: a205 d6bd 4761 48bd 8c83 853d

exp_avg_sq f4 [31]
0.0021184147 0.00067934394 0.0022980284 0.002407506 0.0004976052 0.0017939622 0.0035300988 0.003647495
0.0010939719 0.00020033322 0.0016626312 0.00045523624 0.00086696306 0.0010122866 0.0003170598 0.0006447518
0.0009051679 0.00052078266 0.00014451845 0.0002065654 0.0026881234 0.0009191008 0.0023590692 0.00274606
0.00069167855 0.0031932627 0.004398591 0.0037435987 0.003001294 0.0016897216 0.0013396895
00000000: 1ad5 0a3b 0016 323a 859a 163b 40c7 1d3b
00000010: b871 023a 6223 eb3a 3b59 673b d00a 6f3b
00000020: 9b63 8f3a 8a10 5239 a5ec d93a c6ac ee39
00000030: e844 633a b4ae 843a 0c3b a639 9004 293a
00000040: ca48 6d3a 2285 083a e089 1739 7a99 5839
00000050: 3a2b 303b d0ef 703a 9d9a 1a3b 3ef7 333b
00000060: c351 353a 0f46 513b 0e22 903b 2a57 753b
00000070: 5cb1 443b a679 dd3a 8598 af3a
