Cancer-senn/trial9/models/cancer/grad3_Hinput_Thdummy_Reg1e-02_LR0.001/checkpoint.pth.tar (torch_old, 26436 bytes, 34 tensors)

parametrizer.linear1.weight f4 [10, 30]
0	0x3d4775aa	0.048696198
1	0xbde7952f	-0.113077514
2	0xbe31a4b7	-0.1734799
3	0x3d34941c	0.04408656
4	0xbde7448b	-0.112923704
5	0x3cd6c132	0.02621517
6	0x3d91ed39	0.07125325
7	0x3bc67b68	0.0060571916
8	0xbbfd5ebc	-0.0077322405
9	0x3d0c83e9	0.034305487
10	0xbd9e9a05	-0.07744221
11	0x3e5513ac	0.20808285
12	0xbdfd5198	-0.123690784
13	0xbdc40ad6	-0.09572379
14	0x3e48c7c5	0.19607456
15	0xbd9b275a	-0.07575865
16	0x3c07fcaf	0.008299991
17	0x3dfb6b4e	0.12276326
18	0xbdba88ab	-0.091080986
19	0x3df18f15	0.11794869
20	0xbd84e8c5	-0.0648971
21	0xbe19a543	-0.15004449
22	0xbd84526f	-0.064610355
23	0xbdc5bb1b	-0.09654828
24	0xbdc708b4	-0.09718457
25	0xbde238ae	-0.11045967
26	0xbce86dfa	-0.028372753
27	0xbd49eee9	-0.049300108
28	0x3e165544	0.14680964
29	0xbd82d152	-0.06387581
30	0x3ddb32c7	0.107030444
31	0xbe21a743	-0.15786462
32	0x3e1d262f	0.15346597
33	0x3e12ce12	0.14336422
34	0xbe04a2dc	-0.12952751
35	0x3c5a277f	0.013315081
36	0x3e2cfe38	0.16893852
37	0xbd540353	-0.051760983
38	0xbdc7c12a	-0.0975364
39	0xbdede0d4	-0.11615148
40	0xbdce6132	-0.10077132
41	0xbe0cb437	-0.13740622
42	0x3d595483	0.053059112
43	0xbd9ec709	-0.07752807
44	0x3acfeffd	0.0015864369
45	0xbd618418	-0.055057615
46	0x3d43d2b4	0.047808364
47	0x3e2b9a89	0.16758169
48	0x3dfe968e	0.1243106
49	0xbd6fa1b5	-0.058503825
50	0xbcdedca8	-0.027204826
51	0x3e06c418	0.13160741
52	0x3d6ee4c5	0.05832364
53	0xbe045349	-0.12922396
54	0xbcdb82a8	-0.0267957
55	0xbd796f75	-0.06089731
56	0x3dff5f45	0.12469343
57	0xbe075eef	-0.13219808
58	0xbc71ee47	-0.014766282
59	0xbe00840f	-0.12550376
60	0xbe59c0bc	-0.21264929
61	0xbdecb32b	-0.11557611
62	0x3ddec485	0.10877327
63	0xbdd1825b	-0.102299415
64	0xbde0c197	-0.10974424
65	0x3e2aa676	0.16665062
66	0xbda95ff7	-0.08270257
67	0xbe093996	-0.13400874
68	0x3e1727f0	0.14761329
69	0xbbcb4adb	-0.006203992
70	0xbdf64b3b	-0.12026068
71	0x3daf05c1	0.08546019
72	0x3daf8641	0.08570529
73	0xbdf2f77a	-0.11863609
74	0x3d23d3ac	0.039996788
75	0x3d3f81fe	0.04675483
76	0x3d42fadd	0.047602523
77	0x3e38a134	0.18030244
78	0x3d8f7044	0.07003835
79	0xbd1ed817	-0.038780298
80	0xbdbe4c0c	-0.092918485
81	0xbe014c2a	-0.1262671
82	0x3cb9a1f6	0.022660237
83	0x3d63cfe4	0.05561818
84	0xbd996a2f	-0.07490956
85	0x3d44e9a7	0.04807439
86	0x3cec9d46	0.028883588
87	0xbd1ddbb5	-0.038539607
88	0x3df85de8	0.12127286
89	0xbdb2c32f	-0.087286346
90	0x3e3ef8b0	0.18649554
91	0xbd18ac42	-0.037273653
92	0xbe2fb5dd	-0.17159219
93	0xbd8d1198	-0.06888121
94	0xbe26380f	-0.16232322
95	0x3d08ae22	0.03336919
96	0xbdb93a6a	-0.09044345
97	0x3bc1785b	0.00590424
98	0x3da8d71c	0.08244154
99	0xbcb1be6b	-0.021697244
100	0x3e0cd100	0.13751602
101	0xbe2c55b1	-0.16829564
102	0xbe132682	-0.14370158
103	0x3df6b823	0.1204684
104	0xbcf3f0bc	-0.029777877
105	0xbd2674b3	-0.040638637
106	0x3d78bb0a	0.06072525
107	0xbdc7d4cd	-0.097573854
108	0xbd11fe8b	-0.03564314
109	0xbd052597	-0.03250655
110	0x3d9c7950	0.07640326
111	0xbd525ab6	-0.05135604
112	0x3e21e178	0.15808666
113	0x3cb2fc01	0.02184868
114	0xbd3b26e8	-0.0456914
115	0x3e51df79	0.20495404
116	0xbe06ead3	-0.13175516
117	0x3e421a20	0.18955278
118	0x3e254cb4	0.16142541
119	0xbdd51161	-0.104037054
120	0xbdf229bb	-0.11824366
121	0xbe06e81d	-0.13174482
122	0x3d9a5a0b	0.075367056
123	0xbd809319	-0.06278057
124	0x3de0f16a	0.10983546
125	0xbd315078	-0.04328963
126	0xbdfe2bff	-0.12410735
127	0xbdb80315	-0.08984963
128	0xbe0ffa49	-0.1406032
129	0x3d206489	0.039158378
130	0x3e1475af	0.14498018
131	0xbe1fd15d	-0.1560721
132	0xbcc30796	-0.023807328
133	0xbd9014fa	-0.07035251
134	0x3d07bf20	0.033141255
135	0x3e05ea9f	0.13077782
136	0x3e32177c	0.17391771
137	0xbd2bdabe	-0.041956656
138	0xbd847aae	-0.06468712
139	0x3d5bee5a	0.053694107
140	0x3e4643a2	0.19361737
141	0x3d579b87	0.052638557
142	0x3b7b4a45	0.0038343829
143	0xbd400b9e	-0.04688608
144	0x3de69702	0.11259271
145	0xbc2c85c0	-0.010529935
146	0x3da8f0a2	0.08249022
147	0xbde20066	-0.11035232
148	0x3db0bb7a	0.08629508
149	0x3d40998e	0.04702144
150	0x3dfe3b3f	0.12413644
151	0xbd9609af	-0.07326066
152	0xbdcfb862	-0.1014259
153	0x3d9511b9	0.07278771
154	0x3da324d3	0.07966008
155	0xbdbe5aad	-0.09294639
156	0x3e09a904	0.1344338
157	0x3bbea949	0.00581852
158	0x3e5b422d	0.21411963
159	0xbe030a60	-0.12796926
160	0x3daec6bc	0.08533999
161	0xbc9a7bfa	-0.018857945
162	0x3e15ad26	0.14616832
163	0x3e1b51ae	0.15167877
164	0x3d8ea619	0.06965274
165	0x3d98ad19	0.07454891
166	0xbe44d84e	-0.19223139
167	0x3de7d187	0.11319261
168	0x3cb06a06	0.02153493
169	0xbdf0fdaf	-0.11767136
170	0x3df0a6e5	0.117505826
171	0x3ca3d0e5	0.01999707
172	0xbb2b6178	-0.0026150625
173	0xbdc039b9	-0.0938601
174	0xbd8a6bf9	-0.067588754
175	0x3dd5f538	0.104471624
176	0x3df80721	0.12110735
177	0xbd89fcb2	-0.06737651
178	0xbd37cbd7	-0.04487213
179	0xbd8afc57	-0.06786411
180	0x3df750c6	0.12075953
181	0x3df0c9f2	0.11757268
182	0xbd4754eb	-0.04866497
183	0xbd821924	-0.063524514
184	0x3e394bb3	0.18095283
185	0xbdd40ee5	-0.103544034
186	0xbe0ebed2	-0.1393998
187	0xbaa86a55	-0.0012849072
188	0x3de514ea	0.1118563
189	0x3da9b3c1	0.082862385
190	0xbe106f9e	-0.14105079
191	0xbd312453	-0.043247532
192	0xbd23ecb8	-0.040020674
193	0x3d873d0f	0.06603443
194	0x3db3093f	0.08741998
195	0xbd379f61	-0.04482973
196	0xbe5d44ec	-0.21608323
197	0xbd829f76	-0.06378071
198	0xbd1c2cc9	-0.038128648
199	0x3cdf2acc	0.027242087
200	0x3d0bc29a	0.034121133
201	0x3e507baa	0.20359674
202	0xbe400984	-0.1875363
203	0xbc1b65e9	-0.0094847465
204	0x3d03840f	0.032108363
205	0x3d063a70	0.032770574
206	0x3e10701d	0.14105268
207	0x3df74366	0.12073402
208	0x3c395734	0.011312295
209	0x3cbd0247	0.023072375
210	0x3c259c1e	0.010108022
211	0xbb364257	-0.0027810538
212	0x3e27a072	0.16369799
213	0x3da71adb	0.08159419
214	0x3e057caf	0.13035844
215	0x3db7127d	0.08939073
216	0x3df9f991	0.12205804
217	0x3c26088d	0.010133875
218	0x3d4e2ae8	0.050333887
219	0xbdb7dd7f	-0.08977794
220	0x3df2983f	0.11845445
221	0x3d100c77	0.035168137
222	0xbe0c9ef2	-0.13732508
223	0xba3a9809	-0.0007117992
224	0x3d1f8d13	0.0389529
225	0x3dd2f176	0.10299961
226	0xbe05a6b8	-0.1305188
227	0x3d18c412	0.037296362
228	0x3ce694ae	0.028147068
229	0x3e4cc473	0.19996814
230	0x3e126f08	0.14300168
231	0x3dcbae63	0.09945371
232	0x3e5c4fcf	0.2151482
233	0xbdb56149	-0.08856446
234	0x3dbd5747	0.092451625
235	0x3df40eaf	0.11916863
236	0x3e6829d9	0.22672214
237	0x3d77749c	0.06041394
238	0x3e3410ee	0.17584583
239	0xbdcc9781	-0.099898346
240	0xbe17d420	-0.14827013
241	0xbe593d30	-0.21214747
242	0x3d311158	0.04322943
243	0x3e165498	0.14680707
244	0x3cf93753	0.030421888
245	0xbe00a9af	-0.12564729
246	0x3a5a4d90	0.0008327598
247	0x3d7fced3	0.062453102
248	0xbde22067	-0.110413365
249	0x3d0cedda	0.03440652
250	0x3cc3ff07	0.023925317
251	0xbd91a177	-0.07110875
252	0x3e598972	0.21243837
253	0x3e3083ee	0.17237827
254	0x3dbf53a5	0.09342126
255	0x3e3a6c72	0.18205431

parametrizer.linear1.bias f4 [10]
0	0xbe57c906	-0.21072778
1	0xbe4b88f0	-0.19876456
2	0xbda6c27a	-0.08142562
3	0x3db31147	0.0874353
4	0xbcd31a9b	-0.025769522
5	0xbd7c3cf2	-0.06158156
6	0x3e53c6d8	0.20681322
7	0xbcb07bfe	-0.0215435
8	0xbcc6c5b7	-0.0242642
9	0xbc9db7f0	-0.019252747

parametrizer.linear2.weight f4 [10, 10]
0	0xbe0a2179	-0.13489331
1	0x3e7dbf34	0.2477997
2	0xbe0f50b3	-0.13995628
3	0x3dd2f6cf	0.10300981
4	0x3cafb7df	0.021449981
5	0x3d36b7e5	0.04460897
6	0xbe339e17	-0.17540775
7	0xbc471afb	-0.012152429
8	0x3eaedee7	0.34154436
9	0x3e2cfb4a	0.16892734
10	0x3ddd4df2	0.108058825
11	0xbde4b653	-0.11167588
12	0x3de8c13a	0.1136498
13	0x3e3c4bc2	0.18388274
14	0x3e307812	0.17233303
15	0xbd9c2348	-0.07623917
16	0x3d9eb02f	0.07748448
17	0xbdcc832d	-0.09985957
18	0x3d1fe65e	0.039038055
19	0xbe668fe3	-0.22515826
20	0xbe90e30d	-0.28298226
21	0x3dc2db4a	0.09514482
22	0xbe67681c	-0.22598308
23	0xbdefa86b	-0.11702045
24	0xbe664525	-0.22487314
25	0x3e5cb27a	0.21552458
26	0xbe5dfb06	-0.21677789
27	0x3e6f6132	0.23376921
28	0x3e67cd8a	0.22637
29	0xbe4544ac	-0.19264477
30	0x3e29574a	0.16537204
31	0x3e92adb1	0.2864814
32	0x3e8029ae	0.250318
33	0xbeab14ab	-0.33414206
34	0x3d960d1a	0.07326718
35	0x3e8c2271	0.27370027
36	0x3dc61267	0.09671479
37	0xbe5da3b8	-0.21644485
38	0xbe2f83df	-0.17140149
39	0xbe05b64d	-0.13057823
40	0xbe1019b4	-0.14072305
41	0x3e11be7e	0.14232823
42	0xbd93a1b0	-0.07208574
43	0x3ea508c6	0.32233256
44	0x3dd3a1fa	0.10333629
45	0x3e2dd62f	0.16976236
46	0x3e53fc0d	0.20701618
47	0x3dfc9050	0.12332213
48	0xbea12933	-0.31476745
49	0x3d17d217	0.03706559
50	0x3e0787b6	0.13235363
51	0xbe32f3fc	-0.17475885
52	0xbdd1bd48	-0.10241181
53	0xbd2a3ffb	-0.041564923
54	0x3e5005ef	0.20314763
55	0xbd4747ac	-0.048652336
56	0xbe6435d9	-0.22286166
57	0x3d38dad0	0.04513055
58	0x3ea5133d	0.3224124
59	0x3e9250ba	0.28577214
60	0x3df3e5bf	0.11909055
61	0xbe286d47	-0.16447936
62	0x3e310036	0.17285237
63	0xbe74f4bd	-0.23921485
64	0xbe8fd24d	-0.28090134
65	0xbe057f64	-0.13036877
66	0xbadf2ec5	-0.0017027488
67	0xbd661af8	-0.056178063
68	0x3e0f3c5a	0.13987866
69	0x3d37e553	0.044896435
70	0x3e1c5419	0.15266456
71	0xbdd5948f	-0.10428726
72	0x3e3d0e29	0.18462433
73	0xbe419d22	-0.18907598
74	0x3e9d4f89	0.30724743
75	0xbe11ee70	-0.14251113
76	0xbcd034f7	-0.02541588
77	0x3eaedb7b	0.34151825
78	0xbd9f4108	-0.077760756
79	0xbe226ccc	-0.15861815
80	0x3df994a3	0.12186553
81	0x3e206924	0.15665108
82	0xbcb6000e	-0.022216823
83	0x3de065cb	0.109569155
84	0xbe872160	-0.2639265
85	0x3df73972	0.12071504
86	0x3d64f19a	0.05589447
87	0xbd5f4905	-0.054512996
88	0xbe0c6138	-0.13708961
89	0xbe59f8cd	-0.21286316
90	0x3e0d7d97	0.1381744
91	0x3e9406b1	0.28911355
92	0x3d75f201	0.060045246
93	0xbcf54094	-0.02993802
94	0x3e76340b	0.2404329
95	0xbe3c536d	-0.183912
96	0xbe2e0f7c	-0.16998094
97	0x3d0707ff	0.03296661
98	0xbd7c377d	-0.061576355
99	0x3e9c9756	0.3058421

parametrizer.linear2.bias f4 [10]
0	0xbe74583d	-0.23861785
1	0xbc953868	-0.018215373
2	0xbe7d8a45	-0.24759777
3	0xbd987680	-0.07444477
4	0xbe4f575d	-0.2024817
5	0xbe1f974f	-0.15585063
6	0x3e7efbf4	0.249008
7	0xbea08d9d	-0.31358042
8	0xbe9b8305	-0.30373397
9	0xbe626aa8	-0.22110999

parametrizer.linear3.weight f4 [5, 10]
0	0xbe40b8de	-0.18820521
1	0xbdddcfa0	-0.10830617
2	0x3dfee9dc	0.12446949
3	0x3d859bb2	0.06523837
4	0x3e678f30	0.22613215
5	0xbe320774	-0.17385656
6	0x3c4b37a8	0.012403406
7	0xbe658f9c	-0.22418064
8	0xbe6b9c45	-0.23008831
9	0xbdb16258	-0.08661336
10	0x3ea6f97e	0.32612222
11	0x3d02b835	0.031913955
12	0x3e38708c	0.18011683
13	0x3d6e929c	0.058245286
14	0x3e4ee0dc	0.20202965
15	0x3e76aaa4	0.24088532
16	0xbe937dfc	-0.28807056
17	0xbddb33b7	-0.10703223
18	0xbdac8dc4	-0.08425477
19	0x3e746e8c	0.23870295
20	0x3e5557a2	0.2083421
21	0x3e02b78e	0.12765333
22	0xbdd59f20	-0.10430741
23	0x3d706aa7	0.05869546
24	0x3e80e755	0.25176492
25	0x3e15dde6	0.14635429
26	0x3e0c4fe9	0.13702358
27	0x3eb343ad	0.3501257
28	0x3ca490a8	0.020088509
29	0xbdf29492	-0.11844744
30	0x3e3f3c79	0.18675412
31	0x3dad64a7	0.084664635
32	0x3d093803	0.033500683
33	0x3eacaf01	0.33727267
34	0xbe904bc5	-0.28182808
35	0xbd2a86b3	-0.041632365
36	0x3dc151d2	0.09439434
37	0x3e68275e	0.22671267
38	0x3e90e946	0.28302974
39	0x3df6f8e2	0.120591894
40	0xbc3ab0ab	-0.01139466
41	0xbe78a1ef	-0.24280523
42	0x3dceee05	0.101039924
43	0xbe90754a	-0.28214484
44	0xbda7f81b	-0.08201619
45	0x3d96a873	0.07356348
46	0xbd488b86	-0.048961185
47	0x3e889d18	0.26682353
48	0xbe568172	-0.20947817
49	0xbe265a02	-0.16245273

parametrizer.linear3.bias f4 [5]
0	0xbbaed7f0	-0.0053358003
1	0xbe5e48a5	-0.21707399
2	0xbd8cba23	-0.0687144
3	0xbeac99cc	-0.33711088
4	0xbeac63f1	-0.3367

parametrizer.linear4.weight f4 [31, 5]
0	0x3e9c1bee	0.3049006
1	0x3e8e5a1f	0.27803132
2	0x3d8be3c1	0.0683055
3	0xbe7297a2	-0.23690656
4	0xbe97bd22	-0.29636484
5	0xbe9fcedc	-0.3121251
6	0x3e84bfe6	0.25927657
7	0xbebbf88c	-0.36713064
8	0xbec6eb70	-0.388515
9	0xbe185187	-0.1487485
10	0xbe897894	-0.26849806
11	0xbd8568b4	-0.06514111
12	0xbe2312c9	-0.15925135
13	0xbe642b2f	-0.22282098
14	0xbe7bc879	-0.24588193
15	0x3e77d133	0.24200897
16	0xbed22e0f	-0.41050765
17	0xbea39bcc	-0.319548
18	0x3e41bf43	0.18920617
19	0x3d2cc04d	0.04217558
20	0x3d6af7d4	0.057365254
21	0xbe4b8d91	-0.19878222
22	0x3e7dd77b	0.2478923
23	0xbec33148	-0.38123536
24	0x3eae4e49	0.34044102
25	0x3edfcf87	0.43713018
26	0xbe332ae4	-0.1749683
27	0xbe053264	-0.13007504
28	0xbe58caab	-0.21171062
29	0x3ec951ba	0.39320165
30	0x3edfb760	0.43694592
31	0xbeb9d7a7	-0.36297342
32	0x3c4c266a	0.0124603305
33	0x3dfc8bb8	0.12331337
34	0x3e25b83d	0.16183563
35	0xbe82b9b9	-0.2553232
36	0x3ec4eeec	0.38463533
37	0x3e7fcd42	0.24980643
38	0xbda66fad	-0.08126769
39	0x3d100dd2	0.03516943
40	0xbe8593d8	-0.26089358
41	0xbe831d10	-0.2560811
42	0xbdb217c9	-0.08695943
43	0xbee99806	-0.45623797
44	0x3e3f4b5c	0.18681091
45	0x3e0a2e27	0.13494168
46	0xbec5e1e7	-0.38648912
47	0x3e31f5f4	0.1737898
48	0xbecf7fde	-0.40527242
49	0x3e903e8e	0.28172725
50	0xbec39f89	-0.38207653
51	0x3e8dfdc4	0.2773267
52	0xbe1d30dd	-0.15350671
53	0xbef08ba4	-0.46981537
54	0xbe898073	-0.2685581
55	0x3d2204cb	0.039555352
56	0x3d617252	0.055040665
57	0x3e85fd65	0.26169887
58	0x3e9fe1f7	0.31227085
59	0x3e353950	0.17697644
60	0x3e29dc11	0.16587855
61	0xbe933c37	-0.28756878
62	0x3e9a9b72	0.3019672
63	0x3d172b78	0.03690669
64	0x3e73de3d	0.23815246
65	0x3eb0fda9	0.34568527
66	0xbe6c1a0b	-0.2305681
67	0xbedd02f8	-0.43166327
68	0x3ea387a1	0.31939414
69	0x3d5e128d	0.05421691
70	0x3e9ed8e9	0.31024864
71	0x3eeaab2b	0.45833716
72	0xbe36ca78	-0.17850673
73	0xbe9fc618	-0.3120582
74	0xbe8a2531	-0.269815
75	0xbeb38924	-0.35065567
76	0x3ef9a886	0.48761386
77	0x3ec01239	0.37513903
78	0x3d754d0f	0.059887942
79	0xbedc4a2c	-0.4302534
80	0x3ee4eb60	0.44710827
81	0xbd55d6fe	-0.052206986
82	0xbeb75f1f	-0.3581476
83	0xbe2b7bfe	-0.16746518
84	0xbcc71be2	-0.024305288
85	0x3e752d7e	0.23943135
86	0xbea7d352	-0.32778412
87	0x3e0825c3	0.13295655
88	0xbd281201	-0.041032795
89	0x3e4fb959	0.20285548
90	0x3d86a2fa	0.06574054
91	0x3eadbca0	0.33932972
92	0xbe4415d5	-0.19148953
93	0x3e98131b	0.29702076
94	0xbd804ac3	-0.0626426
95	0xbe89f79b	-0.2694672
96	0xbddcbaa7	-0.107777886
97	0xbea70eac	-0.3262838
98	0xbceed798	-0.029155537
99	0xbe983e40	-0.29734993
100	0x3d48b136	0.048997127
101	0x3e91116c	0.28333604
102	0xbeea0f69	-0.45714882
103	0xbee8eca7	-0.4549305
104	0xbef2f9d5	-0.47456232
105	0x3afe4016	0.0019397761
106	0x3cd71b80	0.02625823
107	0xbd891ac2	-0.06694557
108	0xbec35429	-0.38150147
109	0x3da5d7af	0.08097779
110	0x3d767456	0.06016954
111	0xbe9ab46e	-0.30215782
112	0x3cd526f6	0.026019555
113	0xbed403c6	-0.4140913
114	0xbe606e81	-0.21917154
115	0xbe7d46b3	-0.24734001
116	0xbe8860f5	-0.26636472
117	0xbdd25373	-0.10269823
118	0xbeb15011	-0.34631398
119	0x3df0f3f6	0.11765282
120	0xbe860936	-0.26178902
121	0x3ead2d52	0.3382364
122	0xbea6f8a4	-0.32611573
123	0x3d6d75cc	0.057973668
124	0xbefa36a8	-0.48869824
125	0xbe396cfd	-0.18107982
126	0xbe883f63	-0.2661086
127	0x3e871ba4	0.26388276
128	0xbee437f6	-0.44573945
129	0x3c12c96e	0.008959157
130	0x3ec5211b	0.3850182
131	0xbe9e5f03	-0.30931863
132	0xbdd905dd	-0.105968215
133	0x3e80498b	0.2505611
134	0x3e03a722	0.12856725
135	0x3d4b2f49	0.04960564
136	0x3db41398	0.087928
137	0x3de4f539	0.11179585
138	0xbe946a12	-0.28987175
139	0xbef553bf	-0.47915456
140	0xbcaa01b0	-0.020752758
141	0xbe9843be	-0.29739183
142	0x3e82a269	0.25514534
143	0x3de392c9	0.111119814
144	0xbd598c07	-0.053112056
145	0x3ecc7661	0.39934066
146	0x3e70df15	0.23522599
147	0xbe97ef46	-0.2967474
148	0x3e1efbda	0.15525761
149	0xbddf8011	-0.109130986
150	0x3ec9d575	0.39420667
151	0x3e993379	0.29922083
152	0x3e713c7d	0.2355823
153	0xbee8c71f	-0.45464417
154	0x3ea64360	0.32473278

parametrizer.linear4.bias f4 [31]
0	0xbd229da7	-0.03970113
1	0x3e1a7dd7	0.15087067
2	0x3e93e545	0.28885856
3	0x3ec2aa00	0.38020325
4	0xbe9a2fa5	-0.30114475
5	0x3de9c580	0.11414623
6	0xbecb42e0	-0.3969946
7	0xbcc4e21e	-0.024033602
8	0x3d8a8185	0.06762985
9	0x3c6ef5f2	0.014585005
10	0x3dccb62c	0.09995684
11	0x3ec7b9b7	0.39008877
12	0xbe194061	-0.14965965
13	0x3edbb34b	0.42910227
14	0xbe6bbb21	-0.23020603
15	0x3e87a249	0.26491
16	0x3dde7afb	0.108633004
17	0x3e788af8	0.24271762
18	0xbd8d9b04	-0.069143325
19	0x3e88fc20	0.26754856
20	0xbd34ff9f	-0.04418909
21	0x3d9f2e8a	0.077725485
22	0x3e845598	0.25846553
23	0x3e462367	0.19349442
24	0xbe4f6aa7	-0.20255528
25	0x3e4fd78f	0.20297073
26	0xbe8bec34	-0.27328646
27	0xbe12e6ed	-0.14345904
28	0x3d461b11	0.048365656
29	0xbd959669	-0.07304079
30	0xbe956a97	-0.29182884

exp_avg f4 [10, 30]
0	0x3b0b867d	0.0021289878
1	0xba79efce	-0.000953433
2	0x3b104425	0.0022013274
3	0x3abd753d	0.0014454495
4	0x3b006d8c	0.0019596545
5	0xb8bfccb0	-9.145716e-05
6	0x3b53bff9	0.003231047
7	0x3b4151dc	0.0029498255
8	0x3a4e6c82	0.00078744453
9	0xbb436ea6	-0.002982059
10	0x399dc940	0.00030095316
11	0xbb1833ab	-0.0023224156
12	0xba26c317	-0.0006361468
13	0x38ead9a4	0.00011198528
14	0xbaae652b	-0.0013305297
15	0xbb0b6bbd	-0.0021273934
16	0x38bc3a46	8.975393e-05
17	0xb9418c9c	-0.00018458295
18	0x3b474189	0.0030404052
19	0xbb3d72d5	-0.0028907557
20	0x3af24947	0.0018484973
21	0xb9f3ff1e	-0.0004653865
22	0x3ae9c781	0.0017835946
23	0x3a830468	0.000999582
24	0x3b1630b4	0.0022917213
25	0x3a2c336e	0.0006568943
26	0x3b4027c4	0.0029320577
27	0x3b526f19	0.0032109676
28	0x3b2ee957	0.0026689374
29	0xb9f3fedd	-0.0004653846
30	0x3a7c516b	0.00096251693
31	0xb9083292	-0.0001298881
32	0x3a8cb8e3	0.0010736253
33	0x399ef371	0.00030317486
34	0xbb8e1b6c	-0.004336765
35	0xba0ca15f	-0.00053646223
36	0xbbb3ef53	-0.005491176
37	0xba2bc1a9	-0.000655199
38	0xbbc1690f	-0.0059024165
39	0xbbddf949	-0.006774102
40	0xbb5e3bbb	-0.0033910114
41	0xbbbda0d6	-0.0057869954
42	0xbb4cf861	-0.0031275975
43	0xba88a6a9	-0.0010425645
44	0xbbd15c4c	-0.0063891765
45	0xbb59e33b	-0.0033247012
46	0xbcb9e1d7	-0.022690697
47	0xbc46876f	-0.012117251
48	0x3a13c0c7	0.0005636331
49	0xbc31e971	-0.010858879
50	0x3a97ce57	0.001158188
51	0x3a6e6c66	0.0009095132
52	0x3aac548d	0.0013147757
53	0x3a218be9	0.0006162511
54	0xbb044e71	-0.0020188356
55	0x3b3c5a3b	0.0028740305
56	0xbb045b29	-0.0020195937
57	0x39d089b1	0.0003977544
58	0x3b7374cb	0.0037148471
59	0xba1ca8db	-0.0005976089
60	0x3abb0fdd	0.0014271695
61	0xba4fc521	-0.0007925798
62	0x3ab8ff4d	0.0014114171
63	0x3a7840ce	0.0009470106
64	0xb8a885a9	-8.0357604e-05
65	0xba6f6af1	-0.0009133062
66	0x3afad455	0.0019136766
67	0x3aa0555f	0.0012232474
68	0xba779c2f	-0.00094455754
69	0xbb32c94e	-0.0027280631
70	0x39a8931e	0.00032153068
71	0xba9cc487	-0.0011960425
72	0x38c914ee	9.588325e-05
73	0x390ab5db	0.00013228452
74	0xba6d3062	-0.0009048042
75	0xba71f002	-0.00092291844
76	0x3aa4d5bc	0.0012575905
77	0x39d9fcaa	0.00041577715
78	0x3a8b2396	0.0010615464
79	0xbb1cf706	-0.0023950948
80	0x3a9e741d	0.0012089048
81	0xb9a44a3f	-0.00031335835
82	0x3a9addf6	0.0011815417
83	0x3a1b96df	0.00059352623
84	0x3a427988	0.0007418622
85	0x39629adb	0.00021610728
86	0x3b112e80	0.002215296
87	0x3ada7eda	0.0016669885
88	0x37b270d8	2.12718e-05
89	0xba47e677	-0.00076255895
90	0xb9f3a8a5	-0.00046474222
91	0xba5f40ec	-0.0008516449
92	0xb9dc0760	-0.00041967165
93	0x395efa0b	0.00021264718
94	0x391a902d	0.00014740294
95	0x3a3c67a6	0.00071870757
96	0xbb15b503	-0.0022843487
97	0xba574129	-0.0008211309
98	0x3aaf2a91	0.0013364126
99	0x3af383e6	0.0018578738
100	0x3aab15d9	0.0013052776
101	0x3a3c97e4	0.00071942643
102	0x3abbbdb0	0.0014323499
103	0x3ab8560b	0.0014063729
104	0x3ade48cc	0.0016958951
105	0x3acc74d3	0.0015598781
106	0xbb1769ec	-0.0023103906
107	0xb88333c8	-6.256212e-05
108	0xb9c39e12	-0.0003731107
109	0x3b3f7a01	0.0029217007
110	0xba22fc78	-0.00062174303
111	0xbb00887b	-0.0019612599
112	0xba0571fe	-0.00050905335
113	0x3983483c	0.00025040086
114	0xbb06fe97	-0.0020598525
115	0xba99a973	-0.0011723473
116	0xbb58bb03	-0.0033070452
117	0xbb11f48e	-0.002227101
118	0xba89ca30	-0.0010512527
119	0xb9e8d9a8	-0.00044412655
120	0xb7790351	-1.4842329e-05
121	0xb98f55ef	-0.0002733911
122	0xb8753548	-5.8462174e-05
123	0xba081988	-0.0005191793
124	0xb77ebd00	-1.5183585e-05
125	0x3a7d47f8	0.0009661908
126	0xba05b341	-0.0005100258
127	0x39333b34	0.00017092825
128	0x37d4cfd4	2.5369147e-05
129	0xba0f1cd0	-0.00054593105
130	0xbae78895	-0.0017664606
131	0xba5567da	-0.000814078
132	0xbb072902	-0.0020623808
133	0xbaa77b73	-0.001277788
134	0x390f83ba	0.00013686615
135	0x3a41a265	0.00073865644
136	0xbb1394ef	-0.0022519191
137	0xba5d5867	-0.0008443654
138	0x39c75a1a	0.0003802337
139	0xb9ff9e7c	-0.0004875547
140	0xba33af00	-0.0006854385
141	0xba861e0d	-0.0010232345
142	0xba467231	-0.00075701164
143	0xba79df1d	-0.00095318427
144	0xba50529e	-0.0007946881
145	0x39d0b649	0.00039808665
146	0xba5365f7	-0.0008064205
147	0xb9ca4c0a	-0.00038585096
148	0xba5dc1de	-0.00084593694
149	0x3948469c	0.0001909979
150	0xbaaa862b	-0.0013009956
151	0xbb038c07	-0.0020072476
152	0xbaa4a084	-0.0012560044
153	0xba85cc42	-0.0010207968
154	0xbb6c9cef	-0.0036104282
155	0xb90eccf3	-0.00013618525
156	0xb9d91edf	-0.00041412466
157	0xbab7851b	-0.001400146
158	0xba954941	-0.0011389629
159	0x3aacb475	0.0013176339
160	0x384929a9	4.7960933e-05
161	0x38001b80	3.054319e-05
162	0x399c9e89	0.00029872757
163	0x385d0e1a	5.270364e-05
164	0xbacda78c	-0.0015690192
165	0x3b5b79cd	0.0033489347
166	0x3b0a195b	0.0021072242
167	0x3a852afe	0.0010159907
168	0x3a1ae7da	0.00059091824
169	0x3b9889c4	0.004655095
170	0xba85b3ba	-0.0010200657
171	0xbae551a2	-0.0017495642
172	0xba5ace7f	-0.00083468104
173	0xba28d6c7	-0.0006440696
174	0xbb6dd519	-0.0036290346
175	0x3a2b7b2f	0.0006541488
176	0x39906996	0.00027544488
177	0xba8e5632	-0.0010859428
178	0x3a00310b	0.00048901205
179	0x3aaf0075	0.0013351577
180	0x37807d22	1.5317059e-05
181	0xb9890992	-0.00026137807
182	0xb85a3bb4	-5.2030853e-05
183	0x39f9ba34	0.00047631713
184	0xba237b2f	-0.00062363123
185	0xba848f76	-0.0010113555
186	0xba87cedd	-0.0010361333
187	0xba9c50e6	-0.0011925965
188	0xba845d30	-0.0010098573
189	0x39d6b703	0.00040953615
190	0x3aecbb75	0.0018061238
191	0x3a61f91f	0.0008620191
192	0x3b253309	0.0025207421
193	0x3ab58cc1	0.0013851152
194	0x3a9e745a	0.0012089119
195	0x3a868f8a	0.0010266167
196	0x3ad4c79f	0.0016233808
197	0x3a97ca1a	0.0011580617
198	0xbac67415	-0.0015140796
199	0x3a965b1c	0.0011471245
200	0x389ee2f2	7.576299e-05
201	0xba0aa80f	-0.0005289325
202	0x395b4175	0.00020909852
203	0x39f71478	0.00047126762
204	0xba251b45	-0.0006298314
205	0xba30125a	-0.0006716602
206	0xba0c6849	-0.0005356116
207	0xba96b17e	-0.0011496989
208	0xbb0f8f90	-0.0021905638
209	0xb93e0808	-0.00018122804
210	0xbab4d0d3	-0.0013795145
211	0x3a04bc5a	0.0005063467
212	0xbac1958d	-0.0014769301
213	0xbac7e4ab	-0.0015250643
214	0x3a2353f1	0.0006230465
215	0x3a8adea0	0.0010594912
216	0xbaa533a1	-0.0012603888
217	0xba8c42f8	-0.0010701111
218	0x3b005494	0.0019581662
219	0x3afa1c76	0.0019081968
220	0xba8792c9	-0.0010343428
221	0x3b2efde0	0.0026701614
222	0xb9fdfbb8	-0.00048443465
223	0xbab53aef	-0.0013826768
224	0x3ae7a7a4	0.0017673862
225	0x3a453d0b	0.000752405
226	0x37cc059e	2.432131e-05
227	0x3afd23a8	0.0019312995
228	0x3a76d52e	0.00094159215
229	0xbadbfce4	-0.0016783741
230	0xbb06cc34	-0.0020568492
231	0xb98b9056	-0.00026619685
232	0xbb0d40cc	-0.0021553515
233	0xbb03503b	-0.0020036835
234	0xbab7d6a1	-0.0014025756
235	0xbaa1b38d	-0.0012336835
236	0xbb1c3b7b	-0.0023839164
237	0xbae4731a	-0.0017429322
238	0xbadec7d8	-0.0016996814
239	0xbabc845e	-0.001438271
240	0xb926065f	-0.00015833367
241	0x3a89dee9	0.0010518703
242	0xb91538ef	-0.00014230957
243	0xba57daff	-0.0008234232
244	0x3acb2b82	0.0015500637
245	0x3a92a966	0.0011189401
246	0x3801a969	3.0913772e-05
247	0x3a36e3fe	0.00069767225
248	0x3a894c8a	0.0010475081
249	0xb9d7713e	-0.00041092368
250	0xbb173b34	-0.002307606
251	0xb976458a	-0.00023486294
252	0xbb2ccae7	-0.0026366056
253	0xbafa0467	-0.0019074798
254	0xba6b9b3a	-0.0008987669
255	0xbad55996	-0.0016277309

exp_avg_sq f4 [10, 30]
0	0x3609b5de	2.0520451e-06
1	0x3637e4ab	2.7402227e-06
2	0x360b8f1f	2.0795922e-06
3	0x35af4384	1.3058166e-06
4	0x368d06e9	4.202932e-06
5	0x360e1c22	2.1176024e-06
6	0x367cecc0	3.7688733e-06
7	0x364ba22d	3.0343756e-06
8	0x35de80c7	1.6577768e-06
9	0x367e703b	3.7914276e-06
10	0x35d47ca6	1.5831508e-06
11	0x36cceca1	6.107221e-06
12	0x35d3a28d	1.5768034e-06
13	0x34b31a7f	3.3360627e-07
14	0x3691f636	4.3499995e-06
15	0x36174057	2.2538204e-06
16	0x35ad388e	1.2905964e-06
17	0x36377feb	2.7343583e-06
18	0x369f0990	4.7396825e-06
19	0x3665e39d	3.4256148e-06
20	0x35ec79b3	1.7618789e-06
21	0x361c702a	2.33111e-06
22	0x35eaa5b8	1.7482589e-06
23	0x3566c6cb	8.597096e-07
24	0x3692ba04	4.372794e-06
25	0x3625f9e9	2.4732383e-06
26	0x369af950	4.6185814e-06
27	0x36933383	4.386938e-06
28	0x36569d74	3.1980135e-06
29	0x367b264d	3.7424209e-06
30	0x367a9d36	3.7344412e-06
31	0x36a331c5	4.8635725e-06
32	0x3665ebe0	3.4260956e-06
33	0x362b842b	2.5557918e-06
34	0x368c9d7e	4.1906596e-06
35	0x36cc57f9	6.089915e-06
36	0x37e2ff6d	2.7060241e-05
37	0x36839e07	3.922501e-06
38	0x37755464	1.4622787e-05
39	0x37eb6841	2.806273e-05
40	0x36b8853f	5.499139e-06
41	0x37898dda	1.6397727e-05
42	0x3690d2ec	4.316089e-06
43	0x358543fd	9.929059e-07
44	0x3734f791	1.0786477e-05
45	0x381b803c	3.7074307e-05
46	0x39796d2e	0.00023787163
47	0x38a81518	8.014793e-05
48	0x37af38a2	2.0887997e-05
49	0x39112b2d	0.00013844362
50	0x3674a372	3.645397e-06
51	0x36c27b94	5.796037e-06
52	0x3668ffc5	3.4719571e-06
53	0x361bda06	2.3223706e-06
54	0x36d6c2bf	6.4003684e-06
55	0x36b9ea5f	5.540714e-06
56	0x379058f2	1.7207556e-05
57	0x368ecef7	4.2560237e-06
58	0x372b3941	1.0205725e-05
59	0x373deb2f	1.1320036e-05
60	0x35995c99	1.1426338e-06
61	0x364d3871	3.0580234e-06
62	0x35968cde	1.1216869e-06
63	0x3533ee6e	6.702966e-07
64	0x35a1475a	1.2016201e-06
65	0x3543b720	7.290964e-07
66	0x35d7f3aa	1.6089664e-06
67	0x3592e25a	1.0943725e-06
68	0x35aaaff0	1.2717192e-06
69	0x363e34e3	2.834299e-06
70	0x34da5846	4.0669892e-07
71	0x36539d3a	3.1532968e-06
72	0x34d6afc4	3.9988493e-07
73	0x33b3cd29	8.3726555e-08
74	0x36375232	2.731697e-06
75	0x361a7416	2.301536e-06
76	0x356aea69	8.7512905e-07
77	0x35f5430f	1.8273439e-06
78	0x359e5896	1.1797699e-06
79	0x36e176a3	6.7193337e-06
80	0x358d5813	1.0530952e-06
81	0x364f4d44	3.0890378e-06
82	0x358f120d	1.0659584e-06
83	0x35137cb8	5.4943257e-07
84	0x35d6b83f	1.5997865e-06
85	0x355e7d6a	8.2883946e-07
86	0x360b5a82	2.0765297e-06
87	0x35eb820f	1.7546716e-06
88	0x35b8b893	1.3762786e-06
89	0x35574556	8.019464e-07
90	0x353477bb	6.7229456e-07
91	0x3677de9b	3.6935442e-06
92	0x3527ac01	6.2462647e-07
93	0x35063872	5.000103e-07
94	0x35ac1ccc	1.282338e-06
95	0x359ebbad	1.1826538e-06
96	0x361e391a	2.3577072e-06
97	0x3583d82a	9.823173e-07
98	0x36525a72	3.1345085e-06
99	0x3662d237	3.3798985e-06
100	0x35ee5bdf	1.775912e-06
101	0x36551a20	3.175468e-06
102	0x359d5508	1.1722159e-06
103	0x3548bde5	7.478214e-07
104	0x368a85a2	4.1282774e-06
105	0x371bf584	9.2958835e-06
106	0x36f75430	7.3709743e-06
107	0x36dd5399	6.5960453e-06
108	0x36b77b2b	5.4681636e-06
109	0x37aa33fe	2.028979e-05
110	0x35541f53	7.9021737e-07
111	0x367d64dd	3.7758648e-06
112	0x354a670f	7.5400834e-07
113	0x350f51c0	5.3390613e-07
114	0x36526272	3.1349741e-06
115	0x35cf4db5	1.5445318e-06
116	0x3658c043	3.229842e-06
117	0x35c52a95	1.4690037e-06
118	0x366f5f68	3.566931e-06
119	0x360a3e43	2.0599844e-06
120	0x34c6cb91	3.7028488e-07
121	0x3585c272	9.965863e-07
122	0x34bca84f	3.514019e-07
123	0x34955e1d	2.782189e-07
124	0x36342176	2.6841567e-06
125	0x36434b4c	2.9101093e-06
126	0x36b98b15	5.529621e-06
127	0x35ec2b6d	1.7596009e-06
128	0x366f77ba	3.5683465e-06
129	0x36aced07	5.153593e-06
130	0x35543f43	7.906821e-07
131	0x357534cf	9.134646e-07
132	0x3557f04c	8.044342e-07
133	0x346f83f3	2.2306612e-07
134	0x35b1ae85	1.323832e-06
135	0x36c3da7d	5.8368882e-06
136	0x37c52cc5	2.3505077e-05
137	0x3721e2b0	9.649128e-06
138	0x363a515d	2.776352e-06
139	0x3733189b	1.067496e-05
140	0x34ecbad1	4.4094352e-07
141	0x359eb154	1.1823527e-06
142	0x34f8023d	4.6195228e-07
143	0x349e5501	2.9491642e-07
144	0x367aeda6	3.7391233e-06
145	0x364ba826	3.0347232e-06
146	0x36b9c40b	5.536252e-06
147	0x364a35e5	3.0131716e-06
148	0x365f852f	3.3307113e-06
149	0x368accd6	4.1365665e-06
150	0x354a1c32	7.5291894e-07
151	0x3586236a	9.994085e-07
152	0x3539205d	6.8964965e-07
153	0x353134d9	6.601454e-07
154	0x35f0bd1f	1.7936435e-06
155	0x3462d639	2.1125824e-07
156	0x34873816	2.5186517e-07
157	0x34eb29a0	4.3802447e-07
158	0x359af37f	1.1544761e-06
159	0x3566d01c	8.5984516e-07
160	0x34e272d5	4.2179332e-07
161	0x34a7a086	3.122297e-07
162	0x345789b9	2.0073539e-07
163	0x3479ed50	2.3276266e-07
164	0x35406da1	7.1685105e-07
165	0x361e122f	2.355442e-06
166	0x35aece96	1.3024135e-06
167	0x358f8ddb	1.0695616e-06
168	0x356fd0b0	8.933812e-07
169	0x369c611b	4.660467e-06
170	0x352da561	6.468818e-07
171	0x354f3cb8	7.7201867e-07
172	0x3518644f	5.677038e-07
173	0x34f7e793	4.6175828e-07
174	0x36197734	2.2868162e-06
175	0x34a89174	3.139827e-07
176	0x348973e2	2.5602554e-07
177	0x3520ca68	5.9899185e-07
178	0x35a526b7	1.2304725e-06
179	0x354e8eee	7.694897e-07
180	0x346fc0d9	2.2328767e-07
181	0x35b3bc32	1.3391311e-06
182	0x3456c805	2.000307e-07
183	0x344ada74	1.8892189e-07
184	0x357925e1	9.281485e-07
185	0x35352ab2	6.7489884e-07
186	0x358bcde7	1.0416232e-06
187	0x352ed1a8	6.512514e-07
188	0x353a39de	6.937461e-07
189	0x358cdfdb	1.0495963e-06
190	0x350dab43	5.277581e-07
191	0x358f1d11	1.066279e-06
192	0x3555c829	7.9639955e-07
193	0x349547eb	2.780574e-07
194	0x35329419	6.652568e-07
195	0x360083be	1.915017e-06
196	0x363dcc54	2.828213e-06
197	0x35d274ec	1.5680248e-06
198	0x35cbcb31	1.5183815e-06
199	0x35e3df9d	1.6977898e-06
200	0x342f711e	1.6339297e-07
201	0x35701f40	8.945244e-07
202	0x3417840d	1.411101e-07
203	0x34023030	1.2124724e-07
204	0x35919fa8	1.0849808e-06
205	0x358c005b	1.0430916e-06
206	0x3610c51f	2.1572412e-06
207	0x3583adeb	9.810877e-07
208	0x3530f4ad	6.592116e-07
209	0x3609fd39	2.0561986e-06
210	0x3572ecd4	9.0496656e-07
211	0x35060fc3	4.9941826e-07
212	0x3570b8c5	8.967584e-07
213	0x353253d0	6.643213e-07
214	0x35290498	6.296409e-07
215	0x358861b2	1.0161223e-06
216	0x35e71172	1.7215918e-06
217	0x355bff5c	8.1955454e-07
218	0x36051fd5	1.9837073e-06
219	0x3633165a	2.6686089e-06
220	0x352b185a	6.37379e-07
221	0x368143e0	3.8524013e-06
222	0x350929dc	5.109739e-07
223	0x348d8387	2.6358995e-07
224	0x3645877d	2.9434152e-06
225	0x364374c5	2.9125233e-06
226	0x361e2f8c	2.357151e-06
227	0x365d3d9e	3.2967432e-06
228	0x3642c2b5	2.9021587e-06
229	0x368daa4c	4.2219526e-06
230	0x359a3eca	1.1492168e-06
231	0x351224da	5.4442864e-07
232	0x35a170e6	1.2028293e-06
233	0x354ff890	7.7475215e-07
234	0x35892502	1.0218066e-06
235	0x35a83de1	1.2534985e-06
236	0x3606c83d	2.008411e-06
237	0x35bea7ff	1.4204996e-06
238	0x358410d6	9.839666e-07
239	0x35abe4a0	1.2807031e-06
240	0x34bb0624	3.4835932e-07
241	0x361ec308	2.3657358e-06
242	0x34b7b635	3.421898e-07
243	0x34a223f7	3.020102e-07
244	0x35e71fcb	1.7220094e-06
245	0x35ce6428	1.5377345e-06
246	0x36668c29	3.4354255e-06
247	0x35817497	9.645181e-07
248	0x35d1c1a0	1.5628066e-06
249	0x367add52	3.7381728e-06
250	0x3578e1f7	9.271602e-07
251	0x35f57862	1.8288958e-06
252	0x3554c648	7.926469e-07
253	0x34cf8675	3.8654585e-07
254	0x34df1201	4.1550086e-07
255	0x368bdea5	4.168442e-06

exp_avg f4 [10]
0	0x3bdb502d	0.0066929073
1	0xb95055fc	-0.00019868457
2	0x3b8d78b6	0.0043173684
3	0xbc1b00eb	-0.009460668
4	0x39f936f5	0.00047533927
5	0xbb51f9a3	-0.0032039664
6	0xbb8647fe	-0.0040979376
7	0x3b45b45b	0.0030167315
8	0x3bc0d420	0.0058846623
9	0xbb6334a5	-0.003466883

exp_avg_sq f4 [10]
0	0x3720194a	9.542631e-06
1	0x374ae879	1.2094265e-05
2	0x36f9501f	7.4301056e-06
3	0x37bf699f	2.2818158e-05
4	0x365e0b9d	3.3087338e-06
5	0x353218a8	6.6346047e-07
6	0x3638507b	2.7464982e-06
7	0x3573c322	9.080851e-07
8	0x36705529	3.5812357e-06
9	0x3774bc25	1.4587339e-05

exp_avg f4 [10, 10]
0	0xbc0f4ce0	-0.008746356
1	0x3afc23bf	0.0019236727
2	0xbbe33c05	-0.006934645
3	0x3c0b608a	0.008506903
4	0xbc045a10	-0.008078113
5	0x3b99d352	0.004694381
6	0x3c12a5ac	0.008950632
7	0xbbe2e72e	-0.0069245314
8	0xbc1d0c4b	-0.00958545
9	0xbc010f7d	-0.007877228
10	0xbbb54d4e	-0.005532897
11	0x3ad21c40	0.0016030148
12	0xbb87a7bb	-0.004139868
13	0x3bacd7c7	0.005274746
14	0xbb3997f9	-0.0028319343
15	0x3b8e4342	0.004341514
16	0x3b6b8fc0	0.0035943836
17	0x3a5344c1	0.00080592564
18	0xbb991640	-0.004671842
19	0xbb574018	-0.00328446
20	0x3b2a3b37	0.0025975236
21	0xbab69280	-0.0013929158
22	0x3b16a4c3	0.002298639
23	0xbab6154e	-0.0013891847
24	0x3acaa038	0.0015459126
25	0xbb4183b9	-0.0029527976
26	0xbaafb72b	-0.0013406029
27	0xba344f82	-0.00068783027
28	0x3a8cbce1	0.0010737443
29	0x3ab2f047	0.001365193
30	0xbb571f7e	-0.0032825167
31	0x3af15482	0.0018412026
32	0xbaa4ea12	-0.0012581965
33	0x3b8d22a7	0.0043071094
34	0x39ca4f92	0.00038587727
35	0x3877afc8	5.9053098e-05
36	0xb9175b25	-0.00014434436
37	0x3a874a7b	0.001032188
38	0xbb08a5cb	-0.0020850773
39	0xbabc4cc2	-0.0014366137
40	0x3c230447	0.00994975
41	0x3b152d54	0.0022762613
42	0x3bb8ee70	0.0056436583
43	0xbba34012	-0.004982003
44	0x3a990884	0.0011675511
45	0xba58ed0c	-0.0008275069
46	0xbc0a2387	-0.008431322
47	0xbbda6661	-0.0066650365
48	0x3be803e7	0.0070805433
49	0x3a984c3c	0.0011619399
50	0xbb0b0151	-0.0021210501
51	0xb986e157	-0.00025726363
52	0xbac96437	-0.0015364949
53	0x3b03863c	0.0020069024
54	0xbb4b490e	-0.0031018886
55	0x3abff686	0.0014645613
56	0x3b6f7eff	0.0036544201
57	0xbb0b353b	-0.0021241445
58	0xbb58c942	-0.0033078943
59	0xbb0d52d5	-0.0021564264
60	0xb9b48978	-0.00034434698
61	0x3b1d335b	0.002398691
62	0xba004eff	-0.0004894584
63	0xba2fe7f7	-0.00067102857
64	0x36e73498	6.890459e-06
65	0x38d0f880	9.9644996e-05
66	0xbaee3a59	-0.0018175348
67	0xbaddc885	-0.0016920721
68	0x3af674d1	0.0018803125
69	0xb9e127f2	-0.00042945106
70	0xbbecd399	-0.007227373
71	0x3b2afac4	0.002608941
72	0xbbb72415	-0.005589018
73	0x3b5a1216	0.003327494
74	0xbbcda6da	-0.006275994
75	0x3b15f69e	0.002288259
76	0x3bcd05a6	0.006256777
77	0xbbff9f90	-0.0078010038
78	0xbba4cbfd	-0.0050292
79	0xbbb1136f	-0.005403928
80	0xbbf24c04	-0.0073943157
81	0x3a4b0691	0.0007744814
82	0xbb83e492	-0.0040250504
83	0x3bc3dfd3	0.0059776097
84	0xbb0d58d6	-0.0021567843
85	0x3b1391d8	0.002251735
86	0x3b9c3b40	0.0047678053
87	0x3b6fbdad	0.0036581561
88	0xbbb5ae56	-0.005544464
89	0xbb3d1b4d	-0.0028855384
90	0xbb9f7e05	-0.0048673176
91	0xbad5e4bc	-0.0016318779
92	0xbb48394a	-0.0030551725
93	0x3b8f23f3	0.004368299
94	0xb98d645f	-0.00026968398
95	0x3a79ea42	0.00095335033
96	0x3b8ddc83	0.0043292656
97	0x3b9d15b5	0.0047938474
98	0xbbb048d2	-0.0053797746
99	0xba45562e	-0.00075277954

exp_avg_sq f4 [10, 10]
0	0x381dcf66	3.762487e-05
1	0x373e809e	1.13548285e-05
2	0x380fdfd4	3.4302313e-05
3	0x38006170	3.0608324e-05
4	0x380749c2	3.22552e-05
5	0x37757382	1.4630032e-05
6	0x382d5f46	4.1335144e-05
7	0x37cc5116	2.4356454e-05
8	0x3820f22f	3.8372524e-05
9	0x381bb017	3.7118876e-05
10	0x375cb7ea	1.3155843e-05
11	0x36a435a7	4.893827e-06
12	0x371d1ed3	9.365106e-06
13	0x3758820a	1.290488e-05
14	0x37147b49	8.850192e-06
15	0x36add8a0	5.1810202e-06
16	0x37413825	1.1516769e-05
17	0x36df07a3	6.646807e-06
18	0x377d9537	1.5114717e-05
19	0x372ef551	1.0428325e-05
20	0x3575846a	9.14623e-07
21	0x3588d647	1.0195153e-06
22	0x354e06d0	7.6750894e-07
23	0x357cdbc1	9.41971e-07
24	0x35145203	5.525364e-07
25	0x3574e26c	9.122657e-07
26	0x34a5da82	3.089263e-07
27	0x352b6ecd	6.38637e-07
28	0x3522853f	6.05436e-07
29	0x34e31147	4.2294616e-07
30	0x3727c7c4	1.0000487e-05
31	0x364ee119	3.0827416e-06
32	0x369ed382	4.7333897e-06
33	0x3723334c	9.727501e-06
34	0x36943b21	4.417627e-06
35	0x3662448b	3.3716522e-06
36	0x37077448	8.073701e-06
37	0x369fa156	4.7573512e-06
38	0x3763dbb6	1.358141e-05
39	0x36bb2953	5.577845e-06
40	0x37a341dc	1.9461782e-05
41	0x362e16fb	2.5941397e-06
42	0x36d5eead	6.37568e-06
43	0x36a9a69d	5.055989e-06
44	0x36d1fdcd	6.2582317e-06
45	0x36c1275c	5.7564303e-06
46	0x37832c85	1.5637148e-05
47	0x378e038f	1.6929376e-05
48	0x37bc03c5	2.2413102e-05
49	0x3644173d	2.9219802e-06
50	0x36400162	2.8611034e-06
51	0x35c849f5	1.4922686e-06
52	0x367e45f4	3.7889668e-06
53	0x36111579	2.1619182e-06
54	0x3682acd2	3.894421e-06
55	0x359e84b3	1.1810538e-06
56	0x3699c5fa	4.582803e-06
57	0x36b3fa4c	5.363754e-06
58	0x3660e9d4	3.3514707e-06
59	0x368bb3d4	4.1634576e-06
60	0x362863aa	2.5091963e-06
61	0x35b7ba43	1.3688772e-06
62	0x365bb6e4	3.274e-06
63	0x35747829	9.107194e-07
64	0x35811ce7	9.619661e-07
65	0x35372b8d	6.823619e-07
66	0x364bde70	3.0378833e-06
67	0x3616df81	2.2481838e-06
68	0x360f2363	2.1329258e-06
69	0x35ef9f3a	1.7853229e-06
70	0x3788623a	1.6258204e-05
71	0x37041d8c	7.8746925e-06
72	0x3783ba03	1.5703035e-05
73	0x371758c9	9.020973e-06
74	0x374b8342	1.2130304e-05
75	0x36920b8b	4.352483e-06
76	0x3750a279	1.2435595e-05
77	0x378db63c	1.689337e-05
78	0x373ceb0c	1.1260399e-05
79	0x378db9df	1.6895063e-05
80	0x3772cd9b	1.4472195e-05
81	0x365347c4	3.1483223e-06
82	0x36af60ee	5.2266905e-06
83	0x37289c57	1.0049981e-05
84	0x36e51955	6.827681e-06
85	0x36875376	4.0330297e-06
86	0x3723fefa	9.7749235e-06
87	0x375bd422	1.3102808e-05
88	0x37b2cab5	2.1313646e-05
89	0x36c0d27c	5.7465495e-06
90	0x37405c8a	1.1465638e-05
91	0x360dc005	2.1122407e-06
92	0x37205523	9.556566e-06
93	0x36e1f550	6.7340807e-06
94	0x3693558c	4.3909004e-06
95	0x3663352a	3.3856581e-06
96	0x37560937	1.27575395e-05
97	0x373e84b1	1.1355777e-05
98	0x379c7df1	1.8655295e-05
99	0x36d22a03	6.2633785e-06

exp_avg f4 [10]
0	0x3b3b576c	0.0028586043
1	0xbb17d9f9	-0.0023170693
2	0x3a2e427f	0.0006647482
3	0x3b8b50de	0.0042515835
4	0xbcaa138e	-0.020761278
5	0x3a8d385d	0.0010774244
6	0x3b712437	0.0036795267
7	0x3c58bbe4	0.01322839
8	0x3c42bdfb	0.011886115
9	0x3adb3c55	0.0016726354

exp_avg_sq f4 [10]
0	0x384352e0	4.6568806e-05
1	0x37506982	1.2422332e-05
2	0x35bdb941	1.4135513e-06
3	0x389179a1	6.936794e-05
4	0x390bca20	0.0001333137
5	0x372f4dec	1.0448955e-05
6	0x375521e0	1.27036765e-05
7	0x3828f8e8	4.0286133e-05
8	0x3890dc25	6.90746e-05
9	0x379e67db	1.888343e-05

exp_avg f4 [5, 10]
0	0x3c11ec24	0.008906398
1	0x3b005759	0.0019583313
2	0xbbf8a8f6	-0.007588501
3	0x3bc1259c	0.005894376
4	0xbcba6342	-0.022752408
5	0x3ce77e5c	0.028258495
6	0x3c414f49	0.011798688
7	0x3c9c9626	0.019114565
8	0xbc1ebf04	-0.009689096
9	0x3cce6783	0.025195843
10	0xbb2b922b	-0.0026179652
11	0x3b140b2e	0.0022589671
12	0xbad2fbee	-0.0016096809
13	0x39f3ed0d	0.00046525188
14	0x3ba16540	0.0049254
15	0xbb6f725a	-0.0036536665
16	0xbb35ca79	-0.0027739091
17	0xb9aca946	-0.00032932515
18	0x3b8bf9e9	0.004271735
19	0xbb2ad74c	-0.0026068268
20	0x3b9bc288	0.0047534145
21	0x3ace7f3f	0.0015754475
22	0x3b3bbcfa	0.0028646574
23	0x3c16d12c	0.009205144
24	0xbb5aa75c	-0.0033363914
25	0xbacb71c3	-0.0015521575
26	0x37cec47a	2.4648605e-05
27	0xbbe076ba	-0.006850091
28	0x3bf3f4fa	0.007444975
29	0xb9368ccc	-0.00017409323
30	0xbc39da9f	-0.011343627
31	0x3a13c73d	0.0005637294
32	0xbc19d24d	-0.0093885185
33	0xbbeafe15	-0.007171402
34	0x3b192093	0.0023365363
35	0xbc7f9943	-0.015600505
36	0x3b548861	0.003242992
37	0xbc885ab1	-0.016644808
38	0xbc0beea8	-0.008540787
39	0xbc60e099	-0.013725423
40	0xbbe2d3b5	-0.00692221
41	0x3a96c85b	0.0011503802
42	0xbc157a39	-0.009123378
43	0x3b1a72d6	0.0023566983
44	0xbc1c9153	-0.009556132
45	0xbb9cdb1d	-0.0047868625
46	0x3c1fbb80	0.009749293
47	0xbc266560	-0.010156006
48	0xbbacb74f	-0.0052708755
49	0xbbc8dfb5	-0.0061301836

exp_avg_sq f4 [5, 10]
0	0x378c4f22	1.672615e-05
1	0x369a40b4	4.59709e-06
2	0x3802e223	3.120502e-05
3	0x379da094	1.8790633e-05
4	0x38ed604b	0.000113189766
5	0x3907d040	0.00012952182
6	0x38792909	5.9404443e-05
7	0x38629744	5.4023476e-05
8	0x38dabb2b	0.00010429913
9	0x388d696d	6.743041e-05
10	0x37112966	8.652312e-06
11	0x3637209c	2.7288106e-06
12	0x374c00b6	1.2159513e-05
13	0x368d36a8	4.2084903e-06
14	0x3809732c	3.2770608e-05
15	0x3821461d	3.845069e-05
16	0x37bb96cd	2.236236e-05
17	0x3799ffa9	1.8358072e-05
18	0x381bfbf1	3.718952e-05
19	0x37cd8334	2.4499e-05
20	0x3792be86	1.7493276e-05
21	0x363517c7	2.6984942e-06
22	0x37728558	1.4455371e-05
23	0x37b30835	2.1342285e-05
24	0x37cb64d5	2.424644e-05
25	0x37c1edf8	2.3118206e-05
26	0x3785c7e1	1.5947911e-05
27	0x379df5a6	1.8830247e-05
28	0x37f3832a	2.9028935e-05
29	0x37383da3	1.0981606e-05
30	0x38a35322	7.7879304e-05
31	0x367bc86c	3.7518575e-06
32	0x388a77af	6.6026456e-05
33	0x37ad5800	2.0664185e-05
34	0x386476f3	5.4470216e-05
35	0x39184471	0.00014521346
36	0x3891e584	6.9568894e-05
37	0x38d4dbc2	0.00010149881
38	0x386e3086	5.6788813e-05
39	0x38d1e728	0.00010008953
40	0x3735d4a5	1.0837951e-05
41	0x367bcb44	3.752023e-06
42	0x3748ef70	1.1976677e-05
43	0x36971f3f	4.503788e-06
44	0x382f9437	4.1861287e-05
45	0x3773d5d4	1.4533714e-05
46	0x380d7194	3.3722798e-05
47	0x378154cd	1.5417487e-05
48	0x37714105	1.4379858e-05
49	0x37615a8f	1.343213e-05

exp_avg f4 [5]
0	0xbc352416	-0.011055967
1	0xbc01009d	-0.007873681
2	0xbc268377	-0.01016318
3	0x3d260575	0.040532548
4	0x3cb51f0d	0.022109533

exp_avg_sq f4 [5]
0	0x3911fa8e	0.00013921616
1	0x38c3f288	9.3434996e-05
2	0x3889e97f	6.576161e-05
3	0x3a9f3c39	0.0012148685
4	0x38c73eaf	9.500735e-05

exp_avg f4 [31, 5]
0	0xba956e0f	-0.0011400598
1	0x3c889fb1	0.01667771
2	0x3bda768c	0.006666964
3	0x3c6856d3	0.014180857
4	0x3c182c70	0.0092879385
5	0x3b021e07	0.0019854323
6	0x3a4f997f	0.0007919296
7	0xba3b8842	-0.0007153788
8	0x3ab1187b	0.0013511324
9	0x3ad2461a	0.001604262
10	0x3a716d76	0.00092097314
11	0x3c03bf51	0.008041219
12	0x3b39af39	0.00283332
13	0x3bcf52cc	0.006327009
14	0x3b83287d	0.0040026293
15	0x3b11de2a	0.0022257664
16	0x3b940d9a	0.004518223
17	0x3ad78679	0.0016443274
18	0x3b2daa9b	0.0026499394
19	0x3b252aa7	0.0025202425
20	0xbc24120a	-0.0100140665
21	0x3d0b67d7	0.034034576
22	0x3c7e0cd2	0.015505986
23	0x3d11385d	0.035454143
24	0x3c9abca4	0.018888779
25	0xbbab9e77	-0.0052373963
26	0x3bc89aa6	0.006121951
27	0x3b33633e	0.0027372385
28	0x3bf3b3c8	0.007437203
29	0x3b89eb09	0.0042089266
30	0xbc56b843	-0.013105455
31	0x3cb9b7da	0.022670675
32	0x3c4a5f07	0.012351758
33	0x3cd8ac1b	0.026449254
34	0x3c747a09	0.014921674
35	0xbc284b3c	-0.0102718435
36	0x3cfe522d	0.031045044
37	0x3c6a5c9f	0.014304309
38	0x3d03b876	0.032158338
39	0x3c951598	0.018198773
40	0xbb8547bb	-0.004067389
41	0x3bc53c5b	0.006019158
42	0x3b1d0d16	0.0023964099
43	0x3bef7f12	0.007308849
44	0x3b4d8644	0.0031360546
45	0xbbce37cd	-0.006293273
46	0xbc326f2a	-0.010890761
47	0xbaef8226	-0.001827304
48	0xbbebd723	-0.007197277
49	0xbb36ebdb	-0.0027911577
50	0xbac3deed	-0.0014943756
51	0x3b8f2024	0.004367845
52	0x3b683ea6	0.0035437732
53	0x3ae863ef	0.0017729978
54	0x3b99dfc3	0.004695864
55	0x3b2e0428	0.002655277
56	0xbc88af4c	-0.01668515
57	0xbbb62104	-0.005558135
58	0xbc748d72	-0.014926301
59	0xbbcbf8b4	-0.006224716
60	0xbb35c7dd	-0.0027737536
61	0x3c1bda25	0.009512459
62	0x3bc2744c	0.005934274
63	0x3becbbe0	0.007224545
64	0x3bfc68ed	0.007702938
65	0x3b0816da	0.0020765574
66	0xb9b25c94	-0.00034019782
67	0x38c622da	9.447867e-05
68	0xbb3e55d7	-0.0029042864
69	0x39ed9b70	0.00045319973
70	0xbaf6af9b	-0.0018820645
71	0xbb882c16	-0.004155646
72	0x3b348742	0.002754644
73	0xbb8fe293	-0.0043910234
74	0x3b1acc5c	0.0023620343
75	0xbbdd9115	-0.00676168
76	0xbcb87fa5	-0.022521803
77	0xbbaca12d	-0.005268237
78	0xbc9fe44f	-0.019518046
79	0xbbf47e44	-0.007461341
80	0xbc37e479	-0.011223906
81	0xbcc515f6	-0.024058323
82	0xbb41f389	-0.002959462
83	0xbc9cf008	-0.019157425
84	0xbbbdc6fc	-0.005791543
85	0xbbf77b5e	-0.0075525483
86	0xbc7ef664	-0.015561674
87	0xbaa8db69	-0.0012882772
88	0xbc3b0104	-0.011413816
89	0xbb400f85	-0.0029306125
90	0xbb8e8ff7	-0.004350658
91	0x3b770b95	0.0037696112
92	0x3b190075	0.002334622
93	0x3b28433d	0.0025674843
94	0x3bcb3947	0.0062018964
95	0xbc1c9e80	-0.009559274
96	0xbd20470f	-0.039130267
97	0xbc07d0f6	-0.008289566
98	0xbd082580	-0.033238888
99	0xbc438df3	-0.011935699
100	0xbae4026a	-0.0017395739
101	0x3c916ad4	0.017751135
102	0x3bd7a743	0.0065812184
103	0x3c819eed	0.015822852
104	0x3c151ee7	0.009101606
105	0xba900f2f	-0.0010990853
106	0x3c3db46a	0.011578659
107	0x3b417863	0.002952122
108	0x3c590ac6	0.0132471975
109	0x3bd0cbd3	0.006371954
110	0x3a2aaadd	0.0006510446
111	0x3c135fd1	0.008995012
112	0x3b3357ff	0.0027365682
113	0x3beffc35	0.0073237666
114	0x3b7ef6d8	0.0038904455
115	0xb9378bfb	-0.00017504387
116	0x3c3bb59c	0.011456873
117	0x3b925a38	0.0044663213
118	0x3c1dfa39	0.009642177
119	0x3bcfdbee	0.0063433563
120	0xbc577ab3	-0.013151812
121	0x3d349bff	0.044094082
122	0x3c9c43de	0.01907533
123	0x3d441bb3	0.04787798
124	0x3cb8f2da	0.022576738
125	0xbb92cd70	-0.0044800565
126	0x3be52be8	0.0069937594
127	0x3a94215c	0.0011301446
128	0x3c0bb468	0.008526899
129	0x3ad1b493	0.001599925
130	0xbc6027cd	-0.013681364
131	0x3cd2ef67	0.025748922
132	0x3c4579d0	0.012052968
133	0x3cf55273	0.029946541
134	0x3c6e4ea6	0.014545118
135	0xbc2d778a	-0.010587582
136	0x3ceeb124	0.029137202
137	0x3c46c78a	0.012132535
138	0x3d02b4f0	0.031910837
139	0x3c76ba1f	0.015059023
140	0xbc1cf9d0	-0.009581044
141	0x3cf9dcb6	0.030500751
142	0x3c239a0c	0.009985458
143	0x3d039287	0.03212216
144	0x3c7e4397	0.015519044
145	0xbc2a66d9	-0.010400497
146	0x3c49e49e	0.012322573
147	0x3bb26e14	0.0054452512
148	0x3c7cb341	0.015423597
149	0x3bd59c91	0.0065189083
150	0xbc212ac2	-0.009836854
151	0xbbfcf633	-0.007719779
152	0xbab03cd4	-0.0013445863
153	0x3bfcb705	0.0077122473
154	0xbbc09e63	-0.005878256

exp_avg_sq f4 [31, 5]
0	0x363b9d5c	2.7956767e-06
1	0x38c9672d	9.603645e-05
2	0x37c7a829	2.3800954e-05
3	0x3864ba6a	5.4533048e-05
4	0x37835682	1.56567e-05
5	0x35c43b49	1.4620392e-06
6	0x37878831	1.6156673e-05
7	0x36a8f4f2	5.0353055e-06
8	0x3793c772	1.761664e-05
9	0x3671e93d	3.604756e-06
10	0x360027ab	1.9096576e-06
11	0x388041ba	6.115758e-05
12	0x37847640	1.579069e-05
13	0x380a9226	3.3037875e-05
14	0x3716a992	8.980178e-06
15	0x359d7d1b	1.1733822e-06
16	0x381b1619	3.697546e-05
17	0x372ba6b8	1.02312115e-05
18	0x379de728	1.8823499e-05
19	0x36d0c073	6.221287e-06
20	0x3789d6fb	1.643178e-05
21	0x398fabc9	0.00027403075
22	0x38962fd1	7.161464e-05
23	0x395ae94f	0.00020877014
24	0x3860f00e	5.362933e-05
25	0x370460e9	7.890377e-06
26	0x38acd586	8.241371e-05
27	0x37ad1249	2.0631722e-05
28	0x387ca621	6.02362e-05
29	0x37a6db74	1.9890933e-05
30	0x379e8a3a	1.8899435e-05
31	0x3922f05f	0.00015539069
32	0x38325a2e	4.2522493e-05
33	0x39003ba1	0.00012229245
34	0x382647ee	3.9644474e-05
35	0x37697cff	1.3916985e-05
36	0x3969fcaf	0.00022314744
37	0x3871baf1	5.763298e-05
38	0x392ab6ca	0.00016280558
39	0x3841b842	4.618639e-05
40	0x36b96da7	5.526195e-06
41	0x38626719	5.3978616e-05
42	0x37402082	1.1451661e-05
43	0x380b334e	3.3187964e-05
44	0x3756ea11	1.2809892e-05
45	0x36d92de7	6.4724477e-06
46	0x3834911f	4.30505e-05
47	0x36f34ba8	7.250772e-06
48	0x37e3a854	2.7138893e-05
49	0x371e8809	9.449207e-06
50	0x35d5a07d	1.5916445e-06
51	0x37cf1461	2.4685813e-05
52	0x36ec74e6	7.046957e-06
53	0x3771b6bc	1.4407266e-05
54	0x36ebe0db	7.0297224e-06
55	0x36874be1	4.032147e-06
56	0x38cd701c	9.796044e-05
57	0x379eaa35	1.8914327e-05
58	0x3859d089	5.1931045e-05
59	0x36e0924f	6.692753e-06
60	0x35e5f38d	1.7132712e-06
61	0x3802eddf	3.121595e-05
62	0x37172f6a	9.011341e-06
63	0x37937050	1.7576065e-05
64	0x3716394a	8.954035e-06
65	0x34efa150	4.463459e-07
66	0x371d9f94	9.395084e-06
67	0x363c810c	2.8089298e-06
68	0x36b49369	5.381579e-06
69	0x360f845f	2.138571e-06
70	0x364e1260	3.0707088e-06
71	0x37eb22c5	2.8030374e-05
72	0x36ce7dd4	6.1539267e-06
73	0x37b6b3f4	2.1779888e-05
74	0x36d7058f	6.4081464e-06
75	0x36bfadfc	5.712498e-06
76	0x3854269c	5.0580697e-05
77	0x36f70500	7.3617557e-06
78	0x3831a28d	4.2351476e-05
79	0x36b6adc7	5.444253e-06
80	0x37cc8c74	2.4384099e-05
81	0x38b77884	8.748568e-05
82	0x36fcb47f	7.5311978e-06
83	0x3846287a	4.7244575e-05
84	0x370fe724	8.577281e-06
85	0x3704ee4d	7.923297e-06
86	0x383a20fa	4.4376568e-05
87	0x3684e0b8	3.9600673e-06
88	0x37bb57fb	2.2333106e-05
89	0x36f5a14b	7.320346e-06
90	0x365939b7	3.2369114e-06
91	0x386e0540	5.674851e-05
92	0x36dc64d3	6.5682484e-06
93	0x380e6321	3.394776e-05
94	0x3741c0a4	1.1548549e-05
95	0x377a9fcf	1.49383695e-05
96	0x394d99d7	0.00019607633
97	0x37e2c321	2.7032163e-05
98	0x39182564	0.00014509779
99	0x37173010	9.011492e-06
100	0x3675070c	3.6511947e-06
101	0x38f13a74	0.00011502663
102	0x37eaf8be	2.8010803e-05
103	0x38933fb3	7.021371e-05
104	0x3793abbc	1.7603736e-05
105	0x35ac8c3d	1.2855813e-06
106	0x381ceb43	3.7412403e-05
107	0x37004fcc	7.647974e-06
108	0x381ab2b6	3.68829e-05
109	0x36eb12f6	7.005753e-06
110	0x3629aa49	2.5282081e-06
111	0x389fe80f	7.624935e-05
112	0x37a2274c	1.9330204e-05
113	0x383c9fa7	4.497138e-05
114	0x37312ac1	1.05599765e-05
115	0x3601a983	1.9321167e-06
116	0x38872fc7	6.446201e-05
117	0x378e33f2	1.6951908e-05
118	0x381f4681	3.7974216e-05
119	0x373d8213	1.1295563e-05
120	0x37d4a26a	2.5348e-05
121	0x39cedfd6	0.00039458153
122	0x38d14146	9.978055e-05
123	0x39ac0b92	0.00032815017
124	0x3888ff5c	6.53255e-05
125	0x371a405d	9.194101e-06
126	0x38d6f683	0.000102502316
127	0x37bdb679	2.2615526e-05
128	0x38b8f6e7	8.819793e-05
129	0x3762ffa3	1.353017e-05
130	0x37c16fc2	2.3059434e-05
131	0x395439aa	0.00020239377
132	0x3855bb25	5.095745e-05
133	0x393c69a1	0.00017968427
134	0x3825abd3	3.949909e-05
135	0x37960640	1.7884304e-05
136	0x398a80e7	0.0002641745
137	0x3884c61f	6.3311534e-05
138	0x39566c0a	0.00020448878
139	0x383a1426	4.436462e-05
140	0x374bdb0c	1.2150744e-05
141	0x39570063	0.00020504142
142	0x381b2357	3.6987793e-05
143	0x391cb253	0.0001494375
144	0x380d5129	3.3692606e-05
145	0x377079ec	1.4333502e-05
146	0x38ca586a	9.648579e-05
147	0x37b888d9	2.1998234e-05
148	0x38ca37c7	9.6425e-05
149	0x378e5a3d	1.696974e-05
150	0x3698c6ab	4.553081e-06
151	0x37b5694b	2.1625912e-05
152	0x367eb901	3.7956636e-06
153	0x37690917	1.3889999e-05
154	0x36befa9b	5.6916156e-06

exp_avg f4 [31]
0	0xbd178ce4	-0.0369996
1	0xbbca2fec	-0.0061702635
2	0xbc9d8167	-0.019226743
3	0xbc49b67d	-0.012311575
4	0xbd979588	-0.07401568
5	0xbc216182	-0.009849908
6	0xbd3e0f14	-0.0464011
7	0xbd872488	-0.06598765
8	0xbc24f912	-0.010069149
9	0x3cebe30b	0.028794786
10	0xbbe712f6	-0.007051821
11	0x3d0d323f	0.034471747
12	0xbc9ba33a	-0.01899873
13	0x3aa7b7c7	0.0012795859
14	0x3bfdf3ae	0.007749996
15	0x3d6b0166	0.05737438
16	0x3d80ba44	0.06285527
17	0x3d1e9ffb	0.038726788
18	0xbbafb90f	-0.005362637
19	0x3dc1624c	0.09442577
20	0xbd1cc253	-0.03827126
21	0xbce85b51	-0.028363856
22	0xbca43ed4	-0.02004949
23	0xbcd1443b	-0.02554523
24	0xbdc54661	-0.09632564
25	0xbc2eea6f	-0.0106760105
26	0xbd53a2e8	-0.05166903
27	0xbd79ca39	-0.06098387
28	0xbd80bbb3	-0.06285801
29	0xbc9e22f2	-0.019303773
30	0x3bf0e375	0.0073513337
