Cancer-senn/trial9/models/cancer/grad3_Hinput_Thdummy_Reg1e-02_LR0.001/model_best.pth.tar (torch_old, 36110 bytes, 34 tensors)

parametrizer.linear1.weight f4 [10, 30]
00000000: f9e2 d3bd 4984 5cbe d1ad 463d 02a1 2c3e
00000010: d3fd 8fbd fa41 09be 827d 3dbe 4944 a9bc
00000020: 27cb 0bbe 5e08 f93c 5854 abbd 1060 993c
00000030: 792c b03d b3fb d6bd bc18 1c3d 5bcc c63c
00000040: 0a2b 1fbd b6a4 3bbe dc67 84bd be83 dd3d
00000050: e17c 6abd a197 38be 9b70 a73d 5eb7 a03b
00000060: 0d96 c53d bd8e e7bd afa6 c53d d904 17be
00000070: 5416 c3bc 3273 ee3d 71d3 883c 2ddb 193e
00000080: 8a62 303c 8c61 59be 1518 0fbd 43e2 033e
00000090: 7f23 d4bc 9e27 1f3e d673 2f3e 8bae e63d
000000a0: b91e 913d c2df 1dbe caa7 f5bc 49f5 a9bd
000000b0: adcd 89bd 5d5d 1ebe 44a8 38bd 221d 38be
000000c0: 9e7f 5f3d 24dd dabc 419f 7d3d bebc 62bd
000000d0: 7d33 4bbe 09e1 41be d1af 463e 1344 8a3d
000000e0: 1476 c6bb 392d ebbd bf70 383c 7a34 323e
000000f0: 796e 1dbe 06b3 aabd c220 8f3d 61f0 4abd
00000100: c019 bdbc 0dbf 203e 7e54 1ebe b03a 013e
00000110: 1fd2 ac3d b53f 3ebe bf18 8b3d a8ba 21be
00000120: a0e5 f73d d173 1cbe 8ba4 143e df1d c2bd
00000130: d910 423e eb74 2b3e e08e 963d 878a d83d
00000140: 8d9d 0bbe 0d1a 04be e150 1bbe 57d0 1dbd
00000150: 79c0 2f3e 55cb e1bd c2ee 173d 3071 113d
00000160: 4d1c dd3d cac7 2a3d b3c6 eebd b5ac d7bc
00000170: 2cad 483e af20 0a3d b5c8 523d 644f 4fbc
00000180: e717 853d c901 b2bd 95b3 b33b e50f 563d
00000190: 12ea a33d c471 da3c 7acd 263e 4738 f53d
000001a0: 4267 6fbd 0ce8 f1bd 1ce0 febd 176d 14be
000001b0: 2c5c f4bd e76b 2cbe 551c 153e 6b2e acbd
000001c0: 4f06 193e 5f5e bbbd 419f 91bc 83b6 6dbd
000001d0: 45d8 803d 6c1f 8d3d 3745 a83d d070 05be
000001e0: f0aa e83d 7d85 1b3e d94d 51be 06ff 17bd
000001f0: c5a9 3e3e d54e 293e cbe8 77bd af99 373e
00000200: db4c 8fbd 9509 163e e970 a03d 9160 a93d
00000210: ae18 e3ba 1559 1cbe 3012 c93d dfb1 a0bd
00000220: 72ea a53d a740 91bd cf14 b63d 4c5b 5dbd
00000230: c729 28be 05d1 ccbc 87f1 debd 80d5 6d3d
00000240: 254f b9bd ced1 2dbd 009e f43d ec33 0bbe
00000250: 189b 34bd 2314 db3d 9a4a c03d 7ce8 2cbe
00000260: 0c25 f33b af11 1b3e 4560 ebbd 20ed 9bbd
00000270: 6d35 10bc 9378 1f3e fe7a 263b 6766 0bbe
00000280: 8b5d 33be 24a2 8c3d 5fca c6bd 15ca 283e
00000290: 8025 8dbd 0551 d6bd d629 903d a28d 34be
000002a0: be17 a4bd 59a5 b13d af2d e3bd 1361 bbbb
000002b0: 2b3e e33d 53e1 143e 9e2f ba3d 4192 cfbd
000002c0: 5af5 cfbd 1dee b43d d971 04be 4eac a03d
000002d0: 2a55 963b 38d6 01bc 18db 443e 29ab cf3d
000002e0: 6986 ffbc 0848 4d3d 9a06 52bd f318 0dbe
000002f0: 6dc2 653c 2530 0abe 86e9 793d c0a8 cdbd
00000300: 67c7 edbd 1b06 123e 9846 e13d 5326 1dbc
00000310: ccfb 1d3e 76eb b63d cdc2 1e3e 419c b33d
00000320: 5ef8 c63d 24d8 823d 4c73 473e d77e 47bd
00000330: 2fe6 ea3c 2867 b93d 94bb 8c3d 90a8 2abe
00000340: 4ccd 4dbe 7c08 90bc 249c 81bc ce7e a8bd
00000350: 3e09 5bbd eee1 753d 91b8 963d cc00 9cbd
00000360: 4e1a 1a3c d008 193e c7ce 053e 2c33 86bd
00000370: a913 043e bbeb 15bd e51b 473e 8b13 ae3d
00000380: cf14 d4bc 2e96 fd3d f88b 4b3c 73e9 8d3d
00000390: 592f 8cbd a245 de3d 8544 1dbd fbc2 2ebd
000003a0: 3322 213e 5f87 8c3b 4f56 46be 064f 2cbe
000003b0: 27a4 ec3d 5e69 f23d 0fe5 073e 6c39 00be
000003c0: 966b 02be 4210 a8bd ee9f 3f3d e0b9 c0bb
000003d0: 2614 3ebe 42ad 12be 2aad 183e 0998 d9bb
000003e0: 427a fa3d 0311 00bc 7c06 5ebd 5393 9a3d
000003f0: 227b 04be d79e 573e 74fa 093e 9061 41bd
-0.10346026 -0.21534838 0.048505608 0.16858295 -0.07030835 -0.13404074 -0.18504909 -0.020662444
-0.13651715 0.030399498 -0.08365697 0.018722564 0.086022325 -0.104972266 0.038109526 0.024267366
-0.038859405 -0.18324551 -0.06465122 0.108161435 -0.057248 -0.18026592 0.08175775 0.0049046716
0.096477605 -0.11306522 0.09650933 -0.14747943 -0.023814358 0.116430655 0.016702386 0.15025015
0.010765681 -0.21228617 -0.034935076 0.12879281 -0.025895832 0.15542457 0.17134032 0.1126376
0.07085938 -0.15417388 -0.029987235 -0.082987376 -0.06728683 -0.15465303 -0.045082346 -0.17979863
0.054565065 -0.026716776 0.061919454 -0.05535578 -0.1984386 -0.189335 0.19403006 0.067512654
-0.0060565565 -0.11483235 0.0112573495 0.1740283 -0.15374173 -0.08334927 0.0698867 -0.04954565
-0.023083568 0.1569788 -0.15461919 0.12620044 0.08438515 -0.1857899 0.06791829 -0.1579386
0.12104344 -0.15278555 0.14515893 -0.09478354 0.1895174 0.1674382 0.0735147 0.10573297
-0.1363432 -0.12900563 -0.15167572 -0.038528766 0.17163266 -0.11025111 0.03709293 0.035508335
0.107964136 0.04169444 -0.116589926 -0.02632747 0.1959731 0.033722576 0.05146094 -0.012653206
0.064987 -0.08691747 0.0054840543 0.052261252 0.0800363 0.026665576 0.1628932 0.11973625
-0.058448084 -0.118118376 -0.12445089 -0.1449474 -0.11931643 -0.16838036 0.14561589 -0.08407291
0.14943813 -0.09148859 -0.017776133 -0.058035385 0.0629125 0.06890759 0.08216327 -0.13031316
0.11360729 0.1518764 -0.20439853 -0.037108444 0.1861945 0.16533978 -0.060524743 0.1792972
-0.06997081 0.14652093 0.07834036 0.08270372 -0.0017326081 -0.15268357 0.09817922 -0.07846426
0.081013575 -0.070924096 0.08890688 -0.054042146 -0.16422187 -0.025002012 -0.108859114 0.058064938
-0.09048299 -0.042436413 0.119441986 -0.13594025 -0.04409322 0.106972 0.09389229 -0.16885561
0.007420188 0.15143465 -0.11492971 -0.076135874 -0.0088018 0.15573339 0.00254029 -0.13613282
-0.17516153 0.06866863 -0.09706568 0.16483338 -0.06891918 -0.10464672 0.070392296 -0.17632154
-0.08012341 0.08674116 -0.11092698 -0.0057183593 0.11095842 0.1453908 0.090911135 -0.101353176
-0.10154219 0.08834479 -0.12934054 0.078453645 0.004587789 -0.007924609 0.19224203 0.10140068
-0.031192021 0.050117522 -0.051275827 -0.13779049 0.0140234055 -0.13494928 0.06101372 -0.10041952
-0.116102986 0.14260142 0.10999793 -0.009591657 0.15428084 0.08931629 0.15503998 0.087700374
0.09715341 0.06388882 0.19477576 -0.04870495 0.028674213 0.090528786 0.06871715 -0.16665864
-0.20097846 -0.01758217 -0.015821524 -0.08227311 -0.05347561 0.060029916 0.07359422 -0.076173395
0.009405686 0.14944768 0.1306716 -0.06552729 0.12898125 -0.036601763 0.19444235 0.08499821
-0.025888829 0.1238216 0.012423508 0.069292925 -0.06844968 0.10853125 -0.038395423 -0.042666417
0.15735702 0.0042885984 -0.19368862 -0.1682702 0.11554747 0.118365034 0.13270973 -0.12521905
-0.12736353 -0.08206226 0.04678338 -0.005881533 -0.18562374 -0.14323905 0.14909807 -0.0066404385
0.1223035 -0.007816556 -0.054205403 0.07547631 -0.12937596 0.21056686 0.13474447 -0.047212183

parametrizer.linear1.bias f4 [10]
00000000: c38c a0bd 4abc 3f3c a8a2 41be 17da 023e
00000010: 7692 3ebd 47df da3d b4b7 9abd 0f26 11be
00000020: 0fef 88bd a709 fabd
-0.07839348 0.011702606 -0.18909705 0.12778507 -0.046526395 0.10687118 -0.0755457 -0.14174674
-0.06686222 -0.12208872

parametrizer.linear2.weight f4 [10, 10]
00000000: 62a6 a5be 30be fa3d 31ff a13e eee3 053c
00000010: 07ff 143e cc9d 45be 7be3 a93e aa2e 65be
00000020: 041a 53be 983d 06bd 1330 ffbd 581d 043e
00000030: 0201 ef3c 1763 433e 3421 0e3e 2c1f 1eba
00000040: 5f9c f43d 31a9 183d bb85 f6bd c9ef b5bd
00000050: 6e7f 9ebe a150 51be 3854 ae3d faf4 99be
00000060: 0507 483e f188 6c3e df2a 4dbe b735 3fbe
00000070: c312 88be 9dbb edbd 2a94 463e 140b 46bb
00000080: d6a6 15be 7fb7 5bbe 836a a5be f66a 893c
00000090: 23ec 8f3d 777c 19bd e9bb a43d c3ca 833e
000000a0: bd7d 1fbe 0c56 0abd ae14 2fbe 67c1 abbd
000000b0: a5ae 093d 7a9f 05bd e3bf 063d 81e7 e13d
000000c0: ef64 19be 6599 13be ff66 78be 7d6e 803e
000000d0: ff84 be3d 1ba2 fbbd ba7d e03d 0fe9 4b3e
000000e0: 7702 e1bd 3e97 ab3c 8c86 a7be c686 3cbe
000000f0: b238 42bd 7ec1 933d b53d 83bd 726c c63d
00000100: 78e6 2fbe d18b 563e 24e3 78be 8db8 993e
00000110: 6639 8b3e 0a0d 583e f4e0 08be f3aa 3f3e
00000120: df17 aebe 4729 9d3e b061 983e 8d4e 8bbe
00000130: 92c0 61be c0fa 15bc 40d3 12be be6d 3dbd
00000140: b782 923b 105f 633e dd26 83be 2635 5bbe
00000150: a52f 493e e033 373d 2ccf 23be 4db1 403d
00000160: c80f 0a3d 3f5c 00be a2e3 563e 7e85 57be
00000170: aed6 b43a 6e18 803e d05b a93d deaa 5b3d
00000180: 24c7 1fbe 7f9e ba3e 871d 883e 9ea6 01be
-0.32353503 0.12243307 0.31640008 0.008172018 0.1455041 -0.19298476 0.33181366 -0.22381082
-0.20615393 -0.032773584 -0.12460341 0.12901819 0.029175285 0.19080769 0.13879853 -0.00060318667
0.11943888 0.03727073 -0.12037226 -0.08883626 -0.30956596 -0.20440914 0.08512157 -0.30069715
0.19533928 0.23099114 -0.20035885 -0.18672834 -0.26576814 -0.1160805 0.19392458 -0.0030219005
-0.14614424 -0.21456717 -0.32307824 0.016774636 0.070274614 -0.037472215 0.080436535 0.25740632
-0.15575309 -0.033773467 -0.17097732 -0.08386498 0.03361382 -0.03262279 0.03289784 0.11030484
-0.1497991 -0.14413984 -0.2425804 0.25084296 0.09302711 -0.122867785 0.109614804 0.19913124
-0.10986798 0.020946141 -0.3271984 -0.18410787 -0.04741735 0.0721464 -0.06408254 0.09688653
-0.1717776 0.20951773 -0.24305397 0.30023614 0.2719223 0.21098724 -0.13367063 0.18717556
-0.34002587 0.30695555 0.2976203 -0.27208367 -0.22046116 -0.009154022 -0.14338398 -0.046247236
0.004471149 0.22204232 -0.25615588 -0.21406993 0.19647081 0.044727206 -0.15996999 0.047044087
0.033706456 -0.12535189 0.20985273 -0.21047017 0.001379689 0.25018638 0.08269465 0.05362975
-0.1560331 0.36449048 0.26585028 -0.12661216

parametrizer.linear2.bias f4 [10]
00000000: 878e f33b 59ad 32be ec3b 02be 63ae 50be
00000010: a763 b4be dcf0 723d d301 9abe f616 2d3e
00000020: 29e7 78be 7f59 92be
0.007432762 -0.1744894 -0.12718171 -0.20379023 -0.3523228 0.059311733 -0.30079517 0.1690329
-0.2430693 -0.28583905

parametrizer.linear3.weight f4 [5, 10]
00000000: 6afe 803e ea8f b5bd a979 833e e865 5a3e
00000010: bbfe 03bd d560 443e 027b 26be bc2f 2b3d
00000020: 5770 9f3e bc7b 5d3e bac9 82be 6541 30bd
00000030: ee24 553e 1570 9c3e 19b6 56be 047b 213e
00000040: 8331 1fbe 7db3 48bd 10a1 823e e51d a13b
00000050: d24b 84be 88dd 8ebe fd9d 563e e0d1 92be
00000060: 0517 c43d 56be 4dbd 69d2 89be 0add 7b3e
00000070: 63ce 4b3e eed2 a1be 4619 55be 98cb 0f3d
00000080: 0ee8 f4bd ad89 c63d 2358 b23e 4b6a bdbe
00000090: d005 553d d3a6 4fbe 9e0a 54be 35e7 35bd
000000a0: 9591 933d a19b 8a3e e0ef 8d3e f464 d2bd
000000b0: 4c68 b53e 429d 12be 8da6 b43e 39e9 aebd
000000c0: d9c0 85be 47a4 30bc
0.25194103 -0.0886534 0.25678757 0.21327937 -0.03222535 0.19177563 -0.16257861 0.04179357
0.31140396 0.21629232 -0.2554453 -0.043031115 0.20814869 0.30554262 -0.20967902 0.15769583
-0.15546231 -0.0489993 0.25513506 0.004916894 -0.25839096 -0.2790339 0.20958705 -0.28675747
0.09574703 -0.050230347 -0.26918343 0.24596038 0.19902949 -0.3160624 -0.20810422 0.03510627
-0.119583234 0.09694228 0.34832868 -0.36995158 0.052007496 -0.20278482 -0.20707175 -0.04440995
0.07205502 0.2707186 0.27722073 -0.102731615 0.35431135 -0.14317802 0.35283318 -0.085405774
-0.26123694 -0.010781354

parametrizer.linear3.bias f4 [5]
00000000: a91e adbe f208 e2bd 02f0 82be bd15 883e
00000010: c659 a7bd
-0.33812454 -0.110368624 -0.25573736 0.26579085 -0.0817142

parametrizer.linear4.weight f4 [31, 5]
00000000: 10be 5cbe a518 2f3e dd98 353e 502e 95bb
00000010: a76a bd3c 2695 8cbe 86a8 723d fa4c 7dbe
00000020: 5b76 0f3d d7c0 763e 0bab f9be 1bd2 f4be
00000030: aedc cdbe e7ae c7be 4ba2 80bc 605b 78be
00000040: f38a 8cbe ec21 4abe 65bf 423e c4d7 8abe
00000050: a33b 423d d4a0 ab3e b9f9 873e dba2 3abe
00000060: e871 e6be 7fbe 893e 12de 27be a8ca 193e
00000070: e748 753e 5881 e8be 9721 7d3e 981b a03e
00000080: 3ad9 423b d87c c2be 6a41 4ebe 442b 9abe
00000090: d79c 20be b5d3 7dbe 76c3 a2be 9f50 af3e
000000a0: 67e4 f9be fc21 1abe ae71 663e dc2f d73e
000000b0: 09ae 0d3e 5aa1 4c3e d79a ed3d 434f 673e
000000c0: 39b6 8e3e 9f0e b4be 95e8 c23e 89ad 853e
000000d0: 3dc3 9d3c 5b67 c43e 2a4d a93e 163a ca3d
000000e0: ed3b 6abd feb4 22be a6f1 233e ca64 97be
000000f0: cf8a 32be 209c ddbe 8c25 983d 5be6 44be
00000100: 9d75 dfbe dfe8 5d3e f0f5 0d3e da5a 723e
00000110: cd42 7e3e e3c8 e5bc 8fd5 dbbe 3003 9cbe
00000120: 93bc 40be 6053 553e 3364 af3e 92ab 32be
00000130: b8a4 ca3e aa4e 18be 7108 f13e ab36 19be
00000140: fa12 23bc 2ac4 25be 94ac e53b 37b8 92bc
00000150: 6569 77be 75d9 2ebe 23b3 47be da1f d33e
00000160: 8229 233e 9585 b5be 8773 8a3d 8481 9abe
00000170: c9b0 2cbe 8c67 cabb 277e b8bb 484f be3e
00000180: 1a7e 1a3e f7f6 0dbe f72c 84be fb3e 9b3b
00000190: f476 f3be 7084 21bd af19 20be 91e1 dd3e
000001a0: c53a 2dbd 3756 6cbe 6596 c23e b925 c7be
000001b0: 7bd2 14bd f562 acbe 7985 5b3e 65d4 bcbe
000001c0: 3d6c 873e ce2c bfbc 64cc a9be f503 17be
000001d0: e105 163e 00b4 2b3e 08d8 93be 409f 403c
000001e0: affb adbe 8312 aabc 84cb fabd ae4b 653e
000001f0: a4bd 98bd 3e81 5a3e 9cb5 9dbe ee73 3b3d
00000200: 8fb1 9ebc 7379 b53e 328d b53e 5143 91be
00000210: d12c 923e 8fd5 cdbd c7c9 c1be b4fe efbe
00000220: b7a5 15be 1c51 d0be ff86 cabe 96db f03d
00000230: 36f3 d03d 8b94 953e 020e cc3c 3c27 87be
00000240: bfbe 413d 5e14 8bbe 4f87 16be a617 8e3e
00000250: 7679 9dbe 803a ac3e af7f 253e fb09 80be
00000260: 42ec c83c 8eb3 41bd f88a a33d
-0.21556878 0.17099245 0.17734094 -0.00455264 0.023122145 -0.2745754 0.059242748 -0.24736395
0.035024982 0.24097 -0.48763308 -0.47816548 -0.40207428 -0.39000627 -0.015702387 -0.24253607
-0.2744976 -0.19739503 0.19018324 -0.2711774 0.047420155 0.3352114 0.2655771 -0.18226187
-0.4500878 0.2690315 -0.16393307 0.15018713 0.23953591 -0.4541118 0.24719845 0.31271052
0.0029731528 -0.37985873 -0.20142141 -0.30111134 -0.1568483 -0.24787791 -0.3178975 0.34241197
-0.4880707 -0.15052027 0.22504303 0.420287 0.1383592 0.19983426 0.11601799 0.2258883
0.278734 -0.35167405 0.3806807 0.2610896 0.019258136 0.38360104 0.33066684 0.0987436
-0.057186056 -0.15889356 0.1601015 -0.29569083 -0.17435764 -0.43283176 0.074290365 -0.19228499
-0.4364442 0.21670865 0.13863349 0.2366747 0.2483017 -0.028049892 -0.4293637 -0.30471182
-0.18821935 0.20832586 0.34256133 -0.17448261 0.39578795 -0.14873758 0.47076753 -0.1496226
-0.009953255 -0.16188112 0.0070090983 -0.017910106 -0.24161299 -0.17075141 -0.19501929 0.41235238
0.15933803 -0.35453478 0.06760316 -0.30176938 -0.16864313 -0.0061768945 -0.005630273 0.37169862
0.15087166 -0.13863741 -0.25815555 0.0047377325 -0.47551692 -0.039432943 -0.15634798 0.43336156
-0.042292375 -0.23079763 0.38005367 -0.38895968 -0.036333542 -0.33669248 0.21437635 -0.36880794
0.26449767 -0.023336794 -0.3316375 -0.14747603 0.1465068 0.16767883 -0.28875756 0.011756718
-0.33981082 -0.02076078 -0.12245849 0.22392151 -0.07458046 0.21338364 -0.3080262 0.045764856
-0.019371776 0.3544422 0.35459286 -0.2837167 0.28549817 -0.10050499 -0.37849256 -0.4687401
-0.14613996 -0.40686882 -0.3955612 0.11760633 0.10202639 0.29214892 0.024909023 -0.2639712
0.04730105 -0.27163976 -0.14700054 0.27752417 -0.3075673 0.33638382 0.16161989 -0.25007614
0.024526719 -0.047290377 0.079854906

parametrizer.linear4.bias f4 [31]
00000000: 9c3e e73e aa9c dd3e 2856 dabc e04b 5a3e
00000010: 9dda 51be 4652 22be df5c ba3e 7251 bdbd
00000020: 0728 933e 746c b83e 2d96 863e af38 eb3d
00000030: 32e0 cc3e 4fef 7bbe 3f3b 7bbe fb74 d33c
00000040: 5664 003d 526a c8be 14ce 313e cba0 b9be
00000050: 3be5 f63e 4ea4 633b 9049 8c3d 63d7 933e
00000060: 1ffc af3d 405d c9be c3fa aabe 3f5a 253e
00000070: 18cf babe 7901 e23d ceab b0be
0.45164955 0.43283588 -0.02665241 0.21318007 -0.2049355 -0.15851697 0.3639898 -0.0924405
0.28741476 0.36020243 0.2628645 0.11485421 0.40014797 -0.24603008 -0.2453432 0.025812617
0.031345688 -0.39143616 0.17363769 -0.36255488 0.48221764 0.0034735384 0.068499684 0.28875265
0.0859301 -0.39328957 -0.3339444 0.16147707 -0.36486125 0.11035437 -0.34506077

exp_avg f4 [10, 30]
00000000: 6b02 e2ba 4571 183b 701c cdba f04e f4ba
00000010: 89b4 8c3b 27cc 6d3b f0f2 833a 8efd ae39
00000020: 8014 2d3b c91c 963b 2a1b c8ba 7424 4b3b
00000030: e3e6 c4ba 39fd 01bb 807e 0dbb d2f6 3c3b
00000040: 9205 693a eaa6 0f3a 88cd c1ba d78f e63a
00000050: bea6 a9b8 9dcf 7b3b e4f7 03b9 ff34 03ba
00000060: be21 af3b d6c5 fa3b 7f7c b23b 581f 7b3b
00000070: 1838 b23b c5c7 153c 3799 483a 3e31 2bbb
00000080: 856e 353a 3947 b03a 3049 e537 43e7 f639
00000090: e451 5137 72bd b0b9 1f06 6ebb ae65 0f3b
000000a0: 9a8d f93a fc92 01ba 766e 003b 17e7 123b
000000b0: 6c24 edb8 af64 e03a 7225 413b 833e 123b
000000c0: 1c03 48ba d89c 693b 6830 e039 5f8b 20bb
000000d0: edf3 4c39 d6a5 793a bdb2 b7ba fbee f2ba
000000e0: 7748 bfba 91ec 9cba 8cb2 7abb 93b4 b838
000000f0: 192a 8eba f3e4 ddb9 5ca2 75ba 3323 92ba
00000100: f22b 1eb9 e3a8 803a ff78 183a 1a06 26b9
00000110: 88f1 043b 4ae1 a43a ad56 ab3a 242a a039
00000120: f849 673a d526 943a e884 cdba 0c97 deb9
00000130: 304b d0ba 44a1 42bb 1ee6 e439 9c4d 56b9
00000140: 9f03 04b8 e2ea ad3a 8fde 5439 5c47 08b5
00000150: 6a58 6a3a cbd5 323b 678b c33a 35ba 37b8
00000160: 0b37 4e3b 5b8c 603b 11e4 9039 20f3 74bb
00000170: 6aba 6139 0254 e539 c87e 0e3a 1ebe 9a3a
00000180: 9ca7 5a3a 782a cd39 5beb aa3b b1a0 093b
00000190: 1d9c 383b e582 8dbb 8ad8 1a3b cc81 273b
000001a0: efc3 a5ba 8208 9c39 01ce 81ba 1881 1abb
000001b0: 1fcd 0bba 7449 323a 8f1a 033b b4d6 bfba
000001c0: 168c 053b 3e16 f73a 13c3 d039 aa72 4f3b
000001d0: 9df5 163b 4c02 813a bc4b f03b ca0e b83b
000001e0: 8f3e 223b 23c4 d4bb 8ff8 043b b36a 523b
000001f0: 9f83 24bb 0776 98bb dbd7 30bb 67aa dbba
00000200: a38e 21bc a056 32bb da22 173b eba0 04ba
00000210: 3945 1f3b 55e7 253b 2ea5 b53b cca2 63ba
00000220: 6a2b 5a3b 35e7 653b fefa 6539 2919 5d3b
00000230: 2690 4239 7b81 06bc 9ccf 13ba a4c7 8d3a
00000240: 9316 b2bb 5857 46bc 5cbc 0ebc bf7b c1bb
00000250: 92bf 57bc eb07 2fbc 5dcf 93ba 2fec b33b
00000260: c3ce 73ba 060f ceba ee91 e2ba 9128 01ba
00000270: 9a00 5438 f060 0bba 5beb b938 2a21 07bb
00000280: 6658 dbba 90ac a13a 290e f9ba 2179 caba
00000290: 97cc 1239 705b bfba 56bc e8ba 1856 13bb
000002a0: 13bb 683a cc32 14bb 5a60 b0ba 479c 8b3b
000002b0: cca1 85ba d4b6 d1ba 299d a2b9 7392 cb39
000002c0: e4ef 3e39 bec3 f8b9 6d1d df39 7c9c bfba
000002d0: 3087 b2ba 299f 213b 7cfa 99ba 5458 dfba
000002e0: f258 d83a 535c 433b cfff f03a 9154 253a
000002f0: c813 573b b2c2 413b de78 9fb9 b7f9 143b
00000300: 5f4d 38ba b99f 4eba c229 b7ba d95f 1c3b
00000310: df10 5db8 c21b e2ba da1f 32b9 f930 743a
00000320: 25fb bb38 3b2b a33b 6e29 6339 9f9d d0b9
00000330: 9f81 663b 09d0 073c 53a1 c13b 55e7 333b
00000340: ee3e dd3b e91d 203c cd3b 5eba a30a ebb8
00000350: f0f5 39ba 6c63 b7ba fa6c 633a 9e23 dd3a
00000360: 5514 823a 7933 353a 8720 943b c833 813a
00000370: 745e 04ba 4eb1 2cba c15c 90ba b628 79ba
00000380: b0e5 cebb f964 f4ba 94c5 77bb 463d afbb
00000390: 1a13 20b9 a50d 42bb 0cde 513a a202 133b
000003a0: 9276 873a 1820 9638 e852 053b fa57 d03b
000003b0: e5e5 933b 5c6f 2b3b c42c 0c3c e6ff e33b
000003c0: 102d 8cba 5abd 163b 3740 8cba 73e2 9fba
000003d0: d0b2 55ba 5fe3 9039 2e45 7fba 6db9 a4ba
000003e0: 7d32 493b ff6e 47b9 593c 4eb7 2efb 103b
000003f0: 1fc3 a9b9 279e 38b9 cfb8 55bb bec8 23ba
-0.0017243152 0.0023260873 -0.0015648734 -0.0018639248 0.0042939824 0.0036285014 0.0010066908 0.0003337678
0.0026409924 0.004581068 -0.0015266885 0.003099707 -0.0015022423 -0.001983477 -0.0021590292 0.002883364
0.00088890747 0.0005479889 -0.0014785985 0.0017590475 -8.089606e-05 0.0038423308 -0.0001258548 -0.00050051505
0.0053445986 0.0076529784 0.00544697 0.0038318243 0.005438816 0.009141867 0.00076522253 -0.002612188
0.0006921071 0.001344896 2.7333008e-05 0.0004709308 1.2476437e-05 -0.00033710484 -0.0036319566 0.0021880674
0.0019039393 -0.0004942862 0.001959709 0.0022415572 -0.00011307825 0.001711985 0.0029471782 0.0022315092
-0.0007629858 0.0035646465 0.00042760675 -0.0024497134 0.00019545825 0.00095233077 -0.001401506 -0.0018534356
-0.001459374 -0.0011972358 -0.0038253395 8.807438e-05 -0.0010846286 -0.00042322985 -0.0009370202 -0.0011149406
-0.00015084425 0.0009815957 0.00058163697 -0.00015833267 0.0020285565 0.0012579348 0.0013072096 0.00030548975
0.0008822973 0.0011303077 -0.0015679868 -0.00042455678 -0.0015891548 -0.0029698173 0.00043659 -0.00020437542
-3.1474625e-05 0.0013268853 0.00020300805 -5.076779e-07 0.00089395663 0.0027288075 0.0014918864 -4.380402e-05
0.0031465914 0.0034263346 0.00027635743 -0.003737636 0.00021527117 0.00043740874 0.0005435762 0.0011805927
0.0008341016 0.0003913229 0.005216045 0.002100032 0.0028169223 -0.0043185824 0.0023627602 0.0025559543
-0.0012646894 0.00029760977 -0.0009903313 -0.002357548 -0.00053329946 0.00068011065 0.0020004844 -0.001463613
0.0020377687 0.0018851233 0.00039818193 0.0031654038 0.002303458 0.0009842603 0.007333247 0.0056169974
0.0024756526 -0.006493108 0.0020289754 0.0032107055 -0.0025102866 -0.004652742 -0.0026984129 -0.0016759158
-0.009860667 -0.0027212277 0.0023061545 -0.0005059379 0.0024302735 0.0025314887 0.0055433726 -0.00086836214
0.0033290037 0.0035080437 0.00021932644 0.003373692 0.00018554981 -0.0082095815 -0.0005638541 0.0010816944
-0.00543482 -0.012105785 -0.008711901 -0.0059046443 -0.0131682325 -0.01068304 -0.0011277009 0.0054908018
-0.0009300524 -0.001572103 -0.0017285922 -0.00049270043 5.05453e-05 -0.0005316874 8.865326e-05 -0.0020619133
-0.0016734719 0.0012334753 -0.0019001412 -0.0015447476 0.0001399986 -0.0014599394 -0.0017756324 -0.0022481736
0.0008877974 -0.0022613285 -0.0013456449 0.004260573 -0.0010195314 -0.0015999922 -0.0003101614 0.0003882829
0.00018209178 -0.00047448085 0.00042555798 -0.001461878 -0.0013620611 0.0024661517 -0.0011747624 -0.0017039874
0.0016506 0.0029809668 0.0018386784 0.0006306852 0.0032818187 0.002956551 -0.00030416896 0.002273185
-0.0007030572 -0.0007882077 -0.0013974237 0.002386084 -5.270622e-05 -0.0017250704 -0.00016987268 0.0009315159
8.963634e-05 0.0049795187 0.00021663841 -0.00039790288 0.0035172475 0.008289346 0.005909124 0.0027451117
0.0067518866 0.009772756 -0.0008477539 -0.000112076545 -0.00070938375 -0.0013991422 0.00086756016 0.0016871577
0.0009924272 0.0006912272 0.004520479 0.0009857351 -0.0005049475 -0.00065877 -0.0011013971 -0.00095046626
-0.006314002 -0.0018645815 -0.0037806975 -0.0053478805 -0.00015265905 -0.0029610184 0.0008005805 0.002243199
0.0010335019 7.158535e-05 0.0020343605 0.006358144 0.0045134895 0.0026158905 0.008555595 0.0069579957
-0.0010694582 0.0023001046 -0.001070029 -0.0012198224 -0.00081519503 0.00027635225 -0.00097377866 -0.0012567468
0.003070026 -0.00019019468 -1.2292608e-05 0.002212237 -0.00032379568 -0.00017606524 -0.0032611375 -0.00062478695

exp_avg_sq f4 [10, 30]
00000000: 9806 fb35 fb88 0237 93ba db35 fa09 e735
00000010: 56ad 4b37 04dc 3537 d9cb 8b36 5a00 3e36
00000020: 930a e736 e352 7237 581b 9635 5265 5537
00000030: 4791 9b35 6e87 8835 2ab9 ad36 edbf d536
00000040: bdcc 2c36 3747 3c36 f8a6 ab36 8f1b 6b36
00000050: 4c5c 7835 7518 4d37 9bb8 8b35 c336 3635
00000060: 8d2c 8337 caae 0d38 9920 aa37 274a 2037
00000070: 7837 9737 77b9 4238 ea27 1e35 693c 9936
00000080: 5568 0635 2862 1f35 2ba5 5035 c398 2a35
00000090: a1b3 4135 b1ad 1e35 d589 3736 94ae 8a35
000000a0: f020 0035 893d 9035 0079 0735 f1c7 2c35
000000b0: 1b4b 2d35 5338 4a35 3c9b 7d35 78cb e135
000000c0: 2a23 b435 3dbc b035 04c0 e734 f362 7536
000000d0: 45b4 b334 c37b f634 de07 2735 c920 c635
000000e0: 196f d935 2a8f 1535 dcf7 7836 d48d a435
000000f0: fa90 e335 87f7 5136 2b73 c335 b15a d535
00000100: fd37 3e36 e401 fc35 fc57 c435 f37f 9e35
00000110: 38bf 0236 0d56 7336 8ad2 0735 ee2a bf35
00000120: a18b 2035 dbe6 1a35 8c19 9835 8143 0236
00000130: 1c54 e135 f2ee 4136 f4a0 9e35 febc 7e35
00000140: b000 1f35 3ec5 c236 307d f534 1450 2b35
00000150: 9b40 b036 7490 0a37 0a52 cc36 680a 0a36
00000160: bda5 cf36 c814 4e37 2922 ee36 a9d6 1538
00000170: 19c3 cf36 017d fc36 4bc1 0b38 8533 9937
00000180: dda7 3637 c95a 3137 6898 cc37 8f7e 0138
00000190: e423 7b36 eb57 5937 33e8 6136 4ca6 5d36
000001a0: d715 cc36 bf04 2f37 1a13 0237 a919 8237
000001b0: d72b e337 0c13 e536 c4e6 8936 579b f937
000001c0: 878d 5236 358b a436 5515 1838 bb09 1c38
000001d0: cd2c bc37 a350 8737 b7fa 7a38 7e89 6238
000001e0: 58a0 7d36 bbb3 b638 c780 3236 5f7f 9a36
000001f0: 71e5 e337 1a2f 3438 e8de cb37 3586 5b37
00000200: 1032 8338 1c25 4338 402e 4136 a15a 0d37
00000210: 18e5 7636 e463 1336 a333 ec36 419f 9f37
00000220: 5e30 c636 5466 2137 9aec ca37 cfab 3337
00000230: 0040 ad35 1baf b438 2977 1736 c4a6 b235
00000240: fd1c 2d38 cfbf 0439 c169 af38 03c5 e637
00000250: bb21 f438 69b2 1339 8ace 4235 bcd3 bb36
00000260: f555 4035 6227 4a35 25d9 1836 cbd1 a335
00000270: dcad 5535 2a7c 1d35 83b2 ff35 4692 e435
00000280: 39a2 b135 56e9 a535 34da c135 3d11 9235
00000290: 812b de36 25ae 4036 8da2 3136 7cbd 6d36
000002a0: 2a87 ac35 0528 e635 f856 1335 0d3e 5236
000002b0: 3685 1c35 bc7b 2235 f66f 1a36 464d eb35
000002c0: 4c70 8235 2b53 9135 79cb 3436 9a77 4736
000002d0: a7c3 0136 512c 5e37 ec65 c635 9ef0 1736
000002e0: 729a 3837 22ee 2437 4135 8436 2732 1a36
000002f0: fef8 1937 55a7 8d37 3679 4635 c86c 6c36
00000300: 6cb3 6835 df81 8f35 a7de a235 abf4 be36
00000310: b7a8 ef35 99c5 1936 d7d5 f636 eb1b 7436
00000320: a545 2a35 8878 9037 cda2 0f35 49ec 8435
00000330: c338 9437 0643 1c38 e951 aa37 f616 d936
00000340: bd92 f937 240c 5738 740c c235 2e9e 3637
00000350: 4d63 9f35 c482 d435 5e28 dd36 c103 a036
00000360: 55c7 2536 0791 0c36 a872 ef36 232e 1337
00000370: 432a 5935 7981 fc35 c23d 6735 f32b 5135
00000380: 5dbd 3c37 2e7e 8c36 8231 7136 5dc6 d636
00000390: 0264 b236 ee73 4436 5913 0c35 63f3 1937
000003a0: ef37 d634 feef 3435 84a1 0a37 f6d2 7537
000003b0: 0893 1d37 4210 9036 35f2 9637 ca8e bb37
000003c0: bd17 fc35 1297 c337 a116 bf35 6dca 1f36
000003d0: 2b19 2737 9e52 4e37 ba3a b436 4db2 6036
000003e0: c7f0 6237 687c 9d37 fec3 8335 b5f1 6a36
000003f0: 470e 9335 9375 9135 1823 e136 b892 fe36
1.8702876e-06 7.780497e-06 1.6371072e-06 1.7213745e-06 1.2140101e-05 1.0839667e-05 4.166254e-06 2.831241e-06
6.8855675e-06 1.4443623e-05 1.1183829e-06 1.271938e-05 1.1590681e-06 1.0172205e-06 5.1773577e-06 6.3702378e-06
2.574917e-06 2.8055636e-06 5.115635e-06 3.503377e-06 9.252151e-07 1.22246465e-05 1.0410034e-06 6.787997e-07
1.5637163e-05 3.3779805e-05 2.0280759e-05 9.554008e-06 1.8026432e-05 4.6425932e-05 5.891767e-07 4.566788e-06
5.0070713e-07 5.937495e-07 7.772639e-07 6.355223e-07 7.21595e-07 5.911234e-07 2.7349354e-06 1.033261e-06
4.7731646e-07 1.0746745e-06 5.04675e-07 6.4365946e-07 6.4556815e-07 7.5332827e-07 9.447574e-07 1.6823024e-06
1.3421279e-06 1.3167806e-06 4.3166813e-07 3.656544e-06 3.3472512e-07 4.591112e-07 6.2223796e-07 1.4761691e-06
1.6200094e-06 5.5715157e-07 3.7099153e-06 1.226023e-06 1.6955012e-06 3.1287507e-06 1.456215e-06 1.5896131e-06
2.8344796e-06 1.8776013e-06 1.4628745e-06 1.1809155e-06 1.9482814e-06 3.625991e-06 5.0597794e-07 1.4243103e-06
5.980783e-07 5.770541e-07 1.1332318e-06 1.9410802e-06 1.6788285e-06 2.8898326e-06 1.1818761e-06 9.4897393e-07
5.9233116e-07 5.8046126e-06 4.5725892e-07 6.3818993e-07 5.25273e-06 8.259074e-06 6.0892244e-06 2.056966e-06
6.188375e-06 1.2283395e-05 7.0969295e-06 3.5724286e-05 6.191793e-06 7.5247376e-06 3.33202e-05 1.8263012e-05
1.0887129e-05 1.057116e-05 2.4389665e-05 3.0873864e-05 3.7422806e-06 1.2954678e-05 3.366277e-06 3.3028364e-06
6.0822163e-06 1.0431918e-05 7.753051e-06 1.5509157e-05 2.7080923e-05 6.826949e-06 4.109783e-06 2.9755449e-05
3.1374818e-06 4.9037867e-06 3.625949e-05 3.720236e-05 2.2432208e-05 1.6130803e-05 5.983814e-05 5.401065e-05
3.779327e-06 8.711914e-05 2.6599025e-06 4.6043856e-06 2.716735e-05 4.295921e-05 2.4303285e-05 1.3084665e-05
6.255892e-05 4.6526184e-05 2.8786162e-06 8.425356e-06 3.6790207e-06 2.196285e-06 7.0393594e-06 1.9028435e-05
5.9064905e-06 9.620173e-06 2.4190453e-05 1.0709234e-05 1.2908131e-06 8.615685e-05 2.2570114e-06 1.3310569e-06
4.127341e-05 0.00012659955 8.3643485e-05 2.7509877e-05 0.000116411094 0.00014085475 7.2571186e-07 5.5976834e-06
7.165066e-07 7.5308174e-07 2.277616e-06 1.2205504e-06 7.960168e-07 5.866774e-07 1.9050934e-06 1.7029895e-06
1.3234741e-06 1.2361368e-06 1.4443126e-06 1.0882865e-06 6.62118e-06 2.8711595e-06 2.6469672e-06 3.5426046e-06
1.2854337e-06 1.7147983e-06 5.4888324e-07 3.1328557e-06 5.8308376e-07 6.052976e-07 2.3012958e-06 1.7531354e-06
9.718437e-07 1.0827547e-06 2.6940527e-06 2.9722928e-06 1.9336383e-06 1.3242549e-05 1.4781813e-06 2.264081e-06
1.1003214e-05 9.830606e-06 3.940106e-06 2.297698e-06 9.177484e-06 1.688643e-05 7.3937133e-07 3.523006e-06
8.668783e-07 1.0692128e-06 1.2134741e-06 5.6909244e-06 1.785599e-06 2.2913794e-06 7.3562655e-06 3.6375084e-06
6.343128e-07 1.7222264e-05 5.350856e-07 9.903534e-07 1.7669407e-05 3.725572e-05 2.0303722e-05 6.469777e-06
2.9751443e-05 5.12713e-05 1.4457751e-06 1.0884874e-05 1.1875323e-06 1.5833289e-06 6.5910126e-06 4.7688086e-06
2.4702942e-06 2.0946043e-06 7.136103e-06 8.772625e-06 8.09003e-07 1.8813145e-06 8.6144075e-07 7.792252e-07
1.1249763e-05 4.1870144e-06 3.5940616e-06 6.4007895e-06 5.316456e-06 2.9273756e-06 5.218222e-07 9.1761785e-06
3.9901303e-07 6.740446e-07 8.263047e-06 1.4652256e-05 9.392163e-06 4.293427e-06 1.799418e-05 2.2358628e-05
1.8782372e-06 2.3316159e-05 1.4237195e-06 2.3810674e-06 9.959836e-06 1.2297793e-05 5.3712547e-06 3.3482386e-06
1.352671e-05 1.877379e-05 9.817302e-07 3.500941e-06 1.0956509e-06 1.083756e-06 6.709608e-06 7.58687e-06

exp_avg f4 [10]
00000000: 07b7 1d3c 2119 8bbc 1314 cb39 c729 e6bb
00000010: 1f21 cdbc 47a1 553c 9a99 e73b 9c22 233c
00000020: 0125 313c 363d 333c
0.009626157 -0.016979756 0.00038734134 -0.007024023 -0.025040207 0.01303894 0.0070678713 0.009956982
0.010812045 0.010939887

exp_avg_sq f4 [10]
00000000: 0311 ba37 206b e037 693c e736 a635 5838
00000010: 5588 7839 d7f1 1a37 1c1e fc37 7543 6437
00000020: 794d 2b38 563c ae37
2.218085e-05 2.6752765e-05 6.891369e-06 5.1548377e-05 0.0002370191 9.235423e-06 3.0054762e-05 1.3605565e-05
4.084173e-05 2.0770512e-05

exp_avg f4 [10, 10]
00000000: 95ab 103b 4e62 d5ba 75d8 82bb 09ac 843a
00000010: 5398 ad39 8d58 ce3a 2705 88ba cf33 d6ba
00000020: 8e9d 5f3b 3468 f5ba b19e 12bc ca3b 0c3c
00000030: d9e0 d6bb 613e b03b 483a a238 fc2d 31ba
00000040: 18bb cebb 41ec a0bb 29df a8bb 5c3e 36bc
00000050: d9a7 11bb fda3 13ba f43d 06bb c4d4 d137
00000060: 6025 293a c3a2 013b 866a a8b9 bb01 79bb
00000070: 929c e73a bfa9 22bb 1b3a 2abc a57a 033c
00000080: 0c00 30bc 0031 83ba f7ba ad3b d9e9 c9ba
00000090: e596 15bc a260 70bc d6fe 47bb 903b 4bbc
000000a0: e7a3 08bc 45fb 113c a18f 9bbb f36b d33b
000000b0: 51c2 8538 d333 a039 f632 dbbb e92b 88bb
000000c0: 66ac 16bc c5a2 1bbc bd8b 713b 8fea b2bb
000000d0: 1d78 ec3a 7bf5 9cbb a300 cd3a d5ba a3b9
000000e0: 3bc8 883b 18bd de3a 64a5 bc3b ee03 9f3b
000000f0: 55b2 75bb 90f0 9d3b f33a ecbb 46c7 0b3c
00000100: e91b 7dbb e9a7 443b a5a2 a3bb 6078 30bb
00000110: 9405 3dbb 5da5 02bc 3f39 033c 8124 f6bb
00000120: 47bb e33b 6e35 73bb c374 ebb9 4c09 adb7
00000130: cf83 e23b dd94 f93b 06a0 a83b d808 293c
00000140: e8e3 d83b c34d 1bbc 97a9 693b 0f54 cdbb
00000150: fdc2 b83a c4d0 6e3a 53a5 cc3b fd8c 153b
00000160: 1849 db3b c237 0d3c 3ce1 4dbb 03bc 2a3b
00000170: e9e0 f9bb c530 e43a 0261 fb3a a2ca 543a
00000180: c2e8 aebb 83df e4bb e380 7339 03ae fabb
0.0022074927 -0.0016279907 -0.003993089 0.0010122071 0.00033110622 0.0015742943 -0.0010377512 -0.0016342344
0.003412101 -0.0018723072 -0.008948968 0.008559177 -0.0065575656 0.00537853 7.735618e-05 -0.00067588664
-0.0063089244 -0.004910976 -0.005153556 -0.011123266 -0.002222529 -0.0005632041 -0.0020483704 2.5013818e-05
0.00064524077 0.0019780851 -0.00032122823 -0.0037995416 0.0017670563 -0.0024820415 -0.01038983 0.008024846
-0.010742199 -0.001000911 0.005301829 -0.0015404775 -0.009130214 -0.014671477 -0.0030516884 -0.0124043375
-0.008339859 0.008910005 -0.0047473465 0.0064520775 6.3781285e-05 0.0003055619 -0.0066894246 -0.004155625
-0.009196376 -0.0094992565 0.0036856972 -0.0054600905 0.0018041168 -0.0047900057 0.0015640449 -0.00031228983
0.00417426 0.001699361 0.005757021 0.0048527634 -0.0037490327 0.004819937 -0.0072091757 0.008531397
-0.0038621372 0.0030007309 -0.004993754 -0.0026927218 -0.0028842436 -0.007973996 0.008009254 -0.007511676
0.0069498154 -0.0037110704 -0.00044909687 -2.0627536e-05 0.0069126855 0.007616623 0.0051460294 0.01031705
0.0066189654 -0.009478989 0.0035654062 -0.006266124 0.0014096197 0.0009110088 0.006245294 0.0022819631
0.006692063 0.008619251 -0.0031414768 0.0026052005 -0.0076256883 0.0017409554 0.0019178691 0.0008117353
-0.0053378055 -0.0069846525 0.000232223 -0.0076501383

exp_avg_sq f4 [10, 10]
00000000: e598 5636 7e98 0636 b414 b636 1978 2736
00000010: 1b4e 2636 c09d ca36 0bd9 4d36 cd82 9236
00000020: edd8 1036 0151 5136 b733 8c37 9239 6b37
00000030: b57a 9837 7b6e 6037 d85e fd36 39ac 6237
00000040: 6f53 9036 aae8 0137 4b2f 9836 efe3 4a37
00000050: 2a0b 2e37 bdfb 8d37 ead1 2a37 ad56 a136
00000060: e73f 3d36 ec39 5237 e6a7 b036 8272 9f36
00000070: aa6b bb36 709b ac36 20f2 7337 17c2 0037
00000080: c7c5 c337 8552 0037 9f5d ed36 38f5 ab36
00000090: f8d5 b136 fcfa 9f37 032c ad36 892f 3e37
000000a0: 62d9 2137 e09a 8437 0ed9 cb36 b719 2b37
000000b0: 80a8 ac36 0007 1137 9bd7 8136 e3d1 7736
000000c0: 8737 dd36 862a e336 68a6 dc36 0c3b 8237
000000d0: 1560 a636 4e75 b736 2c43 0836 4b3d dd36
000000e0: 05db 5e36 27ad 2436 e7f4 b836 6b1d 5536
000000f0: ca8d 5037 38d4 3237 43de 8d37 30eb 6a37
00000100: 5801 ea36 1cfe 3237 20d1 9b36 f23f c236
00000110: 3875 ab36 a9f1 2937 2ea6 6537 0048 5c37
00000120: 551b 6637 e60e 3037 ee84 9836 8164 0037
00000130: cf35 a336 01fc 1337 2cce 1436 c4dc 3737
00000140: 8bed c737 2ac9 2338 30e6 d237 517f ac37
00000150: 6319 3537 f65e b937 a275 1f37 2ad0 3b37
00000160: 2b6d 5437 1eb6 9237 03d7 6236 2b54 2b36
00000170: 741d 3a37 7960 5236 ecd0 5036 19f6 a036
00000180: 3b85 6536 f54a 0137 93d5 0336 9e44 c636
3.1977481e-06 2.0056318e-06 5.426433e-06 2.4954845e-06 2.478139e-06 6.0384336e-06 3.0673716e-06 4.3663663e-06
2.158394e-06 3.1190577e-06 1.6713382e-05 1.4020496e-05 1.8176952e-05 1.3377164e-05 7.551029e-06 1.3510748e-05
4.3012474e-06 7.7431705e-06 4.5354586e-06 1.2093208e-05 1.03738075e-05 1.6925735e-05 1.0181664e-05 4.8082643e-06
2.820039e-06 1.2530461e-05 5.2647547e-06 4.7518997e-06 5.585568e-06 5.1440948e-06 1.4540303e-05 7.674585e-06
2.3337909e-05 7.648608e-06 7.0740493e-06 5.1247443e-06 5.2999203e-06 1.907115e-05 5.1609254e-06 1.133595e-05
9.646961e-06 1.5807746e-05 6.07514e-06 1.01983815e-05 5.1456154e-06 8.644303e-06 3.8695994e-06 3.6928038e-06
6.5927775e-06 6.7700776e-06 6.575883e-06 1.5524703e-05 4.958371e-06 5.467481e-06 2.0304678e-06 6.5934487e-06
3.3208064e-06 2.4538692e-06 5.5121377e-06 3.1756597e-06 1.2430779e-05 1.0659038e-05 1.6912009e-05 1.4002246e-05
6.9739e-06 1.0668791e-05 4.6437053e-06 5.7890948e-06 5.109843e-06 1.0129451e-05 1.3688155e-05 1.3129786e-05
1.3715432e-05 1.0493886e-05 4.545428e-06 7.652795e-06 4.8640427e-06 8.820557e-06 2.2173726e-06 1.0959051e-05
2.3833263e-05 3.9049577e-05 2.514114e-05 2.0563284e-05 1.07943515e-05 2.2097938e-05 9.504527e-06 1.1194536e-05
1.2661602e-05 1.7489361e-05 3.3801778e-06 2.5529978e-06 1.10933215e-05 3.1348593e-06 3.1116024e-06 4.797021e-06
3.420121e-06 7.7064515e-06 1.9644838e-06 5.908848e-06

exp_avg f4 [10]
00000000: 268a 80bb 77e9 0a3d 186f 8c3c 8660 543d
00000010: 1455 2c3d 977a d3bc 4462 d73c f672 2abd
00000020: b68c dbbc 0bb2 c53c
-0.0039227186 0.033914056 0.017142817 0.051849864 0.042073324 -0.025815291 0.026291974 -0.04161354
-0.026800495 0.024132749

exp_avg_sq f4 [10]
00000000: d3d5 5e37 fcb2 6339 ed14 f738 d25d c739
00000010: 04d4 5e39 1c71 1d39 7d0a 2d39 372b c039
00000020: 47b7 0c3a bc90 b538
1.3282016e-05 0.00021715084 0.000117817755 0.0003802614 0.00021250552 0.00015014823 0.00016502473 0.0003665329
0.00053678866 8.6577114e-05

exp_avg f4 [5, 10]
00000000: 258e 0d39 047a 21bc 82b5 1a3b 08bc 83bc
00000010: a45f 9abc fbf6 fb3b 53e9 bcbc a5d4 973c
00000020: 0a11 dabb c817 a7bc 850d 313c 4add b2bb
00000030: 2db3 6b3b 0e1c a6bc 468b 80bc 9705 7f3c
00000040: 371d d1bc e596 b33c dc14 00bc 0d3e e4bc
00000050: 9728 a4bb 53fb 973b 8869 bbba a63e c93c
00000060: 18e2 8e3c fff2 8fbc 4cf8 e03c 19b0 08bd
00000070: 2c00 d13b 0576 e03c 4dd8 523c 1570 2ebc
00000080: e42a de3a 0aba 25bd e4c5 0cbd eba7 f63c
00000090: ff83 42bd 804f 3d3d 38bf 92bc 430b 47bd
000000a0: bcd6 863a 9070 aebb 93a3 93bb d571 a0bc
000000b0: d055 98bc 553b 463c 115b a6bc 9d06 bc3c
000000c0: 2e49 4abc e175 abbc
0.00013499761 -0.009855751 0.0023606722 -0.016080871 -0.018844433 0.0076893545 -0.023060476 0.018534014
-0.0066548632 -0.020397082 0.010806446 -0.0054585086 0.0035964951 -0.02027705 -0.01569141 0.015565298
-0.025526626 0.021922538 -0.007817473 -0.02786162 -0.0050097215 0.0046381145 -0.0014298419 0.024566006
0.017441794 -0.017571924 0.027462147 -0.033371065 0.0063781943 0.027400026 0.012868953 -0.01064684
0.0016950038 -0.040460624 -0.03436841 0.030109366 -0.047489163 0.046218395 -0.017913446 -0.048594724
0.0010287385 -0.005323477 -0.0045055836 -0.01958553 -0.018595606 0.012099107 -0.020307096 0.022952372
-0.012346549 -0.020930232

exp_avg_sq f4 [5, 10]
00000000: 0a26 6a37 18f9 9f37 591d c236 42c1 7437
00000010: 1d85 2938 c8f3 b236 f6b2 1538 e945 8537
00000020: ca45 a937 bb46 d437 0648 9437 4f2c 8c36
00000030: 74b2 e536 a0a8 f837 6b73 9f37 c0ed 6837
00000040: 6fd6 3538 8d6d 1038 690a c237 8188 5f38
00000050: 53dd 0838 7716 1137 2085 5738 b715 f138
00000060: 8474 0a39 20e0 1a38 b900 3539 25ec 5939
00000070: 99a4 0639 14ff 3839 91e9 1138 165a 9a37
00000080: c1da c038 fdf3 4839 6f30 8639 f455 6b38
00000090: 10b7 9939 e34b 9539 d8ce 7639 9bff 9939
000000a0: 5c0a 9537 cf6b aa36 2b07 2137 d5e0 0238
000000b0: 2d37 0038 72c7 4c37 9a10 f737 a38a f837
000000c0: 1dd2 0c38 2f5d 0938
1.39563435e-05 1.907027e-05 5.785067e-06 1.458853e-05 4.041671e-05 5.3331933e-06 3.569104e-05 1.588739e-05
2.0178868e-05 2.5305306e-05 1.7676513e-05 4.1774833e-06 6.8455065e-06 2.9642426e-05 1.9008023e-05 1.3883633e-05
4.335347e-05 3.4434303e-05 2.313145e-05 5.3294472e-05 3.263105e-05 8.647904e-06 5.1383977e-05 0.0001149582
0.00013204111 3.6925194e-05 0.00017261774 0.00020782703 0.00012840553 0.00017642631 3.478822e-05 1.840018e-05
9.1960195e-05 0.00019164379 0.00025594558 5.6108416e-05 0.00029318826 0.00028476035 0.00023537443 0.00029372875
1.7767008e-05 5.0789454e-06 9.598017e-06 3.1203806e-05 3.0568965e-05 1.22057845e-05 2.9452425e-05 2.9628462e-05
3.3574284e-05 3.275013e-05

exp_avg f4 [5]
00000000: 2a8c 853d 8b43 883d 5524 a6bd 45d1 0c3e
00000010: ced7 973d
0.06520875 0.06653508 -0.081123985 0.13751705 0.07414208

exp_avg_sq f4 [5]
00000000: 306d f339 7af3 d139 13e9 293b 2d61 893b
00000010: df00 063a
0.00046429923 0.0004004499 0.0025926277 0.0041924925 0.0005111824

exp_avg f4 [31, 5]
00000000: 087e 523c 2c73 3f3b 263c bbb9 c8e1 79bb
00000010: 5e3a 193c de63 4e3b 4cce f03a 6507 ad3b
00000020: c115 02bb ee67 623a b129 9e3c 4a27 833b
00000030: 6c96 21ba cdb3 b0bb 5ed4 703c 2577 4f3c
00000040: 207c fb3a 371a f9b8 af6b a3bb 8c40 183c
00000050: 1fbb 1b3d b9e6 3c3c dc07 c6ba b5dc cebb
00000060: 9232 dd3c a18f 183d 8999 403c 514f 67bb
00000070: faf3 2fbb b794 f33c fa8b 0f3d 5e8e 343c
00000080: 59ac 09bb a3b1 84bb a990 da3c badc 243d
00000090: ded7 303c 61b2 09bb 2ee5 e1bb f26e fa3c
000000a0: b2ed 8c3c 81f4 d13b a2dd 80bb 7bbf d83a
000000b0: 660c 763c d1a1 3f3c 4dbd 913b dfd7 8dbb
000000c0: 632f 543b a72f 383c 3cd9 553c a785 dc3a
000000d0: 5c4a f33a 9006 c5bb 51d7 083c d2e8 9bbc
000000e0: 57fa 83bb a88a cc3b 3961 303b cf65 8abc
000000f0: fed2 ae3b a78b 85b9 3995 ad3a 319d 86bb
00000100: 1e17 3f3b 3ece 9c3c 6762 523b 6050 2d3b
00000110: 526e 10bc de4e 4a3c 237d c73b 894f 3eba
00000120: 65f3 753b 7bb2 0bbc 4324 d13a 24a6 753c
00000130: 7949 853b d62a 3dbb ae8a 21b9 5644 613c
00000140: b515 8b3c ad9a 693b 13fe 0ab9 59d3 88bb
00000150: 067f 5c3c 8a25 ce3c 3e22 a73b 8aa3 da3a
00000160: 86ad 0ebc 8da4 903c 7073 59bb 1009 0d3a
00000170: 39b3 303b 0f0e 9db9 ae56 8dbb 66b8 963c
00000180: 5c3b 1f3b 1e7c 3139 d522 c3bb 0fba 643c
00000190: c462 7b3c f2eb 7c3b 188b 07bb 9690 06bb
000001a0: dc24 473c f756 613c f025 c53b a573 8f3a
000001b0: ef74 333a 8efd 2e3c 5586 df3c 5697 df3b
000001c0: 001e 4ab9 1348 debb aaea 9f3c 85c9 ae3c
000001d0: 0801 903b a579 5c3a fa8c f3bb c86b 6c3c
000001e0: 68e1 273d cb61 513c 2e15 d5bb f5fc b6ba
000001f0: e4f6 063d eec7 4f3d 6523 853c cf5b 19bc
00000200: a1ee 913a f312 383d 248d 533d 4b5e 833c
00000210: b755 bdbb eebb 56bb 3664 2d3d 8e8c 353d
00000220: 5c68 563c b9dd b7bb 510a 41bb e294 133d
00000230: 8d8c 353d 7ca1 7d3c 8356 b6bb 3811 aaba
00000240: 4bfc 113d ce01 113d 2920 303c 72f3 32bc
00000250: f7bf ae3b e4c3 0f3d b8b7 e0bb 3b0b 513c
00000260: fcf7 fbba cfb7 8e3c bdf0 3abc
0.012847431 0.0029212935 -0.00035712234 -0.003812896 0.009352295 0.003149263 0.0018372028 0.0052804225
-0.0019849392 0.00086367026 0.01930699 0.0040024864 -0.0006164077 -0.0053925277 0.01469907 0.012662684
0.0019186772 -0.00011878128 -0.004987202 0.009292733 0.03802025 0.011529618 -0.0015108543 -0.0063129314
0.027001653 0.03724635 0.011755356 -0.003529508 -0.0026848302 0.029733999 0.0350456 0.011020271
-0.0021007268 -0.0040494963 0.026680307 0.040249564 0.010793654 -0.0021010863 -0.0068937754 0.030570481
0.017203186 0.006407321 -0.0039326707 0.0016536558 0.015017604 0.011696295 0.0044476152 -0.0043287124
0.0032376877 0.01124183 0.013052281 0.00168245 0.001856159 -0.006012745 0.008352117 -0.019031916
-0.0040276456 0.006242115 0.0026913418 -0.01689425 0.005335211 -0.00025471786 0.0013243324 -0.004108094
0.0029158066 0.019141313 0.003210211 0.0026445612 -0.008815365 0.012347905 0.0060879155 -0.00072597765
0.0037529108 -0.00852644 0.0015956241 0.014993224 0.0040675965 -0.0028864644 -0.00015405819 0.013749203
0.016978124 0.0035645172 -0.00013255356 -0.004175585 0.013458019 0.025164384 0.0051005175 0.0016680819
-0.008708363 0.017656589 -0.0033180378 0.00053800736 0.0026962294 -0.00029955848 -0.0043133115 0.018398475
0.0024296856 0.00016926273 -0.00595508 0.013960375 0.015343372 0.0038592783 -0.0020682272 -0.0020532957
0.012154784 0.013753644 0.0060164854 0.0010944499 0.00068457326 0.010680569 0.027285734 0.0068234606
-0.00019275397 -0.0067834943 0.019521076 0.021336326 0.004394654 0.00084104604 -0.007432577 0.014429994
0.04098645 0.012779663 -0.006502769 -0.0013960885 0.032950297 0.050727777 0.016252229 -0.009360268
0.0011133739 0.044939946 0.051648274 0.016036173 -0.0057780403 -0.0032765823 0.042331897 0.044323497
0.013086405 -0.005611148 -0.0029455612 0.036030658 0.044323493 0.015480395 -0.005564512 -0.0012975102
0.035640996 0.03540211 0.010749855 -0.0109223 0.0053329426 0.035098925 -0.0068578385 0.012759025
-0.0019223685 0.017421631 -0.011409936

exp_avg_sq f4 [31, 5]
00000000: 15ce 9e38 c4b2 9336 5a8c cc37 2f65 3138
00000010: d688 3a37 0c9a 0d38 942a bd36 ce96 5b37
00000020: 2095 b037 bf6e d136 b9f3 ea38 9eea b936
00000030: 4a5e 0b38 73fa 7438 3df1 9e37 42f6 8e38
00000040: 2ba6 5736 5c02 af37 8440 2838 1c72 2c37
00000050: f384 9e39 5c4b 8d37 63b4 bb38 55d6 1039
00000060: 7686 5738 5259 c239 d5c4 f237 8d04 fa38
00000070: 2c3c 2939 7c0a 8738 30d9 aa39 3b4f cf37
00000080: c673 d138 35e0 1539 eace 4e38 192e b639
00000090: 2725 ab37 756f ce38 1803 1f39 b6b3 7438
000000a0: e8ef 0539 c6ea 9637 a984 4238 edfd 8038
000000b0: c4cc 9c37 6e12 bf38 7f25 1e37 e386 1b38
000000c0: 355a 3f38 19c7 a637 f97f 8838 dcac ab36
000000d0: 99cb bd37 205a 1738 9cab d536 5f5c 2a38
000000e0: f451 ba36 bf0a 0337 a393 6c37 35de d237
000000f0: c46a 6338 d60c b836 2287 ae37 1394 0638
00000100: d280 8936 09be ad38 9120 b336 3578 d137
00000110: f07b 3938 1efe 2c37 7d66 5b37 2e0a cb35
00000120: 51ff 6236 3cfc 5237 2cdb 8e36 5376 da38
00000130: 69c3 ed36 f23e 0f38 2cf3 5d38 f0b6 c337
00000140: ca2f b338 bb8d 4b36 3ea1 cb37 7853 3438
00000150: dfde 9d37 7b85 1539 27cb a636 bccf 2138
00000160: e4ba 9638 76e5 f437 1be1 7a37 5bfe ec36
00000170: fc2c 2037 fe59 0a37 0922 0837 f812 8f38
00000180: 8aee ea35 4a6f 9237 999f 0b38 8cac 9837
00000190: 4693 de38 f863 f936 36f9 0d38 89a1 6138
000001a0: f2e3 6337 4c69 8438 7268 1f37 65e8 e537
000001b0: 320c 0d38 a694 6137 f303 4339 ad65 4837
000001c0: 1676 6338 f019 ba38 670c e037 9c78 0239
000001d0: 9182 f336 af88 1738 fb2c 8638 5a35 8537
000001e0: 5fd7 a839 ecea a637 f7de c838 0183 1839
000001f0: 71a1 8f38 0c3d 083a ae03 2838 ede6 2939
00000200: 033b 6639 c806 0d39 4b75 0a3a 43aa 1a38
00000210: 82da 2039 558d 6939 5b3b f238 875b e239
00000220: e49d d837 5dbf 0239 12d3 4139 01d8 ac38
00000230: d123 b539 a0ea 2f38 f2d6 e238 3b86 1039
00000240: c8fa 9038 8c6a aa39 49c9 b337 8ec2 e338
00000250: 750c 1539 0145 e138 f603 3137 5a0b 3538
00000260: c02f 0337 a735 8a37 d811 fa37
7.572413e-05 4.4017524e-06 2.4384051e-05 4.2294323e-05 1.11183235e-05 3.3760487e-05 5.6375957e-06 1.3088529e-05
2.1050277e-05 6.241578e-06 0.000112033864 5.5407427e-06 3.3227996e-05 5.8407382e-05 1.8947403e-05 6.816957e-05
3.213422e-06 2.0862724e-05 4.0114406e-05 1.0278567e-05 0.00030235163 1.6843602e-05 8.9504545e-05 0.00013812755
5.138522e-05 0.00037069112 2.8940305e-05 0.000119217766 0.00016139512 6.4392545e-05 0.00032586744 2.4713217e-05
9.987461e-05 0.00014293271 4.930693e-05 0.0003474809 2.0402089e-05 9.843606e-05 0.00015164574 5.8341502e-05
0.0001277324 1.7990718e-05 4.6376754e-05 6.150813e-05 1.8692e-05 9.1110225e-05 9.426264e-06 3.7080503e-05
4.562196e-05 1.9881454e-05 6.508822e-05 5.1163206e-06 2.2625363e-05 3.608514e-05 6.3678726e-06 4.0617186e-05
5.5527726e-06 7.8107105e-06 1.41010705e-05 2.5137424e-05 5.422045e-05 5.4851216e-06 2.0805343e-05 3.2085994e-05
4.097915e-06 8.28468e-05 5.338407e-06 2.4970717e-05 4.4222863e-05 1.0311165e-05 1.307728e-05 1.5127641e-06
3.3825238e-06 1.2575703e-05 4.2574447e-06 0.0001041709 7.085899e-06 3.415248e-05 5.2916977e-05 2.3330998e-05
8.5442865e-05 3.0331855e-06 2.427457e-05 4.299308e-05 1.881964e-05 0.00014259473 4.9708356e-06 3.857886e-05
7.1873685e-05 2.9193918e-05 1.4953573e-05 7.062959e-06 9.547217e-06 8.246394e-06 8.114156e-06 6.8223046e-05
1.7503783e-06 1.745638e-05 3.328882e-05 1.820016e-05 0.00010613217 7.432416e-06 3.3849115e-05 5.379462e-05
1.3583327e-05 6.3138636e-05 9.501457e-06 2.7407144e-05 3.3628377e-05 1.3445655e-05 0.0001859812 1.1944602e-05
5.4230994e-05 8.8740024e-05 2.6708656e-05 0.00012442697 7.2571643e-06 3.6128502e-05 6.397996e-05 1.587968e-05
0.0003220392 1.9898136e-05 9.5782736e-05 0.00014544652 6.848842e-05 0.0005197085 4.005775e-05 0.00016203123
0.00021956493 0.00013449334 0.000528176 3.687503e-05 0.0001534019 0.00022273262 0.00011550515 0.00043174272
2.582273e-05 0.00012469054 0.00018484544 8.241833e-05 0.00034549696 4.1941763e-05 0.000108165565 0.00013782915
6.913167e-05 0.0003250431 2.1432194e-05 0.00010860442 0.00014214388 0.00010741689 1.0550944e-05 4.3164335e-05
7.819326e-06 1.6475866e-05 2.9810632e-05

exp_avg f4 [31]
00000000: c646 11bd ec09 98bb 0107 5dbd 30d7 07bd
00000010: b8f1 ecbd 6b61 f5bd bd26 debd 855c f5bd
00000020: aaa8 80bd eb6b 48bd fa82 f4bc c48c 7e3d
00000030: b175 25bc 03fb 37bd c274 f8bb 0f45 54bd
00000040: f835 48bd b661 88bd 245a 013c 361d 4cbd
00000050: 1617 3cbd 2b3b 36bd 4498 9abd 688d 60bd
00000060: 9ae1 0abe 27c4 31be 53c1 29be f9e2 10be
00000070: 700d 16be c50c 08be 6841 93ba
-0.035467885 -0.0046398547 -0.053961758 -0.033164203 -0.11569542 -0.11981472 -0.108472325 -0.11980537
-0.0628217 -0.048931044 -0.02984761 0.062145963 -0.010098861 -0.044917118 -0.007582278 -0.051823672
-0.048879594 -0.06659262 0.007895026 -0.049832545 -0.045920454 -0.04449002 -0.075485736 -0.054822356
-0.13562623 -0.17359982 -0.16577654 -0.14149083 -0.14653563 -0.13286121 -0.0011234703

exp_avg_sq f4 [31]
00000000: b73a 273a 62fa 7539 b5d9 763a f585 163a
00000010: 7222 203b 3ac7 473b c2fa 2a3b 9d9d 373b
00000020: cca1 813a 8857 573a b5e7 e739 84cd 0d3a
00000030: b1e9 c639 e433 1a3a 28b0 de38 fd9f 783a
00000040: 4272 433a c9d0 9c3a 12bc 3939 dfcc 1e3a
00000050: 5e71 5d3a 9292 eb39 2b2c be3a 48ab 773a
00000060: 5c85 333b 0ea5 953b 6fb1 913b 9507 6b3b
00000070: 4b36 3f3b 775a 493b d2fa 0639
0.00063792936 0.00023458296 0.0009416596 0.0005742007 0.0024434594 0.0030483739 0.0026089405 0.0028017529
0.0009890138 0.00082146423 0.0004423239 0.00054093474 0.00037939617 0.0005882366 0.000106185966 0.00094842893
0.00074556854 0.0011964078 0.00017713037 0.000605775 0.0008447374 0.00044931896 0.0014509013 0.0009447825
0.002739272 0.004566795 0.0044462006 0.0035862674 0.0029176648 0.0030724087 0.00012872674
