Cancer-senn/self_trial3/models/cancer/grad3_Hinput_Thdummy_Reg1e-02_LR0.001/checkpoint.pth.tar (torch_old, 26436 bytes, 34 tensors)

parametrizer.linear1.weight f4 [10, 30]
-0.012197112 -0.05815242 0.110308066 0.15512863 0.06493845 0.104870565 0.06712101 0.19170183
-0.058988854 -0.12187355 -0.003872706 0.033859435 -0.07330825 -0.06552936 0.17157616 0.030555492
-0.012301693 0.14674345 0.073912255 0.15509279 0.18253803 0.06879219 -0.07804679 0.00026302267
-0.12222242 0.0959508 -0.03522386 -0.004733717 0.025798814 0.2224851 0.13775714 -0.20010956
-0.09394096 -0.01792722 0.11286985 0.16015154 -0.19689818 0.15638131 0.019416211 -0.18966575
-0.1181734 0.08783501 -0.016260933 -0.14676617 -0.19677648 -0.07505376 0.0427522 -0.010432833
0.01749402 0.06977495 0.14961688 -0.047998313 -0.17465231 -0.14174902 -0.11598631 0.14843205
-0.048691828 0.0052385954 -0.11041123 -0.027172836 0.15928149 -0.11129025 0.13867241 0.0009122556
0.0638023 -0.0067943432 0.16581638 -0.0057483856 0.053470008 0.0021869503 0.118127555 0.14283931
0.20512006 -0.11542826 -0.13100468 0.1553953 0.043218486 0.1561955 0.015952893 0.039039515
-0.03565626 0.15600957 -0.06792068 -0.1295086 -0.15006329 0.0215595 -0.0043387804 0.09037201
0.12581356 0.051410496 -0.043803874 -0.042938255 0.15067017 0.13902695 0.13399002 -0.050605357
-0.03753362 0.13562822 -0.013595402 0.14451213 0.12448674 0.12937559 -0.056056865 -0.07777817
-0.17781037 -0.009401918 -0.13116302 -0.1688224 0.11493827 0.07574593 0.029340284 0.043770302
-0.07313956 0.12271745 -0.07758721 0.08760853 0.013379412 0.052382376 -0.16580671 0.058433037
0.012288966 0.08747312 0.14160591 -0.11750249 -0.12393095 0.04601927 -0.09778491 -0.20126404
-0.0993311 -0.03586221 0.02187806 -0.17814519 -0.076589905 -0.1551633 -0.043049525 0.10822719
-0.10351906 0.06979186 -0.16826819 -0.15247504 0.123957835 -0.021708997 -0.18036664 -0.03748592
-0.105974585 0.08041993 0.11025023 -0.010653846 0.18398629 0.12979107 -0.16559471 0.08052641
-0.016374402 0.018322948 0.11924788 0.1304766 0.004367491 -0.06909809 0.0068719555 0.06079845
-0.031850938 0.08862259 0.0068286303 0.10405477 -0.14105918 0.12390449 -0.14059585 -0.004219255
0.02559476 -0.0887265 -0.07550638 0.08875221 -0.15728745 0.18128556 -0.106381536 0.006724879
0.04824735 0.031212434 -0.13657853 0.019552803 -0.021387959 0.14448749 -0.16943704 -0.14545257
-0.16432272 0.13238432 0.010670539 -0.04504645 -0.16029051 -0.10447605 -0.116205834 -0.087603524
-0.042886123 -0.026945814 0.04751982 0.12052942 -0.036043957 -0.068333946 -0.17792022 -0.110205024
0.0832359 -0.109896116 -0.03488424 0.15954404 0.18005426 -0.029430637 0.0971504 0.17179011
-0.15742007 0.1503135 -0.16172561 0.13586585 0.10211959 0.014192008 0.117102005 0.19892818
-0.0526703 -0.020598589 0.0047269897 0.16680281 0.013873539 -0.108379245 -0.1123319 0.06475169
-0.06512229 -0.056726895 0.19647287 0.043762974 0.118747756 0.04331695 -0.07590101 -0.0056218375
0.042813513 0.10787925 0.047233783 0.10962805 -0.015979687 0.11740118 0.13718909 0.092870094
0.09759682 0.07420931 -0.065448225 0.05074539 0.0036360268 0.08346443 0.17754495 0.08886809
0.09881634 0.1675333 0.14369938 0.09926882 -0.09324082 0.17320956 0.023350138 -0.048493274
00000000: 65d6 47bc 3b31 6ebd 32e9 e13d 0ada 1e3e
00000010: 73fe 843d 61c6 d63d bd76 893d 7c4d 443e
00000020: 4c9e 71bd d798 f9bd 3acd 7dbb 31b0 0a3d
00000030: a322 96bd 4234 86bd a9b1 2f3e 834f fa3c
00000040: 0a8d 49bc ea43 163e 4f5f 973d a5d0 1e3e
00000050: 40eb 3a3e ebe2 8c3d ffd6 9fbd 4ee6 8939
00000060: c04f fabd da81 c43d e546 10bd 4c1d 9bbb
00000070: 0958 d33c 22d3 633e 3510 0d3e 85e9 4cbe
00000080: 1e64 c0bd 1bdc 92bc 4f28 e73d c4fe 233e
00000090: ad9f 49be 6c22 203e bf0e 9f3c bd37 42be
000000a0: e504 f2bd d7e2 b33d a635 85bc df49 16be
000000b0: c67f 49be c9b5 99bd ee1c 2f3d 79ee 2abc
000000c0: 9e4f 8f3c 2be6 8e3d 2b35 193e e199 44bd
000000d0: 0ed8 32be a826 11be 3b8a edbd 92fe 173e
000000e0: 1571 47bd 86a8 ab3b 481f e2bd 9199 debc
000000f0: b01a 233e 25ec e3bd 2400 0e3e 7024 6f3a
00000100: c8aa 823d 15a3 debb c5cb 293e f45c bcbb
00000110: 5e03 5b3d f052 0f3b dcec f13d 7844 123e
00000120: fe0a 523e a765 ecbd 1726 06be f21f 1f3e
00000130: de05 313d b7f1 1f3e a4af 823c e6e7 1f3d
00000140: 4c0c 12bd f9c0 1f3e ff19 8bbd e79d 04be
00000150: 31aa 19be 8c9d b03c 542c 8ebb f614 b93d
00000160: 45d5 003e d093 523d b16b 33bd 06e0 2fbd
00000170: 4849 1a3e 155d 0e3e ae34 093e 9047 4fbd
00000180: dabc 19bd 20e2 0a3e 40bf 5ebc fdfa 133e
00000190: e7f2 fe3d 097b 043e e29b 65bd 294a 9fbd
000001a0: ec13 36be 810a 1abc 994f 06be c7df 2cbe
000001b0: c164 eb3d af20 9b3d 095b f03c 7d48 333d
000001c0: 32ca 95bd 4953 fb3d 0be6 9ebd 1a6c b33d
000001d0: 5235 5b3c e78e 563d 3cc9 29be 7b57 6f3d
000001e0: a957 493c 1b25 b33d 2401 113e 25a5 f0bd
000001f0: 83cf fdbd b47e 3c3d 7443 c8bd 2918 4ebe
00000200: 1b6e cbbd 41e4 12bd 9e39 b33c b16b 36be
00000210: 2bdb 9cbd 21e3 1ebe b354 30bd 38a6 dd3d
00000220: cd01 d4bd 09ef 8e3d 7f4e 2cbe 6b22 1cbe
00000230: 9bdd fd3d 11d7 b1bc 08b2 38be d68a 19bd
00000240: 3409 d9bd 34b3 a43d dfca e13d 788d 2ebc
00000250: e766 3c3e f3e7 043e a991 29be 08eb a43d
00000260: 9c23 86bc 021a 963c 3c38 f43d a89b 053e
00000270: 2c1d 8f3b 4d83 8dbd 242e e13b cc07 793d
00000280: 2176 02bd c37f b53d b4c2 df3b ab1a d53d
00000290: d171 10be a3c1 fd3d 5cf8 0fbe ad41 8abb
000002a0: 1aac d13c 3db6 b5bd 17a3 9abd b8c3 b53d
000002b0: f60f 21be eca2 393e 90de d9bd 605c dc3b
000002c0: 039f 453d 38b1 ff3c 3edb 0bbe 332d a03c
000002d0: cd35 afbc 87f4 133e e780 2dbe 85f1 14be
000002e0: 3744 28be c18f 073e 7cd3 2e3c a082 38bd
000002f0: 3223 24be 8af7 d5bd 53fd edbd 7a69 b3bd
00000300: 5ca9 2fbd 78bd dcbc 25a4 423d 21d8 f63d
00000310: d4a2 13bd abf2 8bbd b830 36be 2cb3 e1bd
00000320: 9577 aa3d 3711 e1bd c7e2 0ebd 835f 233e
00000330: 2560 383e 8518 f1bc caf6 c63d bfe9 2f3e
00000340: ba32 21be c8eb 193e 669b 25be 6b20 0b3e
00000350: 1324 d13d 9985 683c 2dd3 ef3d d4b3 4b3e
00000360: d0bc 57bd 5fbe a8bc dde4 9a3b 5bce 2a3e
00000370: d74d 633c f0f5 ddbd 440e e6bd 899c 843d
00000380: d65e 85bd 765a 68bd 2f30 493e ce40 333d
00000390: 0632 f33d 1d6d 313d fd71 9bbd 6437 b8bb
000003a0: 395d 2f3d ccef dc3d 3678 413d ac84 e03d
000003b0: d5e7 82bc 0870 f03d 4c7b 0c3e ad32 be3d
000003c0: d7e0 c73d 0dfb 973d b809 86bd 66da 4f3d
000003d0: 684a 6e3b 66ef aa3d 58ce 353e 7900 b63d
000003e0: 3960 ca3d d98d 2b3e ee25 133e 734d cb3d
000003f0: 0bf5 bebd d95d 313e ca48 bf3c e2a0 46bd

parametrizer.linear1.bias f4 [10]
-0.10834768 -0.08226669 0.1625314 -0.1053645 0.10693596 -0.02810923 0.08538185 -0.11854114
-0.161621 -0.120637946
00000000: 63e5 ddbd 707b a8bd a26e 263e 58c9 d7bd
00000010: 3e01 db3d 5445 e6bc aedc ae3d b2c5 f2bd
00000020: fa7f 25be 0711 f7bd

parametrizer.linear2.weight f4 [10, 10]
-0.16629244 -0.2482123 0.19090883 -0.09326803 -0.2837355 -0.13823381 0.20990911 0.2639411
0.07009142 -0.09180637 -0.24078478 0.09396947 0.27088982 -0.09076513 -0.18678854 0.025261581
0.29942536 -0.2811168 -0.015680185 0.16701896 -0.2462542 -0.20274906 -0.057681978 0.07675305
0.15796629 -0.12775537 0.07267849 0.07915867 0.09966198 0.15793748 0.11897627 -0.08798877
-0.15209398 0.117318 -0.055144634 0.111846685 -0.21353123 -0.32941648 -0.037372183 -0.13355866
-0.08762579 0.26266927 0.050636724 0.2917459 0.28568715 -0.02599739 0.33110136 0.08050472
0.15882966 -0.09484888 -0.108982146 0.19720201 0.3160668 -0.055635914 0.21112016 -0.13384601
0.25858214 0.10138459 0.19107652 0.23340985 0.06142663 -0.13774997 0.2173078 0.17423804
-0.3337611 0.020958563 -0.24243945 -0.2996572 0.25121167 -0.028548067 -0.18635282 -0.14712039
0.25961718 0.115712576 0.06298636 0.29971313 -0.0015108959 0.21421078 0.29415414 0.05844053
-0.18592624 -0.021803074 -0.18542296 0.2560153 0.087135315 0.099694766 -0.20652732 -0.02434797
0.12073039 0.22096355 0.2439261 -0.15239364 -0.15284602 0.26891443 0.20663014 -0.20897974
0.14050771 0.23900092 -0.13789628 0.1922672
00000000: 9148 2abe 5d2b 7ebe 9b7d 433e 4f03 bfbd
00000010: c845 91be 2a8d 0dbe 6af2 563e 4a23 873e
00000020: 178c 8f3d fa04 bcbd 4990 76be 1173 c03d
00000030: 12b2 8a3e 12e3 b9bd 7f45 3fbe 60f1 ce3c
00000040: 484e 993e 8bee 8fbe bb73 80bc 0507 2b3e
00000050: 102a 7cbe 739d 4fbe f043 6cbd b430 9d3d
00000060: eac1 213e 4ed2 02be 76d8 943d f11d a23d
00000070: 951b cc3d 5dba 213e d5a9 f33d 7533 b4bd
00000080: 86be 1bbe 6b44 f03d 57df 61bd e00f e53d
00000090: eea7 5abe 47a9 a8be 9313 19bd 9ac3 08be
000000a0: 2675 b3bd 967c 863e 7468 4f3d b85f 953e
000000b0: 9645 923e 7af8 d4bc 1e86 a93e a9df a43d
000000c0: 3ea4 223e 2140 c2bd 0832 dfbd 53ef 493e
000000d0: 82d3 a13e 7ce2 63bd e22f 583e ee0e 09be
000000e0: e164 843e b9a2 cf3d 90a9 433e fe02 6f3e
000000f0: 7d9a 7b3d 540e 0dbe f085 5e3e 756b 323e
00000100: bce2 aabe 4bb1 ab3c 0c42 78be ab6c 99be
00000110: d19e 803e a3dd e9bc 46d3 3ebe baa6 16be
00000120: 8bec 843e b7fa ec3d fefe 803d 0074 993e
00000130: 4109 c6ba 125a 5b3e 5f9b 963e 565f 6f3d
00000140: 7363 3ebe 5c9c b2bc 84df 3dbe 7014 833e
00000150: 0074 b23d c52c cc3d e67b 53be 6575 c7bc
00000160: 7f41 f73d 4544 623e c3c7 793e 140d 1cbe
00000170: ab83 1cbe 27af 893e da96 533e c9fe 55be
00000180: 41e1 0f3e a8bc 743e af34 0dbe b1e1 443e

parametrizer.linear2.bias f4 [10]
0.25642815 0.22842635 -0.22035307 0.13288966 0.09361327 0.058951147 0.108568475 -0.02627252
-0.20252845 0.3258251
00000000: 8d4a 833e 99e8 693e 3ca4 61be 3a14 083e
00000010: 50b8 bf3d c276 713d 2659 de3d 7839 d7bc
00000020: 9e63 4fbe 8cd2 a63e

parametrizer.linear3.weight f4 [5, 10]
0.19384621 -0.219995 -0.12450171 -0.14621347 0.0037900787 0.09908148 0.28399557 0.28412035
-0.17561015 -0.177272 -0.0185405 -0.08621465 -0.024500353 -0.1538328 -0.22326212 0.0404815
-0.20667018 -0.13655256 0.13350695 -0.32382235 0.008642564 -0.2591278 -0.18986803 0.3512076
0.049567543 -0.122405246 -0.08405905 0.12713334 -0.08580533 -0.20918585 0.1853441 0.25530186
0.15176784 -0.06265714 -0.19740297 0.022007782 0.12732662 0.16637945 -0.33216727 0.22590323
-0.17100792 -0.14377408 0.06872948 0.25181928 -0.07883062 -0.19900605 -0.21865527 0.26457173
-0.09803754 -0.21586615
00000000: 9f7f 463e 5f46 61be c1fa febd fcb8 15be
00000010: f862 783b 3beb ca3d de67 913e 3978 913e
00000020: 26d3 33be cb86 35be 3fe2 97bc 4e91 b0bd
00000030: f7b4 c8bc 5886 1dbe d39e 64be eecf 253d
00000040: 59a1 53be 6fd4 0bbe 0cb6 083e 0bcc a5be
00000050: 8a99 0d3c 66ac 84be c46c 42be 7cd1 b33e
00000060: 5607 4b3d 9aaf fabd 2727 acbd 3e2f 023e
00000070: b4ba afbd d134 56be d8ca 3d3e edb6 823e
00000080: 0769 1b3e 6352 80bd 0124 4abe aa49 b43c
00000090: e961 023e 605f 2a3e d411 aabe 2d53 673e
000000a0: b31c 2fbe 8339 13be 0bc2 8c3d 75ee 803e
000000b0: f371 a1bd 3ec8 4bbe 2be7 5fbe f275 873e
000000c0: e8c7 c8bd 040c 5dbe

parametrizer.linear3.bias f4 [5]
-0.31306607 -0.05355216 -0.2503537 0.17346576 -0.042672016
00000000: 324a a0be 8259 5bbd 5c2e 80be 02a1 313e
00000010: dac8 2ebd

parametrizer.linear4.weight f4 [31, 5]
0.057990536 -0.4562981 -0.44048208 0.44557664 -0.3040146 -0.2554559 -0.3188151 0.014359488
-0.030756665 -0.4215753 0.17598909 0.32092404 0.26365957 0.1718975 0.32382992 0.12550652
0.35208714 0.32828104 0.39672002 0.023375183 -0.2745449 0.13642491 0.23777467 -0.26258853
-0.4925119 -0.40494245 -0.13710818 0.33882934 0.37299263 -0.3419554 -0.37891456 -0.26496497
0.21266878 -0.1643689 -0.38287583 -0.4347785 0.34227997 0.04555454 0.28517047 -0.10115841
-0.438149 -0.34267682 -0.3377273 -0.26944172 -0.3060445 -0.055945706 0.38791838 0.19316126
-0.18862037 -0.22268094 0.25288716 -0.03513773 -0.23044251 0.33477157 -0.18829186 -0.28496072
-0.27138826 -0.2726236 -0.41042036 0.15510789 0.29322731 -0.02740204 -0.15386131 0.33046615
0.18391947 0.053153366 -0.40779704 0.1602719 -0.2819223 0.30869812 -0.24736804 0.35660574
-0.36613426 -0.13025086 -0.1615432 0.22860524 0.3466972 -0.14677763 -0.26391846 0.3261684
-0.17686519 -0.2500364 0.41299725 -0.37372673 -0.28531125 -0.47693583 -0.39998117 0.3657299
0.008044771 -0.16224624 0.3212481 -0.22594193 -0.229192 0.08220677 0.430037 0.024322657
-0.006765972 -0.35433474 0.04624512 0.23323448 0.0071183043 0.109012544 0.30880624 0.103721984
-0.46742797 -0.14413024 -0.31352252 -0.2559079 0.011379474 0.36342365 0.24474525 -0.1163696
-0.36232334 0.16637173 -0.3800308 -0.4790752 -0.22905383 -0.48911273 -0.1768332 0.17746015
-0.15149637 -0.46443713 0.21509011 0.3637278 0.009693235 0.110112414 -0.23632157 -0.058125228
0.44640145 0.34311488 0.17027813 0.3614464 -0.40165594 -0.022442384 -0.14570218 -0.19541322
-0.31064528 0.25029895 -0.17571193 0.3073214 0.3447216 0.20623825 -0.33774468 -0.04345178
-0.47112203 -0.072055764 0.06038458 -0.21932654 0.009556973 0.20847246 0.4601661 0.14817265
0.4597126 0.21075502 0.026233945
00000000: 7c87 6d3d e89f e9be de86 e1be 9f22 e43e
00000010: cda7 9bbe 1ecb 82be bc3b a3be 0f44 6b3c
00000020: 67f5 fbbc b8d8 d7be 7c36 343e 2850 a43e
00000030: 63fe 863e e605 303e 09cd a53e c884 003e
00000040: c444 b43e 7414 a83e e31e cb3e 507d bf3c
00000050: 2691 8cbe f9b2 0b3e 347b 733e 0172 86be
00000060: 852a fcbe 9e54 cfbe 1666 0cbe 0a7b ad3e
00000070: e4f8 be3e c714 afbe 1701 c2be 7da9 87be
00000080: d8c5 593e 5250 28be 4d08 c4be 4a9b debe
00000090: 523f af3e 6697 3a3d dd01 923e 242c cfbd
000000a0: 1155 e0be 5673 afbe 98ea acbe 44f4 89be
000000b0: ddb1 9cbe 5327 65bd 3d9d c63e 11cc 453e
000000c0: b325 41be 7906 64be 6d7a 813e 95ec 0fbd
000000d0: 1ff9 6bbe 2e67 ab3e 95cf 40be 5fe6 91be
000000e0: 67f3 8abe 5295 8bbe 9e22 d2be 9ad4 1e3e
000000f0: e421 963e 3e7a e0bc d28d 1dbe dc32 a93e
00000100: 6355 3c3e 58b7 593d c6ca d0be 511e 243e
00000110: 1f58 90be ae0d 9e3e 0c4e 7dbe 0795 b63e
00000120: f375 bbbe 7b60 05be 956b 25be 7e17 6a3e
00000130: 4c82 b13e e04c 16be 5220 87be 8bff a63e
00000140: 261c 35be c504 80be 6074 d33e 1c59 bfbe
00000150: 5114 92be ef30 f4be 55ca ccbe f340 bb3e
00000160: 37ce 033c e123 26be a27a a43e 525d 67be
00000170: 4fb1 6abe 065c a83d cf2d dc3e 4f40 c73c
00000180: 16b5 ddbb 5d6b b5be 866b 3d3d 05d5 6e3e
00000190: aa40 e93b f841 df3d da1b 9e3e 316c d43d
000001a0: b852 efbe e196 13be 0686 a0be 5c06 83be
000001b0: f970 3a3c aa12 ba3e 809e 7a3e 2f53 eebd
000001c0: 7282 b9be 5a5d 2a3e 6693 c2be 5849 f5be
000001d0: 168d 6abe fc6c fabe c313 35be 1db8 353e
000001e0: dd21 1bbe b4ca edbe 9540 5c3e 883a ba3e
000001f0: 60d0 1e3c 9e82 e13d 48fe 71be b814 6ebd
00000200: bb8e e43e c1ac af3e 645d 2e3e 810f b93e
00000210: d9a5 cdbe 17d9 b7bc f432 15be 671a 48be
00000220: e60c 9fbe 2f27 803e d4ed 33be 3b59 9d3e
00000230: 597f b03e 1f30 533e dfec acbe 7efa 31bd
00000240: e836 f1be f991 93bd d255 773d 2397 60be
00000250: da94 1c3c ce79 553e e49a eb3e 92ba 173e
00000260: 735f eb3e 2ad0 573e 92e8 d63c

parametrizer.linear4.bias f4 [31]
0.37684286 0.059899624 0.17000487 -0.16063635 -0.3786335 0.39964053 0.008797072 -0.14976111
0.086482 -0.30988258 -0.29751238 -0.31869537 0.39056075 -0.31662413 -0.0914545 0.38259903
-0.045240648 0.19205359 0.264423 0.1863036 -0.24519216 0.18809247 0.3311104 -0.27421445
0.2134388 -0.07692558 0.46051362 -0.0831177 0.2557132 -0.017666606 0.17731482
00000000: 8cf1 c03e 4f59 753d c215 2e3e db7d 24be
00000010: 40dc c1be af9d cc3e 9821 103c fa5a 19be
00000020: 7a1d b13d eea8 9ebe 8b53 98be 0a2c a3be
00000030: 94f7 c73e 8f1c a2be 7f4c bbbd 05e4 c33e
00000040: 424e 39bd b2a9 443e 7462 873e 5fc6 3e3e
00000050: a713 7bbe 509b 403e 4d87 a93e d665 8cbe
00000060: b38f 5a3e 298b 9dbd 71c8 eb3e 9d39 aabd
00000070: d7ec 823e 8fb9 90bc 0492 353e

exp_avg f4 [10, 30]
-0.0005069166 -0.00058568094 -0.00046612183 -0.00049835915 -0.00075609563 0.00021167712 -0.0008349787 -0.000962913
-0.0009741425 -0.0003783311 -0.0015030964 -0.0003579769 -0.0015650373 -0.0010490078 -0.0006718916 0.0011671525
0.0011094627 0.0015385854 -0.00037589433 1.415598e-05 -0.0009566897 -0.0012949813 -0.001128175 -0.0009183144
-0.00198662 -0.00074772036 -0.0012594191 -0.0011388145 -0.0012636132 -0.0017792815 -0.0028340123 0.0006579907
-0.002852749 -0.0020142677 -0.0007649868 -0.0010351569 -0.0005413948 -0.0019277754 0.0046990053 0.002833746
1.0582798e-05 0.0047204667 -0.00045018928 -0.0007184111 0.0065865223 0.0023177846 0.0052151117 0.004399314
0.002071103 0.0034194537 -0.0027850915 -0.00039140158 -0.0031496685 -0.0019895881 -0.0012527056 -0.004010508
-0.0020734207 -0.0029929192 -0.001966678 -0.0020806177 0.0018603635 -0.0056151943 0.0020940555 0.00055120466
0.0016963946 0.000249653 0.0014243101 0.0019220052 -0.0015716301 -0.0031673268 -0.0009447088 -0.0082644755
0.00044094285 -0.001210197 -0.008424648 -0.0031147185 -0.0033920277 -0.0030811853 0.000353342 -0.0041510803
0.001050623 -0.005329066 0.0019038853 -0.00047512754 -0.0011711416 0.0029329374 0.0019430072 0.0030462502
0.0034224757 0.00037212708 -0.00095780694 0.0052256198 -0.0013289688 -0.0006471452 -0.004338049 -0.0023416264
-0.0016946216 -0.0026523427 -0.0008322706 -0.0012233508 -0.002428807 0.0039820187 -0.0030772656 -0.0022672934
-0.0013275824 -0.0023088884 -0.00021095254 -0.0019973335 -0.0009477616 -0.0010143577 -0.0008452763 0.0053027556
-0.0012618034 -0.00025725414 -0.003101883 -0.0019449675 -0.0012190312 -0.0026551671 -0.0011608946 -0.0011841505
-0.0026461743 0.0069139367 -0.0026777457 -0.0015474694 -0.0054734307 0.0005033911 0.0014146916 -0.0014128538
0.0023347246 0.004187525 0.00042968127 0.009129749 5.4683594e-05 -0.0002260171 0.0068120393 0.006604392
0.0075307796 0.005110794 0.0015373016 0.007380843 -0.002300896 0.0057270457 -0.0024853942 -0.0010955638
-0.003262374 -0.0013508314 0.0006530384 -0.0024063082 -0.003464787 0.0015559526 -0.002568551 0.0019100568
-0.0018220174 -0.0023587085 -0.00072296674 0.003108146 0.003049077 0.00070875644 -0.00062746083 0.0029330952
-0.00026312756 0.0040084287 -0.000205136 -0.0002642386 0.000729726 0.0095520085 0.006794933 0.004027775
0.005036121 0.008905557 -0.0024323144 0.0021019254 -0.0022134145 -0.0027901696 -0.0022186833 0.0024419369
0.002181726 0.0008324634 0.00017210291 0.002360882 0.0043305717 -0.00044408423 0.0037891667 0.00387836
-0.0006311173 -0.0013819837 -0.00077758974 0.0012584884 -0.0011645226 -0.0039322353 0.0010351238 -0.0028220338
0.0010386774 0.0010156358 -0.0021303836 -0.005955184 -0.006002994 -0.0047204695 -0.0025481666 -0.0059070564
0.0035239577 -0.00058096816 0.003674436 0.0032767602 0.0007517092 0.0004436928 -0.00012466048 0.0007622928
0.0009286947 -0.00096385967 0.0012504107 -0.00026539745 0.0012861651 0.00092907826 0.0015286937 0.00039325084
0.0013925399 0.00123939 -0.0013187192 0.00019410547 0.00013995414 -0.0018753147 0.0011281566 -1.902156e-05
-0.000969368 -0.00086088356 -0.00066592736 -0.0015704612 -0.0005346601 0.0002760186 0.0010444578 0.00010743516
0.0014731244 0.00057159946 0.001466128 0.0019015169 0.001993638 0.0016899183 0.0009954125 0.002252565
-0.00040117584 -0.0004925334 -0.00021344685 -0.000830144 0.0027884387 0.00027399338 0.00045372394 0.00082336256
0.0009146878 -0.0003444544 -0.001052164 -0.0014280634 -0.00051194953 -0.0012130338 -0.003236764 -0.0017047105
00000000: 99e2 04ba 6288 19ba d061 f4b9 51a4 02ba
00000010: b834 46ba a5f5 5d39 79e2 5aba ff6b 7cba
00000020: 995d 7fba be5a c6b9 8c03 c5ba d9ae bbb9
00000030: f021 cdba dc7e 89ba e221 30ba 24fb 983a
00000040: 646b 913a 5caa c93a af13 c5b9 797f 6d37
00000050: 5cca 7aba 5dbc a9ba 45df 93ba 09bb 70ba
00000060: f431 02bb aa02 44ba 1813 a5ba 4644 95ba
00000070: d39f a5ba c836 e9ba d6ba 39bb 027d 2c3a
00000080: 30f5 3abb ce01 04bb 6589 48ba 1aae 87ba
00000090: 64ec 0dba 69ad fcba 1dfa 993b 5eb6 393b
000000a0: c58c 3137 25ae 9a3b 6207 ecb9 c153 3cba
000000b0: c1d3 d73b f9e5 173b 87e3 aa3b 1f28 903b
000000c0: 58bb 073b ea18 603b 1586 36bb 0835 cdb9
000000d0: ab6a 4ebb c063 02bb d331 a4ba 946a 83bb
000000e0: 3ae2 07bb da24 44bb 62e3 00bb f95a 08bb
000000f0: 71d7 f33a aaff b7bb 6c3c 093b b87e 103a
00000100: 8f59 de3a dce3 8239 ebaf ba3a cbeb fb3a
00000110: 28ff cdba ed92 4fbb 56a6 77ba b967 07bc
00000120: 592e e739 799f 9eba 8907 0abc 4e20 4cbb
00000130: c84c 5ebb b6ed 49bb c340 b939 c905 88bb
00000140: 0fb5 893a 729f aebb ca8b f93a 8a1a f9b9
00000150: fe80 99ba 8636 403b 81ac fe3a 99a3 473b
00000160: 9d4b 603b 0d1a c339 5615 7bba ad3b ab3b
00000170: cb30 aeba 2ea5 29ba 3126 8ebb f975 19bb
00000180: 111e deba edd2 2dbb bc2c 5aba d758 a0ba
00000190: 9f2c 1fbb 987b 823b f3ab 49bb df96 14bb
000001a0: 4602 aeba b850 17bb 2433 5db9 b2e5 02bb
000001b0: 3473 78ba 32f4 84ba 8895 5dba bdc2 ad3b
000001c0: 1963 a5ba 11e0 86b9 f648 4bbb 48ee feba
000001d0: e6c7 9fba 5002 2ebb 2929 98ba 7f35 9bba
000001e0: 706b 2dbb 4e8e e23b 1e7d 2fbb 75d4 caba
000001f0: 775a b3bb 01f6 033a 2c6d b93a 822f b9ba
00000200: 2e02 193b 8137 893b d846 e139 f194 153c
00000210: 105c 6538 01ff 6cb9 8737 df3b a869 d83b
00000220: c2c4 f63b 7378 a73b 487f c93a 00db f13b
00000230: a1ca 16bb f1a9 bb3b ffe1 22bb 0599 8fba
00000240: 8ecd 55bb 610e b1ba aa30 2b3a 27b3 1dbb
00000250: 7b11 63bb 1bf1 cb3a 2355 28bb df5a fa3a
00000260: c2d0 eeba 9094 1abb 7a85 3dba 09b2 4b3b
00000270: 06d3 473b d7cb 393a 2f7c 24ba 2c39 403b
00000280: 62f4 89b9 2359 833b c719 57b9 8189 8ab9
00000290: 154b 3f3a 0780 1c3c 08a8 de3b 6dfb 833b
000002a0: 0b06 a53b 9de8 113c 7767 1fbb 75c0 093b
000002b0: ef0e 11bb 47db 36bb 5467 11bb e708 203b
000002c0: 4afb 0e3b ac39 5a3a 8676 3439 07b9 1a3b
000002d0: 78e7 8d3b fad3 e8b9 ab53 783b 152c 7e3b
000002e0: 9171 25ba ae23 b5ba 2ad7 4bba ddf3 a43a
000002f0: e5a2 98ba fbd9 80bb feac 873a dff1 38bb
00000300: 3b24 883a 151f 853a e89d 0bbb b423 c3bb
00000310: c3b4 c4bb 2bae 9abb 24ff 26bb fb8f c1bb
00000320: 33f2 663b 1d4c 18ba cece 703b eabe 563b
00000330: 5a0e 453a 719f e839 4bb7 02b9 9bd4 473a
00000340: a573 733a 87ab 7cba d2e4 a33a 0b25 8bb9
00000350: 8a94 a83a 638d 733a 735e c83a 3c2d ce39
00000360: e385 b63a 0773 a23a e0d8 acba ca88 4b39
00000370: a7c0 1239 1fcd f5ba a7de 933a 7d90 9fb7
00000380: 2f1d 7eba ebac 61ba a191 2eba efd7 cdba
00000390: 6f28 0cba 97b6 9039 30e6 883a d04e e138
000003a0: da15 c13a 64d7 153a 182b c03a 523c f93a
000003b0: b2a7 023b 4080 dd3a 8078 823a c59f 133b
000003c0: e954 d2b9 5b1d 01ba b4d0 5fb9 059e 59ba
000003d0: 3dbe 363b c5a6 8f39 cce1 ed39 edd6 573a
000003e0: a9c7 6f3a e397 b4b9 c4e8 89ba db2d bbba
000003f0: 5a34 06ba a9fe 9eba e41f 54bb 9870 dfba

exp_avg_sq f4 [10, 30]
4.9115954e-07 6.7963407e-07 5.1198714e-07 7.857126e-07 5.829044e-07 3.9566572e-07 7.9366305e-07 8.106704e-07
8.209602e-07 2.0498373e-07 2.8903003e-06 1.202761e-06 2.7977167e-06 4.4224416e-06 1.4173288e-06 7.29246e-07
1.0261924e-06 1.4196896e-06 1.0102406e-06 2.4457935e-07 7.2391873e-07 9.0073723e-07 7.6540584e-07 1.0886362e-06
9.364161e-07 1.739616e-07 5.5774484e-07 5.550852e-07 4.3442392e-07 4.013237e-07 4.1303706e-06 6.938505e-07
3.878554e-06 4.5804263e-06 2.7469175e-06 4.105338e-06 5.4906777e-06 3.5389394e-06 8.764651e-06 1.2542634e-05
3.009421e-06 6.163553e-06 2.3304794e-06 2.65877e-06 1.4218409e-05 1.2639871e-05 2.6586846e-05 1.2471099e-05
4.1118255e-06 1.7722077e-05 4.303674e-06 5.1436507e-07 4.1091503e-06 4.8289694e-06 4.293788e-06 2.9806363e-06
4.4715275e-06 2.7996198e-06 1.0143857e-06 5.2040346e-06 2.0372547e-05 1.6662027e-05 1.9051855e-05 2.6430887e-05
8.048635e-06 1.0482427e-05 1.0423929e-05 1.41114715e-05 1.09239145e-05 1.9200052e-05 3.3082477e-05 2.1551661e-05
2.8969242e-05 4.486962e-05 4.143633e-05 1.8465636e-05 1.7685023e-05 2.5245738e-05 2.7633089e-06 1.5812016e-05
2.618055e-05 1.6437714e-05 2.4485478e-05 3.911664e-05 1.6208116e-05 5.796214e-06 7.7143295e-06 1.2779826e-05
5.8304004e-06 1.5719008e-05 6.444075e-06 1.4674045e-05 6.621819e-06 7.523066e-06 1.0583429e-05 8.928329e-06
1.0375446e-05 1.0344771e-05 7.1284944e-06 6.5541512e-06 9.986342e-06 1.6392301e-05 8.888961e-06 9.946792e-06
1.4211655e-05 5.2150067e-06 6.24325e-06 4.196039e-06 5.7370203e-06 3.1808534e-06 5.786894e-06 1.38308515e-05
5.8905184e-06 6.4737474e-06 9.083628e-06 3.4386414e-06 3.845524e-06 6.203294e-06 2.0277093e-06 2.9796208e-06
7.886666e-06 1.0043823e-05 7.598322e-06 8.361427e-06 5.3213776e-06 6.973414e-06 8.560343e-06 7.0333463e-06
8.115406e-06 9.599017e-06 6.1491382e-06 1.718575e-05 5.1438597e-06 5.1604698e-06 1.6856025e-05 2.1648319e-05
2.5770369e-05 1.707627e-05 3.31828e-06 1.7784354e-05 8.263861e-06 7.283172e-06 7.982999e-06 9.037994e-06
5.699556e-06 3.8323283e-06 6.016086e-06 5.421993e-06 2.4520411e-06 6.015908e-06 5.1337656e-06 1.4324992e-06
5.3944736e-06 4.9281803e-06 6.2851545e-06 8.281952e-06 1.09063285e-05 9.641875e-06 1.3807281e-05 4.55576e-06
1.3912782e-05 7.907706e-06 9.590442e-06 1.0087701e-05 1.9739307e-05 2.115464e-05 1.1520544e-05 7.236854e-06
1.4340806e-05 1.8363859e-05 3.9139973e-06 2.1695762e-06 3.94908e-06 3.8086448e-06 8.4416115e-06 4.818847e-06
4.5819243e-06 5.0970566e-06 3.226234e-06 4.944456e-06 4.577064e-06 3.062642e-06 4.0432515e-06 5.054931e-06
2.5928232e-06 5.028276e-06 3.8552403e-06 2.2961058e-06 3.2624748e-06 9.754462e-06 4.261201e-06 1.5454054e-06
3.026351e-06 6.073793e-06 2.340539e-06 1.1169696e-05 1.3269154e-05 7.789043e-06 1.5709253e-06 1.171881e-05
5.6259873e-06 4.35498e-06 4.9000528e-06 8.089088e-06 2.7110293e-06 2.69398e-06 3.3224997e-06 2.2326376e-06
2.3691452e-06 6.0788498e-06 7.3589795e-06 2.710968e-06 7.2801545e-06 1.0625026e-05 1.2501081e-06 2.2013646e-06
4.2724364e-06 5.2204155e-06 3.2439889e-06 1.027811e-06 1.6347743e-05 2.0805664e-06 1.5191941e-05 2.663169e-05
6.5702266e-06 3.0580763e-06 2.7528642e-06 5.745358e-06 7.353178e-07 5.975663e-07 8.819038e-06 2.21689e-06
8.63728e-06 1.3657328e-05 1.3152896e-06 1.0641032e-06 2.292328e-06 3.7140137e-06 8.247954e-07 6.8496223e-07
2.460255e-06 1.2751658e-06 2.1976314e-06 2.686415e-06 1.6022971e-06 1.2117272e-06 1.106473e-06 1.076831e-06
2.8606225e-06 3.7718455e-06 2.7157582e-06 6.654573e-07 2.4186295e-06 3.5624e-06 6.1031997e-06 3.0819328e-06
00000000: 3ad8 0335 1970 3635 7d6f 0935 c2e9 5235
00000010: e378 1c35 e26b d434 1c0c 5535 d89c 5935
00000020: f55f 5c35 8019 5c34 fbf6 4136 8e6e a135
00000030: 68c0 3b36 7c64 9436 0c3b be35 67c1 4335
00000040: b4bb 8935 2a8c be35 9a97 8735 bb4e 8334
00000050: 5153 4235 31ca 7135 4a76 4d35 411d 9235
00000060: 065e 7b35 33ca 3a34 efb7 1535 2a01 1535
00000070: c53a e934 8275 d734 9d97 8a36 0b41 3a35
00000080: 8624 8236 90b1 9936 af57 3836 96c0 8936
00000090: 903c b836 847e 6d36 e40b 1337 346e 5237
000000a0: 76f5 4936 84d0 ce36 5565 1c36 526d 3236
000000b0: 9a8b 6e37 d50f 5437 d106 df37 f63a 5137
000000c0: 50f8 8936 dfa9 9437 4768 9036 e612 0a35
000000d0: 55e1 8936 8808 a236 5c13 9036 f106 4836
000000e0: 210a 9636 1ae1 3b36 0726 8835 519e ae36
000000f0: b6e5 aa37 6ec5 8b37 8cd1 9f37 e6b7 dd37
00000100: a008 0737 aedd 2f37 6fe2 2e37 4fc0 6c37
00000110: db45 3737 cc0f a137 0ac2 0a38 d7c9 b437
00000120: f902 f337 6332 3c38 eccb 2d38 a7e6 9a37
00000130: 4c5a 9437 cfc6 d337 4971 3936 0ca4 8437
00000140: 4e9e db37 b9e3 8937 2a66 cd37 2c11 2438
00000150: aaf6 8737 197d c236 cb6c 0137 ef68 5637
00000160: c2a2 c336 50dc 8337 2f3a d836 8b30 7637
00000170: fe30 de36 a56e fc36 7b8f 3137 e2ca 1537
00000180: 3412 2e37 748e 2d37 4d31 ef36 bbeb db36
00000190: 038b 2737 3382 8937 cc21 1537 25e1 2637
000001a0: 986e 6e37 91fc ae36 1c7d d136 b3cb 8c36
000001b0: a180 c036 a576 5536 0a2d c236 0e0b 6837
000001c0: 2ba7 c536 1139 d936 e365 1837 69c3 6636
000001d0: cd08 8136 e425 d036 c813 0836 7ff5 4736
000001e0: f950 0437 e481 2837 17f5 fe36 0e48 0c37
000001f0: 498e b236 2cfd e936 659e 0f37 fcff eb36
00000200: 6727 0837 770b 2137 b254 ce36 1e2a 9037
00000210: 6b99 ac36 1928 ad36 0a66 8d37 6999 b537
00000220: 722d d837 033f 8f37 9eaf 5e36 9c2f 9537
00000230: 03a5 0a37 f961 f436 b8ee 0537 e3a1 1737
00000240: d03e bf36 7397 8036 c9dd c936 91ee b536
00000250: bf8d 2436 42dc c936 b642 ac36 4c44 c035
00000260: 2d02 b536 bf5c a536 11e5 d236 b7f2 0a37
00000270: 53fa 3637 8ac3 2137 d2a5 6737 aedd 9836
00000280: f26a 6937 57ab 0437 a2e6 2037 593e 2937
00000290: d795 a537 3e75 b137 5c48 4137 1ad4 f236
000002a0: 4b99 7037 160c 9a37 fb54 8336 0999 1136
000002b0: 5782 8436 0598 7f36 72a0 0d37 95b1 a136
000002c0: 6ebe 9936 6207 ab36 4782 5836 8ee8 a536
000002d0: ae94 9936 ca87 4d36 44ab 8736 879d a936
000002e0: 5d00 2e36 90b8 a836 435c 8136 cc16 1a36
000002f0: e4f0 5a36 18a7 2337 70fb 8e36 ba6b cf35
00000300: 5018 4b36 7ccd cb36 2712 1d36 7b65 3b37
00000310: 959e 5e37 afad 0237 95d8 d235 e89b 4437
00000320: ddc6 bc36 fe20 9236 226b a436 5eb6 0737
00000330: 21ef 3536 39ca 3436 1cf8 5e36 6cd4 1536
00000340: 9bfd 1e36 ecf8 cb36 27ed f636 13ee 3536
00000350: 0d48 f436 2442 3237 63c9 a735 28bb 1336
00000360: f35b 8f36 072b af36 4eb3 5936 51f3 8935
00000370: 8322 8937 dc9f 0b36 e4e0 7e37 1e67 df37
00000380: d175 dc36 5a39 4d36 d9bd 3836 40c8 c036
00000390: a862 4535 7268 2035 7bf5 1337 e1c5 1436
000003a0: d6e8 1037 c721 6537 0289 b035 4fd2 8e35
000003b0: e5d5 1936 453e 7936 8267 5d35 3fde 3735
000003c0: dc1a 2536 5d26 ab35 057b 1336 4248 3436
000003d0: 820e d735 a1a2 a235 1f82 9435 a287 9035
000003e0: 1ff9 3f36 d01f 7d36 5f40 3636 e1a1 3235
000003f0: bd4f 2236 9111 6f36 16ca cc36 34d3 4e36

exp_avg f4 [10]
-0.0026809343 0.008861778 -0.006552142 -0.0081670955 0.004525335 0.016881986 -0.019259417 -0.00074658694
0.0032578432 -0.008653086
00000000: 9db2 2fbb fe30 113c 5ab3 d6bb 48cf 05bc
00000010: 4349 943b 174c 8a3c edc5 9dbc 9ab6 43ba
00000020: 8a81 553b acc5 0dbc

exp_avg_sq f4 [10]
3.5365256e-06 1.19127435e-05 1.6853202e-05 1.5683372e-05 7.372386e-06 2.6494326e-05 2.5093184e-05 2.40149e-06
3.196783e-06 1.2053546e-05
00000000: 0c55 6d36 d8dc 4737 fa5f 8d37 c98f 8337
00000010: 5060 f736 2240 de37 347f d237 4929 2136
00000020: 5088 5636 9639 4a37

exp_avg f4 [10, 10]
-0.002252189 0.0052209715 -0.0040850127 0.002394104 0.0015049528 -0.002467521 0.00063776615 0.0012905789
-0.0012070182 -0.0029873564 0.0012361401 0.0013191949 -0.007569482 0.0049868478 -0.0018420019 -0.0014795421
0.00023573643 -0.00055524387 0.0029233634 0.0033429118 0.003395394 -0.0024873838 -0.00015966942 0.004395766
-0.0017182376 0.0004854196 0.0005287283 0.0010894211 0.0025596952 0.00075904204 0.0013764009 0.0042884196
0.0008476993 -0.0024116207 0.0021264092 0.0025955702 0.0003104292 0.00013091847 -0.0011076181 0.007629081
-0.0006412845 -0.000352814 3.7853373e-05 -0.0013822461 -0.0006179324 0.0015741517 -0.0016851684 -0.0007341478
0.0007665311 0.0013056864 -0.0016629725 7.8355566e-05 -0.0017802352 0.00068506395 -0.00087048573 -0.0016232205
-0.0007228081 -0.00020362016 0.00038478436 -0.003478897 -0.0018232608 0.0028784845 -0.0022226253 0.0045238193
0.0006403934 -0.0010864794 -0.0008097054 0.0006951525 -0.0005095418 -0.0052922415 0.0011752816 0.0022168604
0.004957354 0.0031511842 0.0061298045 0.0024877966 0.0042561973 0.0023803003 -0.0058552837 -0.00034745134
-0.0007170209 -0.006426936 0.00183609 -0.0056897486 -0.004472029 0.0005264639 -0.0032993073 -0.0023019873
0.0032646381 0.00035184383 0.002612692 0.0031963116 -0.008377972 0.0069749597 -0.0013834597 -0.0006155434
0.00024426825 0.002017067 0.0042347275 0.00476133
00000000: 7699 13bb af14 ab3b 92db 85bb 66e6 1c3b
00000010: d641 c53a 22b6 21bb c32f 273a a428 a93a
00000020: cf34 9eba 86c7 43bb fb05 a23a d6e8 ac3a
00000030: 6b09 f8bb b668 a33b 546f f1ba 32ed c1ba
00000040: 0430 7739 c98d 11ba e695 3f3b c114 5b3b
00000050: 4285 5e3b 6003 23bb ef6c 27b9 5c0a 903b
00000060: 7d36 e1ba ea7f fe39 5b9a 0a3a e8ca 8e3a
00000070: 8fc0 273b 73fa 463a 5a68 b43a df85 8c3b
00000080: 2338 5e3a 480c 1ebb 3a5b 0b3b 711a 2a3b
00000090: 1ac1 a239 2947 0939 7f2d 91ba 5ffd f93b
000000a0: e01b 28ba e5f9 b8b9 c0c4 1e38 7c2c b5ba
000000b0: befc 21ba c453 ce3a dee0 dcba d373 40ba
000000c0: 08f1 483a 9123 ab3a 19f8 d9ba d352 a438
000000d0: c856 e9ba dd95 333a 4f31 64ba 3ec2 d4ba
000000e0: d57a 3dba df82 55b9 e2bc c939 35fe 63bb
000000f0: 7bfa eeba f5a4 3c3b 77a9 11bb 8c3c 943b
00000100: 13e0 273a 3368 8eba 6942 54ba e53a 363a
00000110: c592 05ba 8a6a adbb e80b 9a3a bf48 113b
00000120: 4d71 a23b 1984 4e3b 87dc c83b 4d0a 233b
00000130: 9277 8b3b d0fe 1b3b aedd bfbb 212a b6b9
00000140: 75f6 3bba 0c99 d2bb f5a8 f03a 1271 babb
00000150: 198a 92bb 6502 0a3a 3139 58bb f0dc 16bb
00000160: 8af3 553b ae77 b839 b339 2b3b 3679 513b
00000170: c343 09bc 348e e43b 3455 b5ba 6b5c 21ba
00000180: 2111 8039 c530 043b 78c3 8a3b ee04 9c3b

exp_avg_sq f4 [10, 10]
1.4799605e-05 7.1814784e-06 6.4880496e-06 7.043148e-06 6.7086976e-06 7.354342e-06 1.2528178e-05 4.1968397e-06
1.2347307e-05 7.3640076e-06 2.8927598e-06 4.7713784e-06 1.0542027e-05 4.8208167e-06 8.1469125e-06 1.9346671e-06
7.7583945e-06 4.8135203e-06 7.751537e-06 5.4203138e-06 1.608311e-06 1.4598148e-06 1.4735251e-06 3.3251936e-06
1.6841802e-06 3.254496e-07 1.6589751e-06 2.1452868e-06 1.6816668e-06 1.2940369e-06 1.0148073e-05 4.1190074e-06
6.653946e-06 3.4060877e-06 3.8521453e-06 4.5641677e-06 3.761514e-06 5.1176444e-06 2.4562617e-06 1.2216043e-05
4.397492e-06 1.2064527e-06 3.892945e-06 2.6895673e-06 1.4987584e-06 2.598063e-06 4.7418266e-06 1.9949612e-06
3.854462e-06 2.4202466e-06 3.5735768e-06 3.1909812e-07 1.5792892e-06 9.729221e-07 8.138297e-07 1.7156436e-06
1.1710158e-06 1.2597696e-06 7.8110014e-07 2.4679737e-06 1.1903519e-05 4.5752e-06 2.7645215e-06 3.842304e-06
2.3082202e-06 3.0671922e-06 2.7164074e-06 5.331348e-06 5.776224e-06 8.552695e-06 1.6681548e-05 1.7361184e-05
1.6881593e-05 1.00757625e-05 3.4128316e-05 5.4306647e-06 3.2516262e-05 2.1037173e-05 4.1422496e-05 2.0378453e-05
2.4467865e-05 2.606662e-05 1.8121946e-05 1.743913e-05 3.144348e-05 1.0509853e-05 4.5495406e-05 2.2971335e-05
4.1564752e-05 2.5975143e-05 6.931312e-06 6.8462e-06 1.586941e-05 9.389362e-06 1.0246588e-05 2.4024264e-06
1.1664652e-05 6.179117e-06 1.1754171e-05 1.0889975e-05
00000000: d24b 7837 6ef8 f036 ecb3 d936 2e54 ec36
00000010: 461b e136 51c5 f636 1d30 5237 94d2 8c36
00000020: 4827 4f37 5818 f736 3c21 4236 d419 a036
00000030: a9dd 3037 80c2 a136 b9ae 0837 54d5 0136
00000040: 0d2a 0237 d383 a136 990c 0237 24e0 b536
00000050: 25dd d735 dbee c335 f0c5 c535 6426 5f36
00000060: fe0b e235 74b9 ae34 f3a9 de35 bff7 0f36
00000070: a2b5 e135 c5ae ad35 a441 2a37 0136 8a36
00000080: f644 df36 2494 6436 ad41 8136 e725 9936
00000090: 526e 7c36 3bb8 ab36 41d6 2436 81f3 4c37
000000a0: 2b8e 9336 66ed a135 25a0 8236 6a7e 3436
000000b0: f228 c935 625a 2e36 fb1b 9f36 2ce1 0536
000000c0: 9455 8136 856b 2236 95d1 6f36 8350 ab34
000000d0: f7f7 d335 5995 8235 f375 5a35 1145 e635
000000e0: cc2b 9d35 5b15 a935 cbac 5135 779f 2536
000000f0: 3ab5 4737 ab84 9936 1e86 3936 24ed 8036
00000100: ece6 1a36 f6d5 4d36 864b 3636 eee3 b236
00000110: 63d1 c136 8c7d 0f37 5aef 8b37 dca2 9137
00000120: f29c 8d37 120b 2937 0025 0f38 0e39 b636
00000130: 1262 0838 fc78 b037 11bd 2d38 65f2 aa37
00000140: 5740 cd37 a4a9 da37 9504 9837 3f4a 9237
00000150: 2ee2 0338 7a53 3037 52d2 3e38 91b2 c037
00000160: d055 2e38 32e5 d937 8493 e836 69b8 e536
00000170: 4c1f 8537 0187 1d37 c3e8 2b37 5f39 2136
00000180: 4db3 4337 3656 cf36 c833 4537 16b4 3637

exp_avg f4 [10]
-0.013297626 -0.038217317 -0.01420359 -0.0034110022 -0.001062806 -0.0020807614 -0.014149116 0.008436721
0.019005623 -0.052683663
00000000: 49de 59bc c389 1cbd 2db6 68bc 1f8b 5fbb
00000010: da4d 8bba 625d 08bb b2d1 67bc 2c3a 0a3c
00000020: aeb1 9b3c d3ca 57bd

exp_avg_sq f4 [10]
3.1626547e-05 0.000111746915 4.1768737e-05 4.160118e-05 8.432251e-06 7.695928e-06 2.425534e-05 7.3856405e-05
0.00013929926 0.00026248602
00000000: bfa6 0438 ab59 ea38 d730 2f38 ed7c 2e38
00000010: 3e78 0d37 c21d 0137 f277 cb37 5be3 9a38
00000020: dc10 1239 479e 8939

exp_avg f4 [5, 10]
0.016805565 0.013638991 -0.016274957 0.0072297445 0.010588115 0.00425839 0.000113616 -0.00028034623
-0.018802188 0.018121151 0.016389608 0.014251897 -0.012851953 0.0064555174 0.0025688335 0.002942025
0.0023992185 -0.003955486 -0.015690934 0.012922078 -0.015379483 -0.00400909 0.006183031 -0.007725504
0.0020102866 0.004030863 -0.013897461 -0.0073733763 0.0077476385 -0.008810669 -0.028472984 -0.023983516
0.021474682 -0.01305397 0.0034989952 -0.0034220442 -0.015156077 -0.003241988 0.022559494 -0.017610734
0.019686975 0.016801545 -0.015974699 0.0061225616 0.0058040386 0.008325858 0.0068067713 0.007560029
-0.01880924 0.02394537
00000000: d3ab 893c 1376 5f3c 0f53 85bc 7ee7 ec3b
00000010: c679 2d3c f789 8b3b 2045 ee38 6ffb 92b9
00000020: 0c07 9abc cf72 943c 8043 863c ca80 693c
00000030: ff90 52bc ce88 d33b e059 283b fdce 403b
00000040: 353c 1d3b 069d 81bb 468a 80bc 20b7 533c
00000050: 3afa 7bbc af5e 83bb 069b ca3b 3a26 fdbb
00000060: 03bf 033b 5415 843b 2db2 63bc 5d9c f1bb
00000070: e7df fd3b a05a 10bc 2d40 e9bc 1479 c4bc
00000080: aceb af3c 52e0 55bc 664f 653b 6044 60bb
00000090: 3251 78bc 8877 54bb b0ce b83c 6344 90bc
000000a0: 9446 a13c 65a3 893c 5fdd 82bc c59f c83b
000000b0: ce2f be3b 2e69 083c 560b df3b 1fba f73b
000000c0: d615 9abc 1529 c43c

exp_avg_sq f4 [5, 10]
7.978649e-05 6.130491e-05 6.5758715e-05 1.931147e-05 4.45516e-05 4.1107298e-05 7.138622e-05 2.5171517e-05
7.6063334e-05 3.6874528e-05 6.2684834e-05 2.832276e-05 4.0585128e-05 1.2002753e-05 5.42548e-06 8.107501e-06
2.5324432e-05 9.109038e-06 4.5119807e-05 1.8605158e-05 0.00011070677 3.471735e-05 0.00012650139 6.601789e-05
1.1154727e-05 3.200973e-05 0.00016926219 3.609768e-05 4.696469e-05 4.147028e-05 0.00015989905 5.6654073e-05
0.0002055869 8.309833e-05 1.1820352e-05 2.5924493e-05 0.00019442415 6.2111256e-05 8.382775e-05 5.60444e-05
5.3240416e-05 3.154089e-05 8.375195e-05 2.0287634e-05 2.9393961e-05 2.1596336e-05 5.833043e-05 3.14549e-05
4.4532953e-05 6.7442525e-05
00000000: 0c53 a738 d390 8038 f1e7 8938 11ff a137
00000010: ebdc 3a38 a06a 2c38 2fb5 9538 6c27 d337
00000020: 3184 9f38 b9a9 1a38 aa75 8338 aa96 ed37
00000030: f339 2a38 6e5f 4937 850c b636 7405 0837
00000040: ce6f d437 05d3 1837 063f 3d38 4612 9c37
00000050: 3f2b e838 799d 1138 75a5 0439 1673 8a38
00000060: 3025 3b37 3042 0638 f97b 3139 9767 1738
00000070: f4fb 4438 60f0 2d38 93aa 2739 d99f 6d38
00000080: d092 5739 1445 ae38 0650 4637 6d78 d937
00000090: 56de 4b39 ba41 8238 aecc af38 3711 6b38
000000a0: 764e 5f38 c64a 0438 fca3 af38 5d2f aa37
000000b0: 0d93 f637 c729 b537 d3a7 7438 71ee 0338
000000c0: e5c8 3a38 ee6f 8d38

exp_avg f4 [5]
0.06733327 0.05826966 -0.030922588 -0.09394349 0.07049075
00000000: 07e6 893d 2bac 6e3d 5e51 fdbc 7265 c0bd
00000010: 745d 903d

exp_avg_sq f4 [5]
0.0008537803 0.0005705918 0.0015133594 0.002268333 0.00090954435
00000000: 3ad0 5f3a c493 153a ea5b c63a 50a8 143b
00000010: 7d6e 6e3a

exp_avg f4 [31, 5]
0.013908289 0.011590933 0.015771667 -0.022511337 0.007943453 0.0032110037 0.004857848 0.0059518395
-0.009252771 0.0053319447 0.023027131 0.01800027 0.024738906 -0.032523084 0.01316257 0.024978235
0.019525852 0.026678503 -0.03451127 0.014491199 0.013086079 0.015500536 0.01988793 -0.023735428
0.010998029 0.0058947625 0.00013072012 0.00061007676 -0.00031805507 -0.001556853 0.015298368 0.010975339
0.012371977 -0.017886857 0.0057865763 0.019456388 0.017941277 0.021589344 -0.029611677 0.011437061
-0.0025423327 0.00079020526 -0.0012644876 0.003510343 -0.00039789925 0.0048815534 -0.0032046076 -0.0036656
0.008230569 -0.0031382118 0.020900879 0.015699476 0.020912183 -0.027500087 0.010671166 0.0009030055
0.0017089567 0.0010467819 -0.0018888691 0.0015210259 0.012639794 0.008938373 0.01171729 -0.016739672
0.005348054 0.021512294 0.017915634 0.023208167 -0.031075006 0.01240981 -0.0070891646 -0.0019721985
-0.0047780937 0.006535305 -0.0015081008 0.0012942958 -0.009679202 -0.012878734 0.017196108 -0.009623224
0.0065036574 -0.0037527191 -0.00676583 0.007939282 -0.0058557256 0.005757683 -0.0014071635 -0.00242194
0.0026623316 -0.0035111809 -0.0051123626 -0.011431374 -0.011440224 0.019830454 -0.0069929403 -0.00033647259
-0.012946026 -0.016483326 0.022021227 -0.011868353 0.027201656 0.022288624 0.030104361 -0.038859457
0.016417144 0.005801102 0.008246179 0.010296123 -0.014237498 0.007991187 0.018264577 0.014840126
0.020072004 -0.026993947 0.010463809 0.020468807 0.019876234 0.024719693 -0.03397271 0.013851372
0.0051727155 0.0103007145 0.012109095 -0.01412683 0.0073712477 0.012723911 0.00491423 0.007904606
-0.008324072 0.0029246542 0.010184491 0.006180867 0.006118735 -0.009746302 0.0022097442 0.02200109
0.018165864 0.023162277 -0.03008942 0.012167444 0.0039675687 0.0035000117 0.005297512 -0.0037229531
0.0031719136 0.0068222336 0.0018839574 0.0016479391 -0.0010279512 0.00014979602 -0.029586682 -0.00083239784
-0.018553063 0.009655569 -0.0067644394
00000000: 98df 633c e6e7 3d3c 9533 813c b269 b8bc
00000010: 4225 023c b46f 523b 952e 9f3b a607 c33b
00000020: ef98 17bc 98b7 ae3b 65a3 bc3c 4d75 933c
00000030: 3fa9 ca3c ed36 05bd d2a7 573c 289f cc3c
00000040: aef4 9f3c e08c da3c b05b 0dbd 7e6c 6d3c
00000050: fe66 563c f6f5 7d3c 03ec a23c cd70 c2bc
00000060: 1431 343c da28 c13b ea11 0939 8fed 1f3a
00000070: a1c0 a6b9 510f ccba 02a6 7a3c e9d1 333c
00000080: d5b3 4a3c 7587 92bc 529d bd3b 0163 9f3c
00000090: 96f9 923c 23dc b03c 3094 f2bc 8362 3b3c
000000a0: 449d 26bb c725 4f3a 2abd a5ba c80d 663b
000000b0: 229d d0b9 70f5 9f3b 6504 52bb 903a 70bb
000000c0: 82d9 063c 75aa 4dbb 5238 ab3c 309c 803c
000000d0: 0750 ab3c dd47 e1bc 1dd6 2e3c acb7 6c3a
000000e0: 12ff df3a 2c34 893a ee93 f7ba 295d c73a
000000f0: 2317 4f3c 4172 123c e0f9 3f3c a321 89bc
00000100: bb3e af3b 8d3a b03c cfc3 923c 0e1f be3c
00000110: 0391 febc 8452 4b3c 394c e8bb 0040 01bb
00000120: 8e91 9cbb 1d26 d63b 77ab c5ba 5ca5 a93a
00000130: 8495 1ebc 5301 53bc dade 8c3c baaa 1dbc
00000140: a21c d53b 2ef0 75bb e5b3 ddbb c313 023c
00000150: 63e1 bfbb f2aa bc3b 9270 b8ba 69b9 1ebb
00000160: 837a 2e3b d71b 66bb 9b85 a7bb a84a 3bbc
00000170: c76f 3bbc 7a73 a23c 0925 e5bb 9668 b0b9
00000180: 921b 54bc 0a08 87bc dc65 b43c 7b73 42bc
00000190: 02d6 de3c a296 b63c 6c9d f63c 182b 1fbd
000001a0: 3f7d 863c 2c17 be3b fb1a 073c 12b1 283c
000001b0: 6544 69bc 78ed 023c 989f 953c 0024 733c
000001c0: 0b6e a43c 6922 ddbc 6570 2b3c 33ae a73c
000001d0: 7cd3 a23c f480 ca3c f826 0bbd ddf0 623c
000001e0: e27f a93b 54c4 283c 3a65 463c 3874 67bc
000001f0: 828a f13b f377 503c 8d07 a13b 5282 013c
00000200: b061 08bc 8eab 3f3b dadc 263c df88 ca3b
00000210: ab7f c83b f4ae 1fbc 5bd1 103b a13b b43c
00000220: 94d0 943c d1be bd3c 167e f6bc f659 473c
00000230: 6102 823b 7460 653b c096 ad3b cafc 73bb
00000240: e1df 4f3b 0b8d df3b 1fef f63a a9ff d73a
00000250: 52bc 86ba 9012 1d39 c55f f2bc 4635 5aba
00000260: 98fc 97bc 6432 1e3c 3ba8 ddbb

exp_avg_sq f4 [31, 5]
3.7908558e-05 3.0132309e-05 0.00014337765 0.00012594581 4.753688e-06 9.691923e-06 4.8797706e-06 3.5350506e-05
2.9992443e-05 4.452375e-06 6.326756e-05 4.0394505e-05 0.00019386808 0.0001690027 9.388213e-06 6.648748e-05
4.5766978e-05 0.00019853086 0.00017717927 1.0754334e-05 3.3465418e-05 2.374624e-05 9.908039e-05 8.133155e-05
6.2731765e-06 1.4172513e-05 8.843497e-06 5.50404e-05 3.984422e-05 2.224974e-06 2.9699284e-05 2.5596502e-05
0.000111997164 0.00010234653 4.109079e-06 4.8707643e-05 4.3846358e-05 0.00018025227 0.00016214485 7.6026e-06
1.366937e-05 6.406729e-06 1.9604578e-05 1.8816758e-05 2.2806719e-06 4.635972e-06 3.5205694e-06 1.628111e-05
1.492933e-05 2.8346801e-06 3.948921e-05 2.9381685e-05 0.0001222608 0.00012695411 7.0060846e-06 8.4010435e-06
3.6289034e-06 1.0420607e-05 1.3002014e-05 1.728039e-06 1.990261e-05 1.6783417e-05 7.181338e-05 7.780986e-05
3.6515855e-06 4.0102794e-05 3.397317e-05 0.00013014159 0.00014309352 9.69534e-06 2.0361951e-05 6.140728e-06
2.4829302e-05 3.4780318e-05 4.2353495e-06 7.457272e-06 6.258989e-06 2.9242165e-05 2.840444e-05 6.3843736e-06
1.1185166e-05 4.281767e-06 3.0049228e-05 2.9409955e-05 5.4322104e-06 1.7355724e-05 3.0700587e-06 3.4131557e-05
2.6489264e-05 2.9266398e-06 8.42202e-06 8.6953e-06 2.7551278e-05 3.162979e-05 2.6719233e-06 6.974895e-06
1.4634423e-05 4.3853343e-05 4.1852563e-05 9.728236e-06 7.893999e-05 5.5268574e-05 0.00024782325 0.00021922571
1.3352856e-05 1.0919946e-05 8.68911e-06 5.117458e-05 4.404346e-05 6.130298e-06 4.692553e-05 3.776593e-05
0.00017222254 0.00015235454 6.6096186e-06 5.0687388e-05 5.023209e-05 0.00019249847 0.0001829228 9.647123e-06
1.9277348e-05 1.5037965e-05 5.50981e-05 4.2037707e-05 3.4968123e-06 2.4939432e-05 7.935454e-06 6.237635e-05
4.0010083e-05 2.426068e-06 2.0592364e-05 1.3604903e-05 7.572133e-05 5.872288e-05 2.7254857e-06 6.791013e-05
3.8920323e-05 0.00020121018 0.00016205703 9.547546e-06 8.461721e-06 4.526659e-06 1.6287462e-05 9.978864e-06
9.096958e-07 1.3387138e-05 4.427345e-06 3.165892e-05 2.0632124e-05 3.251481e-06 0.0001609208 9.003652e-06
8.0188816e-05 2.1062788e-05 1.4683702e-05
00000000: 0100 1f38 a4c4 fc37 a557 1639 5210 0439
00000010: de81 9f36 7e9a 2237 e9bc a336 5145 1438
00000020: 4898 fb37 9c65 9536 83ae 8438 456d 2938
00000030: 1149 4b39 5136 3139 1182 1d37 326f 8b38
00000040: ebf5 3f38 b92c 5039 33c9 3939 836d 3437
00000050: 385d 0c38 a932 c737 61c9 cf38 8b90 aa38
00000060: 2d7e d236 7bc6 6d37 885e 1437 2edb 6638
00000070: 681e 2738 c350 1536 ba22 f937 12b8 d637
00000080: 05e0 ea38 e0a2 d638 b8e0 8936 6f4b 4c38
00000090: abe7 3738 1a02 3d39 6d05 2a39 d619 ff36
000000a0: 7f55 6537 62f9 d636 8374 a437 aed8 9d37
000000b0: a50d 1936 b28e 9b36 ec42 6c36 6b93 8837
000000c0: fc78 7a37 6f3b 3e36 37a1 2538 b078 f637
000000d0: 2233 0039 fc1e 0539 cf15 eb36 35f2 0c37
000000e0: 1688 7336 2bd4 2e37 3a23 5a37 f8ee e735
000000f0: 88f4 a637 1dca 8c37 849a 9638 da2d a338
00000100: c30d 7536 0c34 2838 6a7e 0e38 9e76 0839
00000110: 600b 1639 2ba9 2237 f5ce aa37 740c ce36
00000120: 8548 d037 15e1 1138 601d 8e36 7b39 fa36
00000130: 4e04 d236 124d f537 1246 ee37 5a39 d636
00000140: eca7 3b37 19ac 8f36 3a12 fc37 66b5 f637
00000150: 5546 b636 2297 9137 3507 4e36 7b28 0f38
00000160: 4335 de37 4a67 4436 4d4c 0d37 07e2 1137
00000170: eb1d e737 3aaa 0438 4b4f 3336 e409 ea36
00000180: 5e86 7537 2bef 3738 d98a 2f38 7536 2337
00000190: 968c a538 2ed0 6738 46ee 8139 f4df 6539
000001a0: 1406 6037 d034 3737 71c7 1137 49a4 5638
000001b0: 4ebb 3838 dcb2 cd36 e7d1 4438 dc66 1e38
000001c0: a396 3439 5cc1 1f39 31c8 dd36 2b99 5438
000001d0: 4cb0 5238 6ad9 4939 f7ce 3f39 14da 2137
000001e0: cab5 a137 914b 7c37 2219 6738 a551 3038
000001f0: c7aa 6a36 0635 d137 8422 0537 0cd0 8238
00000200: 80d0 2738 88cf 2236 c4bd ac37 9d40 6437
00000210: 94cc 9e38 364d 7638 7de7 3636 f96a 8e38
00000220: 613e 2338 f2fb 5239 daed 2939 662e 2037
00000230: d1f6 0d37 b4e3 9736 0fa1 8837 e56a 2737
00000240: d231 7435 5299 6037 9b8e 9436 82c9 0438
00000250: 2613 ad37 0534 5a36 d9bc 2839 640e 1737
00000260: 0b2b a838 feaf b037 055a 7637

exp_avg f4 [31]
-0.06399215 -0.028117679 -0.09483018 -0.10181887 -0.061814096 -0.009317773 -0.059904817 -0.08725648
0.013875795 0.009279395 -0.08309416 -0.008248193 -0.05150193 -0.092077844 0.019984104 0.03192595
0.005189833 -0.00074588973 0.053099576 0.04440376 -0.113314725 -0.04142854 -0.07863138 -0.09690814
-0.037281822 -0.035755504 -0.037921414 -0.09042849 -0.010742156 -0.016123615 0.051621266
00000000: 510e 83bd 0c57 e6bc 5336 c2bd 6986 d0bd
00000010: c730 7dbd 93a9 18bc c15e 75bd 86b3 b2bd
00000020: 4d57 633c 9b08 183c 452d aabd 6e23 07bc
00000030: b0f3 52bd 4f93 bcbd b4b5 a33c c9c4 023d
00000040: 7a0f aa3b d087 43ba f17e 593d b8e0 353d
00000050: 8d11 e8bd f9b0 29bd 7d09 a1bd c677 c6bd
00000060: d3b4 18bd 5d74 12bd 7c53 1bbd 9232 b9bd
00000070: deff 2fbc ac15 84bc d270 533d

exp_avg_sq f4 [31]
0.00236844 0.00050080405 0.003034487 0.0032158114 0.001222793 0.0008412108 0.0019958627 0.0029778234
0.0003056525 0.0001264551 0.0022918496 0.00019472839 0.0015067079 0.0026086506 0.0003846862 0.0002450938
0.00032521473 0.0004282473 0.00051996735 0.00033852446 0.0038163015 0.0007162842 0.0028048074 0.0032419206
0.00074314803 0.0008941602 0.0012204917 0.0029432655 0.00021776934 0.00032039196 0.0004395295
00000000: d437 1b3b 6448 033a 3ede 463b 5dc0 523b
00000010: 2046 a03a b484 5c3a 05cd 023b 9627 433b
00000020: fc3f a039 0899 0439 db32 163b 0130 4c39
00000030: ba7c c53a e5f5 2a3b b5af c939 ef7f 8039
00000040: 9581 aa39 6186 e039 6b4e 083a fc7b b139
00000050: ea1a 7a3b 05c5 3b3a dcd0 373b 6776 543b
00000060: d2cf 423a 1366 6a3a e8f8 9f3a cde3 403b
00000070: 0359 6439 48fa a739 a770 e639
