Cancer-senn/self_trial3/models/cancer/grad3_Hinput_Thdummy_Reg1e-02_LR0.001/model_best.pth.tar (torch_old, 26436 bytes, 34 tensors)

parametrizer.linear1.weight f4 [10, 30]
00000000: 9a89 5dbc d7ee 71bd ca6d df3d 5acb 1d3e
00000010: 8f38 813d e5a9 d73d 7dd6 853d 3234 423e
00000020: 47e0 7abd 6223 fdbd 242a b8bb 4145 083d
00000030: 68cb 99bd 7238 88bd f889 2e3e 066f 063d
00000040: 04a7 2abc 1260 183e af8b 953d b896 1e3e
00000050: 80f2 383e f902 893d f057 a4bd 7baf a5ba
00000060: 4d96 00be 8c62 be3d d020 1cbd 1c39 f3bb
00000070: 576b b93c 87c9 5e3e 434b 0a3e 13b6 4bbe
00000080: 542c c6bd 7838 a1bc 07e9 e43d f6cf 223e
00000090: 4a41 4abe cb0f 1e3e 6104 ba3c c4b6 40be
000000a0: 6c91 f1bd 6a9f bb3d 7bdf 86bc 16e8 16be
000000b0: 61e2 45be e93b 97bd 64a5 363d dd95 03bc
000000c0: c6e2 9e3c 45e8 913d a596 163e 3dbd 4abd
000000d0: 63d8 35be acd1 12be 50d0 efbd 7767 133e
000000e0: 35bd 4fbd d07d e93a 5b6e e9bd 4244 edbc
000000f0: fcbe 233e a028 e9bd 49c9 0e3e 2c54 753a
00000100: 5757 853d dbf6 d5bb 87a8 2a3e 8b9a 9dbb
00000110: de6e 563d c9f6 843a fee0 f03d 78cc 0e3e
00000120: f2f3 513e 0d85 edbd c5a7 08be 54dd 1d3e
00000130: c238 2b3d dad6 1e3e b969 8a3c 3398 183d
00000140: 8c50 11bd 9c2c 1d3e 6417 8abd 14ff 04be
00000150: f957 1abe a33d c33c b8e6 4cbb a30f bc3d
00000160: a563 033e b0a4 533d d428 37bd 1864 25bd
00000170: c010 193e b0b2 0d3e 6d9b 063e a8a4 56bd
00000180: 720b 1fbd 5e18 093e 0cbb 6abc 98ac 123e
00000190: 5566 fb3d 9f43 063e 3b99 6ebd 25af a2bd
000001a0: 02d2 36be 0610 3dbc bcb2 06be a7eb 2ebe
000001b0: 30c8 e93d 928b 983d 834e e93c 3500 3e3d
000001c0: fb2c 98bd da7c fa3d 48d3 a2bd 02de ae3d
000001d0: 62e2 443c e5f5 4d3d 776d 2bbe ee46 693d
000001e0: 64ef 2a3c 2085 bb3d 4b07 0f3e e5c8 f2bd
000001f0: c679 03be c8d5 3c3d b4e1 c6bd e436 4fbe
00000200: 5799 c7bd 5344 09bd 966b b63c 8b20 32be
00000210: ce8b 9cbd 7f07 1fbe 1beb 22bd fc07 e33d
00000220: f268 cebd 4edb 933d 0ac5 2abe eadb 18be
00000230: 90a7 fa3d 0a38 92bc da71 3abe f667 1cbd
00000240: 6d50 debd 577e a13d 4c6a e23d f909 4fbc
00000250: 9307 383e e3dc 053e f163 2bbe 4d75 ab3d
00000260: 414c 8fbc 2529 893c 0267 f33d f7f4 073e
00000270: e0d9 d13b 9f07 8cbd 87d8 e13b ad62 823d
00000280: 8951 02bd fbf7 ba3d 9f11 e03b 9061 d53d
00000290: 13fe 0fbe a8fe 023e bf1c 0cbe bbfb cfba
000002a0: d13d e93c 3c60 adbd d5b0 9ebd af6b bb3d
000002b0: 6fdc 22be 8e4c 373e 10b7 dcbd f55d 133c
000002c0: 804b 4e3d 792d 033d 4639 0bbe 3a49 b23c
000002d0: ba68 93bc a34c 133e d54c 2abe 5528 12be
000002e0: b2cc 28be 6b5e 063e 849c 203c 452e 33bd
000002f0: bacc 25be 7aba dabd 51e3 ecbd ded1 bbbd
00000300: b7de 2cbd b2f8 dabc 8a4f 373d 5d5d f03d
00000310: 9645 1fbd 6bb8 91bd 3f3d 3abe 3beb e7bd
00000320: e436 af3d 60b2 e2bd 2b23 04bd cd07 253e
00000330: 1501 393e b052 eebc 7289 c63d c5c4 303e
00000340: b17e 20be e51b 193e ebd7 24be b1e5 0a3e
00000350: 2bc1 d23d a21c 6f3c 19f5 f43d 843e 4c3e
00000360: d2d1 52bd 1703 a1bc c12a 513b 6d51 2b3e
00000370: e876 623c 2885 e2bd a130 e5bd db5a 843d
00000380: baac 86bd e66d 6bbd 1089 483e 1018 2f3d
00000390: c7b7 f13d 32a2 353d a084 9abd ac45 b9bb
000003a0: cb52 323d 851c dd3d 4eed 483d b919 e73d
000003b0: 3c66 61bc 2d68 f33d a0e9 0d3e d5d8 c73d
000003c0: 5578 c63d 5d5c 963d e8f5 86bd 6806 4b3d
000003d0: 0545 fe3b 80a4 ac3d 88f6 363e a61d b93d
000003e0: e882 cc3d dc83 2b3e 6d96 113e 0b95 c43d
000003f0: 7b0a c1bd 58d8 2f3e be99 ab3c c0f7 4cbd
-0.013521576 -0.059065666 0.109096125 0.15409604 0.06309616 0.10530452 0.06535051 0.18965223
-0.061249044 -0.12360264 -0.005620258 0.03326917 -0.075095 -0.06651391 0.17044818 0.032820724
-0.010415796 0.14880398 0.07302033 0.15487182 0.18061256 0.0669002 -0.08024585 -0.0012640798
-0.12557335 0.0929614 -0.03811723 -0.0074225795 0.022634191 0.21756564 0.13505273 -0.19893675
-0.09676424 -0.019680247 0.11177259 0.15899643 -0.19751468 0.15435712 0.022707166 -0.1881972
-0.11795315 0.09161265 -0.016463986 -0.14736971 -0.19324638 -0.07384474 0.044591323 -0.008031336
0.019395243 0.0712438 0.14705904 -0.049496878 -0.17758326 -0.14337796 -0.11709654 0.14394937
-0.05071755 0.0017813984 -0.11398002 -0.028963212 0.15990824 -0.11384702 0.13943972 0.0009358551
0.065107994 -0.0065296716 0.1666585 -0.0048096827 0.052351825 0.0010144348 0.11761664 0.13945186
0.20503214 -0.11597643 -0.13345249 0.15416461 0.041802175 0.15511647 0.016896116 0.037254523
-0.035477206 0.15349048 -0.06742743 -0.1298793 -0.15072621 0.023833102 -0.0031265449 0.0918267
0.1283098 0.05167073 -0.04471667 -0.04037866 0.14947796 0.13837695 0.13145228 -0.052403122
-0.038829274 0.13388202 -0.014326822 0.14323652 0.12275378 0.13111733 -0.0582516 -0.079435624
-0.17853549 -0.011539465 -0.13154119 -0.17082082 0.11415136 0.07448496 0.02847982 0.046386916
-0.07430454 0.12230845 -0.07950455 0.085384384 0.0120168645 0.05028333 -0.16740976 0.05695241
0.010433052 0.09156251 0.13967626 -0.11854724 -0.12839422 0.046102315 -0.09711018 -0.20235783
-0.09746044 -0.033512425 0.022268098 -0.17395227 -0.07643853 -0.15530203 -0.039774995 0.11085507
-0.100786105 0.072195634 -0.16676727 -0.1492764 0.12238991 -0.017848987 -0.18207493 -0.038185082
-0.10855184 0.078854255 0.11055431 -0.012636655 0.1797164 0.13072543 -0.16737343 0.08371983
-0.017492415 0.016743252 0.118848816 0.1327704 0.0064041466 -0.06837391 0.006892267 0.06366477
-0.03181604 0.0912933 0.006838038 0.10418999 -0.14061765 0.12792456 -0.13682841 -0.0015867868
0.02847186 -0.08465621 -0.07748572 0.091513984 -0.15904401 0.17900297 -0.10777104 0.008994569
0.05036497 0.032025788 -0.13596067 0.021763433 -0.017994273 0.14384703 -0.16630872 -0.14273198
-0.16484335 0.13121955 0.009802941 -0.043745298 -0.16191378 -0.10680099 -0.11566795 -0.09170888
-0.042204585 -0.026729915 0.04475359 0.11736558 -0.03888472 -0.07115253 -0.18187426 -0.113241635
0.085553914 -0.110691786 -0.0322601 0.16116257 0.18066819 -0.029092163 0.09694184 0.17262562
-0.15673329 0.14952047 -0.16097991 0.13564183 0.1029075 0.014594229 0.11960811 0.19945723
-0.05146963 -0.019654794 0.0031916352 0.1673028 0.013822295 -0.11060554 -0.11190916 0.06462642
-0.06575914 -0.057477854 0.19583535 0.042747557 0.11802631 0.044344135 -0.075448275 -0.0056540575
0.04353599 0.10796455 0.049054436 0.11284203 -0.013757285 0.11885104 0.13858652 0.09758154
0.0969092 0.07341836 -0.06589872 0.049566656 0.0077596926 0.084298134 0.17867482 0.09038858
0.09985906 0.16749519 0.14217539 0.0959874 -0.09425827 0.17172372 0.020947333 -0.05004096

parametrizer.linear1.bias f4 [10]
00000000: ceba e3bd 8745 9ebd 8368 233e a4c1 dfbd
00000010: 2000 e23d 674d b4bc 3f46 a03d 68ed f4bd
00000020: 8915 22be d606 00be
-0.111196145 -0.07728105 0.15957837 -0.10925606 0.1103518 -0.022009565 0.078258984 -0.11959344
-0.15828528 -0.12502608

parametrizer.linear2.weight f4 [10, 10]
00000000: d051 2bbe b277 7abe a06a 403e 0a3c bbbd
00000010: 48b5 90be 364d 0fbe e582 573e 05dd 873e
00000020: 282b 8e3d 34ef bfbd 8a98 75be b74d c33d
00000030: bd70 883e 3ab6 b1bd 3237 40be 6629 bb3c
00000040: f39a 993e 9052 90be b6cd 67bc ba00 2e3e
00000050: fc51 77be 43f9 52be 3728 6dbd 230d a63d
00000060: 695d 1f3e fa6d 01be 0f88 963d 899e a43d
00000070: 591a d33d bf6b 233e 1573 f53d bf82 acbd
00000080: 5d78 1bbe c415 ec3d 297c 58bd c285 e93d
00000090: b73b 5abe 0c7a a8be 29a7 1fbd a4be 04be
000000a0: 56c4 b4bd 1634 863e 4a5a 4f3d 4576 943e
000000b0: 27e9 913e 28d2 c6bc 21d1 a83e 104f a23d
000000c0: 9b22 233e 000c bfbd 82b8 e2bd df40 4a3e
000000d0: bd91 a03e c6fa 5fbd 7836 563e fa68 0bbe
000000e0: fcd5 833e b85b ce3d 877a 443e 33e2 6a3e
000000f0: 370e 783d 7059 0abe 0739 5c3e 95dd 363e
00000100: fc8e aabe 3550 a23c 0aef 78be c209 99be
00000110: 536b 803e c391 01bd bc05 3ebe b683 15be
00000120: 5a16 863e 3e32 f13d fee7 843d a98f 9a3e
00000130: 2263 73b9 2aa8 5c3e 93c6 953e 18e2 6f3d
00000140: 6cd3 3ebe ba6e c6bc af0a 3dbe cab1 813e
00000150: 5b54 af3d edcc cc3d 8d81 54be ed3e d1bc
00000160: c33c f93d 4030 623e fa4e 7b3e c757 19be
00000170: 59ac 20be 2fc0 8b3e d328 533e 8733 57be
00000180: 0c86 103e 1ff2 753e b86b 0bbe 6dee 473e
-0.16730428 -0.24459723 0.18790674 -0.09142311 -0.28263307 -0.13994297 0.21046026 0.26535812
0.06941825 -0.09371796 -0.2398397 0.09536307 0.26648512 -0.08677335 -0.18771055 0.022846889
0.3000103 -0.2818799 -0.014148166 0.16992465 -0.24152368 -0.20602898 -0.05789968 0.081079744
0.15562977 -0.12639609 0.0735017 0.08038051 0.1030776 0.1595907 0.11984841 -0.08423375
-0.15182634 0.11527589 -0.052852783 0.114024654 -0.21311842 -0.32905614 -0.038977776 -0.12963349
-0.088265106 0.26211613 0.050623216 0.28996482 0.28498194 -0.024270132 0.32972053 0.07925236
0.1593117 -0.09328461 -0.11070348 0.19751309 0.3136119 -0.054682516 0.20919216 -0.13614264
0.25749195 0.10076088 0.19187365 0.2293785 0.06056043 -0.1351068 0.21506129 0.17857964
-0.33312213 0.019813636 -0.24309936 -0.29890257 0.25081882 -0.03163315 -0.18556875 -0.14601025
0.26188928 0.11777161 0.064895615 0.3018773 -0.00023211216 0.21548524 0.29253063 0.05856523
-0.18635339 -0.02422272 -0.18461107 0.25330955 0.085610114 0.10000024 -0.20752545 -0.0255427
0.121697925 0.22088718 0.24541846 -0.1497489 -0.15690745 0.27295062 0.20621042 -0.2101575
0.14113635 0.24018143 -0.1361531 0.19524546

parametrizer.linear2.bias f4 [10]
00000000: 8beb 803e 55fe 623e 6ed7 65be beb5 063e
00000010: 6605 bf3d 1f3c 6d3d 8168 d33d e9d4 c9bc
00000020: 0f1f 4cbe 70b1 a33e
0.25179705 0.22167332 -0.22445461 0.13155267 0.093272015 0.057918664 0.10322667 -0.024637656
-0.19933723 0.31971312

parametrizer.linear3.weight f4 [5, 10]
00000000: 0f2c 4a3e cc0d 5ebe b183 03be d298 12be
00000010: ea0e d93b 9190 cd3d c289 913e 3c9c 913e
00000020: c7f0 37be 7bce 2fbe 1705 6fbc 48ac a6bd
00000030: 5661 e8bc e6ba 19be 88b6 62be 6b59 2c3d
00000040: c763 52be 45ea 0dbe e941 043e 5109 a3be
00000050: 96f7 b83b 3eb7 85be 2006 41be b1ce b23e
00000060: d0f3 4f3d 327c f8bd cda9 b0bd 71a2 ff3d
00000070: 688b aabd 55f5 58be 5d54 393e 8c12 7f3e
00000080: c47e 1e3e 905b 86bd 13f6 47be 526f ab3c
00000090: df20 003e 508e 293e 509c a7be 1bd6 623e
000000a0: c3dc 29be fe88 0dbe 73a5 853d 0656 823e
000000b0: a594 9dbd d468 48be 26f4 5dbe fadf 883e
000000c0: 1eaf d3bd cf74 57be
0.1974337 -0.2168495 -0.12843205 -0.14316109 0.0066240923 0.100373395 0.28425413 0.2843951
-0.17962943 -0.1716861 -0.014588616 -0.08138329 -0.028366726 -0.15012702 -0.22139943 0.042077463
-0.20545875 -0.13858898 0.12915768 -0.31843045 0.005644749 -0.26116365 -0.18849993 0.34923318
0.050769627 -0.121330634 -0.08626137 0.12482155 -0.08327371 -0.21187337 0.18098588 0.24909419
0.15478045 -0.06560433 -0.19527464 0.020927105 0.1251254 0.16558194 -0.32736444 0.22151987
-0.1658812 -0.1382179 0.065256976 0.25456256 -0.07694367 -0.19571239 -0.21675166 0.2673338
-0.10336135 -0.21040653

parametrizer.linear3.bias f4 [5]
00000000: fd0b 9ebe 8c8e 48bd 091e 81be e0a5 2d3e
00000010: 1a44 1cbd
-0.3086852 -0.04896407 -0.25218228 0.16957808 -0.038150884

parametrizer.linear4.weight f4 [31, 5]
00000000: 4392 7f3d 2c77 e7be c52c e0be 5e16 e23e
00000010: 7b08 98be a12a 82be 3148 a1be 60b2 833c
00000020: f946 0abd 8d96 d5be 1bd1 393e 9613 a73e
00000030: 9ebe 883e bd19 2b3e 24ec a93e b06b 063e
00000040: 7f10 b73e 03ee a93e 7996 c83e cc63 013d
00000050: 0461 8abe ffde 113e aa63 773e a904 89be
00000060: 7ffa f7be b8c6 cdbe b496 0bbe d1b8 ad3e
00000070: d1a5 be3e b38d afbe ed59 bfbe 8970 85be
00000080: 0e31 5c3e 58f4 2bbe db19 c1be a9ed dbbe
00000090: 01e9 b13e e961 473d 47b4 8f3e 6e26 bfbd
000000a0: 0b16 e1be cb05 afbe 4037 adbe 7438 89be
000000b0: 5df8 9cbe ef96 56bd 0df2 c43e 1de8 433e
000000c0: 9cf5 3cbe 35a0 67be 18a5 843e efae f2bc
000000d0: 824e 68be 8b01 a93e cd51 39be 390f 92be
000000e0: f945 8abe 1885 8bbe ac74 d2be 6654 203e
000000f0: e0d6 983e 8de1 bcbc c6cb 1abe 9f45 a73e
00000100: da9a 413e d880 733d 3ed1 cdbe 9509 283e
00000110: 48e0 92be 16bd a13e 7e46 80be d5d3 b53e
00000120: 2873 bcbe 642e 03be f9de 26be 1c28 6b3e
00000130: 5f14 ae3e 3994 1abe 383f 84be 989e a33e
00000140: a752 31be 944d 81be 097b d23e a239 bebe
00000150: bb1d 94be c8aa f2be 97e2 ccbe fd1c bb3e
00000160: 4d4b 073c b0f0 28be fb86 a23e 50b5 6ebe
00000170: 9d03 6fbe 5912 b63d fa2b d83e e404 c63c
00000180: 8256 51bc 10b8 b7be 7393 563d 91e8 673e
00000190: 7b03 533c 44c1 ea3d 75f8 9f3e 353f ca3d
000001a0: 8811 ebbe 8b03 11be 9f13 9ebe bbc1 81be
000001b0: 6076 fa3b 85ec bc3e 5ed4 7f3e cdd3 e4bd
000001c0: 32fc b7be 0b08 263e eca7 bebe 4783 f2be
000001d0: 8027 65be 6daf f8be 9ff6 39be dc27 3e3e
000001e0: 71c5 18be 4446 ebbe 7b6c 5f3e 1e27 b83e
000001f0: 131d 8a3c 6056 eb3d c684 6ebe 3cda 65bd
00000200: 5c36 e33e 789e b13e 7bb4 323e a4d0 ba3e
00000210: dbdc ccbe 5967 cdbc 9f06 12be 88e4 42be
00000220: f637 9cbe afc7 813e ec93 38be 3629 a13e
00000230: 1bb9 b13e 5d08 563e 85ba abbe 07d1 39bd
00000240: ad49 eebe accd 8cbd 3bfc 7d3d a7fe 5fbe
00000250: 65ad 153c a1b4 553e d051 e93e 0aa3 173e
00000260: 0370 e93e d765 5b3e 2fad be3c
0.062395345 -0.45208108 -0.43784156 0.4415769 -0.2969397 -0.25423148 -0.3150039 0.016076267
-0.03375909 -0.41716424 0.18146174 0.3263213 0.2670793 0.16709037 0.33187973 0.13127017
0.35754773 0.331894 0.39177302 0.031589314 -0.27027142 0.14245223 0.24159113 -0.26761368
-0.484333 -0.40190673 -0.13631707 0.33930066 0.37235883 -0.34287795 -0.37373295 -0.2606242
0.21503088 -0.16792428 -0.3771504 -0.42954758 0.3474808 0.04867736 0.28067228 -0.09333502
-0.4396213 -0.34184107 -0.33831215 -0.26800883 -0.30658236 -0.052390035 0.3846592 0.19131513
-0.18453068 -0.22619708 0.25907207 -0.02962443 -0.22686198 0.3300899 -0.18097611 -0.2852724
-0.2700651 -0.2724998 -0.4110464 0.15657195 0.29851437 -0.02305677 -0.15116796 0.32670304
0.18906727 0.059449047 -0.40198702 0.16409905 -0.28686738 0.31589574 -0.2505378 0.35513178
-0.36806607 -0.12810665 -0.16295995 0.2296452 0.33999917 -0.15095605 -0.25829482 0.31956935
-0.17316686 -0.252545 0.41109493 -0.37153345 -0.28928933 -0.4739592 -0.40016624 0.36545554
0.008257699 -0.16498065 0.31743607 -0.23311353 -0.23341222 0.08890218 0.4222105 0.024172254
-0.012776973 -0.35882616 0.052386712 0.22647311 0.012879248 0.11462644 0.31244245 0.09875337
-0.45911813 -0.14161508 -0.30874345 -0.25343117 0.007643506 0.368992 0.24983355 -0.1117321
-0.35934597 0.16214006 -0.3723749 -0.47365782 -0.2237835 -0.4857134 -0.18160485 0.18569893
-0.14919068 -0.45952046 0.21818726 0.35967344 0.016859567 0.11491084 -0.23292837 -0.056116328
0.4437741 0.34691215 0.1745166 0.36487305 -0.4001225 -0.025073694 -0.14260338 -0.1903249
-0.30511445 0.2534766 -0.18025178 0.31476754 0.34711537 0.20901628 -0.3354074 -0.04536536
-0.46540585 -0.06875166 0.062008124 -0.21874486 0.009135579 0.20869686 0.4557023 0.14808288
0.4559327 0.21425568 0.02327594

parametrizer.linear4.bias f4 [31]
00000000: b893 bf3e c532 6c3d 43a5 2a3e 4b0d 28be
00000010: 15a2 c3be 8227 cc3e 2c48 c83b c692 1cbe
00000020: 6b12 b43d a8c0 9dbe c30d 9abe 7d8d a3be
00000030: 3b9b c63e 82e4 a3be c41a b7bd 1eae c53e
00000040: 858a 38bd 121a 443e d4b6 893e 9046 433e
00000050: 3cb1 7ebe e3d4 3d3e 0408 a83e e314 8ebe
00000060: d8d9 573e fb65 a2bd 31a7 ea3e 45e6 b0bd
00000070: ff48 823e e07d 9ebc b13d 3a3e
0.37417388 0.057665605 0.16664605 -0.16411321 -0.38209596 0.39873892 0.006112119 -0.15290365
0.087925754 -0.30811048 -0.30088624 -0.31943884 0.38790306 -0.32010275 -0.08940652 0.38609403
-0.045053978 0.1915057 0.268973 0.19069886 -0.24872297 0.18538241 0.32818615 -0.2775031
0.21079195 -0.079296075 0.45830682 -0.086376704 0.25446317 -0.019347131 0.18187596

exp_avg f4 [10, 30]
00000000: ace7 3eba 9770 0cba dc80 34ba 10fd 3eba
00000010: 1a38 8eba a04d be38 4b73 85ba 2c42 a2ba
00000020: 5291 aeba 30f2 fdb9 a346 fcba 401e c5b9
00000030: 4f4f 01bb f185 b9ba 050e 6aba c60e a93a
00000040: 3f34 aa3a 85a7 d73a 59cb 1dba fa30 3ab8
00000050: c411 a1ba 5d1c a4ba 6899 b8ba dd0e 9cba
00000060: 484c 15bb 8345 59ba 2dbf b3ba cfed afba
00000070: aa18 c7ba 29c4 fcba 57d9 5ebb 8961 263a
00000080: 55d2 5dbb 2cc0 19bb f3bd d3b9 f445 2fba
00000090: 5970 8bb8 613a edba 9bf2 b83b 4383 873b
000000a0: 78a5 7e39 c205 be3b e202 9cb9 6adb 2bba
000000b0: 1376 063c 171d 603b 4109 de3b 68cb b83b
000000c0: ac43 383b 6324 9f3b aea4 55bb ab12 14ba
000000d0: 1ebb 6dbb 5e6c 11bb 03cd 86ba ff6e 87bb
000000e0: af4d faba 7263 4cbb fbd2 10bb c95c d7ba
000000f0: aa29 f63a 1fab c8bb 5ca2 0b3b f2b1 9439
00000100: a74b a43a 53f8 86b9 6c60 793a 5b35 cb3a
00000110: 7dcb eaba bebb 87bb 62d5 dbba ef1b 20bc
00000120: f59b c5b8 b871 02bb caad 2dbc 11ce 85bb
00000130: fffb 91bb fe40 89bb 8546 8a39 889d acbb
00000140: 2cf0 5f3a 9031 bebb ad2c e83a ad7d 8eba
00000150: 2831 edba 50f8 473b 6b95 e93a 2063 443b
00000160: faeb 8e3b 398a 6438 834a ceba e9ba bc3b
00000170: eacd 02bb 3c04 a1ba d237 a9bb 8e68 4cbb
00000180: c040 1ebb 1ae2 66bb cedd 83ba de00 c8ba
00000190: 60d4 5cbb 0c17 913b 44e4 83bb d247 57bb
000001a0: dcfd e4ba c649 37bb d147 c4b9 f72b 1cbb
000001b0: da8c 51ba d2e6 a0ba 8843 c7ba 8f25 bc3b
000001c0: 8394 01bb 8558 66ba 60f4 7abb 70e1 1fbb
000001d0: 123e d4ba ba86 5ebb 3928 afba d05b bdba
000001e0: 03eb 41bb 5f47 f53b b01b 43bb 74bc daba
000001f0: 223a babb 8174 633a b8b0 eb3a ffb6 acba
00000200: 6351 413b e2fa a23b 2362 153a aa39 2a3c
00000210: c019 1139 5f20 31b9 69ab 033c c65e ff3b
00000220: aa70 0e3c 7062 ca3b 0fe9 083b 7b93 0a3c
00000230: 4470 27bb 5ea2 c73b e7ef 33bb baeb 93ba
00000240: fa67 65bb 342e afba 0b8b 623a 3ba7 23bb
00000250: e4ac 79bb 0c91 f23a 28c5 04bb 80f2 0a3b
00000260: e76b a1ba 41c7 ebba c140 e9b9 2002 803b
00000270: 0255 853b f091 d53a c75c 79ba dd56 473b
00000280: 4e4f 0139 c683 8b3b 5dfc 6339 b544 9b39
00000290: d7d6 4b3a 6cd7 253c 92a0 e83b 85ad 863b
000002a0: 1222 9b3b 09fb 0f3c fea4 f8ba d191 203b
000002b0: 55f4 d5ba 037b 14bb c1d4 01bb 0248 4d3b
000002c0: 2d28 3d3b 36bb cd3a cdf3 ca38 4c80 2e3b
000002d0: e422 893b 4eb0 1aba 05af 6d3b 407f 6a3b
000002e0: 05f3 57ba 5067 faba e608 bdba 4b49 453a
000002f0: 922e 4fba c65f 93bb f2ed 313a 4d3d 49bb
00000300: 0a86 313a aaa6 fb39 99d9 20bb e08a d2bb
00000310: 9a7e d9bb 9f80 abbb 4330 04bb 7db0 cabb
00000320: f815 4e3b 3fc0 61ba 3945 583b 4f8f 2e3b
00000330: 4c70 e739 dcba 5b38 6851 2eba b57c a239
00000340: 0049 ba3a 1e00 b6ba 917a a53a 85c1 f3b9
00000350: 6cd2 ab3a 0bf7 583a cc1e b93a 1088 9b39
00000360: ae6c a63a 20b2 973a 0a57 c0ba 4052 0937
00000370: ba39 4cb9 1c44 18bb b8c4 6a3a e308 d2b9
00000380: a085 f5ba ef14 a4ba 0cc8 94ba 1134 07bb
00000390: 4850 1aba 39f5 db37 3310 7b3a 4317 adb8
000003a0: 3636 b93a d2b0 a639 781b a53a 38dd 033b
000003b0: a8ad 013b 85da dd3a a0f0 a73a e1bb 153b
000003c0: 4195 aab9 f64b e5b9 99e9 09b9 c437 5cba
000003d0: b37a 2f3b f41a 3e39 ec35 df39 13f5 593a
000003e0: 7ad4 563a 8fb8 28ba 92c1 9aba aa5d d5ba
000003f0: cb18 19ba c532 b7ba c271 7fbb 334f 08bb
-0.00072824466 -0.00053573534 -0.00068856566 -0.0007285634 -0.001085046 9.074365e-05 -0.0010181455 -0.001237934
-0.0013318455 -0.00048436364 -0.0019247126 -0.00037597306 -0.001973111 -0.0014154298 -0.00089284807 0.001289808
0.0012985541 0.0016453123 -0.0006019376 -4.439147e-05 -0.001228862 -0.001252066 -0.0014083805 -0.0011906285
-0.0022781063 -0.0008288251 -0.0013713591 -0.0013422313 -0.0015189846 -0.0019284535 -0.0034004056 0.00063469313
-0.0033847291 -0.002346049 -0.0004038658 -0.0006686144 -6.648963e-05 -0.0018099063 0.005644155 0.0041355207
0.0002428497 0.005799026 -0.00029756787 -0.00065558276 0.008206862 0.0034197026 0.0067760055 0.0056394823
0.0028116507 0.0048566326 -0.0032599377 -0.00056485337 -0.003627486 -0.0022189836 -0.0010284487 -0.004133105
-0.0019096638 -0.0031187204 -0.002209841 -0.001643085 0.0018780727 -0.006123915 0.002130649 0.0002836134
0.0012534753 -0.00025743488 0.0009512964 0.0015503572 -0.0017913427 -0.0041422537 -0.0016771967 -0.009772285
-9.422741e-05 -0.0019904207 -0.010600517 -0.004083403 -0.004455089 -0.004188656 0.00026373952 -0.0052678026
0.00085425633 -0.005804248 0.001771351 -0.0010871195 -0.0018096315 0.0030512996 0.0017821019 0.002996631
0.0043616267 5.4488166e-05 -0.0015738759 0.005759586 -0.001995916 -0.0012284587 -0.005164125 -0.003119025
-0.002414748 -0.0035229982 -0.001006061 -0.0015259048 -0.0033695921 0.004427796 -0.004025014 -0.0032849205
-0.0017470676 -0.0027967556 -0.0003743754 -0.0023829916 -0.0007993706 -0.0012275821 -0.0015202621 0.005741782
-0.0019772358 -0.0008786994 -0.0038292632 -0.0024395846 -0.0016192815 -0.0033954815 -0.0013363428 -0.0014446918
-0.002958954 0.0074853147 -0.0029771142 -0.0016688243 -0.0056831995 0.0008676723 0.0017981743 -0.0013177096
0.0029497973 0.004973755 0.00056985224 0.010389725 0.0001383787 -0.00016892095 0.008036473 0.0077932803
0.008693853 0.0061762854 0.0020890867 0.008458014 -0.0025549093 0.0060923537 -0.0027456225 -0.0011285462
-0.0035004602 -0.001336521 0.0008641935 -0.0024971503 -0.0038097436 0.0018506362 -0.0020259116 0.002120167
-0.0012315483 -0.001798846 -0.0004448947 0.0039065033 0.0040689716 0.0016294103 -0.0009512421 0.0030416765
0.00012331942 0.004257652 0.0002174242 0.00029615095 0.0007775849 0.010122161 0.0070992196 0.0041100406
0.004734286 0.008787879 -0.001897007 0.0024500976 -0.0016323427 -0.0022656329 -0.001981065 0.0031323438
0.0028863058 0.0015696052 9.677522e-05 0.0026626764 0.0041850675 -0.0005900905 0.003626765 0.0035781413
-0.0008237812 -0.0019104276 -0.0014422208 0.0007525875 -0.0007903363 -0.004497501 0.0006787471 -0.0030706704
0.00067719875 0.00047998625 -0.002454376 -0.0064252466 -0.0066374065 -0.0052338387 -0.0020170368 -0.00618559
0.00314462 -0.0008611716 0.0033000244 0.0026635712 0.0004414342 5.2387695e-05 -0.0006649704 0.00030991962
0.001421243 -0.0013885533 0.0012625029 -0.00046492755 0.0013108975 0.00082765584 0.0014123558 0.00029665278
0.0012697184 0.0011573471 -0.0014674377 8.184987e-06 -0.00019476461 -0.0023233956 0.0008955705 -0.00040060942
-0.001873184 -0.0012518446 -0.0011351123 -0.00206304 -0.00058865966 2.6221025e-05 0.0009577304 -8.253616e-05
0.0014130536 0.0003179373 0.0012596687 0.002012087 0.0019787345 0.0016926086 0.0012812801 0.002284758
-0.0003253613 -0.0004373488 -0.0001315236 -0.0008400644 0.0026776015 0.00018129853 0.0004257405 0.0008314412
0.00081951136 -0.0006436193 -0.0011806956 -0.0016278524 -0.0005840181 -0.0013976922 -0.0038977717 -0.002079916

exp_avg_sq f4 [10, 30]
00000000: 397f 0335 835f 3335 8f33 0935 c06e 5335
00000010: 8f19 1c35 3a20 d334 96a5 5335 5c6d 5735
00000020: 5ff7 5835 480b 5b34 9d14 4236 4e36 a035
00000030: c0ef 3b36 782c 9536 7bf4 bd35 1e43 4235
00000040: bbf4 8835 30a4 bb35 26a9 8735 848c 8134
00000050: 792a 4135 5d38 6a35 47ff 4b35 0e1d 9235
00000060: beb2 7435 3ff2 3234 f66e 1135 5685 1235
00000070: 8a30 df34 a5d3 c934 67c3 8836 7cd4 3135
00000080: 7871 8036 6ee8 9836 4ac8 2e36 58df 8636
00000090: e703 b536 577e 6936 b5ca 0e37 d4ff 5037
000000a0: d17e 4a36 6cd6 c736 f2e4 1b36 cb9f 3236
000000b0: de60 6937 0d28 4f37 6362 db37 cc68 4e37
000000c0: 952c 8436 d311 9237 6d6f 8e36 15c1 0235
000000d0: ac90 8736 6e0b a136 e6df 8536 72b4 3a36
000000e0: a7cf 8f36 07aa 3336 bc3e 8035 9c54 a836
000000f0: 0b7a aa37 5012 8a37 5b70 9f37 a825 de37
00000100: 376b 0437 d9c5 2e37 a3de 2e37 caf2 6c37
00000110: 4b1a 3337 7d33 9c37 091b 0b38 1150 b137
00000120: e57d f337 82bc 3c38 d734 2838 7e3d 9637
00000130: e158 9137 36cb d137 96a8 2c36 a512 8037
00000140: b2c7 db37 4bc4 8837 7a70 cd37 4f86 2438
00000150: 08b1 8437 240d bc36 0d60 0037 5513 5637
00000160: c0c3 be36 5fef 7c37 ba3b d836 b785 7237
00000170: 7b4a de36 a7db fc36 940b 2d37 41fa 1337
00000180: 46a4 2d37 a7f4 2c37 5040 ee36 6831 d636
00000190: 1413 2737 56a5 8737 499b 1437 5afa 2637
000001a0: 7541 6c37 849b ad36 4199 ce36 0dd6 8a36
000001b0: c345 be36 14ad 5336 7214 c236 aa6d 6337
000001c0: 6fcf c536 b984 d936 ee0f 1437 a282 6336
000001d0: 9cbd 8036 3343 ce36 ed41 0736 f589 4136
000001e0: e727 0237 1ef2 2337 860d fb36 ca59 0b37
000001f0: 4739 a736 6b6a e736 c25c 0e37 79de eb36
00000200: 3432 0237 ce71 1b37 451e cf36 de22 8c37
00000210: b4e4 ac36 c463 ad36 4910 8737 8dd9 ae37
00000220: a50c d237 b20f 8c37 f4d6 5336 8adb 8f37
00000230: d214 0937 92b1 ee36 ea7d 0437 0025 1737
00000240: 8b77 b236 307a 7936 de5d c736 8a61 b436
00000250: 5333 1c36 769b be36 c5f3 a636 e08c b135
00000260: edbf b036 4ba3 a036 06e1 ca36 797f 0637
00000270: f0f0 3337 90bb 1e37 fe35 6237 65c1 8e36
00000280: 9319 5f37 6454 fd36 dc97 1b37 ec1a 2437
00000290: f83d a137 26f5 a437 3149 3737 ef64 df36
000002a0: b856 6237 c876 8837 0fa2 7f36 ef47 0a36
000002b0: 4d7d 8136 00f5 7736 4229 0637 b41a 9e36
000002c0: e47c 9836 087d a836 44b2 4236 7843 9c36
000002d0: 629b 9336 190d 4a36 4d28 8336 804c a436
000002e0: 53a4 2336 5c2f 9f36 83a0 7b36 8ac1 1436
000002f0: 355f 4836 c693 1c37 9e78 8736 a3df c135
00000300: 4e74 4236 0917 c636 448c 1636 a1a4 3337
00000310: 3813 5937 5d74 fd36 18a6 b835 3d50 3b37
00000320: 51f9 b736 3e14 9036 6dd5 9f36 1c16 0537
00000330: 86f8 2936 ec82 2836 dec9 5936 729d 1136
00000340: 3c03 0f36 8fe8 c136 ed99 f736 9e5e 3536
00000350: 59ee f436 110e 3337 4a92 a235 d20b 1336
00000360: 62c9 8e36 7dcf ae36 a004 5336 27b6 8635
00000370: d6c1 8937 17df 0736 80cb 7f37 2aa1 e037
00000380: 6264 cd36 15f2 4736 9a93 3336 0ce8 ba36
00000390: e464 3e35 af85 1635 796a 1437 7545 1436
000003a0: f63c 1137 1d28 6637 dc10 ac35 5963 8b35
000003b0: b1c4 1636 f9d9 7836 6320 4a35 fe31 2d35
000003c0: beb4 2136 a6b3 a135 5576 1036 39e3 3136
000003d0: 0354 be35 957b 9835 66a6 8b35 d8e7 8a35
000003e0: 17df 3236 e83c 6f36 c7e4 3236 da37 2335
000003f0: 5954 1e36 87ad 6d36 97fa bf36 b7e5 4236
4.8986436e-07 6.6821684e-07 5.1111505e-07 7.876479e-07 5.815172e-07 3.932526e-07 7.8844585e-07 8.025288e-07
8.082624e-07 2.0400068e-07 2.8920251e-06 1.1936734e-06 2.8004724e-06 4.445723e-06 1.415275e-06 7.23683e-07
1.0204016e-06 1.398037e-06 1.0107512e-06 2.413036e-07 7.195991e-07 8.725381e-07 7.599487e-07 1.0886304e-06
9.115719e-07 1.666567e-07 5.417818e-07 5.458327e-07 4.1572304e-07 3.759316e-07 4.0758637e-06 6.6246844e-07
3.8279068e-06 4.5570114e-06 2.6044604e-06 4.019512e-06 5.3946746e-06 3.4793245e-06 8.511056e-06 1.2457331e-05
3.0174162e-06 5.955624e-06 2.3230064e-06 2.6617079e-06 1.3910436e-05 1.23474865e-05 2.615265e-05 1.2302957e-05
3.9390966e-06 1.7412856e-05 4.2449014e-06 4.8709745e-07 4.0401555e-06 4.7995045e-06 3.989774e-06 2.7821193e-06
4.285906e-06 2.6772047e-06 9.555001e-07 5.01664e-06 2.032241e-05 1.645941e-05 1.9006597e-05 2.6481997e-05
7.892776e-06 1.0417273e-05 1.0423045e-05 1.4123225e-05 1.0675353e-05 1.8620625e-05 3.316536e-05 2.1137328e-05
2.9026482e-05 4.4998254e-05 4.0103532e-05 1.7910028e-05 1.7326734e-05 2.5009369e-05 2.5728127e-06 1.5267471e-05
2.6199825e-05 1.630387e-05 2.449028e-05 3.922573e-05 1.5818063e-05 5.6043664e-06 7.651758e-06 1.2759895e-05
5.6852296e-06 1.5076103e-05 6.4442547e-06 1.4455457e-05 6.6247862e-06 7.535756e-06 1.0314299e-05 8.82015e-06
1.0349851e-05 1.03089615e-05 7.1004397e-06 6.3834486e-06 9.958418e-06 1.6170245e-05 8.857643e-06 9.952661e-06
1.4081937e-05 5.173906e-06 6.1571195e-06 4.1376393e-06 5.6705626e-06 3.1542195e-06 5.7840307e-06 1.35557875e-05
5.895206e-06 6.482555e-06 8.825196e-06 3.3901674e-06 3.8367707e-06 6.1471014e-06 2.0154941e-06 2.8839543e-06
7.757894e-06 9.771929e-06 7.4819573e-06 8.305951e-06 4.983656e-06 6.896725e-06 8.485456e-06 7.029445e-06
7.760293e-06 9.265217e-06 6.1726046e-06 1.6705537e-05 5.152624e-06 5.167416e-06 1.6100837e-05 2.0843721e-05
2.5039839e-05 1.669661e-05 3.156657e-06 1.714916e-05 8.170684e-06 7.1136246e-06 7.89713e-06 9.008916e-06
5.31873e-06 3.7175014e-06 5.9415897e-06 5.375773e-06 2.3275686e-06 5.6805393e-06 4.975564e-06 1.3228528e-06
5.267552e-06 4.7873814e-06 6.0462653e-06 8.016702e-06 1.0725329e-05 9.461204e-06 1.3483221e-05 4.254444e-06
1.329779e-05 7.549812e-06 9.2740775e-06 9.78143e-06 1.9221552e-05 1.966448e-05 1.0924691e-05 6.657668e-06
1.34908405e-05 1.6267775e-05 3.8092292e-06 2.0605473e-06 3.8590865e-06 3.6948477e-06 7.9966285e-06 4.7118756e-06
4.544492e-06 5.0213457e-06 2.9012017e-06 4.6570167e-06 4.3990303e-06 3.010797e-06 3.908796e-06 4.8964866e-06
2.4384542e-06 4.7440826e-06 3.7495345e-06 2.2166373e-06 2.985774e-06 9.332731e-06 4.037355e-06 1.4444707e-06
2.897595e-06 5.9035415e-06 2.2433387e-06 1.0707562e-05 1.2938683e-05 7.553534e-06 1.3757408e-06 1.11647505e-05
5.4828492e-06 4.293891e-06 4.7634153e-06 7.9325655e-06 2.5327622e-06 2.5110157e-06 3.2453022e-06 2.169833e-06
2.1310543e-06 5.7789216e-06 7.379093e-06 2.7026176e-06 7.299514e-06 1.06725065e-05 1.2112516e-06 2.1911587e-06
4.255374e-06 5.209759e-06 3.1444142e-06 1.0036791e-06 1.6421935e-05 2.0246423e-06 1.5246565e-05 2.6777929e-05
6.121162e-06 2.979422e-06 2.6758994e-06 5.570246e-06 7.092733e-07 5.607389e-07 8.8462775e-06 2.2094148e-06
8.656867e-06 1.3718408e-05 1.2819905e-06 1.0385221e-06 2.2466231e-06 3.7081757e-06 7.5297993e-07 6.452027e-07
2.4096075e-06 1.2047719e-06 2.152655e-06 2.6507316e-06 1.4180554e-06 1.136085e-06 1.0404735e-06 1.0349277e-06
2.6653922e-06 3.5649227e-06 2.6657233e-06 6.0803507e-07 2.3592931e-06 3.5416758e-06 5.721416e-06 2.9041964e-06

exp_avg f4 [10]
00000000: e30c 4cbb 78ae 243c cfd4 d9bb 0ece 20bc
00000010: 4307 a63b e13d 973c 602a abbc cd69 89ba
00000020: 2756 533b f113 1ebc
-0.003113561 0.010051362 -0.006647683 -0.009814752 0.0050667836 0.018462123 -0.02089423 -0.0010483802
0.0032247396 -0.009648309

exp_avg_sq f4 [10]
00000000: 9e73 6b36 7e1d 3f37 7336 8837 c3fd 8037
00000010: a713 e836 9885 cf37 c004 c137 9648 1f36
00000020: bea5 4b36 5c62 4137
3.5085027e-06 1.1391354e-05 1.6237818e-05 1.5376956e-05 6.9164266e-06 2.4738532e-05 2.3009605e-05 2.3735097e-06
3.0345832e-06 1.15265975e-05

exp_avg f4 [10, 10]
00000000: f161 4ebb 322a ba3b a88f 94bb 485d 283b
00000010: 72d1 f63a 3174 55bb d80f a63a aa4a 8c3a
00000020: c860 04bb e83a 59bb 7fd2 863a c19c ad3a
00000030: 626d 07bc a374 af3b 3923 11bb 013d 14bb
00000040: 1e3b da38 dff7 4bba 39e0 3a3b 245b 8d3b
00000050: 3487 663b ce20 23bb 84aa 0dba bdb4 9e3b
00000060: 083b 01bb 9290 b039 71a6 cf39 52f7 9f3a
00000070: b89a 363b b82d a23a de8b ee3a 1ac8 9f3b
00000080: eb85 5a3a 7646 24bb 746f 3e3b 501a 453b
00000090: e8cc 363a dc6a 8738 df2d daba 5612 0a3c
000000a0: baa3 c8b9 e9ed 83b9 b003 c639 5bad c2ba
000000b0: 7c1b 1eba 9861 f13a 051e 0cbb 7ce5 48ba
000000c0: 5b46 7b3a 91e6 d73a a79c 03bb d757 65b8
000000d0: cfc8 e7ba 0f05 1b3a 3c42 95ba b39b feba
000000e0: 2f50 68ba 06c6 85b9 f8cf ed39 1c51 7abb
000000f0: 141d 2fbb edcd 553b 1f3a 22bb 684a 9e3b
00000100: c772 523a f7fb ceba 18f7 31ba 26d9 0e3a
00000110: d2dc 83ba 375d b3bb c4f6 103a 1003 443b
00000120: 5c4b a23b 0151 723b c6ec f43b f7ad 463b
00000130: 32a6 a83b 0c0d 133b c4ff ebbb b8ff 00ba
00000140: 3735 6739 c8b1 f3bb b6ab 203b f235 ccbb
00000150: 0d1c b9bb e780 853a eaca 93bb 93d5 08bb
00000160: 2be8 9d3b 728e 4639 c121 103b 4df0 783b
00000170: 59bd 19bc 9c01 f43b f887 a7ba 8512 bfba
00000180: a346 3839 fd94 e03a a75d 783b 2b48 d43b
-0.0031491483 0.0056812996 -0.0045337267 0.0025690366 0.001883073 -0.0032570476 0.0012669517 0.0010703404
-0.0020199288 -0.0033146683 0.0010286121 0.0013245569 -0.008265825 0.0053544804 -0.0022146238 -0.002261937
0.000104060615 -0.0007780771 0.0028514995 0.0043138433 0.0035175802 -0.002489138 -0.0005404132 0.004843323
-0.0019719023 0.0003367705 0.00039606125 0.0012204445 0.0027863216 0.0012373244 0.0018199643 0.004876149
0.00083359954 -0.0025066412 0.002905813 0.0030075498 0.00069732824 6.457206e-05 -0.0016645751 0.008427223
-0.00038268958 -0.00025163524 0.0003776825 -0.0014852689 -0.0006031317 0.0018415926 -0.0021380198 -0.00076635904
0.0009585374 0.0016471912 -0.0020082386 -5.4679662e-05 -0.0017683747 0.00059135346 -0.0011387537 -0.0019425064
-0.0008862046 -0.00025515276 0.0004535911 -0.0038195318 -0.0026720213 0.0032623962 -0.002475388 0.0048306473
0.00080279674 -0.0015791644 -0.0006788834 0.0005449228 -0.0010060316 -0.0054737586 0.0005529935 0.0029909052
0.004952831 0.0036974552 0.0074745147 0.0030316093 0.005146765 0.0022438196 -0.0072021205 -0.00049209176
0.00022049701 -0.0074369647 0.002451641 -0.0062320167 -0.005649096 0.0010185511 -0.004510273 -0.0020879253
0.0048189363 0.00018935816 0.0021992775 0.0037985027 -0.009383523 0.007446481 -0.0012781611 -0.0014577663
0.00017573922 0.0017134246 0.0037897618 0.0064783297

exp_avg_sq f4 [10, 10]
00000000: 34b6 7837 d8b4 eb36 94c3 d536 c96c e536
00000010: a2f9 dc36 3b40 f736 9a52 5137 067d 8a36
00000020: 9bfb 4f37 6fa9 f436 a1c8 3136 5a98 9b36
00000030: 3fd7 2737 21fa 9c36 08af 0337 4036 ff35
00000040: 18d2 ff36 9315 9936 0d7c f836 dad5 af36
00000050: 0686 c935 4567 bb35 3a60 c335 bfe0 5836
00000060: 161d dd35 f460 ab34 b362 da35 3595 0636
00000070: a065 db35 409a ac35 b8e3 2737 ddb4 8636
00000080: d884 d536 5d0d 5c36 5586 8036 eac0 9536
00000090: d769 7936 e111 a736 3771 1c36 80e8 4737
000000a0: 59c8 9236 7987 9e35 fa19 8236 6f64 3136
000000b0: 9ac9 c335 ad08 2e36 d154 9e36 ef5c 0336
000000c0: 83aa 8036 be5a 1f36 60cd 6d36 dd1b a734
000000d0: b2ed c635 bba0 7b35 56d0 5235 1b65 e335
000000e0: dcdb 9635 1dc7 a335 78e2 4735 ef99 2136
000000f0: 404f 4437 56af 9436 68f8 2b36 54c1 6d36
00000100: 19b3 1636 8282 4e36 3608 3336 d0d6 aa36
00000110: d22c be36 832e 0a37 6ea6 8737 759f 8f37
00000120: 2666 8637 2027 2437 8088 0d38 c3ee b336
00000130: 223f 0838 052f ad37 2970 2b38 5a18 a837
00000140: 77f5 cb37 79cb d837 e175 9637 0f4a 8e37
00000150: d489 0338 7ed3 3037 5324 3f38 8723 be37
00000160: 25ce 2e38 5fa9 d837 6390 db36 0c4d dd36
00000170: ed18 7f37 5cbe 1837 b8b2 2437 9bd4 1d36
00000180: 680e 4037 8f13 c036 2012 3c37 5a66 3237
1.4824374e-05 7.0245987e-06 6.370663e-06 6.837396e-06 6.585572e-06 7.368651e-06 1.2476603e-05 4.127275e-06
1.2396743e-05 7.2914913e-06 2.6491837e-06 4.637096e-06 1.0004092e-05 4.678281e-06 7.848961e-06 1.9014769e-06
7.6240503e-06 4.562267e-06 7.4054174e-06 5.240302e-06 1.5014673e-06 1.3962641e-06 1.4556638e-06 3.2317328e-06
1.6474248e-06 3.1921775e-07 1.6270991e-06 2.0054406e-06 1.6346348e-06 1.2859891e-06 1.0006996e-05 4.0145665e-06
6.3633597e-06 3.2790333e-06 3.8303356e-06 4.463004e-06 3.7165498e-06 4.979069e-06 2.3311711e-06 1.1915457e-05
4.3744626e-06 1.1811345e-06 3.877326e-06 2.6433515e-06 1.4587306e-06 2.593307e-06 4.718641e-06 1.9574616e-06
3.8345474e-06 2.3745665e-06 3.5435296e-06 3.1126447e-07 1.4821328e-06 9.373868e-07 7.8534265e-07 1.6942244e-06
1.1239858e-06 1.2202396e-06 7.446283e-07 2.408047e-06 1.1700962e-05 4.4311555e-06 2.5625577e-06 3.5428284e-06
2.245599e-06 3.0772358e-06 2.6677858e-06 5.0914023e-06 5.667659e-06 8.23627e-06 1.6170754e-05 1.7121181e-05
1.6021611e-05 9.784271e-06 3.3744145e-05 5.3624112e-06 3.2483724e-05 2.0645102e-05 4.0874034e-05 2.00385e-05
2.431379e-05 2.5843956e-05 1.7936285e-05 1.6962205e-05 3.1361196e-05 1.0539659e-05 4.5571778e-05 2.2666309e-05
4.167682e-05 2.5828076e-05 6.5435174e-06 6.5952827e-06 1.5204988e-05 9.1042275e-06 9.816773e-06 2.3518576e-06
1.1447446e-05 5.724323e-06 1.1209893e-05 1.0633457e-05

exp_avg f4 [10]
00000000: 47b1 6cbc 366e 29bd 4f57 8cbc fd3a 79bb
00000010: 786b 12ba c672 ceba aa2b 83bc 824b fc3b
00000020: 5d15 b43c 8a59 6ebd
-0.014446563 -0.04136487 -0.017131476 -0.0038029545 -0.0005585472 -0.0015750758 -0.016012032 0.007699431
0.021982843 -0.05819086

exp_avg_sq f4 [10]
00000000: 023b fa37 587e d838 86d5 2b38 7aec 2c38
00000010: 0e68 0837 5add fd36 634b c037 6d82 9538
00000020: 1de6 0e39 7dc6 8139
2.98298e-05 0.00010323216 4.0968436e-05 4.122823e-05 8.130459e-06 7.5657563e-06 2.2923288e-05 7.129167e-05
0.00013627899 0.00024752683

exp_avg f4 [5, 10]
00000000: b5fd 943c 3d42 6e3c 6a8f 97bc 1d78 013c
00000010: f264 463c 92d9 963b 84a0 89b9 a37b 9a38
00000020: 47e6 a8bc 67f7 983c 34e2 9d3c 886b 7b3c
00000030: d7c7 7dbc ac55 f83b a2cf 3d3b 6be4 3b3b
00000040: 6989 513b dacf 7abb 18e1 94bc 3b9a 683c
00000050: cc76 95bc ad2c 96bb b158 063c 684d 15bc
00000060: 23b1 2d3b 8be7 983b fbf2 8bbc af08 17bc
00000070: afb5 133c 4be5 1dbc 4ebb 05bd e9f9 d2bc
00000080: 81bc da3c 14c1 7fbc e2b4 7d3b 3ff2 61bb
00000090: a3ee 99bc 6e7a acbb 0c49 d43c e32a a0bc
000000a0: 2de8 ab3c f73a 8e3c dce4 97bc 3ce3 ed3b
000000b0: 54b7 e23b f1d2 0a3c 05db f33b 6736 163c
000000c0: a0b3 a8bc b3f5 d03c
0.018187383 0.01454216 -0.018501002 0.007902172 0.012109028 0.004603573 -0.0002625027 7.3663214e-05
-0.020617617 0.018672658 0.019272901 0.015345462 -0.01548954 0.0075785723 0.002896287 0.0028670083
0.0031972772 -0.0038270862 -0.01817374 0.014196928 -0.018245123 -0.0045829625 0.008199857 -0.009112693
0.0026503287 0.004666274 -0.017083636 -0.009218379 0.009015485 -0.009637187 -0.03264933 -0.025753932
0.026701214 -0.015609998 0.003871255 -0.0034476665 -0.018790549 -0.005263618 0.025913738 -0.0195517
0.020984733 0.017362101 -0.018541746 0.0072597545 0.006918827 0.008473144 0.0074418806 0.009168244
-0.020593464 0.025507784

exp_avg_sq f4 [5, 10]
00000000: d2c1 9f38 e903 7b38 e476 8638 c2a9 9f37
00000010: 82c4 3638 83b9 2a38 fb98 9238 42f0 cf37
00000020: 57ce 9938 68e0 0f38 11d8 8038 a1dc e337
00000030: 4a35 2738 6b99 4237 11ed b036 3426 0637
00000040: 48b0 d137 2ba6 1537 6066 3838 b905 9437
00000050: 7678 e438 195b 0b38 ab8d 0439 adfe 8938
00000060: 2c8c 3237 f4de 0138 c6f2 3039 4e03 1738
00000070: e9f7 3d38 5943 2538 a4d8 2239 da28 5b38
00000080: 0362 5639 4f18 ac38 3094 4137 6420 d337
00000090: a310 4b39 55bd 8238 3b8c a838 1f78 5f38
000000a0: ac6f 5138 5974 f337 20ce ab38 bc74 a637
000000b0: 6b9a f137 dbcf ac37 375c 6938 1434 0138
000000c0: c9cb 3038 9e06 8538
7.617813e-05 5.9846705e-05 6.411763e-05 1.9033327e-05 4.3575194e-05 4.070393e-05 6.990317e-05 2.4788202e-05
7.334042e-05 3.430285e-05 6.143761e-05 2.7163247e-05 3.9865532e-05 1.15990215e-05 5.272807e-06 7.995917e-06
2.4996829e-05 8.919781e-06 4.3964363e-05 1.764564e-05 0.00010894325 3.3225024e-05 0.00012641276 6.580106e-05
1.0642263e-05 3.0963638e-05 0.00016875108 3.6004283e-05 4.5291996e-05 3.9401788e-05 0.00015530229 5.2251715e-05
0.00020445143 8.206127e-05 1.1538199e-05 2.5168243e-05 0.00019365786 6.234149e-05 8.036984e-05 5.3279215e-05
4.9933486e-05 2.9022036e-05 8.192309e-05 1.98431e-05 2.8801345e-05 2.0600788e-05 5.563741e-05 3.08045e-05
4.215146e-05 6.343167e-05

exp_avg f4 [5]
00000000: d1a4 973d d5b6 893d 3970 1ebd df3c e2bd
00000010: b1f7 a03d
0.07404483 0.067243256 -0.038681243 -0.110467665 0.078597434

exp_avg_sq f4 [5]
00000000: 3cf6 573a b661 113a e42f c53a 0fdf 113b
00000010: 3fa1 653a
0.0008238291 0.0005545871 0.001504418 0.0022258197 0.0008759684

exp_avg f4 [31, 5]
00000000: 89a0 833c 1c5b 603c a850 a03c 6c51 dabc
00000010: 483a 0e3c c244 593b 8dcc af3b 5731 f23b
00000020: 5955 32bc ffe9 be3b e555 ca3c 2955 9f3c
00000030: d6ee e73c 4f20 13bd 14a2 593c 8ab4 d83c
00000040: d421 ab3c c30d f73c e69f 1abd 9d61 6d3c
00000050: 6267 653c 4b7c 883c cd82 b73c f89e d5bc
00000060: 863c 313c 16f1 f33b ce1a 0c3b b0e4 463b
00000070: b9fd 6fbb d279 e4b9 7fc2 863c 8331 503c
00000080: 4b93 793c 5103 aebc 0c50 cd3b c34e aa3c
00000090: fddc a13c 7ea5 ce3c 780c 09bd 892b 3f3c
000000a0: 0492 eeba b9a6 113b f2ae 0037 b582 c03a
000000b0: 2596 9639 08a8 933b 6320 5abb 5f44 8ebb
000000c0: 87a0 0f3c 4352 4bbb 7a8c b13c b344 8c3c
000000d0: 2615 c33c 8eeb fbbc c04e 2f3c 0a43 10b9
000000e0: d89c bc3a 104d 4c3a 54f6 f7ba 2796 be3a
000000f0: ec34 5f3c 8caf 2c3c d0f5 693c a2c8 a3bc
00000100: b0e9 bb3b 71b6 b33c a8e4 9b3c 24ac d33c
00000110: 3f0c 0bbd 09f3 453c 3428 0cbc bd57 14bb
00000120: 794a cdbb f9ca f83b 5bf5 03bb b6fe e13a
00000130: 2723 14bc 66d2 56bc d498 883c bc09 11bc
00000140: 58fd eb3b 3de3 50bb f74b dbbb f9b7 f53b
00000150: 4140 b2bb bd16 eb3b ae80 31b9 f77b 92ba
00000160: 7845 5e3a 44aa 36bb d24b aebb 3ea3 3bbc
00000170: 2ece 4dbc 32a3 a73c 79dd d5bb 98da 16b9
00000180: bea3 4dbc 96aa 8dbc 58bf b43c 6828 36bc
00000190: 5da5 eb3c bd72 c33c ebd0 0b3d b9ad 2ebd
000001a0: a3d1 863c d463 bd3b e255 0f3c df3d 443c
000001b0: 55ae 83bc 0c1e 083c 50de a43c 04e8 893c
000001c0: 693a c43c 5f01 ffbc 8456 343c 1cac b23c
000001d0: 5abf af3c 4eb4 e83c 520e 1abd 1665 643c
000001e0: cfdb bd3b d74a 3f3c 868c 693c 1970 87bc
000001f0: be34 f63b cb83 653c cbbe c53b b13d 233c
00000200: d007 2cbc 98bb 623b 1597 3d3c e74b f93b
00000210: 33a1 0b3c 227b 4bbc a15a 3b3b f413 c03c
00000220: ad4a a13c b9c5 da3c 8772 09bd 92e1 493c
00000230: 4923 9f3b 1dab 8e3b adbd d93b 237e a8bb
00000240: 91d0 663b 2a7f eb3b f712 163b 862f 1c3b
00000250: b9f1 ebba 1e32 d539 909f 0cbd 9e76 6239
00000260: f1db a3bc 325f 0a3c a69e dabb
0.01606776 0.013693597 0.01956971 -0.026650153 0.0086808875 0.0033152555 0.0053649605 0.0073911357
-0.010884606 0.0058262344 0.02469916 0.019449787 0.028312128 -0.035919484 0.013283271 0.026453275
0.020890154 0.03015793 -0.037750147 0.014488605 0.014001699 0.01666083 0.022401238 -0.026076779
0.010817653 0.007444511 0.0021378282 0.003034871 -0.0036619736 -0.00043578312 0.016450165 0.012707117
0.015232871 -0.021241816 0.006265646 0.02078951 0.019758696 0.025225397 -0.033459157 0.011668094
-0.0018201475 0.0022224619 7.670127e-06 0.0014687391 0.00028722096 0.004506115 -0.0033283464 -0.0043416466
0.0087663 -0.0031024374 0.02167343 0.017122602 0.023813795 -0.03075197 0.010699928 -0.00013757884
0.0014390005 0.00077934656 -0.0018918016 0.0014540598 0.013623457 0.0105399005 0.014279798 -0.01999313
0.005734645 0.02193758 0.01902993 0.025838919 -0.033947226 0.01208187 -0.008554507 -0.0022635304
-0.0062649813 0.0075925556 -0.0020135257 0.0017242047 -0.009041584 -0.013111686 0.016674437 -0.0088524185
0.007201832 -0.0031873726 -0.0066924053 0.007498738 -0.0054397886 0.0071743415 -0.00016927972 -0.001117586
0.00084789796 -0.0027872482 -0.005319097 -0.011452494 -0.012561364 0.02046356 -0.0065266457 -0.00014386547
-0.012551246 -0.017293256 0.022063896 -0.011118032 0.028765375 0.023858422 0.034134787 -0.042646144
0.016457384 0.0057797227 0.008748503 0.011977642 -0.016074339 0.008307945 0.020125538 0.016834266
0.023953633 -0.031128583 0.011006955 0.021810584 0.021453548 0.028406288 -0.037611313 0.013940116
0.0057940255 0.011675558 0.014254695 -0.016532945 0.0075136116 0.014008473 0.006034707 0.009963439
-0.0104999095 0.0034596678 0.011571665 0.007607925 0.00852232 -0.012419494 0.0028587955 0.023447014
0.019688928 0.02670561 -0.033556487 0.012321847 0.0048565012 0.0043538944 0.0066449256 -0.00514199
0.003521953 0.00718679 0.0022899488 0.0023832037 -0.0018001116 0.00040663866 -0.03433186 0.00021597228
-0.020002337 0.008445548 -0.0066717444

exp_avg_sq f4 [31, 5]
00000000: c750 1b38 c698 f737 13fc 1539 19b2 0139
00000010: 12f8 9036 183c 1837 4ca1 9536 162a 1238
00000020: 98d5 f137 2823 8836 fd5d 7c38 877e 2138
00000030: 1ee4 4839 dc2d 2b39 ec7a 0837 4081 8338
00000040: e899 3638 b235 4d39 59f5 3239 ef6d 1b37
00000050: 7ab4 0638 dcea b937 ae7a cb38 d1de a238
00000060: 64ef af36 e14a 6b37 4146 1137 f765 6638
00000070: 4e91 2538 0249 0136 7a8e ee37 1cea cf37
00000080: a22e ea38 9ae7 d238 458b 7636 1ca6 4238
00000090: 5a55 3038 4a7e 3b39 067f 2539 c6ac de36
000000a0: dbe1 5a37 6b41 ce36 2904 a137 5284 9337
000000b0: 23e7 0d36 ef9f 8f36 8e59 5136 30c6 8137
000000c0: 4561 6237 259b 2036 aad4 1938 165f ea37
000000d0: 65e5 fc38 7ded 0039 1051 d136 f4f9 0237
000000e0: 47a4 5136 c3c8 2537 5f72 4437 1060 c835
000000f0: d344 9f37 9056 8937 f43c 9638 f3b0 a038
00000100: e474 6a36 2d56 1b38 8c40 0638 f211 0639
00000110: 1a87 1039 eb6c 1037 9b18 a837 5f32 b336
00000120: f80c c737 0adc 0238 91c1 6d36 2e78 f236
00000130: 9a83 ad36 4514 e437 87ca d037 5f30 ad36
00000140: a0fa 3437 e679 7436 8b65 f037 1637 e337
00000150: a506 9736 634b 9037 b731 3c36 639f 0d38
00000160: 6957 d637 4d8a 2936 cba7 0437 a4bf 0137
00000170: 3901 e037 ea82 f037 1407 1536 2151 d736
00000180: 7b56 5237 c88f 2b38 8db5 1938 129c 0337
00000190: eb1c 9c38 1aea 5b38 ef15 8039 1284 5d39
000001a0: 3d98 4037 a698 2737 a130 0537 fa09 5338
000001b0: 0894 3138 b7da b636 5c63 3d38 9b00 1a38
000001c0: 4da3 3339 de68 1c39 112b c636 1c3c 4a38
000001d0: bd7f 4938 9eb0 4739 3ca8 3939 87e6 0b37
000001e0: abd1 9b37 1c90 7037 9c49 6438 ba8f 2a38
000001f0: 2e83 4c36 972e c937 33cf 0237 159f 8238
00000200: 0f9e 2638 2cfe 1836 f184 a837 23a3 5e37
00000210: 32b0 9e38 bf6d 7338 72e9 2436 e8bf 8738
00000220: b01a 1b38 c1f7 5039 01f9 2439 a61e 0d37
00000230: b13b 0737 8733 9036 5f70 8737 be63 2037
00000240: 31ce 6135 c0a6 5637 a77e 8536 c852 0138
00000250: 8168 a237 f46b 3e36 e4d5 2439 104a 1437
00000260: 7b5f a438 c91d a737 16be 6f37
3.703011e-05 2.9515835e-05 0.00014303652 0.00012368745 4.3204136e-06 9.073898e-06 4.4593235e-06 3.4848308e-05
2.8828901e-05 4.0572086e-06 6.0169015e-05 3.850323e-05 0.00019158467 0.00016324915 8.134852e-06 6.2706415e-05
4.3535518e-05 0.00019570327 0.00017066802 9.264316e-06 3.211617e-05 2.2163083e-05 9.702645e-05 7.766265e-05
5.243275e-06 1.4024526e-05 8.659031e-06 5.4931235e-05 3.947439e-05 1.9264994e-06 2.8438157e-05 2.4785339e-05
0.000111666755 0.000100567195 3.6737922e-06 4.6407906e-05 4.204116e-05 0.00017880756 0.00015782946 6.636229e-06
1.3046399e-05 6.146894e-06 1.9194633e-05 1.7585382e-05 2.1145177e-06 4.280351e-06 3.1195555e-06 1.5470287e-05
1.3493297e-05 2.3932164e-06 3.66761e-05 2.7939252e-05 0.000120590244 0.00012295503 6.2381223e-06 7.806801e-06
3.123905e-06 9.88151e-06 1.17091395e-05 1.4929119e-06 1.8986326e-05 1.6371981e-05 7.163911e-05 7.662354e-05
3.4936756e-06 3.7035137e-05 3.2008204e-05 0.00012785921 0.0001378324 8.608428e-06 2.0038618e-05 5.3404797e-06
2.3728688e-05 3.1199343e-05 3.5428423e-06 7.226153e-06 5.171122e-06 2.7189157e-05 2.4889841e-05 5.161433e-06
1.0787189e-05 3.6429788e-06 2.8657514e-05 2.708616e-05 4.500924e-06 1.7201242e-05 2.804312e-06 3.376546e-05
2.5551491e-05 2.5263464e-06 7.9068805e-06 7.733619e-06 2.670345e-05 2.8671191e-05 2.220685e-06 6.416944e-06
1.2537111e-05 4.0903484e-05 3.6647125e-05 7.844546e-06 7.444046e-05 5.2431693e-05 0.00024430404 0.00021125402
1.14795375e-05 9.989517e-06 7.93874e-06 5.031561e-05 4.2337953e-05 5.4494844e-06 4.5153647e-05 3.6717025e-05
0.00017131605 0.00014916385 5.9058734e-06 4.8216534e-05 4.80411e-05 0.00019043914 0.00017705647 8.338719e-06
1.8575074e-05 1.4338668e-05 5.442799e-05 4.0665014e-05 3.0474725e-06 2.3982762e-05 7.796846e-06 6.2285144e-05
3.9724688e-05 2.2797713e-06 2.0089066e-05 1.3270214e-05 7.566846e-05 5.8037924e-05 2.4573787e-06 6.473047e-05
3.6979734e-05 0.00019928721 0.0001573302 8.411391e-06 8.060525e-06 4.297533e-06 1.6145581e-05 9.559966e-06
8.411908e-07 1.27942185e-05 3.978453e-06 3.0833093e-05 1.9360568e-05 2.8375043e-06 0.00015719939 8.838731e-06
7.837914e-05 1.9921821e-05 1.4289768e-05

exp_avg f4 [31]
00000000: b04f a4bd 5f4d 0abd 73f9 e1bd 92da efbd
00000010: 3a4b 93bd fb5f a3bc 96d3 95bd 55ad d3bd
00000020: 6f6a 183c fa85 3b3c e6dc c5bd c29e ecbb
00000030: 8661 82bd cd33 d7bd 6cf8 c83c dd22 023d
00000040: ae09 5e3b cc95 dbbb 7fc2 6f3d 6770 3f3d
00000050: a6a5 05be 7e3d 45bd 9e04 c3bd 6de7 e6bd
00000060: 7b15 3ebd 6d25 37bd b867 46bd 6f77 d8bd
00000070: 730f 80bc f539 a1bc eabf 663d
-0.08023012 -0.033765193 -0.11033907 -0.11711611 -0.07192083 -0.019943228 -0.073157474 -0.10335795
0.0093027195 0.011445517 -0.09661274 -0.007221074 -0.06366257 -0.10507927 0.02453252 0.03177153
0.0033880281 -0.006701207 0.058535095 0.046738055 -0.13051471 -0.048154347 -0.09522365 -0.1127461
-0.046407204 -0.044713426 -0.048438758 -0.10569655 -0.015632367 -0.019680956 0.056335367

exp_avg_sq f4 [31]
00000000: 9fee 1a3b 877e 013a 38e5 443b 7f52 503b
00000010: 3ff5 9d3a 4607 5d3a bd53 023b cbbf 413b
00000020: 14b8 9b39 f93b fe38 d98f 143b 0310 4239
00000030: 0aee c43a b0e1 283b 1523 c339 ce59 7439
00000040: f68c a739 50ba df39 0a7e 033a acff a639
00000050: 5921 773b b7e8 383a 7d08 373b d18f 523b
00000060: 0a19 413a 10fa 693a bbd3 9f3a 9819 3f3b
00000070: 06a0 6039 2bb1 a439 e96d de39
0.0023640764 0.00049398135 0.0030043852 0.0031787453 0.0012051238 0.0008431565 0.0019886338 0.002956378
0.00029701053 0.000121228346 0.0022668748 0.00018507247 0.0015024554 0.0025769286 0.00037219436 0.00023303108
0.00031957746 0.00042672688 0.00050160347 0.00031852478 0.0037709086 0.000705372 0.0027928643 0.0032129178
0.0007366097 0.0008925507 0.0012193838 0.0029159542 0.00021421918 0.00031412518 0.0004242503
