Cancer-senn/trial0/models/cancer/grad3_Hinput_Thdummy_Reg1e-02_LR0.001/checkpoint.pth.tar (torch_old, 26436 bytes, 34 tensors)

parametrizer.linear1.weight f4 [10, 30]
000000 39 74 95 3d 75 57 38 3c 2c 68 99 3d c7 4e 9a 3c
       0.07297558 0.01125132 0.07490572 0.018836392
000010 c1 07 26 be 9f b0 00 be 33 6c 04 be 94 17 1c 3c
       -0.16213895 -0.12567376 -0.129319 0.009527106
000020 10 04 cb bd 95 ce 32 3e a0 4e 1a 3e 64 f1 f0 bd
       -0.09912884 0.17461617 0.15069056 -0.117647916
000030 ff bf a5 3d 23 22 2a 3d 44 44 20 3e 13 27 e6 3d
       0.08093261 0.04153646 0.15651041 0.112379216
000040 75 b3 c9 3d 1c 7e cf bd 2f e7 23 be 82 47 0c be
       0.09848682 -0.10131475 -0.16006158 -0.13699153
000050 ca 65 98 3c 02 81 0b 3e d6 92 03 bd d9 a4 86 3c
       0.018603224 0.13623431 -0.032122456 0.016436027
000060 9f 99 f5 bd ce 0c 9b 3d 80 0c d7 3d 7e 78 e0 3d
       -0.119921915 0.07570802 0.10500431 0.10960482
000070 20 40 4b be c4 c7 b3 bc 14 d4 8b 3c d5 af 0a be
       -0.1984868 -0.021945842 0.0170689 -0.13543637
000080 71 ab db bd 08 32 e0 bd 78 fa ad bd de 19 81 3d
       -0.10726059 -0.10947043 -0.08495039 0.06303762
000090 27 63 0b be 3f 8e ba bc 27 23 e2 bd 56 ba bd bd
       -0.13612042 -0.022772906 -0.11041861 -0.092640564
0000a0 da 11 bf 3d 90 8c a9 3d b9 10 ed bb 34 2f 09 be
       0.09329577 0.08278763 -0.0072346595 -0.13396913
0000b0 10 9c b9 3d 8f de 35 3d 54 87 07 be f4 b7 d9 3d
       0.0906297 0.0444017 -0.13235217 0.106307894
0000c0 43 68 36 3e e3 56 24 3e 56 c5 33 be 26 6b 11 be
       0.1781321 0.1604877 -0.17555746 -0.1420103
0000d0 a6 08 37 be 43 49 c0 3c cb dd be 3d 16 7a 94 3d
       -0.17874393 0.023472434 0.093196474 0.072498485
0000e0 95 63 3b 3e 95 c7 19 bd 3e 2c 19 3d 43 c4 ea bc
       0.18299706 -0.037543852 0.03739571 -0.028658038
0000f0 5b f5 13 3e 8c 46 4b be 5e e5 cc bd 1a a9 a8 3d
       0.14449064 -0.1985113 -0.10004686 0.082353786
000100 b1 e4 99 3d e9 b5 fb bd 1d e0 36 3c cc 69 0a be
       0.075143225 -0.12290556 0.011161831 -0.13516921
000110 8e 18 bb bd 1c 8d aa bd c5 2c 9a 3d b8 17 82 bd
       -0.09135543 -0.08327696 0.0752807 -0.0635218
000120 32 e2 b5 bc c3 80 03 3e bd 8d 36 bd 62 93 0a 3e
       -0.022202585 0.12842087 -0.044568766 0.13532785
000130 34 1c 01 3d 0d bc 84 bd 9b 7d a4 bd b9 d5 16 3e
       0.031521037 -0.0648118 -0.0803177 0.14729966
000140 0c e3 da bb a1 a7 41 be f2 e5 2a be 59 db 06 be
       -0.006679898 -0.18911602 -0.1668928 -0.13169612
000150 5e 85 78 bd 4c 99 4f be 32 f8 54 3d b8 73 9d 3d
       -0.060674064 -0.20273322 0.05199451 0.07688087
000160 90 53 58 3d 63 61 d2 3b ce f3 ba 3d 28 38 e3 3d
       0.052814066 0.006420301 0.09128533 0.11094695
000170 49 7c 89 3d 0c c8 2d b8 89 89 60 3e 33 3a 57 3d
       0.06713159 -4.1432722e-05 0.21927465 0.052545737
000180 5b 56 b5 bd 0c e1 0e 3e fd af 52 be 4d 54 17 bd
       -0.088543616 0.13953036 -0.20574947 -0.03694563
000190 a6 11 51 ba da 7a 36 3e a1 1d a8 3d 33 b2 db bd
       -0.0007975347 0.17820302 0.08208776 -0.10727348
0001a0 52 dd 31 3e 95 cc 19 be a9 fe 11 be 41 6b 56 bd
       0.17369583 -0.15019448 -0.14257301 -0.05234838
0001b0 90 95 12 39 40 c5 1c be 06 29 d4 3d 7b 99 7c bd
       0.00013979361 -0.1530962 0.10359387 -0.061669808
0001c0 c6 ad e1 bc bc 23 47 bd a4 a3 31 3e 89 6f be bd
       -0.027548682 -0.048618063 0.1734758 -0.092986174
0001d0 d0 c1 83 bd ec 2d 03 be e8 bf 17 be 56 9b ad 3d
       -0.06433451 -0.12810487 -0.148193 0.084768936
0001e0 43 96 08 bc 25 e0 07 3e 0b 02 9a bd 0c 99 15 be
       -0.008336606 0.13269098 -0.07519921 -0.14609164
0001f0 19 05 9b 3d 70 e6 22 be 3e dc d0 bd 8e 1e 07 3e
       0.07569332 -0.15908217 -0.10198258 0.1319525
000200 ac 8f bf bd af 92 af 3c 14 bc 2b 3d 40 c1 29 bd
       -0.09353575 0.021432249 0.041927412 -0.041444063
000210 f4 d7 31 be 09 93 41 be d5 0a aa 3d 32 1c c0 bb
       -0.17367536 -0.18903746 0.08302847 -0.005862736
000220 56 4e d0 bd 20 ae bd 3d 94 6d 9d 3d 81 90 a0 bd
       -0.101711914 0.09261727 0.07686916 -0.07840062
000230 01 7c 87 3c a7 09 30 bb 75 45 d7 3d 9f 11 99 3d
       0.016538622 -0.0026861222 0.10511295 0.07474064
000240 eb e4 9a 3d 98 31 c1 3d 5f bc 37 be 01 67 c1 3d
       0.07563194 0.094332874 -0.17942952 0.094434746
000250 34 c4 f7 bd cf 9c b0 bd ee 7a cb bd f2 58 21 3c
       -0.1209797 -0.08623659 -0.09935556 0.009847866
000260 6c da d6 3b 93 7c 20 bb d1 5a 71 bd e9 0c 04 bd
       0.0065567996 -0.0024488315 -0.0589245 -0.032238875
000270 bf ed ea 3c a8 57 7d 3d 0b 25 f9 bd 27 aa 46 bd
       0.02867782 0.061851174 -0.121652685 -0.048502114
000280 46 3e b3 bd 2c 26 96 3d 35 5e cc 3d a6 28 20 be
       -0.08752112 0.073314995 0.09978906 -0.15640506
000290 9b a2 84 bd 1e 20 4b 3e 6b b5 ce 3c 32 55 a0 3d
       -0.06476327 0.1983647 0.025232991 0.0782875
0002a0 00 ed e0 bd 54 5d 48 3e 5b 07 e4 bd 29 78 07 3e
       -0.10982704 0.19566852 -0.111342154 0.13229431
0002b0 7f e1 fc 3d c8 00 77 bb c0 01 1e 3e 7a 6b 84 3c
       0.123476975 -0.0037689675 0.15430355 0.01616453
0002c0 08 44 2d 3e 64 47 02 be 2b e2 a2 bd d9 39 72 3d
       0.16920483 -0.12722546 -0.07953294 0.0591372
0002d0 04 f4 11 3d b0 db ac 3d c5 0c 58 3d 98 4f af bd
       0.035633102 0.084403396 0.052746553 -0.08560103
0002e0 d3 01 38 be df d2 c9 bd 73 dd ab bd 02 b4 b2 3c
       -0.17969446 -0.098546736 -0.083918475 0.02181435
0002f0 21 80 fd bd c3 7d cc bc 8e 2a 96 bd 12 a5 54 3d
       -0.12377954 -0.024962312 -0.073323354 0.051915236
000300 db f8 58 3e ac 8f e1 bd 9d 8b 05 3e 31 00 5c be
       0.21188681 -0.11013731 0.1304154 -0.21484448
000310 69 2a 13 3e 9b 48 31 bd 9e 2a 49 be 26 0e 3d bd
       0.14371647 -0.043282133 -0.19645163 -0.04615607
000320 7b e8 04 be 6a a6 84 bc 06 2e 1e 3e dd 3e cc bd
       -0.1297931 -0.016192634 0.15447244 -0.09972928
000330 a0 03 ce bc dc d2 e7 3d 3d f1 21 3e 5e 87 0a bd
       -0.025148213 0.11319515 0.15814681 -0.033820502
000340 7d 58 9f 3d e3 9c 1e be c0 0b 7d bd e9 1d eb 3c
       0.0778055 -0.15489535 -0.061778784 0.028700786
000350 cd 18 1d 3e 78 84 2f 3e a5 e3 bc bd f3 92 7e bd
       0.15341492 0.17140377 -0.09223107 -0.06215186
000360 0d 00 52 be 1e d9 c5 bd 07 9c 6a bd d8 25 af 3d
       -0.20507832 -0.096605524 -0.057277706 0.0855214
000370 32 a0 3d be ca 1a 30 3d e2 61 0d be db f7 88 39
       -0.18518141 0.042994298 -0.1380687 0.00026124608
000380 2a 07 d2 3d 84 fe 3b 3d e6 7e 5c be 00 93 5c be
       0.10255273 0.045897022 -0.21532783 -0.21540451
000390 ae 99 36 bd 63 76 8a 3d e8 5c 96 3c 5b 91 11 3e
       -0.044580154 0.06760862 0.018354848 0.14215605
0003a0 24 48 c4 bd 27 9f ac 3d ef 47 24 bd a1 41 94 bd
       -0.09584072 0.084287934 -0.040107664 -0.0723908
0003b0 13 3c 8f bd 17 b8 2b be ca 82 23 be f3 99 11 be
       -0.0699388 -0.16769443 -0.15967861 -0.14218883
0003c0 86 da e4 bc 47 37 46 be a1 bd ec 3d ce 64 8f bc
       -0.027936231 -0.19357024 0.11559606 -0.017504122
0003d0 bf 82 41 3e f4 7b ef 3d 7b 2f ca 3d 66 0c 40 be
       0.18897532 0.11693564 0.098723374 -0.1875473
0003e0 64 c7 3b bd ee f5 34 3e fd 34 0d 3c 90 91 4e 3e
       -0.04584445 0.1767194 0.00861859 0.20172715
0003f0 cc 82 88 bd 36 8f 14 be 64 9f 8b bd c2 16 7b bd
       -0.066655725 -0.14507756 -0.06817511 -0.061301

parametrizer.linear1.bias f4 [10]
000000 b3 6b ad bd 58 89 ea bd 82 d9 a1 3d 64 ad 57 3e
       -0.084678076 -0.114519775 0.079028144 0.21062237
000010 12 df 8a 3d 3a bc 29 3e ec 82 60 be 0b 20 75 bd
       0.067808285 0.16575709 -0.21924943 -0.05984501
000020 21 31 e2 ba 79 e0 a6 bc
       -0.0017257073 -0.020370709

parametrizer.linear2.weight f4 [10, 10]
000000 ba 17 da bd 3d 0a a5 be 13 18 7d 3e e2 c4 cc 3d
       -0.10649057 -0.32234374 0.24716215 0.0999849
000010 18 37 6f be 72 cb c1 bd 35 87 a0 3d d3 42 95 3e
       -0.2336086 -0.09462632 0.07838289 0.29152545
000020 0f ef 1d be fa d0 39 3e 6c 06 15 be 3b 90 84 be
       -0.15423225 0.18146124 -0.14553231 -0.2589129
000030 3a bd 5c 3d 05 d4 bc 3e 62 a0 fe bd 86 d8 7b be
       0.053891398 0.36880508 -0.12432934 -0.24594316
000040 b0 9b 5a 3c 15 37 b4 bd 3a 39 b8 bd 94 26 14 bd
       0.013342783 -0.087995686 -0.0899529 -0.036169603
000050 3a 5d 54 be b9 17 8b bd c8 6f a6 be 4a 9a 18 be
       -0.20738688 -0.06791634 -0.32507157 -0.14902607
000060 67 01 37 bd e2 f6 77 be d5 22 93 3e 18 9b c7 bd
       -0.04467907 -0.24215272 0.28737512 -0.09746379
000070 3f a3 75 be 2b c5 60 be f6 6f 5e bd 96 cf 81 3d
       -0.23988055 -0.21950214 -0.054305993 0.06338422
000080 1a 29 9a bc 8e b4 27 bd 4c eb dc bd e8 a3 9c 3e
       -0.018818427 -0.040943675 -0.10787067 0.305938
000090 dd 66 95 bc 55 36 96 be 5a c5 7e be 51 26 4e 3e
       -0.018237526 -0.29338327 -0.24879971 0.20131804
0000a0 d5 00 4a 3d 27 97 7c 3e 19 0b 43 be 7c 3d ba 3e
       0.0493172 0.24667035 -0.19047202 0.36375034
0000b0 1e 70 0a 3e 39 7c 52 3e 34 0b 9f be e2 f7 6c be
       0.13519332 0.205552 -0.31063235 -0.23141435
0000c0 3e 36 53 be 66 96 46 bd 24 b8 0b be 33 19 04 be
       -0.2062616 -0.048483275 -0.13644463 -0.12900238
0000d0 e2 98 a2 3e 05 2f 87 bd 67 0f 3e 3e 1f 92 2a 3e
       0.31757265 -0.06600765 0.18560563 0.16657303
0000e0 f2 1d b0 be 04 78 2e 3e b0 f6 66 3e 35 a6 b7 3d
       -0.34397846 0.1703797 0.22555041 0.08967248
0000f0 de ba 3f 3e b4 bc a2 3e 78 65 9a 3e 5d 2e cf 3d
       0.18723628 0.31784594 0.3015554 0.10116265
000100 e8 8c 1c 3e 13 92 29 be 39 2d 97 3e 59 42 a6 3e
       0.15288126 -0.16559629 0.2952669 0.32472494
000110 21 fb b4 3e 04 5e b5 3d 97 f9 72 3d 09 c8 06 3e
       0.35347846 0.08855823 0.05932006 0.13162245
000120 23 83 88 3e b0 aa 1d 3e 00 9d ea bc 1d c6 70 3e
       0.2666255 0.15397143 -0.028639317 0.23513074
000130 7a 0d d9 bd 19 0a ab be 29 6b 69 bd 25 3c c2 3d
       -0.105982736 -0.3340614 -0.05698696 0.09484128
000140 1c 92 8d 3e d3 05 80 bd d8 d3 5a 3e ac 9e a0 bd
       0.27650535 -0.06251111 0.21369874 -0.07842764
000150 27 1e 7e 3e b4 c5 c9 bd a2 bb 2d bc 3a 7c b6 ba
       0.2481619 -0.09852162 -0.010603817 -0.001392252
000160 3b 28 f8 bd 54 62 68 be f7 45 2e be 76 57 ad 3c
       -0.12117048 -0.22693759 -0.17018877 0.021159869
000170 f0 09 b0 3d fa b2 c0 bd 39 4d a3 3e 96 49 84 3e
       0.085956454 -0.09409137 0.31894854 0.25837392
000180 9f c2 30 3e ce be 80 bd 5b 3a 36 3e 7f 29 87 3e
       0.17261742 -0.06286393 0.17795698 0.26398847

parametrizer.linear2.bias f4 [10]
000000 d5 02 6b be bb 0e 00 be 9e 05 78 3e 7b 12 ab be
       -0.22950299 -0.12505619 0.24220893 -0.33412537
000010 7a 73 5c 3e 19 c1 5b bd 4e f2 09 3e 6c 7b 0a be
       0.21528426 -0.05365095 0.13471338 -0.13523644
000020 12 31 3f be fb ad 06 bd
       -0.18671063 -0.032880764

parametrizer.linear3.weight f4 [5, 10]
000000 c9 5d 2a bd c4 cd 42 3e 28 90 99 bd 34 f5 ee 3c
       -0.041593347 0.19023806 -0.07498199 0.029169656
000010 9e e0 1d 3e 00 8c d7 3d 7f c6 5f 3d 21 ee ab be
       0.15417716 0.1052475 0.05463266 -0.33580115
000020 67 69 3f bc eb d0 78 3e f0 48 25 bd 73 6b 59 3e
       -0.011682845 0.24298446 -0.04035276 0.21232395
000030 3f e6 8e be d1 93 a1 be bd d7 83 3e 7e 8f ca 3c
       -0.2791004 -0.31558087 0.25750533 0.024726626
000040 61 2a ac 3e b1 6d 8f be 14 db 82 3e d8 b3 5b be
       0.33626083 -0.28013375 0.25557768 -0.21455324
000050 ca 78 ba be 1f 7c 75 3e 66 de a5 bd 9d 55 8d be
       -0.3642028 0.2397313 -0.0809906 -0.2760438
000060 ef 2c b6 3e 22 37 a8 3e 30 3f 7d bd dc f2 07 be
       0.35581157 0.32854563 -0.06182784 -0.13276237
000070 66 77 70 be 89 b2 d9 3d e1 52 a4 bd f8 67 82 be
       -0.23483047 0.10629756 -0.080236204 -0.25469947
000080 98 3e 83 be 06 9d 76 3e a2 93 8d bc cc 6d 0c bc
       -0.25633693 0.24083337 -0.01728231 -0.0085710995
000090 bc 63 99 3e 19 8e 96 3d 98 64 19 3b 9c e8 86 be
       0.29958904 0.07351322 0.0023405906 -0.26349342
0000a0 21 ea 52 be 8c 7d 1d 3e 56 11 a4 3c d3 ac 22 be
       -0.20597126 0.15379924 0.020027798 -0.1588624
0000b0 55 5c 64 be a0 80 de 3d b3 8c 83 3e cd c6 9a 3e
       -0.22300847 0.10864377 0.25693282 0.30229798
0000c0 31 b7 07 3e 30 19 13 3e
       0.13253476 0.14365077

parametrizer.linear3.bias f4 [5]
000000 02 31 b4 bd e4 c5 d8 3d e5 6b d6 3c 0a 8f 1f be
       -0.0879841 0.1058462 0.026174495 -0.15581909
000010 1b 74 8a be
       -0.27041706

parametrizer.linear4.weight f4 [31, 5]
000000 5e 89 af bc 5e e2 e3 bd bc 54 5a 3e 06 f8 98 3d
       -0.021427806 -0.111271605 0.21321386 0.07469182
000010 e6 4d 89 be 67 aa b5 be 1c 97 68 3d 14 f9 f4 3e
       -0.26817244 -0.3548157 0.056784734 0.47846282
000020 56 2e bb 3e 2c 09 f6 3d 18 ef a0 3d ab b2 03 3e
       0.3655879 0.12013468 0.078581035 0.12861125
000030 ec 38 c1 3e da 93 95 bc 22 89 2f be c7 5a 8f 3e
       0.3773874 -0.018258978 -0.17142156 0.27998945
000040 0e 74 08 3e 7d bd 4e be b9 c4 58 be fc fa 82 be
       0.13325521 -0.20189472 -0.21168794 -0.2558211
000050 e7 c1 a2 bc bf 5d 31 be fc 80 fa be bc f7 0e bd
       -0.01986785 -0.17320918 -0.48926532 -0.034904227
000060 6d d4 5d be 67 59 86 3e 12 99 8f be a6 74 a2 be
       -0.21663065 0.26240084 -0.2804647 -0.3172962
000070 51 e4 d7 be f2 f2 e6 be 3f 38 06 bd 99 b0 f8 3e
       -0.4216638 -0.45107228 -0.032768484 0.48572233
000080 d7 a6 ad 3e 4d 35 da be 55 08 d0 be 93 bb 9d be
       0.3391635 -0.4261879 -0.40631357 -0.3080717
000090 66 8f 83 3d 30 7f dd 3e e3 3f 0f 3e f4 0a aa 3e
       0.064238355 0.432611 0.13989215 0.33211482
0000a0 22 98 14 3e 44 79 eb 3e f9 5a c9 3d 0a 31 9d bd
       0.14511159 0.45990956 0.09831805 -0.07675369
0000b0 1d c1 3e be 37 57 55 3d 65 32 2c be ba f6 ec be
       -0.18628354 0.052085128 -0.16816099 -0.46281987
0000c0 1c 5d 65 be 7b 6a 93 3e 12 d3 8d 3e 90 71 a6 3e
       -0.223988 0.28792176 0.27700096 0.32508516
0000d0 c7 40 2f bd 92 b1 7f 3d 17 7e be be 14 cd a8 3e
       -0.042786386 0.062425204 -0.37205574 0.32968962
0000e0 e9 ee f3 be b5 40 61 be 69 66 10 3e b3 51 81 be
       -0.4764321 -0.2199734 0.14101566 -0.25257644
0000f0 5e 87 24 3e bf 6c 66 3e fc ee 6d be 9e 8e bc be
       0.16067263 0.22502421 -0.23235697 -0.36827558
000100 84 21 9e be ad d0 d6 be b3 c5 ed 3e 38 50 a7 3e
       -0.30884945 -0.41956082 0.46439895 0.3267839
000110 b9 d7 49 be 8a d6 64 3d d3 64 2d be 36 55 d2 3d
       -0.19711198 0.055868663 -0.16932993 0.10270159
000120 f3 88 dc be e6 53 31 3e 46 e6 db bc 44 ce 3b be
       -0.43073234 0.17317161 -0.026843201 -0.18340403
000130 23 15 be 3e c5 f9 2b be 03 f5 9e be 3a 5c 93 3e
       0.371255 -0.16794498 -0.31046304 0.287813
000140 71 ed 49 3e 0b 75 81 bd 53 87 19 bd 29 38 57 3c
       0.19719483 -0.06321152 -0.03748257 0.013135948
000150 e9 96 89 bc 42 8c 2a 3e c2 1d 99 3e 6d 51 ae be
       -0.016795592 0.16655067 0.29905516 -0.34046498
000160 c6 0c 4b be ae e9 a3 be db 43 cf 3e d3 b8 31 be
       -0.19829091 -0.3201422 0.40481457 -0.17355661
000170 b3 d5 cc 3c 72 b8 97 3e eb 18 0d be 79 ce da 3e
       0.025004243 0.29632908 -0.13779037 0.4273565
000180 8e 05 b5 3e a2 ca d6 be 2d 8f 66 be 0f 6e 05 3e
       0.353558 -0.41951472 -0.22515555 0.13030265
000190 04 57 9e 3e 2b 6e c5 be fc 19 9e 3e 3f 15 d4 3d
       0.30925763 -0.38560614 0.308792 0.10355615
0001a0 c9 98 27 be 6e 2a 94 3d aa d6 45 3e 4c 74 06 bb
       -0.16366877 0.07234655 0.19320169 -0.0020516096
0001b0 df b7 ab be d4 bd f8 3d b9 bf 61 be 1f 38 e8 3e
       -0.3353872 0.12145582 -0.22045793 0.45355317
0001c0 e2 aa 9f be 43 e2 b3 3d dc 06 a6 be 8a e2 81 be
       -0.3118506 0.087833904 -0.32427108 -0.25368148
0001d0 73 f7 99 3e 3d 86 9f be 76 8f a9 be 78 27 f7 bd
       0.300716 -0.31157103 -0.33117265 -0.12068075
0001e0 96 b0 6b 3e 76 33 c9 be d8 ce ae be c1 35 84 3e
       0.23016581 -0.39297074 -0.34142184 0.2582226
0001f0 0f 09 2c be 57 41 6a 3e af ca 99 be 2e 4d aa 3d
       -0.1680033 0.22876488 -0.30037448 0.08315502
000200 94 d2 a8 bd 56 54 8a 3d ab 75 6e be 6b c7 b2 be
       -0.082432896 0.06754367 -0.23287074 -0.3491777
000210 44 00 e1 3d 4a c5 a8 3e 54 a9 8b 3d 1a 88 8e 3d
       0.10986379 0.3296302 0.06819406 0.06959553
000220 ac 56 b2 be 70 9f aa be df af 29 3d 3e 7f fe 3d
       -0.3483175 -0.33324766 0.04142749 0.12426613
000230 bd 10 bf 3e b1 6e b4 bc a1 18 f0 3e f4 f5 f5 3c
       0.37317458 -0.022025438 0.4689379 0.030024506
000240 8b 30 88 be 3c ef b0 3e a9 fc b6 3e 4a 5a 90 3e
       -0.26599535 0.3455752 0.3573964 0.28193885
000250 df 9c cd be 93 8b bd 3d b3 0d 14 bd 4d 0d ca bc
       -0.40158746 0.09255137 -0.036145877 -0.024664545
000260 ca 42 a3 be fa f4 c1 be 78 7f da be
       -0.31886894 -0.37882215 -0.42675376

parametrizer.linear4.bias f4 [31]
000000 fd 35 ad be 9a a7 82 be ca 42 dd 3d 74 d8 be 3e
       -0.33830252 -0.25518495 0.10803755 0.37274516
000010 bb ea 80 3e 2d 32 83 bd 21 c3 5d be 01 ba 9f 3d
       0.25179085 -0.06406055 -0.21656467 0.07799149
000020 2c 58 80 3d b9 e9 ba be b8 ea 44 3e a2 72 b1 3e
       0.062668175 -0.3650644 0.19230163 0.3465777
000030 5e ed ba 3e 2d 7d bb be 5c 75 c5 3e 41 87 2a 3e
       0.36509222 -0.3661894 0.385661 0.16653158
000040 ad 3a ad 3e 13 b7 0f 3d 4b df 19 3e 63 55 8b 3d
       0.3383383 0.035086703 0.15026586 0.068033956
000050 b0 81 ad bc 0f 8c fd 3b 29 4b ff 3e eb 1e 7d be
       -0.021180004 0.0077376436 0.4986203 -0.24718826
000060 2f 7d cb 3e 88 6d 0a 3e ee f3 c3 be 4f e1 a4 3e
       0.39743945 0.13518345 -0.3827204 0.32203147
000070 78 f6 5b be 30 72 aa 3e 81 9a f7 bd
       -0.21480739 0.33290243 -0.12090016

exp_avg f4 [10, 30]
000000 e4 22 0f ba d4 af 97 3b fe a4 19 ba cf 25 9a ba
       -0.0005460216 0.0046291146 -0.00058610726 -0.0011760535
000010 84 25 76 bb 3f cd c4 ba 68 d3 5a ba 3f 96 a6 3a
       -0.0037558982 -0.0015014781 -0.0008347542 0.0012709572
000020 33 cd a0 3b 68 88 8e bb 2c 07 3a bb e2 54 54 bb
       0.004907274 -0.004349757 -0.0028385622 -0.0032399227
000030 ed 52 86 bb 11 4d 61 bb f1 a1 e7 3a ff cd 4b ba
       -0.004099241 -0.003437821 0.0017672164 -0.0007774531
000040 e5 ad c4 bb 28 50 80 ba 82 13 82 ba ee 69 00 bb
       -0.006002175 -0.0009789513 -0.0009924027 -0.001959439
000050 cf bc 54 3a 99 8c 99 3b c6 28 c4 39 26 a9 b5 b9
       0.0008115293 0.00468595 0.00037414412 -0.00034649036
000060 59 1b 39 3a 5f db 70 3b c8 18 01 3b ec 05 5e 3b
       0.0007061265 0.003675185 0.0019698609 0.0033878041
000070 a5 5f 0d 3c 0a e7 3d 3b 53 b6 21 ba 9b 52 13 3b
       0.00862876 0.0028976821 -0.0006168831 0.0022479657
000080 93 56 fc b9 a2 94 2a ba f2 4e 41 ba a9 91 f3 ba
       -0.00048129688 -0.00065071334 -0.00073741295 -0.0018582839
000090 81 e5 10 3a 50 c2 fb 3a b8 52 ba ba 88 7a 78 bb
       0.0005527363 0.001920769 -0.0014215326 -0.0037914831
0000a0 af a8 14 b8 40 1e 4c 3a d3 8f 8c ba df 2a 57 39
       -3.544305e-05 0.000778649 -0.0010724015 0.00020519969
0000b0 32 fd 39 ba 5d 70 a1 bb 26 7e ef bb ad e0 ab bb
       -0.0007094919 -0.004926725 -0.0073087392 -0.0052452893
0000c0 98 61 38 bb 61 6a b6 bb 43 f5 fb 39 d1 7c 4c 3b
       -0.0028134342 -0.0055668806 0.00048057185 0.0031202326
0000d0 0e 79 3d 39 5a c7 b1 39 f3 bc 42 3b ac e6 f9 3a
       0.00018069541 0.000339086 0.0029714673 0.0019065938
0000e0 7a 7d 8b 3a 86 6a f3 3a 3d 0f ba b9 40 fd 01 3b
       0.0010642253 0.0018571175 -0.00035488038 0.0019834787
0000f0 28 07 3e 3b ed 71 c1 3b 10 0b 1b 3b e1 3e 3f 3b
       0.0028995965 0.0059034736 0.0023657717 0.0029181766
000100 00 c7 fa bb 21 89 89 bb a0 20 8d b8 20 61 07 38
       -0.007653117 -0.0041972552 -6.729481e-05 3.2276963e-05
000110 bb 53 5d b9 c9 03 dc bb a6 91 8c bb 39 cc c4 bb
       -0.00021107394 -0.0067143184 -0.0042898236 -0.0060057906
000120 c9 fb b1 bb 5f 2b 44 bb fb 28 4b bb fb 0a 51 bb
       -0.0054316265 -0.0029933078 -0.0030999768 -0.0031897414
000130 ea 84 41 bb 33 01 c7 bb 04 19 36 3a 6b f0 1e bb
       -0.0029528686 -0.006073141 0.00069464766 -0.0024252187
000140 cd fe 8e 3b 6e cf f4 3b 89 50 5f 3b d4 27 77 3b
       0.0043638707 0.0074710166 0.0034075102 0.0037712948
000150 87 2d 41 3a 83 c6 2e 3b bd 0f a4 3b 73 85 81 3b
       0.000736915 0.0026668615 0.005006759 0.003952676
000160 90 b7 61 3c 4f 50 7e 3b 18 e7 45 bb d5 87 9c 3a
       0.013776675 0.0038805192 -0.0030197557 0.0011942337
000170 87 b1 1a bb e1 84 20 bb c4 e9 15 b9 33 64 53 b8
       -0.002360435 -0.0024493265 -0.00014296832 -5.0399638e-05
000180 61 9f c6 3a a6 db 65 3a c6 c2 bb 3a 6a c7 1b 3b
       0.00151537 0.0008768387 0.0014325015 0.0023769983
000190 32 41 43 3b 12 b6 a5 3b 6e 70 53 3b 24 a5 eb 3a
       0.0029793498 0.005057105 0.0032263058 0.0017978293
0001a0 9a 18 26 ba 10 ed a2 3a 36 4c 44 3a 8c 77 d1 3a
       -0.00063360634 0.0012430269 0.0007488163 0.0015981062
0001b0 aa a3 13 3a b8 bc 9e 3a e9 d3 0f bb 27 2b e0 3a
       0.0005631993 0.0012110686 -0.0021946377 0.0017102704
0001c0 23 d8 b9 ba a3 d5 f9 ba 4a f6 58 ba 02 c7 26 ba
       -0.0014178794 -0.0019060861 -0.0008276446 -0.0006362052
0001d0 e0 4d 10 ba 93 16 0d b9 7c 86 95 bb 5c 60 8f 3a
       -0.00055047683 -0.00013455217 -0.004563151 0.0010938752
0001e0 47 57 05 bb ef b9 51 3b 38 5a c8 ba ec 9a 33 ba
       -0.002034621 0.0032001694 -0.0015285676 -0.0006851393
0001f0 18 ee b2 bb 48 82 82 ba b0 94 0d 3b 82 91 c7 39
       -0.005460512 -0.000995704 0.0021603517 0.0003806465
000200 b7 86 e5 ba dc 2e 3d 3b 53 1d 55 3b 70 be 4e 3b
       -0.0017511462 0.0028867042 0.00325187 0.0031546615
000210 8d 98 4b 3b 7b 77 21 3b eb e0 8a ba f3 8f a0 3b
       0.003106627 0.0024637866 -0.0010595595 0.0048999726
000220 2b a1 52 3b 8c 27 99 3a e5 6d 4e b9 38 08 e1 3b
       0.003213952 0.001168476 -0.0001968663 0.006867435
000230 19 a9 86 ba fb fc 2b 3b e0 80 ea b9 65 3c 34 39
       -0.0010273784 0.0026243317 -0.00044727977 0.00017188636
000240 2a 16 5b bb f4 6f b8 ba 86 dc 38 39 a3 b7 66 ba
       -0.003342996 -0.001407145 0.00017629759 -0.0008801168
000250 56 ff f2 bb 55 1d 3a 3b 63 cd 0e ba 11 82 52 bb
       -0.0074156923 0.002839883 -0.0005447475 -0.0032120983
000260 96 a5 44 ba 38 7c d0 b9 cb 33 8d 3b 46 25 97 ba
       -0.0007501481 -0.00039765402 0.0043091527 -0.0011531494
000270 bc 9d 1e ba 54 0d 06 ba 80 82 d4 bb e6 d8 8b b9
       -0.0006050726 -0.00051136804 -0.0064852834 -0.00026673748
000280 e6 2d 9f b8 df d8 60 3b c5 f9 e9 b8 04 14 82 3a
       -7.59026e-05 0.0034308953 -0.00011156829 0.0009924178
000290 ee 61 81 39 56 93 c8 bb 9e 76 59 bb a6 75 c5 bb
       0.0002467776 -0.0061210794 -0.0033182274 -0.0060259877
0002a0 ab 0d cb b9 15 25 3f bb a9 1c a4 ba d6 45 45 bb
       -0.0003872936 -0.002916639 -0.0012520748 -0.003010144
0002b0 6b 52 c0 ba 90 be 01 ba 90 5e 4c 3b f8 85 c4 ba
       -0.0014673 -0.00049493555 0.0031184293 -0.0014993539
0002c0 eb b2 05 bb f5 2b 2d bb b1 59 bd bb 93 4b 95 ba
       -0.0020400833 -0.0026423906 -0.0057785143 -0.0011390321
0002d0 d9 41 08 3b 13 f2 a8 3b 22 62 95 3a ca da 02 3b
       0.0020791201 0.0051558106 0.0011397044 0.0019966834
0002e0 6e f8 3e bb be f8 96 ba 4b 84 de 39 3e 6f 39 bb
       -0.0029139775 -0.0011518223 0.00042441706 -0.0028295065
0002f0 ac d4 01 ba 12 0f c2 b9 58 78 c0 bb 8d 02 90 bb
       -0.000495265 -0.00037013792 -0.005873721 -0.0043948353
000300 84 1b cb bb ba 02 a1 bb 23 3e a2 3b c4 77 69 3b
       -0.0061983485 -0.004913655 0.004951255 0.0035624364
000310 b3 a8 2d 3c ca 3a 44 3b 27 8f 67 3a d5 bd 86 3b
       0.010599303 0.0029942268 0.0008833282 0.004111985
000320 e5 55 12 3b 92 b5 ae 3b b9 2e 9c 3a 15 23 fa 3a
       0.002232903 0.0053317035 0.001191578 0.0019083942
000330 9e be 11 3b fa 6e f8 3a 08 df e9 3b 7c 46 13 3b
       0.002223886 0.0018953972 0.007137183 0.0022472432
000340 a8 fc 4b 3c 21 36 2a 3b 5f 4c 63 ba 87 91 9f 3b
       0.012450375 0.0025972205 -0.0008670743 0.004869643
000350 ad 08 26 ba 3f bb 06 ba 69 ce 58 bb 98 ce a5 38
       -0.000633369 -0.0005139596 -0.0033082014 7.906294e-05
000360 40 38 2a 39 83 84 02 39 ad 26 ee 3b 14 ed 01 3b
       0.00016233418 0.0001244713 0.007267794 0.0019825147
000370 dc b2 05 3b 19 ac 23 3a c6 ab 95 3a a5 a0 28 b9
       0.0020400798 0.0006243601 0.001141899 -0.00016081573
000380 4e 74 c0 3a c3 1d b3 3b f3 c7 b8 3a fb a5 5a 3b
       0.0014683099 0.0054661944 0.0014097675 0.0033363092
000390 0f 00 8c 3b ce 93 f2 3b d2 8f f4 39 fe d9 9b 3b
       0.004272468 0.0074028736 0.0004664646 0.0047562113
0003a0 58 95 f5 39 c5 1a f9 38 4d 44 0a bb fb 1f cb 39
       0.0004684131 0.000118782315 -0.002109784 0.00038743005
0003b0 5f e5 54 3a a9 b2 86 3a ce 37 b4 3b 10 8c 2d 3b
       0.0008121337 0.0010276634 0.0054998165 0.0026481189
0003c0 7b b1 3e ba e4 9a 73 3b 04 f2 ca b9 3f d5 ca 37
       -0.00072743715 0.003717118 -0.00038708758 2.4179577e-05
0003d0 05 73 b5 bb a7 b3 01 bb f0 fd 08 3b c2 8e 83 3a
       -0.005537393 -0.001979092 0.0020903312 0.0010037052
0003e0 5c 85 c6 ba 7c 64 20 ba e6 5c 96 3a c6 01 1e 3a
       -0.0015145945 -0.0006118489 0.0011471778 0.0006027486
0003f0 e2 f8 5e 3a cd 01 9f 3a 54 d9 9e bb 18 0f 3c b9
       0.00085057144 0.0012131274 -0.004847685 -0.000179347

exp_avg_sq f4 [10, 30]
000000 3c 84 27 37 49 33 4e 37 9c 5c 2c 37 a6 cc 0e 37
       9.984764e-06 1.2290498e-05 1.0273561e-05 8.511508e-06
000010 04 f7 84 36 60 d3 0f 37 0e 6c 53 37 fa ca 5c 37
       3.962663e-06 8.572679e-06 1.26017385e-05 1.3160281e-05
000020 4a 12 bc 37 4e 0a 11 37 29 9d 22 36 4e 8b bd 36
       2.2419863e-05 8.645073e-06 2.423136e-06 5.648856e-06
000030 37 58 1e 36 c5 5d 1e 36 f9 6a 4b 37 a9 18 11 37
       2.3595182e-06 2.3598416e-06 1.2124649e-05 8.648415e-06
000040 1b 7a 7e 37 f8 f2 c0 36 88 af de 36 5c da 72 37
       1.516801e-05 5.750331e-06 6.63655e-06 1.4475165e-05
000050 8f 11 68 37 97 56 40 37 38 d2 58 37 63 0b 46 37
       1.3832366e-05 1.1464253e-05 1.2923549e-05 1.1804371e-05
000060 bd af b9 36 c7 33 c7 37 dc 8c bd 37 1d db 9b 37
       5.5338883e-06 2.374676e-05 2.2596148e-05 1.8579472e-05
000070 b8 65 2d 38 45 aa 5c 37 79 28 09 37 54 a3 17 37
       4.1341147e-05 1.3152666e-05 8.17526e-06 9.038329e-06
000080 82 4e f6 36 36 33 db 36 15 99 01 37 22 41 37 37
       7.340511e-06 6.5326703e-06 7.724641e-06 1.0922815e-05
000090 08 14 c0 37 f5 59 94 36 21 86 77 37 75 5f 79 38
       2.2897511e-05 4.421216e-06 1.4753577e-05 5.9455127e-05
0000a0 52 5a 8a 36 66 f3 e3 36 88 0d cc 35 eb b4 ae 35
       4.123235e-06 6.7934625e-06 1.5203123e-06 1.3016664e-06
0000b0 f5 d0 01 37 c9 1e 3e 38 96 12 3f 39 41 89 9c 38
       7.737651e-06 4.53282e-05 0.00018222103 7.464225e-05
0000c0 b5 cd 5b 37 ba aa 14 39 13 e1 1c 37 33 4e 28 37
       1.3101312e-05 0.0001417798 9.350729e-06 1.00317875e-05
0000d0 18 17 09 37 4d a7 02 37 49 d3 9a 36 a6 a8 a6 36
       8.171213e-06 7.787557e-06 4.6141545e-06 4.966819e-06
0000e0 71 98 4d 37 f2 b1 95 36 09 04 1c 37 8f 19 56 37
       1.2254445e-05 4.4612616e-06 9.299264e-06 1.2761345e-05
0000f0 a7 a9 b0 36 05 eb 1b 37 ac 66 c4 36 76 1a da 36
       5.264959e-06 9.29344e-06 5.8532078e-06 6.4999867e-06
000100 4e f0 89 37 81 06 c1 37 16 22 a1 37 61 d7 6f 37
       1.6443573e-05 2.3010422e-05 1.9208568e-05 1.4295657e-05
000110 2d 14 a5 36 cf a1 e8 37 be e5 74 36 6b 3e fb 36
       4.919732e-06 2.7731903e-05 3.649256e-06 7.4876493e-06
000120 28 ed 96 36 c0 7a 22 36 55 52 94 37 87 92 97 37
       4.497957e-06 2.421133e-06 1.7681314e-05 1.8068835e-05
000130 9a 69 5e 37 f8 f7 e3 36 37 d7 21 37 7a 81 95 37
       1.3256818e-05 6.7939945e-06 9.646456e-06 1.7822476e-05
000140 4a 52 0a 37 e5 72 33 37 7e f2 0f 37 df c3 23 37
       8.2446e-06 1.0695982e-05 8.579924e-06 9.761162e-06
000150 23 08 b6 37 d8 b0 da 37 c6 a0 dd 37 a1 4f 8b 37
       2.169988e-05 2.6069974e-05 2.6420119e-05 1.6607171e-05
000160 d1 40 c1 37 95 0b 2a 38 5e 4c 1a 37 b1 ba 55 37
       2.3037575e-05 4.0541945e-05 9.196896e-06 1.2739257e-05
000170 93 9b 18 37 03 74 ed 36 e0 62 70 37 de 9c 3e 36
       9.096128e-06 7.076656e-06 1.4328136e-05 2.8403515e-06
000180 c4 39 9c 36 df a2 86 36 1e a4 2a 36 da ce cd 37
       4.655887e-06 4.012472e-06 2.5427503e-06 2.4534227e-05
000190 f2 67 92 36 ab e8 b3 36 ff 9f 85 36 82 20 47 36
       4.36324e-06 5.361702e-06 3.982335e-06 2.9672233e-06
0001a0 0b 9a 01 38 37 6b 73 36 c9 e6 17 36 40 47 28 36
       3.089946e-05 3.627223e-06 2.2635088e-06 2.5075424e-06
0001b0 7a 0d 06 37 56 61 26 37 b4 e4 32 37 97 0a 4d 37
       7.99016e-06 9.917034e-06 1.0662876e-05 1.2221418e-05
0001c0 d8 11 30 37 6a 4a 04 37 b9 25 36 37 7f bf 9f 36
       1.0494572e-05 7.885139e-06 1.0856828e-05 4.7608623e-06
0001d0 d5 38 d0 36 e6 c0 e0 36 03 95 b5 36 e1 ba 8c 36
       6.205499e-06 6.6981765e-06 5.4115676e-06 4.1940807e-06
0001e0 35 81 b5 37 ce 13 8d 37 19 46 b7 37 35 d7 be 37
       2.1637048e-05 1.6817732e-05 2.1847942e-05 2.2749979e-05
0001f0 b8 9b dd 37 46 ba ae 36 25 9e 7d 37 eb 13 50 37
       2.6417765e-05 5.207289e-06 1.5116796e-05 1.2402404e-05
000200 54 d3 a8 36 64 74 cd 36 09 c6 12 37 a3 88 76 37
       5.031392e-06 6.1230257e-06 8.748387e-06 1.4694556e-05
000210 05 cd 06 37 ca ff 16 37 8c 8c 05 38 7e 73 18 37
       8.034757e-06 9.000252e-06 3.1840565e-05 9.086796e-06
000220 e7 82 c2 36 db 2b 04 37 75 78 b4 36 0b 3d 92 37
       5.7968896e-06 7.878024e-06 5.378441e-06 1.7432982e-05
000230 93 95 db 37 33 82 75 37 66 98 db 37 d6 3a db 37
       2.6176485e-05 1.4633452e-05 2.61778e-05 2.6134232e-05
000240 2d 6f ff 36 5d 00 f1 36 31 6e 68 37 4e 84 6e 37
       7.612535e-06 7.182402e-06 1.38539335e-05 1.421671e-05
000250 c1 8a 05 37 5c 7d 7f 36 08 bb 97 36 6c 62 52 36
       7.959724e-06 3.807093e-06 4.521924e-06 3.1349728e-06
000260 c9 35 8d 36 da c6 7e 36 f4 82 bc 36 68 11 85 36
       4.208389e-06 3.7964696e-06 5.6180816e-06 3.9657352e-06
000270 9d 45 5e 36 d4 77 02 36 72 f3 a8 37 e7 3b b4 36
       3.3121098e-06 1.9441259e-06 2.0140524e-05 5.3713916e-06
000280 82 e7 69 35 c9 e1 e9 36 c8 5c a4 35 de b1 af 35
       8.713615e-07 6.970226e-06 1.2245955e-06 1.3090282e-06
000290 9e 00 1b 37 f0 cb b2 37 ba 8a 1d 37 8a d7 ac 37
       9.238864e-06 2.131422e-05 9.390229e-06 2.0604366e-05
0002a0 1b cf af 36 1e 49 79 37 63 0c 8e 36 90 88 bc 36
       5.2395167e-06 1.48585805e-05 4.233372e-06 5.6187346e-06
0002b0 75 4e 8a 36 ca 52 62 36 e7 e6 d0 36 62 c7 f9 36
       4.121854e-06 3.3724814e-06 6.2257636e-06 7.4439895e-06
0002c0 8b e9 fa 36 62 e9 c4 36 ed 87 5b 37 92 4f fa 36
       7.4777686e-06 5.8684245e-06 1.3085065e-05 7.459844e-06
0002d0 ac 90 00 38 04 52 c0 37 20 d9 ef 37 bc 74 b6 37
       3.0652314e-05 2.2926375e-05 2.8592127e-05 2.175045e-05
0002e0 a5 05 07 38 cf 75 6f 37 21 c5 2b 37 73 4c b6 36
       3.2191765e-05 1.427294e-05 1.0238292e-05 5.4329225e-06
0002f0 69 21 08 37 ed c1 19 39 97 20 4a 37 6f 21 82 37
       8.114011e-06 0.0001466346 1.2047726e-05 1.5512776e-05
000300 5e df 15 37 e1 3d 17 37 f1 30 18 39 69 10 8b 38
       8.933099e-06 9.014709e-06 0.00014514082 6.631093e-05
000310 43 74 2c 39 9d 3d 88 38 96 be 10 38 57 da 49 39
       0.00016446509 6.496462e-05 3.4509772e-05 0.00019250192
000320 8f 18 fc 37 b7 91 bd 37 bd 5d ec 37 16 e4 ad 37
       3.0052177e-05 2.259841e-05 2.8177043e-05 2.0729418e-05
000330 21 15 44 38 b6 35 ed 36 06 22 2c 37 b1 0b f6 36
       4.674972e-05 7.069403e-06 1.0259921e-05 7.3327324e-06
000340 1e 67 89 37 55 2a 55 38 fa 15 69 36 5d 7e 38 36
       1.637969e-05 5.0822582e-05 3.4732498e-06 2.749169e-06
000350 59 e4 45 36 b7 21 35 36 bd 6a 63 36 c9 cd b3 36
       2.9488203e-06 2.6990726e-06 3.3887766e-06 5.3585723e-06
000360 b3 aa d9 35 90 35 58 35 2d 3c 5f 37 87 7c a3 37
       1.621744e-06 8.0544214e-07 1.3305847e-05 1.9489102e-05
000370 77 3a 45 36 f9 a4 39 36 d3 d5 97 35 12 73 cc 34
       2.9389319e-06 2.7663175e-06 1.1312608e-06 3.8081686e-07
000380 d6 09 60 37 45 26 3f 38 ff 6a 06 37 08 42 7d 37
       1.33537305e-05 4.557359e-05 8.011934e-06 1.5095349e-05
000390 50 98 54 37 9d fa db 38 02 df 4d 36 75 cf 5f 36
       1.2671648e-05 0.00010489414 3.0677188e-06 3.3350345e-06
0003a0 4e 6f 40 36 9b 56 27 36 b7 21 b9 36 35 de 0f 36
       2.8675017e-06 2.493535e-06 5.5173546e-06 2.1438002e-06
0003b0 6a ef 22 36 83 10 05 36 a9 c3 c1 36 80 13 ff 36
       2.4279238e-06 1.9828155e-06 5.774626e-06 7.6018623e-06
0003c0 a9 20 cb 37 2f 7d 3c 37 77 0f cf 37 0d cd d3 37
       2.4214694e-05 1.123482e-05 2.4683524e-05 2.5248644e-05
0003d0 02 f1 99 37 57 d8 f5 36 77 c7 8e 37 0c 5a 75 37
       1.835125e-05 7.3267543e-06 1.7020602e-05 1.4624104e-05
0003e0 c3 38 76 36 4e 11 89 36 3b 0c ee 36 1a ab 92 37
       3.6689896e-06 4.0849327e-06 7.0943765e-06 1.7484232e-05
0003f0 33 a0 eb 36 af 36 0f 37 13 a4 1e 38 8e bb 8d 36
       7.0221954e-06 8.536196e-06 3.782294e-05 4.2239617e-06

exp_avg f4 [10]
000000 60 59 9c 3c ef 48 79 3b d6 12 cc 3c 66 1d 84 bc
       0.019085586 0.0038037857 0.024911325 -0.0161273
000010 0b 1a fc bb cd 29 be bb 99 a4 fe 3c 31 1c d6 3b
       -0.0076935343 -0.005803323 0.031084346 0.0065341224
000020 37 4e 50 ba a6 77 85 3b
       -0.0007946225 0.004073101

exp_avg_sq f4 [10]
000000 07 db 29 38 bf 97 3f 37 64 91 d7 38 fd 66 b9 37
       4.0496725e-05 1.1419818e-05 0.0001027908 2.2101676e-05
000010 6c b1 b3 36 f1 01 60 37 24 71 07 39 cf 8b 69 37
       5.3552703e-06 1.3351892e-05 0.00012916751 1.3920434e-05
000020 78 81 5e 36 11 bd 92 36
       3.3155939e-06 4.3731493e-06

exp_avg f4 [10, 10]
000000 6f 3c ed bb f0 9e fc 38 b4 97 10 3b 8d 5d a2 39
       -0.0072398703 0.00012045901 0.0022063078 0.0003096875
000010 f2 a6 11 3a 8d 3e 5b 3b 3b e9 e6 bb 28 fd 91 bb
       0.0005556188 0.0033454031 -0.007046846 -0.0044552274
000020 6a 7b 1d 3a bc 54 88 bb 7e bc 05 3c 39 d0 22 3a
       0.0006007465 -0.0041604917 0.008162616 0.0006210837
000030 ad a1 4f 3a 94 42 48 bc 05 dd d2 bb ac 99 1d 3b
       0.0007920515 -0.012222905 -0.006435039 0.0024047894
000040 77 fd 99 3b bd c4 f3 ba 53 e9 a1 3a 63 d5 9d 3a
       0.004699405 -0.0018598061 0.0012352861 0.0012041744
000050 f2 01 78 3a 64 09 7a 3b 0b 54 bb 3b a6 70 a0 3a
       0.0009460739 0.003815257 0.005716806 0.0012240603
000060 8f 4d d6 39 01 27 31 3b 0d 27 82 39 e2 69 24 3b
       0.00040875046 0.0027031305 0.00024824627 0.0025087525
000070 9a 99 c5 3b f0 88 df 3a 9b 94 a5 bb 8b b0 57 bb
       0.0060302736 0.001705436 -0.0050531155 -0.0032911624
000080 58 ff 1c bb 4d 2f 4c 3c e8 b6 94 3b 47 c4 3c 38
       -0.0023955908 0.012462449 0.0045384057 4.500549e-05
000090 82 b1 95 bb be 9f 11 ba db 0f a9 ba 5e ab 05 bb
       -0.0045682797 -0.00055551145 -0.0012898402 -0.0020396332
0000a0 f2 f1 b1 3b 9d ad ea 3a fa 4d c8 bb 14 8a fd bb
       0.0054304535 0.0017904524 -0.006112811 -0.0077374075
0000b0 4f 96 95 bb 8e 96 c3 bb 2d 0e c3 3b 47 38 93 bb
       -0.0045650373 -0.0059688753 0.0059526176 -0.0044927928
0000c0 a9 7c 4d 3b cf 59 3f bb 9e ec 05 3c 7a 3c c9 ba
       0.003135482 -0.0029197817 0.00817409 -0.0015353106
0000d0 8d 14 11 bb 0f 5c 37 bb 62 04 2a bb 37 c3 74 bb
       -0.0022137493 -0.0027978455 -0.0025942554 -0.0037347802
0000e0 92 de f1 3b 58 05 64 3b 7c 84 9a b8 15 44 42 3b
       0.007381269 0.0034793224 -7.3679694e-05 0.002964263
0000f0 5a 2b 70 ba f6 58 9f bb 76 4b 3f bb fd 66 0e 3a
       -0.00091617333 -0.0048629 -0.0029189265 0.00054322166
000100 7d cf c4 3a 70 fd af 3b 01 ca 62 bb aa 1d 25 ba
       0.001501545 0.0053707883 -0.0034605267 -0.0006298671
000110 d2 aa 13 bc 2d fb d1 3a 53 c4 83 ba a9 a6 57 bb
       -0.009012895 0.0016020291 -0.0010053016 -0.0032905734
000120 33 bf 39 3b df 44 34 3c f4 b4 d1 3b c0 77 3a 3a
       0.0028342723 0.011002748 0.006399745 0.0007113181
000130 1f eb 82 3a 37 ad 1e 3c 30 67 b4 bb c2 f4 00 3c
       0.0009988284 0.009684852 -0.005505465 0.007870855
000140 22 47 a4 bb 2a 75 13 3a 69 42 50 3b fc 25 84 bb
       -0.0050133625 0.0005625064 0.0031777865 -0.0040328484
000150 cb 14 62 39 22 cd 17 3c 2c f1 07 bc 0f d6 83 bb
       0.00021560786 0.009265216 -0.008297246 -0.0040233205
000160 a4 e1 50 bb 16 c1 89 ba b1 15 be 3b ab 97 46 3b
       -0.0031872774 -0.0010509815 0.0058009257 0.0030302803
000170 1d 0c a7 3b 2c c6 55 bb cf 71 78 bb 54 cc a8 3b
       0.0050978796 -0.003261934 -0.0037909632 0.005151311
000180 8e 15 af 3a 98 48 12 3b db f4 dc 3b 91 01 58 3a
       0.0013357864 0.0022321101 0.0067430562 0.00082399795

exp_avg_sq f4 [10, 10]
000000 f5 94 a4 38 39 50 68 38 9f 2c 1b 38 37 24 ea 37
       7.847875e-05 5.5387824e-05 3.6996436e-05 2.7911838e-05
000010 7a 21 9d 37 f6 ef ce 37 83 bf b2 37 59 49 9c 37
       1.8731447e-05 2.4668854e-05 2.1308433e-05 1.8630804e-05
000020 c2 20 71 38 17 e4 d2 37 d0 8f d7 37 2a ad 30 37
       5.7489386e-05 2.5140163e-05 2.5696965e-05 1.0530735e-05
000030 6e dc be 36 2d 70 6c 38 b4 b5 37 37 aa bd 0c 37
       5.6881026e-06 5.6371257e-05 1.0949956e-05 8.38881e-06
000040 94 35 ba 36 5b 46 54 37 38 47 79 36 88 f4 80 36
       5.5494693e-06 1.2652566e-05 3.7145346e-06 3.8431644e-06
000050 5a 1a db 36 bb 63 87 37 96 96 52 37 d1 65 bf 36
       6.5297763e-06 1.6139695e-05 1.2552036e-05 5.7040966e-06
000060 39 20 6b 36 53 87 69 37 06 2f 6f 36 50 92 5e 36
       3.5036485e-06 1.391939e-05 3.5641146e-06 3.3165743e-06
000070 87 cd 94 37 a8 c5 9e 36 b1 33 10 38 18 b4 a6 37
       1.7738681e-05 4.731777e-06 3.4380417e-05 1.9872605e-05
000080 07 ce d8 36 c3 9c 62 38 b4 fa 1c 37 62 0d b0 36
       6.4612864e-06 5.4028595e-05 9.356696e-06 5.2467667e-06
000090 cf 7b 04 37 08 89 5d 37 e0 be 19 37 52 d4 b9 36
       7.8966395e-06 1.3204532e-05 9.163952e-06 5.538147e-06
0000a0 2f a8 7e 37 c5 f5 a2 37 07 ef b8 37 cb c8 f5 37
       1.5178738e-05 1.942635e-05 2.2045815e-05 2.9299777e-05
0000b0 5b a4 f1 36 20 c3 02 38 9b 3c 29 37 c6 30 45 37
       7.201493e-06 3.117614e-05 1.0087296e-05 1.1753471e-05
0000c0 5f a3 88 37 40 b2 59 37 1f cc 42 38 3d bc e9 37
       1.6288539e-05 1.297571e-05 4.6443307e-05 2.786342e-05
0000d0 c2 cb 97 37 a3 6f 8e 37 d0 6e f7 36 10 9f 6c 37
       1.8095485e-05 1.6979704e-05 7.374074e-06 1.4103731e-05
0000e0 3f 65 3f 37 95 68 16 37 c6 f5 b1 37 ee 45 4a 37
       1.140806e-05 8.965047e-06 2.1214491e-05 1.205642e-05
0000f0 a8 0a 3b 37 a5 30 80 37 28 fa 5f 36 bd 6f 9e 36
       1.114855e-05 1.5281441e-05 3.33752e-06 4.721775e-06
000100 ec 1e 52 36 cd 85 b9 36 8a 8d 65 37 0a 9b 90 37
       3.1310437e-06 5.529006e-06 1.3682418e-05 1.7238333e-05
000110 37 95 52 37 67 17 32 36 7a 52 ab 37 94 0a 95 37
       1.2551717e-05 2.653769e-06 2.0423195e-05 1.776711e-05
000120 6a 80 42 37 bc b8 c0 38 7c 30 e5 37 bf bb fc 37
       1.15932e-05 9.189683e-05 2.7321505e-05 3.0128167e-05
000130 63 c5 bd 37 da e4 52 38 5f 7a d4 37 70 0d 19 38
       2.2622471e-05 5.0281036e-05 2.5329353e-05 3.6490557e-05
000140 b4 35 bf 37 5e 94 c4 37 a5 07 0d 38 b5 49 33 38
       2.2793982e-05 2.343411e-05 3.362414e-05 4.274557e-05
000150 5a bb 2d 37 ea e5 41 38 72 45 e5 37 45 05 9b 37
       1.0355225e-05 4.622891e-05 2.7331265e-05 1.8479894e-05
000160 7a 52 df 37 14 24 a8 37 f6 a8 01 37 c0 7d 65 37
       2.6622078e-05 2.004396e-05 7.7283385e-06 1.3678742e-05
000170 46 5c 8c 37 02 81 b3 37 fd 4b 56 37 6f 4c 99 37
       1.6732269e-05 2.1398537e-05 1.2773086e-05 1.8274613e-05
000180 05 92 28 37 7f 1a 35 37 27 ec 00 38 83 82 ed 36
       1.0047578e-05 1.079461e-05 3.0737512e-05 7.078344e-06

exp_avg f4 [10]
000000 38 e9 04 3d 12 a6 07 bd 5d b1 a7 3b 1f d1 ed 3c
       0.032448977 -0.03311736 0.005117579 0.02903038
000010 62 b6 7a bd b1 26 26 bd 9a 7d f0 3c cd 38 1d 3d
       -0.06120909 -0.040564243 0.029356766 0.038384248
000020 01 12 3e 3d b5 8d 2c bc
       0.04640389 -0.010531832

exp_avg_sq f4 [10]
000000 1e 15 47 39 34 04 46 39 80 9f 86 38 c9 40 83 38
       0.00018985986 0.00018884317 6.419327e-05 6.258634e-05
000010 ba 83 07 3a 19 dc 85 39 d3 da 15 39 fa 15 01 3a
       0.000516947 0.00025531722 0.00014291266 0.0004924234
000020 d2 01 ba 39 45 9e b9 38
       0.0003547804 8.8509674e-05

exp_avg f4 [5, 10]
000000 ff 15 4e bc 4f 0b f9 bb ac 9d 37 bb 33 90 c8 ba
       -0.012578486 -0.007600225 -0.0028017564 -0.0015301764
000010 08 2a 3b 3c 7b fd 9b 3b 87 cd 33 bb 99 17 c3 3b
       0.011423595 0.004760442 -0.0027435736 0.005953741
000020 77 f2 cb bb 21 6d 60 3a 49 d4 e5 bb 4b 89 01 bc
       -0.0062239724 0.00085611833 -0.0070138318 -0.007906268
000030 c8 d1 c3 3b e3 6f f8 3b 64 73 29 3a 0c 1b 85 ba
       0.0059759356 0.0075816973 0.0006464033 -0.0010155155
000040 e4 80 57 bc b8 56 58 3b b3 10 be ba ea c7 25 3a
       -0.0131532885 0.0033010673 -0.0014500826 0.000632404
000050 00 28 26 3d a2 70 b8 3c 9a f5 ba bc 31 90 22 3d
       0.04056549 0.022514645 -0.02282219 0.039688293
000060 53 ce 4c bd 3b 1a 0f bc 93 d3 14 bc 3c c1 8b 3b
       -0.050001454 -0.008734281 -0.009083646 0.0042649787
000070 43 14 09 3d 96 5d 0d bb 4a 57 70 36 bc e6 31 3c
       0.03346659 -0.0021570674 3.5813596e-06 0.010858234
000080 a4 e2 7d 3c 87 d8 0e bc 3f 99 77 3c ba 25 04 bc
       0.01549593 -0.008718616 0.01511222 -0.008065635
000090 3a 7e 8f bb d3 57 21 bc 78 72 a9 bb 3b 00 eb bb
       -0.004379061 -0.009847599 -0.0051711164 -0.0071716583
0000a0 18 c3 09 bc 2c 70 4a bc 0d 9b e2 3b 0e 4d 88 bc
       -0.00840833 -0.012355845 0.006915456 -0.016638305
0000b0 bd 8c 8e 3c 99 76 fe 3a 88 a8 06 3c 2f 0a a9 bb
       0.017401094 0.0019414007 0.008218892 -0.0051586847
0000c0 5a 5a 5b bc 3a a7 2d 3b
       -0.013388241 0.002649738

exp_avg_sq f4 [5, 10]
000000 81 3a 9d 38 ef ea 92 38 91 45 1f 38 a2 2b 6f 38
       7.4972406e-05 7.005582e-05 3.7973343e-05 5.7022677e-05
000010 f2 7b aa 38 cf 30 c4 37 48 79 14 38 a2 48 75 37
       8.129318e-05 2.3387749e-05 3.53989e-05 1.4620049e-05
000020 c3 68 ef 37 52 5c cd 37 00 c5 5c 38 02 cb b0 38
       2.8539804e-05 2.4480894e-05 5.2635558e-05 8.430147e-05
000030 e6 07 fb 37 3a 81 b7 37 86 19 a1 37 98 1d a6 37
       2.992521e-05 2.1875476e-05 1.920458e-05 1.9802523e-05
000040 ae f4 78 38 01 74 f1 36 df 3e 38 37 52 da 50 37
       5.9355683e-05 7.1958643e-06 1.0981893e-05 1.2448598e-05
000050 49 f0 b2 39 f3 e9 cb 39 35 66 d0 38 b4 50 6d 39
       0.00034129832 0.00038893483 9.9372504e-05 0.00022632146
000060 f4 56 8c 39 eb 61 9a 38 b0 3b 32 39 2a 47 ff 37
       0.00026767666 7.361531e-05 0.00016997638 3.0431507e-05
000070 c8 59 48 39 97 33 a3 38 1f 3a a6 38 65 79 30 39
       0.00019106932 7.782055e-05 7.926323e-05 0.00016829891
000080 85 eb 11 38 8c 91 3a 38 cd 1c b2 38 1f 36 4b 38
       3.479004e-05 4.4481407e-05 8.493066e-05 4.8449376e-05
000090 d8 48 4c 38 39 62 b4 37 3d 47 bf 37 fb 58 93 38
       4.870523e-05 2.150341e-05 2.2802147e-05 7.02608e-05
0000a0 f3 4a f0 37 07 f4 04 38 23 1b 2b 37 08 fc 61 38
       2.864513e-05 3.169852e-05 1.01987125e-05 5.3878903e-05
0000b0 1b 5a a6 38 b9 c3 f7 36 08 f0 1b 38 c0 6e 88 37
       7.93228e-05 7.3839587e-06 3.7178426e-05 1.6264035e-05
0000c0 b5 78 b0 37 8c 17 17 37
       2.1037044e-05 9.005784e-06

exp_avg f4 [5]
000000 92 f5 ae 3c af 9b dd 3b 77 32 2e be 80 ad cd 3c
       0.021357331 0.0067629437 -0.17011438 0.025107145
000010 6f 02 a1 3d
       0.07861792

exp_avg_sq f4 [5]
000000 53 c6 7c 3a 48 5d c8 39 40 bf 94 3b c4 28 39 3a
       0.000964259 0.00038216473 0.0045394003 0.00070632645
000010 6c 68 99 3a
       0.0011704094

exp_avg f4 [31, 5]
000000 d1 81 80 3b 0c fc dc bc 7d aa fb bc aa 4a 9f 3c
       0.0039217253 -0.026975654 -0.030720944 0.019444782
000010 cd 2b dd 3c 12 88 86 3b 95 8f ad bc 71 86 cb bc
       0.026998425 0.0041055763 -0.02118663 -0.02484438
000020 ca 07 97 3c 70 d5 a8 3c 2c 80 5b 3b 9f 0d a5 bc
       0.018436331 0.020609587 0.0033493144 -0.020148097
000030 01 f6 c1 bc a1 d3 73 3c f3 98 af 3c da f0 26 3b
       -0.023676874 0.014881999 0.021435237 0.0025473149
000040 5d bd 9c bc da c9 a8 bc 45 e2 42 3c 2d ce 8a 3c
       -0.019133264 -0.020604063 0.011894767 0.016944015
000050 d0 e9 20 3b 23 e5 75 3b 4c 8c 2b 3a 49 1e e7 b9
       0.0024553426 0.003752061 0.0006544038 -0.00044082318
000060 05 24 92 3b f8 d5 2c 3a 1d 2d 6a bc 2c 1e 88 bc
       0.0044598603 0.0006593163 -0.014292982 -0.01661595
000070 b2 be 20 3c 25 ff 44 3c 45 e1 ee 39 b5 1f 98 bc
       0.00981109 0.012023722 0.00045562736 -0.018569807
000080 ab ad b9 bc 09 01 65 3c e9 67 84 3c 03 65 31 3b
       -0.02266582 0.013977298 0.01616283 0.0027068264
000090 f0 12 8b bc db 8d c4 bc 8b 3b 76 3c 2a b6 ab 3c
       -0.016976804 -0.023993423 0.015028845 0.020960886
0000a0 84 b7 8f b9 18 75 93 3b 2c 0e 80 3b 8e b6 f0 ba
       -0.00027411815 0.0045000426 0.0039079394 -0.0018364952
0000b0 48 59 67 39 0a 96 a3 ba 74 2a a4 ba 82 de c4 3a
       0.00022063137 -0.0012480628 -0.0012524859 0.0015019926
0000c0 a4 b6 c3 3a a3 83 03 bb de b8 0e ba 64 81 30 bc
       0.001493175 -0.0020067475 -0.00054444175 -0.010773037
0000d0 cb 43 07 bc e1 27 82 3a ce c1 b1 3a 3c 99 cf ba
       -0.008255909 0.0009930098 0.0013561787 -0.0015838514
0000e0 3c 1b 8b 3b 8b 7d 62 3c e4 ee 45 bc 43 90 9d bc
       0.00424519 0.013823877 -0.012080882 -0.019233828
0000f0 2c 23 c9 ba 97 ab 16 bc 0e f8 be bb ac a1 e3 ba
       -0.0015345565 -0.009196184 -0.0058279103 -0.0017366908
000100 61 fe 23 bb 28 5d 82 3a 2d d6 81 bc fa c9 85 bc
       -0.0025023448 0.0009945976 -0.015849197 -0.016331661
000110 6a fd d7 3b 9b 28 16 3c 27 25 02 bb 7b 4f 97 3c
       0.0065914886 0.009164955 -0.001985857 0.018470516
000120 a7 42 e9 3c b1 43 76 bc 41 eb b6 bc da 39 82 bb
       0.028474165 -0.015030787 -0.022328975 -0.0039741816
000130 87 81 ce bb ba 9f d9 3a a6 72 bd 3a e0 7f 9e bb
       -0.006302062 0.0016603388 0.0014453724 -0.004837021
000140 10 af bc bb be 82 60 bc 6f c4 7c 3a 9c 39 14 3b
       -0.0057581738 -0.013703046 0.0009642308 0.0022617346
000150 a5 07 cc bb 27 46 7d bb a1 ce 11 bc ab cd e7 3a
       -0.0062264972 -0.003864655 -0.008899362 0.0017685195
000160 4e 48 08 ba 42 90 8b bb 23 b1 95 ba 83 63 23 3c
       -0.00051987625 -0.00425914 -0.0011420589 0.009972456
000170 4d ec 8a 3c d5 4e 11 bc 06 5e 58 bc ea 28 51 bb
       0.01695838 -0.008868893 -0.013206011 -0.0031915256
000180 33 f2 e2 ba b8 11 08 3c ff 83 99 b9 be 75 f9 bb
       -0.0017314613 0.008305006 -0.0002928078 -0.007612913
000190 38 c0 7d 3b f6 35 db bc ab 63 ff bc 80 73 a7 3c
       0.0038719308 -0.026759129 -0.031175455 0.020440817
0001a0 c0 41 e1 3c fc 46 93 3b 4a 45 a5 bc b9 9f de bc
       0.027497172 0.004494546 -0.020174641 -0.027175771
0001b0 ef 3d 9e 3c 5a 20 b5 3c 7b 7a 37 3b 5b 80 97 bc
       0.019316642 0.022110153 0.0027996588 -0.018493822
0001c0 da 49 c4 bc 87 50 70 3c 93 40 a8 3c 40 04 6d 3b
       -0.023960996 0.014667637 0.020538604 0.0036165863
0001d0 0e 8d d8 bc 7e 98 00 bd 1b 73 9d 3c c8 f0 d3 3c
       -0.026434448 -0.031395428 0.019219926 0.02587165
0001e0 64 08 53 3b ef 04 12 bb d3 64 26 bc de 9f 16 3c
       0.0032201046 -0.0022280773 -0.010155874 0.009193389
0001f0 c4 a6 60 3c 45 cc 09 3b 0d 82 68 bc 95 ae c5 bc
       0.013711635 0.0021026295 -0.014191163 -0.024131099
000200 65 98 92 3c 02 f3 b4 3c d1 81 e7 3a f3 9e ec bc
       0.017894933 0.022088531 0.001766259 -0.028884387
000210 77 28 15 bd 50 ba e0 3c 6f 27 00 3d cf 6a 2a 3b
       -0.036415543 0.02743259 0.031287607 0.0026003604
000220 42 2c b4 bc f9 10 00 bd 52 5a af 3c 5e 0e e4 3c
       -0.02199376 -0.031266186 0.021405373 0.027838882
000230 ee e5 9c 3b 5c a2 0b bc 20 52 91 bc 79 5d 9f 3c
       0.004788152 -0.008522596 -0.017739356 0.01945375
000240 cd 93 cd 3c 3e 06 81 3a 1e cb 6f b8 97 7a 06 bc
       0.025094891 0.0009843779 -5.7171208e-05 -0.008207939
000250 9c 89 24 3c cb 0c 28 3c f6 cb a5 3b 50 8b 1c 3d
       0.010042574 0.010256956 0.0050597144 0.038218796
000260 13 97 e2 3c ff eb e7 3b 27 8b 21 3c
       0.027659928 0.0070776935 0.009859837
