Cancer-senn/trial0/models/cancer/grad3_Hinput_Thdummy_Reg1e-02_LR0.001/model_best.pth.tar (torch_old, 26436 bytes, 34 tensors)

parametrizer.linear1.weight f4 [10, 30]
000000 34 b4 93 3d 45 f0 8b 3c 57 cb 97 3d 34 fb 8c 3c
       0.072121054 0.017082343 0.07411831 0.017209627
000010 21 76 2b be c4 72 01 be 86 c8 04 be 16 42 39 3c
       -0.16744281 -0.12641436 -0.12967119 0.01130726
000020 07 20 c3 bd 02 d0 2e 3e c7 b0 14 3e ea 03 f9 bd
       -0.09527593 0.17071536 0.1452056 -0.1215895
000030 51 97 93 3d 8f b9 09 3d cf b8 22 3e 23 fd e3 3d
       0.07206596 0.033624228 0.15890811 0.11132266
000040 82 a4 bd 3d a4 dd d2 bd 5e f5 24 be 28 78 0d be
       0.09259893 -0.10296181 -0.16109225 -0.13815367
000050 33 fb 9c 3c 1a 27 11 3e 17 9d 02 bd e8 0c 82 3c
       0.01916275 0.14175072 -0.031888094 0.015875295
000060 a1 2b f2 bd c6 ad a1 3d 3a f5 da 3d 01 c0 e6 3d
       -0.11824728 0.07894473 0.106913045 0.112670906
000070 f2 bd 46 be 0a bf 94 bc 1e 4e 88 3c 83 3b 07 be
       -0.19408396 -0.0181575 0.016638812 -0.13206296
000080 d5 61 dc bd df 85 e1 bd 72 fb b0 bd ec 14 78 3d
       -0.107608475 -0.11011862 -0.086417094 0.060566828
000090 df d5 0b be d9 e6 a5 bc ac ea e5 bd 4c 6d c2 bd
       -0.13655804 -0.020251678 -0.11226401 -0.09493503
0000a0 6d e8 bb 3d af 29 aa 3d c3 58 4c bc 6c 25 0a be
       0.09175191 0.08308732 -0.012472334 -0.13490838
0000b0 e9 d3 b6 3d 52 ee 26 3d 5e 33 0a be 65 80 d3 3d
       0.089271374 0.040754624 -0.13496158 0.10327224
0000c0 5b 18 33 3e ef dd 21 3e 7a f8 32 be 78 10 0d be
       0.1748976 0.15807317 -0.17477599 -0.13775814
0000d0 e6 9d 36 be bf c8 c4 3c 9c 22 ca 3d 60 8f 9a 3d
       -0.17833671 0.024021504 0.098698825 0.07546878
0000e0 8c bc 3b 3e bf 7b 0e bd 85 93 1a 3d 72 f0 df bc
       0.18333644 -0.034785982 0.03773834 -0.027336333
0000f0 f9 da 17 3e bb 36 43 be 4a 07 c7 bd 5f 54 b0 3d
       0.14829625 -0.19063847 -0.09718187 0.086098425
000100 8c c0 8b 3d 04 a1 00 be 30 01 39 3c f8 69 0a be
       0.06823835 -0.12561423 0.011291787 -0.13516986
000110 12 d9 bd bd 04 56 b2 bd ea 8e 89 3d 18 8c 91 bd
       -0.092699185 -0.087078124 0.06716712 -0.07106799
000120 20 1b 01 bd 48 9d f8 3d 2e 9e 3b bd 3e 21 08 3e
       -0.03152001 0.12139374 -0.04580515 0.13293931
000130 b5 12 ee 3c 24 ec 95 bd 35 f0 a2 bd 64 50 15 3e
       0.029061655 -0.07320431 -0.07955972 0.14581448
000140 3a e9 ea ba c4 d6 38 be 1c 2c 27 be f9 b2 02 be
       -0.001792229 -0.18050677 -0.1632542 -0.12763585
000150 d4 45 74 bd 65 96 4d be 09 e8 63 3d 42 7a a4 3d
       -0.059636906 -0.20076902 0.055641208 0.08031131
000160 dd 44 7f 3d 94 83 11 3c e3 fe b6 3d 95 72 e5 3d
       0.062321533 0.008881468 0.089353345 0.112034954
000170 b7 05 87 3d 04 f8 ef ba 6a 44 5f 3e 42 f5 58 3d
       0.06592887 -0.0018308167 0.21803442 0.05296827
000180 81 a7 af bd 73 1c 11 3e 82 5c 4f be c1 df 13 bd
       -0.08576871 0.14171009 -0.20250133 -0.03610206
000190 92 be 95 3b 98 71 3c 3e 06 c9 b4 3d fe 02 d3 bd
       0.004569837 0.18402708 0.08827405 -0.10303305
0001a0 25 26 30 3e f9 fd 17 be 09 55 11 be b4 c3 4c bd
       0.17202051 -0.14842977 -0.14192595 -0.049991325
0001b0 51 ec 73 b9 d6 2a 1c be 90 49 d2 3d 18 a4 75 bd
       -0.0002326232 -0.15250716 0.10267937 -0.059970945
0001c0 e6 77 e2 bc e2 aa 4b bd 97 c5 2f 3e a6 b2 bd bd
       -0.027645063 -0.049723513 0.17165218 -0.0926259
0001d0 88 fe 83 bd c4 1c 02 be 8c 7a 1d be 93 88 b1 3d
       -0.06445032 -0.12706286 -0.15378779 0.086686276
0001e0 4f 17 0d bc 9a 7f 0a 3e a7 e5 99 bd 0a f3 14 be
       -0.008611514 0.13525239 -0.07514506 -0.14545837
0001f0 a9 c6 8f 3d b1 00 24 be 3f 41 cc bd 25 9e 07 3e
       0.07020313 -0.16015889 -0.09973382 0.13243921
000200 9f 33 c7 bd f8 46 c4 3c f6 cd 3a 3d 3a 99 27 bd
       -0.09726643 0.023959622 0.045606576 -0.040917613
000210 3f 08 2e be 0c 5a 3e be 21 f4 a5 3d 52 76 8d 39
       -0.16995333 -0.18589038 0.081032045 0.0002698177
000220 b7 44 c6 bd ab ba bd 3d 8d 2a 9a 3d c8 67 94 bd
       -0.09681075 0.0926412 0.07527647 -0.07246357
000230 6d 43 8b 3c a4 42 d2 b9 95 ed d8 3d 1c 6c 9b 3d
       0.016999925 -0.00040103972 0.1059219 0.075889796
000240 80 fe 8e 3d 9b f7 bf 3d 2d df 36 be ed 51 c1 3d
       0.06982136 0.09373399 -0.17858572 0.09439454
000250 80 06 04 be b4 13 a5 bd 63 08 cd bd 81 93 89 3b
       -0.12893105 -0.08060399 -0.10011365 0.004198492
000260 b5 37 ae 3b 09 0d 41 bb 77 18 57 bd 81 30 11 bd
       0.0053166994 -0.0029457232 -0.052513566 -0.035446648
000270 e8 b6 d8 3c 04 4c 74 3d 30 2b 02 be 37 1e 4d bd
       0.026454404 0.059642807 -0.12711787 -0.050077643
000280 d1 6d b7 bd f3 3a a1 3d 4c 28 c8 3d 64 90 1d be
       -0.08956493 0.07872572 0.09773311 -0.15387112
000290 6a 83 83 bd c8 91 45 3e 0f ef a6 3c 13 12 95 3d
       -0.064215496 0.19293892 0.020377664 0.07278838
0002a0 e4 25 e2 bd aa 97 44 3e cf 19 e8 bd fa 09 04 3e
       -0.11042383 0.1919848 -0.113330476 0.12894431
0002b0 de a7 f7 3d 0c f8 90 bb 2d 0c 23 3e e6 9b 5c 3c
       0.12092565 -0.0044241007 0.15922613 0.013464903
0002c0 e4 c5 29 3e ff f9 06 be 51 7a ad bd 58 03 69 3d
       0.16579396 -0.13181303 -0.08470596 0.056887954
0002d0 e8 f8 0f 3d 03 4d b4 3d 5a c4 53 3d 1b c8 af bd
       0.035149485 0.08803751 0.051700927 -0.08583089
0002e0 c0 95 38 be 48 a7 cb bd 11 78 a9 bd ea 09 8a 3c
       -0.18025875 -0.09944016 -0.08274854 0.01685043
0002f0 7a f7 fd bd bc db c4 bc ec c5 a1 bd 0b cb 4f 3d
       -0.12400718 -0.024030559 -0.07899079 0.050730746
000300 84 88 51 3e 7f 1e ee bd 4a 61 08 3e 33 71 59 be
       0.20462233 -0.116269104 0.13318363 -0.21234588
000310 8c 0b 17 3e 12 32 27 bd 0b a1 47 be a0 dc 34 bd
       0.14750499 -0.040819235 -0.19495027 -0.044155717
000320 c7 40 05 be 7d 06 50 bc f1 30 1d 3e 3a 8d cc bd
       -0.13012992 -0.012696859 0.15350701 -0.09987874
000330 ed c6 be bc 1e 9e ea 3d 42 57 2a 3e 84 c7 04 bd
       -0.023288215 0.1145594 0.16634849 -0.032416835
000340 24 52 b2 3d bf a8 1c be 67 5d 82 bd f8 5c 20 3d
       0.08707073 -0.15298747 -0.06365471 0.039151162
000350 e6 99 1b 3e 5d 46 2e 3e 7c a5 ca bd 36 98 79 bd
       0.15195426 0.17019029 -0.09894845 -0.060936175
000360 2b a2 50 be a9 9e c3 bd 38 f4 49 bd 8e 3e b4 3d
       -0.20374362 -0.095517464 -0.04930517 0.08800994
000370 23 ea 37 be a9 0d 36 3d 95 a3 07 be 80 ce 4c 3a
       -0.1796041 0.04444662 -0.13245995 0.00078127533
000380 98 78 d6 3d 46 64 4a 3d 26 e2 59 be 32 f0 58 be
       0.1047222 0.049412034 -0.21277675 -0.21185377
000390 95 53 21 bd 1e 11 91 3d 69 da 9b 3c 92 e0 19 3e
       -0.03938635 0.07083343 0.019025045 0.15027073
0003a0 dc b7 c2 bd 6c d1 ac 3d 41 d1 34 bd 1d a5 90 bd
       -0.09507725 0.084383816 -0.044144873 -0.07062743
0003b0 09 9b 8a bd 06 2e 29 be b1 9c 1b be 3d 6e 0d be
       -0.06767852 -0.16521463 -0.15196492 -0.13811584
0003c0 57 2b df bc 6c 2a 42 be 09 91 ee 3d c1 4a 86 bc
       -0.027242346 -0.18961495 0.11648757 -0.016393067
0003d0 eb ea 3a 3e 45 45 eb 3d a4 6d ce 3d 40 ec 3e be
       0.18253677 0.114878215 0.10079506 -0.1864481
0003e0 08 94 4c bd b1 12 32 3e 2d bb 22 3c 8a 46 4d 3e
       -0.04994586 0.17389943 0.0099323215 0.2004644
0003f0 41 32 86 bd 78 bd 12 be ba a3 93 bd c1 6a 7d bd
       -0.06552554 -0.14330089 -0.07208963 -0.061869387

parametrizer.linear1.bias f4 [10]
000000 08 30 96 bd e4 a5 e0 bd f9 08 b5 3d e7 2a 4a 3e
       -0.0733338 -0.10969141 0.08839602 0.19742928
000010 c9 9d 64 3d 8b dc 24 3e 34 bb 55 be 30 de 5b bd
       0.05581454 0.16099755 -0.20872194 -0.05367869
000020 6c dc 75 bb 30 76 56 bc
       -0.0037515415 -0.0130897015

parametrizer.linear2.weight f4 [10, 10]
000000 b9 6f e1 bd cf 39 a4 be 89 de 7e 3e e0 01 ce 3d
       -0.110076375 -0.32075354 0.24889578 0.100589514
000010 f2 cb 6e be fb 71 ba bd 72 c5 92 3d 51 f5 92 3e
       -0.23319986 -0.09103771 0.07166566 0.28702787
000020 01 35 1c be bc ab 35 3e 9e 19 0e be d5 18 85 be
       -0.15254594 0.17741293 -0.1387696 -0.25995508
000030 b2 23 66 3d 70 ef b8 3e a1 94 08 be a1 73 79 be
       0.056186385 0.36120176 -0.13337947 -0.24360515
000040 19 d2 b0 3c 0a b6 ba bd eb 49 b6 bd eb d6 04 bd
       0.021584557 -0.091167524 -0.089008175 -0.032431524
000050 3b 9b 53 be e4 3f 82 bd 10 1b a3 be 0a 27 16 be
       -0.20664684 -0.063598424 -0.31856585 -0.1466333
000060 f2 b9 30 bd c8 e7 73 be 2a 17 93 3e fc bc bd bd
       -0.04314608 -0.23818886 0.2872861 -0.092645615
000070 92 d3 6f be 4f df 5d be 6a f9 6f bd b5 d7 7f 3d
       -0.23420551 -0.21667217 -0.05858747 0.062461574
000080 2a 84 ba bc 6d 6a 08 bd b7 43 ce bd e7 9e 9c 3e
       -0.022768099 -0.03330462 -0.10071509 0.30589983
000090 6d c7 cb bc 82 1b 96 be 29 78 7e be f1 e5 48 3e
       -0.024875367 -0.29317862 -0.24850525 0.19618966
0000a0 36 9b 5e 3d cf 18 7c 3e fb 4d 48 be b3 d1 b6 3e
       0.05434724 0.24618839 -0.19560997 0.35706863
0000b0 a1 73 02 3e 23 5d 4d 3e ac 4c 9b be 5a af 72 be
       0.12739421 0.2005506 -0.30331933 -0.23699704
0000c0 0f 98 51 be 5d 37 52 bd 79 95 06 be b0 0a 07 be
       -0.20468162 -0.05132233 -0.13142957 -0.1318767
0000d0 0f 6f a1 3e cc 27 8f bd 5f cc 39 3e 01 88 25 3e
       0.31530043 -0.069900125 0.18144368 0.16165163
0000e0 d4 5c ab be e3 0d 33 3e a3 08 65 3e e8 66 c0 3d
       -0.3346926 0.17485766 0.22366576 0.09394628
0000f0 b7 91 3f 3e 44 76 a0 3e ab 6c 97 3e b2 81 d2 3d
       0.1870793 0.3134023 0.29575095 0.10278644
000100 f2 ad 1f 3e ff e2 20 be 7e 53 95 3e 72 1d a6 3e
       0.15593699 -0.15711592 0.29165262 0.3244434
000110 41 36 b0 3e e5 4a bf 3d 25 f6 73 3d 8f a3 03 3e
       0.34416392 0.09340457 0.059560914 0.12855361
000120 8e ce 89 3e 3f 18 23 3e ed 7e ba bc 6b f1 71 3e
       0.269154 0.15927218 -0.022765601 0.2362725
000130 db 33 d6 bd 52 01 a8 be d0 5c 7d bd 12 3b cd 3d
       -0.104591094 -0.32813507 -0.06185609 0.100210324
000140 eb a7 8b 3e 18 17 78 bd 68 85 5d 3e be 31 a6 bd
       0.2727655 -0.0605689 0.21632922 -0.08114956
000150 19 50 7d 3e 9e f8 bd bd b7 7a 8c bc f2 09 b5 bb
       0.24737586 -0.092759356 -0.017148359 -0.005524867
000160 89 c6 f9 bd b5 8c 69 be bd af 26 be 2d 5d ca 3c
       -0.12196071 -0.22807582 -0.16277976 0.024702633
000170 a1 43 bb 3d c0 ea c8 bd 24 da a0 3e f6 c3 86 3e
       0.091437586 -0.098104 0.31416428 0.2632138
000180 c7 1a 32 3e 77 13 7b bd 5c 23 3b 3e d3 b6 87 3e
       0.17393027 -0.06129786 0.18275207 0.2650667

parametrizer.linear2.bias f4 [10]
000000 cf f5 61 be 49 0b 0a be 08 a7 7b 3e 4c e4 a3 be
       -0.22066425 -0.13480867 0.24575436 -0.32010114
000010 b9 b0 51 3e 0c ff 81 bd a4 9f 13 3e fc 34 03 be
       0.2047757 -0.063474745 0.14416367 -0.1281318
000020 36 ad 35 be 81 df 17 bd
       -0.17741856 -0.037078384

parametrizer.linear3.weight f4 [5, 10]
000000 e9 15 42 bd db 04 3f 3e df 71 9e bd 7e 3c ee 3c
       -0.047384176 0.18654196 -0.07736563 0.02908158
000010 6c 14 22 3e 71 eb e0 3d 11 79 58 3d a8 5b a8 be
       0.15828103 0.10982407 0.052849833 -0.32882428
000020 de 43 83 bc 3a d6 79 3e 8e 2c 34 bd c5 bb 55 3e
       -0.016023573 0.24398127 -0.043987803 0.2087241
000030 b0 39 8d be b9 df 9d be 18 57 83 3e 39 fb c6 3c
       -0.27583075 -0.3083475 0.25652385 0.024289714
000040 88 a4 a8 3e 2f 7b 8c be 08 49 82 3e 7b 10 5b be
       0.32938027 -0.27437732 0.25446343 -0.21393006
000050 d3 c4 b5 be 8d ae 7a 3e 91 e9 b5 bd f6 34 88 be
       -0.35501727 0.24480648 -0.0888244 -0.26602906
000060 a0 db af 3e 4e ec a5 3e 8d 95 86 bd 66 35 07 be
       0.34347248 0.3240685 -0.06571493 -0.13203964
000070 1f c3 66 be 6d 49 d6 3d 64 0f a3 bd da 7d 80 be
       -0.2253537 0.104632236 -0.0796192 -0.25096017
000080 17 8d 7b be 24 ae 70 3e a9 2d 31 bc e0 f4 5f bc
       -0.2456554 0.2350393 -0.010814109 -0.013669223
000090 19 89 98 3e 45 46 83 3d 02 08 d0 ba fb e1 88 be
       0.29792097 0.06409887 -0.0015871527 -0.2673491
0000a0 31 e0 58 be 16 12 14 3e 5f 41 e7 3c 51 a0 2b be
       -0.21179272 0.14460024 0.028229414 -0.16760375
0000b0 b5 d3 5c be 90 bf e1 3d a0 c6 86 3e 2a 8a 98 3e
       -0.21565135 0.11022866 0.26323414 0.2979291
0000c0 85 36 f9 3d 59 a0 16 3e
       0.12168602 0.14709605

parametrizer.linear3.bias f4 [5]
000000 29 f7 af bd ba b1 da 3d 95 43 86 3c 8b 17 1c be
       -0.08592064 0.1067843 0.016389647 -0.15243356
000010 11 ce 85 be
       -0.2613378

parametrizer.linear4.weight f4 [31, 5]
000000 69 07 97 bc b0 31 f6 bd 08 1c 4c 3e af fc aa 3d
       -0.01843615 -0.12021196 0.19932568 0.08348977
000010 c8 2c 84 be e6 45 b3 be e2 17 45 3d 63 2c ee 3e
       -0.25815415 -0.35014266 0.04811848 0.4651824
000020 39 3a c0 3e ea b9 05 3e 32 91 a6 3d e8 38 f7 3d
       0.3754442 0.13059202 0.081331626 0.12071401
000030 c7 aa ba 3e 96 8c 2b bc 93 3c 26 be a1 9c 90 3e
       0.36458418 -0.01047053 -0.16234045 0.28244498
000040 a3 5b 00 3e 26 6a 5b be 90 54 51 be 2c 36 7d be
       0.12534957 -0.21427211 -0.20442414 -0.24727696
000050 88 19 68 bc ef 29 2b be e7 d6 f8 be c2 e3 13 bd
       -0.014166243 -0.16715215 -0.48601457 -0.03610588
000060 1e 85 55 be 76 f1 86 3e 5f 98 93 be 58 f9 a8 be
       -0.20851561 0.26356095 -0.28827187 -0.33002734
000070 bf 14 d4 be 87 2b e3 be 44 51 02 bd 52 d2 f4 3e
       -0.41422078 -0.44369146 -0.031815782 0.47816712
000080 25 41 a7 3e 08 d4 d5 be a0 d1 cb be 25 5e 9c be
       0.3266689 -0.4176333 -0.3980837 -0.30540577
000090 ae 5a 69 3d 5a b8 d6 3e 89 9f 17 3e 9d cb ae 3e
       0.056971245 0.41937524 0.14806952 0.3413972
0000a0 d7 78 14 3e 7d 67 ed 3e 8c c6 d2 3d e6 dc a0 bd
       0.14499222 0.46368018 0.10291776 -0.07854633
0000b0 ea a6 3c be 61 35 4d 3d 0b 37 2c be a7 70 eb be
       -0.18423048 0.050099734 -0.16817872 -0.45984384
0000c0 59 9b 63 be 83 53 92 3e 82 9f 8d 3e 15 80 a2 3e
       -0.22227229 0.2857934 0.27660757 0.31738344
0000d0 0c 5f 58 bd 44 36 84 3d 06 fb bc be 72 c5 a7 3e
       -0.05282502 0.06455663 -0.36910266 0.32767826
0000e0 18 31 f1 be 77 01 56 be 81 08 06 3e e1 a4 86 be
       -0.47107768 -0.20898996 0.13089181 -0.26297668
0000f0 0a 88 21 3e b5 9e 5e 3e e5 41 77 be fc 8d bd be
       0.15774551 0.2174023 -0.2414623 -0.37022388
000100 0f e6 9f be 95 d1 d5 be b4 06 e9 3e 58 13 a0 3e
       -0.31230208 -0.4176146 0.45512927 0.31264758
000110 dc a1 42 be e3 d4 84 3d 27 64 2f be 4a 08 e4 3d
       -0.19007057 0.064859174 -0.17128049 0.111343935
000120 16 b2 d5 be ed 4c 27 3e c9 72 19 bd e8 28 42 be
       -0.4173743 0.16337939 -0.037462983 -0.18960917
000130 a4 d9 ba 3e 7a ed 2a be ce 2c 9d be 68 b7 90 3e
       0.36494172 -0.16692153 -0.30698246 0.28264928
000140 06 80 43 3e f9 95 91 bd 45 b8 18 bd 0a 7a 83 3c
       0.19091806 -0.07108683 -0.037285108 0.016049404
000150 f6 31 bf bc ae 2c 25 3e 50 7c 95 3e c1 e9 ac be
       -0.023339253 0.16130325 0.29196405 -0.3377209
000160 34 a9 4a be de f2 a5 be d2 51 ce 3e e1 8c 29 be
       -0.19791108 -0.32411855 0.402968 -0.16557647
000170 d2 b1 1a 3d d6 20 93 3e 6b ae 16 be d3 79 d8 3e
       0.03776724 0.2873599 -0.14714973 0.42280445
000180 af 4d b4 3e ba ed d2 be cd 7f 66 be 6f 62 f6 3d
       0.35215518 -0.41196996 -0.2250969 0.120304935
000190 3d d3 9f 3e 30 e0 c9 be 55 2b 97 3e 90 01 e6 3d
       0.3121585 -0.39428854 0.29525247 0.11230767
0001a0 83 82 1d be 59 b4 9d 3d 63 49 3d 3e 02 33 7b bc
       -0.15381818 0.07700414 0.18485026 -0.015331985
0001b0 df ba a6 be a1 1b 07 3e 4b 46 5f be af 59 e4 3e
       -0.32564446 0.13194133 -0.21804158 0.44599673
0001c0 2d 1d a6 be 68 94 c3 3d 2f 81 a1 be 28 5f 80 be
       -0.32444134 0.095497906 -0.31543872 -0.25072598
0001d0 2c 72 95 3e a4 95 a6 be ac 08 a5 be 88 98 e2 bd
       0.2918867 -0.32536042 -0.3223318 -0.11064249
0001e0 6d 42 71 3e 25 dd ca be e8 3a b4 be 10 fb 88 3e
       0.23560496 -0.39621845 -0.35201192 0.26754045
0001f0 16 24 21 be 00 76 6c 3e 31 83 9d be 74 95 8f 3d
       -0.15736422 0.23091888 -0.30764154 0.07010928
000200 e4 3e 96 bd 78 91 9c 3d ba 7b 6c be e5 66 b7 be
       -0.07336214 0.076449335 -0.23094073 -0.3582069
000210 1f 58 c4 3d e2 68 ae 3e 97 df a0 3d f5 5b 93 3d
       0.0958712 0.34064394 0.078551464 0.07195274
000220 b0 76 b6 be 6b ae b1 be b8 4d 50 3d 9c 5e 09 3e
       -0.35637426 -0.34703383 0.05085537 0.13414997
000230 da 85 c1 3e a3 36 e3 bc 01 9a e9 3e ee 90 24 3d
       0.37797433 -0.027736014 0.45625308 0.04017728
000240 c0 64 82 be ed bd b1 3e 13 3c b6 3e f3 e4 8b 3e
       -0.2546749 0.34715214 0.35592708 0.27323112
000250 7b 15 c9 be 75 e4 cb 3d d1 06 d5 bc d8 0d 2f bc
       -0.392742 0.09955684 -0.026004227 -0.010684453
000260 11 82 9b be 84 0c bd be 61 11 d5 be
       -0.3037267 -0.3692361 -0.41614822

parametrizer.linear4.bias f4 [31]
000000 a7 5f b1 be da 43 87 be 9e 3f ce 3d 2e 35 bb 3e
       -0.3464329 -0.26418954 0.10070728 0.3656401
000010 cc aa 7a 3e 6a 36 92 bd 6a 4d 65 be 25 fc 8f 3d
       0.24479216 -0.07139285 -0.22392812 0.07030515
000020 81 43 7b 3d 29 35 ba be 7f 6d 3f 3e 08 3c b5 3e
       0.061343674 -0.36368683 0.18694113 0.35397363
000030 06 f4 b8 3e 2b 88 bf be 4e b2 c9 3e 63 4c 2d 3e
       0.36123675 -0.37408575 0.39393848 0.1692367
000040 2f f7 ae 3e e9 9c 16 3d 0b d2 21 3e 32 99 94 3d
       0.3417296 0.036770735 0.15802781 0.07255782
000050 91 1e ef bc 34 6b 85 ba 56 9d fb 3e 08 ce 82 be
       -0.02918938 -0.0010179044 0.49143475 -0.25547814
000060 ca dd c6 3e 63 50 02 3e df 96 c8 be 10 af a0 3e
       0.38841087 0.12725978 -0.39177606 0.31383562
000070 71 b9 64 be 19 8e a7 3e 2d 04 e6 bd
       -0.22336365 0.327256 -0.11231265

exp_avg f4 [10, 30]
000000 b4 b9 cc b9 ce cd a9 3b 43 d1 af b9 91 1b 85 ba
       -0.00039048272 0.0051820045 -0.00033534513 -0.001015531
000010 2f b9 75 bb 6d 1c 5a ba 40 7a ea b9 3b 6f 13 3b
       -0.0037494411 -0.0008320276 -0.0004472304 0.0022496718
000020 b0 41 c8 3b 3a 6a 81 bb 46 27 0b bb ca 0c 5c bb
       0.006111346 -0.003949431 -0.0021233126 -0.0033576959
000030 8f 11 78 bb ed 37 50 bb d9 7c 3a 3b d8 dc 9d 39
       -0.0037852263 -0.0031771616 0.0028455763 0.00030109915
000040 b1 dd e8 bb 55 38 32 ba 2b d8 56 b9 c7 05 18 b9
       -0.007106506 -0.0006798555 -0.00020489159 -0.00014498002
000050 7d 38 9a 3a 26 27 9a 3b 58 36 40 3a 4d 90 0a 38
       0.0011766102 0.004704374 0.00073323166 3.3036154e-05
000060 5c 4e 12 3a 3a 7b 97 3b 36 41 fe 3a 5f 8a 83 3b
       0.00055811345 0.004622844 0.0019398096 0.004014298
000070 c2 ee 1c 3c db 97 78 3b 55 7b f5 39 d4 df 6c 3b
       0.009578409 0.003793231 0.0004682193 0.0036144154
000080 c0 6b cc 39 8d 43 82 39 75 25 31 bb 8c e3 95 bb
       0.00038990192 0.00024845861 -0.0027030383 -0.004574245
000090 fc c8 27 bb 7c a2 65 3a fa ae 6e bb 35 14 15 bc
       -0.0025601974 0.0008759869 -0.0036420212 -0.009099056
0000a0 b5 d0 9e ba 07 8f bf b9 94 ad 11 bb 38 92 1c b9
       -0.0012116643 -0.00036536923 -0.0022228705 -0.0001493179
0000b0 9d 70 2b bb 5e 5a 22 bc 62 75 6d bc 76 ee 30 bc
       -0.0026159652 -0.0099092405 -0.014493318 -0.010799041
0000c0 fa 8a 89 bb a8 0a 4f bc b0 03 cd 3a 55 c0 9e 3b
       -0.0041974755 -0.012636818 0.0015641358 0.004844705
0000d0 99 0c 8c 3a 54 44 a6 3a 6b a3 1b 3b dc 91 69 3a
       0.0010684907 0.0012685158 0.0023748528 0.00089099794
0000e0 1a 3d 9d ba 8e 02 7d 3a 77 e5 d2 39 52 3b 93 ba
       -0.0011996359 0.0009651565 0.00040225286 -0.0011232889
0000f0 a0 8e 2f 3b a8 41 d4 3b b2 1a 0d 3b 87 f7 46 3b
       0.0026787892 0.0064775534 0.0021530804 0.003035994
000100 5b b9 ed bb f4 93 78 bb 66 5a 74 39 68 17 5d 39
       -0.007254762 -0.0037929984 0.0002330333 0.00021084922
000110 22 ee 8c ba f1 01 a3 bb c1 88 a4 bb e0 a9 d5 bb
       -0.0010752121 -0.0049745967 -0.005021185 -0.006520495
000120 de 8d cc bb 1a a0 5c bb 11 8a 6a ba 5c 30 21 bb
       -0.006242498 -0.0033664764 -0.0008946965 -0.0024595475
000130 9d 8e 3a bb 80 14 dd bb c6 c0 8c 3a fa 35 31 ba
       -0.0028466352 -0.0067468286 0.0010738603 -0.00067600573
000140 d1 21 8f 3b a8 ed 00 3c 5c 2c 5d 3b 0f 48 89 3b
       0.004368045 0.007869162 0.0033748364 0.0041894983
000150 03 46 1d 3b 9e c1 5e 3b d0 6b b8 3b 32 ff 8c 3b
       0.002399803 0.0033989917 0.0056280866 0.0043028826
000160 02 55 6e 3c 7e 85 c1 3b 79 e8 29 ba fe ad 44 3b
       0.014546635 0.005905806 -0.00064814795 0.0030010934
000170 66 ab 47 b8 82 87 e4 b9 46 bd 55 bb a6 3b 3b b9
       -4.7604924e-05 -0.0004358851 -0.0032614036 -0.0001785593
000180 a5 c6 32 3b f2 82 03 3b 79 ab 1a 3b d8 73 71 ba
       0.0027279046 0.0020067063 0.002360074 -0.00092106825
000190 15 ef 83 3b 93 bc 84 3b 66 ef 8b 3b 8e 4e 36 3b
       0.0040263035 0.0040508 0.004270482 0.0027817818
0001a0 bd 92 8a bb 2a 4c 58 3a d7 0c 6b 3a d8 20 bd 3a
       -0.0042289183 0.00082510954 0.0008966452 0.0014429344
0001b0 17 b0 1f b8 58 2f b5 b9 ee 84 46 39 1e a6 62 3b
       -3.807255e-05 -0.00034558284 0.00018932272 0.0034583877
0001c0 3b 2d 74 3a da c8 48 37 72 5a 54 bb 4d 0f eb 39
       0.0009314601 1.1967693e-05 -0.0032402542 0.00044834093
0001d0 06 bd 96 3a ad 75 c4 3a 0e bc 38 bb 27 75 65 39
       0.0011500425 0.0014988683 -0.0028188261 0.00021882784
0001e0 70 4b 6f 3a 44 cd b0 3b bb 11 b1 3a 09 95 13 3b
       0.00091283675 0.0053955633 0.0013509312 0.0022519252
0001f0 d4 5e 1e bc 07 80 17 ba b2 6b 80 3b 0b 8a d1 3a
       -0.0096661635 -0.00057792704 0.0039190883 0.0015986575
000200 b3 4e f4 ba c0 0b 96 3a e9 62 87 3b aa f4 00 3a
       -0.0018639177 0.0011447594 0.004131664 0.000491927
000210 28 90 7d 3b 89 08 6d 3b 31 18 9f bb 40 7f ce 3b
       0.003869066 0.0036168417 -0.0048551788 0.0063017905
000220 6d e8 90 3b c4 cd 17 3a 43 8c 82 ba 34 55 0a 3c
       0.0044222386 0.00057908543 -0.0009960014 0.008443166
000230 88 fb 04 3b aa 90 93 3b f7 2c 26 3b 44 f1 4b 3b
       0.0020291526 0.0045033293 0.002535639 0.0031119147
000240 47 3b bb bb 00 fb 43 38 63 c0 1c 3b 4e 1e 6f 3a
       -0.0057138535 4.6725385e-05 0.0023918382 0.0009121642
000250 01 f9 b9 bb e0 aa 60 3b 05 6c ad 37 53 fe 22 bb
       -0.0056754355 0.0034281537 2.0673508e-05 -0.0024870827
000260 6f 5b bd b9 b5 41 8b 39 98 76 90 3b a5 62 4a bb
       -0.00036117012 0.00026561102 0.0044086687 -0.003088155
000270 08 b7 0e bb 4a 66 c2 ba 68 c7 16 bc fc 4d 22 bb
       -0.0021776576 -0.001483151 -0.009202816 -0.002476572
000280 7f 65 02 ba e4 f5 8f 3b 39 07 18 ba c7 71 90 3a
       -0.00049742305 0.004393326 -0.0005799416 0.0011020236
000290 fd c8 8b ba 09 cb 20 bc b1 d6 be bb 39 73 19 bc
       -0.0010664758 -0.009814032 -0.005823933 -0.00936585
0002a0 b0 9c c4 ba be d9 cc bb 11 ba 33 ba 3d 05 d9 ba
       -0.001500031 -0.006251543 -0.0006856034 -0.0016557347
0002b0 39 99 8d ba c1 4d 5b 39 35 87 5d 3b db ae 50 bb
       -0.001080311 0.00020914433 0.0033802513 -0.0031842503
0002c0 d2 dc 6c bb d5 98 7c bb d8 c8 e6 bb 2b eb 54 bb
       -0.0036142361 -0.0038543243 -0.0070429854 -0.0032488804
0002d0 ee a0 57 bb be 8c 21 3b 7d 95 82 bb 52 93 23 bb
       -0.0032902318 0.002465054 -0.0039851055 -0.0024959636
0002e0 e2 9f 1b 3b e0 24 29 3a 84 fd 06 3b 63 12 7a bb
       0.002374642 0.0006452333 0.0020597884 -0.0038157932
0002f0 a0 7a d5 38 67 93 17 3c e1 5a de bb 04 c3 be b9
       0.00010179472 0.009251452 -0.006785736 -0.00036384922
000300 c1 24 f3 bb 35 05 d9 bb ea ac 6a 3c 42 b0 12 3c
       -0.007420153 -0.006622935 0.0143234525 0.008953156
000310 7a 19 99 3c cd 81 0c 3c a1 e2 64 3b f0 ea 61 3c
       0.018688906 0.008575869 0.003492512 0.013788924
000320 62 eb 3e bb eb f1 18 3b 6d 2e 79 bb a6 26 11 bb
       -0.0029131998 0.0023337554 -0.0038022057 -0.002214828
000330 a0 21 da 3b e6 49 bd 3a 3b 9b fe 3b 44 db 39 3a
       0.0066568404 0.0014441579 0.0077699698 0.0007089863
000340 ac 14 25 3c a7 14 f2 3b 6c 88 97 ba ca 8e a8 3b
       0.010075729 0.007387716 -0.0011561043 0.005143975
000350 b4 d7 50 ba 1b cd 36 ba 17 d8 88 bb e5 d2 d8 3a
       -0.00079667126 -0.0006973312 -0.0041761505 0.0016542344
000360 d1 9d a3 3a a7 18 37 3a 2f 03 19 3c b2 b0 92 3b
       0.0012482946 0.00069845695 0.009339138 0.00447663
000370 94 f1 58 3b dd 6a 63 3a 59 9a 00 3b 77 11 89 39
       0.0033102976 0.00086752867 0.0019623248 0.0002614369
000380 a3 44 75 3b 88 ce 28 3c 26 4e 72 3b ac 66 c6 3b
       0.0037424944 0.010303147 0.003697285 0.00605472
000390 2a 38 de 3b ba 09 60 3c f3 b0 06 39 f5 7a 7e 3b
       0.0067815976 0.013674194 0.00012845155 0.0038830612
0003a0 c7 4b 34 39 ef 7b 00 b9 d0 11 69 bb 99 1e 9b 3a
       0.00017194367 -0.000122532 -0.0035563596 0.001183468
0003b0 09 4e ad 3a d6 02 8f 3a 5b 7b bd 3b db 71 87 3b
       0.0013222109 0.0010910879 0.0057825274 0.0041334457
0003c0 18 52 0f 3b 6b 4c b3 3b 7e 91 1f 3b 8a bd 3f 3b
       0.0021869 0.005471756 0.0024348195 0.0029257261
0003d0 86 64 1c bc 6c 78 17 bb 3d c2 4c 3b 15 35 f8 3a
       -0.009545451 -0.0023112549 0.0031243705 0.0018936718
0003e0 18 95 23 bb 6c 4a 4c bb 66 43 d2 3a 66 5e fa ba
       -0.0024960693 -0.0031172289 0.0016041815 -0.0019101619
0003f0 ab d9 b6 3a 9f 19 17 3b 52 61 1c bc a3 d0 35 ba
       0.0013950368 0.0023056043 -0.009544687 -0.00069356913

exp_avg_sq f4 [10, 30]
000000 a5 50 25 37 91 16 40 37 39 ae 2a 37 d0 8e 0c 37
       9.853543e-06 1.1449346e-05 1.0173354e-05 8.377901e-06
000010 03 db 6a 36 ec 7e 0b 37 0d 7e 4e 37 e5 a0 5c 37
       3.4996199e-06 8.314597e-06 1.2307905e-05 1.3150483e-05
000020 86 cd ad 37 5a 47 03 37 02 16 14 36 dc 4e ae 36
       2.0718911e-05 7.824821e-06 2.2066529e-06 5.1947845e-06
000030 0f a3 06 36 fd 7d 0e 36 b5 d2 39 37 5c f5 f5 36
       2.0062469e-06 2.1232984e-06 1.1075918e-05 7.3301326e-06
000040 2a 78 68 37 44 58 9d 36 08 b8 b7 36 6b b9 70 37
       1.38562555e-05 4.68924e-06 5.475249e-06 1.4348286e-05
000050 1e 09 66 37 34 a4 33 37 f7 c6 57 37 71 14 44 37
       1.3711191e-05 1.0707463e-05 1.2861324e-05 1.168727e-05
000060 1a d2 ae 36 40 dc c3 37 e9 0a b9 37 b8 7a 9b 37
       5.210063e-06 2.3348373e-05 2.2058799e-05 1.8534585e-05
000070 79 3d 24 38 48 1d 55 37 1a c8 08 37 91 16 11 37
       3.9157898e-05 1.2702607e-05 8.1528215e-06 8.647928e-06
000080 40 43 f5 36 5b 94 da 36 bd c5 fe 36 35 00 33 37
       7.309398e-06 6.514177e-06 7.5928097e-06 1.066928e-05
000090 50 8f c0 37 4a b4 8d 36 fe e6 76 37 3e ba 7a 38
       2.2954919e-05 4.223116e-06 1.4716525e-05 5.9778096e-05
0000a0 72 a0 87 36 a8 03 e3 36 09 c0 be 35 7f 4e a6 35
       4.041992e-06 6.765553e-06 1.4211993e-06 1.2390809e-06
0000b0 5d 4a 00 37 ad 08 3e 38 8b 10 41 39 fd c1 9d 38
       7.646709e-06 4.530761e-05 0.00018412077 7.5224765e-05
0000c0 a6 f4 53 37 6d 5c 16 39 9a 9c 1c 37 66 3e 24 37
       1.2633542e-05 0.00014339546 9.334786e-06 9.78969e-06
0000d0 d4 11 09 37 d6 8c 02 37 14 f5 86 36 a6 d5 9d 36
       8.169987e-06 7.781395e-06 4.022042e-06 4.7038366e-06
0000e0 1f 0e 4b 37 5c 02 8f 36 de 99 10 37 6f a3 50 37
       1.2103031e-05 4.2620068e-06 8.618894e-06 1.24358185e-05
0000f0 13 54 ac 36 95 99 0a 37 e0 0b c2 36 81 ee d6 36
       5.135787e-06 8.2612e-06 5.783033e-06 6.4054625e-06
000100 f0 a2 7c 37 c3 2a ba 37 95 c1 9e 37 4e d4 6f 37
       1.5058307e-05 2.219284e-05 1.8925211e-05 1.4294941e-05
000110 38 24 9d 36 0e d2 d7 37 d7 3d 62 36 5b ca ea 36
       4.683181e-06 2.5727812e-05 3.371262e-06 6.9973007e-06
000120 83 72 87 36 63 42 19 36 f4 83 8f 37 1c 2a 8f 37
       4.0366444e-06 2.2837419e-06 1.7108374e-05 1.7066537e-05
000130 81 55 56 37 5e b7 cb 36 60 ad 16 37 c6 7d 93 37
       1.2775302e-05 6.071218e-06 8.981064e-06 1.7582333e-05
000140 5f 9a 06 37 80 07 1e 37 0c e2 0d 37 72 dc 21 37
       8.022965e-06 9.41928e-06 8.456886e-06 9.647674e-06
000150 db 81 b6 37 b0 67 d5 37 24 8b d8 37 64 44 8a 37
       2.175656e-05 2.5439862e-05 2.5813999e-05 1.6482729e-05
000160 90 a6 a9 37 c0 a2 26 38 ba a2 17 37 e3 07 4c 37
       2.0223932e-05 3.9729057e-05 9.038189e-06 1.2161184e-05
000170 da 23 17 37 aa 61 e9 36 ad 7e 66 37 d9 13 30 36
       9.008649e-06 6.9553107e-06 1.3738562e-05 2.6237597e-06
000180 d4 82 9b 36 ff 81 86 36 3b 14 28 36 83 60 cd 37
       4.6345904e-06 4.0086447e-06 2.5045726e-06 2.4482846e-05
000190 92 a4 8d 36 27 7b 99 36 5e 0a 81 36 99 95 44 36
       4.221286e-06 4.574092e-06 3.8457065e-06 2.9293353e-06
0001a0 48 dc 00 38 1f c5 6b 36 80 2a 0c 36 c8 6e 1a 36
       3.072273e-05 3.5132468e-06 2.0886364e-06 2.3012271e-06
0001b0 f9 79 f2 36 ff 5e 27 37 e3 b7 31 37 90 cb 45 37
       7.2263615e-06 9.976094e-06 1.0592837e-05 1.1789511e-05
0001c0 db 10 30 37 68 86 03 37 cc 95 24 37 f5 b7 94 36
       1.0494342e-05 7.839502e-06 9.810039e-06 4.432159e-06
0001d0 15 11 ce 36 10 f1 dc 36 b9 a8 a5 36 c9 41 7e 36
       6.141267e-06 6.5845743e-06 4.937025e-06 3.7887241e-06
0001e0 b5 e4 b5 37 55 49 88 37 f1 32 b8 37 fd 48 c0 37
       2.1683381e-05 1.6246611e-05 2.195823e-05 2.2922171e-05
0001f0 35 41 d5 37 f2 51 a6 36 d4 d9 7e 37 1a 16 51 37
       2.5421943e-05 4.956725e-06 1.5190297e-05 1.2462517e-05
000200 76 3c a3 36 11 dd bb 36 3c 53 11 37 6d d0 67 37
       4.864817e-06 5.59877e-06 8.662053e-06 1.3817201e-05
000210 88 5f 05 37 4a 79 17 37 ed 1e 02 38 81 27 0f 37
       7.94966e-06 9.028541e-06 3.1023217e-05 8.532662e-06
000220 49 b5 ba 36 30 75 ee 36 70 8b ab 36 e2 80 8b 37
       5.5643363e-06 7.106595e-06 5.11243e-06 1.6630107e-05
000230 e2 e4 dc 37 1f d3 6c 37 08 53 dd 37 ca 5f dd 37
       2.6332626e-05 1.4115852e-05 2.6383917e-05 2.6389858e-05
000240 4e 90 db 36 1a 20 eb 36 c3 60 69 37 87 f8 6e 37
       6.543508e-06 7.007283e-06 1.3910411e-05 1.424377e-05
000250 0a 5c da 36 de 74 69 36 e8 bc 8c 36 81 08 46 36
       6.507621e-06 3.4787731e-06 4.1943167e-06 2.950925e-06
000260 48 8e 82 36 00 19 6d 36 3c bf a7 36 38 c1 82 36
       3.8908656e-06 3.5330304e-06 4.9992505e-06 3.8967955e-06
000270 8b 3b 5a 36 61 53 f7 35 dd dd 9e 37 c9 ad b2 36
       3.251919e-06 1.84272e-06 1.893838e-05 5.3250446e-06
000280 e8 06 40 35 14 c2 da 36 3d bd 8e 35 03 da a0 35
       7.1535624e-07 6.5195e-06 1.06349e-06 1.1984379e-06
000290 ef bb 08 37 2c 32 ab 37 83 38 1a 37 88 41 a2 37
       8.149988e-06 2.0408152e-05 9.192273e-06 1.934242e-05
0002a0 ac 37 96 36 3d 97 76 37 83 20 83 36 83 d8 ab 36
       4.4768294e-06 1.46979555e-05 3.907889e-06 5.1214024e-06
0002b0 fb 31 80 36 4d 40 53 36 e2 28 bc 36 b1 0e f7 36
       3.8205158e-06 3.1478878e-06 5.607596e-06 7.362884e-06
0002c0 9d f7 f4 36 bd bc b8 36 88 f9 48 37 5b 11 fb 36
       7.3005926e-06 5.5055993e-06 1.19790275e-05 7.4824034e-06
0002d0 91 65 ff 37 06 40 b3 37 53 01 ef 37 3d fb b4 37
       3.0445664e-05 2.1368276e-05 2.8491637e-05 2.1574664e-05
0002e0 a1 7b fe 37 ea 6c 64 37 76 ee 29 37 70 f5 af 36
       3.0336729e-05 1.36152175e-05 1.0128706e-05 5.243979e-06
0002f0 5c f9 03 37 97 c6 1a 39 c2 8f 43 37 33 44 68 37
       7.866267e-06 0.00014760565 1.1656377e-05 1.38441565e-05
000300 60 75 0e 37 7b b5 14 37 f6 ef 16 39 00 84 8a 38
       8.491188e-06 8.863742e-06 0.00014394507 6.60494e-05
000310 df 19 2b 39 ec 45 88 38 4f c4 04 38 3b ed 4b 39
       0.00016317469 6.498009e-05 3.165408e-05 0.00019447964
000320 33 31 fa 37 e9 ee b5 37 88 08 ec 37 84 cb ac 37
       2.9825233e-05 2.1688133e-05 2.8137365e-05 2.0598767e-05
000330 c1 50 3a 38 11 f6 d6 36 8f 6c 18 37 ac 77 ea 36
       4.4421064e-05 6.406343e-06 9.085182e-06 6.987675e-06
000340 d2 1c 4a 37 d3 bf 53 38 b5 02 52 36 46 1d 1b 36
       1.20468485e-05 5.048497e-05 3.1294014e-06 2.311384e-06
000350 73 b3 30 36 91 f6 22 36 17 43 3c 36 5c 0c b0 36
       2.6330497e-06 2.4283402e-06 2.8053234e-06 5.2466476e-06
000360 2f b8 d0 35 a8 6c 40 35 c0 9c 4e 37 dc b0 a2 37
       1.5550812e-06 7.168369e-07 1.2315053e-05 1.9394261e-05
000370 c1 04 38 36 75 e7 1d 36 ad 96 7a 35 3f bf 9a 34
       2.7420904e-06 2.3529549e-06 9.335152e-07 2.8823885e-07
000380 00 7d 56 37 d2 52 3e 38 de de 05 37 d3 56 75 37
       1.2784498e-05 4.5376662e-05 7.979308e-06 1.4623353e-05
000390 53 d1 42 37 c4 c9 dc 38 e7 20 3a 36 ec 1c 27 36
       1.1612038e-05 0.00010527999 2.7735312e-06 2.4901774e-06
0003a0 00 7b 2e 36 33 1e 18 36 00 a7 9b 36 9c ac 02 36
       2.5999616e-06 2.2667343e-06 4.6388013e-06 1.9471981e-06
0003b0 ef 93 0f 36 75 0f d9 35 5d c0 ac 36 e5 76 f9 36
       2.139477e-06 1.6172258e-06 5.1483935e-06 7.4346194e-06
0003c0 55 70 cb 37 cd 98 37 37 88 c2 cf 37 4c ec d4 37
       2.4251794e-05 1.0943227e-05 2.4766909e-05 2.5382404e-05
0003d0 e3 f7 8e 37 ce 6c ee 36 13 03 90 37 34 28 78 37
       1.704315e-05 7.1056193e-06 1.716757e-05 1.4791312e-05
0003e0 89 ec 6f 36 84 f0 81 36 f8 60 ed 36 2a c0 8d 37
       3.5751457e-06 3.8724993e-06 7.074439e-06 1.6897993e-05
0003f0 76 c0 eb 36 73 f1 0f 37 82 ff 1a 38 83 70 87 36
       7.025951e-06 8.579681e-06 3.695442e-05 4.0364116e-06

exp_avg f4 [10]
000000 6a 98 ac 3c 1a c2 a3 3b de 4a ef 3c 06 01 93 bc
       0.02106877 0.004997504 0.029210504 -0.017944824
000010 4d e0 f5 bb 32 2c 9f bb ea 5c 14 3d 56 09 de 3b
       -0.0075035454 -0.0048575634 0.036221422 0.0067760153
000020 da 2b e5 ba 34 8b 75 3b
       -0.0017484382 0.0037467005

exp_avg_sq f4 [10]
000000 e3 64 15 38 ad 4d 35 37 39 58 c8 38 39 b3 9c 37
       3.5618326e-05 1.0806526e-05 9.553176e-05 1.8680106e-05
000010 70 ec 95 36 74 86 43 37 10 f0 f4 38 75 5d 53 37
       4.468071e-06 1.16542105e-05 0.00011679542 1.259834e-05
000020 67 f5 50 36 45 e9 83 36
       3.1137258e-06 3.9312604e-06

exp_avg f4 [10, 10]
000000 bd b5 48 bc d3 95 01 3c e0 c4 bd 3b 72 97 da 38
       -0.012250361 0.007909256 0.0057912916 0.00010423259
000010 48 53 f8 b9 f7 11 f4 3b 87 34 39 bc d6 97 e6 bb
       -0.00047364295 0.0074484306 -0.011304027 -0.007037143
000020 20 86 09 3c 15 bb d7 bb 19 d8 2c 3c e0 26 f5 ba
       0.008393794 -0.006583581 0.010549569 -0.0018703602
000030 a4 d0 09 3a cf c6 a3 bc 28 11 2b bc f2 ff 3a 3b
       0.0005257225 -0.01999226 -0.010441102 0.0028533903
000040 34 39 ad 3b 63 b6 ad bb 8b 8d f6 b8 7a 7a bd 3a
       0.00528636 -0.005301283 -0.000117565585 0.0014456057
000050 f1 52 22 ba 4d 70 d1 3b 71 5c fc 3b a5 c1 5e 3b
       -0.0006192169 0.006391561 0.0077014496 0.0033989933
000060 6c 9d c3 3a 61 b8 bc 3b 00 1c 8e ba 3c 86 3d 3b
       0.0014924235 0.0057592844 -0.0010842085 0.0028919121
000070 16 e4 15 3c 3f 5d 1b 3b 47 d6 01 bc 83 ec 7f 39
       0.009148618 0.0023706702 -0.007924623 0.00024406803
000080 3d f3 25 bb 30 67 a2 3c 99 08 fc 3b 07 5f 09 ba
       -0.0025321983 0.019824594 0.0076914546 -0.00052402954
000090 80 ef a0 bb ae a8 e3 3a 1b 06 05 3b 56 c4 46 bb
       -0.004911363 0.0017368996 0.0020297829 -0.0030329428
0000a0 11 1b e8 3b 7e e9 44 bb 13 64 20 bc 6b 3d 5b bc
       0.0070833047 -0.0030046399 -0.009789485 -0.013381342
0000b0 d5 1d ef bb b2 3c 17 bc 4e f5 02 3c ae fe e6 bb
       -0.0072972574 -0.0092307795 0.0079930555 -0.007049403
0000c0 ce 31 b4 ba 00 27 86 bb e2 24 4b 3c 8e 4b fb bb
       -0.0013747753 -0.0040940046 0.01239893 -0.007668919
0000d0 a9 31 a0 bb 15 a4 a0 bb 25 bd 3f bb 14 83 e4 bb
       -0.0048887325 -0.0049023726 -0.0029257026 -0.0069736335
0000e0 04 e7 32 3c ff bc 9d 3b 6c 1f ba bb 26 66 97 3b
       0.010919336 0.00481379 -0.0056800153 0.0046203313
0000f0 49 68 96 38 9c d4 ae bb f0 ff 1e bb 73 73 7b 39
       7.171982e-05 -0.0053354036 -0.0024261437 0.00023980234
000100 f4 a2 a4 3a f5 83 c4 3b 68 17 97 bb b4 64 31 ba
       0.0012560771 0.005997176 -0.0046109445 -0.000676702
000110 5c c9 28 bc c8 19 07 3b 46 69 55 3a 2b f9 9c bb
       -0.010301914 0.0020614732 0.0008140992 -0.0047904453
000120 ff 19 78 3b 72 6c a6 3c 05 c0 45 3c d3 89 8e 38
       0.0037857292 0.020315383 0.012069707 6.7967594e-05
000130 95 63 1f 3b f5 f1 7f 3c ff 5b f7 bb a1 e0 39 3c
       0.002432083 0.015621652 -0.0075488086 0.01134506
000140 fa c9 f1 bb c1 02 c5 3b 42 b2 e9 3b 75 e1 04 bc
       -0.007378814 0.006012291 0.0071318457 -0.008110394
000150 27 b7 26 bb f1 82 66 3c 47 25 53 bc 10 15 f4 bb
       -0.0025438757 0.014069305 -0.012887306 -0.0074488
000160 1d f4 01 3b f5 0b 2c bb 36 0b b5 3b 22 2f 97 3b
       0.001982934 -0.0026252244 0.005525018 0.004613773
000170 1d 02 dd 3b 64 72 c2 bb 57 1c c0 bb b3 e2 0a 3c
       0.0067446367 -0.0059340466 -0.0058627534 0.008476901
000180 6b c4 2d 39 76 f4 44 3a 80 74 26 3c 24 51 48 3a
       0.00016571737 0.0007513234 0.010159612 0.00076414854

exp_avg_sq f4 [10, 10]
000000 2a 7a a4 38 be 54 69 38 ea 3b 1a 38 f1 2a e5 37
       7.842884e-05 5.563045e-05 3.677226e-05 2.7318923e-05
000010 a7 60 9b 37 21 40 cc 37 84 1e b0 37 34 bb 99 37
       1.8522447e-05 2.4348557e-05 2.0995045e-05 1.8326195e-05
000020 31 bb 73 38 b7 78 ce 37 f5 eb cd 37 52 1a 2b 37
       5.811005e-05 2.4613326e-05 2.454778e-05 1.0198522e-05
000030 09 9f ac 36 1b 52 65 38 82 f6 2d 37 ce 47 03 37
       5.1445136e-06 5.467432e-05 1.0368998e-05 7.824927e-06
000040 fb 87 9e 36 e2 a3 46 37 19 11 69 36 c3 7b 6e 36
       4.724597e-06 1.1839877e-05 3.4729658e-06 3.5536802e-06
000050 17 3a d9 36 c4 f4 83 37 ba 5a 4a 37 60 ac b2 36
       6.4738665e-06 1.5730395e-05 1.2061262e-05 5.3248805e-06
000060 a0 e6 5e 36 62 be 64 37 ff 95 63 36 15 1d 4e 36
       3.321482e-06 1.3634186e-05 3.3912945e-06 3.071332e-06
000070 3b 9d 92 37 21 18 9b 36 fe 4a 0d 38 95 41 a0 37
       1.7477772e-05 4.622169e-06 3.368686e-05 1.9104025e-05
000080 f0 e5 c8 36 30 db 5a 38 23 ee 14 37 14 a6 a3 36
       5.9872327e-06 5.2179385e-05 8.876933e-06 4.8771126e-06
000090 77 aa ee 36 8b 8e 56 37 94 02 16 37 30 a8 aa 36
       7.1127974e-06 1.2788582e-05 8.941297e-06 5.0859744e-06
0000a0 b5 da 76 37 73 6b 9e 37 7e 2a b2 37 1b 82 ee 37
       1.4713664e-05 1.8885103e-05 2.123904e-05 2.8432396e-05
0000b0 24 b5 e5 36 fd 6a fc 37 c1 7b 1f 37 cc b3 37 37
       6.8458194e-06 3.0090561e-05 9.505952e-06 1.0949512e-05
0000c0 2b 42 83 37 ed c6 4e 37 64 73 40 38 4b 54 e9 37
       1.5647229e-05 1.2324873e-05 4.5883833e-05 2.7815016e-05
0000d0 13 50 95 37 a2 78 85 37 87 c6 ea 36 e3 ba 64 37
       1.7799472e-05 1.591101e-05 6.996855e-06 1.3633372e-05
0000e0 31 62 36 37 3f 2a 0f 37 62 a8 b2 37 ec f0 41 37
       1.0870907e-05 8.5333e-06 2.1297663e-05 1.155979e-05
0000f0 d4 7c 3a 37 fa 6a 75 37 3c af 46 36 05 e7 8e 36
       1.1115528e-05 1.4628045e-05 2.96063e-06 4.258824e-06
000100 0c 46 3c 36 bb 2d a7 36 88 c2 62 37 46 3c 8e 37
       2.8054956e-06 4.9823116e-06 1.3515943e-05 1.6955786e-05
000110 03 9f 3d 37 d9 92 21 36 b5 9e a5 37 06 6a 8a 37
       1.1302301e-05 2.4076346e-06 1.9743436e-05 1.6500253e-05
000120 be d1 37 37 0a 94 c0 38 92 e6 e1 37 e4 1c ec 37
       1.0956484e-05 9.182848e-05 2.6929458e-05 2.8146846e-05
000130 49 bb b9 37 de e6 4a 38 98 fc c9 37 52 8c 12 38
       2.214093e-05 4.8375565e-05 2.407869e-05 3.4939796e-05
000140 14 18 bb 37 3a 4e c1 37 cf 8f 0d 38 43 f8 31 38
       2.230335e-05 2.304382e-05 3.3750952e-05 4.24313e-05
000150 db 7e 2f 37 c2 e7 3d 38 fd 33 e1 37 8e ca 99 37
       1.0460349e-05 4.5276953e-05 2.6846299e-05 1.8333343e-05
000160 ab 60 dd 37 54 51 a7 37 1e 8f e8 36 df 85 5f 37
       2.6390268e-05 1.9945823e-05 6.9308e-06 1.3323005e-05
000170 f2 94 87 37 23 09 ac 37 28 57 4e 37 06 33 98 37
       1.6162612e-05 2.0508252e-05 1.22988495e-05 1.8143572e-05
000180 e5 ec 21 37 48 6a 2b 37 c3 af ff 37 4a c6 ef 36
       9.651504e-06 1.021714e-05 3.0480214e-05 7.145839e-06

exp_avg f4 [10]
000000 d7 82 1b 3d ea a4 2b bd 27 d8 4e 3c 18 43 f8 3c
       0.037966575 -0.04190532 0.012624777 0.03030543
000010 76 58 96 bd 1e 34 4b bd 59 24 0f 3d 8f 90 4f 3d
       -0.07341091 -0.04961025 0.034946773 0.05067497
000020 86 06 5f 3d 9a 36 40 bc
       0.05444958 -0.011731768

exp_avg_sq f4 [10]
000000 08 a1 37 39 6a ef 35 39 36 ee 86 38 58 b8 51 38
       0.00017512229 0.00017350694 6.433988e-05 5.0001167e-05
000010 8e ee f7 39 b9 58 77 39 35 ba 0a 39 8f c8 f8 39
       0.00047289248 0.00023588807 0.00013230073 0.00047451674
000020 d2 71 ab 39 13 f8 b3 38
       0.00032700464 8.5815926e-05

exp_avg f4 [5, 10]
000000 02 f2 8d bc 3b ee 49 bc 53 a2 f6 bb a7 53 6c 3b
       -0.017327312 -0.012324865 -0.007526675 0.0036060603
000010 0f 55 28 3c 66 13 0b 3c cd f5 91 bb f0 9c 31 3c
       0.010274186 0.008488512 -0.0044543506 0.0108406395
000020 2a 48 fa bb 03 03 70 3b 78 26 39 bc 78 a0 57 bc
       -0.007637997 0.003662289 -0.011300676 -0.013160817
000030 0b b7 da 3b bf 9b 3f 3c 4d 7c 5f ba 26 f5 44 b9
       0.0066746525 0.011694848 -0.0008525297 -0.00018783342
000040 4f 1e 9c bc 8e cd be 3b cd 69 d7 ba fb 62 21 3a
       -0.019057421 0.005822844 -0.0016434729 0.0006156412
000050 ac 95 68 3d e6 82 1c 3d ce 7d 9b bc 8c 55 38 3d
       0.056783363 0.038210772 -0.018980887 0.04500346
000060 fd 99 7c bd e9 b1 87 bc ac bd ab bc 34 3f 8b bb
       -0.061670292 -0.016564326 -0.020964466 -0.0042494778
000070 37 db 2f 3d 25 5d 10 bc 63 99 f1 3b 6b 28 9e 3c
       0.04293367 -0.00881127 0.0073730214 0.019306382
000080 93 35 a1 3c 09 e6 43 bc f5 d6 79 3c 67 1a 64 bc
       0.019678866 -0.0119567 0.015249004 -0.01392231
000090 bc 0c 31 bb f1 3b 7e bc e2 76 05 bb ae c3 53 bc
       -0.0027015647 -0.015517221 -0.002036505 -0.012925072
0000a0 3a 0b 0e bc ec 73 7b bc 03 f7 e8 3b 41 ef aa bc
       -0.008669669 -0.015347462 0.007109524 -0.020866038
0000b0 7d 6d a5 3c 86 03 1c 3b 33 a9 62 3c c0 45 97 bb
       0.02019381 0.002380581 0.013834286 -0.004616469
0000c0 71 01 6c bc e9 24 48 3b
       -0.0144046405 0.0030539578

exp_avg_sq f4 [5, 10]
000000 8a f4 95 38 f6 7d 8d 38 d1 21 20 38 69 3c 69 38
       7.1504226e-05 6.746866e-05 3.8178467e-05 5.560779e-05
000010 6c 8c a6 38 7f ff bf 37 ba 15 10 38 a2 8d 6f 37
       7.9416524e-05 2.2887949e-05 3.435251e-05 1.4278487e-05
000020 b9 ed d8 37 65 2a cd 37 ea 05 53 38 7f 69 af 38
       2.5859905e-05 2.4457646e-05 5.0311828e-05 8.3643004e-05
000030 d6 5c f4 37 c8 52 b0 37 4b d1 84 37 4d 72 a3 37
       2.9130297e-05 2.1019383e-05 1.5833086e-05 1.948434e-05
000040 3d 82 72 38 b8 54 e3 36 ff 05 21 37 40 ed 48 37
       5.781859e-05 6.7749897e-06 9.597744e-06 1.1976168e-05
000050 60 4b a8 39 a0 74 ca 39 e6 ee b7 38 80 0c 56 39
       0.00032099616 0.00038615335 8.770618e-05 0.00020413287
000060 5c 85 73 39 dd 0b 9a 38 49 73 32 39 15 b0 e7 37
       0.00023223966 7.345502e-05 0.0001701835 2.761934e-05
000070 d6 c4 3b 39 e0 73 a3 38 87 7c a0 38 69 4e 30 39
       0.00017907037 7.794029e-05 7.6525896e-05 0.00016813878
000080 65 52 04 38 56 89 32 38 16 6d a5 38 d4 51 49 38
       3.154799e-05 4.256641e-05 7.888132e-05 4.7998343e-05
000090 2c 4e 47 38 e4 82 ab 37 53 ec a9 37 42 ec 93 38
       4.75181e-05 2.044574e-05 2.0256417e-05 7.053513e-05
0000a0 2a 76 e5 37 6d 31 f4 37 01 36 1f 37 84 91 51 38
       2.7353952e-05 2.9110082e-05 9.489712e-06 4.9965005e-05
0000b0 c8 22 9f 38 aa 00 de 36 18 0d 16 38 a0 df 83 37
       7.588189e-05 6.616193e-06 3.577498e-05 1.572055e-05
0000c0 50 c0 9a 37 b7 bf 16 37
       1.8447783e-05 8.985334e-06

exp_avg f4 [5]
000000 49 1a 6b 3c 45 01 1f 3c ab 67 55 be 25 43 92 3c
       0.014349529 0.0097048925 -0.20840327 0.017854283
000010 14 5b c6 3d
       0.096853405

exp_avg_sq f4 [5]
000000 7b d4 76 3a f7 8a c0 39 c6 56 89 3b cc fa 30 3a
       0.00094158173 0.0003672463 0.0041912524 0.0006751239
000010 12 1e 90 3a
       0.001099529

exp_avg f4 [31, 5]
000000 4b 72 d4 3b 27 fe 0b bd e0 70 0c bd d9 9d b8 3c
       0.0064833513 -0.034177925 -0.034287333 0.022536205
000010 fd 23 01 3d 9a 1f cb 3b 74 10 cb bc f2 bf d3 bc
       0.03152846 0.0061988356 -0.024788119 -0.025848363
000020 b6 f5 a3 3c 8d 66 b6 3c f1 f1 b4 3b 80 be e3 bc
       0.020014625 0.022265697 0.0055220057 -0.027800798
000030 e0 c9 e8 bc 77 fa 96 3c f4 5d d8 3c c7 07 93 3b
       -0.028416574 0.018429978 0.026411988 0.004487011
000040 b4 4c d5 bc 89 9b cc bc ed 8c 79 3c 41 03 b0 3c
       -0.026037551 -0.024976509 0.015231353 0.021485927
000050 9a 2f 5d 3b 92 07 9b 3b 12 10 94 3b 8f a0 56 39
       0.0033750297 0.004731127 0.0045185173 0.00020468443
000060 17 89 aa 3b 70 5b 00 3b 4c 4a 9c bc d9 64 8c bc
       0.0052043307 0.001958575 -0.019078396 -0.017137932
000070 bc 39 4d 3c 8e 75 73 3c 5f 02 c5 3a ec fd d6 bc
       0.012525972 0.01485957 0.0015030614 -0.026244126
000080 bf 37 ce bc f4 a2 8c 3c 8a 17 a2 3c 92 ca 94 3b
       -0.025173066 0.017167546 0.019786615 0.00454075
000090 7d fc bf bc 7c ed d7 bc a5 9f 96 3c 6c 44 ce 3c
       -0.023435825 -0.026358359 0.018386671 0.02517911
0000a0 d1 f8 49 ba e8 89 e3 3a 81 99 3c 3b 3f d4 8d ba
       -0.0007704618 0.0017359825 0.002877802 -0.00108207
0000b0 a9 56 81 39 68 f1 e2 ba ab 90 80 3a 01 64 f9 3b
       0.00024669364 -0.0017314376 0.0009808739 0.0076107983
0000c0 2a 24 79 3a 4e 7a 86 bb b2 2b 18 b9 2d 42 66 bc
       0.0009503985 -0.0041039353 -0.00014512127 -0.0140538635
0000d0 41 75 1c bc cd 3a 26 3b f3 84 25 3b 6f 7c 04 bb
       -0.00954944 0.0025364638 0.0025256246 -0.002021577
0000e0 2f 55 11 3c a0 88 91 3c 16 29 60 bc 0d d2 b8 bc
       0.008870407 0.017765343 -0.013681671 -0.022561098
0000f0 77 2e a3 ba 93 cb 4b bc 8d 8b fc bb 4f 3e 74 b9
       -0.0012449761 -0.012438673 -0.0077070654 -0.00023292865
000100 fb 14 ad ba b3 79 00 3b f4 9f a0 bc f1 de 8f bc
       -0.0013205105 0.0019603788 -0.019607522 -0.017562361
000110 a4 ca 04 3c 52 4f 2e 3c 5d 54 52 bb a6 79 d0 3c
       0.008104954 0.010639029 -0.0032093741 0.025448631
000120 c8 33 0b 3d 19 bc 85 bc 7e e9 d2 bc 1f e1 9e bb
       0.03398493 -0.016325044 -0.025746103 -0.004848614
000130 d4 b0 21 bc fb 92 b0 3a 1d 87 28 3b f7 c6 97 bb
       -0.009868819 0.0013471538 0.00257153 -0.0046318728
000140 62 22 f1 bb 74 3c a4 bc 17 6c 75 b9 88 db 25 3b
       -0.007358835 -0.020048358 -0.00023405287 0.0025307853
000150 b0 72 d5 bb a1 df 9d bb 1c 5a 5b bc f6 a5 db 3a
       -0.006513916 -0.0048179184 -0.013388183 0.0016757834
000160 c8 01 5e b8 ad f9 91 bb 40 e4 02 bb db 5e 5e 3c
       -5.2930583e-05 -0.0044548125 -0.0019972473 0.01357242
000170 6d 10 a1 3c c0 55 22 bc 89 79 7d bc 0c 75 9a bb
       0.019661153 -0.00990814 -0.015470871 -0.00471366
000180 f2 35 35 bb 8c da 44 3c b3 2f 6d 39 68 c3 11 bc
       -0.0027650562 0.012014996 0.0002261985 -0.008896686
000190 48 ce d7 3b 66 6d 0b bd bc 32 0f bd f9 9b c3 3c
       0.00658587 -0.034039877 -0.034960493 0.023878084
0001a0 75 12 05 3d 51 a4 dd 3b e1 45 c7 bc 0b 82 e9 bc
       0.032488305 0.006763973 -0.024325313 -0.028504392
0001b0 c9 80 ac 3c d0 d5 c4 3c 1b c0 a1 3b c1 81 d4 bc
       0.021057503 0.024027735 0.004936231 -0.025940778
0001c0 0c b6 ea bc ab 8e 95 3c df 77 d1 3c 9d 74 c8 3b
       -0.02865126 0.018256506 0.025569854 0.006117417
0001d0 41 d2 06 bd 3d 94 0b bd 39 9a b6 3c fe 8a f6 3c
       -0.032915358 -0.034076918 0.022290336 0.030095574
0001e0 cb 4f 9c 3b 41 ab 4d bb 97 9d 03 bc 2b e7 2e 3c
       0.0047702543 -0.0031382593 -0.008033178 0.010675232
0001f0 3a 8d 7e 3c 15 26 82 3b 70 04 a3 bc 87 8c d8 bc
       0.015536601 0.003971825 -0.019899577 -0.026434196
000200 f5 49 ad 3c cf 6e d9 3c 4d 0f 7a 3b 6d 32 14 bd
       0.02115343 0.026542095 0.0038156093 -0.036180902
000210 d8 2f 1b bd 4f 9f f4 3c be 58 0f 3d 99 ba 9f 3b
       -0.037887424 0.02986112 0.03499674 0.004874539
000220 f1 b3 f0 bc 92 ea 0a bd b7 e6 ca 3c af 82 05 3d
       -0.029382678 -0.03391511 0.024768217 0.032595333
000230 f3 e5 d7 3b 0e c2 57 bc 8d 6a a2 bc 04 d5 b1 3c
       0.0065886914 -0.013168825 -0.019826198 0.02170802
000240 68 0a e7 3c d3 b1 d9 3a c3 14 6f bb 1d 44 0c bc
       0.028203204 0.0016608782 -0.003648088 -0.008561161
000250 6f 26 52 3c db e1 59 3c 50 3d a1 3b ed af 35 3d
       0.012826546 0.013298477 0.004920639 0.04435723
000260 99 a0 f6 3c 54 e8 e6 3b 88 54 44 3c
       0.030105876 0.0070467386 0.011983044
