Cancer-senn/self_trial2/models/cancer/grad3_Hinput_Thdummy_Reg1e-02_LR0.001/model_best.pth.tar (torch_old, 26436 bytes, 34 tensors)

parametrizer.linear1.weight f4 [10, 30]
0	0xbde29da4	-0.11065224
1	0x3e2cea7d	0.16886325
2	0xbd86e194	-0.06585994
3	0xbe302fbf	-0.17205714
4	0xbd902096	-0.07037465
5	0x3bbe422f	0.0058062295
6	0x3ddcf098	0.10788077
7	0xbdffafc6	-0.12484698
8	0xbdce1c1a	-0.10063954
9	0xbde4d826	-0.111740395
10	0xbdd76be3	-0.10518625
11	0x3e18811c	0.14893001
12	0xbe1fd8b9	-0.15610017
13	0x3e3ec32b	0.18629138
14	0x3e2d78b7	0.1694058
15	0x3db8c481	0.09021855
16	0xbc7de04d	-0.015495372
17	0x3dc6f12b	0.09713968
18	0x3bd81d37	0.0065952796
19	0xbd439be4	-0.04775609
20	0x3d41a306	0.047274612
21	0xbdf12973	-0.11775484
22	0xbd94c8c6	-0.07264857
23	0xbdfce191	-0.12347711
24	0x3cb1b1d0	0.021691233
25	0xbe2e3eee	-0.17016193
26	0x3d71de84	0.059050098
27	0x3dd31f7b	0.10308739
28	0x3d34dd79	0.044156525
29	0xbd4be716	-0.049780928
30	0x3e0c816a	0.13721243
31	0xbe0f9f08	-0.1402551
32	0xbe0b6ee2	-0.13616517
33	0x3e1b56a0	0.15169764
34	0xbe1ce7ef	-0.1532285
35	0x3e21f88f	0.15817474
36	0x3d5e349a	0.054249384
37	0x3d69f8e3	0.057122122
38	0xbe22eaa9	-0.15909828
39	0xbd363071	-0.04447979
40	0xbda41924	-0.08012608
41	0x3d873477	0.06601804
42	0xbdc18e71	-0.09450997
43	0xbc76a9a8	-0.015055098
44	0xbe3322e5	-0.1749378
45	0x3be980b4	0.0071259383
46	0x3e17b325	0.14814432
47	0x3dea0696	0.114270374
48	0x3dd32085	0.10308937
49	0x3da35da7	0.07976847
50	0x3d8a1ea0	0.067441225
51	0x3c32f304	0.010922197
52	0x3ddc4895	0.107560314
53	0xbdb8cb02	-0.09023096
54	0x3dfedc95	0.124444164
55	0xbd1253ea	-0.035724558
56	0x3dcb35ad	0.09922347
57	0x3d43c8ba	0.04779885
58	0xbce85cf4	-0.028364636
59	0xbdbf1c91	-0.093316205
60	0x3c2c989f	0.010534435
61	0xbd001eaf	-0.031279262
62	0x3e231675	0.15926535
63	0x3d955176	0.07290928
64	0xbe1ad524	-0.15120369
65	0x3e2badb2	0.16765478
66	0x3d8c40a7	0.06848269
67	0x3e13e51a	0.14442864
68	0xbe129e29	-0.14318146
69	0x3d612a34	0.05497189
70	0x3d7cbd4b	0.06170396
71	0x3cb477ef	0.022029845
72	0xbc880989	-0.01660611
73	0x3deeb94b	0.116564356
74	0xbe0e6171	-0.13904358
75	0xbb6dffe4	-0.0036315853
76	0x3d8f04f8	0.069833696
77	0xbe1d9cfc	-0.15391916
78	0xbe20c26e	-0.15699169
79	0x3d70b7e5	0.058769125
80	0xbd52e780	-0.051490307
81	0xbd9e3e69	-0.077267475
82	0x3de98df7	0.11404031
83	0x3dbff15b	0.09372207
84	0xbdca4e83	-0.09878256
85	0x3d9fc54e	0.07801305
86	0xbd1ca0c8	-0.03823927
87	0xbddee3fc	-0.10883328
88	0xbd27d2af	-0.040972408
89	0x3ddc862c	0.10767779
90	0xbcc6f234	-0.024285413
91	0xbdf5899b	-0.11989137
92	0x3dac21e7	0.08404904
93	0x3e0ccf85	0.13751037
94	0xbdc4153e	-0.09574364
95	0x3cdc9924	0.026928492
96	0xbe2bb7f3	-0.1676939
97	0x3d01dd18	0.031704992
98	0xbd9651a6	-0.07339792
99	0xbd48f1c2	-0.049058683
100	0x3e3f75c7	0.18697272
101	0xbcf6bc57	-0.030119104
102	0x3e45ad25	0.1930433
103	0xbdc59b83	-0.09648802
104	0x3ddcc6d2	0.107801095
105	0x3d9f0c74	0.07766047
106	0xbc2927a6	-0.010324394
107	0x3e2994b3	0.1656063
108	0x3e01f360	0.12690496
109	0xbd3f5f31	-0.04672164
110	0xbdd8532e	-0.1056274
111	0xbc8e193e	-0.01734602
112	0x3db1229f	0.086491816
113	0x3d9ab7d7	0.07554596
114	0x3d44f80f	0.04808813
115	0xbc838ecc	-0.016059302
116	0x3e1c1897	0.15243755
117	0xbe0eb5f2	-0.13936594
118	0xbd891a10	-0.06694424
119	0xbd512c28	-0.0510675
120	0x3bfd159c	0.0077235233
121	0xbd5a7d8a	-0.05334238
122	0xbc953375	-0.018213013
123	0xbe0937e9	-0.13400234
124	0x3cfc8c63	0.03082866
125	0x3d667a97	0.056269255
126	0xbd9ee7a5	-0.077590264
127	0x3b31b6fc	0.0027117124
128	0xbcc35444	-0.023843892
129	0xbde05669	-0.109539814
130	0x3e26d4ed	0.16292162
131	0x3dd59f1b	0.104307376
132	0xbdd0d29b	-0.1019642
133	0x3e19ff36	0.15038761
134	0xbd0346b3	-0.032049846
135	0xbe238cce	-0.15971681
136	0xbe15dd7f	-0.14635275
137	0x3d9b4c37	0.07582896
138	0xbddfb3da	-0.10922976
139	0xbe2d8567	-0.1694542
140	0x3e04a4f2	0.12953547
141	0xbe02bc32	-0.12767103
142	0x3dfe389e	0.124131426
143	0xbe08e219	-0.133675
144	0x3c93a204	0.018021591
145	0x3d6810a0	0.05665648
146	0x3dbe586e	0.092942104
147	0x3c1c8132	0.009552287
148	0xbdc2ace9	-0.09505636
149	0x3daa5308	0.08316618
150	0x3d3d9b5e	0.046290748
151	0xbd136b16	-0.035990797
152	0xbd2f013a	-0.04272578
153	0x3e30c2bc	0.17261785
154	0xbd3c0992	-0.045907564
155	0x3d5b1806	0.053489707
156	0x3d90a6f3	0.07063093
157	0x3d3493b7	0.044086184
158	0x3e2d9ec4	0.16955096
159	0x3e1682b5	0.14698298
160	0x3d66c15a	0.05633674
161	0x3d34c34f	0.044131573
162	0xbc986f7e	-0.018607851
163	0x3da71843	0.081589244
164	0xbe442b19	-0.19157065
165	0x3da3ed07	0.08004194
166	0x3dbc5b85	0.091971435
167	0xbd63f3cf	-0.055652436
168	0x3ce45ba6	0.027875733
169	0xbc576324	-0.013146196
170	0xbdcfc428	-0.10144836
171	0x3dbc5bbe	0.09197186
172	0x3e2c5e08	0.16832745
173	0xbdcb6e27	-0.09933119
174	0xbe176d89	-0.14787878
175	0xbd65fc90	-0.056149065
176	0x3e1a8c7f	0.15092658
177	0xbd740014	-0.059570387
178	0xbe2f36e0	-0.17110777
179	0xbe3bcc7b	-0.18339722
180	0x3db3c28a	0.0877734
181	0xbdeb4b9c	-0.11489031
182	0xbde8c63f	-0.113659374
183	0x3dd256c8	0.102704585
184	0x3e14cb16	0.14530596
185	0xbd9afc50	-0.07567656
186	0xbd81a138	-0.06329578
187	0xbe0e6251	-0.13904692
188	0xbdc5c132	-0.0965599
189	0x3e18c84f	0.14920162
190	0xbde0a967	-0.10969811
191	0x3cdfc4ea	0.027315576
192	0x3e054c72	0.13017443
193	0xbe1f2e3f	-0.15544985
194	0x3dac9e94	0.08428684
195	0xbe39f392	-0.18159321
196	0xbd021020	-0.03175366
197	0x3dfa4873	0.1222085
198	0x3e3659e5	0.1780773
199	0xbe455f64	-0.1927467
200	0x3e0b387e	0.13595769
201	0xbdfb3bcd	-0.122672655
202	0x3de406bf	0.11134099
203	0x3d185740	0.037192583
204	0xbe1da2c1	-0.15394117
205	0xbe170bef	-0.14750646
206	0x3a9eede8	0.0012125345
207	0xbe231f95	-0.15930016
208	0xbdc69cf9	-0.09697909
209	0xbca353db	-0.019937446
210	0x3dcf8e2a	0.101345375
211	0xbe1eac4a	-0.1549541
212	0x3da59ef7	0.08086961
213	0x3e503164	0.20331341
214	0x3cbde516	0.023180526
215	0x3d9f019e	0.0776398
216	0x3d56a225	0.052400727
217	0x3cb0b9b9	0.021572934
218	0x3bf22c0c	0.0073905047
219	0x3e0507c0	0.12991238
220	0xbe1ef83e	-0.15524384
221	0xbe4b8d56	-0.19878134
222	0xbdfb01f1	-0.1225623
223	0xbc07c8cd	-0.008287621
224	0xbdbb1484	-0.091347724
225	0x3e034193	0.12817983
226	0xb8d0d652	-9.958133e-05
227	0x3e4a71b0	0.19769931
228	0x3c37a4ee	0.011208756
229	0xbdb77672	-0.089581385
230	0xbe1f9867	-0.1558548
231	0xbd6129dc	-0.05497156
232	0xbbc3208a	-0.0059548067
233	0xbe0995ad	-0.13436003
234	0x3da8b09c	0.082368106
235	0xbe1c89e4	-0.15286976
236	0x3d1ee245	0.038790006
237	0x3d6784f4	0.05652328
238	0x3b65e70f	0.0035080349
239	0x3e2a576d	0.16634913
240	0x3e05dc13	0.13072233
241	0xbdd5f297	-0.10446661
242	0xbe1d865b	-0.15383284
243	0x3e01e42a	0.12684694
244	0x3cecca07	0.028904928
245	0xbda2c8c2	-0.07948448
246	0x3d1defd8	0.03855881
247	0xbdb44721	-0.08802629
248	0x3dda1049	0.106476374
249	0x3d883190	0.06650078
250	0x3e128bde	0.14311168
251	0xbdaf1fab	-0.08550962
252	0xbe006ba3	-0.1254106
253	0x3e2bc480	0.16774178
254	0x3dbe0311	0.092779286
255	0x3e2e14d2	0.1700013

parametrizer.linear1.bias f4 [10]
0	0xbe20bad6	-0.15696272
1	0x3bc3c454	0.005974332
2	0x3dfbf903	0.123033546
3	0x3d66a79e	0.056312196
4	0xbd0a4c15	-0.033763964
5	0x3db508f0	0.08839595
6	0x3e0705bb	0.1318578
7	0xbde87151	-0.113497384
8	0x3d812aef	0.06307017
9	0x3c701a9d	0.014654783

parametrizer.linear2.weight f4 [10, 10]
0	0x3d4c0028	0.049804837
1	0xbe01667e	-0.12636754
2	0xbe35be9e	-0.17748496
3	0x3e8ff669	0.28117684
4	0xbdd77d6d	-0.1052197
5	0xbcbfc01f	-0.02340704
6	0xbe92f851	-0.28705075
7	0x3e61e22a	0.22058931
8	0xbe3dee5e	-0.18547961
9	0xbdc4e6be	-0.09614323
10	0x3dd7dd2d	0.10540233
11	0x3e09c344	0.13453394
12	0x3d717832	0.058952518
13	0xbdda1a94	-0.106496006
14	0x3e7fd321	0.24982883
15	0x3e7e171c	0.24813503
16	0xbe758a71	-0.23978592
17	0xbe391aeb	-0.18076675
18	0x3e4f36b2	0.20235708
19	0xbe588626	-0.21144924
20	0x3d94a07a	0.07257171
21	0xbdb7ae4e	-0.08968793
22	0x3d2e8e09	0.042615924
23	0x3dcbf34a	0.09958513
24	0x3e4655ec	0.19368714
25	0x3e611644	0.2198115
26	0xbe883745	-0.26604667
27	0x3e5e23df	0.21693371
28	0xbe19cf53	-0.15020494
29	0x3e96953c	0.29410732
30	0x3e1bd9a1	0.15219738
31	0x3dc69d1b	0.09697934
32	0x3e6ab210	0.22919488
33	0xbdf7e779	-0.12104697
34	0x3dee26e6	0.11628513
35	0xbe273643	-0.16329293
36	0x3bac8c93	0.005265781
37	0x3e3cb906	0.18429956
38	0x3d8021f2	0.062564746
39	0x3e59724e	0.2123501
40	0xbe7b8e22	-0.24565938
41	0x3e5f4328	0.21802962
42	0x3d4592a1	0.04823554
43	0x3e9b4b08	0.30330682
44	0xbd98e79d	-0.07466052
45	0xbe946494	-0.28982985
46	0x3d2664eb	0.040623587
47	0x3d39a110	0.045319617
48	0xbe8c0927	-0.27350733
49	0x3e18fc92	0.14940098
50	0xbe821c1b	-0.25412068
51	0xbe9832ff	-0.29726407
52	0x3e41abf6	0.18913254
53	0x3e48faa0	0.19626856
54	0xbe87d59b	-0.26530156
55	0x3e8f53aa	0.27993518
56	0xbea2fc51	-0.31833127
57	0xbe650117	-0.22363697
58	0xbe257392	-0.16157368
59	0x3d783c9a	0.06060467
60	0xbe0aece8	-0.13566935
61	0xbe760f07	-0.2402917
62	0x3d334ce5	0.043774504
63	0x3e83b7b7	0.257261
64	0x3e1b9ab9	0.15195741
65	0xbe8fd1ae	-0.2808966
66	0x3e0651e7	0.13117181
67	0x3d8804c4	0.06641534
68	0xbdce4daf	-0.10073411
69	0x3e1b875f	0.15188359
70	0x3e491262	0.19635919
71	0xbe2e1889	-0.17001547
72	0x3c8d62e2	0.017259065
73	0x3e1898db	0.1490206
74	0xbcb24c84	-0.021765001
75	0xbdbea384	-0.09308532
76	0xbd9295ce	-0.07157479
77	0xbe7f8e64	-0.24956661
78	0xbc329073	-0.010898697
79	0x3e1bb238	0.15204704
80	0xbe5369a9	-0.20645775
81	0x3e4331e1	0.19061996
82	0xbda2bb5e	-0.07945894
83	0x3e41d68d	0.18929501
84	0x3e2e1091	0.16998507
85	0xbe00ae9b	-0.12566607
86	0x3e938b18	0.28817058
87	0x3dae3f6b	0.0850819
88	0xbe8da54e	-0.2766518
89	0xbd59a1fa	-0.05313299
90	0xbe3e0f91	-0.18560626
91	0xbe8ad838	-0.27118087
92	0xbe120557	-0.1425985
93	0xbe2ceb1e	-0.16886565
94	0xbde2f9f4	-0.11082831
95	0xbd8e1139	-0.06936879
96	0xbe98c069	-0.29834297
97	0x3e3a8248	0.18213761
98	0xbd6894f1	-0.056782667
99	0xbcd733d7	-0.026269836

parametrizer.linear2.bias f4 [10]
0	0xbe3b4c61	-0.18290855
1	0xbe8a1bd3	-0.26974353
2	0x3d4413d7	0.047870483
3	0xbe64c17c	-0.22339433
4	0x3e848a2c	0.25886667
5	0xbe8fb9d6	-0.2807147
6	0xbd1620ce	-0.03665238
7	0x3ea91cc5	0.33029762
8	0x3e6e4e1e	0.23271987
9	0x3d4288a1	0.04749358

parametrizer.linear3.weight f4 [5, 10]
0	0xbe1ffa64	-0.1562286
1	0xbe0cea02	-0.13761142
2	0x3d8a4721	0.06751848
3	0x3d3a5ff3	0.04550166
4	0x3e127dd0	0.14305806
5	0xbded1478	-0.1157617
6	0xbe94c029	-0.29052857
7	0x3e479c1a	0.19493142
8	0x3ea4f6ef	0.32219645
9	0x3e0036a8	0.1252085
10	0xbe11652e	-0.14198753
11	0x3e369bcc	0.1783287
12	0x3d22a845	0.039711256
13	0x3d73ca69	0.059519205
14	0x3dfe323f	0.124119274
15	0xbde65f75	-0.11248676
16	0xbe12d96b	-0.14340751
17	0x3dfe830b	0.12427338
18	0xbd25ace0	-0.04044807
19	0xbde6baf3	-0.112661265
20	0x3c743db7	0.014907292
21	0x3e901c6a	0.28146678
22	0xbe944adf	-0.28963372
23	0x3e1880f7	0.14892946
24	0x3cf22a43	0.029561168
25	0x3e248a32	0.16068342
26	0x3d9726b6	0.073804304
27	0x3e844311	0.25832418
28	0x3e4b66ea	0.19863477
29	0x3de76d50	0.113001466
30	0x3e61579d	0.22006078
31	0x3cda81f0	0.026673287
32	0x3e37c1b3	0.17944984
33	0x3e857186	0.26063174
34	0xbe97714b	-0.29578623
35	0x3c9d854c	0.0192286
36	0x3de68a60	0.11256862
37	0x3d1a53b5	0.037677485
38	0x3e8c8084	0.274418
39	0xbdf69bba	-0.12041421
40	0xbe68fe06	-0.22753152
41	0x3e78ffbe	0.24316308
42	0xbe858e6c	-0.26085222
43	0xbe20c2f6	-0.15699372
44	0xbe3eadbf	-0.18620966
45	0x3c786104	0.015159849
46	0xbd92a26e	-0.07159887
47	0xbd9c3a23	-0.07628276
48	0x3e731eb2	0.23742178
49	0x3c9505db	0.018191269

parametrizer.linear3.bias f4 [5]
0	0x3dcd8fe2	0.10037209
1	0x3e254caf	0.16142534
2	0x3ea2f873	0.31830177
3	0x3c982a51	0.018574866
4	0xbdc06e3f	-0.09396028

parametrizer.linear4.weight f4 [31, 5]
0	0x3dd41b13	0.103567265
1	0x3e8a35a5	0.26994053
2	0x3ee6424b	0.44972453
3	0x3e81ec74	0.25375712
4	0xbdf236a1	-0.11826826
5	0x3e02bed4	0.12768108
6	0xbe45b943	-0.19308953
7	0xbe9288e3	-0.2862006
8	0xbea567dd	-0.32305804
9	0x3ea1509f	0.31506822
10	0xbe92a0da	-0.28638345
11	0x3ebd1597	0.36930534
12	0xbe43dd30	-0.19127345
13	0xbe326651	-0.17421843
14	0xbd840fc1	-0.06448317
15	0x3eb298ba	0.34882146
16	0xbeb75589	-0.35807446
17	0x3e3d68cb	0.18497007
18	0x3e85f0a2	0.2616015
19	0xbe967f9b	-0.2939423
20	0x3e8fd09b	0.2808884
21	0xbc6750ae	-0.014118357
22	0x3e6108b8	0.21975982
23	0xbdb702fe	-0.089361176
24	0x3dd826e7	0.10554295
25	0x3e4ac8ca	0.19803157
26	0xbd188573	-0.037236642
27	0xbe5340af	-0.20630144
28	0x3df2fc29	0.11864502
29	0xbe506180	-0.20349693
30	0xbdd145a9	-0.10218365
31	0xbe452e72	-0.19255999
32	0x3e864f36	0.26232308
33	0xbe691e3c	-0.2276544
34	0x3ecae223	0.39625654
35	0xbd4ee517	-0.050511446
36	0x3df734db	0.12070628
37	0x3ea8641b	0.32888874
38	0xbc66ce97	-0.014087341
39	0x3ed57899	0.4169357
40	0x3caf0a98	0.021367356
41	0x3da38f54	0.07986322
42	0x3ebc86ce	0.36821598
43	0xbed521e5	-0.41627422
44	0x3e47164d	0.19442101
45	0x3d1e2d2a	0.03861729
46	0x3ec8d176	0.39222306
47	0xbc38daa2	-0.011282595
48	0xbd70f934	-0.05883141
49	0xbdd52c75	-0.1040887
50	0x3e3a1854	0.18173343
51	0xbe9db1e0	-0.3079977
52	0x3eb1ff11	0.34764913
53	0x3e333409	0.17500319
54	0xbe12a60d	-0.14321156
55	0x3ec336e0	0.38127804
56	0xbe92cdbf	-0.28672597
57	0xbe36f5c2	-0.17867187
58	0xbe9a8485	-0.3017923
59	0x3e57ab2b	0.21061389
60	0x3e713992	0.23557118
61	0x3ec0cebd	0.3765773
62	0x3ea2e4fc	0.31815326
63	0x3d3c7038	0.046005458
64	0x3e4ff054	0.20306522
65	0xbea09506	-0.31363696
66	0x3e836d4a	0.25669318
67	0xbd9f0673	-0.07764902
68	0x3e90938c	0.2823757
69	0xbdcc6d8f	-0.09981834
70	0x3e38cc65	0.1804672
71	0xbe4947d4	-0.19656307
72	0xbeda0146	-0.42579097
73	0x3e1219bf	0.14267634
74	0xbc45734d	-0.012051416
75	0xbd872959	-0.06599683
76	0xbed697d1	-0.41912702
77	0xbe6c3e72	-0.23070696
78	0xbecd30e7	-0.40076372
79	0x3e50df01	0.20397569
80	0xbeafd7e2	-0.34344393
81	0xbebac001	-0.36474612
82	0xbe613681	-0.21993448
83	0xbe42835c	-0.18995422
84	0x3dafde78	0.085873544
85	0xbc667d7e	-0.014068006
86	0xbe13ab05	-0.14420708
87	0xbd62822c	-0.055299923
88	0xbe8d2924	-0.2757045
89	0x3eb70ed9	0.35753515
90	0xbd97ba40	-0.07408571
91	0x3ed40545	0.4141027
92	0x3e01c806	0.12673959
93	0xbe19a38d	-0.15003796
94	0xbda1b49f	-0.07895779
95	0x3d5de1b3	0.05417032
96	0xbd8101a6	-0.062991425
97	0xbe0e25be	-0.13881585
98	0x3eb6ba6d	0.35689107
99	0x3e23ce36	0.15996632
100	0x3e12a150	0.14319348
101	0x3e9b4456	0.30325574
102	0xbe8216a3	-0.25407895
103	0x3df9b454	0.12192598
104	0xbec0557c	-0.3756522
105	0x3c8db90c	0.017300151
106	0xbeba082e	-0.36334366
107	0xbed3de12	-0.41380364
108	0x3dc075bd	0.09397457
109	0xbee20e76	-0.44151658
110	0x3ef02945	0.46906486
111	0x3eb42799	0.3518646
112	0x3e7ac241	0.24488164
113	0xbe5ff951	-0.2187245
114	0xbe6faa68	-0.23404849
115	0x3d8c3909	0.06846816
116	0xbe01972c	-0.12655324
117	0x3dd9cb92	0.10634531
118	0x3e920ed8	0.2852695
119	0x3e2f71a7	0.17133199
120	0xbe999052	-0.2999292
121	0xbded18f5	-0.11577026
122	0xbbe22ef7	-0.0069025713
123	0xbe6f5058	-0.23370492
124	0x3e33be02	0.17552951
125	0x3e10699d	0.14102788
126	0x3e740647	0.2383052
127	0x3e7bd90c	0.24594516
128	0x3ed6a42b	0.41922125
129	0xbcabe63c	-0.020983808
130	0xbc1d3ffa	-0.009597773
131	0x3d97ac12	0.07405867
132	0xbe9ee5d3	-0.31034717
133	0x3e893ef7	0.2680585
134	0x3e337813	0.17526273
135	0x3ee4fe2f	0.44725177
136	0xbe8b984f	-0.2726464
137	0x3eebd006	0.46057147
138	0xbea77f76	-0.32714432
139	0x3e1bc654	0.15212375
140	0x3e3a662a	0.18203035
141	0x3e84e8ee	0.2595896
142	0x3e348900	0.17630386
143	0xbe250be2	-0.16117814
144	0x3def1ac7	0.11675029
145	0x3de409ad	0.11134658
146	0xbd8a5185	-0.0675383
147	0xbe23e5cd	-0.16005631
148	0x3d87d289	0.06631953
149	0xbde25f41	-0.110533245
150	0xbd90f805	-0.07078556
151	0xbe8b06e9	-0.2715371
152	0xbe3ddbc2	-0.18540862
153	0x3d31363e	0.04326462
154	0xbe96c5d5	-0.2944781

parametrizer.linear4.bias f4 [31]
0	0xba74a891	-0.00093329797
1	0x3ea8c34c	0.329615
2	0x3e12f3db	0.14350836
3	0x3ea0582e	0.31317276
4	0xbcb7543d	-0.022379035
5	0x3eda406f	0.42627284
6	0x3eda75ff	0.4266815
7	0x3ede4a44	0.43416035
8	0x3e6bc400	0.23023987
9	0xbea49a63	-0.32149038
10	0xbd900545	-0.07032255
11	0xbe0d2d54	-0.13786823
12	0xbc9d508c	-0.019203447
13	0x3d3ceaef	0.046122488
14	0x3e989606	0.2980196
15	0xbe92fa4d	-0.2870659
16	0x3edc9ccd	0.4308838
17	0x3c2aa155	0.010414441
18	0xbec7178d	-0.38885155
19	0xbe5d6b3b	-0.21622936
20	0x3d9813df	0.07425665
21	0x3ed43927	0.41449854
22	0xbe7f5dbf	-0.24938105
23	0x3ed52c11	0.41635182
24	0x3e575225	0.2102743
25	0x3eb13d55	0.34617105
26	0x3d9b481f	0.075821154
27	0xbdff2708	-0.124586165
28	0x3dfae60a	0.12250908
29	0xbdc08987	-0.09401231
30	0xbea9265e	-0.33037084

exp_avg f4 [10, 30]
0	0x3acbf781	0.0015561433
1	0xba647268	-0.00087145576
2	0x3ad48347	0.001621344
3	0x3a9168ba	0.0011093833
4	0xbabef43a	-0.0014568635
5	0x3a342a66	0.0006872773
6	0x393f8c3c	0.00018267421
7	0x3a126811	0.0005584965
8	0xba640afd	-0.0008699147
9	0xbb0d876f	-0.0021595617
10	0xba7ae930	-0.0009571491
11	0xba5f926d	-0.0008528594
12	0xb9f6c20c	-0.00047065353
13	0xb92efdbc	-0.00016688457
14	0xbb26664c	-0.0025390564
15	0x3a4fdd0b	0.00079293613
16	0xbb4650a0	-0.0030260459
17	0xbb3c3277	-0.0028716603
18	0x3afadd77	0.0019139488
19	0xbb17dbce	-0.0023171785
20	0x3a7e2dea	0.0009696173
21	0x3900e0fc	0.00012290844
22	0x3a981e28	0.0011605667
23	0x3a109233	0.00055149494
24	0xba6e774b	-0.00090967555
25	0x3b1e0e71	0.0024117494
26	0x3a4f911e	0.00079180475
27	0x3a3106f7	0.0006753052
28	0x3b06760d	0.002051714
29	0xb757d100	-1.286366e-05
30	0x3ba39ab2	0.0049928064
31	0x3a5914aa	0.0008280972
32	0x3b97d184	0.0046331305
33	0x3ba2cb54	0.0049680863
34	0x390f5aa1	0.00013671305
35	0xba5ce21d	-0.00084260275
36	0x39eef625	0.0004557829
37	0x3b1ab6fd	0.0023607605
38	0xbb1017b0	-0.0021986775
39	0xbb7fa0bd	-0.003900572
40	0x3b7a8d3e	0.003823116
41	0xbb2038c4	-0.0024447897
42	0x3b6104bb	0.0034335095
43	0x3b64cc52	0.0034911823
44	0x3a13c57c	0.00056370324
45	0xbadf0cb2	-0.0017017333
46	0xba17fa8f	-0.0005797529
47	0x3a8320e0	0.0010004304
48	0xbb43e7b8	-0.0029892754
49	0xba667bce	-0.0008792252
50	0x3b9e245d	0.004826112
51	0xba6b32bd	-0.0008972099
52	0x3b8fc564	0.0043875445
53	0x3b9a4e36	0.0047090305
54	0xb9027985	-0.00012443036
55	0xbb1e7ee7	-0.0024184526
56	0xbaa1225c	-0.0012293565
57	0x3ab6322f	0.0013900454
58	0xbb85b91e	-0.0040809056
59	0xbb52c2ca	-0.003215956
60	0x3b101a43	0.002198831
61	0xbb2b8775	-0.0026173268
62	0x3b0bc0dd	0.0021324672
63	0x3ad2f981	0.0016096086
64	0x3a18c690	0.0005827928
65	0x39a6f93c	0.0003184768
66	0xba71bd12	-0.0009221594
67	0x3a3e7908	0.000726596
68	0x38d0ab6c	9.950143e-05
69	0xbb40e89c	-0.002943552
70	0xba041da5	-0.0005039818
71	0xbb3abe1d	-0.0028494664
72	0xb99058d4	-0.00027532002
73	0x380f81aa	3.4214616e-05
74	0xbb16a139	-0.002298428
75	0xb9f6b881	-0.00047058242
76	0xbb7eac60	-0.0038860068
77	0xbb0fb6c2	-0.0021929
78	0x39af36ba	0.00033419376
79	0xbb41bb50	-0.002956111
80	0x3ac9de8a	0.0015401405
81	0xbb1653ec	-0.0022938205
82	0x3aca728f	0.0015445518
83	0x3a802429	0.0009776402
84	0xb87fd516	-6.099519e-05
85	0x3a669ad5	0.00087968755
86	0xba64f3c8	-0.0008733836
87	0x3a2053a6	0.000611598
88	0x3a6e20d2	0.000908387
89	0xbac28cbc	-0.0014842968
90	0x3aa10fbc	0.0012288014
91	0xbb0be77f	-0.00213477
92	0x3aabac64	0.0013097641
93	0x3a020242	0.0004959443
94	0xbaed336f	-0.0018096993
95	0x38d3a3eb	0.00010091796
96	0xbb33e129	-0.0027447438
97	0xb9a8d516	-0.00032202218
98	0xb9529ad1	-0.00020084834
99	0xbb87eedd	-0.004148348
100	0xbb07c538	-0.0020716917
101	0xba8c1b86	-0.0010689355
102	0xbac41fee	-0.0014963129
103	0xba7b80fe	-0.00095941115
104	0xbb9517ed	-0.0045499713
105	0xbabdb839	-0.0014474458
106	0xbc200725	-0.009767328
107	0xbbccf21c	-0.0062544476
108	0x3af7274e	0.0018856318
109	0xbbae1733	-0.005312824
110	0x399eb6a2	0.0003027218
111	0xba3d7eac	-0.00072286534
112	0x3a149207	0.0005667512
113	0xb9aacbb4	-0.00032576697
114	0xbb18a5f0	-0.0023292266
115	0x3b050a2d	0.0020300255
116	0xbb378433	-0.002800238
117	0xba534f78	-0.0008060853
118	0x3b2a6a7c	0.002600341
119	0xbafee006	-0.0019445426
120	0x3b8128cf	0.0039416323
121	0xbb47ff2e	-0.003051709
122	0x3b7d5d69	0.0038660413
123	0x3b6a0644	0.00357093
124	0xba923d19	-0.0011157125
125	0x3a569196	0.0008185146
126	0x3b2f3674	0.0026735337
127	0x3b356e81	0.0027684274
128	0xba9a421c	-0.001176897
129	0xbb251d7c	-0.0025194576
130	0x3a942dd2	0.001130516
131	0xbb888fd5	-0.0041675367
132	0x3ac1a697	0.0014774379
133	0x3abeaed7	0.0014547956
134	0xbb2b783c	-0.0026164195
135	0xb870db74	-5.742484e-05
136	0x3a5cab94	0.0008417901
137	0x39dc493a	0.00042016228
138	0x3977ec19	0.00023643709
139	0xba565b14	-0.0008177024
140	0x3b60013e	0.0034180428
141	0xbb514c28	-0.0031936262
142	0x3b624ed7	0.0034531855
143	0x3b43776e	0.0029825824
144	0xba9c74a8	-0.0011936622
145	0x3a9487e1	0.0011331999
146	0x3b1df5d2	0.002410282
147	0x3b30ed2b	0.0026996832
148	0x3a086aee	0.0005203922
149	0xba249321	-0.00062780274
150	0xba122cf2	-0.00055761554
151	0x3b1635f5	0.0022920344
152	0xba098d3c	-0.0005247181
153	0xb9990b17	-0.00029190697
154	0xb9a334b0	-0.00031129038
155	0x3a1f132d	0.0006068226
156	0x3ac14bd1	0.0014747326
157	0x39310c94	0.00016884721
158	0x3771b7c0	1.4407502e-05
159	0x3aebf4f6	0.0018002081
160	0x394b4bf8	0.00019387889
161	0x3a7b8bc0	0.00095957145
162	0x39ad2e3e	0.00033031584
163	0x3904459d	0.00012614434
164	0x3a8d92e0	0.0010801218
165	0x3ac828b9	0.0015270925
166	0x3b446b35	0.0029971127
167	0x3abc8ac5	0.0014384618
168	0x39cfa437	0.00039604466
169	0x3b0230bb	0.0019865471
170	0x3863ab7c	5.4280725e-05
171	0x3b3052ef	0.00269049
172	0x38c4e646	9.3889e-05
173	0x3974ba67	0.00023339094
174	0x3ab52a1e	0.0013821756
175	0x3ab5f3b9	0.0013881839
176	0x3b2c5003	0.0026292808
177	0x3a976e3c	0.0011553238
178	0x3ad12a03	0.0015957955
179	0x3b32fa04	0.0027309665
180	0x3b0c62fc	0.0021421304
181	0x3aaad512	0.0013033471
182	0x3afa9074	0.0019116537
183	0x3b15cafe	0.0022856588
184	0x3a127d6f	0.0005588149
185	0x39694497	0.00022246163
186	0x3a5cda1a	0.00084248336
187	0x3a9ac9bd	0.001180939
188	0xbabda625	-0.0014469071
189	0xb9fe14ad	-0.0004846206
190	0x3b09a0c6	0.002100037
191	0xbaaccdac	-0.0013183854
192	0x3abbb0aa	0.0014319618
193	0x3ae7df35	0.0017690422
194	0x3adf1349	0.0017019297
195	0x39f85ea5	0.00047372762
196	0x3ae920fc	0.0017786319
197	0x3abaddc2	0.0014256763
198	0xbb13793c	-0.0022502681
199	0x3aa560e4	0.0012617377
200	0x3b235bf2	0.002492663
201	0x3a0c81fe	0.00053599465
202	0x3b0c6289	0.0021421036
203	0x3b2788be	0.0025563682
204	0x3a958051	0.0011406039
205	0xb93fc326	-0.00018287878
206	0x3a4b594a	0.00077571406
207	0x3a9a7e43	0.0011786897
208	0xbaed2987	-0.0018094041
209	0x39e0fd9b	0.0004291356
210	0xbb92ee75	-0.0044839927
211	0x3a4b5bea	0.0007757532
212	0xbb84a266	-0.0040476797
213	0xbb8ad337	-0.0042366046
214	0xbb2155a4	-0.0024617696
215	0x3a98c3bf	0.0011655017
216	0x39c08cd5	0.00036726022
217	0xbb130eb3	-0.0022439181
218	0xb6c7c408	-5.953483e-06
219	0x3b890ee3	0.004182683
220	0xbb464439	-0.0030253066
221	0x3b9177bb	0.004439322
222	0xbb0de5c5	-0.0021651846
223	0xbb26c0d4	-0.0025444524
224	0xb8c9dc78	-9.6254924e-05
225	0x3b228772	0.002479997
226	0x3a7db9f0	0.0009678891
227	0xba8e886a	-0.0010874395
228	0x3b8b5917	0.0042525637
229	0x3aee2bfc	0.0018171067
230	0xbb92d889	-0.0044813794
231	0x3b09f2e3	0.0021049313
232	0xbb808361	-0.0039219116
233	0xbb8700b4	-0.004119957
234	0xbaae73a7	-0.0013309614
235	0x3b266727	0.0025391073
236	0x3ac04278	0.0014668247
237	0xbaf4921b	-0.0018659265
238	0x3b393940	0.0028262883
239	0x3b5a44fe	0.0033305283
240	0x3a4f78c2	0.00079144177
241	0xb921cba2	-0.00015430016
242	0x3a1f17a5	0.0006068892
243	0x3a69a557	0.0008912882
244	0x3aaa6ad4	0.0013001808
245	0xb9fbaa94	-0.0004800154
246	0x3b02e0b6	0.0019970364
247	0x3a24e1cc	0.000628975
248	0xb99bf05f	-0.00029742994
249	0x3a365f5f	0.00069569604
250	0x3a8fd45c	0.0010973322
251	0xbb0fb6ba	-0.0021928982
252	0x3a39621e	0.00070718105
253	0x3a251f6a	0.00062989315
254	0x3a6ca9c0	0.000902798
255	0x3ab15a63	0.0013530966

exp_avg_sq f4 [10, 30]
0	0x346b41a0	2.1909955e-07
1	0x347e5612	2.3686906e-07
2	0x3456db20	2.001002e-07
3	0x34120dc0	1.3602312e-07
4	0x34d7a296	4.0165168e-07
5	0x34b715a7	3.410216e-07
6	0x3594ec4c	1.1095631e-06
7	0x33fb266a	1.1695086e-07
8	0x359834a6	1.1340205e-06
9	0x35eaddd5	1.749892e-06
10	0x3463686a	2.1179008e-07
11	0x350cb66f	5.241954e-07
12	0x341ddf86	1.4703082e-07
13	0x338bf478	6.5171605e-08
14	0x353322e1	6.673345e-07
15	0x361dc42b	2.3509008e-06
16	0x36ef5bb1	7.1334293e-06
17	0x3640b03c	2.8712811e-06
18	0x35b91fae	1.3792794e-06
19	0x368fbc3c	4.2836455e-06
20	0x34178cb3	1.4114157e-07
21	0x34905275	2.6882086e-07
22	0x34094caa	1.278701e-07
23	0x33c074b5	8.9619256e-08
24	0x349e14bb	2.9444877e-07
25	0x3573f0ca	9.087495e-07
26	0x35a6b06a	1.2419307e-06
27	0x341866c7	1.4193493e-07
28	0x358d3d09	1.0523082e-06
29	0x3589de79	1.0272043e-06
30	0x35b38b19	1.3377022e-06
31	0x35135c7e	5.489636e-07
32	0x359f67d0	1.1876637e-06
33	0x35ae3d60	1.2981873e-06
34	0x358228bd	9.697611e-07
35	0x35100233	5.364738e-07
36	0x34acb51a	3.2169265e-07
37	0x3523359c	6.0800244e-07
38	0x358a55a2	1.0306724e-06
39	0x35b79d74	1.3680387e-06
40	0x3578938c	9.260191e-07
41	0x35263dd5	6.1929796e-07
42	0x3559dd78	8.116108e-07
43	0x353b607a	6.980332e-07
44	0x34612f05	2.0971864e-07
45	0x348d3cfe	2.6307674e-07
46	0x34309442	1.6445213e-07
47	0x3468918e	2.1659636e-07
48	0x36165206	2.2399486e-06
49	0x3400653c	1.1957758e-07
50	0x35a1d301	1.2056845e-06
51	0x3509223c	5.1086295e-07
52	0x358e9a7a	1.0624783e-06
53	0x3595f92e	1.1173886e-06
54	0x352ff23d	6.5545083e-07
55	0x354834c3	7.4582584e-07
56	0x34d09470	3.8851022e-07
57	0x34c2346a	3.6173452e-07
58	0x3634815a	2.6897383e-06
59	0x357d18c8	9.4285906e-07
60	0x35022980	4.8489164e-07
61	0x35208f77	5.9813414e-07
62	0x34eaa51d	4.3706032e-07
63	0x34ab7b13	3.194078e-07
64	0x33e5b1cc	1.06959845e-07
65	0x349adb1f	2.8844167e-07
66	0x35733647	9.060354e-07
67	0x338e4864	6.625558e-08
68	0x3535acf2	6.7679423e-07
69	0x36046b5a	1.973202e-06
70	0x332a17bd	3.96028e-08
71	0x358fbd2e	1.0709389e-06
72	0x32aee6db	2.0361247e-08
73	0x330bb69f	3.2529552e-08
74	0x34d7df37	4.020928e-07
75	0x36191c4e	2.2815252e-06
76	0x36f10ade	7.183625e-06
77	0x362e263f	2.5950283e-06
78	0x35688071	8.661364e-07
79	0x369705c8	4.5008237e-06
80	0x34b2083e	3.316108e-07
81	0x3525d364	6.1774904e-07
82	0x349e81b4	2.9524165e-07
83	0x3454e0f2	1.9825873e-07
84	0x342dc385	1.618301e-07
85	0x3514d87b	5.5449317e-07
86	0x356e2b68	8.8725074e-07
87	0x33d02a9f	9.6935075e-08
88	0x35417a56	7.2076125e-07
89	0x35837c0c	9.796363e-07
90	0x355d6025	8.2468824e-07
91	0x352efac7	6.518498e-07
92	0x3540f263	7.187829e-07
93	0x35052370	4.959793e-07
94	0x354a61b7	7.539306e-07
95	0x35829d7c	9.731589e-07
96	0x36a94da4	5.045631e-06
97	0x3475f618	2.2906931e-07
98	0x362246d2	2.4181104e-06
99	0x36e1da37	6.730926e-06
100	0x351605dd	5.5887887e-07
101	0x35e359ec	1.6938989e-06
102	0x34ba545f	3.4706588e-07
103	0x342ce316	1.6101362e-07
104	0x360d8be4	2.1092064e-06
105	0x370705db	8.04799e-06
106	0x3819b920	3.6650454e-05
107	0x3743cdc3	1.1670813e-05
108	0x36901ab4	4.294643e-06
109	0x3784680e	1.578408e-05
110	0x351379f8	5.4939255e-07
111	0x351ad755	5.768282e-07
112	0x35082a54	5.0725544e-07
113	0x34b49eda	3.3643192e-07
114	0x352f4ad6	6.530148e-07
115	0x35f76c1f	1.8434401e-06
116	0x36e58a18	6.840808e-06
117	0x34fd34db	4.716338e-07
118	0x3636a6ec	2.7217275e-06
119	0x365bec64	3.277114e-06
120	0x3589c298	1.026393e-06
121	0x3596ac55	1.1226026e-06
122	0x3584e3a6	9.901021e-07
123	0x355fc428	8.335942e-07
124	0x34cac34f	3.7767538e-07
125	0x3486f441	2.5137163e-07
126	0x34f994eb	4.6488216e-07
127	0x351db795	5.8754205e-07
128	0x34a6f205	3.1096002e-07
129	0x35267a5c	6.2017875e-07
130	0x342798ce	1.5608677e-07
131	0x35d738a5	1.6035234e-06
132	0x343cebe8	1.7594687e-07
133	0x34365be2	1.6983498e-07
134	0x3501edae	4.8402114e-07
135	0x33b0cedb	8.2332654e-08
136	0x340e620e	1.3260453e-07
137	0x3352839c	4.9014133e-08
138	0x3478c630	2.31689e-07
139	0x340c4bb3	1.3066055e-07
140	0x3555ac54	7.9599454e-07
141	0x3598d45b	1.1386686e-06
142	0x35522c6a	7.829573e-07
143	0x351e65ba	5.900762e-07
144	0x3514c39c	5.5418946e-07
145	0x3458731c	2.0158444e-07
146	0x34d915a7	4.0435154e-07
147	0x3503fe29	4.9171155e-07
148	0x34175ca6	1.4096676e-07
149	0x3491b093	2.713683e-07
150	0x342e9559	1.6259345e-07
151	0x34c36f25	3.640245e-07
152	0x3415f26d	1.39649e-07
153	0x33e8c57e	1.08392655e-07
154	0x33f9ecfd	1.1638074e-07
155	0x33d0da4e	9.725464e-08
156	0x33dfc006	1.04191756e-07
157	0x3270d80c	1.4018962e-08
158	0x34e60899	4.2847094e-07
159	0x350592ec	4.976016e-07
160	0x332a640f	3.9672212e-08
161	0x34819647	2.4137464e-07
162	0x332762d8	3.8972615e-08
163	0x32efbf4d	2.7910255e-08
164	0x345415d8	1.9751985e-07
165	0x34962102	2.7963694e-07
166	0x351ddd8c	5.880945e-07
167	0x342f7b44	1.6342989e-07
168	0x348cfd9e	2.6261563e-07
169	0x34a79992	3.121791e-07
170	0x33ec6ff1	1.10099684e-07
171	0x34f414d7	4.5463705e-07
172	0x33d21eca	9.7844875e-08
173	0x33a029ed	7.458207e-08
174	0x3422fa8b	1.5178573e-07
175	0x341fffe1	1.4901117e-07
176	0x34a165ce	3.006266e-07
177	0x33491bc0	4.6824198e-08
178	0x3498a377	2.8431143e-07
179	0x3511ec43	5.4360515e-07
180	0x351bca96	5.80368e-07
181	0x3519a2ee	5.7234035e-07
182	0x3511a4a3	5.425629e-07
183	0x351d97de	5.8708054e-07
184	0x3505b475	4.980896e-07
185	0x34e7ed8d	4.3199944e-07
186	0x350f0bb0	5.328866e-07
187	0x34fd1cc7	4.714586e-07
188	0x353155b7	6.606237e-07
189	0x34c15c22	3.6016087e-07
190	0x35255dc4	6.1603737e-07
191	0x351a7c81	5.755065e-07
192	0x352fe5a4	6.552675e-07
193	0x34e881e2	4.330787e-07
194	0x34a90f01	3.148962e-07
195	0x34c97722	3.7525848e-07
196	0x352171b6	6.0142645e-07
197	0x35359b5f	6.765385e-07
198	0x35e03274	1.6703984e-06
199	0x34b948b6	3.451184e-07
200	0x351fd5cd	5.9543237e-07
201	0x34f2615f	4.514686e-07
202	0x35125382	5.451076e-07
203	0x351d895c	5.868694e-07
204	0x34d925d8	4.0446935e-07
205	0x34c60dcb	3.689041e-07
206	0x34f10065	4.4890035e-07
207	0x34dcfe2f	4.1163136e-07
208	0x35c99e46	1.5021731e-06
209	0x349d790c	2.9331602e-07
210	0x35b1995b	1.323216e-06
211	0x355640c6	7.981547e-07
212	0x359d2ddc	1.1710758e-06
213	0x35a53a74	1.231047e-06
214	0x35ffc362	1.9055844e-06
215	0x350faac2	5.3520137e-07
216	0x34e4b675	4.2601064e-07
217	0x355aebf6	8.1554697e-07
218	0x3600fb01	1.921959e-06
219	0x35ac6ed7	1.2847257e-06
220	0x358f7506	1.0688389e-06
221	0x358e16ea	1.0586493e-06
222	0x3592eddb	1.0947073e-06
223	0x3536a951	6.804667e-07
224	0x351c5eff	5.8252766e-07
225	0x350c6497	5.230044e-07
226	0x34e41085	4.248033e-07
227	0x356189c3	8.40195e-07
228	0x360cacf7	2.0962304e-06
229	0x34d0ad74	3.8869223e-07
230	0x35a07800	1.1955854e-06
231	0x3585769a	9.94379e-07
232	0x358de4f8	1.0571957e-06
233	0x358f0cc3	1.0658044e-06
234	0x3581d7be	9.674038e-07
235	0x35142a39	5.519574e-07
236	0x34bc9702	3.5127601e-07
237	0x350ffb6d	5.3637524e-07
238	0x3602e80e	1.9506583e-06
239	0x355258a2	7.8360074e-07
240	0x3500aaa5	4.7932036e-07
241	0x34ecd84c	4.4115802e-07
242	0x34d825d2	4.0260653e-07
243	0x34d05dad	3.8811177e-07
244	0x356ebd22	8.8937134e-07
245	0x352c9c62	6.430256e-07
246	0x361da701	2.3492032e-06
247	0x34946c55	2.764597e-07
248	0x35fccf0a	1.8835719e-06
249	0x364ccc77	3.0517383e-06
250	0x34bb0e3c	3.484182e-07
251	0x35256b65	6.162357e-07
252	0x34b6dc44	3.4060406e-07
253	0x3440565d	1.7912812e-07
254	0x34fae6fa	4.6734186e-07
255	0x363e31d7	2.8341217e-06

exp_avg f4 [10]
0	0x3a153131	0.0005691229
1	0xbb88e99a	-0.004178238
2	0x3a6dcc09	0.0009071236
3	0xb8a69b34	-7.944406e-05
4	0xbacbbdb2	-0.0015544205
5	0x3ab0f332	0.0013500212
6	0xbb136954	-0.00224932
7	0xba51ddde	-0.0008005778
8	0x3b3b4801	0.0028576853
9	0x3a93ba19	0.0011270671

exp_avg_sq f4 [10]
0	0x35253130	6.1538867e-07
1	0x35ff2583	1.9009898e-06
2	0x348799ef	2.525771e-07
3	0x3557452e	8.019441e-07
4	0x34ff7661	4.7583583e-07
5	0x33b6d8ca	8.514469e-08
6	0x360576be	1.9887661e-06
7	0x35fd0ea3	1.8854229e-06
8	0x35840284	9.835499e-07
9	0x362eb4ed	2.6033333e-06

exp_avg f4 [10, 10]
0	0xba076835	-0.00051653694
1	0x3a230778	0.00062190695
2	0xb8b45dd9	-8.600549e-05
3	0xbb1d04ac	-0.0023959083
4	0xbb11735e	-0.0022194008
5	0x39ee7392	0.00045481004
6	0xbad10342	-0.0015946405
7	0x3b05ea3f	0.002043381
8	0xbb34f611	-0.0027612487
9	0x3a36021f	0.0006943065
10	0xbc0da0c9	-0.008644291
11	0x3bb48d2c	0.005509993
12	0x3bd08836	0.006363894
13	0x3bb30ad8	0.005463939
14	0x3bcc4976	0.006234343
15	0x3ab0493f	0.0013449563
16	0x3b87297b	0.004124818
17	0x3b2797e0	0.0025572702
18	0x3bf75a94	0.0075486396
19	0x3b676717	0.003530925
20	0x3b523913	0.0032077476
21	0xbb1c8fd0	-0.002388943
22	0xbaa5df8b	-0.0012655122
23	0xbb6e4217	-0.003635531
24	0xbb4915ee	-0.0030683237
25	0xba593c7a	-0.0008286905
26	0xbb21affa	-0.002467154
27	0xbabf1e61	-0.0014581197
28	0xbba55c5e	-0.0050464114
29	0x3a9f845d	0.0012170185
30	0xbbbad94b	-0.005702173
31	0x3b1b3d51	0.002368767
32	0x3b9ae5ca	0.0047271
33	0x3ac0a3c0	0.0014697239
34	0x3b9c10ef	0.004762761
35	0xb952a730	-0.00020089443
36	0x3b79f92e	0.0038142907
37	0x3acf17ed	0.0015799977
38	0x3b3e464c	0.00290336
39	0x3baee615	0.0053374865
40	0xba93286f	-0.001122726
41	0xbb7025a3	-0.0036643527
42	0xb99855d8	-0.00029055658
43	0x39c43ce4	0.000374294
44	0x3b80c829	0.003930111
45	0xbb081438	-0.0020764004
46	0x3b9a3d81	0.004707039
47	0xbb4eb2a7	-0.003153959
48	0x3b1612dd	0.0022899427
49	0x3adc68d5	0.001681591
50	0xbac793cd	-0.0015226543
51	0x3a8e6ffb	0.0010867113
52	0x39d71fd0	0.00041031698
53	0x39b86cc0	0.0003517624
54	0x39627e21	0.00021600026
55	0x39ef2cef	0.0004561911
56	0x39df2e2d	0.00042568278
57	0x3ace117f	0.0015721767
58	0x3a59d875	0.00083101477
59	0xb98284bb	-0.00024894424
60	0xbac27f81	-0.0014839025
61	0x3a9ac925	0.0011809213
62	0x391af529	0.00014777914
63	0xbaaf951d	-0.001339588
64	0xbaba762d	-0.0014225893
65	0x3a221eec	0.0006184417
66	0xb997e224	-0.00028969452
67	0x3b45525e	0.003010891
68	0xba5b4b0c	-0.000836537
69	0xba937aa5	-0.0011251761
70	0xbbcd980a	-0.006274228
71	0x39b874a0	0.00035182107
72	0x3ba02c3a	0.0048880847
73	0x3b392ab4	0.0028254213
74	0x3c04592e	0.008077903
75	0xbacfd6c0	-0.0015856847
76	0x3bd7fa13	0.0065910905
77	0xbad1f676	-0.0016018886
78	0x3ba8d6ff	0.0051525827
79	0x3bd0daaf	0.0063737254
80	0xbb62000a	-0.0034484887
81	0x3b849f8d	0.0040473402
82	0x3b990234	0.004669452
83	0x3b812141	0.0039407318
84	0x3b9771cf	0.0046217213
85	0x39421fc9	0.00018513123
86	0x3a9b3d19	0.001184377
87	0x3951bdfb	0.00020002566
88	0x3b59b3e5	0.0033218798
89	0x3ba26da1	0.0049569164
90	0x3ac4c088	0.0015010992
91	0xbad23baf	-0.0016039516
92	0xbb02de7f	-0.0019969044
93	0xb8b71710	-8.730416e-05
94	0x3951c280	0.0002000425
95	0xba376579	-0.00069960166
96	0x3a230513	0.00062187127
97	0xba701021	-0.0009157677
98	0x38bd1193	9.015496e-05
99	0xba81514c	-0.0009866147

exp_avg_sq f4 [10, 10]
0	0x34c25822	3.619944e-07
1	0x357a4f80	9.3247945e-07
2	0x351ecc4c	5.915688e-07
3	0x351d3266	5.8560397e-07
4	0x357474b2	9.10669e-07
5	0x351dff95	5.885898e-07
6	0x358a28f4	1.029372e-06
7	0x35b2e862	1.3329666e-06
8	0x35807afb	9.572535e-07
9	0x353f569c	7.127908e-07
10	0x36813771	3.850954e-06
11	0x36471a13	2.9668488e-06
12	0x3682d399	3.898935e-06
13	0x3627d4ee	2.500888e-06
14	0x367988e0	3.7183563e-06
15	0x3539f445	6.927333e-07
16	0x3571656e	8.9927096e-07
17	0x35e6688d	1.7166764e-06
18	0x36900be4	4.2929187e-06
19	0x359b2e8e	1.1561949e-06
20	0x35a5e23e	1.2359303e-06
21	0x3622a894	2.4238007e-06
22	0x35733834	9.060634e-07
23	0x358e9198	1.0622198e-06
24	0x36032fab	1.9548268e-06
25	0x35c803d6	1.4902278e-06
26	0x35d4658f	1.5824788e-06
27	0x3642695a	2.8969575e-06
28	0x36345c85	2.6875944e-06
29	0x35f5278d	1.8265433e-06
30	0x36152fe8	2.2230615e-06
31	0x366f698b	3.567521e-06
32	0x3663dd88	3.3954584e-06
33	0x359e5f10	1.1799584e-06
34	0x36a42124	4.891439e-06
35	0x360bd7d3	2.083824e-06
36	0x3660cf84	3.349939e-06
37	0x362cd641	2.575471e-06
38	0x353e138d	7.0808966e-07
39	0x364c6f3a	3.0463111e-06
40	0x34a2025f	3.0176577e-07
41	0x35be868e	1.4195264e-06
42	0x34f59d9e	4.5749488e-07
43	0x34163d74	1.3992195e-07
44	0x35a1f330	1.2066212e-06
45	0x357fa34c	9.523253e-07
46	0x35ce1f47	1.5357299e-06
47	0x359c207f	1.1632363e-06
48	0x34923db4	2.7239514e-07
49	0x35875942	1.0084261e-06
50	0x33d501ca	9.918911e-08
51	0x34193e92	1.4271998e-07
52	0x3398191b	7.082618e-08
53	0x3311e103	3.396509e-08
54	0x338f265c	6.665934e-08
55	0x334e5438	4.803971e-08
56	0x3343f47f	4.5624343e-08
57	0x34399a58	1.7285618e-07
58	0x33b09e08	8.2243844e-08
59	0x3379ffb5	5.8207394e-08
60	0x3435e95e	1.6941837e-07
61	0x3482199e	2.4233026e-07
62	0x34a3116c	3.0373792e-07
63	0x34782a4c	2.3112187e-07
64	0x341073e1	1.3453202e-07
65	0x33c12e32	8.995666e-08
66	0x349e59bc	2.9495084e-07
67	0x34ec42a5	4.4006916e-07
68	0x342db08e	1.6176111e-07
69	0x346e94b2	2.2219572e-07
70	0x36227aa8	2.4211276e-06
71	0x362782b4	2.4961018e-06
72	0x366f4454	3.5653547e-06
73	0x35c70d18	1.4830466e-06
74	0x36cc0cde	6.0811717e-06
75	0x36139460	2.1991073e-06
76	0x364a1134	3.011036e-06
77	0x3618d4f2	2.2773716e-06
78	0x35c39cbc	1.4574248e-06
79	0x366f207e	3.5632688e-06
80	0x35c84c7f	1.4923424e-06
81	0x362ec9d6	2.6045504e-06
82	0x3636034c	2.7122032e-06
83	0x35c50937	1.4680326e-06
84	0x3656f1fb	3.2029336e-06
85	0x356c5ce2	8.8052013e-07
86	0x347c495e	2.349602e-07
87	0x35c23edd	1.4472422e-06
88	0x35f3046e	1.81062e-06
89	0x35a68862	1.2407656e-06
90	0x34491a0e	1.8729062e-07
91	0x34d238ff	3.9157018e-07
92	0x34f18bae	4.4991378e-07
93	0x33b9ece6	8.6578254e-08
94	0x3476f2ec	2.299891e-07
95	0x3434ffb0	1.6856825e-07
96	0x34a2dc38	3.0335082e-07
97	0x346252d9	2.107803e-07
98	0x3375a0b8	5.718968e-08
99	0x344f8350	1.9326149e-07

exp_avg f4 [10]
0	0x3ba765d1	0.005108573
1	0x3b22d255	0.0024844606
2	0xbb64a433	-0.003488791
3	0xbb81f523	-0.00396599
4	0xbb97f410	-0.004637249
5	0x3b6d789e	0.0036235224
6	0x3c26a2bd	0.010170636
7	0xbc089ac7	-0.008337683
8	0xbc5b60a4	-0.01338974
9	0xbb0c1f39	-0.0021380915

exp_avg_sq f4 [10]
0	0x36e50ff4	6.826589e-06
1	0x37091a98	8.172028e-06
2	0x37586a45	1.2899346e-05
3	0x3699e074	4.585885e-06
4	0x35f869f6	1.8508279e-06
5	0x3510aab2	5.3892575e-07
6	0x36bac0a0	5.5656565e-06
7	0x36d9726e	6.4804253e-06
8	0x37d6ff5b	2.5629697e-05
9	0x359a893c	1.1513835e-06

exp_avg f4 [5, 10]
0	0x3b8ea569	0.0043532145
1	0x3c185940	0.009298623
2	0xba9fb826	-0.0012185618
3	0x3c17aaa9	0.009256997
4	0xbc1c6321	-0.009545119
5	0x3c0f9894	0.008764405
6	0x3b7ee7ea	0.0038895556
7	0xbbd88357	-0.006607454
8	0xbc0e90ca	-0.008701513
9	0xbb75315a	-0.003741345
10	0xbc1e8d77	-0.009677283
11	0x3b9492c6	0.0045340983
12	0x3a326a5d	0.00068060105
13	0x3c177d8c	0.009246241
14	0x3b955011	0.004556664
15	0x3b0290e8	0.0019922797
16	0x3c0c15da	0.008550132
17	0xbb995643	-0.0046794727
18	0x3ba64d20	0.005075112
19	0xbc2515e6	-0.010076022
20	0xbc3199e3	-0.010839912
21	0x3ab27ce5	0.0013617544
22	0xba322ac1	-0.0006796532
23	0x3beff9c4	0.0073234756
24	0x3bc23073	0.0059261858
25	0xbb76d992	-0.0037666303
26	0x3c192a5c	0.009348478
27	0xbb93d76c	-0.0045117643
28	0x3c11fe11	0.008910672
29	0xbc19749e	-0.009366183
30	0xba14c30e	-0.00056748174
31	0x3ad895d8	0.0016524149
32	0x3b8fc7cf	0.0043878327
33	0x3bcd4606	0.006264451
34	0x3b86b828	0.0041113086
35	0x3b6dc9fe	0.0036283727
36	0x39ef0252	0.0004558736
37	0xbb9536d4	-0.004553655
38	0x3a643681	0.00087056315
39	0xbb248912	-0.0025106114
40	0x3b615f85	0.003438921
41	0x3b3d83a7	0.0028917582
42	0x3a513e4d	0.0007982001
43	0xbb1e25b1	-0.0024131353
44	0x39896598	0.0002620637
45	0x3a922d82	0.0011152478
46	0xbb8416e4	-0.004031049
47	0xb91686e4	-0.00014355365
48	0xba5c174f	-0.0008395807
49	0xb8bef88a	-9.1062e-05

exp_avg_sq f4 [5, 10]
0	0x360994f8	2.0501302e-06
1	0x36a1bed0	4.8203874e-06
2	0x34127fb3	1.3643766e-07
3	0x36bfb382	5.713141e-06
4	0x36ab4599	5.1042994e-06
5	0x368149a9	3.8530748e-06
6	0x35bd47f9	1.4102544e-06
7	0x36622cf1	3.3702784e-06
8	0x3681cdfa	3.8684784e-06
9	0x35a029d3	1.1933101e-06
10	0x36eafe24	7.0033293e-06
11	0x36754923	3.6550416e-06
12	0x3511548a	5.413973e-07
13	0x3721be74	9.640691e-06
14	0x3643ed89	2.9195528e-06
15	0x35b4c5c6	1.3468605e-06
16	0x370e75ee	8.491317e-06
17	0x3609e280	2.0546431e-06
18	0x3673cc91	3.6328895e-06
19	0x374d1d33	1.2225751e-05
20	0x36c63b9e	5.9078e-06
21	0x36f3015e	7.2421235e-06
22	0x35556fcc	7.951137e-07
23	0x37419ac6	1.1539732e-05
24	0x361b163c	2.3109742e-06
25	0x363455cb	2.6872028e-06
26	0x36e2ba02	6.756979e-06
27	0x36ad32f1	5.161732e-06
28	0x3690afd5	4.312004e-06
29	0x3751004d	1.2457441e-05
30	0x362e08a8	2.593306e-06
31	0x361fa985	2.379152e-06
32	0x359245ca	1.0898159e-06
33	0x36c1c351	5.774586e-06
34	0x367ed17d	3.7970888e-06
35	0x365ba55e	3.27298e-06
36	0x364ce7fd	3.0533404e-06
37	0x35e47f03	1.7024289e-06
38	0x367a3aea	3.7287195e-06
39	0x3650e1ec	3.112592e-06
40	0x370fa11b	8.5609745e-06
41	0x37440df1	1.1685756e-05
42	0x35446801	7.3167035e-07
43	0x36630a6f	3.383171e-06
44	0x3717e8a0	9.054464e-06
45	0x36a5dba7	4.942954e-06
46	0x373257cf	1.0630071e-05
47	0x37338ae5	1.070157e-05
48	0x36e7a7c4	6.903867e-06
49	0x3615155a	2.2215158e-06

exp_avg f4 [5]
0	0xbd1b89a7	-0.037973072
1	0xbc44892b	-0.011995594
2	0xbb95319e	-0.004553034
3	0xbbf52f73	-0.007482463
4	0x3b71e2c3	0.0036908842

exp_avg_sq f4 [5]
0	0x38ab8ed4	8.180519e-05
1	0x3806100f	3.1963045e-05
2	0x381bef5d	3.7177804e-05
3	0x37f45616	2.9127154e-05
4	0x388516e5	6.346199e-05

exp_avg f4 [31, 5]
0	0xbc2ff8b4	-0.010740448
1	0xbbd69011	-0.006547936
2	0xbc21fc2e	-0.0098867845
3	0x3b990360	0.004669592
4	0x3b586cb1	0.003302377
5	0xbc4ce97f	-0.012506842
6	0xbc005d95	-0.007834812
7	0xbc1c6351	-0.009545163
8	0x3b326150	0.0027218647
9	0x3b28bdaf	0.0025747826
10	0xbc4d17f1	-0.012517915
11	0xbbfc911b	-0.0077077276
12	0xbc3b8d3e	-0.011447249
13	0x3ba94a22	0.005166308
14	0x3b729b67	0.0037018897
15	0xbbf28101	-0.0074006324
16	0xbb9b64f7	-0.0047422606
17	0xbbe3ad33	-0.006948137
18	0x3b53c158	0.0032311287
19	0x3af803ca	0.0018922028
20	0x3b712302	0.0036794548
21	0x3ac37293	0.0014911465
22	0x3b61aff8	0.003443716
23	0xbad0fc39	-0.0015944309
24	0x3a5d2843	0.00084364804
25	0x3a80ab8c	0.000981675
26	0x3a97d5b5	0.0011584075
27	0x3a6b14a1	0.00089676125
28	0x393ebc53	0.00018189968
29	0x3a2eab56	0.0006663104
30	0xbb9fc1cf	-0.0048753987
31	0xbb0bc9e9	-0.0021330065
32	0xbb8a363f	-0.0042178924
33	0x3b0f4b3e	0.0021864916
34	0x3abc2937	0.0014355545
35	0xbb8603c0	-0.0040898025
36	0xbb073e30	-0.0020636432
37	0xbb68d88a	-0.0035529458
38	0x3b0cda27	0.0021492334
39	0x3ae45371	0.0017419887
40	0x3bb88a80	0.005631745
41	0x3b594d59	0.0033157675
42	0x3bc9a6eb	0.0061539314
43	0xbb27bcb6	-0.0025594658
44	0x398b3713	0.0002655318
45	0x39846dbc	0.0002525876
46	0x39820ff1	0.0002480741
47	0x3a05d95e	0.00051059376
48	0xba64d68c	-0.000872948
49	0xb8308849	-4.2088595e-05
50	0xbc3c29d9	-0.011484587
51	0xbbff80e7	-0.007797349
52	0xbc29009d	-0.010315088
53	0x3b8151f1	0.0039465358
54	0x3b11c67f	0.0022243557
55	0xbba7eab9	-0.0051244167
56	0xbb6088ec	-0.00342613
57	0xbb5c5d1d	-0.0033624836
58	0x3a402e2e	0.00073311
59	0x3927dee9	0.00016009402
60	0xbbff07d7	-0.007782917
61	0xbba98774	-0.005173618
62	0xbbe7ad4e	-0.00707022
63	0x3b3a26fe	0.0028404589
64	0x3aa91c1e	0.0012902056
65	0xbc40cf40	-0.011768162
66	0xbbfbb686	-0.0076816706
67	0xbc2d3fdb	-0.010574306
68	0x3b8a3c3e	0.004218607
69	0x3b20a81b	0.0024514261
70	0x3b8dc63c	0.00432661
71	0x3a8881aa	0.001041462
72	0x3ba4cf8a	0.0050296234
73	0xbb4a887a	-0.00309041
74	0xbb374706	-0.0027965917
75	0xbc4afbf9	-0.0123891765
76	0xbc03e0f6	-0.00804924
77	0xbc35c441	-0.011094154
78	0x3b95e3e5	0.0045742863
79	0x3b6c5990	0.0036064126
80	0xb933d0e3	-0.00017148587
81	0x388e3ff7	6.783002e-05
82	0xba88c117	-0.0010433522
83	0x392319b6	0.0001555447
84	0xba3847dc	-0.0007029751
85	0xbb9c9a66	-0.004779148
86	0xbb628a13	-0.0034567162
87	0xbba0ecc0	-0.0049110353
88	0x3af6e34d	0.0018836051
89	0x3aaaf45e	0.0013042798
90	0xbc24309d	-0.010021356
91	0xbbba20ce	-0.00568018
92	0xbbd8fe25	-0.0066220933
93	0x3b5f5095	0.003407513
94	0x3b7cb08f	0.0038557386
95	0xbbec79d6	-0.0072166724
96	0xbba2ef29	-0.004972358
97	0xbbd6e09b	-0.006557537
98	0x3b0e6c00	0.0021731853
99	0x3a85ac41	0.001019843
100	0xbc60ce68	-0.013721086
101	0xbc084ee9	-0.008319595
102	0xbc4c43c1	-0.012467326
103	0x3baff1fa	0.005369422
104	0x3b7e75bd	0.0038827502
105	0xbc646669	-0.013940432
106	0xbc03b9f7	-0.008039943
107	0xbc2c1fd7	-0.010505638
108	0x3b56e087	0.0032787637
109	0x3b500773	0.0031742721
110	0xbc628549	-0.013825723
111	0xbc07c734	-0.00828724
112	0xbc4d1670	-0.012517557
113	0x3bb206c9	0.0054329378
114	0x3b82ee79	0.0039957133
115	0xbc0a99c7	-0.008459515
116	0xbba60e50	-0.005067624
117	0xbbfb223a	-0.0076639922
118	0x3b5be5fd	0.0033553832
119	0x3b12369c	0.0022310382
120	0xbb7abe8a	-0.0038260543
121	0xbb332817	-0.0027337128
122	0xbb2267dd	-0.0024781146
123	0x398a9014	0.00026428758
124	0x3b02c97a	0.0019956515
125	0xbb1440ee	-0.002262171
126	0x39a3c2a7	0.0003123481
127	0xbabb4a58	-0.0014289124
128	0x3ac144c0	0.001474522
129	0x3b0ea3da	0.0021765144
130	0xbc46d70d	-0.012136233
131	0xbbc7442b	-0.0060811243
132	0xbc305cca	-0.01076431
133	0x3b9a636a	0.004711558
134	0x3b80fca6	0.003936368
135	0xbc366cb4	-0.011134315
136	0xbbc89c98	-0.006122183
137	0xbc21b67b	-0.009870167
138	0x3b90195f	0.0043975557
139	0x3b849d84	0.0040470976
140	0xbbe50297	-0.006988834
141	0xbb204676	-0.002445606
142	0xbb89616a	-0.004192521
143	0x3b1df3b1	0.002410155
144	0x3ba2b68e	0.00496561
145	0xbc1e4f3f	-0.009662448
146	0xbba38555	-0.0049902597
147	0xbc01e757	-0.007928691
148	0x3b3ba9cd	0.0028635145
149	0x3b57889e	0.0032887827
150	0x3b10bea4	0.0022086287
151	0xba8c055e	-0.0010682752
152	0x3a07f7e9	0.0005186783
153	0xba807efc	-0.0009803469
154	0x3af13d2e	0.0018405074

exp_avg_sq f4 [31, 5]
0	0x369b8634	4.6349833e-06
1	0x35ec4f0a	1.7606374e-06
2	0x368d71f0	4.2153915e-06
3	0x35b0389c	1.3129497e-06
4	0x3549fcd3	7.524624e-07
5	0x36ebf4cd	7.0320443e-06
6	0x364264ec	2.8966997e-06
7	0x36ab57da	5.1064244e-06
8	0x35767bdf	9.18224e-07
9	0x354a6bf4	7.5407957e-07
10	0x36c59df0	5.889444e-06
11	0x3619d54e	2.2922936e-06
12	0x36b41ecc	5.3680033e-06
13	0x35c84f88	1.4924308e-06
14	0x3572586e	9.028071e-07
15	0x3637c890	2.7385868e-06
16	0x359e80c6	1.1809395e-06
17	0x362e8efe	2.6011253e-06
18	0x35485f92	7.464488e-07
19	0x34c4bcd1	3.6645227e-07
20	0x36364a8f	2.7163512e-06
21	0x35b4514e	1.3434708e-06
22	0x3617b178	2.2604054e-06
23	0x34bee102	3.5553973e-07
24	0x34fa8331	4.6661583e-07
25	0x36011e0e	1.9239992e-06
26	0x35684c8c	8.6538125e-07
27	0x35d77ce1	1.6055093e-06
28	0x347f6b7b	2.3787827e-07
29	0x34f7d939	4.6165385e-07
30	0x3632aeb9	2.662577e-06
31	0x354af8b8	7.56128e-07
32	0x360f3c12	2.1343626e-06
33	0x351ea241	5.90957e-07
34	0x353d18e4	7.044421e-07
35	0x36206a49	2.3903724e-06
36	0x3544c32e	7.3299714e-07
37	0x35fedb7c	1.8988353e-06
38	0x35274284	6.230914e-07
39	0x353d3bca	7.049499e-07
40	0x3634ec9c	2.6959815e-06
41	0x35453d6a	7.347759e-07
42	0x35fd91b6	1.8892376e-06
43	0x351e3eaf	5.8950803e-07
44	0x349b6f24	2.8951865e-07
45	0x362f2058	2.6095859e-06
46	0x35bf05be	1.423228e-06
47	0x362d1beb	2.579526e-06
48	0x34bda344	3.5322785e-07
49	0x34fb4e0a	4.6809174e-07
50	0x36c00d86	5.7236202e-06
51	0x3647a5e5	2.9749874e-06
52	0x36b6f500	5.4525444e-06
53	0x356558be	8.5438285e-07
54	0x351db0df	5.874444e-07
55	0x35ad9680	1.2933306e-06
56	0x355d999b	8.255244e-07
57	0x358d05e0	1.0507028e-06
58	0x34359779	1.6912044e-07
59	0x34056830	1.2424493e-07
60	0x36745d1c	3.641303e-06
61	0x35f5db8c	1.8317819e-06
62	0x367138df	3.5944902e-06
63	0x352ebccb	6.509478e-07
64	0x34e66b18	4.291876e-07
65	0x36b78672	5.4694765e-06
66	0x362addbe	2.5461045e-06
67	0x36aac427	5.08923e-06
68	0x357a1c4d	9.317344e-07
69	0x35163456	5.5955513e-07
70	0x35a071db	1.1954065e-06
71	0x3510c197	5.392589e-07
72	0x35a45422	1.2243438e-06
73	0x351c4c3e	5.8225476e-07
74	0x34a43302	3.0584494e-07
75	0x36e281ac	6.7504207e-06
76	0x365be0cf	3.2764399e-06
77	0x36d0f79f	6.22771e-06
78	0x358e6627	1.0609555e-06
79	0x359b38f0	1.1564971e-06
80	0x35f4c53d	1.823682e-06
81	0x35494bf7	7.498888e-07
82	0x356baed4	8.779873e-07
83	0x3518df8e	5.694973e-07
84	0x34d9846a	4.0515744e-07
85	0x3685cd61	3.987618e-06
86	0x3600e5a2	1.920715e-06
87	0x365b466f	3.267454e-06
88	0x3517c6d6	5.654123e-07
89	0x3568be7c	8.6703926e-07
90	0x36bd36fb	5.6390395e-06
91	0x35c8ca82	1.4960099e-06
92	0x361a2f1e	2.2975214e-06
93	0x3562bd38	8.446691e-07
94	0x35da2968	1.6254317e-06
95	0x3644e919	2.9341957e-06
96	0x35e5aeb1	1.7112671e-06
97	0x364e87cd	3.0775439e-06
98	0x34e4d7c4	4.26253e-07
99	0x34b6e972	3.4069996e-07
100	0x36f1bebe	7.204565e-06
101	0x363cdffc	2.814456e-06
102	0x36dbe048	6.5528184e-06
103	0x35d69721	1.5988227e-06
104	0x35843c35	9.852289e-07
105	0x37086e87	8.131966e-06
106	0x3646c7ab	2.9620521e-06
107	0x36bf01d2	5.6924555e-06
108	0x356a5c4d	8.730611e-07
109	0x356602e9	8.568591e-07
110	0x36fc341e	7.5162525e-06
111	0x363eb60c	2.8418171e-06
112	0x36e369bc	6.7774363e-06
113	0x35e49062	1.7029345e-06
114	0x35940531	1.102837e-06
115	0x36650fbb	3.4132815e-06
116	0x35af2021	1.3047867e-06
117	0x364e0cd5	3.0703861e-06
118	0x3551e3b3	7.8189913e-07
119	0x350571e8	4.9712116e-07
120	0x3634175c	2.6835687e-06
121	0x35c5e31a	1.4743739e-06
122	0x362359c5	2.4341145e-06
123	0x34a99b6b	3.1591784e-07
124	0x3538b61b	6.881034e-07
125	0x35d21c55	1.5654465e-06
126	0x350f0706	5.328187e-07
127	0x35c135a0	1.4395227e-06
128	0x34c667b0	3.6955817e-07
129	0x35272df1	6.22792e-07
130	0x36e54d51	6.8337326e-06
131	0x36091477	2.0426503e-06
132	0x36cba17b	6.0686702e-06
133	0x35b43e51	1.3429182e-06
134	0x35bf9c72	1.427614e-06
135	0x36e1adc9	6.725754e-06
136	0x361bff96	2.324557e-06
137	0x36c4c186	5.8637843e-06
138	0x35bef078	1.4226089e-06
139	0x35cfbf5f	1.5478398e-06
140	0x3623aaef	2.438839e-06
141	0x34d7bdb5	4.01849e-07
142	0x35809ebf	9.582944e-07
143	0x34ec497e	4.4011898e-07
144	0x35b47644	1.3445465e-06
145	0x36bf237e	5.6963754e-06
146	0x3617860a	2.2578774e-06
147	0x36b36b4b	5.3471063e-06
148	0x3542851b	7.2464326e-07
149	0x359a153e	1.1480076e-06
150	0x362535ad	2.461816e-06
151	0x34effd78	4.4701642e-07
152	0x35bf7af8	1.4266398e-06
153	0x352af39d	6.368444e-07
154	0x35b42c78	1.3423987e-06

exp_avg f4 [31]
0	0xbd0c92bc	-0.034319624
1	0xbd0b3aee	-0.033991747
2	0xbd21b599	-0.039479826
3	0xbcc29597	-0.02375297
4	0x3c2dcbf6	0.01060771
5	0x3b0391f8	0.0020076018
6	0xbc6ad720	-0.014333516
7	0xbc5ed736	-0.013601115
8	0x3c9952a4	0.018716164
9	0x3b27d6e1	0.0025610256
10	0xbd10fac8	-0.035395414
11	0xbc593bdb	-0.0132589
12	0xbcc7c027	-0.024383618
13	0xbd153943	-0.036431562
14	0x3c898409	0.016786592
15	0xbd18b1af	-0.037278827
16	0x3b393c74	0.0028264793
17	0xbc56b5a0	-0.013104826
18	0xbce97f7c	-0.028503172
19	0xbca1f6f4	-0.019771077
20	0xbd2fdd26	-0.042935513
21	0xbd1db072	-0.03849835
22	0xbd31fe27	-0.04345527
23	0xbcd9d968	-0.026592925
24	0xbc291311	-0.010319487
25	0xbc04a568	-0.008096077
26	0xbd139495	-0.03603037
27	0xbd0d62a7	-0.03451791
28	0xbca4cb53	-0.020116484
29	0xbce5ca65	-0.02805061
30	0x3bddce98	0.0067690127
