Cancer-senn/trial1/models/cancer/grad3_Hinput_Thdummy_Reg1e-02_LR0.001/model_best.pth.tar (torch_old, 36110 bytes, 34 tensors)

parametrizer.linear1.weight f4 [10, 30]
00000000: eaaa d4bd a27c e3bd 7109 2fbe 76ce 6f3c
00000010: a50e 543c 24d7 f5bd 5c0b 99bd 972f 403d
00000020: ed20 9a3d 7a16 253d 3d55 9a3c 58e5 873d
00000030: aebd 31be 972a d13d 52b1 c8bd e0a3 673d
00000040: 911e 8f3d 33f1 223e 05d8 d8bd e1c1 be3c
00000050: cb0b 2dbe 7ec0 073e b6b0 a0bd 3fc1 e73d
00000060: 893b 573d c4c2 05be 820e 373d bd87 30be
00000070: fd64 99bd 07a2 97bd 2b85 523e 2f9c d0bd
00000080: bf8e 4f3e 3d12 7ebc f7fd 64bd fc93 1a3c
00000090: 5d81 babd d19b 863a f61d 013d 60e3 07be
000000a0: 72f8 c23c bb3f 383c 1fb3 57bd 11e3 533e
000000b0: af4f 193e 9155 953d f8fd a9bd a743 a13d
000000c0: 563b a8bd a3f0 fe3d 0faf d4bc 0dfc 123e
000000d0: 9a6e 0f3c d0be 0a3c c236 853d 652c 223e
000000e0: ec00 36bc ac78 273c a245 cc3d e49f 4f3e
000000f0: 4cd7 40be 2626 173e 8dee 053e 9d03 94bd
00000100: 73bb 0f3e e5f9 fbbd 982a b03d f143 aa3d
00000110: ca0b 503d 2006 cebd f79a d53d 4eda 853d
00000120: 16ee e13c be9c dbbc bf04 c33c eb61 4fbe
00000130: 7b02 f0bd c5a3 5e3d cda2 3cbe 41cd 703d
00000140: 8229 19bc 383f 3b39 78f6 59be 7d26 5c3d
00000150: 267f 34be 81e8 173e afef 683d 0e1f 14be
00000160: 753e 043d 08ea 8b3d d622 14be 450a d2bd
00000170: 0796 133e f0a0 2c3e 07ce 893c ab31 0abd
00000180: 1636 fd3d f9d4 acbd 672a 1d3e 3737 d5bd
00000190: 0aa2 cfbd 017c 923c 21c9 b83c 98fa c1bc
000001a0: c28e 1ebe 08f0 d13d dfd2 02be a856 083d
000001b0: b5c4 f2bd f659 d63d 830e 5e3d 4414 323d
000001c0: 88a5 bf3c 5a0d 19be 1d23 303c 3746 f8bd
000001d0: c92c f83d f5e4 e43d 5b85 833d dd13 a93d
000001e0: 6c9d 233e c0e5 7b3d 1de0 b63c db10 c0bd
000001f0: e5d1 a8bb c0b8 9c3c cca0 53bb b29b f13d
00000200: 3621 f23d 2856 19be 9bb9 98bd 2592 ea3b
00000210: 2c83 e73d 0c44 c3bd 9934 4dbd 9bbc 833c
00000220: 174b 24be 1c61 2b3d 07ef 13bd 3aff d0bd
00000230: 28e2 4b3b 6d4d a2bc 2f90 b73d 122e 6d3d
00000240: 98c8 d1bd 2b9b 7f3a 1c4c ca3d 7f09 463d
00000250: 7476 8ebd 71bf f43d 0bd0 a3bd ec23 c0ba
00000260: 952b f93d 73e7 1bbe 36df 57bd 913c 90bd
00000270: 3f63 4d3e 1b46 cd3d 35bd d2bd 30bc e5bc
00000280: 3f4c cfbd 75fb 773d 2cf0 913d 529f 973c
00000290: c8c7 03be b4e5 36bd 6659 253e dbd0 b0bd
000002a0: cd55 2ebe 4698 1b3d 79e0 1cbe 4a3e 1a3e
000002b0: 1e0d 703d ff12 073e 4efe 583d edba 053e
000002c0: 7a77 ddbd bc47 8d3d 9f35 ce3d aba4 e83d
000002d0: 9c88 a6bc 1b37 283d 67f3 b0bd 4579 89bd
000002e0: d2a1 ebbd e480 1e3e 84a3 02bc 748c f63d
000002f0: 199d 813d c8ca 823d 9030 15be 3767 233e
00000300: cdb7 023e 1ad5 023e 7358 1a3e 4c67 aabd
00000310: 7ef4 fb3d 07c0 0e3e a114 b1bd 971c 2fbe
00000320: 6eac 28be 65d5 b03d 31b0 fa3d 5d1f 18be
00000330: fa4e 27bd f0f9 443d c7fb 2fbe 6d51 0dbd
00000340: 67cf dcbd 3c16 2a3e 0638 40be 176d b83d
00000350: 6e94 a43d 1d0f 7f3c f5de 83bd a3bf 6f3c
00000360: 1602 06be 6f11 8dbd 7ad9 debd 83dd 533d
00000370: 97c1 d23d 4777 cfbd 2cb1 ba3c 50d2 363d
00000380: 1787 22be 0d54 93bd da6c 3fbe a621 ce3b
00000390: 1ba5 ce3d 4faf 9abd 4a9c 843d 8bca d8bb
000003a0: 69c0 943c 6da8 bfbd 6238 64bb 0225 c83d
000003b0: c2af f63c 56c2 32be 05bb 16be efbf 253e
000003c0: 2072 503e e7c9 1b3d 6d5b 583e a1e3 453d
000003d0: 5e78 a33d a6f2 353e 0e82 c83c c5b4 633e
000003e0: 61ac c8bd eabc 933d fdab db3d 82ab a03a
000003f0: a872 ab3d d966 493e 6cab d03d 3dfb 8e3d
-0.10384162 -0.11107756 -0.17093445 0.0146366265 0.012942945 -0.120039254 -0.0747287 0.046920385
0.07525811 0.04030464 0.018839473 0.06635541 -0.17357513 0.102132015 -0.09799446 0.056552768
0.06988252 0.15912323 -0.105880775 0.023285808 -0.1689903 0.13257024 -0.07846205 0.11316156
0.05254701 -0.13062578 0.04469157 -0.1723928 -0.07489965 -0.07403951 0.20558612 -0.1018604
0.20269297 -0.015507278 -0.055906262 0.009434696 -0.09106705 0.0010269826 0.031522714 -0.1327033
0.023800109 0.011245663 -0.052661058 0.20692088 0.14971803 0.07291711 -0.08300394 0.07874232
-0.082144424 0.124482416 -0.02596238 0.14353962 0.008754397 0.008468345 0.06504585 0.15837248
-0.011108618 0.0102216415 0.09974219 0.20275837 -0.18832129 0.14760646 0.13079281 -0.07227252
0.1403635 -0.12303523 0.08601874 0.0831374 0.050792493 -0.10059762 0.10429948 0.06535779
0.027579349 -0.026808139 0.023805974 -0.20252196 -0.11719223 0.0543554 -0.18421479 0.058789495
-0.009348275 0.0001785726 -0.21285427 0.053747643 -0.17626628 0.14834787 0.056869205 -0.14464971
0.032286126 0.06831747 -0.14466414 -0.10255865 0.144127 0.16858268 0.016821874 -0.033738773
0.12363832 -0.08439059 0.15348206 -0.10410922 -0.101383284 0.017881395 0.022556843 -0.023679063
-0.15484145 0.102508605 -0.12775753 0.033285767 -0.11853925 0.104663774 0.05421306 0.043476358
0.023394361 -0.149465 0.010750559 -0.121227674 0.12117917 0.111764826 0.0642192 0.08255742
0.1597802 0.061498404 0.022323662 -0.09378215 -0.0051519745 0.019131064 -0.0032291887 0.11797275
0.11822741 -0.14974272 -0.074572764 0.007158535 0.11304316 -0.09534463 -0.05009899 0.016081145
-0.1604427 0.041840658 -0.036116626 -0.102049306 0.0031110141 -0.01981231 0.08963048 0.057905264
-0.10243338 0.00097506 0.09877798 0.0483489 -0.06956187 0.11950577 -0.079986654 -0.0014659143
0.12166516 -0.1522501 -0.052703105 -0.07042802 0.2005739 0.10023137 -0.102899946 -0.028043836
-0.10121965 0.060542542 0.07125887 0.018508587 -0.12869179 -0.044652656 0.16147384 -0.08633586
-0.17024918 0.037987016 -0.15320005 0.15062824 0.05860626 0.1319084 0.0529769 0.13059588
-0.10813804 0.06898448 0.10068821 0.11359533 -0.020328812 0.041068178 -0.08640175 -0.067125835
-0.11505474 0.15478855 -0.0079735555 0.12038508 0.06328792 0.06386334 -0.14569306 0.15957342
0.12765427 0.12776604 0.15072803 -0.083204836 0.123024926 0.1394044 -0.08646513 -0.1710075
-0.16472027 0.08634452 0.12240637 -0.14855714 -0.040846802 0.04808992 -0.17185889 -0.03450148
-0.10781746 0.16610044 -0.18771371 0.09005182 0.08036123 0.015567568 -0.0643901 0.014633092
-0.13086733 -0.06888091 -0.10881324 0.051724922 0.102908306 -0.10130172 0.02278956 0.044634163
-0.15871845 -0.07193766 -0.18693867 0.0062906323 0.10090085 -0.07552969 0.06475122 -0.006615942
0.018158155 -0.093582965 -0.0034823646 0.09772684 0.030113105 -0.17456946 -0.1471978 0.16186498
0.20356035 0.038034346 0.21128626 0.048312787 0.079819426 0.17768344 0.024476077 0.22236927
-0.09798504 0.07213767 0.107261635 0.0012258145 0.08371478 0.1966814 0.10188946 0.06981514

parametrizer.linear1.bias f4 [10]
00000000: 1437 56bd 23a6 02bd f7f0 3abe 0f75 06be
00000010: a599 0b3e 0035 163e 05b7 0cbe fbff 823d
00000020: 6989 1dbe 1921 99bd
-0.05229862 -0.03189672 -0.18255983 -0.13130592 0.1363283 0.14668655 -0.13741691 0.06396481
-0.15384449 -0.07477016

parametrizer.linear2.weight f4 [10, 10]
00000000: d014 013e 002e 973e d9f1 aa3e 0691 923e
00000010: 7420 5cbe ed4b 633e a75d 943e a392 21be
00000020: dcb0 8abe 2711 83be ddcc 0ebd 96fb 6fbe
00000030: 0356 2cbd 2d8d 4ebd 9bf4 273e 5f92 6ebe
00000040: 90fa 1b3e 4a28 a53e 6923 813c f99d a43e
00000050: 46f6 91be cfe0 883e 5617 55be 1ebf 48be
00000060: 5385 d83c 3c1c e53d c742 4cbe dfb9 60bd
00000070: 5c06 403e 284f b8bb 1c5b 8e3e 18b9 1cbe
00000080: c4f8 d23d 05a1 93be 6ff4 40be 76a3 06be
00000090: 68ed 193e 0875 d6bd 5a1c 8cbd 48b0 e43d
000000a0: 349e 7f3e 9d01 483e 1e1f 1b3e a182 983e
000000b0: 43f1 81be 37ec 063d 33c6 c4bd b293 483d
000000c0: aa65 1d3d 52e8 933d 9cf4 933e ffa4 1a3e
000000d0: 621d 933e 7c3e 3ebe 1001 303e e86a 8a3e
000000e0: 011b a1bd 4710 88be e2c3 a4be 6fa0 4cbe
000000f0: 0d22 b9bc 951e 8a3e edd0 91be 5440 1ebe
00000100: 7099 39bd bd7a 99bd 1ef8 a4bc d6fd 3f3e
00000110: 79e7 88be 205d df3d b960 a4bd e0c5 8a3e
00000120: de14 d3bd 89fa 343e c52c 8f3d 07d7 c2bd
00000130: 4124 773e a14d 8abd 2cda 533e 72a4 783d
00000140: 44d0 c23d bf10 a9bd 7db1 893e f896 00be
00000150: 6ee9 22be a0e6 1d3e 3a52 12be 0c3b 01be
00000160: d72b 92be 87b3 c8bc 047e 82be a4d3 8dbe
00000170: da3a 74be 8164 51bd adf8 99bd 4d9c 473e
00000180: cfe2 33be dc64 943e 1a17 ecbd 65d1 27be
0.12605596 0.29527283 0.3338764 0.2862627 -0.21496755 0.22196932 0.289777 -0.15778594
-0.27088058 -0.25599024 -0.03486334 -0.23435816 -0.042074215 -0.050427604 0.16401903 -0.23298024
0.15232301 0.322573 0.015763955 0.32151774 -0.28508204 0.26734015 -0.20809683 -0.19604155
0.026430761 0.11187026 -0.19947349 -0.05486476 0.18752426 -0.0056246705 0.27803886 -0.15304983
0.103013545 -0.28833786 -0.18843244 -0.13148293 0.1503197 -0.10471541 -0.06841345 0.111664355
0.24962693 0.19531865 0.15148589 0.29787162 -0.2537938 0.032940116 -0.09608116 0.04896898
0.038427033 0.07222046 0.2889756 0.15102004 0.28733355 -0.18578523 0.17187905 0.27034688
-0.07866479 -0.2657492 -0.32180697 -0.19983076 -0.022599244 0.26976457 -0.2847971 -0.15454227
-0.045312345 -0.074941136 -0.020137843 0.18749174 -0.267391 0.10906434 -0.08026261 0.27104092
-0.103067145 0.17673697 0.06990961 -0.095136695 0.24134924 -0.06753088 0.20688695 0.060703702
0.0951238 -0.08255147 0.26893225 -0.1255759 -0.15909359 0.15420008 -0.1428918 -0.12620181
-0.28549072 -0.024499668 -0.25486767 -0.2770053 -0.23850575 -0.05112124 -0.07518134 0.19493218
-0.1756699 0.289832 -0.11527844 -0.16388471

parametrizer.linear2.bias f4 [10]
00000000: 055b 12bd c975 9c3d e0a1 42be b4e0 763e
00000010: db54 bdbe 213d 9b3d 06fd 523e 119c 6dbe
00000020: 1321 333e e907 8f3e
-0.035731334 0.07639653 -0.19007063 0.24109155 -0.36978802 0.07580019 0.20604333 -0.23204066
0.17493086 0.27935722

parametrizer.linear3.weight f4 [5, 10]
00000000: 15a3 2d3c 227b 913e cd33 8fbe b742 483d
00000010: 11bb 973e b525 0c3d 8cf6 dabc 15bf 2abe
00000020: 4a0e 253e 4468 163e b7d2 893d 1038 72be
00000030: 1326 94bd 0089 3f3e a29c 163e 0540 db3c
00000040: af75 bdbd f6fc 523e e24e 1abe 34c3 5abe
00000050: ac19 8fbe 50aa 1fbe 9b21 273e 82c4 efbc
00000060: 1727 47be 9cc0 00be b753 053e 2c9c 84be
00000070: b826 c23e 71f1 f23c ed6e a83d f3f9 8bbd
00000080: feee 143e 67a2 3dbe ce98 bbbe 77e5 ad3e
00000090: 178d be3d 46ed 543e 1dce 223e ba63 743e
000000a0: a913 b3bc a994 3ebd d8eb 13bd cf49 94be
000000b0: a27f 313d 78ac c8bd ea47 693c 63ad 513e
000000c0: 76e3 273e 0c1b 4c3c
0.010597964 0.28414255 -0.27969208 0.04889175 0.29634908 0.034215648 -0.02672889 -0.16674455
0.16118732 0.14688212 0.06729644 -0.23654199 -0.072338246 0.18704605 0.14708188 0.026763925
-0.09250962 0.2060431 -0.15069154 -0.21363527 -0.27949274 -0.15592313 0.16321413 -0.029268507
-0.19448505 -0.12573475 0.13020216 -0.259004 0.37920165 0.029656144 0.082242824 -0.068347834
0.14544293 -0.18518983 -0.36640018 0.3396413 0.093042545 0.20793638 0.15898938 0.23866168
-0.02185996 -0.046528492 -0.03611359 -0.2896256 0.04333461 -0.09798521 0.014238337 0.20476298
0.16395363 0.01245762

parametrizer.linear3.bias f4 [5]
00000000: 1002 67bd 99e0 bfbd be24 9f3e 191a aa3e
00000010: d588 933e
-0.05639845 -0.093690105 0.3108272 0.33223036 0.28815332

parametrizer.linear4.weight f4 [31, 5]
00000000: 8277 763e 69fc 7b3e 035f 36bd f028 c9bd
00000010: 6119 9abe 1b8a d63d 93f0 853d 75b5 d53e
00000020: 457c db3d 5d99 fa3e 6308 a0be e8a9 183e
00000030: cc38 003f f32f e33e af20 b53e 7ea6 a6bd
00000040: 8141 f3be 46c6 233e 18a4 ea3e ac98 3cbe
00000050: 40e3 ea3e 554f 8ebd 1371 c03d 182a 633e
00000060: 3cc2 ec3e cddd b7be 7301 353e 0b80 283e
00000070: ee20 bebe a4fc b0be 9317 c6be efa6 373e
00000080: 0d65 a43d c772 b7be 7e08 b7be 8155 0e3e
00000090: ae4e f5bc ad0c c6be 2db1 883d b3c0 523e
000000a0: beb4 afbd d1b7 d6be 00a8 243e 1317 773d
000000b0: af5d 6cbd f2a7 78bd f6a4 9abe e1ff 99be
000000c0: ef4f b33e 7089 55be 4fed ba3d f3ea 9abe
000000d0: 0025 43be 33d7 923e 75a0 4c3e 98e3 b7be
000000e0: 71a8 8cbe d25e ddbe 91fb 9ebd 9f72 1cbe
000000f0: 4220 f6bd 5d97 01bf 7818 d23e 8d07 c3bd
00000100: 1c68 273c ed1a 78be cc89 aabc 5799 513e
00000110: 7d77 d73d 0ffd 2f3e 5a7b 063e 610d cdbd
00000120: 79ab 2a3e be07 c53e 9dec a13d 6cbc cfbd
00000130: 6339 a93d fa21 afbd 5294 bcbe de38 3cb9
00000140: 42cd 803e 3037 dfbe a73f 1b3e 32bd b73d
00000150: 8345 973e 1a94 d8bd ed97 f33d 20f4 913e
00000160: 6600 a83d eb93 85be a16d b23e aa8a 403e
00000170: ffbd 6a3e d48f 9b3e 61b0 5c3e f092 e7bc
00000180: 1e6a 5abe 94dc 77be c85f a7bd 01d1 3fbe
00000190: 2d87 f7bd e5c1 683d 8bc0 c4be 0f70 383e
000001a0: dc58 ee3e 48a7 adbe 40c9 183e 26b2 e23e
000001b0: d943 a3bd eee1 86be 4ba7 b03e 004f 01bf
000001c0: f353 d53e 656c 883e 00f3 a7bb 1bb3 af3e
000001d0: c48e 83be 48a6 c43e 6fad c8bc 8f3a e0bd
000001e0: 8c5e 08be 274c 1fbe 7660 553e a001 693e
000001f0: 4d6d 8e3e 8016 f33d f431 243d 365b 8b3e
00000200: e5a4 ceba 5949 533e 3b13 163e 23db 34bd
00000210: 103a bdbd f88d 883e 9d76 ea3e 9992 9bbe
00000220: 205b f3be 58f9 1b3e 3806 56be ec4d 0f3d
00000230: 880c d63e 52a1 81bd caec 323e eaca 213e
00000240: d9a0 a9bc 98d3 923e f899 e3be a19f 93be
00000250: 0a8a ad3d a46d c03e 3ed5 03bf 35e6 a33e
00000260: 39d0 3abe 5cbd 26be badd ca3e
0.24069026 0.24608006 -0.044524204 -0.09822261 -0.30097488 0.1047556 0.065400265 0.41740003
0.10717062 0.48945132 -0.312564 0.14908564 0.50086665 0.4437252 0.35376498 -0.081372246
-0.47510913 0.15993604 0.4582832 -0.18417615 0.45876503 -0.06948725 0.09396567 0.22184026
0.4624194 -0.35911408 0.17676334 0.16455095 -0.37134498 -0.3456775 -0.3868986 0.17934774
0.080270864 -0.35829756 -0.35748667 0.13899805 -0.029944744 -0.38681546 0.066744186 0.20581321
-0.08579396 -0.41937116 0.16079712 0.06032474 -0.05770653 -0.06070704 -0.3020398 -0.30078033
0.35021922 -0.2085321 0.09127294 -0.30257377 -0.19057083 0.2867981 0.19983084 -0.35915828
-0.2747226 -0.43236405 -0.07762826 -0.152781 -0.120178714 -0.5062159 0.41034293 -0.095229246
0.010217693 -0.24229021 -0.02081766 0.20468651 0.105208375 0.17186378 0.13132992 -0.100123174
0.16666974 0.3848247 0.079064585 -0.101433605 0.08262899 -0.085514024 -0.3683191 -0.00017950262
0.251566 -0.43596792 0.15161 0.08971633 0.2954522 -0.10575123 0.11894212 0.28506565
0.08203201 -0.26089415 0.34849265 0.18802896 0.2292404 0.3038317 0.21551658 -0.028268307
-0.21329543 -0.24205238 -0.08172566 -0.18732072 -0.120863296 0.056825537 -0.3842815 0.18011497
0.4655217 -0.33916688 0.14920521 0.4427654 -0.07971925 -0.26344246 0.34502634 -0.5051117
0.4166561 0.26645198 -0.0051254034 0.34316334 -0.2569486 0.38408113 -0.024496762 -0.10948669
-0.13317317 -0.15556394 0.20837578 0.22754526 0.27817765 0.11869526 0.0400867 0.27218026
-0.0015765695 0.20633449 0.14655773 -0.044154298 -0.0923959 0.26670814 0.4579362 -0.30385283
-0.4753046 0.15231836 -0.2090081 0.03498642 0.41806436 -0.063295975 0.1747314 0.15800062
-0.020706581 0.28677058 -0.44453406 -0.28832725 0.084735945 0.3758365 -0.51497257 0.32011572
-0.18243493 -0.16283172 0.3962229

parametrizer.linear4.bias f4 [31]
00000000: 057c 53be 1243 803e 3f3c 79be 779e c2be
00000010: 4e32 b6be bf4e c2be df55 fd3e 836a 96bc
00000020: 09be 6c3e b0cf 3c3e 482a b5be 8786 d1bd
00000030: 5db1 ddbd 278d 953a 5d00 40be c317 4e3e
00000040: 3583 0ebe decd 193e 8846 ab3e 79de 36be
00000050: 41ed 6abe d542 26be 4e14 04bc 3672 cb3e
00000060: f9a2 34be 9c44 ff3d 9afb 2a3e 9a9d 543e
00000070: d0fa ab3c 1824 b9be 9a01 ac3d
-0.20652778 0.2505117 -0.24339388 -0.38011524 -0.35585254 -0.37950704 0.49479577 -0.018361336
0.23119368 0.18438601 -0.3538382 -0.10230737 -0.10824845 0.0011409865 -0.18750139 0.20126252
-0.13917239 0.15019938 0.3345225 -0.17858304 -0.22942068 -0.16236432 -0.008061482 0.39735574
-0.17640294 0.12464258 0.16697541 0.20763245 0.02099362 -0.3616035 0.08398743

exp_avg f4 [10, 30]
00000000: 7279 013a e2d7 fdba c0b7 8d3a eeba 0fba
00000010: 079d b13b 3427 873b 9302 903b 9e92 c03b
00000020: 98e5 443c f997 2b3b 8f70 2a3b b810 0bb9
00000030: be75 f43a 12f0 0b3a 9ff4 543b f625 853a
00000040: b7d0 f7ba e7fa 853b 9c33 0c3b 822c 9b3b
00000050: ce20 2f3a f343 e2ba 6845 8c39 72d1 a6ba
00000060: 3a2b 933b ffd2 3b3a f3e8 6bba 66f5 853b
00000070: f219 e33b b95d 923b ceb1 12bc f592 eaba
00000080: 79ce 13bc 5ad9 07bc 4b89 05ba aeac 43bb
00000090: 7cd7 c2bb 0563 c2bb a8a3 9e3b f6bc 613b
000000a0: 405f 4cbb c1c3 dc3b b047 88bb ee06 6fbb
000000b0: 7d2c f53b d441 2cbb 7542 b9bb b3fd 7fbb
000000c0: ce6e af3b fcde 76b8 eab4 12bc d07c 4dbb
000000d0: f857 1cbc b027 0abc a689 c9ba 99e4 b3bb
000000e0: 01b3 0bbc a48b 0dbc f201 f039 83e3 feba
000000f0: 3722 343b 5120 bbba 14f0 673b 0971 143b
00000100: def9 233c 9bbc f03b e263 db3b 5d22 123c
00000110: 785c 6f3c 2cd2 b33b 403b ba3b 49a8 8f3a
00000120: c674 a03b aa8b 503b a017 7b3b 5826 9639
00000130: 3d0c 35bb a867 643b cef7 5e3b a5bf 963b
00000140: 3f02 623b 90c1 52ba ffcd 5e3b 75df 0a3b
00000150: 33b2 053c ce96 383b 3b73 af3a 252b de3b
00000160: 9599 023c 1d7b c53b 3bdf c1bb 94d2 cebb
00000170: ec6f b8bb 9d57 a3bb 5366 c2ba deda b639
00000180: 7fd7 75b9 f20e 06bb 1741 363c 55ff e03b
00000190: d356 52ba 2470 933b 16f6 68b4 5f61 04bb
000001a0: b1ac 983b 909a b73b c878 a73b 88b5 603b
000001b0: 153b bd3b 2c79 1e3c e020 d4bb 71fe c3bb
000001c0: 7e59 d7bb af31 ccbb 38bd 1fbb 1465 eaba
000001d0: 1009 03bb 649d 5dbb 24b7 8f3b 276d 383b
000001e0: 24bc 09b9 90b7 c53a 9dd4 9eb9 1312 d839
000001f0: 865f 9eba 672f d7ba fce7 b1ba fed6 e5ba
00000200: c19f 53bb 7246 1cb9 719d 50b9 7eed 4b3b
00000210: bbe8 2337 9e01 dd37 95fa 3f3b 94e7 e138
00000220: 3ed6 ad3a 26cc a639 ae9b a73a 71f4 05ba
00000230: a5f2 7bb8 5e0c b23a 95cf 4cb5 e778 413a
00000240: 82bd 4fba 7819 3dba 4f5b 2c39 f673 b8ba
00000250: d167 28bb 8240 e3ba 54f1 b8b9 67e0 893a
00000260: 91a2 01ba 3f1c d5b8 05bc 523b ac8c f0ba
00000270: d533 33bb b3a9 edba 682c a1bb d238 2fba
00000280: 350a 9aba c11b 0eb8 d052 a1ba 29e5 05ba
00000290: 62e4 083a 6a77 98bb 335c 9fbb c38d 93bb
000002a0: 18a7 0939 3616 9bbb 11f6 d4b8 afc2 ba3a
000002b0: fcd7 20b8 8741 e539 8460 7a3b ff47 38ba
000002c0: 81c8 6aba 91b7 b9ba 4df0 b5ba 19d6 a2ba
000002d0: 27db 64bb f0fc 1dbb 28bc 2fbb c96e 52bb
000002e0: 9325 9f3b 2f96 d93b 0458 b83b ecf3 aa3b
000002f0: 72e5 8e3c 5362 223c 7613 4e3b 7eef a63b
00000300: dcf1 fb3a 8307 8039 420f 013c ec04 b13b
00000310: c87d 203b 4b64 993b 64b5 bc3b 9b6e 223c
00000320: 9513 1dbb c825 e6ba 405e 2bbb b835 48bb
00000330: 6571 983b 6c2f 443b 6aa1 813a 40b0 3b3b
00000340: fb9b 023c 4039 033c a16b e33a a5da a1ba
00000350: dd63 c03a a3eb 153b b770 85bb 14cd 22bb
00000360: f50a 6e39 c364 e2ba a8d9 e5bb 41ec c1ba
00000370: 89dd 54ba 5aeb 6dbb 584d 313a 104a 5db9
00000380: 3b98 e5ba 647d 7d3b c913 023c 04ef 233b
00000390: a103 24bb b974 4a3b 12bc 883a 6c2c 12b9
000003a0: 1f8f d93a 41f3 e93a 134c 24bb 06d3 003a
000003b0: 594e 8f3b b43b 423a b77b 71bb 4df0 86ba
000003c0: d8c5 4cbb 0676 b9b9 75c0 4cbb 49c5 50bb
000003d0: db1b a7bb 695a 0c3a 881c 3939 7941 ecba
000003e0: 9c82 843a c60c d03a 79d1 dfba b4e3 033b
000003f0: dab9 c8ba d43b ddba b9aa 34ba 3c60 983b
0.0004939056 -0.0019366706 0.0010812208 -0.0005482872 0.0054203304 0.0041245464 0.004394838 0.005876853
0.01201763 0.0026183112 0.0026007032 -0.00013262301 0.0018650813 0.00053382025 0.0032494438 0.0010158408
-0.0018906806 0.004088748 0.0021393066 0.0047355304 0.00066806085 -0.0017262682 0.00026754593 -0.0012727214
0.004491237 0.0007164925 -0.0008999251 0.0040880917 0.006930583 0.004466739 -0.008953525 -0.001789658
-0.009021395 -0.008291567 -0.00050940056 -0.0029857564 -0.005946098 -0.005932214 0.0048412867 0.0034444905
-0.0031184703 0.006737203 -0.0041589364 -0.0036472636 0.00748211 -0.0026284354 -0.0056536742 -0.0039061129
0.005353785 -5.885864e-05 -0.008954266 -0.0031354912 -0.009542458 -0.008432314 -0.0015376105 -0.0054898974
-0.008526565 -0.00863925 0.00045777817 -0.0019446466 0.0027486214 -0.0014276599 0.00353909 0.0022650382
0.010008303 0.0073467023 0.0066952566 0.008919326 0.014609449 0.005487701 0.0056833327 0.0010960187
0.004896733 0.0031821528 0.0038313642 0.00028638798 -0.0027625703 0.0034851823 0.0034022215 0.0046004825
0.0034486202 -0.00080397073 0.0033997295 0.002119032 0.008160162 0.0028166058 0.0013385782 0.0067800456
0.007971187 0.006026639 -0.0059165037 -0.006311724 -0.0056285765 -0.0049848096 -0.001483152 0.00034876814
-0.000234453 -0.0020455685 0.011123917 0.0068663755 -0.0008023802 0.004499452 -2.1696209e-07 -0.002019964
0.0046592583 0.005603142 0.005110834 0.0034287889 0.0057748654 0.009672444 -0.0064736456 -0.0059812595
-0.0065719476 -0.0062315087 -0.0024374258 -0.0017882907 -0.0019994415 -0.0033815736 0.0043858457 0.0028141232
-0.00013135426 0.0015084613 -0.00030294518 0.00041212197 -0.0012082912 -0.0016417325 -0.0013573165 -0.0017535386
-0.0032291266 -0.00014903562 -0.00019895077 0.0031116898 9.769744e-06 2.6346006e-05 0.0029293646 0.00010771971
0.0013262702 0.0003181409 0.0012787485 -0.0005109972 -6.0069044e-05 0.0013584008 -7.6297994e-07 0.00073803816
-0.0007924662 -0.0007213573 0.00016437213 -0.0014072645 -0.0025696645 -0.001733795 -0.00035275018 0.0010519148
-0.0004945184 -0.00010161893 0.0032155525 -0.001835247 -0.0027344127 -0.0018132239 -0.0049186237 -0.0006684187
-0.001175231 -3.3881286e-05 -0.0012308005 -0.0005107695 0.000522202 -0.004652907 -0.004863286 -0.0045029833
0.00013127585 -0.0047328724 -0.00010154781 0.0014248694 -3.8348124e-05 0.00043727105 0.00382045 -0.0007029771
-0.0008956269 -0.0014169087 -0.0013880819 -0.0012423425 -0.0034920664 -0.0024107061 -0.002681503 -0.003210949
0.004856774 0.0066402177 0.0056257267 0.005217066 0.017443392 0.009911138 0.0031444705 0.0050944677
0.001922186 0.0002441966 0.007877173 0.005402198 0.0024489034 0.0046811453 0.005758928 0.009914066
-0.002396797 -0.0017558867 -0.0026148707 -0.0030549597 0.0046521896 0.0029935492 0.0009890024 0.0028638989
0.007971759 0.008009255 0.0017350801 -0.0012348486 0.0014678199 0.0022876046 -0.0040722745 -0.0024841474
0.0002270153 -0.0017272461 -0.007014472 -0.0014795141 -0.00081201695 -0.003630361 0.0006763539 -0.00021103793
-0.0017516682 0.0038679475 0.007939287 0.002501429 -0.0025026577 0.0030892326 0.0010432026 -0.00013940193
0.001659844 0.0017848985 -0.0025069758 0.00049142574 0.0043733534 0.0007409409 -0.0036847421 -0.0010295004
-0.0031245854 -0.00035373884 -0.0031242643 -0.0031855872 -0.005099756 0.00053540483 0.00017653604 -0.0018024883
0.0010109725 0.0015872947 -0.0017075978 0.0020124735 -0.0015314177 -0.0016878792 -0.0006891895 0.004650144

exp_avg_sq f4 [10, 30]
00000000: 9e50 7e38 5d74 5437 f7dc 8338 654d b338
00000010: 3760 1338 216f 2038 5c19 8738 04bf 8c38
00000020: dd27 c638 b834 e637 8a1f 0b39 0fcf 6637
00000030: adf5 0539 133a 4e39 88ec 4537 a122 7437
00000040: 0f93 6637 b030 bb37 a321 7c37 d5b8 a637
00000050: b576 8b38 5f2f 5c37 ac96 8e38 ed14 c638
00000060: 2eae 3638 421a ca37 cf75 df37 ca76 4238
00000070: 58f9 1b38 d1d3 eb37 cbb4 2e38 492e 5137
00000080: ac5d 3838 2d1c 1438 bd15 0338 aa81 2338
00000090: 1d8c 3d38 7ce1 4338 8fee 0038 3e53 1537
000000a0: e227 9a37 0c6b 7138 2bff a237 0e7f 6737
000000b0: 8f70 0137 5d7a ae37 ad8c ef37 ceda 0638
000000c0: fc63 7d37 85b6 1437 8fce 3038 5739 3937
000000d0: 20ec 3e38 3b4a 1338 2a31 1538 cecb 2738
000000e0: bef4 5e38 6a9c 8538 5989 8237 6258 b337
000000f0: 9a2e bd38 80c6 d836 cbfa c838 0af6 e938
00000100: b9f3 f337 6507 8e38 4af0 d338 9d83 ea38
00000110: 4293 9138 b90b 8937 824f fa38 b5dd 5237
00000120: 6342 fd38 7fb2 0e39 9783 9037 f663 a537
00000130: 8416 9237 c3b3 8137 3c3c 3c37 66b1 5737
00000140: e448 b638 6e24 9436 c6fe c138 dd99 cf38
00000150: e685 c437 9f2a 0a38 1c54 2238 dde6 8b38
00000160: 6221 ae37 b311 ab37 5ae1 8d38 3685 7b37
00000170: 13fc 9038 a551 d038 ef2d 0338 9eb4 e637
00000180: 7097 3d38 a179 6638 7964 8d37 da67 3737
00000190: 3e3a fd38 6bee 8b38 5e74 0239 e2ab 4239
000001a0: 0bbd ad37 3d26 2d37 31b3 6237 7dff 9d37
000001b0: ebd6 af37 e9dd 2137 d25f 7b38 a3bc 7737
000001c0: b1af 8138 b131 b338 9a5b 2d38 10f0 d537
000001d0: 2de0 c337 eaa7 2338 43a9 b037 35a6 d937
000001e0: 4bc4 1037 9f43 9c35 b949 1937 f7f2 2437
000001f0: ab4b 9f36 db63 1337 835d 2537 46ef 3837
00000200: 5e0a 1b37 c642 5136 9073 5137 e3bc 3a37
00000210: c2b9 5737 5877 8537 8178 9636 ec71 6936
00000220: 33f2 4436 0cce 9536 a100 2e36 bce1 9836
00000230: 3882 0137 2f05 9535 62fe 0837 087b 0637
00000240: 5d33 a436 1432 8336 aecb 6e36 e2fd 0a37
00000250: 92ea 8636 4d36 a036 038f a436 d95c 9135
00000260: f0fd a736 11bf ec36 f498 ee36 4154 2236
00000270: 564a 8b36 f6ba 9036 6d88 0037 6011 5336
00000280: a3a2 2b37 258c 0036 e080 2237 4a15 8037
00000290: 98ff 6c36 3bf5 5036 3fbc a136 2a1b 5e36
000002a0: 5885 0936 7a87 2436 7e08 9e36 fb23 a535
000002b0: af50 a236 91c0 ee36 b1a0 f336 7a3d 8635
000002c0: 81bb 5635 d47e 1436 6c91 8036 4d9c 0436
000002d0: 596d 1139 a72d 3537 1f65 1839 ef42 5839
000002e0: d5b2 1d38 39cf 8138 252a 1039 ec84 0939
000002f0: 31b9 b338 2e1a 9b37 4023 a939 557e ce38
00000300: 2c5d b039 2279 f339 7b98 8037 b54a c737
00000310: 0be7 e537 c144 ff37 c75c 2538 8dee 0c37
00000320: 6735 0739 4f07 c536 b422 1439 1fda 4139
00000330: 55fc 0838 6362 1a38 8f08 6238 66f7 9c38
00000340: 9246 0538 bf2e 9737 fe42 1e37 2ef1 1a37
00000350: 4a79 3837 f71d 6437 9fff ad37 c7d9 ef37
00000360: f49b ec37 82ef a837 0548 2938 0f49 de37
00000370: 12ac 0038 de27 b037 0caf 0a38 418a 2738
00000380: d94e d436 02c2 9537 c409 d837 b3d6 8637
00000390: 5f1d d236 a6a4 a237 b2bb 2637 2a2d f236
000003a0: ad44 5d37 5282 6937 6687 8137 ceeb 8c37
000003b0: bfea b037 8c9e 8737 f6ed 1737 4caf be37
000003c0: f89e 2037 9f02 8136 6284 2f37 d579 1637
000003d0: a9a4 d437 e3bf 5837 0969 5c37 d03f 7337
000003e0: 9c6b 5137 8c69 0537 ef9f e436 d212 c136
000003f0: ff6a c136 c31a 9936 127e 2a37 4fc2 5236
6.06334e-05 1.2663278e-05 6.287725e-05 8.549801e-05 3.513714e-05 3.825047e-05 6.442025e-05 6.7113e-05
9.448801e-05 2.7442686e-05 0.00013267822 1.3757278e-05 0.0001277539 0.00019667325 1.1797187e-05 1.4551596e-05
1.3743308e-05 2.2314809e-05 1.5028202e-05 1.9874811e-05 6.6501474e-05 1.3124051e-05 6.7991525e-05 9.4452735e-05
4.35544e-05 2.4092504e-05 2.663853e-05 4.6363835e-05 3.71871e-05 2.8112818e-05 4.165321e-05 1.2468147e-05
4.3956257e-05 3.531219e-05 3.125308e-05 3.8982987e-05 4.5191602e-05 4.670162e-05 3.0739753e-05 8.900473e-06
1.8376802e-05 5.7558573e-05 1.9430727e-05 1.3798255e-05 7.715206e-06 2.0799396e-05 2.8556527e-05 3.2151867e-05
1.5103255e-05 8.863984e-06 4.2154043e-05 1.104021e-05 4.551944e-05 3.5116664e-05 3.5570156e-05 4.000571e-05
5.315686e-05 6.3710686e-05 1.5561165e-05 2.137962e-05 9.0209025e-05 6.46041e-06 9.583457e-05 0.00011156134
2.908135e-05 6.772465e-05 0.00010106021 0.000111825044 6.941568e-05 1.6337131e-05 0.000119357384 1.2568596e-05
0.000120763456 0.0001360867 1.7227414e-05 1.971608e-05 1.7415041e-05 1.5461706e-05 1.1219698e-05 1.2856302e-05
8.692013e-05 4.4149847e-06 9.2504124e-05 9.8991884e-05 2.3427372e-05 3.2941458e-05 3.8702143e-05 6.671038e-05
2.0757961e-05 2.039303e-05 6.765379e-05 1.4991781e-05 6.9134076e-05 9.9334204e-05 3.1275613e-05 2.7502243e-05
4.520215e-05 5.494955e-05 1.6855296e-05 1.093183e-05 0.000120748286 6.672445e-05 0.00012441116 0.00018565313
2.0711237e-05 1.0320507e-05 1.3512371e-05 1.883483e-05 2.0961705e-05 9.648015e-06 5.9932303e-05 1.4766268e-05
6.1839244e-05 8.544641e-05 4.1331725e-05 2.5503366e-05 2.3350201e-05 3.901861e-05 2.1059654e-05 2.5945812e-05
8.628772e-06 1.1642586e-06 9.1366755e-06 9.831731e-06 4.747378e-06 8.785132e-06 9.856539e-06 1.1022965e-05
9.241134e-06 3.1182294e-06 1.2484277e-05 1.11304425e-05 1.2858249e-05 1.591041e-05 4.484377e-06 3.4786017e-06
2.9347254e-06 4.464533e-06 2.5928387e-06 4.556232e-06 7.719318e-06 1.1102874e-06 8.16546e-06 8.015668e-06
4.8935603e-06 3.909934e-06 3.558332e-06 8.284553e-06 4.020819e-06 4.774693e-06 4.9042296e-06 1.0830364e-06
5.00655e-06 7.055591e-06 7.110759e-06 2.4188923e-06 4.1511767e-06 4.3132995e-06 7.661159e-06 3.1451564e-06
1.0230261e-05 1.9155061e-06 9.6859585e-06 1.5268703e-05 3.5315516e-06 3.1137158e-06 4.8200886e-06 3.309639e-06
2.0492207e-06 2.4516762e-06 4.7097556e-06 1.230393e-06 4.837369e-06 7.1153704e-06 7.2606713e-06 1.000167e-06
7.9994066e-07 2.2127542e-06 3.8316266e-06 1.9760512e-06 0.00013869013 1.079907e-05 0.0001453352 0.000206243
3.7598267e-05 6.1897976e-05 0.0001374861 0.00013114855 8.56988e-05 1.848963e-05 0.00032260455 9.8463766e-05
0.00033638754 0.00046438823 1.5329793e-05 2.3757437e-05 2.7406515e-05 3.0430385e-05 3.942547e-05 8.400192e-06
0.00012894497 5.8719083e-06 0.00014127308 0.00018487171 3.265993e-05 3.680809e-05 5.389057e-05 7.484741e-05
3.1775395e-05 1.802237e-05 9.433132e-06 9.235269e-06 1.0995494e-05 1.3596836e-05 2.074224e-05 2.859243e-05
2.8206014e-05 2.013869e-05 4.0359813e-05 2.6498483e-05 3.067783e-05 2.09994e-05 3.306479e-05 3.994466e-05
6.3272714e-06 1.7852526e-05 2.5753754e-05 1.6074022e-05 6.261907e-06 1.9388575e-05 9.938072e-06 7.21742e-06
1.3188616e-05 1.3918225e-05 1.5441048e-05 1.6799106e-05 2.1090147e-05 1.6167083e-05 9.055706e-06 2.2731394e-05
9.573756e-06 3.8448047e-06 1.0461636e-05 8.969063e-06 2.5349045e-05 1.291928e-05 1.3137477e-05 1.4498786e-05
1.24824255e-05 7.951992e-06 6.813548e-06 5.754039e-06 5.764304e-06 4.562871e-06 1.0162143e-05 3.140554e-06

exp_avg f4 [10]
00000000: e0c1 253d da30 313c d370 fc3c c9d4 033d
00000010: 481e 4abc 3e6c 5bbc c6c3 193d 3ace 64bc
00000020: 11d3 8f3b d09c 933b
0.040468097 0.01081487 0.030815518 0.03218535 -0.012336321 -0.013392506 0.03754022 -0.013965184
0.0043891747 0.0045047775

exp_avg_sq f4 [10]
00000000: bb28 133a 061c 9838 ab5c 6639 b694 4b39
00000010: 1d83 8737 d656 d137 8097 ec39 ef57 b438
00000020: 7565 f536 65fc 4636
0.00056136743 7.2531446e-05 0.00021969031 0.00019414988 1.6154308e-05 2.4955178e-05 0.00045126304 8.599448e-05
7.31338e-06 2.9651212e-06

exp_avg f4 [10, 10]
00000000: 5f91 6d3a 9ac6 623a febd c6bb 4e15 42bb
00000010: cfc1 583a 4e43 f53a c88a 483a c669 4cbb
00000020: cc3a afbb 17bd 2c3b c67f 6a39 3ef6 6e3b
00000030: 2ff1 82bb bea6 c93a f894 edba 84ac 323b
00000040: cdda ccba 9454 87bb 3d08 e039 34b3 98bb
00000050: 25f8 853b b813 3dbb 9290 033c 8590 213a
00000060: b792 b5bb e040 95bb 44c1 a13b bf82 103b
00000070: 28a9 163b aa2e ae3a e080 2dbc 2cf9 0b3c
00000080: 4e48 f0bb 7f14 683b 2287 6c3c 6419 483c
00000090: 3656 94bb 8ab3 5fbb 35f3 013b 5580 7abb
000000a0: 73f7 faba 940c 153a d9ee 2bbc be7a 05ba
000000b0: 0aaa cf3b 2bc7 d73b 4697 bcbb aa27 79ba
000000c0: 1d08 febb 4707 e2b8 2425 6dbb fcd7 3e3b
000000d0: 5730 4fba fb1f b7ba 4a54 c03a 4dc6 17ba
000000e0: 7b36 21ba ac69 f8ba b3d6 e23a 359e 933b
000000f0: 61a2 a33a 5204 c0ba c5f3 9d3b 37ce 303a
00000100: 6a37 66bb 7e08 56bb 10cd 1b3a dad1 fd3a
00000110: 1b5c 1f3b a7bf 003a a3da 813b b904 7abb
00000120: 0055 1fbb 3462 c7bb 5f0e 76bb 019a a0bb
00000130: 346e 493b 9e4a bdb9 0d21 d2bb 2f4f 0f3c
00000140: 8db7 47ba fa0c 64bb 58e9 3e3c b3e0 0d3b
00000150: dee3 b3bb 464b 0cbc 01e7 29bb 4300 c13b
00000160: 4a06 133c 36e7 a13a 7d4e a93a ff57 fab9
00000170: 180c 7f3b df84 5137 abd4 ccbb 29ec 99bb
00000180: 91bd e2b9 85be 8f39 2fa9 5d3b 9d96 183a
0.00090624945 0.000865081 -0.0060651293 -0.002961475 0.0008268626 0.0018712075 0.00076500745 -0.0031190976
-0.0053475853 0.0026357824 0.00022363578 0.003646269 -0.0039960365 0.0015384776 -0.0018126061 0.0027263472
-0.0015629173 -0.0041299555 0.00042730747 -0.0046600346 0.004088419 -0.0028850865 0.008030074 0.00061631977
-0.0055411714 -0.004554853 0.004936369 0.0022050587 0.0022989009 0.0013289053 -0.010589808 0.008543294
-0.007332838 0.0035412607 0.014436515 0.012213085 -0.0045268787 -0.0034134113 0.00198288 -0.0038223465
-0.0019147232 0.0005685773 -0.010493957 -0.00050918374 0.006337409 0.006585022 -0.005755338 -0.00095045066
-0.007752432 -0.00010777875 -0.0036185468 0.0029120436 -0.00079036265 -0.0013971323 0.0014673558 -0.0005789742
-0.0006149781 -0.0018952391 0.0017306417 0.0045049437 0.0012484306 -0.0014649725 0.0048203194 0.00067445956
-0.0035128244 -0.003265887 0.00059433375 0.0019364909 0.0024316374 0.0004911371 0.003962831 -0.0038149788
-0.0024312139 -0.006084705 -0.0037545187 -0.004901171 0.0030735852 -0.00036104483 -0.0064126314 0.008746906
-0.0007618599 -0.0034797774 0.011652313 0.0021648824 -0.0054898104 -0.008562868 -0.0025925043 0.005889924
0.008973667 0.0012352231 0.0012917068 -0.00047749278 0.003891712 1.2488307e-05 -0.006250938 -0.004697342
-0.00043247317 0.00027417034 0.0033822765 0.0005820783

exp_avg_sq f4 [10, 10]
00000000: 08ef 8137 fa29 ed36 1d23 2037 3354 d236
00000010: f01b fb36 33a6 5c36 33bc 6b36 d37a 5436
00000020: a554 8837 155d e137 8a02 a537 7428 1737
00000030: 6f0c fd36 19d7 0037 c7ea 0d37 c0a6 9e36
00000040: 7bde 9a36 f4fc 8437 4a90 db37 6741 a937
00000050: f2f9 9838 fd42 8537 4b92 de37 49f5 2337
00000060: 4f19 7237 7c61 1837 ad8e 0937 e5ea 4837
00000070: 6716 6d38 8e3b a338 1a27 da38 cd28 0538
00000080: c5db db37 f25e ae37 0630 4838 3a53 2d38
00000090: 93ff 6637 5619 bf37 9189 6838 9262 b638
000000a0: de11 4038 20a1 6437 6cba c437 4545 2637
000000b0: 56f3 3d37 5466 0537 f7c0 0537 7299 3637
000000c0: 0479 4c38 2d13 6038 00fd 5c37 dc75 8f36
000000d0: 210e 8b36 b504 8836 f6d0 a736 817f b736
000000e0: b901 9335 fc64 4a36 07d5 9b36 0eab 2337
000000f0: 10a7 c736 339e 3236 08da 5b36 8302 1b36
00000100: a5a4 2836 5f67 9d35 752a 4b35 4558 f735
00000110: d197 d636 78c9 f836 4cb1 c337 2e4e 0537
00000120: da65 3d37 e70f c637 eaf2 b736 02f7 7937
00000130: 92c4 ce36 866b d936 49f5 c437 297a 8037
00000140: 039d 2f38 07f1 b537 59ad f637 b65d 8437
00000150: 34ae cc37 c6a3 5737 fc74 4b37 9221 4537
00000160: 92f8 5838 067e ac38 aa16 6337 6eb0 0837
00000170: c999 ce36 21f3 2337 da7e 4137 deed c536
00000180: 9ff3 7636 54bf 3a37 841a b337 f040 8b37
1.5489306e-05 7.068037e-06 9.544919e-06 6.26829e-06 7.4836353e-06 3.2879295e-06 3.5127275e-06 3.1661955e-06
1.6251879e-05 2.6865435e-05 1.9670715e-05 9.00972e-06 7.541435e-06 7.679476e-06 8.458918e-06 4.728179e-06
4.615458e-06 1.5853417e-05 2.6174024e-05 2.0176825e-05 7.294481e-05 1.588603e-05 2.6532585e-05 9.772667e-06
1.4430217e-05 9.082603e-06 8.199056e-06 1.197562e-05 5.6526067e-05 7.7835386e-05 0.00010402333 3.174767e-05
2.6209173e-05 2.0786629e-05 4.772844e-05 4.1323925e-05 1.3768574e-05 2.2780772e-05 5.544123e-05 8.6967964e-05
4.5793007e-05 1.3627374e-05 2.345183e-05 9.910499e-06 1.1321934e-05 7.951243e-06 7.972346e-06 1.0883772e-05
4.8750095e-05 5.342362e-05 1.3171928e-05 4.2754527e-06 4.1441676e-06 4.053664e-06 5.001314e-06 5.4686684e-06
1.0952855e-06 3.0159126e-06 4.6441596e-06 9.755384e-06 5.950111e-06 2.661615e-06 3.2760454e-06 2.3098262e-06
2.5129787e-06 1.1727496e-06 7.5685176e-07 1.8428624e-06 6.3953707e-06 7.41443e-06 2.3328372e-05 7.94562e-06
1.1288992e-05 2.3610844e-05 5.482104e-06 1.48990675e-05 6.162162e-06 6.4796213e-06 2.347924e-05 1.5315674e-05
4.186948e-05 2.1689119e-05 2.9406207e-05 1.5779264e-05 2.4399815e-05 1.285313e-05 1.212698e-05 1.1749931e-05
5.1729912e-05 8.225073e-05 1.3535531e-05 8.14731e-06 6.1571814e-06 9.772165e-06 1.1533231e-05 5.898749e-06
3.6798663e-06 1.1131011e-05 2.135081e-05 1.660033e-05

exp_avg f4 [10]
00000000: ae0a 203d b4e1 0f3b 7c8c 2ebd 1d49 693d
00000010: 690c 783d 2058 4b3c bf4b 00bd b9d0 c63c
00000020: 8dce 9abd af48 15bd
0.039072685 0.0021954598 -0.042614445 0.056954492 0.06055871 0.012411147 -0.031322237 0.024269449
-0.07558928 -0.03644627

exp_avg_sq f4 [10]
00000000: 076d 113a b161 3338 afe7 913a 56c3 bf3a
00000010: 0899 813a 40bd 7139 3bde 3639 aca4 9439
00000020: 800c da3a ed99 8c39
0.00055475574 4.2767908e-05 0.0011131669 0.0014630358 0.0009887526 0.00023054052 0.0001743966 0.0002835145
0.0016635805 0.00026817565

exp_avg f4 [5, 10]
00000000: 6504 52bc e93d 32bb cf34 303c 0da3 15bc
00000010: 43dd 83bc 532a 1ebb c7d2 dc3b 2573 5dbb
00000020: 59c2 0cbb 6b00 733c 00d1 c8bc 1128 a83c
00000030: 75e9 74bc fa30 ad3c 2e1d 89bd 47a5 1f3c
00000040: 4196 163d 9b56 02bd f6fb 943c e150 4d3d
00000050: b256 5c39 1a44 cabb 90be cd3c e596 13bd
00000060: 480a 423d 1d48 a0bc e2e1 14bd 3320 f93c
00000070: 3501 d7bc 7d88 0cbd 6522 95bb a184 0c3b
00000080: eb74 343c e47a 2bbc 8f22 a83c bb30 5cbc
00000090: 95cc 4fbc 6e6a 6e3c d1b5 30bc 2e9c a6bc
000000a0: b5b2 32bb 1f04 023c de53 9ebb 251e d13b
000000b0: bfa1 ec3c 1142 47bc 9add 35bc 9fc5 ae3b
000000c0: c6db 3ebb 0215 a6bc
-0.012818431 -0.0027197546 0.010754778 -0.009133113 -0.016096717 -0.0024134114 0.006738994 -0.0033790555
-0.0021478145 0.014831643 -0.024513721 0.020526918 -0.014948239 0.021141518 -0.06695019 0.009743995
0.036764387 -0.031820875 0.01818655 0.05012596 0.00021013131 -0.006172669 0.025115281 -0.036032576
0.047373086 -0.019565636 -0.03634823 0.030410862 -0.026245693 -0.034309853 -0.0045512193 0.0021441358
0.011014204 -0.010466311 0.020524291 -0.013439353 -0.0126830535 0.014551742 -0.010785536 -0.020338144
-0.0027267162 0.007935553 -0.004831775 0.0063817673 0.02888572 -0.012161748 -0.011100197 0.005333617
-0.0029122694 -0.02027369

exp_avg_sq f4 [5, 10]
00000000: 1147 fb37 9353 7237 5bc7 6e38 31ea 5338
00000010: fc5f 1539 ad92 b337 64f9 ee37 6588 e537
00000020: c8f8 9037 a454 ab38 66e1 d838 ce23 e838
00000030: 8a87 9e39 05a1 023a 71e3 c13a 0a9c 3c39
00000040: e88e bb39 c501 0e3a 6175 1c39 ddbd 633a
00000050: 4abb c237 88fe 2138 49a8 9a39 a09d 033a
00000060: 9660 5f3a 1b36 2339 ab8a 8539 68f9 9439
00000070: ebad fb38 7447 d539 0db3 0c37 6ec1 1237
00000080: 5d1f 3b38 c9db 4738 3cc1 d238 2f88 1838
00000090: 8a87 f137 9535 5c38 b55e 8e37 4e5b c538
000000a0: 2407 0138 10b4 c937 123a ab37 37ee 0138
000000b0: c92c 1a39 2fee 5338 cd99 ae37 d3e2 0e38
000000c0: 25d5 7f37 ad55 df38
2.9954625e-05 1.4443783e-05 5.6929286e-05 5.0524428e-05 0.00014245504 2.1406764e-05 2.8487942e-05 2.7362441e-05
1.7281985e-05 8.169681e-05 0.00010341666 0.00011069291 0.00030237093 0.00049831 0.0014792514 0.00017987206
0.00035773893 0.0005417134 0.00014921046 0.00086876546 2.3213815e-05 3.8622442e-05 0.0002949855 0.00050207414
0.00085211673 0.00015565047 0.00025471053 0.00028414582 0.000120010074 0.00040679763 8.386339e-06 8.7473145e-06
4.4613484e-05 4.7649988e-05 0.00010049573 3.6366455e-05 2.8792554e-05 5.250199e-05 1.697182e-05 9.410699e-05
3.0762647e-05 2.4044915e-05 2.041183e-05 3.097785e-05 0.00014703268 5.0528146e-05 2.0814035e-05 3.4066685e-05
1.5248811e-05 0.00010649427

exp_avg f4 [5]
00000000: e023 103d 4685 213e bed4 05be da32 61bd
00000010: f57f 92bd
0.035190463 0.15773496 -0.13069436 -0.054980136 -0.07153312

exp_avg_sq f4 [5]
00000000: 4f4c 773a cec9 2b3c f07f df3b 879c 4c3a
00000010: c602 833a
0.0009433673 0.010485126 0.0068206713 0.0007805307 0.0009995333

exp_avg f4 [31, 5]
00000000: b135 68bb d1d4 203d 350a 91bd 9d30 8dbd
00000010: 4032 c8bc 86bd cdb8 2a7a 043c 62df 7cbc
00000020: 3666 2abc c5cb c3bb 7054 bcbb 3701 053d
00000030: d730 71bd 5e7f 64bd c197 9cbc bf0b 69bb
00000040: f84a 013d 98f0 6abd adad 60bd ad49 9dbc
00000050: 6728 963b ade5 383c 38c2 a5bc 1c1e 06bd
00000060: 988f 4cbc 50ac 92ba 9671 ef3c 2a4e 45bd
00000070: 4461 4abd 8111 a3bc ea74 9eba 0d9f cb3c
00000080: 3f73 2fbd 5412 29bd 506c 88bc d48d 27ba
00000090: 144c 0b3d f1ca 74bd 8a41 7bbd 8263 c0bc
000000a0: c7b1 6e3c 9045 07bc d1ae 713c 7072 3e3b
000000b0: 7d99 27bb a65f ae3b 7e5b 09bc 8b5a a43c
000000c0: 17c3 853c 59dc 343b 1714 e9b8 9d99 af3c
000000d0: 3779 1dbd 093f 20bd 60df 6cbc c305 513b
000000e0: efbf af3a caa5 7b3a 7eed 123b 5952 a1ba
000000f0: 4733 3439 729e 6c3c 10bd dcbc 83f1 dfbc
00000100: 62bf 26bc 21dd 36bb 599a 8c3c fb96 febc
00000110: cb2d f0bc 4328 25bc 20e5 083c 4d52 44bc
00000120: 66ae b23c c8a8 7c3c a453 893b 8224 c3ba
00000130: f95d 0a3c 35f1 17bc 9c8d 40bb 08fd 17bb
00000140: a7e1 f4ba ae7f e43b 5336 ecbb 0c9a 1d3b
00000150: 7adc bab9 5f76 44b9 77ab 413c 655c 8abc
00000160: 6e23 6abc f556 c4bb c16f 143c 2239 e5bc
00000170: 0ffc 403d 42a9 193d 9468 4e3c 0588 fd3a
00000180: c177 ea3b ce05 e7bb 935a 97bb 6b9f 5fbb
00000190: b08b c4bb 9afb 273d b38c 93bd 4ba7 8cbd
000001a0: 49a1 c5bc d59d 54bb 0afa ba3c dddf 1ebd
000001b0: e650 06bd 04a0 5dbc 4924 1bbb f8a0 f33c
000001c0: e7b3 5fbd 207f 5abd 640f 9fbc f51d a7ba
000001d0: 2e73 cd3c ed38 3cbd d327 37bd 54f8 85bc
000001e0: 4199 8b3a 55cd 833c eec3 d9bc 4834 0cbd
000001f0: e0dd 58bc 56a6 54bb 28ef a83c e6f7 08bd
00000200: f4f5 fbbc 47ca 4ebc 72a8 afbb f744 c43c
00000210: 56e5 1fbd fa36 07bd e830 4fbc 47fb 3bbb
00000220: d9fb 013d 83fc 5fbd 1cc6 5dbd 188e a8bc
00000230: 5ecf e63b b970 d23a 8547 8dbb 6311 48bc
00000240: 70dc cfbb 8e66 d83a 1253 9e3c b852 eabc
00000250: 3616 e9bc 0d52 5fbc 2598 1f3d 6041 aebc
00000260: 7cbe 023d 8d33 f03b 3122 e8bb
-0.0035432393 0.039265458 -0.07082025 -0.06894038 -0.024438024 -9.810463e-05 0.008085767 -0.015434118
-0.010400346 -0.005975219 -0.0057473704 0.03247186 -0.058884468 -0.05578553 -0.01911533 -0.003555998
0.031565636 -0.057358354 -0.05485313 -0.01920017 0.004582453 0.011285228 -0.020234212 -0.03274356
-0.012485407 -0.0011190269 0.029228967 -0.048170246 -0.049409166 -0.019905807 -0.0012089286 0.024856115
-0.042834517 -0.041277245 -0.01665321 -0.00063916785 0.0340081 -0.059763853 -0.0613418 -0.023484949
0.014568753 -0.008256331 0.014751152 0.002905991 -0.0025573664 0.005321461 -0.00838363 0.020062706
0.016328378 0.0027597158 -0.00011114048 0.021435553 -0.038445678 -0.039122615 -0.014457554 0.0031894303
0.0013408641 0.00095995946 0.0022419388 -0.0012307867 0.0001718524 0.014442073 -0.02694562 -0.027336841
-0.010177465 -0.00279028 0.017163442 -0.031077852 -0.02931871 -0.0100804 0.008355409 -0.011982513
0.021811675 0.0154211 0.004190879 -0.00148882 0.008445256 -0.009273817 -0.002938128 -0.002319159
-0.0018682972 0.0069732284 -0.0072086244 0.0024048118 -0.00035640952 -0.00018736113 0.011820666 -0.01688976
-0.014290674 -0.0059918114 0.009059847 -0.027981345 0.04711538 0.037514932 0.012598176 0.0019342905
0.007155389 -0.0070502525 -0.0046189516 -0.003412212 -0.0059980974 0.04101143 -0.072045706 -0.06867846
-0.024124758 -0.0032442708 0.022824306 -0.03878771 -0.032791995 -0.01352692 -0.002367275 0.029739842
-0.054614928 -0.053343892 -0.019416519 -0.0012750017 0.025079336 -0.045952726 -0.044715714 -0.016353764
0.0010650532 0.01608912 -0.026582684 -0.034229547 -0.013236493 -0.0032447777 0.020621851 -0.03343954
-0.030756928 -0.012621469 -0.0053606564 0.023958666 -0.03903707 -0.033011414 -0.0126459375 -0.0028683709
0.03173432 -0.054684173 -0.05414401 -0.020575568 0.007043763 0.0016055322 -0.0043115043 -0.012211177
-0.006343417 0.0016510056 0.01932672 -0.028603896 -0.028452974 -0.013630402 0.038963456 -0.021271408
0.03191994 0.007330364 -0.007084154

exp_avg_sq f4 [31, 5]
00000000: d363 ba37 3b28 1539 6d65 533a 0d40 7c3a
00000010: 80f0 9f38 84f0 ca36 3716 cf37 4314 0239
00000020: ffbb df38 efc8 8e37 60c3 bd37 ecaa f938
00000030: 1289 3a3a 55ce 623a e0bf 8b38 d21d aa37
00000040: deb3 ea38 9fef 2e3a e736 533a d1d1 8838
00000050: 067d 5037 cb48 3338 067a 6839 bc55 cc39
00000060: 8d34 f337 ee39 b237 9f29 f338 4c6e 183a
00000070: ba07 4e3a 8dbe 9738 e9f4 9d37 f627 d738
00000080: c761 173a 470b 443a afca 8e38 adea db37
00000090: 189f 1839 c246 513a 1ed5 863a b05f c038
000000a0: 1123 bd37 921f 8837 e262 9738 a187 1439
000000b0: ccfc dc37 45cf d736 06b8 df36 1247 d937
000000c0: 39d3 1038 c0d4 0937 aff2 6337 7dd1 8838
000000d0: 6c9a cd39 179d 023a 2d7e 5038 ccb9 3037
000000e0: cf20 b137 ce4f 8938 07f6 9e38 143f f236
000000f0: beaf 5537 80f0 3938 a26a 9e39 8390 d539
00000100: 54ad 2c38 b8dc 8537 3c04 3d38 cbe8 9e39
00000110: b276 cc39 3c50 2238 5812 3537 c334 0437
00000120: f626 4e38 c341 4b38 3d7a 6636 c776 a536
00000130: 6290 0c38 098c 2539 5fce 3f39 d58d 6f37
00000140: 8593 be36 87cc 0a38 df38 3e39 4bed 4239
00000150: 6761 5c37 4c3f b036 b1a8 3f38 ddf6 8239
00000160: d5b7 9a39 560b b237 05a8 8837 61ab 2d38
00000170: e1f7 2b39 fc19 e638 2842 1037 d688 7436
00000180: c1a0 9f37 bdce 9f38 60bf cb38 94c0 3737
00000190: 8151 c137 8a29 2c39 54a6 683a bc23 883a
000001a0: 275f a938 afb1 1637 cb5e 8038 41e8 8c39
000001b0: cc79 6939 f224 ea37 b10d a837 f5a5 fa38
000001c0: 402d 3b3a 3b85 673a 4118 9238 de54 8637
000001d0: c67b c838 724e 163a 39b2 383a a6c1 7038
000001e0: 3232 8a37 92f6 8738 6e69 9939 ee43 e139
000001f0: 4905 f237 18ba 9e37 6bdb ba38 2ded e339
00000200: 3013 133a ebd2 2a38 2c70 a337 7abe e038
00000210: e429 0d3a ee15 243a 738c 3338 b4df f337
00000220: 002d 1a39 5dcb 4c3a 4e2f 7c3a 1b29 9e38
00000230: 4c00 fc36 1671 9d37 a1bb de38 fb6f 4039
00000240: 755a 7937 e308 8937 cf74 9138 6dee 8939
00000250: 551f b339 bd70 1638 82c6 3a39 a9c6 2e38
00000260: 50a6 2d39 fafe 9c38 4dff 6037
2.2219412e-05 0.00014224734 0.0008064125 0.00096225814 7.6265074e-05 6.048069e-06 2.4686668e-05 0.00012405314
0.000106684856 1.7021286e-05 2.2621534e-05 0.00011905082 0.0007115762 0.00086519617 6.663776e-05 2.0279465e-05
0.000111914924 0.00066732796 0.00080571923 6.524067e-05 1.2426875e-05 4.274472e-05 0.00022170701 0.0003897379
2.8992328e-05 2.124623e-05 0.000115948955 0.00058147754 0.0007859428 7.235734e-05 1.8829904e-05 0.00010259442
0.0005774763 0.0007478487 6.8088404e-05 2.6216114e-05 0.00014555117 0.0007983261 0.0010286903 9.1730966e-05
2.2546885e-05 1.6227164e-05 7.2186594e-05 0.00014164906 2.6343761e-05 6.4316287e-06 6.667341e-06 2.590151e-05
3.452899e-05 8.215371e-06 1.35867585e-05 6.5240056e-05 0.000392157 0.00049825147 4.9708575e-05 1.0533677e-05
2.1115322e-05 6.547534e-05 7.579853e-05 7.2195053e-06 1.27367075e-05 4.433142e-05 0.00030215556 0.00040734195
4.116942e-05 1.5957616e-05 4.5065055e-05 0.00030309553 0.00038998347 3.8698534e-05 1.0792712e-05 7.880098e-06
4.9150512e-05 4.8460217e-05 3.4343823e-06 4.9312107e-06 3.3513068e-05 0.00015787793 0.00018292059 1.4278533e-05
5.679615e-06 3.3092245e-05 0.00018140998 0.0001858968 1.31357e-05 5.2525775e-06 4.5695055e-05 0.0002497946
0.00029510134 2.1224532e-05 1.6290704e-05 4.1406023e-05 0.00016400173 0.000109720946 8.598472e-06 3.6438482e-06
1.9029134e-05 7.620219e-05 9.715441e-05 1.0952488e-05 2.3045346e-05 0.00016418673 0.00088748825 0.0010386626
8.0762715e-05 8.982067e-06 6.121172e-05 0.00026875924 0.00022265984 2.7912178e-05 2.0033536e-05 0.00011951841
0.00071402267 0.00088318036 6.96634e-05 1.6013564e-05 9.559798e-05 0.0005733735 0.00070456 5.7400808e-05
1.6474256e-05 6.483229e-05 0.00029260985 0.00042965956 2.885111e-05 1.8921724e-05 8.910041e-05 0.00043473524
0.0005610464 4.072759e-05 1.9483348e-05 0.000107166314 0.00053849653 0.00062593713 4.280773e-05 2.9072027e-05
0.00014703348 0.0007812286 0.0009620086 7.5416836e-05 7.51022e-06 1.8768518e-05 0.000106207335 0.00018352263
1.4862618e-05 1.633581e-05 6.935896e-05 0.00026308317 0.00034164885 3.5867783e-05 0.00017812292 4.166985e-05
0.00016560522 7.486153e-05 1.3410882e-05

exp_avg f4 [31]
00000000: a151 1dbe 11a5 f1bc 76fe 03be 7fb7 febd
00000010: fd3b 64bd 6b4d dcbd 9b37 c2bd 4e28 08be
00000020: 7878 d03c ea77 293d 3d25 adbd 0c50 203c
00000030: 9699 7bbd 4748 8bbd 4228 413d 96df 62bc
00000040: 9e79 e4bb 6bef 06bd d6a1 c23d 567f 3bbc
00000050: 8a1a 1ebe 7a26 9ebd b3e8 f7bd 28bd cdbd
00000060: fa9e 85bd 8be4 97bd 639e a8bd 15ac f8bd
00000070: f4a6 8abc baab 7fbd 2e77 6e3d
-0.1536317 -0.029497655 -0.12890038 -0.12437343 -0.05572127 -0.10756954 -0.09483262 -0.13296625
0.025448069 0.041374125 -0.08454368 0.00978471 -0.061425768 -0.06800895 0.047157533 -0.013847252
-0.0069725057 -0.03294317 0.09503524 -0.0114439335 -0.15439811 -0.077221826 -0.12104931 -0.10045844
-0.06524463 -0.07416638 -0.08233335 -0.12142197 -0.016925313 -0.06241963 0.058219127

exp_avg_sq f4 [31]
00000000: 7c27 e23b a67d 713a e1db d03b 4368 bd3b
00000010: 741f 213b 3071 b43b 4bf4 ae3b 1b9b ea3b
00000020: fed1 733a 2901 8639 7a70 663b ef5c 2d3a
00000030: 8abf 433b 6933 3b3b e4fb dc39 a521 b73a
00000040: d7f4 c83a 1540 183b e7c6 8e3a 9f9d 3d3a
00000050: 44e2 f23b d429 f03a 448a d13b 06c0 a13b
00000060: 04ac 3b3b e4f4 843b 02b7 993b 7e5d e63b
00000070: 3d41 973a 6201 163b cc2c a93a
0.0069016796 0.00092121435 0.006373868 0.005780251 0.0024585398 0.005506657 0.0053391806 0.0071596033
0.00093010056 0.00025559336 0.0035162256 0.00066132745 0.0029868805 0.0028564578 0.00042149343 0.0013971819
0.0015331757 0.0023231555 0.0010893018 0.0007233265 0.007412227 0.0018323013 0.0063946564 0.004936221
0.0028636465 0.0040575135 0.0046910057 0.007030188 0.0011539828 0.0022889008 0.0012907027
