Cancer-senn/self_trial7/models/cancer/grad3_Hinput_Thdummy_Reg1e-02_LR0.001/model_best.pth.tar (torch_old, 26436 bytes, 34 tensors)

parametrizer.linear1.weight f4 [10, 30]
0	0x3e00e83d	0.12588592
1	0x3e194f56	0.1497167
2	0x3ddc5df7	0.1076011
3	0x3e0c7c0b	0.13719194
4	0xbdad77d1	-0.08470119
5	0xbda7355f	-0.081644766
6	0x3c95b827	0.018276287
7	0x3e0a138a	0.13484016
8	0xbcc86809	-0.02446367
9	0xbdfc7744	-0.123274356
10	0xbe3fe0fc	-0.18738168
11	0x3d827a05	0.0637093
12	0xbdfd8188	-0.12378222
13	0xbcee8f35	-0.02912102
14	0xbdfdb6f1	-0.12388409
15	0x3e17afd2	0.14813164
16	0x3e33e263	0.17566828
17	0xbe1defdb	-0.15423529
18	0xbd7e6e80	-0.0621171
19	0x3d91ba29	0.07115585
20	0xbda27206	-0.079319045
21	0xbde4466a	-0.11146243
22	0xbd2d2216	-0.042268835
23	0x3cd8ec01	0.026479723
24	0x3dfd317f	0.12362956
25	0xbe0eb819	-0.13937415
26	0xbdde1a97	-0.10844915
27	0xbd03ea8b	-0.0322061
28	0xbcee3cbd	-0.029081697
29	0xbcd00007	-0.025390638
30	0x3dc8eec5	0.09811167
31	0xbb9e7255	-0.004835407
32	0x3dce1253	0.10062089
33	0x3e079fc2	0.13244537
34	0x3dd48d9d	0.10378573
35	0xbe1caca6	-0.15300235
36	0x3dbfac6b	0.09359058
37	0x3d4b2efb	0.04960535
38	0x3c606da0	0.013698012
39	0x3df258d3	0.11833348
40	0x3e128609	0.14308943
41	0x3d555996	0.05208739
42	0xbdcb5f7f	-0.09930324
43	0xbe06f72e	-0.13180229
44	0xbdcb18dd	-0.09916852
45	0xb9cf0590	-0.0003948626
46	0xbd4a686a	-0.049415983
47	0xbd515068	-0.051102072
48	0x3e00b777	0.12569986
49	0x3dd212ea	0.10257514
50	0x3d1ba09f	0.037994977
51	0x3e3f93e9	0.18708767
52	0xbc908356	-0.01764075
53	0x3e045edf	0.12926815
54	0xbe26a9c6	-0.16275701
55	0x3e2c0274	0.16797811
56	0x3cadbd18	0.021208331
57	0xbd075258	-0.033037513
58	0xbcd214f3	-0.025644755
59	0xbdfa1dc7	-0.12212711
60	0xbd402ccf	-0.046917733
61	0x3d88f8e1	0.06688095
62	0x3e0011c8	0.12506783
63	0xbc9ac6c7	-0.018893613
64	0x3e3959c9	0.18100657
65	0x3d96ef2e	0.07369839
66	0x3d252781	0.040320877
67	0x3dae2733	0.085035704
68	0x3df06375	0.1173772
69	0x3c1bf4f6	0.009518852
70	0x3e0ac4fa	0.13551703
71	0xbdcf5443	-0.101234935
72	0x3d97c274	0.07410136
73	0xbe312d29	-0.17302383
74	0xbd32226f	-0.04348987
75	0x3e16b7e0	0.1471858
76	0x3e0fa431	0.14027478
77	0x3e0240e8	0.12720072
78	0xbce5ee2b	-0.028067669
79	0x3ccd2fca	0.025047202
80	0xbd6668e5	-0.05625238
81	0xbe2999d5	-0.16562589
82	0xbdb1630c	-0.0866147
83	0x3b1f1bba	0.0024278
84	0x3df89543	0.121378444
85	0xbdd4ef92	-0.10397257
86	0x3df24408	0.11829382
87	0xbdd30bec	-0.10305008
88	0x3d824ed1	0.06362689
89	0x3d1bca3f	0.038034674
90	0x3e2571e9	0.16156735
91	0xbde9c196	-0.11413877
92	0xbb0e2718	-0.0021690782
93	0x3e3d62d9	0.18494739
94	0x3e009beb	0.12559478
95	0xbc9d30de	-0.01918834
96	0xbdcd1cb4	-0.1001524
97	0xbd9c2b1b	-0.07625409
98	0xbca100af	-0.019653646
99	0xbda10a62	-0.078633085
100	0x3d960180	0.07324505
101	0x3d97af38	0.07406467
102	0x3de8a112	0.11358847
103	0xbe187e90	-0.1489203
104	0x3e0edfe0	0.13952589
105	0xbd6485bc	-0.0557916
106	0xbd83aecd	-0.06429825
107	0xbd670870	-0.05640453
108	0xbdfd2511	-0.123605855
109	0xbc198ae9	-0.009371498
110	0x3e53248c	0.2061941
111	0x3c67810a	0.014129886
112	0x3e2da06a	0.16955724
113	0x3e3b44b4	0.18287927
114	0x3e4b9fd5	0.1988519
115	0xbd207a59	-0.03917918
116	0xbdc94050	-0.0982672
117	0x3c88a797	0.016681476
118	0xbdc2d384	-0.09513
119	0x3e2127af	0.15737794
120	0x3d92ecde	0.07174085
121	0x3e1a4436	0.15065083
122	0xbd353efb	-0.044249516
123	0xbcebd3e0	-0.028787553
124	0x3e2091ac	0.1568057
125	0xbd9a27b2	-0.075271025
126	0xbe5da53d	-0.21645065
127	0x3d29d866	0.04146614
128	0xbe2d6c7a	-0.16935912
129	0x3cb7edac	0.022452198
130	0x3df653ed	0.12027726
131	0xbcddaf71	-0.027061196
132	0xbe1af894	-0.15133888
133	0x3d5fd458	0.054645866
134	0xbe4ceb25	-0.20011576
135	0x3cf26223	0.02958781
136	0x3b5f1b1c	0.0034043258
137	0xbda339a2	-0.07969977
138	0xbe570b32	-0.21000364
139	0xbc4a81c0	-0.012360036
140	0x3de01599	0.109416194
141	0xbdf6a821	-0.12043787
142	0xbde4bbaf	-0.1116861
143	0xbd100d56	-0.03516897
144	0xbdc8f816	-0.09812944
145	0x3d7f333a	0.062304713
146	0x3d68563b	0.05672286
147	0xbdc8a04e	-0.09796201
148	0x3dea83bf	0.1145091
149	0xbddf231e	-0.1089537
150	0xbd771b09	-0.060328517
151	0x3c80ee0d	0.015738511
152	0xbdf8fa42	-0.12157108
153	0xbca6138b	-0.02027299
154	0x3d245914	0.040124014
155	0x3ceb32f0	0.028710812
156	0x3e3273ab	0.17426936
157	0x3e02b8bf	0.12765788
158	0xbc24cb33	-0.010058212
159	0x3e1a71ba	0.15082446
160	0xbdad0c01	-0.08449555
161	0x3e449050	0.19195676
162	0xbb86d159	-0.0041143117
163	0x3c29be9f	0.010360389
164	0xbd30ce14	-0.04316528
165	0x3e39942e	0.18122932
166	0x3b98773a	0.004652885
167	0xbe11d310	-0.1424067
168	0x3e0157e6	0.12631187
169	0x3e118e9f	0.14214562
170	0x3e226d51	0.15862013
171	0xbcfa7b1d	-0.030576283
172	0xbba8e156	-0.0051538153
173	0xbe0020e1	-0.12512542
174	0x3aae00d6	0.0013275396
175	0xbdf9bd35	-0.121942915
176	0xbe35ee54	-0.17766696
177	0x3de55725	0.11198262
178	0x3dd71d47	0.10503631
179	0x3d81f689	0.06345851
180	0xbd5c882c	-0.0538408
181	0xbd855c4a	-0.06511743
182	0xbd27bff3	-0.04095454
183	0xbd6bf5b5	-0.05760737
184	0x3e03737e	0.12837026
185	0x3cf23786	0.029567491
186	0xbe0b0683	-0.13576703
187	0x3dc92f84	0.09823516
188	0x3e4fcd60	0.20293188
189	0xbe0d7841	-0.13815404
190	0xbe196c94	-0.14982826
191	0xbd85a525	-0.065256394
192	0xbd3dd165	-0.046342272
193	0x3d684eee	0.0567159
194	0xbd21ab51	-0.03947002
195	0x3d23e1ef	0.04001039
196	0x3cdcaa7f	0.026936768
197	0xbd0dba55	-0.03460153
198	0x3dceabe1	0.10091377
199	0x3e196125	0.14978464
200	0xbb7eba32	-0.0038868305
201	0xbdc0f294	-0.09421268
202	0xbe02ab1a	-0.12760583
203	0x3d6c7855	0.057731945
204	0x3e2c928f	0.16852783
205	0x3e431677	0.19051538
206	0x3d16d6c8	0.036825925
207	0xbe05caaa	-0.13065591
208	0x3d350514	0.044194296
209	0x3dea4085	0.114380874
210	0x3d81a02c	0.063293785
211	0x3dd4fba6	0.10399561
212	0xbe24a20a	-0.16077438
213	0xbda87c85	-0.08226875
214	0xbdfd76c2	-0.12376167
215	0x3df6cb78	0.12050527
216	0xbe181709	-0.14852537
217	0xbe040947	-0.12894164
218	0xbd354dd9	-0.044263694
219	0xbdbc2090	-0.09185898
220	0xbe24bd99	-0.16087951
221	0x3e55b4cf	0.20869754
222	0xbdc35d86	-0.095393226
223	0xbde0c7f6	-0.109756395
224	0xbe19ec20	-0.15031481
225	0xbd0d135e	-0.034442298
226	0xbdf40504	-0.11915019
227	0x3e1f834c	0.1557743
228	0x3d16e06a	0.03683511
229	0x3bbdab71	0.0057882597
230	0x3c79724e	0.015225006
231	0x3e22488b	0.15847985
232	0x3e0e518c	0.13898295
233	0x3de2419c	0.1104767
234	0x3df2de41	0.11858798
235	0xbdc632f7	-0.096776895
236	0x3e28ae02	0.16472629
237	0xbd34ab55	-0.044108707
238	0xbd96ea04	-0.07368854
239	0xbdf04b2c	-0.11733088
240	0x3cb65700	0.022258282
241	0xbe34b0cb	-0.17645566
242	0xbdddfb0b	-0.10838898
243	0x3cc25599	0.023722457
244	0x3d8bf03f	0.06832933
245	0xbdb1adba	-0.08675714
246	0x3e3c450c	0.18385714
247	0xbcc2f6ed	-0.023799384
248	0x3d9d9480	0.0769434
249	0x3daefeb7	0.08544677
250	0xbe10deb5	-0.14147456
251	0x3de000cd	0.10937653
252	0xbcee53fd	-0.029092783
253	0x3dc187f9	0.09449763
254	0x3cef45a2	0.029208008
255	0xbd5fd861	-0.054649714

parametrizer.linear1.bias f4 [10]
0	0x3d9e7875	0.07737819
1	0x3d52a7d6	0.051429592
2	0xbe0fd88f	-0.14047454
3	0x3e30d24b	0.1726772
4	0x3db93580	0.090434074
5	0xbcea82ca	-0.028626818
6	0x3c9d2367	0.01918192
7	0xbda5af45	-0.08090071
8	0x3e538d48	0.20659363
9	0xbdd7321d	-0.10507605

parametrizer.linear2.weight f4 [10, 10]
0	0xbe1cc72b	-0.15310352
1	0xbe473871	-0.19455124
2	0x3e641c7d	0.22276492
3	0xbe9a21a1	-0.30103782
4	0x3e59b1c9	0.21259226
5	0xbe869698	-0.2628677
6	0xbe76e5be	-0.24111077
7	0x3e4c9249	0.19977678
8	0xbe79e9cd	-0.24405594
9	0xbe7b6624	-0.24550682
10	0x3e1aea2f	0.15128396
11	0xbdbe33bc	-0.09287211
12	0x3bc84665	0.0061119073
13	0x3ea66bd1	0.32504132
14	0x3e6808fe	0.2265968
15	0x3a9e943a	0.0012098618
16	0xbe04fa4e	-0.12986109
17	0xbe88259b	-0.2659119
18	0x3e2fcbe2	0.17167619
19	0x3e7a2861	0.24429466
20	0x3e078726	0.13235149
21	0xbe25190a	-0.16122833
22	0x3c9f14ba	0.019419063
23	0xbde710cd	-0.11282501
24	0x3e51c5a9	0.20485558
25	0xbeb2395f	-0.34809396
26	0x3e3887dd	0.18020578
27	0xbdbebeef	-0.093137614
28	0xbc3aee74	-0.011409391
29	0xbd1fa3c3	-0.038974535
30	0xbbd7d9cb	-0.0065872422
31	0x3c8e40fb	0.01736497
32	0x3e95ed3b	0.29282555
33	0x3d57d8e3	0.052697074
34	0xbe9276ac	-0.28606164
35	0x3e9b1fc8	0.30297685
36	0x3e743dc8	0.23851693
37	0x3e8ab7fa	0.27093488
38	0x3e8e958f	0.2784848
39	0x3e891ed4	0.26781332
40	0x3e0bb070	0.13641524
41	0xbe60c7ed	-0.21951266
42	0x3d187b03	0.037226688
43	0xbd73e313	-0.059542727
44	0xbe92ed88	-0.28696847
45	0x3d78aa58	0.060709327
46	0x3e36fc46	0.17869672
47	0xbe3de346	-0.18543729
48	0x3d4cd1a9	0.050004635
49	0x3de7ddfd	0.11321638
50	0x3e0477ec	0.12936372
51	0x3c875802	0.016521458
52	0xbdcd9e00	-0.10039902
53	0x3e954925	0.29157367
54	0xbd6197fa	-0.055076577
55	0xbe77d561	-0.24202491
56	0x3d729229	0.05922142
57	0xbdfce807	-0.12348943
58	0xbe28c6b8	-0.16482055
59	0x3cf4f1e5	0.0299005
60	0x3e636bd1	0.22209097
61	0xbe135360	-0.14387274
62	0xbdf250da	-0.118318275
63	0x3eacad7a	0.33726102
64	0x3e3000f8	0.1718787
65	0x3e682677	0.22670923
66	0x3d0d88ba	0.03455422
67	0xbe6dfc09	-0.23240675
68	0x3dcb73e9	0.099342175
69	0x3e40d294	0.18830329
70	0x3e594225	0.21216638
71	0xbe2b569c	-0.16732258
72	0x3e6ed864	0.23324734
73	0x3cf81d20	0.030287325
74	0xbe7d1146	-0.2471362
75	0xbd690557	-0.056889858
76	0x3e4ca0a0	0.19983149
77	0xbe118450	-0.1421063
78	0xbcd54a05	-0.026036272
79	0x3e1baf81	0.15203668
80	0xbe605bc6	-0.21910009
81	0xbdce0746	-0.10059981
82	0x3df3b5ba	0.11899896
83	0xbe8d3b93	-0.27584514
84	0xbe27f79b	-0.16403048
85	0xbc0ca29f	-0.008583694
86	0x3e0552b8	0.13019836
87	0x3d94245e	0.07233499
88	0x3d9ecb69	0.07753641
89	0x3d55b1d8	0.05217156
90	0x3e98dec5	0.2985746
91	0xbe541bf0	-0.20713782
92	0x3e5d5607	0.21614848
93	0x3e16c9a6	0.1472536
94	0xbe90611b	-0.28199086
95	0xbc5c9839	-0.013464027
96	0x3d1367d4	0.03598769
97	0x3e1e0d52	0.15434769
98	0x3e4147e6	0.18875083
99	0x3e297f96	0.16552576

parametrizer.linear2.bias f4 [10]
0	0x3dfb4341	0.12268687
1	0x3dbea4b6	0.0930876
2	0xbe0ed3f8	-0.13948047
3	0x3e432baf	0.19059633
4	0x3c745af7	0.014914266
5	0x3e537c50	0.2065289
6	0x3ebaa9d7	0.36457703
7	0x3e894916	0.26813573
8	0x3e9f97f6	0.31170624
9	0xbe0a4409	-0.13502516

parametrizer.linear3.weight f4 [5, 10]
0	0xbe45684a	-0.19278064
1	0x3e55ea5b	0.20890181
2	0x3da4180f	0.08012401
3	0xbdbc1779	-0.091841646
4	0x3e2d604c	0.16931266
5	0x3e5de8b4	0.216708
6	0xbea35b4a	-0.31905586
7	0x3e65349a	0.22383347
8	0x3d0317f1	0.032005254
9	0x3db73a9b	0.08946725
10	0x3d23f7d3	0.040031265
11	0xbe89b9be	-0.26899523
12	0xbddd70c3	-0.10812523
13	0xb9d43d3a	-0.00040481408
14	0x3e32e1a5	0.17468889
15	0xbeaa0f92	-0.33215004
16	0xbeae5ac7	-0.34053633
17	0x3d3f770a	0.046744384
18	0xbc956747	-0.018237723
19	0xbc806d70	-0.015677184
20	0x3e0a9956	0.13535056
21	0xbe08892b	-0.13333575
22	0x3e5e5747	0.21712981
23	0xbe5a7779	-0.21334638
24	0x3e892e23	0.26793012
25	0xbe6415e0	-0.2227397
26	0x3e6c69dd	0.23087259
27	0xbe2240d6	-0.15845045
28	0x3e77584c	0.24154776
29	0xbe8a1551	-0.26969388
30	0xbe0fa354	-0.14027148
31	0x3e8820c1	0.2658749
32	0x3e78273f	0.24233721
33	0x3e7992d4	0.24372417
34	0xbea6d9ce	-0.32588047
35	0xbd9430a2	-0.072358385
36	0xbd28332c	-0.041064426
37	0x3df1c05b	0.11804267
38	0xbdf235f7	-0.11826699
39	0x3e7e2101	0.24817277
40	0xbe13d9d3	-0.14438562
41	0xbdb828ca	-0.08992155
42	0xbe123091	-0.14276339
43	0xbe3e651c	-0.18593258
44	0x3d12fdb8	0.035886496
45	0xbe867af4	-0.2626568
46	0x3e8f56ef	0.27996013
47	0x3cb7d2c8	0.022439376
48	0x3e6687f0	0.22512794
49	0xbe82abb0	-0.25521612

parametrizer.linear3.bias f4 [5]
0	0x3e0c1b05	0.13682182
1	0xbe4419f1	-0.19150521
2	0xbcc68e1d	-0.024237687
3	0xbe6b6783	-0.22988705
4	0x3de52161	0.11188007

parametrizer.linear4.weight f4 [31, 5]
0	0xbddae3da	-0.106879905
1	0xba521ac7	-0.00080148544
2	0x3d9659cc	0.07341346
3	0x3ea3d582	0.3199883
4	0x3ecef7c1	0.40423396
5	0x3e8ed06d	0.2789339
6	0xbd8bc43e	-0.068245396
7	0xbc9dde0a	-0.019270916
8	0x3ea637eb	0.32464537
9	0x3e2f9729	0.17147507
10	0x3d2fac43	0.04288889
11	0x3dd212f2	0.1025752
12	0x3e2f5341	0.17121603
13	0x3d79d8fe	0.060997956
14	0x3edde703	0.4334031
15	0x3e7201df	0.23633526
16	0xbefa9e6f	-0.48949
17	0xbe096fff	-0.1342163
18	0x3e826fae	0.2547583
19	0x3b243901	0.002505839
20	0xbaf648d5	-0.0018790016
21	0x3ea5495e	0.32282537
22	0x3d2b3c43	0.041805517
23	0x3e4c477a	0.19949141
24	0x3dcfbae0	0.101430655
25	0x3ea28e25	0.31749073
26	0x3d8aa452	0.06769623
27	0x3e051f6e	0.1300027
28	0xbef43259	-0.47694662
29	0x3d8a2221	0.06744791
30	0xbe310b64	-0.17289501
31	0xbc83ba24	-0.01607997
32	0xbe80a1f8	-0.25123572
33	0xbdac57cc	-0.084151834
34	0x3ed79aa6	0.42110175
35	0x3e924943	0.2857152
36	0x3e1168f9	0.142002
37	0x3daa3c93	0.08312335
38	0xbeb5f894	-0.35541213
39	0x3cc59060	0.024116695
40	0xbea498b7	-0.32147762
41	0xbebbc636	-0.3667466
42	0xbeca4189	-0.39503124
43	0xbe1bb343	-0.15205102
44	0x3d7d33bb	0.061816912
45	0xbe4d08f5	-0.20022948
46	0x3da83e51	0.08215011
47	0x3edacfb4	0.4273659
48	0x3e52d3ea	0.20588651
49	0xbe45d87e	-0.19320866
50	0x3e665bc5	0.22495945
51	0x3e656811	0.2240298
52	0x3ec4c507	0.3843157
53	0x3e6cc5e6	0.23122367
54	0x3ebb53e3	0.36587438
55	0x3ed77ffd	0.42089835
56	0xbe1b1366	-0.15144119
57	0x3dd21ab0	0.102589965
58	0xbd2b4ddd	-0.041822303
59	0xbe8c93a4	-0.2745639
60	0xbe970195	-0.29493394
61	0x3d155598	0.03645858
62	0x3ea83f1d	0.32860652
63	0x3e5ca9c9	0.21549143
64	0xbeb5e395	-0.35525194
65	0x3e5b2818	0.21402013
66	0xbe2979f8	-0.16550434
67	0xbea3e8d6	-0.32013577
68	0xbe2c3e75	-0.168207
69	0x3ecfaee9	0.40563133
70	0x3e3ae180	0.18250084
71	0x3e3eb04c	0.1862194
72	0x3d309dd1	0.043119255
73	0xbecdb6f8	-0.40178657
74	0xbeb5aa1b	-0.35481343
75	0xbd522679	-0.05130622
76	0xbc10be8c	-0.008834492
77	0x3e7eb12d	0.24872275
78	0x3e62fba0	0.221663
79	0xbd9cbc7e	-0.076531395
80	0xbeb5bce1	-0.35495666
81	0xbea0d37f	-0.3141136
82	0x3ea2a0ea	0.31763393
83	0x3c6a58a0	0.014303356
84	0xbe9e2206	-0.30885333
85	0xbe912dba	-0.283552
86	0xbddc9d17	-0.1077215
87	0xbec024f3	-0.3752819
88	0xbde63e7a	-0.11242385
89	0xbe810d86	-0.2520563
90	0xbe82346b	-0.25430617
91	0x3d9c9ef8	0.076475084
92	0x3ea99aaf	0.33125827
93	0xbea80241	-0.3281422
94	0x3e9d9d6a	0.3078416
95	0x3dfbc929	0.12294228
96	0xbe8f5bba	-0.2799967
97	0x3e2f4f00	0.1711998
98	0x3ed5adfb	0.417343
99	0x3e171196	0.14752802
100	0xbebd24b4	-0.36942065
101	0xbe4d9fee	-0.2008054
102	0x3e96c1f9	0.29444864
103	0xbcebaf2c	-0.028770052
104	0x3f02bcb5	0.51069194
105	0xbe557580	-0.20845604
106	0xbee86f2f	-0.45397326
107	0x3d814a95	0.063130535
108	0x3e4738c1	0.19455244
109	0xbe81d246	-0.25355738
110	0x3d26af95	0.04069479
111	0x3dc72723	0.097242616
112	0xbea15899	-0.31512907
113	0xbd81e984	-0.06343368
114	0xbe27268f	-0.16323303
115	0xbea559bb	-0.3229502
116	0xbedd31a7	-0.43201944
117	0xbeb5e3ff	-0.3552551
118	0xbd786481	-0.060642723
119	0x3ed3c1a6	0.4135868
120	0x3d1edbbd	0.038783778
121	0xbef10f26	-0.4708187
122	0xbca24b65	-0.019811342
123	0xbe2e6060	-0.17028952
124	0xbdc388cb	-0.095475756
125	0xbe7fbc47	-0.24974166
126	0xbe0e13e1	-0.1387477
127	0x3db89abc	0.09013888
128	0xbe50f72c	-0.20406789
129	0xbe624cbd	-0.22099586
130	0x3e17a0bd	0.1480741
131	0x3d2b0e48	0.041761667
132	0xbc9e23f0	-0.019304246
133	0xbec1b17e	-0.37830728
134	0xbd5d7115	-0.05406292
135	0xbe1d5ba9	-0.15366997
136	0x3d1bd110	0.038041174
137	0xbcb3d973	-0.021954274
138	0x3d1246c0	0.035712004
139	0xbeb1b9d1	-0.3471208
140	0x3dcc5378	0.09976858
141	0x3e0a28b6	0.13492092
142	0x3d2319ec	0.039819643
143	0x3e9420e7	0.28931352
144	0xbe0b5eb7	-0.1361035
145	0x3e7f56d9	0.24935474
146	0x393aac7a	0.00017802595
147	0x3e740201	0.2382889
148	0xbdede002	-0.11614992
149	0xbdef3080	-0.116791725
150	0x3dc4960a	0.0959893
151	0xbe4de065	-0.20105131
152	0xbce3fa8b	-0.02782943
153	0x3ce10a9e	0.027470883
154	0xbe951411	-0.29116872

parametrizer.linear4.bias f4 [31]
0	0x3e000ed7	0.12505661
1	0x3e04da85	0.12973984
2	0xbd8f51f3	-0.069980524
3	0x3e335cb7	0.17515837
4	0x3eb8a982	0.36066824
5	0x3e993df6	0.29930085
6	0xbeaacbcc	-0.3335861
7	0xbc63cb77	-0.01390349
8	0xbe8e16aa	-0.27751666
9	0xbe662e8b	-0.22478692
10	0x3e55d715	0.20882829
11	0x3c8336aa	0.016017277
12	0x3e4edc69	0.20201267
13	0x3d6b9e03	0.05752374
14	0xbeaa3e2b	-0.33250555
15	0x3ed5b260	0.41737652
16	0xbe63ffb8	-0.22265518
17	0x3ebef5a1	0.37296775
18	0xbdf3cd85	-0.11904434
19	0xbe617f16	-0.22021136
20	0xbec7b0a3	-0.3900195
21	0x3e466299	0.1937355
22	0x3e46cdd1	0.1941445
23	0x3ebf932d	0.37416974
24	0xbea7c185	-0.3276483
25	0x3ed1f3e7	0.41006395
26	0x3edaa5f7	0.42704746
27	0xbec1fbfd	-0.37887564
28	0x3dfb9855	0.122849144
29	0x3ed2c33b	0.41164574
30	0xbe5d22c0	-0.21595287

exp_avg f4 [10, 30]
0	0xbacda63b	-0.0015689799
1	0xba026857	-0.00049746543
2	0xbab86208	-0.0014067302
3	0xba7aca9f	-0.0009566936
4	0xba3f6acf	-0.00073019875
5	0xb9cbc4e2	-0.00038865866
6	0xbaad03d6	-0.0013199996
7	0xbabd0ad5	-0.0014422784
8	0x3aa788cb	0.0012781856
9	0x3ab6958a	0.0013930064
10	0x39b3e452	0.00034311652
11	0x3b900f34	0.0043963436
12	0xb8cb5b0a	-9.696752e-05
13	0x3a3683fc	0.0006962416
14	0x3b1739d3	0.0023075237
15	0x3a9dbb62	0.0012033994
16	0xba3c8e2a	-0.0007192815
17	0xbad336eb	-0.0016114389
18	0x3b9171e3	0.004438625
19	0x3ac489a8	0.0014994638
20	0xbb4556bb	-0.003011151
21	0xbb492317	-0.0030691081
22	0xbb458e05	-0.0030144465
23	0xbb21422a	-0.0024606087
24	0xbb4ce955	-0.0031267006
25	0xbabe1ec3	-0.0014505017
26	0xbb77a82e	-0.0037789452
27	0xbb75dae0	-0.0037514493
28	0xbaff78cd	-0.0019490957
29	0xba3fa03d	-0.0007309949
30	0x3a8bf724	0.0010678512
31	0xba9621e5	-0.0011454193
32	0x3a6aff81	0.00089644647
33	0x3a3c63f5	0.00071865256
34	0x3bae931b	0.005327595
35	0xbaba1259	-0.0014196142
36	0xbaf9f6fe	-0.0019070802
37	0x3a721300	0.00092343986
38	0x3b582ecf	0.0032986884
39	0xbb46f9f2	-0.0030361381
40	0x3a1f6aaf	0.0006081266
41	0xbb070ace	-0.0020605805
42	0xb9e0395f	-0.00042767354
43	0x3a3e42c1	0.0007257872
44	0x3ab69659	0.0013930305
45	0xbbd4689e	-0.006482198
46	0xbbd42ab0	-0.0064748153
47	0xbb5d7260	-0.0033790097
48	0xba7b4b52	-0.0009586114
49	0xbc0286ca	-0.0079667065
50	0x3ad65067	0.0016350866
51	0x39eaf721	0.00044816083
52	0x3aae38f5	0.0013292121
53	0x3aa6a4b9	0.0012713886
54	0x3bbc2f81	0.0057429676
55	0xba43518b	-0.00074508105
56	0xbb1b860a	-0.0023731017
57	0x3a26b442	0.0006359258
58	0x3b8a1844	0.0042143185
59	0xbb002f8b	-0.0019559588
60	0x398fcd88	0.00027428218
61	0xbab53429	-0.0013824749
62	0x391eed34	0.00015156419
63	0x39ab4f6d	0.00032674838
64	0xba443226	-0.00074842793
65	0xbad3326c	-0.0016113049
66	0xbae2b503	-0.0017296377
67	0xba69c855	-0.00089180964
68	0xb9b88e0e	-0.00035201054
69	0xbb007cc2	-0.0019605611
70	0xba3bba00	-0.00071612
71	0xbab76931	-0.0013993141
72	0xba2809ef	-0.00064101716
73	0xb9d3ed77	-0.0004042198
74	0xb9cba990	-0.0003884551
75	0xba999242	-0.0011716562
76	0xba7db86b	-0.00096786645
77	0x380d558f	3.3696702e-05
78	0x39b23221	0.00033988155
79	0xbb0dae7e	-0.0021618898
80	0xba01ed67	-0.0004956335
81	0xbb28be3f	-0.002574816
82	0xba164a88	-0.0005733152
83	0xba1044d8	-0.00055034226
84	0xbabf3085	-0.0014586604
85	0xbae63e59	-0.0017566188
86	0xbb0222cf	-0.0019857173
87	0xba7d4c39	-0.0009662542
88	0xba9e38ca	-0.0012071368
89	0xbb20e4ff	-0.0024550555
90	0xbb16e6cd	-0.0023025752
91	0xba96bb16	-0.0011499848
92	0xbb070e29	-0.0020607805
93	0xbaf737b1	-0.0018861202
94	0x3a754182	0.000935577
95	0x39b4a9a7	0.00034458676
96	0xba0e4cca	-0.00054283126
97	0xbaa02ede	-0.0012220999
98	0x3b2a08cf	0.0025945192
99	0x3b390662	0.0028232564
100	0x3b152652	0.0022758436
101	0x3b918f68	0.004442144
102	0x3aa6b057	0.0012717348
103	0x3ab7566a	0.0013987545
104	0x3b029c3f	0.0019929556
105	0x38a90748	8.059904e-05
106	0xba5b1772	-0.00083576806
107	0xba9e85a1	-0.0012094268
108	0x3bb4ea81	0.005521119
109	0x397749af	0.00023583205
110	0xbb2f2d4b	-0.0026729878
111	0xbb59fe2f	-0.0033263077
112	0xbb35b43a	-0.0027725832
113	0xbb121375	-0.002228943
114	0xbacc1d36	-0.001557267
115	0xba051bfa	-0.0005077716
116	0xbb5f927c	-0.003411441
117	0xbb4f4a36	-0.0031629927
118	0xb9b8cafe	-0.00035246456
119	0x3a3a211a	0.00071002694
120	0xb9f5529d	-0.00046791593
121	0x3b16b71b	0.0022997323
122	0x38e2e49b	0.00010819101
123	0xb9a85a7e	-0.0003211088
124	0xbb923c52	-0.004462757
125	0x3bd4df8a	0.0064963745
126	0x3bdc7a69	0.0067284596
127	0x3aaaeee2	0.0013041163
128	0xbab1eb68	-0.0013574185
129	0x3c03f01c	0.008052852
130	0x3aa58eea	0.0012631093
131	0x3b11b839	0.002223505
132	0x3b1fbbd0	0.002437342
133	0x3a031943	0.00050010177
134	0xba37128d	-0.000698366
135	0x3c5db049	0.013530799
136	0x3c410c6b	0.011782746
137	0x3bdc6e50	0.0067270175
138	0x3b14e304	0.002271832
139	0x3c886142	0.016647939
140	0xba36d3aa	-0.00069742894
141	0x3ac61400	0.0015112162
142	0x3889b895	6.56705e-05
143	0xba002b13	-0.0004889231
144	0xbba2a9be	-0.0049640825
145	0x3bb63cc8	0.005561445
146	0x3beda299	0.007252049
147	0x3b0157dd	0.0019736208
148	0xbb17bf89	-0.0023154935
149	0x3bfee44c	0.00777868
150	0x3b240cd1	0.0025032053
151	0xb9f38b85	-0.00046452522
152	0x3b2fe324	0.0026838267
153	0x3aeea381	0.0018206687
154	0x3c219e2c	0.009864371
155	0x3b6eee47	0.0036457942
156	0x3b5a5147	0.0033312605
157	0x3b9ff827	0.004881877
158	0x3bcd9e60	0.0062749833
159	0x3acc7902	0.0015600028
160	0x3b14a42d	0.0022680864
161	0xbadbc3b7	-0.0016766702
162	0x3aa05fc4	0.0012235572
163	0x3b004519	0.0019572435
164	0x3b78b838	0.00379516
165	0xbb24395c	-0.0025058603
166	0xbb2ead0d	-0.002665344
167	0x3a108497	0.00055129215
168	0xbb0b6330	-0.0021268837
169	0xbaf12694	-0.0018398338
170	0x3b64ed1f	0.0034931374
171	0x3b0dba9c	0.002162612
172	0x3b65b6e0	0.003505163
173	0x3b3de139	0.0028973354
174	0x3c22b805	0.009931569
175	0x3b38e488	0.0028212387
176	0x3aff73e1	0.0019489491
177	0x3b91a918	0.0044452064
178	0x3ba7eab7	0.0051244157
179	0x3b3547eb	0.0027661275
180	0xba2e00ab	-0.0006637673
181	0x3a8c6c90	0.0010713506
182	0xba315d80	-0.0006765947
183	0xba4c6525	-0.0007797054
184	0xba709fcb	-0.00091790844
185	0xba41f52f	-0.0007398901
186	0xba951c10	-0.0011376161
187	0xba3d13ab	-0.00072127086
188	0xbab8b71a	-0.0014092654
189	0xba25232a	-0.00062994903
190	0xb9c83b73	-0.00038191266
191	0x3a91ea51	0.0011132454
192	0xba0feb76	-0.00054901035
193	0xba326282	-0.000680484
194	0x39c11dab	0.00036833933
195	0xb99c5940	-0.00029821135
196	0xba759cfa	-0.00093693996
197	0x386f5506	5.7061225e-05
198	0x3a250e15	0.0006296349
199	0x39adc8ed	0.00033146833
200	0xba53ad81	-0.00080748653
201	0x3a2aa61b	0.0006509737
202	0xba5eb853	-0.00084960944
203	0xba759bbc	-0.00093692145
204	0xba381aac	-0.00070230174
205	0xba597232	-0.00082949095
206	0xbac372b8	-0.0014911508
207	0xba3d940a	-0.00072318374
208	0xba642b86	-0.0008703995
209	0xba55da86	-0.00081578677
210	0x3a8ddf1d	0.0010823939
211	0xbb0ef346	-0.0021812483
212	0x3a4da828	0.00078451866
213	0x3a70af42	0.0009181389
214	0x3a121783	0.00055729615
215	0xbb489805	-0.0030608189
216	0xbb1a1904	-0.0023513446
217	0xba668a57	-0.0008794418
218	0x386a34d1	5.5839137e-05
219	0xbb89671a	-0.004193199
220	0xbab9f109	-0.0014186214
221	0xbb6d63c1	-0.0036222788
222	0xba93f0ac	-0.0011286936
223	0xba37f2e6	-0.00070170907
224	0xbae22a87	-0.0017255106
225	0xbb945a37	-0.004527356
226	0xbb3d3619	-0.0028871356
227	0xbae11247	-0.0017171585
228	0xbb450dcd	-0.003006804
229	0xbbe4a649	-0.0069778305
230	0x3a48d23b	0.00076607213
231	0xbb02d2ad	-0.0019961998
232	0x3a204a36	0.0006114574
233	0x3a04aae7	0.0005060867
234	0x3a277d2d	0.0006389197
235	0xbb10d034	-0.0022096755
236	0xbac95c1b	-0.0015362533
237	0xb9a43e3c	-0.00031326886
238	0xb9c1dcf2	-0.00036976446
239	0xbb73b4cb	-0.0037186618
240	0xbabb532c	-0.0014291755
241	0x3a1c5988	0.0005964269
242	0xba8e511a	-0.001085791
243	0xbadfcd59	-0.0017074748
244	0x3ba5da36	0.005061413
245	0x3b2ebe9b	0.0026663903
246	0x3a49f027	0.0007703327
247	0x3ab5da3f	0.0013874247
248	0x3b9f7bb6	0.0048670424
249	0x3b35523f	0.002766743
250	0x3a7836e2	0.00094686274
251	0x3b003107	0.0019560473
252	0x3994a718	0.00028353254
253	0x399fed30	0.00030503562
254	0x3b1c8931	0.0023885483
255	0xb7f52797	-2.9224711e-05

exp_avg_sq f4 [10, 30]
0	0x36f321fa	7.2459197e-06
1	0x36888929	4.0690834e-06
2	0x36ea9432	6.9909956e-06
3	0x36d4b933	6.3396524e-06
4	0x36e82a23	6.919044e-06
5	0x3708dbe5	8.15743e-06
6	0x3727ddb1	1.0005592e-05
7	0x36fabd53	7.472621e-06
8	0x36d11853	6.231517e-06
9	0x36b45c96	5.3751965e-06
10	0x369f660f	4.7504504e-06
11	0x37933140	1.75467e-05
12	0x3661b4e0	3.3632896e-06
13	0x36d1b835	6.25013e-06
14	0x371427ce	8.830755e-06
15	0x3727a49b	9.992301e-06
16	0x36f6c78c	7.3546016e-06
17	0x3690a65e	4.310902e-06
18	0x373a4b8a	1.1104052e-05
19	0x36e7e46a	6.9109274e-06
20	0x3702df5b	7.800608e-06
21	0x36ae9b64	5.203694e-06
22	0x370052ba	7.648656e-06
23	0x36d6a176	6.3964935e-06
24	0x36b4b874	5.385891e-06
25	0x36fb35f7	7.4866653e-06
26	0x37158445	8.9118885e-06
27	0x370a5df7	8.247319e-06
28	0x36d87476	6.4508595e-06
29	0x36fad28c	7.4750915e-06
30	0x36094fb4	2.0460984e-06
31	0x35f8b53e	1.8530188e-06
32	0x35f45ee8	1.8207038e-06
33	0x35c6df5f	1.4817159e-06
34	0x36f7b93d	7.382738e-06
35	0x3620e58d	2.3975474e-06
36	0x360eb273	2.126352e-06
37	0x35860115	9.984093e-07
38	0x36970592	4.500799e-06
39	0x36f54539	7.3096276e-06
40	0x355cfa16	8.232031e-07
41	0x3716a93c	8.9801e-06
42	0x35669115	8.58928e-07
43	0x34d7090d	4.0053456e-07
44	0x369e70d1	4.7219005e-06
45	0x37475b67	1.1882606e-05
46	0x371e9af4	9.453612e-06
47	0x36f02f32	7.1580516e-06
48	0x365a34a3	3.251517e-06
49	0x37bdc3d8	2.2621753e-05
50	0x35fea3d2	1.8972153e-06
51	0x3629de17	2.5312236e-06
52	0x35dc1089	1.639609e-06
53	0x35b8fc04	1.3782414e-06
54	0x372c8c96	1.0284732e-05
55	0x361f3c11	2.372781e-06
56	0x362a2f1e	2.53594e-06
57	0x35d4cc3f	1.5854674e-06
58	0x36d395ae	6.305715e-06
59	0x369684d3	4.485811e-06
60	0x364e0421	3.0698795e-06
61	0x353d1344	7.043602e-07
62	0x363c67ff	2.8074717e-06
63	0x368cf93c	4.20134e-06
64	0x34f9babc	4.651573e-07
65	0x351d4b81	5.859693e-07
66	0x354a6bb7	7.540761e-07
67	0x35a8b265	1.2568895e-06
68	0x34b9cf0f	3.460959e-07
69	0x35f32129	1.8114562e-06
70	0x365ae0a9	3.26153e-06
71	0x34d1a450	3.9048837e-07
72	0x3649cee8	3.007177e-06
73	0x36b80355	5.484015e-06
74	0x3542f7a0	7.2630974e-07
75	0x35bdea0a	1.4149712e-06
76	0x35475d47	7.4269013e-07
77	0x35613276	8.389246e-07
78	0x35245a3a	6.122606e-07
79	0x35eec41a	1.7789455e-06
80	0x363d6e9d	2.822758e-06
81	0x3582426f	9.70509e-07
82	0x3626763d	2.4804751e-06
83	0x36889ed6	4.071607e-06
84	0x351cdcd4	5.8435876e-07
85	0x358f8aae	1.0694691e-06
86	0x358730e2	1.0072511e-06
87	0x353a4d2b	6.9402694e-07
88	0x35a5b230	1.2345317e-06
89	0x360247c4	1.9413283e-06
90	0x3713de54	8.813648e-06
91	0x376159a0	1.34319125e-05
92	0x370a0024	8.225474e-06
93	0x370606d8	7.988616e-06
94	0x36d6d8da	6.402942e-06
95	0x36aff087	5.2434075e-06
96	0x36c77e12	5.9453387e-06
97	0x36e83211	6.9199673e-06
98	0x3686f1d6	4.0216646e-06
99	0x37355f35	1.0810608e-05
100	0x37284012	1.0028498e-05
101	0x37d14e6a	2.4951256e-05
102	0x36e2a688	6.7547116e-06
103	0x362f52e5	2.6125283e-06
104	0x372ea714	1.0410109e-05
105	0x3738fdf2	1.1026381e-05
106	0x37062e1c	7.997758e-06
107	0x375b84df	1.3084354e-05
108	0x37d4df31	2.5376301e-05
109	0x37897d98	1.6390157e-05
110	0x371ad913	9.229657e-06
111	0x372d7ac5	1.0340188e-05
112	0x371b8579	9.2697965e-06
113	0x370ed3c3	8.513164e-06
114	0x36b6c08c	5.446438e-06
115	0x371cbc92	9.3422295e-06
116	0x372277c3	9.683837e-06
117	0x3744b370	1.1724289e-05
118	0x3712ff10	8.7616645e-06
119	0x374fd6bf	1.2388161e-05
120	0x3748bd3c	1.19649885e-05
121	0x36c29f1c	5.8001733e-06
122	0x372d523f	1.0330753e-05
123	0x3749bf06	1.202501e-05
124	0x36637fea	3.3900092e-06
125	0x377a01f2	1.4901614e-05
126	0x3769485a	1.3904728e-05
127	0x3667fa0c	3.4567229e-06
128	0x36a442e4	4.895368e-06
129	0x38323fdd	4.2497984e-05
130	0x36b1c235	5.2976197e-06
131	0x35f1c672	1.8013654e-06
132	0x3687269a	4.0278073e-06
133	0x36eee154	7.1191844e-06
134	0x36a4fee4	4.917254e-06
135	0x389df2b6	7.531552e-05
136	0x38822ad2	6.206859e-05
137	0x37ecbb7e	2.82207e-05
138	0x3753d856	1.262695e-05
139	0x38f81a3a	0.000118304466
140	0x375ffea8	1.3351128e-05
141	0x36fc49e9	7.5187895e-06
142	0x373bddcb	1.1197709e-05
143	0x376b887f	1.4038872e-05
144	0x36c51508	5.873506e-06
145	0x371aaa46	9.21876e-06
146	0x3796dddf	1.798471e-05
147	0x36823016	3.8799e-06
148	0x370d534f	8.423652e-06
149	0x37cc17ad	2.432972e-05
150	0x37675242	1.3787825e-05
151	0x36d14dc0	6.2377367e-06
152	0x375bc7dd	1.30999515e-05
153	0x37945c0d	1.768584e-05
154	0x37808482	1.5320493e-05
155	0x36995f64	4.5708603e-06
156	0x36f94141	7.428375e-06
157	0x372b0493	1.0193459e-05
158	0x3735de2b	1.0840168e-05
159	0x37328947	1.0641589e-05
160	0x375e9bdd	1.3268521e-05
161	0x37b07715	2.1036287e-05
162	0x3749db55	1.2031601e-05
163	0x3786eee1	1.6085281e-05
164	0x375167fe	1.2481583e-05
165	0x36af9863	5.2331466e-06
166	0x36b0a2ef	5.2641767e-06
167	0x36deb7a1	6.637493e-06
168	0x36fddbcc	7.5655753e-06
169	0x3659f4ae	3.2477942e-06
170	0x374fc6bc	1.2384433e-05
171	0x36edc372	7.0859032e-06
172	0x373a5374	1.1105894e-05
173	0x378650c4	1.6011654e-05
174	0x3794aa47	1.7722266e-05
175	0x37080a7e	8.108675e-06
176	0x37007f13	7.658981e-06
177	0x36c5fe03	5.9006284e-06
178	0x37898956	1.6395625e-05
179	0x374fc05d	1.23829495e-05
180	0x34655e1b	2.1361522e-07
181	0x35e1cd9b	1.6823645e-06
182	0x34713f65	2.2467937e-07
183	0x348d1d8e	2.62848e-07
184	0x35875c27	1.0085104e-06
185	0x350371bb	4.89668e-07
186	0x3555bb3c	7.9621145e-07
187	0x34f231d2	4.5112262e-07
188	0x358193e0	9.654286e-07
189	0x3483420a	2.44487e-07
190	0x350e9b67	5.312526e-07
191	0x36676ddd	3.4485631e-06
192	0x34ae71ed	3.2492918e-07
193	0x348e03e1	2.6452383e-07
194	0x357adcde	9.345366e-07
195	0x3556c14a	8.0002485e-07
196	0x3597929b	1.1293045e-06
197	0x352c98c4	6.4297296e-07
198	0x35c4ee50	1.4672496e-06
199	0x35d5396f	1.5886452e-06
200	0x3458a7c3	2.0177599e-07
201	0x35b0a949	1.316229e-06
202	0x348250ff	2.427332e-07
203	0x3488be34	2.5470365e-07
204	0x356f5362	8.9155776e-07
205	0x350cfde0	5.25235e-07
206	0x358ee6cf	1.0646999e-06
207	0x3509665e	5.118544e-07
208	0x3555cf4e	7.965035e-07
209	0x34ce65f1	3.8444662e-07
210	0x368804e3	4.0536847e-06
211	0x35c8c2c6	1.4957848e-06
212	0x367eb268	3.7952796e-06
213	0x369377f4	4.394906e-06
214	0x363d6893	2.8224065e-06
215	0x3580dbf8	9.600762e-07
216	0x35a32208	1.2154351e-06
217	0x36284051	2.5071388e-06
218	0x35eb4b0f	1.7530709e-06
219	0x3606f3cb	2.0109462e-06
220	0x35fa5a55	1.8652742e-06
221	0x36606247	3.3435806e-06
222	0x35b2eb9b	1.3330604e-06
223	0x36167bae	2.2423733e-06
224	0x35d2ff27	1.5720478e-06
225	0x3630c1d5	2.6338869e-06
226	0x35860fd4	9.988385e-07
227	0x35397d10	6.909986e-07
228	0x35d24e0f	1.5668937e-06
229	0x36bf8816	5.708086e-06
230	0x3688721e	4.066401e-06
231	0x35ab6b7e	1.2771777e-06
232	0x367fa07a	3.809137e-06
233	0x3693dc47	4.406585e-06
234	0x363f065d	2.8464922e-06
235	0x35430f24	7.2665193e-07
236	0x356e2661	8.871776e-07
237	0x35d8e73d	1.6160553e-06
238	0x359e986e	1.181628e-06
239	0x35f4fcdf	1.8253012e-06
240	0x36f32b8d	7.2470343e-06
241	0x366a348a	3.48993e-06
242	0x36e28bc0	6.751594e-06
243	0x37010d84	7.692146e-06
244	0x368e7ef3	4.2467086e-06
245	0x36d5c26c	6.3705284e-06
246	0x3706d4d6	8.036577e-06
247	0x369e9912	4.7265867e-06
248	0x37073819	8.059688e-06
249	0x3739c7d3	1.10733845e-05
250	0x36538492	3.1518616e-06
251	0x36ccbfd7	6.102007e-06
252	0x364eb803	3.08035e-06
253	0x36aba7ce	5.115732e-06
254	0x36b0346e	5.2513124e-06
255	0x3749dc47	1.2031821e-05

exp_avg f4 [10]
0	0x3b4f237f	0.003160685
1	0xbbc4fa9c	-0.0060113203
2	0x3c44097f	0.011965155
3	0xbc223b40	-0.009901822
4	0xbc5bd0ee	-0.013416512
5	0xbc93b108	-0.018028751
6	0x3b94749c	0.0045305025
7	0x3c194853	0.009355622
8	0xbb6d681a	-0.003622538
9	0xbbb8bc3f	-0.005637675

exp_avg_sq f4 [10]
0	0x3759c1c3	1.2979322e-05
1	0x373fd442	1.1433907e-05
2	0x373f8484	1.1415341e-05
3	0x371ef670	9.474912e-06
4	0x381911bb	3.6494555e-05
5	0x38f27ed9	0.000115630864
6	0x36a2d96f	4.853289e-06
7	0x36f7a15e	7.3799592e-06
8	0x36eba8f8	7.0232163e-06
9	0x36a2248e	4.8322318e-06

exp_avg f4 [10, 10]
0	0x3bc1dce7	0.005916226
1	0x39c9a372	0.00038459484
2	0xba62869c	-0.0008641274
3	0xbb43198a	-0.002976986
4	0x3b0679ca	0.002051937
5	0xbac50ee8	-0.001503435
6	0xbb1d316e	-0.0023985761
7	0xbaae174e	-0.0013282092
8	0x3b99f6a9	0.0046985936
9	0xba991a54	-0.001168082
10	0xba8ccb51	-0.0010741745
11	0xb8f682ab	-0.00011754533
12	0x388d7e9a	6.746985e-05
13	0xbbdaabcf	-0.006673313
14	0xbb05ef8c	-0.002043697
15	0x3b97409b	0.004615856
16	0x3afe290e	0.0019390897
17	0xba3e8275	-0.00072673644
18	0xbac4a78b	-0.0015003545
19	0x3b1675fd	0.002295851
20	0x3bbe1bff	0.0058016772
21	0x3b4a86aa	0.003090302
22	0x3a1e3053	0.00060344225
23	0xbc188c53	-0.0093108
24	0xbaf5f6e4	-0.0018765596
25	0x3bbfb42b	0.005850335
26	0xba66d975	-0.00088062073
27	0xbad07f13	-0.0015907012
28	0x3aa1ee52	0.001235435
29	0x3b6d96ae	0.0036253142
30	0x3a3f216c	0.0007291052
31	0xbab40a6a	-0.0013736014
32	0xba835084	-0.0010018502
33	0xbaf99241	-0.001904078
34	0x3a6555df	0.00087484525
35	0xb9eb9cf6	-0.00044939638
36	0x3a49a4a0	0.00076920725
37	0xba8dfede	-0.0010833403
38	0x3b287d6d	0.0025709525
39	0xba55e5c6	-0.0008159544
40	0x3bbd84a3	0.005783634
41	0x3ac9b3e0	0.001538869
42	0xbbaf9340	-0.0053581297
43	0x3b5da444	0.0033819834
44	0x3b7f3797	0.0038943046
45	0xbb8d8d85	-0.004319849
46	0xbb8d6ec0	-0.004316181
47	0x3aed11ec	0.0018087006
48	0x3b608711	0.0034260193
49	0xbbb379f4	-0.0054771844
50	0x3b43186a	0.002976919
51	0xbb4217c2	-0.0029616212
52	0xbbad0308	-0.0052799024
53	0xbbcf9bca	-0.00633571
54	0x3b24f0c2	0.0025167917
55	0xba9a7bb3	-0.0011786133
56	0xbaa6b7ff	-0.001271963
57	0xb7c553df	-2.3523286e-05
58	0x3b88315e	0.0041562757
59	0xbb7c6e71	-0.0038517977
60	0xbb9b107d	-0.00473219
61	0x3a799a0b	0.00095215504
62	0x3c5d438e	0.013504876
63	0xbbdcef45	-0.0067423903
64	0xbc093a49	-0.008375713
65	0x3c23752d	0.009976667
66	0x3b575a91	0.0032860378
67	0xbb2732f7	-0.0025512555
68	0xbc08d85b	-0.008352364
69	0x3c63196c	0.0138610415
70	0xbab8d2b4	-0.001410088
71	0xba9616bc	-0.0011450867
72	0xbb3b6844	-0.0028596083
73	0x3b278fcb	0.0025567885
74	0x3aa5394b	0.0012605576
75	0xbaa2052e	-0.0012361163
76	0x3a8dacba	0.0010808923
77	0x3a190928	0.0005837851
78	0x3aa88edc	0.0012859958
79	0xbb38e144	-0.002821044
80	0xbaa6c4c5	-0.0012723437
81	0x3a855992	0.0010173789
82	0x3b2fb29d	0.0026809343
83	0xba859652	-0.0010191894
84	0xbb0a85c7	-0.0021136866
85	0x3b24e247	0.0025159286
86	0x398177f4	0.0002469417
87	0x3ad42e0a	0.0016188037
88	0xbb91366e	-0.0044315374
89	0x3b3bea60	0.0028673634
90	0x397dadf4	0.00024192763
91	0xba2c5bcf	-0.000657496
92	0xbb4ef133	-0.0031576871
93	0x39a7fc9e	0.00032040937
94	0x3ac4f35d	0.0015026141
95	0xbaadac57	-0.0013250214
96	0x3a7edc39	0.0009722147
97	0xbb0813c5	-0.0020763737
98	0x3b92b162	0.004476712
99	0xbb2c8467	-0.0026324035

exp_avg_sq f4 [10, 10]
0	0x36b909f8	5.51459e-06
1	0x36e041e2	6.68339e-06
2	0x37bd3535	2.2555332e-05
3	0x371e2e9c	9.428386e-06
4	0x3702f2d1	7.805139e-06
5	0x3784f403	1.5849253e-05
6	0x37831e32	1.5630478e-05
7	0x37bfa514	2.2845845e-05
8	0x36895a5b	4.093437e-06
9	0x37b30695	2.1341528e-05
10	0x36e2927b	6.7523774e-06
11	0x364bbc64	3.0359015e-06
12	0x36cb3409	6.055929e-06
13	0x373f1ee4	1.1391679e-05
14	0x3610daf1	2.1585113e-06
15	0x36f57e4c	7.316272e-06
16	0x36c112d1	5.7540387e-06
17	0x36adb2ba	5.1766083e-06
18	0x361810b8	2.2659497e-06
19	0x36e54acd	6.83344e-06
20	0x372f19d5	1.0436827e-05
21	0x371a3e0c	9.193562e-06
22	0x36d81020	6.439179e-06
23	0x37857c4a	1.5912712e-05
24	0x367d4b16	3.7743644e-06
25	0x378270b0	1.5549682e-05
26	0x36e2dd24	6.761069e-06
27	0x3726f953	9.952421e-06
28	0x36080cc0	2.0273e-06
29	0x3787f6a3	1.6208103e-05
30	0x361dd7bb	2.3520395e-06
31	0x35eaa5d2	1.7482619e-06
32	0x35e86877	1.731575e-06
33	0x364cf904	3.0543315e-06
34	0x35f0cfd3	1.7941878e-06
35	0x36369f58	2.7212864e-06
36	0x361aafba	2.3050075e-06
37	0x3612810e	2.1830815e-06
38	0x3588cc06	1.0192168e-06
39	0x363e1a2a	2.8327436e-06
40	0x36e5e03b	6.8508357e-06
41	0x3760e377	1.3404401e-05
42	0x371139d5	8.656139e-06
43	0x37a591cf	1.973743e-05
44	0x3698de9b	4.5558677e-06
45	0x379ffc48	1.9071755e-05
46	0x37ae3677	2.0767779e-05
47	0x37094dab	8.18392e-06
48	0x36d4b8ad	6.3395914e-06
49	0x37f5590e	2.9247745e-05
50	0x36ff86a7	7.615268e-06
51	0x36d043d1	6.206778e-06
52	0x3752bece	1.2561401e-05
53	0x379f3692	1.8979688e-05
54	0x36b2ea34	5.332078e-06
55	0x378a8a24	1.6515209e-05
56	0x373b332d	1.1157984e-05
57	0x37686179	1.3850972e-05
58	0x3725bb24	9.8783385e-06
59	0x375dfdc9	1.32317155e-05
60	0x36b21446	5.3071735e-06
61	0x38297a54	4.0406667e-05
62	0x37a70ea1	1.9914763e-05
63	0x38899b8e	6.5616434e-05
64	0x378984ab	1.6393451e-05
65	0x38455bcb	4.705395e-05
66	0x3817520a	3.607761e-05
67	0x3740048a	1.1445149e-05
68	0x36f94e09	7.4298628e-06
69	0x384e0051	4.9114522e-05
70	0x35c03d24	1.4322909e-06
71	0x36946d6b	4.4234816e-06
72	0x370c373b	8.35751e-06
73	0x373386fa	1.0700658e-05
74	0x365a5348	3.2533007e-06
75	0x3709fb62	8.224366e-06
76	0x368ae46f	4.1393137e-06
77	0x36d0b8b9	6.2203876e-06
78	0x35b4549d	1.3435671e-06
79	0x3733e4c6	1.0722497e-05
80	0x36687e63	3.464426e-06
81	0x363dc8ca	2.828007e-06
82	0x364c1af1	3.041405e-06
83	0x36bb73ac	5.5865003e-06
84	0x3660b28e	3.3482534e-06
85	0x36e206b3	6.7361048e-06
86	0x366882b5	3.4646775e-06
87	0x3687ca0e	4.046836e-06
88	0x36480599	2.980558e-06
89	0x365314dd	3.1453594e-06
90	0x3681bf93	3.8668018e-06
91	0x36913ecb	4.328647e-06
92	0x36e2e325	6.761768e-06
93	0x37258396	9.865404e-06
94	0x36912f73	4.3268606e-06
95	0x3772c541	1.4470251e-05
96	0x3702e64e	7.802226e-06
97	0x36ff2742	7.6041624e-06
98	0x367f77d8	3.806772e-06
99	0x37114574	8.658844e-06

exp_avg f4 [10]
0	0x3c7f16a3	0.015569362
1	0xbabfd738	-0.0014636284
2	0x3c9c81a8	0.019104794
3	0x3be33380	0.0069336295
4	0x3ccf9a57	0.02534215
5	0x3c49c657	0.012315354
6	0xbd550e50	-0.052015603
7	0x3c0575c8	0.008145757
8	0xbc51971f	-0.012792378
9	0x3c9ca559	0.019121813

exp_avg_sq f4 [10]
0	0x38c1addc	9.235341e-05
1	0x3840e06f	4.5985387e-05
2	0x38941f5c	7.063031e-05
3	0x37800364	1.5260368e-05
4	0x39acbf36	0.0003294886
5	0x39a708f6	0.000318594
6	0x3a0c7018	0.00053572794
7	0x38bb76ac	8.938959e-05
8	0x37a8316c	2.0050174e-05
9	0x38182765	3.6276313e-05

exp_avg f4 [5, 10]
0	0x3bd16943	0.006390722
1	0x3bbb3d5b	0.0057141013
2	0xbbc6f6a8	-0.006071884
3	0x3aa4b0b0	0.0012564864
4	0xbb6c5532	-0.0036061523
5	0x3c6ac622	0.014329465
6	0x3ca1063b	0.019656291
7	0x3c02cdbe	0.007983623
8	0x3c26b9ca	0.0101761315
9	0xbc2cb55f	-0.010541289
10	0x3baccd25	0.0052734786
11	0x3c76a71e	0.015054492
12	0xbba3f280	-0.0050032735
13	0x3b114fe5	0.0022172865
14	0xbbb3b450	-0.0054841414
15	0x3cc07e0c	0.023497604
16	0x3ce85208	0.028359428
17	0x3c436dae	0.011928005
18	0x3c10f258	0.008846842
19	0xbc10fb7a	-0.008849019
20	0x3aecb781	0.001806006
21	0x3b107e85	0.0022048068
22	0xbbff4be6	-0.00779103
23	0x3c1f62f7	0.009728185
24	0x3b55820c	0.0032578735
25	0x3a533adf	0.00080577837
26	0x3c51cf0d	0.012805712
27	0x3c2f3578	0.0106939
28	0x3c29f047	0.010372228
29	0xba98ffbf	-0.0011672898
30	0xbbd2cc59	-0.0064330515
31	0xbb862048	-0.0040932037
32	0xbba20cd4	-0.004945377
33	0x3c196493	0.009362358
34	0x3bb2f14e	0.0054608947
35	0xbbb10d3c	-0.005403189
36	0xbb1ec1ce	-0.0024224403
37	0x3b7aee09	0.0038288853
38	0x3ba2a8c8	0.004963968
39	0x3b07c2fc	0.0020715585
40	0xbc620c66	-0.013796901
41	0xbc8514a3	-0.016245192
42	0x3bd2647f	0.0064206715
43	0xbbf68d8a	-0.007524197
44	0xb9f1ab3a	-0.00046094676
45	0xbca91850	-0.020641476
46	0xbd2be7d3	-0.04196913
47	0xbcc1535b	-0.023599317
48	0xbcca1142	-0.024666432
49	0x3c5a0d26	0.013308799

exp_avg_sq f4 [5, 10]
0	0x38319ab1	4.2344156e-05
1	0x38228a55	3.875264e-05
2	0x381cc6d5	3.7378475e-05
3	0x37b917cb	2.2064798e-05
4	0x36bdae0e	5.6529016e-06
5	0x39754f90	0.0002339466
6	0x393191f0	0.00016934401
7	0x3910b46e	0.00013800125
8	0x38a3cefd	7.811e-05
9	0x37da799e	2.6044258e-05
10	0x37ba7633	2.2227969e-05
11	0x379f5533	1.8993951e-05
12	0x382e9164	4.162024e-05
13	0x3718671c	9.083913e-06
14	0x37b9eb6b	2.2163344e-05
15	0x38b38c2e	8.5614956e-05
16	0x3854dbfa	5.0749608e-05
17	0x378cff07	1.6808057e-05
18	0x36e8b6fa	6.93544e-06
19	0x3734a54b	1.0767321e-05
20	0x3825052d	3.9343886e-05
21	0x37f64377	2.9356901e-05
22	0x37a74e43	1.9944395e-05
23	0x390738ac	0.00012895715
24	0x38743bcc	5.8229823e-05
25	0x376ade28	1.3999212e-05
26	0x3907fd43	0.0001296895
27	0x39004b31	0.00012235042
28	0x38cc0ed7	9.730242e-05
29	0x379bcb4a	1.8572104e-05
30	0x37e61ca2	2.743147e-05
31	0x376ccde1	1.4114631e-05
32	0x3768a7f1	1.38673795e-05
33	0x37aaa959	2.0344438e-05
34	0x3735a16c	1.0826025e-05
35	0x3890088e	6.8680485e-05
36	0x37dc57be	2.6266902e-05
37	0x38368909	4.3519805e-05
38	0x379125d0	1.7302955e-05
39	0x366219cd	3.3691642e-06
40	0x38765b4a	5.873599e-05
41	0x390df887	0.00013539392
42	0x382d33c7	4.1294636e-05
43	0x39353e3d	0.0001728469
44	0x3886a9f9	6.421278e-05
45	0x397537fd	0.00023385878
46	0x39c0774f	0.00036709986
47	0x39c0b8c8	0.00036758767
48	0x395e31de	0.00021190147
49	0x37841a05	1.5747743e-05

exp_avg f4 [5]
0	0x3d699e73	0.057035875
1	0x3d8d86fc	0.06910512
2	0x3d1b1391	0.037860457
3	0xbbb570e2	-0.0055371383
4	0xbded0f3c	-0.11575171

exp_avg_sq f4 [5]
0	0x3b1ad532	0.002362561
1	0x3a0c72b1	0.00053576665
2	0x3a221669	0.0006183149
3	0x39f3a905	0.000464745
4	0x3b4e1705	0.0031446826

exp_avg f4 [31, 5]
0	0xbc3d4f93	-0.0115546165
1	0x3d085edc	0.03329359
2	0x3a3fb2b8	0.0007312703
3	0x3ca65d80	0.020308256
4	0xbc735e5f	-0.014854043
5	0xbc186844	-0.009302203
6	0x3cbcf897	0.023067756
7	0xb58dc4bc	-1.0562576e-06
8	0x3c2d697f	0.010584234
9	0xbc03ca9e	-0.008043913
10	0xbc4b2721	-0.012399466
11	0x3d11ebd5	0.035625298
12	0x3a60409b	0.0008554549
13	0x3caf36b0	0.021388382
14	0xbc82a329	-0.015946941
15	0xbc1d7a7d	-0.009611723
16	0x3ce82734	0.028339006
17	0xb904ba36	-0.0001265787
18	0x3c91990c	0.017773174
19	0xbc4f7335	-0.012661745
20	0xbb1e9c75	-0.0024202142
21	0x3c07d9e3	0.008291694
22	0xbb69188d	-0.0035567612
23	0x3c4a2c95	0.012339731
24	0xbc2589c9	-0.010103651
25	0xbac5befe	-0.0015086827
26	0x3b7eca5c	0.003887794
27	0xba329671	-0.00068125786
28	0x3b31a7fa	0.0027108178
29	0xbaec0d57	-0.0018009347
30	0xbc25d3fd	-0.010121343
31	0x3d01ffb5	0.031738
32	0xb9493c03	-0.0001919121
33	0x3c9669a7	0.018360926
34	0xbc5cee90	-0.013484612
35	0xbc418037	-0.011810354
36	0x3d0a7fb9	0.033813212
37	0xb9e28f51	-0.00043212858
38	0x3cadc3ee	0.02121159
39	0xbc899cf7	-0.01679848
40	0xbb83684e	-0.004010237
41	0x3c864724	0.016391344
42	0xbbb2ad9a	-0.005452824
43	0x3c966aaf	0.018361418
44	0xbc6ad2d6	-0.014332494
45	0x3b8a64e8	0.0042234547
46	0xbbf13054	-0.0073604975
47	0xbb416767	-0.0029511095
48	0xbb65a4de	-0.0035040895
49	0x3b69c94e	0.0035672965
50	0xbc0b904c	-0.00851829
51	0x3cd1e04d	0.02561965
52	0xba9b2f7c	-0.0011839713
53	0x3c82f240	0.015984654
54	0xbc4231a0	-0.011852652
55	0xbb143150	-0.00226124
56	0x3a872c21	0.0010312834
57	0xbac9541a	-0.0015360147
58	0xbb138a1b	-0.0022512737
59	0x3ad6e655	0.0016395549
60	0xbc074a26	-0.008257424
61	0x3cc6743c	0.024225347
62	0xba08351c	-0.0005195902
63	0x3c6a569a	0.014302874
64	0xbc30d10d	-0.010792029
65	0xbbf0eb87	-0.007352296
66	0x3caf1ac1	0.021375062
67	0xbab53ccd	-0.0013827324
68	0x3c5e0b96	0.013552567
69	0xbc27f62b	-0.010251562
70	0xbbff9012	-0.007799157
71	0x3c8cfa96	0.017209332
72	0x3a94e3d6	0.0011359404
73	0x3c143612	0.0090460945
74	0xbbc43033	-0.005987191
75	0x3b5508c2	0.003250644
76	0xbbe7e644	-0.0070770103
77	0x3b19e4d5	0.0023482342
78	0xbc18b3b5	-0.009320189
79	0x3c26529e	0.010151533
80	0xbac13edb	-0.0014743464
81	0x3c1c66f1	0.0095460275
82	0x3b1ee5ef	0.0024245938
83	0x3aeaee6f	0.0017923842
84	0x3b172056	0.0023060045
85	0xbb5529c5	-0.0032526117
86	0x3c1447f8	0.009050362
87	0x3aa64597	0.0012685534
88	0x3b70e30b	0.0036756422
89	0x3a4f2a35	0.00079027127
90	0xbb3318c1	-0.0027327987
91	0x39288ce4	0.00016074214
92	0xbb00a488	-0.0019629318
93	0x3b8b75c5	0.0042559826
94	0xbb5cd850	-0.0033698268
95	0x3b8887f8	0.0041665994
96	0xbb5cc725	-0.0033688035
97	0xba06e094	-0.0005145159
98	0xbbbb7189	-0.0057203216
99	0x3c179964	0.00925288
100	0xbc679374	-0.014134277
101	0x3d2fc59c	0.042913064
102	0xb9883c5e	-0.00025984918
103	0x3cdbb585	0.026819954
104	0xbca8c377	-0.020601017
105	0xbc1d7413	-0.009610194
106	0x3cccbfb6	0.024993759
107	0xb9a12e27	-0.000307427
108	0x3c528b8d	0.012850654
109	0xbc381a62	-0.011236759
110	0xbc380ec3	-0.011233988
111	0x3d0dedd7	0.03465065
112	0xba1488f2	-0.00056661584
113	0x3cb354e4	0.021891065
114	0xbc87a4c3	-0.016558057
115	0xbc05c7a5	-0.008165275
116	0x3cccb1b9	0.024987089
117	0xba585d56	-0.0008253654
118	0x3c81e7fb	0.015857687
119	0xbc3f5c1a	-0.011679674
120	0xbc01c415	-0.007920285
121	0x3cd6efd0	0.026237398
122	0xbb5f645a	-0.0034086914
123	0x3cba1ea9	0.022719698
124	0xbca0d870	-0.019634455
125	0xbade8272	-0.0016976132
126	0x3b80e13a	0.003933099
127	0x3a1ed249	0.00060585566
128	0x3b01a80e	0.0019784006
129	0xbb4a72d2	-0.0030891192
130	0xbb5d0681	-0.00337258
131	0x3c6c9c19	0.014441513
132	0x3ae29ec5	0.0017289749
133	0x3bf0ae82	0.0073450217
134	0xbba848a9	-0.005135615
135	0xbc69dbdc	-0.01427361
136	0x3d364b6e	0.04450553
137	0xba50e49d	-0.00079686363
138	0x3cebfd6d	0.028807366
139	0xbcbb035c	-0.02282875
140	0xbbcdfa7a	-0.0062859626
141	0x3ca66e03	0.02031613
142	0xbba3236b	-0.0049785874
143	0x3cb72209	0.022355096
144	0xbc9bf394	-0.019037046
145	0x3b671a29	0.0035263395
146	0xbbe01dfd	-0.0068395124
147	0xb9cc082d	-0.00038916004
148	0xbb8f3461	-0.0043702577
149	0x3b2dc283	0.0026513643
150	0xbb0570f0	-0.0020361505
151	0xb9bf7967	-0.0003652081
152	0x3c9ba778	0.019000754
153	0xbc436db3	-0.01192801
154	0x3c122bfc	0.0089216195

exp_avg_sq f4 [31, 5]
0	0x392603cd	0.0001583241
1	0x3962dd49	0.00021635475
2	0x3651251d	3.116503e-06
3	0x39566390	0.0002044572
4	0x3786f948	1.6090125e-05
5	0x381a6a34	3.681537e-05
6	0x3878fedf	5.9365175e-05
7	0x364f3ff4	3.088263e-06
8	0x384d1c65	4.8902253e-05
9	0x3667f39d	3.4563484e-06
10	0x392bde07	0.00016390542
11	0x396fe9a9	0.00022879861
12	0x36584784	3.2228136e-06
13	0x395ad4b9	0.00020869345
14	0x3795a886	1.7840659e-05
15	0x39131f25	0.00014030615
16	0x393e5288	0.00018150557
17	0x36879096	4.0401455e-06
18	0x39465a96	0.00018916497
19	0x374c9cd3	1.2195861e-05
20	0x37da4d80	2.6023714e-05
21	0x3823f7ef	3.9093135e-05
22	0x3718f2cf	9.116439e-06
23	0x38631b74	5.4146585e-05
24	0x37623a94	1.34842885e-05
25	0x37f1afb1	2.8811251e-05
26	0x380aa026	3.3050914e-05
27	0x35c549d4	1.4699131e-06
28	0x3815cf0e	3.5717203e-05
29	0x370735cb	8.059152e-06
30	0x38d35a69	0.00010078104
31	0x3924e6ce	0.0001572624
32	0x3662a0a6	3.3770134e-06
33	0x390bf083	0.0001334567
34	0x37878ad5	1.6157903e-05
35	0x390c8416	0.00013400646
36	0x394f9278	0.00019795622
37	0x366704a5	3.4424386e-06
38	0x3943a7e7	0.00018659198
39	0x37b31e9a	2.1352713e-05
40	0x3817ec78	3.6221434e-05
41	0x388df4e4	6.7690184e-05
42	0x3727c63f	1.0000133e-05
43	0x38bd7502	9.034017e-05
44	0x37c4ebd6	2.347484e-05
45	0x37d87bf4	2.5806927e-05
46	0x37a5b845	1.975534e-05
47	0x362da4ff	2.587505e-06
48	0x3709be7c	8.210187e-06
49	0x3705fde2	7.986529e-06
50	0x38dd8f3b	0.0001056478
51	0x390d5d72	0.00013481619
52	0x36b64678	5.4322263e-06
53	0x391968b5	0.00014630223
54	0x37351c41	1.0795019e-05
55	0x36fbfb34	7.509627e-06
56	0x37742006	1.4550989e-05
57	0x3638c56b	2.753305e-06
58	0x37185aa7	9.081013e-06
59	0x35e4535d	1.7011586e-06
60	0x38c49239	9.3732444e-05
61	0x38f3beeb	0.00011622704
62	0x36b04743	5.2535047e-06
63	0x38fb6649	0.00011987665
64	0x37136052	8.784309e-06
65	0x38edd50a	0.00011340722
66	0x39027963	0.00012442986
67	0x36d52d95	6.353201e-06
68	0x3911e606	0.00013913968
69	0x371569d7	8.905735e-06
70	0x37a858b5	2.0068468e-05
71	0x380686e1	3.2073705e-05
72	0x3701be65	7.733329e-06
73	0x374fe5a2	1.2391627e-05
74	0x366452f2	3.4022928e-06
75	0x379f7943	1.9010744e-05
76	0x378d0a98	1.6813443e-05
77	0x3739a3f4	1.1065033e-05
78	0x3786b2e2	1.6057344e-05
79	0x376ecbfa	1.4233397e-05
80	0x37331731	1.0674631e-05
81	0x3759ddbf	1.2985837e-05
82	0x37059e2f	7.964248e-06
83	0x372fe168	1.0483294e-05
84	0x36b24921	5.3133267e-06
85	0x37e8953f	2.7726053e-05
86	0x38061b73	3.1973654e-05
87	0x36a46f6f	4.9005534e-06
88	0x38154b0c	3.559426e-05
89	0x36b92f1c	5.518914e-06
90	0x370d4977	8.42136e-06
91	0x37005d7c	7.651161e-06
92	0x36625f65	3.3732151e-06
93	0x376dcbde	1.4173767e-05
94	0x374fdbb6	1.2389317e-05
95	0x37c177bf	2.3063154e-05
96	0x379a945b	1.8427314e-05
97	0x3732a2e5	1.0647554e-05
98	0x3732d9ca	1.0660335e-05
99	0x378cf210	1.680202e-05
100	0x393a0109	0.00017738728
101	0x398f4891	0.00027329152
102	0x3640745f	2.8677966e-06
103	0x399093cf	0.00027575946
104	0x37d7b696	2.571502e-05
105	0x38125d60	3.4896075e-05
106	0x38840a31	6.296149e-05
107	0x36875602	4.033326e-06
108	0x3859bc18	5.1912008e-05
109	0x37056338	7.950519e-06
110	0x391692cf	0.00014359805
111	0x3959f4a3	0.00020785867
112	0x36197718	2.2868098e-06
113	0x39643055	0.0002176178
114	0x3799b71d	1.832429e-05
115	0x38f78a70	0.00011803664
116	0x39236db3	0.00015585758
117	0x3646ff01	2.965273e-06
118	0x394e9f96	0.00019705141
119	0x373d1ef5	1.1272486e-05
120	0x383876af	4.397955e-05
121	0x38bcc5bb	9.001369e-05
122	0x3746ea35	1.185625e-05
123	0x38e54cae	0.000109338536
124	0x37d6e7b9	2.5618692e-05
125	0x37978ee0	1.8067134e-05
126	0x37d25365	2.5072784e-05
127	0x35e0d770	1.6752001e-06
128	0x37d594fe	2.5460959e-05
129	0x36d52602	6.3523194e-06
130	0x3818289b	3.627744e-05
131	0x386c322e	5.6313518e-05
132	0x36327ed5	2.6597893e-06
133	0x386bb344	5.619532e-05
134	0x36cd58ab	6.1197984e-06
135	0x3916588d	0.00014338102
136	0x3981aeb4	0.0002473496
137	0x35ce85e2	1.5387161e-06
138	0x3976f628	0.00023552089
139	0x38079c95	3.2332337e-05
140	0x3816b3ac	3.593012e-05
141	0x388bc468	6.66462e-05
142	0x37494d56	1.199854e-05
143	0x38e51684	0.00010923765
144	0x381d8a09	3.7560272e-05
145	0x375ba979	1.3092876e-05
146	0x376c68a3	1.4091059e-05
147	0x3639029f	2.7568674e-06
148	0x36c5b651	5.892282e-06
149	0x36d7f309	6.4357923e-06
150	0x38047586	3.1580705e-05
151	0x38a1adc5	7.709445e-05
152	0x38a23a9e	7.73568e-05
153	0x37e8db5f	2.7758708e-05
154	0x3741803e	1.1533555e-05

exp_avg f4 [31]
0	0xbdb0a05b	-0.086243354
1	0xbd5959b5	-0.053064067
2	0xbdbbec66	-0.09175949
3	0xbd97b376	-0.07407276
4	0xbd1e7d49	-0.0386937
5	0xbc192bc1	-0.009348811
6	0xbd9f040b	-0.07764443
7	0xbdb83cb1	-0.08995951
8	0xbd71bd7d	-0.0590186
9	0x3cb27732	0.021785352
10	0xbd865ad1	-0.065602906
11	0x3b4215d9	0.0029615073
12	0xbd7755b6	-0.060384475
13	0xbd65957a	-0.056050755
14	0xbd2d8ee3	-0.042372596
15	0x3d153c5a	0.03643451
16	0xbbdc3be6	-0.0067210076
17	0xbc5165f1	-0.012780652
18	0xbc23e3cc	-0.0100030415
19	0x3ce367e3	0.027759498
20	0xbde641d2	-0.11243023
21	0xbd8063cc	-0.06269035
22	0xbdba24d3	-0.09089055
23	0xbd86d266	-0.06583099
24	0xbdb0fafb	-0.08641621
25	0xbc27f624	-0.010251556
26	0xbcff9269	-0.031197743
27	0xbdf28827	-0.11842375
28	0xbd99ef46	-0.07516341
29	0x3ca13881	0.019680263
30	0x3cd621d2	0.026139174
