Cancer-senn/trial4/models/cancer/grad3_Hinput_Thdummy_Reg1e-02_LR0.001/checkpoint.pth.tar (torch_old, 36110 bytes, 34 tensors)

parametrizer.linear1.weight f4 [10, 30]
000000 32 5f 52 be 46 32 16 be bb 2a 05 3e 02 3f e6 3d
       -0.20544127 -0.14667615 0.13004582 0.112424865
000010 bb ca 0a bd 7a 01 b0 3d 27 76 53 3c fa 7b 1c be
       -0.033884745 0.08594032 0.012906588 -0.15281668
000020 52 7c 0d be cb 91 93 3d 98 d5 45 3e e0 b8 16 3d
       -0.13816956 0.07205542 0.19319761 0.036797404
000030 3e 46 49 3e c6 f4 e3 3d b0 f9 d6 3d bd 4e 96 3c
       0.19655702 0.11130671 0.10496843 0.018348092
000040 01 d2 c5 3d 6c 95 37 bd 0c 29 17 3e 38 d6 e0 3d
       0.09659196 -0.044820234 0.14761752 0.10978359
000050 45 34 5a 3d 23 38 8d 3c fd b0 88 bc 39 43 9f bc
       0.053272504 0.017238682 -0.016685957 -0.019441234
000060 db 2f 15 3c a0 8a a0 3d 7b 00 c3 bd 1b 68 4d be
       0.009105648 0.078389406 -0.09521576 -0.20059244
000070 26 19 18 3e 44 65 13 be 36 bd 81 bc 6c df 43 3d
       0.14853343 -0.14394099 -0.015837293 0.047820494
000080 e5 16 14 be b6 ae b2 3d d3 4e 0c be 6c 94 26 bd
       -0.14461859 0.0872473 -0.13701944 -0.04066889
000090 f7 3f 57 be 0e a5 be 3d 67 b7 a2 3d a1 e6 f0 bd
       -0.21020494 0.093088254 0.079451375 -0.11762739
0000a0 34 c4 84 3d 47 ac 10 be a1 70 04 be c5 ec 73 bd
       0.06482735 -0.14128219 -0.1293359 -0.059551973
0000b0 4b 9e 2b be b6 d8 a4 bd 10 56 89 bd f1 4b 26 be
       -0.16759603 -0.08049147 -0.06705868 -0.16239907
0000c0 f5 64 e4 3b df ec 8f 3d 89 e1 25 be ec 13 cb bd
       0.006970043 0.070276015 -0.16199316 -0.09915909
0000d0 0e 43 0a 3b 29 57 e8 bd 68 cb a9 bd 0f 3f 4b 3c
       0.0021097097 -0.113447495 -0.0829075 0.012405171
0000e0 b8 45 f6 bc a0 72 f4 bd 03 37 0d 3e 10 26 29 be
       -0.030062541 -0.119359255 0.13790517 -0.16518426
0000f0 7e 5a 0f be d4 75 22 3e 3a e1 50 3d 5b 02 e3 3d
       -0.13999364 0.1586526 0.050996043 0.11084434
000100 4c 72 1e 3c 38 a3 4c bd e9 14 20 be 89 91 4b 3d
       0.009670805 -0.049960345 -0.15632977 0.04969934
000110 a8 e2 e4 3c 07 38 41 3e 7c 9e d0 bd fd 85 7d bd
       0.02794011 0.18869029 -0.101864785 -0.06189536
000120 c9 31 c6 bc 96 39 0b be aa d2 de 3d 9d 38 59 3d
       -0.024193661 -0.13596186 0.10880025 0.053032506
000130 f9 d5 1a be 3b 99 3b 3d d4 ac 37 3e 56 3a e4 bd
       -0.15120687 0.04580043 0.17937022 -0.11143939
000140 3f 19 be 3d fc 6b 5d bd 3c 6d 13 3d a4 95 4d 3e
       0.09282159 -0.05405806 0.035992846 0.20076615
000150 3b ac c1 3d f1 4a 2e be 7f 85 38 be 10 44 be 3d
       0.094566785 -0.17020775 -0.18019675 0.09290326
000160 5e 94 9b 3c 43 cb 87 bc 8f c3 4d 3e 27 30 22 3e
       0.018991645 -0.016576415 0.20094131 0.15838681
000170 7c 64 84 bd ed ed 88 3d 5c 68 42 bd db 41 96 bd
       -0.064644784 0.06686006 -0.047462806 -0.0733678
000180 24 27 f0 bd d9 66 88 3d 38 c8 1d bc bf 07 4b be
       -0.117262155 0.06660242 -0.009630255 -0.19827174
000190 20 9a 09 3d 86 10 0b be e2 96 c4 bd e8 b6 77 bd
       0.03359425 -0.13580522 -0.09599091 -0.060477167
0001a0 25 9c dc ba 02 ee de 3c 46 08 04 3e 0b 61 43 3e
       -0.0016831203 0.0272131 0.12893781 0.19079988
0001b0 4a a4 ed bd ac 2b e0 3d 60 30 19 3e e0 df 02 bd
       -0.11603601 0.1094583 0.1495986 -0.031951785
0001c0 43 aa 51 3e 6d 4b 82 bd 7b 91 ab 3d 51 ae 2f be
       0.20475106 -0.063620426 0.083773576 -0.1715634
0001d0 c6 14 e4 bc c4 77 03 3e 5f 95 0f 3e 2e 18 26 3c
       -0.027841937 0.12838656 0.14021824 0.010137601
0001e0 0b d3 07 be 93 cf 03 bd 6a b9 b1 bd 21 1d d7 3d
       -0.132641 -0.03218038 -0.08677943 0.10503603
0001f0 63 d5 11 be 1b 48 3a be 07 87 e2 bd b9 75 14 3d
       -0.14241557 -0.18191569 -0.11060911 0.03624508
000200 e9 bf 5d be e2 ee e8 bd 8f 26 5e 3d d3 ea 36 be
       -0.21655239 -0.11373688 0.05423599 -0.17863016
000210 27 95 20 3c 00 15 89 3c 89 da 2a 3d 79 19 3d 3e
       0.009801186 0.016733646 0.041712318 0.18466748
000220 34 1e 21 3e 03 55 a8 bd b8 1f b0 3c 9a 61 f9 3d
       0.15734178 -0.0821934 0.0214995 0.12176819
000230 6c 97 31 3e b7 18 14 3e f3 1d 04 be 07 ff de 3d
       0.17342919 0.14462553 -0.1290205 0.10888486
000240 f8 04 60 be 1b 89 8f bd fc f9 3c 3d 4d 01 1a 3e
       -0.21876895 -0.07008573 0.04613684 0.15039559
000250 30 5e 35 3c f4 dd c7 bd 4e 0e 26 be c2 0f 33 3e
       0.011069819 -0.09759131 -0.16216394 0.1748648
000260 d5 fd 83 3c 73 c6 9f 3c ee a9 a3 bd 83 b8 91 bd
       0.016112247 0.019503808 -0.07991396 -0.07115271
000270 c9 35 e6 3d e6 84 0c 3e 20 da 08 3e 00 8f 5d 3e
       0.112407275 0.13722572 0.13364458 0.21636581
000280 f6 0c 39 bd da 8e cd 3d 18 a9 ab bb 55 0f 92 bd
       -0.045178376 0.100370124 -0.0052386634 -0.071318306
000290 ca 57 56 3e 4a 9a 14 3e 06 85 f3 bc 6f a0 03 be
       0.20931926 0.14511982 -0.029726516 -0.1285417
0002a0 25 d5 32 3e b0 5b ce bd 47 b7 07 3c 2c 73 95 bd
       0.1746412 -0.10076082 0.008283443 -0.07297358
0002b0 78 ab 1b bd 99 33 96 3d 6c 9d 17 3e 8c fc 18 3e
       -0.038005322 0.0733406 0.14806145 0.14940089
0002c0 18 31 a8 3d 0c c9 3e bd de b1 1b 3e 36 8a 44 bd
       0.08212489 -0.046578452 0.1520457 -0.04798337
0002d0 25 07 43 bd e3 75 2b be 56 0d 71 bd 33 02 95 bc
       -0.047614235 -0.16744189 -0.05885061 -0.018189525
0002e0 5d 81 c1 3d b5 81 1b 3e e8 99 cc bd 19 86 8b 3b
       0.09448502 0.15186198 -0.09990293 0.004257929
0002f0 d3 2e f0 bd 57 f8 fa 3d c1 55 38 be e2 65 58 bc
       -0.11727681 0.12254398 -0.18001463 -0.0132078845
000300 48 5d 22 3a 4e 50 8b 3c b2 d2 28 bc 3f 30 a5 bd
       0.00061937096 0.017006066 -0.01030414 -0.08065843
000310 35 ce 49 bc 84 37 d7 3d 40 dd 27 bd 90 97 dd 3d
       -0.01231723 0.10508636 -0.040982485 0.10819924
000320 8d a6 a9 bc 0a 6d a2 bd 74 62 27 3c 68 14 20 bd
       -0.0207093 -0.07930954 0.010216344 -0.03908196
000330 09 fb 26 be 63 de 32 3e 13 8e cf bc 6c f7 00 3e
       -0.163067 0.17467646 -0.025336301 0.12594384
000340 f5 82 0c 3c 8e de cc 3d 05 bf 66 3d ee f5 e0 bd
       0.008576144 0.100033864 0.056334514 -0.10984407
000350 64 71 1d bd 7f 00 17 bd 90 e7 8b bd 9d d9 9c 3d
       -0.038438216 -0.036865707 -0.068312764 0.07658694
000360 a7 57 39 3e f0 19 45 be fa ca 1b 3e 49 5e 40 bd
       0.18099843 -0.19248176 0.15214148 -0.046964917
000370 31 bd 36 3d f9 8c c2 bd 69 be 30 be 6d c8 cc bd
       0.04461402 -0.09499545 -0.17260136 -0.09999166
000380 07 f9 f0 bc af 35 1d bd 97 72 83 bd 68 3c 07 be
       -0.02941562 -0.038381275 -0.06418341 -0.13206637
000390 64 a4 11 be da f1 d2 bd ff 49 04 3e 0d 82 21 3e
       -0.14222866 -0.10300036 0.12918852 0.15772267
0003a0 71 93 58 3d c2 b4 dd 3d 4e 86 02 3e ae 26 2e 3d
       0.052874986 0.108254924 0.12746546 0.042517357
0003b0 77 2d 27 3e 9d 61 2f 3d 35 4b 80 bd 62 b2 c9 bd
       0.16325937 0.0428177 -0.062643446 -0.09848477
0003c0 73 19 59 bd 92 90 0c be 41 13 1f 3e 46 5d fd bb
       -0.053002786 -0.13727024 0.15534689 -0.0077320663
0003d0 a5 4a d6 3d f3 36 25 3e d4 64 67 3d 2a e0 d2 3b
       0.10463456 0.16134243 0.05649264 0.006435414
0003e0 63 fc c3 3d 4f a8 33 be f4 b7 4c bd 6c cb fa 3c
       0.09569623 -0.17544673 -0.04998012 0.030614577
0003f0 22 02 25 bd 75 46 6a bc ea 9d 1c be 6e 80 51 bd
       -0.040285237 -0.014299025 -0.15294614 -0.05114787

parametrizer.linear1.bias f4 [10]
000000 4c 1c 64 bd 96 83 33 be 6f 16 a3 3c b6 c1 17 be
       -0.05569105 -0.17530665 0.019908158 -0.14819989
000010 88 ab e2 bc 3a a9 1c 3e 88 a7 50 3e 7a 94 2c 3d
       -0.027669683 0.1529893 0.20376408 0.042133786
000020 d0 8f c5 3d 4a b0 49 3d
       0.09646571 0.049240388

parametrizer.linear2.weight f4 [10, 10]
000000 c2 c8 97 3d 6b 5d c2 3d 22 f5 94 3e 87 b4 61 3d
       0.074113384 0.09490474 0.29093271 0.055103805
000010 2f 16 2c be b2 5f 72 3e ab 8a 23 be e4 c9 90 be
       -0.16805337 0.23669317 -0.15970866 -0.2827903
000020 44 aa 13 3e 2a fb 40 3c 9a a9 37 be f5 7c 33 be
       0.1442042 0.011778632 -0.17935792 -0.17528136
000030 8a 51 9e 3d 6c dd 76 3e 81 a7 7d 3e 20 3a c1 3b
       0.07730396 0.24107903 0.24770929 0.0058968216
000040 ee 9f b2 3d 26 cf e5 3d 5b 26 81 3e ef 4e d5 3d
       0.087219104 0.11221151 0.25224575 0.10415446
000050 21 3f db bb d8 4d b0 3e 74 bb 0c be 0c 14 45 be
       -0.006690875 0.3443439 -0.13743383 -0.19245929
000060 78 17 9a 3e 04 aa 62 be fc 02 40 3e e3 46 41 be
       0.3009603 -0.22135168 0.18751138 -0.18874697
000070 50 ab a1 3e 2d a5 40 be 00 d0 03 3c 70 05 93 be
       0.31576014 -0.1881301 0.0080451965 -0.28715086
000080 99 02 b6 bb 72 aa 84 3e db 23 62 3e 06 89 94 bd
       -0.005554509 0.2591129 0.2208399 -0.07252698
000090 c9 76 a2 3e dc d0 79 3e da 8a b4 3d 12 21 87 3e
       0.3173125 0.2439608 0.08815546 0.26392418
0000a0 c9 43 e5 bd f7 b5 13 be a4 52 6d 3d b6 e5 59 3d
       -0.111945696 -0.14424883 0.05794014 0.053197585
0000b0 28 8f 4f 3e 67 ad 13 3d f8 46 9b 3e f4 de 4b 3e
       0.20269454 0.03605404 0.30327582 0.19909269
0000c0 bb c0 fd 3c 48 45 31 be a6 02 87 bd 53 0b 75 be
       0.03097569 -0.17311585 -0.06592302 -0.23930101
0000d0 b6 c0 e9 bc 57 1a 43 be 28 3a 39 be 73 12 65 3d
       -0.028534275 -0.19053017 -0.18088591 0.055925798
0000e0 da 74 ac 3e 30 64 0a 3e 4d ce 94 3e 40 67 0b 3e
       0.336829 0.13514781 0.29063645 0.13613605
0000f0 f0 c4 8b 3e 37 c5 47 3e 1c b3 01 be 6b 86 ec 3d
       0.2729869 0.19508825 -0.12665981 0.11549076
000100 e8 69 61 be b5 a2 81 3e e4 6e 96 3c c0 29 71 be
       -0.22013056 0.25319448 0.018363424 -0.23551083
000110 70 56 8e 3d c2 fa 35 be d6 28 25 bb 4d 57 0a be
       0.069500804 -0.17771438 -0.0025201342 -0.13509865
000120 1f c6 8d 3d c7 b8 40 3b cb 70 ac bd 32 14 d1 bd
       0.06922554 0.002940701 -0.08419951 -0.1020893
000130 41 58 8f 3d 74 0e 24 bd 3d 20 3b be f8 76 9d be
       0.06999255 -0.040052846 -0.18274017 -0.30754828
000140 7b 98 82 be 6d b2 69 3e 3e 62 1e be c8 be 67 bd
       -0.25506958 0.2282197 -0.15467164 -0.056578428
000150 53 db 1e be 25 07 9f bd 16 85 30 3e b6 35 d2 bd
       -0.15513353 -0.077650346 0.17238268 -0.10264151
000160 9d a1 1d 3e 62 5f c5 bd 38 e9 a5 be 0c 07 69 3e
       0.15393682 -0.096373335 -0.32404494 0.22756594
000170 43 8b f9 3d 9a 8a 53 3e 51 a3 ef 3d f1 3e 83 be
       0.12184765 0.20658341 0.11701072 -0.25633958
000180 fa b0 4a be 81 11 39 be 08 31 01 3e 8b 1b ff bd
       -0.19794074 -0.18073083 0.1261636 -0.12456425

parametrizer.linear2.bias f4 [10]
000000 37 5a 15 be ff 77 9f be 30 d9 2b be db 94 53 bd
       -0.14585195 -0.31146237 -0.16782069 -0.05165563
000010 8a c7 cd bc 21 ca e5 3d 5d 80 29 be 57 b8 6b 3e
       -0.025119562 0.11220194 -0.16552873 0.23019539
000020 9c 37 04 3e 5b 53 87 3e
       0.12911838 0.26430783

parametrizer.linear3.weight f4 [5, 10]
000000 bf b1 2b 3e e2 bb b7 be 6a b2 42 3e 19 bd cc 3d
       0.16767024 -0.3588553 0.19013372 0.09997005
000010 58 79 93 bc 2c 2b aa 3e 11 7d a2 be 5d 80 87 be
       -0.018002197 0.33236063 -0.31736043 -0.2646512
000020 f8 fd 35 3e bf 92 04 bd 59 1e a7 be f8 04 11 3e
       0.17772663 -0.03236651 -0.3264034 0.14162052
000030 c8 cf 2f 3d ae 63 a3 3e 15 61 5e 3e 57 5e 4e 3e
       0.042922765 0.31911987 0.21716721 0.20153175
000040 f0 56 81 3e b6 20 13 3e e5 03 88 be e1 05 91 3e
       0.2526164 0.14367947 -0.2656547 0.28324798
000050 f2 bc 87 be df 88 fa 3d 40 fe 9b 3e 7b f4 d0 3d
       -0.2651134 0.12233137 0.30467415 0.10202881
000060 b5 ca ae 3e 99 f8 89 3e 05 08 96 bd d7 7c aa bd
       0.34139028 0.26947477 -0.07325748 -0.083245926
000070 3f b1 c2 bd 77 26 66 be ee b0 4f be df ae 01 be
       -0.09506463 -0.2247561 -0.20282337 -0.12664364
000080 be 09 83 be 1a e4 0c 3e 4e af 9e 3e c4 d7 74 be
       -0.2559337 0.13758889 0.30993122 -0.23910433
000090 fc ef 89 bd 17 35 d1 3d e5 fd 14 be 1a dc 98 be
       -0.067352265 0.10215204 -0.14549978 -0.29855424
0000a0 3e c9 8c 3e 5e 30 3a be 2f 7d 12 be 59 a1 ae bb
       0.27497286 -0.18182513 -0.14305566 -0.0053292927
0000b0 20 96 f4 bd 41 aa 8a be fa 9e 04 3e 48 26 6e be
       -0.119426966 -0.27083018 0.1295127 -0.2325679
0000c0 91 33 8a bd 63 68 8d 3e
       -0.06748117 0.27618703

parametrizer.linear3.bias f4 [5]
000000 d6 ae fd bd a6 f4 7a be d1 59 be 3d 7e 23 40 be
       -0.12386863 -0.24507388 0.09294475 -0.18763539
000010 7f 05 10 bd
       -0.03516149

parametrizer.linear4.weight f4 [31, 5]
000000 fd 34 2b bd 62 11 24 bc b8 e3 5d 3c 81 9c a6 3c
       -0.04179858 -0.01001391 0.013543062 0.020338299
000010 43 27 7d bd d0 de 4c 3e 1e a1 ba 3e ba 2e ea 3d
       -0.06180502 0.20006871 0.36451048 0.11434694
000020 ed 36 0a 3e e9 c2 66 be 28 a4 88 be fc d3 e8 be
       0.13497515 -0.2253529 -0.2668774 -0.4547423
000030 5d 26 81 3e f8 11 c5 be 84 e2 c3 be fd ad 4b 3e
       0.2522458 -0.38490272 -0.38258755 0.1989059
000040 e5 d2 34 3e 75 6a ab bd 57 e0 7f be 45 e1 38 be
       0.17658575 -0.083699144 -0.24987923 -0.18054684
000050 2d 51 f3 bc c6 6a 9b bd bd 4b 56 be f9 32 de be
       -0.029701794 -0.07588725 -0.2092733 -0.43398264
000060 b0 77 ef be 51 1f 67 3c fb 2e 4d bd 38 a1 a5 be
       -0.46771002 0.0141065875 -0.050093632 -0.32349563
000070 d3 95 e6 be 14 5c 75 be 69 07 7e 3e 2a c3 b2 be
       -0.45036182 -0.23960906 0.24807514 -0.34914523
000080 22 6b f5 3d 03 a9 4c 3e ad a4 b9 3e 09 e0 9e be
       0.119833246 0.19986348 0.3625845 -0.310303
000090 d5 87 40 3d 9f 46 84 3e 6d be 0b 3e 67 55 a9 3e
       0.04700454 0.2583513 0.1364686 0.3307297
0000a0 1d fe 84 3e 2a 81 56 3e c3 f8 d9 3e dc 7a d0 be
       0.25975123 0.2094771 0.42572603 -0.40718734
0000b0 4c d4 d0 be 90 e8 c8 3e 83 f3 04 3e ba f6 b2 3e
       -0.4078697 0.3923993 0.12983517 0.34953862
0000c0 d6 c8 9f 3d c5 f8 61 be ce 61 a0 3e 43 54 bf bd
       0.07801978 -0.22067554 0.3132462 -0.093422435
0000d0 2b bb 3c be 03 d1 7b 3e c9 ec 3a be c8 59 9d 3e
       -0.18430774 0.2459145 -0.18254389 0.3073256
0000e0 9c 11 b9 3c fe 22 98 3e 93 2c 83 3e c8 1d 6f 3e
       0.022591405 0.29714197 0.25619945 0.23351204
0000f0 b9 55 0e 3d b3 82 a1 be 2e 0c a1 3d 15 40 f7 3c
       0.03474972 -0.31545028 0.07863651 0.030181924
000100 c8 50 5a 3e 5d 10 89 be 10 17 a6 3d a5 42 49 be
       0.21319878 -0.26770297 0.081098676 -0.19654329
000110 27 c8 80 3d 48 4c 4d 3e b9 43 c8 be a5 ce 3d 3d
       0.06288176 0.2004863 -0.39114168 0.04633965
000120 0c fa d6 3e d3 58 d1 be 27 c2 88 bd 2e 3c 17 3d
       0.41987646 -0.4088808 -0.066776566 0.036922626
000130 64 4d db be 1d 4c 47 be 11 94 af bc 76 28 e8 3e
       -0.42832482 -0.19462629 -0.021432908 0.4534337
000140 5e 91 53 be 95 b9 2a 3e ff d1 20 be 79 03 e8 be
       -0.20660922 0.16672356 -0.15705107 -0.4531515
000150 eb b7 3e 3d 53 c4 4b be 2f 8a f1 3d cd 1e 56 be
       0.046562117 -0.1989911 0.117939346 -0.20910187
000160 53 54 56 be bf 3f 75 bd d0 ee 93 3e 37 fc 1b be
       -0.20930605 -0.059875246 0.28893137 -0.15232931
000170 c1 dc bc bd bb c3 8c be de c5 cb 3c 50 7e 7f be
       -0.09221793 -0.2749308 0.024874624 -0.24950528
000180 0b cb 15 be d9 08 36 be f0 7f a4 be 55 c3 cf bd
       -0.14628236 -0.17776813 -0.3212886 -0.101446785
000190 0d 8f af be d8 d2 8a 3e 03 cf 8f 3e 08 ea c9 3e
       -0.34288827 0.27113986 0.28087625 0.39436364
0001a0 01 8a 53 be e1 ee 7c 3e 4e 34 1a 3e 29 d3 6a 3d
       -0.20658113 0.247005 0.15059015 0.057330284
0001b0 1f e0 c6 3d 9c 11 cc bd bc 8e 61 3e 18 70 82 3e
       0.097107165 -0.09964296 0.22027105 0.25476146
0001c0 60 2e de 3d 38 83 9f 3e 07 be 4a bd e2 88 79 bd
       0.10848689 0.311548 -0.04949763 -0.060921557
0001d0 77 1a ca be 34 4d ec bd 88 69 3f 3e 74 fe 79 3e
       -0.39473316 -0.11538163 0.186926 0.24413472
0001e0 c9 a4 da be d9 46 ca bc 15 9b 4d 3e 4c 67 c9 3e
       -0.42703846 -0.024691986 0.2007869 0.39336622
0001f0 25 39 47 3e 11 a6 a6 3e 0a da 6e bd 11 73 81 3e
       0.19455393 0.32548574 -0.058313407 0.252831
000200 81 67 bc be 29 d9 a0 be 54 bf 76 3e 48 5c 40 be
       -0.36797717 -0.3141568 0.24096423 -0.18785203
000210 cb db 99 bd e9 e2 b7 be f0 3a 07 3e 11 2a ac 3e
       -0.07512625 -0.35915306 0.13206077 0.33625844
000220 2e b3 d1 be c0 76 6d be 5e 4c d3 be 88 fc fd bd
       -0.40957016 -0.23189831 -0.412692 -0.12401682
000230 91 4c 00 3d 76 9a 7c bd 53 66 6b 3e 74 ef 46 3e
       0.03132302 -0.061670743 0.22988252 0.19427282
000240 e6 2f ff 3c 94 71 8d 3e f0 1a a3 3e c6 ce 93 3e
       0.03115077 0.27625716 0.3185649 0.28868693
000250 f9 2b ad be 52 08 43 be 72 e7 20 bd 67 8c 7f 3e
       -0.3382261 -0.19046143 -0.039283223 0.24955903
000260 18 ba 8e 3c 65 81 93 3e f3 14 15 3e
       0.01742272 0.28809658 0.14558773

parametrizer.linear4.bias f4 [31]
000000 dd b7 fd 3e df e4 b2 be 67 9f 58 3e 3e 31 67 3e
       0.4955434 -0.3494024 0.21154557 0.22577378
000010 60 e5 9a be d6 0f 63 ba cb f9 97 3e f1 0a 98 bd
       -0.30253124 -0.00086617225 0.29682764 -0.07423962
000020 16 7d ab 3e dc 50 a5 3e a8 2c 51 3e 15 bd bf 3d
       0.3349387 0.32288253 0.20427191 0.093622364
000030 17 57 f0 3e 21 79 89 3e 5b a3 95 bd 5b e5 17 be
       0.46941444 0.26850227 -0.07306548 -0.14833586
000040 cf 68 f6 3c 2d a3 92 be 50 34 15 bc 95 5f 21 3d
       0.030079274 -0.28640118 -0.009106711 0.039397795
000050 3f 27 bd 3e 2f cf 80 3e 29 5c 92 be 64 18 dd 3d
       0.36944005 0.2515807 -0.28585938 0.10795668
000060 36 c1 29 be 9e 84 8a be e5 8c d7 3e 03 bb a2 be
       -0.1657761 -0.27054304 0.42099681 -0.31783304
000070 80 74 12 3e e9 67 c3 3e 8c 46 c6 3e
       0.14302254 0.38165215 0.38725698

exp_avg f4 [10, 30]
000000 f5 5f 10 3b ec c7 70 bb 04 1c 0e 3b 11 ef a2 3a
       0.002202985 -0.0036740256 0.002168418 0.0012430866
000010 04 32 9d 3a c1 54 8a 3a de 38 1d 3a c4 f1 43 3b
       0.0011993055 0.0010553823 0.00059975486 0.0029898742
000020 c9 3a cc b9 f6 a3 a9 bb 16 82 bf 39 5e 31 40 ba
       -0.0003895371 -0.0051770164 0.0003652728 -0.0007331575
000030 98 a0 f4 b9 34 29 e1 39 c6 c9 00 bb d0 6c 36 bb
       -0.00046658958 0.00042946043 -0.0019651516 -0.0027835853
000040 60 e9 b1 bb 36 1b 1e bb 59 4e 37 3b 9b 48 06 bc
       -0.005429432 -0.0024125106 0.0027970283 -0.008196021
000050 43 85 e8 3a a6 18 e9 ba 36 f9 db 3a 0a 25 49 3a
       0.001773991 -0.0017783835 0.0016782645 0.0007673061
000060 58 ae 02 3b a5 95 70 3b 38 b5 5e b9 29 ea 41 3b
       0.0019940343 0.003671029 -0.00021239079 0.0029589033
000070 bb 52 86 3b 22 f7 68 bb 2f 3b 9e 3a 02 fc 64 3c
       0.0040992177 -0.0035547693 0.0012072081 0.013976099
000080 79 82 2e 3a 3d f4 ab 38 56 ec 54 bc cc bd 8c bb
       0.0006657015 8.199408e-05 -0.0129958 -0.0042950865
000090 35 71 2b b9 b0 c6 49 bb f2 68 57 bc f6 7f 3a bb
       -0.00016350004 -0.0030788593 -0.0131475795 -0.0028457618
0000a0 95 49 38 bb ab 5e 18 bb 8e 35 00 bb ae 24 41 bb
       -0.002812003 -0.0023249786 -0.001956317 -0.0029471326
0000b0 e1 86 9c bb 49 52 00 3c 0b 7b ff 3b 28 ae 94 3b
       -0.004776821 0.007832118 0.0077966503 0.0045373626
0000c0 e0 87 ce bb b9 d5 19 3c 56 2e 26 3b 4f 90 78 3c
       -0.0063028187 0.009389334 0.0025357208 0.015171125
0000d0 04 90 e6 3a c8 e8 8e 3a a7 33 c6 bb 4e c1 9a b9
       0.0017590527 0.0010903114 -0.006048638 -0.00029517192
0000e0 70 c3 94 3b 04 fd 17 3b 72 67 8e bb 8c 70 5d 3b
       0.0045398995 0.002319158 -0.0043458277 0.0033789007
0000f0 41 c3 8a ba e0 93 36 ba d1 be 93 ba 73 0a cf ba
       -0.0010586755 -0.0006964784 -0.0011272078 -0.0015795961
000100 fc 08 4b bb a5 26 64 ba 72 53 64 b9 02 3a 7c b9
       -0.0030980697 -0.0008703268 -0.0002177486 -0.00024054202
000110 ab 8c 58 bb 46 c2 cd ba c3 16 a2 ba ab c6 25 ba
       -0.003304283 -0.0015698157 -0.0012366403 -0.00063238543
000120 44 d2 b8 ba b4 d9 cd ba 5d ef 9b bb 7a 78 d1 b8
       -0.001410075 -0.0015705139 -0.004758759 -9.988337e-05
000130 e0 7c 15 ba 9d 42 ab b9 d9 90 1c ba 86 12 ef ba
       -0.0005702507 -0.00032665292 -0.0005972512 -0.0018239773
000140 6c e5 19 ba 85 d9 5a 39 37 18 42 ba d0 21 90 ba
       -0.00058706733 0.00020871132 -0.0007404121 -0.0010996405
000150 4e cc e7 ba 3f 75 97 3a e9 86 c2 39 92 aa 69 3a
       -0.0017684789 0.0011555328 0.0003710308 0.00089136616
000160 d8 a2 26 b9 55 c3 2c ba b1 b4 e2 ba b2 cf 2a bc
       -0.00015891658 -0.0006590386 -0.0017296282 -0.010425495
000170 7d 89 b6 ba 34 71 35 bb 09 4c 9a 3b ce f7 f7 3b
       -0.0013926473 -0.0027685883 0.004708771 0.0075673824
000180 23 b4 36 3b ba 39 69 3b c4 7b d0 3b 1f d4 2e 3b
       0.0027878366 0.0035587386 0.0063624103 0.0026676727
000190 4a 3e 39 bb 96 d0 01 bb e6 bf 4e bb 17 ac 30 bb
       -0.0028265887 -0.0019808165 -0.0031547486 -0.0026958042
0001a0 49 44 53 ba 30 f1 05 3c 1e d5 8f ba b6 23 8d 3a
       -0.00080591865 0.008175179 -0.0010973548 0.0010768089
0001b0 ca 21 15 3c ee 1b a9 ba 8c 78 22 bb 44 0f 13 bc
       0.009102294 -0.0012902 -0.002479109 -0.008975808
0001c0 0d 64 eb ba e6 66 5d bb 7d 5f 6e 3b 57 94 44 3c
       -0.0017958895 -0.0033783256 0.0036372833 0.011998258
0001d0 24 47 79 3b b9 bc 84 3b d6 c7 18 3c cd 4a 96 3b
       0.0038036788 0.004050818 0.009324988 0.0045865537
0001e0 ea 7f 8e b8 9a f1 95 bb 2e 5f a4 39 9e fc 34 3a
       -6.7949135e-05 -0.0045759203 0.00031351432 0.0006904098
0001f0 ff 4c 9e 3b 10 20 98 3b 93 57 14 3a 01 3d d8 3a
       0.004830956 0.004642494 0.00056588015 0.0016497673
000200 f3 95 0c 3c 89 cf 22 3b af a6 56 3a 4f f4 e7 3a
       0.008580673 0.002484294 0.000818829 0.0017696711
000210 d0 64 7f 3a 17 23 e1 3a 20 89 ab 3b be 54 49 3b
       0.00097425 0.0017176595 0.0052348524 0.0030720676
000220 e4 83 8b bb 77 f1 52 bb 1a 42 d5 3b a5 65 d0 ba
       -0.004257666 -0.0032187381 0.006508124 -0.0015899433
000230 dc 35 87 ba f0 23 a8 bb fd 5e 86 b9 e5 1b 1f b9
       -0.0010315734 -0.005131237 -0.00025629243 -0.00015173813
000240 a9 e6 5a 3b 14 80 b4 3b df af 10 3a c3 08 2d ba
       0.0033401644 0.005508432 0.0005519371 -0.0006600732
000250 3c 44 ac 3b 08 47 4c 3b f7 76 d1 38 6a 88 08 ba
       0.0052571576 0.0031170268 9.9880555e-05 -0.00052083156
000260 b7 21 67 b8 bc fd a5 b8 21 37 c0 ba 9e 2c 00 bb
       -5.510609e-05 -7.915075e-05 -0.0014664867 -0.0019557844
000270 ee 65 7d ba 70 dd c6 39 7f 2a 3d bb 49 f8 3c bb
       -0.0009666373 0.00037930487 -0.002886444 -0.0028834513
000280 91 47 c3 39 06 34 00 3a e7 df bf b9 6a fa 4d 39
       0.0003724662 0.00048905646 -0.0003659718 0.0001964361
000290 e3 df 61 ba c1 36 5e bb 7a 44 55 bb d6 09 e6 ba
       -0.00086164306 -0.0033907148 -0.0032542036 -0.0017550539
0002a0 9b 89 9e 37 e6 52 8f bb a9 62 c1 39 48 99 fc b8
       1.8899145e-05 -0.004373896 0.00036885336 -0.00012044847
0002b0 79 cc d4 b7 19 16 3b 39 38 35 14 ba 26 db ec ba
       -2.5367584e-05 0.00017841942 -0.0005653682 -0.0018070682
0002c0 9c 6e 0b bb 97 89 ab b9 85 01 17 ba 42 44 51 bb
       -0.0021275645 -0.00032718174 -0.00057604193 -0.0031931554
0002d0 41 16 63 3b 2d e3 d3 b9 19 56 7f 3b 92 53 b2 3b
       0.0034650716 -0.00040414315 0.003896123 0.0054420913
0002e0 0c 75 1e 3c 07 c9 ab 3b bc f4 0c 3b 82 92 03 3b
       0.009671461 0.00524247 0.0021508178 0.002007634
0002f0 96 71 6a 3c 5b db 94 3b 3e d7 c0 3b 7b 67 1d 3b
       0.014309308 0.004542751 0.005885034 0.0024017978
000300 18 f7 cf 3b 0a b6 cb 3b ee 8c 86 3c a0 ce 8f 3b
       0.0063465945 0.006216769 0.016424622 0.0043886453
000310 bb 19 6d 3a be 0f e1 3a 3a 37 ac 3b 6d 75 c9 3b
       0.00090446667 0.0017170829 0.005255607 0.0061480314
000320 2c 1a a3 3a 4d 6b b4 bb 34 d8 0a 3b 9f e2 4e 3b
       0.0012443713 -0.0055059553 0.0021185996 0.0031568182
000330 f1 2a 3d 3b 0b c7 2e 3a cf f6 1e ba f4 0c 0f bb
       0.0028864706 0.0006667233 -0.0006063999 -0.002182779
000340 a2 d2 4c 3a b3 e5 60 3a 4e bf 95 3a e5 8e 20 bc
       0.0007813369 0.000857915 0.0011424811 -0.009799694
000350 49 94 e5 3a 57 d9 04 3b 79 c7 37 3c d2 39 f3 3b
       0.0017515506 0.0020271146 0.011216992 0.007422664
000360 c6 b7 a4 3a 44 e2 99 3b 04 ad 82 3c 02 5c 05 3b
       0.0012566976 0.0046961624 0.01595164 0.002034903
000370 c5 9c 0e 3b 5b 8a dd 3a f8 1d c4 3a 9d 08 5d 3b
       0.0021760922 0.0016902195 0.0014962545 0.0033727058
000380 b8 23 e3 3b 9a 75 28 3b d6 47 04 bc 74 1a 85 bb
       0.0069317482 0.0025704862 -0.008073768 -0.0040619913
000390 78 06 33 3c 04 e8 93 bb ea 10 56 ba 38 35 2f bc
       0.010926835 -0.0045137424 -0.00081659725 -0.010693841
0003a0 cb 41 70 39 94 fb 99 39 78 3d af 3b 54 37 e9 3b
       0.00022912693 0.00029369874 0.005347904 0.0071171913
0003b0 4c 58 fa ba 3c 3c db b8 e8 7a 22 3c a2 ac 71 ba
       -0.0019099801 -0.00010453953 0.009916998 -0.00092191447
0003c0 d8 db b9 ba 2f 14 35 3c 0e 64 e7 ba 25 0f 83 39
       -0.0014179898 0.011052175 -0.001765372 0.0002499755
0003d0 44 00 f9 ba 48 c3 ba bb 47 24 9f bb ee 59 e6 bb
       -0.0018997272 -0.005699549 -0.0048566195 -0.0070297634
0003e0 f6 36 c1 ba f8 1b c7 3b 84 09 c0 37 88 b2 60 3a
       -0.0014741111 0.006076332 2.2892615e-05 0.0008571525
0003f0 cd 3c b1 3a 6e e2 cc 36 85 08 8e 3b 22 74 b2 ba
       0.0013522148 6.1060337e-06 0.0043345117 -0.0013614933

exp_avg_sq f4 [10, 30]
000000 f7 f0 7c 36 3e 95 c6 36 cf f0 65 36 63 14 14 36
       3.7691186e-06 5.918234e-06 3.4263828e-06 2.2065585e-06
000010 90 6b 8f 36 38 5e 34 36 5e b5 f3 36 33 51 94 35
       4.274254e-06 2.6876933e-06 7.2630783e-06 1.1050491e-06
000020 58 05 fd 36 51 9d a7 37 fc c6 55 35 40 7b 1c 36
       7.5406097e-06 1.9981208e-05 7.9638244e-07 2.3317552e-06
000030 4f 47 9e 35 32 ff aa 34 fc f0 92 36 41 ff 92 37
       1.1792671e-06 3.1850647e-07 4.3791933e-06 1.7523418e-05
000040 f0 ca 85 38 78 0f 9d 37 5d 6d 2c 37 62 43 14 38
       6.379734e-05 1.8723062e-05 1.0277462e-05 3.5348705e-05
000050 f1 1e 54 36 3b b0 d3 36 fb e3 49 36 82 e3 f2 35
       3.1608472e-06 6.308806e-06 3.0084036e-06 1.8096619e-06
000060 f8 36 7b 36 62 7d aa 36 5c c8 49 37 f4 4d 03 36
       3.743391e-06 5.0809913e-06 1.2027183e-05 1.9565896e-06
000070 41 18 0b 37 3c e6 31 37 73 0e 89 36 24 33 18 38
       8.290693e-06 1.0603628e-05 4.0846003e-06 3.6287252e-05
000080 6f f5 84 36 e2 4b 50 36 a7 ef 43 38 cb 43 73 37
       3.962479e-06 3.1038585e-06 4.6714817e-05 1.4499713e-05
000090 08 24 72 37 a1 11 18 37 db 31 60 38 f2 dd bf 37
       1.4432713e-05 9.064011e-06 5.3452193e-05 2.2872326e-05
0000a0 d3 64 c3 36 8b af 92 37 3b 62 10 37 ef e6 1e 36
       5.8231903e-06 1.74863e-05 8.60594e-06 2.3678256e-06
0000b0 9d 1f b5 37 cb 4f 97 38 60 eb 86 38 46 e4 45 38
       2.1591602e-05 7.215104e-05 6.43346e-05 4.7181056e-05
0000c0 66 c4 97 37 55 90 b7 38 a7 43 99 36 2e 03 14 38
       1.8092058e-05 8.753004e-05 4.567631e-06 3.528891e-05
0000d0 1e a1 aa 36 1d 43 43 36 1d aa a9 37 7d 2e 20 37
       5.0851513e-06 2.909633e-06 2.0225585e-05 9.547567e-06
0000e0 43 5b a0 37 f5 e8 f5 36 c6 c9 43 37 97 f8 54 37
       1.9115983e-05 7.3286888e-06 1.1669885e-05 1.2694064e-05
0000f0 60 bb b0 35 40 46 59 36 65 7a a5 35 e0 ae ac 35
       1.3167555e-06 3.237641e-06 1.232908e-06 1.2865894e-06
000100 11 7c 41 36 23 e3 85 35 f0 77 13 35 24 32 5c 35
       2.8831457e-06 9.975378e-07 5.49363e-07 8.202935e-07
000110 0b c5 93 36 78 cb 04 36 1e 80 ed 35 82 c9 ed 35
       4.40388e-06 1.9787967e-06 1.7695163e-06 1.7716523e-06
000120 c1 5e ef 35 e0 96 9c 35 70 88 d4 36 e1 ed ea 35
       1.7834465e-06 1.1666816e-06 6.3339758e-06 1.750359e-06
000130 06 fa 99 35 e3 7d aa 35 c9 72 91 35 ce f0 b4 35
       1.1472155e-06 1.2702625e-06 1.0836749e-06 1.3481128e-06
000140 0c 4a a0 35 ae 28 b7 35 2e af 95 35 d4 04 8e 35
       1.194248e-06 1.3646402e-06 1.1152349e-06 1.058123e-06
000150 c9 4a 09 36 93 e6 2a 36 19 a1 c8 35 04 3b 54 35
       2.0458122e-06 2.5466186e-06 1.4948047e-06 7.9062033e-07
000160 5d 8a 4b 36 7e 15 1a 36 9f 15 ec 36 de ca f0 37
       3.0329895e-06 2.2960298e-06 7.035865e-06 2.8704697e-05
000170 81 0f d3 36 0f a7 f3 36 a5 8f 25 37 24 98 88 37
       6.290095e-06 7.2614125e-06 9.868211e-06 1.628331e-05
000180 62 83 bb 36 f3 86 86 36 e8 dc 9c 37 08 35 a2 37
       5.5883293e-06 4.0092214e-06 1.8699517e-05 1.93366e-05
000190 97 f9 16 37 63 a9 1e 37 42 b7 22 37 d5 e6 c8 36
       8.998809e-06 9.456972e-06 9.6986205e-06 5.987337e-06
0001a0 eb 3b 2c 36 6f 96 49 38 d5 12 fa 36 46 6d 59 36
       2.5664874e-06 4.8062237e-05 7.452773e-06 3.2399125e-06
0001b0 08 d9 ff 37 59 4c 29 37 51 08 dc 36 c2 ee f4 37
       3.0499432e-05 1.0090961e-05 6.557479e-06 2.9198247e-05
0001c0 1d 9a c1 36 14 12 e0 36 cd 2f 6f 37 91 30 79 38
       5.7697894e-06 6.677825e-06 1.425664e-05 5.9411457e-05
0001d0 bf b1 ae 37 d0 23 07 37 4f cd 63 38 bf fd 19 38
       2.0825186e-05 8.054965e-06 5.4312226e-05 3.6714362e-05
0001e0 bc bd 1d 36 32 35 18 37 0e b6 16 36 b6 16 f2 35
       2.3505263e-06 9.0722915e-06 2.2457712e-06 1.8037015e-06
0001f0 92 fa b4 36 fa 11 38 36 42 2e eb 36 f5 d7 34 36
       5.3935883e-06 2.74286e-06 7.008931e-06 2.6947794e-06
000200 dc 62 82 37 34 1d c4 36 de c6 82 36 6f 5f bf 36
       1.5543243e-05 5.844655e-06 3.897453e-06 5.7033535e-06
000210 b8 9a a8 36 2f 94 c6 35 30 13 07 37 6a 19 99 37
       5.024802e-06 1.4795277e-06 8.0510945e-06 1.8250856e-05
000220 c6 bd 53 38 bb 2e cb 37 43 27 26 37 28 b1 22 38
       5.048306e-05 2.4221246e-05 9.903512e-06 3.87888e-05
000230 d9 f0 1d 36 b6 e6 2a 37 8d 3d 11 36 5d a4 d2 35
       2.3535015e-06 1.0186506e-05 2.164251e-06 1.5694055e-06
000240 1e 95 74 36 6d ef 42 36 89 78 e8 36 f2 a1 18 36
       3.644563e-06 2.9047617e-06 6.928171e-06 2.274403e-06
000250 9d fb 06 37 ba 35 1a 36 d1 09 be 35 5f 0e b4 36
       8.045606e-06 2.2979061e-06 1.415896e-06 5.366091e-06
000260 73 7f b1 35 b4 9e 8b 35 6d 66 ce 35 4b 28 23 36
       1.322462e-06 1.0402496e-06 1.5378006e-06 2.4312346e-06
000270 04 a4 d5 36 e6 8f 37 35 fd 56 9a 36 ef d1 17 37
       6.3669886e-06 6.838221e-07 4.5996844e-06 9.04918e-06
000280 0a 55 b8 35 0d cb 45 36 a2 0f c2 35 81 8c 06 35
       1.3733818e-06 2.9473479e-06 1.4458676e-06 5.012335e-07
000290 f3 52 cd 35 bc c3 29 37 5b 64 28 38 90 1d 54 37
       1.5297832e-06 1.0118758e-05 4.0147785e-05 1.2643068e-05
0002a0 f0 98 0a 36 5a 2c 08 38 b1 c7 c0 35 e4 e2 8a 36
       2.0652624e-06 3.2466232e-05 1.4363233e-06 4.139134e-06
0002b0 8a 6e ae 35 ce 87 89 35 bd 5a a8 35 05 92 a1 35
       1.2996181e-06 1.024682e-06 1.2543384e-06 1.2037932e-06
0002c0 eb d7 b4 36 78 e1 8f 35 e8 b3 02 36 03 31 92 36
       5.389554e-06 1.071995e-06 1.9476229e-06 4.356845e-06
0002d0 77 b5 8a 37 63 84 c3 37 98 ae 85 37 94 86 70 37
       1.6535383e-05 2.3307459e-05 1.5936137e-05 1.4336449e-05
0002e0 b1 f2 67 38 bd 4a 3c 37 af 77 66 37 0a 65 61 37
       5.5300716e-05 1.1223075e-05 1.3736934e-05 1.343457e-05
0002f0 2b 6d a0 38 fd d6 85 37 51 2c a7 37 ec 5f b7 37
       7.649729e-05 1.5954947e-05 1.9928588e-05 2.1859967e-05
000300 bb 9b bb 37 0d 9f 4e 37 cf 1f ca 38 7c 3b 2d 38
       2.2364655e-05 1.2315589e-05 9.6380354e-05 4.1301813e-05
000310 75 2e 14 39 3c f7 2a 38 15 4a c8 37 2e 86 ea 37
       0.00014131686 4.0761413e-05 2.3876355e-05 2.7957456e-05
000320 21 be 71 37 25 38 25 37 10 00 82 37 3f 65 31 37
       1.4408987e-05 9.847839e-06 1.5497237e-05 1.0573595e-05
000330 10 c1 17 38 d8 25 51 37 d8 2f 2e 38 72 7e 30 37
       3.618101e-05 1.2466182e-05 4.152939e-05 1.0519858e-05
000340 db bf 98 37 0f 42 78 37 4d f1 54 37 f0 5a 63 38
       1.8209152e-05 1.4797332e-05 1.2692367e-05 5.420571e-05
000350 ce 41 40 37 e1 18 21 37 0c ce 41 38 8a 12 a5 37
       1.1459413e-05 9.60214e-06 4.6206682e-05 1.9678166e-05
000360 48 4a 1d 38 f3 5d df 36 bb 7a b6 38 23 68 75 38
       3.7500897e-05 6.656855e-06 8.7012966e-05 5.8509537e-05
000370 5e 39 17 37 94 6d f3 37 70 f3 8c 37 55 30 86 36
       9.013658e-06 2.9018884e-05 1.680266e-05 3.999138e-06
000380 c4 da c4 37 b2 1a 07 39 0f f7 a6 39 28 32 b5 38
       2.3466891e-05 0.00012884548 0.0003184606 8.640095e-05
000390 52 f1 e7 38 f3 0e 61 38 35 fe 1e 37 df 11 72 38
       0.00011059888 5.3658103e-05 9.476721e-06 5.771394e-05
0003a0 89 87 2b 37 41 d1 e4 36 71 1b 98 37 4a 8f 11 38
       1.0223951e-05 6.81929e-06 1.813259e-05 3.4704142e-05
0003b0 62 d4 c8 38 9f 03 01 37 98 55 b0 38 51 52 32 38
       9.5763025e-05 7.689842e-06 8.408277e-05 4.251517e-05
0003c0 d3 d5 56 37 1f 54 7a 38 2f 64 45 37 76 39 17 37
       1.2805179e-05 5.968299e-05 1.1765441e-05 9.01368e-06
0003d0 57 d0 d4 37 af 73 b0 37 45 fd 3a 37 b7 e1 1c 37
       2.5369385e-05 2.1034704e-05 1.1145433e-05 9.350878e-06
0003e0 82 bb 43 38 4f 8a 9f 38 1b 89 57 37 c6 d0 d0 37
       4.6666253e-05 7.607473e-05 1.2846921e-05 2.489275e-05
0003f0 79 05 86 37 ff b7 e6 36 f4 30 14 38 24 03 75 38
       1.5976593e-05 6.875954e-06 3.533154e-05 5.8415477e-05

exp_avg f4 [10]
000000 7f 3b bb ba 89 56 9b 3c 58 1e 0e 3b 73 a1 24 3c
       -0.0014284699 0.018962162 0.0021685567 0.010048258
000010 6f b0 d8 b9 e0 14 2e bb 49 4d ff bb 04 d7 23 bc
       -0.00041330184 -0.0026562735 -0.0077911955 -0.009999994
000020 e6 3c bf 3b 27 cf bc bb
       0.005836117 -0.005761999

exp_avg_sq f4 [10]
000000 54 b2 cd 35 f6 c6 40 38 14 bc bb 36 15 50 2c 38
       1.532559e-06 4.5961664e-05 5.5949295e-06 4.1082578e-05
000010 1e bc 29 37 0b 84 c1 35 93 c5 7d 38 36 55 18 38
       1.0116984e-05 1.441805e-06 6.0503906e-05 3.6318983e-05
000020 da 5f dd 37 20 61 b5 37
       2.6389887e-05 2.1622109e-05

exp_avg f4 [10, 10]
000000 d6 04 08 bb d7 7b 73 bb e8 2e 9b bb 8d 83 e8 3b
       -0.0020754836 -0.0037152672 -0.0047358163 0.00709576
000010 47 91 92 3c a9 52 b5 bb f2 28 31 bb 82 78 1d bb
       0.01789154 -0.0055335355 -0.0027032462 -0.0024028127
000020 a5 81 a9 bb b8 9b a7 3a e6 0a 25 39 88 dd 84 bb
       -0.0051729255 0.0012787497 0.00015739686 -0.004054729
000030 48 89 be 3b 4d f7 cd ba e6 b9 1c bc b6 1a a4 3b
       0.005814705 -0.001571396 -0.009565806 0.005008067
000040 56 be 9e 3b 76 37 13 3a d8 95 5e 38 79 84 c5 3b
       0.004844467 0.00056158693 5.3068477e-05 0.006027755
000050 52 10 ca 3a c2 68 1a bc 71 68 27 3b a3 24 23 3b
       0.0015416241 -0.00942439 0.002554443 0.0024893663
000060 a9 63 bc 3a b5 63 e1 3b 05 07 c4 ba 1a f4 94 bb
       0.0014372963 0.006878341 -0.0014955705 -0.0045457007
000070 11 4b ca bb 3a 16 97 3b 7f db b6 3a b1 6b 97 3b
       -0.0061734994 0.004610804 0.0013950913 0.004620992
000080 7a 3b 8c ba a7 be b8 bb 31 d1 b6 bb b8 b2 02 3b
       -0.0010698878 -0.005637962 -0.005579137 0.001994295
000090 72 cc a9 3a e2 06 87 b8 1c b0 49 3b 42 e4 98 bb
       0.0012954606 -6.438584e-05 0.0030775135 -0.0046658823
0000a0 6e a0 29 3b 64 ec f3 3b fe 29 53 3b 3b d6 ce bb
       0.0025882977 0.0074439514 0.0032221074 -0.0063121594
0000b0 6e e5 80 bc 69 d5 65 3b 3b ee 69 bb a7 ba 7f 3b
       -0.0157344 0.003506983 -0.0035694975 0.0039021166
0000c0 ce 8d ce 3b 89 40 a2 bb d0 48 18 3b 64 87 02 bc
       0.0063035255 -0.004951541 0.002323676 -0.00796685
0000d0 fc 4c 38 3b 73 d0 87 3b b4 0a 15 39 91 ae a0 3b
       0.0028122058 0.004144722 0.00014213735 0.0049036224
0000e0 46 29 a4 bb 6c 2a af bb 16 67 a9 bb 80 23 47 3b
       -0.005009803 -0.0053456333 -0.0051697595 0.003038615
0000f0 06 f4 ba ba 07 c7 2b bb 09 cf 6c b8 2e 27 fa bb
       -0.0014263398 -0.002621116 -5.64596e-05 -0.007634065
000100 43 88 d8 bb 61 5a cc 3b 0c ce 4c 3c 08 e6 97 3a
       -0.0066080405 0.00623636 0.012500297 0.001158894
000110 2b af e7 38 5b c3 44 3b f0 60 0d bb 7e 21 32 3a
       0.00011047566 0.0030023667 -0.0021572672 0.0006795152
000120 f0 46 21 3b e6 7c 80 bb 82 ee 5a bc 6e ea 45 3b
       0.0024608932 -0.003921139 -0.013362529 0.0030199545
000130 b5 56 db 3b ff fa a8 3b 34 b8 68 3b 68 33 3c 3b
       0.006693686 0.005156874 0.0035510184 0.0028717164
000140 8e 06 d9 38 ed 6b a8 ba c2 46 0e b9 77 d4 f3 3b
       0.00010348587 -0.0012849547 -0.00013568535 0.0074410993
000150 96 74 42 3c cf c2 ca bb 1a e0 c3 bb 81 78 6e bb
       0.011868617 -0.006187774 -0.0059776427 -0.0036387744
000160 07 7a 19 bb 9b 26 63 3a 8d 22 2b ba d0 cf b0 bb
       -0.0023418681 0.00086651155 -0.0006528281 -0.005395867
000170 96 00 b8 bb e5 4c ae bb 1a 55 03 3c 4e 65 72 3b
       -0.005615304 -0.005319225 0.008015895 0.0036986652
000180 2c 7b 57 3c 8a a9 c5 bb 49 30 9f bb 3f 83 87 3a
       0.013151925 -0.0060321735 -0.004858051 0.0010338797

exp_avg_sq f4 [10, 10]
000000 a8 89 89 37 56 06 0a 38 bf d9 05 38 f2 26 e7 37
       1.6395774e-05 3.2907665e-05 3.1912463e-05 2.7555481e-05
000010 43 4b a7 38 88 cb f8 37 4b 43 82 37 38 e2 43 38
       7.977199e-05 2.965868e-05 1.5528543e-05 4.6702306e-05
000020 0b b4 fc 37 5b ae 8d 37 9d 43 92 36 15 4e 87 37
       3.012458e-05 1.68897e-05 4.3590103e-06 1.6129614e-05
000030 9c 7e 37 37 c3 9f cc 36 38 16 bd 37 71 fd 56 37
       1.09371285e-05 6.0982725e-06 2.2540902e-05 1.2814403e-05
000040 1b e5 88 37 52 fd cd 36 47 ac bc 36 63 75 b5 36
       1.6319149e-05 6.1389665e-06 5.6228923e-06 5.407886e-06
000050 d1 30 8d 37 81 08 22 38 a5 d4 83 37 54 d4 bc 37
       1.6831242e-05 3.863173e-05 1.5715437e-05 2.251022e-05
000060 72 d0 2f 37 01 1b 1c 38 8d 5b c1 37 4d 2e 00 38
       1.0479345e-05 3.7218448e-05 2.3050025e-05 3.05607e-05
000070 72 98 9d 37 cb 42 e1 36 5d df da 36 f0 fe bf 37
       1.8786846e-05 6.7132983e-06 6.522909e-06 2.2887689e-05
000080 80 26 d8 36 11 6f 6d 37 94 51 9b 37 66 c7 b6 36
       6.4417836e-06 1.41521605e-05 1.8515428e-05 5.4472357e-06
000090 52 8b 77 37 e0 ac 8e 37 4c 65 88 37 18 ff 89 36
       1.4754785e-05 1.700822e-05 1.6259633e-05 4.112615e-06
0000a0 5c 2a e3 37 c1 79 a3 38 46 8e 32 38 3d 1e 53 38
       2.7080234e-05 7.795124e-05 4.257101e-05 5.033448e-05
0000b0 2d 4c bd 38 c6 5b f3 37 bb e3 5c 38 c5 67 bc 38
       9.026411e-05 2.9010593e-05 5.2664178e-05 8.983867e-05
0000c0 b3 52 89 38 89 df ba 37 b5 51 f2 37 62 b1 03 38
       6.548073e-05 2.227702e-05 2.8886696e-05 3.1398034e-05
0000d0 ab ce e9 37 a9 0c 16 38 69 39 c3 37 a4 2e 6f 38
       2.7872002e-05 3.5774578e-05 2.3272545e-05 5.7025478e-05
0000e0 f2 4f 45 38 4d c8 26 38 93 62 55 37 46 43 06 37
       4.7042915e-05 3.976403e-05 1.271874e-05 8.002686e-06
0000f0 2a d8 cc 36 c2 32 23 37 50 d8 bd 36 15 e7 6f 37
       6.1048386e-06 9.727375e-06 5.657821e-06 1.4299313e-05
000100 28 0b 43 37 e0 a2 ae 37 a5 88 14 38 8c 0f 0e 36
       1.1625503e-05 2.0818261e-05 3.541321e-05 2.1168698e-06
000110 0e f4 89 36 b6 f2 10 36 ca e3 1a 37 28 d2 11 37
       4.11133e-06 2.1598948e-06 9.232152e-06 8.691604e-06
000120 79 9e f9 36 46 83 33 37 ea c5 11 38 fe 3b a8 37
       7.439227e-06 1.0699796e-05 3.4755016e-05 2.0055097e-05
000130 c7 cc 9a 37 53 ef 98 37 a1 5c aa 36 de 04 d8 36
       1.8453587e-05 1.8231256e-05 5.0771782e-06 6.4378683e-06
000140 99 46 1b 37 3d fb 63 37 95 56 1f 37 d3 23 88 37
       9.255157e-06 1.358875e-05 9.4972975e-06 1.6229145e-05
000150 47 ef f8 37 b7 51 8e 37 a1 04 71 37 37 bc bb 37
       2.9675326e-05 1.696577e-05 1.4365797e-05 2.2379782e-05
000160 a0 07 1b 37 4d 62 99 36 1b 43 55 37 1b 98 1a 38
       9.240495e-06 4.571199e-06 1.2711414e-05 3.685812e-05
000170 60 3e 1f 38 02 c0 c4 37 1b b1 22 38 af c4 89 37
       3.7966645e-05 2.3454431e-05 3.8788752e-05 1.642326e-05
000180 fd 7a 54 38 82 e1 80 38 fd fc 33 38 1d a9 da 37
       5.065928e-05 6.14552e-05 4.291254e-05 2.6066375e-05

exp_avg f4 [10]
000000 38 8c 02 3c e9 b5 f3 3b ed db e1 3b e6 90 34 bb
       0.007968001 0.007437457 0.0068926723 -0.0027552187
000010 92 50 99 bc 81 d9 e4 bb 0a 71 d2 3c db 50 32 3b
       -0.018715177 -0.0069839363 0.025688667 0.0027208838
000020 96 a6 9d bb a9 ed 07 3d
       -0.0048111184 0.033185635

exp_avg_sq f4 [10]
000000 c6 11 63 38 92 83 76 38 a5 b8 81 38 ad db 6e 38
       5.413757e-05 5.8773505e-05 6.185592e-05 5.694821e-05
000010 7e 5a 1f 39 5f 99 61 39 35 5d 30 39 ae 20 79 38
       0.00015197133 0.00021514807 0.0001681939 5.939666e-05
000020 d7 a2 c2 37 60 3a 59 39
       2.320243e-05 0.00020716479

exp_avg f4 [5, 10]
000000 52 4b 6e 3b 42 4f 05 3c e7 0d 58 3c 12 f5 b1 bb
       0.0036360812 0.008136572 0.013186908 -0.005430826
000010 87 bc 2e bb 8b 61 9e bc e6 f4 b9 3b 01 d7 c5 bb
       -0.0026662664 -0.019333621 0.005674946 -0.0060375934
000020 70 e7 b1 bb 53 a5 bb 3b af 8d f1 ba d0 87 88 bc
       -0.005429201 0.0057264953 -0.0018429066 -0.016666323
000030 bd 05 28 3a 0d db 00 bc 9e cd cb 39 c6 65 6c 3c
       0.00064095465 -0.007864726 0.00038872374 0.014428562
000040 a7 df 20 3b a8 fa 18 3c 11 91 34 3c 1b 5e 72 ba
       0.002454737 0.009337105 0.011020915 -0.000924559
000050 52 39 7a 3c cd 60 60 3b f9 62 d1 bb f6 e4 fa bb
       0.015272455 0.0034237385 -0.0063899723 -0.007656689
000060 c0 7a e9 bb a7 cb de bb cd fa 34 3c 4e 8e b8 bb
       -0.0071252286 -0.0067991796 0.011046124 -0.0056321984
000070 8d 6e 1a bc 11 01 10 bc 16 f1 9c 3b fa 60 92 3b
       -0.009425771 -0.008789317 0.004789482 0.004467127
000080 b0 c3 89 3c cc 98 1b bc 3c fb b0 ba 88 23 be ba
       0.016816944 -0.009496879 -0.0013502608 -0.0014506439
000090 e4 c3 1d 3c eb 3f 27 bc 64 9a e9 3b 68 8b c2 bb
       0.0096292235 -0.01020811 0.0071290005 -0.0059370287
0000a0 da 32 61 bc 22 0c 34 bc 9f 36 b8 3b 8f 3d cb 39
       -0.013745034 -0.010989221 0.0056217457 0.00038765042
0000b0 0b 4f a6 3b a0 78 76 3b 3a 61 f5 bb 9c 0d 16 3c
       0.0050753406 0.003760852 -0.007488397 0.009158518
0000c0 8d cd e1 3b 97 60 d4 3b
       0.0068909586 0.006481241

exp_avg_sq f4 [5, 10]
000000 47 c1 28 38 fb dd 6c 38 c7 b5 1f 39 fe ba b6 37
       4.0234325e-05 5.647352e-05 0.00015231139 2.1783166e-05
000010 0e 44 81 37 44 34 2e 39 8f 80 a0 37 f8 f1 18 39
       1.5409689e-05 0.00016613404 1.9133351e-05 0.0001458599
000020 bb a3 e8 37 2d da e8 37 d0 52 04 37 5f b7 a7 37
       2.7732798e-05 2.7758151e-05 7.887094e-06 1.999334e-05
000030 df 39 06 37 59 1e 63 37 57 74 5c 35 5e 02 8d 37
       8.000497e-06 1.353732e-05 8.2125683e-07 1.6809612e-05
000040 8e 8f 5c 37 9a b4 36 37 3d 10 09 37 94 e1 8b 37
       1.3146446e-05 1.0890095e-05 8.169617e-06 1.6675134e-05
000050 a6 6d 72 38 62 52 8d 37 34 52 00 38 10 44 7e 37
       5.7799414e-05 1.6846872e-05 3.0594136e-05 1.5155427e-05
000060 56 3e 26 37 03 36 da 37 58 7b ac 37 22 57 34 38
       9.908885e-06 2.6012776e-05 2.0561434e-05 4.2996493e-05
000070 f7 bf 9f 37 a5 d1 10 38 af 79 90 38 d2 1a da 38
       1.9043668e-05 3.4527522e-05 6.8891204e-05 0.00010400046
000080 0d 90 98 38 cb e6 39 38 7e 5c 49 37 21 de 03 39
       7.274756e-05 4.432238e-05 1.2002069e-05 0.00012575883
000090 8a 89 a2 38 ee 6a 22 39 36 08 45 37 1d 11 2e 39
       7.7503806e-05 0.00015489358 1.1744027e-05 0.00016600308
0000a0 77 96 05 38 99 f3 e5 37 54 2f 9c 37 aa bd 70 36
       3.1849802e-05 2.7412361e-05 1.8618688e-05 3.5873186e-06
0000b0 e6 dc 5e 36 7e 23 c5 36 06 8f fa 36 4d dd bf 37
       3.3209158e-06 5.8751893e-06 7.4672307e-06 2.2872026e-05
0000c0 38 d8 84 37 a2 86 02 38
       1.5836311e-05 3.1119802e-05

exp_avg f4 [5]
000000 9f 74 f5 bc 4c a8 08 3d a9 0e ec bc 1c 02 29 bd
       -0.029962836 0.033363625 -0.028815584 -0.041261777
000010 dc 92 1e 3d
       0.038714275

exp_avg_sq f4 [5]
000000 a2 a8 b1 3a bb 71 07 39 82 ef d0 39 1c b3 28 3a
       0.0013554285 0.00012916971 0.000398513 0.0006435381
000010 ee 03 a0 39
       0.00030520506

exp_avg f4 [31, 5]
000000 65 c9 2d 3b ba fa 5f 3c 05 23 c8 b9 72 55 36 3c
       0.0026517746 0.013670618 -0.00038173064 0.01112877
000010 eb 19 51 3b 77 d2 84 ba 76 68 95 3c 7f da fd bb
       0.0031906317 -0.0010133524 0.018238287 -0.007746994
000020 65 8e c9 3c 20 b3 1f 3c 51 55 33 3b bd 6b 62 3c
       0.024604032 0.009747297 0.0027364085 0.013819632
000030 f2 0d 7e ba 66 41 36 3c 2f f2 80 3b e8 2a 14 3b
       -0.0009691409 0.011123991 0.0039351205 0.0022608582
000040 df 3d 5e 3c ea 73 cf ba 20 ca 53 3c 83 f3 85 3b
       0.013564556 -0.0015827392 0.012926608 0.0040878667
000050 3f cf a0 ba 3c 98 64 3b bc 96 59 bc 78 c0 d5 3b
       -0.0012268795 0.0034880778 -0.013280567 0.006523188
000060 fc 18 3c 3c ea 9b 52 bb cb 4a f2 3b 86 64 b2 bb
       0.011480566 -0.003213639 0.00739417 -0.0054441122
000070 03 4e 00 3c eb 12 d0 3b fa c4 81 bb 80 f2 4b 3c
       0.007831099 0.0063499114 -0.003960249 0.012447953
000080 e0 a2 3e bb cb e3 63 3c bc c6 a9 3b 41 f4 31 bb
       -0.002908878 0.013909291 0.0051811617 -0.0027153643
000090 71 a7 8b 3c f1 bb 06 bc dc 71 96 3c d7 9b 32 3c
       0.017047616 -0.00822352 0.01836484 0.010901413
0000a0 da 92 97 ba 52 02 06 bc 44 04 d4 bb b6 01 e8 bb
       -0.0011564151 -0.008179264 -0.006470235 -0.007080282
0000b0 45 50 89 3b 6e e1 b1 bb b5 51 25 bc e8 06 0d ba
       0.004190477 -0.0054284846 -0.010090281 -0.0005379752
0000c0 fc 41 97 ba 44 89 69 bb 8f 9d e5 ba 6d 4f e2 3b
       -0.0011540051 -0.0035634795 -0.001751827 0.006906441
0000d0 ae ff 91 bb d4 e2 3d 3c f2 ea 8f 3b 9e c2 88 bb
       -0.004455528 0.011589725 0.0043920213 -0.004173591
0000e0 ab 60 07 bb 37 1e a4 bb 7a 85 a5 3b bc 21 30 3b
       -0.0020656984 -0.0050084847 0.005051312 0.0026875576
0000f0 81 50 c9 ba af 1b 82 3b 5d e8 0b bb 7a 2b f3 3b
       -0.0015359075 0.0039705853 -0.0021348216 0.0074209543
000100 13 ce 04 3b ff b5 e7 ba 67 15 05 3c 7d c2 76 bb
       0.0020264431 -0.001767814 0.0081227785 -0.0037652545
000110 bf 65 37 3c 7e 8e 8b 3b c0 90 a6 ba 87 38 fb bb
       0.011193692 0.0042589298 -0.0012707934 -0.0076666507
000120 a8 09 a8 bb 50 fb 7a 3b 49 42 9f 3a fb 33 70 bb
       -0.0051281042 0.0038296767 0.0012150492 -0.0036652077
000130 57 8c 60 3b cb 54 18 3b c9 d6 e4 3b 2a f9 01 bb
       0.0034263337 0.00232439 0.006983612 -0.0019832351
000140 49 b2 96 bb e9 9c d7 3b 00 41 cd 3b 98 a8 22 3c
       -0.00459889 0.0065799844 0.006263852 0.009927891
000150 e6 64 bb bb eb 99 39 bb ba 99 1d 3c 57 d8 7a ba
       -0.005718815 -0.0028320502 0.009619171 -0.00095689803
000160 b1 2b 50 3c ef e3 c2 3a 62 d0 02 ba cf 2f d0 bb
       0.012705729 0.0014868955 -0.0004990158 -0.0063533555
000170 ef a7 48 bb 56 b5 6d bb a8 23 bf 3a 7d e5 a1 bb
       -0.0030617674 -0.0036271415 0.001458277 -0.004940687
000180 49 0f a1 bb 58 5f a6 3b f6 0c c2 3b 4e b8 fb bb
       -0.004915152 0.005077284 0.005921955 -0.007681883
000190 a4 94 a0 39 f4 92 8c 3c ea 12 23 bb b6 4d 8c 3c
       0.00030628324 0.017159916 -0.00248831 0.0171269
0001a0 72 58 ac 3b 44 c1 0d bb c2 0a 89 3c dc 92 17 bc
       0.005259567 -0.0021630088 0.016728763 -0.009251323
0001b0 e0 09 a9 3c 1c 03 40 3c 58 6a 67 39 c5 08 ac 3c
       0.020634592 0.011719491 0.00022069493 0.021000275
0001c0 03 3c 99 bb 91 6b ac 3c 95 4e 07 3c 53 fd e0 b6
       -0.0046763434 0.021047385 0.0082584815 -6.705211e-06
0001d0 d1 54 64 3c 05 d9 a4 bb f0 a3 83 3c 73 5c e7 3b
       0.013936237 -0.0050307536 0.016069382 0.0070605814
0001e0 1e 6d 90 bb cb f4 3f 3c ea fe 88 bc c3 ea 89 3c
       -0.004407539 0.011716078 -0.016723115 0.016835576
0001f0 d2 04 8a 3c cb cb 41 bb 8c f3 5a 3c b3 c9 c3 bb
       0.016848002 -0.0029570933 0.01336373 -0.005974972
000200 91 86 04 3c 54 e9 1f 3c fd 0b 46 bb 50 84 49 3c
       0.008088724 0.00976022 -0.0030219548 0.012299612
000210 6f d9 bd ba 3e e6 18 3c 09 e6 9b 3b a3 cf bc ba
       -0.0014484356 0.009332238 0.004757647 -0.0014405142
000220 d9 fc a1 3c 25 12 1b bc b3 1e 8b 3c c3 30 62 3c
       0.019773887 -0.009464775 0.016982412 0.013805571
000230 a7 e9 f1 ba 0c 37 dc 3b f8 fe 11 bc 97 2e bd 3b
       -0.0018456475 0.0067204293 -0.008910887 0.005773376
000240 58 38 29 3c 70 52 97 bb 99 cc 99 3a 0c 36 ad ba
       0.010328375 -0.0046179816 0.0011733948 -0.001321496
000250 59 41 86 3b 99 f9 86 3a fa 56 81 3c 71 4c af bc
       0.0040971455 0.0010297775 0.015788544 -0.021398755
000260 4d 35 bd 3b ea e5 01 bd 08 4b b1 bb
       0.005774176 -0.031713404 -0.0054105558
