Cancer-senn/trial4/models/cancer/grad3_Hinput_Thdummy_Reg1e-02_LR0.001/checkpoint.pth.tar (torch_old, 26436 bytes, 34 tensors)

parametrizer.linear1.weight f4 [10, 30]
00000000: 22a4 933d 7b94 f9bd 3473 663d bb2a 2abd
00000010: 081d 58bd d9ca 0dbb 2849 babd bc89 3cbd
00000020: a119 bfbd 2aae ccbd 0071 ad3d b888 3b3b
00000030: d424 3fbe f2a6 94bc 0637 10be a6c6 953d
00000040: 0ee9 2abc 063d 1d3e 5d4b 883d f81a efbd
00000050: f998 9fbd 3bcb bc3d eac4 c33d d61c 28be
00000060: 6eac 17be d726 a53d 329b 16bd 9418 54be
00000070: 392f a3bd 3bbf 8abd 85be a53d 03da eebd
00000080: 951d 01be f604 3f3d 6afe cabd 6da0 c53d
00000090: 9dc4 33be 60a4 2ebe 73cd 963d 045f c4bd
000000a0: a0ee 5c3d f4bf 053e 4460 7abd ebf4 be3d
000000b0: c4cb 58bd 943d d23d 6ef4 163e af40 0ebe
000000c0: ed31 4fbd 2b1c c93d 0195 1ebe abc2 f9bd
000000d0: 0158 a3bd 5fdd 7dbc a550 46be 5cda 78ba
000000e0: c980 103e f822 943c b216 54ba b915 943d
000000f0: 53c0 76bd c37d 073e a74c 05be 72fc 83ba
00000100: 6da7 be3c 3159 2ebd 6eb3 263d ade6 313e
00000110: b21c d2bd d97c d4bd b293 a6bd 5ece 31be
00000120: d721 ab3d 32f3 1dbe 0f94 063e 335a ab3c
00000130: 5b43 4c3b 42b2 6ebc a97b a7bd a529 aa3c
00000140: 4dec a3bd f4fc b23b be7e ffbd 2063 cdbd
00000150: 417e fcbd b212 d33d 1cb3 e9ba b23c a2bd
00000160: 41e8 04bd 8eb6 613e f7ff 28be 9ba7 0a3e
00000170: 955f 1bbe 808f fb3c 3ac2 273e 3284 303e
00000180: 6931 0abe c415 923d 28bd 4bbc 6ef1 d5ba
00000190: 6864 24be 3c48 4bbe 3009 86bd 791c febd
000001a0: 55b6 04be 3e09 f63d 91aa c4bd ce53 9dbd
000001b0: 1bce 87bd 0ec3 a9bb bda2 4f3d 4784 1d3e
000001c0: f81e f0bd f11a 213e 4089 333e 7332 10be
000001d0: 5e4c 193d 77a0 693d 955e aebd d634 073e
000001e0: 59ab 10be b4e5 02be eecf e13a bc89 0dbe
000001f0: 3a59 9bbb 341d 45be a4f0 83bd f5e0 a23d
00000200: 8dc6 07be d034 d93d 5cb3 e63c 2d5d 363c
00000210: b2cc 653d f916 2f3e d715 393e 0fe9 333d
00000220: 899f 3dbc 98b9 a23c 7859 733c b958 c1bb
00000230: 9ce9 2dbe c984 43be 7c2a a03d 71f8 0fbe
00000240: 66af 8c3d 512d 8d3d 177c 9abd 0ce2 143d
00000250: e68b c83d 63ed 37be d1a7 113e ab5d 063e
00000260: ac78 9a3c 9ec5 b73d 4217 c43c c6ed 2bbb
00000270: e9f4 e83c e4cd 98bd 75b7 2abd 6e25 ee3c
00000280: 7b7c 373e 10a6 0a3d 9876 133e 401f bcbc
00000290: 56a7 363e e28f 9d3d 5f7f 91bd e310 ee3d
000002a0: eedb fc3d 344c c93b 5e4f 9bbc c0af 773a
000002b0: fcc8 30be a4fb d13d de93 c63d 767d fdbd
000002c0: 5303 47be 82e1 20bd 12a7 1f3d d129 f5bc
000002d0: fe54 22bd e7a7 f13d af5c 4cbe 512b 62bd
000002e0: 9dac 413e 5d0b 90bb ca53 d9bc d499 84bc
000002f0: e867 073e 5b69 113e 5709 3bbe d69b 973d
00000300: 32dd 86bc 75b2 3ebe 6d66 223c 227d cabd
00000310: ac8b 97bc 2eae 043e b074 223e 37d6 213e
00000320: ab17 113e 0e82 013e 5e70 f4bd d801 023e
00000330: 85d0 14be 1012 8dbd 29d2 c2bd a5f1 51be
00000340: 9a7a c13d b07b da3d d8f0 15be 2c6c ffbc
00000350: c02d ec3d ecec afbd 50df 80bd 0403 803d
00000360: c988 7ebd e2f8 53be 56fd 26be 9384 a3bd
00000370: 2916 37be d83b bf3d d77a c7bc 6f97 c3bb
00000380: 9b9c c13d 4038 053e a003 423d 340f 8f3d
00000390: 1b23 843b 1e8b 30be 5566 c83a 70dc b73d
000003a0: 6f47 c0bd bb16 17be fd5d c53d 0e5b 9a3c
000003b0: 5210 babb 03d2 0ebe 901d 12be cac5 cf3c
000003c0: 9f97 ec3d 411c 203e 1bb6 2b3c 014e 87ba
000003d0: 0a01 d53d 0636 fa3b 191a 4b3d fc67 0d3e
000003e0: 9b69 cf3d ee1f 3ebe 0965 0c3e 9021 553c
000003f0: 19a2 d43d a6c1 53bd 8419 8d3d 04c2 d33d
0.0720904 -0.121865235 0.05626221 -0.041544657 -0.05276206 -0.00216358 -0.09095985 -0.04602979
-0.0933106 -0.09994157 0.08468819 0.0028615426 -0.18666393 -0.018146012 -0.1408349 0.0731328
-0.010431541 0.1535531 0.066549994 -0.11675066 -0.07792849 0.09218451 0.09559043 -0.1641725
-0.1481187 0.08064049 -0.0367691 -0.20712501 -0.079679914 -0.067747556 0.08092979 -0.11662676
-0.12608941 0.04663559 -0.09911807 0.096497394 -0.17555471 -0.17054892 0.07363405 -0.09588435
0.053938508 0.13061506 -0.061126962 0.09324058 -0.0529287 0.10265651 0.1474168 -0.13891862
-0.050584722 0.09819826 -0.15486528 -0.12195333 -0.0797577 -0.0154946735 -0.19366701 -0.00094929873
0.14111628 0.01808308 -0.000809054 0.07230706 -0.06024201 0.13231568 -0.13017522 -0.0010069741
0.023273194 -0.04256553 0.04069846 0.17373152 -0.102593794 -0.10375375 -0.081336394 -0.17363879
0.08356064 -0.15424803 0.13142417 0.020917034 0.0031168077 -0.014568867 -0.08177883 0.02077181
-0.08004055 0.0054622833 -0.12475346 -0.10028672 -0.123287685 0.103063 -0.0017829868 -0.07921733
-0.032448057 0.22042295 -0.16503893 0.13540499 -0.1517318 0.030708075 0.16382685 0.17237929
-0.13495411 0.07133058 -0.012435235 -0.0016322562 -0.16053927 -0.19851774 -0.06544721 -0.124077745
-0.12960179 0.120134816 -0.096028455 -0.07682 -0.066311084 -0.005180723 0.05069231 0.15382491
-0.11724657 0.15732934 0.17532825 -0.14081745 0.037426345 0.057037797 -0.08514134 0.13203749
-0.14127864 -0.12782937 0.0017228106 -0.13822073 -0.0047408612 -0.19249421 -0.06442383 0.079530634
-0.13259335 0.10605776 0.028161697 0.011130613 0.056103416 0.17098607 0.18074737 0.043923434
-0.011573681 0.019863889 0.014852874 -0.005900469 -0.16983646 -0.19093622 0.07820603 -0.14059617
0.06869392 0.06893409 -0.075431995 0.036348388 0.097923085 -0.1796165 0.14224173 0.13121669
0.018856369 0.08973239 0.023936871 -0.0026234253 0.028437095 -0.074611455 -0.041678865 0.029070582
0.1791858 0.033849776 0.14400709 -0.02296412 0.17837271 0.07693459 -0.07104372 0.11624315
0.12346636 0.0061431173 -0.018958744 0.0009448491 -0.1726417 0.10253075 0.09696172 -0.123774454
-0.19434862 -0.03927756 0.03897769 -0.029927166 -0.039631836 0.11799603 -0.19957231 -0.05521709
0.18913503 -0.004395886 -0.026529212 -0.016186632 0.13223231 0.14200346 -0.18265282 0.0740277
-0.016462896 -0.18622763 0.0099121155 -0.098871484 -0.018499218 0.1295707 0.15864825 0.15804373
0.14169185 0.12647268 -0.11935495 0.12696016 -0.14532669 -0.06888211 -0.09512741 -0.20502336
0.094472125 0.10668123 -0.14642656 -0.03117951 0.115321636 -0.08590111 -0.062925935 0.06250575
-0.062142167 -0.2070041 -0.16307577 -0.07984271 -0.17879547 0.09337586 -0.024350567 -0.00596898
0.09453698 0.13009739 0.04736674 0.06985322 0.004032505 -0.17240569 0.0015289286 0.08977592
-0.09388625 -0.14754765 0.096370675 0.018842246 -0.005678215 -0.139473 -0.1426909 0.025362868
0.11552357 0.15635778 0.010480429 -0.001032293 0.10400589 0.0076358346 0.049585436 0.13809198
0.101275645 -0.18566868 0.13710417 0.01300849 0.1038248 -0.05169835 0.06889632 0.1033974

parametrizer.linear1.bias f4 [10]
00000000: 2604 9b3b 33c3 36bd c94e 82bd ef35 c43d
00000010: b20c 32be c7c0 3bbe 603f 22bd 42f1 0c3e
00000020: dd49 3c3d d85d 8f3d
0.004730719 -0.04461975 -0.06362683 0.095805995 -0.17387655 -0.18335257 -0.03961122 0.13763908
0.04596888 0.07000321

parametrizer.linear2.weight f4 [10, 10]
00000000: 422c 93be 4f8d f9bc 84ee 43bd 83fc e6bd
00000010: d44e 683e d913 b53e bf98 913e 685f acbd
00000020: d224 5ebd 28e9 983e 9191 99be d078 89bc
00000030: 1496 09be 4eb0 15bd b3cb 68be 5b38 6ebd
00000040: 04b4 2abe 3f13 8abe d9c2 e83c 8417 853d
00000050: 8cb3 9dbe 95ba 04be adbb 993c feb4 953e
00000060: 3b82 653d 7ca8 4abe 4273 a0be 6944 d3bd
00000070: c8e4 683e af58 2cbe 0e37 953c 6cbb 86be
00000080: fa7f 813e 47e0 b13e 6fd3 123e 4d19 02be
00000090: 9c50 963d 6073 12bd 3f69 87be 91c1 5e3e
000000a0: 4fd8 2e3e c205 0d3e cd49 01be d69e 5ebd
000000b0: 84a9 01be afe2 553c ea9a 093e 767e 493e
000000c0: 82f6 ef3d 75a6 173e db2b 88be ee73 4fbe
000000d0: 2d2f bb3d 7ee2 783e 2a3b b5bd d9b2 93be
000000e0: 9b4a 223d 26f7 013c 8075 7abe 0929 23be
000000f0: 5bd8 903e 6568 17be efca 8fbe 8bdf 20be
00000100: 3a79 1bbe 4fde 41be 571c 9a3e 0d56 febc
00000110: 5e77 5a3e 1f13 453d 1866 d8bd 1d88 8fbe
00000120: 1d4b 40bd 1eff aebc ea3d 83be b8f6 2c3e
00000130: 12e7 9f3d 5cdc a6be 389e e93d 5409 653e
00000140: 030c 31be 665b 95bc 77fe ba3d 63f0 04be
00000150: 1946 033e 6758 6a3e daa3 6cbe 5cf6 233e
00000160: f93b a43e 9c2f c73d c6be 263e 4fd1 6ebe
00000170: 6d12 353e ef28 3abd 85d9 71be 879b 71be
00000180: 5365 93bd b472 8f39 8e4b 903d d9cd 643d
-0.28744704 -0.030462889 -0.047834888 -0.112786315 0.2268632 0.35366705 0.2843685 -0.08416635
-0.054234333 0.29865384 -0.2999387 -0.01678124 -0.13436157 -0.03654509 -0.22733955 -0.058159214
-0.16670233 -0.2696781 0.028413223 0.06498626 -0.30801046 -0.129618 0.018766249 0.2923965
0.0560324 -0.19790834 -0.31337935 -0.103157826 0.22743523 -0.16830705 0.018214729 -0.26314867
0.2529295 0.34741423 0.14338468 -0.12704964 0.07339594 -0.03575456 -0.26447484 0.21753527
0.17074703 0.13771728 -0.12625809 -0.054350697 -0.12662321 0.013054534 0.13438001 0.19677147
0.117169395 0.14809592 -0.2659596 -0.20259067 0.091398574 0.2430515 -0.08849175 -0.28847387
0.03962193 0.00793246 -0.24458885 -0.15933622 0.28290066 -0.14785917 -0.28084514 -0.15710275
-0.15182963 -0.1893246 0.30099747 -0.031046892 0.21334597 0.04811394 -0.10566348 -0.28033534
-0.046946634 -0.021361884 -0.25633174 0.1689099 0.07807745 -0.32589996 0.11407131 0.2236684
-0.17289738 -0.018232059 0.091305666 -0.12982325 0.12819709 0.22885285 -0.2310938 0.16011947
0.32077006 0.09725878 0.16283712 -0.23322032 0.1768281 -0.045449194 -0.23618133 -0.23594485
-0.071970604 0.00027360546 0.07045661 0.055860374

parametrizer.linear2.bias f4 [10]
00000000: c677 acbe 7294 8b3e b472 79be 5e85 5b3e
00000010: 7aba 04be 3012 6d3c 0908 f73d 1a53 0bbe
00000020: e397 753e 1e20 a03d
-0.3368513 0.27261692 -0.24360162 0.21437594 -0.1296176 0.014469668 0.120620795 -0.1360592
0.23983721 0.07818626

parametrizer.linear3.weight f4 [5, 10]
00000000: 053c 703e f44c b9be 49c4 77be de90 91be
00000010: 0cf6 bcbc 7ed7 59be de94 84be 90f2 573e
00000020: 6e30 413e ec72 74be 6879 313e 0df2 89be
00000030: e654 1b3e b550 44be 3993 d43d 4f7d 31bd
00000040: 7013 683e 7b48 57bd 0fbe 073d 509d b53d
00000050: fe86 b23e 515b 503e 9aaa 503d 103c 103e
00000060: aeca b2bd 8063 833e aacf ba3d 9f78 153e
00000070: e467 50be 99dc a13d b5d8 95be f6ff 893e
00000080: 9bfb 25bd 87df 703e b706 1ebe dfc7 66be
00000090: fdfd 19be 282f 0abd 398e 473e 3737 53be
000000a0: a54f 993e 5db3 07bc f377 983e 7248 123e
000000b0: 5c9b 42bd 7568 773e 8cc1 f43d 423a 0d3e
000000c0: 689e 023e b409 87bd
0.23460396 -0.36191523 -0.2419597 -0.28430837 -0.023066543 -0.2127361 -0.25894827 0.21088624
0.1886613 -0.23871964 0.17331469 -0.26942483 0.15169105 -0.19171412 0.10379643 -0.043332394
0.22663665 -0.052559357 0.03314024 0.088678956 0.34868616 0.20347334 0.05094395 0.14085412
-0.08730064 0.2566185 0.0912164 0.14596795 -0.20352131 0.07903404 -0.29266897 0.26953095
-0.040523153 0.23522769 -0.15432249 -0.22537182 -0.15038295 -0.033736378 0.19487847 -0.20626532
0.29943576 -0.00828251 0.29779014 0.14285448 -0.047511443 0.24160941 0.11950979 0.13791755
0.1275574 -0.065936476

parametrizer.linear3.bias f4 [5]
00000000: 3b1b 743d f85f 8fba 9ce7 acbe 3c3a 2abe
00000010: f29e 8abe
0.05959628 -0.0010938635 -0.33770454 -0.16623777 -0.2707439

parametrizer.linear4.weight f4 [31, 5]
00000000: 82bf da3e 668f 2a3b 15b9 dfbe 97af 34be
00000010: 5502 f9bb f899 35be ae17 1abe ac0f a53c
00000020: 060e 943e 87c3 843e e8eb bbbe 02a4 1b3e
00000030: f40f 4abb 60b2 6dbe d04e 7abc 257e 273e
00000040: 0e39 c7be 6d52 f7be 3ce1 b63e 03c5 9fbe
00000050: b8ff d0be d9cd 873e 0cf8 5d3d 6c7b 943e
00000060: 4288 243e 2b7a 0dbe d32f b53e 3919 8fbe
00000070: 41a1 edbc 01b3 23be fe29 d2be 45a9 f6be
00000080: 04ba 6c3e cbdb b7be 1312 88bd e168 22be
00000090: c800 fe3c 4dfd 623e 758d 4fbe 8cbd c0bd
000000a0: 4f33 e8be 4781 953e c16b 7fbe a374 01be
000000b0: f54b 4abe ca09 793d 330a 553e 6c04 913e
000000c0: 15b6 56be 1cd3 6cbe 658f 84bd 36e9 943e
000000d0: f833 713d c135 51be d63e 81bd 5ec8 98be
000000e0: 45e0 f1bd 4e67 abba eacf c53e b0d4 88be
000000f0: 3646 8a3e 48bc 0fbe 2f13 98be 506c 7b3e
00000100: 8203 f33c 245b 773e f11a 52be 9043 d9be
00000110: 1ca0 893e 98ff 7a3d e61b 16be 0efa a3bc
00000120: 5f1b 7fbe 933c c8be c9bf c9bd 5fc7 9b3e
00000130: be4f 9f3e 4c3f a43e 6a44 db3d a81f 8ebc
00000140: dd23 d2be cf8f c53e 1337 bb3e 767d bfbe
00000150: 066c a43d 0ae7 78be b4a9 b23d de95 88bd
00000160: 5f60 b13e 025a dcbe 8994 0d3e b291 b3be
00000170: 17e2 c5be 3cce 9c3e 6d82 c93e 5cd0 963e
00000180: be0f d63d 4dfc 31be c2f6 ac3e aabd b23e
00000190: 6a90 5fbd 7bb2 643e d796 8bbe 9bed c6be
000001a0: 84da 6dbe 14f7 5b3c 3c80 893e 7a53 cbbd
000001b0: d286 5f3d 50bb 773e 39ee fc3d 0e7b 1c3e
000001c0: 5345 bcbe f10e 4a3e 74a4 61be fd9b d5be
000001d0: 710d 96bd 5153 fbbd 8655 853e 3278 18be
000001e0: 49bc 5abe 0085 443e b37e eebe e264 503c
000001f0: 1700 713e e4f4 453e f84e e0be 6abf 01bd
00000200: a262 713e cc3c b7be 2fec edbd d8e4 9e3e
00000210: f477 11bb b2b5 d6be 36d9 5c3e 9187 9ebe
00000220: f687 35be a16b 2a3e ad04 a63e 22ef 1f3e
00000230: b963 39be 0f06 e3be ca91 81be 9cb4 d6bd
00000240: 65aa 73bd 7957 e4be c827 93be 1f2f 103e
00000250: 36a1 0bbe c4ad 383e 67d0 9f3c 4286 eabb
00000260: 5cdf bd3e 5900 48bd 03cb 953e
0.42724234 0.0026025414 -0.43695894 -0.17645107 -0.007599155 -0.17734516 -0.15048096 0.020149074
0.2891695 0.25930426 -0.3670342 0.15199283 -0.0030832263 -0.23212576 -0.015277579 0.16356714
-0.38910717 -0.48305073 0.35718715 -0.31204996 -0.40820098 0.26524237 0.054191634 0.29000413
0.16067603 -0.13816135 0.3538805 -0.2794893 -0.029007556 -0.15986253 -0.41047662 -0.48176017
0.23117834 -0.35909876 -0.066440724 -0.1586032 0.031006232 0.22166939 -0.20268805 -0.09411153
-0.45351645 0.29200193 -0.24943449 -0.1264215 -0.19755538 0.06080035 0.20804672 0.28323686
-0.20967896 -0.23127407 -0.06472663 0.29084176 0.058887452 -0.20430662 -0.06310813 -0.29840368
-0.11810354 -0.0013077052 0.38635188 -0.26724768 0.27006692 -0.14036667 -0.29702136 0.24553037
0.029664759 0.24155861 -0.2051809 -0.4243436 0.26879966 0.06127891 -0.1465908 -0.020016696
-0.24912785 -0.39108714 -0.09851033 0.30425546 0.31115526 0.32079542 0.10706408 -0.01734908
-0.41042987 0.3858628 0.36565456 -0.37400407 0.08028416 -0.24306884 0.087237746 -0.0666921
0.34643838 -0.4303742 0.13826193 -0.35072094 -0.38649055 0.30626094 0.3935732 0.2945584
0.10452221 -0.17381401 0.3378201 0.34910327 -0.054581083 0.2233371 -0.2726352 -0.38853154
-0.23227888 0.013425607 0.26855648 -0.09928031 0.054571934 0.24192548 0.12350125 0.15281317
-0.3677164 0.19732262 -0.2203539 -0.41720572 -0.073267825 -0.12271751 0.26041812 -0.14889601
-0.21360888 0.1919136 -0.4658104 0.012719365 0.2353519 0.193317 -0.43810248 -0.031676687
0.23572782 -0.35788572 -0.11617314 0.3103397 -0.0022196742 -0.41935498 0.21567234 -0.30962804
-0.17727646 0.1664262 0.32425442 0.15618566 -0.18104447 -0.4434056 -0.2530654 -0.10483667
-0.059488673 -0.44597986 -0.28741288 0.14080475 -0.13635716 0.18035036 0.019508554 -0.007157118
0.37084472 -0.048828457 0.29256448

parametrizer.linear4.bias f4 [31]
00000000: 251d 103e fbd6 72be c198 34be c19e 63be
00000010: d1ff ccbd ed7c 8d3d 0f63 893d a9d0 6d3e
00000020: 6beb 67bd 2105 97be bc6c f5bc 2b5d 983e
00000030: cbd5 a3be bcac 753e f55a 96be 2436 6f3e
00000040: 1b02 723e 05e9 c13e 10d2 80be 8e2d b7be
00000050: 0683 eb3e 5755 873e 205f b53d fd84 6e3e
00000060: 2683 b4be b303 c9be 46bd f93e b684 a53d
00000070: f18c a43e 5eda 373e f006 fcbd
0.14073618 -0.23714821 -0.17636396 -0.22228529 -0.100097306 0.06908593 0.06708347 0.23224129
-0.056620996 -0.294961 -0.029959075 0.29758582 -0.3199905 0.23991674 -0.2936627 0.23360497
0.23633616 0.37873092 -0.25160265 -0.35776943 0.459984 0.26432297 0.08856034 0.23292919
-0.35256308 -0.39260635 0.48777217 0.08081953 0.3213878 0.17954394 -0.12306011

exp_avg f4 [10, 30]
00000000: 3543 c63a a7b6 aabb c96f 9d3a 3def c93a
00000010: 7782 783b acef c4b8 f02d b538 75a8 143b
00000020: 8baf 853b c1f5 1abb 44bb 383a 867a 35bb
00000030: fdb2 c039 34f8 6d3a 22b0 3cbb 5cc4 81bb
00000040: a64f 8bbb ce97 5aba abac 88bb 404b e2bb
00000050: d150 183b 8012 86bb 1f89 013b 7f82 123b
00000060: 0b9c 4c3b 80a3 6eb8 fe15 173a 08e1 063b
00000070: 0a88 14b7 4245 a7ba 6035 d33a 46ba 9fb9
00000080: 31be c13a 1133 6f3a f323 49ba 9894 7ab8
00000090: e9d0 8b3a 4c1f 873a 2ca7 85ba 744b e3ba
000000a0: 03db 8c3a 46f0 9035 5f96 023a 2c27 fd38
000000b0: aa20 c237 693b 2aba ad96 47bb 6100 f4ba
000000c0: 0430 fc3a 9845 a9ba ae22 033b a8da 3339
000000d0: edaa d93a f545 843a ae4f dd34 d5fe 873a
000000e0: d9a9 64b9 dd5d 053a 7c7d 3a3a 4c24 e13a
000000f0: 7edd 353a e116 d43a 75fd 1c3a 0505 2e3a
00000100: f61a 8eba 592a d5ba 2365 8bba b6e9 f8b9
00000110: 3896 17bb 66ef 20bb d91f f5b8 8df6 0bba
00000120: b04d 5bb9 f46c 8839 98b6 1b39 a786 41bb
00000130: d0c2 3bbb fd2e 1fbb 513e d1ba 54b1 26bb
00000140: 9371 583a b396 e83a 265c 3c3a f9e6 513a
00000150: e438 2536 b242 82ba d573 7eba 0d6b 02ba
00000160: 33be 50ba 8fd6 7eba 0198 53ba b868 013b
00000170: c7f3 36ba 2d81 3639 009f a73a 938d 673a
00000180: 3821 453a 0e90 5a39 ddbd d83a ffe1 0c3b
00000190: f8c3 afb9 9945 1739 068b c4b8 2631 1d3a
000001a0: 2403 ad39 de61 0cba 9bfc 333b 1c06 913a
000001b0: 94f0 31bb 4caa 513a c16d 89b9 bfb3 ce3a
000001c0: 70ac 51b8 b6d8 5e3a 402d f23a b75f 403a
000001d0: 0b77 263b 0b86 913a ea00 f539 19df b53a
000001e0: 153b 373a 823c 243b 4408 4b3a abfd 9437
000001f0: e8e4 d3ba 7f7e 3e3a 1286 2dba f90d 2738
00000200: 9913 c0ba 0bf9 36b9 3d62 053b e661 8f3a
00000210: e2cf 9f3a d2f0 293a 743f eeb9 b6be 4a3a
00000220: 86a8 a8bb 2e7e 3dbb 5756 dd3b 640a 6d3a
00000230: 1075 8b3a 9a30 253b 3b9c 4d3a 419a 2c39
00000240: cc2b 40ba d318 9b3a 1af2 31bb d0e8 f6b9
00000250: 1c89 7e3b cb38 003b a7b8 363a 98f2 a53b
00000260: 788b 8d3a e2b0 e3ba edbf 00ba ff8e bd3b
00000270: 0648 323a ea11 d33a 9d27 1f3b 17ff 343b
00000280: 09ba bc3a 8f62 f13a 3d1d 443a 86dd 9bba
00000290: e6fd 06bb d91f 873b 3405 42bc 86b7 e3bb
000002a0: 0e98 653c 82ad bbba 1d0e 8d3a 0930 e03b
000002b0: 9978 543a 6b0b f7ba 24ad 283b 9c9c 0d3c
000002c0: 035c b7ba 4c7d ed3a e6fa 603c 5101 133c
000002d0: dea1 d9b9 71ff 26bb d70b 50b9 29b9 7cba
000002e0: 1c18 c5b9 ea5f 043b 4966 b93a 544d 613a
000002f0: 7d9e 373b 1e6e 1f3b 81a1 863a b3d8 05bb
00000300: c2be ca3a d2ab 57b7 15af b5bb d799 ab3a
00000310: 96b9 9d3a 9fad 2038 a9da e33a c674 263a
00000320: 3fc1 e9b9 84de dcba 801b eab8 ed34 82ba
00000330: dab4 46ba d52b ae3a f401 c53a a3b8 be3a
00000340: e666 303b c93d 433a cc27 a33a e506 d3b9
00000350: 3aed 883a 9e92 933a 69c4 943a dbde 8bba
00000360: fec6 80ba 9b2a 4c3a 8f85 5fb9 5c9d 50bb
00000370: 45ae a73a efb1 70b9 313e 653a 262c 913a
00000380: a05b 103a 35e8 22bb f0e8 92bb 7b48 fbba
00000390: 81bc a1ba 153e 83bb 425c e53a 2d0a a539
000003a0: ba94 c43a e925 c73a f122 013b 7096 37ba
000003b0: 7d31 beba 6795 ab39 9c3b 60ba ef20 a5ba
000003c0: 5244 b039 e090 4fba 32e9 5c39 6fb4 203a
000003d0: 5138 f239 da73 50ba 4a19 8eba 1a6c b6b9
000003e0: fed1 e2b9 5990 9eba 9905 643a 555a ca3a
000003f0: 8169 293a bec3 3c3a f48c 163b 4c94 a639
0.001512623 -0.005209762 0.0012011464 0.0015406382 0.003791956 -9.390651e-05 8.639309e-05 0.0022683416
0.0040797642 -0.0023645016 0.0007046948 -0.0027691438 0.0003675445 0.00090778177 -0.0028791507 -0.0039601754
-0.004251438 -0.00083386607 -0.0041709743 -0.006905943 0.002324153 -0.004091561 0.0019765568 0.0022355614
0.0031220939 -5.6895893e-05 0.000576347 0.0020580906 -8.8531615e-06 -0.0012761729 0.001611393 -0.00030465628
0.0014781413 0.0009124736 -0.00076728984 -5.9743033e-05 0.0010667118 0.001030901 -0.0010196916 -0.0017341212
0.0010746423 1.0798765e-06 0.00049815135 0.000120712764 2.3141813e-05 -0.0006493838 -0.00304548 -0.0018615836
0.0019240384 -0.0012914417 0.0020009684 0.00017152226 0.0016606726 0.001009165 4.1222432e-07 0.0010375628
-0.00021807048 0.0005087534 0.00071140355 0.0017176955 0.0006937607 0.0016181135 0.0005988696 0.0006638321
-0.0010841775 -0.0016263231 -0.0010635 -0.00047476374 -0.002313031 -0.0024556755 -0.000116884425 -0.0005339168
-0.00020914408 0.00026021118 0.00014849973 -0.0029529722 -0.0028650053 -0.0024289482 -0.0015964006 -0.0025435286
0.000825667 0.0017745107 0.0007185362 0.0008007135 2.462003e-06 -0.000993809 -0.00097065914 -0.0004975058
-0.0007962912 -0.0009721303 -0.00080716616 0.0019746255 -0.00069790747 0.00017404994 0.0012788475 0.0008833047
0.00075199036 0.00020843765 0.0016536076 0.002149701 -0.0003352461 0.0001442641 -9.3719034e-05 0.00059963984
0.0003299947 -0.00053551595 0.0027463797 0.0011064443 -0.0027151452 0.00079980935 -0.0002621245 0.0015770121
-4.9990078e-05 0.00085009204 0.001847662 0.00073384814 0.0025400545 0.001110257 0.00046730723 0.0013875692
0.00069897 0.002506048 0.0007745067 1.7761098e-05 -0.0016166242 0.0007266774 -0.00066194043 3.9828916e-05
-0.0014654278 -0.00017449648 0.0020352744 0.001093921 0.0012192691 0.00064827234 -0.00045442174 0.00077341066
-0.0051470427 -0.002891432 0.0067546773 0.0009042381 0.0010639746 0.002520597 0.00078434095 0.00016460662
-0.0007330745 0.001183296 -0.002715236 -0.00047094235 0.0038839048 0.0019565101 0.00069702644 0.00506432
0.0010799011 -0.0017371441 -0.00049114117 0.0057848687 0.00068008935 0.0016103361 0.0024285086 0.0027617866
0.0014398705 0.0018416214 0.00074811635 -0.0011891581 -0.0020598113 0.0041236696 -0.011842061 -0.006949368
0.014013303 -0.0014318677 0.0010761652 0.0068416637 0.00081051287 -0.0018848007 0.0025737965 0.008643296
-0.0013989214 0.0018119006 0.013731694 0.008972482 -0.00041510066 -0.0025481845 -0.00019840836 -0.0009640628
-0.0003759273 0.002019877 0.0014144863 0.00085945916 0.002801805 0.002432711 0.0010271521 -0.0020423352
0.0015468227 -1.2855004e-05 -0.005544553 0.0013092112 0.0012033458 3.830867e-05 0.0017383891 0.0006349798
-0.00044585203 -0.0016850983 -0.00011163112 -0.0009933986 -0.00075800496 0.001328821 0.0015030489 0.0014550876
0.00269168 0.00074478664 0.0012447773 -0.00040250193 0.0010446676 0.0011258905 0.0011350039 -0.0010671275
-0.0009824929 0.0007788331 -0.00021316692 -0.0031832075 0.0012793025 -0.00022954469 0.0008744924 0.0011075779
0.0005506817 -0.0024857644 -0.0044833347 -0.0019171381 -0.0012339504 -0.0040052035 0.0017498808 0.00031478834
0.0014997937 0.0015193793 0.0019704665 -0.0007003313 -0.0014510598 0.00032726975 -0.00085538044 -0.0012598316
0.00033620239 -0.00079180114 0.00021067707 0.00061304023 0.00046199796 -0.00079518335 -0.0010841277 -0.00034794287
-0.00043262535 -0.0012097462 0.0008698344 0.0015438298 0.00064625597 0.0007200799 0.0022972198 0.00031772477

exp_avg_sq f4 [10, 30]
00000000: 75d4 ec36 b611 1d37 f1f3 fc36 8136 ab36
00000010: 19cf 0938 63b3 cb37 27ab 7337 2283 8337
00000020: 8f2f 9237 fb51 0037 5bcf 8736 62c8 f236
00000030: d05f 8d36 7a9f 3036 d8fc 8037 e488 cc37
00000040: bdf8 4337 c3df a937 f367 3037 c721 8637
00000050: 5d5c e236 af14 b236 8985 f636 bcc1 9636
00000060: 5853 f037 3ee7 e037 a496 a637 daf6 a137
00000070: 3967 5a37 b239 9d37 1ab6 2736 9519 1d37
00000080: ce10 3036 795b 3b36 dce6 6438 66e3 5438
00000090: cb08 fe37 f8af a437 93b0 0538 ee1a 9138
000000a0: a31d ac36 543b 8e35 a284 b936 9818 e936
000000b0: 15f0 9436 33a0 bc37 a5eb be36 3ee6 fb36
000000c0: c28e 9838 4cd4 8237 077a 1e36 e445 2737
000000d0: 9b69 4036 3f35 0036 4602 7038 9868 9138
000000e0: 2c3d 2438 98ac ef37 c9a4 e738 3859 d938
000000f0: d4b1 b134 284d 8335 a28f ab34 2f10 e034
00000100: 2377 c735 d010 a935 8907 6335 16c8 2735
00000110: 3c95 0d36 f474 ec35 84ad 4035 a5c9 0636
00000120: 346d 5035 0335 e134 90b0 ba36 5279 4436
00000130: 8706 5736 6429 5a36 8d8b 7035 a89d 3e36
00000140: 4279 ae34 fc03 8935 d8cb c234 41d2 e334
00000150: 87a3 7735 f03c 2435 5528 2435 48ad 3935
00000160: 43fa 9c35 6178 5835 a907 9c35 947f a236
00000170: 26b2 9535 972b 7835 cbd5 9437 3101 b337
00000180: a189 2137 3fa0 e836 b0ca 4837 34ae 0538
00000190: 2809 6335 09b2 6c36 e5e9 8235 26f7 1e35
000001a0: 1c3b 8436 cba4 8137 d7cd 4936 bc6f 4d36
000001b0: 1771 1538 8584 ff36 3e8d 6335 1c7f 7736
000001c0: 1275 7a35 9d05 6535 71d9 9337 d099 f937
000001d0: 859c 3c37 6c6e 2137 dbe3 6c38 c599 2938
000001e0: f568 eb34 ed72 0836 d0cb d434 1cc3 f934
000001f0: 76d3 2e37 a961 0337 cabb c036 e6a6 2f36
00000200: 006f a436 ce55 8b37 3414 a035 6bcb 7936
00000210: d2d2 6735 08c7 1235 a86e 7b35 3cb5 fc36
00000220: 2592 9537 0731 b636 c2d2 8237 a276 9737
00000230: ba6f ef34 a678 0e36 278d 0335 e622 db34
00000240: 63e6 0b37 811b 2837 d684 a336 27b7 5036
00000250: 511d c737 942e 8f37 45b5 5636 eb54 1438
00000260: b7ae 6e36 3856 1c36 6609 7e38 4d14 8138
00000270: 806d 4738 f9cf d237 4d51 1a38 cb0b af38
00000280: 91cd e136 7a4a 8237 032c 9736 9180 2c36
00000290: e697 fa36 1d0c 1e38 f569 0e39 7ea1 2038
000002a0: de22 9238 47df b638 6fcc 7136 fdf0 3038
000002b0: 129a 8e36 d26f 1136 76f4 8238 1b2b ca38
000002c0: 64ca 6738 fb5b fe37 e9a3 1139 25dc 0b39
000002d0: 6471 6735 b46d 9336 7cf6 6d35 021b 6335
000002e0: 4bec 2a36 4959 cb35 7d29 4436 baa8 7635
000002f0: 534a 3e36 b4ae fc35 11be a835 e91f d836
00000300: a74f c235 98ae 3b35 37a9 e137 a39b df36
00000310: 1912 0b37 dd93 9736 c163 3936 01e0 0f37
00000320: 28ae 7c35 4539 4e36 12a2 9135 4d71 8a35
00000330: b24b 5136 43a0 5235 1ed3 0536 ae40 9a35
00000340: bdd0 6636 8e5f 0436 0015 fc35 baa3 e236
00000350: 5973 1236 284f 8735 79c4 ac37 3070 9e37
00000360: 4f89 4d37 cd19 2037 c0ad 2a37 989b 6337
00000370: 0adc aa35 dedf d935 f34c 9335 91c2 1035
00000380: 7289 4636 b0bd 1737 845b e936 a6b8 4a36
00000390: 6bc0 3837 5a9c f736 0b1b 3536 0277 f136
000003a0: b015 4836 2e9c b935 5200 db37 6542 e237
000003b0: 35e7 9c37 9735 5f37 e686 a737 143d 0938
000003c0: e332 b335 ee86 e834 6bd2 b335 d324 b735
000003d0: 39a7 ad36 61f1 7836 b9a9 f635 3bc3 1436
000003e0: 5972 8236 d254 7a36 eb5f 0136 4b32 c835
000003f0: 3d87 fd35 4846 a735 25ae 8336 55d7 6d36
7.0580813e-06 9.362053e-06 7.5385838e-06 5.102542e-06 3.285622e-05 2.428302e-05 1.4523778e-05 1.567748e-05
1.7426702e-05 7.648482e-06 4.047453e-06 7.2354896e-06 4.2132815e-06 2.6318871e-06 1.5376529e-05 2.438244e-05
1.168082e-05 2.0250567e-05 1.051462e-05 1.5989774e-05 6.7460774e-06 5.3072213e-06 7.346917e-06 4.492902e-06
2.864904e-05 2.6810561e-05 1.985889e-05 1.9307645e-05 1.3017846e-05 1.8742725e-05 2.4990936e-06 9.3638855e-06
2.6235825e-06 2.7918416e-06 5.457444e-05 5.075652e-05 3.0283254e-05 1.9632265e-05 3.187412e-05 6.919155e-05
5.1294496e-06 1.0597091e-06 5.52887e-06 6.946804e-06 4.438693e-06 2.2485945e-05 5.689874e-06 7.5071866e-06
7.2745155e-05 1.5596066e-05 2.3614864e-06 9.970248e-06 2.86717e-06 1.910448e-06 5.7222576e-05 6.933621e-05
3.9157618e-05 2.857139e-05 0.00011045632 0.000103639846 3.3098206e-07 9.782716e-07 3.195574e-07 4.1735026e-07
1.4861329e-06 1.2596374e-06 8.4575055e-07 6.250351e-07 2.1097503e-06 1.7617408e-06 7.177807e-07 2.0084929e-06
7.764495e-07 4.1948087e-07 5.5637865e-06 2.9276894e-06 3.2041296e-06 3.2508624e-06 8.961004e-07 2.8403974e-06
3.2498252e-07 1.0208455e-06 3.6283632e-07 4.2435025e-07 9.2252634e-07 6.1183437e-07 6.115345e-07 6.917003e-07
1.1695741e-06 8.0641445e-07 1.1625135e-06 4.8428283e-06 1.1153213e-06 9.245063e-07 1.774253e-05 2.1339018e-05
9.628392e-06 6.932794e-06 1.1968121e-05 3.187191e-05 8.4577414e-07 3.527037e-06 9.753827e-07 5.9219235e-07
3.940788e-06 1.5454736e-05 3.0071149e-06 3.0612418e-06 3.562969e-05 7.6150195e-06 8.4769624e-07 3.6879856e-06
9.330262e-07 8.5317316e-07 1.762502e-05 2.9754738e-05 1.1242116e-05 9.622057e-06 5.647899e-05 4.043595e-05
4.3848527e-07 2.0332475e-06 3.963637e-07 4.6521825e-07 1.0420443e-05 7.830947e-06 5.7439074e-06 2.617418e-06
4.900503e-06 1.6610047e-05 1.1926809e-06 3.7222296e-06 8.636099e-07 5.4678867e-07 9.366581e-07 7.5312837e-06
1.7830238e-05 5.42973e-06 1.559535e-05 1.8055845e-05 4.459851e-07 2.1229876e-06 4.9006707e-07 4.081732e-07
8.338687e-06 1.0019984e-05 4.8732427e-06 3.1101024e-06 2.37363e-05 1.7068618e-05 3.1993998e-06 3.5365036e-05
3.556646e-06 2.3295997e-06 6.0567072e-05 6.154981e-05 4.7547277e-05 2.5130796e-05 3.679218e-05 8.346847e-05
6.7294536e-06 1.5531888e-05 4.5052743e-06 2.5704833e-06 7.468264e-06 3.7681417e-05 0.00013581647 3.8297374e-05
6.968317e-05 8.720025e-05 3.6030794e-06 4.2186108e-05 4.249866e-06 2.1671772e-06 6.2444175e-05 9.6401396e-05
5.5263183e-05 3.0321991e-05 0.00013889339 0.00013338083 8.621921e-07 4.3937125e-06 8.864806e-07 8.460339e-07
2.5469515e-06 1.5150664e-06 2.9230425e-06 9.188767e-07 2.8355469e-06 1.8826308e-06 1.2572292e-06 6.4410165e-06
1.4477308e-06 6.9916996e-07 2.6900887e-05 6.6640364e-06 8.289259e-06 4.5173642e-06 2.7625213e-06 8.575619e-06
9.4130746e-07 3.0729727e-06 1.085051e-06 1.0314776e-06 3.1187487e-06 7.846431e-07 1.994143e-06 1.1492718e-06
3.4394172e-06 1.9725153e-06 1.8781575e-06 6.754385e-06 2.1822837e-06 1.0081321e-06 2.0595488e-05 1.888731e-05
1.2250922e-05 9.54275e-06 1.0173244e-05 1.3566481e-05 1.2730027e-06 1.6232914e-06 1.0974749e-06 5.392731e-07
2.9584303e-06 9.044466e-06 6.954595e-06 3.0207825e-06 1.1012055e-05 7.3793753e-06 2.6986843e-06 7.196214e-06
2.9814946e-06 1.3829028e-06 2.6106984e-05 2.6972217e-05 1.8704313e-05 1.3304313e-05 1.9970768e-05 3.272023e-05
1.3351349e-06 4.3311542e-07 1.3397779e-06 1.364528e-06 5.175269e-06 3.709538e-06 1.8377824e-06 2.2167358e-06
3.8876137e-06 3.7302275e-06 1.927833e-06 1.4915798e-06 1.8889328e-06 1.2462924e-06 3.9243773e-06 3.5441092e-06

exp_avg f4 [10]
00000000: 4619 46bc eefc 98ba a59f 00ba f81a b1bb
00000010: 541a c73b 9b6b bf3c 3516 493c fa1b b2bb
00000020: 2099 06bc f415 5a3c
-0.012090987 -0.0011672059 -0.00049066014 -0.0054048263 0.0060761366 0.02336674 0.012273361 -0.005435464
-0.008215219 0.013310898

exp_avg_sq f4 [10]
00000000: 4644 0438 3802 4837 bd58 5737 96b8 5237
00000010: c2b6 b836 362b 3b39 1b6a 6a37 76f2 b436
00000020: 6837 0538 661a ad38
3.1534837e-05 1.1921446e-05 1.283566e-05 1.2559953e-05 5.504903e-06 0.00017849807 1.39721915e-05 5.392644e-06
3.1761272e-05 8.2542e-05

exp_avg f4 [10, 10]
00000000: d8b1 28bb d539 473a 43a5 44bb 63ea 153b
00000010: 711a dabb 02d7 8bbb 81a0 7d3b e077 9038
00000020: 4733 cb3a ae20 443b 6f1c 51bb 1ddf 47ba
00000030: 359e c93a 1324 6ab9 41ff c23a 92fe 563b
00000040: c8e2 5b3b 6a2a fb39 bee5 5b3b adf2 6039
00000050: 8e47 8139 e71c b63b 4b94 623a 82f9 47bb
00000060: b015 ae3b 533a 1d3b 2521 223b 2931 a9ba
00000070: 231e bc3a de08 f6ba 74cb 13bb ffe7 edb9
00000080: 445a b13a 695b 16ba 2902 9d3a 6bab 423b
00000090: 5218 013b 8f74 eeb9 42c7 2b3b a492 acb8
000000a0: 237b ecba 0b3c 3639 9579 fbb9 c71b 5f39
000000b0: 277a fc3a 6452 6c3a f460 84b9 b666 54bb
000000c0: 0ede 7dba 9916 35bb 60a9 2ebb 4fbb 133b
000000d0: 72cd da39 20ad fe3a 37ec adba d402 98bb
000000e0: 9f0f 2e3a 2e7b 00ba 6abd d439 18d6 83ba
000000f0: 0147 25bb 49ad 973b e459 7fba 4675 65ba
00000100: f86c 793b 0e21 b63a 7c5d 2f3b 3f4f 83bb
00000110: 81e2 9b3a aaa7 85bb 75ea 0e3b 52dc 9337
00000120: 3b50 9ab8 e43b b83a 10cb 9dbb cafc 8dbb
00000130: 0ace 1439 bb53 7e3b 0967 90b9 fecc 6f3b
00000140: f32f 1e3b 88cf c8ba d453 1939 573f a1ba
00000150: 20ef 47b9 5542 7c3b 7308 843a f1aa 753a
00000160: 33dd c038 8472 253b bb55 66bb 1e5c e83a
00000170: 0e61 0cba 4230 163a 4e47 2f3b 822f 2eba
00000180: 4204 22b9 ab26 82bb 2ec3 bab8 f366 93bb
-0.0025740769 0.0007599865 -0.003000573 0.00228753 -0.006655984 -0.0042675743 0.0038700404 6.8887835e-05
0.0015502953 0.0029926705 -0.0031907817 -0.0007624494 0.0015382232 -0.00022329418 0.0014877097 0.0032805544
0.003355192 0.00047906052 0.0033553685 0.00021452708 0.0002465811 0.0055576446 0.0008643313 -0.0030513708
0.005312644 0.0023991063 0.0024738994 -0.0012908328 0.0014352243 -0.0018770953 -0.0022551687 -0.00045377013
0.001353093 -0.0005735667 0.0011978793 0.0029704224 0.0019698334 -0.0004548174 0.0026211296 -8.228913e-05
-0.0018042069 0.0001737924 -0.00047965036 0.00021277285 0.0019262478 0.00090149627 -0.00025249238 -0.0032409853
-0.0009684273 -0.0027631877 -0.0026651248 0.0022542065 0.0004173327 0.0019430257 -0.001326925 -0.004639009
0.0006639901 -0.00049011677 0.00040576915 -0.0010058312 -0.0025219324 0.0046288115 -0.0009740873 -0.0008753132
0.0038059335 0.0013895349 0.0026758602 -0.0040072496 0.0011893065 -0.004078825 0.0021807228 1.762636e-05
-7.358236e-05 0.0014055935 -0.0048154667 -0.0043331133 0.00014191135 0.0038807231 -0.00027542587 0.003659069
0.0024137467 -0.0015320638 0.00014622445 -0.0012302202 -0.000190672 0.0038491685 0.0010073319 0.00093714806
9.196475e-05 0.0025245259 -0.0035146314 0.0017727648 -0.00053550384 0.0005729237 0.0026745382 -0.00066446525
-0.0001545111 -0.0039718947 -8.905526e-05 -0.0044983565

exp_avg_sq f4 [10, 10]
00000000: 5ecc 2137 33a5 2937 c12d 3237 9aa0 4e37
00000010: 859a 0d37 6145 d736 5bb9 4437 2972 9d36
00000020: 728a 3737 0b29 6d36 a90c 1e37 47e8 8436
00000030: 41c8 0c37 3fb8 8936 16bc bd36 4643 1237
00000040: c0a8 c436 e885 4037 8514 1437 a862 5336
00000050: 0f3f 8637 daee 4a37 09ec 1a37 d5c3 1638
00000060: 180a 2338 8870 9337 48db 3e37 22f0 b937
00000070: f93f 4a37 1b5a 8437 6478 2137 8a3b 9736
00000080: d9e0 e436 7f2f b436 ef4c c236 82b6 1b37
00000090: 5bb8 ee36 672d d836 2a84 1937 db47 6936
000000a0: 92f0 0036 0b5e 9535 e3a3 7036 9a55 5836
000000b0: c295 bc36 114d c636 5734 0f36 5f56 cd36
000000c0: f136 9336 fb27 c536 91a2 9e37 7868 1037
000000d0: d83d 6137 adbd 6f37 6034 7037 c1ce 3e37
000000e0: 11ed 8c37 8719 4337 0786 3637 b543 7236
000000f0: 9dd7 2637 8f17 e336 e06d 0037 21ea 9f37
00000100: 6f6d 9b37 d897 2937 5c80 af36 0e04 df37
00000110: 8714 2d37 f457 7837 7b0c 0236 1ea4 8235
00000120: 8cc5 8836 b11a a036 3fca 6b36 63f1 0437
00000130: 891d d135 786c 9f36 d039 d036 af87 8b36
00000140: 96a0 e136 5f5c 6b36 f784 7536 ccdc fb36
00000150: 0cb9 0837 3696 7e36 d0e4 b436 3a53 ee36
00000160: b330 b036 c267 b936 49f0 1737 9365 8036
00000170: 0c0c 9536 4d8b 3037 4569 3537 984c 3936
00000180: 5a37 9736 bb1a 6537 a88e 0837 5222 1d37
9.643931e-06 1.0111648e-05 1.062028e-05 1.231595e-05 8.440232e-06 6.415576e-06 1.1725667e-05 4.6922546e-06
1.0939884e-05 3.5339642e-06 9.420482e-06 3.960947e-06 8.3912755e-06 4.1043672e-06 5.654535e-06 8.7179415e-06
5.8609003e-06 1.1475269e-05 8.826265e-06 3.1498876e-06 1.6003409e-05 1.209575e-05 9.2340715e-06 3.594517e-05
3.887163e-05 1.7576167e-05 1.1375938e-05 2.216554e-05 1.2055033e-05 1.5777585e-05 9.624378e-06 4.507082e-06
6.821105e-06 5.3699473e-06 5.790607e-06 9.281213e-06 7.1144145e-06 6.442587e-06 9.1502825e-06 3.476153e-06
1.9213517e-06 1.1128735e-06 3.5858181e-06 3.2236335e-06 5.6202707e-06 5.9098315e-06 2.1339126e-06 6.119531e-06
4.3873374e-06 5.875712e-06 1.8910769e-05 8.607392e-06 1.3425444e-05 1.4289672e-05 1.4317309e-05 1.1373021e-05
1.6799693e-05 1.1628849e-05 1.0879251e-05 3.610022e-06 9.944572e-06 6.7678698e-06 7.654977e-06 1.9063302e-05
1.8528399e-05 1.0108539e-05 5.2303494e-06 2.658556e-05 1.0316383e-05 1.480243e-05 1.9378774e-06 9.733519e-07
4.0761133e-06 4.771479e-06 3.5135452e-06 7.924015e-06 1.5580309e-06 4.7511967e-06 6.2056133e-06 4.1583185e-06
6.724217e-06 3.5071496e-06 3.658524e-06 7.506087e-06 8.149316e-06 3.7936384e-06 5.3910553e-06 7.1026416e-06
5.250878e-06 5.5255086e-06 9.056247e-06 3.826522e-06 4.4419485e-06 1.0522851e-05 1.0812951e-05 2.7611732e-06
4.5065945e-06 1.3655687e-05 8.139446e-06 9.36592e-06

exp_avg f4 [10]
00000000: 3c5d 303d 5b9b 32bc e609 b4bc 5451 3fbc
00000010: 8f63 3ebc 64c0 2b3c 0e58 97bc 0c82 e93c
00000020: aa11 78bb 6375 56bc
0.043057665 -0.010901297 -0.021977376 -0.011677105 -0.011620416 0.010482881 -0.018474605 0.028504394
-0.0037852325 -0.013089511

exp_avg_sq f4 [10]
00000000: 91a0 2339 c244 2138 aab0 453a 4a7a bf37
00000010: 00ad 5739 8b68 7a38 ebfe eb39 451f 2939
00000020: ff1b ca38 0e61 2839
0.00015604707 3.8449427e-05 0.00075412786 2.282592e-05 0.00020568445 5.9702008e-05 0.00045012622 0.00016128745
9.637325e-05 0.00016057884

exp_avg f4 [5, 10]
00000000: 5b98 15bd 1622 bd3c 047c d6bc 4561 c43c
00000010: 85eb d1bb 22f1 5d3b 5b66 953c 4624 35bc
00000020: 03cc 943c 2783 8b3c 0985 693c 6f0c 83bb
00000030: 0bf8 4e3b 6d43 2abc eddc 5b3b 0d07 66bb
00000040: 8fea 80ba 74be 6a3b 29a0 9ebb 6f20 1ebc
00000050: 83f2 10bd 8c23 c63c 4d79 bdbc cf5a 913c
00000060: a12d cbbb 2b02 a43b a5fc 9f3c 75d1 5ebc
00000070: 690e 993c 56c7 573c b680 2b3c 0098 d5bb
00000080: f136 fdba 30af cfbb a669 d93b fc1b 04bc
00000090: 8ca5 f43a 224d aa3b 936f a43a 0ae8 59bb
000000a0: 8ecd ca3a 0d9c b7bb 89a3 2ebb 6cb3 0eba
000000b0: 7987 4f3b 210b 24bb 7217 4dba 13c7 00bb
000000c0: cf51 47ba 8337 2dba
-0.03652225 0.023087543 -0.026182182 0.023972163 -0.00640625 0.003386565 0.018237283 -0.011056012
0.018163687 0.017030312 0.014252909 -0.003999285 0.003158095 -0.010392052 0.003354843 -0.0035099417
-0.0009835529 0.0035819085 -0.00484087 -0.009651287 -0.035387527 0.024186872 -0.02312913 0.017743496
-0.0062005077 0.0050051413 0.01952965 -0.013599743 0.01868363 0.013170084 0.010467699 -0.006518364
-0.0019318742 -0.0063380226 0.0066349087 -0.008063313 0.001866506 0.005197183 0.0012545459 -0.0033249878
0.0015472637 -0.0056033195 -0.0026647768 -0.0005443606 0.0031666441 -0.0025031047 -0.0007823623 -0.0019649907
-0.0007603438 -0.0006607698

exp_avg_sq f4 [5, 10]
00000000: 66a4 dc39 e876 9f39 28fe 9d39 e773 b339
00000010: a022 d338 d3c7 b338 4c21 4b38 e3e6 0a38
00000020: af69 3a39 d5f5 a138 5d30 7539 b873 1339
00000030: 5c5e 3039 d8f4 4139 612d 7c38 2320 1138
00000040: 923f 7d37 fa28 d437 eae9 0639 5923 3b38
00000050: 91be 5b39 1ee3 cf38 a157 f438 fe0e a238
00000060: b99d 0f38 cf2d a737 40a0 2a38 3222 2d38
00000070: 2f36 9038 0fb5 1b38 5a78 a737 0459 1d38
00000080: aae3 d537 487c 7337 f241 e336 5d6f 3237
00000090: 1872 8137 ca70 9237 54c3 0638 2c64 f835
000000a0: bc1e 0d38 130b 4238 55b9 2237 64cb 3d37
000000b0: 0b75 ce36 5ff1 3137 7715 1e37 dfe6 9037
000000c0: d6c4 6f37 195e 5b37
0.00042084156 0.00030415435 0.00030134735 0.00034227895 0.000100677134 8.572605e-05 4.842998e-05 3.3116794e-05
0.00017777712 7.722868e-05 0.00023383037 0.00014062121 0.0001681982 0.00018497126 6.0123744e-05 3.4600624e-05
1.5094776e-05 2.529145e-05 0.00012866376 4.4617194e-05 0.00020956459 9.912833e-05 0.00011651149 7.7275545e-05
3.4240747e-05 1.9929283e-05 4.0680403e-05 4.127826e-05 6.8765476e-05 3.7123504e-05 1.9963994e-05 3.751462e-05
2.5497593e-05 1.4512865e-05 6.772804e-06 1.0635556e-05 1.5431127e-05 1.7457078e-05 3.2130003e-05 1.8506594e-06
3.3645643e-05 4.6263518e-05 9.699103e-06 1.1312633e-05 6.152904e-06 1.0606221e-05 9.422532e-06 1.7273645e-05
1.42913395e-05 1.3075326e-05

exp_avg f4 [5]
00000000: 283a d73d 6ea4 c2bc 29b0 d33d acb1 69bc
00000010: 3fd8 d6bb
0.10509139 -0.023760047 0.10336334 -0.014263552 -0.0065565403

exp_avg_sq f4 [5]
00000000: 3d36 913b f040 163b 701f d83a 8d2b 9c39
00000010: 3b98 6239
0.0044315145 0.002292689 0.0016488861 0.00029787087 0.0002160975

exp_avg f4 [31, 5]
00000000: a9e6 733b 18ea a43b 3864 653c cca3 84ba
00000010: d9e7 4d3c 4870 613c 3096 423c 8f81 c83c
00000020: 4164 99bb 6f47 c03c bdfa 943b a5df e13b
00000030: 7bd2 af3c e206 beba 0150 a03c 2b61 8a3b
00000040: 215a b23b 7d24 8c3c 3532 89ba 16dc 803c
00000050: e860 103c f827 123c 8214 d03c 0efc 0fba
00000060: 2da6 da3c edc2 413c 93b1 263c 9692 7d3c
00000070: 2d4f cdba 3289 883c cfa5 213c 12da 203c
00000080: ba06 b13c f0ee f3ba 6a53 af3c 465f 373c
00000090: 521d 243c c144 ba3c e82f e2ba 0906 bb3c
000000a0: 278e 4b3c 86d2 f63b 2cf8 f7b9 53df 14bb
000000b0: d941 e03a 9618 593c b48c 193c f69f 6d3c
000000c0: 70d8 b9ba f166 893c a98f 413c 34fe 263c
000000d0: 33c5 be3c 9209 45bb 7a89 b93c d0e7 c43b
000000e0: 94d4 4c3b b735 30bc a6c4 25bb 6d59 17bc
000000f0: 7e74 443c c505 2c3c 2044 c93c e6c1 30bb
00000100: d2c9 c33c 591c ab3b 27bc 9b3b e412 533c
00000110: b8ac b4ba 0e33 4c3c 600c 1b3c 41c9 f43b
00000120: a816 8e3c 6c9c 3bbb 976b 8e3c 5f19 4e3c
00000130: dc27 173c ca09 9f3b 7c12 35bb 99e9 c73b
00000140: a05a 803b b1e2 973b a5f6 ee3b a834 0bbb
00000150: 4c87 d93b c9e3 c93b 6761 a63b 8f74 423a
00000160: d2b3 1fbb f548 933a a274 153c c464 cf3b
00000170: bbbc da3a dda0 05bb 2e81 673b b7be 763c
00000180: fb58 2b3c b8ed 603c b6f7 37bb 87bb 6d3c
00000190: 713f 733b 13c8 983b 3e0f 4c3c 9c0c 58ba
000001a0: 43be 3c3c c496 313c aad2 153c a654 723c
000001b0: 1701 62bb ffc0 6c3c 8f1d e13b b692 e83b
000001c0: c3ed 903c 155a a4ba 8c12 893c ba3a 693b
000001d0: 2c71 973b 3b35 853c f1dc 5aba 3cb8 7a3c
000001e0: 436b 813c d755 503c 5672 053d 041c 98ba
000001f0: 20d2 0c3d dd95 5a3c 01aa 443c 24c1 aa3c
00000200: 9048 c5ba b28d b33c d8fd ee3b e9e4 ec3b
00000210: 4274 733c 735a 81ba 706d 783c 7d53 243c
00000220: 03d8 253c 5d26 cd3c 4ae0 b0ba b6f6 cc3c
00000230: fc5f 813b 481c 713b 57d5 37b9 e9f4 3739
00000240: 2669 ff3a 2bfe 2f3c a585 133c 01b3 723c
00000250: 7eaa 1fba 952a 8b3c d4a3 f0ba 6263 c7ba
00000260: 177b efbc f531 e2ba d844 fcbc
0.0037216342 0.005032789 0.014000945 -0.0010119616 0.012567484 0.01375968 0.011876628 0.02447584
-0.0046811407 0.023471562 0.004546492 0.0068931156 0.02146267 -0.0014497901 0.019569399 0.004223009
0.005442873 0.017107243 -0.0010467233 0.015729945 0.008812167 0.008920662 0.025400404 -0.0005492576
0.026690567 0.011826259 0.010174173 0.015476843 -0.0015663855 0.016666982 0.009866192 0.009817617
0.021609653 -0.0018610638 0.02140208 0.011192149 0.010016756 0.022737863 -0.0017256709 0.022830026
0.0124240285 0.0075324206 -0.00047296414 -0.002271612 0.0017109468 0.013250491 0.009371925 0.01450347
-0.0014178883 0.01677272 0.011814036 0.010192443 0.023287391 -0.0030065519 0.022648562 0.0060090795
0.0031254636 -0.010754994 -0.0025294214 -0.009237629 0.0119906645 0.010499422 0.024568617 -0.0026971041
0.023899946 0.005221885 0.004752654 0.012882922 -0.0013784384 0.012463344 0.0094634 0.0074702804
0.017344788 -0.002862717 0.017385287 0.012579291 0.009225812 0.004853462 -0.0027629426 0.006100845
0.0039170533 0.004635178 0.007292586 -0.0021241102 0.006638443 0.0061611873 0.0050775292 0.0007417881
-0.0024368656 0.0011236953 0.009122046 0.006329151 0.0016688326 -0.0020390071 0.00353248 0.015060118
0.010458226 0.013728552 -0.0028071231 0.014510042 0.0037116671 0.0046625226 0.012454806 -0.0008241625
0.011519971 0.010839168 0.0091444645 0.01479069 -0.0034485513 0.014450311 0.0068699787 0.0070975674
0.017691499 -0.0012539054 0.016732477 0.0035587982 0.0046216454 0.016260734 -0.0008348963 0.015302714
0.015798217 0.012715778 0.032579742 -0.0011605029 0.03438008 0.013341394 0.012003423 0.02084405
-0.0015051533 0.021918152 0.007293444 0.0072294367 0.014859261 -0.0009868875 0.015162811 0.010029671
0.010122302 0.025042707 -0.0013494578 0.025019985 0.00394821 0.0036790539 -0.00017531715 0.00017543476
0.0019486293 0.010741751 0.009004031 0.014813186 -0.0006090774 0.016988078 -0.0018359371 -0.0015212114
-0.029233498 -0.001725732 -0.030794546

exp_avg_sq f4 [31, 5]
00000000: 73cd 6a36 8e9d f337 4eb6 4138 f7b7 9336
00000010: 9b26 ae38 fd4e c037 0aec 9838 0fb1 a138
00000020: 45ad f536 87e0 1f39 8eea 9136 612e 3b38
00000030: 4b97 9e38 af15 cf36 c05d 0a39 cc02 5f36
00000040: 855e 0238 5ed1 6338 8338 9b36 27ef c638
00000050: 74b4 3f37 447c 0939 bf2b 1839 7335 3037
00000060: 9424 a739 652b 6937 f1f0 1039 adf6 f138
00000070: bf33 4c37 269f 9439 bc62 3237 99af ef38
00000080: 2b95 f538 6b57 4737 b1ca 8639 d494 2d37
00000090: 56fd e638 7a06 f638 bc98 3a37 2d5c 8839
000000a0: ad77 cf37 2cbe 9a38 4e1d 1938 ad65 d236
000000b0: cad2 cd38 fc6c b137 43f1 a638 4abb 7738
000000c0: 5f74 ac36 3bbd 1539 869b 5737 faee 8238
000000d0: e09a ae38 0a0d 0037 afa9 2539 1c3a 8b37
000000e0: ec62 3137 d3f7 4937 951e a135 6f58 9a37
000000f0: bf15 5737 bdc5 8438 1043 ba38 adcd 0037
00000100: d71c 2f39 8a4c 9b36 a6fc d737 7d15 2438
00000110: 53d5 8a36 9061 9a38 1ef8 4938 c749 3738
00000120: f468 9a38 8fea 9436 ad98 df38 846a 8d37
00000130: 180e 9c38 0628 8938 c2af ec36 8ff3 0f39
00000140: 1784 3937 b10f 3f38 8fce 4838 6e35 c736
00000150: e553 c138 4847 d237 f56d 6e38 9c02 5038
00000160: 3184 da36 5350 cf38 b366 8a37 a504 0838
00000170: 2acd b937 97f5 c135 11a6 2738 e67e 9637
00000180: a5ba 8b38 36b3 4538 3b64 b336 7a28 ec38
00000190: b5e5 5536 a1e4 1a38 b4f2 4538 3a19 aa36
000001a0: a8b1 c638 3bea 8437 24a5 7338 b6cf 4638
000001b0: 26d5 b636 8bf6 e638 7e81 ae36 8d2d 5738
000001c0: 5383 8938 fb85 d336 7203 0939 decf 4136
000001d0: dd76 1a38 d4e1 6738 4a96 a936 abeb d938
000001e0: 3cc8 b937 0448 2339 f5fb 2f39 4f1a 3b37
000001f0: 44b9 c539 2001 9937 aad2 0839 7111 f338
00000200: cd55 3337 8d80 8f39 b2a8 2137 ce0d dd38
00000210: e1bf be38 daad 2d37 d4bc 6439 c5a8 1437
00000220: 93d4 fd38 5bad 0739 8357 4037 12cd 9439
00000230: e815 8237 fa0c 3f38 8865 d137 a49b 3936
00000240: af68 8538 09de ac37 4de0 d538 6e0f 9838
00000250: 6a67 e836 3c41 4939 9fdc 8b37 5c70 8e38
00000260: 5ab1 f938 cfd8 1b36 15d5 4c39
3.4988304e-06 2.9041224e-05 4.618457e-05 4.4023577e-06 8.3041574e-05 2.2924965e-05 7.2918905e-05 7.710058e-05
7.32174e-06 0.00015247065 4.3486425e-06 4.4627468e-05 7.5622076e-05 6.171605e-06 0.0001319563 3.3231217e-06
3.1082443e-05 5.4316006e-05 4.625939e-06 9.485921e-05 1.1426502e-05 0.0001311163 0.00014512146 1.0502862e-05
0.00031879975 1.3897986e-05 0.00013822668 0.000115377225 1.2171396e-05 0.00028347335 1.0632615e-05 0.00011429116
0.00011710295 1.1881678e-05 0.0002570949 1.0346255e-05 0.00011014442 0.000117314004 1.1122025e-05 0.00026008618
2.4732051e-05 7.3787145e-05 3.6505335e-05 6.2703243e-06 9.814424e-05 2.1150794e-05 7.960435e-05 5.9063816e-05
5.139547e-06 0.00014280241 1.2851209e-05 6.243396e-05 8.325814e-05 7.63243e-06 0.00015798838 1.659715e-05
1.0573054e-05 1.2038235e-05 1.2004335e-06 1.839941e-05 1.2820062e-05 6.331082e-05 8.8816625e-05 7.677282e-06
0.00016700044 4.6282703e-06 2.5747646e-05 3.912066e-05 4.1375547e-06 7.361465e-05 4.815321e-05 4.369931e-05
7.362841e-05 4.43805e-06 0.00010661907 1.685811e-05 7.441285e-05 6.540124e-05 7.053809e-06 0.00013728275
1.1057614e-05 4.5552562e-05 4.787609e-05 5.936882e-06 9.218584e-05 2.5067144e-05 5.6846027e-05 4.9593495e-05
6.5122954e-06 9.885491e-05 1.6498705e-05 3.2429252e-05 2.2149256e-05 1.4451097e-06 3.9970564e-05 1.7940485e-05
6.662802e-05 4.7135363e-05 5.346284e-06 0.00011260896 3.187318e-06 3.692939e-05 4.7194495e-05 5.0693316e-06
9.474467e-05 1.5844698e-05 5.8089514e-05 4.7400325e-05 5.4488364e-06 0.00011013177 5.200679e-06 5.1302417e-05
6.55713e-05 6.3038874e-06 0.00013066622 2.8880236e-06 3.682716e-05 5.528501e-05 5.0540884e-06 0.00010391263
2.214696e-05 0.00015571719 0.00016783162 1.1152194e-05 0.00037712802 1.8239545e-05 0.00013048449 0.00011590392
1.06892085e-05 0.00027370863 9.635625e-06 0.000105406725 9.095646e-05 1.03520815e-05 0.00021814118 8.860782e-06
0.00012103575 0.00012939183 1.1464467e-05 0.0002838155 1.5507409e-05 4.5550034e-05 2.496202e-05 2.7657743e-06
6.361433e-05 2.0607391e-05 0.00010198411 7.250799e-05 6.926178e-06 0.00019193155 1.6672826e-05 6.792016e-05
0.000119062795 2.3223e-06 0.00019534335

exp_avg f4 [31]
00000000: 734d 2abd d6ef 8bbd 7818 74bd 6b18 42bd
00000010: 1462 97bd c6d1 69bd f4f8 87bd 5186 8ebd
00000020: 3232 63bc c744 4bbd 7a47 85bd 56e5 9c3c
00000030: 7101 8fbd 6ee0 0cbd 1ecb 34bd 8ac5 e0bc
00000040: 599a a3bc 98b4 21bc 7d4a 6bbc e4d1 38bd
00000050: b267 1bbd e0f6 43bd 6353 5bbd e525 2fbd
00000060: 72e5 c6bd 522b 96bd e79a 46bd a960 9bbd
00000070: 525e 72bc 299f 5bbd c2f8 223d
-0.041577768 -0.068328544 -0.059593648 -0.047386568 -0.07391754 -0.05708482 -0.06639281 -0.069592126
-0.013866948 -0.049626138 -0.06507774 0.019152325 -0.06982697 -0.03439372 -0.04413902 -0.027437944
-0.01997106 -0.009869717 -0.014361021 -0.045122042 -0.03794069 -0.04784286 -0.05354632 -0.04276075
-0.09711732 -0.073324814 -0.04848757 -0.07586796 -0.0147929955 -0.053618584 0.039788015

exp_avg_sq f4 [31]
00000000: ae70 313a 5224 9b3a 229e 8a3a ee34 3f3a
00000010: 4bda 123b 7b11 143b cd27 063b 49f7 063b
00000020: dedc 513a c6cc 8c3a 8266 9b3a 0b68 c838
00000030: d080 a63a 2138 0e3a 431c 203a 37ee 7e3a
00000040: e5e3 1e3a 8a9f 2f3a f4a0 9a39 4362 513a
00000050: 21d9 4b3a 272b 6f3a 336c 8c3a c9df 4c3a
00000060: ddf1 353b a393 163b 52ad dc3a ba04 133b
00000070: a0be 363a 79f0 d43a 68b4 d639
0.0006768805 0.0011836386 0.0010575692 0.0007293959 0.0022407945 0.0022593427 0.00204705 0.002059417
0.0008005629 0.001074218 0.0011856111 9.556123e-05 0.0012703184 0.0005425234 0.0006107727 0.0009724828
0.00060611806 0.00066994934 0.00029493088 0.00079873594 0.000777619 0.00091235567 0.0010713398 0.0007815329
0.002776257 0.0022976182 0.0016836321 0.0022433237 0.00069711544 0.0016245983 0.00040951674
