Cancer-senn/trial4/models/cancer/grad3_Hinput_Thdummy_Reg1e-02_LR0.001/model_best.pth.tar (torch_old, 26436 bytes, 34 tensors)

parametrizer.linear1.weight f4 [10, 30]
0.07462993 -0.12788919 0.05834404 -0.038746968 -0.049575035 -0.0015105547 -0.090656094 -0.043672945
-0.08976643 -0.1024481 0.085501716 -0.0023695102 -0.18633494 -0.016329074 -0.14289495 0.07050474
-0.015225662 0.15271568 0.062240165 -0.123213224 -0.074335955 0.0859743 0.09867373 -0.1601788
-0.14515243 0.08141857 -0.035891615 -0.20497383 -0.07863613 -0.0682687 0.083266236 -0.1162887
-0.123907484 0.04700824 -0.09882109 0.09703449 -0.17463161 -0.16967422 0.073801205 -0.09603831
0.054663453 0.1297745 -0.061382312 0.09241872 -0.05203073 0.102627195 0.14280029 -0.14118049
-0.049386024 0.09714411 -0.1515119 -0.12137273 -0.07731142 -0.014758415 -0.19298635 5.7117853e-05
0.14134936 0.01870929 -2.682252e-05 0.073380426 -0.05633117 0.13846928 -0.1269604 0.0020866739
0.019032996 -0.049362645 0.034440067 0.17018045 -0.10876796 -0.11226756 -0.082251705 -0.17528899
0.081961125 -0.15334149 0.13171774 0.013425062 -0.0044620177 -0.020162692 -0.0886832 0.01323511
-0.0753067 0.011920783 -0.12116322 -0.09641729 -0.12399008 0.09683324 -0.00836541 -0.08250079
-0.03580257 0.21432486 -0.1674052 0.13813026 -0.153935 0.032226585 0.16426171 0.1726565
-0.1342077 0.071339324 -0.011305635 -0.0005651403 -0.16091679 -0.19800171 -0.065001234 -0.119983636
-0.12920688 0.119485885 -0.08939671 -0.07429139 -0.06832336 -0.0040819654 0.050307836 0.15667965
-0.11690794 0.16183804 0.17639646 -0.14059377 0.04026081 0.058199488 -0.08523506 0.13264604
-0.1384866 -0.120144844 0.004926218 -0.13947736 -0.007034005 -0.19255082 -0.06712813 0.078381546
-0.13531247 0.10487993 0.03386054 0.012801595 0.05949671 0.17300938 0.17888708 0.04313625
-0.017970787 0.013780362 0.020454612 -0.007014365 -0.16494124 -0.18406813 0.08115569 -0.1407284
0.06750834 0.06944227 -0.0817346 0.03413324 0.100411 -0.17885274 0.14336373 0.13534348
0.02070144 0.08444423 0.023962647 -0.0001833192 0.027928278 -0.07365268 -0.040299095 0.029492203
0.18032539 0.035306443 0.14437386 -0.02675575 0.17573148 0.07799797 -0.076482065 0.1107984
0.12906136 0.0038862617 -0.017139005 0.0054484475 -0.17150126 0.09683141 0.09861903 -0.12075264
-0.19578768 -0.038413167 0.04302383 -0.027446195 -0.03947647 0.113741264 -0.1984148 -0.057239942
0.18833 0.0036913229 -0.021817606 -0.010147752 0.13821554 0.15010951 -0.1780363 0.07175475
-0.009978655 -0.18459603 0.0058965995 -0.09563819 -0.01606349 0.13045141 0.1625293 0.16043158
0.14173195 0.12299629 -0.11799109 0.12501726 -0.14725645 -0.061772022 -0.09021574 -0.19874682
0.099447206 0.11037824 -0.14269063 -0.031036718 0.118355624 -0.08163063 -0.061357968 0.062104225
-0.0632633 -0.20580223 -0.16299462 -0.08293891 -0.17514619 0.09080667 -0.021721022 -0.00077967456
0.096162565 0.12697363 0.039721224 0.06509763 0.002860925 -0.1787406 0.0057446216 0.090688355
-0.090318576 -0.14268725 0.098453775 0.018871732 -0.006886313 -0.13874008 -0.14270705 0.024758568
0.11664684 0.15244448 0.011232616 0.0010916444 0.105556495 0.006732173 0.046909817 0.13759515
0.1006005 -0.18752001 0.13940357 0.016870266 0.10568832 -0.049141508 0.07352549 0.10417687
00000000: 94d7 983d 62f5 02be 29fa 6e3d 24b5 1ebd
00000010: 310f 4bbd cefd c5ba e7a9 b9bd 67e2 32bd
00000020: 76d7 b7bd 4fd0 d1bd 861b af3d c949 1bbb
00000030: 96ce 3ebe 8dc4 85bc 0e53 12be ca64 903d
00000040: 0e75 79bc 8061 1c3e 8bef 7e3d 3757 fcbd
00000050: 733d 98bd 4b13 b03d 7415 ca3d e905 24be
00000060: d7a2 14be c7be a63d 1603 13bd a9e4 51be
00000070: fb0b a1bd 76d0 8bbd 7d87 aa3d c528 eebd
00000080: 35c3 fdbd b68b 403d b662 cabd 05ba c63d
00000090: a1d2 32be 14bf 2dbe 1625 973d bcaf c4bd
000000a0: c9e6 5f3d 9be3 043e 056c 7bbd 0746 bd3d
000000b0: 2d1e 55bd 352e d23d 3d3a 123e 9e91 10be
000000c0: 0049 4abd 7ef3 c63d ef25 1bbe 4492 f8bd
000000d0: 7355 9ebd 47cd 71bc 379e 45be d491 6f38
000000e0: e3bd 103e 3a44 993c ec00 e1b7 7a48 963d
000000f0: 83bb 66bd e4ca 0d3e e801 02be 94c0 083b
00000100: 16eb 9b3c 7c30 4abd 0711 0d3d c943 2e3e
00000110: bcc1 debd 89ec e5bd 9573 a8bd f57e 33be
00000120: 3cdb a73d 8d05 1dbe 04e1 063e cbf4 5b3c
00000130: 1e36 92bb 3b2c a5bc 8a9f b5bd 13d8 583c
00000140: 663a 9abd 634f 433c 6c24 f8bd 6e76 c5bd
00000150: 83ee fdbd 8150 c63d 130f 09bc 2df6 a8bd
00000160: b7a5 12bd fa77 5b3e 456c 2bbe 0572 0d3e
00000170: 23a1 1dbe 0600 043d 3934 283e decc 303e
00000180: be6d 09be 5a1a 923d 453b 39bc ec25 14ba
00000190: 5fc7 24be f6c0 4abe 5e1f 85bd fbb9 f5bd
000001a0: cf4e 04be 04b5 f43d 9f15 b7bd 1626 98bd
000001b0: 1eed 8bbd 02c2 85bb 970f 4e3d a170 203e
000001c0: 6e6d efbd dfb8 253e 46a1 343e d0f7 0fbe
000001d0: 85e8 243d 9662 6e3d b88f aebd 5dd4 073e
000001e0: 6ecf 0dbe 800e f6bd 1d6c a13b 27d3 0ebe
000001f0: 837d e6bb 0b2c 45be 797a 89bd 8186 a03d
00000200: 5a8f 0abe 4acb d63d 59b1 0a3d c8bd 513c
00000210: d2b2 733d 5f29 313e 2d2e 373e a3af 303d
00000220: 7937 93bc 07c7 613c 6e90 a73c c2d8 e5bb
00000230: 5be6 28be 5b7c 3cbe f434 a63d 1b1b 10be
00000240: d041 8a3d c037 8e3d 7864 a7bd 4ccf 0b3d
00000250: 48a4 cd3d 2c25 37be f1cd 123e 7b97 0a3e
00000260: 1196 a93c 19f1 ac3d 504d c43c 5f39 40b9
00000270: d8c9 e43c 37d7 96bd aa10 25bd a299 f13c
00000280: 38a7 383e 7d9d 103d bed6 133e e02e dbbc
00000290: f4f2 333e 66bd 9f3d a1a2 9cbd 46ea e23d
000002a0: a928 043e a7b0 7e3b 1967 8cbc e488 b23b
000002b0: 079e 2fbe 8c4f c63d c6f8 c93d 294d f7bd
000002c0: 917c 48be 2057 1dbd c139 303d d8d6 e0bc
000002d0: 14b2 21bd 2ef1 e83d 402d 4bbe 6e74 6abd
000002e0: 94d9 403e 1fea 713b d6ba b2bc c242 26bc
000002f0: 6088 0d3e 4fb6 193e 264f 36be 28f4 923d
00000300: 837d 23bc be06 3dbe 4338 c13b f5dd c3bd
00000310: 9597 83bc 0e95 053e 156e 263e 2d48 243e
00000320: 2e22 113e 7be5 fb3d 50a5 f1bd 8604 003e
00000330: 65ca 16be a904 7dbd 08c3 b8bd 4984 4bbe
00000340: faaa cb3d fd0d e23d 7e1d 12be b740 febc
00000350: 6f64 f23d f62d a7bd 7e52 7bbd 0061 7e3d
00000360: 3090 81bd d2bd 52be 10e8 26be e0db a9bd
00000370: 8659 33be d9f8 b93d 49f0 b1bc 1363 4cba
00000380: e1f0 c43d 6005 023e b9b2 223d e851 853d
00000390: 5b7e 3b3b c707 37be 613d bc3b d1ba b93d
000003a0: f2f8 b8bd 9b1c 12be 22a2 c93d e498 9a3c
000003b0: 95a6 e1bb e111 0ebe cc21 12be 7bd2 ca3c
000003c0: 8ae4 ee3d 681a 1c3e 0209 383c 8215 8f3a
000003d0: 012e d83d 8f99 dc3b 8224 403d bee5 0c3e
000003e0: a307 ce3d 3f05 40be cfbf 0e3e 8333 8a3c
000003f0: 1e73 d83d 9b48 49bd 8894 963d af5a d53d

parametrizer.linear1.bias f4 [10]
-0.0038403964 -0.044902813 -0.063521795 0.089313455 -0.1636841 -0.17620291 -0.026868725 0.12873009
0.039811775 0.07618202
00000000: 29af 7bbb 03ec 37bd b717 82bd f9e9 b63d
00000010: ce9c 27be 896e 34be cd1b dcbc d2d1 033e
00000020: ac11 233d 5205 9c3d

parametrizer.linear2.weight f4 [10, 10]
-0.29119664 -0.02867121 -0.052275594 -0.11171746 0.21744578 0.34749863 0.28916022 -0.08478351
-0.050722897 0.30667636 -0.3033417 -0.017346988 -0.13240793 -0.037865747 -0.22507815 -0.05465432
-0.16215493 -0.2692774 0.032618973 0.0646342 -0.3077021 -0.12234624 0.019907773 0.28945422
0.059607472 -0.19554205 -0.31085697 -0.10475929 0.22995694 -0.17095551 0.01626231 -0.26302528
0.25495985 0.34535468 0.14548257 -0.12392082 0.07512861 -0.036094677 -0.26110205 0.21676266
0.16473524 0.13853963 -0.1273384 -0.05398034 -0.1235466 0.015073575 0.13469623 0.19112547
0.11596407 0.143581 -0.26842898 -0.19846164 0.091385625 0.24331295 -0.09014672 -0.2936041
0.040078133 0.006544216 -0.24262929 -0.16148427 0.27913964 -0.14007474 -0.28251228 -0.15876922
-0.14867657 -0.1876334 0.3053276 -0.0349222 0.21589568 0.043476444 -0.098978065 -0.2800464
-0.04718582 -0.019132504 -0.26598427 0.16313386 0.07861004 -0.31813508 0.11371392 0.23160776
-0.16853625 -0.022541108 0.09234373 -0.13026711 0.12840955 0.23587388 -0.22997946 0.16294423
0.31950983 0.101716466 0.15758598 -0.22863154 0.17528905 -0.04568185 -0.23371409 -0.23743276
-0.07187208 -0.0050434098 0.07146416 0.04979395
00000000: ba17 95be e3df eabc ef1e 56bd 20cc e4bd
00000010: 1baa 5e3e 57eb b13e cf0c 943e faa2 adbd
00000020: d0c2 4fbd af04 9d3e 9a4f 9bbe 451b 8ebc
00000030: f295 07be 1d19 1bbd e37a 66be 35dd 5fbd
00000040: f10b 26be bade 89be 799b 053d ef5e 843d
00000050: 218b 9dbe aa90 fabd a015 a33c 5833 943e
00000060: f726 743d 2d3c 48be a528 9fbe 0a8c d6bd
00000070: d579 6b3e f60e 2fbe 8938 853c 40ab 86be
00000080: 198a 823e 54d2 b03e 62f9 143e 33ca fdbd
00000090: 07dd 993d 03d8 13bd 2baf 85be 08f7 5d3e
000000a0: 5bb0 283e 55dd 0d3e ff64 02be 7d1a 5dbd
000000b0: 0006 fdbd 28f7 763c cfed 093e 65b6 433e
000000c0: 927e ed3d e606 133e 866f 89be 8739 4bbe
000000d0: 6328 bb3d 0827 793e d89e b8bd 4753 96be
000000e0: f828 243d dd70 d63b d073 78be 225c 25be
000000f0: 64eb 8e3e c16f 0fbe 73a5 90be 6694 22be
00000100: ac3e 18be f822 40be e653 9c3e 950a 0fbd
00000110: c213 5d3e 5b14 323d 03b5 cabd 3e62 8fbe
00000120: eb45 41bd c5bb 9cbc 172f 88be 900c 273e
00000130: 4dfe a03d 9ae2 a2be d8e2 e83d 962a 6d3e
00000140: c494 2cbe 21a8 b8bc b61e bd3d be64 05be
00000150: cb7d 033e ec88 713e bc7f 6bbe dada 263e
00000160: cb96 a33e b950 d03d 385e 213e 631e 6abe
00000170: f97e 333e e41c 3bbd bf52 6fbe 9321 73be
00000180: ab31 93bd 3043 a5bb cd5b 923d bef4 4b3d

parametrizer.linear2.bias f4 [10]
-0.32302943 0.2659194 -0.24718311 0.20472078 -0.13316277 0.019625597 0.11684174 -0.12704894
0.23889053 0.073946156
00000000: 1d64 a5be 9626 883e 921d 7dbe 53a2 513e
00000010: d25b 08be dcc5 a03c b94a ef3d 1e19 02be
00000020: b89f 743e 1571 973d

parametrizer.linear3.weight f4 [5, 10]
0.2275735 -0.35665166 -0.24834614 -0.27868393 -0.026049046 -0.21071108 -0.24836549 0.20332678
0.19447584 -0.23103291 0.1774615 -0.27078438 0.15344536 -0.19518596 0.10572854 -0.045499813
0.22490427 -0.04851978 0.030765628 0.082749166 0.33932725 0.21355198 0.042382803 0.14806376
-0.09171493 0.26057848 0.10369088 0.13860233 -0.19432664 0.08735276 -0.28443357 0.26488608
-0.04126546 0.22989006 -0.14480615 -0.23398486 -0.14950663 -0.029686825 0.1950046 -0.21511835
0.30024445 -0.012000584 0.29411808 0.14076708 -0.041806683 0.23690529 0.118554376 0.13499816
0.12763618 -0.066800006
00000000: 0709 693e 0c9b b6be 734e 7ebe a9af 8ebe
00000010: cf64 d5bc a5c4 57be 8653 7ebe e534 503e
00000020: ad24 473e e493 6cbe 78b8 353e 40a4 8abe
00000030: c820 1d3e d4de 47be 3488 d83d 035e 3abd
00000040: 4e4d 663e adbc 46bd 3308 fc3c 6578 a93d
00000050: 4dbc ad3e 5fad 5a3e 9799 2d3d 079e 173e
00000060: 0ad5 bbbd 8b6a 853e e25b d43d c5ed 0d3e
00000070: 90fd 46be 01e6 b23d 47a1 91be 269f 873e
00000080: f905 29bd 4d68 6b3e 1048 14be ba99 6fbe
00000090: 4418 19be c931 f3bc 49af 473e fc47 5cbe
000000a0: a4b9 993e 199e 44bc a596 963e 3f25 103e
000000b0: 7c3d 2bbd 4d97 723e a3cc f23d f53c 0a3e
000000c0: 0fb3 023e 71ce 88bd

parametrizer.linear3.bias f4 [5]
0.06615431 -0.0036569752 -0.32757822 -0.1698412 -0.27256203
00000000: e97b 873d dda9 6fbb 55b8 a7be daea 2dbe
00000010: 408d 8bbe

parametrizer.linear4.weight f4 [31, 5]
0.43495193 0.006562742 -0.4289036 -0.17819253 -0.0019731582 -0.1658891 -0.14463043 0.030942336
0.28324625 0.26692283 -0.3588573 0.15630688 0.0063545434 -0.23415378 -0.008551303 0.17247012
-0.38496345 -0.47402844 0.3553567 -0.30556488 -0.39794198 0.26879808 0.06255184 0.28952703
0.1667802 -0.12590072 0.357672 -0.2733341 -0.030484816 -0.15547618 -0.39890048 -0.4778136
0.23903662 -0.36105755 -0.061007526 -0.1457704 0.035032 0.22991678 -0.2043276 -0.0883643
-0.44444916 0.29565126 -0.24778694 -0.12917092 -0.19562815 0.07155099 0.21251544 0.2906548
-0.21175623 -0.22559623 -0.053014077 0.29598415 0.068566546 -0.20799702 -0.056100115 -0.29262394
-0.11404179 -0.010948049 0.37773338 -0.27364773 0.28203523 -0.13508399 -0.28719318 0.24225195
0.03682003 0.25045538 -0.20118524 -0.41614625 0.26623842 0.06721197 -0.14201668 -0.015612876
-0.24103087 -0.3952104 -0.09169311 0.31493297 0.3154184 0.32440996 0.10369449 -0.014394964
-0.40598565 0.3888416 0.37040997 -0.37753338 0.08348529 -0.23904377 0.090043135 -0.0645041
0.34322238 -0.42870778 0.14630726 -0.34634247 -0.3845002 0.3012083 0.3963374 0.30742142
0.10964345 -0.16602361 0.33369046 0.35458797 -0.045989573 0.22675169 -0.26535964 -0.3899853
-0.22730692 0.024787724 0.27373588 -0.09070012 0.04941595 0.24773026 0.13527107 0.15701696
-0.3592236 0.1955246 -0.21443638 -0.4085295 -0.06983038 -0.11407567 0.25882998 -0.14278199
-0.20086575 0.19628032 -0.45627722 0.011868956 0.24229178 0.20537938 -0.43363538 -0.024093727
0.23425055 -0.35245955 -0.10630872 0.31356794 0.0041759564 -0.42072606 0.2200603 -0.29663178
-0.17330913 0.17494841 0.32292312 0.16214114 -0.17673865 -0.44069907 -0.25196195 -0.1040491
-0.057500646 -0.43686724 -0.28350425 0.14758676 -0.13709776 0.18533859 0.017912941 -0.008297645
0.36019823 -0.05168598 0.28385624
00000000: 05b2 de3e 450c d73b 4199 dbbe 1a78 36be
00000010: 1a50 01bb d5de 29be 001a 14be c87a fd3c
00000020: a705 913e 1caa 883e 25bc b7be e90e 203e
00000030: c639 d03b 02c6 6fbe c41a 0cbc 029c 303e
00000040: ee19 c5be dbb3 f2be 50f1 b53e 0073 9cbe
00000050: 0dbf cbbe e79f 893e 2e1b 803d e33c 943e
00000060: 6ec8 2a3e 1eec 00be c920 b73e 72f2 8bbe
00000070: 4bbb f9bc 2635 1fbe af3c ccbe fca3 f4be
00000080: 04c6 743e 89dc b8be 07e3 79bd d644 15be
00000090: b77d 0f3d 4e6f 6b3e 413b 51be 58f8 b4bd
000000a0: d78e e3be 9a5f 973e dcbb 7dbe 6245 04be
000000b0: bf52 48be 5389 923d a69d 593e b5d0 943e
000000c0: a0d6 58be b302 67be 4a25 59bd 3c8b 973e
000000d0: 9e6c 8c3d 2cfd 54be 3cc9 65bd ced2 95be
000000e0: be8e e9bd 725f 33bc 4566 c13e 8e1b 8cbe
000000f0: ec66 903e 7553 0abe fc0a 93be e510 783e
00000100: 9ad0 163d b03b 803e 8103 4ebe 1f11 d5be
00000110: 6750 883e 6ea6 893d d26c 11be 26cd 7fbc
00000120: ccd0 76be 0459 cabe 99c9 bbbd e53e a13e
00000130: 857e a13e 1019 a63e c75d d43d dbd8 6bbc
00000140: 5add cfbe 3f16 c73e 60a6 bd3e 0e4c c1be
00000150: 56fa aa3d e4c7 74be 8968 b83d ba1a 84bd
00000160: d8ba af3e 967f dbbe 92d1 153e cd53 b1be
00000170: 36dd c4be f937 9a3e bcec ca3e 5766 9d3e
00000180: bf8c e03d 1802 2abe 7ad9 aa3e 8e8c b53e
00000190: 905f 3cbd 9831 683e 38dd 87be 27ac c7be
000001a0: 25c3 68be a00f cb3c 1c27 8c3e fcc0 b9bd
000001b0: 6168 4a3d 00ad 7d3e 8084 0a3e 0ec9 203e
000001c0: 28ec b7be 9a37 483e 3695 5bbe c72a d1be
000001d0: 3b03 8fbd 81a0 e9bd 5d85 843e 7135 12be
000001e0: c0af 4dbe b5fd 483e 2b9d e9be 0276 423c
000001f0: 561b 783e f94e 523e 7505 debe 3560 c5bc
00000200: 60df 6f3e 9475 b4be 63b8 d9bd fa8b a03e
00000210: 76d6 883b 6869 d7be 7d57 613e 1fe0 97be
00000220: f377 31be ad25 333e 2e56 a53e 5408 263e
00000230: fafa 34be 4fa3 e1be 2801 81be b217 d5bd
00000240: cc85 6bbd 10ad dfbe 7827 91be fc20 173e
00000250: 5b63 0cbe 66c9 3d3e 29be 923c d8f2 07bc
00000260: e76b b83e aeb4 53bd 9b55 913e

parametrizer.linear4.bias f4 [31]
0.13421984 -0.24528258 -0.18366733 -0.22936057 -0.10662819 0.06382049 0.06105447 0.2259229
-0.05969137 -0.30120164 -0.037371352 0.30281395 -0.3276571 0.23380746 -0.30088848 0.22932576
0.23280072 0.37611556 -0.2555353 -0.3641884 0.45428815 0.25763533 0.08192783 0.2266274
-0.35993028 -0.398877 0.48276302 0.07431283 0.31830695 0.174026 -0.11543912
00000000: ed70 093e 5b2b 7bbe 4a13 3cbe 7fdd 6abe
00000010: e15f dabd 51b4 823d 4014 7a3d 5558 673e
00000020: f07e 74bd 1a37 9abe b412 19bd 6e0a 9b3e
00000030: acc2 a7be 396b 6f3e 0e0e 9abe 5fd4 6a3e
00000040: 5063 6e3e 3892 c03e 86d5 82be e776 babe
00000050: 7598 e83e c7e8 833e c7c9 a73d 0311 683e
00000060: c848 b8be 9b39 ccbe b72c f73e 5331 983d
00000070: 21f9 a23e df33 323e 586b ecbd

exp_avg f4 [10, 30]
0.0022063483 -0.0057631056 0.0019004602 0.0020667538 0.0065166024 0.0014999933 0.001179274 0.0035109583
0.0055426336 -0.001409754 0.0007266301 -0.0032303773 0.00041785475 0.000971825 -0.0013928072 -0.0026269257
-0.003905789 -2.2414604e-06 -0.0035229386 -0.006547847 0.0029651097 -0.004403165 0.0026460227 0.0026708583
0.0056039947 0.0017741587 0.001988076 0.0034134353 0.0015174386 0.0002475788 0.0007387413 -9.879162e-05
0.00078850356 -0.00022438343 0.003034975 0.0036492588 0.003316774 0.0025125388 0.00211787 0.003125703
0.000312259 -0.00012551411 -0.00033237445 -0.0012443623 0.0008974412 0.0021398757 -0.0022929118 -0.0010269072
0.0056209043 0.00069937494 0.0014918351 0.0005115012 0.0011991875 2.3375624e-05 0.0039010511 0.0056243343
0.0024888895 0.0026386857 0.006505555 0.0073084063 0.0007527881 0.0019286546 0.00062637596 0.000605159
-0.0017630947 -0.002501058 -0.0015273758 -0.000850311 -0.0031704104 -0.0034616294 -0.00031126617 -0.00019981629
-0.00042336312 7.1368144e-05 0.0002420064 -0.0039049033 -0.003555884 -0.0030301854 -0.0020443462 -0.003235905
0.0007611565 0.002074169 0.0006117436 0.00063895853 -0.0006173284 -0.0018437582 -0.00166223 -0.001105256
-0.0016860755 -0.0018845283 -0.0004820635 0.0024399105 -0.00046186763 0.0007405409 0.000116967065 -0.0012155974
-0.00037987245 -0.00040060567 -2.2932372e-05 -0.00019738123 0.00011045071 0.0010362 0.00038193638 0.0012795292
0.0008895218 -0.002568039 0.0022238642 0.00083930214 -0.004712438 -0.00041206498 -6.3622e-05 0.0018270303
0.0001275148 0.0014052277 0.0005664301 -0.0020684088 0.0010425865 2.3509368e-05 -0.0030392518 -0.0016606777
0.00030897954 0.003096584 0.00046539254 -0.0004884743 -0.00050903676 0.002438791 -0.0002722546 0.0006072474
-0.000184179 0.0018197655 0.0020654884 0.0009058529 0.0011818889 0.0003630737 -0.0006598345 0.0014118085
-0.0068378686 -0.003599522 0.008959889 0.0007733091 0.0010226626 0.0030538917 0.0007147989 -0.000120333185
0.0005409981 0.0031923559 -0.0023822782 0.00021278064 0.007129986 0.0043480154 0.0004535505 0.007418961
0.0011483032 -0.0026147396 0.0034455939 0.011710844 0.0030788246 0.0044064117 0.00629773 0.008083156
0.0014703459 0.0009947816 0.00087052 -0.0018993586 -0.002905333 0.006955779 -0.016086496 -0.008599284
0.018966211 -0.0019804344 0.0016641559 0.009760063 0.0014752204 -0.0022510982 0.007670942 0.015935363
0.0014467596 0.005221304 0.02297884 0.016429713 -3.455815e-05 -0.0033369912 0.0001917865 -0.0005336054
-0.0010138211 0.0025228057 0.001549042 0.0012209984 0.0035992041 0.0025105686 0.0017000538 -0.0038597528
0.0021547074 0.0007113439 -0.0077236113 0.0011274711 0.0010492955 -0.00026708562 0.00066379056 0.00040915253
0.0002985453 -0.0022612296 0.00067204394 -0.00016997385 -0.0009285231 0.001994504 0.0018706016 0.0021876532
0.0036371315 0.0012575346 0.0015962645 9.5171476e-05 0.0014584061 0.0013152475 0.0030732078 0.000753537
7.5663695e-05 0.0019081256 0.0010734366 -0.0018792914 0.0014641018 -0.00016030783 0.0010491936 0.0011901523
0.0012263487 -0.0011764102 -0.0047499537 -0.0017530413 -0.00019074861 -0.0035609899 0.0022114792 0.001106489
0.0019949859 0.0017594097 0.004151813 0.0015673054 -0.00019186384 0.001562478 0.0012013299 0.0009720743
0.0005343558 -0.0004822277 0.00043665533 0.0009834574 0.0019844861 0.00025763115 -0.00031819617 0.00034718055
0.00021106498 -9.478874e-05 0.0012462944 0.0020877433 0.0010759253 0.0010878808 0.0035242657 0.0016224874
00000000: 6298 103b 6fd8 bcbb dd18 f93a 6072 073b
00000010: 3989 d53b 6c9b c43a df91 9a3a 1b18 663b
00000020: fb9e b53b 7fc7 b8ba 527b 3e3a bdb4 53bb
00000030: 8413 db39 12c2 7e3a db8e b6ba 8028 2cbb
00000040: 44f8 7fbb ff6b 16b6 1ae1 66bb 528f d6bb
00000050: 4952 423b 6d48 90bb e568 2d3b 9109 2f3b
00000060: b7a1 b73b e38a e83a 614a 023b f1b3 5f3b
00000070: cae4 c63a 77cd 8139 17a8 413a 592e cfb8
00000080: 94b3 4e3a 7848 6bb9 6ee6 463b 6728 6f3b
00000090: 3c5e 593b 68a9 243b f6cb 0a3b 98d8 4c3b
000000a0: b2b6 a339 709c 03b9 8b42 aeb9 df19 a3ba
000000b0: 4242 6b3a 283d 0c3b ad44 16bb 4a99 86ba
000000c0: 902f b83b 4256 373a ae89 c33a 4416 063a
000000d0: 0e2e 9d3a c516 c437 c7a8 7f3b 564c b83b
000000e0: a31c 233b cded 2c3b 8d2c d53b 5b7b ef3b
000000f0: c156 453a e9ca fc3a 6133 243a 88a3 1e3a
00000100: a417 e7ba cae8 23bb 3a32 c8ba 68e7 5eba
00000110: a9c6 4fbb 81dc 62bb 7031 a3b9 c785 51b9
00000120: d6f6 ddb9 7bab 9538 19c3 7d39 68e9 7fbb
00000130: d509 69bb 1396 46bb 70fa 05bb 7a11 54bb
00000140: 5988 473a c8ee 073b 6b5d 203a c87f 273a
00000150: 35d4 21ba 42aa f1ba 2fdf d9ba 3dde 90ba
00000160: 4eff dcba 4702 f7ba 78bd fcb9 e8e6 1f3b
00000170: d326 f2b9 dc20 423a 374c f538 ae54 9fba
00000180: 9e29 c7b9 6208 d2b9 e55e c0b7 1ff8 4eb9
00000190: c6a1 e738 1ad1 873a a23e c839 e0b5 a73a
000001a0: cc2e 693a 8c4c 28bb 40be 113b 9d04 5c3a
000001b0: cc6a 9abb 6d0a d8b9 cd6c 85b8 f778 ef3a
000001c0: 7eb5 0539 9e2f b83a 7b7c 143a 248e 07bb
000001d0: 66a7 883a fc35 c537 2f2e 47bb 19ab d9ba
000001e0: 88fe a139 0ff0 4a3b eeff f339 f50c 00ba
000001f0: e170 05ba 20d4 1f3b 65bd 8eb9 af2f 1f3a
00000200: 2d20 41b9 3385 ee3a 255d 073b c276 6d3a
00000210: 9ce9 9a3a ed5a be39 bef8 2cba 6f0c b93a
00000220: 3310 e0bb f5e5 6bbb 80cc 123c e5b7 4a3a
00000230: dd0a 863a cd23 483b 5861 3b3a 635b fcb8
00000240: c5d1 0d3a d836 513b ff1f 1cbb de1d 5f39
00000250: a8a2 e93b cc79 8e3b 85ca ed39 c11a f33b
00000260: a982 963a 0d5c 2bbb 79cf 613b d7de 3f3c
00000270: 1bc6 493b a963 903b 305d ce3b 376f 043c
00000280: 9fb8 c03a 5563 823a 9c33 643a e6f3 f8ba
00000290: 6667 3ebb 4eed e33b d4c7 83bc 03e4 0cbc
000002a0: 075f 9b3c 2dca 01bb ce1f da3a ace8 1f3c
000002b0: 2f5c c13a 2987 13bb 875c fb3b e18a 823c
000002c0: 32a1 bd3a 7917 ab3b 1f3e bc3c 9b97 863c
000002d0: 88f2 10b8 6cb1 5abb 4c1a 4939 a7e1 0bba
000002e0: 31e2 84ba a855 253b 3909 cb3a e809 a03a
000002f0: a0e0 6b3b 5a88 243b 57d4 de3a e8f3 7cbb
00000300: fe35 0d3b 7b79 3a3a 5916 fdbb a7c7 933a
00000310: 8488 893a a007 8cb9 3b02 2e3a 8683 d639
00000320: 1286 9c39 2331 14bb 1b2c 303a 023b 32b9
00000330: 2168 73ba 39b6 023b f92e f53a bb5e 0f3b
00000340: f15c 6e3b dcd3 a43a c039 d13a cc96 c738
00000350: fd27 bf3a 6264 ac3a df67 493b 0389 453a
00000360: a3ad 9e38 121a fa3a 8eb2 8c3a 8e52 f6ba
00000370: 1be7 bf3a 4e18 28b9 1885 893a e2fe 9b3a
00000380: 6fbd a03a c731 9aba 80a5 9bbb 4ec6 e5ba
00000390: b103 48b9 7f5f 69bb 77ee 103b 9c07 913a
000003a0: 4fbe 023b fe9b e63a ef0b 883b 0b6e cd3a
000003b0: 0f2f 49b9 10cc cc3a f175 9d3a cdd2 7e3a
000003c0: 0314 0c3a 82d3 fcb9 e3ee e439 5be7 803a
000003d0: 270e 023b ab12 8739 91d3 a6b9 c905 b639
000003e0: 5351 5d39 51c9 c6b8 b35a a33a 85d2 083b
000003f0: 1006 8d3a 3997 8e3a 5ef7 663b a5a9 d43a

exp_avg_sq f4 [10, 30]
6.910621e-06 8.805055e-06 7.4061677e-06 5.000269e-06 3.2759188e-05 2.4187082e-05 1.45250915e-05 1.5570782e-05
1.711988e-05 7.568472e-06 3.5667722e-06 6.3009e-06 3.883448e-06 2.502185e-06 1.2224961e-05 2.2613156e-05
1.0339397e-05 1.75003e-05 9.4555035e-06 1.3435975e-05 6.6371713e-06 4.973898e-06 7.2728744e-06 4.4179315e-06
2.8535815e-05 2.6923128e-05 1.9997791e-05 1.9323817e-05 1.2515737e-05 1.8712213e-05 2.4447938e-06 9.250138e-06
2.5781835e-06 2.7661001e-06 5.4900273e-05 5.10366e-05 3.048597e-05 1.961991e-05 3.2121323e-05 6.957781e-05
5.0955587e-06 8.71408e-07 5.493168e-06 7.0088777e-06 4.2229094e-06 2.258062e-05 5.4796806e-06 7.155461e-06
7.2824834e-05 1.5480226e-05 2.270168e-06 9.7673565e-06 2.8036366e-06 1.8588514e-06 5.756515e-05 6.997318e-05
3.953017e-05 2.861445e-05 0.00011125892 0.00010464592 3.21858e-07 9.1958793e-07 3.0990597e-07 4.0909745e-07
1.4498459e-06 1.1615259e-06 7.037442e-07 5.7923637e-07 1.9931083e-06 1.5432519e-06 7.086484e-07 1.8640353e-06
7.559933e-07 4.166725e-07 5.463729e-06 2.5723566e-06 2.668082e-06 2.9990981e-06 8.291546e-07 2.2245288e-06
3.1389922e-07 9.4415265e-07 3.525116e-07 4.1351373e-07 9.0780736e-07 5.8455635e-07 5.614703e-07 6.8153116e-07
1.1737127e-06 7.2079547e-07 1.0821527e-06 4.559995e-06 1.0225388e-06 8.705725e-07 1.7587394e-05 2.1213735e-05
9.574794e-06 6.7337323e-06 1.1907115e-05 3.193375e-05 8.156318e-07 3.2936919e-06 9.045204e-07 5.832795e-07
3.4921197e-06 1.5300555e-05 2.6496289e-06 2.7703961e-06 3.5748806e-05 7.441298e-06 7.8464785e-07 3.430823e-06
8.6211827e-07 7.9949245e-07 1.747358e-05 2.9803925e-05 1.10154015e-05 9.471098e-06 5.6935904e-05 4.0532195e-05
3.849527e-07 1.8309116e-06 3.4375648e-07 4.2228544e-07 9.348947e-06 7.0742044e-06 5.045354e-06 2.3771995e-06
4.458051e-06 1.4935679e-05 1.051326e-06 2.9799508e-06 7.749336e-07 5.119334e-07 7.9236605e-07 6.450101e-06
1.5409149e-05 4.6876726e-06 1.4476325e-05 1.5568796e-05 3.9661043e-07 1.93938e-06 4.361459e-07 3.6215286e-07
7.5071703e-06 9.0391395e-06 4.075578e-06 2.769254e-06 2.1861515e-05 1.5503205e-05 2.9981386e-06 3.379293e-05
3.3594133e-06 2.0780603e-06 5.683034e-05 5.789059e-05 4.467045e-05 2.397347e-05 3.5049834e-05 7.657196e-05
6.2826875e-06 1.2709552e-05 4.239535e-06 2.4561875e-06 6.576373e-06 3.3870667e-05 0.00012193007 3.4565008e-05
6.403278e-05 7.928232e-05 3.421006e-06 4.051448e-05 4.006789e-06 1.8665128e-06 5.992242e-05 9.186027e-05
5.2768162e-05 2.8820328e-05 0.0001290674 0.00012696051 8.2225245e-07 4.143844e-06 8.353149e-07 8.077606e-07
2.3615169e-06 1.2519753e-06 2.4736003e-06 7.591238e-07 2.5505597e-06 1.4913469e-06 1.0447886e-06 5.887757e-06
1.2307873e-06 6.440524e-07 2.60131e-05 5.73288e-06 7.41508e-06 4.2996494e-06 2.2979227e-06 7.2056596e-06
9.147478e-07 2.829211e-06 1.0561031e-06 9.991905e-07 2.7608867e-06 7.1636214e-07 1.81397e-06 1.1041832e-06
3.0954493e-06 1.7516327e-06 1.7998069e-06 6.681839e-06 2.1101512e-06 9.557564e-07 2.0736132e-05 1.8814653e-05
1.2158368e-05 9.469834e-06 1.0207727e-05 1.3329431e-05 1.1636696e-06 1.4617551e-06 1.0167711e-06 4.870009e-07
2.6834407e-06 8.722545e-06 6.0632706e-06 2.6833538e-06 1.0866329e-05 6.6150023e-06 2.6191262e-06 7.182272e-06
2.922368e-06 1.3293572e-06 2.6206833e-05 2.7226675e-05 1.8735993e-05 1.3292481e-05 2.0054944e-05 3.2943186e-05
1.2936047e-06 4.025675e-07 1.2995783e-06 1.3354862e-06 5.182851e-06 3.688268e-06 1.7796782e-06 2.1819908e-06
3.8332096e-06 3.7009377e-06 1.8757598e-06 1.410517e-06 1.8517143e-06 1.2213766e-06 3.7830991e-06 3.5197486e-06
00000000: c8e1 e736 6cb9 1337 7f82 f836 fcc7 a736
00000010: e966 0938 5de5 ca37 cbb0 7337 009e 8237
00000020: aa9c 8f37 aef4 fd36 ae5c 6f36 526c d336
00000030: 904e 8236 36eb 2736 cf19 4d37 62b1 bd37
00000040: 5f77 2d37 9ccd 9237 14a3 1e37 136b 6137
00000050: deb4 de36 75e5 a636 8409 f436 be3d 9436
00000060: 3260 ef37 fad8 e137 eec0 a737 9519 a237
00000070: aefa 5137 2cf8 9c37 3d11 2436 0a31 1b37
00000080: db04 2d36 3da1 3936 b844 6638 2210 5638
00000090: 1fbc ff37 7095 a437 02ba 0638 4dea 9138
000000a0: 84fa aa36 b4ea 6935 f451 b836 cd2d eb36
000000b0: 84b2 8d36 836b bd37 19de b736 f118 f036
000000c0: 89b9 9838 88db 8137 3059 1836 7ade 2337
000000d0: 1c26 3c36 a67d f935 1c72 7138 91be 9238
000000e0: 32cd 2538 1009 f037 ae53 e938 5a75 db38
000000f0: d4cb ac34 9ad9 7635 2761 a634 eda1 db34
00000100: 5398 c235 bae5 9b35 efe8 3c35 d27c 1b35
00000110: 57c1 0536 bb21 cf35 f239 3e35 c42f fa35
00000120: 77ef 4a35 08b3 df34 1355 b736 c0a0 2c36
00000130: 4d0d 3336 1d44 4936 1293 5e35 1d49 1536
00000140: fb85 a834 ad71 7d35 d340 bd34 e500 de34
00000150: 0cb0 7335 68ea 1c35 f2b7 1635 77f2 3635
00000160: 7688 9d35 b07c 4135 7c3e 9135 0f02 9936
00000170: 2a3e 8935 49b1 6935 a488 9337 26f4 b137
00000180: 6da3 2037 52f2 e136 abc4 4737 9af0 0538
00000190: caf1 5a35 3209 5d36 2bce 7235 a992 1c35
000001a0: 295a 6a36 b159 8037 47d0 3136 0beb 3936
000001b0: fdf0 1538 43b0 f936 97a0 5235 173d 6636
000001c0: 516c 6735 b49c 5635 3a94 9237 7103 fa37
000001d0: cace 3837 0ee6 1e37 76ce 6e38 1d01 2a38
000001e0: 7fab ce34 a5bd f535 888d b834 78b6 e234
000001f0: 6cd9 1c37 f45e ed36 434b a936 fa87 1f36
00000200: 5e96 9536 4194 7a37 491b 8d35 2afb 4736
00000210: 0805 5035 cc6b 0935 fbb2 5435 f26d d836
00000220: e542 8137 cd4a 9d36 58df 7237 bc99 8237
00000230: b9ed d434 4b26 0236 7027 ea34 e96d c234
00000240: 1ae6 fb36 cfa6 1737 f3c0 8836 6cd7 3936
00000250: 3f63 b737 e10c 8237 a133 4936 e2bc 0d38
00000260: 4872 6136 ce74 0b36 1d5d 6e38 8ccf 7238
00000270: 885c 3b38 a31a c937 7902 1338 4295 a038
00000280: e0cf d236 1c3b 5537 5441 8e36 fbd4 2436
00000290: 9daa dc36 5a10 0e38 b5b4 ff38 e5f9 1038
000002a0: 5649 8638 5f44 a638 7094 6536 17ee 2938
000002b0: 0e72 8636 e484 fa35 3555 7b38 1ba5 c038
000002c0: 6253 5d38 2fc3 f137 4456 0739 b420 0539
000002d0: c2b8 5c35 590b 8b36 673a 6035 e3d4 5835
000002e0: 8d7a 1e36 8b09 a835 2100 2636 97c6 4b35
000002f0: 482a 2b36 4a2a c835 aa3a 8c35 738f c536
00000300: 8831 a535 f2e2 2c35 b536 da37 105d c036
00000310: 0dcf f836 b545 9036 0336 1a36 25c8 f136
00000320: fd8c 7535 7add 3d36 6dbf 8d35 ed1b 8635
00000330: ac47 3936 084c 4035 8977 f335 7233 9435
00000340: 6abb 4f36 a419 eb35 e590 f135 8f34 e036
00000350: 1f9c 0d36 8a47 8035 81f2 ad37 29d4 9d37
00000360: cbfb 4b37 a1e0 1e37 db41 2b37 78a1 5f37
00000370: 622f 9c35 8631 c435 fd77 8835 72ba 0235
00000380: 2915 3436 0c57 1237 1973 cb36 ab13 3436
00000390: 874e 3637 70f6 dd36 3fc4 2f36 3fff f036
000003a0: e61d 4436 5e6c b235 bfd6 db37 d764 e437
000003b0: 3d2b 9d37 c502 5f37 aa3b a837 7a2c 0a38
000003c0: eb9f ad35 7520 d834 2c6d ae35 f53e b335
000003d0: 5ae8 ad36 f683 7736 47dd ee35 516e 1236
000003e0: 059f 8036 a05d 7836 9ec2 fb35 ff50 bd35
000003f0: 6b88 f835 2eee a335 26e1 7d36 d234 6c36

exp_avg f4 [10]
-0.016258312 -0.0007124037 0.0013205385 -0.0069922507 0.007288952 0.03135449 0.013517916 -0.006571334
-0.012307358 0.019657595
00000000: 2730 85bc 9ac0 3aba eb15 ad3a 401f e5bb
00000010: 29d8 ee3b 916d 003d 407a 5d3c 5854 d7bb
00000020: cda4 49bc f708 a13c

exp_avg_sq f4 [10]
3.0013349e-05 1.1205538e-05 1.2945275e-05 1.1796655e-05 4.6116015e-06 0.00017115982 1.1817294e-05 4.991179e-06
3.1419127e-05 8.146037e-05
00000000: 2dc5 fb37 6bff 3b37 882f 5937 3fea 4537
00000010: 5bbd 9a36 5d79 3339 e442 4637 e779 a736
00000020: 08c8 0338 b4d5 aa38

exp_avg f4 [10, 10]
-0.0035245446 0.0016319209 -0.005283621 0.0014618882 -0.008178486 -0.0052013947 0.0039800312 -0.0018771822
0.0017759475 0.004346373 -0.0016076236 -0.00040549992 0.0019777638 -0.002033716 0.0018142427 0.0031440163
0.0023633176 0.002727321 0.0052908687 0.00086655805 0.0017483731 0.0075123245 0.0010704842 -0.0070792255
0.007616925 0.004233253 0.0013604726 -0.0015478824 0.0045985086 -0.0033170446 -0.00096125994 -0.00041872394
0.0016581508 -0.0025509077 0.001387402 0.00323911 0.00055091624 0.0011489532 0.0047806147 0.00039454314
-0.0024956502 0.00042932073 -0.0008788105 -8.475138e-07 0.0028557167 0.0022296405 0.00047540123 -0.004626551
-0.0006870816 -0.0036826774 -0.0013752047 0.0035939112 -4.8627804e-05 -0.00057617837 -0.0014785982 -0.0058262
-0.0014188619 -0.00037687382 0.0018902094 -0.0011197751 -0.0023324385 0.0056862235 -0.002111457 -0.0032845056
0.004824711 0.0027755736 0.001905616 -0.0054713166 0.0037159524 -0.0051750243 0.0025552413 0.00016353658
0.0001249556 0.0022120664 -0.005808955 -0.005890838 8.1840235e-06 0.0045056436 -0.0016149922 0.004723537
0.0020347089 -0.0025955732 0.0008515724 0.00052559806 -0.0007821289 0.0037423803 0.0018261616 0.0015851915
-0.00095844775 0.003187501 -0.0032146352 0.0028523353 -0.0014800437 -0.0013205016 0.0032986663 -0.0002229354
-0.00088203716 -0.005045858 0.001394733 -0.0053697033
00000000: 0cfc 66bb 2ee6 d53a 3a22 adbb d49c bf3a
00000010: 0eff 05bc 7670 aabb ec6a 823b c80b f6ba
00000020: e9c6 e83a 056c 8e3b e6b6 d2ba 4799 d4b9
00000030: 5f9d 013b 1848 05bb e2cb ed3a d70b 4e3b
00000040: e4e1 1a3b dbbc 323b 065f ad3b ba29 633a
00000050: ab29 e53a f229 f63b 7d4f 8c3a d9f8 e7bb
00000060: 6697 f93b 1ab7 8a3b e351 b23a 51e2 caba
00000070: 16af 963b c662 59bb 10fd 7bba 2d88 dbb9
00000080: 4f56 d93a 212d 27bb 7cd9 b53a 4047 543b
00000090: 5d6b 103a 7998 963a b4a6 9c3b afda ce39
000000a0: 108e 23bb 7416 e139 f95f 66ba b480 63b5
000000b0: fa26 3b3b 291f 123b 463f f939 539a 97bb
000000c0: 441d 34ba 1359 71bb 3640 b4ba d387 6b3b
000000d0: b5f5 4bb8 ad0a 17ba 86cd c1ba b5e9 bebb
000000e0: 1bf9 b9ba 2697 c5b9 e7c0 f73a 6bc5 92ba
000000f0: d3db 18bb 8053 ba3b 5f60 0abb dc40 57bb
00000100: 9c18 9e3b 66e6 353b ddc5 f93a bb48 b3bb
00000110: 5687 733b 4093 a9bb d675 273b 047b 2b39
00000120: 8306 0339 51f8 103b 0c59 bebb ee07 c1bb
00000130: 1d4e 0937 14a4 933b 25ae d3ba e6c7 9a3b
00000140: c058 053b 7e1a 2abb 0e3c 5f3a 4ac8 093a
00000150: c807 4dba b942 753b d15b ef3a 33c6 cf3a
00000160: 5740 7bba 65e5 503b a1ac 52bb 3fee 3a3b
00000170: 07fe c1ba ae14 adba 702e 583b c4c3 69b9
00000180: 8338 67ba ba57 a5bb 79cf b63a 56f4 afbb

exp_avg_sq f4 [10, 10]
9.204168e-06 9.66132e-06 1.0308929e-05 1.1193264e-05 7.5095554e-06 5.7206817e-06 1.0371133e-05 4.6765813e-06
9.9309655e-06 3.1240972e-06 8.810432e-06 3.4115042e-06 8.33934e-06 3.8713233e-06 5.2994187e-06 8.453209e-06
5.5744813e-06 1.096804e-05 8.610885e-06 2.8806903e-06 1.6026192e-05 1.0990057e-05 9.273199e-06 3.5695062e-05
3.8822185e-05 1.7626831e-05 1.1308201e-05 2.151926e-05 1.1836845e-05 1.5669337e-05 9.276671e-06 4.0181235e-06
6.808257e-06 5.2845194e-06 5.464224e-06 8.999513e-06 7.0105525e-06 6.1815113e-06 9.000091e-06 3.311256e-06
1.7480171e-06 1.078315e-06 3.5989126e-06 3.0685019e-06 5.591755e-06 5.8685036e-06 2.130888e-06 5.89699e-06
4.2129736e-06 5.7407797e-06 1.8622724e-05 7.949991e-06 1.3545269e-05 1.4205743e-05 1.4063672e-05 1.0956266e-05
1.6469578e-05 1.1290289e-05 1.0610603e-05 3.5677149e-06 9.506708e-06 5.960779e-06 7.593279e-06 1.864731e-05
1.8351926e-05 1.0079846e-05 4.9316195e-06 2.503919e-05 9.633091e-06 1.4126186e-05 1.7220626e-06 8.954236e-07
4.017236e-06 4.068571e-06 3.157093e-06 7.4843456e-06 1.4331159e-06 4.196708e-06 5.7629986e-06 3.7104535e-06
6.2197014e-06 3.1391924e-06 3.6594865e-06 7.4170866e-06 7.901327e-06 3.533305e-06 5.0058425e-06 6.7215706e-06
4.8807638e-06 5.331156e-06 8.232269e-06 3.4651077e-06 4.402463e-06 9.976534e-06 1.0583702e-05 2.6352454e-06
4.272744e-06 1.2447531e-05 7.3015494e-06 8.630907e-06
00000000: 9a6b 1a37 0e17 2237 83f4 2c37 b4ca 3b37
00000010: 97fa fb36 48f4 bf36 adff 2d37 87eb 9c36
00000020: 2c9d 2637 95a7 5136 84d0 1337 32f1 6436
00000030: 31e9 0b37 6ae6 8136 a9d1 b136 42d2 0d37
00000040: 6e0c bb36 6003 3837 7877 1037 e251 4136
00000050: fc6f 8637 ef61 3837 1694 1b37 48b7 1538
00000060: 01d5 2238 55dd 9337 5ab8 3d37 4284 b437
00000070: dd96 4637 a571 8337 00a3 1b37 6bd3 8636
00000080: 7b72 e436 ad51 b136 5459 b736 9dfc 1637
00000090: 303c eb36 c76a cf36 19ff 1637 f236 5e36
000000a0: 699d ea35 9fba 9035 d984 7136 76ec 4d36
000000b0: cfa0 bb36 10ea c436 6100 0f36 c2de c536
000000c0: 2b5d 8d36 eca0 c036 ff37 9c37 f460 0537
000000d0: 7d40 6337 3455 6e37 03f3 6b37 ced0 3737
000000e0: 2628 8a37 6c6b 3d37 3104 3237 e06c 6f36
000000f0: 007f 1f37 b402 c836 c5c9 fe36 cb6c 9c37
00000100: 76f2 9937 9c1c 2937 4a7a a536 400b d237
00000110: d09d 2137 82ff 6c37 9f21 e735 0b5d 7035
00000120: cbcb 8636 c284 8836 72de 5336 0a22 fb36
00000130: 7d59 c035 72d1 8c36 c85f c136 1b01 7936
00000140: d4b2 d036 eaaa 5236 8095 7536 4ae0 f836
00000150: f18f 0437 b81d 6d36 dcf7 a736 da89 e136
00000160: 71c5 a336 48e2 b236 531d 0a37 198a 6836
00000170: dfb8 9336 e360 2737 a790 3137 2cd9 3036
00000180: 975e 8f36 bdd5 5037 d5ff f436 77cd 1037

exp_avg f4 [10]
0.0514998 -0.010473636 -0.036824718 -0.011973073 -0.019804012 0.01151687 -0.029059805 0.037168663
0.00042749912 -0.019321062
00000000: 74f1 523d 9d99 2bbc 84d5 16bd b52a 44bc
00000010: 063c a2bc 41b1 3c3c d40e eebc 2b3e 183d
00000020: f621 e039 3447 9ebc

exp_avg_sq f4 [10]
0.00013113861 3.5278987e-05 0.0007569603 1.9327295e-05 0.00020688305 5.732117e-05 0.0004482938 0.00015220864
9.6016345e-05 0.00015800908
00000000: 4182 0939 86f8 1338 bf6e 463a 0d21 a237
00000010: bfee 5839 236c 7038 fa08 eb39 329a 1f39
00000020: 625c c938 3daf 2539

exp_avg f4 [5, 10]
-0.046678204 0.03328985 -0.036749568 0.037467353 -0.01416954 0.011520059 0.021177841 -0.012819416
0.022900464 0.020894252 0.025377799 -0.006405756 0.009641162 -0.017169306 0.006330256 -0.005194015
-0.0022403547 0.00920692 -0.010247862 -0.0147205535 -0.04276469 0.031774186 -0.030534672 0.02105314
-0.009667344 0.0063125202 0.024024932 -0.014774107 0.024239412 0.016018251 0.011404817 -0.006539303
-0.0019114265 -0.0055415146 0.0071258927 -0.008515389 0.0024665215 0.0063882535 0.0025246127 -0.0035021452
-0.00057581416 -0.007835559 -0.0027371894 -0.0026266358 0.0043615056 -0.004918978 -0.00077969546 -0.0041330736
0.0008248889 0.00047240115
00000000: a531 3fbd f05a 083d b786 16bd 5e77 193d
00000010: 5c27 68bc a1be 3c3c 277d ad3c 8708 52bc
00000020: c199 bb3c 6c2a ab3c 1ae5 cf3c 60e7 d1bb
00000030: f7f5 1d3c a5a6 8cbc 096e cf3b 8e32 aabb
00000040: ead2 12bb 9fd8 163c a6e6 27bc 7a2e 71bc
00000050: 072a 2fbd a625 023d d923 fabc a277 ac3c
00000060: c863 1ebc 42d9 ce3b efcf c43c 190f 72bc
00000070: bb91 c63c b538 833c 45db 3a3c a647 d6bb
00000080: d588 faba 9895 b5bb 5280 e93b 2184 0bbc
00000090: 5da5 213b 8e54 d13b f973 253b 3f84 65bb
000000a0: 3cf2 16ba b760 00bc 6b62 33bb a323 2cbb
000000b0: f6ea 8e3b 612f a1bb 7a64 4cba bc6e 87bb
000000c0: 5b3d 583a 9cac f739

exp_avg_sq f4 [5, 10]
0.00040811475 0.00030201723 0.00029102186 0.00033619718 0.000100036836 8.1586324e-05 4.135565e-05 3.0552128e-05
0.00016931034 7.359046e-05 0.00023466379 0.00014152368 0.00016885065 0.0001852875 6.0860173e-05 3.454633e-05
1.4654326e-05 2.526763e-05 0.0001278072 4.4017517e-05 0.0001947735 9.186259e-05 0.00010989254 7.364008e-05
3.398882e-05 1.8430268e-05 3.5308643e-05 3.8532242e-05 6.4326574e-05 3.4829904e-05 1.8687588e-05 3.4850917e-05
2.3681687e-05 1.3772587e-05 5.7359453e-06 8.821183e-06 1.3946482e-05 1.6463791e-05 3.1071257e-05 1.6375412e-06
3.3009277e-05 4.590584e-05 9.31884e-06 1.092757e-05 5.878319e-06 9.696617e-06 9.459444e-06 1.678455e-05
1.413939e-05 1.285945e-05
00000000: 3cf8 d539 1158 9e39 4b94 9839 9f43 b039
00000010: deca d138 5319 ab38 4b75 2d38 1925 0038
00000020: e688 3139 9454 9a38 1510 7639 f965 1439
00000030: 800d 3139 bc49 4239 1d44 7f38 d7e5 1038
00000040: dadb 7537 d2f5 d337 fc03 0639 739f 3838
00000050: 1d3c 4c39 5aa6 c038 1c76 e638 386f 9a38
00000060: 388f 0e38 b39a 9a37 5e18 1438 ae9d 2138
00000070: 11e7 8638 5316 1238 4ac3 9c37 e32c 1238
00000080: 09a8 c637 d010 6737 6577 c036 b1fe 1337
00000090: affb 6937 b91b 8a37 8252 0238 7dc9 db35
000000a0: 7173 0a38 058b 4038 1d58 1c37 8e55 3737
000000b0: 603e c536 a7ae 2237 01b4 1e37 8ccc 8c37
000000c0: 3838 6d37 ebbe 5737

exp_avg f4 [5]
0.14899272 -0.048490923 0.13276868 -0.013967664 -0.008421551
00000000: 8c91 183e 6b9e 46bd 83f4 073e a1d8 64bc
00000010: 8cfa 09bc

exp_avg_sq f4 [5]
0.0043313066 0.002304208 0.0015322581 0.0002860952 0.00021748777
00000000: a2ed 8d3b 3202 173b 0dd6 c83a 0cff 9539
00000010: 6e0d 6439

exp_avg f4 [31, 5]
0.0035044495 0.0073996065 0.017984154 -0.0011825098 0.0177218 0.015039412 0.016016144 0.027287137
-0.0044173975 0.029071249 0.0041492437 0.009983848 0.025594726 -0.0015622074 0.025431983 0.0041563762
0.008060176 0.021297373 -0.001252028 0.02124796 0.010789222 0.015901562 0.030932998 -0.00018814401
0.036418833 0.014410515 0.017402494 0.022122458 -0.0013575312 0.027087273 0.011738886 0.016014665
0.027231354 -0.0019620764 0.030209387 0.012655393 0.01593045 0.028566577 -0.0016062625 0.031951856
0.015513055 0.013006378 0.004654197 -0.0022176448 0.009171757 0.015397467 0.015343356 0.017286152
-0.0008458173 0.023219448 0.012344035 0.014512416 0.027799357 -0.0029884859 0.029618314 0.009692234
0.005214776 -0.008429599 -0.002946276 -0.0063928734 0.012171942 0.014764674 0.028978365 -0.002596273
0.030909358 0.0059359474 0.007595978 0.017269466 -0.0016589626 0.018050553 0.010865368 0.011297914
0.021530172 -0.0028782196 0.023685398 0.014467899 0.014602987 0.01027195 -0.0028590285 0.013930231
0.0056858263 0.008551039 0.0121732 -0.0030217625 0.012491242 0.008429399 0.009584922 0.0074789277
-0.0031601489 0.009047497 0.011379974 0.010481625 0.0032284649 -0.0017219484 0.0074234745 0.016827146
0.015478946 0.017265871 -0.002838754 0.020576483 0.00434676 0.007722896 0.017114276 -0.0010402853
0.017528709 0.012504263 0.012710372 0.017300585 -0.003147296 0.019370647 0.007252842 0.010664596
0.022289446 -0.0013037132 0.023253722 0.0043652253 0.0078032096 0.02105733 -0.0011641044 0.021448074
0.017163614 0.019916272 0.03712834 -0.00018216838 0.04406446 0.014810339 0.018857917 0.024967723
-0.0008345673 0.030393567 0.009354237 0.012867978 0.020281311 -0.0011158338 0.023338156 0.011012933
0.016245317 0.030390624 -0.0011327025 0.033922464 0.0062423996 0.008854597 0.002144191 0.0006837351
0.00707916 0.01341107 0.015715027 0.018399242 4.1967905e-06 0.024558397 -0.0029507808 -0.0049169674
-0.037847754 -0.0011059396 -0.040218458
00000000: e8aa 653b 6678 f23b 8153 933c 72fe 9aba
00000010: 4f2d 913c de67 763c 4a34 833c 4689 df3c
00000020: d1bf 90bb d426 ee3c 61f6 873b 4b93 233c
00000030: 08ac d13c fbc2 ccba bc56 d03c 3632 883b
00000040: d40e 043c d477 ae3c 171b a4ba 3410 ae3c
00000050: 47c5 303c fe43 823c 3367 fd3c 8648 45b9
00000060: ea2b 153d 151a 6c3c ad8f 8e3c 283a b53c
00000070: 30ef b1ba 21e6 dd3c 7554 403c 3031 833c
00000080: 4a14 df3c 2e96 00bb ad79 f73c 9158 4f3c
00000090: 9380 823c 7404 ea3c 3a89 d2ba f3df 023d
000000a0: 782a 7e3c b418 553c 3c82 983b e855 11bb
000000b0: 2345 163c a845 7c3c b362 7b3c b09b 8d3c
000000c0: d7b9 5dba b636 be3c a33e 4a3c 7cc5 6d3c
000000d0: 7abb e33c 79da 43bb 1ba2 f23c 2dcc 1e3c
000000e0: b6e0 aa3b 4d1c 0abc 4f16 41bb 4f7b d1bb
000000f0: d36c 473c 88e7 713c 0964 ed3c 3c26 2abb
00000100: 9f35 fd3c 5682 c23b afe7 f83b b278 8d3c
00000110: 8c71 d9ba c1de 933c a804 323c e31a 393c
00000120: 0b60 b03c 83a0 3cbb e107 c23c c40a 6d3c
00000130: 5e41 6f3c ae4b 283c 8a5e 3bbb a03b 643c
00000140: 2b50 ba3b a819 0c3c 1a72 473c c308 46bb
00000150: 11a8 4c3c 761b 0a3c 140a 1d3c cb11 f53b
00000160: 801a 4fbb f43b 143c 1273 3a3c 1fbb 2b3c
00000170: a794 533b 00b3 e1ba 9e40 f33b 15d9 893c
00000180: 689b 7d3c 2871 8d3c 640a 3abb 0390 a83c
00000190: 446f 8e3b 5910 fd3b 3d33 8c3c 2f5a 88ba
000001a0: 5e98 8f3c aede 4c3c 2a3f 503c f5b9 8d3c
000001b0: dd42 4ebb 31af 9e3c 40a9 ed3b 8fba 2e3c
000001c0: 5b98 b63c 5be1 aaba 977e be3c 2a0a 8f3b
000001d0: 11b2 ff3b 6c80 ac3c dd94 98ba dfb3 af3c
000001e0: b59a 8c3c 7327 a33c e313 183d 7404 3fb9
000001f0: ef7c 343d 10a7 723c eb7b 9a3c 1c89 cc3c
00000200: ddc6 5aba eefb f83c 8342 193c 36d4 523c
00000210: fe24 a63c 2b41 92ba a92f bf3c 976f 343c
00000220: e614 853c c2f5 f83c 3077 94ba 48f2 0a3d
00000230: 0b8d cc3b df12 113c 8e85 0c3b b03c 333a
00000240: 4cf8 e73b 1bba 5b3c cdbc 803c 02ba 963c
00000250: 28d2 8c36 b12e c93c e361 41bb 831e a1bb
00000260: 3f06 1bbd 2df5 90ba 1cbc 24bd

exp_avg_sq f4 [31, 5]
2.8747008e-06 2.9077915e-05 4.422432e-05 4.429309e-06 8.215817e-05 1.8916782e-05 7.140485e-05 6.863958e-05
7.0281967e-06 0.00014613397 3.5359951e-06 4.4612658e-05 7.0526454e-05 6.202869e-06 0.00012885942 2.7557305e-06
3.111772e-05 5.1216935e-05 4.656034e-06 9.303915e-05 1.0217021e-05 0.00013206412 0.00013541456 1.0619959e-05
0.000312041 1.2090485e-05 0.00013903968 0.000112609436 1.2272779e-05 0.00028344398 9.139938e-06 0.00011488454
0.00011189523 1.1983726e-05 0.00025479554 8.62991e-06 0.00011060949 0.00011172665 1.1216314e-05 0.00025710894
2.1806823e-05 7.403229e-05 3.536585e-05 6.214159e-06 9.8552424e-05 1.878051e-05 7.976619e-05 5.5281664e-05
5.1401626e-06 0.0001403216 1.0909384e-05 6.2151375e-05 7.73884e-05 7.5862913e-06 0.000154001 1.5730657e-05
1.0491158e-05 9.170662e-06 1.0922239e-06 1.5858419e-05 1.0755987e-05 6.293339e-05 8.2149185e-05 7.647721e-06
0.00016235452 4.2598895e-06 2.5870422e-05 3.765379e-05 4.1564535e-06 7.287658e-05 4.1479492e-05 4.3327967e-05
6.530373e-05 4.2873144e-06 0.000102197446 1.37064935e-05 7.433227e-05 6.298784e-05 7.0045858e-06 0.00013716744
9.958021e-06 4.595712e-05 4.611708e-05 5.9474646e-06 9.195529e-05 2.1576818e-05 5.705648e-05 4.7905694e-05
6.4500687e-06 9.925053e-05 1.3201767e-05 3.1680538e-05 2.0940242e-05 1.3169462e-06 3.948311e-05 1.4758256e-05
6.635715e-05 4.474047e-05 5.2678943e-06 0.00011137323 2.676894e-06 3.715523e-05 4.589604e-05 5.11174e-06
9.4494106e-05 1.3260293e-05 5.7213103e-05 4.3794567e-05 5.2818073e-06 0.000107797096 4.1389917e-06 5.136441e-05
6.248992e-05 6.3441344e-06 0.00012911492 2.5013499e-06 3.707182e-05 5.266461e-05 5.0982294e-06 0.000102510625
1.8612836e-05 0.00015595596 0.00015356443 1.1253018e-05 0.00036578 1.543314e-05 0.00013054007 0.00011002903
1.0735937e-05 0.00027047007 8.697979e-06 0.00010631612 8.8481946e-05 1.04435785e-05 0.00021781107 7.1303575e-06
0.00012150605 0.00012220458 1.1571464e-05 0.00027952797 1.4812044e-05 4.5593995e-05 2.464892e-05 2.8014813e-06
6.373112e-05 1.8965555e-05 0.00010253371 6.947133e-05 6.9583284e-06 0.00019038045 1.6233806e-05 6.866784e-05
0.00010943908 2.2833312e-06 0.00018580623
00000000: fcea 4036 59ec f337 817d 3938 799f 9436
00000010: 554c ac38 7baf 9e37 30bf 9538 98f2 8f38
00000020: c0d3 eb36 8a3b 1939 ef4b 6d36 7a1e 3b38
00000030: 9ae7 9338 3d22 d036 701e 0739 17ef 3836
00000040: 6684 0238 c4d1 5638 073b 9c36 031e c338
00000050: c569 2b37 b17a 0a39 12fe 0d39 602c 3237
00000060: 6f99 a339 3dd8 4a37 2ecb 1139 bb28 ec38
00000070: 2fe7 4d37 359b 9439 bc57 1937 2bee f038
00000080: 4ba9 ea38 b60d 4937 1496 8539 2ec9 1037
00000090: 05f7 e738 ca4e ea38 b42d 3c37 94cc 8639
000000a0: cced b637 c841 9b38 cb55 1438 3883 d036
000000b0: eead ce38 d78a 9d37 2648 a738 3cde 6738
000000c0: a979 ac36 4b23 1339 7307 3737 4457 8238
000000d0: 954b a238 bf8d fe36 547b 2139 54f5 8337
000000e0: 2e03 3037 b2db 1937 8798 9235 b207 8537
000000f0: 9d74 3437 1bfb 8338 8247 ac38 b64e 0037
00000100: b63d 2a39 2cf0 8e36 4f04 d937 73ee 1d38
00000110: aa77 8b36 51d5 9838 44fa 2d38 0dbb 3538
00000120: acf3 8838 c0db 8f36 d652 d638 f1f4 6537
00000130: d5e2 9b38 5718 8438 ef08 eb36 9bd4 0f39
00000140: 6011 2737 15c2 4038 d66d 4138 5590 c736
00000150: 1fd8 c038 ddff b437 ee4f 6f38 59ee 4838
00000160: ab6d d836 b924 d038 287d 5d37 b8e0 0438
00000170: d4a8 af37 edc1 b035 ab9a 2538 3a9a 7737
00000180: 3929 8b38 b7a7 3b38 dec2 b036 0c91 e938
00000190: b0a4 3336 20d7 1b38 7f80 4038 8385 ab36
000001a0: 232b c638 8678 5e37 1af8 6f38 0fb0 3738
000001b0: 613a b136 2011 e238 abe1 8a36 1e70 5738
000001c0: 050d 8338 b3df d436 0663 0739 dddc 2736
000001d0: 907d 1b38 32e4 5c38 7511 ab36 f9fa d638
000001e0: c322 9c37 1c88 2339 2306 2139 58cb 3c37
000001f0: 29c6 bf39 6a76 8137 95e1 0839 63bf e638
00000200: 801e 3437 e1cd 8d39 89ed 1137 08f6 de38
00000210: 628f b938 d436 2f37 3764 6439 4e41 ef36
00000220: 10d1 fe38 0b24 0039 0f23 4237 9c8d 9239
00000230: 3f81 7837 2e3c 3f38 27c5 ce37 1501 3c36
00000240: 62a7 8538 3818 9f37 5e07 d738 23b1 9138
00000250: 967b e936 dda0 4739 d52d 8837 c401 9038
00000260: a982 e538 553b 1936 fbd4 4239

exp_avg f4 [31]
-0.05653759 -0.08422538 -0.07701869 -0.0629254 -0.10518835 -0.09148785 -0.09462697 -0.09842468
-0.03869773 -0.072326615 -0.085450694 0.013206277 -0.09033063 -0.050185323 -0.059401445 -0.051014986
-0.03498484 -0.03148335 -0.02906925 -0.062547445 -0.056207385 -0.0627447 -0.07338238 -0.060696587
-0.12915319 -0.1041007 -0.0745189 -0.10515906 -0.038839187 -0.08205298 0.053055905
00000000: f693 67bd 5b7e acbd fabb 9dbd 08df 80bd
00000010: fd6c d7bd fb5d bbbd c9cb c1bd e192 c9bd
00000020: 8381 1ebd fa1f 94bd c600 afbd 245f 583c
00000030: 44ff b8bd 208f 4dbd ee4e 73bd 17f5 50bd
00000040: 434c 0fbd aff4 00bd a322 eebc e018 80bd
00000050: b739 66bd 4b80 80bd 8049 96bd fc9c 78bd
00000060: bc40 04be bf32 d5bd 5d9d 98bd a25d d7bd
00000070: d715 1fbd 650b a8bd 2651 593d

exp_avg_sq f4 [31]
0.0006639391 0.0011153368 0.0010257879 0.0007105444 0.0021937815 0.0022492032 0.0020222892 0.0020273505
0.0008064925 0.0010566805 0.0011505003 8.608735e-05 0.0012270372 0.0005365783 0.0005766855 0.0009713825
0.0006040613 0.00067136745 0.00029288605 0.00078454835 0.00077161763 0.00087678496 0.0010510178 0.0007705396
0.0026899104 0.0022598053 0.0016781401 0.0022012019 0.0007019157 0.0016113982 0.00039258454
00000000: 330c 2e3a 7e30 923a bb73 863a d443 3a3a
00000010: 8cc5 0f3b 5e67 133b 6288 043b 4cdd 043b
00000020: cc6a 533a 5080 8a3a 62cc 963a cb89 b438
00000030: 89d4 a03a 29a9 0c3a b52c 173a 60a4 7e3a
00000040: de59 1e3a b5fe 2f3a 808e 9939 26aa 4d3a
00000050: 6246 4a3a 0bd8 653a 4ec2 893a 0afe 493a
00000060: 3549 303b 3e19 143b 0af5 db3a 0a42 103b
00000070: c400 383a 8d35 d33a ced3 cd39
