Cancer-senn/trial2/models/cancer/grad3_Hinput_Thdummy_Reg1e-02_LR0.001/checkpoint.pth.tar (torch_old, 26436 bytes, 34 tensors)

parametrizer.linear1.weight f4 [10, 30]
00000000: f10d 953d 1d32 0a3e b03b cabd 70a8 313d
00000010: 2fc2 47be 8e92 f03d 1533 103e 5e15 9e3d
00000020: c644 cb3d db58 b2bc 053e 8fbd 70f2 ce3d
00000030: feb0 61be b8e9 d13d 872e 3e3e fcb4 d5bc
00000040: f453 503d 10fb 213d 61e5 a53d a85c 51bd
00000050: 84cc 06be 59c4 44bd 6608 083d 6629 33be
00000060: 2e5c 77bd 4811 b43d c99b 313d 1906 58bd
00000070: 5c11 c1bd 6853 163e 78b3 ff3c c3fe 32be
00000080: 7b63 5bbe 7044 b6bc f373 3dbd df13 7f3b
00000090: 5fad 53be 6825 2ebe d6bb 7f3d 037e d6bd
000000a0: afbb c93d c800 30be 2c0c d0bd c3b2 fb3d
000000b0: 4aa5 f9bd be61 0fbe 41bb 87bd a7d3 35be
000000c0: b402 efbd 2f37 40be 2de1 56be 09c2 2dbe
000000d0: fe6b d33d d609 83bd a512 1dbe 0fe0 02be
000000e0: ed54 c83d ea16 b93d abbb 58bd 8169 523c
000000f0: 2d5d bdbd e2a5 a8ba 2394 d9ba 88ef ed3b
00000100: 0a53 f23b 5c4d f7bc f999 a2bd cbe4 b1bd
00000110: 2b85 9f3d 7169 633d 7a84 ad3d a8c1 4ebe
00000120: 925a 16be 1e61 d9bd d2e8 1abe 0476 f8ba
00000130: 4c08 e63d 32c4 eabd 6812 933b ce02 03be
00000140: bb85 2a3e ee1f 23bc e617 a7bd 0f13 0c3e
00000150: 75d7 0e3e d2dd 363e ae27 203d 6862 d83a
00000160: 0f29 2c3e 3147 7dbc 8b1d aabd 7cc7 2c3e
00000170: 49fe 50bd 6682 33bd eed4 c5bc b202 0d3e
00000180: f02b 353e 819a 403e 40c8 ccbd 9519 bdbd
00000190: 24a3 af3d 1ee0 3f3d 906d fabd b120 d73d
000001a0: f634 a6bc dfdf c83d f95d 02be f8eb b4bc
000001b0: a152 b03d 9ddd 743a e802 81bd afe7 063e
000001c0: 5793 75bc f5ed 223d 5011 813d 2468 48bc
000001d0: f078 343e 5f66 a1bb 29b2 7e3d 8500 4dbc
000001e0: dd72 72bd a7cc 4b3d b96f 873d c992 fdbd
000001f0: 14f0 11bd 4b05 a7bc ac2e fe3d 3653 013e
00000200: dadf 813d ac72 323e 2836 5a3d a3f9 b93d
00000210: 372a be3d e89c a93d 61b4 033e 614b 563e
00000220: eb3c 4b3e 13af e6bd 35fb b8bd f1be ddbd
00000230: 42fb 463e 4533 193e 643e 553e 4a21 a13d
00000240: 307c 543e 4dba b03d c052 6abd 15bd db3d
00000250: 448f 323d b86b b83d 8b1c 023e 875c d9bd
00000260: 358e dcbd f7de de3d e7e4 f8bd 7f4a 3cbe
00000270: 61ea 263e 0d58 1b3e a60d bf3c 8c78 8fbd
00000280: 909c 283e bafd 633d 85f4 1abe 5107 403d
00000290: 6f77 063d cdb7 3ebe 2566 903d 9a68 fa3c
000002a0: 0423 b03d 70ba 29be 9cea 3ebd c788 343e
000002b0: 3673 aabb 9129 343e bf51 b2bd f43a 29be
000002c0: 56fe 3ebe 0974 3e3c 14cf b93d d252 20be
000002d0: 0f48 debd d225 ab3d 4e17 dc3c 7367 f1bc
000002e0: 4d56 f6bd 2194 c7bd 4d67 f0ba fd65 92bd
000002f0: be89 f5bc 496d f53d d2c9 013a 99df febd
00000300: 9d52 44be 356a fc3d 9d6f c03d d280 9dbc
00000310: ddb6 49bd 6aaf 01bb 5bd7 bebc 03f2 8a3c
00000320: 6357 47be e1e0 1dbe 7d48 53bd b417 12be
00000330: d8f2 a5bd 51d7 01be 37d2 0a3e 71eb 04be
00000340: 371c 18bb 3098 39bc 01d7 f3bc d061 0ebe
00000350: c1c6 19be 453b 41bd 4ba0 a03d e1a1 d33d
00000360: 1d97 42bd e108 133e 0a6d a23d 74eb c0bd
00000370: 1ac5 1a3c 3aee 4bbe 8d2c 2e3d 4432 ffbd
00000380: 206f 12be 9cfa cebd 7060 413e 98f7 303e
00000390: 613d 1d3e 1d05 1cbe 81cb eabd 2ff8 c9bd
000003a0: b6b1 053c 1e28 2dbe b2a2 1dbe b163 a23d
000003b0: c1c4 99bc 379e 003d a4ac 44be 4dac a73d
000003c0: 115e 1dbe 0af2 0c3e c6dc c53c 65d0 aa3d
000003d0: 0f46 f73d a252 093e f303 ab3b a452 903b
000003e0: 48ae 3a3d ff26 13bd 6d12 293e 6dd1 c2bd
000003f0: 53e0 20bc a6a7 11bd f291 af3c 75b8 99bd
0.0727805 0.13495679 -0.09874666 0.043373525 -0.19507669 0.11746703 0.14081986 0.07718919
0.09925227 -0.021770885 -0.06994251 0.10104835 -0.22040173 0.102496564 0.18572436 -0.026087277
0.050861314 0.039546072 0.08100391 -0.051113755 -0.13163954 -0.048038814 0.033211134 -0.17496261
-0.060390644 0.08792359 0.04336146 -0.05274019 -0.09427139 0.14680254 0.031213507 -0.17479996
-0.21424668 -0.02224943 -0.046253156 0.0038921756 -0.20671605 -0.17006457 0.062434994 -0.104732536
0.09850251 -0.17187798 -0.101585716 0.122899555 -0.121897295 -0.1400213 -0.06627513 -0.1775652
-0.116704375 -0.18771051 -0.20984335 -0.1696855 0.10323332 -0.063983604 -0.15339144 -0.12780784
0.09781823 0.09037574 -0.05291335 0.012842537 -0.092462875 -0.001286682 -0.0016599934 0.0072612204
0.007395153 -0.030188255 -0.07939524 -0.08686217 0.07789072 0.05552048 0.084725335 -0.20191061
-0.14682987 -0.10614227 -0.15127876 -0.001895607 0.11232051 -0.114632025 0.004488278 -0.12794039
0.16652577 -0.009956343 -0.08158855 0.13679145 0.13949378 0.17858055 0.03910034 0.001650882
0.16812538 -0.015458868 -0.08306416 0.16872972 -0.051023755 -0.04382553 -0.024149384 0.1377056
0.17692542 0.18808939 -0.09999132 -0.09233395 0.085760385 0.046844594 -0.12227929 0.10504282
-0.020288926 0.09808325 -0.1273116 -0.022085175 0.0860951 0.0009340884 -0.062993824 0.13174318
-0.014988742 0.039777715 0.0630213 -0.01223186 0.17624259 -0.0049255337 0.062181626 -0.012512331
-0.059191573 0.04975572 0.06613106 -0.12381513 -0.035629347 -0.020388266 0.12411246 0.12629399
0.063415244 0.17426556 0.053274304 0.090808176 0.092853956 0.082818806 0.12861778 0.20927192
0.19847457 -0.112638615 -0.09032289 -0.10827435 0.19431785 0.14960964 0.20824581 0.078676775
0.20750499 0.08629284 -0.057207823 0.10729424 0.04359366 0.09004921 0.12706201 -0.10613351
-0.10769311 0.10882371 -0.12153035 -0.18387793 0.16300346 0.15170307 0.023321938 -0.07005414
0.16465974 0.055661894 -0.1513234 0.046881977 0.032828745 -0.18624802 0.070507325 0.030567456
0.08600429 -0.16575027 -0.04661046 0.17630301 -0.0052017225 0.17593981 -0.08706998 -0.16526395
-0.18651709 0.011624345 0.090727 -0.15656593 -0.10853588 0.08356823 0.026866581 -0.029468274
-0.12028179 -0.0974505 -0.0018341333 -0.07148359 -0.029972907 0.11983735 0.0004951033 -0.124449916
-0.1917214 0.12324945 0.093962885 -0.019226465 -0.049246658 -0.0019788393 -0.023296049 0.016961103
-0.19466929 -0.15417816 -0.051582802 -0.14266855 -0.081029594 -0.12679793 0.13556753 -0.12980439
-0.0023210177 -0.011327788 -0.029765608 -0.139045 -0.15017225 -0.047175664 0.078430735 0.1033361
-0.047507394 0.14358856 0.07930954 -0.09419909 0.009446407 -0.19915095 0.042522956 -0.12460759
-0.14300203 -0.10106394 0.18884444 0.1728195 0.15355445 -0.15236326 -0.114645965 -0.098617904
0.008160045 -0.16909835 -0.15394095 0.07929171 -0.018770577 0.031400885 -0.19206482 0.08187161
-0.15367915 0.13764206 0.024153125 0.08340529 0.120739095 0.13410428 0.0052189766 0.004404383
0.045576364 -0.03592586 0.16510935 -0.09512601 -0.009819108 -0.035560273 0.021431897 -0.075058855

parametrizer.linear1.bias f4 [10]
00000000: 576b 2c3d 79ff af3b dc3a 033e ee2e 933d
00000010: 894c cfbd 3a50 423e 9baf 3bbd 3728 083d
00000020: 8c06 1f3e 3f51 18be
0.042094555 0.005371031 0.12815422 0.071866855 -0.1012202 0.18975917 -0.045821767 0.033241477
0.15529841 -0.14874743

parametrizer.linear2.weight f4 [10, 10]
00000000: ac20 1b3e 92fa babd e4a8 643e 54a4 5cbe
00000010: e3f3 f73c 8549 4ebe 0083 8fbd 216b 81bd
00000020: cc8a b8be c5e1 803e 471f a13e d05c 643b
00000030: 47e5 4abe 9584 c73d 4ed2 3cbe 375a 283d
00000040: 033e 6f3e e811 0d3d 874d 9abe c203 89bd
00000050: 626f 26be f8d5 7bbe cc91 923e 11a4 083e
00000060: 9731 963e 9045 78bc 385d c2bd 853c 9dbd
00000070: 0742 c43d 2cce 4f3e 5c58 2ebe 35d3 5bbe
00000080: b401 72be ef5d 59be 72ce 31be 6308 e33d
00000090: e0f9 c2bd 9388 9fbe ef8e 72be 9d1c 84bd
000000a0: 2e86 7a3b ea45 32be d4d9 36bd b67d f83d
000000b0: 6a8b 083e 4d53 403d 4cf9 6a3d ddc2 113e
000000c0: 60b0 8cbd 538f 84be ae4d 3c3d dea1 deb9
000000d0: 4d48 5f3e 2ffa 84be 3165 82bd 808f 993e
000000e0: 6ab4 033e 1841 4e3d cf7b 25bd 70b2 e3bb
000000f0: c128 b9bd 820b a73e fc43 49be ff9d 2bbe
00000100: 1356 8c3e aa2c 913e b9a8 c5bd e78d 22be
00000110: a069 89be 879b 9f3d 32e6 2c3e 5a22 583e
00000120: e7ea cabc 9d98 9f3e af4e 62be eadc cabd
00000130: 6078 843c f032 c0bd 72ae 923e 335e 5fbd
00000140: 8574 5f3e 8d48 183e 71f4 79be 09c0 71bd
00000150: cf50 073e d08b 26be e158 46be 4f98 083e
00000160: fef6 74be c3e4 0c3e bd42 b03e ffa5 00be
00000170: 41b6 9bbd d6bd 7b3e 6bf2 21bc 4455 babd
00000180: 2efe a5be a719 9ebd ae11 163e c135 54be
0.15149182 -0.09129824 0.22330052 -0.21547061 0.030267661 -0.20145233 -0.07007408 -0.06319261
-0.36043394 0.25172248 0.31469175 0.003484536 -0.19814025 0.09742085 -0.184396 0.04110166
0.233635 0.034440905 -0.30137274 -0.0669017 -0.16253427 -0.24593341 0.2862686 0.13343836
0.2933471 -0.015153304 -0.09490436 -0.07677559 0.09582906 0.20293492 -0.17025894 -0.21467288
-0.23633462 -0.21227239 -0.17363909 0.11085584 -0.09520316 -0.31158885 -0.23687337 -0.0645077
0.003822695 -0.17409483 -0.04464133 0.121333525 0.13334432 0.04695444 0.057366654 0.1423449
-0.06869578 -0.25890598 0.04597252 -0.0004246374 0.21804924 -0.25972125 -0.06366957 0.29992294
0.12861791 0.050355047 -0.040401276 -0.0069487616 -0.09040976 0.32625967 -0.1965484 -0.1675949
0.2740942 0.28354388 -0.09651322 -0.15874444 -0.26838398 0.07793336 0.16884688 0.21106854
-0.024770213 0.31171122 -0.22100328 -0.09905417 0.01617068 -0.093847156 0.28648716 -0.054533195
0.21821792 0.14871426 -0.24409653 -0.05902103 0.1321442 -0.16264272 -0.19369842 0.13339351
-0.23922345 0.1375914 0.34425917 -0.12563322 -0.076031215 0.24584135 -0.009884457 -0.090982944
-0.32420486 -0.077197365 0.14655182 -0.2072363

parametrizer.linear2.bias f4 [10]
00000000: 1b4f b3be e7ea 03be 079f febd e590 91be
00000010: deb4 943e 0d2f 83be 2242 67be 75df 823d
00000020: 90b2 153d bd77 59bd
-0.3502129 -0.12882577 -0.12432676 -0.28430858 0.2904424 -0.25621834 -0.22583821 0.06390277
0.036547244 -0.053092707

parametrizer.linear3.weight f4 [5, 10]
00000000: 70c1 a3be 57b7 0abe 646f b93e 71d8 09be
00000010: 9374 223d ca10 3e3e 3368 fe3d 9793 1e3e
00000020: b06d c6bd 9560 a03e 17c4 c43d e83d 50be
00000030: bb86 e2bc c34b bc3e 611d cdbd 3560 f43d
00000040: e1d2 123e 4c1f 4e3d 9c6c 473e 394c 81be
00000050: 9348 b43e 5392 d83c b4d0 e23d 61d6 723e
00000060: f43a 02be f212 94be 4347 0f3e 8ea8 adbe
00000070: 67e8 82be 6563 15bc 225c 5cbe a42e fdbd
00000080: 489a d83d cc61 4b3e c4ec 5dbd 4920 e03d
00000090: f046 c83d 8d32 413e 4f67 25be 6371 723e
000000a0: 312c 30be 5119 5c3d 12cf a0be 6018 103e
000000b0: 6a92 fd3d 4e28 13bd d883 753e d3d7 08be
000000c0: e977 18be b217 a9bc
-0.3198352 -0.13546501 0.36217797 -0.13461472 0.039661955 0.18561092 0.12422218 0.15485989
-0.0968889 0.31323686 0.09607714 -0.20336115 -0.027652135 0.36776552 -0.10015369 0.119324125
0.14338256 0.050322816 0.19475025 -0.25253466 0.3521162 0.02643696 0.11074963 0.23714592
-0.12717801 -0.28920704 0.13992028 -0.3391766 -0.25567934 -0.009117936 -0.21519521 -0.123624116
0.10576302 0.19861525 -0.054180875 0.10943658 0.09779155 0.1886694 -0.1615269 0.23676066
-0.17204358 0.05373508 -0.31407982 0.14071798 0.12381442 -0.03592711 0.23976076 -0.1336358
-0.14889492 -0.020641182

parametrizer.linear3.bias f4 [5]
00000000: 29d6 73be 7275 b3bd 0e81 6fbe 2543 ab3e
00000010: 6724 983e
-0.23812164 -0.08762635 -0.23389074 0.33449665 0.29715273

parametrizer.linear4.weight f4 [31, 5]
00000000: 91da 803d 8400 c3be 48ba 9fbd f1c9 a23e
00000010: 2b77 613d 2619 803e 0c8c 973e a276 633e
00000020: 334c 86be efb5 e9bd cfe4 39be 6b72 bdbe
00000030: fd8b 62be 834b ca3e 1805 f53e f136 883e
00000040: 6570 3cbe df2c 1d3e f881 d53e 017a 4e3e
00000050: 30db 6a3e 2049 cdbe c5fe aebd 63ba b33c
00000060: 8049 a0be a638 283e 8820 47be ec9f 82bc
00000070: c994 5ebe 8793 603e 2f87 5c3e 992b 85be
00000080: 70f9 debe 88a3 6dbe befa 913e a040 c23c
00000090: 6dcd 98bd 6c04 8fbe dc7f 12be 65cc 5a3e
000000a0: d546 62be f6d3 2ebe a766 7dbe 6c1a 493e
000000b0: 57b6 5ebe e646 a1bc e0f3 853e 9806 dabe
000000c0: fb9b a43e be46 493e bcb9 19be d19d 37bc
000000d0: 4378 5bbe c7af 5f3d 61b5 ca3e 84ca a03e
000000e0: 725b c03e ab5d bebe 6871 f6be f2a4 31be
000000f0: 2473 46bd 558a eebe d793 1c3e 8599 c63e
00000100: 499d 84be 85f3 b03e 4822 38be 9604 bd3d
00000110: ab05 c7be 41dc 4fbe fa09 cfbe bd1a 5d3d
00000120: dc4e 5e3e 4acc 4c3c a96b dd3e f467 733c
00000130: 255a 9d3e 9f62 a6be 4663 e53e aee7 403e
00000140: 58af 1ebe aa08 39bc 9a40 39bd 6b16 2e3d
00000150: aee1 b13e a662 c33e 89ec 993e 4a51 c9bd
00000160: 99ea d63e 98e0 f63e c4bc 8a3d 9d0e 273e
00000170: 5192 223d 3924 693d 39b6 41be 6a61 633e
00000180: 6920 973e d204 4ebe c355 a93e 6ff3 23be
00000190: ea20 2dbe c895 613e 38b6 9a3e 76da 843e
000001a0: 2931 f13e 4ea0 a0be d0c0 7dbe 6a8a 80be
000001b0: ac58 f3bd 5016 9abd f5c6 07be a377 74be
000001c0: d425 dabe 7d05 7cbd 6bb5 c13e 65ef 5c3e
000001d0: 6cf6 9abe f5a5 b2be 200a e73e c13b 723e
000001e0: 9b48 14be af11 22be c9a6 1d3e cb25 023e
000001f0: b14b d23e f1f7 acbd 977a b63e 7bac f53c
00000200: 5f36 a73e c9bc 4abe 220b 9bbe d9e8 35be
00000210: 5016 c53e b454 19be 0ebd 82be 2663 9abe
00000220: 70d2 c0bd 6ce4 30be 7384 4fbe ba7c 9cbc
00000230: cd05 bc3e 7e4a 743e 54ca c53d aba9 983e
00000240: 4619 20be c935 703e e3ff d6be 154f 49bb
00000250: 6a5b a0bd ce06 083e 84c4 f33e dce9 a93d
00000260: b69a 753e 8e24 1e3e 2053 e8be
0.06291688 -0.3808633 -0.07799202 0.31794694 0.055045288 0.25019187 0.29599035 0.22213224
-0.2623001 -0.11411654 -0.1815369 -0.37001356 -0.22123714 0.39510736 0.4785545 0.26604417
-0.1840225 0.15349148 0.4170072 0.20163728 0.22935176 -0.40094852 -0.08544687 0.021939462
-0.31306076 0.1642786 -0.19446003 -0.015945397 -0.21736445 0.21931277 0.21535943 -0.26009825
-0.4354968 -0.23206913 0.28511614 0.023712456 -0.07461057 -0.2793306 -0.14306587 0.21367033
-0.22097333 -0.17073044 -0.2474619 0.19638985 -0.21749245 -0.019687127 0.26162624 -0.42583156
0.32150254 0.19655892 -0.15012258 -0.01120706 -0.21432595 0.054610994 0.39591506 0.31404507
0.37569767 -0.37180838 -0.48133397 -0.17348078 -0.04844965 -0.46589914 0.15290771 0.38789
-0.2590125 0.3456079 -0.17981827 0.0922939 -0.38871512 -0.20298864 -0.404373 0.053980578
0.2170977 0.012499878 0.432462 0.014856327 0.30732837 -0.32497117 0.44802302 0.18838379
-0.15496576 -0.01129357 -0.045227624 0.04250185 0.34742492 0.381612 0.30063275 -0.09829958
0.4197586 0.48218226 0.067742854 0.16314168 0.03969032 0.05691931 -0.18917169 0.2220513
0.29516914 -0.20119026 0.33073243 -0.16010831 -0.16907087 0.22029793 0.30217147 0.25947922
0.4710782 -0.31372303 -0.24780583 -0.25105602 -0.11882147 -0.07523787 -0.1325949 -0.23873763
-0.42606986 -0.06152867 0.37833723 0.21575697 -0.3026613 -0.3489224 0.45124912 0.23655607
-0.14480822 -0.15827058 0.15395655 0.1270973 0.41073373 -0.084457286 0.35640404 0.029989472
0.3265867 -0.19798578 -0.3028193 -0.17764606 0.38493586 -0.14973718 -0.25534862 -0.3015377
-0.09415138 -0.17274636 -0.20265369 -0.019102443 0.36723176 0.23856542 0.09657732 0.29816946
-0.15634641 0.23458017 -0.419921 -0.0030717303 -0.07829936 0.13283846 0.47610867 0.08296558
0.23984799 0.15443632 -0.4537592

parametrizer.linear4.bias f4 [31]
00000000: c4ab 373e da5a b03e 9d83 503d 5bab dabc
00000010: 5118 b7be 3a3e 8c3e 12d0 2f3e cf43 82be
00000020: fa8b b13e 4af6 e8bd db95 853e d4ad a53e
00000030: de5c 59bd c25f 743e 1d97 37be d0a9 86be
00000040: 3e59 843d eea1 9b3d fedb c33e a185 bbbe
00000050: ceee cebd 7c6b 833d 39f2 073e f637 b0be
00000060: eadf 36be 5c7c 333e ffe1 01be 9f5a 113e
00000070: 3b95 993d b2b4 bebe 12d9 1a3e
0.17936617 0.34444314 0.050906766 -0.026693037 -0.3576074 0.27391225 0.17169216 -0.2544236
0.34677106 -0.11375101 0.26090893 0.32359183 -0.05306708 0.23864654 -0.17928739 -0.26301432
0.06462334 0.07599245 0.38253778 -0.36625388 -0.10104142 0.064169854 0.13275994 -0.34417695
-0.17858854 0.17527908 -0.12683867 0.14194725 0.074991666 -0.37247235 0.15121868

exp_avg f4 [10, 30]
00000000: 301c 1b3b cc02 493a 92fa 193b 311c 2a3b
00000010: 640b 7938 4935 29b8 1cbd d539 10e2 233a
00000020: d337 9e39 375b caba bdee fc3a c9da 0eba
00000030: a18d e03a a4bc 073b 01d3 e8b8 3cc1 40ba
00000040: 1bf4 7938 e590 bab9 f733 49b8 f0d6 a8ba
00000050: bae9 fd3a ac58 cab8 92af 033b d39e 0d3b
00000060: 68b1 1eba daaf 3dba a7e9 d2b9 c5b0 e7b8
00000070: 3a7a 1338 0342 16bb 2f95 303a d75d 083b
00000080: 5f46 213a eb63 d339 8425 87ba 2d85 d3b9
00000090: 45c6 fc39 2ac8 ee39 826d a1ba 6732 e3b9
000000a0: e02d 90b9 0edf 5f3a dcc5 f7b9 bd6b eab9
000000b0: 1189 c5ba 94fa 0fba 170e 2039 1a24 0e3a
000000c0: fb3e b9ba dad9 bab9 7d09 9c3a 9819 463b
000000d0: b8f7 983a 256d 583a 887d 383a 3c5b 043a
000000e0: f521 e13a d199 063b c552 8d3a b0e4 6d3a
000000f0: 8c73 f0b8 94fe bd3a d954 97b8 f376 bbb9
00000100: 4e55 6a3b 2d51 da3a b54e abb9 7903 103a
00000110: da8a 9c3b 822a fe39 f305 723a c774 113b
00000120: ae35 7a3a 8255 d538 f2b8 cd39 c2fa 753a
00000130: c6e3 b5ba d7b0 f639 b700 2a3b 16dd 39b9
00000140: 6684 0fba 674a b739 59ef 2bba d746 58ba
00000150: b1c1 5f3a 1602 cd3a be3d 10ba 57ad cab8
00000160: 497b ba3a 3dfe 8439 44a6 303a 2fb3 91ba
00000170: 1d2b 6b3a 29f3 823a e659 c33a 2e88 ea3a
00000180: 024b deb9 46f4 98ba 732f 86b9 818c ef3a
00000190: 6a15 db3a 1ef8 cfba b33d 3e3b 1c05 cb3a
000001a0: f062 d03a 09e9 aa3b 3308 8e3b 606b 943b
000001b0: a8ec 473b 94a8 973b 805e a8ba 00ca 8ebb
000001c0: 7473 31ba e0b0 79ba 71e0 85bb 7a6d 2bbb
000001d0: 0823 3ebb 0e4b 52bb e627 80bb b607 92bb
000001e0: afe0 89ba a212 6339 ffb4 84ba a052 77ba
000001f0: baa4 493a 851b 8539 616b 48ba 310e 07ba
00000200: 4c02 1c3a fe33 0d3a bdb8 a7b9 ee66 bd3a
00000210: ab27 57b9 db4f bdb9 ad03 be39 e3e9 3138
00000220: f9c6 13ba 2074 67b9 f25a 9d3a cab6 14b9
00000230: 1a32 9bba b619 d3b9 ec08 a1ba 9add 89ba
00000240: d702 0aba ade7 6a39 ce5f 73ba ba75 85ba
00000250: 9c77 9eb8 af8c 1239 c1d4 d1ba 4092 0fba
00000260: 9fa2 c7ba f083 daba 3b21 a0ba 7f4d 38b9
00000270: bf56 28ba 1663 87ba 9608 0cbb 3b58 fd3a
00000280: 8aea c9ba 2b91 2439 4a54 87ba 28f5 bdba
00000290: e04c 73bb a0cb 7c3a aac3 543a 208b a93a
000002a0: 709f 72ba 16fd b73a 8af9 ceba 8295 b538
000002b0: 370b aaba d1f7 d6ba 2da3 b5ba b8b9 3aba
000002c0: ef7b 4138 5cce a538 621c 9bba d9b7 f839
000002d0: 6a38 243b 230b a338 3835 183b 157e 243b
000002e0: 60ed 8fba 39c4 d4ba 9244 2f3a a2ad 8c3a
000002f0: 95c3 1ebb 9bfb 5fbb 542c 4c37 be77 18bb
00000300: 4de5 3fba b55f 853a 9e45 70ba 3cb3 8cbb
00000310: 592b f1ba b5c3 5abb 50b3 89bb f223 8cbb
00000320: a9ec 3e3b f47f df3a 671b 343b 0854 3d3b
00000330: c8ac 183b e830 5339 c911 b03a 7ca8 e73a
00000340: 67b4 af3a 7f2f d3b9 f725 c33a d826 703a
00000350: 5a87 b33a 7d61 d93a de34 79ba c8f1 88ba
00000360: 323c 66b9 6ca7 b038 63d5 c6b9 7125 17bb
00000370: 02b7 423a 315f b039 a7b0 b739 4f4c 853a
00000380: 4756 11ba 27c2 15bb e851 7aba e8f6 d0ba
00000390: 742d 20ba e5d1 3cbb 04f8 bc3a d029 253a
000003a0: 0d6b ac3a ad30 cd3a c4ed 0fba 2c9f 82b9
000003b0: 1d02 53b9 04c4 2eb9 750a 943a cef5 d8ba
000003c0: 45fc e3ba 3a92 ceba 0726 a7ba 166b bbba
000003d0: 1cb8 5e3b 689b 9f3b 9507 493a 6b42 28ba
000003e0: f658 a13b 234e 023c 27dc 133b 4091 e83a
000003f0: b691 873b 113b f139 68e1 713a 21a6 213c
0.0023667924 0.0007667958 0.0023495299 0.0025956745 5.9376835e-05 -4.0342366e-05 0.00040767423 0.00062516425
0.000301777 -0.0015438561 0.0019297224 -0.00054494716 0.0017132052 0.0020711804 -0.000111019246 -0.0007353013
5.9593567e-05 -0.0003558464 -4.797053e-05 -0.0012881439 0.0019372024 -9.648627e-05 0.0020093662 0.002160956
-0.0006053657 -0.0007235982 -0.00040228406 -0.00011047864 3.5161363e-05 -0.002292753 0.0006736097 0.0020807886
0.00061521487 0.000403195 -0.0010310863 -0.0004034428 0.00048212908 0.0004554403 -0.0012315961 -0.00043334367
-0.000275 0.00085400126 -0.00047258928 -0.0004471223 -0.0015070756 -0.0005492356 0.00015264038 0.00054222497
-0.001413315 -0.00035638997 0.0011904683 0.0030227657 0.0011670506 0.000825601 0.00070377486 0.00050489954
0.0017176258 0.002053846 0.0010782114 0.00090749096 -0.00011465614 0.0014495426 -7.216045e-05 -0.00035756044
0.0035756412 0.0016656272 -0.00032674303 0.00054936815 0.0047772946 0.00048478326 0.0009232454 0.002219485
0.0009544742 0.000101725585 0.00039238442 0.0009383374 -0.0013877086 0.00047052532 0.0025940367 -0.00017725336
-0.0005474746 0.00034959914 -0.0006558798 -0.0008250302 0.0008535637 0.001564088 -0.00055023644 -9.664398e-05
0.0014227416 0.00025366424 0.00067386427 -0.0011116023 0.0008970963 0.000999068 0.0014904111 0.0017893368
-0.00042399025 -0.0011669479 -0.00025593824 0.0018276126 0.0016714756 -0.0015866791 0.0029028475 0.0015489194
0.0015898626 0.0052157682 0.0043344735 0.0045294017 0.0030506048 0.0046282504 -0.0012845546 -0.0043575764
-0.0006769218 -0.00095249526 -0.0040855934 -0.0026157782 -0.002901258 -0.0032088193 -0.0039110063 -0.0044564856
-0.0010519231 0.00021655348 -0.0010124742 -0.00094346143 0.00076920877 0.0002538824 -0.0007645395 -0.0005151956
0.000595127 0.00053864706 -0.00031990363 0.0014450231 -0.00020518775 -0.00036108386 0.00036242363 4.2417912e-05
-0.0005637254 -0.00022073137 0.0012005253 -0.00014182474 -0.0011840493 -0.00040264212 -0.0012285984 -0.0010518313
-0.00052647054 0.00022402285 -0.00092839904 -0.001018218 -7.556306e-05 0.00013976054 -0.001600884 -0.000547681
-0.001523096 -0.00166714 -0.0012216935 -0.00017576477 -0.00064216176 -0.0010329213 -0.0021367422 0.0019328663
-0.0015404981 0.00015694338 -0.0010324803 -0.0014492618 -0.0037124678 0.00096433796 0.00081163144 0.0012935139
-0.00092553254 0.0014037217 -0.0015790921 8.6586006e-05 -0.0012973313 -0.0016400759 -0.0013857834 -0.0007123011
4.6130208e-05 7.9062505e-05 -0.001183402 0.00047439223 0.002505804 7.77452e-05 0.002322508 0.0025099565
-0.0010980777 -0.0016232795 0.0006685938 0.0010732899 -0.0024225463 -0.0034177068 1.21696685e-05 -0.0023264731
-0.000732024 0.0010175618 -0.0009165647 -0.0042938273 -0.001839976 -0.003338081 -0.004202284 -0.004276746
0.002913276 0.0017051683 0.0027482153 0.0028889198 0.0023296345 0.00020140747 0.0013433035 0.0017674114
0.0013405205 -0.00040280443 0.0014888634 0.00091610616 0.0013696954 0.001658484 -0.0009506474 -0.0010448033
-0.00021956934 8.423519e-05 -0.00037924488 -0.0023063088 0.0007427783 0.0003364026 0.00035036096 0.0010169836
-0.00055441674 -0.002285132 -0.0009548948 -0.0015942724 -0.00061102887 -0.002881163 0.0014417176 0.0006300481
0.0013154462 0.0015654765 -0.0005490447 -0.00024914125 -0.00020123315 -0.00016666955 0.001129462 -0.0016552748
-0.0017393908 -0.0015760132 -0.0012752422 -0.0014298882 0.003398425 0.004870821 0.00076686713 -0.00064185885
0.004923935 0.0079532 0.002256164 0.0017743483 0.004137243 0.0004601111 0.00092270086 0.009866268

exp_avg_sq f4 [10, 30]
00000000: e447 ce35 7c1f 4235 0695 c435 0c9a c035
00000010: 8049 6235 73de 1035 c237 c834 745c 0235
00000020: fc53 4035 85f8 8535 4dc3 4e35 e2e0 4736
00000030: d84b 2b35 b9c9 3135 2817 f035 6471 2336
00000040: 3d1a 4935 6ff2 7c35 de93 6535 caf7 2f36
00000050: 8fab ba35 ee1e 8535 8525 b735 d3d2 a635
00000060: 46d4 3e35 1b7b 5035 a67e 0635 9247 3d35
00000070: 4a53 5235 7d0a 8135 93d4 1a35 55b0 8f35
00000080: 35b2 1a35 c092 0b35 88ac 0535 a8d9 6735
00000090: b67c 8635 d27d 8735 7503 5035 e057 2e35
000000a0: 3273 a534 b7d2 8836 4ed1 6334 8a65 6634
000000b0: e98e 8935 e0d4 3435 8a39 e334 9c65 3935
000000c0: 2435 af35 9463 d434 4a55 7335 9c84 e035
000000d0: d14e 6f35 0e9f 5b35 438f 6535 f5f9 da35
000000e0: 3eb3 fb35 e1a8 0c36 3c98 8535 7097 d435
000000f0: db38 7236 d862 0737 4fe4 8436 4de1 4f36
00000100: ce76 cd36 123b 3437 1667 1537 ac9f 0837
00000110: 630b 1437 da3a d436 488e e135 1420 5737
00000120: 0bff bd35 1910 b535 fc17 2336 e58d 2c37
00000130: 54c6 1237 0ae3 4e37 be7f dc36 7d18 0d37
00000140: be59 6d36 171d 9036 7d83 8e36 91bb 5136
00000150: 3415 1737 565a 3037 26a5 4737 0602 6537
00000160: a865 0c36 1251 6437 8fcf d336 8cc7 4836
00000170: 258e db36 2951 d436 63bc 7236 6c5e ba36
00000180: 027e 0137 5603 2c37 776f 0936 09ae 3e36
00000190: ee6c a436 a6b6 e236 e0e6 8936 c818 7436
000001a0: 8681 1737 f938 a136 73a2 6936 6a48 a636
000001b0: b7d9 8636 2779 7836 04f0 2937 d907 9436
000001c0: fc5b 2137 f3f1 3037 e55e 0537 5c2b 1d37
000001d0: 3fb1 1037 af5d 3637 360b 0737 c51e 0337
000001e0: a8c6 5e35 abce 2535 c4e6 6435 219e 4235
000001f0: 9e07 f334 f371 4c35 de3d 8335 4f95 8935
00000200: f059 ec34 42ad b134 58f3 a234 1d7a 9f35
00000210: 37a8 8234 ec68 7d34 d07d c334 ae9e 3135
00000220: e0e1 e034 10a9 3a35 8fee e334 dc41 4b35
00000230: 3e76 7f35 3eb5 ec34 fe00 8535 2791 5c35
00000240: f304 1b35 3195 4135 f5d5 9435 a9d0 b435
00000250: 433f de34 75e4 4935 2788 5836 0550 3737
00000260: 0ef9 6d36 e691 5836 c9fc a136 3d3f e836
00000270: 9279 ed36 de24 d636 ab5e 3536 c8a4 a836
00000280: e65a 2b36 f529 b836 42e4 0336 e4f3 f035
00000290: 7b51 dd37 8ae7 9b37 1e8b 4e37 7ebb c037
000002a0: 39bc 3a36 5b5f 9737 7797 3436 7b5c ce36
000002b0: b4b2 3036 cd3e 4836 b599 9236 66db 5236
000002c0: c708 9336 8f84 bf36 3ab4 2536 d197 9636
000002d0: 1f8b 2c36 4bae 4f35 eba3 2736 c2ee 0f36
000002e0: 198b 2736 003e 0636 5f84 0636 7fec 1836
000002f0: 7823 2236 8f12 6036 215f 4234 aff7 ad35
00000300: 4dea 3e34 ff3a f834 a5dc 9f35 8529 1f36
00000310: 3d2d 8635 8367 e735 529c a936 64c2 5c36
00000320: 6432 4136 a4b4 d735 0622 4236 4863 1b36
00000330: bb79 9636 d09f 8d36 ee79 5c36 b7e4 8636
00000340: 20f2 7f36 54b8 6636 ad48 e334 f23d 3d36
00000350: da1b ca34 f410 ef34 9ee1 9d35 7867 9635
00000360: b542 4735 0c7d 0335 8bf0 0c35 1f78 c935
00000370: 9ee5 c534 dc5c 9537 6117 9834 2a4b 9734
00000380: b96a ac36 f95b 5a36 7269 db35 8b5b 3736
00000390: 9172 7135 8d9d 8036 df28 0b35 f2a3 2136
000003a0: bca3 fc34 4df8 0835 d805 d135 765b 4135
000003b0: b4da 0735 d1ed 1e35 c6dd 8335 8ee7 c135
000003c0: c82f 7637 b0fa a336 33a8 7f37 f01b 5b37
000003d0: 55a1 7037 77a8 e637 28b6 dd37 fedc df37
000003e0: a91e 7c37 5fec f737 172e f536 046a 2637
000003f0: a1cf e536 5856 ba36 ef4f cc36 a534 a437
1.5369119e-06 7.231645e-07 1.464651e-06 1.4349948e-06 8.429852e-07 5.3967887e-07 3.7293472e-07 4.856331e-07
7.1647787e-07 9.981601e-07 7.702518e-07 2.978421e-06 6.381283e-07 6.6231183e-07 1.7888133e-06 2.4354895e-06
7.4916517e-07 9.42301e-07 8.5524323e-07 2.6221264e-06 1.390801e-06 9.918274e-07 1.3645482e-06 1.2429322e-06
7.1089414e-07 7.766518e-07 5.010319e-07 7.0512135e-07 7.83523e-07 9.614301e-07 5.7678807e-07 1.070565e-06
5.7628796e-07 5.1995085e-07 4.9797427e-07 8.637094e-07 1.0020074e-06 1.0094902e-06 7.749107e-07 6.4947926e-07
3.081746e-07 4.0776463e-06 2.1217167e-07 2.1457359e-07 1.0248888e-06 6.7365e-07 4.232391e-07 6.906573e-07
1.3053982e-06 3.956053e-07 9.0648666e-07 1.6727895e-06 8.914913e-07 8.181531e-07 8.551762e-07 1.6315013e-06
1.8753124e-06 2.0959926e-06 9.953578e-07 1.5839305e-06 3.6093904e-06 8.069641e-06 3.960485e-06 3.0976546e-06
6.123307e-06 1.0742589e-05 8.905094e-06 8.143408e-06 8.824139e-06 6.3249436e-06 1.6805216e-06 1.2822467e-05
1.4155825e-06 1.3490236e-06 2.4302853e-06 1.0285036e-05 8.748455e-06 1.23314185e-05 6.571382e-06 8.4099565e-06
3.5367989e-06 4.294921e-06 4.247237e-06 3.1252605e-06 9.005238e-06 1.05114505e-05 1.1899776e-05 1.3649935e-05
2.0920797e-06 1.3608735e-05 6.312453e-06 2.9918474e-06 6.5432564e-06 6.3275406e-06 3.6170466e-06 5.554224e-06
7.718338e-06 1.0252776e-05 2.0479472e-06 2.8413508e-06 4.900262e-06 6.756588e-06 4.1097956e-06 3.6373258e-06
9.030458e-06 4.8048064e-06 3.4814263e-06 4.9556156e-06 4.0188565e-06 3.70254e-06 1.0129068e-05 4.4116573e-06
9.617765e-06 1.0546751e-05 7.949512e-06 9.368025e-06 8.624337e-06 1.0869858e-05 8.049237e-06 7.815373e-06
8.299053e-07 6.176803e-07 8.5272427e-07 7.250074e-07 4.526782e-07 7.616174e-07 9.778266e-07 1.025075e-06
4.4023864e-07 3.309488e-07 3.0351907e-07 1.1881963e-06 2.433678e-07 2.3600631e-07 3.641312e-07 6.616855e-07
4.1887597e-07 6.953642e-07 4.245562e-07 7.571923e-07 9.516697e-07 4.4090297e-07 9.909561e-07 8.216761e-07
5.77492e-07 7.2115205e-07 1.1089129e-06 1.3471773e-06 4.139675e-07 7.5210784e-07 3.226576e-06 1.0926281e-05
3.546072e-06 3.2271432e-06 4.827602e-06 6.9215007e-06 7.077303e-06 6.381989e-06 2.7026206e-06 5.025973e-06
2.5533895e-06 5.4885118e-06 1.9653385e-06 1.7952375e-06 2.6383195e-05 1.8585259e-05 1.2310948e-05 2.2975491e-05
2.782572e-06 1.8045006e-05 2.6910254e-06 6.1500446e-06 2.6330063e-06 2.9838877e-06 4.369033e-06 3.1420145e-06
4.381963e-06 5.7076754e-06 2.4691822e-06 4.488022e-06 2.5710976e-06 7.736714e-07 2.4980352e-06 2.1447636e-06
2.4965905e-06 2.0003645e-06 2.0044606e-06 2.2787424e-06 2.4160527e-06 3.3389404e-06 1.8102266e-07 1.296159e-06
1.7780367e-07 4.6236525e-07 1.1910639e-06 2.3717014e-06 9.996944e-07 1.7240967e-06 5.0547906e-06 3.2895705e-06
2.8788572e-06 1.6071322e-06 2.8928057e-06 2.315459e-06 4.4845196e-06 4.220732e-06 3.2853527e-06 4.020137e-06
3.8138896e-06 3.4379964e-06 4.2334923e-07 2.8199252e-06 3.7645697e-07 4.4529554e-07 1.1763075e-06 1.1205984e-06
7.423035e-07 4.898327e-07 5.25041e-07 1.5010627e-06 3.6861178e-07 1.7805425e-05 2.8329217e-07 2.818063e-07
5.1384236e-06 3.2538067e-06 1.634746e-06 2.732241e-06 8.994621e-07 3.8330386e-06 5.184101e-07 2.4086298e-06
4.705779e-07 5.1025273e-07 1.5573414e-06 7.2031196e-07 5.0609674e-07 5.9205655e-07 9.824805e-07 1.4447012e-06
1.4673868e-05 4.8869624e-06 1.5238346e-05 1.3059922e-05 1.4342678e-05 2.7496584e-05 2.6430076e-05 2.6686579e-05
1.5027509e-05 2.9554763e-05 7.3069345e-06 9.919055e-06 6.848903e-06 5.5532837e-06 6.0889793e-06 1.9574838e-05

exp_avg f4 [10]
00000000: 7feb 0abc 671c a53b f062 9f3b 15a6 8abc
00000010: 1868 1e3a 144e 13bb f7b5 a9bb 98f8 80bb
00000020: e11a fdbb b09a 603c
-0.008478998 0.005038786 0.004864089 -0.016924897 0.0006042733 -0.0022476958 -0.0051791626 -0.0039358847
-0.0077241515 0.013708755

exp_avg_sq f4 [10]
00000000: faca 2637 d308 3136 25aa 5e38 ff35 7438
00000010: eb5a 1635 cb2c 7538 f8fb c636 3de6 6736
00000020: 4d03 0d38 ac81 f838
9.94163e-06 2.6380192e-06 5.3087384e-05 5.822442e-05 5.601166e-07 5.845427e-05 5.930193e-06 3.4555699e-06
3.3620094e-05 0.00011849715

exp_avg f4 [10, 10]
00000000: 2b17 203b 3676 deb9 fcaa 313c 3abc c43b
00000010: 9f3f a63b 5dd9 113b 8b7b fdbb 9bfd 9ebb
00000020: 6a97 473c 00c7 6b3a 0c20 97bb 69c9 993b
00000030: 2aaa df3a b89e 22bb 8b0c e53a 3927 c939
00000040: 4711 b8ba 9449 6abb e45b b03a dd12 38ba
00000050: 8aa8 383b 49cd fbba c91c 62bb 4311 9bba
00000060: 52bd 9abb a5d8 b5b9 678f 033b 03fe 8c3b
00000070: 2cb3 0bbb 5edd b6ba 0c20 2b3b 1e5e 16bb
00000080: 1c8f 193b 2ef0 263b 9e78 54b8 451a 2939
00000090: 7ef5 4439 8d99 f43a e78c 013b 7f1a d739
000000a0: 08db e8ba 82f4 233a 6b67 f4ba 9489 89ba
000000b0: 18d9 6c3a b64d 83ba 3d47 253a 44d8 9cba
000000c0: 53ba 15bb 99da 013a ac4b 493b 4337 bebb
000000d0: 998a 56bb adcd 303b b0af a3b8 2f23 68b9
000000e0: 8c8d 2339 661d 053b 2020 28bb 23cf 133b
000000f0: d280 44b9 fa58 f6ba bd11 8838 155c 7c3a
00000100: 7b26 bd3a 5654 5dbb 7569 4137 9f2a cf3a
00000110: dfe5 63b9 8a4d 1c3b a0ca 303b fb49 a5bb
00000120: bf49 cabb 17ab c039 0f6e 12bb 79d7 8939
00000130: 67ae 353b 3f27 783b 7334 c3bb e7d2 973a
00000140: 32b9 c03b d662 92bb c4b4 e23a d5ae c83b
00000150: abf6 feb8 b711 c93b 8f89 ffba 81bd 99ba
00000160: 914f 323b 248a 13ba 73f3 81bb 24a5 8a3a
00000170: 67f7 debb f06d cbbb 64ef 14bb 41fd bbbb
00000180: 49a9 653b 1171 643b 8fee ddbb 4593 6b3a
0.0024427872 -0.00042431214 0.0108439885 0.0060038837 0.005073502 0.0022254803 -0.0077356747 -0.0048520095
0.012182096 0.0008994192 -0.0046119746 0.0046931994 0.0017064263 -0.0024813842 0.0017475052 0.0003836693
-0.0014043235 -0.0035749422 0.001345512 -0.0007021854 0.002817663 -0.001921096 -0.003450202 -0.0011830706
-0.004722276 -0.00034684423 0.0020074488 0.0043027415 -0.0021316512 -0.0013951471 0.002611163 -0.0022944282
0.0023431247 0.0025472748 -5.0657072e-05 0.00016126882 0.0001878347 0.0018661484 0.0019767822 0.00041027737
-0.0017765472 0.0006254391 -0.0018646544 -0.0010493272 0.0009035035 -0.0010017667 0.0006304866 -0.0011966308
-0.0022846654 0.0004953533 0.003071527 -0.0058049276 -0.003273642 0.002697806 -7.80517e-05 -0.00022138351
0.00015597622 0.0020311712 -0.0025653914 0.0022553883 -0.00018740006 -0.0018794828 6.4882894e-05 0.00096267584
0.0014431024 -0.0033772192 1.152825e-05 0.0015805549 -0.0002173404 0.0023849928 0.0026976243 -0.0050442195
-0.006173342 0.00036748566 -0.0022343432 0.00026291216 0.002772236 0.003786519 -0.00595718 0.001158324
0.005881452 -0.0044673486 0.0017296304 0.006124357 -0.00012157609 0.006136145 -0.0019495952 -0.001172945
0.002720807 -0.00056281895 -0.003965789 0.001057778 -0.006804395 -0.006208174 -0.0022725696 -0.0057369773
0.0035043529 0.0034857432 -0.006772823 0.00089864834

exp_avg_sq f4 [10, 10]
00000000: 64e8 b137 4926 1338 99ff 6938 6132 d737
00000010: 7cc0 b837 7218 2f38 2860 cc37 5fd0 5737
00000020: e386 e237 7f91 c637 fb16 8836 5749 b436
00000030: 157a b336 83eb 0e36 db2f 2d37 8130 a537
00000040: 907d 0536 d000 fa35 e6e2 a736 b015 df36
00000050: 0801 ab37 2fca 6b37 26db e536 d33f 2d37
00000060: 2873 2238 0ed9 6d37 2a3a f536 47ae 0537
00000070: 17b2 0637 1ee8 d037 add7 8636 f85e 0337
00000080: 99b3 6c36 a66f 4736 4bbf 3636 ed5a c036
00000090: f549 a635 2750 0c36 1bcd 2336 1d92 0c36
000000a0: 644e 2436 eb24 9236 41cc 5536 0445 ca35
000000b0: 0285 c236 40b0 ce36 e444 a135 e417 2f35
000000c0: 8fc9 3d35 d677 ab36 4b70 b236 0c87 8037
000000d0: c53a a637 06c3 cc36 a335 ca36 0629 1c37
000000e0: a129 6436 68cf e335 5319 dd36 0c58 2a37
000000f0: c86f e836 4f78 7337 47b8 3737 9656 cc36
00000100: a721 1e37 716a 1338 e0c4 c536 7170 bd36
00000110: d2b9 d535 07fc 2837 a262 cf36 64c2 3f37
00000120: 8912 ad37 0896 ca36 731b 2437 f57e 7437
00000130: ec56 7d36 3adc 6c36 cfad 5437 e7a5 1e37
00000140: 028c 2237 8090 3237 4510 9f36 56df 2f37
00000150: 40b0 2037 8aa7 7c38 42a1 9437 337e 3e37
00000160: 19fd 8536 ed13 0337 4748 9237 e40d 8437
00000170: 50b1 aa37 1301 a237 a899 7a37 d8ad 6838
00000180: e798 d337 f04e 9537 0a2a 4137 5af9 2337
2.120826e-05 3.5083187e-05 5.5789573e-05 2.5653457e-05 2.2024142e-05 4.1746018e-05 2.4363471e-05 1.2863514e-05
2.7004111e-05 2.3671191e-05 4.055791e-06 5.372956e-06 5.348828e-06 2.1296735e-06 1.0322746e-05 1.969212e-05
1.9891631e-06 1.8626688e-06 5.0034023e-06 6.6484426e-06 2.0385269e-05 1.4054166e-05 6.850244e-06 1.0326464e-05
3.8731057e-05 1.4176838e-05 7.30834e-06 7.967995e-06 8.028487e-06 2.490362e-05 4.018619e-06 7.83032e-06
3.527128e-06 2.9718299e-06 2.723146e-06 5.732631e-06 1.2389488e-06 2.090828e-06 2.440828e-06 2.0946675e-06
2.4483534e-06 4.355437e-06 3.1858365e-06 1.5070259e-06 5.7971347e-06 6.1597966e-06 1.2015485e-06 6.5227346e-07
7.0701293e-07 5.110148e-06 5.317886e-06 1.5321675e-05 1.9816109e-05 6.1023775e-06 6.0263133e-06 9.307876e-06
3.3998879e-06 1.6973181e-06 6.5892614e-06 1.015329e-05 6.927152e-06 1.451194e-05 1.0950555e-05 6.0897537e-06
9.425369e-06 3.5146662e-05 5.893977e-06 5.645729e-06 1.5923818e-06 1.007226e-05 6.180563e-06 1.1429747e-05
2.0631838e-05 6.037535e-06 9.781553e-06 1.4573093e-05 3.7750533e-06 3.529493e-06 1.2676653e-05 9.456161e-06
9.688551e-06 1.0643271e-05 4.7404633e-06 1.0482812e-05 9.57778e-06 6.0237515e-05 1.7718066e-05 1.1354266e-05
3.9931733e-06 7.812848e-06 1.7438213e-05 1.5742095e-05 2.0348147e-05 1.9312405e-05 1.4936937e-05 5.5475015e-05
2.522436e-05 1.7798942e-05 1.1513484e-05 9.773614e-06

exp_avg f4 [10]
00000000: cc20 b13c 98f0 c8bc fcfd 3e3c b295 c63c
00000010: a8a8 81bc b63e 7b3c 63aa afba ff51 543c
00000020: aa30 243d 1020 0cbd
0.021622084 -0.024528787 0.011657234 0.024241302 -0.015827492 0.015334776 -0.001340222 0.0129590025
0.040085472 -0.034210265

exp_avg_sq f4 [10]
00000000: 7751 273a c4e2 3e39 e059 5538 ffca 8338
00000010: a92b 9438 14e2 9e38 7c51 8e39 6a2e 4238
00000020: 9527 203a 4e2c 503a
0.00063826836 0.00018204289 5.086686e-05 6.284378e-05 7.065322e-05 7.5761374e-05 0.0002714506 4.629643e-05
0.0006109414 0.0007941172

exp_avg f4 [5, 10]
00000000: d349 1abb 9048 fe3b 7bc8 f1bb c01c d13a
00000010: 017e aa3b 1b02 60bb b5d7 61bb 6ee6 b3ba
00000020: 97a5 9a3b 4ac0 e0b9 a26e 39bd ada8 43bc
00000030: acd3 c2bb 47be 25bd 0316 2b3d 3b12 07bd
00000040: c816 24bd 7d18 803c 7518 423b 58ef ca3b
00000050: 616b a6ba b7ef 8fbb 7cdd f039 aa71 16bb
00000060: c06e 4cbb 536d 4b3b e168 0dba 6147 6d3b
00000070: d8d2 61bb e7cd d5b9 d167 823c 7d0a b43b
00000080: f212 f738 d70e 183c c185 20bc 94cf db3b
00000090: 3dc4 ea3b 6c2e 17bc ced7 5b3b 241e b5bb
000000a0: c4b4 d23c 0d43 303b f8ec 433c a835 833c
000000b0: 19df 9dbc 8728 2c3c e49d 873c cb7d 0ebc
000000c0: 52db 7a38 db41 c138
-0.0023542538 0.007760115 -0.0073786355 0.0015954003 0.005203009 -0.0034180942 -0.0034460847 -0.001372529
0.004719447 -0.00042867876 -0.045271523 -0.011942071 -0.0059456434 -0.040464666 0.04176904 -0.03297637
-0.04006079 0.015636677 0.0029616628 0.006193083 -0.0012696796 -0.00439259 0.00045941386 -0.0022955933
-0.0031193942 0.0031040504 -0.00053943513 0.0036205875 -0.0034457948 -0.00040779935 0.015918644 0.0054944144
0.00011781407 0.009280882 -0.009797514 0.006708095 0.0071645067 -0.009227376 0.0033545378 -0.0055272747
0.025720961 0.0026895434 0.011958353 0.016016796 -0.01927142 0.010507709 0.01655478 -0.008696984
5.9808903e-05 9.215224e-05

exp_avg_sq f4 [5, 10]
00000000: 913a d437 e6cc 8e38 ccc0 ff37 5892 b638
00000010: e8e1 0f38 fe64 6138 a95e 7f38 347b 7737
00000020: 1e4f 8337 ac1f 4b37 82eb 093a 2049 c538
00000030: 4466 7938 18a0 4239 02f5 9f39 ae4e 4639
00000040: d57a 7139 8e3f 7038 daf8 9337 6f5b 7837
00000050: 83b8 6b38 5a28 8e37 54d7 c837 0fed f037
00000060: 11e5 3237 8ddd 8f37 514a db37 5072 0d37
00000070: a4c0 e637 5751 1638 6966 2e39 9a92 8738
00000080: 4592 d337 c8b3 9438 0ed6 e938 201b ca38
00000090: 2718 9538 f816 0c38 95f0 ad37 d227 fd37
000000a0: 1f94 2e3a 4f37 0b39 b6e2 1039 6d9d 2a39
000000b0: 2635 5939 80f9 d838 2b54 4839 6852 8638
000000c0: b1e2 1238 90ca 0139
2.5299641e-05 6.809253e-05 3.0488147e-05 8.705695e-05 3.430425e-05 5.3738237e-05 6.0884897e-05 1.4751033e-05
1.5653259e-05 1.2107117e-05 0.00052612287 9.4073126e-05 5.946147e-05 0.00018560921 0.00030509388 0.00018912062
0.0002302931 5.727965e-05 1.7639646e-05 1.480324e-05 5.6200206e-05 1.694651e-05 2.3942128e-05 2.8720619e-05
1.066296e-05 1.7150096e-05 2.614144e-05 8.43087e-06 2.7507842e-05 3.583854e-05 0.00016632084 6.464608e-05
2.5221272e-05 7.090677e-05 0.000111501766 9.637163e-05 7.1093724e-05 3.3399992e-05 2.0735237e-05 3.0178493e-05
0.0006659645 0.00013276677 0.00013817367 0.00016271109 0.00020714532 0.000103461556 0.00019104841 6.404967e-05
3.5020235e-05 0.00012377859

exp_avg f4 [5]
00000000: 2702 1f3c 8c3f 0c3e cd70 48bb 5e12 16bd
00000010: 732c 87bd
0.009705103 0.13696116 -0.0030584813 -0.03663861 -0.06600275

exp_avg_sq f4 [5]
00000000: 28f1 1c3a 156d 913b d6ff 9839 c2a1 cb3a
00000010: ac47 8d3b
0.0005986863 0.0044380524 0.00029182312 0.0015535878 0.0043115225

exp_avg f4 [31, 5]
00000000: 3005 a43b c587 cd3b e90c 3a3c 8cbe dabb
00000010: 7c61 0ebc e9f3 bd3b dff9 473c 2b5e c93c
00000020: 666b 84bc e446 65bc 8734 303b f47a c43b
00000030: ec12 143c df05 c0bb d068 b0bb 49b8 0a3c
00000040: 773d 0d3c 8c3c 8f3c 7f26 21bc 53aa 63bc
00000050: c2ae 933b ccd2 b43c 0f2f 073d 2399 b5bc
00000060: 5552 43bc 700e 9cba 6560 373c 306c 8f3c
00000070: f72d 59bc 66ab 4bbb f3c0 d039 7324 523c
00000080: 52f3 a73c d8b7 7cbc 8d83 debb 7aee 9f3b
00000090: 0eda aa3c 7012 073d 0dff bbbc 8366 71bc
000000a0: 3c15 b9bb 83c8 7b3a 8076 3fbb fc48 06b9
000000b0: 60c9 053c 8ef5 b4bb da1e 583b 5ae8 a23b
000000c0: ff9e b4bb d85c 913b 8e2d f539 9679 dbba
000000d0: 6196 04bb 1b79 c23a 5f53 85b7 2c9d a3bb
000000e0: 80b1 25bc 296a 83bc 49fc 463c 7f79 303c
000000f0: bcd8 b03b 00bf ce3a 56ee 013c 13cd 8abb
00000100: 7372 14bc dbb1 023c 9678 843b e2f6 433c
00000110: 95f3 c5bb 1023 44bc b497 3439 3223 85bb
00000120: 1870 85bb f7b6 313b 1fe6 853a ec7d 49bb
00000130: 4a1b 86ba 9745 2a3b 566e 80bb e282 96b9
00000140: 9d78 2abb 0092 40bb bc0c 3139 ea51 3bbb
00000150: e4e8 e3ba 704e 7bbb bc71 30bb 4cc4 01bb
00000160: e675 6cba 7e35 ce3a fdb5 59bb f8a1 96bc
00000170: cc00 cdbc d7b3 903c 572a 2d3c 881e fc39
00000180: 150d e939 9006 f93b 85b9 b4bb bccc b5bb
00000190: f55a eb3b a86c 933c dbe4 f13c 4747 a3bc
000001a0: 7340 8bbc 2d14 143b a682 a73c 21fa 013d
000001b0: 03c3 bbbc 393f 44bc 580c 3c3b 9c16 353c
000001c0: 7f14 8a3c 6e7c 48bc d584 0ebc a79b 0b3c
000001d0: b503 523c aaad c23c 7b14 77bc b4c9 85bc
000001e0: 400e 283b 15ec 103d 954f 443d fa56 0cbd
000001f0: da9a 52bc 6698 1cba f3e4 d23c f354 123d
00000200: 271c d5bc f7a3 dabb 714d 8c3b 912f 003d
00000210: fd20 4c3d 5f9e 14bd a46f a7bc 012a 9d3a
00000220: d967 e13c 75a2 233d 0112 f4bc 8525 5bbc
00000230: d02f 973b f826 ad3c a6fb 073d f221 bfbc
00000240: ce30 58bc fe75 9a3a e416 f93c 7729 393d
00000250: 23cb 04bd aba7 43bc fd23 e6bc 827c 803b
00000260: 65f7 59bc 93b8 7cbb e26b d23c
0.005005501 0.0062722885 0.011355617 -0.006675547 -0.008690234 0.0057968986 0.01220557 0.024581036
-0.016164493 -0.013993952 0.0026886777 0.0059961025 0.009037714 -0.005860075 -0.0053835884 0.008466789
0.008620611 0.017484926 -0.009835838 -0.013895589 0.0045069167 0.022073172 0.033003863 -0.022167748
-0.011921485 -0.0011906158 0.011192416 0.017507643 -0.013255588 -0.0031077503 0.0003981661 0.012826073
0.020501766 -0.015424691 -0.0067905844 0.0048807235 0.02085593 0.032976568 -0.022948766 -0.014733913
-0.0056482833 0.0009604769 -0.0029214919 -0.00012806425 0.008165687 -0.0055224365 0.0032977373 0.004971546
-0.005512118 0.0044361167 0.00046763982 -0.001674461 -0.0020231234 0.0014837118 -1.5893658e-05 -0.0049931016
-0.01011312 -0.016041832 0.01214511 0.010771154 0.0053969305 0.0015773475 0.007930359 -0.0042358725
-0.00906049 0.007976974 0.0040426953 0.011960717 -0.006041 -0.01197125 0.00017222652 -0.0040630335
-0.0040722005 0.0027117112 0.0010215676 -0.0030745221 -0.0010231521 0.002598142 -0.003919403 -0.00028707745
-0.0026011833 -0.0029383898 0.0001688478 -0.002858276 -0.0017388132 -0.0038346313 -0.002692326 -0.001980084
-0.0009020254 0.0015732495 -0.0033220046 -0.01838778 -0.025024794 0.01766388 0.010569177 0.00048087933
0.0004445097 0.0075996593 -0.0055152797 -0.005548088 0.007182474 0.017996147 0.029528072 -0.019931449
-0.016998505 0.0022595034 0.02044804 0.031732682 -0.022920137 -0.011977964 0.002869388 0.011052754
0.016855476 -0.012236698 -0.008698662 0.008520997 0.012818267 0.02376445 -0.0150805665 -0.016331531
0.002564326 0.035381395 0.047927458 -0.034262635 -0.012854302 -0.0005973637 0.025743937 0.035725545
-0.0260144 -0.006672378 0.0042816927 0.031295363 0.049836148 -0.036283847 -0.020438977 0.0011990668
0.027515339 0.039949853 -0.029793741 -0.013375645 0.004613854 0.021136746 0.033198975 -0.023331616
-0.01319523 0.0011784432 0.030406423 0.04520556 -0.03242029 -0.011941831 -0.028093332 0.0039210925
-0.013303612 -0.0038562163 0.025686208

exp_avg_sq f4 [31, 5]
00000000: 30e7 1738 0b9f 4137 2429 1a39 2ccc 8338
00000010: 7ce6 5638 179e 9237 a8bb 6337 11b6 bf38
00000020: 10ff 1738 5bcd b037 de8d 1638 3a42 5337
00000030: 13c6 1d39 d53c 8638 a17a 4238 5007 2e38
00000040: b642 5037 ea27 2e39 bf28 9138 2e81 8338
00000050: ba78 7438 1212 3838 f69b 9639 d6b8 cd38
00000060: 5dfc 5738 457c 4a38 b8ab fe37 3e91 7a39
00000070: 4b97 be38 1ffc 1638 895a 4f38 6c82 fa37
00000080: 371e 8639 fd9f d738 ffb4 3938 a5d5 9638
00000090: 9aa3 4938 65ec c539 9988 1d39 c82b 9e38
000000a0: b1bb 6c37 f5fb 1637 4300 6438 d60f 9d37
000000b0: b38b 5937 91df 2b37 1c6f 1a37 2755 4238
000000c0: 616d 9237 98e4 0e37 5385 5537 7131 8436
000000d0: 17b4 4f38 f751 b437 de49 9737 e473 c437
000000e0: d882 2337 73ad af38 0744 5b38 6bd9 4738
000000f0: d10d ac37 513f 9436 f662 9b38 917e 0138
00000100: 17e5 0638 da57 b037 67b7 8e36 4a98 9c38
00000110: 459f 0038 b268 1038 9973 7d36 4f82 bd36
00000120: 3b67 2637 c5ca 8036 a9a9 0337 74ef 9837
00000130: a49c eb36 9b9f 8d38 8da8 e437 3f04 a937
00000140: 95e8 3f37 2417 5136 754b 2238 21b8 9337
00000150: 7ee7 9137 3303 9a37 e012 a436 4c81 8138
00000160: 4c18 de37 6975 ca37 84c1 8937 344c cc37
00000170: f0b8 b838 eebe 1f38 86e5 c437 46e6 3c37
00000180: 920e 8836 381b 4d38 8fbd 8f37 bc17 7b37
00000190: 5dee 6638 a329 0238 cb80 8c39 57b7 f238
000001a0: a46e 9d38 eb3f b737 60c1 1338 6bde 2839
000001b0: 19df 9038 248b 9437 0a0a 3838 c5a5 ac37
000001c0: 3462 5439 70ad ba38 ff07 6038 c037 5038
000001d0: 7dab a237 43d2 6439 c1ab c638 6431 9738
000001e0: a950 9a38 4760 cd38 a3c3 ed39 14fc 3439
000001f0: a992 6738 a463 7638 2d58 b038 ac81 c739
00000200: 5792 1e39 6326 0e38 f5d3 a738 b66b b038
00000210: 6a33 053a 81a5 5e39 c252 a538 4a83 aa38
00000220: 6859 9938 8a04 f239 78a8 4939 3a13 9e38
00000230: 0c39 1538 57f5 4b38 5cf5 6839 b2ed b338
00000240: 7ba3 cc37 81f3 7838 98f7 bc38 5a5c dd39
00000250: 5738 2e39 9edb 1f38 ce90 e638 773a d036
00000260: ef34 c538 4a56 b537 49a8 2439
3.6216516e-05 1.15407265e-05 0.0001470191 6.284597e-05 5.123623e-05 1.7478173e-05 1.35739465e-05 9.141502e-05
3.623875e-05 2.1076461e-05 3.589491e-05 1.2592e-05 0.00015046475 6.400949e-05 4.636741e-05 4.1491643e-05
1.24132985e-05 0.00016608802 6.921728e-05 6.2706284e-05 5.828657e-05 4.3885848e-05 0.0002872643 9.80959e-05
5.1495026e-05 4.8276288e-05 3.0359122e-05 0.00023895965 9.0880865e-05 3.5997593e-05 4.9436963e-05 2.9863055e-05
0.00025580983 0.00010281799 4.4276003e-05 7.192352e-05 4.80745e-05 0.00037750896 0.00015023573 7.542182e-05
1.41103965e-05 8.99936e-06 5.435968e-05 1.8723233e-05 1.2966734e-05 1.0244447e-05 9.204985e-06 4.633251e-05
1.745549e-05 8.517083e-06 1.2726831e-05 3.9396623e-06 4.9520368e-05 2.149584e-05 1.8035e-05 2.3418987e-05
9.7460215e-06 8.376958e-05 5.2277024e-05 4.7647784e-05 2.0510432e-05 4.4181147e-06 7.409409e-05 3.087387e-05
3.2161446e-05 2.1021744e-05 4.2532806e-06 7.467026e-05 3.066591e-05 3.442978e-05 3.7767225e-06 5.647809e-06
9.918406e-06 3.8383027e-06 7.847711e-06 1.8231316e-05 7.021781e-06 6.753133e-05 2.7258206e-05 2.0148347e-05
1.1438639e-05 3.1156897e-06 3.8694085e-05 1.7609507e-05 1.7393144e-05 1.835972e-05 4.889778e-06 6.175283e-05
2.6475776e-05 2.413495e-05 1.6421785e-05 2.435418e-05 8.808251e-05 3.808637e-05 2.3471901e-05 1.1259288e-05
4.054812e-06 4.8901158e-05 1.7135199e-05 1.4966292e-05 5.5058266e-05 3.1033192e-05 0.0002679884 0.00011573609
7.506952e-05 2.1845064e-05 3.5227626e-05 0.00016104586 6.90801e-05 1.7707767e-05 4.3878368e-05 2.058119e-05
0.00020254479 8.9014764e-05 5.341321e-05 4.9642986e-05 1.939176e-05 0.00021822103 9.4733674e-05 7.209441e-05
7.358316e-05 9.793095e-05 0.00045349923 0.00017260044 5.521128e-05 5.8743768e-05 8.408758e-05 0.0003805285
0.0001512257 3.389119e-05 8.0026606e-05 8.412397e-05 0.00050812087 0.00021233225 7.883228e-05 8.130686e-05
7.312262e-05 0.0004616122 0.00019231613 7.537608e-05 3.5577497e-05 4.8627462e-05 0.00022216648 8.579659e-05
2.4394822e-05 5.935459e-05 9.0106565e-05 0.00042221212 0.00016614921 3.811309e-05 0.000109942266 6.2056893e-06
9.403552e-05 2.1617063e-05 0.0001570295

exp_avg f4 [31]
00000000: 7231 d1bc cdee 56bd fb4d b2bc 6e89 18bd
00000010: 95a3 96bd aa67 18bd c3f6 33bd d86c 95bd
00000020: e367 8a3b b918 05bc 4c72 843b 5308 1f3d
00000030: 99dc 68bc eb86 c1bc 535c 173c b4a3 89ba
00000040: 56e8 6d3b 5b2e e93b 9043 713d 8d86 18bc
00000050: e078 87bd 89bc 92bd 80b5 22bd 5371 56bd
00000060: 1bd8 e2bd 2ea5 a2bd edf6 dcbd db6a b8bd
00000070: 0ad7 96bd c437 c9bd 4a49 753c
-0.025536273 -0.052473832 -0.0217657 -0.03724044 -0.073554195 -0.037208237 -0.043936502 -0.07296151
0.00422381 -0.00812357 0.0040419456 0.038826298 -0.014212751 -0.023623904 0.00923832 -0.0010501058
0.0036301813 0.0071161217 0.058902323 -0.009309423 -0.06614852 -0.071648665 -0.039723873 -0.05235417
-0.11076375 -0.07941662 -0.10789285 -0.09004756 -0.07365234 -0.098250896 0.014971087

exp_avg_sq f4 [31]
00000000: 6fa1 823a 370f 0e3a bbe2 863a 1848 8e3a
00000010: 24b8 e63a 5a1f cc3a e1e6 d93a e384 1f3b
00000020: a13b b539 d548 9a39 d8aa b139 ca60 263a
00000030: cbde fb39 472e fa39 ab92 8438 0c77 e239
00000040: d013 8239 dccb dc39 ee1b 1c3a 4d26 8e39
00000050: 061f ea3a df67 843a 40d1 b73a 9691 bf3a
00000060: 78c2 3b3b c0ca 233b c26e 513b fd63 463b
00000070: 870d bd3a 0139 2d3b b2d2 d939
0.0009966324 0.00054191373 0.001029096 0.0010855226 0.0017602486 0.0015573308 0.0016624593 0.0024340681
0.00034567437 0.00029427433 0.0003388736 0.000634682 0.00048040444 0.00047718195 6.3215695e-05 0.00043194776
0.00024810294 0.00042113557 0.00059550896 0.00027112887 0.0017862029 0.0010101757 0.0014024153 0.0014615532
0.0028649848 0.0024992675 0.0031956886 0.0030272 0.0014423587 0.0026431682 0.00041546446
