Cancer-senn/trial2/models/cancer/grad3_Hinput_Thdummy_Reg1e-02_LR0.001/checkpoint.pth.tar (torch_old, 36110 bytes, 34 tensors)

parametrizer.linear1.weight f4 [10, 30]
00000000: 5aa5 aebd 3187 0a3e 0991 cebd 9ac6 e9bd
00000010: 6e4f be3d 8a26 9f3d 19d6 7d3d 5a3f 12bc
00000020: b605 03be e82e dabd 1de6 dd3d c000 a83d
00000030: 3a69 38bd fde9 8f3b e710 32be edd1 f83d
00000040: ba0d 113e b4ba c1bd 0bed 83bd 2b47 0f3d
00000050: 2d07 053e bcf6 0cbe 61b7 3c3e b8ac dbbc
00000060: f365 24bc ae3f a9bd 2fa3 8d3d dd64 a23d
00000070: 34dd 6fbd aeb4 183e 79aa 4e3d 6223 6a3d
00000080: f691 41bd bc0f 883b 6316 203e 07a4 8c3d
00000090: f1b1 db3d a410 b3bc 6d84 0a3c 2f54 0b3e
000000a0: b027 533d cc87 65bc 8249 fabd 426a 8a3d
000000b0: 1fcb d33d caac 8e3d 2860 ec3d 9fd3 e2bd
000000c0: a772 d73d 04d0 d43b 7ea2 91bd 7dab f43c
000000d0: 5d54 b7bd e764 7e3d 5c59 fe3d e236 703b
000000e0: 3915 4dbd 2f02 30bc 3a2b e53d 2f4f fdbd
000000f0: ecb0 06be c4ad 173c cdfa fd3c 459f 403c
00000100: eec0 343d 75ae 2cbe 7bae 0e3d 6a40 a63c
00000110: 84e7 48be eefb 84bd c98b a0bc 3e15 a6bd
00000120: a548 3c3e 1967 7bbc c671 10be d2da 74bc
00000130: e37e 153d 105d 9e3d e8fe 8cbd c613 b33d
00000140: 089c 16bd 9b26 063e 977b 633d af33 483e
00000150: 6475 07be a7b7 bfbd b73b 1abe 9663 25be
00000160: 624c 0f3e 7596 143d c0ab 3ebe 3051 37be
00000170: 055a 19be 2ca7 7fbd 2885 6c3d 0c21 03be
00000180: 6f22 83bd 7f87 50be d4e2 883d 0676 743d
00000190: 53eb 20be fb24 ccbd 42ed fe3d 3406 febd
000001a0: a41c cebd c44b 37be 92ab 54bd e0d7 21bd
000001b0: c599 0fbe 0b10 47bd ad24 13be cc4c cfbd
000001c0: 0fc2 0ebe f94f efbc 8519 533e f358 18be
000001d0: aadc bcbc 74eb 903c d55c ffbd 647f cc3d
000001e0: 11d6 0abe db73 17be cad2 e53d 2fbd 1a3d
000001f0: 1cf0 0cbe 3d0c 843d e82e 31be b9c4 cdbd
00000200: ec89 c83d eae5 f83d 2937 a23d e19a 22bd
00000210: 5d50 523d 43d6 28be 3089 dfbd 2510 b6bb
00000220: 2a3b b63c fd3a e63c dab2 7d3d 8eed 953c
00000230: a0e2 4cbe 75a3 19be 058e 8d3d a2db 183e
00000240: 24e9 ffbd b20c 09be c9e2 2a3e 2517 083e
00000250: 07ab 313d 8c42 53bd e133 0d3e 6d97 3dbe
00000260: d366 2b3d ace3 f53d 2d8d e3bd f068 2abe
00000270: 5a02 d5bd 16fc 20be b3f3 b4bc 0839 483e
00000280: 283f bd3d e187 acbd c33f d93c 3c4b fbbd
00000290: 6140 2dbe 675d 5cbd 987a babd a7c4 313e
000002a0: 1d8a 383d 0e5e ff3d 1b7c dfbc 9cd3 a2bb
000002b0: 1566 f03c d593 1cbd 6fdf 8bbd 3817 e23c
000002c0: 0c20 d1bb 6759 de3d e429 353e 4b49 9ebd
000002d0: 9dcd 5b3d 9e61 a03d e3a1 013e 3754 543e
000002e0: dbc7 f73d 3c08 0c3d a6dd c6bd 951c c53c
000002f0: 8548 bd3d a1c5 683c f7b8 343c 1fcf 003e
00000300: d30e 183e ff72 49bd 6e49 2dbd 7aab f63d
00000310: 1f08 f53c 6250 e5bd 6a84 f73d 5a82 febd
00000320: f816 2ebd 20cc 1fbd 7e7b 313d 8e32 b93d
00000330: 1c96 923d d05f ff3d 575d 36be 0ee0 47bd
00000340: fd60 013e 9ff1 c53d 0757 1a3e cf8c af3d
00000350: 62fb 09be 576f abbd b879 1e3d 724b 49be
00000360: e095 a9bd 7b82 913d 8385 153d a356 353c
00000370: 88c4 453e 8571 5d3d d933 273e de28 27bd
00000380: f8f0 573d 6175 3c3d 539b 65be 1d18 c7bd
00000390: e76b d3bd 7fdb 29bd a52a 06bd 6a18 543c
000003a0: a37f 273e ae6f b53d ac38 00be ae0e 1e3e
000003b0: da0f 03bb d675 30be 4bdd 9b3c e5f3 6e3d
000003c0: a53c 183d 49bc 903c 6d71 19bd 8e0b 22be
000003d0: 12fe eabd 5166 c2bd a450 133e 10a5 853d
000003e0: 81d7 e0bd 4c6c 8cbc 7ed6 4a3d b851 6f3d
000003f0: 63cc 37be 7a55 12be 5c15 c0bc b111 133e
-0.08527632 0.13528134 -0.10086257 -0.11414833 0.09292494 0.077710226 0.061971758 -0.008926237
-0.12795147 -0.10653478 0.10834906 0.08203268 -0.045022227 0.0043919072 -0.1738926 0.12149415
0.14165393 -0.09459439 -0.06441697 0.03497998 0.12991019 -0.13765997 0.18429329 -0.026815757
-0.010034072 -0.08264099 0.069158904 0.079293944 -0.058560565 0.14912674 0.050455544 0.05716265
-0.04725834 0.0041522663 0.1563354 0.06867223 0.10727299 -0.02185852 0.008454424 0.13606332
0.05155152 -0.014009427 -0.12221052 0.06758548 0.10341477 0.06966551 0.11541778 -0.1107552
0.10519915 0.006494524 -0.07111071 0.029866928 -0.08951638 0.062107947 0.12419388 0.0036653806
-0.050069068 -0.010742708 0.111898854 -0.12368619 -0.13153428 0.009257738 0.03100338 0.011756723
0.044129305 -0.16863425 0.034834366 0.020294387 -0.19619566 -0.06493364 -0.019597905 -0.081095204
0.18387087 -0.015344405 -0.14105901 -0.014944749 0.03649796 0.07732594 -0.06884557 0.08744006
-0.036769897 0.13100664 0.055537786 0.19550966 -0.13228375 -0.09361201 -0.15061842 -0.1615127
0.13993981 0.0362763 -0.18620205 -0.17902064 -0.14975746 -0.062415287 0.057744175 -0.12805575
-0.06403052 -0.20364188 0.06683889 0.05968287 -0.15714769 -0.09967991 0.12447597 -0.12403527
-0.100640565 -0.17899996 -0.051921435 -0.039512515 -0.14023502 -0.048599284 -0.1436946 -0.1012207
-0.13941215 -0.029212939 0.20615204 -0.14877681 -0.02305444 0.017690398 -0.12468878 0.09985235
-0.13558222 -0.14790289 0.112218454 0.037778076 -0.1376347 0.06447647 -0.1730305 -0.100472875
0.097919315 0.121532276 0.07920677 -0.039698485 0.05134617 -0.16487984 -0.10914838 -0.005556124
0.022245008 0.0281043 0.061938144 0.018301751 -0.20008326 -0.1500376 0.06911854 0.14927533
-0.1249564 -0.13383749 0.16688074 0.13290079 0.043375995 -0.051577136 0.13789321 -0.18514796
0.041846108 0.120063156 -0.111109115 -0.16641593 -0.10400839 -0.15721163 -0.022088861 0.19553006
0.09240562 -0.08424354 0.026519662 -0.12270209 -0.1691909 -0.053800013 -0.09105414 0.17360173
0.04505359 0.124691114 -0.027280858 -0.0049690735 0.029345552 -0.03822692 -0.06829726 0.027598962
-0.006381994 0.10856896 0.17691761 -0.07728823 0.053662885 0.07831119 0.12659411 0.2073525
0.12098666 0.03418754 -0.09710245 0.02406148 0.09242348 0.014207275 0.011030427 0.1257901
0.14849405 -0.049181934 -0.042306356 0.12044425 0.029911099 -0.111969724 0.12085803 -0.12427206
-0.042502373 -0.03901303 0.043330662 0.09042846 0.07157537 0.12469447 -0.17809044 -0.04879766
0.12634654 0.09665226 0.15072261 0.08571779 -0.13474801 -0.08370846 0.0386903 -0.19657686
-0.082805395 0.07104965 0.03650428 0.011068019 0.19313252 0.05406334 0.16328372 -0.04081046
0.05272004 0.04601038 -0.22422533 -0.09721396 -0.10323315 -0.041469093 -0.032755513 0.012945274
0.16357283 0.08859192 -0.12521619 0.15435287 -0.0019998462 -0.17232451 0.01902642 0.058338065
0.03716721 0.017667906 -0.037461687 -0.1582472 -0.11474241 -0.094921716 0.1438623 0.06525624
-0.10978604 -0.017141484 0.049520962 0.058427542 -0.17949061 -0.14290419 -0.023447685 0.14362217

parametrizer.linear1.bias f4 [10]
00000000: cae3 eebc f850 e23c 590c 19be 1558 9d3d
00000010: e308 a23d d688 b8bd 9225 293b e000 4f3e
00000020: 8a5f 0ebe ba1a c73d
-0.029161353 0.0276265 -0.14946117 0.07682816 0.07911851 -0.090104744 0.0025809747 0.20215178
-0.13903633 0.097218946

parametrizer.linear2.weight f4 [10, 10]
00000000: 6c38 4abe 60c3 853e fb17 83be f1a5 563d
00000010: 2ac5 79bd 3eba c83c 885f f3bd 33fe e2bd
00000020: 16f9 583d 42d1 623e 52c4 1e3d 20f2 b7bc
00000030: 1a1d a5be c2db 3a3e a2b2 d9bd 9f52 8dbd
00000040: bf98 04bd 4ec8 7b3e fc8e 3bbe 30ec 6d3e
00000050: 9e2b 86be d47b d4bd 6e03 843e 8637 843e
00000060: 848f 013e a7b9 753e ae50 1e3d db20 703e
00000070: 2fb2 42be 2c76 b63d b77b 4d3e edb6 efbd
00000080: 0149 72be 4be4 bebe a763 46be d929 bfbd
00000090: c1f2 5dbe 3ef1 c13c bcfc 893d a09d b93d
000000a0: 1a6f a23d fe9e fbbd 5211 31bc 2315 cebc
000000b0: 88ae 8c3e 3526 6e3d 1a59 9c3d 74c7 35be
000000c0: 02bf b13d cc1b abbe 5724 8ebe e00a 553e
000000d0: 1a02 f2bd fe84 11be f663 6ebc b0f1 3bbe
000000e0: fe28 c2bd 362a 4e3e 64c9 38be b270 523e
000000f0: 2166 45ba 5e23 95be 5aeb 3f3e e5ee 113e
00000100: 2c8c 79be 23f0 af3e 17fd bdbd 9263 2e3e
00000110: e8dd 52bd 712b 33be 7cba 6abd a6a1 7ebe
00000120: eca2 e1bd ecf7 783e 4110 a8be 1234 0dbe
00000130: fd63 d73c 047e 17be aa20 003e 24f6 0f3e
00000140: 6514 123e f84f 323e ec87 793e 341c 3b3e
00000150: 0672 8e3e b472 573c 02fe 703e 11ac a83e
00000160: b7b9 bf3d bee4 88be d7c6 59bd 1037 8fbe
00000170: 7646 27be 3f14 633d c4ea e4bd a3b9 923e
00000180: 8ea9 02be 2281 14be f056 8c3e 1d67 1cbd
-0.19748086 0.26125622 -0.25604233 0.052404348 -0.060979046 0.02450287 -0.118834555 -0.11083641
0.05297192 0.22150138 0.038761444 -0.022454321 -0.32248765 0.18247893 -0.10629775 -0.06900524
-0.032372233 0.24588129 -0.18316263 0.2323463 -0.26205152 -0.10375181 0.25783867 0.2582361
0.12652403 0.23996602 0.03865116 0.23450033 -0.19013284 0.08909258 0.20066725 -0.11704812
-0.23660661 -0.3728355 -0.19373952 -0.09334154 -0.21674635 0.023674604 0.067376584 0.09063268
0.07931347 -0.12286185 -0.010807352 -0.025156563 0.27476907 0.058141906 0.07634182 -0.17751867
0.0867901 -0.33419645 -0.277621 0.2080493 -0.11816807 -0.14210889 -0.0145502 -0.18353915
-0.09480475 0.2013329 -0.18045574 0.20550802 -0.0007530172 -0.29128546 0.18742123 0.14251287
-0.24369878 0.34362897 -0.09276789 0.1703017 -0.051481158 -0.1749704 -0.05730675 -0.24866351
-0.11017403 0.24313325 -0.328249 -0.13789394 0.026292795 -0.14794165 0.1251246 0.14058739
0.14265592 0.17413318 0.24368256 0.18272477 0.27821368 0.013149906 0.23534396 0.32943776
0.09361594 -0.26737016 -0.053168144 -0.27971697 -0.16335472 0.05543923 -0.111775905 0.28657255
-0.12759992 -0.14502385 0.27410078 -0.038184274

parametrizer.linear2.bias f4 [10]
00000000: 2c59 2a3e 79c8 8a3e 5176 b63c 235a 883d
00000010: 7c31 a93e 6cdd a93d 7e3a 83be 4767 bfbd
00000020: 46c1 0bbe bcce 703e
0.16635579 0.27106073 0.022273215 0.06657817 0.33045566 0.08294186 -0.25630563 -0.093458705
-0.13647947 0.23516363

parametrizer.linear3.weight f4 [5, 10]
00000000: 7df8 84be 8575 743e 9b21 603b 0f92 1e3e
00000010: cd54 57be b5b4 8c3e 9679 4f3c e56c 473d
00000020: cd3d 98bd 8622 0bbe 2f78 a1be a875 703e
00000030: b07d 3dbe b5c6 8abd 6202 f73d 9ff4 f53d
00000040: 8ed2 9e3e 4075 bf3c 1e75 5cbe a440 68be
00000050: e18b 783e 4c06 47be 2706 993d 8b3b 1a3e
00000060: 4d10 60be df01 a6be c710 43bc 9cfd 373e
00000070: 8f02 7ebe 32a8 bebd 19f5 04be d8a0 a6be
00000080: 4a68 9cbd eff9 743e dcf1 bdbe 45bb a0be
00000090: ac7b 783d 928b 4ebe 33b4 67be 9875 e23d
000000a0: 1287 83bd 6bb4 55be 1454 183d 4754 923d
000000b0: 5cb9 153d 57eb 493e bc74 32be 18ba 413e
000000c0: 48af 373e 0435 2cbd
-0.25970832 0.23872955 0.0034199718 0.15485404 -0.21028443 0.2748162 0.012663266 0.048687834
-0.074336626 -0.13587388 -0.31537005 0.23482382 -0.18504977 -0.067761816 0.12061001 0.120095484
0.31020015 0.023371339 -0.21529052 -0.22680908 0.2427211 -0.19435996 0.074718766 0.15061776
-0.21881218 -0.32423303 -0.0119058555 0.17967838 -0.24805664 -0.093094245 -0.12984122 -0.3254459
-0.07637079 0.23923467 -0.37098587 -0.31392875 0.060664818 -0.2017043 -0.22627334 0.110575855
-0.06422247 -0.20869605 0.03718956 0.07144981 0.036553726 0.19718681 -0.17427343 0.18918645
0.17937958 -0.042042747

parametrizer.linear3.bias f4 [5]
00000000: 5f24 8cbd 6396 2a3e 3597 86be ee76 023b
00000010: fbaf 4ebd
-0.06842875 0.1665893 -0.26287237 0.0019907313 -0.050460797

parametrizer.linear4.weight f4 [31, 5]
00000000: b075 493e 3c36 1e3e 6c82 c8bd 39b3 debe
00000010: c312 b8be 75a3 973d bc7b 3bbe a91b 183e
00000020: d0e3 16be 3703 163e e81b 91be ec57 babe
00000030: 42f5 043e 68f7 42bd 3881 733e 780b bf3e
00000040: c49a ec3e 74e5 adbe 550a 5fbe 7bc0 aabe
00000050: 4087 bb3d dc14 96be d153 4f3e a2ee b53c
00000060: 0c34 403e f8b8 b4be 6597 94be a50c c0be
00000070: a05b 823d ae81 673e 1248 923e 54e1 9bbe
00000080: 5224 c33d 6519 9cbd bc13 863e 4149 923e
00000090: 95a8 b7be 68f6 443d 16bc 9ebe c923 e9bd
000000a0: 678b 83be a37e c03d bdb9 593d ab4d 91bd
000000b0: f1ec c13e e4d5 093e a8fa 93be 6332 ca3e
000000c0: b615 16be 19f7 0dbc c93a ef3a 5471 833d
000000d0: 2bb7 bc3e 6afc 303e 4d92 e9ba d984 cabd
000000e0: d5a9 bd3e 0544 cdbe cb87 62be febf e23d
000000f0: cf5b 883e f41e a33c 68e8 f73d 1a9b bfbe
00000100: a593 f5be e9e9 8c3e 15a6 a23e 244f d7be
00000110: 7467 ccbe 4f35 1cbd b3f8 0abe f91c b33e
00000120: 1222 a3be eba9 253d a616 7dbe 99c0 8ebd
00000130: df9c b93e b51f 95bd f2be d13e cabc a13b
00000140: 1e9a b53e 6672 b43e cd2d 57be d822 e9be
00000150: df59 93bd 2e55 a43e a36e 943e 0e35 c8be
00000160: a18a d5be 6d82 4b3e 4ed7 d3bd be85 69bb
00000170: e583 47be dc6e f53e b7e8 f2bd bfc1 b0be
00000180: 10a9 c0be c00b 47be bbd7 a03e ba6b 143e
00000190: d8b2 313e 12f0 8a3e cded d6be c16d cbbe
000001a0: f740 a33e 9daa e6be 158c b63d ceef efbe
000001b0: cdcf 65be c190 26be a39f 423e 30f6 93be
000001c0: eb58 153e e308 64be 7811 b3bd a00e 083e
000001d0: 3650 b03e 9612 70bd e8d9 c53e b864 723e
000001e0: ee7f aa3e ec17 e1bd 881f fdbe d63e a63e
000001f0: 66d1 0f3e 21bf 09be 33df f43e 0018 e7bd
00000200: 068f cbbe 8dbf 4b3c e162 b93e 6c73 a8be
00000210: c527 b8be 80f3 c0be 9218 08be 9e47 af3e
00000220: 35af 0a3e ee2b f4be 59b2 a73e 5ec1 903d
00000230: d731 1c3e 03e4 b13e 02b4 5abe c770 3539
00000240: 4c70 67be fe5f 43be 00f5 723e 5ae7 00bd
00000250: 9a49 d1be 6e08 dbbe 6d58 433e 07f5 d63d
00000260: fa4c c33d 2330 10be aa16 b33e
0.196738 0.15450376 -0.09790501 -0.4349611 -0.35951814 0.07404224 -0.1830892 0.14854302
-0.14735341 0.14649664 -0.28341603 -0.36395204 0.12984183 -0.047599226 0.23779762 0.37313437
0.46211827 -0.3396412 -0.21781285 -0.33349976 0.09156656 -0.2931279 0.20246817 0.022208516
0.18769854 -0.3529737 -0.29021755 -0.37509647 0.06365132 0.22608063 0.2857061 -0.3044535
0.09528412 -0.07622031 0.2618693 0.28571513 -0.35870805 0.048086554 -0.31002873 -0.113837786
-0.25692293 0.09399154 0.05315565 -0.07094892 0.37876084 0.13460499 -0.28902173 0.39491567
-0.1465672 -0.00866487 0.0018251772 0.064181 0.36858496 0.17283788 -0.001782009 -0.0988862
0.37043634 -0.40090957 -0.22122113 0.11071776 0.26632544 0.01991222 0.12104875 -0.3742302
-0.47964206 0.2752221 0.31767336 -0.42052567 -0.39922678 -0.038136777 -0.13571434 0.34983042
-0.3186193 0.04044525 -0.24715671 -0.06970329 0.36252496 -0.07281438 0.40965992 0.0049358355
0.35469145 0.3524353 -0.21013565 -0.45534396 -0.07194876 0.32096237 0.2899066 -0.39102978
-0.41707328 0.19873972 -0.103438005 -0.0035632695 -0.19483908 0.47936141 -0.11860793 -0.34522817
-0.37628984 -0.19438076 0.3141459 0.1449422 0.1735338 0.27136284 -0.41978303 -0.39732173
0.31885502 -0.45052043 0.08913437 -0.46862644 -0.22442551 -0.16266157 0.19006209 -0.28898764
0.14584701 -0.22269015 -0.08743566 0.13286829 0.34436196 -0.058611475 0.38642812 0.23671234
0.33300728 -0.10990891 -0.4943812 0.32469815 0.14044723 -0.13451816 0.47826537 -0.112838745
-0.39757556 0.012435806 0.3620825 -0.3290056 -0.35967842 -0.37685776 -0.13290623 0.34234327
0.13543399 -0.47689766 0.32753256 0.07068132 0.15253387 0.34744272 -0.2135773 0.00017303518
-0.22601432 -0.19079587 0.23726273 -0.031470634 -0.40876466 -0.4277987 0.190767 0.10495954
0.095361665 -0.14080863 0.3497823

parametrizer.linear4.bias f4 [31]
00000000: 11e1 27be bb25 46be 8c84 31be 4ea6 f6bd
00000010: b345 c73d 4eb7 bf3e 26de 5b3e d821 443d
00000020: b185 143e 252f 963e 50cd b33e 20a1 2ebe
00000030: 24c7 1a3d 9b47 47bd 51fe d83d efd1 6cbe
00000040: bd1f 8cbc 0d33 80be 3119 493e 06e9 0fbe
00000050: 6537 ff3d 04fe 22be bcfe 52be 0262 9e3e
00000060: b333 74bd f237 18be d583 80be b7d1 8fbe
00000070: 6a11 cb3e 4b87 a83e 5d75 1c3c
-0.1639445 -0.1935033 -0.17335719 -0.12043439 0.09730091 0.37444538 0.21471462 0.04788384
0.14504124 0.29332843 0.35117579 -0.17053652 0.03778757 -0.048652273 0.10595382 -0.23126958
-0.017104978 -0.2503895 0.19638516 -0.14053735 0.124617375 -0.15917212 -0.20604986 0.3093415
-0.059619617 -0.14865091 -0.2510058 -0.28089687 0.39661723 0.3291572 0.009549466

exp_avg f4 [10, 30]
00000000: eabe 723a 81a3 1ebb 2e5a 8c3a 2dcc 0d3b
00000010: 7b56 633b db61 503a fa1d 3e3b 20db 673b
00000020: 7c3f 8eba d4ff df3a 6254 26bb 4644 1ebb
00000030: 24b2 1abb 1956 faba ec24 d73b 10a0 df39
00000040: 0428 15ba 88e9 ecb9 2806 09bb ad25 413a
00000050: bf03 803a ccd6 62ba 4faf a33a d96f 043b
00000060: fc2a 043c 28f2 5f3a 6903 3b3b 7a17 813b
00000070: 1eb1 90b9 93c2 f23a ea3b 12bb 6033 193b
00000080: 4f35 28bb fbc4 83bb 768a ffba 2552 dcb8
00000090: ed19 afbb 0196 c5bb d015 8539 e82c a23a
000000a0: 1fba 783b cfbe ae3b 1b81 1c3b d7b4 163b
000000b0: a9c4 b4bb 1265 913b ca2c 973b d9ec 473b
000000c0: 3bd2 ad3b 9165 a83b 3230 0abb 8a09 973a
000000d0: ccdb 48bb ec5b 78bb c7e8 1abc 2e9a 04bb
000000e0: 3b08 b3bb 9a1d d1bb 1c25 453a d001 8eba
000000f0: c0c8 153b 5391 7dba d577 073b 05f7 453b
00000100: 39a1 fd35 5a3d a8ba 0e81 95b9 91d0 953a
00000110: 78f4 e9ba 33e3 e2ba 0e49 88ba eefc efba
00000120: fdc1 d9ba 76d2 dbb9 711c eb3a 38cb 50ba
00000130: c1ed a5ba 0d52 3839 e698 67ba 833b d0b8
00000140: 9afd 093b 2d4d 3337 f2cf e43a 8782 313b
00000150: 39a3 313b 1269 b3ba 8329 aa39 ab37 143b
00000160: 4ee2 8339 32ee ccba 2e70 4f3a e269 c93a
00000170: 563b 443a 0ab0 643a e22e 9bbb 4fe6 6139
00000180: 3c33 963a 7369 0db9 79f5 5eba d854 ff39
00000190: 871d 123b a774 2c3a ca71 443b f453 243b
000001a0: 0430 cfbb ed0a 313b eb1d 8e3b 9720 c63a
000001b0: 3023 46bb ea99 053b 6837 7e3a eadb 393a
000001c0: 1630 983a 7fe6 863a 73ea b3bb b7f9 c13a
000001d0: 99e1 103b 84d6 2f39 b028 07bb ffd6 f03a
000001e0: 91c5 483a 4471 4c3b 1a6c e938 c928 47b9
000001f0: 84d0 f8bb c557 beba f50c 9abb 1381 94bb
00000200: 4134 243a 2c1e 9d39 f791 f23b bc4f e43b
00000210: 0232 943b 3322 b93b 92bb c8bb 60f9 e63b
00000220: b312 043c 8125 933b 3b8d 8a3b 2fa6 343c
00000230: fd3f ee3a 9c54 fa3a f6d0 1139 9921 673a
00000240: 2e43 6abc d1be 99bb 2d6b c9bb e849 adbb
00000250: 6495 89ba 01a3 26bb 1ec4 a83c 94df 393b
00000260: 21bc a13c 0eaa c43c f6d7 8339 cbad 54bb
00000270: db07 bd3b 93cb 743c c0a9 1dbc 1d2d 82bc
00000280: b4dc 253b 0ec8 53bc cf80 2c3b 4e86 c93b
00000290: 7e3e ca3b a0a2 67bc 59c5 90bc 7daf f3bb
000002a0: 8ae5 20bc c693 88bc fb6c a53c 6f40 883b
000002b0: 34db 9e3c 2329 bb3c ebe5 6c3c a45f c5ba
000002c0: f4b7 a03b d958 7e3c 02d1 3dbb 35d9 0cbc
000002d0: 85af 28bb f4a7 153a 764e 29bb fa65 65bb
000002e0: 8e9d cabb 6e22 ef3a 1528 8cba 7352 41bb
000002f0: 270d 103b c662 913b 388b 723b a621 cf3b
00000300: de6d 3a3b 4a27 193b b7a2 d4bb 3ead 163c
00000310: 69a0 1b3c be86 b23b 34eb 513b 4308 373c
00000320: 8ac2 04bb 5013 93b6 1aa4 21bb 8464 3abb
00000330: 8b45 44bc f42c 3939 b57c f6ba a869 78bb
00000340: 10fa 1cb8 e2ce 253b 80f9 87bb 89ad 683c
00000350: ca5d 86bb d206 15bc 1368 10bc 4b91 113c
00000360: 8e90 15bb b4a7 d7bb 8c7c ce3b 256d e23b
00000370: 7b20 833c 76dc a73c f0d6 623c 1cf1 3b3c
00000380: c463 84bc bc4c 9d3c 560a 793c 100a 003c
00000390: af33 f63b 03b3 8c3c 0c14 edb9 f0b1 633c
000003a0: 9762 b3ba aea4 9abb 03c4 c8bc 33f3 013c
000003b0: 6582 e0ba 0f5d 06bc ede2 503b f8ad 153c
000003c0: 087f 543b f84f 93bb ce96 363b a434 d23b
000003d0: 54cc 933b 4cc4 1cbc ed5f 9abb 10d6 9539
000003e0: 9303 1dbc 198b 1abc e7be 26bc 56e3 54bc
000003f0: 6d38 27bc a0d0 dfbb 74af 283c 97f6 8abc
0.0009260016 -0.0024206343 0.0010708028 0.002163659 0.0034688998 0.0007949152 0.0029009567 0.0035378411
-0.001085266 0.0017089793 -0.0025379886 -0.002414958 -0.0023604715 -0.0019099145 0.0065656807 0.0004265313
-0.0005689862 -0.00045187422 -0.002090821 0.000736798 0.0009766741 -0.0008653223 0.0012488159 0.0020208268
0.008066889 0.0008542859 0.0028535968 0.003939566 -0.00027597783 0.0018521122 -0.0022313544 0.002337657
-0.002566654 -0.0040212846 -0.0019496221 -0.00010505718 -0.0053436668 -0.0060298447 0.00025383988 0.0012373002
0.0037952734 0.0053328048 0.0023880664 0.0022995973 -0.005516608 0.0044370973 0.0046134936 0.0030506162
0.0053046024 0.005139061 -0.0021085856 0.0011523229 -0.0030648587 -0.0037896587 -0.0094549125 -0.00202335
-0.0054636276 -0.0063817026 0.00075204833 -0.001083428 0.0022855252 -0.0009672839 0.002067079 0.003020705
1.8896891e-06 -0.0012835667 -0.00028515648 0.0011429955 -0.0017849347 -0.0017310142 -0.0010397749 -0.0018309632
-0.0016613599 -0.0004192774 0.0017937553 -0.0007964852 -0.0012659357 0.00017578174 -0.00088347343 -9.929298e-05
0.00210557 1.06872e-05 0.0017456992 0.0027085857 0.0027105345 -0.001368793 0.00032455855 0.0022616189
0.00025154877 -0.0015634953 0.00079131394 0.0015366639 0.00074856484 0.00087237416 -0.0047358135 0.00021543469
0.0011459361 -0.00013486091 -0.0008505206 0.00048700604 0.0022295432 0.0006578662 0.002997505 0.0025074454
-0.0063228626 0.002701457 0.0043370626 0.0015115914 -0.0030233376 0.002038593 0.0009697587 0.00070899597
0.001161101 0.0010292082 -0.005490595 0.0014799152 0.0022107123 0.00016769214 -0.0020623617 0.0018374621
0.0007658834 0.0031195441 0.00011130441 -0.00018993313 -0.0075932164 -0.0014522007 -0.0047012516 -0.0045319884
0.000626389 0.00029967853 0.0074026543 0.006967513 0.004522563 0.005649829 -0.0061258757 0.007048771
0.008061099 0.004490555 0.0042282618 0.011025949 0.0018177029 0.0019098702 0.00013906122 0.0008816957
-0.014298243 -0.0046919365 -0.0061468096 -0.0052883513 -0.0010496792 -0.0025426748 0.020601328 0.0028362023
0.019743027 0.02400687 0.0002514717 -0.0032452221 0.0057687587 0.014941114 -0.009622991 -0.015890652
0.0025308551 -0.012926115 0.0026321893 0.0061500436 0.0061720004 -0.014137894 -0.017672228 -0.0074366913
-0.009820351 -0.016672026 0.020193567 0.0041580717 0.019391634 0.022846764 0.014459114 -0.001505841
0.0049047414 0.015524113 -0.002896369 -0.008596708 -0.0025739383 0.0005708926 -0.002583412 -0.003500341
-0.0061833328 0.0018244514 -0.0010693098 -0.0029498606 0.0021980496 0.0044368235 0.003700925 0.00632115
0.0028446834 0.0023369365 -0.0064891237 0.009196578 0.009498694 0.0054481914 0.003203106 0.011171403
-0.0020257556 -4.3831897e-06 -0.0024664463 -0.002844126 -0.011979471 0.00017659721 -0.0018805476 -0.0037904773
-3.7426187e-05 0.0025300314 -0.0041496158 0.01420153 -0.004100536 -0.009095864 -0.008813876 0.008884738
-0.0022821757 -0.006581271 0.0063014682 0.0069099837 0.016006699 0.020490866 0.01384519 0.011471059
-0.016160853 0.019201629 0.015200218 0.007814899 0.0075134854 0.017175203 -0.000452191 0.013897404
-0.0013685998 -0.0047193384 -0.024507528 0.007931518 -0.0017128704 -0.008200898 0.003187354 0.009135716
0.003242435 -0.004495617 0.0027860883 0.0064149667 0.004510442 -0.009568285 -0.0047111423 0.00028578984
-0.009583372 -0.0094325775 -0.010177351 -0.012993654 -0.010206324 -0.00683029 0.010295738 -0.016963286

exp_avg_sq f4 [10, 30]
00000000: 085d 6a37 f78b 3536 4550 5937 009f 6237
00000010: 3585 7136 674f f735 4ed7 8036 afc5 bb36
00000020: 447a 9736 e62d 3937 31cc 1837 7eb9 7337
00000030: 5609 3037 78fa 4437 66e0 ff37 08df c436
00000040: 8c7b 9136 8d83 5737 8668 2d37 0ef4 c436
00000050: dd6c 5e37 8382 7a36 38a1 4637 c540 6237
00000060: f9df 0037 913a 3936 06c9 4f36 d39a c036
00000070: 1c8b 9536 213c cc36 c6e7 0739 77a5 9b37
00000080: 98f7 0e39 70db 3239 bc98 1738 d9dc 9b38
00000090: 8a92 1039 f585 2e39 41b0 d337 3559 a437
000000a0: 76c9 ce38 2eaf ec37 2ca4 0539 54a5 0239
000000b0: cab5 8937 2b78 3e38 0571 3038 d26c da38
000000c0: 2818 c037 196a bb37 dd40 fd38 c92f b337
000000d0: b1d2 0639 28b8 2539 189e 3e38 c036 4638
000000e0: 2e8e 9138 56d1 e438 2ca1 cc37 32b6 a537
000000f0: 4ff7 2c38 ffa6 f036 444a 2c38 9dc0 6938
00000100: 478e 9237 ba62 8237 bdb0 ba37 f4a4 0738
00000110: 55ed c736 23c0 ee37 69c4 f737 10b4 cc37
00000120: c2a8 2d38 6489 1a38 2d53 0c37 b8da 0a38
00000130: 0596 a138 30ae 7738 9c82 4e37 9396 6738
00000140: 4f8b 2038 65c3 5a37 5c2c 1d38 7b0b 5e38
00000150: 0e27 8f37 5c09 4f37 a808 8137 9a51 b037
00000160: c5c1 2237 c126 7337 f8eb 0037 7f0d 5936
00000170: 97da f236 540a b636 008b e636 edfa 9c36
00000180: 21fc 8f36 f4bc 7e36 ed43 b935 8bc1 b736
00000190: 357f 2036 f90d ee36 3b08 2236 5713 2736
000001a0: 3f74 0138 4a31 cf36 0ab5 3737 58ac 0637
000001b0: 0291 6837 8640 e836 09cc d536 9a3b 9b36
000001c0: e0e1 cb36 6d96 8d36 fba1 1037 d755 d436
000001d0: a3c9 e636 e6c2 0337 576f 0536 d9d6 ca36
000001e0: 7737 7437 2ee8 0b38 c073 7637 86b4 8637
000001f0: f35f 8637 38cc d237 e865 c137 f9c4 ac37
00000200: 458f 4837 146f 3e37 15d0 1838 ed84 1b38
00000210: 9487 0138 1811 0d38 421c 4f37 2fb5 0138
00000220: 9faf 0338 05fb 2c38 1fff 8237 8289 b537
00000230: 4c19 7237 4089 0e38 3dbc 6737 4dd7 6c37
00000240: 70c5 ff37 81dd eb37 ba64 d737 fc88 d637
00000250: 8560 5937 627d b537 f0dd 193a fe5c 8a38
00000260: 5253 163a 1552 453a b064 9b38 a829 ae38
00000270: b96f 8e39 a09c ff39 f108 6a38 1934 4539
00000280: d44e c139 aa70 7238 7139 b939 1f8d f839
00000290: 4dde 8138 2406 b338 8db4 4139 f174 3139
000002a0: e17e 9438 fd8d 4139 569a 133a 16e7 8e38
000002b0: 61da 0a3a 54e4 3c3a 8aea bb38 86b3 4638
000002c0: 0c65 c638 b606 9239 3f95 9938 6ce0 9e38
000002d0: 7a91 bd37 b179 3037 298d b837 edb8 bb37
000002e0: 9bc1 8537 aa43 9437 bfb1 0f38 0be9 a837
000002f0: 2b53 e036 03f6 4838 aec0 2d37 4041 ce37
00000300: fe8b 0637 09b6 0d37 3481 d837 d2f0 8f38
00000310: 762b 5739 5490 ad38 2c82 7937 23d7 1739
00000320: 1018 9237 cc82 8337 b68f 9737 0f22 9a37
00000330: 0719 f037 c583 9e37 290f 0238 b3b8 f337
00000340: 0340 9336 da33 b037 6a9b 0a3a 46a2 c238
00000350: 3ef2 083a 17ed 2b3a a24e ff38 8985 3f39
00000360: 0609 c239 8f3e 023a b09c b238 ca0a 3e39
00000370: a9d7 8539 f4f2 d538 382b 8f39 3040 aa39
00000380: a00d c738 a36e 4739 c3d5 3d39 6d69 9039
00000390: 7ee8 ae38 baa2 fb38 fd98 f839 c721 1a39
000003a0: 14c5 f539 b8f3 193a e681 2639 84d2 2639
000003b0: 4266 6e39 2d77 c939 9107 e738 f867 e838
000003c0: 1e5f d738 3bb8 a637 58c9 cc38 d5ba fb38
000003d0: 2cf7 f337 93c1 3838 ea38 8b38 c8c2 9f38
000003e0: fc35 d637 f8d7 b238 14ca 3038 3434 0538
000003f0: a99c 1838 bae6 5538 c0f5 0538 6993 b738
1.3969147e-05 2.7052572e-06 1.2952897e-05 1.350767e-05 3.5989335e-06 1.8426043e-06 3.839762e-06 5.5960477e-06
4.5143843e-06 1.1037546e-05 9.107448e-06 1.4527117e-05 1.0492591e-05 1.1740827e-05 3.0502863e-05 5.8672194e-06
4.3357195e-06 1.2845628e-05 1.033594e-05 5.869667e-06 1.3257578e-05 3.732887e-06 1.1839256e-05 1.348573e-05
7.681542e-06 2.7601238e-06 3.0962415e-06 5.74007e-06 4.4567405e-06 6.0866737e-06 0.00012960946 1.855449e-05
0.00013634411 0.0001705715 3.614345e-05 7.432112e-05 0.000137875 0.00016643836 2.5235235e-05 1.9591864e-05
9.8603705e-05 2.8214967e-05 0.00012745027 0.00012459356 1.6416325e-05 4.5411445e-05 4.2066928e-05 0.000104153194
2.2899432e-05 2.2341543e-05 0.00012076062 2.1360715e-05 0.00012857725 0.0001580423 4.5446766e-05 4.725787e-05
6.940622e-05 0.00010910879 2.4393747e-05 1.9754374e-05 4.123832e-05 7.1719983e-06 4.107716e-05 5.5730914e-05
1.747081e-05 1.554318e-05 2.2255228e-05 3.2340133e-05 5.9582912e-06 2.8461282e-05 2.9536155e-05 2.4402543e-05
4.1403582e-05 3.6844416e-05 8.364016e-06 3.310546e-05 7.7050216e-05 5.9051614e-05 1.2308967e-05 5.5214925e-05
3.8276714e-05 1.3039306e-05 3.747303e-05 5.2939617e-05 1.7065115e-05 1.2340341e-05 1.538203e-05 2.1018834e-05
9.701068e-06 1.4492952e-05 7.684335e-06 3.2343376e-06 7.237609e-06 5.425225e-06 6.870716e-06 4.678374e-06
4.2910838e-06 3.7958935e-06 1.3803343e-06 5.4763564e-06 2.3915902e-06 7.0945794e-06 2.4144672e-06 2.4896196e-06
3.086426e-05 6.1748187e-06 1.0949801e-05 8.027149e-06 1.386204e-05 6.9216503e-06 6.3716475e-06 4.6262985e-06
6.0761668e-06 4.2196393e-06 8.620783e-06 6.3280854e-06 6.8780078e-06 7.853587e-06 1.9883353e-06 6.0450807e-06
1.4556447e-05 3.3356417e-05 1.4689693e-05 1.6058108e-05 1.6018725e-05 2.5129048e-05 2.3054847e-05 2.059572e-05
1.19542865e-05 1.1350745e-05 3.6433416e-05 3.7078677e-05 3.0882264e-05 3.363294e-05 1.2344741e-05 3.0924737e-05
3.1396394e-05 4.1241776e-05 1.5616008e-05 2.1640913e-05 1.4430214e-05 3.3983262e-05 1.3812501e-05 1.4116825e-05
3.0490308e-05 2.8117329e-05 2.5676902e-05 2.5574576e-05 1.2956681e-05 2.1635267e-05 0.0005869558 6.597674e-05
0.00057344616 0.0007527185 7.4097305e-05 8.3047256e-05 0.0002716759 0.00048754085 5.5798275e-05 0.00018806792
0.0003687056 5.7802223e-05 0.00035328747 0.0004740739 6.192606e-05 8.536529e-05 0.00018473175 0.000169236
7.080823e-05 0.00018458809 0.0005630603 6.814131e-05 0.0005296823 0.00072056544 8.960541e-05 4.7374073e-05
9.460197e-05 0.0002785229 7.323408e-05 7.575829e-05 2.2598299e-05 1.0518751e-05 2.2000242e-05 2.237825e-05
1.594499e-05 1.7674483e-05 3.4259396e-05 2.013568e-05 6.6854022e-06 4.7912832e-05 1.0356465e-05 2.4587498e-05
8.019617e-06 8.446638e-06 2.5809371e-05 6.863628e-05 0.00020520188 8.276166e-05 1.4871865e-05 0.00014480627
1.7415761e-05 1.5677324e-05 1.8067523e-05 1.837409e-05 2.8621884e-05 1.8896428e-05 3.1008534e-05 2.9053865e-05
4.3883933e-06 2.100498e-05 0.0005287441 9.280867e-05 0.0005224085 0.00065584615 0.00012173994 0.00018264925
0.00037009286 0.00049684284 8.516887e-05 0.00018123831 0.00025528416 0.00010201885 0.00027307286 0.0003247275
9.491597e-05 0.00019019334 0.00018104077 0.0002754437 8.3402716e-05 0.00011998923 0.0004741623 0.00014699168
0.00046876876 0.0005872804 0.00015879385 0.00015909417 0.00022735543 0.000384265 0.00011016348 0.00011081988
0.00010269716 1.9874531e-05 9.764981e-05 0.00012003413 2.9082956e-05 4.40493e-05 6.6386376e-05 7.617992e-05
2.5535926e-05 8.527929e-05 4.214987e-05 3.175829e-05 3.6385525e-05 5.099804e-05 3.1938544e-05 8.753577e-05

exp_avg f4 [10]
00000000: 0f08 d03c 3f40 3cbd 7a73 5e3c 1464 66bc
00000010: c3ec 3fbd 1015 a43d a4d4 17bd 3eb5 11be
00000020: b20e b13d 1b1d 86bc
0.025394468 -0.045959707 0.013577336 -0.014061946 -0.046856653 0.0801183 -0.037068024 -0.14229295
0.08645381 -0.0163713

exp_avg_sq f4 [10]
00000000: 2484 5038 ec69 643a a808 d739 aa8f c838
00000010: 5fd8 a239 f607 053b a2e5 b939 6ee2 603b
00000020: 7b57 473a 12ad 0c38
4.971413e-05 0.00087132934 0.00041014445 9.563503e-05 0.00031060257 0.0020298935 0.0003545704 0.003431465
0.0007604283 3.3539785e-05

exp_avg f4 [10, 10]
00000000: 3195 04bc 3700 40bc 2562 36bc 8ff8 db3a
00000010: ffd6 443a 7558 e3bb 9045 d63a f2f1 f53c
00000020: 448e babc 82c1 f03b b560 a13c ccf0 783a
00000030: 60a5 093d c5c6 adbc c637 9abb 65c8 893c
00000040: d013 dc3a 3b03 1ebd b6ee fa3c 5afa a5bb
00000050: 44dc 0abb e195 99bb aeb0 823b f988 923b
00000060: 1e81 9a3a 271a 923b 311e 03bb dec5 bc39
00000070: 5289 d2ba 95b7 e7bb 002e 39bc e4ea f83a
00000080: 30f1 4cbc edd6 a63c 98c4 f43a 8e05 98bb
00000090: 720c 94bb dcfb 153c f8a8 edbb 32c0 18bc
000000a0: 3519 e33b 66f7 a0bb 02c6 ab3c d084 9fbb
000000b0: f66d d23b 322d 6e3c 5a89 b3bb 7300 91bc
000000c0: 454d 3c3c a4c7 9cba bf9e 913c e43b e93a
000000d0: dbef 463d 4d71 6cbc 7388 1738 2168 f63c
000000e0: 4b45 11bb fb7f 5fbd 06e7 113d 5be4 65bc
000000f0: f252 943b 8d5e 0d3b c7ab 75bb 7853 f6bb
00000100: 298a 1fbb 50e1 b1bb c39b f53a 7fa8 273a
00000110: aca2 6e3b e61c e93b 9b49 a2b9 756f c0bb
00000120: 6925 2d3c f901 583c 721f c73b 1a58 173c
00000130: 52b3 08bc e004 29bc 6d45 d43b 3dee 78bc
00000140: 7302 013c c7d6 56bb fc96 d83c 1559 52bc
00000150: 4f8d 8e3a 1fe4 903c 77f5 8c3a 2055 b9bc
00000160: 0d34 223c 8f4a 1fbb f502 87bb a028 a83a
00000170: 4cb1 14bc 9d64 02bc fb87 68bb 22a3 d4bb
00000180: d688 093c db6b 8e3c 5459 7fbc 759f 643c
-0.008092211 -0.011718801 -0.011131798 0.001678245 0.00075088436 -0.006938035 0.0016347636 0.030022595
-0.022772916 0.0073472867 0.019699434 0.0009496331 0.03360498 -0.021212945 -0.0047063557 0.016819188
0.0016790573 -0.0385773 0.030631404 -0.0050652446 -0.0021188417 -0.0046870564 0.003988347 0.004471895
0.0011787747 0.004458684 -0.002000701 0.00036005577 -0.0016062653 -0.007071445 -0.011302471 0.0018990901
-0.012508675 0.020366156 0.0018674312 -0.004639334 -0.004518085 0.009154286 -0.0072528087 -0.009323167
0.006930495 -0.0049123047 0.02096844 -0.0048681274 0.0064218 0.014537143 -0.00547902 -0.01770041
0.011493032 -0.0011961353 0.017775891 0.0017794338 0.048568588 -0.01443131 3.6128284e-05 0.03007895
-0.0022166546 -0.05456541 0.03562071 -0.014031495 0.0045264894 0.002157125 -0.003748642 -0.0075172745
-0.0024343824 -0.0054284707 0.0018738437 0.00063956523 0.0036412878 0.0071140407 -0.00030953888 -0.0058726617
0.010568001 0.013184064 0.0060767466 0.009237314 -0.008343535 -0.010316104 0.0064780028 -0.015193519
0.007874119 -0.0032781826 0.026439182 -0.012838622 0.0010875853 0.017686902 0.0010754307 -0.022623599
0.009900105 -0.0024305915 -0.0041202256 0.001282949 -0.009075474 -0.007958558 -0.0035481441 -0.0064891735
0.008394441 0.017385414 -0.015585262 0.013954033

exp_avg_sq f4 [10, 10]
00000000: 2b06 3639 4de4 b439 d1b0 5939 bc0b aa39
00000010: 1d23 7038 a07d 6239 e614 c438 73cb d839
00000020: e758 7139 cf59 2139 94a7 7939 63f4 8439
00000030: 643f 7739 f934 c639 5eeb 7b38 892f 5439
00000040: 6f14 cd38 e83c b639 433f 5b39 51ce db38
00000050: 630e 4137 19d8 a237 f754 7336 b75e a537
00000060: 9fe6 4d36 9489 9d37 4e50 0637 3e5d 3836
00000070: ce5b 2036 41ea 7937 b49e 5b38 70ca 0638
00000080: 8d6e 2438 9a3d c938 0101 1b37 d075 c637
00000090: c545 fa37 44aa d637 6d2b 2537 3164 ac37
000000a0: ff51 e237 9534 9a37 d229 e937 829a 8638
000000b0: 4e3a 1837 e6b2 d037 2fd6 c437 9231 ca37
000000c0: 743c 3237 646d fa37 3213 c639 6d8b 053a
000000d0: 209b 473a 5ab4 3a3a f32a f838 d4ad c439
000000e0: 6a01 6639 0de6 6f3a c38c ec39 f403 9739
000000f0: 4a39 3a37 8d26 5937 c11f 8436 2ed9 9737
00000100: 1e7a 8a36 b6d8 8e37 0c11 e836 042f 1536
00000110: 9d4f 7c36 8981 4b37 5f1c 9d37 b7d0 2438
00000120: 5764 2139 bcc2 e738 5ac3 a637 a486 1a38
00000130: ba7b 7438 6f5b 0139 3427 8738 c7a3 d838
00000140: 2eec cc38 c90a aa38 8216 9f39 feea 0739
00000150: f0ca 1b38 ac59 8738 c492 5c38 cde4 8039
00000160: 7466 9138 ff9a 5538 91ea 0638 6372 6738
00000170: 51fb 0839 a214 3739 f4b7 bc37 499f 7138
00000180: 8755 d438 0a3a 5039 1cac 2539 695a 0239
0.0001735917 0.00034502373 0.00020760602 0.0003243367 5.725316e-05 0.00021599839 9.349901e-05 0.00041350312
0.0002301667 0.00015387613 0.00023808918 0.00025359084 0.0002357937 0.0003780497 6.0062266e-05 0.00020235604
9.778968e-05 0.00034759124 0.00020909034 0.00010481163 1.1507046e-05 1.9412533e-05 3.6259278e-06 1.9713638e-05
3.068162e-06 1.8779923e-05 8.00572e-06 2.747241e-06 2.3895295e-06 1.4896098e-05 5.2361473e-05 3.2136624e-05
3.9203605e-05 9.595901e-05 9.238954e-06 2.36583e-05 2.9834811e-05 2.5590074e-05 9.844877e-06 2.0550653e-05
2.6979482e-05 1.8382716e-05 2.7795239e-05 6.418397e-05 9.073481e-06 2.4878838e-05 2.3464758e-05 2.410336e-05
1.0623702e-05 2.9853261e-05 0.00037779805 0.00050943234 0.0007614363 0.00071222114 0.000118335614 0.00037513545
0.00021935036 0.00091514067 0.00045118303 0.0002880391 1.1099803e-05 1.2943184e-05 3.937603e-06 1.8101735e-05
4.126937e-06 1.7028633e-05 6.9161233e-06 2.2230097e-06 3.7597267e-06 1.2129903e-05 1.872907e-05 3.9295028e-05
0.00015391536 0.000110512105 1.987971e-05 3.6841855e-05 5.8289363e-05 0.0001233646 6.444604e-05 0.000103301885
9.77147e-05 8.1082406e-05 0.00030343613 0.00012962145 3.714388e-05 6.454004e-05 5.2588774e-05 0.00024584532
6.933222e-05 5.092751e-05 3.2166547e-05 5.5181223e-05 0.00013063593 0.00017459926 2.2497006e-05 5.7607223e-05
0.000101248785 0.00019858047 0.00015799742 0.00012431447

exp_avg f4 [10]
00000000: 861f 103e ad24 7abe f8e8 a9ba bbea 973d
00000010: 8f78 eabd 95f6 a4be eaa2 9e3a 18a2 64bd
00000020: 3c7a 10be fad5 a33d
0.14074525 -0.24428053 -0.0012963107 0.07417818 -0.11448776 -0.32219377 0.0012102996 -0.055818647
-0.14109129 0.07999797

exp_avg_sq f4 [10]
00000000: dcfe fe3b f537 1d3c 1a26 fa37 9f95 a73a
00000010: 63f3 4b3a a09a b53c 711b a537 f805 203b
00000020: 633d e63b 2b92 3c3b
0.0077818464 0.009595861 2.9820065e-05 0.001278568 0.0007780103 0.022168458 1.9682311e-05 0.002441762
0.007026361 0.0028773646

exp_avg f4 [5, 10]
00000000: f08a b5bd ec7c 29be 19df c3bc f43f 3dbd
00000010: 1fbe a0bd c975 b9bd 7a66 fa3d ef01 263d
00000020: 3e31 923d 11f0 7bbd 90d6 de3b 6706 08ba
00000030: 4b01 82bc c4b1 f83b 6cd9 0bbc cd02 4c3b
00000040: 9e40 22bc 72ec ab3b 0055 98bb e161 acbb
00000050: 3446 7c3d 77cb ef3d be44 db3c 09cd 633c
00000060: cb75 ab3d 62ab 333d b3df 93bd 41ef aebc
00000070: 9a64 19bd 9271 883d e0b2 c23d e044 233e
00000080: 2e51 843c 3581 0a3d 2dd7 b33d 2142 a73d
00000090: c9bf fabd 0707 0abd 7972 84bd 4019 893d
000000a0: 87bb 9939 bb43 12bc 21e8 883c d7f2 ddbc
000000b0: da25 fcb9 5054 16bc b04f 5c3c 267f d13b
000000c0: fb35 663c 1040 19ba
-0.08864391 -0.1655156 -0.023910092 -0.04620357 -0.07848763 -0.09055669 0.12226577 0.040529188
0.071382985 -0.061508242 0.00680048 -0.00051889423 -0.015869757 0.0075895507 -0.008535724 0.00311296
-0.009903101 0.0052466923 -0.0046488047 -0.0052606915 0.06159039 0.1170873 0.026766177 0.013903865
0.083720766 0.043864615 -0.072204016 -0.02135432 -0.037449457 0.06662287 0.09506774 0.15944242
0.01615199 0.033814628 0.08781276 0.0816691 -0.12243611 -0.033698108 -0.064671464 0.06694269
0.00029322153 -0.008927281 0.01671225 -0.027093334 -0.00048093387 -0.009175375 0.013446733 0.006393331
0.014050956 -0.0005846033

exp_avg_sq f4 [5, 10]
00000000: eb0d 863b 70ee 023c efc0 703a ce09 0d3b
00000010: 4a3a d93a e41f d93a 05c5 993b 888a dd3a
00000020: 44ac 7d3b 98f7 833b b94c ca38 97c2 0139
00000030: 5700 b938 c601 3338 fb7a a237 72da b638
00000040: bec1 4c39 25f0 bb37 e5f2 4038 1b63 a937
00000050: 0f49 853a 68f0 ec3a f14c 493a 44d2 9539
00000060: 1677 833a 1586 0b39 eb73 253a 4dc3 d638
00000070: 8871 5b3a 8c70 093b 03ab 1f3b 5bf4 8d3b
00000080: 69da 013a 6ded 773a 9bf4 993a 0cd2 473a
00000090: ea1e 2d3b 9eef 343a d034 003b ac5a 1b3b
000000a0: 7cbb 4c39 d9db b939 086c 2238 d9c2 8339
000000b0: a4ca 0039 f841 9138 3f5a 8e39 bf8d 0139
000000c0: 28b8 8639 1e84 9439
0.0040910146 0.007991418 0.0009184023 0.0021520737 0.0016573158 0.001656529 0.004692676 0.0016902247
0.0038707415 0.004027318 9.646401e-05 0.00012374889 8.821551e-05 4.2678577e-05 1.9369172e-05 8.719125e-05
0.0001952713 2.2403963e-05 4.600258e-05 2.019252e-05 0.0010168868 0.0018077018 0.00076790067 0.00028576155
0.0010029997 0.00013306022 0.00063115236 0.00010240693 0.00083711045 0.0020971624 0.0024363406 0.004332108
0.0004953505 0.00094576814 0.0011745872 0.0007622547 0.0026416131 0.0006902161 0.0019562729 0.0023705168
0.000195248 0.0003544975 3.872442e-05 0.0002513144 0.00012282521 6.9264264e-05 0.0002715159 0.00012355203
0.0002569568 0.00028327195

exp_avg f4 [5]
00000000: e434 dabe c442 89bc 3c48 a63e ab65 d73e
00000010: 7314 edbc
-0.42618477 -0.01675547 0.32476985 0.42069754 -0.028940415

exp_avg_sq f4 [5]
00000000: ffd3 873d b59f 123a 5cd2 9f3c daac 183d
00000010: afbd 573b
0.06632232 0.0005593256 0.019509487 0.03727422 0.0032919457

exp_avg f4 [31, 5]
00000000: c4d6 333c 87b1 edbc b420 9f3d fe96 383d
00000010: 8421 bf3c 5f0d 9c3c b95f a1bc 9dcf 7d3d
00000020: 5cbd 113d ba30 9e3c b211 3e3c 425d fcbc
00000030: cd5d a83d 6dfa 443d 6b44 c93c ea55 1f3c
00000040: d331 e0bc 30a3 913d aa03 243d 1c28 b23c
00000050: 5e96 a73b 3f07 69bb 4a84 8b3b fb01 dcbb
00000060: fbeb 7c3b 3cbb 1c3c 8071 00bc 459a d23c
00000070: ab5a 963c 79e1 033c d96f 3d3c f892 9cbc
00000080: cf84 5b3d 3ba9 123d bedb 813c 229a 523c
00000090: 9284 c0bc db3b 833d c1de 193d ecfe 9e3c
000000a0: b084 183c 42ff e3b9 9e65 a13a 8183 7ebb
000000b0: bc8f 0c3b cf5b 03bb 45e9 473c 72eb 17bd
000000c0: 672c a5bc ae88 31bc 3ff2 313c d0b8 3dbc
000000d0: 5f89 0a3d a027 a43c 815d 363c 8c57 5e3c
000000e0: e0b2 973b e447 5fbb 259d 80bb 9c2b 953a
000000f0: 5cb8 2f3c 0d9d 41bc fe8c 0d3d be05 a93c
00000100: 690f 3a3c caaf 0d3c 1a35 5dbc a4d5 1b3d
00000110: efbd ba3c 5075 463c 9403 873a 9df2 e93b
00000120: 35c4 03bd 4965 08bd 0f18 00bc afc4 d83b
00000130: 3497 6dbb 0068 4c3c 1e9a 823c 7d3e 303b
00000140: e1a2 413a 2bed acbb 4226 413c f7e4 853c
00000150: 54a4 293b 0d66 eb3b 1b0c 29bc 749d e53c
00000160: 4a21 a13c 0c89 003c 799b 133b 5f00 123c
00000170: 6223 cbbc ea87 8cbc 4b27 bdbb 42a0 4f39
00000180: eedb f63a c96b 1dbc 82c4 333b 6002 95bb
00000190: 46dd 2f3c abb8 d7bc e8dc 903d fe90 273d
000001a0: d9a4 af3c a5a8 803c 4dc8 8fbc dc18 603d
000001b0: 42e5 013d 0d77 8d3c a7f1 553c ddf3 f6bc
000001c0: ffcb a63d 8378 423d 7766 c83c 6499 1c3c
000001d0: fe6b d0bc 7bff 873d e2c8 193d a1c4 a53c
000001e0: 9a53 9b3a fbfa 1fbc 9f71 693c 224d e2ba
000001f0: d304 cc3b ca95 203c 43fa 32bc 93f0 133d
00000200: 6f7f d83c c509 293c 13b9 283c ef86 a1bc
00000210: 1c2c 633d 7ae5 1a3d 144f 833c b916 5b3c
00000220: 136e d2bc 5a8b 923d 62dc 333d 802d ae3c
00000230: 8801 7b3b e3bd 83ba 6ec8 9b3b 8fde c43a
00000240: 2998 043b e8bb a2b9 db1a 333b eeaf f2bb
00000250: f145 8a3a 7a42 4bbb 763f 16bd 8f0e 01bc
00000260: 9d09 ecbc bb73 2dbd 17d1 2ebc
0.010976497 -0.029015316 0.077699095 0.045065872 0.023331411 0.019049345 -0.019698964 0.061965574
0.035580978 0.019310344 0.011600899 -0.030806188 0.08221016 0.048090387 0.024568757 0.009725073
-0.027367508 0.07111204 0.040042557 0.021747641 0.0051143607 -0.0035557298 0.0042577134 -0.0067141033
0.0038592804 0.0095661245 -0.0078395605 0.025708327 0.01835378 0.008049362 0.011562311 -0.019113049
0.053593453 0.035805922 0.015851852 0.012854131 -0.023500714 0.06407901 0.03756595 0.019408666
0.009308979 -0.00043486996 0.001231361 -0.0038835707 0.0021447977 -0.0020043736 0.012201612 -0.037089773
-0.020162774 -0.01083581 0.010860979 -0.011579707 0.033822414 0.020038426 0.0111306915 0.0135706775
0.004629478 -0.003406995 -0.003924983 0.0011380794 0.010725107 -0.011817229 0.03455829 0.02063262
0.011356213 0.008647868 -0.01350143 0.03804554 0.022795646 0.01211293 0.0010300749 0.0071395175
-0.03216954 -0.033299718 -0.007818236 0.0066152434 -0.0036253454 0.012475967 0.01594263 0.0026892715
0.00073866366 -0.005277296 0.0117889065 0.01634453 0.00258853 0.0071837963 -0.010317828 0.028029181
0.019669194 0.0078451745 0.002252309 0.008911221 -0.024797145 -0.017154653 -0.0057725064 0.00019800759
0.0018833855 -0.0096082175 0.002743036 -0.0045474023 0.010733908 -0.026333174 0.070733845 0.04090976
0.02144091 0.015705416 -0.017551566 0.054711208 0.031712778 0.017268682 0.013058103 -0.03014558
0.08144378 0.04747821 0.024462922 0.009558056 -0.02544212 0.06640526 0.037545092 0.020235362
0.0011850477 -0.009764428 0.014248281 -0.0017265419 0.006226161 0.0098013375 -0.010923925 0.0361181
0.026427953 0.010317271 0.010298031 -0.019717662 0.055461988 0.037816502 0.016028918 0.013372117
-0.025687253 0.071554855 0.043911345 0.02126193 0.0038300473 -0.0010051097 0.0047541177 0.0015019941
0.0020232296 -0.0003103905 0.002732924 -0.0074062264 0.0010549409 -0.0031014965 -0.036681615 -0.007877006
-0.028813178 -0.042346697 -0.010669968

exp_avg_sq f4 [31, 5]
00000000: d129 9839 4ee5 3039 b5c3 0e3a b6a2 fa38
00000010: 42c9 d739 510a 7139 c9f3 4c38 8ad0 8b39
00000020: c0fa 7438 65f9 3239 1364 9c39 5cc5 3b39
00000030: f789 183a 5687 0639 1817 df39 9861 8f39
00000040: 83d7 2739 dc7e fd39 a71f dc38 9b18 d139
00000050: aeef 4838 6a47 2737 96aa e837 d406 5637
00000060: 12ee 1538 398c 0b39 585a 2f38 1517 0a39
00000070: e840 ef37 f54d 0c39 bf96 5e39 17a9 d738
00000080: ab2d a039 7d0e a638 7bbc 8d39 6350 9439
00000090: 0ebf 1439 fbed e239 cd44 bf38 599d bc39
000000a0: 624f 3d38 d0ad 0337 4b00 0c38 3c00 9d37
000000b0: 20c4 c137 b2fd 5137 c5a4 b637 784e c338
000000c0: 82a3 d337 f6a5 dd37 f2d1 1139 0e90 3c38
000000d0: 2947 2039 93de 1a38 8bef 2a39 f5f6 2738
000000e0: aa8c 8937 3303 0937 352d a436 5219 0837
000000f0: 6815 1539 5b25 4c38 6a2a 2b39 bc25 1238
00000100: f626 2f39 beca 1739 6a22 8538 bf52 4c39
00000110: 0c7a 3b38 c24c 5039 8cff 0337 23f0 0738
00000120: 7378 8e38 1746 9338 0fbc 0038 0000 7238
00000130: 467a 1137 24cf 2d38 2448 a537 96b8 2a38
00000140: a0af 4d38 0569 3937 e2dc 4e38 8e4a d537
00000150: 0a0f 4538 bda7 ec38 f9af dc37 d94c dd38
00000160: 0183 0f38 9301 e438 49be dc36 303a ae37
00000170: a17a 7c38 b938 bf37 9307 c837 32cb 2637
00000180: d71f 3c37 c90d 3838 a68e f136 f758 9536
00000190: 9101 9939 063e 2839 df9b 053a d3b8 e238
000001a0: a5b9 d639 58ba 5539 510b 4338 7fe7 7639
000001b0: 74cd 5d38 acd3 2939 f349 a639 b233 3d39
000001c0: 26c3 1c3a 5c4d 0539 e511 e739 b9e7 8539
000001d0: 3805 1e39 f77c ee39 3f70 ca38 df36 c639
000001e0: 0bcb 7e38 9a5c d437 2c10 8f38 243b 7537
000001f0: 6c0b 7b38 741c 0739 68c8 5438 a680 3539
00000200: afa1 3d38 5d9b 0f39 34ef 5139 beb5 c038
00000210: c0fb 9f39 d13c b038 bc35 7b39 b236 9e39
00000220: 8a24 1439 7794 003a ef4c f038 de23 c239
00000230: d927 0238 3043 2037 b3e6 bd37 0bee 5436
00000240: 4b6a c237 a032 6737 4b6a c236 253e 6037
00000250: c56e bf36 f35c 6237 4da9 4339 5eda b737
00000260: 5443 8138 65dc 1b39 5e4f cb37
0.00029022855 0.0001687009 0.0005446033 0.00011951236 0.00041157944 0.00022987394 4.8864433e-05 0.0002666752
5.8407662e-05 0.0001706831 0.000298292 0.00017907232 0.0005818898 0.00012829652 0.0004255108 0.00027347798
0.00016006645 0.00048350438 0.00010496313 0.0003988192 4.7906935e-05 9.970603e-06 2.773599e-05 1.2756984e-05
3.574609e-05 0.0001330831 4.180739e-05 0.00013169304 2.8521245e-05 0.00013380482 0.00021227727 0.00010283494
0.00030551603 7.9181955e-05 0.00027034045 0.00028288653 0.00014185553 0.00043283388 9.120405e-05 0.00035975387
4.5135042e-05 7.848677e-06 3.3378874e-05 1.8715968e-05 2.309872e-05 1.2516439e-05 2.1772817e-05 9.3129405e-05
2.52293e-05 2.6422535e-05 0.00013906488 4.4956854e-05 0.00015285298 3.692375e-05 0.000163017 4.00459e-05
1.6397174e-05 8.166581e-06 4.8928437e-06 8.112127e-06 0.00014217722 4.867218e-05 0.00016323631 3.4844255e-05
0.00016703815 0.0001447601 6.348344e-05 0.00019485781 4.469794e-05 0.0001986502 7.867708e-06 3.2410153e-05
6.793523e-05 7.0225615e-05 3.069272e-05 5.7697296e-05 8.6711425e-06 4.143933e-05 1.9703126e-05 4.0703067e-05
4.9039372e-05 1.1051311e-05 4.931994e-05 2.5426296e-05 4.6982466e-05 0.000112846006 2.6307987e-05 0.00010552415
3.4215864e-05 0.000108721804 6.578663e-06 2.0769512e-05 6.019569e-05 2.2795388e-05 2.3845385e-05 9.941681e-06
1.12130865e-05 4.3881857e-05 7.198966e-06 4.450903e-06 0.000291836 0.00016044834 0.0005096774 0.00010810946
0.00040955577 0.00020382681 4.6502162e-05 0.00023546627 5.288185e-05 0.0001619595 0.00031717084 0.00018043703
0.0005980007 0.00012712687 0.00044073086 0.00025540384 0.00015069998 0.00045488004 9.653018e-05 0.00037806385
6.0747418e-05 2.531549e-05 6.8217836e-05 1.4616908e-05 5.98537e-05 0.00012885203 5.073138e-05 0.0001730943
4.521169e-05 0.0001369542 0.00020020903 9.1891256e-05 0.00030514412 8.403662e-05 0.00023957243 0.0003017686
0.00014127992 0.00049049355 0.00011458422 0.00037029287 3.1031526e-05 9.5523865e-06 2.2637983e-05 3.172902e-06
2.3176099e-05 1.378046e-05 5.7940247e-06 1.336591e-05 5.705139e-06 1.3492291e-05 0.00018659719 2.1916985e-05
6.16374e-05 0.00014864055 2.4236444e-05

exp_avg f4 [31]
00000000: 688c 75be bfa1 3dbe 5559 81be 8a5d 5fbe
00000010: 9bc2 87bc eb38 a2bd 02e7 25be 6323 48be
00000020: a45c 11bc a817 f93d 4caa c7bd 1e8c 9d3c
00000030: 1745 d1bd 286e e6bd 4130 e33d b705 d2bc
00000040: a7a8 cebc bb11 a0bd eca8 9d3d 276f 403d
00000050: aab6 5dbe cbdc 29be 2bd5 7dbe ed03 4dbe
00000060: 74eb 38bd ac9c e4bd 9d68 2ebe c61f 60be
00000070: 2af4 97bc c7f2 d43c df68 953d
-0.23979342 -0.18518732 -0.25263467 -0.21813026 -0.016572287 -0.079210125 -0.16201404 -0.19544749
-0.008872185 0.12162715 -0.097492784 0.019231852 -0.10218256 -0.112514794 0.11093188 -0.02563749
-0.025226904 -0.07815882 0.07698235 0.046981003 -0.21651712 -0.16588132 -0.24788348 -0.20021029
-0.04514642 -0.11162695 -0.17032094 -0.2188712 -0.018549044 0.025994672 0.07295393

exp_avg_sq f4 [31]
00000000: 5e79 4d3c 493c ba3b bd34 573c 6d6f 393c
00000010: 7a7c 783a b4a1 783b 997a fb3b 21a5 293c
00000020: 5fa9 373a dd23 ae3a 7982 813b c206 3c39
00000030: 6b7b 893b 696b a13b 130c ce3a b8d7 953a
00000040: 8212 943a ae13 433b a835 763a 93bf aa39
00000050: 3839 443c 3599 ad3b ea77 5b3c 172f 2b3c
00000060: 827d e33a 038d 903b 2df7 f83b 8af7 3d3c
00000070: 8d4f 2e3a 57e8 c139 4fa4 c13a
0.012541143 0.005683456 0.013135132 0.01131807 0.00094789977 0.003793818 0.007674527 0.010354311
0.0007006134 0.0013285835 0.003952321 0.00017931595 0.004195621 0.0049261344 0.0015720151 0.0011432087
0.001129702 0.0029766369 0.00093921507 0.0003256766 0.011976533 0.0052978047 0.013395289 0.010448239
0.001735613 0.004411341 0.007597825 0.011594662 0.0006649427 0.00036984935 0.0014773699
