Cancer-senn/trial7/models/cancer/grad3_Hinput_Thdummy_Reg1e-02_LR0.001/checkpoint.pth.tar (torch_old, 26436 bytes, 34 tensors)

parametrizer.linear1.weight f4 [10, 30]
0	0xbd636e9d	-0.05552541
1	0x3d4ce408	0.050022155
2	0x3e35414c	0.1770069
3	0x3c984003	0.01858521
4	0xbdf5a514	-0.11994377
5	0x390871bc	0.0001301234
6	0xbc6767b9	-0.0141238505
7	0xbc078cbf	-0.008273303
8	0xbe196a39	-0.14981927
9	0x3d9bbb3e	0.07604073
10	0xbdd538fe	-0.10411261
11	0xbdaebcbf	-0.08532094
12	0x3e5c252d	0.21498556
13	0xbdec1da8	-0.11529094
14	0x3d24e9d8	0.040262073
15	0xbda688f9	-0.08131594
16	0x3e3edc09	0.18638624
17	0x3e302868	0.17202914
18	0xbdc86994	-0.097857624
19	0xbdfda3ef	-0.123847835
20	0xbe1c036c	-0.1523568
21	0xbd4ab33b	-0.049487334
22	0x3de69896	0.11259572
23	0x3d0132c8	0.03154257
24	0xbdbd0505	-0.09229473
25	0x3e4ad65a	0.19808331
26	0xb9bc1e1e	-0.00035880593
27	0x3e342749	0.17593111
28	0x3d7580cc	0.059937283
29	0xbdf8f236	-0.12155573
30	0x3d03ff12	0.032225676
31	0xbe25a216	-0.16175112
32	0xbe060cad	-0.13090773
33	0xbddcf86d	-0.10789571
34	0x3a2a356b	0.0006492945
35	0x3dc969a0	0.098345995
36	0xbd8d7815	-0.069076695
37	0xbc19ce92	-0.009387629
38	0xbc7982a7	-0.015228904
39	0x3e124c40	0.142869
40	0xbce577f2	-0.028011296
41	0xbe09ac75	-0.13444693
42	0x3e46239f	0.19349526
43	0x3e0c0b55	0.13676198
44	0x3da45890	0.080247045
45	0xbe0e470d	-0.13894291
46	0x3dfae3e5	0.12250499
47	0xbdcf07dc	-0.10108921
48	0xbdb9976b	-0.09062084
49	0x3dffb2f4	0.124853045
50	0xbe32bea5	-0.17455538
51	0x3c7754fd	0.015095946
52	0x3d70ad49	0.058759008
53	0x3cfa1982	0.030529741
54	0xbde2de16	-0.11077516
55	0xbd6562ca	-0.056002416
56	0xbde6ea67	-0.112751774
57	0x3db0b7bf	0.08628797
58	0x3e11b0fb	0.14227669
59	0x3dedaa54	0.11604753
60	0x3ac3eb5a	0.001494746
61	0x3e255852	0.16146973
62	0xbc57430e	-0.013138546
63	0x3d8ca78b	0.06867894
64	0x3e074819	0.13211097
65	0x3c8ac2e7	0.01693864
66	0xbbaf7f29	-0.005355735
67	0xbdd03f24	-0.10168293
68	0x3e15236c	0.14564294
69	0x3e1bff3d	0.15234084
70	0x3d2ae527	0.041722443
71	0x3e0ab37e	0.13545033
72	0xbd10f2d4	-0.03538783
73	0xbdfe0c43	-0.124046825
74	0xbe15e7db	-0.14639227
75	0x3d7e3a5d	0.06206738
76	0x3d3f0347	0.046633985
77	0xbdf19d24	-0.1179755
78	0xbc758139	-0.014984422
79	0xbddce077	-0.10785001
80	0xbd7f8bba	-0.062389113
81	0xbc02766d	-0.007962805
82	0xbd8cf25b	-0.06882163
83	0xbe434368	-0.19068682
84	0x3dac1bb3	0.08403721
85	0x3e301c28	0.17198241
86	0xbdc46e8e	-0.09591399
87	0x3dd65f15	0.10467354
88	0xbc7c0f83	-0.015384558
89	0x3b2d0a1b	0.0026403728
90	0xbdcfc516	-0.10145013
91	0x3d3eb069	0.046554957
92	0x3dc90b52	0.09816612
93	0xbd4dd4ab	-0.050251644
94	0xbdafe278	-0.08588117
95	0xbcb8d938	-0.022564515
96	0x3ddb2cd0	0.10701907
97	0xbdf55322	-0.11978747
98	0x3e258420	0.16163683
99	0x3d9d1281	0.07669545
100	0xbdf7d31f	-0.12100815
101	0xbe12c849	-0.14334215
102	0xbdc56c43	-0.0963979
103	0x3d33ab9f	0.043864843
104	0xbde6d4e7	-0.11271077
105	0x3db06b07	0.08614164
106	0x3de49c92	0.11162676
107	0x3e350387	0.17677127
108	0xbd23d2cc	-0.039995953
109	0xbdb7fc53	-0.08983674
110	0x3df9e109	0.12201125
111	0xbe2c48f1	-0.168247
112	0x3d81cc36	0.06337778
113	0xbd1596e3	-0.03652085
114	0xbdcac4dc	-0.09900829
115	0xbd84b9e5	-0.06480769
116	0xbde84c9b	-0.11342736
117	0x3d80fbd9	0.06298036
118	0xbe31f94e	-0.17380258
119	0x3dd2b552	0.1028849
120	0xbb61d60e	-0.0034459862
121	0xbd8a7eef	-0.06762492
122	0xbcbcca2b	-0.02304562
123	0x3dd2d1af	0.102939
124	0xbcdace99	-0.026709842
125	0x3d7fa37f	0.06241178
126	0x3e1d90ca	0.15387264
127	0x3dc24595	0.09485928
128	0x3e28d76c	0.16488427
129	0xbda80c5e	-0.08205484
130	0xbde74197	-0.11291807
131	0xbc1516b7	-0.009099654
132	0x3e1fee93	0.15618353
133	0xbdfae83a	-0.12251325
134	0xbe0beed1	-0.1366532
135	0xbe0b5d3c	-0.13609785
136	0xbcaa8309	-0.020814436
137	0x3d8d497a	0.0689878
138	0xbc0d1490	-0.0086108595
139	0xbe04ba34	-0.12961656
140	0x3e308a21	0.17240192
141	0xbd5e01a2	-0.054200776
142	0xbe20dd05	-0.15709312
143	0xbd9a268a	-0.07526882
144	0x3dd7552c	0.10514292
145	0x3d8e764a	0.069561556
146	0xbda4e1a4	-0.0805085
147	0xbd099f15	-0.033598978
148	0x3e48e9a0	0.19620371
149	0x3db132e6	0.08652286
150	0x3c800505	0.015627393
151	0xbdf38ca4	-0.118920594
152	0xbe1bbbf6	-0.1520842
153	0xbe1513f3	-0.14558391
154	0xbd6c1598	-0.05763778
155	0x3e244e80	0.1604557
156	0xbda61f9d	-0.081114985
157	0xbc275a32	-0.010214375
158	0x3e04f4f1	0.12984063
159	0x3e203690	0.15645814
160	0x3c0c5e4a	0.008567402
161	0x3e3424ea	0.17592207
162	0xbe2721bf	-0.16321467
163	0xbd12e100	-0.035859108
164	0x3d2111e2	0.039323695
165	0x3dbfc82c	0.09364352
166	0x3c986b30	0.018605798
167	0x3ddf2551	0.108957894
168	0x3d6caa35	0.05777951
169	0x3e1d204c	0.15344352
170	0xbd4ddf4a	-0.050261773
171	0xbd624846	-0.055244707
172	0x3db0d6af	0.08634698
173	0x3dd4d84a	0.10392816
174	0xbe35aa0e	-0.17740652
175	0x3b134a95	0.0022474874
176	0x3dddf5e1	0.10837913
177	0x3de4ef0e	0.111784086
178	0xbda01a20	-0.07817483
179	0x3c6a88f3	0.014314878
180	0xbe17c9d3	-0.14823084
181	0xbd998f26	-0.074980065
182	0xbd958fd9	-0.073028274
183	0x3d87e592	0.06635584
184	0x3dafacb9	0.08577866
185	0xbddf9f87	-0.10919099
186	0x3da8ecda	0.08248301
187	0xbddbd2a4	-0.10733536
188	0x3c3c1eda	0.011481965
189	0xbd12e1c3	-0.035859834
190	0xbdbfdadb	-0.09367915
191	0xbe128fae	-0.14312622
192	0x3e3d8786	0.1850873
193	0xbdccfc75	-0.1000909
194	0x3e387a0a	0.18015304
195	0x3d75999d	0.05996095
196	0x3c2738ab	0.010206382
197	0xbe08a0ed	-0.13342638
198	0xbd96fa6d	-0.07371984
199	0x3d9a8652	0.07545151
200	0x3e101f64	0.14074475
201	0xbe23dab9	-0.16001405
202	0x3e10039a	0.14063874
203	0x3d503d59	0.050839756
204	0xbdb123f1	-0.086494334
205	0x3d0c03ec	0.034183428
206	0x3ded79b0	0.11595476
207	0xbdef1adf	-0.11675047
208	0x3e04c7f0	0.12966895
209	0xbdf85a43	-0.12126591
210	0x3c09eadf	0.008417814
211	0x3d7b5869	0.06136361
212	0x3d749f54	0.05972226
213	0xbc810e0e	-0.015753772
214	0x3dd4adfc	0.103847474
215	0xbd7ddbc0	-0.061977148
216	0x3e32137f	0.1739025
217	0x3e341e37	0.17589651
218	0xbd09e044	-0.033661142
219	0xbd74b214	-0.05974014
220	0x3e2ef97d	0.1708736
221	0xbdd5a957	-0.1043269
222	0x3dcf8663	0.10133054
223	0x3e3a5cd5	0.18199475
224	0xbe3feff3	-0.18743877
225	0xbdcfe0f6	-0.1015033
226	0x3e46b841	0.19406225
227	0xbde15f67	-0.11004525
228	0xbd4745e9	-0.048650656
229	0xbe0d2430	-0.13783336
230	0xbe22639c	-0.1585831
231	0xbcddf900	-0.027096272
232	0xbdbd8d1e	-0.092554316
233	0x3d254f93	0.04035909
234	0x3d542f52	0.05180294
235	0xbd3a27fc	-0.04544829
236	0x3b168272	0.0022965935
237	0xbe0e0078	-0.13867366
238	0x3e1f3f9a	0.15551606
239	0x3cb5e83d	0.022205466
240	0xbcb14aa7	-0.021642042
241	0xbe0e2bcb	-0.13883893
242	0x3e01b226	0.12665614
243	0xbdbebe54	-0.09313646
244	0x3d2f32bc	0.042772993
245	0x3d37601c	0.04476939
246	0xbe072110	-0.13196206
247	0xbd58e7e9	-0.05295554
248	0x3e0accb8	0.13554657
249	0x3b01540c	0.0019733934
250	0x3d96a2b9	0.07355256
251	0x3e0bdd6c	0.13658684
252	0xbbb668d9	-0.005566698
253	0x3c1c9498	0.009556912
254	0xbd1f69c8	-0.03891924
255	0x3e131f87	0.14367495

parametrizer.linear1.bias f4 [10]
0	0xbe625eca	-0.22106472
1	0xbe4fd649	-0.20296587
2	0x3d04ccec	0.03242199
3	0xbdb9b93e	-0.09068535
4	0xbd9f9727	-0.07792502
5	0x3c8e3bf1	0.017362567
6	0xbe45d765	-0.19320448
7	0xbd3a7781	-0.045524124
8	0xbd0c3ab2	-0.034235664
9	0xbe256b44	-0.161542

parametrizer.linear2.weight f4 [10, 10]
0	0x3e686932	0.22696379
1	0x3d88144a	0.06644495
2	0x3e7b2930	0.2452743
3	0x3ded83ec	0.11597428
4	0xbe3f788b	-0.18698327
5	0x3e459c40	0.19297886
6	0x3e9bd2ad	0.3043417
7	0x3da18a02	0.07887651
8	0xbe94e46b	-0.2908052
9	0x3e4d51cf	0.20050739
10	0x3e413fe8	0.18872035
11	0x3ea84b47	0.32869932
12	0xbea8c027	-0.329591
13	0x3ea36eba	0.31920415
14	0x3d7f6949	0.062356267
15	0x3ca992ea	0.020699937
16	0x3e55e2ca	0.20887294
17	0x3dbce68a	0.09223659
18	0xbe7fa2ce	-0.24964449
19	0x3e86e435	0.26345983
20	0x3cbad104	0.022804745
21	0x3ddca99b	0.10774537
22	0xbe376a20	-0.17911577
23	0xbe63efda	-0.22259465
24	0xbe9b6113	-0.303475
25	0x3e068aae	0.1313884
26	0x3e64c5ed	0.22341128
27	0xbe39fbd2	-0.18162468
28	0x3e115270	0.14191604
29	0xbe80090c	-0.25006902
30	0x3e3ba711	0.1832545
31	0xbb2858b0	-0.0025687627
32	0xbe98b31b	-0.29824147
33	0x3dd26348	0.10272843
34	0x3e84c841	0.25934032
35	0x3e97aa39	0.29622057
36	0x3e8f2100	0.27954865
37	0x3ddb540f	0.10709392
38	0x3e9b04b4	0.30277026
39	0xbb70cc0c	-0.0036742715
40	0xbe2ea877	-0.17056452
41	0xbd95b76b	-0.07310375
42	0xbe90539b	-0.28188786
43	0x3e23892c	0.15970296
44	0xbe1085c4	-0.14113528
45	0x3db28208	0.08716208
46	0x3c51526e	0.012776
47	0xbe81d3f3	-0.25357017
48	0x3e1f251f	0.15541504
49	0xbe8725eb	-0.26396117
50	0xbcaa6c42	-0.020803574
51	0xbda7b53f	-0.08188867
52	0x3e129a78	0.14316738
53	0xbe58cfdc	-0.21173042
54	0x3e050f2d	0.1299407
55	0xbdbf45f0	-0.093395114
56	0x3d43f2cc	0.04783897
57	0x3e9f7c99	0.31149748
58	0xbcd735ea	-0.026270825
59	0xbe63ab02	-0.22233203
60	0xbe3983e1	-0.18116714
61	0x3e44c46b	0.19215553
62	0xbd3cd54a	-0.046101846
63	0x3e10e232	0.14148787
64	0x3e8abc0b	0.2709659
65	0xbe931730	-0.28728628
66	0x3e51c5c0	0.20485592
67	0x3e2c9b60	0.16856146
68	0x3d7b5c1c	0.06136714
69	0xbe6e5767	-0.23275529
70	0x3e472a02	0.19449618
71	0x3cd67271	0.026177617
72	0xbe81d8df	-0.25360772
73	0x3ce881b5	0.028382162
74	0x3e43152c	0.19051045
75	0x3e80fe38	0.25193954
76	0xbda468da	-0.08027811
77	0x3d829486	0.06375985
78	0x3da95a51	0.082691796
79	0x3ea0f8d6	0.31439847
80	0x3e3778d9	0.17917193
81	0x3d66d33b	0.05635379
82	0x3d43a8f5	0.04776855
83	0xbd8f97df	-0.07011389
84	0x3e815b1e	0.2526483
85	0x3b200008	0.002441408
86	0xbe8f93c6	-0.2804243
87	0x3e104aa4	0.14090973
88	0xbe95a062	-0.29223925
89	0xbd844c58	-0.06459874
90	0xbd3c2657	-0.045935
91	0x3e082197	0.13294064
92	0xbea3d13a	-0.31995565
93	0x3d1678ad	0.03673618
94	0xbd5e749b	-0.054310422
95	0xbea24789	-0.31695202
96	0x3dbf269d	0.09333537
97	0x3e0bc7a8	0.13650382
98	0x3e92c3c3	0.2866498
99	0x3da88ddd	0.08230183

parametrizer.linear2.bias f4 [10]
0	0xbde3bf13	-0.11120429
1	0x3d0194f0	0.03163618
2	0x3db05f22	0.08611895
3	0xbda2a7d1	-0.07942165
4	0x3ddf17ea	0.10893233
5	0x3c5dafed	0.0135307135
6	0x3e174434	0.14772111
7	0xbe33c1d8	-0.17554414
8	0x3e191f54	0.14953357
9	0x3eb2917f	0.3487663

parametrizer.linear3.weight f4 [5, 10]
0	0xbe04dc9e	-0.12974784
1	0x3e83c834	0.2573868
2	0xbe47fc5c	-0.19529861
3	0x3e880cee	0.26572365
4	0xbe6fe093	-0.23425512
5	0x3da71186	0.08157639
6	0x3e00fbea	0.12596098
7	0x3c920a83	0.017827278
8	0xbe4c4607	-0.19948588
9	0xbd3bb29e	-0.04582464
10	0x3e999ed5	0.30003992
11	0xbd4f4b78	-0.050609082
12	0xbe05829b	-0.13038103
13	0x3dfac0ca	0.12243803
14	0xbd6dd077	-0.058060136
15	0x3dbe2e4e	0.09286176
16	0x3d4e2f8c	0.050338313
17	0xbe341048	-0.17584336
18	0x3da14ae9	0.07875616
19	0xbebb89c1	-0.36628535
20	0xbeb26da7	-0.34849283
21	0xbd740299	-0.05957279
22	0xbc9f5e62	-0.019454185
23	0xbeaa8084	-0.33301175
24	0x3e716124	0.23572212
25	0xbc80ab8f	-0.015706806
26	0xbd6f3e32	-0.058408923
27	0xbdf6cf5c	-0.120512694
28	0x3d967acb	0.0734764
29	0xbd004b20	-0.031321645
30	0xbcd26eab	-0.025687536
31	0xbe271f75	-0.16320594
32	0xbe94c142	-0.29053694
33	0x3e82c814	0.25543272
34	0xbe7e96b8	-0.24862182
35	0x3e88be4f	0.26707694
36	0xbe8165ec	-0.25273073
37	0xbe10c94c	-0.14139289
38	0xbd98e1df	-0.074649565
39	0xbe06d900	-0.13168716
40	0x3e981299	0.2970169
41	0xbe7dbfd6	-0.24780211
42	0x3e800db1	0.25010446
43	0xbe6bd275	-0.23029502
44	0xbe3bf983	-0.183569
45	0xbca92a1e	-0.020649966
46	0xbe7302ac	-0.23731488
47	0xbbee18b8	-0.0072661303
48	0x3d72fc60	0.059322715
49	0xbd22d68b	-0.039755385

parametrizer.linear3.bias f4 [5]
0	0xbeb12648	-0.3459952
1	0xbd0a97c6	-0.03383615
2	0xbe89b885	-0.2689859
3	0x3e2d39ad	0.16916533
4	0xbe4761be	-0.1947088

parametrizer.linear4.weight f4 [31, 5]
0	0xbef57eac	-0.47948205
1	0xbe6a5456	-0.22883734
2	0x3e13a78c	0.14419383
3	0xbe9ab038	-0.3021257
4	0x3e813e62	0.25242907
5	0x3e86fff7	0.2636716
6	0xbe9e8f04	-0.30968487
7	0xbe3b2580	-0.18276024
8	0xbef419a5	-0.47675815
9	0x3dccb9fb	0.099964105
10	0xbdaf7a55	-0.08568255
11	0xbe12a49e	-0.14320609
12	0xbe3dddc0	-0.18541622
13	0xbe208ec9	-0.15679468
14	0x3c0628b2	0.008188413
15	0xbd0aa6da	-0.03385053
16	0xbe05ce21	-0.13066913
17	0x3e98f4df	0.29874322
18	0xbe0baa36	-0.13639149
19	0xbed6b25b	-0.4193295
20	0x3e687056	0.22699103
21	0xbdbf093a	-0.09327932
22	0xbe880a66	-0.26570433
23	0x3ecaaa39	0.39582995
24	0xbef3ab8d	-0.4759182
25	0xbe7c9bf9	-0.24668874
26	0xbe68ec42	-0.22746375
27	0x3ea6f338	0.32607436
28	0x3ec612f1	0.38686326
29	0x3e63bcc1	0.22239973
30	0x3e00214f	0.12512706
31	0xbed6bf99	-0.41943052
32	0x3ec43b6d	0.38326588
33	0x3ef203d6	0.47268552
34	0x3e95e8b2	0.29279095
35	0x3e59184e	0.21200678
36	0xbd326a81	-0.0435586
37	0x3e06f375	0.13178809
38	0xbeb26a4f	-0.34846732
39	0xbe4589f5	-0.19290908
40	0x3e337a2d	0.17527075
41	0x3ec5e489	0.3865092
42	0x3ebe0221	0.37111
43	0x3e739fd3	0.23791437
44	0x3d733d2e	0.059384517
45	0x3e012a86	0.12613878
46	0x3e372e1c	0.17888683
47	0x3d6caa59	0.057779644
48	0x3d1ef0f5	0.038804013
49	0xbe381128	-0.17975295
50	0x3de7ed7c	0.113245934
51	0xbef0509c	-0.469365
52	0xbe6cbf80	-0.23119926
53	0xbec20c34	-0.37899935
54	0x3d98ee7f	0.074673645
55	0x3d22cc93	0.03974588
56	0x3e9e3a34	0.3090378
57	0xbe35ba31	-0.17746808
58	0x3e3ec2bb	0.18628971
59	0xbebaa4c3	-0.36453828
60	0xbddb46b9	-0.10706849
61	0xbeb12c6b	-0.346042
62	0x3e0fe66c	0.14052743
63	0x3ec3b1c8	0.38221574
64	0x3eaeeccf	0.34165046
65	0x3d3f46b4	0.046698287
66	0xbea5b057	-0.323611
67	0xbcd8731e	-0.02642208
68	0xbe9c6dbb	-0.30552468
69	0xbe87d87e	-0.26532358
70	0x3edfaf44	0.43688405
71	0xbe50b934	-0.2038315
72	0xbe82d72d	-0.2555479
73	0xbe89abc9	-0.26888874
74	0x3eb038aa	0.3441823
75	0xbe21d356	-0.15803275
76	0xbe2b5779	-0.16732587
77	0xbe54201d	-0.20715375
78	0xbea17796	-0.3153655
79	0x3e84790a	0.25873595
80	0x3d838fe1	0.06423927
81	0xbddea04e	-0.108704194
82	0x3e50d29f	0.20392846
83	0xbe8bd903	-0.27314004
84	0x3dfc27cd	0.12312279
85	0xbed9f37d	-0.4256858
86	0xbc88a054	-0.016678013
87	0xbed95b81	-0.42452624
88	0x3e4f1eb7	0.2022656
89	0xbe69f4d9	-0.22847308
90	0xbe56c786	-0.2097455
91	0x3e4cbf70	0.19994903
92	0xbec96ac9	-0.39339283
93	0x3e576bed	0.21037264
94	0xbe35619a	-0.17713013
95	0x3e9fc43d	0.31204405
96	0x3d67b7fa	0.056571938
97	0x3ed15413	0.40884456
98	0x3e5339e8	0.20627558
99	0x3e46dfe1	0.1942134
100	0xbeed98ad	-0.46405545
101	0xbef32afd	-0.47493735
102	0x3e8c11d4	0.27357352
103	0xbdef9f7c	-0.11700341
104	0x3e29eb33	0.16593628
105	0xbe9c7f6f	-0.30565974
106	0xbca091c5	-0.019600758
107	0xbe2da62f	-0.16957925
108	0xbec7f03b	-0.3905047
109	0xbede919f	-0.43470475
110	0xbcac8117	-0.021057649
111	0x3ea11210	0.31459093
112	0xbebf34e1	-0.3734503
113	0x3e701936	0.23447117
114	0x3d48612d	0.0489208
115	0xbe9d300c	-0.3070072
116	0x3eb228ce	0.34796757
117	0xbe9d461e	-0.30717558
118	0xbde4438b	-0.11145695
119	0xbda77166	-0.08175926
120	0xbeea65dd	-0.4578084
121	0xbec43f2b	-0.38329443
122	0x3eb015f3	0.34391746
123	0xbe05bfc4	-0.13061434
124	0xbe668fcf	-0.22515796
125	0xbe5bb84a	-0.2145702
126	0x3ec12788	0.37725472
127	0x3c1bdee5	0.009513591
128	0x3dd6d5d2	0.10490002
129	0x3ec3e726	0.3826229
130	0x3d213090	0.039352953
131	0xbd821e82	-0.06353475
132	0x3e2efede	0.17089412
133	0x3e6d4752	0.23171738
134	0xbed9cbfd	-0.42538443
135	0xbe401f99	-0.18762054
136	0xbeb3d600	-0.35124207
137	0xbee7da9d	-0.45283976
138	0xbe50cb2b	-0.20390002
139	0xbe7e9130	-0.24860072
140	0xbd7d78ff	-0.06188297
141	0x3e82968b	0.2550548
142	0x3cd9dea4	0.026595421
143	0x3eeac286	0.45851535
144	0x3eaaf9aa	0.33393604
145	0x3eb56fd7	0.3543689
146	0x3e4b4c9f	0.19853447
147	0x3e842426	0.2580883
148	0x3ee768db	0.45197186
149	0xbe8453c3	-0.25845155
150	0x3e5cc38d	0.21558972
151	0xbec4c24e	-0.38429493
152	0xbdeaa2ae	-0.1145681
153	0x3ebad245	0.36488548
154	0xbe077d84	-0.13231474

parametrizer.linear4.bias f4 [31]
0	0x3e4f4120	0.20239687
1	0x3e901691	0.28142217
2	0xbe07eea1	-0.13274623
3	0x3e8421de	0.2580709
4	0xbdb0b3ab	-0.08628019
5	0x3ed24266	0.41066283
6	0x3e810e9b	0.25206456
7	0x3e5ab496	0.2135795
8	0xbd08fd44	-0.033444658
9	0x3d02a7cb	0.0318983
10	0x3e57cc05	0.21073921
11	0x3d643e68	0.055723578
12	0x3e5fcf3b	0.21856396
13	0xbe0001fc	-0.12500757
14	0x3ebfe2ff	0.37477872
15	0x3d86c093	0.06579699
16	0xbdd9e785	-0.10639862
17	0xbe971dfd	-0.29515067
18	0x3ccb6776	0.024829607
19	0x3defc3f8	0.117073
20	0x3e45322e	0.19257423
21	0x3e88a4f4	0.2668835
22	0xbe8e9e3d	-0.278551
23	0x3ee5fc58	0.44919086
24	0xbe8c0c20	-0.27353
25	0x3eb75160	0.35804272
26	0x3e3e5d18	0.185902
27	0xbd1a637a	-0.037692524
28	0xbe8d1c2a	-0.2756055
29	0x3df2528c	0.11832151
30	0xbdd69aef	-0.1047877

exp_avg f4 [10, 30]
0	0xba31bb60	-0.0006779935
1	0x395446a9	0.00020244218
2	0xba08b01f	-0.00052142324
3	0xba81c306	-0.000990004
4	0xb75d6efa	-1.3198465e-05
5	0x3a2617b5	0.000633593
6	0x39db00bb	0.0004177148
7	0x3a87989d	0.0010345165
8	0x3aa86633	0.001284784
9	0x3a273891	0.00063789735
10	0xba7b1010	-0.00095772836
11	0xba3c5655	-0.00071844953
12	0xba80b1a3	-0.0009818565
13	0xbab1c4c2	-0.0013562667
14	0xbaecfc50	-0.0018080566
15	0x3a5fe4d7	0.00085408747
16	0xb9066073	-0.00012815166
17	0x3acc7bb5	0.0015600832
18	0xbaa965e8	-0.0012924047
19	0x3716aa44	8.98034e-06
20	0xb9cd83ba	-0.0003919879
21	0xb932336e	-0.00016994562
22	0xb98481ee	-0.00025273807
23	0xba3ba10f	-0.00071574835
24	0xbaad3986	-0.0013215996
25	0x396060f8	0.00021398428
26	0x39c5a2be	0.0003769602
27	0x3a9addd3	0.0011815376
28	0xb9d392d3	-0.0004035445
29	0x3a1bc043	0.000594143
30	0x3affbe47	0.0019511663
31	0x3b0801cc	0.0020753024
32	0x3b0620bf	0.0020466296
33	0x3a95f82a	0.0011441757
34	0xb7880914	-1.621669e-05
35	0x3b0f4907	0.0021863596
36	0x3b0b4044	0.0021248022
37	0x3b639772	0.003472772
38	0x3a808e6b	0.0009808069
39	0xbaca4cec	-0.0015434301
40	0xba5b7967	-0.00083722774
41	0xbb009bef	-0.0019624194
42	0xbac4de08	-0.0015019784
43	0xb8b7c6b0	-8.7631284e-05
44	0xbb9fa0a4	-0.004871445
45	0xbb5b718a	-0.0033484423
46	0xbb96dfd7	-0.0046043205
47	0xbb0f0f2e	-0.0021829116
48	0xba025031	-0.0004971056
49	0xbb8cce81	-0.004297078
50	0x3b116f2c	0.0022191508
51	0x3b218d95	0.002465104
52	0x3b0656b6	0.002049846
53	0x3ac46abd	0.0014985424
54	0xba9cf3bc	-0.0011974494
55	0x3b5a0d18	0.0033271965
56	0x3ab457dc	0.0013759094
57	0x3b4cadc4	0.0031231502
58	0x3bbe2491	0.005802699
59	0x3ab0672d	0.0013458483
60	0xb9845b83	-0.00025245183
61	0xbaec8f35	-0.001804805
62	0xba0e232d	-0.0005422112
63	0x3896e1ce	7.194617e-05
64	0x37c3d49a	2.3344812e-05
65	0xbb4f437b	-0.0031625915
66	0xb985b3c3	-0.0002550167
67	0xba7c47d8	-0.00096237427
68	0x3b0c1f76	0.0021381057
69	0xba824248	-0.0009937966
70	0x3ad8f8dd	0.0016553659
71	0xbab7708f	-0.0013995337
72	0x3b1ba51b	0.0023749534
73	0x39c28bfe	0.00037106866
74	0x3b34d017	0.0027589852
75	0x3b5a1542	0.003327683
76	0x3ba3e14d	0.005001223
77	0x3b4ad658	0.0030950513
78	0x3a6f90c5	0.0009138699
79	0x3b53135e	0.0032207589
80	0x39bf1d52	0.00036452204
81	0xba46d770	-0.0007585203
82	0x3995384b	0.00028461436
83	0x39ce4dcd	0.00039349348
84	0x3b5b4a47	0.003346102
85	0xbb4d2548	-0.003130274
86	0x3aef83e4	0.0018273559
87	0x3ae5ed68	0.0017542066
88	0xbb7883da	-0.0037920387
89	0xba0475d4	-0.0005052958
90	0x3b052941	0.0020318779
91	0x3b0aea93	0.0021196946
92	0x3b0b3472	0.0021240977
93	0x3ad805bd	0.0016481202
94	0xba8438d5	-0.0010087738
95	0x3a1e83d8	0.0006046868
96	0xb95b3b62	-0.0002090759
97	0x3ad4bf5e	0.0016231348
98	0x3a1b1efd	0.00059173984
99	0xbb1aff0f	-0.0023650562
100	0x39ae6b62	0.00033267873
101	0x39839a56	0.00025101256
102	0xb9d8c165	-0.0004134282
103	0x3a44ed61	0.0007512179
104	0xbb6b503a	-0.0035905973
105	0xbb5ea331	-0.0033971781
106	0xbb81c5ee	-0.0039603626
107	0xba9dcebd	-0.0012039762
108	0xb96f62f0	-0.00022829673
109	0xbb86465c	-0.004097743
110	0x3ae7fecc	0.0017699837
111	0x3aa13f39	0.0012302167
112	0x3adb86dd	0.0016748566
113	0x3abd555c	0.0014444995
114	0xbb65f2cd	-0.0035087347
115	0x398acbba	0.000264732
116	0xbadb9e93	-0.0016755633
117	0x39d06a4a	0.00039752043
118	0x3b4e8a04	0.003151537
119	0xbb1e990f	-0.0024200117
120	0x38d9a9eb	0.00010379016
121	0xbb34a8fa	-0.0027566538
122	0x39167ea8	0.00014352298
123	0x3a59266a	0.0008283617
124	0x3b287741	0.0025705846
125	0xb959382c	-0.00020715658
126	0xbb4cbcd8	-0.003124049
127	0xba9f9c0b	-0.0012177242
128	0x3b8c280d	0.0042772354
129	0x3ab70c5f	0.0013965479
130	0x3adbaa9f	0.0016759223
131	0x3a975f98	0.0011548875
132	0x3a847172	0.001010461
133	0x3a189ff2	0.00058221736
134	0x3b63fb9b	0.003478742
135	0xba735d9f	-0.0009283665
136	0xb8c593b5	-9.4212046e-05
137	0x3b39b2d5	0.0028335352
138	0x3b529b32	0.003213596
139	0x3996beaa	0.00028752285
140	0xb9e4090e	-0.00043494295
141	0xbb9e00da	-0.004821879
142	0xba1cd964	-0.00059833215
143	0x389f925b	7.608972e-05
144	0xb9d92c81	-0.00041422623
145	0xbb5beae2	-0.003355675
146	0xbb93e796	-0.004513691
147	0xbb1e48d8	-0.0024152305
148	0x3af4a033	0.0018663466
149	0xbb8538df	-0.0040656175
150	0xba1b8aab	-0.0005933444
151	0xba1d4451	-0.00059992546
152	0xb9fe7000	-0.00048530102
153	0xba62e8ad	-0.0008655887
154	0x3abc0b5b	0.0014346646
155	0x39a5e3e9	0.0003164106
156	0x3a0b459b	0.0005312801
157	0x3a52d368	0.0008042366
158	0x3ac71232	0.0015187918
159	0x3a6a7a22	0.0008944591
160	0xba700654	-0.00091562164
161	0xbaab6ff5	-0.001307963
162	0xba3e5ea9	-0.000726203
163	0xba89a85a	-0.0010502443
164	0xbb19e88d	-0.0023484558
165	0xba1eccf8	-0.00060577644
166	0xb9e6b8f2	-0.00044006814
167	0xb9f8c68c	-0.00047450175
168	0xb9dcde2f	-0.0004212721
169	0xb98f9bd8	-0.00027391198
170	0xb9b09bff	-0.00033685562
171	0xb949e7e8	-0.00019255246
172	0xb92c148e	-0.00016410855
173	0xba28addb	-0.0006434598
174	0x3a127896	0.0005587427
175	0x39ea8a36	0.00044734933
176	0x3a85b78f	0.00102018
177	0x3aa66455	0.0012694696
178	0x3a710221	0.00091937376
179	0x3aa0de42	0.0012273269
180	0x39c9f4ec	0.00038520189
181	0x39002ce2	0.00012223751
182	0x3a2c26a9	0.000656704
183	0xb975fbdc	-0.00023458846
184	0xb91258eb	-0.0001395677
185	0x3ab88cbc	0.0014080028
186	0x3a4cf2cd	0.00078181626
187	0x3b322aa0	0.002718605
188	0x3b3518e0	0.0027633235
189	0xba7187d3	-0.000921366
190	0xba27a309	-0.00063948386
191	0xba81b899	-0.0009896933
192	0xbaabeaf1	-0.0013116283
193	0xba598510	-0.0008297721
194	0xbb7b23f6	-0.0038320995
195	0xbadef658	-0.0017010672
196	0xbb6f5d9d	-0.0036524304
197	0x398a8da0	0.0002642693
198	0xba1c0c2f	-0.0005952743
199	0xbb536900	-0.003225863
200	0x3a3a276b	0.00071012106
201	0xba247e4a	-0.0006274922
202	0x3a4c32c7	0.0007789549
203	0x39178857	0.00014451273
204	0xbb537b89	-0.0032269678
205	0x3a7dd0a4	0.0009682274
206	0xb9fa39bb	-0.00047726728
207	0x3af84ff0	0.0018944722
208	0x3b40a692	0.0029396159
209	0xba15c530	-0.0005713282
210	0x390ccf65	0.00013428701
211	0xbab9b68c	-0.0014168783
212	0x3863a16e	5.427136e-05
213	0x3a02f71a	0.00049959274
214	0x3a3db0b9	0.00072361116
215	0xbb160008	-0.0022888202
216	0xbb6a45dd	-0.0035747208
217	0xbad83e78	-0.0016498109
218	0x3a5c64e2	0.00084073667
219	0xbaaf5551	-0.0013376867
220	0x3a797199	0.00095155236
221	0x39304afe	0.00016812605
222	0x3a14b69a	0.00056729617
223	0xb792e69a	-1.7511938e-05
224	0x3a80258c	0.0009776815
225	0xbb02c1b1	-0.0019951875
226	0xba9cd36a	-0.0011964862
227	0x3a6417b5	0.00087010424
228	0xb9d6a489	-0.0004093985
229	0xba83d185	-0.0010056949
230	0xb934df27	-0.00017249268
231	0xbb4d6d40	-0.0031345636
232	0xb9a03b01	-0.0003056154
233	0x3741432a	1.1519334e-05
234	0xbab5b776	-0.001386388
235	0xbb8633ff	-0.004095554
236	0xbb8a18f4	-0.0042144004
237	0xbb18100c	-0.0023202924
238	0xbafb3540	-0.001916565
239	0xbb919938	-0.004443314
240	0xba87e37d	-0.0010367479
241	0xbac955f6	-0.0015360701
242	0xba802e6c	-0.000977946
243	0xba34e0eb	-0.00068999705
244	0x3a715329	0.0009205812
245	0x39a31c69	0.0003111095
246	0xbae3247c	-0.0017329599
247	0xbad0c1fc	-0.0015926952
248	0xbaf635fc	-0.0018784399
249	0x3a8b9fea	0.0010652517
250	0x38dc9a9b	0.00010519215
251	0x3a78676d	0.0009475861
252	0xb7bbe76e	-2.2399905e-05
253	0x394a2ef8	0.00019281718
254	0x3b3b5b49	0.0028588346
255	0xb885f69d	-6.3878695e-05

exp_avg_sq f4 [10, 30]
0	0x35618174	8.400741e-07
1	0x34b45a35	3.3593247e-07
2	0x3545d622	7.3699823e-07
3	0x3569c924	8.709196e-07
4	0x359ed043	1.183253e-06
5	0x34c254c7	3.6197e-07
6	0x3480a447	2.3961385e-07
7	0x3519ab5d	5.724631e-07
8	0x35e93f97	1.737836e-06
9	0x354cb276	7.6255617e-07
10	0x34dc06ea	4.0983224e-07
11	0x35df7612	1.6649158e-06
12	0x34dc3b40	4.1021303e-07
13	0x34d9611d	4.049006e-07
14	0x353a5fd9	6.9429876e-07
15	0x35f1a10b	1.8002769e-06
16	0x354dc147	7.6649707e-07
17	0x35ec98db	1.7627857e-06
18	0x3649aef1	3.0053163e-06
19	0x35799a97	9.2984686e-07
20	0x35600696	8.3456086e-07
21	0x354fb608	7.73784e-07
22	0x3535c912	6.772035e-07
23	0x3547a5d7	7.4374606e-07
24	0x3650ccd2	3.1113636e-06
25	0x34d865d4	4.0307225e-07
26	0x351623db	5.593153e-07
27	0x357107f5	8.9791075e-07
28	0x3587d14a	1.0119195e-06
29	0x358a6f86	1.0314259e-06
30	0x35fec166	1.8980761e-06
31	0x371f1063	9.480954e-06
32	0x35d52880	1.5881524e-06
33	0x361b0854	2.3101647e-06
34	0x372f1a2c	1.0436906e-05
35	0x3738f842	1.1025057e-05
36	0x36dcccf6	6.5803715e-06
37	0x36cde05a	6.135594e-06
38	0x37b165ff	2.114754e-05
39	0x3740217a	1.1451886e-05
40	0x366ba385	3.511291e-06
41	0x36960686	4.471108e-06
42	0x3650bbe4	3.1103782e-06
43	0x360f6349	2.1366452e-06
44	0x36ecb1c8	7.0540445e-06
45	0x3653ad15	3.1542197e-06
46	0x36657e7d	3.4197285e-06
47	0x3696408f	4.477864e-06
48	0x3788bae5	1.6299493e-05
49	0x368bae41	4.1628086e-06
50	0x3601677c	1.9282734e-06
51	0x3709ac04	8.205887e-06
52	0x35f2baac	1.8084734e-06
53	0x3618f618	2.279301e-06
54	0x3683ee9d	3.9318825e-06
55	0x373ad215	1.11353775e-05
56	0x36d25bb8	6.269165e-06
57	0x3700d44b	7.678823e-06
58	0x38057f82	3.1828422e-05
59	0x371aaf36	9.21991e-06
60	0x37bceb42	2.2520897e-05
61	0x379f064f	1.8957215e-05
62	0x37aeeee5	2.085366e-05
63	0x37c148d5	2.3041308e-05
64	0x372e8043	1.0401071e-05
65	0x3759c768	1.2980636e-05
66	0x376d6350	1.4149424e-05
67	0x37960ca6	1.7887283e-05
68	0x3800b844	3.068919e-05
69	0x377269bb	1.4448941e-05
70	0x3790a8de	1.7244773e-05
71	0x37e36a60	2.7110043e-05
72	0x37853831	1.5881002e-05
73	0x37631664	1.3535468e-05
74	0x373fa9b1	1.14239965e-05
75	0x371e31fd	9.429173e-06
76	0x36ed275c	7.0677324e-06
77	0x37458186	1.1772272e-05
78	0x37dadd71	2.6090742e-05
79	0x36870bd4	4.0246905e-06
80	0x37c225f0	2.3144268e-05
81	0x3798bf72	1.820896e-05
82	0x37b53b2f	2.1604441e-05
83	0x37bd8737	2.259352e-05
84	0x375a8cf6	1.3026633e-05
85	0x373b8724	1.1177533e-05
86	0x373a00f0	1.1086682e-05
87	0x378b8ff4	1.6637125e-05
88	0x383cc1ae	4.500307e-05
89	0x36f7cd43	7.3850692e-06
90	0x368e6636	4.2438287e-06
91	0x36d7ba56	6.4291917e-06
92	0x36931eb0	4.384514e-06
93	0x3670a9e6	3.586168e-06
94	0x36470c0c	2.9660323e-06
95	0x36f01d5d	7.1559757e-06
96	0x36c8e9cb	5.9876816e-06
97	0x369b3a60	4.6261557e-06
98	0x37079f85	8.083768e-06
99	0x362d3009	2.580697e-06
100	0x360d1477	2.102255e-06
101	0x37cfad32	2.4756973e-05
102	0x362b74b6	2.554892e-06
103	0x35e83d69	1.730322e-06
104	0x364a65ab	3.0159524e-06
105	0x370cfa95	8.402993e-06
106	0x36f14358	7.1901995e-06
107	0x36d81f8c	6.440974e-06
108	0x3631b78a	2.648189e-06
109	0x36d1925e	6.2457248e-06
110	0x3686dc27	4.0191403e-06
111	0x369cadd1	4.669397e-06
112	0x369749ae	4.508728e-06
113	0x36564cb4	3.1933132e-06
114	0x36d7ca32	6.431038e-06
115	0x36fd69fd	7.552326e-06
116	0x3708e474	8.159423e-06
117	0x36fc7a8a	7.5244507e-06
118	0x3736f5c1	1.0905264e-05
119	0x36b740b5	5.461358e-06
120	0x377bb201	1.5002211e-05
121	0x364bb32d	3.0353651e-06
122	0x3778259d	1.4790709e-05
123	0x37387480	1.0994379e-05
124	0x376c28d5	1.4076203e-05
125	0x37998ee8	1.8305567e-05
126	0x378c0274	1.6690443e-05
127	0x3755ab52	1.2735678e-05
128	0x36b81fde	5.487337e-06
129	0x371db8f7	9.400995e-06
130	0x35ea866a	1.7473478e-06
131	0x38759b20	5.8557023e-05
132	0x3608e089	2.0396276e-06
133	0x35f5ce50	1.8313967e-06
134	0x371e14f5	9.422413e-06
135	0x378d0bea	1.6814058e-05
136	0x374375f4	1.1650369e-05
137	0x3777c270	1.4767618e-05
138	0x3727b4c6	9.996065e-06
139	0x370959fc	8.186787e-06
140	0x374a7d0e	1.2069255e-05
141	0x369d2624	4.6834048e-06
142	0x375264d2	1.25404495e-05
143	0x37035900	7.82893e-06
144	0x37a313fc	1.944042e-05
145	0x37d967a4	2.5916677e-05
146	0x37ee904f	2.843901e-05
147	0x37cae3b7	2.4186314e-05
148	0x37417b70	1.15324365e-05
149	0x37c2121e	2.3135039e-05
150	0x35075d4a	5.042717e-07
151	0x359afb3b	1.1547012e-06
152	0x34fe26a6	4.7339307e-07
153	0x34fb5ea3	4.682125e-07
154	0x35ae0238	1.2964656e-06
155	0x3435136b	1.6864003e-07
156	0x34b57331	3.379769e-07
157	0x3507cbaa	5.058779e-07
158	0x358f644b	1.0683519e-06
159	0x349f3a91	2.965867e-07
160	0x345ab8e5	2.0370096e-07
161	0x360f20c9	2.1327744e-06
162	0x343be573	1.7499205e-07
163	0x345c1377	2.0496178e-07
164	0x3543919d	7.2855056e-07
165	0x350af785	5.1769194e-07
166	0x34910320	2.7010628e-07
167	0x347b5973	2.3408738e-07
168	0x35b2efde	1.3331844e-06
169	0x349c9a90	2.9169723e-07
170	0x35010eff	4.8078067e-07
171	0x35dc775b	1.6426014e-06
172	0x34eb210b	4.3796203e-07
173	0x34db2311	4.0817443e-07
174	0x361e1e6a	2.3561538e-06
175	0x3443da99	1.8240316e-07
176	0x34f77206	4.6090298e-07
177	0x35130cef	5.478059e-07
178	0x35935615	1.0977407e-06
179	0x34b6a748	3.4021855e-07
180	0x371e3b6e	9.431371e-06
181	0x362936fb	2.5214965e-06
182	0x371cbaf3	9.341852e-06
183	0x370c6912	8.369114e-06
184	0x36d9b5b9	6.4882593e-06
185	0x3718f9de	9.118083e-06
186	0x370c4360	8.360337e-06
187	0x3705e248	7.980103e-06
188	0x36e704ff	6.884918e-06
189	0x364636c7	2.9536184e-06
190	0x36531488	3.14534e-06
191	0x37c42e4e	2.3386583e-05
192	0x36883fa0	4.0605228e-06
193	0x36693b61	3.4754269e-06
194	0x36892e45	4.0883046e-06
195	0x37017dd9	7.7183e-06
196	0x370b82c0	8.315488e-06
197	0x36e57b76	6.8391046e-06
198	0x368d0ca8	4.203601e-06
199	0x36ce331e	6.1452292e-06
200	0x370e3f2c	8.478568e-06
201	0x358f2696	1.066556e-06
202	0x3710c71c	8.629428e-06
203	0x36e49096	6.8117615e-06
204	0x37354d4c	1.0806438e-05
205	0x37307dea	1.0519734e-05
206	0x3758d8c4	1.2925073e-05
207	0x376cbbe3	1.4110442e-05
208	0x36e9f68a	6.972642e-06
209	0x370b7e36	8.314431e-06
210	0x3777bcbd	1.4766291e-05
211	0x367314d0	3.6221936e-06
212	0x3773ceb3	1.4532055e-05
213	0x373a19f5	1.10925075e-05
214	0x37875f3b	1.61376e-05
215	0x37c4c1d5	2.345528e-05
216	0x3797b844	1.8086408e-05
217	0x3764a802	1.3628976e-05
218	0x371c770d	9.326043e-06
219	0x3751905d	1.2490983e-05
220	0x357b9271	9.3717887e-07
221	0x388e7800	6.7934394e-05
222	0x35c6e2f0	1.4818197e-06
223	0x35da0bb4	1.6245672e-06
224	0x36f7d81e	7.386333e-06
225	0x379e31f5	1.885833e-05
226	0x37502cb7	1.2408177e-05
227	0x378d98b1	1.6879612e-05
228	0x37c0eb02	2.2997618e-05
229	0x371ce8f1	9.3525605e-06
230	0x3751f01c	1.2513276e-05
231	0x36529353	3.1378192e-06
232	0x3758cb65	1.292196e-05
233	0x371042d4	8.5986285e-06
234	0x37afaf0f	2.0943144e-05
235	0x3800ebb6	3.07371e-05
236	0x37f1f9c2	2.8845741e-05
237	0x37e5906f	2.7366184e-05
238	0x37c7cfd1	2.381942e-05
239	0x37cd6fc8	2.4489957e-05
240	0x36dc561b	6.566535e-06
241	0x35fc1a10	1.8783048e-06
242	0x36cdf60e	6.1381206e-06
243	0x36ce5ef9	6.1503347e-06
244	0x35c69f6b	1.4798546e-06
245	0x359b2aa4	1.156081e-06
246	0x368093de	3.8319113e-06
247	0x36b1ca31	5.2985492e-06
248	0x367ae596	3.738654e-06
249	0x35e95889	1.738562e-06
250	0x368d5af4	4.212716e-06
251	0x37127137	8.728638e-06
252	0x366e9ec4	3.5557177e-06
253	0x366d083a	3.532054e-06
254	0x36ba921e	5.5602422e-06
255	0x3596a7d4	1.1224715e-06

exp_avg f4 [10]
0	0x3c124e82	0.0089298505
1	0x3b8c7a24	0.0042870212
2	0x3bbf608e	0.0058403676
3	0x3bb5a30d	0.005543119
4	0x3bd20e44	0.006410392
5	0x3bccef58	0.006254118
6	0x3c4beafb	0.01244616
7	0x3bf03d39	0.007331517
8	0xbbe1022d	-0.0068667145
9	0x3beeec13	0.007291326

exp_avg_sq f4 [10]
0	0x377f4f45	1.5217641e-05
1	0x368ebc02	4.2538168e-06
2	0x3746618b	1.1824431e-05
3	0x37b56cd5	2.162756e-05
4	0x388b28e2	6.6356515e-05
5	0x36cb34b8	6.0560087e-06
6	0x38948de9	7.083623e-05
7	0x38bb70d6	8.937872e-05
8	0x373e810c	1.1354929e-05
9	0x37b26c85	2.1269787e-05

exp_avg f4 [10, 10]
0	0xbb5a5854	-0.0033316808
1	0xbbd69313	-0.0065482943
2	0x3b15a4b1	0.002283376
3	0x3a3ab449	0.00071222015
4	0xb978da45	-0.00023732435
5	0x39c45532	0.0003744751
6	0xbbf220c9	-0.007389162
7	0x390beddf	0.00013344687
8	0xba456bd9	-0.0007531024
9	0xbaa86505	-0.0012847489
10	0xbabe925c	-0.0014539468
11	0xbb090dbc	-0.0020912727
12	0x3a661a2c	0.00087777036
13	0xbaff322c	-0.0019469908
14	0x3af6349f	0.0018783993
15	0xbac2ecba	-0.0014871575
16	0xbae69a02	-0.0017593505
17	0x3a8302df	0.0009995362
18	0xbacb4575	-0.0015508371
19	0xb8726615	-5.7792367e-05
20	0x3a6ffdac	0.00091549265
21	0xb94696ce	-0.0001893893
22	0x3b494f8f	0.0030717587
23	0xba17aa4d	-0.00057855697
24	0x3b2e59b5	0.0026603763
25	0x3a6e92ac	0.00091008353
26	0xbb2e2318	-0.002657121
27	0x3af5dc8d	0.0018757746
28	0x3ac816e9	0.0015265617
29	0xbadbc90f	-0.0016768294
30	0xbb80fb87	-0.0039362344
31	0xbb2d0fdc	-0.0026407158
32	0xb861ca73	-5.3832726e-05
33	0x3a12b7ce	0.0005596847
34	0xbb0c336d	-0.0021392957
35	0x3aab3ec0	0.0013064966
36	0xbadd50ba	-0.001688502
37	0xbb5302f9	-0.0032197817
38	0xba96d6b9	-0.0011508084
39	0xba06c429	-0.00051409245
40	0x3b769e8d	0.0037631125
41	0x3b2af1a5	0.0026083973
42	0xba2e7114	-0.0006654423
43	0xba24e894	-0.00062907604
44	0x3b352956	0.0027643046
45	0xba913c4d	-0.0011080593
46	0x3b134a39	0.002247466
47	0x3b45367f	0.0030092297
48	0x391a4f14	0.00014716043
49	0x3ac6aa1e	0.00151569
50	0xbaca5072	-0.0015435352
51	0x3a80e919	0.0009835094
52	0xba88fce3	-0.0010451343
53	0x3a881389	0.0010381798
54	0xbb273f9b	-0.002552009
55	0x3ac464d4	0.0014983662
56	0x3ac36b8f	0.0014909374
57	0xbb244603	-0.0025066144
58	0x3a8d9406	0.0010801561
59	0xba020be9	-0.0004960881
60	0xbaaf3d94	-0.0013369792
61	0xbb815ed4	-0.003948072
62	0x3aa3f620	0.0012509264
63	0xbb1c1ec5	-0.002382205
64	0x3b2732ce	0.002551246
65	0xbb404446	-0.002933757
66	0xbb6ef1c2	-0.0036460017
67	0x3b15fb5d	0.002288542
68	0xbb3c16d8	-0.002870014
69	0x3a77f10a	0.000945822
70	0x38ae5002	8.311869e-05
71	0x3a0f621b	0.0005469636
72	0x3aef33b6	0.0018249664
73	0xb9c4f670	-0.00037567643
74	0x3af524e5	0.0018703012
75	0x3aa81dfe	0.0012826321
76	0xba3345dc	-0.0006838718
77	0x39e8a09a	0.00044370146
78	0x398963e0	0.0002620509
79	0xba351652	-0.0006907928
80	0x3ac91d1d	0.001534376
81	0xb8b39da8	-8.564751e-05
82	0xb9960c16	-0.00028619234
83	0xb88d5918	-6.739999e-05
84	0x3add2c59	0.0016874179
85	0xbab73c9d	-0.0013979856
86	0xb8f433a5	-0.00011644446
87	0x3b182105	0.002321304
88	0x39bb13d1	0.00035682184
89	0x3a40a57e	0.0007348879
90	0x3b2bcf36	0.0026216037
91	0x3b0c2d0f	0.0021389162
92	0x39251eac	0.00015747052
93	0xb9264f19	-0.0001586046
94	0x3aac0e4c	0.0013126819
95	0x3a2804d8	0.0006409413
96	0x3adf9862	0.0017058963
97	0x3a058047	0.0005092662
98	0xba36954c	-0.0006964996
99	0x3a370a90	0.000698247

exp_avg_sq f4 [10, 10]
0	0x367f9fab	3.80909e-06
1	0x372ce01b	1.03041775e-05
2	0x363c1feb	2.8032762e-06
3	0x35e57e92	1.7098666e-06
4	0x36618b13	3.3608565e-06
5	0x36830800	3.9050356e-06
6	0x37307360	1.051728e-05
7	0x360de28d	2.1142507e-06
8	0x36997dbf	4.574394e-06
9	0x360d83fb	2.108746e-06
10	0x36ae01e4	5.185824e-06
11	0x366bf7de	3.5162006e-06
12	0x35a1faf5	1.2068473e-06
13	0x362765d9	2.4944222e-06
14	0x3644f9fa	2.9351781e-06
15	0x362ca6f2	2.5727172e-06
16	0x3651c578	3.1258369e-06
17	0x3550d192	7.7791003e-07
18	0x3692ad44	4.37131e-06
19	0x3653e7d0	3.1576383e-06
20	0x3782566b	1.553745e-05
21	0x37cef8ca	2.4672965e-05
22	0x37c187a6	2.307056e-05
23	0x36ac4d4f	5.1349994e-06
24	0x372c2873	1.0261417e-05
25	0x379fdcb9	1.9057059e-05
26	0x36906502	4.3032933e-06
27	0x36da3c64	6.5039367e-06
28	0x382df4dd	4.147446e-05
29	0x377a203c	1.4908666e-05
30	0x380f3536	3.4143413e-05
31	0x3801cdbb	3.0947598e-05
32	0x373c90d0	1.123939e-05
33	0x36736e73	3.6274112e-06
34	0x36aeaf67	5.2060236e-06
35	0x3762e205	1.3523274e-05
36	0x3637dcf0	2.7397728e-06
37	0x36c82d67	5.96575e-06
38	0x37e8f8c4	2.7772396e-05
39	0x3782902f	1.5564348e-05
40	0x3737aeee	1.0948379e-05
41	0x372a1fa4	1.01401565e-05
42	0x36bdd15e	5.6570125e-06
43	0x360f7f0f	2.1382618e-06
44	0x36879dd5	4.0416876e-06
45	0x3722074e	9.657653e-06
46	0x362aaca4	2.5432464e-06
47	0x368a2822	4.1173926e-06
48	0x37337315	1.0696026e-05
49	0x368c4acc	4.1810326e-06
50	0x371e47b2	9.434227e-06
51	0x374a92a9	1.2074285e-05
52	0x37491fbc	1.1987922e-05
53	0x367039c1	3.5796404e-06
54	0x36db60d6	6.537982e-06
55	0x374b5e2e	1.2121671e-05
56	0x3659babd	3.2444216e-06
57	0x36792acd	3.7128805e-06
58	0x37a6c309	1.9879562e-05
59	0x36f2963f	7.229653e-06
60	0x37146e94	8.847233e-06
61	0x36f52fc6	7.3071305e-06
62	0x36cda28c	6.128399e-06
63	0x36afd928	5.2406867e-06
64	0x36b69397	5.4412044e-06
65	0x36dfacea	6.6660477e-06
66	0x373edcf9	1.1376332e-05
67	0x363523e4	2.6991993e-06
68	0x37200b82	9.5394225e-06
69	0x36ae1f0e	5.1892193e-06
70	0x367d8154	3.7775217e-06
71	0x36d467d7	6.330181e-06
72	0x37095cc7	8.187438e-06
73	0x36697d0d	3.4792495e-06
74	0x369d5d55	4.68983e-06
75	0x37077fc7	8.0763775e-06
76	0x362d81cb	2.5854558e-06
77	0x362e19f7	2.5943134e-06
78	0x3755ef15	1.2751455e-05
79	0x3681d62b	3.869432e-06
80	0x36144e21	2.2099196e-06
81	0x35dd5ea9	1.6493333e-06
82	0x35f3e300	1.8170977e-06
83	0x34e45c87	4.2535632e-07
84	0x35f60334	1.832936e-06
85	0x35eab870	1.7488037e-06
86	0x359863c9	1.1353924e-06
87	0x35aa4320	1.2685523e-06
88	0x3614fb3f	2.2199963e-06
89	0x361ce5ab	2.3379496e-06
90	0x36da8a2d	6.512992e-06
91	0x371d56cc	9.378138e-06
92	0x37155f98	8.903349e-06
93	0x36adf30f	5.1840975e-06
94	0x36be7b3f	5.676789e-06
95	0x373e1cbc	1.1331573e-05
96	0x3682af9a	3.8947446e-06
97	0x368cef64	4.200194e-06
98	0x3787ba87	1.6180113e-05
99	0x3694b064	4.4312783e-06

exp_avg f4 [10]
0	0x3cb0460b	0.021517774
1	0x3c1d06d7	0.00958415
2	0xba9a14db	-0.0011755483
3	0x3c8b0d13	0.016974008
4	0xbc93a02b	-0.01802071
5	0x3b525921	0.0032096582
6	0x3c2246d5	0.009904583
7	0xba44d81d	-0.000750901
8	0xbbaf2c08	-0.005345825
9	0xbc4ebeae	-0.012618704

exp_avg_sq f4 [10]
0	0x38fe8140	0.000121357385
1	0x385e806e	5.3048534e-05
2	0x38c5cb4d	9.43156e-05
3	0x39c40193	0.00037385206
4	0x39111034	0.00013834314
5	0x38643e2a	5.441733e-05
6	0x38d99f69	0.00010377059
7	0x370eb63a	8.5062875e-06
8	0x376a50bc	1.3966284e-05
9	0x37c4f12d	2.3477327e-05

exp_avg f4 [5, 10]
0	0xbc2358a9	-0.009969869
1	0xbbd8220a	-0.0065958546
2	0x3baabea2	0.0052107135
3	0xbc204da7	-0.009784139
4	0x3c12df73	0.008964407
5	0x3aba0e98	0.0014195023
6	0x3bb6b337	0.0055755633
7	0xbc6a0952	-0.014284449
8	0x3be028ad	0.0068407864
9	0x3c67b68c	0.014142644
10	0xbc3486bb	-0.01101845
11	0xbbc556d6	-0.0060223145
12	0xbaf38127	-0.0018577919
13	0xbc0e2dc5	-0.0086779045
14	0x3b6c617a	0.0036068843
15	0x3b8c16f2	0.004275196
16	0x3bc5fd4d	0.0060421587
17	0xbc1de0a2	-0.009636076
18	0x3c123113	0.008922833
19	0x3c6484c5	0.01394767
20	0x3bc604fe	0.0060430756
21	0x3be4f19e	0.006986811
22	0x3a91bd64	0.0011119065
23	0x3bd83cbc	0.006599037
24	0xbb6ce4ae	-0.0036147046
25	0xbabf06e7	-0.0014574201
26	0xba04a6fd	-0.00050602836
27	0x3bf3399a	0.007422638
28	0xbbebbd81	-0.0071942215
29	0xbb805e1e	-0.0039174696
30	0x3bed8e1f	0.007249608
31	0x3bc6e3a7	0.0060696187
32	0x3be6a8a0	0.0070391446
33	0x3b8e59d6	0.0043442054
34	0x3b883ecb	0.004157876
35	0xbc06d246	-0.008228844
36	0xbb949914	-0.00453485
37	0x3b914f25	0.0044344836
38	0xbc505677	-0.012715927
39	0xbba9a93c	-0.005177645
40	0xbb9c44b0	-0.0047689304
41	0xbb93c947	-0.004510078
42	0x3b4f5fa9	0.0031642711
43	0xbb65877a	-0.0035023377
44	0x3bbba5ec	0.0057265665
45	0x36ec49e8	7.041952e-06
46	0x3af2a97b	0.0018513644
47	0xbbd27da8	-0.006423671
48	0x3b0f6c69	0.0021884686
49	0x3bc137af	0.0058965306

exp_avg_sq f4 [5, 10]
0	0x371bc003	9.283426e-06
1	0x371cf9b0	9.3564595e-06
2	0x36cffee5	6.1987544e-06
3	0x3790b055	1.7248249e-05
4	0x370ea404	8.502047e-06
5	0x36091ed5	2.0432537e-06
6	0x375c745a	1.3140112e-05
7	0x3837012b	4.3631688e-05
8	0x36b74697	5.4620427e-06
9	0x384bc562	4.85828e-05
10	0x379ac023	1.8447701e-05
11	0x379ba6ef	1.8555174e-05
12	0x37398c3a	1.1059508e-05
13	0x37f241e0	2.8879324e-05
14	0x36563535	3.1919456e-06
15	0x37aa199a	2.02775e-05
16	0x37d18930	2.4978624e-05
17	0x380e047d	3.385962e-05
18	0x37e63b26	2.744568e-05
19	0x381d06eb	3.743816e-05
20	0x378c4c01	1.6724693e-05
21	0x378efca9	1.7045373e-05
22	0x36f7ba16	7.382837e-06
23	0x384b45d5	4.8464008e-05
24	0x36d354f9	6.298182e-06
25	0x3704e4f0	7.921117e-06
26	0x37da0ffd	2.599507e-05
27	0x389df882	7.5326316e-05
28	0x37f9d18d	2.9780693e-05
29	0x38594c9c	5.180818e-05
30	0x37e049ff	2.6737338e-05
31	0x38a3711d	7.793515e-05
32	0x37bd7400	2.2584572e-05
33	0x37f2e127	2.8953493e-05
34	0x37399a15	1.1062734e-05
35	0x37918f3c	1.7352046e-05
36	0x379318b9	1.7535278e-05
37	0x3751c0d5	1.2502268e-05
38	0x38070250	3.2188662e-05
39	0x37664784	1.3725719e-05
40	0x36e73778	6.890794e-06
41	0x3761c9e5	1.3458052e-05
42	0x372fb2ec	1.0472471e-05
43	0x37876d85	1.6144253e-05
44	0x36cc921e	6.096684e-06
45	0x364f80d7	3.0920398e-06
46	0x36d289d2	6.274532e-06
47	0x374d2e8a	1.2229788e-05
48	0x369adbae	4.6151317e-06
49	0x375fa605	1.333049e-05

exp_avg f4 [5]
0	0x3d674ab7	0.056467738
1	0x3d3610c7	0.044449594
2	0xbd046bfd	-0.03232955
3	0xbcc95ce1	-0.02458042
4	0x3cc6fb54	0.024289764

exp_avg_sq f4 [5]
0	0x3a3f9fd0	0.00073098857
1	0x3a001951	0.0004886585
2	0x3ac8b3de	0.0015312394
3	0x393ce546	0.00018014488
4	0x39609329	0.00021417126

exp_avg f4 [31, 5]
0	0x3c878b47	0.016545905
1	0x3bac160e	0.0052516526
2	0x3b790bc2	0.0038001393
3	0xbae1c1a3	-0.0017223846
4	0x3bf470cd	0.007459736
5	0xbb1acd30	-0.0023620836
6	0x3b307d26	0.0026930063
7	0x3b643859	0.0034823625
8	0x3b13fb53	0.002258022
9	0x3bdbec69	0.006711532
10	0x3ce04a1e	0.027379092
11	0x3c06ed4b	0.008235286
12	0x3b95e929	0.004574914
13	0xbb3caebc	-0.0028790673
14	0x3c3559ae	0.011068745
15	0x3c8b275b	0.01698654
16	0x3b9b5c69	0.0047412408
17	0x3b2bd82e	0.0026221382
18	0xba80fa99	-0.0009840309
19	0x3bbe842a	0.005814095
20	0x3cb2c695	0.021823207
21	0x3b81c5e7	0.0039603594
22	0x3af0b960	0.0018365793
23	0xbb27231b	-0.0025503102
24	0x3bb5aed6	0.0055445237
25	0x3b048f91	0.0020227174
26	0x3942cdc4	0.00018577935
27	0x3b03d2ff	0.0020114777
28	0xbaa18305	-0.0012322372
29	0x3b604b7a	0.0034224675
30	0x3c9607d1	0.018314274
31	0x3b9ece33	0.004846358
32	0x3b3c1f27	0.0028705092
33	0xbb4e91d9	-0.0031520037
34	0x3c07ec27	0.008296049
35	0x3cd104ef	0.025515048
36	0x3bd0c5e9	0.006371249
37	0x3b7e8a2e	0.0038839686
38	0xbb8765d8	-0.004132014
39	0x3c24c794	0.010057349
40	0x3caf4f1c	0.021400027
41	0x3b8e42b8	0.0043414496
42	0x3b2d2255	0.0026418169
43	0xbb19f662	-0.0023492803
44	0x3be5478a	0.0069970535
45	0xbb6a5d86	-0.003576131
46	0xbae594da	-0.0017515675
47	0x390568d9	0.00012722927
48	0xba4877f1	-0.0007647267
49	0x39c132d6	0.00036849704
50	0x3c4bb73e	0.012433825
51	0x3b3af03e	0.0028524543
52	0x3a872fd6	0.0010313939
53	0xb904f407	-0.00012679408
54	0x3b52bc12	0.0032155556
55	0xbc751acc	-0.014960002
56	0xbb40380e	-0.0029330286
57	0x39d72528	0.0004103568
58	0x3bb6acbf	0.005574792
59	0xbadb5e15	-0.0016736413
60	0x3c0aff0a	0.008483658
61	0x3b1232f6	0.0022308207
62	0x3a86ab94	0.0010274523
63	0x3a396363	0.0007072
64	0x3b30e513	0.0026992008
65	0x3c9ca101	0.019119741
66	0x3ba466f1	0.0050171544
67	0x3b082749	0.002077537
68	0xba646595	-0.00087126467
69	0x3bbf890e	0.0058451956
70	0xbc1345f9	-0.008988851
71	0xbb98b5d0	-0.0046603456
72	0xbb3b61c2	-0.0028592204
73	0x3b1eff34	0.0024261
74	0xbbad8de9	-0.005296458
75	0xbc124af2	-0.008929001
76	0xbb297375	-0.0025856171
77	0xbb030bc3	-0.0019996024
78	0xb999606e	-0.0002925428
79	0xbab79d5b	-0.0014008688
80	0x3b7a4d61	0.0038193094
81	0x3ada4d36	0.0016655091
82	0xba8c882a	-0.0010721732
83	0xbaaa9e82	-0.001301721
84	0x3b1df3ad	0.002410154
85	0x3b8db20b	0.004324203
86	0x3a36cd00	0.00069732964
87	0xba3a98f2	-0.00071181275
88	0xba1c508a	-0.0005962929
89	0x3ae1c034	0.0017223419
90	0xbbab8459	-0.005234283
91	0xbb3e9b3f	-0.0029084233
92	0xba79827d	-0.00095180405
93	0x3aca18d4	0.0015418776
94	0xbb717ad9	-0.0036846905
95	0xbbe844df	-0.007088288
96	0xbb0f5505	-0.0021870744
97	0xb9874f59	-0.00025808325
98	0x397055c5	0.00022920135
99	0xb958a7bd	-0.00020661853
100	0x3ca0968b	0.019603034
101	0x3bc68fbf	0.0060596163
102	0x3b84a390	0.0040478185
103	0xbb21ce0f	-0.002468947
104	0x3c100d2b	0.008792202
105	0xbafbb903	-0.0019204918
106	0x3b20ca64	0.0024534697
107	0x3b58463a	0.0033000843
108	0x3ab094a4	0.0013472033
109	0x3bced9b8	0.006312575
110	0x3d1037c0	0.035209417
111	0x3c31c403	0.0108499555
112	0x3bb15cbb	0.0054126657
113	0xbb81329b	-0.0039428
114	0x3c6ec865	0.014574145
115	0x3c66cfa8	0.014087595
116	0x3b85baa1	0.004081086
117	0x3b04bbae	0.0020253467
118	0xba84c4d9	-0.0010129466
119	0x3ba363c1	0.004986257
120	0x3ce1b9a2	0.027554337
121	0x3bc81e1c	0.006107105
122	0x3b59d1fe	0.0033236737
123	0xbba04ace	-0.00489173
124	0x3c1fad0e	0.009745849
125	0x3c0870c7	0.008327669
126	0x3b25e878	0.0025315564
127	0x3b212f92	0.0024595005
128	0xbb673268	-0.0035277847
129	0x3bdbc096	0.0067063076
130	0x3c8ee1d7	0.017441673
131	0x3b9b4d7d	0.004739462
132	0x3acce7f8	0.0015633097
133	0xbb902292	-0.0043986524
134	0x3bfb7b89	0.0076746386
135	0x3ce49fd4	0.027908243
136	0x3bea2f1c	0.007146729
137	0x3b5c5827	0.0033621879
138	0xbbbd401a	-0.005775464
139	0x3c347051	0.011013106
140	0x3d144048	0.036194116
141	0x3c277be0	0.010222405
142	0x3beac459	0.0071645197
143	0xbbd63e14	-0.006538162
144	0x3c8a4ac9	0.016881363
145	0x3c3ea624	0.011636291
146	0x3b350724	0.0027622664
147	0x3af0a6b1	0.0018360225
148	0xbb833a0d	-0.004004723
149	0x3be09b1a	0.006854427
150	0xbcad386e	-0.021145072
151	0xba3b17b2	-0.0007137015
152	0x3b460034	0.0030212523
153	0xbba957e6	-0.005167949
154	0x3b8c5ef2	0.0042837793

exp_avg_sq f4 [31, 5]
0	0x3892fd7e	7.009039e-05
1	0x36167f8c	2.2425984e-06
2	0x38014be3	3.082667e-05
3	0x365dc39c	3.3045426e-06
4	0x380bf69e	3.3369863e-05
5	0x371407e4	8.823325e-06
6	0x35fb2cf2	1.8714038e-06
7	0x36aa0b95	5.067743e-06
8	0x3622e44f	2.4272774e-06
9	0x3725b5e3	9.877115e-06
10	0x38e986ec	0.00011135437
11	0x368121d9	3.84844e-06
12	0x382273f0	3.8731785e-05
13	0x36971c91	4.5034762e-06
14	0x3835b6b5	4.3323922e-05
15	0x3884ba07	6.328901e-05
16	0x35f5da27	1.8317413e-06
17	0x37d321e2	2.5168938e-05
18	0x364242c6	2.894712e-06
19	0x37e0d32c	2.6801215e-05
20	0x38b5191b	8.635429e-05
21	0x35c10433	1.4380843e-06
22	0x37e0ca37	2.6797044e-05
23	0x3697ae15	4.5204165e-06
24	0x37f3bdd5	2.9056255e-05
25	0x38177fe0	3.61203e-05
26	0x34e8fbfd	4.3396713e-07
27	0x37f101b9	2.8730241e-05
28	0x36594ca7	3.2380137e-06
29	0x380f1ec2	3.4122502e-05
30	0x38a85198	8.026062e-05
31	0x35d95e95	1.6195287e-06
32	0x3825115a	3.9355225e-05
33	0x36aa0a1a	5.067571e-06
34	0x384347ec	4.6558605e-05
35	0x39005230	0.00012237648
36	0x361d0e44	2.3403127e-06
37	0x383f2527	4.557255e-05
38	0x36d5697e	6.3601756e-06
39	0x385527f6	5.0820374e-05
40	0x38ad1506	8.253199e-05
41	0x35d81a40	1.6100894e-06
42	0x37b71d1b	2.1828853e-05
43	0x363489e9	2.6902364e-06
44	0x37d19ed9	2.498871e-05
45	0x36f5cdcd	7.3255273e-06
46	0x354c336e	7.607076e-07
47	0x3690c554	4.3145064e-06
48	0x35ada01a	1.29361e-06
49	0x36f0ec29	7.18005e-06
50	0x380af0e6	3.3126118e-05
51	0x356a3703	8.7251846e-07
52	0x376bdefd	1.405901e-05
53	0x35bd7b48	1.4117477e-06
54	0x378839a5	1.6239306e-05
55	0x387078b5	5.7332876e-05
56	0x35a26a2c	1.2100841e-06
57	0x36bf5f93	5.70337e-06
58	0x37212510	9.604977e-06
59	0x367a0936	3.7258264e-06
60	0x37c01ab9	2.2900627e-05
61	0x352efb33	6.5185594e-07
62	0x377293b6	1.4458716e-05
63	0x35af5f13	1.3066186e-06
64	0x37922bf6	1.7425027e-05
65	0x385a3803	5.2027415e-05
66	0x35da813d	1.6279879e-06
67	0x3796bbf7	1.7968921e-05
68	0x35f92107	1.8561558e-06
69	0x37a823d4	2.0043844e-05
70	0x37babf29	2.2261944e-05
71	0x368890ad	4.0699583e-06
72	0x36885294	4.062729e-06
73	0x35f4b6df	1.8232639e-06
74	0x369feef5	4.7663875e-06
75	0x372e8b53	1.0403647e-05
76	0x3595af15	1.1152321e-06
77	0x36eb22d1	7.007599e-06
78	0x356cefcc	8.82658e-07
79	0x3747d966	1.1911941e-05
80	0x37042278	7.8758385e-06
81	0x35229650	6.0568436e-07
82	0x3729c798	1.01196565e-05
83	0x359629e1	1.1188059e-06
84	0x37815c74	1.542105e-05
85	0x376a880f	1.39791655e-05
86	0x35501ba9	7.752629e-07
87	0x377ece94	1.51876775e-05
88	0x360fdcb2	2.1437122e-06
89	0x37b069f7	2.1030179e-05
90	0x3783b913	1.5702599e-05
91	0x3580d0d8	9.597525e-07
92	0x360f1cf8	2.1325523e-06
93	0x35649906	8.51593e-07
94	0x362646ec	2.477721e-06
95	0x372ee93c	1.0425512e-05
96	0x3588e10a	1.0198285e-06
97	0x369b70aa	4.632476e-06
98	0x3530ce1e	6.586505e-07
99	0x3709c3e5	8.211447e-06
100	0x38b9e1ec	8.863569e-05
101	0x363a2767	2.7739095e-06
102	0x381d92ff	3.7568618e-05
103	0x36883e15	4.060343e-06
104	0x38336b7e	4.2777036e-05
105	0x3709af30	8.206625e-06
106	0x35faaa9c	1.8676105e-06
107	0x369b5c56	4.6301093e-06
108	0x35e75fb7	1.7238698e-06
109	0x3722d771	9.706114e-06
110	0x391ceee4	0.00014966313
111	0x36c34889	5.819897e-06
112	0x384ad13d	4.835542e-05
113	0x36bbc4cf	5.595946e-06
114	0x387415a2	5.819428e-05
115	0x3857617c	5.1350784e-05
116	0x35c9a5e4	1.5023948e-06
117	0x37b9b6a8	2.2138775e-05
118	0x3626a824	2.4833798e-06
119	0x37d03a72	2.4822748e-05
120	0x38ffff25	0.00012206872
121	0x3624d7e8	2.4563578e-06
122	0x38275bb7	3.990132e-05
123	0x36feac26	7.5898306e-06
124	0x38407d40	4.5893015e-05
125	0x384d1b5a	4.8901282e-05
126	0x355adb48	8.1530425e-07
127	0x37f1a7c2	2.8807557e-05
128	0x3681c865	3.8678286e-06
129	0x3815d83f	3.5725763e-05
130	0x38a71f07	7.96896e-05
131	0x35dd52f8	1.648993e-06
132	0x381d37c2	3.7483645e-05
133	0x36c3461f	5.819616e-06
134	0x383e1389	4.5317724e-05
135	0x391d32f2	0.00014991665
136	0x364656fa	2.9554926e-06
137	0x386c3f3e	5.6325684e-05
138	0x370ce713	8.398451e-06
139	0x38896a44	6.5524626e-05
140	0x3927aa5a	0.00015989822
141	0x3697dd2c	4.5258985e-06
142	0x384402d0	4.673266e-05
143	0x36ec62c1	7.0448446e-06
144	0x387c1429	6.0100258e-05
145	0x381a4067	3.677644e-05
146	0x3530c7f0	6.5856057e-07
147	0x37a983f8	2.0207823e-05
148	0x3679b33d	3.7208222e-06
149	0x37e16b1c	2.6871967e-05
150	0x3879cad1	5.9555114e-05
151	0x359723e7	1.1260826e-06
152	0x37dab5f4	2.6072354e-05
153	0x365a0941	3.2489918e-06
154	0x37a1ce9f	1.9288911e-05

exp_avg f4 [31]
0	0xbd21a572	-0.03946442
1	0xbb232b4e	-0.0024897638
2	0xbd80935d	-0.06278107
3	0xbd1a6277	-0.03769156
4	0xbd387b28	-0.045039326
5	0xbc12fe14	-0.00897171
6	0xbd31003e	-0.04321312
7	0xbd6e5e6d	-0.05819552
8	0xbd405829	-0.046959076
9	0x3bb15b2c	0.00541248
10	0xbcd3d277	-0.025857193
11	0x3cf83005	0.030296335
12	0xbc96d8b0	-0.018413872
13	0xbd2793b3	-0.04091234
14	0x3cc154db	0.023600033
15	0x3c863f9b	0.016387751
16	0xbc292a16	-0.0103249755
17	0xbc2e2738	-0.010629468
18	0x3c618e82	0.013766887
19	0x3c3f13ee	0.011662466
20	0xbd3edc38	-0.046596736
21	0xbb4b164d	-0.0030988634
22	0xbda5c457	-0.080940895
23	0xbd01421e	-0.031557195
24	0xbd792f68	-0.060836226
25	0xbcc82e39	-0.024436103
26	0xbd293dcc	-0.0413187
27	0xbd832a48	-0.06404549
28	0xbdb1dcbd	-0.086846806
29	0xbcf58620	-0.029971182
30	0x3ceb75af	0.02874264
