Cancer-senn/trial7/models/cancer/grad3_Hinput_Thdummy_Reg1e-02_LR0.001/checkpoint.pth.tar (torch_old, 36110 bytes, 34 tensors)

parametrizer.linear1.weight f4 [10, 30]
0	0xbd8298d2	-0.063768044
1	0xbde8b194	-0.11361995
2	0xbce9885f	-0.02850741
3	0x3c5aeabb	0.013361628
4	0x3e548a29	0.20755829
5	0x3bc2f6bc	0.005949823
6	0xbdaa54d5	-0.08316962
7	0x3d847026	0.06466703
8	0x3cc20d1e	0.023687895
9	0x3ddbe4ab	0.10736974
10	0xbdd264a1	-0.102731
11	0x3d15a635	0.03653546
12	0xbe16c091	-0.14721896
13	0x3dc61272	0.09671487
14	0x3dec84be	0.11548756
15	0x3dea5164	0.11441305
16	0xbe248a08	-0.1606828
17	0x3e1b68a0	0.1517663
18	0xbcba074a	-0.022708554
19	0xbcf4eba2	-0.029897515
20	0xbd6fc7e5	-0.058540244
21	0xbe579e77	-0.21056543
22	0x3d11abcd	0.035564233
23	0x3da39086	0.0798655
24	0x3df7e545	0.121042766
25	0x3e0efaee	0.1396291
26	0x3e0d63b4	0.13807565
27	0xbda2a76d	-0.0794209
28	0xbd088d5d	-0.03333794
29	0x3e0b833a	0.13624278
30	0x3e420822	0.18948415
31	0xbd97055b	-0.07374068
32	0x3c83665e	0.016040023
33	0x3e44f8b5	0.19235499
34	0xbd8c2095	-0.06842152
35	0x3d893e34	0.067013174
36	0x3dc190de	0.09451459
37	0x3d92ec63	0.071739934
38	0x3d50e647	0.05100086
39	0x3de3fe78	0.111325204
40	0x3e08fe0d	0.13378163
41	0xbd0b2f25	-0.033980507
42	0xbdd9ba3c	-0.106312245
43	0x3dc3327d	0.09531114
44	0xbc8f283f	-0.017475246
45	0xbbe25455	-0.006907026
46	0xbd9ef75f	-0.07762026
47	0xbd378284	-0.044802204
48	0x3d2724e3	0.040806662
49	0x3e1b09dd	0.15140481
50	0x3de940b5	0.11389295
51	0x3d6db042	0.05802942
52	0x3e54e3be	0.20790002
53	0x3e2ed20c	0.17072314
54	0x3df40426	0.11914854
55	0x3de90b97	0.11379164
56	0x3dfa8ea9	0.122342415
57	0xbbbe505a	-0.0058079185
58	0xbca35d81	-0.019942047
59	0xbd868c9a	-0.06569786
60	0xbc3c266e	-0.011483772
61	0xbd93fdee	-0.072261676
62	0x3d575c65	0.05257835
63	0xbd21b933	-0.03948326
64	0x3d9fa321	0.07794786
65	0xbe01f2bc	-0.12690252
66	0x3dbe4d10	0.09292042
67	0xbd75c628	-0.06000343
68	0xbd852e2d	-0.06502948
69	0x3c8447d1	0.016147526
70	0x3e1a739c	0.15083164
71	0x3cb4451b	0.022005608
72	0xbdb65f53	-0.089049004
73	0x3e10b098	0.14129865
74	0xbe20f47f	-0.15718268
75	0xbcc10f8f	-0.02356699
76	0xbe4dd2ab	-0.20099895
77	0xbd0b362b	-0.033987205
78	0xbc4bfbf5	-0.012450208
79	0xbe1fec74	-0.15617543
80	0x3d858932	0.065203086
81	0xbd8f58bd	-0.06999347
82	0x3e0d0b2a	0.1377379
83	0xbe2438d2	-0.160373
84	0xbde337de	-0.1109464
85	0x3dce3707	0.100690894
86	0x3cdc6eeb	0.026908359
87	0xbddf3b1b	-0.10899945
88	0x3dfd648a	0.12372692
89	0x3d0ebfe0	0.034850955
90	0x3ce78883	0.028263336
91	0xbe33444c	-0.17506522
92	0xbdcf9da8	-0.101374924
93	0x3b918bcb	0.0044417134
94	0x3d93e94d	0.07222233
95	0x3da2dc54	0.079521805
96	0x3d93c4e4	0.07215288
97	0xbdd97214	-0.10617462
98	0x3e116f00	0.142025
99	0xbe48f873	-0.19626026
100	0x3c270a7c	0.010195371
101	0x3dc2f4d5	0.09519354
102	0x3d89ea89	0.06734187
103	0xbe225442	-0.15852454
104	0x3c9dcebc	0.019263618
105	0x3deed7c3	0.11662247
106	0xbd953521	-0.07285524
107	0x3d7b440b	0.061344188
108	0xbe1d5a18	-0.153664
109	0xbd8b0af2	-0.06789197
110	0xbdea7153	-0.11447396
111	0x3dba9254	0.09109941
112	0x3d9c2b72	0.07625474
113	0xbd8d3335	-0.068945326
114	0x3e143358	0.14472711
115	0x3d97406d	0.07385335
116	0xbdef9eff	-0.11700248
117	0xbd492b5e	-0.049113624
118	0x3d17d3e2	0.0370673
119	0xbd9acb20	-0.07558274
120	0xbc259b65	-0.01010785
121	0xbdfd5932	-0.12370528
122	0x3cac1970	0.021008223
123	0x3d47cc2d	0.0487787
124	0xbe19888f	-0.14993499
125	0xbcbba8ac	-0.022907577
126	0x3cf6e077	0.03013633
127	0x3e137738	0.14400947
128	0x3e0659ae	0.13120148
129	0xbd4f7480	-0.050648212
130	0x3dcf00bb	0.10107561
131	0x3dacd1b8	0.08438438
132	0xbddf536c	-0.10904583
133	0x3e33cf68	0.17559588
134	0x3d3c4fb7	0.04597446
135	0xbbe7b0c9	-0.007070635
136	0xbd959d55	-0.07305399
137	0x3db399f3	0.08769598
138	0x3e5fd696	0.21859202
139	0x3e2d6e81	0.16936685
140	0xbde1447e	-0.10999392
141	0x3da419f6	0.08012764
142	0xbe30b1de	-0.17255351
143	0xbda8ddc0	-0.082454205
144	0x3d77fb23	0.060542237
145	0xbe115168	-0.1419121
146	0x3dfe7272	0.124241725
147	0x3d91d11e	0.07119964
148	0xbdc1acc3	-0.0945678
149	0xbd8000da	-0.062501624
150	0xbe08a3d3	-0.13343744
151	0x3d8b4f93	0.06802287
152	0x3db6f790	0.089339375
153	0xbe287c1d	-0.16453595
154	0xbdeef04a	-0.11666925
155	0x3e5b3940	0.21408558
156	0x3c458684	0.012055997
157	0xbe0df784	-0.13863951
158	0x3dcdd289	0.10049922
159	0x3d99efda	0.07516451
160	0xbe44e7f3	-0.19229107
161	0x3e21c9e2	0.15799668
162	0x3e1df860	0.15426779
163	0x3e14eddb	0.1454386
164	0x3d74013d	0.059571493
165	0x3e14452c	0.14479512
166	0x3e0092e7	0.12556039
167	0x3e49154b	0.19637029
168	0xbda75fa9	-0.081725426
169	0x3db5abf1	0.08870686
170	0x3e220b29	0.1582457
171	0x3e20fe90	0.15722108
172	0xbde62418	-0.11237353
173	0x3dc3e647	0.09565406
174	0x3ccedc3e	0.025251504
175	0xbde56ed3	-0.11202779
176	0xbde45448	-0.11148888
177	0xbd3dbb40	-0.046321154
178	0xbdbc329b	-0.0918934
179	0xbd5986f8	-0.05310723
180	0x3dbf4693	0.09339633
181	0x3e1b34a9	0.15156807
182	0x3dad35a0	0.08457494
183	0x3c8fc4a8	0.017549828
184	0xbe33acc2	-0.1754637
185	0xbe459e83	-0.19298749
186	0x3b96afc8	0.0045985915
187	0xbe1a2674	-0.15053731
188	0x3de2961d	0.11063788
189	0xbdb8296c	-0.089922756
190	0xbd5f8c7e	-0.054577343
191	0x3e1ae5c5	0.15126713
192	0x3d16da5f	0.03682935
193	0xbe259071	-0.16168381
194	0x3db00ed2	0.08596577
195	0xbb36f9f8	-0.002791999
196	0xbd7663b7	-0.06015369
197	0xbc4a31d9	-0.012340986
198	0x3a67400e	0.00088214956
199	0x3e224318	0.15845907
200	0x3d6c93d2	0.05775816
201	0x3c80f31b	0.015740922
202	0xbcb31c89	-0.021864193
203	0x3dfa951b	0.12235471
204	0xbd7b1119	-0.061295602
205	0x3a463608	0.0007561152
206	0xbd4644a5	-0.04840531
207	0x3d388b8b	0.045054954
208	0x3d803b3e	0.062612996
209	0x3e21d741	0.15804769
210	0xbe3e8d90	-0.1860869
211	0xbe0544e4	-0.13014561
212	0xbe02b9d0	-0.12766194
213	0xbe091ead	-0.13390608
214	0x3df24bdd	0.11830876
215	0xbdea058b	-0.114268385
216	0xbdee4f67	-0.116362385
217	0x3df9d88e	0.12199508
218	0xbe0f3fa2	-0.13989118
219	0xbc553a90	-0.013014451
220	0x3d57f3ff	0.052722927
221	0x3e023515	0.12715562
222	0x3dbb0207	0.09131246
223	0xbdbadd1e	-0.09124206
224	0x3dafa74e	0.08576833
225	0xbd5ef998	-0.05443725
226	0x3dbee32a	0.09320672
227	0x3e1976f2	0.1498678
228	0x3d126004	0.0357361
229	0x3e36ac6a	0.17839208
230	0xbdde0142	-0.10840084
231	0x3da95a8f	0.08269226
232	0x3dec4577	0.11536687
233	0xbe251151	-0.16119887
234	0xbd96c38e	-0.07361518
235	0xbda32f0c	-0.07967958
236	0x3d896687	0.06709009
237	0x3bbafaed	0.005706182
238	0x3e1447b2	0.14480475
239	0x3e41d7e9	0.1893002
240	0x3d386620	0.04501927
241	0x3da98c90	0.08278763
242	0xbd155dc0	-0.03646636
243	0xbd4c30e3	-0.04985131
244	0xbe0ec15d	-0.1394095
245	0x3d04cfaf	0.032424625
246	0x3e250b87	0.16117679
247	0xbe3e094c	-0.18558234
248	0x3dcc5753	0.09977593
249	0x3e2459d2	0.16049889
250	0xbd77061a	-0.060308553
251	0xbd847ecf	-0.06469499
252	0x3d978537	0.073984556
253	0x3e06936e	0.13142177
254	0x3e05d08d	0.13067837
255	0xbd392b50	-0.04520732

parametrizer.linear1.bias f4 [10]
0	0xbc347cd8	-0.011016093
1	0x3dfc42f1	0.123174556
2	0x3d7ab3d8	0.06120667
3	0xbdf7eb10	-0.121053815
4	0xbd1c96c9	-0.038229737
5	0x3db055c2	0.08610107
6	0xbe6765d8	-0.22597444
7	0xbe518f28	-0.20464766
8	0xbdd3918c	-0.10330495
9	0x3d8498e9	0.06474478

parametrizer.linear2.weight f4 [10, 10]
0	0xbe8f1c3d	-0.27951232
1	0x3e6521fe	0.22376248
2	0x3e1d1d99	0.15343322
3	0xbe3deb74	-0.1854685
4	0x3e8523d1	0.26003888
5	0x3dd96caf	0.10616433
6	0x3dd3d809	0.1034394
7	0xbe0243cc	-0.12721175
8	0x3eaa5409	0.3326724
9	0xbdaf2c34	-0.08553353
10	0xbe4f103d	-0.20221038
11	0x3e09bef1	0.13451745
12	0xbea8af63	-0.3294631
13	0x3e2e5593	0.17024831
14	0xbd5872c6	-0.05284383
15	0xbe17e6ca	-0.14834133
16	0x3ea8f94c	0.33002698
17	0x3e589be9	0.21153225
18	0x3e61c4fc	0.220478
19	0xbe87b784	-0.265072
20	0xbe431e5a	-0.19054547
21	0xbe9f9dad	-0.31174985
22	0xbe60ad86	-0.21941194
23	0xbe2a7fa1	-0.16650249
24	0x3e2ce2d9	0.1688341
25	0xbdfd3611	-0.12363828
26	0xbca1f592	-0.019770417
27	0x3dd2b8fc	0.10289189
28	0xbe459143	-0.19293694
29	0x3dc10581	0.09424878
30	0xbd0a5fcc	-0.033782765
31	0xbe684456	-0.22682318
32	0x3e5fb12a	0.21844926
33	0xbe1a9eb6	-0.15099606
34	0x3e06ec84	0.13176161
35	0xbe7b4a30	-0.24540019
36	0xbbf81fc2	-0.007572145
37	0x3e8765f4	0.26444972
38	0xbe30225f	-0.17200612
39	0xbe48f118	-0.1962322
40	0xbe312471	-0.17299058
41	0xbe93d833	-0.28875884
42	0x3e07f7ed	0.1327817
43	0xbe88d4d8	-0.26724887
44	0xbd0de629	-0.034643326
45	0xbe00311b	-0.12518732
46	0xbe62d1c5	-0.22150333
47	0xbe6548b0	-0.2239101
48	0x3e3ac9dc	0.18241066
49	0x3e206e9d	0.15667196
50	0x3ea2751d	0.31729975
51	0xbe0692d3	-0.13141946
52	0xbdb29a09	-0.08720786
53	0x3e8714b0	0.2638297
54	0xbd1f3248	-0.03886631
55	0x3e7c210d	0.24621983
56	0xbbcd1a17	-0.0062592137
57	0xbdb13641	-0.08652926
58	0x3c22eef6	0.009944668
59	0xbe85e73f	-0.2615299
60	0xbe01395c	-0.12619537
61	0x3e8016d6	0.25017422
62	0x3b64ca20	0.0034910515
63	0xbe176254	-0.14783603
64	0xbe8175e4	-0.25285256
65	0xbe8be20c	-0.27320898
66	0xbb881ac2	-0.0041535804
67	0xbe0c90dc	-0.13727134
68	0x3dfe0282	0.12402822
69	0x3e94ce43	0.29063615
70	0xbe8fdcd1	-0.28098157
71	0x3e1fe6bf	0.15615366
72	0x3e1a2d07	0.15056239
73	0xbe892148	-0.26783204
74	0xbea40323	-0.32033643
75	0x3e1bfbe8	0.15232813
76	0x3e081ab5	0.13291438
77	0xbe7667dc	-0.24063057
78	0x3e8e225a	0.27760583
79	0x3e5f3119	0.21796073
80	0x3e633407	0.22187816
81	0x3e4888a4	0.19583374
82	0x3da81430	0.082069755
83	0x3d84d1bd	0.06485317
84	0xbe69f011	-0.22845484
85	0xbd497023	-0.049179208
86	0xbe4e1ac0	-0.20127392
87	0xbe7baf8b	-0.24578683
88	0xbe95e956	-0.29279584
89	0xbbe4f1fd	-0.006986855
90	0x3ce587d4	0.02801887
91	0x3e5a4ec9	0.21319117
92	0x3e8a2931	0.26984552
93	0xbc9837e8	-0.018581346
94	0x3e962736	0.2932679
95	0x3e570090	0.20996308
96	0xbea7b8c2	-0.32758147
97	0xbe9743c7	-0.29543898
98	0x3e76bfd1	0.2409661
99	0xbe732f6f	-0.23748563

parametrizer.linear2.bias f4 [10]
0	0xbd176cb2	-0.036968894
1	0xbe93f453	-0.28897342
2	0x3e9ab82f	0.30218646
3	0x3e0f5fdf	0.14001416
4	0xbe532c2b	-0.20622317
5	0x3e13a660	0.14418936
6	0xbe5ef044	-0.21771342
7	0xbe28ef1c	-0.16497463
8	0x3e8d337e	0.27578348
9	0xbeb24740	-0.34819984

parametrizer.linear3.weight f4 [5, 10]
0	0xbe870667	-0.26372072
1	0xbe5dcfd6	-0.21661314
2	0x3e4d74ff	0.20064162
3	0xbe393ba8	-0.18089163
4	0x3e8dfef1	0.27733567
5	0xbe81e543	-0.25370225
6	0x3de8668c	0.11347684
7	0x3d9f02f8	0.07764238
8	0x3e4d7c27	0.20066892
9	0x3e22efa9	0.15911736
10	0x3d8efc42	0.06981708
11	0xbe3b6e25	-0.18303736
12	0xbc9ec0f4	-0.019379117
13	0xbe36d0b4	-0.17853051
14	0x3e52d8dd	0.2059054
15	0xbe96ed56	-0.29477948
16	0x3dfeb265	0.1243637
17	0x3e2d8f99	0.1694931
18	0xbdb19fdc	-0.08673069
19	0xbe379f6c	-0.17931908
20	0x3e0dd599	0.13851012
21	0x3eb65b9d	0.3561677
22	0x3e194eb7	0.14971434
23	0xbea139cb	-0.31489405
24	0xbdbbf67d	-0.09177873
25	0x3bff1c27	0.0077853384
26	0xbda14798	-0.078749835
27	0xbe332ecf	-0.17498325
28	0xbe6f7f32	-0.23388365
29	0x3da6a52b	0.08136972
30	0x3eab8450	0.33499384
31	0x3cd19718	0.025584742
32	0xbd69a5da	-0.057042934
33	0xbe906bf6	-0.28207368
34	0xbe77bc9b	-0.24193041
35	0xbdac058a	-0.08399494
36	0x3db59eb4	0.08868161
37	0xbd8659d8	-0.06560105
38	0xbe9e3b90	-0.30904818
39	0xbe73d0fc	-0.2381019
40	0x3e96d54b	0.29459605
41	0xbdf98366	-0.121832654
42	0x3e75859c	0.23976749
43	0x3ea01cfb	0.3127211
44	0x3ddb9bd1	0.10723079
45	0xbdae1586	-0.08500199
46	0x3e3f67ce	0.18691942
47	0xbe18e2ff	-0.14930342
48	0x3e32c0a9	0.17456307
49	0xbdabbd89	-0.0838576

parametrizer.linear3.bias f4 [5]
0	0x3d37637b	0.044772606
1	0x3e8d0d2c	0.27549112
2	0x3e7514ab	0.23933665
3	0xbb0ea0ca	-0.0021763318
4	0x3eb361ed	0.3503565

parametrizer.linear4.weight f4 [31, 5]
0	0xbe051d8e	-0.12999555
1	0xbe91b38e	-0.28457302
2	0x3ed282d5	0.41115442
3	0xbe02f876	-0.12790093
4	0x3e96c31d	0.29445735
5	0x3e532fe7	0.20623742
6	0xbe32aaa6	-0.1744791
7	0x3ef839de	0.4848165
8	0x3ce87ef7	0.028380854
9	0x3e17c033	0.14819412
10	0xbe62df08	-0.22155392
11	0x3dd04336	0.101690695
12	0x3dd65796	0.104659244
13	0xbe473f51	-0.19457747
14	0x3eac0a95	0.33601823
15	0x3e377cd9	0.1791872
16	0xbe9bc603	-0.30424508
17	0xbe3a36f4	-0.18185025
18	0x3e8ea972	0.27863652
19	0xbe59164f	-0.21199916
20	0x3c6ca4aa	0.014443556
21	0x3e8b60e2	0.27222353
22	0x3e4ca9f1	0.19986703
23	0x3ea4782f	0.32122943
24	0x3d16ccdd	0.036816467
25	0x3bfbdfe4	0.007686602
26	0xbe094ce7	-0.13408242
27	0x3ed84fc7	0.42248365
28	0x3ebb9b71	0.3664203
29	0xbe423315	-0.18964799
30	0xbd892dc7	-0.066981845
31	0xbe498e97	-0.196833
32	0x3d855f63	0.06512334
33	0xbee25680	-0.4420662
34	0x3ecc8ef9	0.3995283
35	0xbe220f2f	-0.15826105
36	0xbebfcc23	-0.3746043
37	0xbe575dcd	-0.21031876
38	0xbea720a1	-0.3264208
39	0x3e88f8a7	0.26752207
40	0x3e9f230f	0.31081435
41	0xbde60535	-0.11231462
42	0xbeb171a3	-0.3465701
43	0x3e1db092	0.15399387
44	0xbe86cbfd	-0.26327506
45	0x3ed18bd2	0.40926987
46	0xbed7f23e	-0.42177004
47	0x3eb7adf8	0.35874915
48	0x3e890386	0.267605
49	0x3e5757c8	0.2102958
50	0x3e22f311	0.15913035
51	0x3df67c44	0.120354205
52	0x3e294afd	0.16532512
53	0xbe6d21b2	-0.23157385
54	0xbc60cfa7	-0.013721383
55	0xbe9e7c3a	-0.30954152
56	0x3ec8c9ab	0.3921636
57	0xbe526326	-0.20545635
58	0xbe578366	-0.21046218
59	0xbe991c96	-0.29904622
60	0x3ec80f0b	0.39073977
61	0xbe99fc71	-0.3007541
62	0x3ea24368	0.31692052
63	0xbe4de2e5	-0.20106085
64	0x3f006fea	0.5017077
65	0x3e4cb8ac	0.19992322
66	0xbd79f8fa	-0.06102846
67	0xbe9a8899	-0.3018234
68	0x3d9c14fe	0.076211914
69	0x3cc1af49	0.023643153
70	0x3e7b2ae5	0.24528082
71	0xbeb46b40	-0.35238075
72	0xbe3f4848	-0.18679917
73	0x3dc0f15f	0.09421038
74	0x3d8e9f1e	0.06963943
75	0xbe377d31	-0.1791885
76	0x3e91b505	0.2845842
77	0xbebca191	-0.36842015
78	0x3e87ec03	0.2654725
79	0xbd845339	-0.06461186
80	0x3e9b6ffa	0.3035887
81	0xbdff75b3	-0.12473621
82	0x3e8f2606	0.27958697
83	0xbc827d3b	-0.015928855
84	0x3e860908	0.26178765
85	0x3ec5aa7d	0.38606635
86	0xbe413cb8	-0.18870819
87	0x3e824a0b	0.25447115
88	0x3ecc82d1	0.39943555
89	0xbdafa241	-0.08575869
90	0x3e9b4c7b	0.30331787
91	0x3e0f5c42	0.14000037
92	0xbd3eb366	-0.046557806
93	0x3c9ffedd	0.019530708
94	0xbea6b874	-0.32562602
95	0x3ece2a14	0.40266478
96	0xbdf2d11b	-0.1185629
97	0xbecee194	-0.40406477
98	0xbe04316e	-0.12909481
99	0xbe52445e	-0.20533893
100	0x3e8f8b86	0.28036135
101	0x3e5e95dd	0.21736856
102	0xbe0e7d24	-0.13914925
103	0x3e39ce01	0.1814499
104	0xbe2e17ca	-0.17001262
105	0xbdb6ad00	-0.08919716
106	0x3e407183	0.18793301
107	0xbea95e91	-0.3307996
108	0xbe4bfd57	-0.1992086
109	0xbea00415	-0.31253114
110	0xbe94fda0	-0.2909975
111	0x3ddea7c3	0.10871842
112	0xbe8283e0	-0.25491238
113	0xbe1c7cb7	-0.1528195
114	0x3ef10fa0	0.47082233
115	0xbe7b9924	-0.24570137
116	0x3ea8afd8	0.32946658
117	0xbe9ad4ab	-0.30240378
118	0x3e93a737	0.28838512
119	0x3f01b602	0.50668347
120	0xbcf1712e	-0.029472914
121	0x3ef48d56	0.4776408
122	0xbeb3cb0a	-0.35115844
123	0xbd271601	-0.04079247
124	0x3eaa3852	0.33246094
125	0xbe0edd49	-0.13951601
126	0xbe05b478	-0.13057125
127	0xbe93faad	-0.28902188
128	0xbed3a6b4	-0.41338122
129	0x3d3b779e	0.045768373
130	0xbe848090	-0.25879335
131	0x3ea98779	0.3311117
132	0xbe9831e6	-0.2972557
133	0x3eaac3a1	0.33352378
134	0xbeba8741	-0.36431316
135	0x3ec5359c	0.38517463
136	0x3eee9dc0	0.4660473
137	0x3c180a57	0.009279809
138	0x3e00dc5b	0.12584059
139	0x3ee7219f	0.45142838
140	0x3ec6603b	0.38745293
141	0xbeab86aa	-0.33501178
142	0x3ebe4e94	0.37169325
143	0xbecca058	-0.39966083
144	0x3e88f221	0.2674723
145	0x3e988edd	0.29796496
146	0x3e8697ca	0.2628768
147	0xbdbf4955	-0.09340159
148	0xbe9afadc	-0.30269516
149	0xbe3742ef	-0.17896627
150	0xbd71c02b	-0.059021156
151	0x3e9d9024	0.30774033
152	0x3dd9d8f1	0.106370814
153	0xbdb38ca7	-0.08767062
154	0xbe59147c	-0.2119922

parametrizer.linear4.bias f4 [31]
0	0xbe8c4028	-0.27392697
1	0xbd5881ee	-0.052858286
2	0x3e8e909c	0.27844703
3	0x3ec07d8c	0.37595785
4	0xbe2e374c	-0.17013282
5	0x3e500177	0.20313059
6	0xbdfd2b13	-0.123617314
7	0x3e99dc68	0.3005097
8	0x3cde2b6a	0.02712031
9	0x3e414904	0.1887551
10	0x3e1e5461	0.15461875
11	0xbd13f230	-0.03611964
12	0x3eac97cb	0.3370956
13	0xbec26dcb	-0.3797439
14	0xbe6525c9	-0.22377695
15	0x3ef084ff	0.46976468
16	0xbe626954	-0.22110492
17	0xbec09f2e	-0.37621444
18	0xbde7aff1	-0.11312855
19	0x3e8549bf	0.26032826
20	0x3e0fe881	0.14053537
21	0xbeb0af86	-0.34508914
22	0xbe8bc073	-0.27295265
23	0xbead9cda	-0.3390873
24	0x3e633358	0.22187555
25	0xbe8b15a5	-0.2716495
26	0x3e247b9d	0.1606278
27	0x3e63498a	0.22196022
28	0x3e964e61	0.29356673
29	0x3d38cc92	0.04511697
30	0x3e0d1d5c	0.13780731

exp_avg f4 [10, 30]
0	0x394b844f	0.00019408877
1	0x3b3da66d	0.0028938309
2	0x39a169bc	0.0003078709
3	0x3a613789	0.0008591344
4	0xbb61e0a9	-0.0034466183
5	0xb9c4ebf5	-0.00037559835
6	0x3b01ec0a	0.0019824528
7	0x3a5cf847	0.000842933
8	0x3b2f53b3	0.002675277
9	0x3a194f8d	0.0005848341
10	0x3b5afefc	0.0033416143
11	0x3b1a3eb6	0.0023535914
12	0x3b373f10	0.0027961172
13	0x3b11b2b0	0.002223175
14	0x3b0d1e28	0.0021532867
15	0x3ae2434d	0.0017262489
16	0x3ada0fb7	0.0016636763
17	0xba042720	-0.00050412305
18	0x3a8f7785	0.0010945654
19	0x3b6621c7	0.0035115348
20	0x3ac5f578	0.0015103063
21	0x3b6575a8	0.0035012756
22	0x3ab81ea1	0.0014047214
23	0x3afd190a	0.001930983
24	0x39af7f68	0.00033473526
25	0x3a709586	0.0009177554
26	0x3af0272b	0.001832222
27	0x39844f98	0.00025236304
28	0x3aef96d1	0.00182792
29	0x3b06c51b	0.0020564261
30	0xbb5f646a	-0.003408695
31	0xbbbc152a	-0.0057398276
32	0xbb62c4f2	-0.0034602252
33	0xbb762986	-0.003756137
34	0x3bd093f8	0.0063652955
35	0x3ad28215	0.0016060496
36	0xbb0e1f20	-0.0021686032
37	0xbab4beb3	-0.0013789743
38	0x3b1dcbd3	0.0024077788
39	0x3b8fd277	0.004389103
40	0xbb5fa840	-0.0034127384
41	0xbb09828d	-0.0020982355
42	0xbb538d96	-0.0032280437
43	0xbb55a2ae	-0.0032598185
44	0x39387f2c	0.00017594983
45	0xb902db43	-0.00012479447
46	0xba112e94	-0.0005538252
47	0x3b045fc7	0.002019869
48	0xba93659a	-0.001124549
49	0x3a5fe5b5	0.0008541004
50	0xbb80652d	-0.003918311
51	0xbbc3a2e3	-0.0059703453
52	0xbb79dd2c	-0.0038126213
53	0xbb80ec9f	-0.0039344574
54	0x3b1cb59f	0.0023911966
55	0xba58b5bb	-0.0008266826
56	0xbb0f4168	-0.0021859054
57	0xbaaadfc6	-0.001303666
58	0xbb053fb2	-0.0020332155
59	0x39cb5f15	0.0003879002
60	0x3bb428ca	0.0054980265
61	0x3b238036	0.0024948246
62	0x3bb55c9a	0.0055347206
63	0x3bbb59c3	0.0057174875
64	0xbc1c0d8c	-0.009524714
65	0xbb17fa2c	-0.0023189886
66	0x3b3e9957	0.0029083097
67	0x3af8e35a	0.0018988654
68	0xbb77f6fb	-0.003783642
69	0xbbdbcc4a	-0.0067077028
70	0x3b980de1	0.0046403264
71	0x3a8b2576	0.0010616023
72	0x3badbcb2	0.0053020352
73	0x3b8cfb13	0.0043023913
74	0xba4f3193	-0.00079038105
75	0x3aecc87f	0.0018065124
76	0x3b7b4074	0.0038337978
77	0x3764ec72	1.3644911e-05
78	0x3a5e5991	0.00084819744
79	0x3ae0181b	0.0017097028
80	0x3ba773d8	0.005110245
81	0x3aa6923e	0.0012708378
82	0x3bac5ef6	0.0052603437
83	0x3b9cd4d8	0.004786115
84	0xbbcfced1	-0.006341793
85	0xba5b3295	-0.00083617243
86	0x3b36bd8f	0.0027883982
87	0x3af90b48	0.0019000554
88	0xba5def4b	-0.00084661384
89	0xbb29d4b2	-0.002591413
90	0xbb9be6d3	-0.004757741
91	0xb9338f97	-0.00017124262
92	0xbb95c120	-0.0045701414
93	0xbba133ad	-0.0049194903
94	0x3b941863	0.0045195087
95	0x3b49f299	0.0030814765
96	0x3a788745	0.0009480606
97	0xb95cec56	-0.00021068877
98	0x3bd75969	0.006571938
99	0x3b8ca86c	0.0042925384
100	0xbb0b1b76	-0.0021226085
101	0x3b71bfe1	0.003688805
102	0xbb1d9255	-0.002404352
103	0xbaf28253	-0.0018501974
104	0x3b473265	0.0030395028
105	0x3b07849f	0.0020678414
106	0xb9a5b661	-0.00031607135
107	0xb915646e	-0.0001424716
108	0x3a2018c1	0.0006107204
109	0xba0655a7	-0.00051244575
110	0xbb95b551	-0.0045687337
111	0x3a4e457a	0.0007868629
112	0xbb8fa622	-0.0043838182
113	0xbb91b42e	-0.004446528
114	0x3ba58b52	0.0050520087
115	0x3b689f31	0.0035495276
116	0x366a3040	3.4896802e-06
117	0xba87f22e	-0.0010371858
118	0x3b373bc4	0.0027959207
119	0x3b909057	0.004411738
120	0x3b059bf0	0.0020387135
121	0x3a3d601c	0.0007224099
122	0x3b0ed8ae	0.0021796632
123	0x39b97a6b	0.00035377158
124	0x3b415ee6	0.0029506027
125	0x3b662539	0.0035117401
126	0x3aff1199	0.00194602
127	0x3b4885f3	0.0030597418
128	0xba24ddaf	-0.0006289137
129	0xba84494c	-0.0010092645
130	0xbb0b4cde	-0.0021255533
131	0xbb873ec8	-0.004127357
132	0xbb407778	-0.0029368084
133	0xbaba0b2b	-0.0014194002
134	0xbbf7a612	-0.007557639
135	0xbaa92213	-0.0012903832
136	0xbb87a9e6	-0.0041401265
137	0xba9c70a4	-0.0011935425
138	0xbb194b44	-0.002339081
139	0xbbc19c5a	-0.005908531
140	0x3ae2c629	0.0017301488
141	0x3abb37e3	0.0014283623
142	0x3abe1cd5	0.0014504442
143	0x39218fe5	0.00015407761
144	0x3b47f191	0.0030508975
145	0x3bb7f29d	0.0056136386
146	0x3b393a82	0.0028263633
147	0x3b914a44	0.004433902
148	0x3b793f34	0.0038032057
149	0x3b3d1d82	0.00288567
150	0xbbab0cc8	-0.0052200295
151	0xbb73195a	-0.0037093968
152	0xbbb1ba48	-0.005423818
153	0xbb974af7	-0.004617091
154	0x3b6bd807	0.0035986917
155	0xbae7f334	-0.0017696382
156	0xbb8002c7	-0.003906581
157	0xbb695d96	-0.003560876
158	0x3b1a9a66	0.0023590564
159	0x3b10711b	0.0022040072
160	0xbb415a4d	-0.0029503286
161	0xba6e5b8d	-0.00090926216
162	0xbb650e52	-0.0034951163
163	0xbb24901d	-0.0025110312
164	0x3acfbf01	0.001584977
165	0xbb606d25	-0.0034244743
166	0xbb85257a	-0.0040633054
167	0xbb472635	-0.0030387763
168	0xbac7afe0	-0.001523491
169	0xbb171101	-0.0023050907
170	0xbb90795b	-0.004408998
171	0xbb1e2b13	-0.002413456
172	0xbb924b2c	-0.0044645276
173	0xbb5e7150	-0.0033942051
174	0x3b4878de	0.003058962
175	0xbb0237f4	-0.0019869776
176	0xbb6b2fea	-0.0035886713
177	0xbb814e03	-0.0039460673
178	0xba82d8a1	-0.0009982773
179	0xb907e928	-0.00012961461
180	0xba3946b1	-0.0007067724
181	0xb9954feb	-0.00028479038
182	0xba3c7c2b	-0.00071901333
183	0xbb18baef	-0.002330478
184	0x3bc0584c	0.005869901
185	0x3b59b237	0.0033217797
186	0xb9ac23d0	-0.0003283308
187	0x3a990450	0.0011674259
188	0x3b4b2981	0.003100008
189	0xbb7f7912	-0.0038982076
190	0xbb08e181	-0.0020886364
191	0x3b90e6c5	0.004422041
192	0xbb1be275	-0.0023786102
193	0xba6aeaa0	-0.00089613535
194	0xbb516882	-0.003195316
195	0xb90fc08d	-0.00013709273
196	0xbb9b7094	-0.004743645
197	0x3a81cc88	0.0009902874
198	0x3b165ad9	0.0022942333
199	0xbc05809d	-0.00814834
200	0xbb2b9f4d	-0.002618748
201	0xb97fde35	-0.00024401474
202	0xbb25b3f2	-0.0025284258
203	0xbb7f596d	-0.0038963214
204	0x3b127fee	0.0022354084
205	0x3b7c7d3e	0.0038526799
206	0xbaae4fb4	-0.00132989
207	0x3a12e4ca	0.000560355
208	0x3b43bf2c	0.0029868586
209	0xb9977456	-0.0002888764
210	0x3aa12ea8	0.001229723
211	0xb6bbf731	-5.601811e-06
212	0x3aa178db	0.0012319343
213	0x388b00e0	6.6281995e-05
214	0x3ad01efb	0.0015878374
215	0x3ae88ba5	0.0017741813
216	0x3a8fecf9	0.0010980658
217	0x3b061d1b	0.0020464126
218	0xb989a1c4	-0.000262512
219	0xbb21f0de	-0.0024710218
220	0xbace04cf	-0.0015717986
221	0x39533996	0.0002014398
222	0xbaf3514b	-0.0018563656
223	0xba192777	-0.00058423675
224	0xbb925384	-0.0044655222
225	0xbb0bd87d	-0.0021338754
226	0xbb491865	-0.0030684706
227	0xb826efba	-3.9800747e-05
228	0xbaff63fd	-0.0019484755
229	0xbbb18958	-0.005417984
230	0x397ad9e4	0.00023923028
231	0x39d2beb8	0.00040196418
232	0x392b0fb7	0.00016313685
233	0xba62d51f	-0.00086529733
234	0x3a9fcea3	0.001219232
235	0x3ab38e88	0.0013699094
236	0x381819e0	3.6263722e-05
237	0x3b040d52	0.002014954
238	0x3a0d5958	0.00053920364
239	0xba81a6c0	-0.0009891614
240	0xbb88fc7a	-0.004180488
241	0xbbaa7747	-0.0052022072
242	0xbb8df465	-0.0043321126
243	0xbb9559c7	-0.0045578214
244	0x3bd97266	0.006635952
245	0x3a1e79c7	0.0006045368
246	0xbb6302b3	-0.003463906
247	0xbb48e672	-0.0030654934
248	0x3ae5cf83	0.0017533157
249	0x39c93add	0.00038381564
250	0xbb5d4d41	-0.003376797
251	0x3b17f73c	0.0023188135
252	0xbb3810ff	-0.0028086302
253	0xbb1ad6a0	-0.0023626462
254	0x3ab20aaa	0.00135835
255	0x3a5147bb	0.0007983406

exp_avg_sq f4 [10, 30]
0	0x37b8f365	2.2047849e-05
1	0x3793e0d7	1.7628465e-05
2	0x37c102a5	2.3008624e-05
3	0x381bd533	3.7153437e-05
4	0x362e0130	2.5928712e-06
5	0x36b5530e	5.403889e-06
6	0x378b3f3f	1.6599543e-05
7	0x377378f4	1.451209e-05
8	0x36ca25e0	6.0244784e-06
9	0x364bfd19	3.039668e-06
10	0x38aa304c	8.115228e-05
11	0x371779af	9.028633e-06
12	0x38a8fb8a	8.057717e-05
13	0x390a7490	0.00013204128
14	0x36bacc87	5.567042e-06
15	0x371e9532	9.452271e-06
16	0x3725e5cc	9.88827e-06
17	0x37425b13	1.1584506e-05
18	0x369f5d99	4.7494655e-06
19	0x373a96c9	1.1121571e-05
20	0x38090ad8	3.2673444e-05
21	0x376ba762	1.4046063e-05
22	0x380b970f	3.3280867e-05
23	0x386bcd29	5.6219436e-05
24	0x3658de48	3.2315893e-06
25	0x368e14ae	4.234337e-06
26	0x3716833d	8.971253e-06
27	0x37433e70	1.1637443e-05
28	0x36059347	1.990427e-06
29	0x35e0707f	1.6722041e-06
30	0x35c525c3	1.4688634e-06
31	0x3602fc71	1.951845e-06
32	0x35bf9afe	1.4275718e-06
33	0x35bb0275	1.3933301e-06
34	0x37078734	8.0781065e-06
35	0x36279465	2.4971316e-06
36	0x35d9844a	1.6206261e-06
37	0x35974cad	1.1272692e-06
38	0x369f7bc9	4.7529797e-06
39	0x36cbf945	6.0788902e-06
40	0x3569571d	8.692603e-07
41	0x35a29cf6	1.2115622e-06
42	0x355d4e1b	8.2442574e-07
43	0x353544d1	6.7527895e-07
44	0x371d941c	9.392414e-06
45	0x365be491	3.2766586e-06
46	0x36dd96b5	6.603858e-06
47	0x36dd28dd	6.5910704e-06
48	0x35f7e070	1.8468254e-06
49	0x3699be1b	4.5818865e-06
50	0x35b3a972	1.3385854e-06
51	0x3620d82c	2.3967687e-06
52	0x35b17cce	1.3223851e-06
53	0x359e417b	1.1790975e-06
54	0x363f7a1f	2.8532302e-06
55	0x3584e1a5	9.900438e-07
56	0x35be7558	1.4190255e-06
57	0x359c77c2	1.165776e-06
58	0x35e4d5cb	1.7049546e-06
59	0x35b9a035	1.38302e-06
60	0x3797c58a	1.8092589e-05
61	0x37c18ae5	2.307207e-05
62	0x379de919	1.8824403e-05
63	0x37ca95c6	2.415002e-05
64	0x379094d2	1.7235438e-05
65	0x3727d64f	1.0003873e-05
66	0x3784bcc5	1.5823529e-05
67	0x377a4408	1.4917001e-05
68	0x36f8ae4c	7.411267e-06
69	0x370a4699	8.241878e-06
70	0x37fc00ff	3.0041205e-05
71	0x369d3a4b	4.685751e-06
72	0x37f8ce00	2.965983e-05
73	0x38633820	5.4173288e-05
74	0x36f43527	7.2779544e-06
75	0x3722e147	9.708404e-06
76	0x3714c27c	8.866769e-06
77	0x36996ea5	4.572636e-06
78	0x36824398	3.882171e-06
79	0x36c61bc3	5.9040917e-06
80	0x37c6ace8	2.3683955e-05
81	0x3802b023	3.1158455e-05
82	0x37d307ab	2.515673e-05
83	0x3810b518	3.4500932e-05
84	0x372524b1	9.843309e-06
85	0x379f846b	1.9015939e-05
86	0x378971da	1.6384689e-05
87	0x3739cff6	1.1075279e-05
88	0x37071642	8.051809e-06
89	0x371cab2f	9.338181e-06
90	0x37289b0b	1.0049679e-05
91	0x3775efb9	1.4658953e-05
92	0x3733e67e	1.0722897e-05
93	0x37275593	9.9739e-06
94	0x373d06a0	1.126682e-05
95	0x377471bd	1.4570015e-05
96	0x3719bc10	9.163297e-06
97	0x372b1832	1.0198028e-05
98	0x3785c5bb	1.5946911e-05
99	0x370b521c	8.304163e-06
100	0x371947cc	9.136227e-06
101	0x3731e7a1	1.0603952e-05
102	0x372535f7	9.847331e-06
103	0x372a902b	1.0166356e-05
104	0x372a3aaa	1.0146448e-05
105	0x375956b4	1.2954395e-05
106	0x37259750	9.869997e-06
107	0x3725800e	9.864581e-06
108	0x3681e615	3.8712847e-06
109	0x37032409	7.816599e-06
110	0x370aa2de	8.263361e-06
111	0x37a74cee	1.9943775e-05
112	0x3717f252	9.056721e-06
113	0x3708595a	8.1270355e-06
114	0x37277eb1	9.983473e-06
115	0x377dee9b	1.513553e-05
116	0x372676d1	9.922035e-06
117	0x370bd8c3	8.335514e-06
118	0x3714ee2c	8.876941e-06
119	0x3767cf0c	1.381688e-05
120	0x36fe8c02	7.586089e-06
121	0x36bbbb26	5.5948212e-06
122	0x36f96308	7.432307e-06
123	0x36a3de0a	4.8836273e-06
124	0x37138e61	8.795033e-06
125	0x374b0d3c	1.2102824e-05
126	0x367fc373	3.8111727e-06
127	0x369693e8	4.487567e-06
128	0x371ebc69	9.4614015e-06
129	0x379b8fa0	1.854432e-05
130	0x36758339	3.6584227e-06
131	0x37ac8feb	2.0571015e-05
132	0x368bf135	4.170603e-06
133	0x36298801	2.5262127e-06
134	0x380dd757	3.381757e-05
135	0x37aa6ffe	2.031773e-05
136	0x372b103a	1.0196172e-05
137	0x363f2e7a	2.848827e-06
138	0x37204647	9.553106e-06
139	0x37d62b7e	2.553104e-05
140	0x36e138ed	6.7121496e-06
141	0x371902de	9.120178e-06
142	0x36d2ee14	6.2862036e-06
143	0x3688a86f	4.072724e-06
144	0x371dc674	9.404135e-06
145	0x381626dc	3.5798977e-05
146	0x379eb916	1.8921255e-05
147	0x3726010b	9.894614e-06
148	0x378a9eac	1.652477e-05
149	0x3823beff	3.9040107e-05
150	0x37959f9b	1.7836506e-05
151	0x37899015	1.6398766e-05
152	0x37942414	1.7659775e-05
153	0x37cf13ac	2.4685483e-05
154	0x36309750	2.631412e-06
155	0x36a6c38e	4.969951e-06
156	0x371974e9	9.146731e-06
157	0x374589ab	1.1774168e-05
158	0x36a407df	4.888497e-06
159	0x36f33ee9	7.249288e-06
160	0x37eed985	2.8473101e-05
161	0x370fd05d	8.571978e-06
162	0x37d23eff	2.5063286e-05
163	0x381fe067	3.8117545e-05
164	0x37155e80	8.903095e-06
165	0x371bcd55	9.2865275e-06
166	0x36c39df2	5.82984e-06
167	0x36ec7286	7.0466804e-06
168	0x35b26602	1.3291722e-06
169	0x37241f9f	9.782524e-06
170	0x37cafc7d	2.419785e-05
171	0x37875fc8	1.6137856e-05
172	0x37c0d4ab	2.2987215e-05
173	0x3819cec1	3.6670597e-05
174	0x3640edfb	2.8748752e-06
175	0x37149876	8.856985e-06
176	0x36eb4991	7.01211e-06
177	0x3712e7a8	8.756215e-06
178	0x36e49077	6.8117474e-06
179	0x37459c75	1.1778543e-05
180	0x3794d382	1.7741466e-05
181	0x3688908c	4.0699433e-06
182	0x37a891e7	2.0095102e-05
183	0x37bf632b	2.2815153e-05
184	0x38226143	3.8714392e-05
185	0x3859f1dc	5.196208e-05
186	0x37fef7e6	3.0394596e-05
187	0x37f048ec	2.8644186e-05
188	0x37d2e484	2.5140362e-05
189	0x37fdb2c1	3.0243189e-05
190	0x384070c0	4.5881374e-05
191	0x3786f102	1.6086273e-05
192	0x38422a6f	4.6292724e-05
193	0x3884a6cc	6.325319e-05
194	0x38356250	4.3245323e-05
195	0x38a6569c	7.931629e-05
196	0x386a45ba	5.5854885e-05
197	0x37b55066	2.161432e-05
198	0x37cf99f1	2.4748007e-05
199	0x3888505b	6.499953e-05
200	0x374582b6	1.17725485e-05
201	0x36efad74	7.1429477e-06
202	0x3766325e	1.3720795e-05
203	0x378176e9	1.543337e-05
204	0x37a26ac3	1.936162e-05
205	0x38451392	4.6986686e-05
206	0x37b0e83a	2.1088974e-05
207	0x372b5cb9	1.0213983e-05
208	0x37eff89e	2.8606792e-05
209	0x383bb397	4.475153e-05
210	0x36bd0bd4	5.634016e-06
211	0x366506be	3.4127584e-06
212	0x36c51b3f	5.8742294e-06
213	0x36606218	3.34357e-06
214	0x375bd514	1.3103028e-05
215	0x3726cfab	9.9427225e-06
216	0x36971d78	4.5035813e-06
217	0x36a0db5a	4.7939075e-06
218	0x372b396e	1.0205766e-05
219	0x3738c9fe	1.1014285e-05
220	0x364d770a	3.061667e-06
221	0x36a19934	4.816009e-06
222	0x3691ade9	4.3415826e-06
223	0x3642131e	2.891938e-06
224	0x37d0c8e6	2.4889083e-05
225	0x3749e519	1.2033875e-05
226	0x37085579	8.126132e-06
227	0x367dc3a4	3.7813816e-06
228	0x3717ca22	9.047364e-06
229	0x375870e3	1.2900887e-05
230	0x36700d0e	3.5770386e-06
231	0x36ab80c3	5.111187e-06
232	0x367c8ced	3.7632956e-06
233	0x35e25549	1.6863133e-06
234	0x370f38c6	8.536683e-06
235	0x36ff4171	7.6072106e-06
236	0x3685551e	3.973618e-06
237	0x366e6775	3.5524984e-06
238	0x371483a7	8.85214e-06
239	0x36d1d12c	6.253036e-06
240	0x383fea7f	4.575634e-05
241	0x36bc1206	5.604935e-06
242	0x3853a4c4	5.045977e-05
243	0x389b5bfd	7.40811e-05
244	0x38002030	3.0547555e-05
245	0x380af543	3.313018e-05
246	0x3870addc	5.7382378e-05
247	0x384e5e57	4.9202088e-05
248	0x3797c830	1.8093822e-05
249	0x364efe93	3.0844574e-06
250	0x3926604b	0.00015866866
251	0x3785819f	1.5915195e-05
252	0x391adc9a	0.00014768765
253	0x39939557	0.00028149292
254	0x380893d2	3.2562595e-05
255	0x38203ac3	3.82017e-05

exp_avg f4 [10]
0	0x3c11d1a5	0.008900081
1	0x3c2e9106	0.0106546935
2	0xbd080b30	-0.033213794
3	0x3d23f0a6	0.040024422
4	0xbb0962da	-0.002096346
5	0x3d007523	0.03136171
6	0x3ca7d0b9	0.020485269
7	0x3c28ca4a	0.010302136
8	0x3cce05fa	0.025149334
9	0xbc630351	-0.013855771

exp_avg_sq f4 [10]
0	0x3783b2b5	1.5699634e-05
1	0x36f2d567	7.2370053e-06
2	0x398adc0a	0.00026485353
3	0x39507466	0.00019879788
4	0x36869c55	4.0117106e-06
5	0x396cf56c	0.0002259814
6	0x3831f3b3	4.242705e-05
7	0x371767bf	9.024457e-06
8	0x38aa2ccf	8.114578e-05
9	0x37f1c414	2.8820745e-05

exp_avg f4 [10, 10]
0	0x3bb113a7	0.005403954
1	0x3b5214e4	0.0032055909
2	0x3be8f617	0.0071094143
3	0x3bc99223	0.006151454
4	0xbbca837e	-0.006180226
5	0xbc5f42b1	-0.01362674
6	0xbb369a64	-0.002786302
7	0xbbefb7ee	-0.0073156273
8	0xbb8cbe6c	-0.004295161
9	0x3adc7bf7	0.0016821612
10	0x3b49ffb6	0.0030822582
11	0xbb1c1432	-0.0023815748
12	0x3b663ba5	0.0035130766
13	0x38071ee0	3.2215263e-05
14	0xbb70f8ce	-0.0036769393
15	0x3acd9e82	0.0015687498
16	0xbc02855c	-0.007966366
17	0xbbbaf5da	-0.0057055773
18	0xbb931843	-0.004488976
19	0x3b058a9d	0.002037681
20	0x3b02a128	0.0019932482
21	0x3b6c8f14	0.0036096023
22	0xbb0abd6e	-0.0021170038
23	0x3a0acb4a	0.00052945747
24	0xbabf3c28	-0.0014590072
25	0xbb23c3e8	-0.0024988595
26	0x3b45c894	0.0030179368
27	0x3b811a19	0.0039398787
28	0x3a826102	0.0009947123
29	0x3a3b09ed	0.0007134963
30	0xbc611c8f	-0.013739719
31	0x3bcd8a6e	0.0062726056
32	0x3bd135c6	0.006384584
33	0x3b3e06a7	0.0028995664
34	0x3a6dc7c5	0.00090706005
35	0xbc7b61c3	-0.015343132
36	0x3ccf6ca9	0.025320368
37	0xbb2175a7	-0.0024636777
38	0x3b99c18b	0.0046922616
39	0x38aea1b4	8.327086e-05
40	0xbb76d48b	-0.0037663307
41	0x3a92f9fb	0.0011213416
42	0xbb8feed4	-0.004392484
43	0xba2709ce	-0.00063720054
44	0x3b7fc165	0.0039025184
45	0x3adafd82	0.0016707631
46	0x3c30fd22	0.010802539
47	0x3c081301	0.008305312
48	0x3b7033da	0.0036652
49	0xbacab02f	-0.0015463884
50	0xba89e827	-0.0010521457
51	0x3ab39c64	0.0013703224
52	0x3b5aec35	0.003340495
53	0xb8554c5b	-5.085427e-05
54	0xbaae8e43	-0.0013317544
55	0xb9d94468	-0.00041440432
56	0xba9a2a98	-0.0011761962
57	0xbbabcea4	-0.0052431393
58	0xbb19e16c	-0.002348031
59	0x3a83e6e5	0.0010063319
60	0x3a0c6ab0	0.0005356474
61	0x3b593dc3	0.0033148385
62	0xbb2f029b	-0.0026704434
63	0x3aebb241	0.0017982201
64	0x3ae87789	0.001773582
65	0xbb15c0fd	-0.0022850626
66	0x3bd0aa44	0.0063679535
67	0x3b91caac	0.004449209
68	0x3adbc864	0.0016768095
69	0xbaad1a8b	-0.0013206763
70	0xbb931540	-0.004488617
71	0xbba1c20e	-0.004936463
72	0xbaca8d27	-0.0015453444
73	0xbaa9ea8b	-0.0012963576
74	0x3b6510cb	0.0034952636
75	0x3b836d50	0.004010834
76	0x3b297594	0.0025857436
77	0x3b3c6979	0.002874939
78	0x3b378dd5	0.0028008122
79	0xbad61c8d	-0.0016335413
80	0xbb973db8	-0.0046155117
81	0x3c1d2ec8	0.009593673
82	0xbb50fb59	-0.0031888096
83	0xba965b47	-0.0011471295
84	0x3b195c14	0.002340083
85	0xbb11f03e	-0.002226844
86	0x3c686527	0.014184273
87	0x3b8fea9a	0.0043919804
88	0x3b135528	0.0022481177
89	0xba252a4e	-0.00063005544
90	0xba2f208e	-0.0006680571
91	0x3b10b3dc	0.002207986
92	0xbb7d50c1	-0.003865287
93	0xbb505964	-0.0031791562
94	0x3ab6b83b	0.0013940403
95	0x3bc822f5	0.006107683
96	0x3ab0cc5a	0.0013488636
97	0x3b68a2fc	0.0035497537
98	0x3a01e37c	0.0004954857
99	0x3988c5a2	0.0002608719

exp_avg_sq f4 [10, 10]
0	0x38332b36	4.271717e-05
1	0x381cc88a	3.7380065e-05
2	0x37d11834	2.4926012e-05
3	0x37a73982	1.993473e-05
4	0x375a65aa	1.3017483e-05
5	0x38af48ad	8.358187e-05
6	0x37226a6d	9.680732e-06
7	0x381cdf61	3.7401336e-05
8	0x37a50ea0	1.9676343e-05
9	0x3675d468	3.6631482e-06
10	0x37ca2b67	2.4100487e-05
11	0x37be5721	2.2690338e-05
12	0x377ec7c1	1.5186089e-05
13	0x36a6ff0f	4.9768782e-06
14	0x373beb41	1.1200843e-05
15	0x374c0cc2	1.2162318e-05
16	0x37609628	1.3386401e-05
17	0x38183a1e	3.629375e-05
18	0x37492ba3	1.1990694e-05
19	0x3574ad5d	9.114936e-07
20	0x36f51d96	7.3050132e-06
21	0x371452ce	8.840767e-06
22	0x3682707c	3.887397e-06
23	0x36a351f0	4.8673173e-06
24	0x36f6f5c8	7.359984e-06
25	0x37752005	1.4610593e-05
26	0x36f7157b	7.3636743e-06
27	0x36fad380	7.4752024e-06
28	0x36fb90af	7.4972263e-06
29	0x364c244a	3.0419492e-06
30	0x38bd0e26	9.014858e-05
31	0x38a27e0e	7.7482415e-05
32	0x385a0cf0	5.19873e-05
33	0x388c704c	6.696637e-05
34	0x3825d003	3.953279e-05
35	0x391793c0	0.00014455523
36	0x390cdc2a	0.00013433458
37	0x38d76853	0.00010271431
38	0x37a1cb74	1.9287436e-05
39	0x3740bfa4	1.1488712e-05
40	0x36b5635d	5.4057878e-06
41	0x371df2e3	9.414481e-06
42	0x3683a7a0	3.9236184e-06
43	0x367789e4	3.688613e-06
44	0x3624e260	2.4569672e-06
45	0x367df7a6	3.7844088e-06
46	0x372aba53	1.0176172e-05
47	0x373793fc	1.0942105e-05
48	0x368b66d4	4.1544936e-06
49	0x35ab42da	1.2759949e-06
50	0x37b15b17	2.1142461e-05
51	0x370d9672	8.439283e-06
52	0x3753f1b5	1.2632857e-05
53	0x3693d680	4.4059125e-06
54	0x3671301e	3.5939806e-06
55	0x3714200d	8.82895e-06
56	0x368438b3	3.940507e-06
57	0x379639ea	1.7908362e-05
58	0x36023b9b	1.9406205e-06
59	0x35d38f33	1.5762402e-06
60	0x37637f03	1.3559827e-05
61	0x37dc042a	2.6227983e-05
62	0x3762aeb0	1.3511322e-05
63	0x37ce7d51	2.4615469e-05
64	0x3795cc3e	1.7857292e-05
65	0x38194255	3.653982e-05
66	0x378d0c0e	1.6814123e-05
67	0x3857aef3	5.142293e-05
68	0x36148ceb	2.2135744e-06
69	0x3606a074	2.0060952e-06
70	0x368b8b35	4.1587286e-06
71	0x372c0d8f	1.0255156e-05
72	0x35ec9498	1.7626617e-06
73	0x36341792	2.683581e-06
74	0x36db7989	6.540857e-06
75	0x3762cef1	1.3518832e-05
76	0x3603166a	1.9533568e-06
77	0x36924fc1	4.3604236e-06
78	0x3730fcad	1.0549248e-05
79	0x35846084	9.862856e-07
80	0x378055ba	1.5298709e-05
81	0x37f16832	2.8777959e-05
82	0x36efc983	7.146214e-06
83	0x37487c4a	1.1949867e-05
84	0x3763a2cf	1.3568161e-05
85	0x37f8d3c6	2.9662519e-05
86	0x38294b5e	4.036293e-05
87	0x37ed76b9	2.8307886e-05
88	0x36513e7a	3.1179793e-06
89	0x35b70435	1.3635787e-06
90	0x37295c88	1.0094729e-05
91	0x36e79a95	6.902332e-06
92	0x36b742c8	5.4615994e-06
93	0x3680b8a8	3.836194e-06
94	0x365a0620	3.2488097e-06
95	0x373fb197	1.14258355e-05
96	0x36c9bc64	6.0121984e-06
97	0x36ac6de7	5.1387938e-06
98	0x3610ac15	2.1557837e-06
99	0x35c94e4f	1.4998458e-06

exp_avg f4 [10]
0	0xbcd0b8d9	-0.025478767
1	0x3d2e6448	0.042576104
2	0xbcd9e87b	-0.026600113
3	0xbdb7c6f6	-0.08973496
4	0xbd085755	-0.03328641
5	0x3c8baf64	0.017051406
6	0xbd11cd02	-0.0355959
7	0x3b60f204	0.003432394
8	0xbd560b5c	-0.052256927
9	0x3c07b3c8	0.008282609

exp_avg_sq f4 [10]
0	0x39bad613	0.00035636182
1	0x39da3ea1	0.00041626862
2	0x388f9c95	6.847937e-05
3	0x3afac91e	0.0019133424
4	0x38b1792a	8.462586e-05
5	0x385990eb	5.1871797e-05
6	0x3a10775f	0.0005510952
7	0x37985e1f	1.816364e-05
8	0x39f401b9	0.0004654059
9	0x380c6273	3.347029e-05

exp_avg f4 [5, 10]
0	0xb8869f92	-6.41934e-05
1	0x3c0bec2d	0.008540195
2	0xba96d55e	-0.001150768
3	0xbc002808	-0.007822044
4	0xbc9c029e	-0.019044217
5	0x3b5f7260	0.0034095272
6	0xbb9c165f	-0.004763409
7	0xbb8448db	-0.0040370054
8	0xbc05b59a	-0.008160973
9	0x3a6fe54a	0.0009151293
10	0xbb0773fe	-0.0020668502
11	0xbb0e8cf1	-0.0021751488
12	0x3bfd7b6e	0.007735661
13	0x3c334511	0.01094176
14	0x3c665b76	0.014059892
15	0x3a3bec9d	0.0007168742
16	0xbb9c9b76	-0.0047792746
17	0xbb0262d1	-0.0019895325
18	0xbbd416da	-0.0064724507
19	0xbaf2554d	-0.0018488556
20	0xbc872782	-0.016498331
21	0xbd2cb04f	-0.04216033
22	0x3cc7e15a	0.024399448
23	0x3c4211d8	0.011845075
24	0xbbe4a394	-0.006977508
25	0x3c9560f9	0.018234717
26	0xbc9402ab	-0.018067678
27	0xbc8a5b6e	-0.0168893
28	0x3d0d3402	0.034473427
29	0xbcd1c0a1	-0.025604548
30	0xbc5c158e	-0.013432873
31	0xbca6bd1c	-0.020353846
32	0x3ba375f5	0.004988427
33	0xbb1051bb	-0.0022021371
34	0xbc961cb9	-0.018324243
35	0x3c6bb081	0.0143853435
36	0xbc215bbf	-0.009848534
37	0xbc858be8	-0.016302064
38	0x3ccb25f0	0.024798363
39	0xbbdb9a4e	-0.006701744
40	0x3c2eae5a	0.010661686
41	0x3d81b122	0.063326135
42	0xbd6317d3	-0.055442642
43	0xbcaafbdb	-0.020872047
44	0x3cea7615	0.028620759
45	0xbd0f5360	-0.034991622
46	0x3d4a5476	0.049396954
47	0x3cf39e5f	0.029738603
48	0xbd28b1f3	-0.04118533
49	0x3d3dbdcb	0.04632358

exp_avg_sq f4 [5, 10]
0	0x38ce585f	9.839306e-05
1	0x39151fb7	0.00014221562
2	0x385a1820	5.199772e-05
3	0x38c6c774	9.478527e-05
4	0x39b14702	0.00033812976
5	0x3935047f	0.0001726318
6	0x3952f075	0.00020116738
7	0x396bd6ad	0.0002249132
8	0x38cdd3b5	9.814595e-05
9	0x38b015fd	8.3964296e-05
10	0x37cc1e4c	2.4332803e-05
11	0x39ceaa11	0.0003941809
12	0x3909ec20	0.00013153302
13	0x3853f694	5.0535964e-05
14	0x38f10a29	0.00011493668
15	0x39370b2e	0.00017456405
16	0x3986f62a	0.00025741878
17	0x38063e67	3.2006206e-05
18	0x392756ca	0.00015958693
19	0x38f3ea5d	0.000116307965
20	0x389134cd	6.923974e-05
21	0x3a6fdc89	0.0009149989
22	0x399382c9	0.00028135467
23	0x380e4c04	3.3926233e-05
24	0x393b3b09	0.00017855702
25	0x398dc551	0.00027040628
26	0x399bdd05	0.00029728576
27	0x388f3d67	6.8302084e-05
28	0x3a2b4f29	0.0006534928
29	0x399f5a1c	0.0003039398
30	0x381b5170	3.7030724e-05
31	0x392144e2	0.00015379817
32	0x38cb9136	9.706842e-05
33	0x382d0ed9	4.1260242e-05
34	0x38b7c67e	8.763092e-05
35	0x388cafd6	6.708472e-05
36	0x38e7362b	0.00011025028
37	0x3883301a	6.2555264e-05
38	0x3880876d	6.128741e-05
39	0x38832c0b	6.2547704e-05
40	0x38f02581	0.000114510774
41	0x3a66de24	0.0008806905
42	0x39bfa91e	0.0003655636
43	0x38413fed	4.607432e-05
44	0x39b6cd2b	0.00034866607
45	0x39f66def	0.00047002683
46	0x3a393417	0.0007064952
47	0x38c9fbb4	9.63131e-05
48	0x39cd983d	0.00039214073
49	0x39bb461e	0.0003571966

exp_avg f4 [5]
0	0xbbbab588	-0.0056979097
1	0x3a89063b	0.0010454127
2	0x3dbdaddc	0.09261677
3	0x3d2b0764	0.041755095
4	0xbe385545	-0.18001278

exp_avg_sq f4 [5]
0	0x3a7e6efa	0.0009705868
1	0x3b1fd246	0.0024386807
2	0x3bc5ba21	0.006034151
3	0x3aa94d11	0.0012916644
4	0x3bee1ead	0.0072668404

exp_avg f4 [31, 5]
0	0xbc5707c8	-0.013124414
1	0xbd08f395	-0.033435423
2	0xbc5c5956	-0.013449034
3	0x3c405647	0.01173932
4	0xbd8e9d88	-0.069636405
5	0xbcbbf5c6	-0.022944342
6	0xbd0961c1	-0.03354049
7	0xbb270d2e	-0.0025490033
8	0x3cc83f86	0.024444353
9	0xbd9cef95	-0.07662884
10	0xbc0d0b95	-0.008608718
11	0xbccec38f	-0.025239734
12	0xbc52c8bb	-0.012865241
13	0x3c0e8ff1	0.0087013105
14	0xbd633615	-0.0554715
15	0xbc3e672a	-0.011621276
16	0xbced70fa	-0.028984535
17	0xbc3b9e5e	-0.011451332
18	0x3c2ac074	0.010421861
19	0xbd779762	-0.060447104
20	0xbb0fc2ab	-0.00219361
21	0xbc3c9d9a	-0.0115121845
22	0xbab12182	-0.0013514014
23	0xbb4b21e2	-0.0030995538
24	0xbc16f829	-0.009214439
25	0xbbfc3436	-0.0076966537
26	0xbc7834f8	-0.0151493475
27	0xbaf70659	-0.0018846496
28	0x3c0c3072	0.008556472
29	0xbcf35987	-0.029705776
30	0xbc32d990	-0.010916129
31	0xbcb19301	-0.021676542
32	0xbbdc2c41	-0.0067191427
33	0x3c56dea6	0.013114607
34	0xbd4867df	-0.048927184
35	0xbc234540	-0.009965241
36	0xbcc1df5a	-0.023666073
37	0xbc06aa61	-0.008219332
38	0x3c290b60	0.010317653
39	0xbd4ae9fe	-0.04953956
40	0xbc017d3f	-0.007903396
41	0xbc257a62	-0.010099979
42	0x3b69b302	0.0035659675
43	0x3ba8d5bf	0.0051524336
44	0xbc5912fc	-0.013249155
45	0xba3f477f	-0.00072967255
46	0x3bf79528	0.0075556226
47	0x3c492017	0.012275717
48	0x39b3d925	0.00034303326
49	0x3cc1c983	0.023655659
50	0xbc67afd7	-0.014141045
51	0xbccbc3a7	-0.024873568
52	0xbb8ef9ed	-0.0043632896
53	0x3c55a8a7	0.013040698
54	0xbd4d457a	-0.050115086
55	0xbc7b1f8f	-0.015327348
56	0xbc8ac88c	-0.016941331
57	0x3b727da4	0.0037001157
58	0x3c78f832	0.015195893
59	0xbd163364	-0.036670104
60	0xbc192dee	-0.009349329
61	0xbc92c7eb	-0.017917594
62	0xbb9f4c05	-0.004861357
63	0x3c194cb8	0.00935667
64	0xbd1af675	-0.037832696
65	0xbc62bc97	-0.013838909
66	0xbce0b99e	-0.02743226
67	0xbbf3771f	-0.007429972
68	0x3c5896c6	0.013219541
69	0xbd69ad89	-0.05705026
70	0xbbbafc4a	-0.0057063447
71	0xbbef1997	-0.0072967517
72	0x3b8f76af	0.004378162
73	0x3b13fd66	0.0022581457
74	0xbbd66a56	-0.006543438
75	0xbb49a55e	-0.0030768733
76	0xbb24aae0	-0.0025126263
77	0x3a2c6349	0.0006576074
78	0x3bbb967e	0.005724727
79	0xbc03d12b	-0.008045475
80	0xbbf45042	-0.0074558565
81	0xbc4f7846	-0.012662953
82	0xbb0357b2	-0.0020041284
83	0x3c07de6c	0.008292776
84	0xbcd70a72	-0.026250098
85	0xbc090496	-0.00836291
86	0xbcb8256a	-0.022478778
87	0xbbe83624	-0.007086532
88	0x3bfed8ec	0.007777324
89	0xbd3356c2	-0.04378391
90	0xbb6bcb53	-0.0035979345
91	0xbb1ec7c3	-0.0024227954
92	0x3a8ef29b	0.0010906042
93	0x3b3b019e	0.00285349
94	0xbb83e613	-0.0040252297
95	0xbbab8a0f	-0.0052349637
96	0xbaf6952f	-0.0018812771
97	0x3bd48f7d	0.0064868317
98	0x3bb1d34e	0.005426801
99	0x3a928e01	0.0011181236
100	0xbc56538c	-0.013081443
101	0xbcfdd228	-0.030984
102	0xbc35737e	-0.011074899
103	0x3c520119	0.0128176445
104	0xbd86646e	-0.06562124
105	0xbcdfbe79	-0.027312504
106	0xbd26a723	-0.040686738
107	0xbb12aa4e	-0.0022379342
108	0x3ce37996	0.027767938
109	0xbdb662bd	-0.089055516
110	0xbc5b3a3b	-0.013380582
111	0xbd011f14	-0.03152378
112	0xbc3c2d4c	-0.011485409
113	0x3c562f09	0.0130727375
114	0xbd88a9ba	-0.06672998
115	0xbc783b97	-0.015150926
116	0xbd02be54	-0.031919792
117	0xbc11a61e	-0.008889703
118	0x3c672e57	0.014110169
119	0xbd86cd8e	-0.06582175
120	0xb9b19796	-0.0003387301
121	0xbbaf2895	-0.005345414
122	0xba8c48c1	-0.0010702835
123	0xbacbd7a5	-0.0015551938
124	0xbb929183	-0.0044729128
125	0xbbeec94f	-0.0072871814
126	0xbc6efde0	-0.014586896
127	0xbb9216b4	-0.004458273
128	0x3c3275e6	0.010892367
129	0xbd111414	-0.03541954
130	0xbc2ce85b	-0.010553445
131	0xbca034be	-0.0195564
132	0xbb9eee4e	-0.0048501855
133	0x3c572046	0.013130253
134	0xbd353234	-0.04423733
135	0xbbc01e45	-0.0058629834
136	0xbc8a18af	-0.016857473
137	0xbc0d2f7b	-0.008617277
138	0x3c183581	0.0092901
139	0xbd27f7dd	-0.041007865
140	0xba5568fb	-0.00081409485
141	0xba9290b0	-0.0011182036
142	0xbab0d951	-0.00134925
143	0x3b027d50	0.0019911118
144	0xbba121f6	-0.0049173785
145	0xbb17fce5	-0.0023191508
146	0xb98b2816	-0.00026542012
147	0x3b405ebc	0.002935334
148	0x3bc86e7a	0.0061166855
149	0xbb708672	-0.003670123
150	0x3bf1f470	0.0073838755
151	0x3c2b6244	0.01046044
152	0x3b111c67	0.0022142173
153	0xbce5823b	-0.0280162
154	0x3d3c48cc	0.045967862

exp_avg_sq f4 [31, 5]
0	0x37863526	1.5998794e-05
1	0x398c42db	0.00026752692
2	0x39726855	0.00023117785
3	0x37c02fdd	2.2910472e-05
4	0x3a0eb74f	0.0005444185
5	0x3846cb4e	4.739622e-05
6	0x3969a033	0.0002228029
7	0x38bca8a7	8.9959525e-05
8	0x387eef3f	6.0781134e-05
9	0x3a16cd06	0.0005752597
10	0x374e62e5	1.23015825e-05
11	0x3964d463	0.00021822895
12	0x395ff188	0.00021356915
13	0x37a0ac19	1.9153626e-05
14	0x39e21213	0.00043119545
15	0x3785d591	1.5954285e-05
16	0x397c27b7	0.00024047388
17	0x39425717	0.00018533725
18	0x37c1d169	2.3104907e-05
19	0x39fc1248	0.00048078806
20	0x370dbd77	8.448368e-06
21	0x38c81c98	9.542069e-05
22	0x382ee645	4.1699288e-05
23	0x3735cd7f	1.08362865e-05
24	0x390c5971	0.0001338476
25	0x378b2b36	1.6590213e-05
26	0x3920c628	0.00015332608
27	0x3900cde0	0.00012283726
28	0x37ed3635	2.8277844e-05
29	0x39928047	0.00027942864
30	0x3789e26a	1.6437105e-05
31	0x3968bf8d	0.00022196602
32	0x39527edd	0.00020074421
33	0x381abf93	3.689488e-05
34	0x39f2fe9c	0.00046347536
35	0x378615bc	1.5984166e-05
36	0x398319e7	0.00025005566
37	0x3943a70e	0.00018658882
38	0x3805551e	3.1788943e-05
39	0x39fbda58	0.0004803713
40	0x37bc887f	2.2474907e-05
41	0x38b37749	8.557604e-05
42	0x37cf30db	2.4699073e-05
43	0x37aa1d43	2.0279205e-05
44	0x3907e371	0.00012959332
45	0x369c2162	4.6530486e-06
46	0x37810b97	1.5383395e-05
47	0x3873d0df	5.813024e-05
48	0x3701d263	7.737984e-06
49	0x3842538b	4.633101e-05
50	0x38092f93	3.2707652e-05
51	0x39735b5a	0.00023208317
52	0x38fdd541	0.00012103702
53	0x38212cf5	3.842726e-05
54	0x39ee14b1	0.00045410314
55	0x3840a713	4.5931967e-05
56	0x38898622	6.557653e-05
57	0x37942a80	1.7662765e-05
58	0x37f9a259	2.9758712e-05
59	0x391de633	0.00015058443
60	0x37f0810a	2.8670318e-05
61	0x3943af3c	0.00018661929
62	0x38f80cc5	0.0001182794
63	0x38073843	3.2238906e-05
64	0x39b96663	0.00035362234
65	0x380ccf94	3.3571923e-05
66	0x39858cd3	0.0002547266
67	0x3918488e	0.00014522878
68	0x38241cb8	3.9127393e-05
69	0x3a059841	0.0005096235
70	0x37b095e2	2.105063e-05
71	0x37d80f9e	2.5756479e-05
72	0x38d9339a	0.00010356978
73	0x374a2ffe	1.2051312e-05
74	0x38829db9	6.228261e-05
75	0x37beeb63	2.2759375e-05
76	0x3873a0a4	5.8085323e-05
77	0x38e208ca	0.00010778157
78	0x37b6ba92	2.178297e-05
79	0x38effa0c	0.00011442983
80	0x37b3ae63	2.1419668e-05
81	0x38e940d1	0.00011122379
82	0x3917d666	0.00014480352
83	0x37c0d7fd	2.2988761e-05
84	0x396b412f	0.00022435629
85	0x37d51659	2.5401985e-05
86	0x39556d68	0.0002035402
87	0x38edda82	0.00011341741
88	0x37e59a63	2.737082e-05
89	0x39bcbc28	0.00035998342
90	0x3713730c	8.788669e-06
91	0x37804caa	1.5294489e-05
92	0x37ac13ae	2.0513162e-05
93	0x36994c6a	4.568651e-06
94	0x37ccf08a	2.4430705e-05
95	0x37a31aed	1.9443652e-05
96	0x37facb46	2.9896979e-05
97	0x38a9d7eb	8.098766e-05
98	0x37a35096	1.946864e-05
99	0x388821f3	6.491309e-05
100	0x37995b17	1.8281438e-05
101	0x398d964c	0.00027005596
102	0x3954c452	0.0002029103
103	0x37f29367	2.8917288e-05
104	0x3a0de7c7	0.00054132607
105	0x38793bb7	5.942184e-05
106	0x39908ec5	0.00027572192
107	0x38fa0b1b	0.000119229975
108	0x3892be2c	6.997245e-05
109	0x3a38a068	0.00070429454
110	0x37a20a35	1.9316658e-05
111	0x3994c813	0.00028377827
112	0x396be1dc	0.00022495486
113	0x38021b0b	3.10196e-05
114	0x3a1590b0	0.0005705459
115	0x37c80981	2.3846284e-05
116	0x39944e1a	0.0002828695
117	0x393687a2	0.000174074
118	0x381264d7	3.4903027e-05
119	0x3a142880	0.0005651787
120	0x36df976d	6.663546e-06
121	0x3884ecc1	6.338349e-05
122	0x38088e25	3.255731e-05
123	0x37361c25	1.0854598e-05
124	0x38d86bbc	0.0001031975
125	0x373b3d52	1.1160346e-05
126	0x39026e07	0.00012438754
127	0x3906f2d9	0.00012869704
128	0x37d8e2cd	2.5854819e-05
129	0x3988c935	0.00026089852
130	0x3759cb5a	1.2981554e-05
131	0x393ae95c	0.00017825275
132	0x39233779	0.00015565557
133	0x380a4c76	3.2972974e-05
134	0x39c21e59	0.00037025174
135	0x373ca0ae	1.1243084e-05
136	0x395cf264	0.00021071133
137	0x392e4984	0.0001662132
138	0x37ed34d1	2.8277196e-05
139	0x39cbb5f0	0.0003885473
140	0x365e80c2	3.3155525e-06
141	0x37f9ac7b	2.976343e-05
142	0x380c892f	3.3506363e-05
143	0x36d279b0	6.272654e-06
144	0x38646ce3	5.4460845e-05
145	0x3694b3b8	4.4316657e-06
146	0x38009b5b	3.0662264e-05
147	0x3817e390	3.621314e-05
148	0x376a0709	1.3949125e-05
149	0x38940a9d	7.059167e-05
150	0x37f95e6d	2.9727084e-05
151	0x393dabd0	0.0001808845
152	0x380e281e	3.38928e-05
153	0x389ba473	7.421607e-05
154	0x395ce898	0.00021067483

exp_avg f4 [31]
0	0xbe1f0260	-0.1552825
1	0xbe2bbc96	-0.16771159
2	0xbe00e9ff	-0.12589262
3	0xbe093895	-0.1340049
4	0xbc6909fa	-0.01422357
5	0xbd80a29b	-0.062810145
6	0xbde2a8b3	-0.11067333
7	0xbde2a248	-0.11066109
8	0xbcba683f	-0.022754787
9	0x3d7d90e9	0.061905775
10	0xbddc064b	-0.10743388
11	0xbd978b11	-0.07399572
12	0xbda6b3bf	-0.081397526
13	0xbdffbb2a	-0.124868706
14	0xbba65aeb	-0.0050767562
15	0xbc8b358d	-0.016993308
16	0xbd62853f	-0.055302855
17	0xbdbce523	-0.09223392
18	0xbbd6e74c	-0.0065583345
19	0x3c099fc7	0.00839991
20	0xbe165788	-0.14681828
21	0xbe483890	-0.19552827
22	0xbe193b41	-0.1496401
23	0xbe151f5e	-0.14562747
24	0xbc3f9ae8	-0.011694647
25	0xbdaac9fd	-0.083393075
26	0xbdcef58d	-0.10105429
27	0xbdc5f22d	-0.09665332
28	0xbc89406a	-0.016754348
29	0xbc31ca55	-0.010851462
30	0x3dcaea14	0.09907928

exp_avg_sq f4 [31]
0	0x3bb271ec	0.0054457095
1	0x3b90e0b3	0.0044213175
2	0x3b97b396	0.0046295626
3	0x3b9b0c29	0.004731674
4	0x3a5a18db	0.0008319744
5	0x3b2e419c	0.00265894
6	0x3b9f5927	0.0048629227
7	0x3b9befc4	0.004758807
8	0x3a52d16d	0.0008042071
9	0x3a18f24c	0.0005834445
10	0x3b8aaa73	0.004231745
11	0x3a4ab020	0.0007731933
12	0x3b66295c	0.0035119867
13	0x3ba350e5	0.0049840086
14	0x3a1ede92	0.0006060387
15	0x3ab93873	0.0014131203
16	0x3b1ee959	0.0024247973
17	0x3b3f0867	0.0029149295
18	0x394e7f93	0.00019693216
19	0x3a4e03f5	0.0007858866
20	0x3baf7dda	0.005355579
21	0x3bb51f04	0.005527379
22	0x3bbc73d5	0.005751113
23	0x3baee5b5	0.005337442
24	0x3a4f5dab	0.0007910381
25	0x3b3dafc1	0.0028943869
26	0x3b80622e	0.003917954
27	0x3b877073	0.004133278
28	0x3a26be5b	0.00063607626
29	0x3a4a2bb9	0.00077122037
30	0x3ae8d1d4	0.0017762729
